code/model_sol_backups/model_sol_27.pt (torch, 635426 bytes, 158 tensors)

weight f4 [32, 2]
00000000: da7f 47be 6570 6fbe 688d bdbe 5beb 243f
00000010: 1913 2a3f 907c 9bbe a085 d93d f359 d33e
00000020: 01d3 1b3f 2f97 1e3f e61e 893e e311 babe
00000030: 855b 14bf 073e 413e 4038 143f e9b4 8ebc
00000040: ef04 303f d5cb 2cbf 5fd9 07bf e80b 8c3e
00000050: 0e9d d93e 8e01 71be e4a7 edbe f26d 34be
00000060: c7e9 403e 3e08 9e3d ab85 813d 79c5 23bf
00000070: f491 253f 75d1 073d c099 943e 615d 17bf
00000080: cffc bbbe 410c e0be 408c f23c 168b 103f
00000090: d777 823e 493b 14bf 49ce a7be 8be2 293e
000000a0: 8889 2c3f 4abd 813e c6af 2abf e33a 1fbf
000000b0: 99e1 93be 791c 413e eddc 43bd 010b 9fbe
000000c0: 052f df3e 4a8f 5ebe 79b5 c4bd 2bb9 7d3e
000000d0: c7f1 fcbe f0e6 073f e6c9 f93e 31c9 00be
000000e0: a296 21bf 86d8 f9be ca9d a0be 85e0 23bf
000000f0: f8cd be3e 4346 9dbe dc45 243f c75d 1bbe
-0.19482365 -0.23382719 -0.37021947 0.64421624 0.6643539 -0.3036847 0.1062119 0.41279563
0.6086884 0.6194944 0.26781386 -0.3634177 -0.5795215 0.18871318 0.5789833 -0.017420249
0.6875753 -0.67498523 -0.53066057 0.27352834 0.42502636 -0.2353575 -0.46417153 -0.17620066
0.18839179 0.07716416 0.06324323 -0.63973194 0.6467583 0.03315874 0.29023552 -0.5912686
-0.36716315 -0.4375935 0.029607892 0.5646223 0.25482056 -0.5790296 -0.3277457 0.16590326
0.67397356 0.2533973 -0.6667446 -0.6219923 -0.28883055 0.18858518 -0.047818113 -0.31063083
0.4359056 -0.21734348 -0.09604926 0.24777667 -0.4940321 0.5308676 0.4878685 -0.12576748
-0.6312047 -0.48798007 -0.31370384 -0.64014465 0.37266517 -0.30717668 0.64169097 -0.15172492

bias f4 [32]
00000000: 4dcb 2c3e 49ba 31be ca7c 093f 258f ccbd
00000010: ab3d 5f3e 5bb4 e73e 6182 1ebf eba2 8d3e
00000020: 37ce 3e3e 0982 b4be d876 a8be c664 02be
00000030: 06bc 4f3e feaf ee3c 1a2c 753e 63d7 40bc
00000040: c079 0dbe 37a9 d33e 5b86 04be 3567 1d3f
00000050: 5976 c83e c366 0f3f a09d bbbe a2dd 07bf
00000060: ca3e c0bd d674 333f c6f3 f83d 9cb3 353d
00000070: 2ebe 283f 2e29 13be 7af0 ed3e b363 93be
0.16874428 -0.17356218 0.5370604 -0.0998824 0.21800868 0.45254788 -0.6191769 0.2766336
0.18633352 -0.3525546 -0.3290317 -0.12733755 0.20286569 0.029136654 0.23942605 -0.011770102
-0.13815975 0.41340038 -0.12941878 0.61485606 0.39152792 0.56016177 -0.36643696 -0.5307256
-0.09386976 0.7010015 0.12155871 0.044360742 0.6591519 -0.14371178 0.46472532 -0.28787002

weight f4 [128, 32]
00000000: ba93 0c3e 1d98 f4bd 802a 7abc 7598 243d
00000010: 7730 dfbd 6159 c1bd 8545 e73d 45fb 5a3d
00000020: 1193 f73d c83f 9bbd ba6d 42be ceed b3bd
00000030: d144 e8bd cdae 4c3c 809a 3abe 50c2 03be
00000040: f1f0 eabd a6ce 413d a991 bbbd 2a50 a33d
00000050: 55eb 1d3e efb4 aabd 0dc0 02be db6c a53c
00000060: 1be1 1dbe 302b 313d 1b35 0d3e 7504 f73d
00000070: a296 1bbe a0de 80bd b6e4 f5bc a0c2 6e3d
00000080: 20d9 0f3e d12b 773d e558 7abd 0466 0cbe
00000090: 61ed ee3d c70d bebd bdd4 f83d c2c0 05bd
000000a0: ecd1 8d3d 66aa debb 1cd5 56bd f371 fbbd
000000b0: 31bb 39be 2ad7 fabb a843 173e f7a5 803b
000000c0: 1bae 0e3e 76e8 f6bc 7a4d f73b 590a babd
000000d0: 14ec fc3d 0204 0b3d d369 073e 50e1 ee3d
000000e0: 9446 033e efcd 9b3d 6d6a 1a3c 24ea 12ba
000000f0: df5f 343c 8a4d 90bc f493 d2bd 6f01 e93d
00000100: a272 15be 921e 1ebc 57b8 3539 3605 27be
00000110: 5a1b b7bd a13f 063e 093a 8f3d fd5b 283e
00000120: dc91 5f3d 2495 c93d b920 013d 0b76 343e
00000130: 32ed 143e ec36 d03c b630 71bd 42d8 b43d
00000140: 8659 b2bd 2261 0abe 30c5 d63d 7f05 ebbd
00000150: e380 1b3d 3004 a5bd ed21 6c3d 25e5 1f3d
00000160: 4664 dbbd a849 cfbc 39b5 163c 64a6 1e3e
00000170: bed4 b4bd 4cb5 8cbd c271 043e f247 05bc
00000180: ee98 f0bd d654 343c 0932 403e ad66 38be
00000190: 8012 18be a541 67bd f9f4 0abd 6f87 8cbd
000001a0: 7565 cd3c 7d14 fc3d 8930 e1bd 6788 c93d
000001b0: 5ac4 1dbc aec4 1a3e ada4 fe3b c374 993b
000001c0: a33c 223d 1f62 713b 2ed5 273e 490b c03c
000001d0: 13ed 0bbe c17f 033c fdac 08be 9622 35be
000001e0: 18fd 193e 182d b43d d54f 093e 6ccc 093d
000001f0: 466d 223d fdd8 35be 0b41 12be ecac d0bd
00000200: 2a37 a4bd 96fd 04be f1d1 8d3d 4ef2 a5bc
00000210: 5fb0 fcbd 2306 51bd 1fd5 233c ac2b 12be
00000220: ddfe 233e a63c ee3d 88dd 743c 999e 2fbe
00000230: 8bc9 a73d 6771 c6bd 7541 88bd 6f08 0bbe
00000240: b3a0 2b3e 0a79 19bc a984 9f3c 5a89 353e
00000250: a5cc 103e 5d3f acbd bb1a 74bd 92d6 6f3d
00000260: c1b3 c5bc 4074 81bc 401c 303e 7bb1 023e
00000270: d227 163e 5bfc 923d 79c8 04be 6f04 97bd
00000280: 5f9e 19be 67d8 a5bd 20bf 3bbd e262 113e
00000290: 366c 2a3c 535b 2abe 8e39 febc 8900 f33d
000002a0: 83d4 96bd 6ac0 0a3e 1491 2bbe e70d 89bb
000002b0: 691a be3c f7b5 63bd 4e3d 31be 78bc e9bb
000002c0: 9ee6 813d d719 123d c6cb efbd 9056 e8bd
000002d0: 7417 05be 1a03 143e 2746 343c bb16 b63c
000002e0: e30f ef3d 6264 5cbc d55c 193e 2c8b 513d
000002f0: 56fc 003e 8bd8 26be e8c6 f73d d36e 1fbe
00000300: 8e58 11be 27dc 783d 849c a9bd 4576 3abe
00000310: fd27 a93d aa2c 1e3e 8475 f43b 1af8 99bd
00000320: 9abd e1bd 2f60 013e b80a c63d f5a3 b03d
00000330: 2265 bbbb 2f7c 343e 1fb9 093c 28af 153e
00000340: 86e3 1abe 86d4 07be 20ed c03d 876b 1c39
00000350: 87ba 1d3e 7a14 a43d 8631 2dbb 1d52 223c
00000360: d1f3 333e af7e a5bd 88d3 7339 5edc 8abd
00000370: 0023 c33d a7d9 763d 663b 1fbe 14a4 f8bd
00000380: ed06 32be c0fb f1bd 8062 303c acf7 65bd
00000390: 5bad 05be f450 103e 097b 20be ebfc 493c
000003a0: 6a9c e53d 5112 f53d 4d3d bebd 8295 1f3e
000003b0: ae56 243c 7669 81bd 6b83 e1bd 1c94 b0bc
000003c0: 054f ad3d fbb1 a8bd 936a ad3c 619d 603d
000003d0: b2b4 05be 4ae5 acbd 3f1d 1b3d 5e90 2b3c
000003e0: 6dd5 dabd 2020 07be 89f8 d33d 4fa5 0f3e
000003f0: fedd 9abd 8b66 0bbd 1a53 75bd a0cf abbd
0.13728228 -0.11943076 -0.015268922 0.040184457 -0.10897916 -0.09440876 0.11292557 0.053462286
0.120885976 -0.07580525 -0.1898717 -0.08785592 -0.11341251 0.012492848 -0.18223 -0.12867093
-0.11471737 0.047316216 -0.09158642 0.079742745 0.15421803 -0.083352916 -0.12768574 0.020193508
-0.15417902 0.043254077 0.1378979 0.12061397 -0.1519418 -0.06292462 -0.030016284 0.058291078
0.1404767 0.06034452 -0.061119933 -0.13710791 0.1166637 -0.092799716 0.121499516 -0.03265453
0.06924805 -0.0067952154 -0.05244933 -0.122775935 -0.18137814 -0.007655044 0.14771903 0.0039260346
0.13933603 -0.030140143 0.0075470777 -0.09084005 0.12349716 0.03393937 0.13223962 0.11664069
0.12819892 0.07607638 0.009424788 -0.00056043477 0.011009186 -0.017615099 -0.10282126 0.113772266
-0.1459451 -0.009650843 0.00017330177 -0.16310582 -0.08940764 0.1311021 0.06993491 0.1644134
0.05458246 0.098428994 0.031525347 0.17623155 0.14543608 0.025416814 -0.058884345 0.088303104
-0.087084815 -0.13513616 0.10486829 -0.11475658 0.037964713 -0.08057439 0.05764954 0.03903689
-0.10712485 -0.025303677 0.00919848 0.1549316 -0.0882964 -0.06870517 0.1293402 -0.008134829
-0.11747919 0.011006555 0.18769087 -0.18007918 -0.14850807 -0.056459088 -0.03392503 -0.068617694
0.025072793 0.12308595 -0.109955855 0.0984047 -0.009629333 0.1511409 0.0077710957 0.0046831085
0.03960861 0.0036832166 0.16389915 0.023442881 -0.13664655 0.008026064 -0.1334724 -0.17688975
0.15037954 0.087976635 0.1340936 0.033642218 0.039654993 -0.17758556 -0.14282624 -0.10189232
-0.08018334 -0.1298736 0.06924809 -0.020257141 -0.123383276 -0.051031243 0.0099995425 -0.14274472
0.16015191 0.116326615 0.014945395 -0.17150344 0.08192738 -0.096895985 -0.0665311 -0.13577436
0.1676052 -0.009367237 0.019472437 0.17728177 0.14140566 -0.08410523 -0.059595805 0.05855424
-0.024133565 -0.015802503 0.17198277 0.12763016 0.14663628 0.07177039 -0.12967099 -0.073738925
-0.1500182 -0.08097916 -0.045836568 0.14197877 0.010401776 -0.166364 -0.031033304 0.118653364
-0.07364752 0.13549963 -0.16754562 -0.0041825655 0.023205953 -0.055593457 -0.17308542 -0.007133063
0.06342815 0.035669174 -0.117087886 -0.113446355 -0.12997228 0.14454308 0.011003054 0.022227636
0.11672952 -0.0134516675 0.14976819 0.051158115 0.12596259 -0.16293542 0.12098485 -0.1556962
-0.14193937 0.06075683 -0.08281806 -0.18209179 0.0825958 0.15446725 0.007460298 -0.07518025
-0.11022492 0.12634347 0.09670013 0.08625022 -0.005718843 0.17625497 0.008405953 0.14617598
-0.15125856 -0.13264665 0.09420228 0.00014917376 0.15403186 0.08011718 -0.0026427223 0.009907273
0.17573477 -0.080808036 0.00023253087 -0.06780313 0.0952816 0.060266163 -0.15550002 -0.121406704
-0.17385454 -0.118155956 0.010765672 -0.0561444 -0.13054411 0.14093381 -0.15671934 0.012328367
0.11211474 0.11966384 -0.09289036 0.15584376 0.010030432 -0.06318943 -0.11011394 -0.021554999
0.084623374 -0.08237072 0.021168983 0.05483759 -0.13057211 -0.08442171 0.037869688 0.010471432
-0.10685239 -0.13195848 0.10350139 0.14027904 -0.07561873 -0.03403334 -0.059893705 -0.08389211

bias f4 [128]
00000000: b137 a43d bfa3 04bd f0c2 2e3e 3b50 dcbd
00000010: 20a9 c7bd 1e57 943d 11c5 c63d 24d2 26bd
00000020: 8e2a 28bd 085f bfbc 7adc 90bd 5c8c 0d3d
00000030: 974d a7bd 1809 193e f263 2ebd 3f23 123e
00000040: 2fe0 4bbd 96a7 80bd 1a3c 0d3e 8a4a 373d
00000050: 7d59 2dbe 6148 b2bd c263 0c3e 03a3 51bd
00000060: 60d3 16be a6bc 25be df1c 263d 6d8f 313e
00000070: 7bea ecbd 56a2 2abc 9fc3 403d 25d4 20bd
00000080: c1cd 2b3c 9699 50bd f51d 993d 2ff3 853d
00000090: 5d12 27bc 2ab6 21be 50a7 093e 6504 f03d
000000a0: 0e49 413e 5bc5 013d e385 9b3c c6da ed3d
000000b0: 3df6 87bd 7929 3dbd 0810 4c3d 57d3 f43d
000000c0: c9a2 dbbd 54ec e8bd 8429 d43c bf6d a63a
000000d0: 153a ae3d c969 2fbe 9cb8 c73d a5b3 2dbc
000000e0: b610 14be 453a c33d a992 6b3d 13ee b43d
000000f0: 6795 63bd 9abd 54bd 156d bfbd 2d33 bc3c
00000100: 88ca 4fbd 3cc4 0b3e c68a febd 7f39 35be
00000110: ac7a 37be f92c 1fbe 0fc9 e0bd d555 cdbb
00000120: acfa 093c ab1e f73c 18ed f6bd 1c5d 8a3d
00000130: 4f0b a23d eebd 183d c462 31be 528a 34bd
00000140: 7e3a 03be 5e50 083e 33ca f9bd 5180 2fbe
00000150: 4163 29bd 4ff1 2f3e c872 a13d 8630 523d
00000160: dbd0 05be 8459 24be 353e 87bd e292 b13d
00000170: 61e8 e13c 7b96 de3d 8301 be3d 929c 0b3e
00000180: cc4a d13d 595a 0bbe 4539 9b3d 2036 5abd
00000190: a961 903d cf14 d03d e8c3 20be 6c25 01bd
000001a0: 0623 3e3d aa0a f73b ffbf e93d f9fb 0ebe
000001b0: f3d0 cc3d 7087 e6bd 3479 2fbb b491 463c
000001c0: 73e2 1e3d d959 1f3e cdaa c03c bf5b 3d3e
000001d0: 4670 b6bc 436e 5a3d d969 0fbe e6db 1f3e
000001e0: 2786 60bd e62f 0bbe 4b42 a53d 2e2f 0bbe
000001f0: 6125 f939 efe5 2e3d b24c fa3d 4921 293e
0.08018435 -0.032382723 0.1706655 -0.1075749 -0.09749055 0.07243179 0.09705556 -0.04072775
-0.04105621 -0.023360744 -0.070733026 0.034557685 -0.08169096 0.14944875 -0.042575784 0.14271258
-0.049774345 -0.062819645 0.13792458 0.04474882 -0.16928668 -0.087052114 0.1370993 -0.05118085
-0.1472907 -0.16185245 0.040554877 0.17339869 -0.11568161 -0.0104146805 0.04706156 -0.039264817
0.010486067 -0.05092772 0.07476417 0.06540524 -0.010197249 -0.15792146 0.13442731 0.11719588
0.18875524 0.031682353 0.01898474 0.11613993 -0.06638763 -0.04618213 0.049819976 0.119543724
-0.10724408 -0.11373201 0.025898702 0.0012697502 0.08507172 -0.17130198 0.09752008 -0.010601913
-0.144595 0.095325984 0.057512913 0.088344716 -0.055562403 -0.05193863 -0.093469776 0.022973621
-0.05073026 0.13649076 -0.12428813 -0.17697714 -0.1791789 -0.155445 -0.10975849 -0.0062663355
0.008421581 0.03016599 -0.12056941 0.067560405 0.07912313 0.037290506 -0.17322832 -0.044077225
-0.12815282 0.13311908 -0.121967696 -0.17138793 -0.04135442 0.17181896 0.07883221 0.051315807
-0.13067953 -0.16049773 -0.06603662 0.08670594 0.027576627 0.108685456 0.09277632 0.13633946
0.102193445 -0.13608684 0.07579283 -0.053274274 0.07049877 0.10160219 -0.15699732 -0.03152983
0.04642012 0.007539113 0.114135735 -0.13963307 0.100007914 -0.112563014 -0.0026775124 0.012119699
0.038790178 0.15561618 0.023518944 0.1849203 -0.022270333 0.05332781 -0.14005221 0.15611228
-0.054815438 -0.1359249 0.08069285 -0.13592216 0.0004752083 0.04269975 0.1222166 0.16516604

weight f4 [32]
00000000: a561 803f 7767 7c3f afef 7e3f 7dd1 823f
00000010: 1c20 803f 82fa 7b3f 59f5 7b3f bc62 7d3f
00000020: 5fe1 7c3f a84b 7c3f 11e0 7b3f 826a 7d3f
00000030: 6e6a 7d3f 8bc2 803f 3a32 7a3f c1ea 803f
00000040: 92a1 753f 28d2 823f dd96 803f 54d1 7e3f
00000050: 5423 783f b5d5 783f 3287 803f e2fa 813f
00000060: 5d04 7d3f f88c 7e3f 6e0c 7d3f 8026 803f
00000070: 33da 7f3f 11e6 7c3f e3d6 7a3f affc 7c3f
1.0029799 0.98595375 0.9958448 1.0220181 1.0009799 0.9842912 0.98421246 0.9897878
0.9878139 0.9855294 0.98388773 0.98990643 0.98990524 1.005937 0.9773289 1.0071641
0.9594966 1.0220385 1.004604 0.9953816 0.96928906 0.9720109 1.0041258 1.0154688
0.9883478 0.9943385 0.9884709 1.0011749 0.9994232 0.98788553 0.9798414 0.98823065

bias f4 [32]
00000000: bb7f 5d3c 8cb0 1bbc 00a2 42bd c639 5d3c
00000010: 0dc4 1fbd 4f51 8fbc 378d 1bbc fbb7 aebc
00000020: e064 40bd 2fc6 e63c be2c 98bc 33be 49bc
00000030: 213c 22bd 0a52 6dbc 48dd 443c d76a 043c
00000040: 6b54 563c c6be a23c 4f94 b23c 385c 493d
00000050: 63f3 2bbd aa68 88bc 16a8 b73c 63f3 d4bb
00000060: 0535 13bd 0b6f c73b a677 58bc 4fce 6ebc
00000070: 9fc2 55bc 1220 79bc b5c8 11bd 3b3a bfbb
0.013519223 -0.009502541 -0.047517776 0.013502544 -0.039005328 -0.017494826 -0.009494117 -0.021327963
-0.046971202 0.028170673 -0.018576022 -0.012313413 -0.039608125 -0.014484892 0.012015648 0.008082113
0.01308165 0.019866358 0.021799235 0.049160212 -0.04198016 -0.01665147 0.022419017 -0.0064987405
-0.035939235 0.0060862354 -0.01321212 -0.014575555 -0.01304689 -0.0152054 -0.0355918 -0.005835799

running_mean f4 [32]
00000000: 7f61 513d 726f 08bb c1e7 093f 2ed0 8a3d
00000010: 0a8b 0b3f 7f3a bb3e a4f2 25bf c445 bc3e
00000020: c737 6a3d fe77 afbe 6a8b afbe 19ef 89be
00000030: fe6b 863e 50ec 44be 7672 b83e 3ee4 35be
00000040: f899 b7be 028c 1f3f fde8 97be b5aa 1e3f
00000050: 1cd1 183f 82b5 633e 8f77 b1be a4cf 26bf
00000060: 3913 cbbd 294a 463f 1cad 6c3e 9198 a53d
00000070: c86b c03e af79 dbbe ba06 d53e cc7e 70be
0.05111837 -0.002081838 0.53869253 0.067779884 0.5450903 0.36568066 -0.64823365 0.36771977
0.0571821 -0.34271234 -0.34286052 -0.2694023 0.26254267 -0.19230771 0.36024827 -0.17762849
-0.35859656 0.6232301 -0.29669943 0.6197923 0.59694076 0.22237208 -0.34661528 -0.65160584
-0.09915776 0.7745691 0.23112911 0.0808574 0.3758223 -0.42866275 0.41606694 -0.23485869

running_var f4 [32]
00000000: 6319 773c b460 233e 9469 173e a673 143d
00000010: bdc6 f83d 40b6 753d 16c3 c93d 4820 9d3d
00000020: 0dbc 8c3e 385c cd3d ea30 893d 3e6b 363d
00000030: 1142 f13b 30f0 cf3d 57d2 ba3d 88ca fc3d
00000040: 9b6b 593d dd9d 933d da64 e63d 852d 1b3d
00000050: 0521 c03d 38f1 083e 50cb 0c3d e195 ab3c
00000060: c82a 883d 8644 a03c 0b8d 1f3e 5f02 863d
00000070: 6b5d d33d e4a9 b83d 7a88 8c3d cb6b e33d
0.015081736 0.15954858 0.14786369 0.036243103 0.12147281 0.05998826 0.09851663 0.07672173
0.2748722 0.10027355 0.06698783 0.044535868 0.007362612 0.10153234 0.091221504 0.12343317
0.053081136 0.072078444 0.11249705 0.037885208 0.09381298 0.13373268 0.03437358 0.020945491
0.06648785 0.019563925 0.15581147 0.06543421 0.103205524 0.09016779 0.06861968 0.11104544

weight f4 [32, 3]
00000000: 2d52 20bf defb 3b3e dddf c13e 8031 9c3e
00000010: 102f 40be 9502 5fbd 3ffb 853f 695d 00bf
00000020: 8aef 8a3e 152d 9a3f 6d5b 45b9 7eb0 0639
00000030: 11f6 23bf 90de 693e 2802 e73e db39 003e
00000040: f29f 243c 0c20 2abe a2bd 903e bb75 28be
00000050: 00e5 aabd f02a b63e a894 bfbe c591 06be
00000060: c3c3 c2be 3981 9a3e d28a b53e 4074 49be
00000070: de70 823e 9c12 ee3d efed 5abf f078 053f
00000080: 4bb8 653e 9eff 25be b02a b33e c40d b9be
00000090: ffd6 273f 7356 843e a6c1 d8be c1bf 02be
000000a0: 1221 bdbe b4ae 73be 6622 1f3f c5d8 84be
000000b0: eba1 61be 08e0 ebbd 63dd ffbe 9d15 003f
000000c0: 68e3 1e3f b163 58be 8fbc 93be 78e4 283e
000000d0: efc9 1fbf d981 44bc 825c 38bf e8a6 86bd
000000e0: 04e5 6c3e e439 853f f1f0 32bb 9a5e 7fbe
000000f0: c2ec ba3e cc84 e7be 21f9 06bf dbf8 1fbf
00000100: 3902 fcbe 2bc9 bd3d 7bf1 3bbf 55ee 733e
00000110: b7b0 173e 68e0 4dbe b7c5 073f c3a2 c4bd
00000120: e1fd 86bf 2f09 6dbe 9fa6 413e fb5e 2a3f
00000130: eb6c 383e cb64 05bf 1ccb 02bf 88b0 953e
00000140: 383e 173f 44be 7dbd a771 45bd 68d8 f23e
00000150: 0030 cabd 13e8 073f 1938 75be 622a f8bd
00000160: 905c 7b3e 46a4 bd3d a975 49bf 426b ed3e
00000170: 4291 023f 35af 4f3f dbef eebe 2401 80be
-0.6262539 0.18357798 0.37866107 0.30506516 -0.18767953 -0.05444582 1.0467299 -0.5014253
0.2713588 1.2045008 -0.00018821443 0.00012844984 -0.6404734 0.22838807 0.45118833 0.1252207
0.0100479 -0.16613787 0.28269678 -0.1645116 -0.083444595 0.35579634 -0.37418103 -0.13141544
-0.3803998 0.30176714 0.35457474 -0.19673252 0.25476736 0.11624643 -0.8551931 0.5213766
0.22433583 -0.16210791 0.34993505 -0.36143315 0.65562433 0.25847206 -0.42335242 -0.12768461
-0.36939293 -0.23797113 0.6216186 -0.25946632 -0.22034423 -0.1151734 -0.49973592 0.5003298
0.62065744 -0.21131779 -0.28854796 0.16493404 -0.624175 -0.011993849 -0.72016156 -0.065748036
0.23134238 1.0408292 -0.0027304257 -0.24938431 0.36508757 -0.45218503 -0.5272389 -0.624891
-0.49220446 0.09266885 -0.73415345 0.23821385 0.14813505 -0.20105135 0.53036064 -0.09601357
-1.0546228 -0.23148035 0.18911217 0.6655118 0.18010299 -0.5210692 -0.5109117 0.29236245
0.59079313 -0.06194903 -0.04820409 0.4743073 -0.098724365 0.5308849 -0.23947181 -0.12117459
0.24547029 0.09259848 -0.7869516 0.46370894 0.51002896 0.8112672 -0.4666737 -0.2500087

bias f4 [32]
00000000: e27f 953d 9389 f93e fddc 873e 3cc0 923d
00000010: 2b8f 8f3e 528b 0f3e e3e2 58be 673b efbe
00000020: 88e7 21be ee0f b4be 0644 bebe 0df0 aa3e
00000030: 80d5 c7be 5e1f b53e 21a9 b8bd 6171 0abf
00000040: bcc8 053f ab86 563e 6d8c e13e b271 633e
00000050: 828c 8fbe 6cd7 673d ea31 b83e d7af 803e
00000060: 2283 86be 4604 f53e bccb 92be ba58 9c3e
00000070: 59eb 6abe ccb7 da3d e276 1c3e 860e afbe
0.07299782 0.48737773 0.26535788 0.07165572 0.28038916 0.1401799 -0.211803 -0.46725008
-0.15810978 -0.35168403 -0.37161273 0.3338627 -0.39030075 0.35375494 -0.09016634 -0.5407925
0.5225942 0.20949809 0.4405245 0.2221134 -0.28036886 0.056601927 0.3597558 0.25134155
-0.2627192 0.47854823 -0.28671062 0.30536443 -0.2294134 0.10679588 0.15279725 -0.34190768

weight f4 [128, 32]
00000000: 4d71 ae3d 5900 833c 0dad f43d dce4 a53d
00000010: 51cd 093e 024d 973b 23ae 1f3d 5475 2cba
00000020: b53b 48bd 29ca f73d 114a eebd c17c e83d
00000030: a2d3 60bd 2464 f4bc da07 e0bd b1b4 32be
00000040: 1a53 703d f6e1 603d 9491 3ebe 7b63 b0b9
00000050: fa88 0cbe 320b d63c fbff 0bbe ebc4 163d
00000060: b666 603d f290 143e 5818 0cbe b86e ae3d
00000070: 646a 20be 7b36 0d3e 41a5 3e3d 9ec6 c3bd
00000080: 111d bb3d 148e 703d a13c a1bd 8d77 293d
00000090: d5fa 4c3d 0604 01bd bfed d3bd 18c3 6ebd
000000a0: f8a3 2a3e 3631 083e 42e6 00be d609 30be
000000b0: 9c5d 033e 44d8 29be 2e14 2fbe 3606 043e
000000c0: ff53 fa3d 091c 1cbe 0266 94bd 6f93 313d
000000d0: 7df1 073d ae30 27be d2fd 90bd 4693 96bd
000000e0: 3030 ea3d f23b aebd a683 b53d 5af5 97bc
000000f0: 98b4 0cbe 5f11 2abd 69e6 453d 3a44 0cbd
00000100: 22f4 7f3b 3db7 c7bd 469b 803d d685 4b3e
00000110: d6b6 8c3d ef8d 3abb 1452 06be db1e aa3d
00000120: 6d82 67bd 8139 44be dce2 af3d 9707 1a3e
00000130: 95c2 c5bc d281 b8bc d3d5 fb3d bcd7 003e
00000140: c6b8 2c3e 9b96 363e 4062 183e 5438 20be
00000150: b3bc 4bbd a401 0bbe 5440 3d3c 9f6d 323d
00000160: 597a 79bd f0f6 be3d e72c 24bd 7eee 163e
00000170: eedb 9c3d c826 c83d afd4 103e 8a05 9a3d
00000180: 6c1b b53d 3b67 3dbd 371e 2c3e 138d 26be
00000190: 1070 2bbe d4df 0dbe 54bb 1ebe 9933 93bd
000001a0: c1cd a3bd 2dc3 c23d 3a3c 84bd 83e5 bf3c
000001b0: 0c0b 65bd b3c8 103c 8200 c0bd 2832 d3bd
000001c0: a5a5 0a3e af23 fd3d c6ad 253e c8e4 9b3d
000001d0: 0e18 383c 954b ad3d 4ac2 153e 0437 973d
000001e0: 356c 243c c259 07be 62cc 173e 2b64 3d3d
000001f0: 0e8f 06be 9254 35be cea1 88bd 2a90 203e
00000200: d370 06be 0cc8 043e c042 103e a472 ac3d
00000210: 2ada 37bd 548e 40bd b2a9 69bd 220c fb3c
00000220: 7563 b73d aceb 3fbe 43ef 0fbe 9548 22be
00000230: f1e6 793d 3da4 533d d2f7 003e 5a80 07be
00000240: 7459 37be c7ea eabd dbd7 223e 624f b7bd
00000250: 71e1 abbd 1aec 343e 54ea 453d 97ea 1a3c
00000260: e57e f83b 3d83 0dbe 54ae 1fbe 9423 c73c
00000270: 4add 01be ea87 dd3d 38a5 1a3e 7b12 423d
00000280: b263 d8bd 2a94 aa3d 3847 2a3e ea2c 3b3e
00000290: dc1f ce3c e015 993b 4538 9a3b 7831 08bd
000002a0: 4839 18bd 318a c13a 2d3f eebd a21a e1bd
000002b0: 3e8a 2d3d a989 193d c30a 143e f08c e8bd
000002c0: 12f9 3bbd 3a8a f83d d20e 1f3e 8540 173d
000002d0: 82c3 26be f67c 1c3d f377 c539 4c7d 05be
000002e0: c975 bbbd 1ea4 edbd e20b 123e 1df1 0bbe
000002f0: 4e34 02be a4a0 013e 89c2 78bc a69c 4abc
00000300: 0808 f93d d97d aebc 8c5e 24be bf50 313e
00000310: bdbd 7a3c 817e db3d 8301 9ebd 2321 37bd
00000320: f18c a4bc 72e2 433d 9b03 6bbd aa66 03be
00000330: ef2c 953b 6de4 c7bd 8f8e 38bd 6592 8ebd
00000340: 4502 a7bd 434e a5bd 559e 0a3d a2ed a23d
00000350: dbb4 873b ecc6 ee3d 8404 f7bd 8edc 13be
00000360: 51af 9a3d 3a69 acbd 5ff8 54bc 73e1 b93c
00000370: 31b0 e83c ff89 e3bd aa0e 013e fa58 d33d
00000380: 695f e2bd 9542 06be 75c5 84bd d3ed ee3d
00000390: 514b 0f3d 2dc1 99bd edc2 0ebe 7418 17be
000003a0: 9570 9fbd d058 b3bd 406e e1bd ae5c 5ebc
000003b0: 64b3 8dbd 3abe 9fbd 90a8 38ba 62e0 1c3e
000003c0: 7ae9 b9bd a2cc 13be 064a debd 75e6 ea3c
000003d0: 3199 873a adb2 60bd 9fcf ac3c ce84 c739
000003e0: 130f 92bd 79f9 7cbd 0d9e d5bb 8321 2dbb
000003f0: 58f2 e2bd 16a8 1a3a eea5 e93d f91e 203e
0.08517704 0.015991377 0.11947069 0.08100292 0.13457228 0.0046173343 0.03898443 -0.00065787625
-0.048885066 0.12099106 -0.11635221 0.1135192 -0.05488933 -0.029832907 -0.109389976 -0.17451741
0.058673 0.054902993 -0.18610221 -0.00033643455 -0.13724127 0.026128385 -0.13671868 0.03680889
0.054785453 0.14508417 -0.13681161 0.08517212 -0.15665585 0.13790314 0.046544317 -0.095593676
0.09136403 0.058729246 -0.07872892 0.041373778 0.0500439 -0.031497978 -0.10348081 -0.058291525
0.16664112 0.13300022 -0.12587836 -0.17191252 0.12828678 -0.16586405 -0.17097542 0.12892994
0.12223052 -0.1524507 -0.07246019 0.043353494 0.033189286 -0.16327164 -0.070796624 -0.07352309
0.11434972 -0.085075274 0.088630006 -0.01854961 -0.13740766 -0.041520473 0.04831544 -0.034244753
0.0039055427 -0.09751747 0.06279616 0.19875273 0.06870811 -0.0028465947 -0.13117248 0.083066665
-0.056520868 -0.19162561 0.08588192 0.15041958 -0.024140636 -0.02252284 0.12296643 0.12582296
0.1686736 0.17830889 0.1488123 -0.15646487 -0.049740504 -0.13574845 0.011550982 0.043561574
-0.060907695 0.09324443 -0.040081885 0.14739415 0.07659136 0.09773022 0.14143632 0.07520588
0.08843121 -0.046241026 0.16808401 -0.16264753 -0.16741967 -0.13854915 -0.15501148 -0.07187576
-0.07998229 0.09509883 -0.064568 0.02342487 -0.05591874 0.008836913 -0.09375097 -0.10312301
0.13539751 0.12360322 0.1617957 0.07611996 0.011236204 0.08461682 0.14624897 0.0738354
0.010035564 -0.13217834 0.1482406 0.046238106 -0.13140509 -0.17708042 -0.06671487 0.15679994
-0.13128977 0.12966937 0.14087963 0.084203035 -0.04488579 -0.047010735 -0.0570466 0.030645434
0.08954517 -0.18742245 -0.14056115 -0.15848 0.06101126 0.0516703 0.12594536 -0.13232556
-0.17905217 -0.114705615 0.15902655 -0.08950688 -0.08392609 0.1766819 0.048319176 0.009455345
0.0075834864 -0.13819595 -0.15593845 0.024308957 -0.12682071 0.10816939 0.15102088 0.047380906
-0.1056589 0.08329041 0.1662873 0.18278852 0.025161676 0.004671797 0.004706415 -0.033250302
-0.037164003 0.0014765916 -0.116331436 -0.10991408 0.042368166 0.0374848 0.1445723 -0.11355007
-0.04589183 0.121357396 0.15532997 0.036926765 -0.16285518 0.03820511 0.00037664137 -0.13036078
-0.09153325 -0.116035685 0.14262345 -0.13666196 -0.12715265 0.12658936 -0.0151831 -0.012366449
0.12159735 -0.021300243 -0.16051692 0.17315958 0.015304026 0.10717488 -0.07715132 -0.044709336
-0.020086737 0.047823377 -0.057376485 -0.12832132 0.0045524756 -0.09760366 -0.04505783 -0.06961516
-0.0815473 -0.08071568 0.033842403 0.07955481 0.0041414327 0.11659035 -0.12061408 -0.14439604
0.0755297 -0.08418508 -0.012998669 0.02269051 0.028404327 -0.11110305 0.1260325 0.10319705
-0.11053354 -0.13111337 -0.064829744 0.11666455 0.034983937 -0.075075485 -0.13941546 -0.14755422
-0.07785145 -0.08757174 -0.11007357 -0.013571901 -0.06918982 -0.07799955 -0.0007044161 0.1531997
-0.09077735 -0.1443353 -0.108539626 0.028674344 0.0010345337 -0.0548579 0.021095095 0.00038055185
-0.071317814 -0.061761353 -0.0065190853 -0.002641768 -0.1108138 0.00058996805 0.11408602 0.15636815

bias f4 [128]
00000000: 0402 3cbd de70 123e 2903 243d b568 d4bc
00000010: 7d93 00be 3d57 adbd 50c0 14be f24c 0abe
00000020: 4a62 43bd cd04 90bd 75e8 1bbe 6226 123d
00000030: e6a5 fa3d 103e 803d d8f9 82bc 370e a3bc
00000040: 5ad3 d8bb 2fce 0b3d db8c eebd 0ec9 e6bd
00000050: f09f 213e 79e6 923d 09a7 71bc 0920 bcbd
00000060: 0928 903d 9b32 133e b5c2 5ebd 06a1 b23d
00000070: cf86 f73b ad1b 3f3c 7f48 4a3c 0224 0d3e
00000080: 59c3 acbc 3fe1 14be ba15 503d 9b9e 8ebd
00000090: 70b0 093e b80e 26be 08bb f43d c004 453e
000000a0: 4451 f63d aa33 9dbd f66c a83d 5585 7a39
000000b0: a8a2 473d 7dce 2f3d 3cd7 3ebd 7932 a7bd
000000c0: 430d 2bbe 4b08 7a3c 50f3 d73d 14bd e03d
000000d0: d494 e6bd 9462 89bd 9868 713d 8473 273e
000000e0: c6db 343e 4977 ef3d 9b63 53be bacd 533d
000000f0: 5ccf 98bb 2165 c9bd 5701 16bd fecd c9bd
00000100: 7e9e 823d a7d6 e73c cf15 c93d 6835 bfbd
00000110: 6f88 223b 562c 0b3e 2ed9 893d e2bf fcbd
00000120: 1a0f ae3d aba3 d6bd 3289 7d3d 3f06 14be
00000130: 7db2 113e 2aef 38be 073b 40bd b3e3 223e
00000140: bf8a f5bd 2955 0fbe a874 8bbd acfb 833d
00000150: f3c3 35be 4783 073e 4974 d4bd bb05 5cbd
00000160: 1a9f d13d efe1 b9bd 2c4c 2c3d 63fa 26be
00000170: 32ac 473e f1ba f73d abf6 25bd dc58 32bd
00000180: 67da 26bc 3e74 9b3d 10c7 4a3d a5ae 253d
00000190: 9333 88bd bcc0 45bd e12c 01be 0d07 4bbe
000001a0: 1802 ca3c f372 fbbd 4da7 ccbd 4d49 a03d
000001b0: 35ec 42bd ad28 573d c406 09be c683 97bd
000001c0: 03bb 9f3d f6f1 c63d b503 b53d fae3 d2bd
000001d0: 8f1b d0bd 104f 65bc 1102 7ebc 5850 bc3d
000001e0: 22f3 b73d c40a aebd f169 45be 846c ce3d
000001f0: b521 c63d 2d55 63bc 298b 4ebd d0ea 183e
-0.04590036 0.14300868 0.040042076 -0.025928834 -0.12556262 -0.08463905 -0.14526486 -0.13505915
-0.047701158 -0.07032166 -0.15225394 0.035681136 0.12238674 0.062618375 -0.015988275 -0.01990424
-0.006616992 0.03413218 -0.1164796 -0.11268817 0.15783668 0.071728654 -0.014749297 -0.09185798
0.07038886 0.14374773 -0.054384906 0.08722119 0.0075539122 0.011664313 0.012346386 0.13783267
-0.021089243 -0.1453905 0.05080197 -0.06963845 0.13446212 -0.16216552 0.11949736 0.19240093
0.12027219 -0.0767587 0.08223908 0.00023891528 0.048739105 0.042921532 -0.046591982 -0.08163924
-0.16704278 0.015260766 0.10544455 0.10973564 -0.112588555 -0.067082554 0.05893764 0.1635266
0.17661962 0.11692674 -0.20643465 0.051709868 -0.004663391 -0.09833742 -0.03662237 -0.09853743
0.06377886 0.028300596 0.09818613 -0.09336358 0.002480056 0.13591132 0.06730877 -0.12341286
0.08498974 -0.10480436 0.061898418 -0.14455508 0.14228244 -0.18059984 -0.046931293 0.15907173
-0.11989354 -0.1399733 -0.0680936 0.06444487 -0.1775053 0.13233672 -0.10373742 -0.053716403
0.10235424 -0.090762965 0.04206483 -0.16306452 0.19499281 0.12096203 -0.040518444 -0.043541774
-0.010183907 0.07590531 0.049506247 0.040449757 -0.06650462 -0.04827951 -0.12614776 -0.19826908
0.024659202 -0.12277784 -0.099928476 0.07826481 -0.047588546 0.052529026 -0.13381487 -0.07398181
0.077993415 0.09714119 0.08838598 -0.10297389 -0.101615064 -0.013995901 -0.015503422 0.09195012
0.08981921 -0.08498147 -0.19278695 0.100792915 0.09674398 -0.013875288 -0.050425682 0.14933324

weight f4 [32]
00000000: f4b1 763f 6945 723f 5813 773f c28a 8d3f
00000010: 00c6 723f 644f 783f 4164 6f3f 598d 803f
00000020: 3112 753f 9c73 723f 5463 7a3f 9fc9 733f
00000030: c783 7d3f 6774 773f 712f 753f 72aa 6f3f
00000040: ce4a 763f 77c3 753f bb0e 7c3f d996 723f
00000050: bb03 823f 67c0 743f 07ad 803f 5ba6 7b3f
00000060: 3b07 793f ccaf 723f 082a 7e3f 0b1d 813f
00000070: e13a 803f 1dac 7b3f 8975 743f f636 813f
0.96365285 0.9463716 0.9651389 1.105797 0.94833374 0.9699614 0.9351235 1.0043136
0.9573088 0.94707656 0.9780781 0.95229524 0.990292 0.9666199 0.95775515 0.93619454
0.9620789 0.9600138 0.98459977 0.94761425 1.0157388 0.9560608 1.0052804 0.98300713
0.9727666 0.94799495 0.99282885 1.0086988 1.0017968 0.983095 0.95491844 1.0094898

bias f4 [32]
00000000: 208f ad3b 2891 49bd eff3 26bd 60a7 913e
00000010: 2b5e 58bd a191 083c f7b9 d53b 9ca2 373d
00000020: 4b22 24bd 179b d7bc d64f a53c 005d a4bd
00000030: e95d 28bb 7ec5 653c 0ed9 133c 84ed c7bd
00000040: 83ce 983b 6616 02bd f09c cdbc 0dbe 4fbc
00000050: 9dc0 b83c 5a5e 073b 6bd1 f83c ffc9 7bbc
00000060: 7fed 16bd 2efd b5bc 0b9c 053c 1e10 c1bc
00000070: 16af c7bb 9bb3 2b3d a78e eebc d900 363d
0.005296603 -0.049210697 -0.040759977 0.2844801 -0.05282418 0.008335502 0.006522413 0.04483281
-0.040071767 -0.02631907 0.02017967 -0.08025551 -0.002569074 0.014024137 0.009023918 -0.097620994
0.00466329 -0.031759642 -0.025099248 -0.012679589 0.022552783 0.0020655603 0.030373296 -0.015367984
-0.036847588 -0.022215452 0.008154879 -0.023567256 -0.00609387 0.041919332 -0.029120756 0.044434402

running_mean f4 [32]
00000000: 0579 983f 2e40 9e3f 5127 9440 d2b5 943d
00000010: 9f72 c73f 2da4 5cbf 15fe 733e 0615 643f
00000020: 9e4a 223e 56f4 8fbf 9a02 02c0 7921 6cc0
00000030: 8704 88c0 44a9 8a3f 9876 f13d 0dad a340
00000040: 3eba 983d 1901 6a40 3c01 0840 71e0 96bf
00000050: c7e8 3abf f9ac 5640 76db 0dbe 1def 51c0
00000060: 325e 0740 3eb6 5fc0 3a49 b63f 3e59 5140
00000070: 1084 92c0 7d6e 3fbf 7316 e13e 9042 5d3f
1.1911932 1.2363336 4.6297994 0.07261242 1.5581855 -0.8618801 0.23827393 0.8909458
0.15848777 -1.124644 -2.0314088 -3.689543 -4.2505527 1.0832906 0.11790198 5.1148744
0.07457398 3.656317 2.1250753 -1.1787244 -0.7301144 3.3543074 -0.13853249 -3.2802193
2.1151242 -3.4954982 1.4241097 3.271072 -4.578621 -0.74777967 0.4396244 0.8642969

running_var f4 [32]
00000000: 4af3 7e41 f20f 3940 65ed 4841 0582 5138
00000010: b601 b941 b107 ed3f a630 3840 c59f 4541
00000020: d6f1 a141 88d0 cf40 5be7 d241 5d94 1541
00000030: 8aed 2541 7a82 8841 4423 2a41 f811 9341
00000040: 2794 3e41 e61f be41 3ed4 4840 ee36 8c40
00000050: a02e 3442 1ee1 4841 9a36 dd40 5066 6a41
00000060: 53ca 4f40 3d17 7a41 6fc3 1c42 84c8 6841
00000070: 8aed 5b41 5478 af40 524c 3142 fdae bf41
15.934397 2.8915982 12.557958 4.9950573e-05 23.125835 1.8517972 2.8779693 12.351506
20.243084 6.4942055 26.362967 9.3487215 10.370493 17.06371 10.63361 18.383774
11.91117 23.765575 3.1379542 4.3817053 45.045532 12.55496 6.912915 14.649979
3.246724 15.630673 39.190853 14.548954 13.745493 5.4834385 44.32453 23.960443

weight f4 [32, 136]
00000000: 571b 8a3d 69eb 9dbd 7857 b33d 8d5b 7cbb
00000010: fe07 b5bc a8ea 843d 39d4 86ba b6c7 533d
00000020: 47d7 83bd 143b d4bd 086a 833b 82a1 283d
00000030: 4292 30bd cd27 9b3c 70be 73bc fc07 38bc
00000040: 27ab 9dbc d2fc b6bd 8ad6 65bd eea2 b03c
00000050: 2c6a 86bb f9b4 e83c d0d8 1c3d b098 6cbc
00000060: 383e 87bd 12ca 353d a350 df3c ecf8 5e3c
00000070: 915a 3d3d 6632 10bd 37af 27bd 63a5 2a3d
00000080: bc90 7abd 1552 ea3b da6e 90bc 0073 38bd
00000090: 1d27 3cbd e276 5ebc b9d8 093d 2df0 7ebd
000000a0: f26a a03d 742e 14bd c34c ab3d 0242 1eba
000000b0: f215 a03c ba2f 9bbd 7abc 38bd 0496 6fbd
000000c0: f0fd 493d 4613 cbbd 8cab a9bb 4b96 3d3d
000000d0: 53fc a0bd 51dd 07bd cc1d 923c f2bf 843d
000000e0: aac6 983d 2e2a eb3a e118 75bb 2385 8e3d
000000f0: 097f 02bc a930 703b e091 54bd 28ad 41bd
00000100: 0cf7 423d cefb f4bc 7871 12bd 9c15 a03d
00000110: f70e 3abc a76a 83bd e91b 14bc 0070 a23d
00000120: 18af 363d 6648 e73c 7f3e 1ebd 499e 99bd
00000130: 8c65 2c3c 9285 7e3c 06fb 123d 77b4 813c
00000140: 8b32 e43c 62d8 9f3d aecf 46bd ec2b fc3c
00000150: 4347 82bd acfb 3a3d 6e83 b4bc 7501 b33d
00000160: fe03 e53c aee2 a1bd cc8f 8d3c b919 cebd
00000170: 4576 4e3d 70ba 4f3d b501 a63d 8dd9 933d
00000180: 43e8 7dbd 070c c5bc 422d 813d 3885 a93c
00000190: 1d42 823d b3de cf3d 624b 623d c9fc 833d
000001a0: 10aa 923c 10ff c3bd 6f1d 59bd 239f 3cbd
000001b0: 19cd a83d db58 b1bd 74d7 ad3d eb53 1dbd
000001c0: 2c57 70bc 7a6f 20bd 3268 303d 49d1 aabc
000001d0: e57b aeba a324 f9bc 20c2 993d 4f6e ab3c
000001e0: 5e40 453d 2d74 de3c 668d 60bc f8d9 1b3d
000001f0: 5ea3 dd3c e75b 903d b911 bc3d 658d 72bd
00000200: 39de 2abd 1d9a 103d fafe bebd 2446 f13a
00000210: a805 2dbd 3597 263d 3ab4 173c 2a51 d03c
00000220: 94f4 b6ba f6ad a2bd 8eaa 34bd 3638 9f3d
00000230: f5fc 8c3b 6a36 853c 7809 4ebc 7b2e 6b3d
00000240: 9353 96bd 4e06 7dbd 4916 59bd 3004 593d
00000250: beb6 263d 6cde 26bc af77 04bd 28c1 83bd
00000260: 53d7 4bbd 030f 663c ce0d 81bc 425c 573d
00000270: c3e1 963c 1fd3 c13c 2136 b1bc b19e 793d
00000280: 75ee b4bd 2e1f 3abd d33c a3bd b54f 803c
00000290: 90ce 3fbd ec33 203c aa52 c83d 2517 fb3b
000002a0: ebc5 3f3b cda0 a03d e935 5ebd 1bd1 573d
000002b0: a2bc 35bd 6d56 9ebc 82df 863d 1216 90bd
000002c0: 571e 813d ea14 7f3d f9a2 8c3c 5e50 413d
000002d0: da5c 263d cf4e 983d fe34 94bd c6ec 6fbd
000002e0: dbfd 18bc 7a24 bebc a821 e53b 74f9 9ebd
000002f0: 4f2f 7c3c 5f3e d93a ed78 53bd 72cb 56bb
00000300: 8520 69bd ffa3 2c3d 08a3 6e3d 7175 7d3d
00000310: 079c a0bd 0f38 81bd ac93 993d 5353 973d
00000320: afae 293d dfe3 24bc 65c2 ed39 6f66 0d3d
00000330: d191 aa3d ba89 22bc a777 bdbb d810 3f3b
00000340: d3e8 d1bb 1730 18bd 1be2 ae3d 0fa1 3ebd
00000350: eca3 ca3d 0209 b53d ae14 44bd b30c 99bd
00000360: 3a68 61bd 23f2 8c3c 7571 ed3c 4265 bb3c
00000370: ae92 293d 3f72 13bd b611 b1bd db4d 243d
00000380: ff7d 053d b1c8 9dbd 8de8 c1bd 2730 84bc
00000390: c90b 8e3c 4d0d acbd cba3 6b3c dbe5 22bd
000003a0: 3e20 69bd 3274 d53b 2176 2e3d 40a5 25bd
000003b0: 04b4 a6bc d79a 303d 9d38 76bd 6166 46bd
000003c0: ad03 82bd 671e 8f3d a20e 533d 0b5e 2b3d
000003d0: ae8a 973d bc48 c637 13f6 20bd 4231 623d
000003e0: 4691 4ebc 60e0 6dbc 5eff b7b9 d84f 36bd
000003f0: 77ff 64ba 21e2 1abd 6d17 1dbd 59c4 1d3d
0.06743496 -0.077109165 0.08756918 -0.0038506717 -0.022098538 0.0649007 -0.0010286636 0.05170413
-0.06437545 -0.10362831 0.0040104426 0.04116965 -0.043108232 0.018939877 -0.014876947 -0.011232372
-0.01924665 -0.089349404 -0.056112804 0.021562066 -0.004102012 0.028406607 0.038292706 -0.0144407
-0.06603664 0.044382162 0.02726013 0.013609152 0.04622895 -0.035204314 -0.040938582 0.04166163
-0.061173186 0.007150898 -0.017630983 -0.045031548 -0.04593574 -0.013578149 0.03365395 -0.06224077
0.07832898 -0.036177114 0.083642505 -0.00060370576 0.019541714 -0.075774625 -0.04510162 -0.058492675
0.04931444 -0.099157855 -0.0051779207 0.04628591 -0.07860627 -0.03317005 0.017836474 0.06481923
0.07459767 0.0017941648 -0.0037398862 0.069589876 -0.007964858 0.0036650097 -0.05189693 -0.047284275
0.047598884 -0.029905226 -0.035752743 0.07816622 -0.011356107 -0.06416827 -0.009039857 0.079315186
0.044600576 0.028232764 -0.03863382 -0.075008936 0.010522258 0.015534775 0.035883926 0.015833123
0.027856132 0.078049436 -0.048537903 0.030782662 -0.06361248 0.04565017 -0.022035327 0.08740512
0.027956005 -0.07904564 0.017280482 -0.100635 0.05040576 0.05071491 0.08105794 0.07219229
-0.06198908 -0.024053587 0.0630746 0.020693406 0.06360266 0.101498984 0.055247672 0.06444699
0.017903358 -0.09570134 -0.053006586 -0.046050202 0.08242244 -0.08659526 0.0848836 -0.03841011
-0.014669221 -0.039168812 0.04306812 -0.020851748 -0.001331207 -0.030412978 0.075077295 0.020926623
0.04815709 0.027155006 -0.013705587 0.038049668 0.027055439 0.07048779 0.09183068 -0.059216876
-0.041715834 0.035303224 -0.09325977 0.0018407744 -0.042241722 0.040671546 0.009259278 0.025429327
-0.0013958388 -0.07943337 -0.044107966 0.07774393 0.0043026158 0.016261298 -0.0125755 0.057417374
-0.07340159 -0.06177359 -0.05299977 0.05298251 0.04070162 -0.010184865 -0.0323407 -0.06433326
-0.049765896 0.014041665 -0.015753653 0.05257822 0.018418198 0.02366024 -0.021632256 0.060942356
-0.088345446 -0.04543989 -0.07970586 0.015663007 -0.046827853 0.009778004 0.09781392 0.007662671
0.0029262255 0.0784317 -0.05425063 0.052689653 -0.044369347 -0.01932832 0.065855995 -0.070354596
0.06304615 0.062275805 0.017167555 0.047195785 0.040615894 0.074369065 -0.0723667 -0.058575414
-0.009337868 -0.023210753 0.0069925375 -0.07762423 0.015392139 0.0016574374 -0.051628996 -0.0032775071
-0.05691578 0.042148586 0.058260947 0.06187958 -0.0784226 -0.063095205 0.07498869 0.0738894
0.041426357 -0.010064094 0.00045348998 0.034521516 0.083285935 -0.009920532 -0.005782086 0.0029154327
-0.0064059286 -0.037155237 0.0853922 -0.046540316 0.09894547 0.08839609 -0.047871284 -0.07473125
-0.05503104 0.017205304 0.028984765 0.022875432 0.04139965 -0.035997625 -0.08645956 0.04011331
0.032590862 -0.077042945 -0.09468184 -0.016136242 0.017339604 -0.084009744 0.014382313 -0.03976999
-0.056915514 0.0065140957 0.042593125 -0.040440798 -0.02034951 0.043116417 -0.060112584 -0.04843748
-0.06348357 0.06988221 0.051527627 0.041837733 0.07399498 2.3637309e-05 -0.039297175 0.055222757
-0.012607878 -0.014518827 -0.00035094743 -0.04450974 -0.0008735577 -0.03781331 -0.03835242 0.03851733

bias f4 [32]
00000000: 7385 783d 0532 523d e556 75bc a76b a3bd
00000010: d521 b0bd f798 e7bc 8f8f e2bc a110 ec3b
00000020: 4005 0cbd 5a47 223d c97a 2e3d 488c 68bd
00000030: b780 993d 7b89 883c 4257 8d3d 5401 be3c
00000040: f2a8 3fbc 75db 353d f072 613d e469 3cbd
00000050: 5d65 993d 98a5 90bc bd11 55bd 8689 c5bd
00000060: 70f9 b2bc 8044 7b3d e3ed b03d 33fc fbbb
00000070: a90a efbb fa42 fc3c 55fa 9d3d 6588 debc
0.060674142 0.051317234 -0.014974331 -0.079795174 -0.08600203 -0.028271182 -0.027656345 0.0072041308
-0.034184694 0.039618827 0.042597566 -0.056774408 0.074952535 0.016667118 0.06901409 0.023193993
-0.011697995 0.044398744 0.055041254 -0.045999423 0.07490037 -0.017657086 -0.05201887 -0.09645371
-0.021847457 0.061344624 0.08639123 -0.0076899766 -0.007294972 0.030793656 0.07713763 -0.027164647

weight f4 [8, 32]
00000000: a80c cfbd 76ad b63d 0535 97bc 412d 0fbe
00000010: f866 e1bc 4440 e43d 1f6f ce3c 7834 f1bd
00000020: c51d 303e 6cf1 a0bd 5d63 aebd e62c 2a3e
00000030: b80a 0e3b b1ec 94bc 0ac9 1abc 9ca6 ecbd
00000040: 04ce 38be 94e0 c63d 74bd 133d 1f37 b0bd
00000050: d388 f73b bd56 abbc a4f3 24bc de23 f5bd
00000060: c2fe df3d f060 f73d a02f a7bc b03e 353e
00000070: 1eee c83d 780a 19be d635 4c3d 40df bebc
00000080: 3fbc 613e 94e7 dc3d ac0c e83c 8790 a9bd
00000090: 546b 8cbb e4e1 4cbd 1943 713d e7e9 d43d
000000a0: 5cb5 eebd a737 1e3d 9fbb 93bc 42af 23be
000000b0: 299e 183e 37e3 063e 6186 153d 9258 e03d
000000c0: 64a2 ce3d 3d9f cdbd fa21 073d d107 1e3e
000000d0: 38dd 11bd 219e dcbd 7824 42be 2421 2abd
000000e0: c409 823d bd44 9d3d 6625 c53c eaec 1abc
000000f0: 91f6 f43d 618c 34bc 4422 ecbd 70c3 d23d
00000100: 860e 1f3e e1d9 c83d a138 27be e73b 2e3e
00000110: 018b 2ebd 485b 0abe b2dd 8fbd 6247 1b3e
00000120: ae67 283d 5089 eebd ea4d 9bbd 5445 953d
00000130: c759 aebd 6b02 1c3e c2cc 913d 6fc1 57bd
00000140: f9d0 a83d e665 04bd 918a 41bd 1a62 ba3d
00000150: 2446 b63d d4ff d23d 1f98 cc3d d44f 9fbd
00000160: 3e0c b33b 6204 8d3d c7bb 97bd 38d8 acbd
00000170: 9ad4 04bd c932 13be 35f4 85bb fba4 cf3d
00000180: 8e1b 333e dd74 d73d 3fdd 38be b5d6 fc3d
00000190: 6caa 9bbd 8a57 c9bd a643 463d 85cf 1f3e
000001a0: 2521 e43d c1f2 1bbc fc90 5c3d dd63 42bd
000001b0: c52d ebbd e66c 38bd c7e6 2abe 4138 1e3d
000001c0: e932 f0bd a95e 393e e834 763c b97f 30be
000001d0: 90f6 1dbd 7b3f d33d e6b5 533d a825 93bc
000001e0: 7a46 d5bd 48a9 b0bd 9ad1 0c3d 7eb9 9f3c
000001f0: e802 d53c 51e2 97bd 5fb7 b4bd 4fad 9b3d
00000200: 21fd 2e3e b68c 0dbe 07b9 a93d 0bb7 cd3d
00000210: 680d 333e f931 343e b8d8 e63b 21fb 013e
00000220: 1b72 03be 28ce 12be dbe0 85bd cac6 edbc
00000230: e854 1d3c d254 5b39 5753 d83d 8695 d1bd
00000240: 3910 883c 247d 2d3e f7dd 9ebd 2ed1 93bd
00000250: ae0f 363d ca31 6c3d 3ddd 31be 641c 0fbe
00000260: 9b5e 1bbe 6e1a c93d b5f8 86bc bb11 2ebe
00000270: fb6c 983b 0eca 11be 269a 94bd 3226 dd3d
00000280: 4d8f 23be a0c4 14bd 001a eebd 0d95 2f3c
00000290: fd29 eb3d 9d46 05be 01d5 063d 614d ccbb
000002a0: ccb5 1abe 4163 203e 1cfa 213e ac76 f53b
000002b0: ab37 37be 9c7b 203e 13c0 25bc 8e07 cb3d
000002c0: 20b3 243e d14a 0abe 0423 623d 6367 07bd
000002d0: e903 cc3d 83ff 6bbd e21b dbbd 81ae 2a3e
000002e0: b31c 3ebe 7d42 9b3d a4bd 38be 8172 30be
000002f0: 186d ae3d 4d7b bc3d 5539 9ebd fe9f 26be
00000300: 6d03 0bbe 2fd4 323e 1805 3b3d dfef 19bd
00000310: 6b00 c3bc 9ffa 10be 2d86 9a3c bde5 0cbe
00000320: fbd5 1dbe 08dd a9bc 26e1 38be ed54 0cbe
00000330: d3d7 a73d 5aa1 69bd 5189 adbd 3187 c1bc
00000340: aeb9 963d 23ba 28bc 2270 ba3d 046a f73d
00000350: d89b da3d e036 0bbe 470a 4a3e 5d85 323e
00000360: a540 2b3d 1950 eebd 1cbe debb 5909 1ebe
00000370: 1f28 463e 5931 8fbb a544 d43d a4cf 093d
00000380: 1830 18bd f43e cebd aeb1 1cbe f724 023e
00000390: bec4 b5bc 659b d1bd e580 24be 5197 af3b
000003a0: 46d0 d0bd 5bcf 183e 366f 1a3e 8897 dfbd
000003b0: 5ead a2bd 767a 5b3c 6278 cb3d dc39 963c
000003c0: 81f1 493e 3866 203e 8fdd 1f3d e174 16bd
000003d0: e76a e1bd 93b6 083d 599f 9e3c c354 543d
000003e0: 1317 febd 23ae 15be 6858 15bb b245 d93d
000003f0: b2b3 efbd 67e6 68bd 0794 4e3d 00c7 30be
-0.10109836 0.08919804 -0.018457899 -0.13982107 -0.02751492 0.1114507 0.025199471 -0.11777586
0.17198856 -0.078585476 -0.08515046 0.1661869 0.002167387 -0.01817927 -0.0094473455 -0.11555216
-0.18047339 0.09710804 0.03606935 -0.086042635 0.0075541525 -0.020915383 -0.010067854 -0.11969732
0.10937263 0.12079036 -0.020408452 0.17699695 0.09811042 -0.149454 0.04985603 -0.023299813
0.22044466 0.107863575 0.028326355 -0.082795195 -0.0042852554 -0.050020114 0.05890188 0.10396176
-0.11655685 0.038627293 -0.0180338 -0.15984824 0.14904083 0.13172613 0.036505107 0.109543934
0.10089567 -0.10040138 0.032991387 0.15432669 -0.03561136 -0.10772348 -0.18959224 -0.04153551
0.06349519 0.076791264 0.024065685 -0.009455899 0.11961091 -0.011019797 -0.11529973 0.10291183
0.15532884 0.09807182 -0.16330196 0.17015038 -0.042613033 -0.13511384 -0.07024707 0.15163949
0.0411145 -0.11647284 -0.0758322 0.07288614 -0.085132174 0.15235297 0.071191326 -0.052674707
0.08242983 -0.03232374 -0.047251288 0.09100743 0.08900097 0.103027016 0.09989952 -0.07778898
0.005464106 0.068856016 -0.074088626 -0.08439678 -0.032429315 -0.14374842 -0.0040879496 0.101388894
0.1749098 0.10520337 -0.18053149 0.123456396 -0.07600865 -0.0983115 0.04840436 0.15606506
0.11139134 -0.009518326 0.053849205 -0.04745852 -0.11483339 -0.04502573 -0.16689597 0.038627867
-0.1172846 0.18102516 0.015027262 -0.17236222 -0.03856522 0.10314842 0.051687144 -0.017962292
-0.10413833 -0.08626038 0.03437958 0.01949763 0.026002362 -0.07416213 -0.08824038 0.07601415
0.17088749 -0.13823208 0.08287244 0.10044678 0.17485583 0.17597188 0.007044878 0.12693454
-0.12836497 -0.14336455 -0.065370284 -0.029025454 0.009602763 0.00020917066 0.10562771 -0.102335975
0.016609298 0.16942269 -0.0775718 -0.07217632 0.044448547 0.05766467 -0.17369552 -0.13975674
-0.15172808 0.09819494 -0.016476015 -0.16998951 0.0046516634 -0.14237234 -0.07255964 0.10798301
-0.15972634 -0.03632033 -0.11626053 0.010716689 0.11482618 -0.13015218 0.03291798 -0.00623481
-0.15108413 0.15662862 0.15818065 0.0074909534 -0.1789233 0.15672153 -0.010116595 0.0991355
0.16083956 -0.13505103 0.055209175 -0.03305758 0.09961683 -0.05761672 -0.106986776 0.1666813
-0.18565635 0.07581041 -0.18041092 -0.1723118 0.08516902 0.09203205 -0.07725779 -0.1627197
-0.13575526 0.17463754 0.045659155 -0.037582275 -0.02380391 -0.14158104 0.018862808 -0.13759513
-0.15413658 -0.020735279 -0.18054637 -0.13704272 0.08195462 -0.057038642 -0.08473457 -0.023624035
0.07359634 -0.010298285 0.09103419 0.12080768 0.10674256 -0.13595152 0.19730483 0.17433687
0.041809697 -0.11636371 -0.006797565 -0.15433253 0.19351242 -0.0043698964 0.103646554 0.033645287
-0.03715524 -0.10070601 -0.15302154 0.12709413 -0.02218854 -0.10234717 -0.16064794 0.0053586145
-0.10195975 0.1492285 0.15081486 -0.10917574 -0.079432234 0.013395896 0.099350706 0.018338136
0.19721033 0.15663993 0.039029654 -0.03673256 -0.11006718 0.03337724 0.019363092 0.051838648
-0.12406745 -0.14617209 -0.002278829 0.106089965 -0.11704196 -0.056860354 0.05043414 -0.17263412

bias f4 [8]
00000000: 0ec5 553d 4dc4 2dbd 2021 2f3e 0130 cebc
00000010: 0a78 b5bd 7542 9e3c 98dd a5bd 3e00 da3d
0.05218988 -0.042423535 0.1710248 -0.025169374 -0.08860786 0.019318799 -0.08098906 0.106445774

weight f4 [32]
00000000: 787f 853f ef64 833f 9f93 803f 9ed3 7a3f
00000010: 791e 803f f071 813f d02d 803f 4226 813f
00000020: a153 7f3f 3575 803f 73bc 833f 0dee 7f3f
00000030: 0bd2 823f 0cf6 7e3f c67e 7d3f 83c4 7d3f
00000040: e278 833f 7703 823f a7af 7d3f 9448 803f
00000050: c1f8 753f 6961 7a3f d1ec 843f 65e3 7b3f
00000060: 4f50 813f c370 803f 8fa7 813f dada 7c3f
00000070: d324 813f 7955 7e3f 4f3e 823f a395 7a3f
1.0429525 1.0265177 1.004505 0.9797915 1.00093 1.0112896 1.0013981 1.00898
0.9973698 1.0035769 1.0291885 0.9997261 1.022035 0.9959419 0.99021566 0.9912798
1.0271266 1.0157307 0.9909615 1.0022149 0.96082693 0.97804886 1.0384771 0.9839385
1.0102633 1.0034412 1.012926 0.9877144 1.0089363 0.9934917 1.0175265 0.9788458

bias f4 [32]
00000000: 372b 8f3b 2015 f83c bbce 163a 84ce 11bc
00000010: 1d70 2b3c ccc0 1c3b 01ac 08bc 4f0a f2bc
00000020: 7d5e 3e3c 9733 a53b 3249 eb3c b91c e3bb
00000030: 6502 573d af8a 053d ebcc 2dbc 0c90 f2bc
00000040: ddfe 013d d1b8 4abc 7bac 9abc 3d4d 83bc
00000050: 1b1f 00bd 311c d7bc d1c1 2f3c fbdd 17bd
00000060: 5f07 143d 7394 c33c fd3c 1f3d aa79 8bbc
00000070: 410b cc3b fa3d 8b3c c3f3 333d 169b 283c
0.0043691653 0.03028351 0.0005752851 -0.008899335 0.010463742 0.0023918627 -0.00834179 -0.029545931
0.011619207 0.0050415504 0.028721426 -0.0069309142 0.052492518 0.032602962 -0.010607938 -0.029609703
0.031737197 -0.012373165 -0.018881073 -0.016028041 -0.031279664 -0.02625856 0.010727362 -0.03707693
0.036139842 0.023874497 0.038876522 -0.017025787 0.0062269275 0.016997326 0.04393364 0.010290882

running_mean f4 [32]
00000000: 9c39 19bf 3ac0 f5bc 6eeb 24bf 2436 57bd
00000010: 61f3 a23d f6d8 24be b6ae bd3b ce1c 0cbe
00000020: 7618 1c3d c6fb d1be d5ce a6be 68b2 353e
00000030: f94c 25bf b2e4 ffbe 0e3e eb3c b79f 7abe
00000040: be1b 96be dece b13d 1552 023f 1dcb 58bd
00000050: 234f 33be 1feb c4be 877e 023d 7642 393e
00000060: 7dc7 91be 5e0c b73e 0acb 57be a5cb e6be
00000070: af57 a6be 91e1 803c 0b10 4cbd dd67 1cbf
-0.5985353 -0.029998887 -0.6442174 -0.052541867 0.07956577 -0.16098389 0.0057886494 -0.13682863
0.038109265 -0.410124 -0.32579675 0.17743838 -0.64570576 -0.49979168 0.028716113 -0.24474989
-0.2931804 0.08682035 0.509065 -0.05292808 -0.17510657 -0.38460633 0.031858947 0.18091759
-0.2847251 0.35751623 -0.21073547 -0.45077243 -0.32488772 0.015732558 -0.049819987 -0.6109598

running_var f4 [32]
00000000: 499b a13d 990a fa3d d5b3 3c3e 4fc5 473e
00000010: de14 783d 10fb f23d c4ba ed3d 168b 643d
00000020: 4e7a 543e d8ac 3f3e 8c15 ba3e d0b4 503e
00000030: c30a 913e 4476 8b3e 7128 cb3d 7df1 593e
00000040: 6fbd 823e 9367 2a3e bff2 553e 896c b83d
00000050: f2d1 9c3e 6b97 643e fbe4 233e 584d 8f3d
00000060: 8774 8e3e d25f 303e e27f 573e 12a7 a03e
00000070: fcd2 a43d beea 493e c6d9 963e 51fd 1e3e
0.078909464 0.122090526 0.18427975 0.19508861 0.060566776 0.118642926 0.11607888 0.055796705
0.2074978 0.18718278 0.36344564 0.20381474 0.28328523 0.27238667 0.09919823 0.21283527
0.2553515 0.16641073 0.20893382 0.090050764 0.30628926 0.22323386 0.16005318 0.06997174
0.27823278 0.17224053 0.21044877 0.31377465 0.080480546 0.19718453 0.29463023 0.1552632
