code/model_sol_backups/model_sol_21.pt (torch, 635426 bytes, 158 tensors)

weight f4 [32, 2]
00000000: 4c59 46be 2691 70be d912 c0be f1af 233f
00000010: 9827 293f be54 9dbe 2d81 d43d 036a d43e
00000020: 6257 193f ce30 213f f953 8e3e 8b3f b4be
00000030: 2313 16bf e45a 3a3e 2aa5 133f 8e95 9ebc
00000040: e49d 313f 182c 2bbf 6266 06bf b81d 8f3e
00000050: 6500 d83e 083a 74be 9e86 edbe 6b74 34be
00000060: 4bd6 3d3e 936e a23d 720e 7a3d 381d 24bf
00000070: 9a4c 253f b485 083d 250e 943e 869d 17bf
00000080: bb3a bcbe 16c2 dfbe 6388 e93c e4a2 103f
00000090: 29c3 7d3e d212 16bf 09fd a7be 3458 293e
000000a0: 859f 2c3f 5a82 813e 03ed 28bf 9213 21bf
000000b0: 834f 93be 2c29 423e 7e51 46bd f796 9ebe
000000c0: fabc dd3e d580 61be 6e49 cfbd f749 793e
000000d0: 001f fcbe fe48 083f 9d3c fb3e 427a fbbd
000000e0: 0d98 22bf 55b2 f7be 31e2 a2be 1dc7 22bf
000000f0: dd47 c63e b130 96be a8ef 243f dd99 18be
-0.19370002 -0.2349287 -0.3751438 0.6394034 0.6607604 -0.30728716 0.10376201 0.4148713
0.5989896 0.62965095 0.2779844 -0.3520473 -0.5862295 0.18198735 0.57673895 -0.019358423
0.69381547 -0.66864157 -0.52499974 0.2795236 0.421878 -0.23850262 -0.46391767 -0.17622535
0.18538778 0.079312466 0.061048932 -0.64107084 0.6457001 0.033330634 0.2891704 -0.59224737
-0.36763558 -0.43702763 0.028507417 0.5649855 0.24781479 -0.5862247 -0.32810238 0.16537553
0.6743091 0.25294763 -0.6598665 -0.62920487 -0.287716 0.18961018 -0.04841756 -0.30974552
0.4330824 -0.22021802 -0.101214275 0.24344622 -0.492424 0.5323638 0.49069682 -0.12279178
-0.6351326 -0.48378244 -0.31813195 -0.6358507 0.38726702 -0.29334024 0.64428186 -0.14902444

bias f4 [32]
00000000: bbd4 2d3e 70f1 2ebe 77d0 093f a9e1 d2bd
00000010: 291d 623e adb4 e73e 9233 1dbf 5e55 913e
00000020: 9fe3 423e 5fe3 b3be b185 a9be 65fb 00be
00000030: bb77 4d3e 31b8 f03c 885e 713e cedb 3bbc
00000040: 1e8d 0cbe 0770 d33e 420c 05be 79f2 1b3f
00000050: 2f42 c83e c9cb 0f3f 74e8 babe 7902 08bf
00000060: 823e c7bd ca64 303f 75f8 fa3d 58ef 293d
00000070: 01b9 283f 603d 0fbe ecb1 ee3e 00f5 93be
0.16975681 -0.17084289 0.5383372 -0.102969475 0.22081436 0.45255032 -0.61406815 0.28385442
0.19032143 -0.35134408 -0.3310981 -0.125959 0.20065205 0.029384704 0.23571217 -0.01146598
-0.13725707 0.41296408 -0.12992957 0.6091686 0.39112994 0.56170326 -0.36505473 -0.5312877
-0.09728719 0.6890379 0.12254421 0.04148802 0.65907294 -0.13988256 0.4662012 -0.28897858

weight f4 [128, 32]
00000000: 9fc1 093e c4aa f2bd f742 56bc 146b 1f3d
00000010: f2c8 e6bd e6da b7bd 6407 e03d 8d24 5c3d
00000020: acf2 fd3d 4b8f a1bd b52a 40be e751 babd
00000030: 4c19 ecbd 0f97 6c3c 541f 3abe 29eb febd
00000040: 535c f0bd 9025 433d 2308 b4bd cb21 9d3d
00000050: d43b 1c3e b60f b0bd 91af 05be d18c 913c
00000060: 1486 1bbe e4a1 343d 048c 0c3e 52cf f93d
00000070: 3aa3 1dbe 46b7 89bd 543b e3bc 4daf 733d
00000080: 5019 113e 3d7b 663d 1746 87bd f9d1 0dbe
00000090: 051d f13d da32 cbbd dc09 fa3d 7e26 0dbd
000000a0: f43d 823d 9076 d7bb e24a 6bbd d329 f9bd
000000b0: fe80 39be 94f0 21bc 7cdb 153e f179 ebba
000000c0: 58e0 0f3e 126d 07bd c85d 213b 5c89 b9bd
000000d0: 9d9a fd3d 5e74 0d3d 0f8b 073e b258 f03d
000000e0: 5e4a fc3d 5d8d 933d bf75 eb3b a437 98bb
000000f0: 1403 313c 83af 72bc b6c2 dcbd bc1d e13d
00000100: f4b3 15be 0091 f7bb 2174 3d3b 82bd 24be
00000110: 09b9 bdbd d3d4 073e c055 913d 4794 283e
00000120: 9db4 673d eb8d cc3d f550 0c3d 1e30 333e
00000130: 8b12 133e 7c07 e63c ed08 73bd 1db2 b93d
00000140: 70da b2bd d3ea 07be 6f98 db3d 1821 e8bd
00000150: 7759 133d 728b a7bd c91e 723d 93f3 2e3d
00000160: b1c9 d5bd eba4 b9bc bfdf 243c 63da 203e
00000170: 76a3 b6bd 411c 8abd 9eea 063e 40f2 cabb
00000180: 3d92 eebd fe0a 2b3c 5bbf 413e 6531 3bbe
00000190: d1fa 1abe a1b6 5dbd b734 14bd b047 8fbd
000001a0: ab0c e43c ecb9 f83d 35c0 dcbd 1a2e c43d
000001b0: 5d1b 50bc a963 1f3e 4eab c03b 4768 123c
000001c0: affc 253d ae95 d63a 7b83 2c3e e30d b13c
000001d0: ff30 0fbe 21ac 063c 4de5 09be 41eb 30be
000001e0: 64ca 1b3e 2919 b43d 390e 083e d687 0b3d
000001f0: f0d8 1f3d cba1 33be 608a 0fbe 4530 d0bd
00000200: 21ed 9abd 2650 04be 200d 8a3d c5a3 9abc
00000210: a921 f9bd 43a7 49bd 216e 2f3c 28a6 13be
00000220: 16c0 243e f64a ef3d ebef 613c 9f33 2bbe
00000230: ddf2 a63d 6077 c1bd 05cd 8abd ead5 09be
00000240: 6e15 303e e832 0fbc c07e a93c 8eec 353e
00000250: 33a3 103e f5d2 a4bd d734 72bd 58c6 7e3d
00000260: 59bc d2bc 6017 81bc 5c42 313e dc26 003e
00000270: d12d 193e bc57 9c3d 7a39 05be 3201 9cbd
00000280: 69a7 1abe 4425 a5bd 8b64 3bbd e61b 123e
00000290: 5509 da3b 24c1 28be 252a 09bd a527 f13d
000002a0: 8dee 95bd de01 083e 24b6 2bbe 7a4a dfbb
000002b0: 326a a43c fa1d 5bbd 0437 32be bb01 8ebb
000002c0: 05a3 7f3d 6742 163d 29b0 e9bd 1ebf edbd
000002d0: c10b 08be d03a 103e bc15 063c 88f0 bb3c
000002e0: 6a23 ef3d b075 48bc c2d3 173e d349 513d
000002f0: d8a4 fa3d d79b 26be 5c1b f73d 6f93 1fbe
00000300: a465 0fbe 6a5e 773d 505e a6bd a508 3abe
00000310: 53be ab3d 12bf 1d3e 5fcc 493c ee29 96bd
00000320: 5d97 e0bd e457 053e 5e0a c93d 5949 b73d
00000330: b0fe acbb f7a8 333e 40c8 1d3c 33ee 133e
00000340: fb0c 19be 244e 08be f547 bd3d cac6 853b
00000350: 0d45 1e3e 5790 a73d 7035 213a cb07 303c
00000360: ea7f 353e aca3 a7bd b914 c33a 4cac 86bd
00000370: e354 c63d 98c7 7d3d 3f18 1ebe 0572 f4bd
00000380: 27a2 36be 476e f5bd efaa 643c fcd7 5dbd
00000390: 5eae 02be bbfe 0f3e 5cb7 25be 4d8f 893c
000003a0: 1fb8 e73d 0ad6 eb3d 7d37 b8bd e6ea 173e
000003b0: fe72 583c d3b8 81bd c2e6 d8bd 1326 a7bc
000003c0: 2d40 a43d df8c a5bd 0096 b93c 928f 4d3d
000003d0: f162 02be da4a b7bd 12f7 0a3d bd36 163c
000003e0: 3a96 d4bd f9f9 06be bb62 cc3d 7f1c 143e
000003f0: de9d a6bd c183 18bd 80ba 6cbd 03fe a2bd
0.13452767 -0.11848977 -0.013077489 0.038920477 -0.11268796 -0.089772984 0.1093891 0.053745795
0.123998016 -0.07888659 -0.18766291 -0.09097653 -0.115282625 0.014440312 -0.18176013 -0.12447197
-0.117363594 0.047643244 -0.087906145 0.07672461 0.15257198 -0.085967466 -0.13055255 0.017767342
-0.15187865 0.044099703 0.13725287 0.12197746 -0.15394297 -0.0672441 -0.02773825 0.05949335
0.14169812 0.056269873 -0.066051655 -0.1384963 0.11773113 -0.099218085 0.12208912 -0.034460537
0.06359473 -0.006575413 -0.05744446 -0.121661805 -0.18115613 -0.009884018 0.14634508 -0.0017965419
0.14050424 -0.033063002 0.0024622548 -0.09059402 0.12383006 0.034534805 0.1323664 0.11735667
0.12318872 0.07204697 0.0071856673 -0.0046453048 0.010803957 -0.014812353 -0.10779326 0.109919995
-0.14619428 -0.007555127 0.002890833 -0.16087916 -0.09263808 0.1326478 0.07096434 0.16462813
0.05656873 0.09988006 0.034256894 0.17498824 0.14362542 0.02807974 -0.059334684 0.090671755
-0.0873307 -0.13273172 0.10722434 -0.11334437 0.035973992 -0.08180894 0.05911139 0.04271276
-0.1043886 -0.022661647 0.010063111 0.15708308 -0.089178964 -0.0674367 0.13175437 -0.006193429
-0.116489865 0.010439632 0.18920653 -0.18280561 -0.15134741 -0.054129247 -0.036183085 -0.06996095
0.027838072 0.12144837 -0.10778848 0.09579106 -0.012701836 0.15565361 0.005879796 0.0089359945
0.04052418 0.0016371512 0.16847031 0.021613067 -0.13983534 0.00821975 -0.13466378 -0.17277242
0.15213925 0.087938614 0.13286676 0.03406509 0.039025247 -0.17542188 -0.1401763 -0.10165457
-0.0756476 -0.12921199 0.06740785 -0.01887692 -0.12164623 -0.04923178 0.010707409 -0.14418852
0.160889 0.116842195 0.013790111 -0.1671891 0.08151791 -0.09446597 -0.067773856 -0.13460508
0.17195675 -0.008740164 0.020690322 0.1776602 0.14124756 -0.08048049 -0.059132423 0.062200874
-0.025724577 -0.015758216 0.1731047 0.12514824 0.14958884 0.076339215 -0.13010207 -0.076174155
-0.15102924 -0.080637485 -0.045750182 0.14268455 0.0066539445 -0.16479927 -0.033487458 0.1177514
-0.073208906 0.13281962 -0.167687 -0.006814298 0.02007017 -0.053495385 -0.174038 -0.0043337024
0.062411327 0.03668442 -0.11410553 -0.11608718 -0.13285734 0.14084935 0.008183893 0.022941843
0.116766766 -0.01223509 0.14826873 0.051095795 0.12238473 -0.16270386 0.12065765 -0.15583585
-0.14003617 0.060392775 -0.081234574 -0.1816736 0.08385911 0.15404919 0.012316792 -0.07332216
-0.1096637 0.13021809 0.098164305 0.08949537 -0.0052793846 0.17544924 0.009630263 0.14446335
-0.14946358 -0.13311058 0.0924224 0.0040825354 0.15456028 0.081818275 0.00061496254 0.0107440455
0.17724577 -0.08185515 0.0014883495 -0.06575832 0.096841596 0.061957926 -0.15438937 -0.1193581
-0.17835294 -0.11983924 0.013956769 -0.054161057 -0.12761828 0.14062016 -0.16183227 0.016791964
0.11314415 0.11515434 -0.089949585 0.148357 0.01321101 -0.063340805 -0.105908886 -0.020403897
0.08020053 -0.0808351 0.022654533 0.050185747 -0.12733056 -0.08949824 0.03392703 0.009168324
-0.10380216 -0.13181295 0.09979769 0.14463995 -0.081355795 -0.037235025 -0.057795048 -0.07958605

bias f4 [128]
00000000: 0794 a43d f0ea f1bc 97a1 2c3e eaf0 dcbd
00000010: dc50 c5bd b311 923d 61e4 c93d 39d7 28bd
00000020: f474 1ebd d9af a3bc 4774 92bd 9a39 093d
00000030: e858 a7bd 961e 163e 9d1d 31bd 5547 123e
00000040: 2343 50bd d409 82bd aeac 0e3e 12d8 353d
00000050: 98db 2ebe a63d aebd 73c7 0a3e 131d 5abd
00000060: dffe 14be cf05 27be b0b2 253d bd4a 313e
00000070: e9d9 f0bd 67aa 37bc dd9c 403d 2a8b 26bd
00000080: 7b9e 343c ec73 5fbd 2b94 9a3d c587 893d
00000090: a52b fbbb e9e7 21be 1884 063e b6b5 f43d
000000a0: 1916 3e3e ecd6 013d 0720 953c ec43 ec3d
000000b0: 5cb6 8dbd 73e8 2ebd bba3 543d fcb5 fa3d
000000c0: 4e9d dabd 72d8 e4bd f9c0 e13c 1ab3 d33a
000000d0: 15bc b13d 4901 30be d630 c93d 2d58 61bc
000000e0: ddd1 15be adfd bf3d 5eee 6c3d 7df7 b23d
000000f0: f480 69bd 4b1f 50bd 6afa babd 5572 b83c
00000100: 7f41 50bd f70c 0c3e f88b fdbd 2e3c 37be
00000110: f0f9 37be 6450 1ebe 8bf5 dcbd 4bad f2bb
00000120: c00d f93b 13e0 013d bb03 f8bd 0244 8e3d
00000130: 3cb5 9f3d d967 1b3d 4053 31be f743 3bbd
00000140: 697a 02be da1c 053e 4263 febd 8b9b 2ebe
00000150: 395d 20bd e46e 2d3e a56a 9f3d 190f 443d
00000160: 79a1 05be f9e3 21be 3b2f 88bd c5d4 b03d
00000170: 5c37 e63c 48b4 de3d 6282 bd3d 449f 073e
00000180: 6d8c d53d de9c 0cbe ae83 9b3d 5d64 58bd
00000190: 65e0 883d 2e84 c93d cab8 21be 46c2 05bd
000001a0: e396 433d 24a6 123c a1c3 eb3d 1b95 0dbe
000001b0: 0a2d ca3d 128e e2bd e340 c2ba b47d 2a3c
000001c0: 85cf 203d 7b97 1c3e 3607 b83c e2cb 3c3e
000001d0: d2bf c4bc 5173 643d 81f7 10be 82bc 1d3e
000001e0: 2eb5 5bbd 540b 0dbe d731 a63d 80fc 09be
000001f0: d4c7 5fbb 2b22 243d 5d1a f33d f8f5 283e
0.080360465 -0.029530972 0.16858517 -0.10788138 -0.09634563 0.07132282 0.09858013 -0.041220877
-0.038685754 -0.019981312 -0.071510844 0.0335022 -0.081712544 0.14660105 -0.043241132 0.14285024
-0.050845277 -0.06349531 0.1393306 0.044395514 -0.17075956 -0.08507852 0.13552646 -0.053250384
-0.1455035 -0.1631081 0.040453613 0.17313667 -0.11760313 -0.011210061 0.047024596 -0.04066006
0.011024113 -0.05455391 0.07547792 0.06715349 -0.007665115 -0.15811123 0.13136327 0.11948721
0.18563117 0.031699106 0.018203748 0.115363926 -0.06919548 -0.04270215 0.051913958 0.12241742
-0.10674535 -0.11174096 0.027557837 0.0016151399 0.08678452 -0.1718799 0.09823768 -0.013753933
-0.14630838 0.09374557 0.057844512 0.08738611 -0.057007745 -0.050811093 -0.09129794 0.022515455
-0.050843712 0.1367682 -0.123802125 -0.1789405 -0.17966437 -0.15460354 -0.10789021 -0.007405912
0.007600516 0.031707834 -0.121100865 0.06946565 0.077982396 0.037940834 -0.17316914 -0.045719113
-0.12742008 0.12999287 -0.12421276 -0.17051522 -0.039151404 0.16936833 0.07784013 0.04786596
-0.13049878 -0.15809621 -0.066496335 0.086343326 0.02810257 0.1087423 0.09253384 0.13244349
0.10427175 -0.13731715 0.07593475 -0.05283009 0.06683425 0.098396644 -0.15793148 -0.032655977
0.04775132 0.008950744 0.11511923 -0.1382641 0.09871872 -0.11062254 -0.0014820363 0.0104059465
0.039260406 0.1529216 0.022464376 0.1843715 -0.024017248 0.055774037 -0.14156915 0.15403941
-0.053639583 -0.13773853 0.08114975 -0.13475227 -0.0034146206 0.040071648 0.11870263 0.1650008

weight f4 [32]
00000000: 84e5 803f 77da 7c3f 624e 7f3f 3577 823f
00000010: 9ea4 7f3f a94d 7c3f 5b70 7d3f afd2 7d3f
00000020: 55cf 7d3f c825 7c3f 89d3 7b3f 2405 7d3f
00000030: 2ccc 7a3f e2d2 803f e74e 7a3f 2dc6 803f
00000040: 8ff2 763f 2b92 823f 21c9 803f 30f9 7f3f
00000050: a6fe 773f 56d2 783f 3715 813f 3786 813f
00000060: 2ad4 7c3f a35f 7f3f 74d7 7d3f 057e 803f
00000070: 9b07 803f e830 7d3f bd90 7b3f e85e 7e3f
1.0070043 0.9877085 0.9972898 1.0192629 0.9986056 0.98556 0.98999566 0.991496
0.9914449 0.9849515 0.9836965 0.9883597 0.9796779 1.0064356 0.97776645 1.0060478
0.96463865 1.0200857 1.006138 0.99989605 0.9687294 0.9719595 1.0084599 1.0119084
0.98761237 0.99755305 0.9915688 1.0038458 1.0002321 0.9890275 0.9826773 0.99363565

bias f4 [32]
00000000: b1ce 533c a358 5ebb 7e0e f9bc 9cd8 153c
00000010: 9ed0 11bd 3ff6 cfbc 47b0 d1bb eee0 c1bc
00000020: be40 14bd dbbf cc3c 3d61 84bc 9bf0 06bc
00000030: 549b 0bbd eceb 06bc 5104 4a3b bdac b93b
00000040: ecf1 4b3c a488 853c 88dd b53c 5c5c 2f3d
00000050: d447 38bd fab8 99bc 253c a43c 8283 76bb
00000060: aab9 07bd 81c6 093c 9da7 28bc a431 4ebc
00000070: cd9a c0bb bb47 95bc ba40 debc 2d80 59bb
0.012927697 -0.0033927343 -0.030402418 0.009145882 -0.035599343 -0.025385974 -0.0063991877 -0.023666825
-0.036194555 0.024993828 -0.016159648 -0.008236076 -0.03408368 -0.008234959 0.0030825327 0.005666344
0.012447815 0.016300507 0.02220036 0.04281269 -0.044990376 -0.018764962 0.02004821 -0.0037615006
-0.033136047 0.008409143 -0.010293868 -0.012585077 -0.0058778287 -0.01822268 -0.027130473 -0.003318797

running_mean f4 [32]
00000000: 7c62 543d 3446 03bb 81be 093f 495b 853d
00000010: f5cb 0c3f ea34 be3e d889 25bf fd60 bf3e
00000020: c040 843d d827 adbe 9c82 b1be a53e 89be
00000030: 4c6d 853e 602b 45be cc7e b63e c1f2 35be
00000040: a42d b7be da68 1f3f 3f1c 9abe d039 1d3f
00000050: 26a6 183f 55bd 633e 7881 b0be 95d4 26bf
00000060: fca4 d5bd 469b 423f 7650 6e3e 8ccb a23d
00000070: 7fe6 c03e a032 d9be 88c1 d93e e933 70be
0.051851735 -0.0020030858 0.5380631 0.06511552 0.54998714 0.37149745 -0.6466346 0.37378684
0.064576626 -0.3381946 -0.3466996 -0.26805606 0.2605995 -0.19254827 0.35643613 -0.17768385
-0.3577701 0.62269366 -0.30099675 0.6141634 0.5962852 0.22240193 -0.34473777 -0.65168124
-0.10431859 0.7601818 0.23272881 0.0794898 0.37675855 -0.42421436 0.42530465 -0.23457302

running_var f4 [32]
00000000: 9084 773c cced 223e 3606 173e c225 163d
00000010: 1b67 f93d b256 733d a463 cb3d 2242 9c3d
00000020: 87b2 8c3e f89c cc3d a9d5 883d 432c 363d
00000030: 56db eb3b 6a2a d03d 8211 ba3d 75f8 fc3d
00000040: 3041 593d fefa 933d db29 e83d 181b 1b3d
00000050: d675 c03d 31ed 083e 2797 0c3d a7af aa3c
00000060: 2cc9 873d 380d 9f3c 518b 1f3e 82a7 863d
00000070: a7f6 d33d 2019 b73d d870 8d3d dd2e e43d
0.015107289 0.15911025 0.14748463 0.036657102 0.12177869 0.05940885 0.09931114 0.07629801
0.27479956 0.09990877 0.066813774 0.044475805 0.0071977777 0.1016434 0.090853706 0.12352077
0.053040683 0.07225607 0.11336108 0.037867635 0.093974754 0.13371731 0.034323838 0.02083571
0.06630167 0.019415483 0.15580489 0.06574918 0.103497796 0.08940339 0.06906289 0.11141751

weight f4 [32, 3]
00000000: 2a2f 21bf 74ac 3c3e 8669 c13e d8bd a03e
00000010: 5a58 41be c8b9 56bd 16fc 833f 6939 00bf
00000020: ee33 8b3e 1b83 913f fd60 adb8 33ef db38
00000030: 69f1 1fbf ca80 693e 5330 e73e bc62 ee3d
00000040: 8314 693b ab68 32be f61e 8f3e 4d79 1cbe
00000050: 0f74 c2bd 35dd b13e 79a5 bcbe 3b98 0cbe
00000060: f245 c7be bd10 9c3e 3e88 b33e be52 46be
00000070: af51 823e e02f ee3d 8004 5abf 2a07 053f
00000080: a378 673e e298 2fbe f6e5 ae3e 6bde bdbe
00000090: 6a48 243f 624a 823e 33d3 dabe ea68 c4bd
000000a0: b52e bebe 606b 71be dd34 1e3f 5f9b 84be
000000b0: f315 62be 66d6 f0bd 9bfc fcbe c07b 013f
000000c0: 1f3d 1f3f 95d8 5abe 676e 92be 9839 3c3e
000000d0: f242 1fbf 39cf 48bc 3d0c 35bf 84bd 83bd
000000e0: 2e2d 6e3e 63a9 833f e27a dcbb 8574 7fbe
000000f0: 7aee b83e b2c3 e6be 5959 07bf 24d2 1ebf
00000100: 8c84 fdbe 53a4 b73d 24fc 3abf 54ae 723e
00000110: 25f7 183e 248a 43be e1f6 093f 4919 b4bd
00000120: f318 85bf 04b4 6cbe 5e08 423e 76d6 253f
00000130: 9ab9 353e 2c00 06bf 7ceb ffbe 0a0c 963e
00000140: 810f 173f b279 54bd 6ea1 51bd db0d f13e
00000150: 5120 d2bd 904b 083f 7f7a 73be 10d1 fbbd
00000160: d0d9 7e3e 09fd b43d 0295 4cbf 1d78 f03e
00000170: ae01 013f 8ab0 4b3f 6fe0 eebe ed10 80be
-0.6296259 0.1842516 0.3777582 0.3139484 -0.1888136 -0.05242327 1.0311306 -0.500876
0.27188057 1.1368135 -8.267348e-05 0.00010487288 -0.6247774 0.22803035 0.45154056 0.11639926
0.0035565204 -0.1742274 0.2795331 -0.15280648 -0.09494793 0.3473908 -0.36844996 -0.13729946
-0.38920552 0.3048152 0.35064882 -0.19367501 0.25452945 0.11630225 -0.85163116 0.51964056
0.22604613 -0.17148164 0.3415982 -0.37083754 0.64172995 0.25447375 -0.42739257 -0.09590323
-0.3714501 -0.23576117 0.6179941 -0.2589979 -0.22078685 -0.11759643 -0.49411473 0.5057945
0.6220264 -0.21371682 -0.28599855 0.18381345 -0.62211525 -0.012256437 -0.707218 -0.064326316
0.23259422 1.0286068 -0.006728516 -0.24946792 0.36119443 -0.4507118 -0.5287071 -0.620394
-0.49515188 0.08966889 -0.73040986 0.23699313 0.14938028 -0.19095665 0.5389233 -0.08793885
-1.0398239 -0.23115546 0.18948504 0.64780366 0.17746583 -0.5234401 -0.49984348 0.2930606
0.5900803 -0.05187387 -0.051179342 0.47080883 -0.1026007 0.532403 -0.23777197 -0.12295735
0.24887776 0.08837325 -0.7991487 0.4696664 0.5039319 0.7956625 -0.46655604 -0.25012913

bias f4 [32]
00000000: 43d3 9e3d 56ab fa3e 325d 843e 5b4e 863d
00000010: 38f3 913e 487b 0b3e f1e1 56be 64a4 eebe
00000020: e802 21be 2267 b3be 085e bfbe c339 ab3e
00000030: ffb9 c7be 701a ba3e c000 b0bd 6480 0bbf
00000040: cef8 053f cd98 5b3e ea62 e03e 65e1 643e
00000050: 18bd 8fbe 92a0 603d 2ad8 b73e eefa 803e
00000060: 60f6 87be 2f8e f33e fa32 92be ebbc 9b3e
00000070: 251c 68be b283 d53d d692 1e3e 52c1 aebe
0.07755139 0.48958844 0.25852352 0.06557914 0.28505874 0.13621247 -0.20984627 -0.46609795
-0.15723765 -0.35039622 -0.37376428 0.33442506 -0.3900909 0.36348295 -0.08593893 -0.54492784
0.5233277 0.21445008 0.43825465 0.22351606 -0.28073955 0.05484063 0.35907108 0.25191444
-0.26555157 0.47569415 -0.28554517 0.3041757 -0.22666986 0.104255095 0.15485701 -0.34131867

weight f4 [128, 32]
00000000: 858e a93d 1259 723c aad6 f63d 776f a13d
00000010: 47c2 063e fad9 433b 7911 1d3d 960b b8ba
00000020: b1cc 57bd 0f1a f43d fd37 f1bd 0dac e23d
00000030: c19e 70bd f9d7 fabc a498 e2bd 734f 31be
00000040: d30f 6a3d e3d9 5c3d c49c 3ebe b8eb 3cba
00000050: 44a0 0ebe 5963 d43c df26 0ebe ca2e 183d
00000060: ec37 643d 275d 0d3e 2ebc 0ebe bb4c ad3d
00000070: 7219 1ebe 2eaa 0b3e 19da 2f3d 8d17 c5bd
00000080: 744b c13d 8289 753d a352 9fbd 5118 2d3d
00000090: c5e6 573d 2e3e 12bd d362 d3bd 46a1 69bd
000000a0: c6c4 2c3e fdb2 0d3e 5d3c f6bd 1252 28be
000000b0: 3ae6 053e 3f8d 2abe 411a 32be 1db2 043e
000000c0: f35b ef3d d181 1abe c1ed 8dbd ce60 203d
000000d0: 7bdf e23c bb7c 25be bc26 88bd 30a8 85bd
000000e0: a9a9 ea3d 4e06 b2bd ce46 bb3d 18e5 76bc
000000f0: 8593 01be 59e9 12bd 9787 4f3d e0f2 0abd
00000100: 58b9 493b da42 c8bd 2d22 7d3d 0cf3 4a3e
00000110: 5c34 8a3d 424d 303b b5b0 05be 84fc a93d
00000120: 2c09 68bd 1684 3ebe f386 bc3d 0cbc 193e
00000130: 4515 b1bc 1f87 b5bc 84f4 fc3d 1cf5 fe3d
00000140: 4f85 2e3e e68a 353e d62e 153e d826 1abe
00000150: 64c7 47bd ec6c 0cbe eabf 7f3c da9b 463d
00000160: faf9 7ebd a43c c43d 33e7 27bd e5f9 133e
00000170: 1f0c a43d 886e d53d 043d 113e e393 9a3d
00000180: fedd b73d 7509 3dbd e68e 2b3e e2ff 25be
00000190: ff93 29be e6dc 13be 52f5 1ebe ffa2 93bd
000001a0: d5c3 9dbd 4af7 c73d 4a05 7fbd 3915 983c
000001b0: e853 81bd 6638 0f3c 7887 bfbd 0141 d5bd
000001c0: cb6d 0a3e 710f fe3d 578f 243e a165 8f3d
000001d0: bc99 3c3c 1561 ad3d c67c 183e 59ba 9a3d
000001e0: a8b6 1d3c b781 0cbe 095d 193e a525 3a3d
000001f0: 2de8 06be bcd3 32be dc79 82bd 7d43 203e
00000200: e416 03be 63ed 033e 5984 0f3e d149 a63d
00000210: 4b1e 2abd 965c 3dbd 8b86 66bd 3678 f73c
00000220: 020c bc3d 6789 3ebe 2331 0ebe 9cfd 20be
00000230: a4a0 783d 61e7 563d dc95 023e 34ee 07be
00000240: 5544 35be 2504 edbd d259 223e 4a9a b4bd
00000250: e44d a8bd bbdb 333e 20dd 4f3d ff02 303c
00000260: 082f e83b 8d6a 0fbe 2055 1cbe a271 cc3c
00000270: 5e4d ffbd b37b e03d 9a09 1d3e 89eb 423d
00000280: c646 debd 14f2 a73d 1ddd 263e 74f3 393e
00000290: 60ae b43c c4c1 d93b 809f 943b f97d 0abd
000002a0: fdc3 1fbd dd3c a93b 512e e6bd 3caa e0bd
000002b0: 9a87 333d c0a3 163d 2987 123e 7c23 f0bd
000002c0: 8025 44bd 96cc f33d cfe1 1b3e 5438 1f3d
000002d0: 8e62 29be 6262 103d fb3a 353b 1c36 02be
000002e0: c48f c3bd 5d97 ebbd 0a01 0f3e d621 0fbe
000002f0: 2e9f febd f8a8 053e aa4a 86bc ce7f 51bc
00000300: cdae f83d 6789 bcbc c87b 24be e0d3 2e3e
00000310: a783 753c 32a9 d53d 1c4c a1bd e479 3dbd
00000320: ef63 a0bc 8ac4 513d 36c1 5bbd ef71 05be
00000330: 8c47 253b b629 ccbd d808 45bd c23f 8ebd
00000340: 2bfe b0bd 8639 a8bd 2af7 0a3d accc 9d3d
00000350: 0786 3fba f210 ed3d 5c11 f1bd 6c16 10be
00000360: c95d 9a3d 0afc b3bd 7881 59bc c824 b73c
00000370: cb38 023d 0b22 dcbd c9f3 013e 98b2 cf3d
00000380: 1043 e3bd ae39 06be 2ef5 82bd e160 ec3d
00000390: c261 0c3d 1f65 96bd c869 0ebe 21d6 16be
000003a0: 6cea a1bd 9efc b2bd 3b67 e0bd 05ef 32bc
000003b0: ad54 8cbd 1dd1 9fbd a084 61ba c131 1d3e
000003c0: bd82 b9bd 7e72 13be 1120 dfbd 8dc6 fb3c
000003d0: ad63 4b3a d414 5dbd 1866 ab3c b618 823b
000003e0: 4b8d 91bd 53cc 81bd 67c7 e7bb 11e6 3dbb
000003f0: 1263 d7bd 7032 973a a45c e73d ff3f 203e
0.082791366 0.014791744 0.12052663 0.07882588 0.13160048 0.0029884563 0.03834674 -0.0014041539
-0.052685443 0.11919033 -0.11778257 0.11067972 -0.05874515 -0.030620562 -0.1106427 -0.17315464
0.057143997 0.05391873 -0.18614489 -0.00072067557 -0.13928324 0.025926279 -0.13882016 0.037153997
0.055717394 0.13805066 -0.13938972 0.08461901 -0.15439394 0.13639137 0.042932604 -0.096236326
0.0943822 0.05994559 -0.077794336 0.042259518 0.052710313 -0.03570383 -0.103215836 -0.057038568
0.16871938 0.1383781 -0.12023232 -0.16437557 0.13076106 -0.16655444 -0.17392828 0.1295857
0.1168746 -0.15088584 -0.069301136 0.03915482 0.027694454 -0.16160862 -0.06648013 -0.0652622
0.11458141 -0.08692609 0.09144364 -0.015069269 -0.1265393 -0.03586707 0.050666418 -0.03392303
0.003078064 -0.09778376 0.06180017 0.19819278 0.06748268 0.0026901518 -0.1305569 0.08300117
-0.056649372 -0.18605074 0.09205427 0.1501314 -0.021616587 -0.022159157 0.12351325 0.12449095
0.1704304 0.17728767 0.14568648 -0.1505388 -0.048774138 -0.13713425 0.015609721 0.048488475
-0.062250115 0.09581879 -0.040991973 0.14450796 0.080101244 0.10421473 0.14183432 0.075477384
0.089778885 -0.046151597 0.1675373 -0.16210893 -0.16560362 -0.14439735 -0.1552327 -0.072088234
-0.077033676 0.097639635 -0.062260903 0.018564807 -0.06314832 0.008741474 -0.093520105 -0.10412789
0.13518445 0.12405289 0.16070305 0.07001806 0.0115112625 0.084657826 0.14891347 0.07555074
0.009626068 -0.13721357 0.14976896 0.045446057 -0.13174506 -0.17463583 -0.06370899 0.15650745
-0.12801701 0.12883525 0.1401533 0.08119548 -0.041532796 -0.046230875 -0.056280654 0.030208688
0.09181978 -0.18607102 -0.13885932 -0.15721744 0.060700074 0.052466754 0.1275248 -0.13274461
-0.17701848 -0.11573056 0.15854576 -0.08818491 -0.082179815 0.1756429 0.05074799 0.010742902
0.0070856847 -0.1400549 -0.15266848 0.024956528 -0.124659285 0.10961094 0.15335694 0.047587905
-0.10853343 0.082004696 0.16295286 0.18159276 0.022055805 0.006645413 0.0045356154 -0.033811543
-0.03900527 0.005164726 -0.11239303 -0.1096997 0.04383049 0.036777258 0.14309372 -0.11725518
-0.047887325 0.11904256 0.15222858 0.038872078 -0.16541502 0.035250075 0.0027653563 -0.12715954
-0.095489055 -0.1150348 0.1396524 -0.13977751 -0.12432705 0.13052738 -0.016393024 -0.012786819
0.121427156 -0.023014737 -0.16062844 0.17073011 0.014985002 0.10432662 -0.07875845 -0.046258822
-0.019578902 0.051212825 -0.053651057 -0.13031743 0.0025219647 -0.09968893 -0.048104137 -0.069457546
-0.08642229 -0.08214097 0.03392712 0.07705054 -0.00073060434 0.11575498 -0.11770889 -0.14071053
0.07537419 -0.08788307 -0.013275497 0.022356406 0.031792443 -0.10748681 0.12690653 0.10141486
-0.110967755 -0.1310794 -0.063944206 0.11541916 0.034272917 -0.07343506 -0.1390754 -0.14730121
-0.079060405 -0.08739589 -0.1095719 -0.0109212445 -0.06852088 -0.07803557 -0.00086028315 0.15351011
-0.090581395 -0.14399144 -0.10894788 0.030734325 0.00077586883 -0.05397494 0.020922706 0.003970231
-0.071070276 -0.063378 -0.007073331 -0.0028976242 -0.10516943 0.0011535417 0.11296967 0.15649413

bias f4 [128]
00000000: 5153 debc 5d46 133e 203a 623d 1199 04bd
00000010: e65b 00be 5353 a8bd 0e10 febd d840 0ebe
00000020: e94c ecbc a35a ccbd 0171 1abe 06f6 5f3d
00000030: 446c f53d 46ed 863d 79d8 95bc 2e7a f8bc
00000040: a2ce 99bc 0b02 ab3c 35f4 f6bd fbd4 c5bd
00000050: 3578 293e 02d9 6f3d b3bb e8bc 95a9 c4bd
00000060: 3c13 813d 5f39 173e 96d4 87bd 0e84 c33d
00000070: d422 4cbc aa06 c6bb 8c21 67bc 79f1 063e
00000080: ec47 bfbc 8b7a 06be 5598 a83d cc5f 80bd
00000090: 5ba5 023e 43cc 2abe 4a87 c33d e64b 383e
000000a0: 4236 f53d 4d34 b8bd f279 ac3d ed54 42bc
000000b0: 55b1 fe3c a1ec 503d dc28 5cbd a201 a4bd
000000c0: b38f 11be 791d b73c 6086 c43d 4c1e e23d
000000d0: 1a48 dbbd b16c 79bd 7722 733d 2475 1d3e
000000e0: fcea 1c3e 3478 0d3e ea46 3fbe 01a7 5d3d
000000f0: 4cd6 15ba 8040 d8bd 7956 27bd 36f2 e1bd
00000100: dbc7 663d 25e4 973c 719a 9e3d d674 8dbd
00000110: 290b 1e3c 4a64 063e 4db6 683d 9b9e f0bd
00000120: 5274 9b3d 855e c3bd b171 663d ab3d 19be
00000130: e320 063e 1f31 34be 58d2 1ebd 49c8 123e
00000140: a6af f3bd 8a59 0cbe aa03 4ebd 9bee 6d3d
00000150: 73a4 1bbe 90c2 ee3d 6e62 c3bd 3e01 29bd
00000160: 6cf9 cb3d 6166 a0bd 65b1 1e3d d54e 27be
00000170: 8e76 3e3e f92a e83d 1e3e 04bd 220b 1fbd
00000180: ec1c 0dbc a17a 8b3d 0a38 1b3d cb37 013d
00000190: d150 59bd e70f 2ebd 322d 08be d2b6 55be
000001a0: 6280 423d be40 f8bd c8fa eebd 926d ac3d
000001b0: b615 40bd 756a 6c3d 6eab 01be 969c abbd
000001c0: 6bbf 963d 5015 b63d e53a d83d 712a edbd
000001d0: f8a5 d6bd b81c 9abc 9fb1 41bb f2ef bc3d
000001e0: c4df cd3d 1bcc a0bd 0fd3 2dbe e145 983d
000001f0: 35cd e13d 66c8 81bb c9ec 32bd a17b 113e
-0.027139338 0.1438231 0.055231214 -0.032372538 -0.12535056 -0.08219018 -0.12405406 -0.13891923
-0.028845267 -0.09978225 -0.1508217 0.054677986 0.11983541 0.06588225 -0.018291699 -0.030331697
-0.018775288 0.020874998 -0.120582975 -0.096597634 0.16549762 0.058556564 -0.028409814 -0.09602658
0.06302497 0.14767979 -0.066323444 0.09546672 -0.012459476 -0.006043275 -0.014107119 0.13178052
-0.023349725 -0.13132684 0.0823218 -0.06268272 0.1275839 -0.16679482 0.09547289 0.17997703
0.119732395 -0.089943506 0.08421697 -0.011861068 0.031090418 0.051006917 -0.053749904 -0.08008124
-0.14214973 0.02235292 0.095959425 0.11040935 -0.10707112 -0.06089467 0.05935904 0.15376717
0.15324014 0.13815385 -0.18679395 0.054114345 -0.00057158316 -0.105591774 -0.04085395 -0.11032526
0.05634294 0.018541405 0.07744301 -0.0690705 0.0096462155 0.13124195 0.05681448 -0.117490016
0.07590546 -0.095395125 0.05626077 -0.1496493 0.13098483 -0.17596863 -0.03877482 0.14334215
-0.11898737 -0.13706031 -0.050296463 0.05808888 -0.15199451 0.116582036 -0.09540258 -0.04126095
0.09959683 -0.07832027 0.038743395 -0.16338666 0.18599913 0.113363214 -0.032285802 -0.038828976
-0.008612853 0.06810499 0.03789524 0.03154735 -0.05305559 -0.042495634 -0.1329849 -0.20870522
0.047485717 -0.121217236 -0.116689265 0.084193364 -0.046895705 0.057718713 -0.12663051 -0.08379476
0.07360729 0.08890784 0.10558108 -0.11580361 -0.10480875 -0.018812522 -0.0029555333 0.092254534
0.100524455 -0.0785143 -0.16975044 0.07435203 0.11025468 -0.003960657 -0.043682847 0.14207317

weight f4 [32]
00000000: 1848 783f bc1d 733f aa93 763f f595 8d3f
00000010: 04da 733f bc56 793f f1c6 6f3f 03b2 803f
00000020: 5eed 743f 8fa4 733f 70b3 7b3f e6e2 6f3f
00000030: 02c0 7d3f 743d 773f f9a0 763f 80c9 6d3f
00000040: aa62 763f 7c21 763f 3cdd 7b3f 6747 733f
00000050: fa2c 823f b796 743f 0e4c 813f 8b1f 7b3f
00000060: 0341 793f 1c6b 723f fdff 7e3f e03d 813f
00000070: d1a0 7e3f b2ad 7c3f df74 743f 8346 813f
0.96985006 0.94967246 0.9631907 1.1061388 0.9525454 0.9739797 0.93662935 1.0054325
0.95674694 0.9517297 0.98320675 0.93705595 0.99121106 0.96578145 0.96339375 0.9288559
0.962443 0.96144843 0.9838445 0.95030826 1.0169976 0.9554247 1.0101335 0.98095006
0.97364825 0.94694686 0.9960936 1.0097008 0.99464136 0.9870254 0.9549083 1.0099643

bias f4 [32]
00000000: 51fd a03b b7df 2fbd ea14 24bd d0b0 8f3e
00000010: 3776 6dbd 5cea d03b b419 ba3b 4c4f 153d
00000020: ddd8 1bbd d2ef 07bd 0427 8e3c 7475 5dbd
00000030: 34ad abba 9d31 a23c 058b 5a3c fb2d c5bd
00000040: 4b2d a73a 8e4e dcbc 45f5 fcbc ed6b 5cbc
00000050: 9ab8 8e3c 3a28 bf3b 1a51 bf3c 1f1a 83bc
00000060: 2ff4 07bd 398b 0cbd 2f4a 2aba 903f b6bc
00000070: a51f f4bb 2c81 ec3c 3b81 d2bc e232 343d
0.00491301 -0.04293796 -0.040059008 0.28064585 -0.057974067 0.006375594 0.0056793336 0.036452577
-0.038048614 -0.033187695 0.017352588 -0.05406709 -0.0013097883 0.019799048 0.013338809 -0.09627911
0.0012754587 -0.026892927 -0.030878672 -0.013453466 0.01742201 0.005833653 0.023354102 -0.016003666
-0.033191856 -0.03431246 -0.00064960396 -0.022247106 -0.0074500614 0.028870188 -0.025696388 0.043993838

running_mean f4 [32]
00000000: b7f6 973f 968f a03f a9ee 9340 64f4 853d
00000010: 2d9a c83f 7181 5fbf 29ad df3d 45cb 533f
00000020: 3b04 fc3d 56b0 8fbf ade8 00c0 0f7d 6cc0
00000030: 6b03 88c0 e8d6 8e3f a6bd ee3d 1b86 a340
00000040: 74b9 d03d b56e 6940 75d0 0740 e206 94bf
00000050: d659 3fbf 2087 5640 22f4 00be 5f0d 52c0
00000060: 152c 0740 60cc 5fc0 066e b53f 4212 5140
00000070: f063 92c0 e62c 4bbf f3e2 bf3e 7105 5d3f
1.1872166 1.2543819 4.6228833 0.065407544 1.5672051 -0.87306887 0.109216996 0.8273204
0.123054944 -1.1225688 -2.0142014 -3.695133 -4.250417 1.1159334 0.11657266 5.1101203
0.101916224 3.647382 2.1220982 -1.15646 -0.74746454 3.3519974 -0.1259313 -3.282066
2.1120656 -3.496849 1.4174201 3.2667394 -4.5746994 -0.79365385 0.37477836 0.8633643

running_var f4 [32]
00000000: 8f83 7e41 db75 3840 4492 4841 d324 3a38
00000010: 6f13 b941 ff5c 0540 c6e8 3540 f297 4441
00000020: e346 a141 a396 cf40 8cb1 d241 af7a 1741
00000030: 1604 2841 c180 8841 8922 2a41 d087 9341
00000040: e112 3e41 e9eb bc41 c1b3 4b40 4f2f 8e40
00000050: b645 3442 8204 4c41 2a23 dd40 35df 7441
00000060: 5ebe 4f40 5554 7c41 24ac 1c42 2247 6441
00000070: 001a 5d41 2aad af40 c0f2 3042 20ad bf41
15.907119 2.8821933 12.535709 4.438015e-05 23.13449 2.083801 2.8423324 12.287096
20.159613 6.4871383 26.336693 9.467452 10.500998 17.062868 10.633431 18.441315
11.879609 23.61519 3.1828463 4.443275 45.068077 12.751101 6.9105425 15.304494
3.245994 15.770589 39.168106 14.267366 13.818848 5.489888 44.23706 23.959534

weight f4 [32, 136]
00000000: b011 953d 6612 a9bd 06b4 b43d e8f2 17bb
00000010: 0668 c8bc c2cb 843d 49f1 4dbc a726 4f3d
00000020: 71be 74bd da74 d8bd 0341 2a3b 0418 2b3d
00000030: 1dcc 2cbd cfe8 823c 4002 86bc b7bc 6fbc
00000040: f33e 95bc 1fb3 abbd 194a 7cbd 57ed b43c
00000050: 547b 0bbb 37d2 f23c 6fd1 163d 42dc 38bc
00000060: 8fa2 81bd bf7e 3d3d 488f e33c 73f6 6b3c
00000070: 69c7 4f3d ec2b 2abd 1250 15bd cd0a 1c3d
00000080: 2ae3 86bd 4ce5 0c3c a742 6cbc 27ab 56bd
00000090: a55f 3abd 8fa2 80bc 1fd5 0c3d 309f 92bd
000000a0: 3a3d a23d 807f 0cbd a100 aa3d 5ab9 1b3b
000000b0: 68bf 823c cc0a a0bd a19b 2dbd 73f8 68bd
000000c0: c750 613d 3639 b3bd 11de 27bb b6c3 433d
000000d0: 25bb a8bd c163 15bd 9516 923c 5c68 853d
000000e0: def8 a03d 64aa 233a 3ba8 8d3a 6d47 7e3d
000000f0: 7634 8ebb deec 3d3b 1f55 5cbd e84b 2fbd
00000100: e2b9 453d ab39 bcbc 1e45 0abd 7a7e 9b3d
00000110: 8eb0 14bc 9d5d 89bd 98b4 65bc 39bb a43d
00000120: bde6 433d 2d19 f33c 7292 02bd 07a6 98bd
00000130: 986e 4a3c ce97 7c3c 69a1 0f3d 88bd 403c
00000140: cf2a 063d 4278 9b3d 7cc0 42bd 5bce e53c
00000150: db62 76bd 6ba5 3a3d 9b35 bfbc 450d bd3d
00000160: 944e f63c c18f 9abd 7d4b 463c e882 cabd
00000170: 305a 523d 26e4 463d de69 ac3d 1f2b 923d
00000180: 7883 84bd 4f22 d4bc c9c1 893d ac26 b93c
00000190: 7a9d 7b3d e870 c93d 72e4 4e3d 95ec 703d
000001a0: 14be be3c dfc0 bcbd f292 63bd 58f0 2fbd
000001b0: 5314 a13d 903c adbd 1b27 aa3d bc34 15bd
000001c0: 29da 6dbc 6e65 1ebd 0412 2d3d bd7e b4bc
000001d0: f255 163a 734e 04bd ccad a23d 9751 b13c
000001e0: 0e54 3b3d 04be df3c b81d a8bb 92f6 343d
000001f0: ebbd f03c 0fd2 923d a92b bb3d 1b2a 78bd
00000200: 9d33 2ebd 64cd 013d 946b bebd 388c 9dba
00000210: 0e59 1dbd 61f6 253d 77f1 6f3c d451 8c3c
00000220: 227a 5bbb ba87 a7bd d755 30bd 45cc 9a3d
00000230: 62aa e03a 3d51 5f3c a9ab 52bc 6165 673d
00000240: c16c 97bd 4f0d 7ebd 7328 58bd 6211 523d
00000250: f415 213d 1c9a 0dbc f53d f2bc 22f6 87bd
00000260: 9892 52bd d093 7f3c a77a abbc e022 573d
00000270: f5e4 8c3c afee c23c 45ec a2bc 2c80 803d
00000280: 09fe bdbd 7495 30bd 3c57 a2bd 7d3b 893c
00000290: 1d08 47bd f230 623c c10c c53d c730 5f3c
000002a0: f059 153c 3df4 a63d 483d 64bd d038 5b3d
000002b0: d464 45bd 547c a3bc c671 833d 82c5 95bd
000002c0: 7d80 8e3d 3877 7b3d 9fc7 6f3c eb11 433d
000002d0: ff0c 263d 7d59 993d 22fc 9abd 3c0e 72bd
000002e0: c6f5 62bc 23c4 b9bc 083c a13b 7cf8 94bd
000002f0: 7733 873c 436e 233b a7dc 5ebd 816e bdba
00000300: f4fd 6abd 802e 393d f71c 663d 981d 873d
00000310: 435a a5bd 8386 83bd a352 9a3d 8c26 9a3d
00000320: 4797 0c3d eab7 60bc 93fa 44bb f679 023d
00000330: e61f b43d e883 2bbc eced 0fbc ef96 443b
00000340: 7fc0 bdbb b326 34bd 40f7 a93d 4a27 45bd
00000350: 91ca c93d 1b27 ba3d eb09 41bd f5b5 97bd
00000360: 56b0 68bd a512 6e3c 97a1 e43c b5d6 b43c
00000370: 5fb9 253d e7ef 0bbd f83f babd 03b7 2b3d
00000380: 6a59 d63c ab40 9dbd 942f c1bd ecb6 79bc
00000390: 1327 673c bf7a acbd b012 843c 83f1 03bd
000003a0: 060b 67bd c995 b33b 031f 493d d547 19bd
000003b0: 0de8 97bc 9061 393d 8484 6abd 9ffa 31bd
000003c0: feb4 88bd db77 933d 54ad 5c3d 0b10 1d3d
000003d0: c8da 9a3d a593 13b9 d864 1bbd 48c3 633d
000003e0: f93d 4cbc 0102 87bc 77a3 1abb 69cd 31bd
000003f0: aeef 523b 86cb 23bd 4a43 26bd 0bf8 193d
0.07278764 -0.08255462 0.08823399 -0.0023185555 -0.024463665 0.06484176 -0.012569734 0.05057397
-0.05975193 -0.10569163 0.0025978691 0.04177095 -0.042186845 0.015980152 -0.016358495 -0.0146323955
-0.018218493 -0.08383774 -0.061594103 0.022085829 -0.0021283226 0.029641254 0.036820825 -0.011282982
-0.06329834 0.046263453 0.027778283 0.01440202 0.05072728 -0.041545793 -0.036453314 0.038096238
-0.06586297 0.0085995905 -0.014420188 -0.052409317 -0.04550137 -0.015702514 0.034382936 -0.07159269
0.07921834 -0.03430128 0.08300901 0.0023761601 0.01596041 -0.07814559 -0.042384747 -0.056877565
0.055008676 -0.087511465 -0.002561454 0.047794066 -0.0823882 -0.036472086 0.017833034 0.065140456
0.07859968 0.0006243347 0.0010807583 0.062079836 -0.00433975 0.0028980295 -0.053792115 -0.042797
0.048272975 -0.022976717 -0.03375732 0.07592483 -0.009075297 -0.067073084 -0.014020108 0.080435224
0.04782747 0.02967509 -0.031877942 -0.07453542 0.012355469 0.015417052 0.035066042 0.011763938
0.03275567 0.07591297 -0.04754685 0.0280525 -0.06015287 0.04556791 -0.02334099 0.092310466
0.030066766 -0.0754695 0.012102959 -0.0988825 0.05135554 0.048557423 0.0841863 0.07137131
-0.06470388 -0.025895266 0.06726415 0.022601448 0.06142948 0.09835988 0.05051083 0.058819372
0.023283996 -0.09216475 -0.05556006 -0.04295382 0.07865205 -0.08458817 0.0830824 -0.036427245
-0.0145173455 -0.03867095 0.04225351 -0.02203309 0.0005734853 -0.032301378 0.079433054 0.02164535
0.045734458 0.027312286 -0.005130496 0.04418046 0.029387435 0.07168972 0.09139187 -0.06058703
-0.04252969 0.031690016 -0.09297863 -0.0012019938 -0.038415007 0.04051817 0.014644972 0.017128862
-0.0033489545 -0.08180185 -0.043050613 0.075584926 0.0017140622 0.013630209 -0.01285831 0.056493167
-0.0739379 -0.06202441 -0.05277295 0.05128611 0.039327577 -0.0086427 -0.029570559 -0.06638743
-0.051409334 0.015599206 -0.020932509 0.052523494 0.017199019 0.023795454 -0.019888053 0.06274447
-0.09276969 -0.04311128 -0.07926795 0.016751999 -0.04859172 0.013805615 0.09621573 0.013622469
0.009115681 0.081520535 -0.055722505 0.053520977 -0.04819186 -0.019956745 0.06418185 -0.07313062
0.06958101 0.061392993 0.014634996 0.04762451 0.040539738 0.07487772 -0.07567622 -0.059095606
-0.013852542 -0.022676533 0.0049204864 -0.07273957 0.016504033 0.0024937547 -0.05440965 -0.0014452488
-0.057371095 0.04521036 0.056179967 0.065974414 -0.08073857 -0.064221404 0.07535293 0.075268835
0.034323957 -0.0137157235 -0.003005658 0.031854592 0.08795147 -0.010468461 -0.008784752 0.002999719
-0.0057907696 -0.04398222 0.08299112 -0.048133172 0.098530896 0.0908949 -0.0471286 -0.074077524
-0.056808792 0.014530812 0.027909083 0.022075037 0.040459987 -0.034164336 -0.09094232 0.04192258
0.026165683 -0.0767835 -0.09432903 -0.015241366 0.014108437 -0.084218495 0.016122192 -0.032212745
-0.056406997 0.0054805023 0.04910184 -0.03742202 -0.018543268 0.04525906 -0.057255283 -0.0434519
-0.066751465 0.07200595 0.053876236 0.038345378 0.075612605 -0.00014074014 -0.03793797 0.055606157
-0.012465947 -0.016480448 -0.0023595968 -0.043408785 0.0032186317 -0.039989017 -0.040591516 0.037590068

bias f4 [32]
00000000: 386f 613d 302c 413d 2eb9 95bc 6c5f a2bd
00000010: 45e8 b3bd 1ea6 dfbc 967e dabc f90d 6a3b
00000020: 5f45 11bd bdbf 243d 6dd7 2e3d d111 48bd
00000030: 0e80 9c3d 4835 4b3c 4ae4 8c3d 2405 b63c
00000040: 3d85 58bc dd5a 343d e22e 533d f736 37bd
00000050: ce59 943d 5a83 a3bc 47db 5ebd 0a07 adbd
00000060: c6c7 d0bc a3e7 773d e6e6 b23d 615c acbb
00000070: 4439 b2ba 0fff 043d 02fb a03d d1ae d1bc
0.055037707 0.04716128 -0.018276777 -0.079283565 -0.08784536 -0.02730089 -0.026671689 0.0035713895
-0.035466548 0.04022192 0.042685915 -0.048845116 0.07641612 0.01240284 0.0687948 0.022219248
-0.01321536 0.044031966 0.051558383 -0.044730153 0.072436914 -0.019960094 -0.054408338 -0.08448608
-0.025485884 0.06052364 0.08735447 -0.005260036 -0.0013597389 0.032469805 0.07860376 -0.025596054

weight f4 [8, 32]
00000000: 4527 cdbd ca40 ab3d dec6 b4bc cc0f 10be
00000010: e556 c3bc 081d dc3d 74c8 e43c 99e8 dfbd
00000020: 28f8 2f3e 4da7 b6bd df3e b3bd da08 2c3e
00000030: ef41 f33b 5ce7 85bc d039 e2bb 4bb9 f6bd
00000040: 5a98 40be 7aa1 c53d 6a5c 2b3d f113 9fbd
00000050: 16ed e93b 5d24 a2bc f5b8 f4bb eed4 edbd
00000060: 9805 dd3d dd68 003e a40c a3bc ec94 343e
00000070: d10c d33d 90a8 15be 69a1 4e3d fce4 a0bc
00000080: bbc2 623e 64c4 ca3d 8449 f73c cad7 b1bd
00000090: 6658 1ebc 2b9d 5abd d9dd 763d 078e cc3d
000000a0: 1c6b f7bd 8c1f 053d 0c49 b8bc 04ad 21be
000000b0: 4479 173e 894e 0c3e 5f55 0b3d d06b df3d
000000c0: 6224 d03d 9008 c8bd 6df1 153d 3ed1 1f3e
000000d0: 7c32 18bd 79d8 dabd 860a 41be b59b 3fbd
000000e0: 7baf 813d ecce 9b3d 433a b53c a551 2abc
000000f0: a169 ff3d e05d 66bc daf4 f6bd 7e38 cc3d
00000100: dffb 223e 847c c13d c0f7 26be 0692 313e
00000110: b9a0 16bd 58b3 0cbe 8e13 9cbd 57b3 1d3e
00000120: 2611 3b3d 80f7 e0bd 10f9 86bd ae79 8c3d
00000130: 05c0 abbd 15ba 203e 51e4 9a3d 574f 52bd
00000140: 0eaa a43d 7cf8 0dbd 6944 50bd c0d7 ad3d
00000150: 4813 b93d 7af1 d63d 32f0 c43d c89a abbd
00000160: fd6d c43b 3c83 943d 288b 9bbd 74e9 a3bd
00000170: 57c4 10bd 7a9c 0cbe 8e83 d0bb b223 d43d
00000180: 5b1b 343e 7dfd d33d dccd 34be 7682 f43d
00000190: 10d1 b2bd 1514 c9bd 9c0a 393d f3dd 193e
000001a0: 724c da3d 32a5 49bc 8e07 633d ecb0 68bd
000001b0: adce f7bd 0048 2cbd 9f33 25be b292 253d
000001c0: 9b82 f2bd d690 2a3e a1d7 6b3c e63b 2dbe
000001d0: 6a31 1abd 4f83 d73d 3425 5e3d 0da9 aabc
000001e0: 5a83 dfbd 77b5 b8bd c943 0c3d fa94 b53c
000001f0: 9e80 fa3c 66e3 8fbd 22cb b3bd 72ed 993d
00000200: 5c86 293e c36d 07be a27f a43d e408 bc3d
00000210: b33d 2d3e fa9d 313e eea0 403c f211 fb3d
00000220: dd6b 06be 2865 16be 84bb 8bbd e2f5 fcbc
00000230: a0a5 373c 8fa1 1139 1741 e03d 7ad7 dbbd
00000240: 0c82 693c 47f6 2e3e e892 96bd 1352 91bd
00000250: 02f6 313d cbd3 613d 16c4 2fbe 8c13 0dbe
00000260: 6751 1dbe aaad ce3d 9758 1bbc a083 2ebe
00000270: b8c5 38bb 17c2 17be 3a1c 8ebd cc06 db3d
00000280: a943 18be b4e2 23bd 9a4f ebbd bf27 313c
00000290: 111f e53d 7029 06be 333a e13c 4a98 07bc
000002a0: a543 19be 4db6 223e 1ee9 263e abaf 393c
000002b0: 6da4 33be 1bd9 2b3e eb15 53bc 9696 cb3d
000002c0: 6104 2a3e fddb 08be 04ef 4c3d efc9 d8bc
000002d0: 38a2 d73d f9db 3dbd d39e e9bd 2afe 293e
000002e0: 2a6c 3ebe cff7 963d 0c82 3bbe f8bf 2dbe
000002f0: 0a3b a43d 1637 d13d 527b a6bd c41c 26be
00000300: ac42 0ebe 2e8d 3a3e 6b7a 3d3d cb26 07bd
00000310: a074 a9bc a9a0 10be 2146 9d3c 0db2 0abe
00000320: 9ec1 19be 181e 92bc e540 35be 7b0b 12be
00000330: c866 a63d 6a4b 83bd 2c00 98bd f5b9 e7bc
00000340: 14cd 8a3d 6b8b 60bc 0475 bc3d 733a ed3d
00000350: 151e d23d 6007 0fbe f9e8 4a3e 2eb6 313e
00000360: 128a 2c3d 5db1 dfbd 92a4 fbba 12d7 1dbe
00000370: 86bf 3f3e e001 a2b9 7629 eb3d 4e98 143d
00000380: 5ecb 1dbd 765a c7bd cac9 1cbe 0251 fc3d
00000390: 5c71 0fbd f4bb d3bd 3e08 22be af51 4f39
000003a0: 17f7 d8bd 9488 183e e4e4 1b3e 52fe e7bd
000003b0: 2788 9cbd c112 f23b 70f3 d93d c0a5 923c
000003c0: dff6 473e 9e28 1c3e b12d 233d d9a1 06bd
000003d0: 758b e0bd aa2d fe3c 89e2 9b3c 1d39 5e3d
000003e0: 9ced ffbd 15e1 17be d46e 993b 16e7 e03d
000003f0: b484 f5bd 190d 75bd b593 4e3d 3147 31be
-0.10017256 0.08361967 -0.022067484 -0.14068526 -0.023845145 0.10747725 0.027927615 -0.10933036
0.17184508 -0.08918629 -0.08752226 0.16800252 0.0074236314 -0.016345672 -0.0069038644 -0.120470606
-0.18808118 0.0964994 0.04183618 -0.077674754 0.0071388585 -0.01979273 -0.0074683377 -0.11612879
0.107920825 0.12540002 -0.019903488 0.17634934 0.10305179 -0.14615083 0.0504469 -0.019640438
0.22144596 0.0990074 0.030186422 -0.086837366 -0.0096646305 -0.053372543 0.060270164 0.09988027
-0.12080976 0.03250079 -0.022495769 -0.15788656 0.14792353 0.13701834 0.034016963 0.109092355
0.101631895 -0.09767258 0.036607195 0.15607163 -0.03715752 -0.1068582 -0.1885167 -0.046779353
0.06332298 0.076078266 0.022122508 -0.010395442 0.12471319 -0.0140604675 -0.120584205 0.099717125
0.15916394 0.094475776 -0.16305447 0.1734086 -0.03677437 -0.13740289 -0.07620917 0.15400444
0.04567065 -0.10984707 -0.06590474 0.06859146 -0.08386234 0.15695985 0.07563079 -0.051345196
0.08040248 -0.0346608 -0.05084649 0.08488417 0.09036881 0.10495277 0.09616126 -0.083791316
0.005994557 0.072515935 -0.07594901 -0.08003512 -0.035343494 -0.13731566 -0.006363339 0.10358371
0.1758856 0.103510834 -0.17656654 0.11938946 -0.08731282 -0.098182835 0.045176134 0.15026073
0.10659112 -0.012307452 0.055427127 -0.05680935 -0.12099967 -0.042060852 -0.16132973 0.040423103
-0.11841317 0.16656813 0.014394672 -0.1691738 -0.03764478 0.10523092 0.0542347 -0.020832563
-0.10913725 -0.09018987 0.034244332 0.022165764 0.030578908 -0.07025795 -0.08778979 0.07515992
0.1655516 -0.13225465 0.080321565 0.09181383 0.16918068 0.1734542 0.011757119 0.12259282
-0.13127084 -0.14687026 -0.06822875 -0.030878965 0.011208922 0.00013888463 0.10949915 -0.10734458
0.014252197 0.17086135 -0.07352239 -0.070957325 0.043447502 0.055133622 -0.17164645 -0.13776988
-0.15363084 0.100917175 -0.009481571 -0.17042398 -0.0028194021 -0.14820133 -0.069389775 0.10694656
-0.1486956 -0.040011123 -0.11489792 0.010812699 0.11187566 -0.13101745 0.027493572 -0.008276055
-0.1496721 0.15889855 0.16299865 0.011333386 -0.17543192 0.16782038 -0.012883644 0.09940831
0.16603233 -0.13365169 0.05003263 -0.026463477 0.10528988 -0.04635236 -0.114072464 0.16600862
-0.18595949 0.073714845 -0.18311328 -0.16967762 0.08019073 0.10215585 -0.0812899 -0.1622191
-0.13892621 0.18217918 0.046259325 -0.03299598 -0.020685494 -0.14123787 0.01919848 -0.13544483
-0.15015265 -0.017836615 -0.17700537 -0.14262192 0.08125073 -0.064108685 -0.07421908 -0.028286913
0.06777397 -0.013705115 0.092020065 0.11583414 0.10259644 -0.13967657 0.19815435 0.17354652
0.04212386 -0.10922501 -0.0019198826 -0.15414074 0.18725404 -0.00030900445 0.114825174 0.03627806
-0.038524024 -0.09734051 -0.15311351 0.123201385 -0.035020217 -0.103385836 -0.15823457 0.00019771488
-0.10594004 0.1489585 0.15224034 -0.113278046 -0.076431565 0.0073874895 0.10642135 0.017901301
0.19527768 0.15249869 0.039838497 -0.032869194 -0.10964099 0.031027634 0.019028919 0.054253686
-0.12496492 -0.14831956 0.004682401 0.10981576 -0.11988202 -0.059826944 0.050433833 -0.17312314

bias f4 [8]
00000000: 9235 503d d4b5 2dbd bc50 2f3e 851c e3bc
00000010: d51e c3bd 8385 8e3c 9b92 b8bd a8ed d93d
0.05083234 -0.042409733 0.17120641 -0.02772356 -0.09527365 0.017397648 -0.09012338 0.106410325

weight f4 [32]
00000000: c80c 853f eba5 823f c254 803f 0547 7a3f
00000010: 35c3 7f3f 1276 813f 554a 803f 3dba 7f3f
00000020: c0d5 7f3f e3c1 803f cff2 833f 43af 803f
00000030: e6a3 823f 0d23 813f 9699 7d3f 6aef 7e3f
00000040: 4d1f 843f 3d1d 813f c801 7e3f 0b58 7e3f
00000050: 097b 763f d68e 7a3f daf4 843f d41b 7c3f
00000060: 05d0 813f 54d1 803f d40c 823f 98b6 7c3f
00000070: 2833 813f 29ac 7e3f 428c 833f c27d 7a3f
1.0394526 1.0206884 1.0025866 0.9776462 0.9990724 1.0114157 1.0022684 0.9989355
0.9993553 1.005917 1.0308474 1.0053486 1.0206268 1.0088822 0.9906248 0.99584067
1.0322052 1.0087048 0.9922147 0.9935309 0.96281487 0.978742 1.0387223 0.9847996
1.0141608 1.0063882 1.0160165 0.98716116 1.0093737 0.99481446 1.0277178 0.9784814

bias f4 [32]
00000000: 9004 563b d5ab 033d cdde 183a 997b 5ebc
00000010: a2c6 5f3c 57a2 843b b783 87bb ec6f b7bc
00000020: fcc8 6a3c 39ef 3d3b 5029 073d bfec 3bbb
00000030: bfaa 543d e49c 163d 7d34 4cbb c1d5 76bc
00000040: ea83 db3c 36fd 0dbc 506d 84bc 183c b0bc
00000050: 709d 04bd 48c1 bfbc 0203 663c b5fc 13bd
00000060: 48ab 1e3d 0297 cb3c f70d 1e3d 0df0 52bc
00000070: f451 553b e2b1 463c 88cd 533d 2d95 3d3c
0.0032656528 0.032146294 0.000583154 -0.013579273 0.013658198 0.0040476727 -0.0041355747 -0.022392236
0.014330145 0.00289817 0.032998383 -0.0028675047 0.05192065 0.036770716 -0.0031159215 -0.015065611
0.0267963 -0.008666327 -0.016165406 -0.02151303 -0.032376707 -0.023407593 0.014038803 -0.036129672
0.038737565 0.02485228 0.038587537 -0.012874615 0.0032550069 0.0121273715 0.05170968 0.011571211

running_mean f4 [32]
00000000: 0ca1 17bf 5ccc 3ebd 12d6 1ebf 1c4f 183d
00000010: 1d40 ed3d b590 edbd b778 aa3c e715 58be
00000020: 0094 83bd f89d c7be 7eee adbe 38dc 5d3e
00000030: 3bb6 11bf 4c42 eebe 87e1 623d acd0 5ebe
00000040: 7216 78be e1a9 0d3e ad97 f43e 62e5 f1ba
00000050: 8d02 62be 5b00 babe 2ffc ba3c 7c49 393e
00000060: c099 74be a2b3 a63e a2e8 06be 455a 07bf
00000070: 42d7 8dbe c82f 95bd a237 07bc f8a5 0fbf
-0.59230113 -0.04658161 -0.62045395 0.03718482 0.11584494 -0.11599866 0.020809514 -0.21102105
-0.06424713 -0.38987708 -0.33971018 0.21666038 -0.56918687 -0.46534956 0.05539086 -0.2175929
-0.24227312 0.13834335 0.4777197 -0.0018455202 -0.22071286 -0.36328396 0.022825329 0.18094438
-0.23886776 0.32558924 -0.1317468 -0.52872115 -0.2770329 -0.07284504 -0.00825301 -0.56112623

running_var f4 [32]
00000000: fbf9 873d dac7 3a3e f4d3 313e fa8c 553e
00000010: b89a 803d 1bf8 cb3d 1b5a c33d ba80 a43d
00000020: c678 7d3e 24c8 483e e7e4 cf3e a092 4e3e
00000030: 2ca6 a93e 0494 763e b394 f13d d6a1 473e
00000040: b8f6 923e ded2 243e 4d6f 5b3e b1e0 d43d
00000050: f6bf 843e 4534 8d3e d448 243e 4fde 923d
00000060: 8c6c 753e 9d47 2e3e cae5 443e a06a 9e3e
00000070: 338c 733d 485f 2e3e 3a5c 8c3e 361e 2e3e
0.06639477 0.182403 0.1736601 0.2085456 0.0627951 0.09959432 0.09538671 0.08032365
0.24753103 0.19607598 0.40604326 0.2017312 0.33134592 0.24079901 0.1179594 0.1949533
0.28703856 0.16096064 0.21429177 0.10394419 0.25927705 0.2757894 0.16043407 0.07171308
0.23967189 0.17019506 0.19228283 0.30940723 0.059459876 0.17028534 0.27414113 0.17003712
