code/model_sol_backups/model_sol_24.pt (torch, 502306 bytes, 158 tensors)

weight f4 [32, 2]
00000000: 507c eb3e 8371 b3be ed79 1b3f ad0c 163f
00000010: a51d edbe 6325 95be cc35 853d cc16 963e
00000020: 6255 31bf a85d 773e 0a7a c33e 4022 d1be
00000030: e14f 02bf a3a9 9abe 8b43 d93d bcd5 7c3d
00000040: 440f 1abf 1659 31bf 38e4 23bf 0d10 9abe
00000050: eb29 2b3f 82ea c6be c147 073f 1ee2 ab3e
00000060: 2a00 96be 4628 2b3e 1fce 6fbe 4ded 36be
00000070: c790 2dbf eb82 cf3e 8ae4 5d3e 3460 cdbe
00000080: 2d28 63be f57e a73e 83e2 0bbf 8983 0e3f
00000090: 5c97 c23e d0eb 7c3e f226 78bd 2ffe fb3e
000000a0: 47a6 02bd 9c4f 33be 06fd 27be 5a30 23bf
000000b0: 3bd5 eabe 39e5 7c3e 3ed3 60be 1c94 21bf
000000c0: 166c cdbe 4295 873e 0857 a5be 6a01 06bf
000000d0: b8ab 4a3d 4d58 cdbe 8e48 80be 8fec 28bf
000000e0: b01e eebe 2533 f6be 2074 94be e8e3 fcbe
000000f0: f92e a73e 1f33 18be a17f 443d 52b6 f33e
0.4599328 -0.3504754 0.6073292 0.5861309 -0.4631168 -0.29130086 0.065044016 0.29314268
-0.6927091 0.24156821 0.38179046 -0.40846443 -0.50903136 -0.30207548 0.10608586 0.06172727
-0.60179543 -0.6927656 -0.6402011 -0.3009037 0.66860837 -0.3885079 0.5284386 0.3357095
-0.29297 0.16714582 -0.23418473 -0.1786396 -0.6779904 0.4052957 0.21669212 -0.4011246
-0.22183295 0.32714048 -0.54642504 0.55669457 0.38006103 0.2469933 -0.060584016 0.49217364
-0.031896856 -0.17510837 -0.16405115 -0.63745654 -0.45865807 0.24696817 -0.21955582 -0.6311662
-0.40121526 0.26481062 -0.32292962 -0.5234591 0.04948017 -0.4010643 -0.25055355 -0.6598596
-0.46507788 -0.48085895 -0.28994846 -0.4939263 0.32653025 -0.14863251 0.04797328 0.47600037

bias f4 [32]
00000000: 7788 1abf c329 23bd 914e 01bf ce57 4ebe
00000010: 80e2 c83e e1ae f73e 3d33 84bd 59d9 843e
00000020: 19b3 24be 2153 43be 80d5 b23e 17f8 42be
00000030: 0c9f 313e c6b3 a53e cceb 02bf 29bc 073f
00000040: fb41 a5be 798f ae3e e003 273e a909 62be
00000050: 5830 e6be 9207 8d38 75a1 58be 9bf1 2abe
00000060: 2a65 eabe 88c2 8c3d a66b 953e 6664 f13b
00000070: c40a cabc 6548 9fbe 8162 06bf 190e 66bd
-0.6036448 -0.03983475 -0.5051051 -0.20150682 0.39235306 0.4837561 -0.064550854 0.25947073
-0.16083945 -0.1907468 0.34928513 -0.19039951 0.17345828 0.3236372 -0.5114105 0.53021485
-0.32276902 0.34093836 0.16310072 -0.22073998 -0.44958758 6.724814e-05 -0.21155341 -0.16693728
-0.45780307 0.068730414 0.29183692 0.0073667048 -0.024663337 -0.3110992 -0.52494055 -0.05616579

weight f4 [8, 32]
00000000: 563b 26bd d22b 84bd 045b ce3c 4715 15bd
00000010: 09d0 c13d c021 0fbd 7178 ee3d b9cd e1bc
00000020: 67ae 79bd 3322 f73c 055a 173d ad36 2cbe
00000030: 345d b2bd 15c2 8dbd 4b2a 14be d862 1dbe
00000040: 19d3 a53d 3e6c 543d 9280 02be fe8c 03bd
00000050: ed0d 843d 9178 9dbd d801 17be 41c1 903d
00000060: 0c6d 0f3e 86cc 643d 53a3 4b3d b6de a0bd
00000070: 9c27 fe3b cdc9 d7bd 4bbf 913c c0ce f2bc
00000080: adc9 a1bd ac3b 79bd f057 eb3d 0756 f5bd
00000090: 3597 b4bd b8dc ba3d 1237 1d3e a5f9 e83d
000000a0: a80c adbd 64f6 b9bd 1f34 8d3d 9041 14be
000000b0: 19ff 0fbe 949c 80bd 6252 37bd 5daf 82bd
000000c0: 8767 2abe 29bc 25be 7098 33be d438 133e
000000d0: 4aed 0bbe 3ce2 9b3c 1fbe eb3d 4b05 8c3d
000000e0: ba4b 29be 0667 8ebd 0c2e dbbd e6a3 c5bd
000000f0: 3f0a 32bc d064 22be 6280 c4bd 2c46 90bc
00000100: 4851 24bc cb48 b83d d36e 333c 9cba 2a3e
00000110: 0535 203d eb0b 47bd c412 013e 05e7 d0bc
00000120: b28d 39be b5bd b0bc e2a3 60bd 8b6f 32bc
00000130: 77cb 193e 0af9 37be f796 28be cc43 6ebd
00000140: 018b b73d 77f0 0ebe 3dfa 07bd 3c81 e6bd
00000150: a556 b53d ed60 79bd 87d2 613c 4130 133d
00000160: 5ba5 2bbe ee40 ebbd 336f d6bb 802e 9d3d
00000170: eb23 853d 7312 25be 331d 22be 8cd0 1fbe
00000180: 39bd 143e ec09 15be 2a36 47bc 6326 ef3d
00000190: 9b66 08be 6d61 dfbd 712c f83d 0f1b 94bd
000001a0: 1f7c adbc 8bda 84bb b568 e43c 625d 0f3d
000001b0: 72c5 0c3d 612a 9c3d f394 7dbc 6759 cb3b
000001c0: 67ef 083e f332 b83c b71d ba3d 2c8f 323d
000001d0: fe40 b13d fe6b 1e3e 6f7a 20be 244c 10be
000001e0: e806 1b3e 4501 a73c 3182 08be 3e1e 0a3e
000001f0: 18b5 09be 795f 03be c8a6 14be 80cd a2bd
00000200: 2d22 193e 9002 ca3c 3661 f73d 6abb 2fbd
00000210: 09e4 0b3e 730e 193e adba 9f3d 8b9a f43d
00000220: 2219 f23d f43a 71bd 9d05 eebc ea10 fd3d
00000230: dacb 1c3e 9d33 0c3e c431 f43d 74f4 c33d
00000240: 3ec3 a9bc 07ae 713c cc55 0dbe 71b9 10bd
00000250: b200 c2bd e935 2d3e 4c76 0ebe 3220 113e
00000260: 2919 993d 33b7 c93d d6e0 1b3e 37dd 293d
00000270: 5362 623c 836d 6c3d 0761 b0bd 4784 07be
00000280: 391d d43d 6343 643d b3fe 313e 87b0 d5bd
00000290: b64b 223e 1703 eabd fb18 22be 7c6e dabd
000002a0: 993b b6bd d9a9 053e a829 afbd 7608 d43d
000002b0: f18b 18be 157a be3c 79b0 2bbe b757 223d
000002c0: b36d 20be ab59 abbd 30f0 f0bd 176f 473d
000002d0: 1856 0b3e 747f 093e a4ea 943d dced 863d
000002e0: 0aef b3bc e2f8 133e 6d1e 1f3e 036e 133e
000002f0: 62ea b53d 349a dc3d 3370 00be efdf 67bd
00000300: 85b7 b9bd 3859 95bb eff9 823c 17fb 783d
00000310: c49b a53d 2e3a 213e 381b 293e a85e 1c3d
00000320: 5d40 003e 2046 29bd 9144 da3d 5c95 943d
00000330: b893 c5bd 414c c23d e967 2ebe f9d8 6d3d
00000340: 691a e33d 3444 e13d f5f4 373c cdb5 0a3e
00000350: 1649 febb 8a6a 9cbd fb92 ba3d 1b7c 263d
00000360: 3c51 0ebe e0f6 323e 5584 393d f5f6 abbd
00000370: 763f bbbd b5d7 de3d 52d9 0b3e fda9 91bd
00000380: 3112 2dbe c663 5abc 4815 4a3d 9055 073d
00000390: e9da 103e 3cea 1f3e 7c00 c23d db84 1e3d
000003a0: 9f94 173d 8cbf c0bd 8b16 09be 285d cb3c
000003b0: 91dd d93a 5b5e 023e 6b88 333d 380d da3b
000003c0: 6036 003e 17e7 d2bd bd43 aabd 6193 5c3c
000003d0: a34b 683d 8add 0ebe e802 6dbd 66e0 21be
000003e0: 85e9 d53c eb5b aabd fbf2 49bd 95a5 ab3d
000003f0: a031 df3d c44b 91bd 24b0 cd3d 030c 64bd
-0.04058393 -0.064536706 0.025189884 -0.036397245 0.09463508 -0.034944296 0.11644066 -0.027563917
-0.06095734 0.030167675 0.036951084 -0.16817732 -0.08709183 -0.06921784 -0.14469258 -0.15369737
0.08096904 0.05186104 -0.12744358 -0.032116883 0.06447969 -0.07689012 -0.14746797 0.0706811
0.14006442 0.05585911 0.049716305 -0.07854979 0.0077561866 -0.10536537 0.01779141 -0.029639602
-0.07899795 -0.060847923 0.11491382 -0.11979299 -0.08817903 0.0912413 0.15353039 0.11375741
-0.084496796 -0.090801984 0.06894707 -0.14478135 -0.14062156 -0.06279865 -0.0447563 -0.06381104
-0.16641055 -0.16185059 -0.17538619 0.14377147 -0.13664737 0.019028775 0.11510872 0.06836947
-0.16532794 -0.06953244 -0.10702142 -0.09650402 -0.010866701 -0.1585877 -0.095947996 -0.017611586
-0.010029145 0.08998259 0.0109517155 0.16672748 0.039113063 -0.04859535 0.12604815 -0.025500784
-0.18120459 -0.021574834 -0.05484379 -0.010890852 0.15019022 -0.17966095 -0.16463839 -0.058170125
0.0896206 -0.13958918 -0.03319763 -0.11255118 0.08854417 -0.06088345 0.013783104 0.03593469
-0.16762297 -0.11486994 -0.0065440177 0.07674885 0.065009914 -0.16120319 -0.15831451 -0.15606898
0.14525308 -0.14554566 -0.01215891 0.116772436 -0.13320391 -0.10907254 0.121178515 -0.072317235
-0.02117735 -0.0040543727 0.02788196 0.035001166 0.034367986 0.07625271 -0.015477407 0.006205726
0.13372575 0.022485232 0.09087699 0.04359357 0.086549744 0.15470883 -0.15671705 -0.14091545
0.15139353 0.020386348 -0.13330914 0.13488099 -0.13447988 -0.12829389 -0.14516747 -0.07949352
0.14954443 0.024659425 0.120790884 -0.04290334 0.13661207 0.14946918 0.077992775 0.11943539
0.118212 -0.058894113 -0.029055411 0.12356742 0.15312138 0.13691564 0.119235545 0.0956811
-0.020722982 0.014750964 -0.1380226 -0.0353331 -0.09472789 0.16915096 -0.13912314 0.14172438
0.07475502 0.098493956 0.15222487 0.041470733 0.013817388 0.057721626 -0.086122565 -0.13234054
0.10357136 0.055728327 0.17382316 -0.104340605 0.15849194 -0.114263706 -0.15829842 -0.106656045
-0.08898086 0.13053073 -0.08552867 0.10353176 -0.14897133 0.023251573 -0.16766538 0.039634433
-0.15666847 -0.08366712 -0.11764562 0.048689928 0.13607061 0.13427526 0.07271317 0.06588337
-0.021964569 0.1445041 0.1553895 0.14397435 0.088825956 0.107715994 -0.125428 -0.056610044
-0.09068207 -0.004557755 0.015988318 0.060786333 0.080863506 0.1574485 0.1651429 0.03817621
0.12524553 -0.041326642 0.10657609 0.072550505 -0.09647316 0.094872005 -0.17031826 0.05806825
0.11089022 0.10999337 0.011227836 0.13545914 -0.0077601774 -0.07637508 0.091100655 0.0406457
-0.13898176 0.17476988 0.045292217 -0.08396713 -0.091429636 0.108809866 0.1365712 -0.07112501
-0.1690147 -0.013329452 0.0493367 0.033040583 0.14146008 0.15616697 0.09472749 0.03870092
0.03700697 -0.09411535 -0.13387506 0.024824694 0.0016621818 0.12731306 0.04383127 0.006654408
0.12520742 -0.10297983 -0.08313701 0.013462872 0.056712758 -0.13951698 -0.0578641 -0.15808257
0.026112327 -0.08318313 -0.04930399 0.08381192 0.10898137 -0.07094529 0.10043362 -0.055675518

bias f4 [8]
00000000: f40b 383e c681 113e f55c 2cbe d910 a0bd
00000010: 8d34 f1bb be14 db3d 71ef 8cbd f8be f23c
0.1797331 0.14209661 -0.16832335 -0.078157134 -0.007361001 0.10697316 -0.06881607 0.029632077

weight f4 [32]
00000000: 8f11 803f 2e38 823f 15dc 7e3f 3325 803f
00000010: 2644 803f 62ea 7e3f ca42 803f 4e05 803f
00000020: f72d 803f e811 803f ec45 7f3f ca30 803f
00000030: 9fa5 7f3f 81c5 803f 2c97 7f3f c1d4 7d3f
00000040: b978 803f 00a4 803f f9c2 7f3f a2e6 803f
00000050: e57a 803f 255c 803f 1f72 7e3f 72e5 7f3f
00000060: 2f03 813f 8d7d 813f 2788 7e3f 7fdf 7f3f
00000070: 6a82 7e3f 628a 813f 86e8 7e3f ab7d 7e3f
1.0005358 1.0173395 0.9955457 1.0011352 1.0020797 0.9957639 1.0020382 1.0001619
1.0014027 1.0005465 0.9971607 1.0014889 0.9986209 1.0060273 0.99840045 0.9915276
1.0036842 1.0050049 0.9990688 1.0070384 1.0037504 1.002812 0.99392885 0.9995948
1.0079097 1.011644 0.994265 0.999504 0.99417746 1.0120356 0.9957355 0.99410504

bias f4 [32]
00000000: 72e9 143a c6d1 8d3c b830 92bb 142f df39
00000010: f4c6 073b 8c20 8cbb 4217 063b 3206 e538
00000020: a65c a03a 8155 0e3a c9fc 39bb 01a2 bd3a
00000030: df78 b0ba 90b2 c43b fb83 d0ba db11 0dbc
00000040: 66ff 713b ca12 a43b e12c 7cba 4c81 cc3b
00000050: 2aa3 373b 6df5 393b 9e23 c7bb ef03 b9b9
00000060: f12f 033c 7c0a 3f3c 3fde a2bb 96ce 1aba
00000070: 9104 bfbb 83ac 443c 25ce 8cbb ecb6 85bb
0.0005680538 0.017311942 -0.004461374 0.0004256895 0.002071795 -0.004276341 0.002046064 0.00010920725
0.0012234643 0.0005429611 -0.0028379431 0.0014467837 -0.0013463757 0.0060027316 -0.0015908474 -0.008610214
0.003692591 0.0050071226 -0.00096197246 0.0062409993 0.0028020837 0.0028375045 -0.006077244 -0.0003528888
0.008007036 0.0116602145 -0.0049703415 -0.00059054175 -0.005829402 0.012004021 -0.0042970353 -0.004080644

running_mean f4 [32]
00000000: 0adb 3bbf d41b 163b 1f62 01bf 348e 19be
00000010: acaf 073f 2f33 b43e e1c7 7abd 1a5e 843e
00000020: 01c5 66be 9c95 2ebe 444d 3d3e e3b9 41be
00000030: a1b8 7a3e d859 a23e 796e afbe cd75 d73e
00000040: 0557 69be 7a20 063f 7efa 283e e191 e7bd
00000050: ff6d f6be ed37 dfbd 9d20 d3bd 6f07 89be
00000060: 6c93 b4be 54e0 573b 1898 503e 1c1e c3bd
00000070: 9fe5 81bd ef10 c0be debe 18bf 3611 0f3d
-0.733811 0.002290477 -0.50540346 -0.14995652 0.5300243 0.351953 -0.061225776 0.25853044
-0.22536089 -0.17049259 0.18486506 -0.18918566 0.24484493 0.3170917 -0.3426397 0.42082062
-0.22787102 0.52393305 0.16501805 -0.11307121 -0.48130795 -0.10899339 -0.10308955 -0.26763484
-0.35268724 0.0032940106 0.20370519 -0.09527227 -0.06342625 -0.3751292 -0.5966624 0.034928523

running_var f4 [32]
00000000: 06b8 f03d c418 433e 3f4b d73d 9fd0 f83b
00000010: 7bfb 783e 9771 b53d e8a6 013e 500b b43b
00000020: 53a9 473e 47e2 4a3e a618 733e 3c49 0c3e
00000030: a140 3a3d 4553 e03c f705 7b3e 3c7c 1a3d
00000040: 8dcf 0c3d 92f9 363e 345e 913d 2e01 a83c
00000050: f8eb 243b 5187 1e3d 9d93 e23d 1f34 413d
00000060: 9676 b23d 3786 833d 647c 5f3c 941c 653d
00000070: 2221 e83d 8797 593d e484 613d cf22 893c
0.1175385 0.19052416 0.10512399 0.007593229 0.24314682 0.08859556 0.12661326 0.0054945126
0.19498186 0.1981288 0.23739871 0.13699812 0.04547179 0.027383456 0.24513994 0.037716135
0.034377623 0.17868641 0.07098046 0.020508375 0.0025165062 0.038703267 0.11063311 0.047168847
0.08714025 0.06422084 0.013640497 0.055935457 0.113344446 0.053123023 0.055058375 0.01674023

weight f4 [32, 3]
00000000: b14e acbd 4b3c 89bd b7b3 7f3e 6f58 4e3c
00000010: 955c df3e 31bd c33e 3246 9d3e 25ad e8be
00000020: 74c5 c4be bb41 423e 195b 063f b950 28be
00000030: af51 d6bd 2bf4 873e bb5c eabd 8897 0dbe
00000040: 0b5f b6be fca0 a43e 3c22 07be 301d c2be
00000050: 6611 3d3e 4dd7 a93e 24b2 ad3d d035 cbbc
00000060: 889e 62be b728 0ebe 55b7 4b3e 0e2e 0ebf
00000070: 3332 d53e 25ee a73e ad14 f9bd b906 82bd
00000080: 0616 293b 939c b4be 8003 bdbd 02eb 4bbe
00000090: dcaa 58be e94e 223e b699 533b ff0b efbe
000000a0: fa7a cebe 08ba 923e 8591 da3e 4a77 be3e
000000b0: fdc0 e03e a60c e5be 203f a43e c1c6 053f
000000c0: 8251 b0bd c3fb 40be e0b2 95bb 6251 023f
000000d0: 98c0 a73d 4134 c1bd 100c 273d 7380 21be
000000e0: 76fc 11bf cce8 bf3d 7f07 123e 3851 68be
000000f0: 20bd cabe 6701 0b3f d2c3 cfbe 8f79 07bf
00000100: 5d25 9b3e 33f0 2cbe fd48 933e beb2 d0bd
00000110: 3270 9abe 644c de3e 3e50 c83e 73a0 e93e
00000120: d1ea b33d 017b 1cbe 8c3b efbd 73b6 f23e
00000130: 29f9 3c3e 0d5d 083f cf34 773e 4813 e7bd
00000140: 0aa0 0a3e a77f 463e cfa9 d4bd 4b52 6e3d
00000150: 3b9b 023e aa8d b0be 380c 5c3e 9dff dc3a
00000160: b528 c2be 13b5 22be 6efe b0be 0d86 9ebe
00000170: 8a98 f7be cd1d 3fbe bf51 1f3e e389 09bf
-0.08413447 -0.06700953 0.249709 0.012594326 0.43625322 0.3823028 0.30717617 -0.454446
-0.38431895 0.18970387 0.52482754 -0.16437043 -0.10464799 0.26553473 -0.11443468 -0.13827336
-0.35619387 0.3215407 -0.13196653 -0.37912893 0.18463668 0.33172074 0.08481243 -0.024805933
-0.22130787 -0.13882719 0.19894154 -0.55539024 0.4163986 0.32798877 -0.12162147 -0.063489385
0.002580048 -0.35275707 -0.09229183 -0.19913867 -0.21158928 0.15850414 0.0032287664 -0.4668884
-0.403282 0.28657556 0.42689148 0.37200385 0.43897238 -0.44736212 0.3207941 0.522564
-0.086092964 -0.1884604 -0.0045684427 0.5090543 0.08191031 -0.09433795 0.040782988 -0.15771656
-0.5702585 0.09370574 0.14260672 -0.22687232 -0.39597416 0.54299015 -0.40579087 -0.5291986
0.30301943 -0.16888504 0.28766623 -0.10190342 -0.30163723 0.43417656 0.3912372 0.45630226
0.08785022 -0.15281297 -0.116812795 0.47404823 0.18454422 0.53266984 0.24141239 -0.112829745
0.13537613 0.19384633 -0.10383951 0.05818395 0.12754528 -0.3448308 0.21489036 0.0016860847
-0.37921682 -0.15889387 -0.34569114 -0.30961648 -0.48358566 -0.18663712 0.15558527 -0.53726023

bias f4 [32]
00000000: 336a 19be f4a7 9b3e c691 d73d 0f28 bdbd
00000010: d788 bc3a 4334 5bbe 032c f93e 0aa3 b2be
00000020: c3f7 083e f809 e6be 61b8 13bf 3b73 053f
00000030: 4a58 f5be 8214 c3bd 99ad 9e3e 2d3a aabe
00000040: 7797 ab3e 7352 f7be ddb0 5b3e 8b96 91bc
00000050: e57b ccbe c5be ec3e 990f 953e da68 b23e
00000060: 94e7 84bd 5f19 293d da16 2d3d 705b 67be
00000070: 58a4 0bbe 836d a83e 6824 e0bd 6676 003f
-0.14981918 0.30401576 0.10525851 -0.09236156 0.0014384043 -0.21406655 0.4866639 -0.34890014
0.13375764 -0.4492948 -0.57703215 0.5212895 -0.47918922 -0.09525396 0.3099182 -0.3324751
0.33513996 -0.4830509 0.21454187 -0.01777198 -0.39938274 0.46239296 0.29113463 0.3484562
-0.064894825 0.04128396 0.04225812 -0.22593474 -0.13636911 0.3289605 -0.10944444 0.5018066

weight f4 [8, 32]
00000000: 43b1 6bbd 0c7e 9ebd 2864 11bd c96e 2fbe
00000010: cb0b 223e 3ef5 0bbe ac0b 243e cbc2 d93d
00000020: d185 82bd 97f2 ebbc cb70 5a3d e11a 4fbc
00000030: 5858 f6bc 20bc 943d 29d5 b1bc 87d4 673d
00000040: 2e08 04be 1c9c 9b3a c0e1 e4bd ba35 8abb
00000050: 4064 e1bb 2e08 933d a38f bcbd a332 a4bd
00000060: 81fd 623d f1b8 0d3c 1077 31ba afaf 13be
00000070: 1cd1 c2bd 78c4 d33d 5dd5 f3bd f3d5 0abe
00000080: 8042 23be 0d41 db3c 68c7 383e a90b f7bd
00000090: 9e16 953d 709d 36be f20a 38bd 740b 2c3e
000000a0: c268 493d 6a51 f43c 3aea 2e3c ca6f cd3b
000000b0: 5104 a1bd 3851 943b 7629 213e 0630 52bc
000000c0: a920 8b3b 50e2 26be 607b 353e 6d75 1f3e
000000d0: 83ad cdbd 394a 06bd c50a 063e 3892 e23c
000000e0: b14a 0dbe 2bf3 803d e497 c9bd 0b0e d8bd
000000f0: c5f4 6cbd 9ecb 9b3d 9010 09be 98c7 203e
00000100: a203 e3bd 645b 97bb 41b8 283e d79e 97bc
00000110: 5888 1e3e b7d0 503d 5229 d13d b0fe c3bd
00000120: e7fd 0a3c 5f1e 193e a6bc fcbd 412d c23d
00000130: c6d8 683d 353b 9b3d c2ca e33d ad6f 0ebe
00000140: 3dfe d13d 217b aebd d5c1 293d 1a0b 303e
00000150: aabe a0bd cac5 263e eae4 9cbc 82a1 a63d
00000160: 9a0d 09be 24bd 2a3e 396b 08be f072 ce3d
00000170: b3fd 37bd 9b4a 393e 9f7a b53d 0dbf d1bc
00000180: 18b0 313e 9f98 f5bd 2044 803d cca7 36be
00000190: 3124 0ebb 0c3a 23bd b383 dabd e314 033e
000001a0: 00f0 3bbc 9958 0d3e d78b cfbd c1fb 20be
000001b0: 3b23 933d a267 163e 5ed6 6cbd 2c6c 83bd
000001c0: 04c4 033d 5504 c03d dc6d 2f3e 074a 02be
000001d0: edc6 1d3e 85e3 9b3b 2ad6 783d 19f2 b33d
000001e0: bb6a 033e 2b7f 2f3e bb0f 213e e755 b4bd
000001f0: 7a2d 233e 895f 9f3c 15ca edbd 1812 b43d
00000200: e232 2abd f920 e33d e8c6 00be cd6b e73d
00000210: 1ee7 1e3e a8fe 1dbe 3e85 c23d 17a5 ce3d
00000220: 460b bf3d 221a e8bd a2f9 1ebd 7433 a6bb
00000230: c342 df3d f0b4 b03c cc41 b43c 9437 ecbc
00000240: 789f 173d 6bd0 8bbd 8d0c fdbd 49ae 093e
00000250: d357 e93d d23b 4f3c d4b3 f9bd ce68 90bd
00000260: 4dc7 fdbd a679 e53c 8948 2cbe 3d67 9cbb
00000270: 4e21 29bd f6c1 4c3c d454 603d a3b2 98bd
00000280: f0e5 0a3e 504c 15be cfdf 1ebe 4ad8 10bd
00000290: a26c 44bc 91b5 a13c d422 1d3d 9afd 9ebc
000002a0: 26be d83d dda0 473d 1933 b4bd b85e fc3d
000002b0: 8064 babd 3f46 273e d4e3 153e 2a38 b8bd
000002c0: a676 67bd a23a 8abd 873d 5dbb 8ecb c53d
000002d0: e217 a5bd 9b50 1bbe d8b7 4b3c 4624 653d
000002e0: ab0e 1abe ee00 cfbd db20 093c fd1c c03b
000002f0: 678f b53d c784 563d e5eb 14bd 2abc 183e
00000300: 5e6e d6bd a137 e3bd 8824 a43c 13fd 013e
00000310: a2c5 d33d 235f 7bbd 5173 b53a 4680 9b3d
00000320: 5913 29be 6f63 dc3b 4e18 363e 665a 1a3e
00000330: d1e0 2bbe 9ce3 50bd bb14 ee3d 709b 19be
00000340: 035d 1cbe b470 cbbd c1f7 29be 13f4 0cbe
00000350: b53f 51bc 7cd6 50bd 1bcf 0f3e c287 de3d
00000360: bd4b 0f3e 046e 8ebc dd2c e9bd 4ade 0b3e
00000370: 7b71 3a3d 8579 87bd 2a99 403d 9252 aebd
00000380: 9213 55bd 92c2 03be 3a30 fc3d 7756 27be
00000390: cf65 8a3d e673 e73d 5837 2fbd 4801 6e3c
000003a0: f002 b0bd ef36 2a3e 9d25 183d e49f 9bbd
000003b0: db09 9c3d 8cc9 853d 5936 1abe 6211 b2bd
000003c0: 4e1e 073d 69de e9bd aa3b c83d bfcc e3bd
000003d0: 6e10 4d3c aa5a 1b3d a19c 113e 8b58 293e
000003e0: 7fa7 17be ef9c 79bc 7111 1f3d 5804 293e
000003f0: 1e93 1cbe e90b 1cbe afb0 de3c a18e e63d
-0.057542097 -0.07738885 -0.035495907 -0.17132105 0.15824811 -0.13667771 0.16020077 0.10632857
-0.0637318 -0.0288022 0.053330224 -0.012640686 -0.030071422 0.072624445 -0.021708088 0.056599166
-0.12893745 0.0011872086 -0.11175871 -0.0042178305 -0.006878406 0.071792945 -0.09207084 -0.08017471
0.05541754 0.0086500505 -0.0006769756 -0.14422487 -0.09512541 0.10340208 -0.1190593 -0.13558178
-0.15943336 0.026764417 0.18044817 -0.12062771 0.072797045 -0.17833495 -0.044932313 0.16801244
0.04917217 0.029823978 0.010675961 0.00626943 -0.078621514 0.0045262836 0.15738472 -0.0128288325
0.0042458368 -0.16297269 0.17722845 0.15572138 -0.1004286 -0.032785628 0.13090046 0.027657613
-0.13798024 0.062963806 -0.09843424 -0.105495535 -0.057850618 0.07607196 -0.13385224 0.15701139
-0.11084677 -0.004619049 0.16476537 -0.018508358 0.15481699 0.050980296 0.10212959 -0.09570062
0.008483387 0.14952992 -0.12340669 0.09481288 0.056847356 0.07579652 0.11122657 -0.13909788
0.1025357 -0.08519579 0.04144462 0.17191735 -0.07848866 0.16286388 -0.019152123 0.08136274
-0.13384095 0.16673714 -0.13322152 0.10080516 -0.04491968 0.18094866 0.08861279 -0.025603795
0.1735233 -0.11992001 0.06262994 -0.17837447 -0.0021689052 -0.03985028 -0.10669651 0.12800936
-0.011470795 0.13803329 -0.10134094 -0.15721036 0.07184454 0.1468797 -0.057821624 -0.064171165
0.032169357 0.09375826 0.17131752 -0.12723552 0.15407915 0.004757347 0.060751118 0.08786411
0.12833683 0.17138354 0.15728657 -0.08805447 0.15935317 0.019454734 -0.1161081 0.087925136
-0.041552432 0.110902734 -0.12575877 0.11299858 0.15517852 -0.15429175 0.0949807 0.10090082
0.09328322 -0.113331094 -0.038812287 -0.0050720517 0.10901406 0.021570653 0.02200403 -0.028835095
0.037017316 -0.06826862 -0.123559095 0.13445391 0.11393704 0.01264854 -0.121925026 -0.0705124
-0.12391529 0.028012108 -0.16824545 -0.004773049 -0.041291527 0.012497416 0.0547684 -0.07455947
0.13564277 -0.14579892 -0.15515064 -0.03536252 -0.011988791 0.019739898 0.038363293 -0.019408036
0.10583143 0.048737396 -0.087988086 0.12322754 -0.091012 0.1633539 0.14637691 -0.089950874
-0.056509636 -0.067494646 -0.0033758597 0.096579656 -0.08061196 -0.15167467 0.0124339685 0.055942796
-0.15044658 -0.10107599 0.00836965 0.0058628307 0.088652425 0.05237272 -0.03635778 0.14915529
-0.104702696 -0.11094595 0.02003695 0.12694196 0.1034043 -0.061370026 0.0013843571 0.075928256
-0.16511287 0.0067257206 0.17782709 0.15073547 -0.1678498 -0.050998315 0.11625048 -0.15000701
-0.15269856 -0.09933606 -0.16598417 -0.13764982 -0.012771537 -0.0509858 0.14043848 0.108657375
0.13993736 -0.017386444 -0.1138551 0.13659015 0.04551838 -0.06614975 0.04702107 -0.08511843
-0.052020617 -0.12867191 0.12313886 -0.16341577 0.067577 0.11301403 -0.04277739 0.014526673
-0.0859431 0.16622518 0.037145246 -0.07598856 0.07619067 0.06532583 -0.15059794 -0.08694722
0.032987885 -0.114193745 0.09777005 -0.111230366 0.012516124 0.03792826 0.14219905 0.16537683
-0.14809988 -0.01523517 0.038834993 0.16505563 -0.15290496 -0.15238918 0.027183859 0.11257673

bias f4 [8]
00000000: 728a 37bd 6586 ad3c caa4 17be 4fc6 1fbe
00000010: a54d 73bd 9a27 2e3e 1750 123e ec01 6f3c
-0.044809766 0.021182248 -0.14808956 -0.15602992 -0.05940022 0.17007294 0.14288364 0.014587861

weight f4 [32]
00000000: e959 803f b4f5 7e3f 1197 803f 3824 7e3f
00000010: b045 7f3f 7ae0 803f f4b2 803f 2c29 813f
00000020: fbd0 7d3f b5fd 7d3f 5429 7d3f 9e6f 803f
00000030: f6e9 7d3f fd68 803f d6c5 7e3f 0c94 803f
00000040: 6ae2 7e3f 68ee 7d3f 119c 803f 05d8 803f
00000050: f584 7e3f 90b3 7d3f 949b 803f 48aa 7e3f
00000060: 7c4a 7f3f 7943 7e3f 60e3 803f 9597 803f
00000070: 2b0b 813f 6313 813f e629 7f3f 65bf 803f
1.0027438 0.99593663 1.0046102 0.99274015 0.9971571 1.0068505 1.0054612 1.009069
0.99147004 0.9921525 0.98891187 1.0034063 0.9918512 1.003204 0.99520624 1.004518
0.9956423 0.99191904 1.0047628 1.0065924 0.99421626 0.99102116 1.0047479 0.9947858
0.9972303 0.99321705 1.0069389 1.0046259 1.0081533 1.0084041 0.99673307 1.0058409

bias f4 [32]
00000000: 48d9 333b 1326 85bb b20f 973b 62f6 edbb
00000010: 484c 3abb 237a e03b 71e0 b23b 86ea 133c
00000020: a1c5 0bbc f792 00bc 58dc 96bb a555 503b
00000030: 5732 01bc 25ff 513b 3215 9dbb c50d 943b
00000040: 3d76 8cbb 3462 04bc 2112 9c3b 4935 cb3b
00000050: ee86 bdbb 011a 13bc e598 9b3b d9e4 aabb
00000060: fd70 35bb f423 debb 3178 e23b e5f4 963b
00000070: 2594 053c a2b7 093c 413b 56bb da66 bf3b
0.0027442742 -0.0040633767 0.0046100253 -0.007262037 -0.0028426815 0.0068504973 0.0054588844 0.009028083
-0.008531005 -0.007847539 -0.0046039037 0.003178933 -0.007885537 0.0032042947 -0.0047937864 0.004518243
-0.004286556 -0.008080054 0.0047629033 0.0062014204 -0.005783907 -0.008978368 0.004748451 -0.005215269
-0.0027685754 -0.0067791883 0.0069113006 0.0046068304 0.008152996 0.008405598 -0.0032689127 0.0058411183

running_mean f4 [32]
00000000: ee9b 1840 459f fd3f 604c c2bf f956 6ec0
00000010: b3a0 07c0 37e2 8440 ae38 6d40 3c62 6bbf
00000020: b71c 2040 81c1 513f 9eb5 96be 1082 67bf
00000030: 247a 8cbf 97ad 8440 0e14 3140 319f 4540
00000040: 2d24 883f edf5 d5bf a1b4 89c0 51db 29c0
00000050: 3559 c9c0 ba72 13c0 9b7b 01c0 e345 3840
00000060: 7c14 ffbe d380 8340 8d44 dd3f d899 393f
00000070: dcf6 4d40 243b e03e 243c 4ec0 a5e7 9fc0
2.3845172 1.981423 -1.5179558 -3.7240584 -2.1191833 4.152614 3.7065845 -0.9194677
2.5017526 0.8193589 -0.29435438 -0.90432835 -1.0974774 4.14619 2.766849 3.0878413
1.063604 -1.6715676 -4.3032994 -2.654011 -6.2921395 -2.3038774 -2.0231693 2.8792655
-0.49820316 4.1094756 1.7286545 0.7250037 3.218192 0.4379512 -3.2224207 -4.997027

running_var f4 [32]
00000000: 78f0 2040 8791 6841 beaa 7341 84af 1041
00000010: fe7c 1d40 2674 de40 8601 a740 2b30 723e
00000020: 35b6 f43f cd80 3f41 8002 063e bad9 0a40
00000030: 5543 553f c572 e740 bf76 6b41 f874 8741
00000040: 722b 973f c627 fa3e 8607 7841 e522 1840
00000050: 1dd7 5941 cc63 6140 2dbe 9040 974d 8041
00000060: e7ff c83f 5e26 6341 6b0b 7a3f 046e d43e
00000070: ac0d 9b40 5a64 d240 d073 6d41 45aa 3a41
2.514677 14.535529 15.229185 9.0428505 2.460754 6.9516783 5.218936 0.23651187
1.9118105 11.9689455 0.13086891 2.169539 0.83305866 7.23276 14.716491 16.932114
1.1810133 0.4885847 15.501837 2.3771298 13.615018 3.521716 4.523215 16.037886
1.5703095 14.196867 0.9767367 0.41490185 4.845419 6.57475 14.840775 11.66657

weight f4 [32, 40]
00000000: 4a38 45bd b515 e43d 846e 1a3d b498 e4bc
00000010: 7e21 923d 0097 9c3d e1f1 723d 61ec 18be
00000020: fb12 e43d ae58 02be c7ba 6b3c ef78 7fbd
00000030: 069b 193e 6815 163e a7cc 7e3d aba6 0fbe
00000040: d9c9 8bbd 2cf6 babd a7d3 0d3e 9365 e7bd
00000050: 842a cf3d 2dd8 16be 713c be3d c652 803d
00000060: 90f2 8e3c 0d72 9f3d 23f4 753b d91e 13bd
00000070: 08fb a23d 0b77 04be d9d3 0fbe 1bc9 023d
00000080: fc5e dcbd a12b 0dbe c5cc b43d 1803 143e
00000090: d1ff 943d 88ca 233d 8a77 643d b8c3 213e
000000a0: 8b3a 09be 81e4 383d ebba 923d a45c ff3c
000000b0: f3a0 c63c d4a5 1fbe 74fa 0ebd b095 aa3d
000000c0: b482 e8bd 5951 27bd d88d 693c 7d1d d63b
000000d0: cccb 9137 bda2 ccbd 59ec 0a3e 35f5 63bd
000000e0: 04ed 4b3c beed 0fbe 234d 57ba 43df 16be
000000f0: b93f 9d3d b102 b03b b5cb 98bd a7f0 5e3c
00000100: 012e 843b 538b 123e 74b6 0e3b eafb 1dbd
00000110: a62c ccbd c157 bc3c 00d5 d4bd 3f87 1e3e
00000120: f526 4b3d e229 94bd a8d9 ebbd bf42 803b
00000130: 72d4 993d 7b71 05be 714f 063e 70c6 09be
00000140: 5c02 b0bd 44cb acbc cc71 183e 150c 373d
00000150: 97a9 1cbd 7469 62bd 4477 053e 4a22 b4bd
00000160: 7ba2 423d 90df 963d 16c1 e93c 215d 513d
00000170: 6921 82bd 6a89 a0bd 7fef 89bd 76d0 d4bd
00000180: cccb 56bc 3f81 1dbe c9dd fc3d bc05 28bd
00000190: 5c26 d2bd fa54 453c c297 85bd e119 883c
000001a0: fe7c 21be 0a66 d2bd 4d49 fc3c ee2d 2b3d
000001b0: 3a8b b83d d6c9 8e3d 4b57 213e 92dc 143e
000001c0: ac34 a63d 446e 04be fc3d 1b3e d27a f3bd
000001d0: 6a2b 15be 32de 09be 7a3f 243b fd54 323c
000001e0: eab6 edbd 6f04 52bd 6213 1d3d cce0 7fbc
000001f0: db97 ee3c c2bc b9bd 0ef4 06bd 318d ad3d
00000200: 8fc5 f63d 437b 32bc 52ca 9f3d aab0 0bbe
00000210: 8a8b 973d d06c c33d 2391 293d 0b79 1abe
00000220: 61aa bcbd 765f dfbd 3631 c2bd 27c3 fcbc
00000230: 62f0 3bbd e025 e83d 9a23 043e 0a2d 153e
00000240: 67e3 b1bd 1962 1bbe a436 08be 27f7 133e
00000250: eb32 a53d b5bc 113d d4da a83c 92e4 d23d
00000260: ef91 f3bd 6e67 073e 8879 d73c bb34 42bd
00000270: cc5e d6bd 57a6 bf3d 9b7f ec3d 1957 073e
00000280: f3ea 093e f83a be3c 0f4e 173e d8f6 0ebd
00000290: 6702 2f3d 2a6d 023c fd66 003e 5991 d7bd
000002a0: ff2e 49bd 2814 963d 3633 25be 43c4 acbb
000002b0: 66cd eb3d 9bef 203e 6666 9e3c fb92 06be
000002c0: 073c ae3d 18a6 ee3d 89f0 d7bd 5af1 61bd
000002d0: 3a20 07be b46e 193e f7a1 0b3e 5f88 b83d
000002e0: 11dd 793d c893 afbd 4d48 66bd 6a0d 5bbd
000002f0: 5527 593d c1a2 5c3d dbc3 b93d 01bf cabd
00000300: aac6 7fbd 53b9 0bbe 9143 e6bd 31c9 08bc
00000310: 76cc 0bbb 195e f53d adc0 473d 3a71 fb3c
00000320: a78f eabd 3bad b6bc fc05 a1bd 2d71 dfbd
00000330: 536a b1bd dc39 bdbd 678c e33d 0f7e e33d
00000340: 513a 5e3d e044 c93d ccb9 cabc 9c3d e83d
00000350: bc4d f7bd 2528 213e f125 51bd 4aee f43d
00000360: 9fb5 70bd c70b 603d 0299 6ebc c02e 90bb
00000370: acee a33d 9fdb b13d 5def 863d c3f7 003e
00000380: 1785 1e3d 9ade 76bc dc6d 59bd 4bb3 583d
00000390: 58a5 12be 42ca f73d 620f 4cbd db98 eeba
000003a0: 190f f1bd 9b97 c0bd c803 923d cb96 a43d
000003b0: 808f 7dbd 6739 b63d 8618 b43d a7f3 d03d
000003c0: 8435 eebd 05ee b53c 6e6f 953c 7f53 0a3e
000003d0: d900 d8bc be10 4abc 989f c0bd d335 cd3d
000003e0: 69be 243e 2cb2 b0bd 8d55 b03d 7fe8 ff3c
000003f0: 6fb0 47bc c4c4 07be 432f 013e 6793 10be
-0.048149385 0.11136953 0.037703052 -0.027904846 0.071352944 0.076459885 0.059312705 -0.14933921
0.11136433 -0.12729141 0.014387793 -0.06237119 0.15000543 0.14656603 0.06220689 -0.14028423
-0.06825609 -0.09128985 0.1385027 -0.112986706 0.10115531 -0.14730902 0.09288872 0.06265788
0.017449647 0.07785425 0.003752955 -0.03591809 0.07958037 -0.12936036 -0.14045657 0.03193007
-0.10760304 -0.13786174 0.08828119 0.14454305 0.072753556 0.03998807 0.055778064 0.15797317
-0.13401239 0.045139793 0.07164558 0.031172104 0.024246668 -0.15590602 -0.03490682 0.08329332
-0.11353055 -0.040849064 0.01425501 0.006534277 1.7380247e-05 -0.09991977 0.13566722 -0.05565377
0.012446646 -0.14055535 -0.00082130934 -0.14733605 0.0767817 0.0053714146 -0.07460729 0.013607181
0.0040338044 0.1431096 0.002177623 -0.038570322 -0.099694535 0.022991063 -0.10392189 0.1548128
0.0495977 -0.07234551 -0.11516124 0.0039142068 0.07511224 -0.1303157 0.13116242 -0.13454604
-0.085942 -0.021093018 0.1488716 0.044689257 -0.03824767 -0.05527635 0.13033777 -0.087956026
0.047518235 0.0736686 0.028534453 0.051114205 -0.06354029 -0.0783871 -0.067351334 -0.10391323
-0.013110112 -0.15381335 0.1234699 -0.041021094 -0.10261223 0.012044186 -0.06523086 0.016613903
-0.15770337 -0.10273369 0.030796671 0.04179185 0.0901093 0.06972091 0.15755956 0.14537266
0.08115515 -0.12932688 0.15160364 -0.118886605 -0.14567342 -0.13463667 0.002506225 0.010884521
-0.11607154 -0.05127376 0.038348563 -0.015617561 0.029125145 -0.09069206 -0.032947592 0.08474196
0.120494 -0.010893646 0.078022614 -0.1364161 0.07399662 0.09542239 0.04139818 -0.15085237
-0.09212185 -0.109068796 -0.094820425 -0.030854775 -0.045883544 0.11335349 0.12904206 0.14567962
-0.08685952 -0.1517414 -0.13302094 0.1444975 0.080663525 0.035580356 0.020612158 0.102975026
-0.11893069 0.13223049 0.026303068 -0.04741357 -0.104673 0.09357899 0.11547776 0.13216819
0.13468532 0.023221478 0.1477587 -0.034903377 0.0427269 0.007960597 0.12539287 -0.1052577
-0.049117085 0.07328063 -0.16132817 -0.0052724197 0.11513786 0.15716402 0.019335937 -0.13142006
0.08507543 0.116527736 -0.10543925 -0.05516181 -0.13195887 0.14983636 0.13636003 0.09010386
0.06100184 -0.08573109 -0.056221295 -0.05347959 0.053016026 0.05386615 0.090705596 -0.09899712
-0.06244532 -0.13644914 -0.11243356 -0.008348749 -0.0021331585 0.11980838 0.048767734 0.03069364
-0.11453181 -0.0222994 -0.078624696 -0.109102584 -0.08662858 -0.092395514 0.11110764 0.11108028
0.054254834 0.0982759 -0.024746798 0.11339876 -0.120753735 0.1573797 -0.051061574 0.119595125
-0.058766957 0.05469873 -0.014562847 -0.0044001043 0.080045074 0.086844675 0.06588624 0.12594514
0.038701143 -0.015067721 -0.053083286 0.052905362 -0.14320886 0.120991245 -0.049819358 -0.0018203513
-0.11770458 -0.094039164 0.071296275 0.08036574 -0.06190443 0.088976674 0.0879374 0.10202723
-0.11631301 0.022208223 0.01824161 0.13508414 -0.026367592 -0.012333093 -0.0940544 0.10020032
0.1608826 -0.086277336 0.086100675 0.031238792 -0.012188061 -0.13258654 0.12615685 -0.1411873

bias f4 [32]
00000000: 5f8e 223c 0b48 5ebb c8e6 58bc 89d6 13be
00000010: 0e70 fc3d e4a6 19bd fed8 96bd d74c cdbd
00000020: d3ae b83c 305e 523d a923 bdbc 2402 8fbb
00000030: 72e5 143e 482e 353c 260c 553d 9bdc 713d
00000040: f5e7 0e3e 5627 bbbd ad39 b5bd cd92 02bc
00000050: 52c1 b63c 2699 2c3d 6362 d9bd 4f18 243e
00000060: e173 80bd 3007 25bd 6ec5 22be 8814 f13d
00000070: 56a2 c13d d39c 22be ee03 e2bd 5979 bf3d
0.009921639 -0.0033917453 -0.013238616 -0.14437307 0.1232606 -0.037512675 -0.07365607 -0.10024422
0.0225443 0.051359355 -0.023088293 -0.004364269 0.14540651 0.011058398 0.05201354 0.059048276
0.13955672 -0.09138362 -0.088488914 -0.00796957 0.02230898 0.04213824 -0.10614469 0.16024898
-0.06272102 -0.040290058 -0.15895626 0.11771494 0.09454791 -0.15880136 -0.11035906 0.09349317

weight f4 [32, 32]
00000000: 693a 2f3e e763 413d 13f3 14bc c4b7 c5bd
00000010: 9ccc b73d f30a 173e 9889 373c f9e8 06be
00000020: 1f68 90bd e4a3 f43d b172 f93d 4e42 303e
00000030: 6beb 9e3d cbad 283e 4745 2dbe bd76 893d
00000040: 20a8 40bd 957b 6bbd d407 ddbd 6382 c3bd
00000050: 6075 bb3d 6b2e 06bd 3581 253e b008 f83a
00000060: 0da9 2e3e c994 043e 2d5a 8b3c 799a ee3d
00000070: 2a38 3b3d fdc5 203e 1cb2 2bb9 09e2 11be
00000080: d37a 1bbe e2ab 10bd 79b1 37bb 83ac d8bd
00000090: 06b7 07be 4018 bc3d df29 57bd da77 3fbd
000000a0: 78cf a33c 6f74 46bd d67e 893c 503f e8bc
000000b0: e033 1e3e d110 e6bd ddf3 593d c145 3ebd
000000c0: 1445 223e 668d 6d3c 0540 a53d 388d 0abe
000000d0: a2d8 33be 0a06 44bd cb43 b93d b03c 4dbd
000000e0: 31f4 d0bc 7788 893d cfa4 e13c 1b27 393d
000000f0: 3d31 053e 4376 12bd 9d4d f73d 98c0 873d
00000100: 457b 8a3d 85c8 0dbe cfbf 4d3d 7106 34bd
00000110: 1d3e a7bd ac7e abbc 42f7 d73d 34bc e73c
00000120: 40b7 573d 22ee ec3d 8dc4 60bd f7a5 3fbd
00000130: d54c d4bc 8731 d23c bde5 1c3e 8499 24be
00000140: 89d6 043e a672 fbbc b08c dbbd 9fc8 1fbe
00000150: f46b c9bd 72a9 ce3d 2fef d0bd 7368 d83b
00000160: 535b c93d f243 dfbd 476f a03d 28eb 54bb
00000170: 29a7 a2bc 6a3f 57bd 5b48 e3bd 74f3 d5bd
00000180: 020f 35be c3e2 d4bd 7455 81bd 08e7 9b3d
00000190: 5a80 15bd af23 df3d 17bf 25be 0d9b 4a3a
000001a0: dc1e ebbd c412 c53c 4d03 56bd 1dd4 ffbd
000001b0: e142 a33c a4f8 363e d9f5 29be f97c 213e
000001c0: e7a5 b8bc 1daa 0dbd 3886 05be 76e3 07be
000001d0: 2c21 6a3d 0eca 17be 5c7a f43c e2a2 e3bd
000001e0: e1f0 753d 60dd 033d da06 dd3d 4727 09be
000001f0: 60c6 0a3d 1079 a63d ff63 d73d 5c9b 2ebe
00000200: 3f21 8f3d 634b 1b3d 66e4 a5bd ee91 243c
00000210: 7303 cabd f9f2 583d 127b c0bd 8ce6 58bc
00000220: cad9 f53d 5787 d33b a9d6 2abc b887 37be
00000230: 1145 063e 4965 d63b 897d bc3b e18e 443d
00000240: b61a ea3c c36e 1e3d 3d17 a3bd 0bed 523d
00000250: 01b4 82bd af43 743c b43f f03d e03e 733c
00000260: 031b 2abd 182e fe3c aacf 5a3d 2e1b 043e
00000270: 19c6 93bd 1816 283e ef21 36be 8787 fdbd
00000280: f5eb f9bd d02f d5bd 0a74 91bc dbd3 663d
00000290: a817 16be 6715 7c3d 364c 5cbc 8ea0 96bc
000002a0: 0035 0a3e f769 c43d 8737 dcbd 08ee 22bd
000002b0: 49ac debd 957c 8abd 8923 b43d d574 003d
000002c0: 22e8 32be 7bf3 09be 1bf9 ca3d de26 0bbd
000002d0: 272a 083e 2bfd 07bb 3095 25be 95e0 f03c
000002e0: 981c f23d 2485 8bba 752d 87bd 5d16 fa3d
000002f0: 91df 1e3d 424a 913c 7094 b4bc c53e 6d3d
00000300: b63d 833d 16af 9b3c 069c 2cbc c4a5 973c
00000310: ede8 d5bd b695 313e ad43 82bc ecb3 4ebd
00000320: d70a fa3d 7c0b 1c3e c00f f93d 69e3 ea3c
00000330: c741 233e 0cb8 21be 4738 9cbc f6f9 31be
00000340: f996 9d3b e48f c53d ff50 37be 2114 b3bc
00000350: 6110 b9bc 9ba7 00be b8f5 34be fad4 52bd
00000360: 9fcc 16be 4073 60bd b576 2a3e de11 9a3c
00000370: c299 03be 4991 12bd 56b1 6d3d 9bb3 253d
00000380: a55e fc3d 05b5 86bd da83 c33d 733b a0bd
00000390: 6831 28be ea88 323e fe1f e73d 50ce f83d
000003a0: 4377 50b9 3099 1b3e f537 1cbd 2b68 86bc
000003b0: 6b6e db3d f6ab 063e 0d5e d9bd 4096 c63d
000003c0: c7f0 1f3d ab11 243e 6506 233e da6e 2fbe
000003d0: bf9d a93d 0610 693d 47d1 a6bd dce9 ba3d
000003e0: 80a2 f8bd 0938 05be 828c d3bd 1ff8 4c3d
000003f0: 5aac 023e 2360 dbbd 75c8 0b3b 124c 19be
0.17112125 0.047214415 -0.009091157 -0.09654191 0.08974573 0.1475027 0.0112022385 -0.1317481
-0.070511095 0.11945322 0.12180079 0.17212793 0.07759746 0.16472547 -0.16920958 0.06712101
-0.047035336 -0.057490904 -0.10792509 -0.09546354 0.09153247 -0.03275911 0.1616257 0.0018923488
0.17056675 0.12947382 0.017010773 0.11650557 0.04570786 0.15700527 -0.00016374182 -0.14246382
-0.15183572 -0.03532017 -0.0028029366 -0.10579779 -0.13253412 0.09184313 -0.052530166 -0.04674516
0.01999639 -0.048450883 0.016784113 -0.028350502 0.15449476 -0.11233676 0.05321108 -0.04645324
0.15846664 0.014499044 0.080688514 -0.13530433 -0.17563108 -0.04785732 0.090461336 -0.050106704
-0.025507065 0.06715482 0.027544407 0.04520331 0.13007064 -0.035757314 0.120753504 0.06628531
0.06761793 -0.13846023 0.05023175 -0.043951456 -0.08166144 -0.020934425 0.105452076 0.028287984
0.052664995 0.11568858 -0.054874945 -0.046789136 -0.025915543 0.025658382 0.15322013 -0.16074187
0.12972464 -0.030694317 -0.107201934 -0.15603875 -0.098350435 0.10090913 -0.10201871 0.006604248
0.09831872 -0.109016314 0.078337245 -0.0032488797 -0.019855099 -0.05255071 -0.11097785 -0.104468256
-0.17681506 -0.10394814 -0.06315127 0.07612425 -0.03649936 0.10895478 -0.16186176 0.0007728793
-0.11480495 0.0240568 -0.05224924 -0.12491629 0.019929351 0.17868286 -0.1659769 0.1577033
-0.022540046 -0.03458606 -0.13039482 -0.13270363 0.05716054 -0.14823171 0.029843502 -0.11115052
0.060044173 0.03219354 0.107923225 -0.1339389 0.03388059 0.081285596 0.105171196 -0.17051452
0.06988763 0.03791369 -0.08100204 0.010044558 -0.09863939 0.05296609 -0.09398474 -0.01323856
0.120044306 0.0064553428 -0.0104271555 -0.17922866 0.13112284 0.006542836 0.0057522696 0.047987822
0.02857719 0.03867985 -0.07963417 0.051495593 -0.06381989 0.014908715 0.117309004 0.014846534
-0.041529667 0.031027839 0.0534207 0.12900993 -0.072155185 0.16414678 -0.17786382 -0.123793654
-0.12203208 -0.1040951 -0.017755527 0.056354385 -0.14657462 0.06154385 -0.0134459045 -0.018387105
0.1349678 0.09590524 -0.107527785 -0.039777786 -0.108727045 -0.067620434 0.0879584 0.03136142
-0.17471364 -0.13471787 0.09910794 -0.033972614 0.1329733 -0.0020750265 -0.16170192 0.029403964
0.1182186 -0.0010644537 -0.06600467 0.12211297 0.03878743 0.017735604 -0.022043437 0.05792119
0.06408255 0.019004386 -0.010535246 0.01851166 -0.10444818 0.17342266 -0.015901411 -0.050464556
0.12209099 0.15238756 0.12161207 0.02867289 0.15943061 -0.15792865 -0.019069804 -0.17380509
0.004809257 0.096465856 -0.17901991 -0.021860184 -0.022590818 -0.12563936 -0.1767186 -0.05147264
-0.14726494 -0.05479741 0.16646846 0.018807348 -0.12851623 -0.035783086 0.05803045 0.04045449
0.123227395 -0.065774955 0.09546633 -0.07823839 -0.16425097 0.17435041 0.11285399 0.12148726
-0.00019880854 0.15195155 -0.038139302 -0.016407093 0.1071442 0.13151535 -0.10613642 0.09696627
0.039047983 0.16022365 0.15920408 -0.1713213 0.08282041 0.056900047 -0.08145385 0.091266364
-0.121403694 -0.13009657 -0.10329534 0.050041314 0.1276106 -0.10711696 0.0021329198 -0.14970425

bias f4 [32]
00000000: 5a37 a23c f01d 41bd 428d c1bd 9ac0 223d
00000010: cca9 0f3e 2ddb f93d f707 df3d 059b cdbd
00000020: 6329 80bd 27a7 5dbc 0848 92bd 8954 193d
00000030: 99cd 28bd 88d4 163e b3f7 08be deb5 28bd
00000040: 7c65 8c3c 5c74 e3bd 13e4 2bbe 9077 d5bd
00000050: f9d6 ef3d 76f0 203e 9b52 fcbd 23fc 933c
00000060: 0168 28bb 6d5e 903c f692 10bd 7d44 b53d
00000070: d853 9d3d b170 0dbe 6a2d 703d e859 053e
0.019801784 -0.04714769 -0.09450771 0.03973446 0.14029616 0.122000076 0.10890191 -0.10039333
-0.06257894 -0.013528622 -0.07142645 0.037434135 -0.0412117 0.14729512 -0.1337574 -0.041189067
0.017138235 -0.11106178 -0.16786222 -0.10423195 0.11710925 0.15716729 -0.12320443 0.018064564
-0.0025696757 0.01762315 -0.035296403 0.08850954 0.076820076 -0.1381252 0.05863706 0.13022578

weight f4 [32]
00000000: 4a75 803f ad1e 7e3f 56e3 7d3f 88fe 7e3f
00000010: 374e 7e3f 9b3d 813f d897 7e3f 6d26 813f
00000020: 65df 7f3f 8d80 7e3f ef31 7f3f aabf 803f
00000030: 7200 803f afd2 803f 5541 803f 90f7 803f
00000040: 44f7 803f bc60 7e3f 675a 803f d961 803f
00000050: 0530 813f 411f 7e3f 63e2 7d3f 72ef 7e3f
00000060: 6a94 7d3f 8448 7f3f 94e0 803f 807b 7d3f
00000070: 6290 803f b375 803f 46ad 803f 2a23 803f
1.0035794 0.9926556 0.9917501 0.99607134 0.99338096 1.0096925 0.99450445 1.0089852
0.9995025 0.994149 0.9968557 1.0058491 1.0000136 1.0064296 1.0019938 1.007555
1.007546 0.99366355 1.0027589 1.0029861 1.0092779 0.9926644 0.99173564 0.99584115
0.99054587 0.99720025 1.0068536 0.9901657 1.0044062 1.0035919 1.0052879 1.0010731

bias f4 [32]
00000000: daf8 f5b9 e975 15bc aaad f5bb 00c7 96bb
00000010: 09f8 e3bb be1a 0a3c 5459 1abc b5ae 30ba
00000020: 043b 96b8 3ecb 24bb 1de2 a2ba 24ca dd3a
00000030: 6eaa beb9 aa72 043c 91fe baba aaf4 ed3b
00000040: e7ec 623c 560c 01bb d200 003c 2cb5 913a
00000050: 8306 3d3c 19ba acbb f39e e3bb 809b 06bb
00000060: e289 3bbc 2356 1cbb 1995 3c3b 06e6 45bc
00000070: b2e4 b23a 555c 0d3c 71e8 be3b 2615 dd39
-0.0004691545 -0.00912235 -0.007497509 -0.0046013594 -0.0069570583 0.008429227 -0.009420712 -0.00067399006
-7.16355e-05 -0.0025145556 -0.0012427006 0.0016921205 -0.00036366604 0.008083979 -0.001426654 0.0072618322
0.013850427 -0.001969119 0.007812696 0.0011116615 0.011537197 -0.005271208 -0.0069464385 -0.0020539463
-0.011446448 -0.0023855052 0.0028775393 -0.012078768 0.0013648479 0.008627971 0.005826049 0.00042168162

running_mean f4 [32]
00000000: 45f0 c23d 8577 32be 5478 cebd 8162 b3bd
00000010: e8d6 4e3e 4678 3a3d 9e06 33be 8dc7 a2bd
00000020: 429b 02be 5559 a4bd 4c0b cebd 7c1f c33c
00000030: 6025 033e ba79 7abc ee41 3b3e 0b42 a93d
00000040: b0fc 123e 2e0d bbbd db93 47be b752 9dbe
00000050: 9700 ecbd ec55 16be 6eca cebd 0590 343e
00000060: e9a0 083b b639 4c3e ae63 f8bd b191 083e
00000070: 055c f83d 3c3a 66be 8040 bcbd dc02 353d
0.09518484 -0.17428406 -0.100815445 -0.087590225 0.20199168 0.045524858 -0.17482993 -0.079482175
-0.12754539 -0.08024851 -0.100607485 0.023818724 0.12807226 -0.015287811 0.18286869 0.0826455
0.14354205 -0.09133373 -0.19489996 -0.3072717 -0.1152355 -0.14681214 -0.10097204 0.17633064
0.0020847863 0.1994389 -0.121283874 0.13336827 0.12126926 -0.22483152 -0.0919199 0.04419218

running_var f4 [32]
00000000: ca9b e33e 1b41 183e 219c 1d3f 1f65 003f
00000010: 8049 693e e95b 3f3e 6c23 e03e db20 cb3d
00000020: 908a a93d 7163 3c3d 99b6 ca3e 3fad 4d3e
00000030: 7c65 e13e 4bc3 163e 6ec0 1b3e 6b42 ba3e
00000040: dcb5 0e3f e192 0a3f 70bc 683e 6a82 b53e
00000050: 320b 703e f82d bd3e f734 2e3e 63d9 353d
00000060: 6177 203e fee7 f43d 4cdb ba3e d564 e63e
00000070: 56e2 853e d9be c63e 22ca db3e 61e0 5e3e
0.44454795 0.14868586 0.6156636 0.501543 0.22781944 0.18687405 0.43777025 0.09918376
0.08278382 0.045993272 0.39592436 0.2008562 0.4402274 0.14722936 0.15210125 0.36378798
0.55746245 0.5413037 0.22728133 0.3545106 0.2344177 0.36949134 0.17012392 0.04439677
0.1567054 0.119583115 0.36495435 0.44998804 0.26149243 0.3881748 0.42927653 0.21765281

weight f4 [32, 8]
00000000: b42e febd 4760 52bd 3214 3bbe 016c debc
00000010: c4d4 213d 61a3 563c 61e7 17be aae0 5dbe
00000020: 0a47 83be ad67 35bd 6f68 733e 09fa 3bbd
00000030: e064 86be d4f8 ec3d 0100 b9bd 56d8 8c3e
00000040: 8908 803e 99a3 5dbd ab12 a5be 2502 893d
00000050: 6a72 5dbe ac65 fb3d d626 853e 6b76 8d3d
00000060: d0ac 173d 8304 993e 86fd 17be 2795 9cbd
00000070: 5b5f a03e 891f 9bbe d6e5 673e 1413 3dbe
00000080: 36bb b4be ea61 cfbc 9459 bc3d c398 c3bd
00000090: c179 fabb 4466 8abe 0490 ea3d 5f6c 8cbe
000000a0: 165b 9ebe e0ef c6bd 9fe3 c53d 64b5 3c3e
000000b0: a70c 6cbe 0379 693e 96fd 48be be37 afbe
000000c0: a4e3 26be 66a7 a8be 6859 123e b901 a0be
000000d0: 4d48 d73d 095e db3d 7492 50be f8e8 3ebd
000000e0: 6e3b 26bd 77e9 95be cdd8 43be 9fce 83be
000000f0: ad49 b7bb fe55 72be 4918 3f3d 1ed7 febd
00000100: 4d78 32be 8db0 27be dc74 26bd 39f7 68be
00000110: 2d92 97be 6480 99be 6893 113e 8982 1f3e
00000120: b19c 913e 09fd 4bbe cd4a 893e 3f32 b73c
00000130: 1b30 1bbe 6cef 483e dcd4 943e a87c ef39
00000140: 44e4 30be 4a22 4f3e b2ad a8be e1d7 96be
00000150: 6d8c 44be 80a9 00be 9e40 2d3e 4f4d 9bbe
00000160: 076b 7c3e c2d9 a7be 5b37 913c fdbf 503d
00000170: dd46 eabd 2fe0 8cbe c550 e1bd f267 273e
00000180: 3bb6 3b3e 42b3 e43d 2a10 34be a8c3 a33e
00000190: 5b98 133e 552c 90be e439 7ebe a158 1e3e
000001a0: 2cb9 bfbc 24f4 45bd e182 6fbe f932 b03e
000001b0: 8fee cabd fb1f 893e 5afc d13c 2bf8 9a3e
000001c0: eeb2 0f3e a8b1 a13e dc09 9dbe 604c 9a3d
000001d0: ae8d bcbb e168 d63d b997 7abe 1c19 303e
000001e0: 9aaf ac3e 3374 31be 8cb4 4cbe 5b13 15bd
000001f0: 8786 423e 998c 17bd b4b1 0a3e aa9d 8f3e
00000200: 5225 213e 8456 143e 27ed 26be a180 49bd
00000210: c50a 923e cd0f a4be 81c6 a6be d9d0 27be
00000220: f355 d3bc 29cc 49be 2905 623e 5951 113e
00000230: e5e3 65be 2ed4 9b3e 16ee 983c 7c5a ac3e
00000240: a244 81be 2804 7cbe fc3d ea3d 11de f2bd
00000250: 5d2e 0a3e e782 a1be d30f 803e 45d2 58be
00000260: 9ad6 873e 74d1 cfbd 51a9 09be da6c 9bbe
00000270: 949d 6bbe 6960 833e 61b4 43be 1c06 b4bd
00000280: 8199 793e 0215 71bd d8e0 023e 517f 153d
00000290: 8537 88be 4f22 5a3e 37cd 56be 2e2c 11bd
000002a0: 9ccf 7a3e efc2 a33e 4e6e e1bc c7a6 5f3e
000002b0: 2ea4 5e3e 5168 923e 60b5 f13d 0586 40bc
000002c0: bc23 343e 603e 893e 856a 64bd f182 e73a
000002d0: 18d7 64be 8656 eebd e7c2 f63a bf8c a0be
000002e0: 7fc3 133e 869c 873e 0550 223d 756a 34be
000002f0: 16d7 54be 2810 6e3d 3add a33e 296c 9cbe
00000300: 2d2f 533e e1db b1be 6ed9 0ebe 7339 1a3e
00000310: 2710 1b3e 021c 9f3e e0fb 56be c041 72be
00000320: 1bb3 3a3e 7071 4c3e b6eb 56bd cc0f 31be
00000330: 640a af38 a41f 57be 9e90 14be a7e5 8cbd
00000340: deef 2ebe 92e0 063e 9a2c 9bbe acfc 743e
00000350: 6a81 35be 801b 563e a6ff b23d 0cab 85be
00000360: f7e2 003e f925 9bbe 5010 93be 4479 153e
00000370: fdbc a2be f45e b3bd 02bc ad3e ddcd 82be
00000380: 2876 133e e874 91be d7d7 90be 56e0 51be
00000390: 1025 933e 8b91 8b3e f04e 9cbe a976 d9bd
000003a0: 1e40 953e b1b8 b6be 0410 203e b32a 5e3e
000003b0: e87a 45be 6683 5f3d 8b17 343d d647 e13d
000003c0: b5e7 593e 456f 54bd af3d 063e 1e51 0d3e
000003d0: c225 16be 4ba8 acbe 5a2c 54be f9d0 5dbe
000003e0: 9c56 853e ecef a73e d7a9 73be 054c 3ebd
000003f0: 9c34 adbe 400b 14bd db26 5bbd ad90 0b3e
-0.12411252 -0.05136135 -0.18269423 -0.02715111 0.03950955 0.013100476 -0.14834358 -0.21667734
-0.25640136 -0.044288326 0.23770307 -0.04589275 -0.26248837 0.11570898 -0.09033204 0.275088
0.25006512 -0.054111097 -0.32240805 0.06689862 -0.21625677 0.12275252 0.26006192 0.06907352
0.03703004 0.29886255 -0.14842805 -0.07645636 0.3132275 -0.30297497 0.22646269 -0.18464309
-0.3529908 -0.025315244 0.09196773 -0.09550621 -0.0076439087 -0.27031147 0.1145325 -0.2742643
-0.30928868 -0.09713721 0.09662556 0.1842857 -0.23051701 0.22800069 -0.19627985 -0.34222215
-0.16297776 -0.32940215 0.14291918 -0.31251314 0.10511837 0.10711295 -0.20368367 -0.046608895
-0.04058402 -0.29279682 -0.19125672 -0.25743577 -0.0055934996 -0.23665616 0.04665402 -0.12443374
-0.17428704 -0.16375943 -0.04063879 -0.22750558 -0.2960371 -0.29980767 0.14216387 0.15577139
0.2843986 -0.19920744 0.2681488 0.022362826 -0.1515507 0.19622582 0.2906865 0.00045678508
-0.17274576 0.20227924 -0.3294502 -0.29461578 -0.19194193 -0.12564659 0.16919181 -0.3033242
0.24650203 -0.32783324 0.01772659 0.050964344 -0.11439297 -0.27514789 -0.11001734 0.16348246
0.18331234 0.11167003 -0.17584291 0.3198521 0.14413588 -0.28158823 -0.24826771 0.15463497
-0.023403727 -0.048328534 -0.2338977 0.3441389 -0.09908783 0.26782212 0.025633026 0.30267462
0.140331 0.31580853 -0.30671585 0.075340986 -0.005754194 0.10469223 -0.2447194 0.17197078
0.33727723 -0.17329483 -0.19990748 -0.036395412 0.1899663 -0.03699932 0.13544351 0.28049976
0.15736893 0.14486128 -0.16301404 -0.049194936 0.28523842 -0.32043305 -0.3257332 -0.16388263
-0.02579782 -0.19706787 0.22072281 0.14191188 -0.22450216 0.30435318 0.018668216 0.33662784
-0.25247675 -0.2461096 0.11437604 -0.11858762 0.13494249 -0.31545183 0.25012073 -0.21173961
0.26530915 -0.10147372 -0.13443495 -0.30356485 -0.2300933 0.25659493 -0.19111778 -0.08790228
0.24374963 -0.058857925 0.12781084 0.03649837 -0.26604858 0.2130215 -0.20976721 -0.035442524
0.24493259 0.3198466 -0.027518418 0.21840964 0.21742317 0.28595212 0.11802173 -0.011750703
0.17591757 0.268054 -0.055765647 0.0017662925 -0.22347677 -0.11637597 0.0018826396 -0.3135738
0.14430045 0.26486605 0.039627094 -0.17618735 -0.20785174 0.058120877 0.3200472 -0.3055127
0.20623465 -0.34738067 -0.1395013 0.15060978 0.1514288 0.31076056 -0.2099452 -0.23657894
0.18232386 0.19965148 -0.052470885 -0.17291182 8.346586e-05 -0.21008164 -0.14508292 -0.0687974
-0.1708369 0.13171604 -0.30307466 0.23924512 -0.17725149 0.20908928 0.08740167 -0.2610706
0.1258658 -0.30302408 -0.28723383 0.1459704 -0.31784812 -0.08758345 0.339325 -0.25547686
0.14400542 -0.28409505 -0.28289673 -0.20495734 0.28739214 0.27259478 -0.30528975 -0.10618336
0.2915048 -0.35687783 0.1563111 0.21695976 -0.19285166 0.05456867 0.043967765 0.1100003
0.21279795 -0.051863927 0.13109468 0.13800475 -0.14662841 -0.33722147 -0.20720044 -0.21661748
0.2604264 0.32800233 -0.23795258 -0.046459217 -0.338292 -0.03614354 -0.053503852 0.13629408

bias f4 [32]
00000000: bdfb e7bd 727b e13b f2e8 a93e 6472 96be
00000010: d721 193e 61dc 01be f058 1dbe 5c7f 463e
00000020: 27b2 4c3e d127 5ebe 0544 113e 7f9b 9bbd
00000030: 4283 a9bd c81b 99be d113 ac3e 01af b03e
00000040: a331 5d3e e926 4b3e 53bb 5cbe 08f2 86bd
00000050: 9a78 803e ad4c a23e 3c61 253d b2fb 81be
00000060: 1644 67be 6206 ad3d 7c80 0e3d 57a2 19be
00000070: f010 b23d 997a 483e 2e15 0d3d dabf 06be
-0.11327312 0.006881171 0.33185536 -0.29384148 0.14954315 -0.12681724 -0.15365958 0.19384521
0.19989835 -0.21694876 0.14186104 -0.07598018 -0.082769886 -0.29904008 0.3360887 0.34508517
0.21600966 0.19839062 -0.21555834 -0.065891325 0.25092012 0.31699124 0.040375933 -0.2538734
-0.22584566 0.08448483 0.0347905 -0.15003334 0.08694637 0.19578017 0.034444027 -0.13159123
