code/model_sol_backups/model_sol_3.pt (torch, 635242 bytes, 158 tensors)

weight f4 [32, 2]
00000000: 357c 45be dbbe 70be f53b c4be 7887 213f
00000010: 3acf 2b3f 8eb3 97be c29d d33d c596 d33e
00000020: 79b7 153f d0c4 243f 6c24 803e 3c62 c3be
00000030: cfde 16bf 4635 363e 71e9 133f d8ba 71bc
00000040: 213b 303f 517f 2cbf 84d6 01bf bd1a 983e
00000050: 07c0 db3e 24c0 6cbe 3481 e1be dd74 4dbe
00000060: 48ce 573e 141d 583d 2bed 973d 35bd 20bf
00000070: 9baa 263f b1dc c73c 111d 8d3e b7f7 1abf
00000080: 94a5 bebe f828 ddbe aa48 0b3d f532 0e3f
00000090: 78ed 7b3e 226b 16bf 945b a1be 3314 363e
000000a0: 46f1 2f3f 9429 753e c4c8 23bf 7f3b 26bf
000000b0: 45bb 97be 269a 383e 6e2d 7bbd 7a4e 97be
000000c0: 8fce d83e 57d3 6abe 02ac 03be d202 5e3e
000000d0: 1ec0 ffbe cd6b 063f 53b9 f53e 2677 07be
000000e0: c57d 22bf 142f f8be 2c83 abbe a974 1ebf
000000f0: 3edd c83e b837 93be 48d0 2c3f 56e0 f5bd
-0.19285662 -0.23510306 -0.38326994 0.63097334 0.6711308 -0.29629177 0.10332824 0.41325966
0.5848308 0.6436281 0.25027788 -0.38160884 -0.5893373 0.1779376 0.5777808 -0.01475402
0.68840224 -0.6738177 -0.5071795 0.297079 0.42919943 -0.23120171 -0.44043887 -0.20064111
0.21074784 0.052762106 0.07418283 -0.62788707 0.65104073 0.024397226 0.27561238 -0.6053423
-0.372357 -0.4319532 0.034004845 0.55546504 0.24602306 -0.5875722 -0.3151518 0.17781143
0.6872753 0.23941642 -0.6397822 -0.64934534 -0.29635063 0.18027553 -0.061322622 -0.2955206
0.42345092 -0.22932182 -0.12858585 0.21680763 -0.4995126 0.5250824 0.47992954 -0.13229045
-0.6347316 -0.48473418 -0.33498514 -0.6189676 0.39231294 -0.28753448 0.6750531 -0.12005679

bias f4 [32]
00000000: 7927 263e c43b 2bbe 1af7 083f b306 cabd
00000010: 95be 653e b216 e63e 9bc6 1ebf 8a08 963e
00000020: 7a39 3e3e 5f37 b7be 3436 a8be 3d09 f5bd
00000030: 8ae5 4b3e ad4e 1a3d 0cae 7f3e 8586 1d3b
00000040: 4ad0 11be 5efe d23e da6b 05be d33e 1a3f
00000050: 79a6 c43e fc51 103f 8ca8 bbbe ddf5 09bf
00000060: 2eae edbd 9f4e 2d3f 475c 023e 2353 413d
00000070: 4037 283f 107d 10be 663b ed3e 8d2b 96be
0.16225995 -0.16722018 0.5350205 -0.09864559 0.22435983 0.4493919 -0.620218 0.2930339
0.18576613 -0.35784432 -0.32853854 -0.11964653 0.19911781 0.037672687 0.24968737 0.0024036479
-0.14239612 0.41209692 -0.13029423 0.6025211 0.3840826 0.563751 -0.3665203 -0.5389078
-0.11605488 0.6769809 0.12730514 0.047198426 0.65709305 -0.14110208 0.4633438 -0.29330102

weight f4 [128, 32]
00000000: 2ac0 143e d02d e8bd ae78 a8bb 2a65 483d
00000010: 57c4 d0bd dc19 bfbd d779 f43d 742d 6f3d
00000020: 1e00 ff3d 495b 87bd 8916 39be c6f8 a3bd
00000030: c689 d6bd acd8 763b e525 33be 0e71 09be
00000040: ca1e dabd 21ac 673d 3856 c9bd 8321 b73d
00000050: 8f24 273e 3592 9abd 415a f4bd 61fa 823c
00000060: bfb8 12be ac8e 483d 968d 153e 5ab1 023e
00000070: bac8 11be 4086 77bd 4977 c2bc 02f1 833d
00000080: 0818 063e 2fc8 643d 8f06 94bd b291 14be
00000090: f97e e23d dc2f d6bd f2d3 f93d d1d3 0cbd
000000a0: ed6d 603d f4a7 14bc 4e2f 85bd c61a fcbd
000000b0: 758b 33be 087e 3cbc a768 173e 6a8a 91bb
000000c0: 61aa 043e 8654 1dbd 22a2 b23a 5631 bebd
000000d0: 8fc9 043e 5437 cb3c d425 053e 1677 ea3d
000000e0: 478c ed3d 40f1 903d 9734 8a3b d049 f3bb
000000f0: 9a04 ac3a c54a b9bc ac81 eebd 2f59 dc3d
00000100: 46a8 11be 6ee1 713b 498b bf3b 0f28 11be
00000110: ecf6 b5bd b1c9 053e 7327 913d a419 293e
00000120: fac4 723d 2f01 db3d c65a 1d3d b448 2f3e
00000130: 2d1f 0d3e e6d5 f53c f8f9 73bd 90d8 b33d
00000140: a04a abbd 09b3 e6bd 148f d53d 189c dabd
00000150: 112a e93c 670e a3bd d7be 883d a9bc 4b3d
00000160: d43f cdbd eedc 0fbc 2ec7 a43c 6acc 203e
00000170: 929b b2bd 0d4c 77bd 229e 0b3e 4f82 cdbb
00000180: 4a44 ccbd 03b8 ee3b 8a34 373e 2939 44be
00000190: d300 29be 9807 68bd 0f3a 1ebd d17b afbd
000001a0: cc03 c63c 7282 f93d ff9c ebbd 8e52 d03d
000001b0: ba12 eebc c30c 303e 4174 24bc 053d 443c
000001c0: 18d7 683d 97c9 71bb fa29 323e eeae af3c
000001d0: 609c 20be d1e4 b23c 48c1 09be 0bc5 1bbe
000001e0: f70d 133e c2b9 b03d d085 073e 96ef 973c
000001f0: f114 4f3d 2138 1fbe 96c6 14be c004 f1bd
00000200: 4118 9bbd d72f 03be e705 3e3d 4fa6 16bd
00000210: 8281 15be e562 45bd db43 653b cd45 2bbe
00000220: 5115 1d3e c8a7 df3d 1ea8 83bb 9caf 2cbe
00000230: 930a 7a3d 0103 b3bd e1a7 babd ab8c 01be
00000240: ec6d 2f3e 2411 c2bc aee2 f43c 9ccb 2d3e
00000250: a64b f73d c27f aabd 05b1 85bd 6866 883d
00000260: e53b 3bbd 640d 71bc 7300 2f3e d232 d23d
00000270: 0e8d 153e 7013 a33d 85b4 12be a1c8 cbbd
00000280: 5b00 0dbe 9db0 b9bd 2800 18bd c75b 043e
00000290: cef0 19bc 1fee 19be 0ebf 25bd cbe2 e93d
000002a0: 456d 72bd 4c9f 033e caea 20be 95d1 8dbb
000002b0: 0760 183c 1b7c 1ebd a687 36be 09bb 103c
000002c0: da75 9a3d 823c b13c 51cb cebd faf3 f6bd
000002d0: 1da0 13be 827f 1b3e 9230 4e3b dcf2 2b3d
000002e0: ad3d 023e a572 bfbc 52bf 113e dcf8 5a3d
000002f0: bc7e 083e 07f8 15be b93d 083e aa1e 1fbe
00000300: e348 1abe e023 963d 8b2a c4bd ce9b 2bbe
00000310: c233 bd3d 59ba 113e 9632 223c c777 a1bd
00000320: e7fc f5bd 4001 083e fe01 ae3d 899f a83d
00000330: 7300 78bb 3822 203e 8826 ab3b 840d 053e
00000340: d2e8 23be 3e2a f5bd ac69 993d 0824 d13b
00000350: e339 203e bb8c 913d 72f2 c23b bfd8 44bb
00000360: 97ec 263e 63bd 8cbd ad91 453c 4610 a1bd
00000370: 32af b13d a771 5a3d 5a80 29be c9ed 05be
00000380: f54d 32be 0c1a 00be eccb c5ba 57aa 4bbd
00000390: 1ce4 00be 61c7 f43d 222d 2ebe 8f31 e03a
000003a0: a2a3 bb3d 8397 dc3d 0d66 dbbd 992e 123e
000003b0: c3cf d73b cefc 85bd c7bf f7bd 4f2d 10bd
000003c0: 2a1b ab3d 5c19 9ebd 9aa9 353c f773 2f3d
000003d0: 9bdf 07be a1b6 b6bd 2f5b d73c bc88 903c
000003e0: 6d0e f6bd 5647 0abe 3928 bd3d 87c3 033e
000003f0: afde aabd bb44 e9bc bb5e 9fbd edff c1bd
0.1452643 -0.11336863 -0.0051413393 0.048924603 -0.10193699 -0.09331104 0.119373016 0.058392957
0.12451194 -0.06609208 -0.18075003 -0.08006434 -0.10475497 0.0037665768 -0.17494924 -0.13422033
-0.10650404 0.05656064 -0.09830898 0.08941939 0.1632254 -0.07547418 -0.11931277 0.01598853
-0.14328288 0.048964188 0.14604792 0.12762967 -0.14236727 -0.060430765 -0.02373852 0.06442453
0.13095105 0.055854972 -0.072278135 -0.14508703 0.11059374 -0.10458347 0.121986285 -0.03438169
0.054792333 -0.009073246 -0.06503163 -0.12309794 -0.17533667 -0.011504658 0.14786015 -0.004441549
0.1295562 -0.038410686 0.0013628642 -0.09286754 0.12967514 0.024806656 0.13002712 0.11448495
0.115990214 0.07077265 0.004217695 -0.0074245706 0.001312393 -0.02261866 -0.11645827 0.10759198
-0.14224347 0.0036908048 0.0058454615 -0.14175437 -0.08884987 0.1306522 0.070876025 0.16513687
0.059269883 0.10693585 0.038416646 0.17117578 0.13781424 0.030009221 -0.05956456 0.087815404
-0.08363843 -0.11264617 0.104276806 -0.10674304 0.028462442 -0.079617314 0.06677025 0.049740467
-0.1002194 -0.008780701 0.020114508 0.15702978 -0.08721079 -0.060375262 0.13634542 -0.0062716375
-0.099739626 0.0072851195 0.17891136 -0.1916243 -0.1650422 -0.056647867 -0.038629588 -0.08568538
0.024171732 0.121830836 -0.11504554 0.10171996 -0.029061664 0.17192368 -0.010037483 0.011977439
0.056845754 -0.0036893839 0.17398825 0.021445718 -0.15684652 0.021837624 -0.13452637 -0.15211885
0.14360796 0.086291805 0.13234639 0.01854686 0.05055708 -0.15548755 -0.1452888 -0.11768484
-0.075729854 -0.12811218 0.046392348 -0.036779698 -0.14600185 -0.048190016 0.0034983072 -0.16725846
0.15340163 0.109206736 -0.004017844 -0.16863865 0.06104524 -0.08740807 -0.091140516 -0.12651317
0.17131776 -0.023689814 0.029893246 0.16972202 0.12074976 -0.08325149 -0.065279044 0.066601574
-0.045711417 -0.014712665 0.17090015 0.102635995 0.1460459 0.07962692 -0.14326675 -0.09950376
-0.13769667 -0.090668894 -0.037109524 0.12925635 -0.009395791 -0.15032242 -0.040465407 0.114202105
-0.05918624 0.12853736 -0.15714565 -0.0043279626 0.009300238 -0.038692575 -0.17825183 0.008833655
0.0754201 0.021635298 -0.10097373 -0.120582536 -0.14416547 0.15185359 0.0031462056 0.041979656
0.1271884 -0.023370096 0.14233139 0.053459987 0.13329595 -0.14645396 0.13304795 -0.15539041
-0.15066867 0.07331061 -0.09578427 -0.16758654 0.09238388 0.14231242 0.009899756 -0.07884174
-0.12011128 0.13281727 0.08496474 0.08233554 -0.0037842065 0.15638053 0.005223099 0.12993437
-0.16006783 -0.11970948 0.074908584 0.006382469 0.15647082 0.0710692 0.005949312 -0.0030036417
0.1630119 -0.0687206 0.012058658 -0.07864432 0.08675994 0.053331044 -0.16552868 -0.13078989
-0.17412551 -0.12509936 -0.0015090681 -0.049722996 -0.12587017 0.11952091 -0.17009404 0.0017104613
0.0916207 0.10771086 -0.10712824 0.14275588 0.0065860464 -0.06542359 -0.120971255 -0.03519946
0.083547905 -0.07719681 0.011087799 0.042835202 -0.13268892 -0.089215524 0.026288597 0.017643325
-0.1201447 -0.13503775 0.092361875 0.12867557 -0.08343255 -0.028475156 -0.0778174 -0.09472642

bias f4 [128]
00000000: 41d3 a13d a7d1 cfbc a8da 293e 5f36 eebd
00000010: 42ef d3bd c869 7b3d c428 cf3d 299e 4abd
00000020: d3e8 0dbd 59fb 68bc 3329 94bd fc4a 003d
00000030: e7c6 a0bd 3f59 1d3e 6fbc 44bd c8c9 0e3e
00000040: 8611 54bd 4fa0 80bd 8d0d 0f3e 3147 603d
00000050: 5203 30be 1a9a b9bd 3214 053e 6549 42bd
00000060: b621 13be 2dfb 21be bb9a 093d 5faf 333e
00000070: 6c79 edbd 4d7d 1b3b 899a 663d 093d 23bd
00000080: d478 883c c719 72bd d712 953d a1fd 9d3d
00000090: 9d06 23bc 5d46 25be 3f5e fd3d 1e0b fc3d
000000a0: e56a 303e 1fc4 f43c 2c47 a93c 6b5f ed3d
000000b0: 109b a2bd 864c 23bd 5635 523d 8a37 013e
000000c0: 4164 dcbd 2992 c8bd c50d 473c be32 fc3a
000000d0: 52ec bb3d bb07 34be 2377 b33d d395 95bc
000000e0: bcf6 15be 00dd d13d a716 5d3d 2d82 a33d
000000f0: 5dbc 85bd ef05 73bd e102 b9bd 4d4a 823c
00000100: ea8c 49bd 5b70 173e fdcc 05be b08b 2ebe
00000110: cd38 30be 1a5c 16be f162 e4bd c6f7 44bc
00000120: b827 053c 1ea9 ce3c c490 e5bd 5846 ac3d
00000130: 420c 993d c1d7 023d 85ab 2bbe 1975 43bd
00000140: 6733 09be 94a2 023e e03c febd aede 2cbe
00000150: dcaa 03bd 6e77 203e 52c6 b73d 0b10 073d
00000160: fd47 08be 059b 1dbe 9edf 8bbd eee5 b03d
00000170: 67d2 ee3c d99d d13d f3da 973d c2b8 053e
00000180: aecd dc3d d069 01be 73cc 9e3d 7aee 79bd
00000190: b3e7 6b3d 2272 c93d 8def 27be 31b8 13bd
000001a0: 8ddd 283d e4b0 b83c 9ec0 e73d b534 11be
000001b0: 432a c33d 3b7c e7bd 60f2 37bc b0b5 213c
000001c0: fe45 273d b982 143e 04b1 aa3c edf0 353e
000001d0: ce63 c6bc b82c 6d3d 5a21 13be 55ff 213e
000001e0: 8b3a 45bd 8c30 19be 5c32 a13d 6823 10be
000001f0: 238b f5bb 5d7a 0d3d 0cfe e93d 3503 273e
0.079016216 -0.025368525 0.16587317 -0.11631464 -0.10348369 0.061380178 0.10115197 -0.04946724
-0.034645867 -0.014220082 -0.072344206 0.03132151 -0.078504376 0.15366076 -0.048031267 0.13944161
-0.051774524 -0.062805764 0.13970013 0.054755393 -0.17188767 -0.09062596 0.12995985 -0.047433276
-0.14368328 -0.15818472 0.033594828 0.17547368 -0.11595425 0.0023725808 0.05629972 -0.03985313
0.016659178 -0.059106614 0.07278984 0.077143915 -0.009950307 -0.16140123 0.12371492 0.12306808
0.17228277 0.029878674 0.02066382 0.11590465 -0.07939732 -0.0398679 0.051320396 0.12618843
-0.107613094 -0.09793503 0.012149279 0.0019241197 0.09175934 -0.17581074 0.08762958 -0.018259918
-0.14644903 0.102472305 0.05397668 0.079838134 -0.06530068 -0.05933183 -0.09033752 0.01590457
-0.04920665 0.14788954 -0.13066478 -0.17045474 -0.17209168 -0.14683571 -0.11151684 -0.012021964
0.0081271455 0.025227126 -0.112092525 0.084118545 0.07473041 0.03194404 -0.16764648 -0.047719095
-0.13398515 0.12757331 -0.12413955 -0.1688182 -0.032145366 0.15670559 0.089733735 0.032974284
-0.13308711 -0.15391167 -0.06829761 0.086376056 0.029153062 0.10235185 0.07414808 0.13058761
0.10781418 -0.1263802 0.07753839 -0.061018445 0.057594012 0.09836222 -0.16399975 -0.03606433
0.041226912 0.022545286 0.11316036 -0.14180262 0.09529545 -0.11302992 -0.01122722 0.009869978
0.040838234 0.14502992 0.02083636 0.17767687 -0.024217512 0.057903975 -0.14368191 0.15820058
-0.048151534 -0.14959925 0.078709334 -0.14076006 -0.007493393 0.034540523 0.11425409 0.16309817

weight f4 [32]
00000000: 9f37 813f 8900 7f3f 582b 803f 3f75 813f
00000010: 3bc8 7c3f 6ec3 7f3f 4a44 7f3f e0b9 803f
00000020: 0513 803f e953 7e3f 7177 7e3f b7a6 7f3f
00000030: 73d5 7e3f 7d34 803f c006 7f3f fe7d 813f
00000040: fb14 7c3f 235f 813f b2d1 803f b132 803f
00000050: dd34 7d3f b30f 7c3f 0a69 813f 1c84 813f
00000060: f2e1 7f3f f94e 7f3f ebb2 7f3f cfac 803f
00000070: 57c3 7e3f 3b21 7f3f ce74 803f 4744 813f
1.0095099 0.9961019 1.0013227 1.0113906 0.9874303 0.9990758 0.99713576 1.0056725
1.0005804 0.99346787 0.99401003 0.9986376 0.9954445 1.0016018 0.99619675 1.0116575
0.98469514 1.0107158 1.0063994 1.001547 0.9890879 0.98461455 1.011018 1.0118442
0.9995414 0.9972988 0.9988238 1.0052737 0.99516815 0.9966008 1.0035646 1.0098962

bias f4 [32]
00000000: 1000 36bc 8359 34bb 0843 67bb a898 143c
00000010: 9552 96bc 89bf 57bb 131e ff3a 0bd8 df39
00000020: dcfe 5abc 0c24 9c3b adf2 08bc 15c9 043b
00000030: 1967 2e3b e2c0 cdba c05d 1cbb 55d4 573c
00000040: 3c39 dabb 9e34 153c 4faf 0b3c 8f84 823b
00000050: 9cb7 0abc ae9c 33bc bb36 8d3c c2ba 3239
00000060: 5ee4 8ebb e1be 0a3c 553b 27bb ac72 8b39
00000070: db43 41bc 5897 99bc ac87 f23b a74d 623c
-0.011108413 -0.0027519173 -0.0035287756 0.009069599 -0.018349925 -0.003292056 0.0019463919 0.0004269484
-0.013366427 0.0047650393 -0.00835864 0.0020261456 0.0026611744 -0.0015697742 -0.002385959 0.0131731825
-0.006659655 0.009106783 0.008525684 0.0039830874 -0.008466627 -0.010962648 0.017238012 0.00017044976
-0.0043607196 0.008468361 -0.0025517542 0.00026597583 -0.011795963 -0.018748924 0.0074014273 0.013812459

running_mean f4 [32]
00000000: 1f15 363d f645 2fbb b25f 0a3f 19b4 8c3d
00000010: f265 0e3f 3ace b43e 149c 27bf 5723 c53e
00000020: 3788 693d aca6 abbe b712 aebe aa72 88be
00000030: b8d7 813e b4bd 35be a866 bc3e 2ae9 2ebe
00000040: e22a b9be f894 1e3f 0aa8 9abe c222 1d3f
00000050: fe20 163f c9f7 613e 3cda b3be c60c 28bf
00000060: 384c 03be 92e9 3b3f 2a36 6f3e 748b a33d
00000070: 46ce bf3e a70c d8be 53b5 d93e f493 64be
0.044453736 -0.002674458 0.5405227 0.068702884 0.55624306 0.35313588 -0.6547253 0.38503525
0.05701467 -0.33525598 -0.33998653 -0.26649982 0.25359893 -0.17748147 0.3679707 -0.17081133
-0.3616553 0.6194606 -0.3020633 0.6138116 0.5864409 0.22067179 -0.35127437 -0.6564449
-0.12822044 0.73403275 0.23360506 0.07985583 0.37462062 -0.42197153 0.42521152 -0.22322065

running_var f4 [32]
00000000: 2be6 763c e114 223e 8a0c 183e fdeb 143d
00000010: 385e fa3d 5f37 793d d8d7 cb3d 150d 9c3d
00000020: 15a9 8c3e 7d0b ca3d 91b7 893d 41e0 273d
00000030: 5f50 153c 092c cb3d 19d1 be3d 9e98 ff3d
00000040: 1c2b 583d 3d47 8e3d 8743 e83d 4a84 183d
00000050: 3405 c73d 2704 093e b853 0d3d 4b2c 993c
00000060: e760 863d b0cd 963c 0059 1f3e 6cda 833d
00000070: 7621 d43d cba8 b03d 2d6a 8d3d 420a ef3d
0.015069525 0.15828277 0.14848533 0.03635787 0.12225002 0.06084382 0.09953278 0.07619683
0.2747275 0.098654725 0.06724466 0.04098535 0.0091134 0.099205084 0.09317226 0.12480281
0.052775487 0.069471814 0.11341005 0.037235536 0.09717789 0.1338049 0.03450367 0.018697878
0.065614514 0.018408626 0.15561295 0.06438145 0.10357945 0.08625945 0.06905017 0.116718784

weight f4 [32, 3]
00000000: 3267 94be 2544 513e fe7b ba3e 4aa8 bb3d
00000010: f195 53be f230 21bd 7656 1d3f ddb8 ffbe
00000020: 628e 903e 02d0 e53e c0e5 01bd cb81 debd
00000030: d707 5ebe 2754 843e 944e da3e e7fe 12be
00000040: 85d9 1bbc 6a94 f8bd e5ac ac3c ccc2 35be
00000050: fadd 95bd 16f8 1d3d 5036 c2be 0417 05be
00000060: fb36 e3bd 4ff0 893e 42e1 c73e 4710 8b3d
00000070: d150 5c3e 8dce 243e 1ec7 05bf dda4 073f
00000080: 0386 6a3e d0e5 ac3d 3c1f 9b3e 689a d2be
00000090: b1de b33e 7f16 723e b4ab e5be b5f0 1dbe
000000a0: 2790 bfbe 6de2 6cbe 351e 933e 7d06 8bbe
000000b0: f005 5cbe 53ed ccbe f910 03bf 04de f83e
000000c0: 453d ae3e 38c7 52be 56e0 99be a835 903e
000000d0: 8f27 14bf 002d d63b ade4 9ebe 45a3 bdbd
000000e0: 7b14 623e 4098 1d3f e57d de3c ce2d c6be
000000f0: a0fa c23d 6e12 ecbe 10eb 04bf 4ee9 64be
00000100: 0af6 f6be 3274 e03d 8b95 ccbe 2604 7d3e
00000110: 56f5 1e3e 4c7a 103e 4c6a 073f 8f17 cebd
00000120: f9b3 0fbf 20ff 75be ddc8 4c3e b38d c03e
00000130: 54f1 073e 93b1 13bf 8415 e3bd 4e56 a73e
00000140: 7c28 0f3f 9580 8c3e 7846 dbbc 6fb2 f53e
00000150: 344c d4be b827 063f ca5d 7abe 8bda ae3d
00000160: 5f12 5d3e 9da9 fa3d 1766 10bf c208 ee3e
00000170: c7a5 033f eb0d e73e b22b f6be 8c79 78be
-0.28984982 0.20436151 0.36422724 0.09162958 -0.20662667 -0.03935332 0.61460054 -0.49945727
0.2823363 0.4488526 -0.031713247 -0.108646 -0.21682678 0.25845453 0.42638075 -0.1435505
-0.00951231 -0.12137683 0.021078536 -0.1775009 -0.07317729 0.03856667 -0.37932062 -0.12997061
-0.11094471 0.26941153 0.39039046 0.06790214 0.21515204 0.16094418 -0.52256954 0.52985936
0.22902684 0.08442271 0.30297267 -0.41133428 0.35130838 0.23641394 -0.44857562 -0.15423854
-0.37414667 -0.2313325 0.28733984 -0.27153388 -0.2148664 -0.40024814 -0.51197773 0.48606884
0.3403112 -0.20583808 -0.30053967 0.28165936 -0.5787286 0.006536126 -0.3103384 -0.09259657
0.22078125 0.6156044 0.02715964 -0.3870682 0.09520459 -0.4610781 -0.51921177 -0.22354624
-0.48234588 0.109596625 -0.39957842 0.24708614 0.15523276 0.14109153 0.5289657 -0.10063087
-0.5613399 -0.24023104 0.19998498 0.37608108 0.13275653 -0.5769283 -0.11088088 0.32683033
0.5592115 0.2744185 -0.026767 0.47987697 -0.41464388 0.52404356 -0.2444984 0.085377775
0.2158904 0.122393824 -0.56405777 0.46491057 0.5142483 0.45127806 -0.48080212 -0.24265116

bias f4 [32]
00000000: 35e1 a13d abd1 f93e 2fac 843e befb 4b3d
00000010: 0665 903e 2e12 0d3e e275 5dbe 2922 efbe
00000020: a126 25be 1122 b5be fae3 bebe 88b9 aa3e
00000030: b91e cabe 777a ba3e 04df b5bd f5ee 09bf
00000040: 5c83 043f faac 653e 804c dd3e 4966 633e
00000050: f4ca 91be bdfd 4c3d 1518 b83e ad4e 803e
00000060: c2ab 93be 3565 ef3e 4a50 93be 62e3 9e3e
00000070: c394 65be b334 cb3d b841 173e c20f b4be
0.07904283 0.48792776 0.25912616 0.049800627 0.28202075 0.13776466 -0.21627 -0.4670575
-0.16128017 -0.35377553 -0.37283307 0.33344674 -0.39476565 0.36421558 -0.088804275 -0.53880244
0.5176294 0.22429267 0.43222427 0.22206987 -0.28475153 0.05004667 0.35955873 0.25060025
-0.28841978 0.46756902 -0.28772193 0.31032854 -0.2242003 0.09922161 0.14771163 -0.35168272

weight f4 [128, 32]
00000000: d1e9 a03d 5e82 c73c 05ea d83d 9b99 05bc
00000010: a60d fc3d 7e7c e13c 9597 843d f84d aa3c
00000020: b90d 84bd ecee dd3d 4b04 f5bd b7d0 d53d
00000030: a588 6ebd 6ddf 9fbb aa71 aabd ca4d 39be
00000040: 4180 a23d 148a 663d dc69 35be 4172 c83c
00000050: 2c56 e8bd c328 c13c 8338 0dbe de2b 1a3d
00000060: 4823 513d da69 143e 5fa4 1abe 94e2 b53d
00000070: 76f4 19be 1437 013e 287e 183d 3ef5 8fbd
00000080: bbe0 bc3d 5773 933d d07b a1bd 3350 ef3c
00000090: ca50 573d de15 c5bc 7ddb b2bd b50c 2bbd
000000a0: 9e12 333e 35c2 163e e3aa efbd 36c2 0fbe
000000b0: 006d 1f3e b663 1cbe 59ad 20be 311e 033e
000000c0: 518e 073e 229c 18be c6f8 8dbd 7638 573d
000000d0: 80c8 2a3d bc7c 2bbe a614 8bbd 1fdd 93bd
000000e0: d911 d93d 4ec4 8fbd 96ef ba3d 728a 14bc
000000f0: 80f4 fdbd bc0c d0bc 3e5a 5b3d 50f9 6dbc
00000100: 1e95 ce3c 4b19 9dbd ab9f 8e3d 03a3 f93d
00000110: 857a b73d d9f3 973c f9c3 d7bd 0c83 e03d
00000120: a09e 18bd 8205 26be e92c ed3d 4a09 223e
00000130: 27ea 60bc 2a70 8d3b 1e66 113e f082 0e3e
00000140: aa3a 393e 2711 453e 9316 2d3e b1e8 12be
00000150: b15d fbbc b3d5 fcbd b4c2 173d 5ab5 5e3d
00000160: 3b2c 46bd 7b28 d33d 3c91 9fbc 6653 2f3e
00000170: f4e1 a73d 0591 063e d2ed 243e 60f9 ca3d
00000180: 848c b53d f09c 7fbd 4255 283e dcca a9bd
00000190: 827f 27be 8d38 2abe b177 35be 3fab c1bd
000001a0: f6c4 85bd b800 fd3d be39 33bd 6aeb 053d
000001b0: 135f 4cbd f912 26bc 88e7 e3bd abe5 ecbd
000001c0: 5aed f63d 530c de3d 9eac 093e e139 563d
000001d0: 5960 b4bb da6c 8e3d 3c21 273e 0282 c23d
000001e0: 30d4 90bb df0f 11be 2b54 1e3e efbe d43c
000001f0: 7386 efbd fd6a 17be 4927 4fbd c33f 0b3e
00000200: dc6d f5bd 3a6a 103e aff7 0e3e 5ae6 4f3d
00000210: 19e1 06bd f22e 43bd 5aff 30bd c699 353d
00000220: 01b4 cd3d 8fe7 34be 46be 03be f956 27be
00000230: 0e99 3d3d b2da 873d 6a40 0c3e 6f67 05be
00000240: 0e01 35be a27c dabd 26ce 343e f396 bdbd
00000250: 5723 9abd 6840 3a3e 2beb 7e3d 395f ab3c
00000260: 55a3 403c c771 1abe 557b 15be 61ea 453d
00000270: 99eb f0bd e8b6 f23d e266 283e 4e5e 763d
00000280: cfb7 debd fc16 dc3d 585a 253e 2cf4 063e
00000290: 088e a43c a157 8e3c fe9c 243d 1b25 db3a
000002a0: 10c5 22bd c9e1 633c 2381 c9bd 46ed f5bd
000002b0: 4ece e93c ed68 903d e348 303e 5e7e f5bd
000002c0: a11d debc c286 0e3e 4778 1d3e e509 393d
000002d0: 5aea 0fbe 7c78 4c3d eede 613c f99f eabd
000002e0: 5630 c1bd 4010 fdbd d031 0b3e a5e3 0fbe
000002f0: a92c f6bd 7106 123e 5961 75bc 1357 b73c
00000300: cbe4 c03d 9f45 e2bc 079e 29be 537c e93d
00000310: e770 41bc 54f6 a83d 7b3a afbd 7635 4cbd
00000320: eda1 30bd 6a02 dc3c 2099 a4bd 26d6 25be
00000330: ec2e a8bc 9a1c dbbd 9d79 66bd 86fb 93bd
00000340: c0dc cebd 9c23 b2bd 3dfa 1d3d a313 693d
00000350: e9c2 4dbc 6c22 e13d 1029 13be 393c 26be
00000360: 30f6 8e3d 44b7 e4bd 954c 2dbd 7cd0 903c
00000370: 12a4 603c ab8a 07be 7c92 d53d 976e c73d
00000380: 855b f3bd a508 11be 2e8e 83bd 2109 6d3d
00000390: 459e e93c 7e3a 92bd 3421 15be 3ea7 1fbe
000003a0: 6a05 acbd d87d bbbd 2778 e9bd 4802 133c
000003b0: 190d 56bd 3dbd b3bd c12b dfbb 8345 213e
000003c0: 6aed c4bd 3e29 21be 3e84 c0bd 8094 143d
000003d0: cbdf bfbb e81e 84bd 9b65 563c e756 bf3b
000003e0: 8444 98bd 9149 75bd c517 67bc 819e 2f3c
000003f0: 3fbe a8bd 06a4 07bb 1648 dc3d 64cc 1a3e
0.07857097 0.024354156 0.10591511 -0.008154298 0.12307291 0.027525183 0.064742245 0.020789132
-0.0644793 0.10836586 -0.119637094 0.104402 -0.058235783 -0.0048789294 -0.08322461 -0.1809608
0.07934619 0.056284025 -0.17716163 0.024468543 -0.11344561 0.023579007 -0.13791089 0.03763949
0.051059037 0.14493504 -0.15101765 0.08881107 -0.1503466 0.12618667 0.037229687 -0.07029198
0.092225514 0.07199734 -0.078849435 0.029213047 0.05256728 -0.024058279 -0.0873327 -0.041760165
0.1748757 0.14722522 -0.11702516 -0.1403893 0.15568924 -0.15272412 -0.15691127 0.12804486
0.13237883 -0.1490331 -0.069322154 0.05254408 0.041695118 -0.16746801 -0.06791048 -0.0721991
0.10599107 -0.07019864 0.09127729 -0.009066211 -0.1240015 -0.025396697 0.05355286 -0.014524773
0.025217589 -0.0767084 0.06964048 0.12189295 0.089589156 0.018548893 -0.10535426 0.10962495
-0.03726065 -0.16213039 0.115808316 0.15823856 -0.013727701 0.0043163495 0.14199111 0.13917136
0.18088785 0.19244824 0.16903143 -0.14346577 -0.030684324 -0.123454474 0.037050918 0.05437217
-0.048382025 0.103104554 -0.019478433 0.17121658 0.08197394 0.13141258 0.16106346 0.09910846
0.08864692 -0.062405527 0.16438773 -0.082906455 -0.16357234 -0.16623135 -0.1772144 -0.09456491
-0.06531708 0.12353653 -0.04375624 0.03269521 -0.049895357 -0.010136359 -0.111281455 -0.11567243
0.1205699 0.108421944 0.13444754 0.05230129 -0.0055046496 0.069543555 0.16321272 0.09497453
-0.004419826 -0.1416621 0.15461795 0.02596995 -0.11695566 -0.14786907 -0.050574575 0.13598542
-0.11983845 0.14103022 0.13961671 0.05075679 -0.032929514 -0.047652192 -0.043212272 0.044336103
0.10044099 -0.17666458 -0.12865552 -0.16341771 0.046288542 0.0663351 0.13696447 -0.13027738
-0.17676184 -0.10668303 0.17656764 -0.09257307 -0.07526272 0.18188632 0.062235992 0.02091943
0.011757691 -0.15082465 -0.14597829 0.048319224 -0.11763687 0.11851293 0.16445497 0.06014853
-0.108749025 0.107465714 0.16147745 0.13179082 0.020087257 0.01737577 0.040188782 0.0016719432
-0.039738715 0.013908812 -0.09839084 -0.12008147 0.028540757 0.07051263 0.17215304 -0.11986993
-0.027113738 0.13918594 0.15377913 0.04517545 -0.14054242 0.04991959 0.013786061 -0.114562936
-0.094330475 -0.12356615 0.1359322 -0.14051683 -0.12020237 0.1426027 -0.014976823 0.022380387
0.09418639 -0.027621089 -0.16564189 0.11400666 -0.011806703 0.08250108 -0.08556076 -0.04985567
-0.043123174 0.02685662 -0.08037019 -0.16194972 -0.020530187 -0.10698815 -0.056268323 -0.07225709
-0.101006985 -0.08698198 0.038568724 0.056903493 -0.012558677 0.109928936 -0.14371133 -0.1623391
0.0698055 -0.11167768 -0.042309362 0.017677538 0.013710992 -0.13236491 0.1042833 0.0973789
-0.1188269 -0.14163454 -0.06423603 0.057870034 0.028517852 -0.07140063 -0.14563447 -0.15591142
-0.0839947 -0.09154862 -0.1139987 0.008972712 -0.052258585 -0.08776329 -0.006810636 0.15749173
-0.09615596 -0.15738389 -0.09400223 0.036274433 -0.0058555356 -0.064512074 0.013085748 0.005839217
-0.07434943 -0.05988461 -0.014104788 0.010718943 -0.082394116 -0.002069713 0.10755937 0.15117031

bias f4 [128]
00000000: fbea 59bc 1935 113e 35d5 823d 2b65 00bd
00000010: 9370 01be 9d7b ddbd 4cf3 0ebe 6f19 0ebe
00000020: 9f53 febc 79c5 fcbd 3526 21be 85f1 6c3d
00000030: e937 eb3d db5e 1d3d 6917 86bc ffbe f7bc
00000040: 295e 86bd cbfd 203c b8a8 c6bd 58d2 b5bd
00000050: e751 183e 61c9 5f3d 29fc 57bd 28b6 adbd
00000060: 8a8a 663d 3564 233e 67de 57bd 9995 9a3d
00000070: e811 a23b 21e4 d6bc 2c7b 1fbd 287d e53d
00000080: 53a4 3ebd cd26 cdbd 0c20 f83d 9ddc cabd
00000090: d7aa f33d 675a 22be 4541 df3d e768 273e
000000a0: 2a50 033e 131f eabd b254 bb3d e05a 7dbc
000000b0: cdfc 863d d5d9 6c3d 4a80 f6bc 1265 8ebd
000000c0: 88e4 18be c02e 863b 300d bd3d 2dab ff3d
000000d0: 8343 aabd 9a38 4fbd 248e ac3d c8d3 f53d
000000e0: da77 173e 17f9 283e 5525 16be 3215 9d3d
000000f0: 9c9e fbba 8bae b9bd 2b63 1fbd 1620 d1bd
00000100: 26df 9f3d 7cfe 853c 5ecd b33d 8497 4cbd
00000110: 48df 563c 6d6f d73d f65a 4d3d fde3 f8bd
00000120: 2c59 c83d f2e5 96bd 1f41 3a3d d8dd 1ebe
00000130: 0643 e93d 4bb0 23be 5141 3cbd ef31 013e
00000140: deef 02be 3824 0ebe a362 97bc 3d12 e83c
00000150: 7a98 0abe b527 e93d febf dcbd 793d 7abd
00000160: e6f8 e63d 080c a7bd 8060 e23c 3c65 0dbe
00000170: 4e5c 323e aa6e cd3d d73d 2cbc 6d03 6cbc
00000180: 57da dc3b c15b b03d 8a92 b23c 325c 193d
00000190: 5b1f adbd e0bc 68bd c0f3 32be 18a5 39be
000001a0: b390 5d3d abb1 dfbd 9eae 0abe eebb b93d
000001b0: abdd 67bd 884b b83d b38f 13be e648 ccbd
000001c0: d83a 8d3d db3e b93d f37e b33d f765 bebd
000001d0: 9076 abbd 9bee 0ebd 5bab 633b e31d 9f3d
000001e0: 3230 fe3d a011 a1bd a5cd 17be 8dff 7c3d
000001f0: bfc5 fd3d ac43 be3b e009 bcbc 8e63 d23d
-0.013300653 0.14180411 0.06388322 -0.03134648 -0.126406 -0.10814593 -0.13959998 -0.1387689
-0.031045733 -0.123423524 -0.15737231 0.05784752 0.114852734 0.03842054 -0.016368585 -0.030242441
-0.065609284 0.009826134 -0.09700149 -0.088780105 0.14874993 0.05463541 -0.052730713 -0.08482009
0.056284465 0.15956195 -0.052702334 0.07548065 0.0049459822 -0.026231827 -0.038935825 0.11205512
-0.04654343 -0.10017166 0.121154875 -0.0990536 0.118978195 -0.15854798 0.10901121 0.16348611
0.12823549 -0.11431708 0.09147014 -0.015463561 0.06591187 0.05782493 -0.03009047 -0.069528714
-0.14930928 0.0040949285 0.09231031 0.12483821 -0.08313658 -0.05059109 0.08425549 0.12003285
0.14791813 0.1650127 -0.14662679 0.07670058 -0.001919705 -0.090664946 -0.038912933 -0.10211198
0.07806234 0.0163567 0.08779405 -0.049949184 0.013114758 0.105193 0.050135575 -0.1215286
0.09782633 -0.07368077 0.04547226 -0.15514314 0.11389737 -0.15985219 -0.045960728 0.12616704
-0.12786815 -0.13881004 -0.01847965 0.02832901 -0.13534728 0.11384527 -0.10778807 -0.06109378
0.11277942 -0.08156592 0.027633905 -0.13808149 0.17418024 0.10030873 -0.010512791 -0.014405114
0.0067398953 0.08611251 0.02179839 0.03744144 -0.08453246 -0.05682075 -0.17475796 -0.18129385
0.054093074 -0.10922559 -0.13543174 0.09069048 -0.056607883 0.089987814 -0.14410286 -0.09974842
0.06895989 0.09045192 0.08764448 -0.09296792 -0.083722234 -0.03489552 0.0034739587 0.07769372
0.12411536 -0.0786469 -0.14824541 0.06176715 0.12391233 0.005806407 -0.022953928 0.10272895

weight f4 [32]
00000000: 7ae5 803f be06 7b3f 7e60 7e3f 2a97 7e3f
00000010: 3be2 7b3f 666f 803f a6c1 7b3f 5c5e 833f
00000020: 8345 803f 0122 813f ae13 803f aa51 7c3f
00000030: 61de 803f 10ca 803f 146b 7b3f 7971 7d3f
00000040: cd60 813f b6b6 7e3f 3a6c 7d3f ec16 7b3f
00000050: aaa3 833f 9671 7a3f 14ec 823f 726a 813f
00000060: 3421 7c3f 357f 803f 7709 813f 42a7 803f
00000070: aace 7f3f 4cc4 813f 91cc 813f 5faf 823f
1.0070031 0.9805716 0.99365985 0.9944941 0.98392075 1.0033996 0.9834236 1.0263171
1.0021213 1.0088502 1.0006006 0.9856211 1.0067865 1.0061665 0.98210263 0.9900127
1.0107666 0.99497545 0.98993266 0.9808185 1.0284321 0.9782957 1.0228295 1.011061
0.98488164 1.003882 1.0081013 1.0051043 0.9992472 1.013803 1.0140554 1.0209769

bias f4 [32]
00000000: 40ba ef3c ce9f bdbb 5074 28bc cc90 a03c
00000010: 714c 28bc 350a 843c c2ef d53a 7959 3a3d
00000020: 080d 97bc 1d58 043a d971 2a3c 6070 47b9
00000030: 39e0 453b 89d6 ac3b 866e 0c3b c0f3 d0bb
00000040: 66cd 7f3c 046f 2d3c 53e0 f0bb e621 473b
00000050: 04fa e43c bacf 1b3c e145 183d f6e1 193c
00000060: 1ed3 96bb a73d 6c3b 4bb3 f23c 5653 903c
00000070: 67f2 e6ba d369 d63c b8d7 02bc dbae a73c
0.029263616 -0.0057868725 -0.010281637 0.019600295 -0.010272131 0.016118148 0.0016322064 0.045495484
-0.018438831 0.00050485303 0.01040312 -0.00019019982 0.0030193462 0.005274598 0.0021428182 -0.0063767135
0.015612936 0.01058555 -0.0073509603 0.0030385195 0.027951248 0.009509975 0.037176017 0.009392252
-0.004602804 0.003604749 0.02962651 0.017617863 -0.0017619849 0.026173508 -0.007986002 0.02046912

running_mean f4 [32]
00000000: 3215 7f3f c74e b63f f198 9540 d200 cbbe
00000010: b0e1 9f3f c7d3 febe 0406 ba3e 4c55 6d3f
00000020: ba86 0a3f 49c9 26bf 0fbe 03c0 b85e 6dc0
00000030: b7c4 88c0 aab4 933f 4519 5e3e a45a a340
00000040: 265a 17bd 2344 6140 cf4c 0d40 cb64 08c0
00000050: 5058 24bf e7db 5840 8df1 1abe e422 53c0
00000060: 9ad0 0c40 f9aa 63c0 8605 863f 7eea 4b40
00000070: 6207 92c0 b295 d8be 8a1e e73e 425e 793f
0.99641716 1.4242791 4.6749196 -0.39649063 1.2490749 -0.49770948 0.36332715 0.9270828
0.54111826 -0.65150887 -2.0584753 -3.7089062 -4.274013 1.1539509 0.21689327 5.1048145
-0.036951207 3.5197837 2.207813 -2.131152 -0.64197254 3.3884218 -0.15131207 -3.2990046
2.200232 -3.5573103 1.0470436 3.1861873 -4.563401 -0.42301708 0.45140487 0.9740945

running_var f4 [32]
00000000: 8f15 7f41 bd84 4740 ea5a 4941 1072 8b3f
00000010: 1511 b741 e935 8c3f ba38 3f40 e0fa 4841
00000020: 522d a741 45d0 d040 3f67 da41 1ef5 2441
00000030: d606 3741 b4d5 8741 f6ab 2e41 6eae 9141
00000040: 4a3b 4541 f3d4 9e41 e2da 3040 256b 1e41
00000050: 7704 3442 72b6 3c41 fbdb ef40 0d99 6741
00000060: 8328 6340 c7e0 9f41 61f7 1942 f821 7641
00000070: 94df 5641 ed4b aa40 3f5b 3342 cc0f c441
15.942763 3.1174767 12.584696 1.0894184 22.88334 1.0953952 2.9878373 12.561249
20.89713 6.5254235 27.300413 10.309843 11.439169 16.979347 10.916983 18.21017
12.326975 19.85398 2.7633595 9.901158 45.00436 11.794542 7.495603 14.474866
3.5493476 19.984755 38.49158 15.383293 13.4295845 5.3217683 44.839108 24.507713

weight f4 [32, 136]
00000000: 014a 8d3d 4117 a7bd 7d5e a93d 9fc5 0fbc
00000010: f9c1 b2bc 64bc 953d ee78 edbc adc5 223d
00000020: 020f 7bbd f9fe c3bd be7a c3bb bb46 463d
00000030: 0545 2abd 6bca 3c3c fb6b 81bc e905 25bc
00000040: dac9 69bc d99f 92bd 4c60 95bd 4aab 9e3c
00000050: 4151 753b 2218 123d e816 013d 026c d4bb
00000060: d622 88bd 6721 2b3d 6793 d73c 6d52 243c
00000070: c47b 593d 37d0 2ebd d250 14bd e4e4 233d
00000080: 8622 72bd 060d 193c bf32 6abc d11c 2cbd
00000090: c2ca 42bd fe48 95bc a501 023d 9fea a0bd
000000a0: 2e98 a23d 7d14 fbbc 6e8e a03d 8e0a 0bbb
000000b0: e118 553c 5203 91bd a150 21bd d410 4ebd
000000c0: e938 7a3d 4fd8 a1bd 7c36 b1bc 52ce 893d
000000d0: add6 9cbd 764c 1dbd c1ac 853c 69e2 8d3d
000000e0: a4d3 893d 8ebd 3e3b 5140 303b 4b2e 863d
000000f0: 35a3 00bc 07e9 dd3a 9cde 6fbd a985 30bd
00000100: c08a 223d 7c19 c2bc e514 1cbd eb91 913d
00000110: 9a3b 3cbc 05fb 83bd 2c00 62bc 987c 923d
00000120: 4dba 343d fbf5 0c3d 0324 07bd 6d45 53bd
00000130: aafb 5b3c 90b5 623c c415 303d bebe c23b
00000140: a93f d63c bd57 a03d 501f 1fbd 3595 a03c
00000150: 3c8f 89bd 838e 393d 7832 adbc 0d0c ab3d
00000160: 63ed a93c fa94 a2bd a211 d13c 7208 babd
00000170: a258 753d 5782 4c3d 30ec a73d b81f 953d
00000180: a52e 64bd c84f d3bc b68c 873d cc74 b73c
00000190: de73 7c3d 0927 b53d 6087 0d3d f073 673d
000001a0: 8db3 fd3c 4d96 aebd 6a53 6dbd 6309 5abd
000001b0: d79b 783d c4ad aabd dd30 a83d d813 47bd
000001c0: d1d6 43bc b31e 44bd 599a 023d 1043 acbc
000001d0: a70f f23b c1bb 06bd 60ce a23d 5e1c 203d
000001e0: 4779 523d 25c6 003d 1bf6 14bc 1267 3d3d
000001f0: aba6 a53c 354b 873d 4f92 be3d ac74 85bd
00000200: 7e8d 65bd f6a5 083d 6c9d 7ebd f8ca 91bc
00000210: 7e31 8dbc f8bd 613d 521b 18bc b98a 333c
00000220: 579e f53b 726e 91bd b468 5fbd 31c3 9a3d
00000230: 3be4 9b3c 7dd8 c73c 474d 93bc be1f 6c3d
00000240: 7761 a5bd fe5d 81bd 5ab4 80bd f51b 533d
00000250: 436e 163d f3b3 7abb 0bb0 2cbd ffaa 5ebd
00000260: ce67 21bd 1dbb 7e3c 3c38 9bbc 414e 543d
00000270: 86dd 823c b211 c63c a4f9 c7bc 4cc4 613d
00000280: 1dfd aabd 1d0c 69bd 19fa afbd 0a05 043c
00000290: 87c4 4fbd a5e7 113c f697 ba3d 580e 073c
000002a0: 8158 d9bb a1d1 943d f878 65bd 5d0f 593d
000002b0: 0253 38bd e044 5fbc 5177 913d 90ca 85bd
000002c0: ab35 793d 64af 823d 7c0f dc3c 43d3 303d
000002d0: 5427 353d d54c 8b3d 38e7 8bbd b713 76bd
000002e0: 0d7f 92bc 54d3 c9bc 6b2c aa3b 93e8 9ebd
000002f0: 6c88 d33c 71c2 f73b 1877 46bd ed88 9fbb
00000300: 59de 73bd fdc6 2c3d e817 803d 8349 803d
00000310: 8d1d a5bd e464 73bd d436 863d c23b 8e3d
00000320: 591f 413d 7ed2 81bc 55b6 91bb cab1 103d
00000330: 1621 a53d ab02 e2bb 8484 913b 3595 8c3b
00000340: 456b 8bbc 8a52 04bd 4660 a43d ba25 26bd
00000350: ae53 bd3d 3a08 a33d feda 4fbd 74e6 93bd
00000360: 16ca 68bd 402a f13c e16b 303d c56b de3c
00000370: aa08 203d 657c 16bd f9fc aabd 9154 193d
00000380: eedd 103d 4279 aebd 433e c0bd d941 89bc
00000390: a161 6f3c 87a2 a9bd 24c0 733b f3a3 57bd
000003a0: 1653 50bd fae8 623c c5e6 0b3d 5a06 57bd
000003b0: 2ba9 8bbc 5b0a 403d 59b9 a4bd 74b4 4fbd
000003c0: 9b1f 8dbd e7a3 853d d22c 5e3d d4f7 3c3d
000003d0: 62f4 923d a595 ecbb 0608 20bd 2895 6e3d
000003e0: 813e a7bb 290f 2138 ba3a c9b9 e9d1 3dbd
000003f0: d492 c3ba 5715 00bd 6f40 c2bc 45eb 2e3d
0.06898881 -0.08158732 0.08269975 -0.008775144 -0.021821009 0.07311323 -0.028988328 0.0397393
-0.06129361 -0.095701165 -0.0059655597 0.048407298 -0.04156973 0.01152287 -0.01579856 -0.01007221
-0.014269317 -0.07159395 -0.07293758 0.019368786 0.0037432464 0.035667546 0.031515986 -0.006482602
-0.066472694 0.0417799 0.026315404 0.010029417 0.053096548 -0.042679038 -0.03620989 0.04001321
-0.059114955 0.009341484 -0.014294325 -0.04201967 -0.047556646 -0.018223282 0.03173985 -0.078572504
0.07939182 -0.030649418 0.07839666 -0.0021216008 0.01300642 -0.070807114 -0.039383534 -0.050309017
0.06108943 -0.07902586 -0.021632425 0.067288056 -0.07658134 -0.038402997 0.016317727 0.0692795
0.0672982 0.0029104683 0.0026893804 0.065517984 -0.007851412 0.001693041 -0.058561906 -0.04309622
0.039683104 -0.023693793 -0.038105864 0.0710791 -0.0114888195 -0.064443626 -0.013793986 0.071526706
0.044122983 0.034414273 -0.032993328 -0.05157988 0.013426701 0.013837233 0.042989507 0.0059431484
0.026153402 0.07829235 -0.03884822 0.019602397 -0.06716773 0.045301925 -0.02114223 0.08351908
0.020743078 -0.07938571 0.025521103 -0.09083642 0.05989898 0.04992899 0.08199346 0.072814405
-0.055708546 -0.025794879 0.06618635 0.02239456 0.061633937 0.08845336 0.03455293 0.05650705
0.030969406 -0.08524761 -0.057940878 -0.053231608 0.060695495 -0.083339244 0.08212445 -0.04860291
-0.011953072 -0.04788084 0.03188548 -0.021028072 0.00738712 -0.0328939 0.07949519 0.039089553
0.05138519 0.031438965 -0.009091879 0.046240874 0.020221075 0.066061415 0.0930525 -0.06516394
-0.05604314 0.033361398 -0.062161848 -0.017796978 -0.017235514 0.05511281 -0.009283857 0.010958367
0.007495682 -0.07101144 -0.054543212 0.07556761 0.019029727 0.024395222 -0.017981185 0.05764746
-0.080752306 -0.06316756 -0.06284399 0.051540334 0.036726248 -0.003825423 -0.042160075 -0.054362293
-0.039405636 0.015547541 -0.018947713 0.05183244 0.015974771 0.02417836 -0.02441103 0.055118844
-0.08349059 -0.056896318 -0.08592624 0.008057842 -0.050724532 0.008905326 0.091110155 0.008243166
-0.006632865 0.07266546 -0.056023568 0.052993167 -0.045001037 -0.013627261 0.07102836 -0.06532776
0.060842197 0.06381109 0.026862852 0.043170225 0.04422696 0.06801764 -0.06831211 -0.060077395
-0.017882848 -0.024636902 0.0051932833 -0.07759204 0.025821887 0.007561021 -0.04845342 -0.0048686177
-0.05953822 0.042181958 0.0625456 0.06264021 -0.08062277 -0.05942239 0.065534264 0.06944992
0.047149036 -0.01584744 -0.0044467845 0.035325803 0.08062951 -0.0068972907 0.004440846 0.004290248
-0.017018924 -0.032305278 0.08026175 -0.040563323 0.09244476 0.079605535 -0.050745957 -0.0722169
-0.05683335 0.029439092 0.04307163 0.027150998 0.039070763 -0.036739726 -0.08349032 0.037434164
0.0353679 -0.08519222 -0.093868755 -0.016755031 0.014610679 -0.08282953 0.0037193382 -0.05264659
-0.050860487 0.013849491 0.034155626 -0.05249629 -0.017048439 0.046884876 -0.08043165 -0.050709203
-0.06890794 0.065254025 0.054241963 0.046134785 0.071755186 -0.0072199875 -0.03907015 0.058247715
-0.0051038866 3.839951e-05 -0.00038381462 -0.046342764 -0.0014921078 -0.03127035 -0.023712365 0.04270484

bias f4 [32]
00000000: 175a 073d 9d90 383d 3b45 31bd 6546 96bd
00000010: 566b aabd 3716 a9bc ec4c d7bc fc49 e23b
00000020: b4e4 eabc f331 a13d f873 223d 5952 48bd
00000030: 8092 993d 4582 b13c a72c ab3d bc4e a13c
00000040: 9e1f d9bc ed87 503d dbb3 503d 23e2 36bd
00000050: aa75 8f3d fc01 9dbc 0c40 4dbd 0e9a 94bd
00000060: 9895 f6bc 1bfb 913d abac 9e3d 4818 0abc
00000070: bd6f 31bb 8816 1c3d 2340 a03d d62e b4bc
0.0330449 0.04505979 -0.043278914 -0.073376454 -0.08321254 -0.020640476 -0.026281796 0.0069057923
-0.028673507 0.07870855 0.039661378 -0.048906658 0.07498646 0.021668563 0.08358126 0.019690864
-0.026504334 0.05091088 0.050952774 -0.044649255 0.070048645 -0.019165985 -0.050109908 -0.07255946
-0.030100629 0.07127973 0.077477776 -0.008428641 -0.0027074658 0.038107425 0.07824733 -0.02199499

weight f4 [8, 32]
00000000: fbb3 fbbd 3baa 933d c1c4 edbc 5b6d 0cbe
00000010: c675 c1bc 534b e43d 36c1 b93c cebf bfbd
00000020: 2228 343e f3ce bfbd f6a7 a6bd 947b 253e
00000030: fb97 03bb d022 d6bb 2d7e bcbc 6544 e7bd
00000040: 87a9 34be d58a d43d d778 063d 5e11 9ebd
00000050: 8807 413c 5f54 89bc ab07 59bc 0dcf ffbd
00000060: 40f5 d53d 3e1d f13d ba7a 0cbd a882 293e
00000070: 76b4 d53d 7358 2dbe 3e79 1c3d 1bba 80bb
00000080: 5a0a 3c3e 1ae1 bf3d b781 213c 2d36 93bd
00000090: 8984 86bc 922f 5abd 6fcc 683d eead d13d
000000a0: f911 e3bd dbc2 ed3c f58c d9bc d75c 22be
000000b0: f876 0e3e 3b07 033e 0eb9 3c3d 82ee d53d
000000c0: f742 c93d 5c42 9cbd c246 523d b436 193e
000000d0: 2094 6fbd 5684 f8bd a118 34be 81ea 51bd
000000e0: 2128 9e3d 920f d43d a529 113d c61e 1cbc
000000f0: bb06 033e 3169 10bd 7188 f2bd 5793 de3d
00000100: b6c7 1e3e 2bba e93d 18b6 2cbe 2c1e 303e
00000110: 18f0 62bd c72a 18be ac0f 83bd 7844 0a3e
00000120: c634 1b3d 5a53 cabd 5847 64bd 2f1c a03d
00000130: c38a 96bd 3c21 213e 0f9d ca3d 24c0 65bd
00000140: 3297 9a3d 9df9 13bd 2498 3fbd 4590 df3d
00000150: cd2d d23d 8163 f93d 7cd1 a23d d82c 8cbd
00000160: 7de8 f639 20bc 913d 680c a4bd d168 d9bd
00000170: 99b4 39bd 5ead 04be dcc6 55bc 374f ae3d
00000180: 9c59 273e a235 953d 302b 38be bcd5 f43d
00000190: 691f afbd 7dba b2bd e596 483c ae17 2a3e
000001a0: 3a92 e73d 2b2d f83b 5d32 7a3d 8034 79bd
000001b0: 1e27 04be 97ac 84bd f025 14be 801c 003d
000001c0: 1828 e1bd 87e2 353e 7a08 503c 0bd5 31be
000001d0: 3a39 1dbd 17e8 de3d 16b2 313d 1c7f ecbc
000001e0: e028 0abe dbb4 a9bd d297 1b3d 202c 0a3d
000001f0: 7f4a 253d f7ac aebd 50d9 c7bd 21b2 b63d
00000200: 49b3 263e 8574 edbd 2238 c23d 3bba c53d
00000210: 64a8 2c3e 05eb 393e 3bbc 02bc 9afa 003e
00000220: 48ab 08be dbab 07be dff9 83bd ff18 20bd
00000230: 136e ef3c a96a a03c b634 e93d dfb9 d3bd
00000240: ef61 063d bf00 263e 1646 98bd 31fe 4abd
00000250: d8e8 703d 3cd3 873d 6031 25be eab6 0fbe
00000260: 3f5f 0dbe 239f b63d 8257 9f3b c722 26be
00000270: b7c2 95bc e434 10be 32c0 8fbd 319a fd3d
00000280: 5518 03be 2d5a b8bc de93 bbbd 4c6c 933c
00000290: 8fab cf3d 551b f5bd 8f5b 943c 9fb7 0ebc
000002a0: f339 1bbe 57ef 2a3e 3aab 0b3e 7d29 2a3c
000002b0: b247 21be 9271 1d3e 8660 89bc 1e42 4c3d
000002c0: da02 0e3e fdf8 ecbd 5e98 5e3d f595 cdbc
000002d0: d4ee 9e3d 7314 a4bd 65ae e5bd f190 2a3e
000002e0: 5f64 30be 7a27 7f3d fa84 20be 08b8 22be
000002f0: 3a49 953d b506 8a3d 4f4a 84bd 417c 25be
00000300: ac3f 12be 33f4 2d3e be4f 713d ac17 0ebd
00000310: 67cc dcbc 3925 fdbd cc51 a93b d94d 09be
00000320: 9a26 17be 900a 493c 2904 34be d74e 19be
00000330: 1d39 d13d ae0a 9fbd bc68 84bd 10eb b6bc
00000340: a28e a43d 97a2 68bc bca0 9d3d f690 eb3d
00000350: 6f15 fd3d 15dd 02be 10de 303e e469 1e3e
00000360: dafd 163d a6fe f5bd de71 433b c326 2fbe
00000370: b13e 353e 276a 9bbc 3000 c73d 3cb5 3b3d
00000380: 975b 47bd ec04 d5bd da02 29be bf6d 173e
00000390: 2526 a7bc 0263 b5bd 7f96 14be 14f8 443c
000003a0: 859d bebd 23e1 093e 657e 053e 77f8 d8bd
000003b0: 3d34 8fbd d718 d53b 46d6 be3d 42ec fc3b
000003c0: e051 313e 4c87 323e 87c0 6a3d 5d5d d1bc
000003d0: c9e2 06be 25d9 6e3c f913 073c 7aaf 983d
000003e0: 39a5 05be 7587 0dbe d294 2aba d005 013e
000003f0: a230 00be 3eea 97bd 3221 4a3d 2880 2ebe
-0.12290188 0.07210203 -0.029024484 -0.13713591 -0.023615729 0.111471795 0.022675138 -0.09362756
0.17593434 -0.09365644 -0.08137505 0.16160423 -0.00200796 -0.0065349117 -0.023009384 -0.11292342
-0.17642795 0.103780426 0.032830086 -0.07718156 0.011781581 -0.016763864 -0.013246457 -0.12490664
0.10447168 0.11773156 -0.03429673 0.16553748 0.10434811 -0.16928272 0.038201563 -0.0039284355
0.18363324 0.093691066 0.009857587 -0.071880676 -0.01642062 -0.053268023 0.056835588 0.102382526
-0.110874124 0.029023578 -0.026556471 -0.15855728 0.1391257 0.12795727 0.04607492 0.104458824
0.09827226 -0.076298445 0.05133701 0.14962274 -0.058490872 -0.12134616 -0.1758752 -0.05124903
0.07722498 0.10354532 0.035440106 -0.009528821 0.12795536 -0.03525657 -0.118424304 0.108679466
0.15505871 0.11412462 -0.16866338 0.1719901 -0.055404752 -0.14860068 -0.063994735 0.13502681
0.037892126 -0.09879179 -0.0557321 0.078178756 -0.073506854 0.15735334 0.09893238 -0.056091443
0.075483695 -0.03612672 -0.046775952 0.10916189 0.10262642 0.12177182 0.07950112 -0.06844491
0.00047093994 0.0711596 -0.08010179 -0.10615695 -0.045338247 -0.1295676 -0.0130479 0.08511203
0.16342777 0.0728562 -0.17985225 0.11954829 -0.08550913 -0.08726976 0.012243007 0.16610596
0.113071874 0.007573744 0.061083186 -0.060841084 -0.12905547 -0.064782314 -0.14467597 0.03127718
-0.109939754 0.17762195 0.0126973335 -0.17366426 -0.038384654 0.108841114 0.043382727 -0.028869204
-0.13492155 -0.082864486 0.037986584 0.033733487 0.040354248 -0.08529084 -0.09758246 0.08920694
0.1627933 -0.1159449 0.09483363 0.09654661 0.16861111 0.18156059 -0.007979448 0.12595597
-0.13346589 -0.13249151 -0.064441435 -0.039086338 0.029227292 0.01958211 0.11387007 -0.103381865
0.03280824 0.16211222 -0.07435243 -0.049558822 0.058815807 0.06632087 -0.16132116 -0.1403462
-0.13805865 0.08917072 0.0048627267 -0.16224204 -0.018281324 -0.14082676 -0.0701908 0.12382925
-0.1280225 -0.022503937 -0.09159063 0.017995976 0.10140144 -0.11968104 0.018110065 -0.008710771
-0.15158825 0.16692863 0.13639536 0.010385868 -0.15750006 0.15375355 -0.016769659 0.04986774
0.13868275 -0.11570928 0.054344527 -0.02509592 0.077603966 -0.08011713 -0.11214904 0.16656853
-0.17225789 0.062293507 -0.15675727 -0.15890515 0.072893575 0.067395605 -0.06459486 -0.1616068
-0.14282101 0.16987686 0.05891394 -0.034690544 -0.026952935 -0.12360615 0.0051672217 -0.13408603
-0.14760819 0.012270585 -0.17579712 -0.14971481 0.102159716 -0.07765709 -0.06465289 -0.022328883
0.080350175 -0.014198921 0.07696673 0.115022585 0.12357604 -0.12779649 0.1727221 0.15470082
0.036863185 -0.12011461 0.0029822509 -0.1710463 0.17699696 -0.018971516 0.09716833 0.045827135
-0.04867133 -0.104013294 -0.16504994 0.14787959 -0.02040393 -0.08856775 -0.14510535 0.012022037
-0.09307388 0.13464789 0.13036497 -0.10594266 -0.069923855 0.0065032053 0.09318213 0.007718594
0.17316389 0.17434424 0.057312515 -0.025557214 -0.13172449 0.0145781385 0.008244508 0.074553445
-0.13051309 -0.13821204 -0.00065071613 0.12599874 -0.12518552 -0.07417725 0.049348064 -0.17041075

bias f4 [8]
00000000: ad05 2b3d a365 ccbb c07b 0a3e d44e a6bc
00000010: 17cf f2bd 39cd 303d e186 f1bd 6b5b b63d
0.04175346 -0.006237702 0.1352377 -0.02030126 -0.118559055 0.043164466 -0.11793304 0.08904155

weight f4 [32]
00000000: 20d9 803f 2506 813f ab9e 813f e78e 7c3f
00000010: 4356 803f cd10 813f 0821 7c3f 6be8 7e3f
00000020: f588 7f3f 71dc 7e3f ec82 803f 006b 813f
00000030: 70b4 813f a0fb 803f dcee 7e3f ff9f 7a3f
00000040: 24e0 7f3f 4e2b 813f bc31 803f 710b 803f
00000050: f238 7e3f 92db 803f e415 813f bee7 7c3f
00000060: 48f8 813f c50e 813f d4e4 803f d372 7f3f
00000070: d967 813f 2a34 803f a699 823f 47b9 7d3f
1.0066261 1.008 1.0126547 0.9865555 1.0026325 1.0083252 0.984879 0.9957339
0.99818355 0.99555117 1.0039954 1.0110779 1.013319 1.007679 0.9958322 0.97900385
0.99951386 1.009134 1.0015178 1.0003492 0.9930564 1.0067008 1.0084805 0.9879111
1.0153894 1.0082632 1.0069833 0.9978458 1.0109817 1.0015919 1.020314 0.99110836

bias f4 [32]
00000000: 703b 093c f3cd 8c3c b501 3c3c 3299 92bc
00000010: 1af5 303c f1c8 3c3c 149b ad38 6822 cfbb
00000020: 634a 2eba 69d8 df3b 8e09 883c 8d4b 553c
00000030: 94c2 c13c 5c1a 313c e0da c2bb bdac 7fbc
00000040: e30a 413c a0ec 513c 4798 c13b c330 873b
00000050: 38a5 44bb 12b6 8b3b bf1a 3e3c e713 41bc
00000060: 8a16 ba3c a501 ae3c 6414 bf3c 3831 443b
00000070: ce98 8b3c f47f 803b 1ffe cb3c 95d5 fe3b
0.008375987 0.017188048 0.011475016 -0.017895315 0.010800624 0.011522518 8.2781684e-05 -0.00632124
-0.0006648658 0.006831218 0.016606119 0.013018501 0.023652352 0.010809507 -0.005946502 -0.015605149
0.011782381 0.012812763 0.0059080455 0.004125686 -0.0030005705 0.004263648 0.011603056 -0.01178453
0.022715826 0.021241019 0.023325153 0.0029936563 0.017040636 0.003921503 0.024901448 0.007776926

running_mean f4 [32]
00000000: 1803 d5be 36ca 19bb 0bcf d6be 0bfd c73d
00000010: dc24 a8bb a614 3fbe 02ac 083e b7cf 7a3b
00000020: 87a2 04be 408a 96ba 4d12 79be b2da d43c
00000030: 2908 cebe b955 38be 1f92 193d 21e3 c53d
00000040: e753 61bd d562 653d fe80 c43e a837 53bb
00000050: 5a2a 2fbd e631 92be bf7c 123e 2fb2 10be
00000060: e791 dd3d 55ec a23e 127f dfbc 0233 d2be
00000070: a0b9 183e 04aa bbbd d537 1b3d 38b7 64be
-0.41603923 -0.0023466474 -0.41954836 0.09765061 -0.005131347 -0.1866022 0.13346866 0.003827078
-0.12952624 -0.0011485294 -0.24323387 0.025983188 -0.402406 -0.1800145 0.037492868 0.09662462
-0.055011656 0.056002457 0.38379663 -0.0032229219 -0.042765 -0.28553694 0.143054 -0.14130472
0.10818844 0.31820932 -0.027282272 -0.4105454 0.1491456 -0.09163287 0.037895042 -0.22335517

running_var f4 [32]
00000000: 91b1 0a3d f3b2 5d3d 110b 843d a07a d33d
00000010: 0a34 1f3e b330 ac3d 7434 f33d dcdb b03d
00000020: ba9a 413e d31d 5f3d 78d4 513e ba81 1e3e
00000030: ae1e a83d 1290 683d e7c3 903d 369c 073e
00000040: 6175 7c3d 46f6 1d3e 285b 173e afa0 213d
00000050: c872 9c3d abe2 053e 5184 3d3e f762 993d
00000060: 8f01 053e 0fa7 3f3d 7827 913d 2c41 0f3e
00000070: 686e fa3c 5982 a73d 7c09 003e 1ea1 963d
0.033860747 0.054125737 0.06447423 0.10326123 0.15547195 0.08407726 0.11875239 0.08635685
0.1890668 0.054471802 0.20491207 0.15479174 0.08208977 0.05677802 0.070686154 0.13243183
0.06163538 0.15425977 0.14780867 0.03945988 0.0763908 0.13074748 0.18507506 0.07489579
0.12988876 0.04679018 0.07087606 0.13989705 0.030570224 0.08179159 0.12503618 0.073549494
