code/model_sol_backups/model_sol_53.pt (torch, 635426 bytes, 158 tensors)

weight f4 [32, 2]
-0.17785639 -0.25121287 -0.37338197 0.6420576 0.7019483 -0.26302943 0.09301085 0.4277851
0.6128335 0.615507 0.25986993 -0.3726218 -0.59883267 0.17027201 0.5690285 -0.03508629
0.6745673 -0.6880904 -0.5515609 0.2516032 0.44231328 -0.21761176 -0.4770919 -0.16423342
0.20264132 0.06631752 0.054978963 -0.64987504 0.67555636 0.0067138746 0.29866707 -0.5836698
-0.34265733 -0.46164623 0.03165168 0.5689795 0.29761603 -0.53217655 -0.35347575 0.13842463
0.7029554 0.22410311 -0.65785575 -0.63222337 -0.30892995 0.16926642 -0.046659794 -0.31696147
0.45678255 -0.19571461 -0.07664415 0.2641745 -0.51889974 0.50592166 0.50298125 -0.1114803
-0.6137502 -0.5062457 -0.2802864 -0.67176205 0.34093392 -0.33553278 0.64814174 -0.14704755
00000000: fc1f 36be f99e 80be ec2b bfbe e35d 243f
00000010: e2b2 333f cbab 86be 797c be3d a606 db3e
00000020: a8e2 1c3f de91 1d3f ac0d 853e 49c8 bebe
00000030: 194d 19bf c95b 2e3e daab 113f a4b6 0fbd
00000040: 71b0 2c3f b126 30bf 1833 0dbf 22d2 803e
00000050: e376 e23e 9ed5 5ebe 6445 f4be ce2c 28be
00000060: 3581 4f3e 7bd1 873d 9f31 613d 365e 26bf
00000070: 43f1 2c3f 1000 dc3b e4ea 983e 626b 15bf
00000080: c870 afbe e55c ecbe 31a5 013d a4a8 113f
00000090: 2161 983e b93c 08bf c6fa b4be 30bf 0d3e
000000a0: e3f4 333f 497b 653e 3c69 28bf 64d9 21bf
000000b0: 112c 9ebe 2d54 2d3e 571e 3fbd c648 a2be
000000c0: 67df e93e 6969 48be 9cf7 9cbd e141 873e
000000d0: 9dd6 04bf 1584 013f 61c3 003f c94f e4bd
000000e0: bc1e 1dbf 5199 01bf b381 8fbe 99f8 2bbf
000000f0: e48e ae3e f4ca abbe 9eec 253f a293 16be

bias f4 [32]
0.15606993 -0.17879248 0.54326797 -0.099473685 0.21815309 0.45004216 -0.6096699 0.28093597
0.17785026 -0.3442088 -0.32962036 -0.12283642 0.21738714 0.027221639 0.23432994 -0.0025035937
-0.15445454 0.4130949 -0.11121343 0.5974184 0.37437335 0.55892843 -0.36878175 -0.52464026
-0.094118334 0.69965553 0.12251115 0.035977755 0.66507107 -0.1286438 0.466722 -0.29425463
00000000: ccd0 1f3e 6015 37be 9c13 0b3f dcb8 cbbd
00000010: 8663 5f3e ed6b e63e 5413 1cbf d7d6 8f3e
00000020: 611e 363e 233c b0be 00c4 a8be a991 fbbd
00000030: bc9a 5e3e eaff de3c 30f4 6f3e 5513 24bb
00000040: 5529 1ebe 2d81 d33e dec3 e3bd 6af0 183f
00000050: ddad bf3e ef15 0f3f f6d0 bcbe d34e 06bf
00000060: 1dc1 c0bd a01c 333f 20e7 fa3d 695d 133d
00000070: 1942 2a3f 33bb 03be 30f6 ee3e 8ba8 96be

weight f4 [128, 32]
0.13287893 -0.14148857 -0.020830547 0.0142179895 -0.120900564 -0.096860245 0.1154263 0.056516584
0.1182406 -0.07658592 -0.19374044 -0.08339001 -0.106287174 0.030212414 -0.17868242 -0.12893136
-0.12054734 0.019042527 -0.0916827 0.0786626 0.1615297 -0.09113408 -0.1288429 0.037573095
-0.15915032 0.018403184 0.12591173 0.11852417 -0.1592661 -0.06078897 -0.03151738 0.056460924
0.15066765 0.06746204 -0.05571854 -0.1277489 0.111220635 -0.093684204 0.11286685 -0.032962877
0.07030492 -0.015496139 -0.04891167 -0.13136584 -0.18858087 -0.006772626 0.14694178 0.0055822213
0.1501258 -0.018004889 0.0080280015 -0.09905483 0.115172036 0.042025596 0.12375651 0.126422
0.13231924 0.087432325 0.0070227436 0.0058335513 0.018966593 -0.0035153222 -0.10235177 0.12012683
-0.15182532 -0.012729027 -0.010612618 -0.17460899 -0.08060883 0.12630415 0.072589785 0.16029593
0.047872175 0.10197009 0.020741506 0.17800438 0.15203342 0.00848102 -0.061384972 0.07601147
-0.093169756 -0.14542818 0.09212642 -0.11117355 0.04520643 -0.08488826 0.06177582 0.015007737
-0.11797616 -0.032936487 0.01687983 0.1460193 -0.09231457 -0.08422567 0.1225191 -0.016921971
-0.12520865 0.008210044 0.1932285 -0.17066452 -0.13516615 -0.048893847 -0.033421747 -0.05916818
0.028823992 0.12175307 -0.106528044 0.10276342 0.002099595 0.15180875 0.01820125 0.006984897
0.032544844 0.010074489 0.16661571 0.023045387 -0.12447779 0.0024240178 -0.1363513 -0.18452188
0.15460072 0.08603049 0.13329676 0.04017557 0.03795394 -0.18911096 -0.14009313 -0.095644094
-0.084528804 -0.13580422 0.07866891 -0.012946907 -0.1289808 -0.060979724 0.009154778 -0.13211754
0.15895055 0.11337802 0.0196287 -0.1778632 0.085878365 -0.09997739 -0.056140125 -0.14549685
0.163513 -0.0035524662 0.009620151 0.17547458 0.14402457 -0.08627828 -0.06419107 0.060275115
-0.017680906 -0.017336618 0.16751808 0.14025183 0.1472504 0.073132895 -0.12938917 -0.061144285
-0.15287982 -0.08572925 -0.050400794 0.13531004 0.012445564 -0.15452628 -0.04668884 0.115167096
-0.063977465 0.12557872 -0.16775134 -0.012790528 0.034390137 -0.03705397 -0.17468798 0.0057987673
0.058000065 0.027489198 -0.10555265 -0.12493419 -0.11879763 0.13785425 0.005710776 0.04201816
0.114240155 -0.021220092 0.14885157 0.043486133 0.11746787 -0.1544241 0.12966226 -0.16304049
-0.14388874 0.064000785 -0.09836761 -0.17799978 0.089686476 0.15155984 0.0046032434 -0.08889934
-0.12050802 0.122875966 0.08145284 0.09854125 -0.005992709 0.16297743 -0.0023913824 0.14219631
-0.15283899 -0.12932631 0.090466894 -0.0028843645 0.15356709 0.088036306 -0.007678534 0.00033168792
0.16084287 -0.08048834 0.0011636245 -0.0838122 0.10620951 0.05492923 -0.16707465 -0.13714637
-0.18492374 -0.12091944 0.014163013 -0.05583197 -0.11176983 0.14050967 -0.14452022 0.01833614
0.1133351 0.1313443 -0.09085362 0.16409944 0.025021823 -0.07048741 -0.10208446 -0.023204632
0.074252956 -0.08537532 0.02018719 0.067265466 -0.11592519 -0.09247491 0.048092894 -0.0055260565
-0.10434999 -0.13591245 0.10763084 0.14141831 -0.079970285 -0.0508241 -0.059319522 -0.0827348
00000000: 6a11 083e 61e2 10be d3a4 aabc 92f2 683c
00000010: b79a f7bd aa5e c6bd a064 ec3d ef7d 673d
00000020: 2128 f23d 14d9 9cbd e563 46be 62c8 aabd
00000030: 17ad d9bd 0680 f73c 86f8 36be 9506 04be
00000040: 86e1 f6bd 13ff 9b3c 24c4 bbbd db19 a13d
00000050: 0b68 253e 81a4 babd 65ef 03be 3fe6 193d
00000060: 4df8 22be 46c2 963c 01ef 003e cdbc f23d
00000070: a716 23be dbfd 78bd 5e18 01bd 9243 673d
00000080: 9f48 1a3e 8a29 8a3d 2039 64bd 9cd0 02be
00000090: a5c7 e33d 81dd bfbd bc26 e73d 1504 07bd
000000a0: 07fc 8f3d 85e3 7dbc 9a57 48bd c484 06be
000000b0: 581b 41be e8ec ddbb e877 163e 11eb b63b
000000c0: 94ba 193e fd7e 93bc e187 033c 42dd cabd
000000d0: 51df eb3d 0823 2c3d 0e74 fd3d c574 013e
000000e0: b27e 073e b80f b33d 0b1f e63b 6027 bf3b
000000f0: d45f 9b3c 5261 66bb ce9d d1bd 0e05 f63d
00000100: 1978 1bbe 698d 50bc 8ce0 2dbc b3cc 32be
00000110: 3e16 a5bd e055 013e f4a9 943d 9e24 243e
00000120: 9d15 443d b2d5 d03d 17ea a93c c846 363e
00000130: a6ae 1b3e faf3 0a3c cf6e 7bbd e7ab 9b3d
00000140: c9cf bebd 20eb 14be c7ac bc3d f5ae e3bd
00000150: 612a 393d e5d9 adbd a408 7d3d 03e3 753c
00000160: 7c9d f1bd 69e8 06bd 9247 8a3c 1586 153e
00000170: 6c0f bdbd 827e acbd 4beb fa3d f29f 8abc
00000180: b236 00be 6c83 063c b1dd 453e aec2 2ebe
00000190: ff68 0abe ea44 48bd 3ee5 08bd 555a 72bd
000001a0: 4b20 ec3c ac59 f93d 602b dabd a175 d23d
000001b0: 5c99 093b c173 1b3e ca1a 953c 90e1 e43b
000001c0: be4d 053d 780f 253c 4f9d 2a3e aec9 bc3c
000001d0: 36ee febd 45dc 1e3b ad9f 0bbe 4ef3 3cbe
000001e0: a74f 1e3e c130 b03d f27e 083e 238f 243d
000001f0: 9775 1b3d 4ea6 41be 9374 0fbe 0de1 c3bd
00000200: 701d adbd 4310 0bbe 2a1d a13d 441f 54bc
00000210: 8b13 04be e0c5 79bd ecfd 153c d249 07be
00000220: efc3 223e bc32 e83d 5ecc a03c c521 36be
00000230: ffe0 af3d f2c0 ccbd 30f3 65bd 20fd 14be
00000240: f46f 273e 7ed0 68bb d69d 1d3c 9caf 333e
00000250: 2d7b 133e abb2 b0bd 9c76 83bd 0ae3 763d
00000260: 8cd7 90bc 8605 8ebc dc89 2b3e 2d9e 0f3e
00000270: cfc8 163e b3c6 953d 987e 04be 6e72 7abd
00000280: 878c 1cbe d192 afbd 1071 4ebd b78e 0a3e
00000290: 7be8 4b3c 233c 1ebe cc3c 3fbd badc eb3d
000002a0: 9e06 83bd b597 003e 02c7 2bbe 5d8f 51bc
000002b0: acdc 0c3d e7c5 17bd 68e1 32be 9603 be3b
000002c0: 7a91 6d3d 0731 e13c fd2b d8bd 7fdd ffbd
000002d0: 2c4c f3bd aa29 0d3e 7621 bb3b 3c1b 2c3d
000002e0: bef6 e93d c2d5 adbc 8c6c 183e 841e 323d
000002f0: ff92 f03d 5a21 1ebe 2fc6 043e 16f4 26be
00000300: 9257 13be d812 833d f574 c9bd 9345 36be
00000310: 8bad b73d 8132 1b3e ced6 963b db10 b6bd
00000320: e9cc f6bd 65a6 fb3d bfd0 a63d ffcf c93d
00000330: 7d5e c4bb 8ee3 263e bdb8 1cbb e99b 113e
00000340: d381 1cbe 1e6e 04be b546 b93d 9b07 3dbb
00000350: b140 1d3e 614c b43d 369c fbbb 66e6 ad39
00000360: feb3 243e 12d7 a4bd c284 983a bba5 abbd
00000370: 5f84 d93d 79fd 603d 9e15 2bbe 1970 0cbe
00000380: a65c 3dbe 9da4 f7bd fb0b 683c 10b0 64bd
00000390: 95e7 e4bd c4e1 0f3e 1cfd 13be ac35 963c
000003a0: 3c1c e83d 1f7f 063e 7611 babd af09 283e
000003b0: 91fa cc3c b45b 90bd a811 d1bd a417 bebc
000003c0: ef11 983d 41d9 aebd 9b5f a53c 7ac2 893d
000003d0: 306a edbd 7c63 bdbd 0efd 443d ec13 b5bb
000003e0: 73b5 d5bd a22c 0bbe 8f6d dc3d f6cf 103e
000003f0: 76c7 a3bd ee2c 50bd 07f9 72bd dd70 a9bd

bias f4 [128]
0.07304066 -0.02271222 0.1672959 -0.112190984 -0.09540295 0.07326689 0.09882995 -0.04727862
-0.045362037 -0.020672278 -0.07858697 0.039647594 -0.076501325 0.1444233 -0.043970346 0.15371661
-0.03588679 -0.056099195 0.13883135 0.042198256 -0.17602345 -0.08442017 0.1290779 -0.042373948
-0.14655398 -0.16278312 0.036582425 0.16246513 -0.1069391 -0.009238769 0.04686366 -0.036905013
0.016458225 -0.0533171 0.08031862 0.07284928 -0.016151426 -0.15506686 0.1268551 0.12204474
0.18251303 0.030745754 0.009860205 0.11529533 -0.075825624 -0.04000592 0.055384096 0.13138661
-0.1038923 -0.10854199 0.020022571 0.0003922369 0.086693615 -0.17501435 0.09493306 -0.0067954236
-0.14565465 0.09668382 0.05560631 0.07552873 -0.056959737 -0.043708477 -0.1014773 0.023087174
-0.058277693 0.13204257 -0.1264537 -0.18201753 -0.17691658 -0.15567146 -0.100865595 -0.012683128
0.0052887457 0.032173164 -0.11709606 0.07634878 0.081154406 0.038678043 -0.17228155 -0.04336636
-0.13310231 0.1276838 -0.1151697 -0.16708206 -0.039931994 0.15942045 0.08850283 0.04495748
-0.13783458 -0.1589456 -0.061436135 0.09521181 0.022988576 0.10716015 0.085410856 0.13486587
0.11125273 -0.12598158 0.07359188 -0.050677314 0.06388169 0.096371375 -0.1652539 -0.0351484
0.04957651 0.013568308 0.11704702 -0.14235885 0.09242448 -0.09830306 -0.0015572543 0.015913514
0.04310659 0.15129584 0.01590922 0.1846584 -0.018437086 0.056577343 -0.13705517 0.16175227
-0.05464556 -0.14158772 0.07741105 -0.1345109 -0.009330074 0.03817624 0.12287875 0.1673787
00000000: 5796 953d fa0e babc 9e4f 2b3e 63c4 e5bd
00000010: 9f62 c3bd f40c 963d 5b67 ca3d 3aa7 41bd
00000020: 8bcd 39bd e958 a9bc 35f2 a0bd 8465 223d
00000030: baac 9cbd b4e3 133e 401a 34bd e367 1d3e
00000040: 07fe 12bd 45c8 65bd ce29 0e3e 14d8 2c3d
00000050: 7e3f 34be 7be4 acbd ff2c 043e 4e90 2dbd
00000060: 3f12 16be 9eb0 26be 74d7 153d 425d 263e
00000070: e302 dbbd 355e 17bc 1cf4 3f3d b629 17bd
00000080: 66d3 863c 0863 5abd 177e a43d 0132 953d
00000090: ff4f 84bc d9c9 1ebe 4ee6 013e 98f2 f93d
000000a0: b2e4 3a3e 85de fb3c b38c 213c f51f ec3d
000000b0: 774a 9bbd 3fdd 23bd 6fda 623d 368a 063e
000000c0: 7cc5 d4bd 434b debd 6006 a43c 25a5 cd39
000000d0: 6c8c b13d f636 33be 446c c23d 25ac debb
000000e0: 7e26 15be 2b02 c63d 71c3 633d cfae 9a3d
000000f0: 9d4e 69bd a907 33bd 55d3 cfbd 5021 bd3c
00000100: 97b4 6ebd 2b36 073e 147d 01be ce62 3abe
00000110: 9f29 35be 5768 1fbe 9f92 cebd e5cc 4fbc
00000120: 374d ad3b 02c8 033d 0fd0 efbd c05c 9c3d
00000130: 4834 a63d de6c 1e3d 936a 30be eda0 31bd
00000140: f94b 08be 8bbf 023e 17de ebbd 8f17 2bbe
00000150: bb8f 23bd 1d3f 233e f940 b53d 5625 383d
00000160: 8224 0dbe a3c2 22be 75a4 7bbd 69fe c23d
00000170: 8a52 bc3c c876 db3d e3eb ae3d 471a 0a3e
00000180: 79d8 e33d 5101 01be 57b7 963d 0493 4fbd
00000190: 67d4 823d 5b5e c53d 5238 29be c5f7 0fbd
000001a0: bd10 4b3d 9c4d 5e3c 59b6 ef3d 85c6 11be
000001b0: 0c49 bd3d 1d53 c9bd c91c ccba 0f5d 823c
000001c0: 8990 303d 4ced 1a3e 0d54 823c 1717 3d3e
000001d0: 5f09 97bc a5bd 673d 3158 0cbe 63a2 253e
000001e0: 06d4 5fbd 5ffc 10be af89 9e3d 3abd 09be
000001f0: 2bdd 18bc b05e 1c3d dba7 fb3d 5265 2b3e

weight f4 [32]
0.9958903 0.98668337 0.99508435 1.0350206 0.9785011 0.9709716 0.9632826 0.98038036
0.96831584 0.9630563 0.9508704 0.9775426 0.9812688 1.0032068 0.96354675 1.0028874
0.94563943 1.0267017 1.009483 0.98341984 0.95401096 0.962243 0.98013675 1.0358224
0.9847952 0.98278546 0.9838207 0.99512637 0.9908676 0.9964352 0.95679307 0.98337144
00000000: abf2 7e3f 4897 7c3f d9bd 7e3f 8e7b 843f
00000010: 0c7f 7a3f 9891 783f b099 763f 35fa 7a3f
00000020: 8ce3 773f dc8a 763f 3e6c 733f 3b40 7a3f
00000030: 6f34 7b3f 1569 803f 00ab 763f 9d5e 803f
00000040: 6d15 723f f66a 833f bd36 813f 67c1 7b3f
00000050: 103a 743f 8f55 763f 3eea 7a3f d495 843f
00000060: 8a1b 7c3f d497 7b3f acdb 7b3f 9ac0 7e3f
00000070: 80a9 7d3f 6116 7f3f 64f0 743f 3bbe 7b3f

bias f4 [32]
0.06769742 -0.013518827 -0.0841518 0.025392963 -0.068441786 -0.024255406 -0.010932289 0.010700478
-0.089005314 0.03051981 -0.043255497 -0.04016188 -0.011936001 -0.04718069 0.032890934 -0.004675604
0.019211255 0.017941765 -0.041150406 0.065854885 -0.022152686 -0.0059643486 0.028514931 -0.035193805
-0.06317905 -0.0028214543 -0.03300053 -0.031511743 -0.020531122 -0.006167628 -0.06433189 -0.025747383
00000000: f2a4 8a3d 127e 5dbc c757 acbd e704 d03c
00000010: 352b 8cbd 46b3 c6bc 581d 33bc 0f51 2f3c
00000020: 6b48 b6bd ae04 fa3c ad2c 31bd c980 24bd
00000030: 378f 43bc 8a40 41bd a5b8 063d cf35 99bb
00000040: ec60 9d3c 9cfa 923c 548d 28bd edde 863d
00000050: 8d79 b5bc 9570 c3bb 2598 e93c 6127 10bd
00000060: 0564 81bd 26e8 38bb 902b 07bd 7512 01bd
00000070: e230 a8bc d019 cabb 70c0 83bd 2dec d2bc

running_mean f4 [32]
0.034409616 -0.008658389 0.56562436 0.07100654 0.5446434 0.357972 -0.647998 0.3628771
0.04171753 -0.34539846 -0.3341819 -0.262637 0.27532145 -0.19943054 0.35041323 -0.16479552
-0.3797068 0.6249157 -0.25437298 0.5891469 0.5739139 0.21890974 -0.3590489 -0.6471574
-0.08801566 0.78276163 0.21861945 0.08013478 0.3781818 -0.4205814 0.40298846 -0.23846892
00000000: 19f1 0c3d eadb 0dbc c2cc 103f e06b 913d
00000010: c06d 0b3f 1b48 b73e 32e3 25bf 07cb b93e
00000020: 00e0 2a3d 11d8 b0be e419 abbe 5b78 86be
00000030: eff6 8c3e 8537 4cbe 5d69 b33e 28c0 28be
00000040: ee68 c2be 7afa 1f3f 2d3d 82be 55d2 163f
00000050: 05ec 123f e029 603e 42d5 b7be 1bac 25bf
00000060: 8e41 b4bd 1163 483f c7dd 5f3e b41d a43d
00000070: 0ba1 c13e 7256 d7be 8154 ce3e 3231 74be

running_var f4 [32]
0.015776273 0.15962957 0.15170856 0.039001707 0.12145039 0.06057102 0.1009281 0.07546531
0.27505296 0.10176508 0.06795328 0.046823706 0.008474885 0.103709266 0.10191962 0.12292684
0.054555792 0.0729183 0.10726071 0.039097667 0.10141704 0.13391507 0.03513779 0.021867089
0.06782326 0.02029127 0.15548214 0.06734098 0.10220071 0.09724955 0.06776899 0.11231198
00000000: 3e3d 813c ef75 233e 7d59 1b3e 41c0 1f3d
00000010: fbba f83d 5119 783d 64b3 ce3d 8e8d 9a3d
00000020: bed3 8c3e 366a d03d 172b 8b3d 37ca 3f3d
00000030: 3eda 0a3c 8665 d43d 3cbb d03d 11c1 fb3d
00000040: e575 5f3d 3156 953d 81ab db3d e024 203d
00000050: bdb3 cf3d 0821 093e a5ec 0f3d 9c22 b33c
00000060: ece6 8a3d e139 a63c b636 1f3e 11ea 893d
00000070: 9b4e d13d c62a c73d 78ca 8a3d d303 e63d

weight f4 [32, 3]
-0.6132427 0.17850529 0.38464215 0.27823764 -0.1819062 -0.061999906 1.12049 -0.50685227
0.2660304 1.4363784 -0.0001628846 0.00028248323 -0.68088925 0.2291066 0.4504859 0.15502566
0.02110803 -0.14873376 0.29205942 -0.1798466 -0.06922716 0.40115264 -0.3798688 -0.12560323
-0.30464542 0.29403877 0.3641672 -0.217299 0.25859144 0.11309167 -0.88249636 0.5309587
0.21519502 -0.10648474 0.36592853 -0.34515 0.74258584 0.27623782 -0.40523648 -0.24935018
-0.3682636 -0.23949589 0.64213204 -0.26119423 -0.2188683 -0.076372884 -0.5015802 0.4989358
0.6229845 -0.2063971 -0.29400414 0.11428019 -0.63451064 -0.00525741 -0.7698528 -0.07119248
0.22676753 1.0535489 -0.016663387 -0.23597965 0.390376 -0.44757113 -0.532145 -0.6105237
-0.48563182 0.09999232 -0.7560285 0.23255429 0.15433194 -0.2404179 0.5271072 -0.102224395
-1.0747198 -0.22783205 0.19281048 0.76000494 0.18488598 -0.51740634 -0.54925615 0.28620198
0.59691083 -0.10385311 -0.046698842 0.47821298 -0.09958123 0.5146246 -0.25613147 -0.12361707
0.24721491 0.09271486 -0.72005826 0.45647788 0.5178547 0.8736611 -0.46517694 -0.25149575
00000000: 79fd 1cbf 17ca 363e d1ef c43e 2a75 8e3e
00000010: 9e45 3abe 9df3 7dbd 376c 8f3f 12c1 01bf
00000020: 2335 883e 3fdb b73f 00cc 2ab9 421a 9439
00000030: c24e 2ebf ec9a 6a3e 16a6 e63e 0cbf 1e3e
00000040: bfea ac3c aa4d 18be d088 953e b529 38be
00000050: f8c6 8dbd e163 cd3e 2a7e c2be 229e 00be
00000060: 7cfa 9bbe 408c 963e 2074 ba3e a183 5ebe
00000070: 1966 843e 9b9c e73d 48eb 61bf e9ec 073f
00000080: 155c 5c3e ac14 dabd fc5a bb3e 80b7 b0be
00000090: 1b1a 3e3f 0b6f 8d3e 287b cfbe a755 7fbe
000000a0: 0c8d bcbe 693e 75be c462 243f 40bb 85be
000000b0: 031f 60be 6369 9cbd 8f67 00bf 8374 ff3e
000000c0: ea7b 1f3f c359 53be b687 96be bb0b ea3d
000000d0: 4a6f 22bf 5a46 acbb 1315 45bf 5dcd 91bd
000000e0: bf35 683e b1da 863f a881 88bc a6a4 71be
000000f0: 5ddf c73e 0b28 e5be a83a 08bf 484b 1cbf
00000100: bca4 f8be c6c8 cc3d 158b 41bf b622 6e3e
00000110: 3109 1e3e 1c30 76be 7ff0 063f 065b d1bd
00000120: 6b90 89bf ce4c 69be 1c70 453e af8f 423f
00000130: c052 3d3e be74 04bf 0d9c 0cbf 1189 923e
00000140: 26cf 183f f0b0 d4bd 4947 3fbd 55d8 f43e
00000150: 3ef1 cbbd 70be 033f aa23 83be f22a fdbd
00000160: e825 7d3e 4ae1 bd3d bd55 38bf 78b7 e93e
00000170: 2092 043f 41a8 5f3f ac2b eebe 0dc4 80be

bias f4 [32]
0.07504831 0.48758358 0.24388687 0.09631902 0.27253062 0.13835326 -0.20010668 -0.46303177
-0.14706556 -0.34724605 -0.36825484 0.32190004 -0.37889096 0.33261314 -0.095975555 -0.55174935
0.51949114 0.20764324 0.42952448 0.2220393 -0.28358233 0.055436283 0.36054093 0.23568495
-0.26156166 0.49853617 -0.2792054 0.29113966 -0.23187435 0.10808741 0.15556058 -0.3285409
00000000: eeb2 993d 8ea4 f93e 7bbd 793e e842 c53d
00000010: 2289 8b3e 7aac 0d3e c4e8 4cbe 8012 edbe
00000020: 5b98 16be 3cca b1be e68b bcbe 15d0 a43e
00000030: fffd c1be 454c aa3e d58e c4bd 723f 0dbf
00000040: 5ffd 043f 6ea0 543e a2ea db3e 455e 633e
00000050: b431 91be 2811 633d d298 b83e 6557 713e
00000060: 69eb 85be 2240 ff3e 03f4 8ebe 4210 953e
00000070: 7870 6dbe ef5c dd3d 464b 1f3e 8336 a8be

weight f4 [128, 32]
0.08718338 0.016587736 0.12048804 0.08329512 0.13850775 0.015708791 0.03927285 -0.000475386
-0.043128725 0.124663785 -0.11340394 0.121043906 -0.052665684 -0.029804252 -0.10955732 -0.17669284
0.05861979 0.056357197 -0.18676312 0.0038604843 -0.1365876 0.028534979 -0.13334814 0.04444348
0.05415942 0.16282026 -0.13468213 0.08748395 -0.15016264 0.1403822 0.051986706 -0.09501566
0.09134058 0.051371925 -0.07945922 0.043970127 0.051190037 -0.015905924 -0.108999945 -0.065819226
0.17052045 0.12937734 -0.13072906 -0.19544469 0.123063296 -0.16616601 -0.16441329 0.13006921
0.13490641 -0.1608172 -0.07489663 0.059398733 0.04658391 -0.16872875 -0.0719909 -0.085957795
0.11613803 -0.07255206 0.08926232 -0.019965459 -0.15857525 -0.047327645 0.05197187 -0.036973815
0.0004989866 -0.10299344 0.05922086 0.21989438 0.06620187 -0.006235691 -0.13728602 0.07824681
-0.05943093 -0.201369 0.07453387 0.15765329 -0.027578533 -0.02781743 0.11808184 0.119654335
0.16128425 0.1726029 0.146911 -0.16071832 -0.055102464 -0.13947316 0.0024125583 0.047705572
-0.06601498 0.09281779 -0.043262307 0.1476471 0.09135898 0.08520668 0.13828744 0.07025804
0.09002989 -0.045580994 0.17579532 -0.16162708 -0.16752043 -0.15034978 -0.15669027 -0.07084226
-0.082351126 0.09131827 -0.06818182 0.034942724 -0.04575182 0.0052178237 -0.099820375 -0.094675675
0.12759355 0.12850791 0.17021514 0.06613444 0.0033464234 0.0908375 0.14254117 0.06927478
0.017477036 -0.14390276 0.14962156 0.051863715 -0.13108401 -0.18050386 -0.06934721 0.15480216
-0.14044076 0.12518851 0.1408688 0.07807424 -0.0528848 -0.04824491 -0.061979428 0.027185794
0.09006202 -0.18290253 -0.13850765 -0.15713806 0.061594717 0.047416843 0.12140998 -0.1317633
-0.18310636 -0.11801787 0.16069855 -0.09240933 -0.0877662 0.17522378 0.048577305 0.022271901
0.0076715397 -0.13477859 -0.16504534 0.024031114 -0.11443401 0.108575806 0.15179436 0.04438629
-0.091942765 0.081320025 0.17514032 0.19263569 0.040123563 -0.001717153 -0.0011644674 -0.035630256
-0.02512626 -0.0005319136 -0.119900666 -0.11484725 0.031979572 0.030694755 0.13866659 -0.10750321
-0.05105662 0.12485401 0.16055296 0.032338593 -0.16694677 0.04548586 0.00014921131 -0.12905091
-0.08426418 -0.123255745 0.15660468 -0.12840466 -0.123339064 0.122277305 -0.0042335256 -0.017268226
0.12440338 -0.022294642 -0.16197929 0.18237786 0.017988654 0.11303728 -0.07687193 -0.045379948
-0.018582871 0.044677358 -0.061639287 -0.11988838 0.0015939078 -0.09600306 -0.041764718 -0.072254024
-0.07775957 -0.083128855 0.034105234 0.087263554 0.008912816 0.11557738 -0.1231593 -0.14440896
0.07394879 -0.081670836 -0.009825361 0.027278347 0.031856034 -0.11610366 0.12716657 0.10468895
-0.11138177 -0.12918992 -0.066464715 0.105981916 0.03565519 -0.06054659 -0.13395476 -0.14498687
-0.07509832 -0.08817577 -0.11183088 -0.025362168 -0.06718793 -0.06990409 0.010752143 0.15313973
-0.07478027 -0.1471216 -0.10705181 0.042029765 0.016689846 -0.05818571 0.020509943 -0.007365525
-0.0714341 -0.041159347 -0.007142092 -0.0024244376 -0.12074727 -0.0022473666 0.116776094 0.16303079
00000000: 338d b23d 01e3 873c 6fc2 f63d a296 aa3d
00000010: fad4 0d3e b9af 803c 91dc 203d 3b3d f9b9
00000020: bfa7 30bd ba4f ff3d 5340 e8bd dee5 f73d
00000030: f9b7 57bd 0c28 f4bc 975f e0bd f8ee 34be
00000040: 4e1b 703d ced6 663d d53e 3fbe 2e00 7d3b
00000050: 9fdd 0bbe 30c2 e93c 6a8c 08be 5e0a 363d
00000060: 45d6 5d3d 5bba 263e 1dea 09be c92a b33d
00000070: 3cc4 19be 5ac0 0f3e 03f0 543d 9297 c2bd
00000080: c510 bb3d 5e6b 523d 84bb a2bd 051a 343d
00000090: a5ac 513d 244d 82bc 5d3b dfbd 3bcc 86bd
000000a0: ea9c 2e3e 7e7b 043e d7dd 05be a722 48be
000000b0: 9c08 fc3d 6c27 2abe f55b 28be dd30 053e
000000c0: e824 0a3e 44ad 24be 6863 99bd 164c 733d
000000d0: c5ce 3e3d 3bc7 2cbe f76f 93bd a40a b0bd
000000e0: c7d9 ed3d 2d96 94bd 2acf b63d 9a8e a3bc
000000f0: 8d61 22be a2da 41bd 75e0 543d db71 17bd
00000100: 6dce 023a 3aee d2bd 9391 723d fe2b 613e
00000110: d994 873d c454 ccbb b594 0cbe dd3f a03d
00000120: d96d 73bd ad33 4ebe 37a5 983d dd6f 213e
00000130: 60ec e1bc 61e1 e3bc e4d4 f13d 550d f53d
00000140: b327 253e d1be 303e d66f 163e 5893 24be
00000150: 1fb3 61bd 0dd2 0ebe 031c 1e3b eb66 433d
00000160: dd32 87bd 4117 be3d d133 31bd cd30 173e
00000170: 6b1a bb3d d780 ae3d 399b 0d3e 73e3 8f3d
00000180: 9761 b83d 23b3 3abd b003 343e 9281 25be
00000190: 7a8a 2bbe 4bf5 19be 6a73 20be bf15 91bd
000001a0: b5a7 a8bd 1305 bb3d e9a2 8bbd 1a20 0f3d
000001b0: 4366 3bbd 47fa aa3b a06e ccbd 52e5 c1bd
000001c0: e2a7 023e 9497 033e e14c 2e3e 7e71 873d
000001d0: ab4f 5b3b 0309 ba3d 50f6 113e f0df 8d3d
000001e0: 002c 8f3c 3f5b 13be 6536 193e 0c6f 543d
000001f0: e33a 06be 01d6 38be e905 8ebd 7584 1e3e
00000200: b4cf 0fbe 6b31 003e e93f 103e 63e5 9f3d
00000210: bb9d 58bd 749c 45bd 24de 7dbd beb4 de3c
00000220: 7072 b83d cd4a 3bbe f3d4 0dbe cde8 20be
00000230: be4a 7c3d 2a38 423d cca5 f83d f5ec 06be
00000240: 3c80 3bbe 5ab3 f1bd 298e 243e 1a41 bdbd
00000250: c4be b3bd dd6d 333e fff8 463d 9073 b63c
00000260: 8a61 fb3b 6603 0abe a501 29be e6dc c43c
00000270: 615c eabd fe5c de3d fb6f 1b3e 66ce 353d
00000280: 7d4c bcbd 1d8b a63d fc57 333e 4a42 453e
00000290: 9b58 243d 1812 e1ba 0ba1 98ba 08f1 11bd
000002a0: 96d5 cdbc 1e70 0bba 7b8e f5bd 0935 ebbd
000002b0: 03fd 023d 9173 fb3c 9dfe 0d3e a52a dcbd
000002c0: bf20 51bd 76b3 ff3d ff67 243e 7975 043d
000002d0: 18f4 2abe 624f 3a3d 9b75 1c39 ec25 04be
000002e0: b392 acbd 826d fcbd fa5c 203e 837c 03be
000002f0: 3199 fcbd 866c fa3d 63b9 8abb 1876 8dbc
00000300: 33c7 fe3d 41a3 b6bc e6dd 25be 43c1 3a3e
00000310: f15c 933c 1780 e73d 086f 9dbd 53e0 39bd
00000320: 1b3b 98bc 9bff 363d 7a79 7cbd 0a88 f5bd
00000330: acea d03a 419d c4bd 7b11 2bbd ebf9 93bd
00000340: 6940 9fbd 763f aabd eeb1 0b3d 3cb7 b23d
00000350: 0f07 123c d5b3 ec3d f13a fcbd f1df 13be
00000360: 7772 973d 0a43 a7bd 8dfa 20bc d776 df3c
00000370: 797b 023d c1c7 edbd f437 023e 2967 d63d
00000380: 201c e4bd 5d4a 04be a71e 88bd 0c0d d93d
00000390: 2d0b 123d b3ff 77bd 702b 09be 7077 14be
000003a0: 26cd 99bd 8095 b4bd 9707 e5bd 52c4 cfbc
000003b0: d399 89bd e029 8fbd c229 303c a9d0 1c3e
000003c0: 6626 99bd 0ba7 16be fb3d dbbd 6727 2c3d
000003d0: 25b9 883c 2454 6ebd 7804 a83c 805a f1bb
000003e0: 0b4c 92bd b496 28bd 3608 eabb 50e3 1ebb
000003f0: 584a f7bd 8e48 13bb 4e28 ef3d 8bf1 263e

bias f4 [128]
-0.04076937 0.121609755 0.056696344 -0.019080272 -0.11156726 -0.1058815 -0.15454766 -0.1260607
-0.050466012 -0.0884478 -0.16108903 0.023727441 0.09350068 0.043750204 -0.008153027 -0.045359522
-0.013036091 0.039547216 -0.08889953 -0.10247989 0.14271238 0.06878323 -0.035229992 -0.095941044
0.06218502 0.18730626 -0.03695394 0.06696204 0.011268372 -0.0008224525 0.010298465 0.14836426
-0.028509907 -0.14985697 0.046132427 -0.10316385 0.13714966 -0.158188 0.12058381 0.18269897
0.10243578 -0.089744106 0.07789806 -0.0026484868 0.060428057 0.055961564 -0.053568367 -0.062252298
-0.16052112 0.004103297 0.10159199 0.110311806 -0.118620954 -0.025310768 0.08720869 0.15930998
0.18984613 0.12028069 -0.1928465 0.050348442 -0.017114406 -0.123671465 -0.063693635 -0.11086131
0.05252255 0.046515737 0.09157657 -0.090619996 -0.0116764875 0.15495022 0.056679823 -0.10104982
0.07353604 -0.09436297 0.047083795 -0.16389683 0.1420298 -0.16587734 -0.050263498 0.15240617
-0.124245726 -0.17167953 -0.067766555 0.053413305 -0.18011965 0.12747398 -0.1079907 -0.073064946
0.12683153 -0.09562141 0.0264193 -0.17228842 0.2009236 0.12012773 -0.052630667 -0.02848997
-0.0066151344 0.06980167 0.03224611 0.027499331 -0.04832513 -0.05977833 -0.15001816 -0.18547083
-0.021192174 -0.16731857 -0.11454457 0.052572235 -0.041768212 0.05882644 -0.12717 -0.076784186
0.07564044 0.100131266 0.08346975 -0.10247895 -0.0949021 -0.011425103 -0.016168794 0.10528711
0.08821686 -0.09637876 -0.1963495 0.113122225 0.10163863 0.017486028 -0.01566958 0.13958262
00000000: c8fd 26bd 890e f93d 6d3a 683d 3b4e 9cbc
00000010: 607d e4bd 66d8 d8bd be41 1ebe 0e16 01be
00000020: 73b5 4ebd 1f24 b5bd 86f4 24be 0d60 c23c
00000030: 497d bf3d 6a33 333d 4694 05bc e8ca 39bd
00000040: 5495 55bc 43fc 213d f510 b6bd fae0 d1bd
00000050: 3223 123e 39de 8c3d 534d 10bd bd7c c4bd
00000060: b8b5 7e3d 36cd 3f3e 045d 17bd 6523 893d
00000070: fa9e 383c da99 57ba e5ba 283c cdec 173e
00000080: 9c8d e9bc 1b74 19be 5bf5 3c3d 9247 d3bd
00000090: f670 0c3e 09fc 21be a5f4 f63d 7015 3b3e
000000a0: dac9 d13d c2cb b7bd 0589 9f3d 3c92 2dbb
000000b0: 6983 773d f437 653d 816a 5bbd 44fc 7ebd
000000c0: a65f 24be f374 863b 760f d03d 28eb e13d
000000d0: 8bef f2bd 8758 cfbc 789a b23d 2822 233e
000000e0: 0667 423e b955 f63d 8e79 45be 2b3a 4e3d
000000f0: 8333 8cbc 7747 fdbd cf71 82bd 410b e3bd
00000100: e321 573d 4987 3e3d 7f8c bb3d fa96 b9bd
00000110: bd4e 3fbc 45ab 1e3e 1a29 683d 35f3 cebd
00000120: 109a 963d 5f41 c1bd f0da 403d 92d4 27be
00000130: 4370 113e c0db 29be 19e1 4dbd 5d10 1c3e
00000140: 8b74 febd c2cc 2fbe 31c9 8abd e9c7 5a3d
00000150: 4971 38be 8a88 023e 3a2a ddbd 13a3 95bd
00000160: 20e0 013e 28d5 c3bd 4a6d d83c 606c 30be
00000170: ebbe 4d3e 8705 f63d 4193 57bd cc63 e9bc
00000180: c5c3 d8bb 2ef4 8e3d 7f14 043d 4746 e13c
00000190: 92f0 45bd 1fda 74bd 5c9e 19be 11ec 3dbe
000001a0: 369b adbc 8f55 2bbe 5896 eabd fc55 573d
000001b0: 2515 2bbd fef3 703d da38 02be 0741 9dbd
000001c0: 60e9 9a3d 9f11 cd3d 30f2 aa3d 7ce0 d1bd
000001d0: 085c c2bd 5b30 3bbc 6b74 84bc c5a0 d73d
000001e0: 0bab b43d 3a62 c5bd d80f 49be a0ac e73d
000001f0: ea27 d03d dc3e 8f3c 7e5d 80bc bfee 0e3e

weight f4 [32]
0.9561842 0.9335147 0.96925217 1.0992734 0.9351925 0.96610516 0.91838694 0.99032414
0.95068073 0.91553694 0.9539235 1.0010052 0.98687214 0.9609613 0.9393677 0.94427603
0.92786664 0.959747 0.9875203 0.93486637 1.0063918 0.9625524 0.9839636 0.968749
0.97372407 0.95047283 0.9866573 1.0099851 1.014789 0.96995366 0.9502088 1.0049433
00000000: 7dc8 743f d2fa 6e3f e920 783f feb4 8c3f
00000010: c768 6f3f ab52 773f 681b 6b3f e285 7d3f
00000020: d05f 733f a160 6a3f 5534 743f f020 803f
00000030: a7a3 7c3f 8f01 763f 677a 703f 13bc 713f
00000040: ab88 6d3f fbb1 753f 21ce 7c3f 6753 6f3f
00000050: 72d1 803f d669 763f 0ae5 7b3f efff 773f
00000060: fb45 793f 3052 733f 9395 7c3f 3147 813f
00000070: 9be4 813f e24e 783f e240 733f fba1 803f

bias f4 [32]
-0.0016384462 -0.0926653 -0.034295853 0.30883908 -0.052340943 0.02286979 0.00283091 0.03128943
-0.051212978 0.016464315 0.063748404 -0.13961892 0.021440774 -0.013896689 0.01007089 -0.10560117
0.012193758 -0.04743479 0.024391418 -0.011021092 0.041200407 -0.010960442 0.065359935 -0.03456255
-0.03867577 0.015685054 0.031168591 0.015553163 0.012995551 0.11028528 -0.051064197 0.04605949
00000000: 22c1 d6ba 4ec7 bdbd cf79 0cbd 2820 9e3e
00000010: 7563 56bd 6d59 bb3c ca86 393b 5829 003d
00000020: b3c4 51bd 2ce0 863c 868e 823d 43f8 0ebe
00000030: 90a4 af3c f0ae 63bc 6000 253c 6d45 d8bd
00000040: 54c8 473c fb4a 42bd 83d0 c73c cf91 34bc
00000050: c2c1 283d 6d93 33bc 6edb 853d 7691 0dbd
00000060: 7c6a 1ebd f17d 803c 4655 ff3c b2d2 7e3c
00000070: 4beb 543c 40dd e13d b128 51bd e0a8 3c3d

running_mean f4 [32]
1.2549727 1.1601821 4.6086864 0.0979345 1.5420169 -0.825255 0.41418093 0.9619814
0.26681596 -1.1593004 -2.1335583 -3.6989646 -4.2361665 1.0457058 0.13076065 5.106419
0.012174624 3.7504516 2.1183982 -1.0277634 -0.7860343 3.3576932 -0.071424305 -3.3127532
2.1164095 -3.4815836 1.5005151 3.2703524 -4.584249 -0.75738233 0.5266024 0.8628263
00000000: f2a2 a03f d980 943f 5c7a 9340 e291 c83d
00000010: cf60 c53f e943 53bf 860f d43e 6a44 763f
00000020: 1a9c 883e f563 94bf 388c 08c0 d6bb 6cc0
00000030: ad8e 87c0 b0d9 853f 1fe6 053e c967 a340
00000040: 1378 473c 6607 7040 d693 0740 c08d 83bf
00000050: 8b39 49bf 72e4 5640 e846 92bd 2604 54c0
00000060: 4173 0740 44d2 5ec0 e110 c03f 744d 5140
00000070: 2bb2 92c0 cfe3 41bf 6acf 063f 2fe2 5c3f

running_var f4 [32]
16.09378 2.883958 12.7522745 7.27062e-05 23.10988 1.3938907 2.970231 12.423485
20.451908 6.5398912 26.533752 9.2389145 9.744135 17.080496 10.641739 18.384827
11.9941225 24.299322 2.9870632 4.1337357 45.144825 12.106773 6.917882 14.356882
3.23619 15.35347 39.37714 14.832743 13.037685 5.5476913 44.479847 23.948307
00000000: 10c0 8041 c592 3840 5109 4c41 d879 9838
00000010: 09e1 b841 036b b23f 4418 3e40 98c6 4641
00000020: 829d a341 ca46 d140 2045 d441 98d2 1341
00000030: fae7 1b41 dba4 8841 9044 2a41 2014 9341
00000040: ede7 3f41 0365 c241 0b2c 3f40 9047 8440
00000050: 4d94 3442 58b5 4141 4a5f dd40 cab5 6541
00000060: bd1d 4f40 d0a7 7541 3182 1d42 ea52 6d41
00000070: 5c9a 5041 b086 b140 5deb 3142 2296 bf41

weight f4 [32, 136]
0.06689224 -0.07825626 0.089423984 -0.011498057 -0.018753516 0.057678327 0.020419616 0.055874817
-0.06662593 -0.098451115 0.008921719 0.016676297 -0.04141335 0.022984637 -0.010038539 -0.00011614061
-0.015562404 -0.09102535 -0.0528432 0.014675804 -0.012029155 0.029665526 0.03236002 -0.009739401
-0.057807285 0.041786913 0.026741263 0.020858059 0.04738178 -0.03981578 -0.03735004 0.04079103
-0.04143503 0.012601676 -0.029915046 -0.045219854 -0.05194819 -0.008426868 0.028138783 -0.042537842
0.0769078 -0.040781084 0.10363953 0.0074584526 0.029240262 -0.0833126 -0.044781543 -0.07186868
0.03314297 -0.1049171 0.012194403 0.03728585 -0.08773836 -0.036981784 0.013171609 0.069648474
0.08958165 -0.0035152305 -0.0073802546 0.07052081 -0.0057274415 0.0052742898 -0.05594599 -0.053009793
0.060437467 -0.029087381 -0.023785647 0.075761184 -0.0070877895 -0.07224896 -0.00018294531 0.08144913
0.039476678 0.017710933 -0.04686007 -0.06573563 0.009262864 0.016177516 0.038888775 0.025367841
0.021910869 0.08014994 -0.039538544 0.03162651 -0.056928985 0.04602211 -0.022733985 0.089286014
0.05220669 -0.07718454 0.027140073 -0.116239205 0.0360441 0.04849976 0.08237387 0.07316071
-0.0630717 -0.023951404 0.045874804 0.023899367 0.0560859 0.1126048 0.06676936 0.070010245
-0.0091831125 -0.108614326 -0.050225727 -0.03626971 0.106958896 -0.09330007 0.095517516 -0.027158372
-0.009750756 -0.02343532 0.031529155 -0.040959395 -0.020548863 -0.031016283 0.08556713 -0.00018029382
0.043993004 0.011051428 -0.017518789 0.022224523 0.030074824 0.06902837 0.10343367 -0.06755689
-0.05776545 0.029036487 -0.09493079 0.0046122298 -0.05367768 0.06320317 0.025553485 0.022585308
-0.0030180693 -0.074720845 -0.038221046 0.07824417 -0.0025609501 0.009740033 -0.013119877 0.05706803
-0.06461682 -0.058050875 -0.051775537 0.042983774 0.04965286 -0.022723494 -0.027326068 -0.0618901
-0.047272548 0.018526167 -0.020989196 0.04325634 0.030980065 0.022122405 -0.032541107 0.07524384
-0.07468598 -0.047283117 -0.073964186 0.021157634 -0.03739489 -0.0048784427 0.11147163 -0.0003362743
-0.018193975 0.08118279 -0.055231404 0.044944115 -0.045229502 -0.025489928 0.055568054 -0.07200848
0.061861 0.06312492 0.02015864 0.05431824 0.039532267 0.08001041 -0.06597397 -0.05452558
-0.007734325 -0.0065612746 0.0184089 -0.07449886 0.0031986914 -0.0039390097 -0.054442402 0.0043573463
-0.049361296 0.03647353 0.061410088 0.042372502 -0.06528717 -0.066173166 0.06579278 0.07701171
0.054999255 0.015134591 0.019155677 0.023067886 0.0853294 -0.024794647 -0.0080354465 0.0069838506
-0.0049392264 -0.029205332 0.084751055 -0.029444076 0.10517025 0.09439772 -0.046277203 -0.077499464
-0.04840801 0.015785813 0.037355985 0.016844723 0.05096967 -0.04205399 -0.0789293 0.026197867
0.036150783 -0.06858795 -0.109420136 -0.016947057 0.02026184 -0.09553537 0.01976581 -0.05289032
-0.06372721 -0.00039945633 0.020598177 -0.034944613 -0.028134335 0.040078714 -0.07613377 -0.06998304
-0.062051088 0.06900187 0.04682891 0.04694007 0.04961086 0.0068090996 -0.035222795 0.05705964
-0.0131493965 -0.012627145 -0.00940264 -0.053865585 -0.010451377 -0.046181507 -0.042887963 0.04013711
00000000: ccfe 883d d144 a0bd ec23 b73d 5962 3cbc
00000010: f9a0 99bc 1c40 6c3d 0a47 a73c fedc 643d
00000020: 2d73 88bd bda0 c9bd 672c 123c bb9c 883c
00000030: 0ba1 29bd 474a bc3c af78 24bc 8490 f3b8
00000040: 74f9 7ebc 806b babd 1c72 58bd c972 703c
00000050: ef15 45bc 1e05 f33c f18b 043d 0292 1fbc
00000060: 55c7 6cbd c128 2b3d 7e10 db3c 85de aa3c
00000070: 6613 423d df15 23bd 5bfc 18bd 7f14 273d
00000080: c7b7 29bd 4377 4e3c 6610 f5bc 7438 39bd
00000090: a0c7 54bd d910 0abc 4e83 e63c 293c 2ebd
000000a0: d681 9d3d 110a 27bd f640 d43d 0966 f43b
000000b0: 4689 ef3c cc9f aabd da6c 37bd e32f 93bd
000000c0: ecc0 073d c7de d6bd 09cb 473c 0cb9 183d
000000d0: 2bb0 b3bd 367a 17bd bbcd 573c dca3 8e3d
000000e0: 9676 b73d c85f 66bb 10d6 f1bb 376d 903d
000000f0: 43ad bbbb f3d3 ac3b 9f27 65bd cc20 59bd
00000100: 478d 773d a948 eebc 1eda c2bc ae28 9b3d
00000110: b040 e8bb 43f7 93bd 02d5 3fb9 cdce a63d
00000120: 4cb2 213d 8516 913c 58f0 3fbd 67a0 86bd
00000130: 44c3 173c b686 843c d649 1f3d 38d0 cf3c
00000140: 6c7e b33c a725 a43d 2bf3 21bd cd8a 013d
00000150: 5e2e 69bd ae81 3c3d 9f3c babc 96db b63d
00000160: afd6 553d ee12 9ebd dc54 de3c d20e eebd
00000170: faa2 133d afa7 463d a2b3 a83d 48d5 953d
00000180: bc2b 81bd bc35 c4bc 38e7 3b3d 9bc8 c33c
00000190: 54ba 653d 589d e63d 60be 883d 8861 8f3d
000001a0: c474 16bc 3071 debd 7eb9 4dbd 8c8f 14bd
000001b0: 440d db3d 1b14 bfbd b09e c33d 3c7b debc
000001c0: a3c1 1fbc 6efb bfbc b724 013d 0ac5 27bd
000001d0: 1756 a8bc dc15 febc d23d af3d 410d 3db9
000001e0: 0232 343d 0c11 353c 9083 8fbc 3410 b63c
000001f0: 7a5f f63c bf5e 8d3d 08d5 d33d 445b 8abd
00000200: 779b 6cbd eddd ed3c 136b c2bd 3022 973b
00000210: 21dd 5bbd aa70 813d 8b55 d13c d304 b93c
00000220: cdca 45bb 3e07 99bd ac8d 1cbd 7b3e a03d
00000230: 9dd5 27bb a994 1f3c c1f4 56bc 2bc0 693d
00000240: d355 84bd c1c6 6dbd 9612 54bd c10f 303d
00000250: cc60 4b3d 9f26 babc ebda dfbc 7980 7dbd
00000260: dca0 41bd 30c4 973c 89f1 abbc 8f2d 313d
00000270: e8c9 fd3c 0c3a b53c d349 05bd 7119 9a3d
00000280: f7f4 98bd f1ab 41bd 897a 97bd c652 ad3c
00000290: 622b 19bd 58db 9fbb 3d4b e43d f94d b0b9
000002a0: 880b 95bc 2a43 a63d 533a 62bd 5217 383d
000002b0: 9242 39bd 41d0 d0bc 549b 633d 2f79 93bd
000002c0: f661 7d3d a347 813d bb23 a53c ce7c 5e3d
000002d0: 96ec 213d 7fdc a33d 5c1d 87bd 3756 5fbd
000002e0: 3870 fdbb f6ff d6bb 43ce 963c dc92 98bd
000002f0: 23a1 513b cf12 81bb fffe 5ebd 12c8 8e3b
00000300: 122f 4abd 4565 153d 2589 7b3d ca8e 2d3d
00000310: 48b5 85bd cc85 87bd 5dbe 863d 51b8 9d3d
00000320: e646 613d 13f7 773c 5eec 9c3c ddf8 bc3c
00000330: 2ec1 ae3d 251e cbbc 1ba7 03bc c9d8 e43b
00000340: 3cd9 a1bb 0540 efbc f691 ad3d b434 f1bc
00000350: 8063 d73d 9853 c13d 2a8d 3dbd 0ab8 9ebd
00000360: 7a47 46bd 4051 813c 9702 193d f2fd 893c
00000370: 93c5 503d ce40 2cbd afa5 a1bd e99c d63c
00000380: d812 143d d777 8cbd aa17 e0bd 8ed4 8abc
00000390: 29fc a53c 0ca8 c3bd e8eb a13c 85a3 58bd
000003a0: 6983 82bd 1f6e d1b9 82bd a83c 1522 0fbd
000003b0: fa79 e6bc 9429 243d 06ec 9bbd 4553 8fbd
000003c0: 4829 7ebd da50 8d3d accf 3f3d 3b44 403d
000003d0: c234 4b3d de1e df3b c745 10bd 5eb7 693d
000003e0: 9170 57bc 16e2 4ebc 880d 1abc 29a2 5cbd
000003f0: 413c 2bbc d228 3dbd 4aab 2fbd cf66 243d

bias f4 [32]
0.051365655 0.041654542 -0.021666776 -0.08207452 -0.07556021 -0.020449242 -0.033948872 0.015248092
-0.035260927 0.05683011 0.04663542 -0.050253406 0.060570177 0.022086315 0.0688934 0.025997855
-0.007134003 0.06885564 0.064004906 -0.06276627 0.07660423 -0.018225316 -0.051632233 -0.0903206
-0.023085369 0.04863824 0.10274808 -0.0078200195 -0.009174079 0.03801312 0.093521014 -0.022854803
00000000: cb64 523d f49d 2a3d 867e b1bc b016 a8bd
00000010: 50bf 9abd 2b85 a7bc f90d 0bbd 22d3 793c
00000020: c36d 10bd b0c6 683d c804 3f3d 84d6 4dbd
00000030: 6f18 783d 5cee b43c fc17 8d3d 74f9 d43c
00000040: 5bc4 e9bb 3004 8d3d 0115 833d 9a8b 80bd
00000050: aee2 9c3d 424d 95bc 527c 53bd 02fa b8bd
00000060: 871d bdbc e438 473d 966d d23d 8a1f 00bc
00000070: e04e 16bc a5b3 1b3d f287 bf3d ff39 bbbc

weight f4 [8, 32]
-0.10978169 0.12724027 -0.023066804 -0.13858849 -0.024990382 0.092900105 0.048601314 -0.11792951
0.18751524 -0.10093091 -0.10612843 0.16190237 -0.015559396 0.005974583 -0.009756939 -0.12352568
-0.18537673 0.09882355 0.034589242 -0.11619063 -0.014694103 -0.035038035 -0.015578869 -0.12870355
0.095145784 0.13086939 -0.038399123 0.16917895 0.1188383 -0.17159942 0.041945495 -0.027944991
0.20736179 0.101297356 0.009366902 -0.09017131 0.012557156 -0.050323952 0.050986655 0.104779206
-0.124568194 0.03789379 -0.010947156 -0.16210641 0.14230305 0.12690659 0.04619151 0.12291119
0.10957945 -0.11372977 0.055285398 0.19539762 -0.021468578 -0.107871026 -0.17647997 -0.021810582
0.06332041 0.084124565 0.018808708 -0.013702571 0.1101688 -0.016690133 -0.11375649 0.08122329
0.1294646 0.09369792 -0.1647437 0.1644059 -0.025130322 -0.11148328 -0.055437967 0.16574094
0.04738524 -0.113604575 -0.08615053 0.07572994 -0.08202665 0.15910523 0.053829964 -0.0620997
0.11957719 -0.020594753 -0.03685301 0.091428004 0.094564445 0.1078492 0.09842626 -0.062914275
0.017634004 0.074261986 -0.06310345 -0.076512575 -0.033460766 -0.15002081 -0.0044491156 0.12328254
0.19054867 0.08421795 -0.17249401 0.12156059 -0.056266267 -0.122317955 0.039956164 0.18502173
0.114996634 -0.003029709 0.05518024 -0.046982814 -0.10018275 -0.04144207 -0.15603553 0.04797063
-0.10516031 0.19469081 0.019068535 -0.1628799 -0.044618566 0.09185932 0.0499351 -0.013133603
-0.093377225 -0.0708124 0.029921802 0.012675865 0.03332858 -0.06724112 -0.088236034 0.078842714
0.20075434 -0.12072072 0.09927762 0.093285345 0.18949197 0.18007837 0.020587495 0.15284054
-0.12675954 -0.15874374 -0.05365031 -0.03256261 0.00878691 -0.014052019 0.11223281 -0.08299492
0.002080429 0.1622692 -0.08606997 -0.072434306 0.03640562 0.058595598 -0.1812161 -0.14530244
-0.15482621 0.08152141 -0.02299927 -0.17036936 0.019828435 -0.11819787 -0.06121758 0.114491135
-0.17822789 -0.028232798 -0.12171024 -0.014720266 0.123506226 -0.15713453 0.052526098 -0.0055453745
-0.14281885 0.14569813 0.14992377 -0.002577578 -0.19003052 0.13493502 0.0005551616 0.09448972
0.15506372 -0.1358482 0.061969813 -0.03576169 0.089608766 -0.06744305 -0.09632233 0.17266066
-0.21128184 0.09619613 -0.18798558 -0.18440966 0.10256053 0.08403063 -0.08324718 -0.16812979
-0.123162225 0.19987382 0.05448632 -0.07521282 -0.046373326 -0.14010626 0.055619795 -0.1438635
-0.13585943 -0.06714344 -0.19848134 -0.13245799 0.08309467 -0.05312585 -0.101265505 -0.05071198
0.06275171 0.0142991645 0.08560238 0.110468104 0.099781275 -0.13727644 0.18925959 0.17018346
0.043315228 -0.115591206 -0.016093712 -0.14253996 0.19063155 0.025146183 0.09261329 0.053996153
-0.032589536 -0.123517916 -0.14821742 0.13766879 -0.015334348 -0.10120286 -0.1740929 0.016560437
-0.10073726 0.14957517 0.15219262 -0.10848193 -0.07988283 0.026235575 0.10247348 0.013840083
0.20351668 0.15236573 0.059890114 -0.042416163 -0.1122698 0.030947074 0.02476042 0.043445066
-0.113498144 -0.13618003 0.0011988785 0.10577571 -0.09034517 -0.04205377 0.054544404 -0.16652982
00000000: 39d5 e0bd 464b 023e 98f6 bcbc 24ea 0dbe
00000010: a1b8 ccbc 6942 be3d 2c12 473d 0785 f1bd
00000020: ff03 403e ddb4 cebd dd59 d9bd bcc9 253e
00000030: d6ec 7ebc 6fc6 c33b 91db 1fbc 08fb fcbd
00000040: 66d3 3dbe 0064 ca3d 73ad 0d3d 5af5 edbd
00000050: 89bf 70bc 0b84 0fbd 833e 7fbc ddca 03be
00000060: cbdb c23d a002 063e 6648 1dbd 3f3d 2d3e
00000070: 7f61 f33d c2b7 2fbe 0acf 2b3d e5ec e4bc
00000080: a656 543e fd74 cf3d a277 193c bcab b8bd
00000090: 88bc 4d3c 7d20 4ebd 62d7 503d 7b96 d63d
000000a0: 9c1d ffbd 8536 1b3d b35b 33bc 39ff 25be
000000b0: e4b7 113e cdf3 013e 4f33 3d3d ddb8 fb3d
000000c0: 316b e03d 27eb e8bd f172 623d 5016 483e
000000d0: dfde afbc 7ceb dcbd 2ab7 34be 1bac b2bc
000000e0: 22ae 813d 8049 ac3d b814 9a3c c080 60bc
000000f0: 2ea0 e13d bfb9 88bc 2af9 e8bd 6558 a63d
00000100: 5e92 043e b2e4 bf3d 93b2 28be 055a 283e
00000110: 1bde cdbc 5951 e4bd ec12 63bd feb7 293e
00000120: 0717 423d 84a9 e8bd b06f b0bd 4c18 9b3d
00000130: 97fd a7bd 7bec 223e cf7c 5c3d 415c 7ebd
00000140: e3e4 f43d 54b6 a8bc 2ff3 16bd 9b3e bb3d
00000150: 01ab c13d 0be0 dc3d b593 c93d 33d9 80bd
00000160: 3075 903c ab16 983d 623c 81bd a0b2 9cbd
00000170: 280e 09bd 0e9f 19be e3c9 91bb 8e7b fc3d
00000180: 311f 433e 767a ac3d 45a2 30be c2f4 f83d
00000190: 7577 66bd d681 fabd 13a9 233d 5676 3d3e
000001a0: 5b83 eb3d 158e 46bb ad04 623d 0d71 40bd
000001b0: 9d2c cdbd 29bf 29bd c7c7 1fbe da7c 443d
000001c0: 4a5e d7bd 075d 473e 9e35 9c3c fdc9 26be
000001d0: f5c1 36bd bd20 bc3d bf88 4c3d 532e 57bc
000001e0: 8f3c bfbd 1706 91bd 911e f53c 6eae 4f3c
000001f0: 8d83 083d b6b5 89bd 18b5 b4bd 4a78 a13d
00000200: 8c92 4d3e 6d3c f7bd 1152 cb3d 630c bf3d
00000210: 2f0a 423e 7766 383e 1ba7 a83c 3b82 1c3e
00000220: 41cd 01be b88d 22be 6dc0 5bbd 5f60 05bd
00000230: f9f6 0f3c 713a 66bc 51da e53d 3ef9 a9bd
00000240: cf57 083b e629 263e 7445 b0bd 7058 94bd
00000250: 0f1e 153d f001 703d b790 39be 2aca 14be
00000260: c38a 1ebe b2f4 a63d f768 bcbc 4e75 2ebe
00000270: 3e6f a23c ba11 f2bd 49bf 7abd 547a ea3d
00000280: 5f81 36be 7848 e7bc 3843 f9bd 452d 71bc
00000290: d5f0 fc3d e0e7 20be 9b25 573d f9b5 b5bb
000002a0: 1b3f 12be e431 153e 9e85 193e 95ec 28bb
000002b0: 5c97 42be 682c 0a3e 4488 113a d483 c13d
000002c0: 06c9 1e3e ca1b 0bbe 0fd4 7d3d da7a 12bd
000002d0: cd84 b73d 951f 8abd a444 c5bd f5cd 303e
000002e0: 445a 58be 7a02 c53d 4b7f 40be e3d5 3cbe
000002f0: 410b d23d 4018 ac3d 7f7d aabd 372a 2cbe
00000300: 7a3c fcbd b9ab 4c3e 0c2d 5f3d 2e09 9abd
00000310: f5f1 3dbd 0478 0fbe 95d1 633d f450 13be
00000320: bc1e 0bbe 8082 89bd b13e 4bbe 11a3 07be
00000330: 8a2d aa3d 7e9a 59bd 4a64 cfbd 5db7 4fbd
00000340: f883 803d 0b47 6a3c 4d50 af3d 1a3d e23d
00000350: 205a cc3d 3292 0cbe 44cd 413e 9344 2e3e
00000360: 4f6b 313d 15bb ecbd f6d6 83bc fff5 11be
00000370: eb34 433e 5eff cd3c 09ac bd3d 122b 5d3d
00000380: 9b7c 05bd f6f6 fcbd 4fc6 17be 0cf9 0c3e
00000390: eb3c 7bbc 7243 cfbd 6945 32be c1a9 873c
000003a0: 564f cebd 3c2a 193e 62d8 1b3e c62b debd
000003b0: 9c99 a3bd fdeb d63c 9edd d13d 84c1 623c
000003c0: ad66 503e c305 1c3e 564f 753d 92bc 2dbd
000003d0: b5ed e5bd b884 fd3c 5dd6 ca3c 74f3 313d
000003e0: b771 e8bd c772 0bbe b023 9d3a efa0 d83d
000003f0: e306 b9bd 9340 2cbd f469 5f3d cb86 2abe

bias f4 [8]
0.074740656 -0.047988344 0.17762914 -0.031237196 -0.09696671 0.020545948 -0.0993452 0.11385816
00000000: a111 993d 6d8f 44bd 6ae4 353e 26e5 ffbc
00000010: 7c96 c6bd fa4f a83c 7f75 cbbd 782e e93d

weight f4 [32]
1.0497079 1.0328557 0.99967384 0.98095614 1.0047848 1.0094714 1.0105708 1.0493978
0.99170315 1.012637 1.0341799 0.9906402 1.0105164 0.97940147 0.98079747 0.9933631
1.033883 1.0151536 0.99522144 1.0239604 0.94777197 0.97426385 1.0235791 0.9776298
1.0098128 0.9981338 1.0077854 0.97967523 1.0042293 0.9872262 1.0001011 0.98185897
00000000: d45c 863f 9e34 843f a0ea 7f3f f11f 7b3f
00000010: ca9c 803f 5c36 813f 625a 813f ab52 863f
00000020: 42e0 7d3f 179e 813f 0260 843f 999a 7d3f
00000030: 9a58 813f 0eba 7a3f 8b15 7b3f 0b4d 7e3f
00000040: 4756 843f 8ef0 813f d5c6 7e3f 2211 833f
00000050: 2fa1 723f 5b69 793f a404 833f f245 7a3f
00000060: 8c41 813f b285 7f3f 1dff 803f ffcb 7a3f
00000070: 968a 803f dbba 7c3f 5003 803f 1c5b 7b3f

bias f4 [32]
0.020028066 0.0074159885 -0.0099472655 -0.008793307 -0.04170824 -0.014868314 -0.020820532 -0.0360927
0.005517535 0.004919201 0.04003449 0.005771657 0.06378369 0.033202466 -0.025536863 -0.015424195
-0.0024729688 -0.019257516 -0.030025395 0.011584964 -0.042350113 -0.04057065 -0.0017409585 -0.020180997
0.03614841 0.012790289 0.055257466 -0.029306663 -0.016836489 0.008231447 0.045282893 0.0331312
00000000: e611 a43c d201 f33b dbf9 22bc cd11 10bc
00000010: 42d6 2abd 3b9a 73bc d28f aabc f0d5 13bd
00000020: 70cc b43b 4031 a13b 35fb 233d 2b20 bd3b
00000030: 06a1 823d 4fff 073d af32 d1bc c3b5 7cbc
00000040: 8811 22bb f0c1 9dbc d1f7 f5bc dcce 3d3c
00000050: 5077 2dbd 692d 26bd e030 e4ba 9e52 a5bc
00000060: 5b10 143d 5c8e 513c a755 623d 8714 f0bc
00000070: adec 89bc 31dd 063c 8e7a 393d 95b4 073d

running_mean f4 [32]
-0.7693102 0.0022810902 -0.5801497 -0.31340456 0.040871356 -0.044465654 -0.17707227 -0.13794808
0.06463051 -0.5297249 -0.2965056 -0.037324026 -0.7669382 -0.40381968 0.23256393 -0.39572608
-0.27390677 0.4068953 0.5858687 -0.13983296 -0.17544721 -0.43240854 0.11721494 0.13686712
-0.33333713 0.48032093 -0.4881798 -0.596995 -0.40454122 0.0087329075 -0.43173334 -0.74246347
00000000: 83f1 44bf 587e 153b b184 14bf 9076 a0be
00000010: b968 273d 9e21 36bd 6f52 35be 4342 0dbe
00000020: 005d 843d 0d9c 07bf 95cf 97be 14e1 18bd
00000030: 1056 44bf 74c1 cebe 3d25 6e3e 9c9c cabe
00000040: 823d 8cbe 9554 d03e 7efb 153f 5f30 0fbe
00000050: 6fa8 33be a764 ddbe 630e f03d e526 0c3e
00000060: 2aab aabe a0ec f53e b4f2 f9be aad4 18bf
00000070: 0720 cfbe 7814 0f3c 270c ddbe 1612 3ebf

running_var f4 [32]
0.12803666 0.16160935 0.18026085 0.2170137 0.064293884 0.27213255 0.11364278 0.11999188
0.25524303 0.1973147 0.36189595 0.22505097 0.37133467 0.21572573 0.08881532 0.17591059
0.202315 0.22546643 0.16608493 0.1529023 0.33651954 0.25327334 0.17971931 0.1831424
0.28156152 0.21295485 0.25817698 0.32314783 0.10411063 0.24522437 0.2033174 0.15303108
00000000: 0b1c 033e ec7c 253e 4d96 383e d738 5e3e
00000010: 83ac 833d f554 8b3e 8cbd e83d 4ebe f53d
00000020: 37af 823e dd0c 4a3e 6d4a b93e c373 663e
00000030: 941f be3e 35e7 5c3e cee4 b53d e821 343e
00000040: aa2b 4f3e ace0 663e 2b12 2a3e 6c92 1c3e
00000050: 4a4c ac3e 0bad 813e 5708 383e ae89 3b3e
00000060: d528 903e d610 5a3e c62f 843e a273 a53e
00000070: f437 d53d 191c 7b3e 7032 503e 2eb4 1c3e
