code/model_sol_backups/model_sol_19.pt (torch, 635426 bytes, 158 tensors)

weight f4 [32, 2]
0	0xbe45d1c1	-0.19318296
1	0xbe711552	-0.2354329
2	0xbec0aff1	-0.37634233
3	0x3f236265	0.63822013
4	0x3f285607	0.6575627
5	0xbe9ef482	-0.3104592
6	0x3dda5069	0.10659868
7	0x3ed2d824	0.41180527
8	0x3f1824fa	0.5943142
9	0x3f226b48	0.6344495
10	0x3e8d700f	0.27624556
11	0xbeb5413a	-0.35401326
12	0xbf158f03	-0.58421344
13	0x3e3c69fd	0.18399806
14	0x3f12947d	0.57257825
15	0xbcc19d7b	-0.023634663
16	0x3f314fa3	0.6926214
17	0xbf2b7a69	-0.6698366
18	0xbf053330	-0.5203123
19	0x3e919d9e	0.28440565
20	0x3ed4f41c	0.4159249
21	0xbe7a5440	-0.24446201
22	0xbeec89e9	-0.46198967
23	0xbe36900f	-0.17828391
24	0x3e3d324f	0.18476222
25	0x3da31c48	0.079643786
26	0x3d7b01d5	0.061281044
27	0xbf240805	-0.64074737
28	0x3f24a5c1	0.6431542
29	0x3d0fd0e1	0.03511131
30	0x3e92008a	0.28516036
31	0xbf18a72c	-0.59630084
32	0xbebc74c6	-0.3680784
33	0xbedf8225	-0.4365398
34	0x3d018976	0.031625234
35	0x3f0fd3db	0.5618264
36	0x3e797391	0.24360491
37	0xbf172819	-0.5904556
38	0xbea6b865	-0.32562557
39	0x3e2c0f84	0.16802794
40	0x3f2cc706	0.67491186
41	0x3e813028	0.25232053
42	0xbf27d82a	-0.65564215
43	0xbf223340	-0.6335945
44	0xbe91732d	-0.28408185
45	0x3e45c9c9	0.19315256
46	0xbd43d9b2	-0.047815032
47	0xbe9ece0b	-0.31016573
48	0x3edd16ca	0.4318145
49	0xbe62ce48	-0.22149003
50	0xbdcf7024	-0.10128811
51	0x3e792722	0.24331334
52	0xbefbe66e	-0.4919924
53	0x3f08630b	0.5327613
54	0x3ef98e49	0.48741367
55	0xbe010f93	-0.12603597
56	0xbf22050d	-0.63288957
57	0xbef8e270	-0.48610258
58	0xbea2476e	-0.31695122
59	0xbf230c45	-0.63690597
60	0x3ec65446	0.3873617
61	0xbe961db5	-0.2931954
62	0x3f23b3ea	0.639464
63	0xbe1d36d4	-0.15352947

bias f4 [32]
0	0x3e2b36f4	0.16720182
1	0xbe2f2f01	-0.17107774
2	0x3f09740b	0.5369269
3	0xbdd18abc	-0.102315396
4	0x3e60f070	0.2196672
5	0x3ee6db3f	0.45089146
6	0xbf1cfa4c	-0.6131942
7	0x3e919796	0.28435963
8	0x3e4360d5	0.19079907
9	0xbeb2b153	-0.34900913
10	0xbea8bd18	-0.32956767
11	0xbe029de1	-0.12755539
12	0x3e5095f5	0.20369704
13	0x3cfa242a	0.030534822
14	0x3e710150	0.23535657
15	0xbc3f8ef1	-0.011691795
16	0xbe0dabdd	-0.13835092
17	0x3ed57de4	0.4169761
18	0xbe06ec51	-0.13176085
19	0x3f1b8066	0.60742795
20	0x3ec84d2f	0.39121386
21	0x3f0fb442	0.56134427
22	0xbeba615c	-0.36402404
23	0xbf071bad	-0.52776605
24	0xbdc48719	-0.0959608
25	0x3f302e55	0.688207
26	0x3dfb6841	0.12275744
27	0x3d25fb13	0.040522646
28	0x3f287ddc	0.65817046
29	0xbe10ace8	-0.14128458
30	0x3eef7ab7	0.46773311
31	0xbe94627c	-0.28981388

weight f4 [128, 32]
0	0x3e0928b2	0.1339443
1	0xbdf44892	-0.11927904
2	0xbc5dc0bc	-0.013534721
3	0x3d22ff19	0.03979406
4	0xbde3f628	-0.11130935
5	0xbdbc05f4	-0.09180823
6	0x3dde1499	0.108437724
7	0x3d60cac6	0.05488088
8	0x3df995d3	0.1218678
9	0xbda40d89	-0.08010394
10	0xbe414016	-0.18872103
11	0xbdb93386	-0.090430304
12	0xbde5befa	-0.112180665
13	0x3c3f7ded	0.011687738
14	0xbe383b5e	-0.17991397
15	0xbe01d729	-0.12679733
16	0xbdf18232	-0.11792411
17	0x3d45b659	0.048269603
18	0xbdb9002c	-0.09033236
19	0x3d9ae163	0.0756252
20	0x3e1f5832	0.15560988
21	0xbdb06033	-0.086120985
22	0xbe073906	-0.13205346
23	0x3c7df63b	0.0155006
24	0xbe1c2253	-0.15247469
25	0x3d32d697	0.04366168
26	0x3e0b1dcb	0.13585584
27	0x3dfa5f56	0.12225215
28	0xbe1d5173	-0.15363102
29	0xbd8cb09d	-0.06869624
30	0xbcf15b6d	-0.02946254
31	0x3d75054a	0.059819497
32	0x3e0e68ec	0.13907212
33	0x3d67cc4c	0.056591317
34	0xbd86b28a	-0.065770224
35	0xbe0e8b0d	-0.13920231
36	0x3df0e500	0.11762428
37	0xbdcaa301	-0.09894372
38	0x3dfa9415	0.12235276
39	0xbd0a30dc	-0.033738002
40	0x3d82c433	0.06385078
41	0xbbcc02fe	-0.0062259426
42	0xbd6a23ab	-0.057162922
43	0xbdfc52cf	-0.12320482
44	0xbe39c3af	-0.18141054
45	0xbc2d3b6e	-0.010573251
46	0x3e165cc7	0.14683829
47	0xbab91ad9	-0.0014122381
48	0x3e0d4d75	0.13799079
49	0xbd0a4a42	-0.033762224
50	0x3b2c64ee	0.0026305276
51	0xbdb8d81f	-0.09025597
52	0x3dfd543c	0.12369582
53	0x3d040da0	0.032239556
54	0x3e080c53	0.13285951
55	0x3decc4d6	0.11560981
56	0x3dfcc4b7	0.12342208
57	0x3d936dd5	0.07198683
58	0x3bf6990e	0.0075255698
59	0xbb86c5cc	-0.0041129347
60	0x3c0be497	0.008538387
61	0xbc8e93d5	-0.017404476
62	0xbddc0d28	-0.10744697
63	0x3de233bc	0.11045024
64	0xbe135268	-0.14386904
65	0xbbe53902	-0.0069953213
66	0x3aa0c4fe	0.001226574
67	0xbe246049	-0.16052355
68	0xbdc65b4a	-0.09685381
69	0x3e06361d	0.1310658
70	0x3d9475bb	0.07249018
71	0x3e24c376	0.16090187
72	0x3d625a25	0.05526175
73	0x3dd01faf	0.10162293
74	0x3d06458f	0.03278118
75	0x3e34870c	0.17629641
76	0x3e0dea5a	0.1385893
77	0x3ced927e	0.029000517
78	0xbd81fca4	-0.063470155
79	0x3db73c04	0.08946994
80	0xbdae4c46	-0.08510642
81	0xbe0748c5	-0.13211353
82	0x3dd9a99f	0.10628056
83	0xbde47801	-0.111557014
84	0x3cfbbe0a	0.030730266
85	0xbda40414	-0.0800859
86	0x3d78bd5c	0.060727462
87	0x3d3c266f	0.04593509
88	0xbdd8efe9	-0.10592634
89	0xbcb42d0a	-0.021994133
90	0x3c329f7e	0.010902284
91	0x3e1e3b6d	0.15452357
92	0xbdb3049a	-0.08741112
93	0xbd82259b	-0.06354829
94	0x3e05a5b0	0.13051486
95	0xbc104198	-0.008804701
96	0xbdec61b1	-0.11542071
97	0x3c11e2f2	0.008904206
98	0x3e405876	0.18783745
99	0xbe3e0b3c	-0.18558973
100	0xbe1f1688	-0.15535939
101	0xbd5f0cdd	-0.054455627
102	0xbd17e741	-0.037085775
103	0xbd9544df	-0.07288527
104	0x3ce18089	0.02752711
105	0x3df77602	0.12083055
106	0xbddeb9df	-0.10875296
107	0x3dc2f00d	0.09518442
108	0xbc8765e2	-0.016528074
109	0x3e220c87	0.15825091
110	0x3b31a5e0	0.0027106926
111	0x3c18dfac	0.009330671
112	0x3d2a0cdd	0.041516174
113	0xba578983	-0.000822209
114	0x3e2d770f	0.16939948
115	0x3cab9339	0.020944225
116	0xbe132db6	-0.14372906
117	0x3c11c916	0.00889804
118	0xbe0a7961	-0.13522865
119	0xbe2d55dd	-0.16927285
120	0x3e1a8dee	0.15093204
121	0x3db12dee	0.086513385
122	0x3e070b1f	0.13187836
123	0x3d028eeb	0.03187458
124	0x3d20de9a	0.03927479
125	0xbe310fb2	-0.17291144
126	0xbe101805	-0.14071663
127	0xbdd4b6c8	-0.10386425
128	0xbd9d86aa	-0.07691701
129	0xbe036988	-0.12833226
130	0x3d894eca	0.06704481
131	0xbc95f5be	-0.018305656
132	0xbdf806af	-0.1211065
133	0xbd3de54c	-0.046361253
134	0x3c10ca5d	0.00883731
135	0xbe15a166	-0.1461235
136	0x3e26b1b7	0.1627873
137	0x3decb893	0.11558642
138	0x3c684dbe	0.014178691
139	0xbe2d4b9d	-0.16923375
140	0x3da33d67	0.07970696
141	0xbdbd682d	-0.092483856
142	0xbd8f4424	-0.06995419
143	0xbe069a7d	-0.1314487
144	0x3e2eca14	0.17069274
145	0xbc054acf	-0.008135512
146	0x3cc40795	0.023929397
147	0x3e3462fa	0.17615882
148	0x3e0ebe67	0.1393982
149	0xbda8a1ba	-0.08233972
150	0xbd759051	-0.059952084
151	0x3d7edcc2	0.06222225
152	0xbcd4453c	-0.02591192
153	0xbc711d4c	-0.014716458
154	0x3e31b307	0.1735345
155	0x3dfd9c3e	0.123833165
156	0x3e16e94b	0.14737432
157	0x3d9aba4c	0.075550646
158	0xbe042a1d	-0.1290669
159	0xbd9ebd88	-0.07750994
160	0xbe1a509c	-0.15069813
161	0xbda45731	-0.08024443
162	0xbd3e3f28	-0.04644695
163	0x3e146242	0.14490607
164	0x3c01a084	0.007911805
165	0xbe2aa5b7	-0.16664778
166	0xbd0cca13	-0.0343724
167	0x3df1f44e	0.118141755
168	0xbd9a0077	-0.0751962
169	0x3e06c6aa	0.13161722
170	0xbe2ce067	-0.16882478
171	0xbbcb3a6a	-0.006202032
172	0x3cae2704	0.021258838
173	0xbd62afb0	-0.05534333
174	0xbe318539	-0.17335977
175	0xbbbf24ac	-0.005833229
176	0x3d8072ec	0.062719196
177	0x3d1ed30f	0.0387755
178	0xbdecefaf	-0.115691535
179	0xbdf013ba	-0.117225125
180	0xbe06bd64	-0.13158184
181	0x3e103918	0.1408428
182	0x3bdf7b3b	0.00682011
183	0x3cb17225	0.021660874
184	0x3ded7339	0.115942426
185	0xbc381bb5	-0.011237075
186	0x3e16cc6a	0.14726415
187	0x3d50e174	0.05099626
188	0x3dfaf608	0.12253958
189	0xbe2674bd	-0.1625547
190	0x3df3bd95	0.11901394
191	0xbe1fa084	-0.15588576
192	0xbe0eefed	-0.13958712
193	0x3d79da7e	0.060999386
194	0xbda6be3d	-0.08141754
195	0xbe3a055b	-0.18166105
196	0x3daa8a1e	0.08327125
197	0x3e1edd08	0.15514004
198	0x3c533858	0.012891851
199	0xbd98e0bc	-0.0746474
200	0xbdde561f	-0.1085627
201	0x3e063c79	0.13109006
202	0x3dc9742f	0.098366134
203	0x3db69aca	0.089162424
204	0xbbe53292	-0.006994554
205	0x3e353f6c	0.17699975
206	0x3c031b49	0.008002111
207	0x3e1537e7	0.14572106
208	0xbe189eda	-0.14904347
209	0xbe086266	-0.13318786
210	0x3dbfe4cc	0.093698114
211	0x3ba032ae	0.004888854
212	0x3e1c73ba	0.15278521
213	0x3da7c2ed	0.08191476
214	0x3ad4e38f	0.0016242134
215	0x3c4a8187	0.012359983
216	0x3e356e57	0.17717873
217	0xbda70c13	-0.081566
218	0x3b1df0c8	0.0024099816
219	0xbd885b74	-0.06658068
220	0x3dc60661	0.096691854
221	0x3d814b05	0.06313137
222	0xbe1d59ed	-0.15366335
223	0xbdf637e5	-0.1202238
224	0xbe36d111	-0.1785319
225	0xbdf6e5b0	-0.12055528
226	0x3c651866	0.013982868
227	0xbd5e342e	-0.05424898
228	0xbe040c50	-0.12895322
229	0x3e0f7b16	0.14011797
230	0xbe25f1d0	-0.16205525
231	0x3c8661e4	0.0164041
232	0x3de77ad5	0.11302725
233	0x3deb92e0	0.115026236
234	0xbdb7fcad	-0.08983741
235	0x3e16dcb2	0.14732626
236	0x3c3a2bfa	0.011363024
237	0xbd820e0c	-0.063503355
238	0xbdda833c	-0.10669562
239	0xbcaa1928	-0.020763949
240	0x3da3ca28	0.079975426
241	0xbda6306a	-0.08114703
242	0x3cb7ed64	0.022452064
243	0x3d4d1919	0.050072763
244	0xbe043e9a	-0.12914506
245	0xbdb7f504	-0.0898228
246	0x3d0aa579	0.033849213
247	0x3c1de324	0.009636674
248	0xbdd47634	-0.10374108
249	0xbe07a003	-0.13244633
250	0x3dcaf458	0.09909886
251	0x3e140470	0.14454818
252	0xbda7ae96	-0.081875965
253	0xbd153c7b	-0.03643463
254	0xbd6c0a32	-0.05762691
255	0xbda333ac	-0.0796884

bias f4 [128]
0	0x3da1f039	0.07907147
1	0xbce762f6	-0.02824543
2	0x3e2b00e4	0.16699558
3	0xbddaf023	-0.10690334
4	0xbdc155ba	-0.09440179
5	0x3d90b46d	0.070656635
6	0x3dc8d0e3	0.09805467
7	0xbd2b9d7f	-0.041898247
8	0xbd1869a2	-0.037210114
9	0xbc8e87fc	-0.017398827
10	0xbd91e93f	-0.07124566
11	0x3d08013e	0.03320431
12	0xbda58a32	-0.08082999
13	0x3e16a5d7	0.147117
14	0xbd32b77a	-0.043632008
15	0x3e126012	0.1429446
16	0xbd548d7f	-0.051892754
17	0xbd8154af	-0.0631498
18	0x3e10ff8b	0.14159982
19	0x3d38abc4	0.045085683
20	0xbe2d8115	-0.16943772
21	0xbdae6dbf	-0.08517026
22	0x3e0a8544	0.135274
23	0xbd515d89	-0.051114593
24	0xbe13cfe1	-0.14434768
25	0xbe292d8c	-0.16521281
26	0x3d21bddb	0.0394877
27	0x3e31e4cb	0.17372434
28	0xbdf428f5	-0.119218744
29	0xbc23eb54	-0.010004837
30	0x3d40c6f4	0.047064736
31	0xbd2cc9fa	-0.042184807
32	0x3c3ba055	0.0114518
33	0xbd638f94	-0.05555685
34	0x3d9d0545	0.07667021
35	0x3d8dd3eb	0.06925186
36	0xbbac1482	-0.005251468
37	0xbe21ed6d	-0.15813227
38	0x3e06200a	0.1309816
39	0x3df6fed7	0.120603256
40	0x3e3cdfc1	0.1844473
41	0x3d0a1c9a	0.033718683
42	0x3c8965d9	0.016772198
43	0x3def178b	0.11674412
44	0xbd8d7fa0	-0.06909108
45	0xbd2dfe8f	-0.042479094
46	0x3d5e0868	0.054207236
47	0x3dfbebbe	0.12300824
48	0xbddf3431	-0.108986266
49	0xbde1ef8c	-0.11032018
50	0x3ce47603	0.027888304
51	0x3a91dfb3	0.001112929
52	0x3db39800	0.08769226
53	0xbe2e201f	-0.1700444
54	0x3dc858c1	0.097825535
55	0xbc71a6c0	-0.014749229
56	0xbe16d2b1	-0.1472881
57	0x3dbff654	0.09373155
58	0x3d70503a	0.05867026
59	0x3dae9be7	0.0852583
60	0xbd6a5d1a	-0.057217695
61	0xbd5981d1	-0.05310232
62	0xbdb93b13	-0.09044471
63	0x3cc4bfba	0.024017204
64	0xbd5604ab	-0.052250545
65	0x3e0ee1ec	0.1395337
66	0xbdfa0a2c	-0.122089714
67	0xbe3653b2	-0.17805365
68	0xbe38b4dd	-0.18037744
69	0xbe1c8b64	-0.15287548
70	0xbddf40f6	-0.10901062
71	0xbc1f8ac6	-0.009737676
72	0x3bcc4c85	0.006234708
73	0x3cfbc003	0.030731207
74	0xbdf43886	-0.119248435
75	0x3d8fa089	0.070130415
76	0x3d9dfaab	0.07713827
77	0x3d198d4c	0.037488267
78	0xbe324676	-0.17409691
79	0xbd44c51c	-0.04803954
80	0xbe02c334	-0.12769777
81	0x3e02e0bd	0.12781043
82	0xbdfbfa5d	-0.123036124
83	0xbe2eb0af	-0.17059587
84	0xbd190326	-0.03735652
85	0x3e2e0fe1	0.16998245
86	0x3da08a29	0.07838852
87	0x3d425463	0.04744376
88	0xbe064f2f	-0.13116144
89	0xbe1fb22a	-0.15595308
90	0xbd8a77af	-0.06761109
91	0x3db60e08	0.08889395
92	0x3cdb6ad8	0.026784346
93	0x3ddf0fa0	0.10891652
94	0x3db9fca0	0.090813875
95	0x3e068833	0.13137893
96	0x3dd6cb8b	0.104880415
97	0xbe0bf4f8	-0.13667667
98	0x3d9a1cba	0.075250104
99	0xbd57c5c4	-0.05267884
100	0x3d88a17a	0.06671424
101	0x3dc5b0ae	0.096528396
102	0xbe23b8f1	-0.15988518
103	0xbd0b408e	-0.03399711
104	0x3d46fd45	0.04858138
105	0x3c377242	0.011196675
106	0x3dee683f	0.11640977
107	0xbe0c01f0	-0.13672614
108	0x3dc62f3a	0.096769765
109	0xbde0a0ec	-0.109681934
110	0xbb4589d0	-0.0030141957
111	0x3c2a2a73	0.010386097
112	0x3d21ed63	0.03953303
113	0x3e1d7992	0.15378407
114	0x3cb4c620	0.02206713
115	0x3e3d6607	0.18495952
116	0xbcc2c285	-0.023774395
117	0x3d661290	0.056170046
118	0xbe131c1a	-0.14366189
119	0x3e1dd49f	0.1541314
120	0xbd5e4791	-0.05426747
121	0xbe0d1dd9	-0.13780917
122	0x3da63fc5	0.08117632
123	0xbe0a2d96	-0.13493952
124	0xbb7ab6d9	-0.0038255958
125	0x3d1d1026	0.03834548
126	0x3dee0003	0.11621096
127	0x3e284932	0.16434172

weight f4 [32]
0	0x3f80b0f1	1.0053998
1	0x3f7d7235	0.9900239
2	0x3f7f618a	0.9975821
3	0x3f82d1e3	1.0220302
4	0x3f803864	1.0017209
5	0x3f7bee16	0.98410165
6	0x3f7dbe3d	0.99118406
7	0x3f7da1d3	0.9907505
8	0x3f7e7633	0.9939911
9	0x3f7c4125	0.985369
10	0x3f7bf6b4	0.98423314
11	0x3f7d02be	0.9883231
12	0x3f7a441c	0.97760177
13	0x3f812004	1.0087895
14	0x3f7a96be	0.97886264
15	0x3f80b669	1.0055667
16	0x3f76f772	0.9647132
17	0x3f82cf18	1.021945
18	0x3f80e0b8	1.0068579
19	0x3f800f62	1.0004694
20	0x3f77b7d6	0.96764886
21	0x3f788f79	0.9709392
22	0x3f815412	1.0103781
23	0x3f818fb3	1.0121979
24	0x3f7d0927	0.9884209
25	0x3f7f9af5	0.9984582
26	0x3f7de6df	0.99180406
27	0x3f806d78	1.0033407
28	0x3f7f275f	0.9966945
29	0x3f7cdd80	0.9877548
30	0x3f7bb2bc	0.983196
31	0x3f7e2d62	0.99288

bias f4 [32]
0	0x3c2570fc	0.010097738
1	0xbb5b9415	-0.0033505012
2	0xbce3208c	-0.02772548
3	0x3c36fc63	0.011168572
4	0xbd0d5a31	-0.03450984
5	0xbccb06cd	-0.024783516
6	0xbbf7947f	-0.007555544
7	0xbcc4fd93	-0.024046695
8	0xbd044a9d	-0.03229772
9	0x3c9e49cb	0.019322297
10	0xbc4fcb80	-0.0126827955
11	0xbbcd8860	-0.0062723607
12	0xbd08e9e9	-0.0334262
13	0xbba8d661	-0.005152509
14	0xb98ec5d9	-0.0002723176
15	0x3bd71f05	0.006564977
16	0x3c4ecad3	0.012621599
17	0x3c91cd9a	0.017798234
18	0x3ca7301f	0.020408688
19	0x3d150513	0.036381792
20	0xbd4022da	-0.046908237
21	0xbcb92685	-0.022601375
22	0x3c8449b9	0.016148435
23	0xbb15cb00	-0.0022856593
24	0xbcfbb004	-0.03072358
25	0x3c0d4d93	0.008624452
26	0xbc0abe40	-0.008468211
27	0xbc4e92aa	-0.01260821
28	0xbadb665e	-0.0016738882
29	0xbc8da25b	-0.017289331
30	0xbcc9b71c	-0.024623446
31	0xbb3b77b0	-0.0028605275

running_mean f4 [32]
0	0x3d49c501	0.049260143
1	0xbb446532	-0.0029967544
2	0x3f08f61d	0.5350054
3	0x3d85627a	0.065129235
4	0x3f0cb933	0.5497009
5	0x3ebcda12	0.36885124
6	0xbf250776	-0.6446451
7	0x3ebe8ae5	0.37215343
8	0x3d840a12	0.06447233
9	0xbeaaac55	-0.33334604
10	0xbeb25ffa	-0.3483885
11	0xbe8a3850	-0.26996088
12	0x3e8719f4	0.26386988
13	0xbe44231b	-0.19154017
14	0x3eb66305	0.3562242
15	0xbe387923	-0.1801496
16	0xbeb79aae	-0.358602
17	0x3f204aa1	0.62613875
18	0xbe9c31c9	-0.30506733
19	0x3f1d142a	0.6135889
20	0x3f18a790	0.5963068
21	0x3e628653	0.22121553
22	0xbeaee4b4	-0.34158862
23	0xbf25f297	-0.6482329
24	0xbdd42fec	-0.10360703
25	0x3f4263b9	0.75933415
26	0x3e6ee125	0.23328073
27	0x3d9d905b	0.07693549
28	0x3ec03274	0.37538493
29	0xbed9f509	-0.4256976
30	0x3eda6e92	0.42662483
31	0xbe739d27	-0.23790418

running_var f4 [32]
0	0x3c77d548	0.015126534
1	0x3e22ccee	0.15898487
2	0x3e16a877	0.14712702
3	0x3d13e103	0.03610326
4	0x3df9be7f	0.12194537
5	0x3d73c484	0.059513584
6	0x3dcadbbf	0.099051945
7	0x3d9ac224	0.07556561
8	0x3e8cb328	0.27480435
9	0x3dcc077f	0.09962367
10	0x3d882e8d	0.06649504
11	0x3d34e615	0.044164736
12	0x3beac4be	0.007164567
13	0x3dd01bd0	0.10161555
14	0x3db86bfc	0.090049714
15	0x3dfdddff	0.12395858
16	0x3d592a74	0.053019002
17	0x3d91e19c	0.0712311
18	0x3de92a3a	0.11385007
19	0x3d1ac0f5	0.037781674
20	0x3dc0b4e1	0.094095
21	0x3e08efe8	0.13372767
22	0x3d0c26a4	0.034216538
23	0x3cab3126	0.02089746
24	0x3d87a170	0.06622589
25	0x3c9eed76	0.01940034
26	0x3e1f8bb0	0.1558063
27	0x3d85d9ea	0.065357044
28	0x3dd3923d	0.10330627
29	0x3db79478	0.08963865
30	0x3d8d691d	0.069048144
31	0x3de28e26	0.11062269

weight f4 [32, 3]
0	0xbf21c313	-0.63188285
1	0x3e3fd292	0.1873267
2	0x3ebfd7e0	0.37469387
3	0x3ea1cfc8	0.31603837
4	0xbe3ef403	-0.1864777
5	0xbd5aa9f3	-0.053384732
6	0x3f831b04	1.024262
7	0xbeffdfc7	-0.49975416
8	0x3e8bc5d2	0.27299362
9	0x3f8d99a4	1.1062512
10	0xb92217f2	-0.00015458444
11	0x396170c8	0.00021499686
12	0xbf1e111c	-0.61744857
13	0x3e6b12ea	0.22956434
14	0x3ee6639e	0.44997877
15	0x3ddf889d	0.10914729
16	0x3966a5fa	0.0002199634
17	0xbe307ee6	-0.17235908
18	0x3e8f099f	0.27937028
19	0xbe1f9de6	-0.15587577
20	0xbdbbe99f	-0.09175419
21	0x3eafd8cb	0.34345087
22	0xbebd5472	-0.3697849
23	0xbe0b253a	-0.1358842
24	0xbecad213	-0.396134
25	0x3e9b1d3c	0.30295742
26	0x3eb48fb9	0.35265902
27	0xbe43f2c5	-0.19135578
28	0x3e82c92c	0.25544107
29	0x3deba88c	0.11506757
30	0xbf5930b9	-0.8483997
31	0x3f049c60	0.5180111
32	0x3e69287d	0.22769351
33	0xbe35a203	-0.17737584
34	0x3eadb733	0.33928832
35	0xbebf3195	-0.37342516
36	0x3f20a4a7	0.6275124
37	0x3e81e440	0.25369453
38	0xbedb448d	-0.42825738
39	0xbda63d40	-0.08117151
40	0xbebda425	-0.37039295
41	0xbe727303	-0.23676686
42	0x3f1d97e9	0.6155992
43	0xbe84f5ea	-0.25968868
44	0xbe615bbc	-0.2200765
45	0xbdee7859	-0.11644048
46	0xbefd0f46	-0.49425715
47	0x3f017172	0.5056373
48	0x3f1f2db6	0.62179124
49	0xbe5d8973	-0.21634464
50	0xbe90fcad	-0.28317776
51	0x3e456505	0.19276817
52	0xbf1f9aa9	-0.6234537
53	0xbc312932	-0.010813044
54	0xbf334006	-0.70019567
55	0xbd857d4a	-0.065180376
56	0x3e6d525b	0.23175947
57	0x3f8283f0	1.0196514
58	0xbc1a10da	-0.009403432
59	0xbe7ef59c	-0.2489838
60	0x3eb739ba	0.3578623
61	0xbee59181	-0.44837573
62	0xbf07f372	-0.53105843
63	0xbf1e0ddb	-0.6173989
64	0xbefda3b5	-0.4953896
65	0x3db729f5	0.089435495
66	0xbf3a8e92	-0.72873795
67	0x3e72d86e	0.23715374
68	0x3e18cbfb	0.14921562
69	0xbe3dbf92	-0.1853011
70	0x3f0be777	0.5465006
71	0xbda57381	-0.08078671
72	0xbf842c68	-1.0326052
73	0xbe6d70c6	-0.23187551
74	0x3e415983	0.18881802
75	0x3f22cf3d	0.6359747
76	0x3e350dd4	0.17681056
77	0xbf062702	-0.5240327
78	0xbefd88e7	-0.4951851
79	0x3e97bcbf	0.2963619
80	0x3f163990	0.58681583
81	0xbd40f136	-0.047105037
82	0xbd544c8b	-0.05183081
83	0x3ef097eb	0.46990904
84	0xbdd769fd	-0.105182625
85	0x3f08896c	0.5333469
86	0xbe726f4a	-0.23675266
87	0xbdfc1a35	-0.12309686
88	0x3e808e3f	0.25108525
89	0x3daef38b	0.08542546
90	0xbf4e5a06	-0.80606115
91	0x3ef04ef8	0.46935248
92	0x3f011116	0.50416696
93	0x3f49cd51	0.7882891
94	0xbeeef2de	-0.46669668
95	0xbe80006c	-0.25000322

bias f4 [32]
0	0x3da23908	0.07921034
1	0x3efa9e2c	0.489488
2	0x3e8397fd	0.25701895
3	0x3d874c0b	0.06606301
4	0x3e919723	0.2843562
5	0x3e06d454	0.13166934
6	0xbe59a62b	-0.21254794
7	0xbef149ae	-0.47126526
8	0xbe22240b	-0.15834062
9	0xbeb3e589	-0.3513606
10	0xbebe8812	-0.37213188
11	0x3eab6edd	0.3348302
12	0xbec84fce	-0.39123386
13	0x3eb88aee	0.36043495
14	0xbdadcc91	-0.084862836
15	0xbf0b7434	-0.54474187
16	0x3f058fab	0.52172345
17	0x3e5fbbf9	0.2184905
18	0x3ee290cb	0.44251093
19	0x3e653f57	0.22387443
20	0xbe8f64d6	-0.2800662
21	0x3d64c13f	0.055848356
22	0x3eb7586e	0.35809654
23	0x3e81780a	0.25286895
24	0xbe89cb4c	-0.26912916
25	0x3ef21062	0.47278124
26	0xbe93c7a5	-0.28863254
27	0x3e9b22f1	0.30300096
28	0xbe666028	-0.22497618
29	0x3dd5720e	0.10422145
30	0x3e1d7ca1	0.15379573
31	0xbeafdcaf	-0.34348056

weight f4 [128, 32]
0	0x3dab6292	0.0836841
1	0x3c65c5cd	0.01402421
2	0x3df88106	0.12133984
3	0x3d9f15ab	0.07767805
4	0x3e0778dd	0.132297
5	0xb9751adc	-0.00023375027
6	0x3d175559	0.03694663
7	0xbb1b523e	-0.0023700143
8	0xbd5752cf	-0.052569207
9	0x3df33efe	0.11877249
10	0xbdf195eb	-0.11796173
11	0x3de11d51	0.1099192
12	0xbd7cb5eb	-0.061696928
13	0xbd03c35c	-0.03216873
14	0xbde6f9f0	-0.112781405
15	0xbe306e55	-0.17229588
16	0x3d5f038b	0.05444674
17	0x3d5b7a3f	0.05358338
18	0xbe3d5062	-0.18487695
19	0xbb7827eb	-0.003786559
20	0xbe1139c3	-0.1418219
21	0x3cd510ea	0.026009042
22	0xbe0e4bf8	-0.13896167
23	0x3d17c35e	0.03705155
24	0x3d676f3c	0.056502566
25	0x3e08149f	0.13289116
26	0xbe0df4f2	-0.1386297
27	0x3db03f18	0.08605784
28	0xbe1cde02	-0.15319064
29	0x3e0b43bb	0.13600056
30	0x3d305907	0.043053653
31	0xbdc79a21	-0.09746195
32	0x3dc33db3	0.095332526
33	0x3d768789	0.06018785
34	0xbda2182c	-0.07914767
35	0x3d2a4d72	0.041577764
36	0x3d5b9450	0.05360824
37	0xbd13a4cb	-0.03604583
38	0xbdd3455b	-0.10315963
39	0xbd691b48	-0.056910783
40	0x3e2e1310	0.1699946
41	0x3e105ae7	0.14097176
42	0xbdf07238	-0.117405355
43	0xbe23335c	-0.15937561
44	0x3e086c8b	0.13322656
45	0xbe2aa54b	-0.16664617
46	0xbe328991	-0.1743529
47	0x3e02c0ed	0.12768908
48	0x3dee694b	0.11641177
49	0xbe1a4497	-0.15065227
50	0xbd8f1067	-0.069855504
51	0x3d1ea65c	0.03873287
52	0x3cdf0510	0.027224094
53	0xbe25b9f0	-0.16184211
54	0xbd83d48d	-0.06437025
55	0xbd73a0d4	-0.05947955
56	0x3de6b3b0	0.112647414
57	0xbdb0ddfe	-0.08636092
58	0x3dbd0dfd	0.09231184
59	0xbc79ea46	-0.015253609
60	0xbdf41ebb	-0.11919924
61	0xbd0696ef	-0.032858785
62	0x3d556f64	0.052108184
63	0xbd0a6ee4	-0.03379716
64	0x3bc55fe2	0.006023393
65	0xbdc86aec	-0.09786019
66	0x3d7ff118	0.062485784
67	0x3e4a9f88	0.19787419
68	0x3d8fc935	0.07020799
69	0x3b0d7d35	0.0021589522
70	0xbe06465e	-0.1311278
71	0x3da99cbd	0.082818486
72	0xbd5c8d65	-0.05384578
73	0xbe3b69a1	-0.18302013
74	0x3dc31f94	0.095275074
75	0x3e1914a2	0.14949277
76	0xbcb3f05a	-0.021965194
77	0xbcbafdde	-0.022826131
78	0x3dfafd12	0.122553006
79	0x3e007f15	0.12548478
80	0x3e2dafd3	0.16961603
81	0x3e36433a	0.17799082
82	0x3e16a5ad	0.14711638
83	0xbe1aaf11	-0.15105845
84	0xbd4b459e	-0.04962694
85	0xbe0bd207	-0.13654338
86	0x3c97f52e	0.018549528
87	0x3d510c91	0.051037375
88	0xbd7bc277	-0.061464753
89	0x3dc1c03f	0.09460496
90	0xbd1c65d0	-0.038183033
91	0x3e15df3b	0.14635937
92	0x3da5be00	0.0809288
93	0x3ddbfdf2	0.107417956
94	0x3e143d57	0.14476524
95	0x3d99b1df	0.07504629
96	0x3db7104d	0.08938656
97	0xbd38a5e3	-0.045080077
98	0x3e2b5cbd	0.16734596
99	0xbe2591a6	-0.16168842
100	0xbe29d418	-0.16584814
101	0xbe17be27	-0.14818631
102	0xbe1e00a5	-0.15429933
103	0xbd9161aa	-0.07098706
104	0xbd9be1eb	-0.0761145
105	0x3dce2895	0.10066334
106	0xbd736ac4	-0.05942799
107	0x3c80c7e4	0.015720315
108	0xbd89e527	-0.067331605
109	0x3c1e5dd8	0.009665929
110	0xbdbe0f5d	-0.09280274
111	0xbdd69c2b	-0.104790054
112	0x3e0a40ca	0.13501278
113	0x3e0014c5	0.12507923
114	0x3e22fd9e	0.1591706
115	0x3d87d725	0.066328324
116	0x3c3ddaa7	0.011587775
117	0x3dae8504	0.085214645
118	0x3e1accd1	0.15117194
119	0x3da13c26	0.078728005
120	0x3c17240e	0.009224905
121	0xbe10248c	-0.14076442
122	0x3e191047	0.14947616
123	0x3d3379dd	0.04381739
124	0xbe055711	-0.13021494
125	0xbe2f7e94	-0.1713813
126	0xbd803f21	-0.06262041
127	0x3e213c13	0.15745573
128	0xbe022494	-0.12709266
129	0x3e03be4b	0.1286556
130	0x3e0ed3b4	0.13947946
131	0x3daa16e0	0.08305144
132	0xbd264c1f	-0.04059994
133	0xbd3bb34a	-0.04582528
134	0xbd665bb9	-0.056239817
135	0x3cf6229f	0.030045805
136	0x3dbc931c	0.092077464
137	0xbe3e8e3b	-0.18608944
138	0xbe0e131d	-0.13874479
139	0xbe1de4c2	-0.15419295
140	0x3d7c8d14	0.06165798
141	0x3d568b7e	0.052379124
142	0x3e028cc2	0.12749007
143	0xbe08ffab	-0.1337878
144	0xbe351301	-0.1768303
145	0xbdedb912	-0.11607565
146	0x3e215ec5	0.15758808
147	0xbdb396d5	-0.08769003
148	0xbda80231	-0.08203543
149	0x3e33452e	0.17506859
150	0x3d502a0d	0.050821353
151	0x3c473570	0.012158737
152	0x3bcb7df4	0.006210083
153	0xbe0fd696	-0.14046702
154	0xbe1b75bd	-0.15181632
155	0x3ccac9ef	0.024754493
156	0xbdf71b52	-0.12065758
157	0x3de0b8b2	0.10972728
158	0x3e1d4283	0.15357403
159	0x3d4297d4	0.047508076
160	0xbddb5fe9	-0.10711653
161	0x3daa3915	0.08311669
162	0x3e28a5fc	0.16469568
163	0x3e3b2767	0.1827675
164	0x3cc03bb7	0.023465974
165	0x3acffef4	0.0015868829
166	0x3b93f528	0.004515309
167	0xbd0660dc	-0.032807216
168	0xbd189ed1	-0.037260834
169	0x3c01b8d7	0.007917604
170	0xbde085ad	-0.10962997
171	0xbde374c8	-0.11106259
172	0x3d257ecb	0.040404122
173	0x3d158a21	0.036508683
174	0x3e10f504	0.14155966
175	0xbdedc38f	-0.116095655
176	0xbd502d03	-0.050824177
177	0x3df8ace6	0.12142353
178	0x3e1d18be	0.1534147
179	0x3d0a4387	0.033755805
180	0xbe2c0b88	-0.16801274
181	0x3d1956a4	0.037436143
182	0x3ba5e3fa	0.0050625773
183	0xbdfd5b51	-0.12370933
184	0xbdc10245	-0.09424261
185	0xbdf5cc42	-0.1200185
186	0x3e1061ad	0.1409976
187	0xbe0ddccf	-0.13853763
188	0xbdf9336d	-0.12168012
189	0x3e087df7	0.13329302
190	0xbc6e03fa	-0.014527315
191	0xbc4b2686	-0.012399321
192	0x3dfbcd1c	0.12294981
193	0xbcc12256	-0.023575943
194	0xbe240a8c	-0.16019648
195	0x3e2ec03a	0.17065516
196	0x3c85498c	0.016270421
197	0x3dcbb6ca	0.099469736
198	0xbda493c4	-0.080359966
199	0xbd4113fa	-0.04713819
200	0xbc96c381	-0.01840377
201	0x3d570fe8	0.052505404
202	0xbd555465	-0.052082438
203	0xbe06f21b	-0.13178293
204	0xb9c1a3c8	-0.00036933855
205	0xbdcfee69	-0.10152895
206	0xbd50ba8c	-0.050959155
207	0xbd8d46d5	-0.06898276
208	0xbdb9ac20	-0.09066033
209	0xbda7e5ce	-0.08198129
210	0x3d10fa48	0.035394937
211	0x3d93f64e	0.07224713
212	0xbb97865d	-0.0046241716
213	0x3dedb30a	0.116064146
214	0xbdee4bc0	-0.11635542
215	0xbe0e3e2c	-0.13890904
216	0x3d9b1f28	0.07574302
217	0xbdbd6bd2	-0.09249081
218	0xbc42ff1f	-0.011901646
219	0x3cc52d67	0.024069501
220	0x3d09315e	0.033494346
221	0xbdd92237	-0.10602229
222	0x3e033bf1	0.12815835
223	0x3dccf512	0.10007681
224	0xbde39abb	-0.11113497
225	0xbe082f22	-0.1329923
226	0xbd8743de	-0.066047415
227	0x3deecc9c	0.1166012
228	0x3d0b99c3	0.034082185
229	0xbd904440	-0.07044268
230	0xbe100d11	-0.14067484
231	0xbe18d8b1	-0.14926411
232	0xbda39535	-0.07987443
233	0xbdb59307	-0.08865934
234	0xbde260da	-0.11053629
235	0xbba7e39d	-0.005123569
236	0xbd83c393	-0.06433787
237	0xbda31650	-0.0796324
238	0xbb0b0248	-0.0021211077
239	0x3e1b0e82	0.15142253
240	0xbdb9cc34	-0.09072152
241	0xbe15abf7	-0.1461638
242	0xbde17202	-0.110080734
243	0x3d09ca5a	0.033640243
244	0x39a770b0	0.0003193668
245	0xbd65da34	-0.056116298
246	0x3ca2d8ce	0.019878771
247	0x3b92bccc	0.0044780727
248	0xbd9605a5	-0.07325295
249	0xbd7a2ab5	-0.061075885
250	0xbbef8988	-0.007310096
251	0xbb69223e	-0.0035573388
252	0xbdd13e18	-0.102169216
253	0x38ac52a0	8.216989e-05
254	0x3de59926	0.11210851
255	0x3e1e8dd1	0.15483786

bias f4 [128]
0	0xbc889490	-0.016672403
1	0x3e132d02	0.14372638
2	0x3d529f27	0.05142131
3	0xbd0dc5fb	-0.034612637
4	0xbdffc8a6	-0.124894425
5	0xbdb4b82a	-0.08824189
6	0xbe011f3e	-0.12609574
7	0xbe0cf415	-0.13764985
8	0xbcef80d1	-0.02923623
9	0xbddef83e	-0.10887192
10	0xbe23993e	-0.15976426
11	0x3d5ed425	0.054401536
12	0x3dee6fff	0.11642455
13	0x3d5efc6d	0.05443995
14	0xbc9ef2eb	-0.019402942
15	0xbcf0f5aa	-0.029414017
16	0xbce6a69d	-0.02815562
17	0x3ce6aa9e	0.028157528
18	0xbdf1fc69	-0.118157215
19	0xbdc5eaa1	-0.096638925
20	0x3e1e9663	0.15487055
21	0x3d739503	0.05946828
22	0xbd0b5f6b	-0.034026545
23	0xbdc5a93e	-0.09651421
24	0x3d7dab90	0.061931193
25	0x3e17a1b5	0.1480778
26	0xbd8b1d1f	-0.06792664
27	0x3dc71e6a	0.09722598
28	0xbc3c0178	-0.01147496
29	0xbba66095	-0.0050774314
30	0xbc81bfaf	-0.015838472
31	0x3e0b94e6	0.13631019
32	0xbd0c8522	-0.034306653
33	0xbe0c4cff	-0.13701247
34	0x3da9de08	0.08294302
35	0xbd8833d5	-0.06650511
36	0x3dff6978	0.124712884
37	0xbe209578	-0.15682018
38	0x3dc7b520	0.09751344
39	0x3e347630	0.1762321
40	0x3ded1553	0.11576333
41	0xbdb448a3	-0.08802917
42	0x3dbb503c	0.09146163
43	0xbc223a69	-0.009901621
44	0x3cf97884	0.030452974
45	0x3d6fbed7	0.05853161
46	0xbd57da3e	-0.052698366
47	0xbda3cb51	-0.07997764
48	0xbe18d680	-0.14925575
49	0x3c89f153	0.016838705
50	0x3dc13d6d	0.09435544
51	0x3de57522	0.11203982
52	0xbdcf1d81	-0.10113049
53	0xbd3ebe55	-0.046568234
54	0x3d849803	0.064743064
55	0x3e210b16	0.15726885
56	0x3e217561	0.15767433
57	0x3e089fc1	0.13342191
58	0xbe3e3e2a	-0.18578401
59	0x3d7d16a9	0.06178919
60	0xbb555006	-0.0032548918
61	0xbde9ccc7	-0.11416011
62	0xbd151836	-0.036400042
63	0xbdf0943f	-0.11747026
64	0x3d6aaa3a	0.057291247
65	0x3ca78801	0.020450594
66	0x3da72bc3	0.08162644
67	0xbd95a507	-0.07306867
68	0x3c62e3f3	0.013848293
69	0x3e0db72c	0.13839406
70	0x3d47b46e	0.048756056
71	0xbde3d5af	-0.11124741
72	0x3da709c2	0.08156158
73	0xbda805ac	-0.08204207
74	0x3d717caf	0.0589568
75	0xbe18e242	-0.1493006
76	0x3e0173e7	0.1264187
77	0xbe2cfd42	-0.16893485
78	0xbd2fe8ef	-0.042946752
79	0x3e0f0707	0.13967524
80	0xbdf5d3b6	-0.12003271
81	0xbe08dfa5	-0.13366564
82	0xbd4e85f9	-0.050420735
83	0x3d684e7c	0.056715474
84	0xbe15d802	-0.14633182
85	0x3dd74c94	0.10512653
86	0xbdcff95a	-0.10154982
87	0xbd4b6a67	-0.04966202
88	0x3dc505ad	0.09620223
89	0xbda7b872	-0.08189477
90	0x3d03f955	0.032220203
91	0xbe1e477f	-0.15456961
92	0x3e423530	0.18965602
93	0x3de47917	0.111559086
94	0xbd072ff4	-0.033004716
95	0xbd152bf1	-0.03641886
96	0xbbf558a4	-0.0074873734
97	0x3d960af5	0.07326309
98	0x3d19ea25	0.037576813
99	0x3cdf299f	0.027241526
100	0xbd663f6b	-0.056212824
101	0xbd548518	-0.05188474
102	0xbe07a0c5	-0.13244922
103	0xbe503652	-0.20333222
104	0x3d423b7a	0.047420003
105	0xbe040560	-0.12892675
106	0xbdf906f9	-0.12159533
107	0x3da87b2c	0.08226618
108	0xbd4c6e99	-0.04991016
109	0x3d67d96f	0.056603845
110	0xbe0a7490	-0.13521028
111	0xbdb5addf	-0.08871054
112	0x3d95ee37	0.073208265
113	0x3dc35e98	0.09539527
114	0x3dddec38	0.10836071
115	0xbde32927	-0.110918336
116	0xbde561ed	-0.112003185
117	0xbcb95e6b	-0.02262803
118	0x3bb3971c	0.00548066
119	0x3dbaa240	0.09112978
120	0x3dcb7737	0.09934848
121	0xbdb1fafb	-0.08690449
122	0xbe2e7f32	-0.17040709
123	0x3d8a212e	0.0674461
124	0x3df30d35	0.118677534
125	0xbbdf7273	-0.0068190633
126	0xbd412b42	-0.047160394
127	0x3e14c3b5	0.14527781

weight f4 [32]
0	0x3f78d332	0.9719726
1	0x3f73991a	0.9515549
2	0x3f77333a	0.9656254
3	0x3f8ddfa9	1.1083881
4	0x3f73e6e8	0.9527421
5	0x3f7a4c82	0.9777299
6	0x3f703881	0.9383622
7	0x3f80f902	1.0075991
8	0x3f74d0ae	0.9563092
9	0x3f73e665	0.9527343
10	0x3f7c1acd	0.98478395
11	0x3f6dafa1	0.92846113
12	0x3f7cfd1a	0.988237
13	0x3f77d004	0.9680178
14	0x3f772a16	0.96548593
15	0x3f6df808	0.9295659
16	0x3f774a07	0.9659733
17	0x3f768930	0.9630308
18	0x3f7bb2cb	0.9831969
19	0x3f72eaab	0.94889325
20	0x3f82589b	1.018329
21	0x3f74d944	0.9564402
22	0x3f818249	1.0117885
23	0x3f7b0e7d	0.9806898
24	0x3f792ff2	0.97338784
25	0x3f7294ed	0.9475849
26	0x3f7eeef9	0.99583393
27	0x3f80fd57	1.0077313
28	0x3f7cec2a	0.9879786
29	0x3f7ca97b	0.98696107
30	0x3f749dd1	0.9555331
31	0x3f8141d7	1.0098218

bias f4 [32]
0	0x3c07311e	0.008251457
1	0xbd1e9043	-0.038711797
2	0xbd1e434d	-0.0386384
3	0x3e8aac8e	0.27084774
4	0xbd6abc4b	-0.057308476
5	0x3c150bf8	0.009097092
6	0x3befb039	0.0073147085
7	0x3d1d65fd	0.03842734
8	0xbd1264b3	-0.035740566
9	0xbd12d833	-0.035850715
10	0x3c839165	0.01606054
11	0xbd439ac4	-0.047755018
12	0x3a0d1b23	0.0005382767
13	0x3cc062c5	0.023484597
14	0x3c95a641	0.018267753
15	0xbdc273be	-0.09494732
16	0x3b58a4f2	0.00330573
17	0xbcc061e3	-0.023484176
18	0xbcf17938	-0.029476747
19	0xbc62c073	-0.013839829
20	0x3c8530b8	0.016258582
21	0x3bc2b6a7	0.005942184
22	0x3cdcd5c0	0.026957393
23	0xbc618558	-0.013764702
24	0xbd05c1e7	-0.032655623
25	0xbd16b304	-0.036791816
26	0xbb3779e7	-0.0027996243
27	0xbca138dc	-0.019680433
28	0xbc52c205	-0.012863641
29	0x3cd1efb7	0.025627
30	0xbcb31654	-0.021861233
31	0x3d2f2742	0.04276205

running_mean f4 [32]
0	0x3f931bba	1.1492836
1	0x3f9ee61a	1.2413971
2	0x4093e21a	4.6213503
3	0x3d87ac4a	0.066246584
4	0x3fc65954	1.5496011
5	0xbf590355	-0.8477071
6	0x3e133a47	0.143777
7	0x3f568d16	0.8380903
8	0x3e0ef223	0.13959555
9	0xbf915732	-1.1354735
10	0xbfff4e6c	-1.9945807
11	0xc06c96dc	-3.6967077
12	0xc08813ae	-4.2524023
13	0x3f8d2560	1.1027031
14	0x3e01d805	0.12680061
15	0x40a38756	5.1102705
16	0x3e07efb5	0.13275035
17	0x406ae091	3.6699564
18	0x400812b6	2.126142
19	0xbf9196a6	-1.1374099
20	0xbf45a678	-0.77207136
21	0x405697d7	3.3530176
22	0xbe0426f1	-0.1290548
23	0xc0521b74	-3.2829256
24	0x4006f7eb	2.1088817
25	0xc05ff91b	-3.4995792
26	0x3fb046a4	1.3771558
27	0x4050e997	3.2642572
28	0xc09252b2	-4.5725946
29	0xbf52de71	-0.8237067
30	0x3ebf7c8e	0.37399715
31	0x3f5cdd48	0.8627515

running_var f4 [32]
0	0x417d7247	15.8404
1	0x40361dad	2.8455613
2	0x414802db	12.500697
3	0x38345d4a	4.3002226e-05
4	0x41b8c996	23.09843
5	0x400496b2	2.0716977
6	0x403627bf	2.846176
7	0x4144cf5e	12.300627
8	0x41a173c9	20.181536
9	0x40cf771d	6.48329
10	0x41d28605	26.31544
11	0x41183119	9.511987
12	0x4128e8e8	10.556862
13	0x4188735f	17.056334
14	0x412a1879	10.630975
15	0x41938021	18.437563
16	0x413d75b5	11.841237
17	0x41bd6e7c	23.678947
18	0x4049cb85	3.1530468
19	0x408ee3d3	4.4653106
20	0x42346ac6	45.10427
21	0x414c3d22	12.764925
22	0x40dd2594	6.910837
23	0x417dcdc5	15.862737
24	0x404ff39b	3.2492435
25	0x417d70b0	15.840012
26	0x421c4993	39.07185
27	0x41634d72	14.206408
28	0x415da8ce	13.853712
29	0x40afaca2	5.4898233
30	0x4230ebb9	44.230198
31	0x41bfb1c7	23.961805

weight f4 [32, 136]
0	0x3d94432b	0.07239374
1	0xbda75ffa	-0.08172603
2	0x3db225cc	0.086986154
3	0xbb0e8545	-0.0021746915
4	0xbcbfe48d	-0.023424411
5	0x3d87453b	0.066050015
6	0xbc66fe7e	-0.014098762
7	0x3d4f263a	0.050573565
8	0xbd7af969	-0.061273012
9	0xbdd9f398	-0.10642165
10	0x3af76ee8	0.0018877657
11	0x3d397659	0.04527888
12	0xbd347a3e	-0.04406189
13	0x3c8ae402	0.016954426
14	0xbc96eed1	-0.018424423
15	0xbc5aaeba	-0.013347322
16	0xbc8d9132	-0.017281149
17	0xbdab0eda	-0.08352442
18	0xbd78305d	-0.060592998
19	0x3cbef46c	0.023309909
20	0xbb4a7ee7	-0.0030898394
21	0x3cec7b69	0.02886744
22	0x3d1bae57	0.03800806
23	0xbc5bbab1	-0.01341121
24	0xbd842700	-0.06452751
25	0x3d3a26b8	0.04544708
26	0x3cd779d9	0.026303219
27	0x3c55e203	0.013054374
28	0x3d4bdd1d	0.049771417
29	0xbd2690e1	-0.04066551
30	0xbd1e4e96	-0.038649164
31	0x3d1da41a	0.038486578
32	0xbd8455c2	-0.064616695
33	0x3bff53c7	0.0077919695
34	0xbc66c2da	-0.014084542
35	0xbd4f907e	-0.050674908
36	0xbd39e3f7	-0.04538342
37	0xbc72096c	-0.014772754
38	0x3d142e67	0.036177065
39	0xbd90b266	-0.07065277
40	0x3da08ceb	0.07839378
41	0xbd0d3509	-0.034474406
42	0x3da6ddd7	0.08147781
43	0xb9d9b17e	-0.00041521707
44	0x3c84d53a	0.016214956
45	0xbd9e4c69	-0.07729418
46	0xbd2dbb38	-0.042414874
47	0xbd634624	-0.055486813
48	0x3d681142	0.056657083
49	0xbdb4a6fc	-0.08820912
50	0xbbbbf428	-0.005735893
51	0x3d4149d9	0.047189567
52	0xbda34efa	-0.07974048
53	0xbd0e694d	-0.03476839
54	0x3c9a3978	0.018826231
55	0x3d83bc70	0.06432426
56	0x3d9c476a	0.07630809
57	0x3a8dcc16	0.0010818269
58	0x3a5f5730	0.0008519767
59	0x3d807125	0.062715806
60	0xbbb9faac	-0.0056756344
61	0x3b8133dc	0.0039429497
62	0xbd59b95b	-0.053155284
63	0xbd352e2c	-0.044233486
64	0x3d3c869b	0.046026807
65	0xbcc2898d	-0.02374723
66	0xbd10aa16	-0.035318457
67	0x3d9d84f2	0.07691373
68	0xbc317f87	-0.010833628
69	0xbd840216	-0.0644571
70	0xbc5fa0b2	-0.013649153
71	0x3da43701	0.08018304
72	0x3d406f2e	0.04698103
73	0x3cfc653b	0.03080999
74	0xbd03b15f	-0.032151576
75	0xbd984ced	-0.074365474
76	0x3c27a59e	0.010232357
77	0x3c68c0a6	0.014206087
78	0x3d0e8ba2	0.034801133
79	0x3c46e45b	0.012139405
80	0x3d037317	0.03209218
81	0x3d9f56a4	0.07780197
82	0xbd440420	-0.047855496
83	0x3ceeeeac	0.029166542
84	0xbd7cca67	-0.061716463
85	0x3d3621e1	0.044465903
86	0xbcb8f9b5	-0.022580007
87	0x3dba5fe2	0.091003194
88	0x3ced4e17	0.0289679
89	0xbd9ef7b6	-0.07762091
90	0x3c616be6	0.013758635
91	0xbdc450c1	-0.09585715
92	0x3d5b59dd	0.053552497
93	0x3d4f0cfd	0.050549496
94	0x3da7b5de	0.08188985
95	0x3d9241c3	0.07141449
96	0xbd7ff49e	-0.062489145
97	0xbccb27fb	-0.024799338
98	0x3d8982da	0.06714411
99	0x3cac1ce2	0.021009866
100	0x3d815605	0.06315235
101	0x3dc533c2	0.09629013
102	0x3d48bdba	0.049009062
103	0x3d75eabe	0.06003832
104	0x3cd4727f	0.025933502
105	0xbdbc9700	-0.092084885
106	0xbd600d03	-0.05469991
107	0xbd393b47	-0.045222547
108	0x3d9c3d17	0.076288395
109	0xbdad9d6e	-0.08477293
110	0x3da90a3c	0.08253905
111	0xbd17c793	-0.037055563
112	0xbc6c4507	-0.014420754
113	0xbd240e5f	-0.040052768
114	0x3d30238f	0.04300266
115	0xbca49f2a	-0.020095427
116	0x3ac336a4	0.0014893604
117	0xbcfe0bb8	-0.031011447
118	0x3da42746	0.08015303
119	0x3cc60a00	0.02417469
120	0x3d4106e3	0.04712571
121	0x3ce3c848	0.027805462
122	0xbbd0514c	-0.0063573476
123	0x3d375a51	0.044763867
124	0x3cd1167b	0.025523415
125	0x3d9432d6	0.07236259
126	0x3db9793d	0.090563275
127	0xbd735f81	-0.05941725
128	0xbd2fd9ae	-0.042932205
129	0x3d0c0fa4	0.034194604
130	0xbdbf34da	-0.093362525
131	0xbabdd4c5	-0.0014482966
132	0xbd1320bc	-0.03591989
133	0x3d26b510	0.04070002
134	0x3c4209c2	0.011843147
135	0x3c88da18	0.016705558
136	0xbb5e5e93	-0.0033930882
137	0xbda80e34	-0.08205834
138	0xbd306290	-0.043062747
139	0x3da0e9ae	0.07857071
140	0x3ae66593	0.0017577879
141	0x3c5866a1	0.013208062
142	0xbc0fa800	-0.008768082
143	0x3d720cb0	0.05909413
144	0xbd9d9570	-0.076945186
145	0xbd85be00	-0.0653038
146	0xbd56746c	-0.052357122
147	0x3d5d6300	0.054049492
148	0x3d1ca125	0.038239617
149	0xbc019526	-0.007909095
150	0xbd01c3bc	-0.031680807
151	0xbd82abed	-0.063804485
152	0xbd47b81f	-0.048759576
153	0x3c5fdf36	0.0136640575
154	0xbcb09374	-0.021554686
155	0x3d644e53	0.05573876
156	0x3c6cc983	0.014452341
157	0x3ca8d19c	0.020607762
158	0xbc866803	-0.016407019
159	0x3d784ead	0.060621906
160	0xbdc2b553	-0.09507241
161	0xbd351bc3	-0.04421593
162	0xbda7616c	-0.081728786
163	0x3c93aff8	0.018028244
164	0xbd551a35	-0.052026946
165	0x3c50fb54	0.012755234
166	0x3dc03454	0.09384981
167	0x3c86a399	0.016435431
168	0x3be9913b	0.0071279085
169	0x3dab52d7	0.0836541
170	0xbd7206b6	-0.05908843
171	0x3d5894a6	0.052876137
172	0xbd4e8d31	-0.05042762
173	0xbc9594ae	-0.018259373
174	0x3d8744cc	0.06604919
175	0xbd8fc645	-0.07020239
176	0x3d9087f6	0.070571825
177	0x3d706da4	0.05869831
178	0x3c7bd553	0.015370685
179	0x3d3a0419	0.045414064
180	0x3d317fb4	0.043334678
181	0x3d995354	0.07486597
182	0xbd9e1500	-0.07718849
183	0xbd7c1ce3	-0.061550986
184	0xbc61b79a	-0.013776684
185	0xbccf7ca6	-0.025327992
186	0x3bb6f1eb	0.005583038
187	0xbd98b405	-0.07456211
188	0x3c8c242a	0.017107088
189	0x3babf14b	0.00524727
190	0xbd61fa1c	-0.055170164
191	0xbae6d5a0	-0.0017611273
192	0xbd645749	-0.055747304
193	0x3d2ce97b	0.04221485
194	0x3d6aa3be	0.057285063
195	0x3d885e45	0.066586055
196	0xbdabb1fe	-0.08383559
197	0xbd7e4cd4	-0.062084988
198	0x3d9aee1d	0.07564948
199	0x3d93182e	0.07182346
200	0x3d0788c1	0.033089403
201	0xbc70cf59	-0.014697873
202	0xbb3f94ba	-0.0029232935
203	0x3d0c7527	0.034291413
204	0x3db41834	0.08793679
205	0xbc07f803	-0.008298877
206	0xbc0e357c	-0.008679744
207	0x3bc6489b	0.0060511357
208	0xbbf2bc89	-0.007407729
209	0xbd39d5c9	-0.045369897
210	0x3da5b0e6	0.08090381
211	0xbd5add33	-0.05343361
212	0x3dc513bc	0.09622905
213	0x3db9c779	0.090712495
214	0xbd4d8755	-0.05017789
215	0xbd909fdc	-0.07061741
216	0xbd5ed7ef	-0.05440515
217	0x3c8e5ff4	0.017379738
218	0x3cc78fbb	0.024360528
219	0x3ccfcac0	0.025365233
220	0x3d2bcc5a	0.04194293
221	0xbd18b90e	-0.037285857
222	0xbdbf3be9	-0.09337599
223	0x3d248710	0.04016787
224	0x3cc804b4	0.024416305
225	0xbda425d7	-0.0801503
226	0xbdc5be24	-0.09655407
227	0xbc86232c	-0.016374193
228	0x3c5ba825	0.013406788
229	0xbda8bf9f	-0.08239674
230	0x3c619379	0.01376807
231	0xbd076d51	-0.033063237
232	0xbd618555	-0.055058796
233	0x3bc86984	0.006116094
234	0x3d40e2ec	0.04709141
235	0xbd1cb658	-0.038259834
236	0xbc7653bc	-0.015034612
237	0x3d432e07	0.047651317
238	0xbd651504	-0.055928245
239	0xbd255189	-0.04036096
240	0xbd8d1d47	-0.0689035
241	0x3d8e90f5	0.06961242
242	0x3d6a2876	0.057167493
243	0x3d139097	0.036026563
244	0x3da2d94b	0.079516016
245	0xbab06b4b	-0.001345971
246	0xbd0fdfa2	-0.035125382
247	0x3d6fcae9	0.05854312
248	0xbc33fdbf	-0.010985791
249	0xbc8f3a41	-0.017483832
250	0xbb8b0b10	-0.004243262
251	0xbd37366b	-0.04472963
252	0x3a479f9e	0.00076150324
253	0xbd1ecd40	-0.03876996
254	0xbd2ea082	-0.04263354
255	0x3d10713e	0.035264246

bias f4 [32]
0	0x3d4c7678	0.049917668
1	0x3d414556	0.047185265
2	0xbc8669a1	-0.01640779
3	0xbda1da7b	-0.07903
4	0xbdae5141	-0.08511592
5	0xbce1a1d1	-0.02754298
6	0xbceabfb9	-0.028655874
7	0x3b261e58	0.0025347676
8	0xbd1a4919	-0.037667368
9	0x3d242c45	0.04008128
10	0x3d33bdad	0.04388206
11	0xbd44cb6d	-0.048045564
12	0x3d9dc277	0.07703107
13	0x3c6b2d78	0.014354102
14	0x3d8d7e85	0.06908897
15	0x3cb3c45a	0.021944214
16	0xbc5ce1ed	-0.013481599
17	0x3d39acd1	0.045330826
18	0x3d59f113	0.053208422
19	0xbd33d30e	-0.04390245
20	0x3d90bbfb	0.070671044
21	0xbca36a58	-0.01994817
22	0xbd60b980	-0.054864407
23	0xbdae9fa9	-0.085265465
24	0xbcd06e5e	-0.025443252
25	0x3d7851b4	0.060624793
26	0x3db22b37	0.08699649
27	0xbbb97f5b	-0.005660934
28	0xbb323a2f	-0.0027195325
29	0x3d057061	0.032577876
30	0x3d9cfca4	0.07665375
31	0xbce24a72	-0.027623389

weight f4 [8, 32]
0	0xbdd3bb32	-0.10338439
1	0x3da99c61	0.0828178
2	0xbca42344	-0.020036347
3	0xbe0d8010	-0.13818383
4	0xbca99de5	-0.020705173
5	0x3ddaa3e3	0.1067579
6	0x3ce04389	0.027375953
7	0xbdd5780f	-0.1042329
8	0x3e3187c0	0.17336941
9	0xbdb48ad2	-0.088155404
10	0xbdb47a55	-0.088123955
11	0x3e2b34a9	0.16719307
12	0x3c1257b6	0.008932045
13	0xbc89e00b	-0.016830465
14	0xbbf9e3bd	-0.0076260255
15	0xbdfe79e7	-0.12425595
16	0xbe3ee5cb	-0.18642347
17	0x3dca3dc0	0.09875059
18	0x3d301536	0.04298898
19	0xbda9a952	-0.082842484
20	0x3bccb69b	0.006247354
21	0xbca1210d	-0.01966908
22	0xbba93ff4	-0.0051650945
23	0xbdfcb768	-0.123396695
24	0x3de61f75	0.11236469
25	0x3dff9a42	0.12480594
26	0xbc9861a3	-0.018601244
27	0x3e35d0b6	0.17755398
28	0x3dd4551d	0.103677966
29	0xbe18d726	-0.14925823
30	0x3d546633	0.051855277
31	0xbc6567cc	-0.014001798
32	0x3e5dea26	0.21671352
33	0x3dc6ee25	0.09713391
34	0x3cf5ab9b	0.029989054
35	0xbdb56bb6	-0.08858435
36	0xbc21be65	-0.009872054
37	0xbd570b8d	-0.05250125
38	0x3d6679dc	0.056268558
39	0x3dcf1b95	0.10112683
40	0xbdf4d516	-0.119547054
41	0x3d011088	0.031509906
42	0xbcbf5fa8	-0.023361042
43	0xbe1fb8c5	-0.15597828
44	0x3e15d3ba	0.14631549
45	0x3e0f3fc3	0.13989167
46	0x3d0f17d9	0.034934852
47	0x3ddfd9fe	0.109302506
48	0x3dd05435	0.10172311
49	0xbdc0f93e	-0.09422539
50	0x3d1038da	0.035210468
51	0x3e221bfe	0.1583099
52	0xbd1c99c1	-0.03823257
53	0xbddc84b2	-0.10767497
54	0xbe3fa19d	-0.18713994
55	0xbd505bc4	-0.050868765
56	0x3d83c671	0.06434334
57	0x3d9f135d	0.07767365
58	0x3cad45bd	0.021151418
59	0xbc27fb44	-0.0102527775
60	0x3e051d2d	0.12999411
61	0xbc7c5fe2	-0.01540372
62	0xbdfa40da	-0.12219401
63	0x3dce3c8b	0.100701414
64	0x3e259c33	0.16172867
65	0x3dc359f5	0.09538642
66	0xbe29adc7	-0.16570197
67	0x3e31969b	0.17342608
68	0xbd17a018	-0.03701791
69	0xbe0e0ff7	-0.13873278
70	0xbd9b7555	-0.07590739
71	0x3e1abd25	0.15111215
72	0x3d3e0595	0.046392042
73	0xbddc8c87	-0.10768991
74	0xbd813bb2	-0.06310214
75	0x3d8a3531	0.06748427
76	0xbdaa76f0	-0.08323467
77	0x3e20b85b	0.15695326
78	0x3d9bd45b	0.07608863
79	0xbd4fd7e1	-0.050742988
80	0x3da590f0	0.08084285
81	0xbd0ffc84	-0.035152927
82	0xbd4921b5	-0.04910441
83	0x3dad5629	0.08463699
84	0x3dbda368	0.09259683
85	0x3dd99325	0.10623769
86	0x3dc61846	0.096725985
87	0xbda5bf20	-0.08093095
88	0x3b9eaa7b	0.0048421
89	0x3d962ae0	0.073323965
90	0xbd9d8290	-0.076909184
91	0xbda6c0b1	-0.08142222
92	0xbd1bf0c7	-0.03807142
93	0xbe097409	-0.1342317
94	0xbbc9690c	-0.0061465558
95	0x3dd0577a	0.10172935
96	0x3e2d2d47	0.16911803
97	0x3dcdce80	0.100491524
98	0xbe353a6f	-0.17698072
99	0x3df671f5	0.12033454
100	0xbdb1fe49	-0.08691079
101	0xbdbf2532	-0.09333266
102	0x3d23c498	0.03998241
103	0x3e1c7829	0.15280212
104	0x3de00b5c	0.10939667
105	0xbc24c702	-0.010057213
106	0x3d6dd9eb	0.05806915
107	0xbd5ded65	-0.054181475
108	0xbe01732d	-0.12641592
109	0xbd34fb4f	-0.04418498
110	0xbe241af1	-0.16025902
111	0x3d2ad68b	0.04170851
112	0xbdf01571	-0.117228396
113	0x3e2f476b	0.17117088
114	0x3c337cf6	0.010955086
115	0xbe2d2b80	-0.16911125
116	0xbd1416e2	-0.036154635
117	0x3ddc0158	0.10742444
118	0x3d604017	0.05474862
119	0xbcc79c13	-0.024366414
120	0xbde1ae8d	-0.11019621
121	0xbdb52f2b	-0.08846887
122	0x3cfb7a0c	0.030697845
123	0x3cac18eb	0.021007976
124	0x3d0c399c	0.034234628
125	0xbd8a3716	-0.06748788
126	0xbdb4bc66	-0.08824997
127	0x3d98fe9e	0.074704394
128	0x3e272d42	0.16325858
129	0xbe0728ab	-0.13199107
130	0x3da87e52	0.08227219
131	0x3db49a9c	0.08818552
132	0x3e2ec8fd	0.17068858
133	0x3e33be3c	0.17553037
134	0x3c309e9c	0.010780003
135	0x3dfb9fe4	0.12286356
136	0xbe060824	-0.13089043
137	0xbe12b91c	-0.14328426
138	0xbd8652cc	-0.06558761
139	0xbd01ac8b	-0.03165869
140	0x3c29015b	0.010315265
141	0xb9d3995b	-0.00040359315
142	0x3decb39a	0.11557694
143	0xbdd7c050	-0.105347276
144	0x3c8d85dc	0.017275743
145	0x3e2f2ad0	0.17106175
146	0xbd9b6359	-0.075873084
147	0xbd8f7c0d	-0.07006083
148	0x3d41b8a3	0.047295224
149	0x3d6bc0ac	0.057556793
150	0xbe31d9d0	-0.17368245
151	0xbe0ba3fa	-0.13636771
152	0xbe1d41d3	-0.15357141
153	0x3dd382a4	0.10327652
154	0xbc0cc717	-0.008592389
155	0xbe2e4519	-0.17018546
156	0xbb896e11	-0.004194029
157	0xbe131bcf	-0.14366077
158	0xbd8d8997	-0.06911009
159	0x3dda272f	0.10652005
160	0xbe14fea0	-0.14550257
161	0xbd2d3df9	-0.04229543
162	0xbdebe9ca	-0.11519201
163	0x3c2f90f3	0.010715711
164	0x3de374f6	0.11106293
165	0xbe045ef3	-0.12926845
166	0x3cc5cbef	0.024145095
167	0xbbb53ee4	-0.005531179
168	0xbe19da8f	-0.1502478
169	0x3e2408be	0.1601896
170	0x3e292d68	0.16521227
171	0x3c42b675	0.011884321
172	0xbe35941d	-0.17732282
173	0x3e29730a	0.1654779
174	0xbc329f99	-0.010902309
175	0x3dc4bc40	0.09606218
176	0x3e281329	0.16413559
177	0xbe08f997	-0.13376461
178	0x3d44157b	0.047872048
179	0xbcdc1352	-0.026864681
180	0x3dd69fbb	0.10479685
181	0xbd36bb5f	-0.044612285
182	0xbdf17afa	-0.11791034
183	0x3e28d9fe	0.16489407
184	0xbe3fb5fd	-0.18721767
185	0x3d93d23f	0.07217836
186	0xbe3e3c3f	-0.1857767
187	0xbe2e9e55	-0.17052586
188	0x3d9a2a2e	0.075275764
189	0x3dd8b17c	0.105807275
190	0xbda99384	-0.082800895
191	0xbe25ffb2	-0.16210821
192	0xbe0e2f2d	-0.13885184
193	0x3e3b2992	0.18277577
194	0x3d45d97b	0.04830311
195	0xbd033426	-0.032032155
196	0xbc9aafe8	-0.018882707
197	0xbe0bfb45	-0.1367007
198	0x3c941826	0.018077921
199	0xbe0aa86c	-0.1354081
200	0xbe16e8eb	-0.14737289
201	0xbc62b805	-0.013837819
202	0xbe309fc8	-0.17248452
203	0xbe14754a	-0.14497867
204	0x3da61972	0.08110322
205	0xbd882d16	-0.066492245
206	0xbd983237	-0.07431453
207	0xbcd44605	-0.025912294
208	0x3d90a1bc	0.070620984
209	0xbc5d9330	-0.013523862
210	0x3db5c098	0.08874625
211	0x3de2d66c	0.11076054
212	0x3dd913b2	0.1059946
213	0xbe0c9712	-0.13729504
214	0x3e4827b8	0.19546402
215	0x3e31a00d	0.17346211
216	0x3d308584	0.04309608
217	0xbdde1a36	-0.10844843
218	0xb93fa89a	-0.00018277988
219	0xbe1e4302	-0.15455249
220	0x3e3fe1e0	0.18738508
221	0x3b916e11	0.0044381698
222	0x3dee20b1	0.11627329
223	0x3d13aa7b	0.036051255
224	0xbd22145d	-0.0395702
225	0xbdc0227a	-0.09381576
226	0xbe1ba684	-0.1520024
227	0x3dfc9634	0.123333365
228	0xbd1052a0	-0.035235047
229	0xbdd0f9e8	-0.10203916
230	0xbe20241c	-0.15638775
231	0x3a1d19a2	0.00059928943
232	0xbdd9434c	-0.10608539
233	0x3e17f095	0.14837869
234	0x3e19b319	0.15009727
235	0xbde9a4bc	-0.11408374
236	0xbd9b69e2	-0.07588555
237	0x3b5f173c	0.0034040948
238	0x3ddfe0c7	0.10931545
239	0x3c844117	0.016144319
240	0x3e46ceb2	0.19414786
241	0x3e1d56b5	0.15365107
242	0x3d26e0cf	0.040741738
243	0xbd044392	-0.032291003
244	0xbde4d9cb	-0.11174353
245	0x3ce9b4f6	0.028528672
246	0x3cb09e77	0.021559937
247	0x3d61525f	0.055010196
248	0xbdfcb2ee	-0.12338816
249	0xbe18c6bc	-0.14919561
250	0x3c06bad5	0.008223255
251	0x3de06b37	0.109579496
252	0xbdf68ec9	-0.12038953
253	0xbd7b6140	-0.06137204
254	0x3d5b4880	0.05353594
255	0xbe3090e3	-0.1724277

bias f4 [8]
0	0x3d610092	0.054932185
1	0xbd2eff54	-0.04272397
2	0x3e2b5836	0.16732869
3	0xbce8ce6c	-0.028418742
4	0xbdbb4414	-0.09143844
5	0x3c35a187	0.011085874
6	0xbdb5de7f	-0.088803284
7	0x3de15f02	0.110044494

weight f4 [32]
0	0x3f843f09	1.0331737
1	0x3f826b1e	1.018894
2	0x3f80a203	1.0049442
3	0x3f7a01ae	0.97658813
4	0x3f7fe444	0.9995768
5	0x3f811c87	1.0086831
6	0x3f7f74c2	0.99787533
7	0x3f7f3e7d	0.99704725
8	0x3f7feb80	0.9996872
9	0x3f80669f	1.0031317
10	0x3f839c80	1.0282135
11	0x3f809d41	1.004799
12	0x3f82f852	1.0232031
13	0x3f814589	1.0099345
14	0x3f7ec46b	0.9951846
15	0x3f7ed1c9	0.99538857
16	0x3f83df3f	1.0302504
17	0x3f815cdc	1.0106463
18	0x3f7db8b1	0.9910994
19	0x3f7e8689	0.99424034
20	0x3f779fd5	0.9672826
21	0x3f7ac55c	0.97957397
22	0x3f851f66	1.0400207
23	0x3f7c9798	0.98668814
24	0x3f82202a	1.0166066
25	0x3f80f346	1.0074241
26	0x3f825b51	1.0184118
27	0x3f7d0481	0.98835
28	0x3f818df2	1.0121443
29	0x3f7e8e2f	0.99435705
30	0x3f841451	1.03187
31	0x3f7a27ca	0.97716963

bias f4 [32]
0	0xb92ef9f6	-0.00016687051
1	0x3d07c976	0.033151112
2	0x3b94ade8	0.004537333
3	0xbc808114	-0.01568655
4	0x3c82fcc9	0.015989678
5	0x3b6373cc	0.0034706471
6	0xbbfc33b5	-0.0076965936
7	0xbcac2042	-0.021011475
8	0x3c50600a	0.01271821
9	0xbb0070d4	-0.00195985
10	0x3cfa4161	0.030548753
11	0xbb64bb0a	-0.0034901523
12	0x3d5fc11b	0.05462752
13	0x3d0c9d28	0.034329563
14	0xbb268955	-0.0025411446
15	0xbc6d5aeb	-0.014487009
16	0x3cce30f4	0.025169827
17	0xbc0f352b	-0.008740704
18	0xbc83bf60	-0.016082466
19	0xbc94e495	-0.018175403
20	0xbcfa010d	-0.03051808
21	0xbcc56268	-0.024094775
22	0x3c697025	0.014247929
23	0xbcfe4d4d	-0.03104272
24	0x3d27d6ff	0.04097652
25	0x3cd05664	0.02543182
26	0x3d1b49a6	0.037912033
27	0xbc04d6ea	-0.00810788
28	0x3bdfca3b	0.0068295277
29	0x3c0cdf24	0.008598123
30	0x3d588636	0.05286237
31	0x3c4cbb79	0.012495869

running_mean f4 [32]
0	0xbf1df711	-0.6170512
1	0xbd9757f4	-0.073898226
2	0xbf1b4761	-0.6065579
3	0x3d94e8bf	0.07270955
4	0x3e128d19	0.14311637
5	0xbdef5a9e	-0.11687206
6	0x3c56dcd9	0.013114178
7	0xbe68970e	-0.22713873
8	0xbde89fd8	-0.11358613
9	0xbec618d2	-0.3869081
10	0xbe9b543a	-0.30337697
11	0x3e2b2fc8	0.16717446
12	0xbf1600d2	-0.58595
13	0xbef6c1b1	-0.4819465
14	0x3dca8c21	0.09890009
15	0xbe338c28	-0.17533934
16	0xbe81eb0b	-0.25374636
17	0x3d987569	0.07444269
18	0x3edfbdb0	0.43699408
19	0x3c3dba9d	0.011580137
20	0xbe709458	-0.23494089
21	0xbebd27f1	-0.36944535
22	0xbc1e155e	-0.009648649
23	0x3e476915	0.1947368
24	0xbe8680fa	-0.26270276
25	0x3ea88982	0.3291741
26	0xbe1abfe8	-0.15112269
27	0xbf0d725e	-0.55252635
28	0xbe5ae66b	-0.2137696
29	0xbd8c11cf	-0.06839334
30	0xbd1d16cc	-0.03835182
31	0xbeff1e05	-0.4982759

running_var f4 [32]
0	0x3d78983b	0.060692053
1	0x3e4517f4	0.19247419
2	0x3e3e4424	0.18580681
3	0x3e6328d5	0.22183545
4	0x3d93d60e	0.07218562
5	0x3dce7ae4	0.10082033
6	0x3d955691	0.07291902
7	0x3daedb91	0.08537973
8	0x3e719901	0.23593523
9	0x3e45ec2e	0.19328377
10	0x3ed611ea	0.41810542
11	0x3e47db72	0.19517305
12	0x3e8c59d5	0.27412286
13	0x3e5b00ca	0.2138702
14	0x3dd4927a	0.10379501
15	0x3e51b65c	0.20479721
16	0x3e9dacb5	0.30795828
17	0x3e0057a9	0.1253344
18	0x3e55d6a3	0.20882659
19	0x3daf9cf4	0.08574858
20	0x3e720f42	0.23638633
21	0x3e920ffe	0.28527826
22	0x3e2474fe	0.16060254
23	0x3d8b9f1d	0.06817458
24	0x3e6c92dd	0.23102899
25	0x3e1a0964	0.15042645
26	0x3e159ea3	0.14611296
27	0x3e9f6b65	0.31136623
28	0x3d407bd4	0.04699309
29	0x3e18f02f	0.14935373
30	0x3e83ca96	0.25740498
31	0x3e3f9738	0.18710029
