code/model_sol_backups/model_sol_48.pt (torch, 635426 bytes, 158 tensors)

weight f4 [32, 2]
000000 04 23 34 be bc 51 81 be 98 28 bc be ac ca 25 3f
       -0.17591482 -0.2525767 -0.3674972 0.6476238
000010 2f 38 31 3f c1 3c 8c be 05 14 c8 3d 27 a0 d8 3e
       0.69226354 -0.27390102 0.097694434 0.42309687
000020 08 e3 1d 3f 37 7f 1c 3f 25 34 85 3e 99 77 be be
       0.6167455 0.61131614 0.26016346 -0.3720062
000030 c0 b4 16 bf 84 9c 38 3e 31 e6 10 3f 80 95 11 bd
       -0.5886955 0.18028456 0.56601244 -0.035542965
000040 28 22 2c 3f 27 ad 30 bf ad 5a 0c bf 96 63 82 3e
       0.6723962 -0.6901421 -0.5482586 0.25466603
000050 48 8a e2 3e 72 72 5e be 70 00 f3 be 0a 9b 2a be
       0.44246125 -0.21723345 -0.4746127 -0.16660705
000060 89 f2 4c 3e 33 f0 8b 3d 22 1b 5f 3d 7c 3e 26 bf
       0.20014395 0.06832924 0.054469235 -0.64939094
000070 82 82 2b 3f 36 9a 67 3c e7 0a 98 3e f1 c1 15 bf
       0.66996014 0.014135888 0.29695818 -0.58499056
000080 b9 ce ad be b4 c9 ed be 87 83 0d 3d 87 84 10 3f
       -0.3394678 -0.4644295 0.034549262 0.5645222
000090 e7 3f 96 3e 42 53 09 bf a6 76 b2 be 3a c1 12 3e
       0.2934563 -0.53642666 -0.34856147 0.14331523
0000a0 ba 0a 32 3f 3e 9d 6d 3e 60 7a 27 bf a3 b7 22 bf
       0.6954762 0.23204514 -0.65421104 -0.6356146
0000b0 90 9f 9c be a1 12 30 3e 9a f0 4b bd e4 e6 9f be
       -0.30590487 0.17194606 -0.049790002 -0.31230843
0000c0 6f 6d e4 3e 59 40 54 be 82 e9 9b bd 43 3f 87 3e
       0.4461474 -0.20727672 -0.076128975 0.26415452
0000d0 87 93 02 bf b1 dc 03 3f 11 ae 00 3f 83 c8 e3 bd
       -0.5100636 0.51508623 0.50265604 -0.11122229
0000e0 76 94 1e bf 7f 17 00 bf 16 6c 92 be 8b 8e 2a bf
       -0.61945283 -0.5003585 -0.28598088 -0.66623753
0000f0 9e 04 b1 3e fc 90 a9 be d6 66 26 3f 61 2c 14 be
       0.34573835 -0.33118427 0.65000665 -0.14470054

bias f4 [32]
000000 56 6f 23 3e fd a4 3c be 4c 1c 0a 3f 68 84 d4 bd
       0.1596044 -0.18422313 0.5394943 -0.10376817
000010 81 35 66 3e 28 47 e6 3e 3d 54 1d bf e9 77 8d 3e
       0.22481348 0.44976163 -0.6145666 0.27630547
000020 56 e3 38 3e 02 01 b2 be 99 d9 a6 be a3 97 00 be
       0.18055472 -0.34766394 -0.3258789 -0.12557845
000030 1a 07 59 3e f7 c6 bd 3c 8a fe 73 3e c9 87 3b bc
       0.21194115 0.023166163 0.23827568 -0.011445948
000040 a8 eb 16 be 3d 1d d2 3e 2c 8a ff bd 8b 1e 20 3f
       -0.14738333 0.41037932 -0.12477526 0.62546605
000050 93 13 bf 3e fb 79 0e 3f 6a 09 bb be 47 cb 04 bf
       0.3731962 0.5565488 -0.3653062 -0.51872677
000060 56 b1 b1 bd 82 c1 32 3f 80 76 f5 3d 75 1a 18 3d
       -0.08676402 0.6982652 0.11985493 0.037134606
000070 6f 33 2a 3f 92 18 08 be 5b 4d f4 3e 3c 21 95 be
       0.6648473 -0.13290623 0.47715268 -0.29126918

weight f4 [128, 32]
000000 9e ac 0a 3e b1 c5 0b be 4b 80 a3 bc 29 b5 ba 3c
       0.1354241 -0.13649632 -0.019958636 0.022791462
000010 ba 22 f2 bd a9 a3 c2 bd a4 1c ee 3d ea ae 57 3d
       -0.1182303 -0.09503872 0.116265565 0.052657045
000020 01 72 f5 3d 28 ce 99 bd 21 0b 45 be ad 8a a7 bd
       0.11984635 -0.07510024 -0.19242527 -0.08180747
000030 53 4c e3 bd 33 39 fa 3c fd 81 3b be 6c 1f 02 be
       -0.11098542 0.030544853 -0.18311305 -0.12707299
000040 29 71 f0 bd bd 24 e4 3c 3b 0c b8 bd ab 78 a4 3d
       -0.117403336 0.02784955 -0.08986708 0.08030828
000050 25 84 20 3e 8e 4e b2 bd 16 83 02 be 64 c8 1a 3d
       0.15675409 -0.08706389 -0.12745318 0.037788764
000060 82 6f 21 be 03 fd d0 3c 6c 4a 04 3e 47 92 ef 3d
       -0.15765193 0.02551127 0.12919015 0.11697822
000070 27 1c 1f be a3 6d 72 bd 63 a9 f5 bc 86 62 61 3d
       -0.15538083 -0.05918659 -0.029987996 0.0550256
000080 64 69 14 3e 5e 63 93 3d 2f a8 6a bd 5f fd ff bd
       0.14493328 0.07196687 -0.0572893 -0.124994986
000090 51 55 e8 3d 1d ea c3 bd 9f bd f0 3d 73 d4 0c bd
       0.11344398 -0.09566138 0.11754917 -0.034382295
0000a0 28 47 8d 3d 28 59 1d bc 5d b7 4d bd 14 cd 07 be
       0.068983376 -0.009603776 -0.050223697 -0.13261825
0000b0 9b e1 41 be 27 80 5c bc 63 03 15 3e fc 41 d7 3a
       -0.18933718 -0.013458288 0.14552073 0.0016422863
0000c0 ab 8b 13 3e 07 3e 81 bc 4c f4 9e 3b 8d 38 bf bd
       0.14408748 -0.015776647 0.0048509 -0.09336958
0000d0 4e f7 ea 3d 7e d0 12 3d f2 30 05 3e ae be f3 3d
       0.11472951 0.035843365 0.13006952 0.11901604
0000e0 35 0b 06 3e ab f8 b7 3d 89 18 5c 3c 61 84 72 3b
       0.13090213 0.089829765 0.013433584 0.0037005174
0000f0 0a 15 53 3c e3 e7 2c bc 03 5b d4 bd 79 9d f1 3d
       0.012883434 -0.010553333 -0.103689216 0.11797614
000100 bf 71 1a be 92 2e 5f bc cf 95 04 bc 0b ac 31 be
       -0.15082453 -0.013621943 -0.008092358 -0.17350785
000110 20 a3 aa bd 68 38 01 3e 82 d4 93 3d ea f9 25 3e
       -0.08331895 0.12619174 0.07218267 0.16208616
000120 34 a9 46 3d 67 2c cf 3d df 76 b9 3c df 29 35 3e
       0.04850121 0.10115891 0.02263969 0.17691754
000130 2a 4f 1a 3e 29 b0 3d 3c b9 57 76 bd c7 d6 9d 3d
       0.15069261 0.011577644 -0.060142253 0.07706981
000140 20 99 bc bd bb 49 14 be 4d 42 be 3d de d2 e4 bd
       -0.09208894 -0.14481251 0.092899896 -0.11173032
000150 13 10 33 3d 77 64 ac bd 92 d2 78 3d 61 b2 a5 3c
       0.0437165 -0.084176 0.06074769 0.02022666
000160 b9 61 ed bd 87 02 07 bd 6b a9 6f 3c a8 20 18 3e
       -0.11590905 -0.032961395 0.014627795 0.14856207
000170 ce 91 bb bd 9f af a3 bd b5 63 fc 3d da fa 6c bc
       -0.091586694 -0.079924814 0.12323705 -0.014464105
000180 a9 29 fc bd 64 59 c7 3b 1f 68 42 3e a8 89 34 be
       -0.123126335 0.0060836542 0.18985032 -0.17630637
000190 5e 1a 0f be 10 d2 51 bd d6 7a 11 bd 80 94 81 bd
       -0.13974902 -0.05122572 -0.035517536 -0.06327152
0001a0 7d 47 d9 3c cf 19 f5 3d d6 11 e0 bd 84 ea cd 3d
       0.026523346 0.11967813 -0.10940902 0.10054496
0001b0 aa 4a 26 bb 3d 7e 1b 3e 27 c6 62 3c 23 d8 ba 3b
       -0.0025374093 0.15184875 0.0138411885 0.005702035
0001c0 47 0e 0d 3d 8f 75 a0 3b d7 f6 28 3e 38 83 aa 3c
       0.034437444 0.0048968266 0.16500412 0.020814523
0001d0 ce 39 04 be 99 2c 8e 3b 22 80 0d be 1b b9 3a be
       -0.12912676 0.0043388125 -0.1381841 -0.18234675
0001e0 a8 07 1b 3e 55 c3 a9 3d 31 2e 06 3e 10 78 16 3d
       0.1513964 0.0828921 0.13103558 0.036735594
0001f0 19 f4 20 3d bb 90 3e be d6 b3 11 be aa aa ca bd
       0.03929529 -0.18609898 -0.14228758 -0.09895833
000200 1c cc a8 bd b3 99 09 be ae ed 96 3d fd 95 85 bc
       -0.08242056 -0.13437538 0.073695526 -0.016306872
000210 e6 cc 04 be 7a 9a 7d bd 30 00 0c 3c 8c e4 0c be
       -0.12968788 -0.0619149 0.008544967 -0.13759059
000220 2e 53 1e 3e b0 90 e8 3d 79 f5 7b 3c 46 99 36 be
       0.15461418 0.11355722 0.015378349 -0.17831907
000230 b0 79 a7 3d d3 3f d0 bd 9c 7a 7b bd 97 b8 15 be
       0.08177507 -0.101684235 -0.061396226 -0.14621197
000240 88 58 29 3e 51 04 d5 bb ed 47 14 3c 19 7f 33 3e
       0.16537678 -0.0065007587 0.009050352 0.17528953
000250 8c a1 0f 3e 3a 10 af bd 3b 9a 82 bd 56 ca 76 3d
       0.14026469 -0.08548017 -0.063770734 0.060251556
000260 46 fd b6 bc 6c b9 97 bc 2a 92 2b 3e 8d 06 0a 3e
       -0.022337567 -0.018521033 0.16754976 0.13479061
000270 5d 2f 16 3e 13 c7 97 3d 5a 1a 09 be 8f 45 88 bd
       0.14666505 0.07411017 -0.13388959 -0.06653892
000280 29 61 1d be b5 0d a1 bd 6f 71 49 bd 3c 41 10 3e
       -0.15369095 -0.078639425 -0.049180444 0.14087385
000290 54 2e 59 3c 79 f2 22 be 04 93 1a bd 8a 31 ea 3d
       0.013255674 -0.15912808 -0.03773786 0.1143523
0002a0 cc 89 89 bd 41 cf 09 3e 20 ac 2b be 08 68 28 bc
       -0.06715736 0.13457967 -0.16764879 -0.010278709
0002b0 73 93 02 3d 2c fd 34 bd ce 30 34 be ea e1 84 b8
       0.0318789 -0.044186756 -0.17596743 -6.33633e-05
0002c0 44 bd 6e 3d 97 fa 0a 3d 10 da e2 bd e2 9d ec bd
       0.058285967 0.033930387 -0.11076748 -0.11553551
0002d0 67 67 f8 bd e1 d4 0d 3e 65 aa 68 3c b1 bf 13 3d
       -0.121290974 0.13850738 0.0142007815 0.036071483
0002e0 d8 e9 eb 3d be a1 64 bc 79 a9 1f 3e 85 7f 34 3d
       0.115192115 -0.013954578 0.15591992 0.044066925
0002f0 95 59 f2 3d 1d 7e 21 be 5e e7 01 3e b9 63 26 be
       0.11833493 -0.15770765 0.12685916 -0.16248979
000300 e7 e6 11 be f1 9a 7f 3d 0d 3f bd bd df 08 38 be
       -0.14248239 0.062403623 -0.092405416 -0.17972134
000310 4f f7 b8 3d 21 ac 1e 3e fe 4f 7f 3b e4 00 a8 bd
       0.09031545 0.1549535 0.0038957591 -0.08203295
000320 63 74 eb bd ff 3d fa 3d c7 0e b2 3d 9e 9d c5 3d
       -0.114968084 0.12218856 0.08694225 0.09649204
000330 7a 9a 7f ba 7d 18 2d 3e 84 53 8e 3b a4 52 15 3e
       -0.0009750497 0.16903873 0.004343452 0.14582306
000340 18 11 1b be 73 fe 05 be 38 4e c0 3d 83 fd 6f bb
       -0.1514324 -0.13085346 0.09389919 -0.003661961
000350 78 38 22 3e 1b 4f b2 3d de 97 01 bc 6d dd 80 3b
       0.15841854 0.087064944 -0.007909743 0.003932646
000360 0b 45 2a 3e 42 39 a6 bd 34 bc 08 b9 43 be 9d bd
       0.166279 -0.0811639 -0.00013040082 -0.07702305
000370 8a 64 d7 3d 39 c9 6a 3d 59 74 25 be 39 b1 05 be
       0.10517223 0.057320807 -0.16157664 -0.13055886
000380 80 38 3a be 7a 59 f6 bd b9 cc 62 3c 46 b4 6f bd
       -0.18185616 -0.12028785 0.013842755 -0.05852153
000390 1e 9b f0 bd 4a 00 14 3e 30 eb 17 be d0 ed 88 3c
       -0.11748336 0.14453235 -0.1483581 0.01671496
0003a0 a4 ee ed 3d 0d 3b 02 3e cb 75 b9 bd a3 2e 26 3e
       0.11617783 0.12717839 -0.0905567 0.16228728
0003b0 a1 13 a6 3c 2b 9a 81 bd 4a 94 d5 bd f8 1c 96 bc
       0.020273032 -0.06328233 -0.104286745 -0.01832436
0003c0 28 25 9e 3d 7a bf b0 bd a9 54 cb 3c 50 d5 80 3d
       0.07721931 -0.08630271 0.024820643 0.06290686
0003d0 b8 3a f7 bd a9 bb b6 bd 23 e5 34 3d 89 0a e8 3a
       -0.120717466 -0.08922512 0.044163834 0.0017703335
0003e0 cc 0d d6 bd b2 2f 0a be f6 0d da 3d 47 cf 10 3e
       -0.1045185 -0.13494757 0.10647194 0.1414157
0003f0 cb 82 9e bd e7 34 3c bd ce fb 68 bd ad 6d a9 bd
       -0.077397905 -0.04594889 -0.056880765 -0.08272872

bias f4 [128]
000000 43 38 a0 3d fb 7e d2 bc 95 0a 2f 3e 56 40 e1 bd
       0.07823231 -0.025695315 0.1709388 -0.10998599
000010 d1 bb c4 bd ba 1a 8e 3d 14 31 cd 3d bc 1f 3a bd
       -0.09606136 0.069386914 0.100191265 -0.04544042
000020 18 29 25 bd 95 13 ba bc c8 59 9e bd f5 e7 23 3d
       -0.040322393 -0.022714416 -0.07731968 0.040016133
000030 4e bc ac bd b4 05 15 3e 3b d0 33 bd fe e7 19 3e
       -0.08434354 0.14552957 -0.043899756 0.15029904
000040 55 8a 1d bd f2 ef 77 bd eb df 0e 3e fc 57 39 3d
       -0.038462 -0.060531564 0.13952605 0.045249924
000050 79 2c 31 be b0 a2 ae bd f7 38 08 3e 73 c2 3c bd
       -0.17302121 -0.08527124 0.1330298 -0.04608388
000060 4f 32 17 be b5 e4 22 be de ba 1a 3d e7 77 28 3e
       -0.14765285 -0.15907557 0.037775867 0.16451989
000070 33 24 e4 bd a8 27 04 bc a5 7f 2b 3d a9 d1 19 bd
       -0.11139717 -0.008066095 0.04186978 -0.037553463
000080 49 3f 48 3c 5d d1 63 bd 31 98 aa 3d 73 b3 8e 3d
       0.01222212 -0.055619586 0.083298095 0.06967821
000090 dc 25 5b bc 96 65 1d be 7e 7f 02 3e 47 e1 fb 3d
       -0.013375726 -0.15370783 0.12743947 0.122988276
0000a0 7a 8e 3c 3e b7 f4 00 3d 8c a6 46 3c 65 d2 eb 3d
       0.18413725 0.03148338 0.012124669 0.11514739
0000b0 72 62 97 bd a5 02 2e bd 43 90 67 3d 2e ae 03 3e
       -0.07391824 -0.04248299 0.056534063 0.12859413
0000c0 c0 d0 d9 bd de 12 ec bd 44 dc 93 3c f0 29 03 3b
       -0.10635519 -0.11527036 0.018049367 0.002001401
0000d0 0f a0 b6 3d 01 37 2e be db 70 c6 3d 7a cc f9 bb
       0.089172475 -0.1701317 0.09689494 -0.0076232525
0000e0 b9 f6 15 be e7 44 c6 3d 09 14 5d 3d 4e 08 a4 3d
       -0.14644898 0.09681111 0.053974185 0.080093965
0000f0 cb df 72 bd 18 2f 4a bd ca da cc bd 9d ac a6 3c
       -0.059295457 -0.04936132 -0.10002668 0.02034598
000100 0d d7 5b bd 0e d3 03 3e 84 8f 01 be aa f7 35 be
       -0.053671885 0.1287348 -0.12652403 -0.17770258
000110 43 d0 39 be 37 eb 20 be 7d b5 cd bd 7f f7 0a bc
       -0.18145852 -0.15714727 -0.10044382 -0.008481859
000120 41 d0 a7 3b 45 5d 05 3d 40 15 f5 bd ff 91 95 3d
       0.0051212613 0.032559652 -0.11966944 0.07303237
000130 10 54 a5 3d dc 6f 1f 3d f6 d3 2c be 59 c7 25 bd
       0.08072674 0.038925037 -0.16877732 -0.040473316
000140 20 af 01 be e9 de 04 3e 88 53 eb bd 43 91 2d be
       -0.12664461 0.12975658 -0.11490542 -0.16949944
000150 f6 41 2e bd 47 c3 26 3e 4f de b1 3d 65 7b 40 3d
       -0.042543374 0.1628543 0.0868498 0.04699268
000160 40 f8 0c be 07 94 25 be d9 34 73 bd 10 be bf 3d
       -0.13766575 -0.16169749 -0.05937657 0.093624234
000170 36 b9 bb 3c 1c 18 d6 3d 06 17 ae 3d c9 46 0a 3e
       0.022915464 0.10453817 0.08500485 0.13503565
000180 15 04 db 3d cc 3c 07 be 50 f3 9b 3d cf 40 53 bd
       0.10694138 -0.13206786 0.076147676 -0.05157548
000190 a6 d3 86 3d 13 79 c5 3d 94 b6 25 be db d1 19 bd
       0.065833375 0.09642234 -0.1618293 -0.03755365
0001a0 ae ef 45 3d c1 24 35 3c 4c 8e e8 3d 15 77 12 be
       0.04832428 0.011056126 0.11355266 -0.14303239
0001b0 09 d3 bd 3d ec 58 d5 bd c1 86 2b bb b2 1f 90 3c
       0.092687674 -0.10417351 -0.002617285 0.017593239
0001c0 62 70 1a 3d b9 fd 1b 3e af 37 ad 3c 09 c3 40 3e
       0.037704833 0.15233506 0.021144716 0.188244
0001d0 f8 ed 9e bc 2a 7d 6a 3d 4c 4e 0f be 82 03 24 3e
       -0.019400582 0.057248272 -0.13994712 0.16016963
0001e0 9f 38 5a bd bb f8 0c be f6 75 9a 3d dc a6 04 be
       -0.053276654 -0.13766758 0.075420305 -0.12954277
0001f0 2d 53 dc ba 5a 94 23 3d 3a f9 f8 3d 78 a3 2a 3e
       -0.0016809456 0.0399364 0.12156911 0.16663921

weight f4 [32]
000000 9a 22 7f 3f 97 e7 7c 3f 3e ed 7d 3f 89 65 84 3f
       0.9966217 0.9879088 0.9919013 1.0343486
000010 56 48 7d 3f 25 95 79 3f c3 fb 76 3f e2 da 7a 3f
       0.989385 0.974932 0.9647791 0.9799024
000020 fb 74 79 3f 59 18 78 3f a5 4e 76 3f 4e 3a 7b 3f
       0.97444123 0.9691215 0.9621375 0.9813584
000030 f1 fd 7c 3f ae 40 80 3f c3 b3 77 3f 7e ff 80 3f
       0.98824984 1.0019739 0.9675867 1.007797
000040 8d 89 72 3f cf ff 82 3f 92 ba 81 3f 8a 56 7b 3f
       0.94741136 1.0234317 1.0135062 0.98178923
000050 b4 27 76 3f 19 33 75 3f d8 7f 7b 3f 49 f0 83 3f
       0.9615433 0.95781094 0.9824195 1.0307704
000060 a3 64 7c 3f e1 34 7b 3f 11 84 7c 3f a6 9d 7e 3f
       0.9859106 0.9812756 0.9863902 0.994593
000070 8e 47 7d 3f c1 e0 7e 3f ec 2f 77 3f 2b 7f 7b 3f
       0.9893731 0.995617 0.965575 0.9824092

bias f4 [32]
000000 70 33 5c 3d d9 58 83 bc cc a0 94 bd 97 52 c2 3c
       0.053759992 -0.016033577 -0.07257232 0.023721023
000010 c8 5d 5c bd 15 e5 b7 bc fb bc 90 bc 29 08 07 3c
       -0.053800374 -0.022448102 -0.017668238 0.008241692
000020 52 8c 99 bd d2 56 f8 3c a9 99 ef bc 51 3c 43 bd
       -0.07497467 0.030314837 -0.029248076 -0.047664944
000030 b5 d4 b0 bc 35 be 14 bd 2b 67 f6 3c 6f 72 68 3a
       -0.021585802 -0.036314208 0.030078491 0.00088671496
000040 a3 f1 84 3c 57 a7 76 3c 94 5a eb bc fc b0 50 3d
       0.016228503 0.015054545 -0.028729714 0.050950035
000050 2f d6 ae bc 80 b6 97 bb a9 c7 f3 3c d2 4b e6 bc
       -0.021342365 -0.00462991 0.029758291 -0.028112326
000060 16 2a 50 bd 00 ff d1 bb 5e fd f7 bc 9a 1f ca bc
       -0.050821386 -0.006408572 -0.030272182 -0.024673272
000070 3e 89 c2 bc 76 fc 98 ba a7 3d 76 bd 95 c8 8c bc
       -0.023747083 -0.0011671919 -0.06011739 -0.017185489

running_mean f4 [32]
000000 e8 44 1c 3d c4 60 38 bc 94 8d 0e 3f f9 1a 87 3d
       0.03815165 -0.0112535395 0.5568478 0.065969415
000010 b5 d7 0c 3f 51 5f b7 3e b2 00 26 bf 26 9d b7 3e
       0.5501664 0.35814908 -0.6484481 0.35862082
000020 db ca 32 3d c2 15 b2 be 64 f3 a8 be 04 34 88 be
       0.04365049 -0.34782225 -0.32998192 -0.26602185
000030 32 8c 8a 3e 22 34 50 be 99 66 b6 3e 8a df 31 be
       0.27060086 -0.20332387 0.3562515 -0.1737043
000040 ed d6 be be e3 f3 1e 3f 39 c7 8a be c2 61 1e 3f
       -0.3727335 0.6209089 -0.2710512 0.61867917
000050 51 0e 13 3f d2 13 5d 3e 80 80 b5 be 98 f9 23 bf
       0.5744372 0.21589592 -0.354496 -0.64052725
000060 3f 86 b1 bd 69 04 48 3f be 4c 62 3e 80 a3 a6 3d
       -0.086681835 0.7813173 0.22099587 0.08136654
000070 47 30 c2 3e 71 89 d8 be 6e bf d4 3e 73 c1 6f be
       0.37927458 -0.4229236 0.415523 -0.23413639

running_var f4 [32]
000000 cb 48 81 3c 77 d5 23 3e 7f 58 1a 3e 0e 2d 1c 3d
       0.01578178 0.15999399 0.15072821 0.038128905
000010 a3 87 f8 3d 58 b4 77 3d e5 64 cc 3d 18 93 99 3d
       0.12135246 0.060474724 0.099801816 0.07498759
000020 0f d2 8c 3e f6 dc cf 3d d3 27 8b 3d b0 bc 3d 3d
       0.27504012 0.10149567 0.06794705 0.046322525
000030 a6 4a 07 3c 41 ff d3 3d 99 a8 cb 3d cc a5 fb 3d
       0.008257544 0.1035142 0.09944267 0.122874826
000040 31 36 60 3d ca bf 92 3d 63 42 dc 3d a8 fe 1e 3d
       0.05473918 0.07165487 0.1075485 0.038817078
000050 9e 78 cb 3d a5 0f 09 3e 1e 66 0f 3d a0 95 ad 3c
       0.09935115 0.13384874 0.035009496 0.02118951
000060 d8 a7 89 3d 5a df a5 3c 7a 62 1f 3e e3 a0 89 3d
       0.06721467 0.020248104 0.1556491 0.0672014
000070 b8 fc d1 3d 9c 56 c4 3d 7a f1 8a 3d f8 82 e6 3d
       0.102532804 0.09586832 0.06784339 0.11255449

weight f4 [32, 3]
000000 50 8a 1d bf 86 db 36 3e 95 bf c4 3e da 87 90 3e
       -0.61539173 0.17857179 0.38427415 0.28228647
000010 87 c2 36 be fa a0 84 bd 6f 51 8d 3f 52 3a 01 bf
       -0.17847644 -0.06476016 1.1040477 -0.50479615
000020 49 43 89 3e 47 3f b1 3f 28 18 b1 b8 e3 48 2b 39
       0.26809147 1.3847436 -8.444517e-05 0.00016334983
000030 5b 2d 2c bf 94 c5 6a 3e 55 91 e6 3e 44 94 18 3e
       -0.67256707 0.22926933 0.45032755 0.14900309
000040 0a dc ad 3c 72 e7 16 be 54 1e 94 3e 60 18 2f be
       0.021223087 -0.14736727 0.2892939 -0.17099142
000050 7d f9 a0 bd 18 06 c7 3e 65 02 c1 be 98 be 03 be
       -0.07860086 0.38871837 -0.3769714 -0.12865674
000060 54 40 a8 be 70 61 96 3e aa 77 ba 3e 99 ab 5a be
       -0.32861578 0.29371214 0.3641942 -0.21354522
000070 6f 66 84 3e 1f 3a e7 3d e3 14 60 bf 86 77 07 3f
       0.258594 0.112903826 -0.8753187 0.52916753
000080 24 23 5e 3e 6e 37 f4 bd ef 77 bc 3e 25 5b af be
       0.21693093 -0.11924635 0.36810252 -0.34249225
000090 8d 51 39 3f 3e a9 8d 3e f2 26 cf be b8 be 63 be
       0.7239006 0.27668184 -0.404594 -0.22240722
0000a0 5a d9 bc be 56 8f 74 be aa f5 22 3f 40 cc 83 be
       -0.36884576 -0.23882803 0.63656104 -0.25741768
0000b0 b4 ed 63 be 45 7d ae bd 90 ad ff be 12 42 00 3f
       -0.22258645 -0.08519987 -0.49937105 0.50100815
0000c0 1f 4d 1f 3f 01 a1 53 be e6 58 96 be 43 f5 fe 3d
       0.6222705 -0.20666887 -0.293647 0.12449124
0000d0 98 9e 21 bf 2a 0c 05 bc 16 59 41 bf 5f 42 8d bd
       -0.6313262 -0.008120576 -0.7552656 -0.06897425
0000e0 72 33 6a 3e 9e 10 87 3f 9b 1c 01 bc a5 fe 7b be
       0.22871187 1.0551946 -0.007880355 -0.24608858
0000f0 5e f6 c3 3e ca d4 e4 be bb 5f 08 bf 0d 60 1d bf
       0.382739 -0.44693595 -0.53271073 -0.61474687
000100 97 ef fa be 72 7b c3 3d 36 40 40 bf 7d 49 71 3e
       -0.49010918 0.0954503 -0.7509798 0.2356319
000110 45 ce 1a 3e 26 c9 6a be d6 3f 07 3f d5 33 ce bd
       0.15117748 -0.22928295 0.5283178 -0.1006848
000120 55 7d 89 bf 8d bd 6a be e4 f4 43 3e 9b 67 3d 3f
       -1.0741373 -0.2292387 0.19136387 0.73986214
000130 cf 76 39 3e 05 67 05 bf 35 88 0a bf 14 a2 92 3e
       0.18111728 -0.5211032 -0.54114085 0.2863928
000140 d3 c0 18 3f 65 da ba bd 80 ed 3d bd 51 a6 f4 3e
       0.59669226 -0.09123687 -0.046369076 0.4778314
000150 96 dd c8 bd 06 61 04 3f 65 d2 81 be c9 fa 00 be
       -0.09807889 0.51710546 -0.2535583 -0.12595667
000160 ce 7d 7d 3e 17 51 bc 3d 63 11 3d bf 4e ae e8 3e
       0.24755022 0.09195154 -0.73854655 0.45445484
000170 62 0a 05 3f 32 b9 5b 3f 13 01 ee be b7 ef 80 be
       0.5196897 0.8582946 -0.46485195 -0.25182888

bias f4 [32]
000000 2e cf 94 3d 65 5f f9 3e 86 04 7f 3e f8 88 af 3d
       0.07266079 0.48705593 0.2490407 0.085710466
000010 8b d2 8b 3e 79 bc 0f 3e c0 c3 55 be b1 67 ee be
       0.2730907 0.1403674 -0.20875454 -0.46563485
000020 d3 f5 18 be ff 5d b2 be a1 ee bb be 41 fe a5 3e
       -0.14937524 -0.34837338 -0.36705497 0.32420543
000030 98 72 c4 be 1c a0 aa 3e 31 61 c4 bd d9 82 0b bf
       -0.38368678 0.3332528 -0.0958885 -0.5449653
000040 44 35 05 3f 15 5d 4e 3e 12 5a de 3e 29 aa 63 3e
       0.520344 0.20152695 0.43428093 0.2223288
000050 4f 1c 91 be 13 07 6d 3d f7 eb b6 3e 15 e1 74 3e
       -0.2834191 0.057868075 0.35726902 0.23913987
000060 95 76 84 be 75 ec ff 3e d7 cd 8c be 58 c0 96 3e
       -0.2587172 0.4998509 -0.27500793 0.29443622
000070 35 58 6f be 1e e0 d6 3d 2a c2 22 3e 96 d3 a8 be
       -0.23373492 0.10491966 0.1589438 -0.32973927

weight f4 [128, 32]
000000 91 c0 b0 3d 8c 5f 8c 3c cf 5d f7 3d 2b 3a ac 3d
       0.08630479 0.017135404 0.120784394 0.08409532
000010 e3 92 0c 3e 26 dc 84 3c 83 e8 22 3d a8 45 66 39
       0.13727908 0.016218256 0.03977252 0.00021960458
000020 cb 53 37 bd 04 40 fa 3d de 28 ed bd 1b 23 f3 3d
       -0.044757646 0.12219241 -0.115800604 0.1187193
000030 bb 26 55 bd 20 f5 f1 bc 5f e8 de bd 4b 3d 34 be
       -0.05203889 -0.02953583 -0.10884165 -0.17601506
000040 31 6d 73 3d 75 3a 6a 3d 59 4f 3f be 62 3f a7 3b
       0.059430305 0.057184655 -0.18682612 0.0051039914
000050 62 b4 0a be 76 38 ed 3c ac db 0a be 9c 4d 21 3d
       -0.13545373 0.028957587 -0.1356036 0.039380655
000060 b1 35 60 3d 03 7e 26 3e 41 c5 0a be 2c 46 b1 3d
       0.054738704 0.16259007 -0.13551809 0.08655962
000070 b2 ad 1f be 96 66 0d 3e cd 3a 4e 3d ff 08 c2 bd
       -0.15593603 0.13808665 0.050349046 -0.09474372
000080 0e 46 be 3d fb 21 59 3d f2 4c 9f bd 04 af 35 3d
       0.092907056 0.053010922 -0.07778348 0.04435636
000090 16 63 57 3d ba a6 a0 bc 04 7a dd bd 03 44 83 bd
       0.05258473 -0.019610751 -0.10814288 -0.064094566
0000a0 ea 2f 2f 3e 07 db 04 3e f1 49 05 be f6 d4 45 be
       0.17108122 0.12974177 -0.13016488 -0.1931952
0000b0 f9 ea fa 3d be 56 2b be 94 8d 2a be ed 59 06 3e
       0.12251849 -0.16732308 -0.1665557 0.13120241
0000c0 1a ff 06 3e 5e 9c 21 be 68 b3 97 bd cb 5c 65 3d
       0.13183251 -0.15782306 -0.07407266 0.055996697
0000d0 18 a0 33 3d 19 59 2a be 8c 57 93 bd cc 57 af bd
       0.04385385 -0.1663555 -0.071944326 -0.08561668
0000e0 12 25 f0 3d c4 04 9c bd da e9 b9 3d 4e a7 9c bc
       0.117258206 -0.076180965 0.09077807 -0.019122746
0000f0 9c b1 21 be 43 cb 3e bd f7 d8 56 3d 7e f8 18 bd
       -0.15790409 -0.046580564 0.052453008 -0.037346356
000100 f3 dc 14 3b 1a 64 d2 bd 6f a2 79 3d 4b 1c 5c 3e
       0.0022714704 -0.10272999 0.060945924 0.21495168
000110 a3 28 8b 3d cd 46 c9 bb b7 d9 0c be 19 7f a0 3d
       0.0679486 -0.0061424733 -0.13754927 0.07836742
000120 21 98 6d bd 4e 95 4e be b2 8d 98 3d da 6e 20 3e
       -0.05800641 -0.20174143 0.07448901 0.15667287
000130 4a 3f e1 bc 13 3c e5 bc d2 b1 f2 3d d0 28 fb 3d
       -0.027495999 -0.027982747 0.11850323 0.12263644
000140 d9 33 27 3e 7f dd 31 3e 39 9b 18 3e 8f 5e 24 be
       0.16328372 0.1736965 0.14902963 -0.16051696
000150 8a fa 5b bd a0 c0 0d be 77 3b 46 3b 8a fa 35 3d
       -0.05370573 -0.13843012 0.0030247846 0.044428386
000160 cd 88 81 bd 28 fa bd 3d 5d d6 29 bd 5a 6c 18 3e
       -0.06324921 0.09276229 -0.0414642 0.14885083
000170 c3 5e b1 3d a5 0c af 3d f2 c5 0e 3e 40 fc 8e 3d
       0.086606525 0.08547334 0.13942698 0.069817066
000180 0a a2 b8 3d 45 a8 43 bd 57 a9 2f 3e 19 af 25 be
       0.090152815 -0.047767896 0.17154442 -0.16180076
000190 d5 35 2b be 19 e6 16 be d8 3f 22 be 11 e5 95 bd
       -0.16719754 -0.14736213 -0.15844667 -0.073190816
0001a0 2a 3c a7 bd 3d 35 bf 3d 2d 62 87 bd a1 e3 17 3d
       -0.08165772 0.09336326 -0.066105224 0.03708232
0001b0 63 42 37 bd b3 dc 8b 3b f8 c8 cd bd 37 1c ca bd
       -0.044741046 0.0042682528 -0.10048097 -0.09868663
0001c0 67 63 02 3e 7b 43 ff 3d 55 e2 2b 3e ed e6 8b 3d
       0.12733231 0.12464043 0.16785558 0.06831155
0001d0 0f b3 32 3b 55 d4 b1 3d 13 ce 13 3e 95 27 96 3d
       0.0027267372 0.08683077 0.1443408 0.073317684
0001e0 26 28 5b 3c d0 12 10 be 01 58 19 3e c3 0f 50 3d
       0.013376271 -0.14069676 0.14974977 0.05079628
0001f0 09 69 01 be 44 ba 36 be 89 4b 8c bd fc 1a 1d 3e
       -0.12637724 -0.17844492 -0.06850345 0.15342325
000200 6c 4a 0e be 73 01 00 3e a1 46 10 3e 33 00 a4 3d
       -0.13895577 0.12500553 0.14089443 0.080078505
000210 d8 bb 54 bd 95 30 40 bd ac 2a 80 bd 83 ea d8 3c
       -0.051936954 -0.04692133 -0.06258139 0.026479011
000220 e6 ee b5 3d c7 bb 3d be c1 90 0f be 8b 6a 20 be
       0.08883457 -0.18528663 -0.14020063 -0.15665643
000230 86 9f 7f 3d 4e 02 3f 3d 9b f5 f7 3d ec dc 06 be
       0.062407993 0.046633057 0.121073924 -0.13170213
000240 63 37 3b be 09 8a f1 bd 36 6b 24 3e f1 6e ba bd
       -0.18282847 -0.11793906 0.16056523 -0.09103192
000250 ec 85 b3 bd 5f 80 33 3e e7 0d 41 3d 08 52 9d 3c
       -0.08765778 0.17529438 0.0471324 0.019204155
000260 bd fa 00 3c ab 3a 09 be 08 3a 27 be 50 01 c5 3c
       0.007872281 -0.13401286 -0.16330731 0.024048477
000270 e7 ad ef bd 13 1e dc 3d 84 09 1a 3e 20 10 31 3d
       -0.11703091 0.10747924 0.15042692 0.04322827
000280 4f 98 bd bd 72 2c a0 3d a5 f9 30 3e af d4 41 3e
       -0.09257566 0.07820977 0.17282732 0.18928789
000290 5a 1e 21 3d b7 85 6e ba ea 5c a3 bb 4f ac 1f bd
       0.039335586 -0.00090989046 -0.0049854415 -0.038982686
0002a0 7e c9 c7 bc bc f4 17 3a 57 8e f2 bd 1c 05 e5 bd
       -0.024388071 0.0005796661 -0.118435554 -0.11182615
0002b0 aa 93 0e 3d 5e cc e1 3c 55 dc 0b 3e 99 3e de bd
       0.034808792 0.02756327 0.13658269 -0.10851783
0002c0 13 3a 53 bd d7 fa f9 3d 83 5f 23 3e b5 88 04 3d
       -0.051569056 0.12206047 0.15954404 0.032356936
0002d0 ab d3 2b be 5f 69 2e 3d 89 68 cb 3a 80 4b 04 be
       -0.16779964 0.04258096 0.0015518825 -0.12919426
0002e0 a6 33 af bd cd 3a f9 bd 0c e7 1f 3e 74 13 05 be
       -0.08554773 -0.121694185 0.15615481 -0.12995702
0002f0 14 e0 fd bd 5d fc fd 3d af 56 61 bb ae d8 ac bc
       -0.12396255 0.1240165 -0.0034383943 -0.021099415
000300 1d 3d 00 3e 7d c2 bb bc 2e 7c 25 be 33 bd 38 3e
       0.12523313 -0.022919888 -0.16160652 0.18040924
000310 d1 1b 9a 3c 9a 73 e9 3d 9b 1a a0 bd ac 92 3c bd
       0.018812092 0.113990024 -0.078175746 -0.046038315
000320 c2 74 92 bc 73 0b 39 3d d3 a1 79 bd cd 76 fc bd
       -0.01787794 0.045176934 -0.060945343 -0.12327347
000330 14 29 2f 3b c7 27 c8 bd e7 57 31 bd 31 fe 91 bd
       0.0026727365 -0.09773212 -0.04329672 -0.07128561
000340 cc 02 a0 bd 86 95 a9 bd 67 f0 0c 3d d4 e2 b3 3d
       -0.078130335 -0.082804725 0.034408953 0.087834984
000350 d0 43 05 3c 3f a6 ec 3d 61 1d fb bd a0 06 16 be
       0.008133844 0.115551464 -0.12261463 -0.14650965
000360 58 ed 98 3d fe 1f a4 bd f1 9b 13 bc 9b 71 db 3c
       0.07467145 -0.080139145 -0.009009347 0.02678757
000370 f3 87 df 3c 1c f1 eb bd ad e4 02 3e 78 f4 d2 3d
       0.027286505 -0.11520597 0.12782545 0.10300535
000380 95 02 e4 bd 0f e6 02 be 4e 64 84 bd 7f c4 de 3d
       -0.11133305 -0.12783073 -0.06464444 0.108773224
000390 71 5c 11 3d 9e dc 81 bd d6 42 08 be 1f 19 13 be
       0.03548855 -0.063409075 -0.13306746 -0.14365052
0003a0 90 86 9b bd 16 b3 b7 bd 2c c7 e7 bd 04 45 d5 bc
       -0.07594025 -0.08969705 -0.11317286 -0.026033886
0003b0 34 4b 8e bd 04 1e 8f bd ad 31 29 3c e2 7b 1d 3e
       -0.069479376 -0.06988147 0.010326785 0.15379289
0003c0 cc 11 9c bd 37 f7 13 be b8 7f dc bd b2 75 23 3d
       -0.07620582 -0.14449774 -0.10766548 0.039907165
0003d0 78 d8 7f 3c a8 cf 63 bd 8e 8d 9e 3c fd aa 1b bc
       0.015615575 -0.05561796 0.019354608 -0.009501216
0003e0 1c 63 90 bd 71 44 3c bd 08 d3 e8 bb c8 dc 35 bb
       -0.070501536 -0.04596371 -0.007105235 -0.0027750004
0003f0 00 88 fb bd bf f1 5d bb 08 3f ed 3d fd 49 27 3e
       -0.12281799 -0.0033866016 0.11584288 0.16336818

bias f4 [128]
000000 67 62 38 bd a2 27 e4 3d bb 12 63 3d 3e 4d 5d bc
       -0.04501572 0.11140372 0.055437785 -0.0135071855
000010 f2 3e e3 bd 95 2b 9f bd a5 64 23 be a7 d3 12 be
       -0.1109599 -0.077719845 -0.15956362 -0.14338551
000020 d8 9e 61 bd b5 af aa bd bc 42 10 be c4 79 16 3d
       -0.055083126 -0.08334295 -0.14087957 0.03673722
000030 4b 93 b1 3d b9 34 6a 3d dc 7c 0d bc 73 78 3c bd
       0.08670672 0.057179186 -0.008635726 -0.046013307
000040 48 f5 86 bc 79 c9 4a 3d 54 c4 b3 bd f0 42 e1 bd
       -0.016474381 0.049508546 -0.08777681 -0.109990954
000050 d7 49 20 3e 4d 57 97 3d fd 4d f7 bc f4 d1 f6 bd
       0.15653168 0.07389698 -0.030188555 -0.12051764
000060 00 65 5f 3d fc e0 2e 3e 72 0a 0d bd af d2 46 3d
       0.05453968 0.17078012 -0.03443379 0.048540767
000070 3f 68 af 3c 6a 84 16 3b d0 28 99 3c eb 11 1a 3e
       0.021412013 0.0022967109 0.018696219 0.15045898
000080 8c 10 ce bc 34 15 1e be 14 04 47 3d f1 85 98 bd
       -0.025154375 -0.15437776 0.048587874 -0.07447422
000090 b8 89 04 3e 59 07 29 be bb 2c d8 3d 16 8f 42 3e
       0.1294316 -0.16506709 0.10555407 0.18999895
0000a0 c2 f3 e1 3d c0 d1 95 bd 3c 3e 98 3d bf de 12 bc
       0.11032821 -0.07315397 0.07433745 -0.00896424
0000b0 30 7b 33 3d 00 ce 0c 3d 10 32 45 bd 60 f9 83 bd
       0.043818653 0.034376144 -0.048143446 -0.06444049
0000c0 41 1a 27 be e0 e6 32 3c 73 e7 c7 3d f9 fd 02 3e
       -0.16318609 0.010919303 0.09760942 0.12792195
0000d0 30 8b e8 bd 5f 90 38 bd 18 ee 68 3d 05 70 1c 3e
       -0.11354673 -0.045059558 0.05686769 0.15277107
0000e0 79 1a 42 3e 57 ca e1 3d 32 58 49 be ad a5 2b 3d
       0.18955411 0.110249214 -0.1966255 0.041906048
0000f0 29 7f ce 3b 1a ea f8 bd 3b 0e 88 bd 26 14 d6 bd
       0.0063017798 -0.12154026 -0.06643339 -0.10453062
000100 5e 41 25 3d 0f 4f 57 3d 03 5a a3 3d ef 5e a0 bd
       0.040345542 0.05256563 0.07976153 -0.07830607
000110 76 da 80 bb c3 b5 14 3e 5b 9e 93 3d 17 07 c5 bd
       -0.0039322926 0.14522462 0.07207938 -0.09620493
000120 04 55 95 3d e1 cf c6 bd 4b c6 42 3d cb 49 29 be
       0.07291606 -0.097076185 0.04755239 -0.16532056
000130 47 b0 f9 3d 04 f5 1d be 8c 5d 6d bd 19 7c 35 3e
       0.12191825 -0.15425497 -0.05795054 0.17723121
000140 c0 91 0e be 4c ff 3c be 6b 5b 8b bd 86 8e 88 3d
       -0.13922787 -0.18456763 -0.06804546 0.06667809
000150 00 1f 41 be a9 41 08 3e f6 7a dc bd 34 2e 82 bd
       -0.18859482 0.13306297 -0.107656404 -0.06356469
000160 e7 73 e1 3d 8c d5 cb bd 8a 48 26 3d cd 7d 19 be
       0.11008435 -0.0995284 0.040596522 -0.14989395
000170 55 aa 4e 3e 74 eb ea 3d 2f 26 76 bd 4e da 54 bd
       0.20182164 0.1147069 -0.06009501 -0.051966004
000180 fd f5 f6 bc 31 a7 a9 3d bd 0e 20 3d 47 01 28 3d
       -0.030146593 0.08283842 0.039076556 0.041016843
000190 75 62 17 bd 07 6f 34 bd 5f 87 13 be 9e 50 48 be
       -0.03695913 -0.044051196 -0.14407109 -0.19562003
0001a0 2b e1 0b bc 4a e9 10 be ef 9b dc bd 3a 27 48 3d
       -0.008537571 -0.14151493 -0.107719295 0.048865534
0001b0 64 3e 7c bd 71 4b 3e 3d bf a3 05 be fe 2c ac bd
       -0.061582938 0.046458665 -0.13050745 -0.08407019
0001c0 63 58 a6 3d 66 ac 9f 3d e3 9b ca 3d 5d 21 c0 bd
       0.08122327 0.07796554 0.09893014 -0.093813635
0001d0 76 70 da bd 6b 01 ee bc 21 2e 40 bc 48 07 e5 3d
       -0.106659815 -0.02905341 -0.011729748 0.111830294
0001e0 61 73 ab 3d 00 e2 9a bd 8c 39 3f be f7 23 e5 3d
       0.08371616 -0.07562637 -0.18674296 0.111885004
0001f0 63 92 ad 3d 34 bc 5a 3c eb 23 08 bc 5a 4e 09 3e
       0.08475187 0.013350535 -0.008309345 0.13408795

weight f4 [32]
000000 a9 c1 75 3f c1 81 70 3f 70 52 77 3f ef 46 8d 3f
       0.95998627 0.9394799 0.96610165 1.1037272
000010 84 05 70 3f a5 6e 78 3f d9 a4 6b 3f 19 be 7d 3f
       0.93758416 0.9704383 0.9204841 0.9911819
000020 06 a5 73 3f b0 8d 6c 3f ba a1 75 3f 15 f0 7c 3f
       0.9517368 0.924037 0.959499 0.98803836
000030 dc 8e 7c 3f 27 a1 76 3f af 8d 71 3f be ce 70 3f
       0.98655486 0.9633965 0.94356817 0.94065464
000040 47 31 70 3f da 52 75 3f 56 db 7c 3f 06 99 70 3f
       0.9382519 0.95829546 0.9877218 0.93983495
000050 d4 9a 81 3f ef 4b 75 3f 90 fa 7c 3f cd ec 78 3f
       1.0125375 0.9581899 0.9881983 0.9723633
000060 80 04 79 3f 4b 0b 74 3f bb 3a 7d 3f 29 74 81 3f
       0.9727249 0.9532973 0.9891774 1.0113574
000070 f7 a9 81 3f 33 64 79 3f c8 81 73 3f f1 c7 80 3f
       1.0129994 0.97418517 0.95119905 1.0061017

bias f4 [32]
000000 5d ad 9e 39 37 5b ab bd 0e df 13 bd 14 35 99 3e
       0.00030265274 -0.08367007 -0.036101393 0.29923308
000010 88 10 57 bd e3 33 b3 3c 74 82 c0 39 6f 0d 00 3d
       -0.052506 0.021875327 0.0003671829 0.03126281
000020 18 34 52 bd ab 0d ef 3b af 9f 5e 3d d4 65 0f be
       -0.05131921 0.0072953305 0.054351505 -0.14003688
000030 e2 cd ef 3b 3b 46 0c bc a9 6c f9 3b 64 8a dd bd
       0.0073182443 -0.008561666 0.0076118303 -0.108174115
000040 d4 4a 61 3c 6e 3e 32 bd 66 27 8a 3c 97 33 00 bc
       0.013750751 -0.04351657 0.01686449 -0.0078248
000050 83 8a 28 3d 63 9a 2e bc ae f2 5f 3d 43 03 ec bc
       0.04114772 -0.010656926 0.054674797 -0.028810149
000060 ba 61 21 bd 82 61 4b 3c 47 22 ed 3c 95 5f 33 3c
       -0.03939984 0.012413384 0.028947009 0.0109480815
000070 ab 24 f9 3b 6f b6 c9 3d fb 03 3f bd 20 91 40 3d
       0.007603248 0.098492496 -0.046634655 0.047013402

running_mean f4 [32]
000000 78 bf 9f 3f 76 02 90 3f 7a a5 93 40 0a 43 b1 3d
       1.2480307 1.1250751 4.61395 0.08655365
000010 ab 2b c5 3f ba fa 50 bf 85 25 9d 3e 4e 02 6d 3f
       1.5403951 -0.8163258 0.30692688 0.9258164
000020 8b e0 89 3e 3e e4 94 bf 36 66 07 c0 22 62 6c c0
       0.26929125 -1.1632154 -2.1156135 -3.6934896
000030 86 ac 87 c0 ee 0f 87 3f c7 bd b3 3d f4 9a a3 40
       -4.23981 1.0551736 0.087764315 5.112665
000040 e4 e1 6f 3c f2 7f 6d 40 1c cd 07 40 14 b4 90 bf
       0.014641259 3.7109342 2.121894 -1.1304955
000050 78 85 4b bf 20 00 57 40 c7 38 e4 bd 1e aa 53 c0
       -0.7950053 3.3593826 -0.11143642 -3.3072581
000060 b5 9d 07 40 63 b9 5e c0 2b 35 c0 3f 22 47 51 40
       2.1190007 -3.480065 1.5016226 3.2699666
000070 67 bc 92 c0 76 07 44 bf c7 19 0e 3f 16 55 5b 3f
       -4.5854983 -0.76573884 0.55508083 0.85676706

running_var f4 [32]
000000 71 8e 80 41 ed 71 36 40 8c c9 4a 41 47 6d 90 38
       16.069551 2.8507035 12.674206 6.8868096e-05
000010 c4 d8 b8 41 54 4e af 3f 67 fc 3b 40 56 40 46 41
       23.105843 1.3695779 2.9372804 12.390707
000020 2d 81 a3 41 af 1d d1 40 6f 0c d4 41 6a 7e 13 41
       20.438074 6.5348735 26.506071 9.218363
000030 bf 77 1b 41 eb a0 88 41 43 58 2a 41 16 2e 93 41
       9.716735 17.078573 10.646548 18.397503
000040 a9 cf 3f 41 dd 50 c1 41 2c 1d 43 40 85 de 8a 40
       11.988198 24.164484 3.0486555 4.339663
000050 e0 9a 34 42 a3 38 46 41 df 83 dd 40 41 e5 66 41
       45.151245 12.388827 6.9223475 14.43097
000060 a4 51 4f 40 ce ae 79 41 a3 77 1d 42 e2 28 6d 41
       3.239358 15.605177 39.366833 14.822481
000070 54 62 52 41 c1 3b b1 40 b3 f9 31 42 79 8f bf 41
       13.149006 5.538544 44.493847 23.945055

weight f4 [32, 136]
000000 50 4f 87 3d a6 21 9e bd 3f 27 bc 3d da 0b c9 bb
       0.066069245 -0.07721262 0.09187173 -0.006135446
000010 37 f8 92 bc cd aa 6b 3d 37 f3 a8 3c a1 4e 6e 3d
       -0.017940624 0.057535935 0.020623786 0.058180455
000020 a0 96 82 bd 92 b4 c8 bd 34 66 2a 3c 32 b4 b7 3c
       -0.06376386 -0.09800066 0.010400344 0.022424791
000030 44 59 3b bd 76 a8 9d 3c d5 e8 1a bc 8a c8 9a bb
       -0.045739427 0.019245367 -0.009454926 -0.004723613
000040 ad 6d a2 bc 9e e5 b8 bd 4f 56 3f bd b1 e5 66 3c
       -0.019827688 -0.09028171 -0.04671317 0.014092849
000050 60 68 da bb f5 02 fc 3c 23 44 09 3d e1 e4 43 bc
       -0.0066652745 0.030763129 0.033512246 -0.011956424
000060 00 03 75 bd 80 fa 35 3d 4a 86 f9 3c 0e 99 a2 3c
       -0.059817314 0.04442835 0.030459542 0.019848373
000070 de 61 43 3d a8 f7 1f bd 10 70 18 bd 41 d9 1d 3d
       0.047700755 -0.039054543 -0.037216246 0.038537268
000080 9b d2 5b bd 14 0c 31 3c 68 f8 cf bc 15 f6 3a bd
       -0.053667646 0.010806102 -0.025387004 -0.04564484
000090 f8 70 4e bd d0 53 42 bc cc e5 e2 3c 0a b5 3d bd
       -0.050400704 -0.011860803 0.027697466 -0.04631523
0000a0 59 2c 97 3d a5 38 17 bd 4a 7d c8 3d 23 ec d5 3b
       0.073815055 -0.036919255 0.09789522 0.006528394
0000b0 e8 a2 c5 3c a4 03 a3 bd e6 fd 40 bd cb f0 86 bd
       0.024125531 -0.07959679 -0.047117136 -0.06588896
0000c0 7d 58 1c 3d 65 e9 d9 bd 97 52 33 3c 55 4e 0d 3d
       0.038170327 -0.106402196 0.010944984 0.03449853
0000d0 a6 71 af bd f3 b9 0f bd 48 61 6e 3c 80 1d 8e 3d
       -0.085665986 -0.035089444 0.014549561 0.069392204
0000e0 65 a7 af 3d e4 fd 75 bb 99 f2 0d bc d1 f1 8b 3d
       0.0857685 -0.0037535364 -0.008663797 0.06833232
0000f0 ac 6f a4 bb 73 c6 04 3b b2 b5 5c bd b3 7c 52 bd
       -0.005018195 0.0020259887 -0.053884216 -0.051388454
000100 54 e3 75 3d b2 86 dd bc b4 be af bc ed c5 9f 3d
       0.06003125 -0.027041767 -0.021453239 0.07801423
000110 0b 38 04 bc 2b b4 94 bd a5 af 01 bb f0 41 a8 3d
       -0.008070002 -0.07260927 -0.001978853 0.082157016
000120 2d 8c 2f 3d 01 9e ba 3c fb b1 3c bd bb db 93 bd
       0.04285829 0.02278042 -0.046068173 -0.07219645
000130 b8 c8 30 3c 83 18 90 3c 17 47 10 3d 4d 08 af 3c
       0.010790043 0.017589813 0.035224047 0.021366263
000140 c5 da d4 3c 54 08 a3 3d 8f 47 38 bd bc de f9 3c
       0.025983224 0.07960573 -0.04499012 0.030501716
000150 71 72 70 bd 3d 90 37 3d 5f 12 98 bc ff 30 b7 3d
       -0.05870289 0.04481529 -0.018563448 0.08944892
000160 25 a1 4a 3d d2 40 9e bd 1d a8 c0 3c 50 ec e6 bd
       0.049470086 -0.07727207 0.023517663 -0.11275542
000170 a4 78 2b 3d 25 c3 3d 3d 05 6a aa 3d 7d ae 8c 3d
       0.0418631 0.046328682 0.08321003 0.068692185
000180 c4 0f 89 bd 8c cd da bc 03 1e 3f 3d b7 a8 c9 3c
       -0.0669246 -0.02670934 0.04665948 0.024616582
000190 42 7d 6d 3d 09 29 e0 3d 33 69 79 3d 94 d4 87 3d
       0.057980783 0.10945327 0.06089134 0.06632343
0001a0 8e 47 f4 ba 07 31 d6 bd a8 9c 57 bd 3c e6 12 bd
       -0.0018637048 -0.1045857 -0.052639633 -0.0358641
0001b0 b3 1a d6 3d 67 d8 b5 bd 0e 5d bb 3d 8e bb e7 bc
       0.10454311 -0.08879166 0.09148608 -0.028287675
0001c0 cd 49 6f bc f0 19 bb bc 19 d3 15 3d 6e 6a 17 bd
       -0.014604998 -0.022839516 0.03657827 -0.036966734
0001d0 02 29 9c bc ed e8 02 bd 6e 02 a9 3d 87 d4 34 3b
       -0.019062523 -0.031960417 0.082524166 0.0027592496
0001e0 0d d3 2a 3d 51 8d 86 3c 53 05 7f bc c9 21 e9 3c
       0.04170518 0.016424807 -0.015565234 0.028458493
0001f0 c5 fc f3 3c d3 af 92 3d 67 eb d1 3d b9 fc 87 bd
       0.029783616 0.07162442 0.102499776 -0.0664
000200 d8 c0 64 bd 63 f1 01 3d e7 a8 c5 bd 4b d2 c3 3b
       -0.055847973 0.031724345 -0.09651356 0.0059759966
000210 e4 f0 53 bd b5 54 64 3d ff 2a 8d 3c e3 17 cb 3c
       -0.051743403 0.055744845 0.017232416 0.024791664
000220 f2 15 01 bc ef 11 97 bd 2c 96 18 bd 08 4b a4 3d
       -0.007878767 -0.073764674 -0.03725259 0.080221236
000230 08 be 01 bb 92 5b 14 3c 96 8a 1c bb 59 f2 74 3d
       -0.0019797105 0.009055035 -0.0023886315 0.059801433
000240 dd 9f 8f bd 29 07 71 bd 1b 7d 45 bd fe e8 41 3d
       -0.070129134 -0.05884472 -0.048215013 0.04734134
000250 8d 0d 41 3d 92 87 a9 bc 7b b2 e0 bc 19 21 77 bd
       0.047132064 -0.020694528 -0.027428856 -0.0603343
000260 28 ae 45 bd 88 68 5d 3c ea e4 82 bc f7 98 44 3d
       -0.04826179 0.013513692 -0.015978295 0.04799744
000270 68 6d df 3c 8c c1 a2 3c 4d fe d4 bc e2 18 91 3d
       0.027273849 0.019867681 -0.026000166 0.07084824
000280 f9 4c ab bd 23 e0 43 bd 14 de 99 bd c0 c2 b9 3c
       -0.08364291 -0.047821175 -0.07513061 0.022675872
000290 f7 00 35 bd 73 fc 02 ba a1 1b d6 3d 82 7b af 3b
       -0.044190373 -0.00049967243 0.104544885 0.0053552995
0002a0 05 91 68 bc 8c df a8 3d 7f 27 71 bd 64 6a 59 3d
       -0.014194732 0.08245763 -0.058875557 0.053079978
0002b0 9d 38 41 bd 45 d7 bd bc f4 e2 68 3d a1 d9 82 bd
       -0.04717313 -0.023173938 0.056857064 -0.06389166
0002c0 94 db 7a 3d ea b0 75 3d 89 2b 96 3c 29 38 44 3d
       0.061244562 0.05998317 0.018331306 0.04790512
0002d0 93 4c 29 3d f8 8a a8 3d bf 89 93 bd cd d1 66 bd
       0.041332792 0.08229631 -0.07204007 -0.056352425
0002e0 fc a9 13 bc 75 78 bd bc cf f1 64 3c 48 26 a1 bd
       -0.009012695 -0.023128727 0.013973667 -0.0786863
0002f0 61 eb 07 3c 72 94 91 ba c0 e3 62 bd fd 79 85 3b
       0.008295865 -0.0011106862 -0.05539298 0.00407338
000300 97 54 55 bd 6a fe 11 3d a8 8d 6a 3d cc 95 55 3d
       -0.052082624 0.03564302 0.057264 0.05214481
000310 d9 96 95 bd a7 d6 86 bd cd 12 95 3d ac c9 94 3d
       -0.073041625 -0.065839104 0.072789766 0.07265028
000320 85 49 53 3d f8 f3 be 3b b6 d1 75 3c 77 5b e4 3c
       0.051583786 0.005827423 0.015003612 0.027875645
000330 47 8e ac 3d 5f 65 a0 bc 5c 40 5b bb d2 78 0f 3c
       0.08425575 -0.019579588 -0.003345511 0.008756833
000340 21 96 cc bb 83 1b 00 bd 53 03 9c 3d 0e 94 1b bd
       -0.0062434827 -0.031276237 0.076178215 -0.037982993
000350 c0 e9 d4 3d 95 87 c3 3d 8a 6a 43 bd 18 da 95 bd
       0.10396147 0.095473446 -0.047709025 -0.07316989
000360 dd da 49 bd 8b c0 93 3c e6 ae fd 3c 84 46 a5 3c
       -0.04928099 0.018036148 0.030967187 0.020175226
000370 d0 93 47 3d ea 88 38 bd fc a9 a5 bd 49 4e c0 3c
       0.04872495 -0.045052446 -0.080890626 0.02347483
000380 70 70 10 3d 63 9b 97 bd 84 f0 d5 bd 6e 12 95 bc
       0.03526348 -0.074026845 -0.10446265 -0.018197265
000390 d5 ff c2 3c 01 7d bc bd fd 7d 73 3c b0 bf 51 bd
       0.02380363 -0.0920353 0.014861581 -0.051208198
0003a0 cd e9 78 bd 76 2e 80 39 68 7c b5 3c bf 60 17 bd
       -0.060769845 0.0002444868 0.022154048 -0.0369575
0003b0 75 8d b7 bc 54 db 2d 3d 02 ae 8c bd 2a 6d 75 bd
       -0.02240632 0.042445496 -0.06869127 -0.05991856
0003c0 69 b1 84 bd 49 b3 89 3d 3e af 52 3d 5d 68 20 3d
       -0.06479151 0.06723649 0.051436655 0.03916203
0003d0 69 95 75 3d c7 de d9 3b c2 a9 08 bd 9f f2 6a 3d
       0.05995694 0.0066488716 -0.03336502 0.057360288
0003e0 88 63 7c bc 87 b6 92 bc 56 f4 d9 bb 41 6e 58 bd
       -0.0154045895 -0.017909301 -0.0066514416 -0.05283952
0003f0 2c 61 40 bc be 33 35 bd 20 82 46 bd 53 78 1f 3d
       -0.011741918 -0.0442388 -0.04846394 0.03893311

bias f4 [32]
000000 f3 39 6b 3d 0a 6a 15 3d 43 13 72 bc 29 8e a2 bd
       0.05742831 0.03647808 -0.0147751 -0.07937271
000010 47 1c a3 bd 33 32 56 bc 1a 59 15 bd ec 32 80 3c
       -0.07964378 -0.013073492 -0.036461927 0.015649281
000020 b4 c5 1a bd 77 b8 3a 3d 12 de 47 3d 66 0c 53 bd
       -0.0377862 0.045586076 0.048795767 -0.051525496
000030 43 ba 83 3d db bd a1 3c a3 bd 90 3d 6c 29 b0 3c
       0.06432011 0.01974385 0.0706742 0.021504126
000040 e2 58 78 bc bd a4 8f 3d 2c 3a 7c 3d 6a 44 7b bd
       -0.01515791 0.07013843 0.061578915 -0.06134454
000050 69 6d 9c 3d 5b 85 94 bc e6 85 54 bd 08 ee b6 bd
       0.07638056 -0.018129995 -0.051885508 -0.089321196
000060 cf d1 bf bc a8 ba 58 3d 1e 26 cd 3d 5a 1a 5c bc
       -0.023415474 0.052912384 0.10017036 -0.013434017
000070 41 d2 0d bc a8 f4 27 3d e7 5e b5 3d e8 15 da bc
       -0.0086560855 0.041004807 0.08855992 -0.026621774

weight f4 [8, 32]
000000 79 85 ed bd 85 79 e1 3d 69 75 da bc be fd 0e be
       -0.115977235 0.11009506 -0.026667314 -0.13963982
000010 5e e3 c7 bc 86 8b e9 3d 69 14 11 3d d6 3e e8 bd
       -0.02440041 0.11403565 0.035419855 -0.1134011
000020 e1 53 3b 3e fb 0e ad bd 6f 69 c0 bd 5d 9f 23 3e
       0.18293716 -0.08450123 -0.0939511 0.15978761
000030 23 02 6c bc ce ee 64 bb 44 a5 a5 bb 94 89 f4 bd
       -0.014404806 -0.0034932378 -0.0050551016 -0.119403034
000040 69 8c 36 be 44 c1 d1 3d f7 af 03 3d b6 d4 d6 bd
       -0.17827 0.102419406 0.032150235 -0.1048979
000050 4c 08 ed bb f0 87 df bc cf 3a b8 bc 07 bf 06 be
       -0.007233655 -0.0272865 -0.02248898 -0.13158809
000060 4a 77 d4 3d 02 e4 00 3e b3 b1 0b bd 8b 2e 34 3e
       0.10374315 0.12586978 -0.034105014 0.1759588
000070 7f b8 f0 3d 0e 17 29 be a2 54 33 3d b4 ce eb bc
       0.1175394 -0.16512701 0.043781884 -0.028785087
000080 39 f4 56 3e 61 22 d6 3d 4f 28 49 3c c3 3d ae bd
       0.20991601 0.10455776 0.012277677 -0.08507874
000090 42 60 53 3c 04 94 23 bd 6d 9d 5b 3d 6a b6 dd 3d
       0.012901368 -0.03993608 0.05361693 0.10825808
0000a0 c5 57 f5 bd e5 d9 2c 3d 26 d9 5a bc ed da 2b be
       -0.11979631 0.042199988 -0.013357436 -0.16782732
0000b0 6a 48 19 3e cc ce fb 3d 19 9b 2b 3d d7 e5 f3 3d
       0.1496903 0.12295303 0.04189596 0.11909073
0000c0 1a a8 da 3d 29 78 e1 bd 33 60 45 3d cd ec 3c 3e
       0.10676594 -0.11009247 0.048187446 0.18449707
0000d0 eb 57 d2 bc 9e 71 e1 bd 10 74 39 be 59 cf f9 bc
       -0.025676688 -0.11007999 -0.1811068 -0.030494379
0000e0 f5 26 8c 3d cc 3b a4 3d a6 98 d7 3c 5e 40 d9 bb
       0.06843368 0.08019218 0.026317906 -0.0066299876
0000f0 ff e3 df 3d cb 95 7b bc 6a bd dc bd 58 cb b2 3d
       0.10932159 -0.015355538 -0.10778315 0.08730191
000100 b0 91 05 3e 48 91 c4 3d f1 ab 24 be 0a 01 27 3e
       0.13043857 0.09598023 -0.16081215 0.1630899
000110 7c 28 ed bc d4 dd ef bd 04 20 6a bd a0 45 26 3e
       -0.028949969 -0.11712232 -0.05715944 0.16237497
000120 aa 90 31 3d 8a 50 f4 bd 12 64 a6 bd 90 2a 9f 3d
       0.043350853 -0.11929424 -0.08124556 0.0777179
000130 0e aa b8 bd 83 5e 21 3e 66 55 65 3d ad 45 6d bd
       -0.0901681 0.1575871 0.055989645 -0.057927776
000140 27 c2 db 3d 18 38 ca bc cb 79 12 bd fc 24 c8 3d
       0.10730391 -0.02468495 -0.035760682 0.09772679
000150 39 ff be 3d b6 08 e1 3d f9 83 d2 3d f9 04 80 bd
       0.093260236 0.109879896 0.10279078 -0.062509485
000160 71 f2 4a 3c ce 6c 94 3d 7b 7e 89 bd 0e 73 a9 bd
       0.012386904 0.07247315 -0.06713577 -0.08273898
000170 fa 99 0c bd 0e 18 17 be e5 85 cb bb b9 ce f6 3d
       -0.03432653 -0.1475527 -0.00621103 0.12051148
000180 aa ac 40 3e 5d 9b b3 3d c7 26 37 be 30 d9 ed 3d
       0.18815866 0.087698676 -0.17885886 0.11613691
000190 88 ea 7b bd f9 38 e9 bd 6c 74 30 3d 5a aa 37 3e
       -0.061502963 -0.1138782 0.04307978 0.17936078
0001a0 dd 64 e8 3d 5a b4 09 bb dd 0a 5e 3d 0c 81 41 bd
       0.11347363 -0.002101204 0.05420958 -0.04724221
0001b0 e9 55 c9 bd db 3f 49 bd e6 44 1f be f9 a6 37 3d
       -0.09830839 -0.049133163 -0.15553626 0.044836972
0001c0 bb 88 ca bd 1e 43 48 3e e2 77 b2 3c 27 ad 25 be
       -0.098893605 0.19556853 0.02178568 -0.16179334
0001d0 66 7d 24 bd 6c 5e bd 3d e6 fc 3f 3d df dd 8d bc
       -0.04015865 0.09246525 0.046872042 -0.01731771
0001e0 9d 19 c7 bd 58 2e 99 bd f9 7f fd 3c f0 c0 53 3c
       -0.09721682 -0.074795425 0.030944811 0.012924418
0001f0 45 67 f2 3c 48 9d 8e bd 07 38 c1 bd ce 3b a2 3d
       0.029590258 -0.06963593 -0.094345145 0.07921563
000200 9b 7a 44 3e d3 02 0a be 9f aa b9 3d 8b ba c9 3d
       0.19187395 -0.1347764 0.090657465 0.098500334
000210 9f 2c 3c 3e 7a c3 40 3e b9 c2 69 3c f8 3b 1d 3e
       0.18376397 0.18824568 0.014267617 0.15354908
000220 22 d5 03 be ec e1 1b be 23 d6 6e bd 19 0b fb bc
       -0.12874272 -0.15222901 -0.058309685 -0.03064494
000230 43 d5 1a 3c 3a 41 8b bc 7d 57 cc 3d fe 6b b9 bd
       0.00945026 -0.016998876 0.099776246 -0.09053801
000240 e9 6b d0 3b 9c 82 2e 3e eb dd af bd 00 70 83 bd
       0.00636052 0.17042011 -0.08587249 -0.06417847
000250 4f 92 19 3d a3 7b 68 3d 20 c5 3b be ce 6d 19 be
       0.037493046 0.056758534 -0.18336916 -0.14983293
000260 80 76 1b be 5a 03 b2 3d 07 6b d7 bc a5 e4 30 be
       -0.15181923 0.086920455 -0.026296152 -0.17274721
000270 10 63 a7 3c c7 c0 00 be e9 94 8c bd c7 48 de 3d
       0.020432979 -0.12573539 -0.0686434 0.10853725
000280 64 f0 31 be cd b6 d3 bc a6 c5 f2 bd 43 b5 6d bb
       -0.17376858 -0.025844002 -0.11854105 -0.003627137
000290 8c b6 04 3e 96 e4 0e be c8 18 4b 3d 3a 0e 87 3b
       0.12960261 -0.13954386 0.04958418 0.004121569
0002a0 01 93 14 be 46 10 20 3e cb 1b 1f 3e c8 43 02 3b
       -0.14509203 0.15631208 0.15537946 0.0019876827
0002b0 6d bb 3f be 2e 50 0f 3e 07 e5 6f bb c3 7d ce 3d
       -0.18723841 0.1399543 -0.0036605017 0.10082581
0002c0 c5 0a 26 3e e4 05 06 be d3 a6 86 3d 7d ea fe bc
       0.16215046 -0.13088185 0.06574788 -0.031117672
0002d0 87 60 bb 3d b5 59 86 bd 60 59 c5 bd a1 7d 33 3e
       0.091492705 -0.06560079 -0.096361876 0.17528392
0002e0 6f fd 50 be a0 c5 b5 3d a3 80 3a be 45 48 31 be
       -0.20409177 0.088755846 -0.18213134 -0.17312725
0002f0 4d 4f cd 3d 1c 2b aa 3d 47 7e a1 bd 9d 60 26 be
       0.10024891 0.08309004 -0.078854136 -0.16247793
000300 71 f1 01 be f1 59 43 3e f3 dd 4c 3d 61 4d 8e bd
       -0.12689759 0.19077279 0.050016355 -0.069483526
000310 2c a3 38 bd b4 af 09 be ee 21 52 3d 49 ad 0e be
       -0.045077488 -0.13445932 0.05130189 -0.1393329
000320 ab 51 14 be c7 14 63 bd 0d 98 45 be 44 8f 09 be
       -0.14484279 -0.055439737 -0.19296284 -0.13433558
000330 fa 03 a5 3d 73 20 72 bd c3 56 d3 bd 4c 6b 1e bd
       0.08057399 -0.059112977 -0.10319283 -0.038676545
000340 74 22 87 3d 97 2a 3e 3c e4 6c bd 3d fa b8 ee 3d
       0.06598368 0.011606834 0.09249285 0.11656375
000350 f6 f8 d0 3d 93 55 08 be 18 87 41 3e ab 5e 30 3e
       0.102037355 -0.13313894 0.1889919 0.17223613
000360 50 1b 2b 3d 20 14 ef bd f0 9a 7f bc 74 01 15 be
       0.041774094 -0.116737604 -0.015600905 -0.14551336
000370 7e 67 45 3e 84 cb 9c 3c f6 b3 bc 3d 5b 37 35 3d
       0.1927776 0.019140013 0.09214012 0.044242244
000380 c2 23 0b bd 7f c3 fa bd 0c d4 18 be 47 d7 0c 3e
       -0.03396965 -0.12244319 -0.1492464 0.13753997
000390 c8 55 80 bc ba 7d c8 bd 9d 3b 2f be 9c 31 5c 3c
       -0.015665904 -0.097896054 -0.17112584 0.013439562
0003a0 42 c3 c7 bd 2e 96 14 3e 7a 64 16 3e c5 66 db bd
       -0.09754039 0.14510414 0.14686766 -0.10712961
0003b0 e3 c4 96 bd c0 8f ac 3c 1c da c9 3d 10 5a 4d 3c
       -0.07361772 0.02106464 0.09856054 0.01253368
0003c0 1c bc 4d 3e 72 71 1a 3e 5a 08 71 3d e8 1a 1c bd
       0.2009129 0.15082338 0.058845855 -0.038111597
0003d0 28 2d eb bd 5d 96 e7 3c b6 c8 c1 3c 8c 23 36 3d
       -0.11483222 0.028269941 0.023655277 0.044467494
0003e0 7c cf e6 bd bd d2 09 be 32 d8 4f 3b a2 3c d8 3d
       -0.11270043 -0.13459297 0.0031714556 0.1055844
0003f0 75 8a bf bd 63 6b 53 bd b8 a1 51 3d af cb 27 be
       -0.093525805 -0.051616084 0.051179618 -0.16386293

bias f4 [8]
000000 5f 82 88 3d a9 9b 46 bd fe d2 3c 3e 47 7b 33 bd
       0.06665491 -0.048488293 0.18439862 -0.04381874
000010 28 cf d1 bd 57 97 34 3c 68 e8 c9 bd f6 20 f1 3d
       -0.1024459 0.01102241 -0.09858781 0.11773865

weight f4 [32]
000000 07 13 86 3f bb 48 84 3f 2b d5 7f 3f 32 83 7a 3f
       1.0474557 1.0334696 0.99934644 0.9785644
000010 72 19 81 3f 43 62 81 3f 3f ee 80 3f 8e 7b 85 3f
       1.008589 1.0108112 1.0072707 1.0428331
000020 49 0f 7e 3f e1 24 81 3f a9 be 83 3f fc ff 7e 3f
       0.99242073 1.008938 1.029256 0.9960935
000030 12 f4 81 3f 4a b1 7b 3f 88 9f 79 3f de 1e 7e 3f
       1.0152609 0.98317397 0.9750905 0.9926585
000040 8a 32 83 3f e1 60 82 3f 81 02 80 3f 53 eb 81 3f
       1.0249798 1.0185815 1.0000764 1.014994
000050 71 82 73 3f f1 59 79 3f 4b df 83 3f a1 07 7d 3f
       0.9512091 0.97402865 1.0302519 0.98839766
000060 4c 43 81 3f 0e b4 7e 3f 7d 06 81 3f c7 51 7b 3f
       1.0098662 0.9949349 1.0080105 0.9817166
000070 5b b7 80 3f 61 19 7d 3f bb 53 80 3f 3b 8b 79 3f
       1.0055956 0.9886685 1.0025553 0.97478074
