code/model_sol_backups/model_sol_41.pt (torch, 502306 bytes, 158 tensors)

weight f4 [32, 2]
0.4603001 -0.35021627 0.60644597 0.58620733 -0.45876423 -0.29109222 0.06611372 0.29013276
-0.69010437 0.2404584 0.3817233 -0.40481666 -0.51235735 -0.30149406 0.10909052 0.061361797
-0.60187817 -0.6927035 -0.6385992 -0.30118763 0.66442674 -0.39266866 0.52808726 0.33634773
-0.29371986 0.16747393 -0.23827378 -0.178725 -0.6781057 0.40635538 0.2169682 -0.39898258
-0.22795624 0.32114103 -0.55025804 0.55000573 0.38229397 0.24664402 -0.056583922 0.49702737
-0.031450927 -0.17501771 -0.16572861 -0.63739884 -0.4539831 0.24683459 -0.21930647 -0.6314437
-0.4015116 0.26459202 -0.32512608 -0.5229067 0.047478843 -0.40279633 -0.24949865 -0.6597444
-0.46343908 -0.48069596 -0.28776398 -0.4933692 0.32373893 -0.1462687 0.04767112 0.4760343
00000000: 74ac eb3e 8c4f b3be 0b40 1b3f af11 163f
00000010: 25e3 eabe 0a0a 95be a166 873d 488c 943e
00000020: aeaa 30bf ba3a 763e 3d71 c33e 2144 cfbe
00000030: da29 03bf 6e5d 9abe da6a df3d 8256 7b3d
00000040: b014 1abf 0455 31bf 3d7b 23bf 4435 9abe
00000050: df17 2a3f de0b c9be ba30 073f c535 ac3e
00000060: 7362 96be 497e 2b3e 0bfe 73be b003 37be
00000070: 5698 2dbf d00d d03e e92c 5e3e 7247 ccbe
00000080: 5c6d 69be 996c a43e b6dd 0cbf 2dcd 0c3f
00000090: 09bc c33e 4090 7c3e 8bc4 67bd 5f7a fe3e
000000a0: b0d2 00bd d837 33be c3b4 29be 922c 23bf
000000b0: 7970 e8be 35c2 7c3e e091 60be 4ba6 21bf
000000c0: ee92 cdbe 9b78 873e ed76 a6be 37dd 05bf
000000d0: 2d79 423d 523b cebe 937c 7fbe 02e5 28bf
000000e0: e347 edbe c81d f6be cd55 93be e39a fcbe
000000f0: 1cc1 a53e 76c7 15be cb42 433d c5ba f33e

bias f4 [32]
-0.6126213 -0.036803056 -0.5045238 -0.20260118 0.398527 0.48526576 -0.06735748 0.2621745
-0.16134866 -0.19765818 0.3520275 -0.18933426 0.17514277 0.3224439 -0.5023543 0.5299129
-0.32425946 0.3531076 0.16343378 -0.2126702 -0.4495246 0.0017375085 -0.21259165 -0.16708569
-0.45812735 0.06800777 0.29119265 0.0063456404 -0.02412166 -0.3076917 -0.5254378 -0.05582982
00000000: c0d4 1cbf cdbe 16bd 7928 01bf af76 4fbe
00000010: bb0b cc3e c174 f83e b8f2 89bd bc3b 863e
00000020: 9538 25be e866 4abe f33c b43e d7e0 41be
00000030: a058 333e 5e17 a53e 4b9a 00bf 5fa8 073f
00000040: 5605 a6be 85ca b43e 2f5b 273e 38c6 59be
00000050: 1728 e6be 1cbd e33a a0b1 59be 8318 2bbe
00000060: ab8f eabe a847 8b3d 3417 953e 17ef cf3b
00000070: ca9a c5bc c489 9dbe 1783 06bf cfad 64bd

weight f4 [8, 32]
-0.04142823 -0.067627855 0.028233336 -0.03889061 0.09767575 -0.03576793 0.119465165 -0.030426962
-0.05813675 0.03322439 0.033934724 -0.1712292 -0.08411112 -0.06621769 -0.14167137 -0.15449159
0.08171356 0.05268828 -0.13048701 -0.0319465 0.0663371 -0.07415403 -0.1444368 0.07345817
0.14304954 0.058696553 0.04926616 -0.07578232 0.010762179 -0.102539964 0.014770416 -0.031946015
-0.07865007 -0.059981525 0.11406264 -0.11904106 -0.08902789 0.091589086 0.15268838 0.114576004
-0.08530576 -0.091657974 0.06979018 -0.14392433 -0.14144942 -0.063625515 -0.045599975 -0.06347057
-0.16673008 -0.16219802 -0.17453063 0.14364186 -0.13709432 0.018259548 0.11426078 0.06758037
-0.16617128 -0.07034377 -0.106765606 -0.09729036 -0.011703633 -0.1593936 -0.09509862 -0.01689189
-0.009704708 0.09025859 0.010677904 0.1669482 0.03884095 -0.04826906 0.12577824 -0.025256898
-0.1814803 -0.021849647 -0.05457385 -0.010617077 0.14992303 -0.17992799 -0.1649089 -0.057849154
0.0893008 -0.1399173 -0.032925133 -0.112831794 0.08835494 -0.061151743 0.013510235 0.035661798
-0.1678948 -0.115147755 -0.006294227 0.07647837 0.06474079 -0.16147952 -0.15804398 -0.15587431
0.14736815 -0.14532164 -0.012407304 0.116553076 -0.13343911 -0.106983535 0.120933026 -0.07232968
-0.021458603 -0.004293092 0.028104592 0.035215504 0.0340954 0.07593836 -0.015710684 0.008255322
0.13152823 0.020342985 0.091078356 0.040826425 0.084950276 0.15426205 -0.15696236 -0.1412871
0.15116982 0.020065658 -0.13171715 0.13453479 -0.13472387 -0.12862352 -0.14496724 -0.07986339
0.1502662 0.023330865 0.122080185 -0.04464663 0.13790344 0.15017706 0.07927583 0.11795165
0.11958444 -0.057595864 -0.030343672 0.122253716 0.15438485 0.13817105 0.12052182 0.09634309
-0.02152534 0.014004613 -0.13934447 -0.0365766 -0.09410899 0.17045614 -0.13783759 0.14306322
0.07605745 0.09987104 0.15235442 0.042806964 0.015089225 0.059089515 -0.08744053 -0.1341893
0.10285611 0.05644928 0.17312257 -0.10334425 0.15779191 -0.11497818 -0.15899101 -0.105837695
-0.08974058 0.12982486 -0.08482969 0.104248025 -0.14964816 0.022582345 -0.1683615 0.038943313
-0.1559044 -0.08293325 -0.11692349 0.049736027 0.13582027 0.13356644 0.07201487 0.06514651
-0.022662176 0.14374141 0.15497091 0.14323844 0.088137075 0.106959775 -0.12470898 -0.055557102
-0.09165386 -0.0037813308 0.015234482 0.061808065 0.08010946 0.1564659 0.16438825 0.03910451
0.124475874 -0.042081464 0.10732467 0.07331371 -0.09722088 0.09409935 -0.17106533 0.0570874
0.11186424 0.110986024 0.012001207 0.13638122 -0.008681271 -0.077164195 0.09035156 0.039869204
-0.13970514 0.17398728 0.04430038 -0.08473832 -0.092177585 0.108026296 0.13734303 -0.070098326
-0.16975896 -0.012598474 0.04863417 0.034117084 0.14075276 0.15542577 0.094024196 0.039543305
0.03621782 -0.09482351 -0.13317089 0.025542503 0.00097387796 0.12662119 0.043129046 0.0059396117
0.12599127 -0.10221233 -0.08241323 0.01444231 0.056227624 -0.14027144 -0.058563672 -0.15885334
0.025411531 -0.08397859 -0.04974954 0.08304107 0.108286045 -0.071735986 0.101153046 -0.05449726
00000000: a6b0 29bd 7980 8abd 9949 e73c c34b 1fbd
00000010: 390a c83d 6581 12bd 27aa f43d f741 f9bc
00000020: cd20 6ebd 4c16 083d 23ff 0a3d b556 2fbe
00000030: 7342 acbd 249d 87bd 4d12 11be 0b33 1ebe
00000040: 7059 a73d aacf 573d 639e 05be 55da 02bd
00000050: bfdb 873d 11de 97bd 3ee7 13be 3d71 963d
00000060: 947b 123e cc6b 703d 50cb 493d c333 9bbd
00000070: da53 303c 7900 d2bd 9dff 713c d3d9 02bd
00000080: 4a13 a1bd 30af 75bd ac99 e93d cdcb f3bd
00000090: 4154 b6bd 0f93 bb3d 585a 1c3e d3a6 ea3d
000000a0: c9b4 aebd 2db7 bbbd 27ee 8e3d e660 13be
000000b0: 1ed8 10be 184e 82bd 0ac7 3abd dcfc 81bd
000000c0: 4abb 2abe 3d17 26be 28b8 32be da16 133e
000000d0: 7462 0cbe 0c95 953c 8e01 ea3d 9467 8a3d
000000e0: ce28 2abe 6510 90bd eda7 dabd 2b40 c7bd
000000f0: 98c0 3fbc 1338 23be 11c3 c2bd dc60 8abc
00000100: 7f00 1fbc 7fd9 b83d 60f2 2e3c 78f4 2a3e
00000110: b017 1f3d c7b5 45bd 03cc 003e 8ee7 cebc
00000120: f9d5 39be 08fe b2bc d488 5fbd 40f3 2dbc
00000130: 6c85 193e 0b3f 38be e1dd 28be 3cf3 6cbd
00000140: 56e3 b63d 7b46 0fbe 81dc 06bd 5b14 e7bd
00000150: 6ff3 b43d 407a 7abd 085a 5d3c 1b12 123d
00000160: 9dec 2bbe 96d2 ebbd ce3f cebb b1a0 9c3d
00000170: d296 843d e35a 25be 48d6 21be 849d 1fbe
00000180: ade7 163e 32cf 14be 0148 4bbc 61b3 ee3d
00000190: 43a4 08be 2f1a dbbd bcab f73d 9521 94bd
000001a0: f4c9 afbc 11ad 8cbb 9a3b e63c 223e 103d
000001b0: 9ea7 0b3d 9285 9b3d b1b3 80bc 5541 073c
000001c0: 56af 063e 55a6 a63c 4a87 ba3d 9c39 273d
000001d0: 69fa ad3d dff6 1d3e beba 20be 91ad 10be
000001e0: 43cc 1a3e bc60 a43c dce0 06be 7dc3 093e
000001f0: 0ef5 09be e2b5 03be 4b72 14be 6b8f a3bd
00000200: 62df 193e 5f20 bf3c 2d05 fa3d 62df 36bd
00000210: 8f36 0d3e 04c8 193e 5e5b a23d a290 f13d
00000220: b0e8 f43d a4e9 6bbd 4b93 f8bc 2860 fa3d
00000230: 1017 1e3e b67c 0d3e 25d4 f63d 874f c53d
00000240: e955 b0bc 9b73 653c 51b0 0ebe 58d1 15bd
00000250: 37bc c0bd 0e8c 2e3e 4c25 0dbe 2a7f 123e
00000260: 02c4 9b3d 3089 cc3d cc02 1c3e 5b56 2f3d
00000270: cc38 773c d907 723d 0514 b3bd eb68 09be
00000280: 39a6 d23d 5c37 673d 0b47 313e 26a6 d3bd
00000290: 3494 213e ae79 ebbd 8ace 22be 6fc1 d8bd
000002a0: e9c9 b7bd cff0 043e 30bb adbd fd7f d53d
000002b0: 5e3d 19be 9cfe b83c f566 2cbe 0683 1f3d
000002c0: 67a5 1fbe e8d8 a9bd 9575 efbd 01b8 4b3d
000002d0: 7814 0b3e a4c5 083e 887c 933d 896b 853d
000002e0: 07a6 b9bc f330 133e b2b0 1e3e 19ad 123e
000002f0: 3681 b43d ba0d db3d 6c67 ffbd d88f 63bd
00000300: 05b5 bbbd 34d0 77bb 0c9a 793c 742a 7d3d
00000310: 6e10 a43d 9938 203e 6555 283e 0d2c 203d
00000320: 35ed fe3d 9d5d 2cbd 09cd db3d 8025 963d
00000330: be1b c7bd 29b7 c03d c02b 2fbe 7ad4 693d
00000340: 1419 e53d a44c e33d b6a0 443c 85a7 0b3e
00000350: e43b 0ebc 4308 9ebd 3d0a b93d e44d 233d
00000360: dd0e 0fbe b929 323e 5174 353d 498b adbd
00000370: 9ac7 bcbd e43c dd3d a7a3 0c3e b68f 8fbd
00000380: 4bd5 2dbe d469 4ebc a034 473d 5bbe 0b3d
00000390: 7e21 103e ef27 1f3e c28f c03d 29f8 213d
000003a0: 2359 143d d432 c2bd f35d 08be 833e d13c
000003b0: d84b 7f3a fca8 013e 15a8 303d 13a1 c23b
000003c0: db03 013e b354 d1bd 44c8 a8bd 709f 6c3c
000003d0: f04e 663d 51a3 0fbe 76e0 6fbd 73aa 22be
000003e0: d82b d03c f8fc abbd 2cc6 4bbd 7011 aa3d
000003f0: 13c5 dd3d 51ea 92bd 5429 cf3d 8538 5fbd

bias f4 [8]
0.17994758 0.14209332 -0.16837186 -0.078024484 -0.007504663 0.107281305 -0.06912721 0.029550882
00000000: 2e44 383e e980 113e ac69 2cbe 4dcb 9fbd
00000010: ade9 f5bb 4db6 db3d 9192 8dbd b114 f23c

weight f4 [32]
1.001982 1.0181888 0.99474347 1.0009155 1.0024096 0.99513894 1.0022129 1.0000993
1.0025073 1.0009223 0.9965083 1.0023035 0.99900776 1.0058081 0.99886334 0.9909369
1.0036074 1.0051441 0.99867797 1.007431 1.0036738 1.0026344 0.99247754 1.0001079
1.0102963 1.0120529 0.9928671 0.9985375 0.99283034 1.012355 0.9948966 0.99376225
00000000: f240 803f 0354 823f 82a7 7e3f 001e 803f
00000010: f54e 803f 6dc1 7e3f 8348 803f 4103 803f
00000020: 2952 803f 391e 803f 2b1b 7f3f 7b4b 803f
00000030: f9be 7f3f 52be 803f 82b5 7f3f 0aae 7d3f
00000040: 3576 803f 90a8 803f 5ca9 7f3f 80f3 803f
00000050: 6278 803f 5356 803f 0213 7e3f 8903 803f
00000060: 6451 813f f38a 813f 8a2c 7e3f 27a0 7f3f
00000070: 212a 7e3f d994 813f 8bb1 7e3f 3467 7e3f

bias f4 [32]
0.0020267575 0.01815422 -0.0052733603 0.00027394347 0.0023972874 -0.0049022604 0.0022312212 0.0002275686
0.0023329435 0.0009172768 -0.0034902135 0.002259015 -0.00094561843 0.005808129 -0.0011251541 -0.009167824
0.0036499493 0.0051657963 -0.0013451712 0.0064374823 0.0026285613 0.0026788781 -0.0075443857 0.00015644677
0.010438557 0.012076847 -0.006663039 -0.0015728673 -0.007206056 0.012304343 -0.005156636 -0.004467766
00000000: 59d3 043b 29b8 943c 27cc acbb 12a0 8f39
00000010: cf1b 1d3b 24a3 a0bb ae39 123b 7b9f 6e39
00000020: 4ce4 183b 6775 703a 11bc 64bb fc0b 143b
00000030: 61e3 77ba 1e52 be3b e879 93ba a434 16bc
00000040: fd33 6f3b d745 a93b 7550 b0ba 84f1 d23b
00000050: f143 2c3b 1e90 2f3b e536 f7bb dc0b 2439
00000060: 7b06 2b3c f8dd 453c 9f55 dabb ab28 ceba
00000070: c720 ecbb 2898 493c fff8 a8bb 5666 92bb

running_mean f4 [32]
-0.7425228 0.0054019066 -0.5054098 -0.15183389 0.535427 0.3539709 -0.0634577 0.26078033
-0.2258329 -0.17752026 0.18722358 -0.18780895 0.24671215 0.31641257 -0.33328295 0.42092428
-0.2296723 0.5351724 0.16500382 -0.10425107 -0.48123398 -0.10713981 -0.10445552 -0.26787087
-0.3530073 0.0028912127 0.20311792 -0.09637333 -0.063053034 -0.37160042 -0.5966198 0.03510064
00000000: f915 3ebf 7a02 b13b 8962 01bf 587a 1bbe
00000010: be11 093f ac3b b53e 1cf6 81bd 0085 853e
00000020: bd40 67be dfc7 35be 8ab7 3f3e fd50 40be
00000030: 1ca2 7c3e d400 a23e 10a4 aabe 6383 d73e
00000040: 372f 6bbe 0f01 093f c3f6 283e 9681 d5bd
00000050: 4d64 f6be 1e6c dbbd c7ec d5bd 5f26 89be
00000060: 5fbd b4be 807a 3d3b 25fe 4f3e 615f c5bd
00000070: f321 81bd 6942 bebe 13bc 18bf b0c5 0f3d

running_var f4 [32]
0.11769019 0.19006756 0.10326403 0.0075298683 0.24136718 0.08833798 0.12814234 0.0057940315
0.19502097 0.19718692 0.2350285 0.13682246 0.04570715 0.028247986 0.24528742 0.037637554
0.03542803 0.180115 0.07177577 0.020566272 0.0025017643 0.03892475 0.10857395 0.047154196
0.087229 0.064799085 0.013605537 0.055704948 0.112656154 0.05255266 0.05413703 0.016736183
00000000: 8e07 f13d 12a1 423e 177c d33d 1dbd f63b
00000010: f528 773e 8bea b43d bf37 033e dcdb bd3b
00000020: 94b3 473e 5eeb 493e 50ab 703e 301b 0c3e
00000030: 6c37 3b3d 5268 e73c a02c 7b3e d629 1a3d
00000040: fb1c 113d 1170 383e 2dff 923d 997a a83c
00000050: a4f4 233b 8f6f 1f3d 055c de3d c224 413d
00000060: 1ea5 b23d 62b5 843d c2e9 5e3c df2a 643d
00000070: 45b8 e63d 7541 573d cabe 5d3d 521a 893c

weight f4 [32, 3]
-0.08380791 -0.06712092 0.24981707 0.012640646 0.4423954 0.3805988 0.3071306 -0.45433873
-0.38422862 0.18969391 0.5246621 -0.16456258 -0.10462265 0.26709554 -0.11401181 -0.13818006
-0.3553814 0.32238767 -0.13183554 -0.3782454 0.1853294 0.33175933 0.083620384 -0.02535246
-0.22120221 -0.13880932 0.19897647 -0.5553397 0.4135079 0.3292119 -0.12162413 -0.06349173
0.002582851 -0.35284978 -0.09221913 -0.19920912 -0.21149729 0.15859623 0.0031362856 -0.46699914
-0.4024207 0.2874398 0.42276397 0.3677621 0.44321528 -0.44706464 0.32062504 0.52272284
-0.08608942 -0.18845665 -0.004572059 0.50894535 0.081926584 -0.0943497 0.040982712 -0.1579052
-0.57005495 0.0936987 0.14261399 -0.2268651 -0.39632788 0.544932 -0.40384808 -0.5291979
0.30424798 -0.16876477 0.28760308 -0.1018434 -0.3016917 0.43282738 0.3898869 0.45765337
0.08776306 -0.15278196 -0.116866015 0.473984 0.18460055 0.5326138 0.24141541 -0.11283143
0.13537452 0.19388255 -0.10363218 0.058350056 0.12754223 -0.34758222 0.21304251 0.0011744502
-0.37832692 -0.15976818 -0.34559155 -0.30966416 -0.48355606 -0.1865377 0.15551999 -0.5373166
00000000: 7ba3 abbd b176 89bd 0cd0 7f3e b61a 4f3c
00000010: a681 e23e d9dd c23e 3940 9d3e 169f e8be
00000020: 9db9 c4be 1f3f 423e 4150 063f 1883 28be
00000030: 6644 d6bd bfc0 883e 067f e9bd 137f 0dbe
00000040: 8df4 b5be ff0f a53e e5ff 06be 62a9 c1be
00000050: fdc6 3d3e 5cdc a93e 2a41 ab3d f6af cfbc
00000060: d582 62be 0824 0ebe 7dc0 4b3e be2a 0ebf
00000070: 4fb7 d33e 768e a83e 1216 f9bd f407 82bd
00000080: 0d45 293b baa8 b4be 62dd bcbd 7afd 4bbe
00000090: bf92 58be 0d67 223e 248a 4d3b 831a efbe
000000a0: 160a cebe 4f2b 933e 8574 d83e 504b bc3e
000000b0: 1ded e23e a8e5 e4be f728 a43e 2ad1 053f
000000c0: a64f b0bd c8fa 40be 36d1 95bb 3e4a 023f
000000d0: 20c9 a73d 6a3a c1bd 7ddd 273d e7b1 21be
000000e0: 1fef 11bf 1be5 bf3d 6709 123e 534f 68be
000000f0: 7deb cabe aa80 0b3f 2dc5 cebe 8379 07bf
00000100: 64c6 9b3e acd0 2cbe b640 933e 4693 d0bd
00000110: 5677 9abe 8d9b dd3e 419f c73e 8b51 ea3e
00000120: 1fbd b33d e072 1cbe 7357 efbd 08ae f23e
00000130: ed07 3d3e 6159 083f 9a35 773e 2a14 e7bd
00000140: 9e9f 0a3e 2689 463e 1c3d d4bd 7800 6f3d
00000150: 6e9a 023e 4cf6 b1be d127 5a3e 02f0 993a
00000160: 11b4 c1be 459a 23be 60f1 b0be 4d8c 9ebe
00000170: a994 f7be bd03 3fbe a240 1f3e 958d 09bf

bias f4 [32]
-0.14962156 0.3066995 0.1051796 -0.09253071 0.001396135 -0.21509726 0.48663548 -0.34905845
0.13385089 -0.44916725 -0.57704645 0.52137893 -0.47922122 -0.0948638 0.3103243 -0.33242038
0.33514118 -0.48288095 0.21468577 -0.017786814 -0.39862394 0.46238056 0.29038584 0.34836838
-0.06833467 0.041273095 0.04226125 -0.22557434 -0.13639578 0.32896975 -0.10987308 0.5017783
00000000: 6536 19be b807 9d3e 6768 d73d be80 bdbd
00000010: 84fe b63a 7542 5cbe 4928 f93e cab7 b2be
00000020: 3510 093e 40f9 e5be 51b9 13bf 1779 053f
00000030: 7c5c f5be f447 c2bd d4e2 9e3e 0133 aabe
00000040: a097 ab3e 2c3c f7be 96d6 5b3e a7b5 91bc
00000050: 7018 ccbe 25bd ec3e 74ad 943e 575d b23e
00000060: 0cf3 8bbd fa0d 293d 221a 2d3d f6fc 66be
00000070: 56ab 0bbe b96e a83e 2305 e1bd 8b74 003f

weight f4 [8, 32]
-0.057341605 -0.07724518 -0.03564254 -0.1714548 0.15811405 -0.13611317 0.16033766 0.10618775
-0.06307961 -0.02865873 0.053410675 -0.012843639 -0.0301704 0.07276115 -0.021563338 0.056746386
-0.12885226 0.000639773 -0.11195987 -0.0048854165 -0.0070120865 0.071659625 -0.09227117 -0.08003019
0.055273693 0.008845303 -0.00011568698 -0.14408821 -0.094988264 0.10343636 -0.11920365 -0.13578258
-0.15953077 0.026612861 0.1806026 -0.12066843 0.07275614 -0.17858706 -0.044890504 0.16796902
0.048946124 0.02967278 0.010710717 0.0063669295 -0.0786663 0.004568002 0.15724492 -0.012971304
0.004282792 -0.162726 0.17732629 0.15595242 -0.10046927 -0.032826293 0.1309979 0.027517892
-0.13782817 0.06286891 -0.09868713 -0.10545383 -0.05780874 0.07616434 -0.13371237 0.15710904
-0.11057716 -0.0051471074 0.16530211 -0.01859933 0.15472601 0.051649187 0.10222244 -0.09579139
0.009022193 0.14900196 -0.12333579 0.09445266 0.05673795 0.075889245 0.11119465 -0.13912892
0.10261588 -0.0858483 0.04117387 0.17130248 -0.07857941 0.16277353 -0.019421881 0.0813297
-0.13331138 0.16700077 -0.13255264 0.100897886 -0.04482684 0.18108453 0.088643506 -0.025874019
0.1727109 -0.12083326 0.0635586 -0.17888635 -0.002681884 -0.03949406 -0.106172316 0.1274928
-0.011094863 0.13712183 -0.101056054 -0.15649244 0.071342446 0.14740284 -0.058383342 -0.064741865
0.0325011 0.09342404 0.1721333 -0.12762251 0.15356764 0.0042468645 0.061563775 0.08730247
0.12925248 0.17058921 0.15762869 -0.087532 0.15987767 0.02057347 -0.115545794 0.08873958
-0.0414606 0.111054815 -0.12591337 0.11378483 0.15596668 -0.15370639 0.09417749 0.10169004
0.0939007 -0.11317939 -0.039235648 -0.0051599857 0.109788515 0.020769138 0.022047577 -0.028790593
0.03651772 -0.06885082 -0.12365137 0.1337793 0.11472269 0.013432945 -0.122016884 -0.07046878
-0.12406757 0.028101113 -0.16765088 -0.0055740266 -0.042095277 0.012209563 0.054724667 -0.07465151
0.13588385 -0.14588448 -0.15506306 -0.036644824 -0.013273546 0.021756291 0.03966541 -0.02064405
0.10799452 0.048651706 -0.08714416 0.1229873 -0.09206506 0.16465354 0.14638473 -0.08994255
-0.055541124 -0.069334075 -0.0036180287 0.09444637 -0.08189659 -0.15295668 0.0121928435 0.05595038
-0.15036051 -0.10084119 0.010254399 0.0071626697 0.08995415 0.052496273 -0.036365833 0.14891352
-0.104774944 -0.11185234 0.020957591 0.1268946 0.10335681 -0.060791787 0.0014328551 0.07587938
-0.16464171 0.0058184587 0.17784643 0.15080819 -0.16787262 -0.05095004 0.11548628 -0.15078126
-0.15267816 -0.09989727 -0.16591154 -0.13815573 -0.012819184 -0.051033042 0.14051032 0.10789326
0.1408449 -0.017456489 -0.113279715 0.13663855 0.04556674 -0.06588989 0.0477858 -0.08504595
-0.05095204 -0.12746978 0.12191901 -0.16324481 0.06774823 0.11467778 -0.042951975 0.014713215
-0.08419078 0.16742533 0.036950704 -0.07702234 0.07649242 0.06515181 -0.14961366 -0.08595127
0.03276715 -0.11579881 0.096697465 -0.11301394 0.012686638 0.03809863 0.14113037 0.16636035
-0.14930455 -0.014189434 0.04047459 0.1648818 -0.15307975 -0.15289885 0.026201513 0.11150614
00000000: 08df 6abd b932 9ebd e9fd 11bd d991 2fbe
00000010: a6e8 213e 4061 0bbe 8e2f 243e f778 d93d
00000020: e22f 81bd b7c5 eabc 27c5 5a3d 206e 52bc
00000030: ea27 f7bc cc03 953d 99a5 b0bc e66e 683d
00000040: d9f1 03be 70b6 273a 374b e5bd d815 a0bb
00000050: a5c5 e5bb 48c2 923d abf8 bcbd dee6 a3bd
00000060: ab66 623d e4eb 103c f99c f2b8 dc8b 13be
00000070: 3589 c2bd 71d6 d33d 0b21 f4bd 970a 0bbe
00000080: 095c 23be 3703 da3c e3ef 383e 0321 f7bd
00000090: 2c01 953d 87df 36be 1bdf 37bd 1200 2c3e
000000a0: bb7b 483d 5414 f33c 017c 2f3c ada1 d03b
000000b0: cc1b a1bd 2eaf 953b d004 213e 9885 54bc
000000c0: aa56 8c3b a5a1 26be 0695 353e feb1 1f3e
000000d0: d5c2 cdbd dd74 06bd 5024 063e 346d e13c
000000e0: d422 0dbe 6ac1 803d 7a1c cabd 2df8 d7bd
000000f0: dbc8 6cbd 0dfc 9b3d e5eb 08be 31e1 203e
00000100: 4776 e2bd 11a9 a8bb f544 293e 9f5d 98bc
00000110: 7f70 1e3e 198e 533d 005a d13d 472e c4bd
00000120: d2d1 133c f893 183e 7a97 fcbd 6570 c13d
00000130: 0d66 683d d26b 9b3d 05ba e33d d077 0ebe
00000140: 4628 d23d 3cd1 afbd efa5 283d eb69 2f3e
00000150: 3eee a0bd 1bae 263e a31a 9fbc 3090 a63d
00000160: c782 08be 4002 2b3e e1bb 07be 8da3 ce3d
00000170: 599c 37bd 396e 393e ba8a b53d c0f5 d3bc
00000180: 20db 303e 6e77 f7bd 032b 823d fc2d 37be
00000190: 8cc2 2fbb 86c4 21bd df70 d9bd 798d 023e
000001a0: 3ac7 35bc aa69 0c3e 7af6 cebd 8e3f 20be
000001b0: fd1b 923d c5f0 163e 5f23 6fbd 6297 84bd
000001c0: e01f 053d 1a55 bf3d b643 303e 7aaf 02be
000001d0: d640 1d3e 4829 8b3b 4c2a 7c3d a3cb b23d
000001e0: c35a 043e f0ae 2e3e 6a69 213e fa43 b3bd
000001f0: f9b6 233e b289 a83c 46a3 ecbd 19bd b53d
00000200: 97d2 29bd b570 e33d 6fef 00be 0508 e93d
00000210: bbb5 1f3e 3565 1dbe 21e0 c03d de42 d03d
00000220: 034f c03d 99ca e7bd 8fb5 20bd 1915 a9bb
00000230: cdd8 e03d 0a24 aa3c 1f9d b43c 40da ebbc
00000240: 9b93 153d a901 8dbd ee3c fdbd 71fd 083e
00000250: bbf3 ea3d db15 5c3c fde3 f9bd f051 90bd
00000260: 2317 febd 4e34 e63c acac 2bbe 53a6 b6bb
00000270: 196c 2cbd 9e0a 483c f926 603d e4e2 98bd
00000280: 2325 0b3e be62 15be dac8 1ebe e218 16bd
00000290: 4979 59bc 403a b23c 3278 223d b61d a9bc
000002a0: 3b2c dd3d 0347 473d a378 b2bd c4e0 fb3d
000002b0: 9b8c bcbd f09a 283e e1e5 153e cd33 b8bd
000002c0: 177f 63bd 06ff 8dbd 731c 6dbb 196d c13d
000002d0: 66b9 a7bd ada0 1cbe 7ec4 473c 3a2c 653d
000002e0: 1bf8 19be d385 cebd 1102 283c d4b4 ea3b
000002f0: e239 b83d 5506 573d 57f4 14bd c97c 183e
00000300: 3f94 d6bd d712 e5bd 41af ab3c a8f0 013e
00000310: bcac d33d cf00 79bd a4ce bb3a a666 9b3d
00000320: d697 28be c5a8 be3b 601d 363e 766d 1a3e
00000330: cde6 2bbe fdb0 50bd 1284 ec3d 6766 1abe
00000340: aa57 1cbe f196 ccbd b7e4 29be b278 0dbe
00000350: 8e07 52bc 0608 51bd f0e1 0f3e 24f7 dc3d
00000360: a539 103e e900 8fbc 32ff e7bd faea 0b3e
00000370: 31a4 3a3d 47f1 86bd 0bbb 433d 922c aebd
00000380: 16b3 50bd 7087 02be adb0 f93d a629 27be
00000390: 96bf 8a3d 2fdc ea3d 69ee 2fbd b20f 713c
000003a0: 376c acbd 8c71 2b3e 9f59 173d e3bd 9dbd
000003b0: 0fa8 9c3d 506e 853d 5334 19be 3807 b0bd
000003c0: d936 063d ed27 edbd 5209 c63d da73 e7bd
000003d0: 9edb 4f3c 4f0d 1c3d 7b84 103e 5e5a 2a3e
000003e0: 4be3 18be cd7a 68bc afc8 253d c6d6 283e
000003f0: f0c0 1cbe 8491 1cbe 8ea4 d63c 555d e43d

bias f4 [8]
-0.044809826 0.02098898 -0.14791368 -0.15606292 -0.059092127 0.16994637 0.14266863 0.015238292
00000000: 828a 37bd 15f1 ab3c af76 17be f5ce 1fbe
00000010: 960a 72bd 6c06 2e3e ba17 123e 07aa 793c

weight f4 [32]
1.0027633 0.9959863 1.0049503 0.99422103 0.9971867 1.0069914 1.005394 1.0088667
0.9911096 0.991889 0.98809206 1.0031838 0.99228036 1.003724 0.995047 1.0045933
0.9955305 0.9921391 1.004936 1.0068386 0.99430573 0.9911335 1.0048254 0.99477786
0.9972679 0.9924937 1.0067983 1.0043103 1.0090047 1.008732 0.9965003 1.0058526
00000000: 8c5a 803f f5f8 7e3f 36a2 803f 4585 7e3f
00000010: a147 7f3f 18e5 803f c0b0 803f 8b22 813f
00000020: 5cb9 7d3f 70ec 7d3f 9af3 7c3f 5468 803f
00000030: 1606 7e3f 077a 803f 66bb 7e3f 8396 803f
00000040: 16db 7e3f d4fc 7d3f bea1 803f 16e0 803f
00000050: d28a 7e3f edba 7d3f 1e9e 803f c3a9 7e3f
00000060: f34c 7f3f 1114 7e3f c4de 803f 3d8d 803f
00000070: 1127 813f 211e 813f a51a 7f3f c7bf 803f

bias f4 [32]
0.0027641305 -0.0040138694 0.0049501616 -0.0057810945 -0.002813248 0.006991226 0.0053920452 0.008828755
-0.008891237 -0.008110812 -0.0053519118 0.002957993 -0.0074837143 0.0037240386 -0.004952908 0.0045935214
-0.004410514 -0.007860211 0.0049358397 0.006450594 -0.0056943335 -0.008866104 0.0048260503 -0.0052227923
-0.0027310587 -0.0075025065 0.0067706327 0.0042907693 0.009004297 0.008732595 -0.0035015994 0.005853024
00000000: 6a26 353b c786 83bb f734 a23b 566f bdbb
00000010: 785e 38bb a816 e53b c1af b03b 7ba6 103c
00000020: 8dac 11bc 36e3 04bc 175f afbb e3da 413b
00000030: f239 f5bb 000f 743b 014c a2bb 4085 963b
00000040: 1386 90bb 1dc8 00bc d3bc a13b 815f d33b
00000050: 8897 babb 2343 11bc d823 9e3b f523 abbb
00000060: 90fb 32bb 96d7 f5bb 2fdc dd3b 9599 8c3b
00000070: c286 133c 2813 0f3c 177b 65bb b9ca bf3b

running_mean f4 [32]
2.38596 1.9462516 -1.5179547 -3.7252722 -2.1218772 4.1545277 3.7090871 -0.92009383
2.5022063 0.8411072 -0.29433507 -0.9052848 -1.0985358 4.151006 2.81795 3.0896208
1.0635564 -1.671563 -4.300646 -2.653992 -6.280581 -2.3080935 -2.0245585 2.8958967
-0.5020089 4.1087403 1.7286477 0.7259249 3.2121797 0.42876843 -3.2222457 -4.9975686
00000000: 92b3 1840 c61e f93f 574c c2bf dc6a 6ec0
00000010: d6cc 07c0 e4f1 8440 af61 6d40 458b 6bbf
00000020: 2624 2040 cd52 573f 16b3 96be bfc0 67bf
00000030: d29c 8cbf 0bd5 8440 4b59 3440 59bc 4540
00000040: 9e22 883f c7f5 d5bf e49e 89c0 01db 29c0
00000050: 85fa c8c0 ceb7 13c0 5e92 01c0 5f56 3940
00000060: a883 00bf cd7a 8340 5444 dd3f 37d6 393f
00000070: 5a94 4d40 8987 db3e 4639 4ec0 15ec 9fc0

running_var f4 [32]
2.516668 14.671951 15.222097 9.038943 2.4835234 6.9525185 5.2060394 0.22920768
1.9123014 11.920352 0.13087581 2.1702623 0.8336867 7.2294984 14.756638 16.934015
1.180977 0.4887127 15.495608 2.3770533 13.621656 3.5441408 4.523822 16.051523
1.570496 14.195341 0.97672874 0.4142735 4.87701 6.5677786 14.840444 11.670512
00000000: 1711 2140 50c0 6a41 b68d 7341 839f 1041
00000010: 0cf2 1e40 087b de40 e097 a640 6bb5 6a3e
00000020: 4bc6 f43f c3b9 3e41 4f04 063e 94e5 0a40
00000030: 7e6c 553f 0d58 e740 301b 6c41 dd78 8741
00000040: 412a 973f 8d38 fa3e 03ee 7741 a421 1840
00000050: 4ef2 5941 34d3 6240 26c3 9040 8569 8041
00000060: 0306 c93f 1e20 6341 e50a 7a3f a81b d43e
00000070: 7710 9c40 3e2b d240 7572 6d41 6bba 3a41

weight f4 [32, 40]
-0.05329662 0.11398432 0.04291965 -0.031267405 0.0681557 0.07291052 0.0584868 -0.15179181
0.11379436 -0.12762928 0.013804806 -0.06637485 0.15307474 0.14526044 0.064258166 -0.14304483
-0.06733017 -0.08912502 0.13775231 -0.110255785 0.1041596 -0.14412816 0.09582874 0.066419974
0.018183654 0.07980768 0.0040807435 -0.035692777 0.07671735 -0.12929873 -0.1409667 0.02844786
-0.10734885 -0.13488984 0.08840614 0.14231752 0.07257817 0.039422236 0.053625192 0.15594144
-0.13487065 0.045432992 0.07267136 0.030870724 0.023946239 -0.15620917 -0.034827203 0.083003886
-0.11353284 -0.041105136 0.013046435 0.0047725337 0.0003429054 -0.10002373 0.1358477 -0.055899996
0.012820887 -0.14025988 -0.00079126674 -0.14654171 0.07692534 0.005727703 -0.07448772 0.015105504
0.007446185 0.14365745 0.0020749916 -0.039388303 -0.099851504 0.022702169 -0.10336468 0.15406367
0.049841344 -0.07223229 -0.115055256 0.0025937422 0.075360216 -0.13046025 0.13003647 -0.13455382
-0.08977506 -0.018811416 0.15339036 0.043017995 -0.040463325 -0.057654675 0.13060254 -0.08957397
0.04690607 0.07309196 0.02798142 0.05078955 -0.062048357 -0.078158766 -0.06648108 -0.10463421
-0.012243206 -0.1537293 0.12582538 -0.041357644 -0.10133855 0.011595366 -0.06503158 0.017624017
-0.1565365 -0.10059077 0.030275399 0.04028193 0.09006985 0.0681155 0.15738203 0.14577302
0.081787184 -0.12881234 0.15202734 -0.12031649 -0.14498782 -0.13514075 0.000636553 0.010943053
-0.1163102 -0.05113825 0.038524747 -0.01583909 0.028929193 -0.09093232 -0.032882836 0.08452246
0.12100171 -0.011400839 0.07760266 -0.13720037 0.07457672 0.095264606 0.04200761 -0.15171014
-0.091709405 -0.10860014 -0.09466201 -0.030361574 -0.045466706 0.11326179 0.12912937 0.14631991
-0.08595451 -0.15090516 -0.13243969 0.1443289 0.07998287 0.035172332 0.019949468 0.10254019
-0.11918446 0.13274494 0.026380522 -0.047923878 -0.104630925 0.093712516 0.114385486 0.13237305
0.13708694 0.022767982 0.14669107 -0.03295884 0.04298744 0.008366764 0.12572293 -0.103999555
-0.04921738 0.07330789 -0.16180457 -0.0058556823 0.11521714 0.15742986 0.01959795 -0.13151997
0.08513911 0.11677138 -0.10512021 -0.05497617 -0.13198312 0.14946517 0.13486545 0.09051859
0.06131199 -0.08534383 -0.055964302 -0.053585596 0.053138033 0.053500168 0.09038808 -0.09836044
-0.06252978 -0.13646612 -0.11235444 -0.00898346 -0.0022858195 0.119923085 0.048495103 0.031078007
-0.11341888 -0.02289578 -0.07982149 -0.10876574 -0.08623536 -0.092014946 0.11110819 0.11141103
0.054961037 0.097118646 -0.024536373 0.11303306 -0.12078781 0.1572799 -0.050763465 0.11873702
-0.058888234 0.05474367 -0.014485638 -0.0044230325 0.080469005 0.08596617 0.065310165 0.12578543
0.039197132 -0.0141507555 -0.05290677 0.053475324 -0.14617814 0.12150071 -0.05119061 -0.0018191226
-0.118072785 -0.09362722 0.070954315 0.08211638 -0.0622118 0.089058146 0.0868291 0.10211718
-0.11739917 0.022809416 0.019474676 0.13445765 -0.027010405 -0.013069187 -0.09425721 0.09980033
0.16115232 -0.086124286 0.08636404 0.03152782 -0.012440658 -0.132583 0.12568168 -0.14120887
00000000: 8e4d 5abd 9c70 e93d 84cc 2f3d 4012 00bd
00000010: 3795 8b3d 1c52 953d db8f 6f3d 506f 1bbe
00000020: 040d e93d 40b1 02be 8e2d 623c 8aef 87bd
00000030: a0bf 1c3e 27bf 143e c999 833d 587a 12be
00000040: 66e4 89bd 2e87 b6bd f10e 0d3e c9cd e1bd
00000050: a151 d53d 5596 13be dc41 c43d 3207 883d
00000060: e3f5 943c 3572 a33d c2b7 853b 9732 12bd
00000070: fc1d 9d3d e366 04be 9359 10be 7d0b e93c
00000080: b7d9 dbbd 9020 0abe 470e b53d afbb 113e
00000090: dda3 943d 3679 213d 17a6 5b3d 1daf 1f3e
000000a0: 881b 0abe f217 3a3d b9d4 943d 9ae4 fc3c
000000b0: e72a c43c 4cf5 1fbe f8a6 0ebd f1fd a93d
000000c0: e883 e8bd dc5d 28bd b7c0 553c ea62 9c3b
000000d0: fcc7 b339 3ed9 ccbd a91b 0b3e 65f7 64bd
000000e0: b30e 523c 49a0 0fbe 036d 4fba 080f 16be
000000f0: 088b 9d3d 75af bb3b 058d 98bd 137d 773c
00000100: 21ff f33b f01a 133e 95fc 073b a155 21bd
00000110: f27e ccbd e6f9 b93c ddb0 d3bd dec2 1d3e
00000120: 7026 4c3d 86ee 93bd 17a2 ebbd c6fb 293b
00000130: 7556 9a3d 5f97 05be 4828 053e 7ac8 09be
00000140: fddb b7bd 661a 9abc 5d12 1d3e a333 303d
00000150: dfbc 25bd 4f27 6cbd acbc 053e 8f72 b7bd
00000160: 9420 403d 3db1 953d 4a39 e53c b408 503d
00000170: 6b26 7ebd b411 a0bd 3c27 88bd 764a d6bd
00000180: ba97 48bc 376b 1dbe 5ed8 003e a266 29bd
00000190: 968a cfbd 7dfa 3d3c 472f 85bd 3e60 903c
000001a0: 1b4b 20be 8902 cebd 1d04 f83c aafe 243d
000001b0: 8b76 b83d 2480 8b3d c128 213e 8645 153e
000001c0: 0a80 a73d 62e7 03be 0ead 1b3e 7e68 f6bd
000001d0: b077 14be 5662 0abe 59de 263a 7e4a 333c
000001e0: 0b34 eebd 5776 51bd 20cc 1d3d fbc0 81bc
000001f0: eafc ec3c b93a babd 27b0 06bd 1d1a ad3d
00000200: bfcf f73d 96ca 3abc 25ee 9e3d 417e 0cbe
00000210: aebb 983d 171a c33d 2c10 2c3d e759 1bbe
00000220: 24d2 bbbd c069 debd 28de c1bd d6b8 f8bc
00000230: 4c3b 3abd ccf5 e73d 7d3a 043e e3d4 153e
00000240: eb08 b0bd e286 1abe 459e 07be f5ca 133e
00000250: 0fce a33d dd10 103d 116d a33c 9700 d23d
00000260: fb16 f4bd 4aee 073e f71b d83c d44b 44bd
00000270: bd48 d6bd 59ec bf3d f042 ea3d cd8c 073e
00000280: 8560 0c3e eb83 ba3c 2f36 163e d9ff 06bd
00000290: 9913 303d c014 093c 83bd 003e b8fd d4bd
000002a0: 2a98 49bd 7222 963d 19b0 25be 06e1 bfbb
000002b0: f7f6 eb3d 4b35 213e e18b a03c 2cad 06be
000002c0: 6a5d ae3d d525 ef3d 4449 d7bd b12e 61bd
000002d0: 9526 07be 660d 193e 2b1a 0a3e cf61 b93d
000002e0: 4822 7b3d bfc8 aebd d33a 65bd 927c 5bbd
000002f0: 44a7 593d fe22 5b3d 631d b93d 3371 c9bd
00000300: 9d0f 80bd c6bd 0bbe 161a e6bd 5d2f 13bc
00000310: b0cd 15bb 3c9a f53d cda2 463d 4e97 fe3c
00000320: 2848 e8bd ee8f bbbc 7379 a3bd 93c0 debd
00000330: 2a9c b0bd 5572 bcbd b18c e33d 772b e43d
00000340: d31e 613d 24e6 c63d 8100 c9bc e17d e73d
00000350: 995f f7bd fb0d 213e 5aed 4fbd 652c f33d
00000360: ca34 71bd e63a 603d 2b55 6dbc 16ef 90bb
00000370: efcc a43d 080f b03d 56c1 853d e5cd 003e
00000380: 2c8d 203d 92d8 67bc c5b4 58bd f108 5b3d
00000390: b9af 15be 5dd5 f83d 3fad 51bd a06f eeba
000003a0: 25d0 f1bd a1bf bfbd 7f50 913d a22c a83d
000003b0: cdd1 7ebd 1e64 b63d 75d3 b13d d022 d13d
000003c0: fa6e f0bd d0da ba3c 5b89 9f3c 44af 093e
000003d0: ed44 ddbc 2520 56bc ed09 c1bd 1e64 cc3d
000003e0: 1d05 253e ee61 b0bd a1df b03d 5123 013d
000003f0: e7d3 4bbc d7c3 07be b3b2 003e 0f99 10be

bias f4 [32]
0.00840779 -0.0032130452 -0.013318279 -0.14392054 0.12103391 -0.03783758 -0.074288614 -0.09956162
0.022451265 0.051426556 -0.023085253 -0.00365204 0.14640327 0.011104519 0.051694226 0.058688473
0.1390692 -0.09174219 -0.08885527 -0.008243723 0.022003198 0.042782415 -0.10635746 0.15976094
-0.06123066 -0.038476057 -0.15913521 0.11648155 0.09510266 -0.15909939 -0.110324204 0.0920178
00000000: d4c0 093c f491 52bb e934 5abc e85f 13be
00000010: a0e0 f73d 94fb 1abd a124 98bd f6e6 cbbd
00000020: b7eb b73c a7a4 523d 491d bdbc 1057 6fbb
00000030: bdea 153e baef 353c 53bd 533d 5363 703d
00000040: 2868 0e3e 54e3 bbbd c0f9 b5bd ae10 07bc
00000050: 0d40 b43c 9d3c 2f3d f1d1 d9bd 5f98 233e
00000060: 00cd 7abd 1299 1dbd 57f4 22be e18d ee3d
00000070: 2fc5 c23d f3ea 22be a8f1 e1bd d473 bc3d

weight f4 [32, 32]
0.1711315 0.046606038 -0.010580898 -0.09591741 0.090120524 0.14782774 0.012361047 -0.13229737
-0.070782356 0.11973709 0.12102144 0.1724817 0.07812051 0.16566925 -0.1682191 0.06780449
-0.047041528 -0.05675277 -0.10728669 -0.09793384 0.09194179 -0.03443081 0.16136448 0.002564514
0.17077814 0.12969698 0.01671644 0.114402995 0.046288826 0.15762071 0.001555591 -0.1434857
-0.15180682 -0.035356626 -0.0028339196 -0.10615624 -0.1325892 0.09127307 -0.052673593 -0.046707615
0.019902665 -0.048596226 0.016926099 -0.02841563 0.15410191 -0.11128564 0.053508375 -0.046906117
0.15896548 0.014381668 0.08075398 -0.13526335 -0.17606647 -0.047654472 0.09058759 -0.049653374
-0.025473185 0.06738752 0.028172385 0.0453851 0.1299461 -0.036235977 0.1202693 0.0662562
0.06727732 -0.13784929 0.05129308 -0.043534003 -0.08089464 -0.020159261 0.10493243 0.028710365
0.055783823 0.11532387 -0.05399565 -0.046259914 -0.025541574 0.02362047 0.15239319 -0.16047642
0.12805745 -0.031184318 -0.10800063 -0.15536031 -0.09760294 0.101696596 -0.10269741 0.0057842173
0.09949073 -0.10946773 0.07810839 -0.002478844 -0.019106459 -0.051455203 -0.11134351 -0.10410813
-0.17624246 -0.104309686 -0.06455132 0.07530873 -0.03676712 0.10862463 -0.16064882 0.0004064608
-0.11581261 0.024767026 -0.053691182 -0.12568761 0.019447034 0.17995007 -0.1639498 0.15710866
-0.0218147 -0.033971503 -0.1295482 -0.13332018 0.05664465 -0.14956594 0.030621873 -0.11018946
0.059615947 0.032447375 0.10791092 -0.13458218 0.031602573 0.08072438 0.10538841 -0.17065877
0.06894255 0.037535146 -0.08050356 0.010309159 -0.0978962 0.053269394 -0.094584465 -0.013255366
0.12145335 0.005730147 -0.01008313 -0.17872553 0.13120753 0.006641517 0.005829732 0.047708493
0.028273469 0.038069252 -0.07979802 0.05164955 -0.0637046 0.014986649 0.116555616 0.014750962
-0.040317524 0.031139355 0.053487454 0.1290555 -0.071230404 0.16457684 -0.17833327 -0.12382272
-0.12235513 -0.10379192 -0.018339084 0.054403957 -0.14843707 0.05950236 -0.012475286 -0.018079516
0.13282359 0.095709875 -0.108452775 -0.04171555 -0.11062224 -0.06538644 0.089537755 0.02892235
-0.17421737 -0.13388486 0.10084695 -0.033972375 0.1308482 -0.0019926082 -0.16172695 0.031213325
0.11640465 -0.001261197 -0.06542995 0.12171564 0.037060335 0.015351828 -0.021803938 0.057798523
0.063616976 0.019340001 -0.0105152335 0.018950906 -0.103759624 0.17398223 -0.01560374 -0.050408743
0.122560866 0.15209834 0.121741965 0.02902456 0.15984415 -0.1569348 -0.018569969 -0.17370068
0.0042179236 0.096684605 -0.17858894 -0.02202321 -0.021764806 -0.12566777 -0.1772108 -0.051292643
-0.14686798 -0.054631144 0.16707696 0.018643437 -0.12792784 -0.03484914 0.05901441 0.04003702
0.12111554 -0.06623142 0.09563894 -0.07701807 -0.16360337 0.17504843 0.11377855 0.12119985
0.00057934655 0.15095049 -0.037802216 -0.015138599 0.10864841 0.13217852 -0.10509972 0.09684294
0.03812535 0.16093165 0.16022119 -0.17184192 0.08550602 0.05636807 -0.084760204 0.09172139
-0.120084435 -0.13014615 -0.10337941 0.04945902 0.13076918 -0.10603837 0.0040862076 -0.15176621
00000000: 193d 2f3e f9e5 3e3d 815b 2dbc 5970 c4bd
00000010: 1c91 b83d 2860 173e fd85 4a3c f678 07be
00000020: 57f6 90bd b838 f53d 17da f73d 0b9f 303e
00000030: a5fd 9f3d 33a5 293e a141 2cbe 15dd 8a3d
00000040: 9eae 40bd 9875 68bd 20b9 dbbd 8991 c8bd
00000050: fa4b bc3d 5207 0dbd bb3c 253e 6811 283b
00000060: 77e0 2e3e 49cf 043e eaf0 883c 1e4c ea3d
00000070: 5a99 3d3d 5367 213e f9e4 cb3a eaed 12be
00000080: 3f73 1bbe 1cd2 10bd 48b9 39bb 7168 d9bd
00000090: 77c5 07be 60ed ba3d 44c0 57bd 7c50 3fbd
000000a0: ea0a a33c d60c 47bd 9aa8 8a3c e5c7 e8bc
000000b0: e4cc 1d3e bae9 e3bd 992b 5b3d a120 40bd
000000c0: d9c7 223e 16a1 6b3c 5862 a53d 7a82 0abe
000000d0: c54a 34be 5631 43bd fd85 b93d 5661 4bbd
000000e0: 24ad d0bc 7802 8a3d c6c9 e63c bae5 393d
000000f0: 9710 053e 2d6c 14bd c04f f63d 55b1 873d
00000100: b1c8 893d 5d28 0dbe b118 523d b650 32bd
00000110: 17ac a5bd 0925 a5bc d0e6 d63d 0032 eb3c
00000120: 947d 643d ec2e ec3d 8b2a 5dbd 097b 3dbd
00000130: 903c d1bc b77f c13c f60c 1c3e ee53 24be
00000140: 7e21 033e 4176 ffbc 6f2f ddbd c616 1fbe
00000150: 0de4 c7bd 4e46 d03d 0553 d2bd 8889 bd3b
00000160: ccc1 cb3d 9e30 e0bd 4bf7 9f3d 1a74 22bb
00000170: 2685 9cbc b1c2 52bd 1108 e4bd a536 d5bd
00000180: e778 34be 51a0 d5bd 7c33 84bd 773b 9a3d
00000190: 1f99 16bd 9776 de3d 2081 24be 3f1a d539
000001a0: 292f edbd 38e4 ca3c 49eb 5bbd 41b4 00be
000001b0: 634f 9f3c d544 383e 75e2 27be 18e1 203e
000001c0: beb4 b2bc b425 0bbd 49a8 04be 1685 08be
000001d0: 3804 683d d027 19be b9da fa3c 03ab e1bd
000001e0: da2f 743d 8ae7 043d 6700 dd3d e9cf 09be
000001f0: b371 013d d352 a53d e1d5 d73d 2cc1 2ebe
00000200: c031 8d3d 74be 193d 0ddf a4bd bfe7 283c
00000210: ce7d c8bd 0231 5a3d 80b5 c1bd 092d 59bc
00000220: 89bc f83d f5c3 bb3b b633 25bc d303 37be
00000230: 445b 063e 15a1 d93b 5607 bf3b fb69 433d
00000240: c39d e73c 81ee 1b3d 256d a3bd 7b8e 533d
00000250: 8f77 82bd 908a 753c b6b4 ee3d 05ae 713c
00000260: fd23 25bd f617 ff3c a915 5b3d 2027 043e
00000270: 3fe1 91bd d586 283e ff9c 36be c496 fdbd
00000280: 5495 fabd dc90 d4bd d93b 96bc afd6 5e3d
00000290: e3ff 17be bfb8 733d 2465 4cbc 7e1b 94bc
000002a0: e802 083e 8a03 c43d 7d1c debd eddd 2abd
000002b0: ea8d e2bd 53e9 85bd 925f b73d 90ee ec3c
000002c0: 0a66 32be 1d19 09be d988 ce3d 9e26 0bbd
000002d0: 12fd 053e 6b96 02bb c09b 25be 16b3 ff3c
000002e0: 9065 ee3d c04e a5ba 2300 86bd 0d46 f93d
000002f0: 94cc 173d 3c86 7b3c 2c9e b2bc 25be 6c3d
00000300: 9e49 823d ec6e 9e3c 1648 2cbc ee3e 9b3c
00000310: ed7f d4bd 6628 323e d4a6 7fbc 6679 4ebd
00000320: 3101 fb3d abbf 1b3e da53 f93d eac4 ed3c
00000330: 2fae 233e 84b3 20be 0c20 98bc 97de 31be
00000340: 8236 8a3b 9402 c63d 05e0 36be 056a b4bc
00000350: 1b4c b2bc 0daf 00be bf76 35be 3c18 52bd
00000360: 8f64 16be e8c4 5fbd 3916 2b3e 1fba 983c
00000370: 84ff 02be f9bd 0ebd 18b9 713d dcfd 233d
00000380: 6d0b f83d 57a4 87bd 59de c33d a6bb 9dbd
00000390: a487 27be e53f 333e ba04 e93d a137 f83d
000003a0: 4adf 173a c492 1a3e 7fd6 1abd e307 78bc
000003b0: 0f83 de3d ce59 073e 863e d7bd 9755 c63d
000003c0: 5429 1c3d 44cb 243e 0611 243e 54f7 2fbe
000003d0: c81d af3d 35e2 663d c296 adbd 6dd8 bb3d
000003e0: d4ee f5bd 0845 05be 96b8 d3bd 8b95 4a3d
000003f0: 5be8 053e a52a d9bd 98e5 853b 9a68 1bbe

bias f4 [32]
0.020735964 -0.047162086 -0.09453787 0.03902655 0.14020789 0.12262659 0.10967535 -0.10166331
-0.06409161 -0.011536988 -0.071141645 0.037625123 -0.041434284 0.1453814 -0.13316406 -0.04048667
0.01498274 -0.11105705 -0.16813408 -0.10357698 0.116768904 0.15652333 -0.123097114 0.01780553
-0.0025945653 0.017323082 -0.035048403 0.089431696 0.078245446 -0.13799648 0.057974614 0.12999088
00000000: 78de a93c 082d 41bd 129d c1bd 4eda 1f3d
00000010: a892 0f3e a623 fb3d 789d e03d da34 d0bd
00000020: 7642 83bd a305 3dbc b6b2 91bd cd1c 1a3d
00000030: ffb6 29bd ddde 143e 295c 08be 5ad5 25bd
00000040: 2b7a 753c e171 e3bd 572b 2cbe 2b20 d4bd
00000050: 8924 ef3d a747 203e 571a fcbd e7dc 913c
00000060: 9509 2abb 23e9 8d3c ea8e 0fbd f727 b73d
00000070: 263f a03d f34e 0dbe ca76 6d3d 541c 053e

weight f4 [32]
1.0022889 0.9917243 0.99224424 0.99564904 0.9925826 1.0099443 0.9948466 1.0093013
1.0001874 0.9935773 0.99615383 1.0063589 1.0012975 1.0061647 1.0007892 1.007049
1.0096935 0.9946951 1.0030713 1.0018669 1.0077454 0.9943424 0.99271065 0.99429464
0.99147034 0.9990995 1.0057279 0.9893701 1.0046809 1.0046089 1.0049602 1.003345
00000000: 014b 803f a5e1 7d3f b803 7e3f dbe2 7e3f
00000010: e519 7e3f db45 813f 44ae 7e3f c930 813f
00000020: 2406 803f 155b 7e3f f003 7f3f 5ed0 803f
00000030: 842a 803f 01ca 803f dc19 803f fbe6 803f
00000040: a33d 813f 57a4 7e3f a464 803f 2d3d 803f
00000050: cdfd 803f 398d 7e3f 4922 7e3f 188a 7e3f
00000060: 00d1 7d3f fcc4 7f3f b1bb 803f 5c47 7d3f
00000070: 6299 803f 0697 803f 89a2 803f 9c6d 803f

bias f4 [32]
-0.000856924 -0.009532361 -0.0074526607 -0.0047697015 -0.008077887 0.008404707 -0.009272919 -0.0001780523
0.00065666134 -0.0027803485 -0.0019091475 0.0012930958 -0.00058595894 0.007979456 -0.0024478927 0.0067659174
0.014636113 -0.0021438578 0.007943149 0.00030718299 0.009878833 -0.0040917587 -0.0065365513 -0.0038535702
-0.010580509 -0.0015433623 0.00037484907 -0.012082094 0.0016091864 0.009096188 0.0056082974 0.0052144197
00000000: 32a3 60ba 9f2d 1cbc 7335 f4bb 284b 9cbb
00000010: 1d59 04bc e5b3 093c 71ed 17bc 8db3 3ab9
00000020: cc23 2c3a 8236 36bb 5c3c faba 187d a93a
00000030: 0a9b 19ba 44bc 023c d36c 20bb a1b4 dd3b
00000040: 4fcc 6f3c f77f 0cbb fb23 023c 670d a139
00000050: d4da 213c 2914 86bb 9130 d6bb 2e8c 7cbb
00000060: df59 2dbc a54a caba 6487 c439 faf3 45bc
00000070: 56eb d23a 2d08 153c cfc5 b73b b9dd aa3b

running_mean f4 [32]
0.08510663 -0.17802933 -0.10554418 -0.09008013 0.20445213 0.04444385 -0.18080282 -0.07440777
-0.12700896 -0.089502476 -0.093768016 0.03154849 0.12307888 -0.010377739 0.18417808 0.08717944
0.15074143 -0.10369684 -0.19694765 -0.3103038 -0.11781742 -0.15329354 -0.100709654 0.17745666
0.006404594 0.19984013 -0.1215743 0.13466185 0.11968543 -0.22413799 -0.09095892 0.0484498
00000000: 634c ae3d 524d 36be 8c27 d8bd ee7b b8bd
00000010: e65b 513e c10a 363d 6024 39be 1a63 98bd
00000020: a30e 02be 134d b7bd 7209 c0bd fd38 013d
00000030: c810 fc3d 6407 2abc 2e99 3c3e 228b b23d
00000040: f65b 1a3e 025f d4bd a5ac 49be 24e0 9ebe
00000050: 424a f1bd fbf8 1cbe dd40 cebd 33b7 353e
00000060: a1dd d13b e4a2 4c3e f2fb f8bd cce4 093e
00000070: a21d f53d 6e84 65be ac48 babd 4c73 463d

running_var f4 [32]
0.49044028 0.15802003 0.6398763 0.5085081 0.22657388 0.19157179 0.4518709 0.10433496
0.08695182 0.05391825 0.41701612 0.20986253 0.47118065 0.14426698 0.15030165 0.3572604
0.5566144 0.5299373 0.21902016 0.37193215 0.2379609 0.3922059 0.17202443 0.04185911
0.15167847 0.120103225 0.37368613 0.45894113 0.26369584 0.40444332 0.42234156 0.22788891
00000000: fd1a fb3e 01d0 213e efce 233f 962d 023f
00000010: fc02 683e 652b 443e 9f5b e73e 91ad d53d
00000020: cc13 b23d 62d9 5c3d 2383 d53e 34e6 563e
00000030: 973e f13e b9ba 133e ade8 193e d6ea b63e
00000040: 487e 0e3f f9a9 073f d246 603e e46d be3e
00000050: 06ac 733e 36cf c83e 2c27 303e 7574 2b3d
00000060: 9a51 1b3e aef8 f53d ca53 bf3e 55fa ea3e
00000070: 2403 873e 3213 cf3e 273d d83e b65b 693e

weight f4 [32, 8]
-0.12413394 -0.05136163 -0.1828053 -0.0269348 0.039415184 0.013133845 -0.14844596 -0.2166312
-0.2577063 -0.043754052 0.2367958 -0.045999877 -0.26188383 0.115725294 -0.09050402 0.2755842
0.25001177 -0.054149497 -0.3225465 0.06720544 -0.21624413 0.12276595 0.2599836 0.06930886
0.037858162 0.29785034 -0.1505113 -0.07448504 0.31378144 -0.3051865 0.2257945 -0.18430062
-0.3552536 -0.023965195 0.0941004 -0.09730973 -0.0092335725 -0.26842263 0.115832336 -0.27242354
-0.30922404 -0.09681171 0.097226895 0.18367328 -0.23058708 0.22817376 -0.19589914 -0.3423637
-0.16111235 -0.32830748 0.14173076 -0.31241295 0.10700611 0.10520708 -0.20457438 -0.048034754
-0.04031789 -0.29249483 -0.19108027 -0.25900856 -0.0022832458 -0.23682512 0.04663219 -0.12550446
-0.17412867 -0.16386215 -0.040089235 -0.22766182 -0.29632398 -0.2996548 0.14233379 0.15550707
0.2843347 -0.1992046 0.26809865 0.022405807 -0.15162148 0.19627285 0.29067641 0.0005832012
-0.1725086 0.202362 -0.32924414 -0.2955027 -0.19153042 -0.1257897 0.16920748 -0.30405727
0.24509634 -0.3278553 0.016623495 0.051407248 -0.11462293 -0.27484 -0.1101268 0.16403304
0.18392923 0.11197265 -0.17526911 0.3181428 0.14488773 -0.28172398 -0.24819878 0.1539631
-0.023900181 -0.04807568 -0.23208684 0.342982 -0.100089975 0.2685442 0.025996085 0.3025242
0.14027107 0.31591883 -0.3061777 0.07483573 -0.005828456 0.10543684 -0.24482064 0.17177425
0.3344412 -0.17449738 -0.2026492 -0.033905327 0.18802804 -0.03533847 0.13469872 0.2825236
0.15661938 0.14400911 -0.1647388 -0.047335025 0.28514642 -0.3204646 -0.3261968 -0.16166061
-0.025638305 -0.19761668 0.2204331 0.14281212 -0.22421362 0.30414402 0.018512964 0.33647862
-0.25237638 -0.24857204 0.1114975 -0.11606401 0.13537005 -0.3167896 0.24847703 -0.20993319
0.2655145 -0.10160818 -0.13430935 -0.30351222 -0.22998483 0.25643146 -0.19114481 -0.08806322
0.24381964 -0.059081726 0.12762417 0.036728848 -0.2660012 0.21265258 -0.2098435 -0.03546311
0.24426909 0.319963 -0.028611785 0.21877415 0.21736205 0.28612512 0.11787594 -0.011269245
0.17419773 0.27075216 -0.05492916 0.000117571995 -0.22422834 -0.11564598 0.0028727737 -0.3117621
0.1445871 0.26328042 0.039261974 -0.17453516 -0.20812716 0.058346573 0.3199619 -0.30602452
0.20554948 -0.34860328 -0.13994217 0.1512384 0.15010914 0.31133962 -0.20965464 -0.23573147
0.18301004 0.20022638 -0.05086921 -0.17335196 -0.0001982436 -0.20853063 -0.1447244 -0.06971161
-0.17085283 0.1325092 -0.3012765 0.2370182 -0.1772698 0.20939793 0.08783471 -0.2612925
0.12557629 -0.30271968 -0.2870058 0.1455891 -0.31832448 -0.087373756 0.33963996 -0.25496134
0.14516099 -0.28292635 -0.28152534 -0.20675856 0.2887317 0.27182484 -0.30494046 -0.10751277
0.2914849 -0.35683998 0.15634683 0.21687645 -0.19291754 0.054602217 0.044020507 0.11002116
0.21478912 -0.051555615 0.13252623 0.13750881 -0.14701049 -0.33520138 -0.20731898 -0.21934268
0.2604215 0.32806823 -0.23795792 -0.04683091 -0.3382393 -0.03616975 -0.053457864 0.13630033
00000000: ef39 febd 9360 52bd 5031 3bbe 5fa6 dcbc
00000010: d171 213d 572f 573c 3802 18be 92d4 5dbe
00000020: 15f2 83be 7337 33bd 997a 723e 5e6a 3cbd
00000030: a315 86be 6201 ed3d 2c5a b9bd 5f19 8d3e
00000040: 8b01 803e ddcb 5dbd d124 a5be 01a3 893d
00000050: 1a6f 5dbe b76c fb3d 921c 853e cef1 8d3d
00000060: 2911 1b3d d77f 983e a21f 1abe 9d8b 98bd
00000070: f6a7 a03e 6841 9cbe ac36 673e 4db9 3cbe
00000080: cde3 b5be a852 c4bc b6b7 c03d 534a c7bd
00000090: 6948 17bc b16e 89be 8139 ed3d 197b 8bbe
000000a0: 9d52 9ebe 3845 c6bd e51e c73d d914 3c3e
000000b0: 051f 6cbe 62a6 693e c999 48be 4b4a afbe
000000c0: a3fa 24be eb17 a8be de21 113e 97f4 9fbe
000000d0: 0526 db3d cf76 d73d f27b 51be 17c0 44bd
000000e0: 5f24 25bd e2c1 95be 8caa 43be c59c 84be
000000f0: 82a2 15bb 4982 72be 6501 3f3d 3e84 00be
00000100: c94e 32be 7bcb 27be 9c34 24bd 2e20 69be
00000110: c7b7 97be 5b6c 99be f3bf 113e 3f3d 1f3e
00000120: 5194 913e 4afc 4bbe 3a44 893e 628c b73c
00000130: a942 1bbe c0fb 483e 8ad3 943e f8e1 183a
00000140: 18a6 30be fc37 4f3e b092 a8be 214c 97be
00000150: 8d20 44be 04cf 00be ba44 2d3e 65ad 9bbe
00000160: 89fa 7a3e a6dc a7be ff2d 883c 6890 523d
00000170: 6dbf eabd d4b7 8cbe 298a e1bd 47f8 273e
00000180: f257 3c3e eb51 e53d bf79 33be 9de3 a23e
00000190: 735d 143e 203e 90be d227 7ebe 81a8 1d3e
000001a0: 50ca c3bc 01eb 44bd 2ca8 6dbe 569b af3e
000001b0: f9fb ccbd a07e 893e bef5 d43c 74e4 9a3e
000001c0: 38a3 0f3e 1dc0 a13e 53c3 9cbe 7a43 993d
000001d0: a2fc bebb 45ef d73d 43b2 7abe 97e5 2f3e
000001e0: e13b ab3e 71af 32be 4683 4fbe 50e0 0abd
000001f0: 6c8a 403e 12bf 10bd 76ee 093e efa6 903e
00000200: d560 203e 2077 133e 4ab1 28be 5fe2 41bd
00000210: b6fe 913e f013 a4be 4403 a7be 5c8a 25be
00000220: 6c07 d2bc 075c 4abe 37b9 613e 573d 123e
00000230: 4198 65be c4b8 9b3e 80a8 973c ed46 ac3e
00000240: 7a37 81be ab89 7ebe cd58 e43d f8b2 edbd
00000250: 729e 0a3e 3f32 a2be c370 7e3e baf8 56be
00000260: 84f1 873e f317 d0bd 6488 09be f465 9bbe
00000270: 2581 6bbe fc4a 833e 77bb 43be 7d5a b4bd
00000280: dbab 793e aeff 71bd e9af 023e fd70 163d
00000290: 4f31 88be 99c1 593e 37e1 56be c441 11bd
000002a0: ad21 7a3e 31d2 a33e 4363 eabc 5506 603e
000002b0: 2894 5e3e fe7e 923e f168 f13d a4a2 38bc
000002c0: e460 323e 07a0 8a3e 66fd 60bd fc90 f638
000002d0: 1d9c 65be cdd7 ecbd 2545 3c3b 489f 9fbe
000002e0: a40e 143e b1cc 863e 2ad1 203d 58b9 32be
000002f0: 491f 55be d1fc 6e3d 0cd2 a33e 3faf 9cbe
00000300: 907b 523e 217c b2be 004d 0fbe 3dde 1a3e
00000310: 36b6 193e e867 9f3e b5af 56be 9763 71be
00000320: fc66 3b3e 2508 4d3e 3c5c 50bd 2d83 31be
00000330: 9cdf 4fb9 0e89 55be a232 14be f6c4 8ebd
00000340: 0bf4 2ebe 7eb0 073e ea40 9abe e6b4 723e
00000350: 3786 35be 696c 563e afe2 b33d 21c8 85be
00000360: 1297 003e 13fe 9abe 6df2 92be 4f15 153e
00000370: 6dfb a2be 03f1 b2bd 4ae5 ad3e 4b8a 82be
00000380: 15a5 143e b9db 90be 1724 90be 84b8 53be
00000390: a4d4 933e a02c 8b3e 2821 9cbe a82f dcbd
000003a0: 823d 953e bbb3 b6be 6219 203e dc14 5e3e
000003b0: 2d8c 45be 93a6 5f3d d94e 343d c652 e13d
000003c0: aef1 5b3e fb2b 53bd f5b4 073e 1ccf 0c3e
000003d0: eb89 16be 849f abbe 6d4b 54be 5e9b 60be
000003e0: f855 853e 8ff8 a73e 3eab 73be c5d1 3fbd
000003f0: b42d adbe bb26 14bd a2f6 5abd 5092 0b3e

bias f4 [32]
-0.112632416 0.006789889 0.3319981 -0.2943786 0.14842576 -0.12698425 -0.15192188 0.19348745
0.2058791 -0.21742226 0.14210078 -0.075707644 -0.082717225 -0.29879272 0.33585823 0.345472
0.2163494 0.19838221 -0.21598881 -0.06622974 0.2508608 0.31722617 0.039905716 -0.2537955
-0.22580813 0.08472665 0.034973532 -0.15018651 0.08704532 0.19578451 0.0359454 -0.13319728
00000000: d3ab e6bd b87d de3b a8fb a93e cbb8 96be
00000010: ecfc 173e 2908 02be 6991 1bbe 9321 463e
00000020: f9d1 523e f1a3 5ebe de82 113e 9c0c 9bbd
00000030: a667 a9bd 5cfb 98be 9cf5 ab3e b5e1 b03e
00000040: b28a 5d3e b524 4b3e 2c2c 5dbe 75a3 87bd
00000050: d470 803e 786b a23e 2d74 233d 7cf1 81be
00000060: 3f3a 67be 2a85 ad3d 6840 0f3d 7eca 19be
00000070: d144 b23d bc7b 483e 7c3b 133d de64 08be
