code/model_sol_backups/model_sol_20.pt (torch, 502306 bytes, 158 tensors)

weight f4 [32, 2]
00000000: 7382 eb3e 4b6c b3be bd6e 1b3f 6415 163f
00000010: 311c edbe 5537 95be 7e61 853d 681e 963e
00000020: d954 31bf 5c45 773e 0481 c33e 41bd d0be
00000030: 3f5b 02bf 5d9b 9abe fe4f d93d c6ea 7c3d
00000040: 7819 1abf e54e 31bf fce1 23bf 4f10 9abe
00000050: fe24 2b3f cdfc c6be a048 073f b0ec ab3e
00000060: eaf7 95be 7f36 2b3e 8ad8 6fbe ea0c 37be
00000070: c298 2dbf 0f66 cf3e 0ee6 5d3e 715f cdbe
00000080: e951 63be 0664 a73e 5fe7 0bbf 886e 0e3f
00000090: 6294 c23e 8fc7 7c3e 8d14 78bd f1ed fb3e
000000a0: c30e 03bd 444f 33be d6ed 27be 0833 23bf
000000b0: 3bcd eabe eab9 7c3e aace 60be b181 21bf
000000c0: fb73 cdbe b48d 873e d667 a5be 5df8 05bf
000000d0: c79f 4a3d a35e cdbe fe41 80be afed 28bf
000000e0: 8215 eebe 7a37 f6be fc54 94be edcf fcbe
000000f0: a50d a73e 2227 18be 13b1 433d 92b6 f33e
0.45997962 -0.35043558 0.6071585 0.5862639 -0.4631057 -0.29143777 0.06512736 0.29320073
-0.6927009 0.24147552 0.3818437 -0.4076939 -0.5092048 -0.30196658 0.106109604 0.061747335
-0.6019511 -0.6926101 -0.640167 -0.30090567 0.6685332 -0.38864747 0.5284519 0.33579016
-0.29290706 0.16720007 -0.23422447 -0.1787602 -0.67811215 0.40507552 0.2166979 -0.4011188
-0.22199215 0.326935 -0.5464992 0.5563741 0.38003832 0.246855 -0.060566474 0.49204972
-0.0319965 -0.17510706 -0.16399321 -0.6374974 -0.45859703 0.24680296 -0.21953836 -0.6308852
-0.4012755 0.26475298 -0.32305783 -0.523321 0.04946878 -0.40111265 -0.25050348 -0.65987676
-0.46500784 -0.480892 -0.28971088 -0.49377385 0.32627597 -0.14858678 0.047776293 0.47600228

bias f4 [32]
00000000: 4192 1abf 9cfc 22bd 9047 01bf 1332 4ebe
00000010: 1a17 c93e 44ab f73e ad2e 84bd 16d4 843e
00000020: 9a9c 24be a444 43be b9f7 b23e 19bd 42be
00000030: 5ab1 313e 33c1 a53e 4212 03bf 51bc 073f
00000040: 9e60 a5be 1b78 ae3e f402 273e ecc0 62be
00000050: db5c e6be bac1 8e39 59bf 58be a5f5 2abe
00000060: 4168 eabe 2aa2 8d3d 2965 953e 904b f13b
00000070: 5fd5 c9bc aa75 9fbe 895a 06bf 3844 65bd
-0.60379416 -0.03979169 -0.5049982 -0.2013629 0.39275438 0.48372853 -0.06454215 0.2594306
-0.16075364 -0.19069153 0.34954622 -0.19017448 0.1735281 0.32373962 -0.51199734 0.53021723
-0.32300276 0.34076008 0.1630972 -0.22143906 -0.44992718 0.00027228688 -0.21166743 -0.16695268
-0.45782664 0.06915696 0.29178742 0.007363744 -0.024637876 -0.31144458 -0.52481896 -0.05597326

weight f4 [8, 32]
00000000: ac4c 25bd 79f2 83bd 5275 cd3c ac72 14bd
00000010: 4897 c13d 2934 0ebd 883f ee3d 6a02 e1bc
00000020: 1166 7abd c93d f63c 2aca 173d 7f1a 2cbe
00000030: f896 b2bd d0fd 8dbd 8646 14be ef27 1dbe
00000040: ff58 a53d 597b 533d 8364 02be 9ba6 04bd
00000050: a887 833d 95dc 9dbd 771e 17be 0460 903d
00000060: c250 0f3e ac0b 643d ec72 4c3d 8b3e a1bd
00000070: 0b99 fa3b 812a d8bd 999e 923c 3fa6 f1bc
00000080: 2be4 a1bd 1a4c 79bd f15f eb3d dd67 f5bd
00000090: 498f b4bd 91c1 ba3d ff3a 1d3e 46f0 e83d
000000a0: e6fd acbd 5dee b9bd 332c 8d3d 9d45 14be
000000b0: 1bfb 0fbe af94 80bd 8742 37bd d7ca 82bd
000000c0: 265a 2abe a2ae 25be 859c 33be 6246 133e
000000d0: f9e4 0bbe 7f1e 9c3c 26c6 eb3d 5d14 8c3d
000000e0: 5847 29be c057 8ebd 7c4c dbbd fb94 c5bd
000000f0: 50cb 31bc 375d 22be 9188 c4bd 6b8f 90bc
00000100: 2a52 24bc c46f b83d 8b3a 323c 6dce 2a3e
00000110: b3e8 1f3d 430d 47bd cdff 003e 8651 d0bc
00000120: 48a2 39be 1e58 b1bc 4358 60bd 0b3b 31bc
00000130: b4b8 193e 100c 38be eaa9 28be 9445 6ebd
00000140: e98b b73d 2cf0 0ebe 2ead 07bd ec7e e6bd
00000150: 822d b53d 34b3 79bd d69f 603c b9dd 123d
00000160: 10b8 2bbe a56a ebbd 4da6 d6bb b905 9d3d
00000170: 23fe 843d 3a27 25be 150a 22be a8bd 1fbe
00000180: c955 143e 1e92 15be ddee 3ebc d7c2 ed3d
00000190: 1ee2 07be 1132 e0bd 4e35 f93d 1234 95bd
000001a0: 546c a8bc 2475 68bb 244a e03c 4247 0d3d
000001b0: 49d4 0e3d e833 9d3d 8754 75bc e710 be3b
000001c0: 1656 093e 8174 bb3c 3412 b93d 0f1c 343d
000001d0: bf8a b23d d20e 1f3e 60f6 1fbe 50a9 0fbe
000001e0: 5e8e 1b3e 542a ac3c 6d02 09be 40c0 0a3e
000001f0: 3332 09be 1dbb 02be 1c2c 15be 4932 a4bd
00000200: e642 193e 27c8 cb3c 02f1 f63d 8df0 2ebd
00000210: 51ac 0b3e 552e 193e 464b 9f3d fc01 f53d
00000220: 5ba5 f13d 7c1b 72bd 424c ecbc 7e80 fd3d
00000230: 5994 1c3e 03fb 0b3e e8c2 f33d 9732 c43d
00000240: 55c3 aabc 1aa8 6f3c 451e 0dbe 1036 11bd
00000250: af8a c2bd e6f9 2c3e 21ae 0ebe f4e4 103e
00000260: 71ab 983d 8240 c93d aaf7 1b3e 26f3 283d
00000270: b5ee 5e3c 8d80 6b3d 9ef2 afbd 7854 07be
00000280: 9742 d43d 7170 643d 9df3 313e a395 d5bd
00000290: b540 223e 18dd e9bd f623 22be 1d58 dabd
000002a0: 7e55 b6bd bf9e 053e bb13 afbd b61e d43d
000002b0: f296 18be 1d22 be3c 76bb 2bbe f6a3 223d
000002c0: 6d80 20be 9c7f abbd f1d9 f0bd 1c26 473d
000002d0: 9e48 0b3e 3072 093e 83d4 943d 52d3 863d
000002e0: f349 b4bc 80eb 133e 9d31 1f3e df60 133e
000002f0: 9ed4 b53d 967f dc3d 1865 00be 50ab 67bd
00000300: c0e1 b9bd 7d9b 95bb 6f07 833c 840b 793d
00000310: 5e9f a53d 5b24 213e eb1c 293e 1d40 1c3d
00000320: c732 003e 2f3f 29bd 8e40 da3d 1e91 943d
00000330: a48f c5bd 114f c23d 0166 2ebe ea7c 6d3d
00000340: 7844 e33d 316f e13d b1cd 373c 50c9 0a3e
00000350: 564c 00bc 2a89 9cbd ad96 ba3d 5040 263d
00000360: 3f4d 0ebe e8e7 323e d2d8 383d 9b14 acbd
00000370: 2c3c bbbd bdb9 de3d b5d6 0b3e a2a8 91bd
00000380: 5d47 2dbe 7dc6 5dbc c6e8 4a3d 5181 063d
00000390: dd0f 113e 7ab5 1f3e 426a c23d fdb5 1d3d
000003a0: 1774 183d 7355 c0bd 064b 09be 8ab5 c93c
000003b0: 931f f43a c193 023e f45a 343d da80 d33b
000003c0: ad6b 003e e37b d2bd 78ad aabd 150b 603c
000003d0: 8242 693d baa5 0ebe 2330 6cbd e1a8 21be
000003e0: 4392 d73c 62eb a9bd c3ba 4abd f713 ac3d
000003f0: 4e9a df3d 86db 90bd 2e47 cd3d 67dd 64bd
-0.040356323 -0.06442732 0.025080357 -0.036242172 0.09452683 -0.034717713 0.116332114 -0.027466971
-0.061132494 0.030058758 0.037058033 -0.16806982 -0.08720201 -0.069331765 -0.14480028 -0.15347265
0.08073615 0.051631305 -0.12733655 -0.03238545 0.06422359 -0.07708088 -0.14757715 0.070495635
0.1399565 0.055675194 0.049914286 -0.07873257 0.0076476387 -0.10554982 0.01789789 -0.029498218
-0.07904848 -0.06086359 0.11492909 -0.11982701 -0.08816392 0.09118951 0.15354536 0.113739535
-0.08446865 -0.09078667 0.06893196 -0.1447968 -0.14060633 -0.06278359 -0.04474118 -0.06386345
-0.16635951 -0.16179898 -0.17540176 0.14382318 -0.13661565 0.01905751 0.11512403 0.068398215
-0.16531122 -0.06950331 -0.107079476 -0.096475564 -0.010851696 -0.15855871 -0.095963605 -0.017646512
-0.010029355 0.090056926 0.010878216 0.16680308 0.03904028 -0.04859663 0.1259758 -0.025429498
-0.18128312 -0.021648463 -0.054771673 -0.0108173 0.15011865 -0.17973351 -0.16471067 -0.058171824
0.089622326 -0.13958806 -0.03312414 -0.11254677 0.088465706 -0.060961917 0.013709983 0.035855982
-0.16769433 -0.1149495 -0.0065505863 0.07667107 0.06493785 -0.16128245 -0.15824158 -0.15599692
0.1448585 -0.1460652 -0.011653629 0.116094284 -0.1326985 -0.109470494 0.1216837 -0.07285322
-0.020559467 -0.0035470212 0.027379103 0.034491785 0.03487042 0.07675916 -0.014973766 0.0058003548
0.13411745 0.022882702 0.09036675 0.04397207 0.0871787 0.15532997 -0.15621328 -0.14029431
0.15191028 0.021016277 -0.13379832 0.135499 -0.13398056 -0.1276669 -0.14567608 -0.08017404
0.14966926 0.024875714 0.12057687 -0.042709876 0.13639952 0.1495908 0.07778029 0.11963269
0.11799117 -0.059108242 -0.028844956 0.123780236 0.15290965 0.13669972 0.1190241 0.09579962
-0.020845095 0.014627481 -0.13781078 -0.03545195 -0.09499108 0.16892204 -0.13933612 0.14149839
0.07454575 0.09826757 0.15231195 0.04124751 0.013606717 0.057495642 -0.085911974 -0.13215816
0.103642635 0.055771295 0.17378087 -0.104289316 0.15844996 -0.114191234 -0.1583403 -0.106613375
-0.08903025 0.13048838 -0.08548685 0.1035742 -0.14901331 0.023209626 -0.1677073 0.039707147
-0.1567399 -0.08373949 -0.11760319 0.04862033 0.1360192 0.13422465 0.07267096 0.06583275
-0.022007918 0.14445305 0.1554627 0.14392422 0.08878444 0.107665226 -0.12538564 -0.05655986
-0.090762615 -0.004565655 0.015994756 0.060801998 0.080870375 0.15736525 0.16514938 0.03814708
0.1251937 -0.041320022 0.10656844 0.072542414 -0.09646538 0.09487737 -0.17031099 0.057980455
0.11097044 0.11007536 0.011218474 0.13553357 -0.0078307 -0.076433495 0.091107704 0.040588677
-0.13896655 0.17471278 0.04512865 -0.08402368 -0.09142336 0.108752705 0.13656123 -0.07112242
-0.16921754 -0.013536093 0.049538396 0.03283817 0.14166208 0.15596572 0.09492923 0.038503636
0.037220087 -0.09391298 -0.13407525 0.024622697 0.0018625133 0.12751676 0.044032052 0.0064545693
0.12541075 -0.10277536 -0.08333868 0.013674517 0.056948192 -0.13930407 -0.057663094 -0.15787078
0.02631486 -0.08296849 -0.049494516 0.084022455 0.10918103 -0.07073121 0.10023342 -0.05587521

bias f4 [8]
00000000: 43c5 373e 5382 113e 8876 2cbe 3f61 a0bd
00000010: e23f ecbb 9877 db3d a211 8dbd 087a f23c
0.17946343 0.14209871 -0.16842091 -0.07831048 -0.007209764 0.1071617 -0.06888129 0.029599205

weight f4 [32]
00000000: 0819 803f d14b 823f e8d8 7e3f 2b23 803f
00000010: ae3d 803f 8fdc 7e3f 5847 803f 1207 803f
00000020: 2b30 803f 920d 803f 4149 7f3f 1131 803f
00000030: bea4 7f3f 62ce 803f fc9b 7f3f 48cd 7d3f
00000040: 457b 803f ce9f 803f 1cbd 7f3f 42e9 803f
00000050: bb7c 803f 735b 803f 716d 7e3f 5dd1 7f3f
00000060: 1508 813f 4479 813f cca4 7e3f 8ee9 7f3f
00000070: 6375 7e3f 047f 813f 35e3 7e3f 767e 7e3f
1.0007639 1.0179387 0.9954972 1.0010732 1.0018823 0.99555296 1.0021772 1.0002158
1.00147 1.0004141 0.9972115 1.0014974 0.9986075 1.0062983 0.9984739 0.9914136
1.0037619 1.0048769 0.99897933 1.0071185 1.0038065 1.0027908 0.99385744 0.9992884
1.0080591 1.0115132 0.9947021 0.9996575 0.9939787 1.0116887 0.9956544 0.99411714

bias f4 [32]
00000000: 67e8 503a b4b8 923c 6ec7 93bb e7c8 c139
00000010: 5fad f53a a707 93bb 2d3e 0f3b b524 2e39
00000020: e1ee a83a fd30 d739 97a4 36bb 1bc0 be3a
00000030: e74c b2ba 2c94 cd3b d9e7 c6ba b2de 0ebc
00000040: 7320 773b 52e5 9f3b c7d3 89ba 862f cf3b
00000050: fdc2 3b3b c084 383b 8f7d c9bb d2ba 2cba
00000060: 14b1 053c 25e8 3c3c 4934 96bb a7e7 e5b9
00000070: 958a c5bb 45f6 3e3c 5d83 8fbb 7696 86bb
0.0007969201 0.017910339 -0.004509858 0.00036961513 0.0018743685 -0.004486996 0.0021857128 0.00016607608
0.0012888574 0.00041044495 -0.00278691 0.0014553102 -0.0013603241 0.006273767 -0.0015175297 -0.008720087
0.003770855 0.004879632 -0.0010515385 0.006322804 0.0028650158 0.0028155297 -0.006149001 -0.00065891177
0.0081598945 0.011529957 -0.0045838696 -0.00043850878 -0.006028483 0.011655395 -0.0043796734 -0.004107292

running_mean f4 [32]
00000000: 66df 3bbf c064 1c3b fd62 01bf 5671 19be
00000010: e8c1 073f e82c b43e edaa 7abd 6556 843e
00000020: a693 66be 8082 2ebe afac 3d3e cf8f 41be
00000030: 55ea 7a3e 405d a23e dbad afbe 1975 d73e
00000040: f8a2 69be 6e19 063f bfec 283e f632 e8bd
00000050: ea87 f6be e592 debd 006e d2bd feff 88be
00000060: 2897 b4be f09d 6f3b d89f 503e d404 c3bd
00000070: dae0 81bd 1514 c0be b9c5 18bf af38 0f3d
-0.73387754 0.0023863763 -0.5054167 -0.1498464 0.5303025 0.3519051 -0.061198164 0.25847164
-0.22517261 -0.1704197 0.18522905 -0.18902515 0.24503453 0.3171177 -0.3431233 0.42081526
-0.22816074 0.5238255 0.16496561 -0.11337845 -0.4815057 -0.10867862 -0.10274887 -0.26757807
-0.35271573 0.0036562644 0.20373476 -0.09522405 -0.06341715 -0.3751532 -0.596767 0.034966167

running_var f4 [32]
00000000: 4bbe f03d 210d 433e 335f d73d 7313 f93b
00000010: 7305 793e e87b b53d b1a7 013e d6ef b33b
00000020: 8fc4 473e b3e2 4a3e 4123 733e 754a 0c3e
00000030: e539 3a3d c910 e03c 3b0e 7b3e 9c7e 1a3d
00000040: cac9 0c3d 30f9 363e b954 913d 6bee a73c
00000050: 81f9 243b 4785 1e3d b79f e23d 3e13 413d
00000060: be77 b23d ac7e 833d 711b 5f3c ec1e 653d
00000070: aa17 e83d b079 593d 037e 613d 3a1f 893c
0.117550455 0.19047977 0.10516205 0.0076011955 0.24318485 0.08861524 0.12661625 0.005491237
0.19508575 0.19813041 0.23743917 0.13700278 0.04546537 0.027351754 0.24517147 0.0377184
0.03437213 0.17868495 0.07096238 0.020499429 0.002517313 0.038701322 0.110656194 0.04713749
0.08714245 0.06420645 0.013617382 0.055937693 0.113326386 0.053094566 0.055051815 0.016738523

weight f4 [32, 3]
00000000: 18b1 acbd 30e1 88bd e6d1 7f3e 94c5 4d3c
00000010: dc78 df3e 40b5 c33e 7041 9d3e 8d98 e8be
00000020: a4cc c4be 5e40 423e da52 063f 5153 28be
00000030: 2837 d6bd c3dc 873e 96a0 eabd 94d2 0dbe
00000040: a7a8 b5be 5054 a53e e55c 07be 2b55 c2be
00000050: 8fca 3c3e 16c2 a93e 21b3 b73d 675c b8bc
00000060: 2da2 62be c718 0ebe 52c8 4b3e 5f2c 0ebf
00000070: 9227 d53e 47f0 a73e 4a13 f9bd c305 82bd
00000080: 06ed 283b e689 b4be e240 bdbd 2ccd 4bbe
00000090: 69a4 58be 8655 223e a1f5 513b 8803 efbe
000000a0: f9c1 cebe a572 923e 8080 da3e e469 be3e
000000b0: b6ce e03e 7513 e5be 722a a43e efd1 053f
000000c0: 6b53 b0bd affc 40be f094 95bb 395b 023f
000000d0: bbb7 a73d ac3a c1bd 5d27 273d db87 21be
000000e0: 4ffa 11bf 85ea bf3d a006 123e 1852 68be
000000f0: 0d9c cabe 63ab 0a3f 0670 d0be 8679 07bf
00000100: aa8f 9a3e 320f 2dbe fb3e 933e a185 d0bd
00000110: 787b 9abe 8664 de3e b067 c83e 1989 e93e
00000120: a1e0 b33d b57a 1cbe b83a efbd d3b4 f23e
00000130: 47f5 3c3e 1e5e 083f 9834 773e cb11 e7bd
00000140: bca0 0a3e 6c61 463e 8780 d4bd b7cd 6e3d
00000150: 7b8a 023e e5db afbe 7a0e 5d3e 2dd8 ce3a
00000160: 030f c2be cde7 22be 52f7 b0be 6584 9ebe
00000170: 1b9b f7be 652c 3fbe 2667 1f3e 4e81 09bf
-0.084322155 -0.06683576 0.24982414 0.012559313 0.43646896 0.3822422 0.30713987 -0.45428887
-0.38437378 0.18969867 0.5247017 -0.16438033 -0.10459739 0.26535615 -0.114564106 -0.1384986
-0.35480234 0.32290888 -0.1321903 -0.37955603 0.18436645 0.33155888 0.08969713 -0.022504998
-0.22132178 -0.1387664 0.19900635 -0.55536455 0.41631752 0.32800505 -0.12161882 -0.06348755
0.0025776043 -0.35261458 -0.09240891 -0.19902486 -0.21156467 0.15852937 0.0032037275 -0.46682382
-0.40382364 0.28603092 0.42676163 0.37190163 0.43907708 -0.44741407 0.32063633 0.5227346
-0.08609661 -0.18846391 -0.004564874 0.50920445 0.08189341 -0.09435019 0.040809024 -0.15774481
-0.57022566 0.09370903 0.1426034 -0.22687566 -0.39572182 0.54167765 -0.40710467 -0.52919805
0.30187732 -0.16900328 0.28758988 -0.10181738 -0.30172324 0.43436068 0.39141607 0.4561241
0.08783079 -0.15281184 -0.116811216 0.47403583 0.18452941 0.5326861 0.24141157 -0.112826906
0.13537878 0.19373101 -0.10376077 0.058301654 0.12748139 -0.34347454 0.21587554 0.0015780978
-0.37902078 -0.15908737 -0.3456369 -0.30960384 -0.48360524 -0.18669279 0.15566692 -0.5371293

bias f4 [32]
00000000: 4728 19be 3099 9b3e 19a4 d73d 90e8 bcbd
00000010: 696b ca3a 5b54 5dbe fb64 f93e 8977 b2be
00000020: 50d1 083e e30a e6be 1db8 13bf f472 053f
00000030: 8e56 f5be 147e bebd 2bad 9e3e 2836 aabe
00000040: 4997 ab3e 0f54 f7be 37af 5b3e 2796 91bc
00000050: ebbd ccbe 11be ec3e b024 953e 4a6d b23e
00000060: 13f2 84bd 0e0d 293d 5e1a 2d3d 6b39 68be
00000070: ff6e 0bbe 146d a83e 3ec1 e0bd 7777 003f
-0.14956771 0.3039031 0.10529346 -0.09224045 0.0015443388 -0.2161421 0.48709854 -0.34856823
0.13361096 -0.4493018 -0.5770281 0.5212853 -0.47917598 -0.09301391 0.30991492 -0.33244443
0.3351386 -0.4830632 0.21453558 -0.017771794 -0.39988646 0.4623876 0.29129553 0.34849006
-0.064914845 0.041272216 0.042261474 -0.22678153 -0.1361656 0.3289572 -0.10974358 0.5018229

weight f4 [8, 32]
00000000: fc84 6cbd a4c4 9ebd 0cd4 10bd a08e 2fbe
00000010: efeb 213e 494e 0cbe 312c 243e 1e85 d93d
00000020: 572f 83bd ab0c edbc c7d6 5a3d 89bb 4bbc
00000030: 744f f7bc f9fc 943d 8b04 b3bc 513a 673d
00000040: 84ed 03be 0ac6 c63a 7d77 e4bd 13cd 7ebb
00000050: 0f5b e5bb d9c8 923d c125 bcbd 717e a4bd
00000060: 2b8b 633d 127e 0a3c 59ff 84ba 448f 13be
00000070: 0a90 c2bd ad0e d43d a289 f3bd e9a0 0abe
00000080: a23d 23be 4b83 da3c a4df 383e 3338 f7bd
00000090: 0fea 943d c380 36be 00b0 37bd 3ef5 2b3e
000000a0: b9d3 493d d493 f33c 2804 303c 86d2 cc3b
000000b0: 2231 a1bd 1d27 973b 8e10 213e 68c5 53bc
000000c0: 8c74 8d3b 5efe 26be 7b76 353e dd59 1f3e
000000d0: e8d9 cdbd d0a2 06bd e605 063e 16cb e13c
000000e0: e332 0dbe b3fc 803d 685e c9bd aee0 d7bd
000000f0: c999 6cbd 22fa 9b3d b4f7 08be b6c2 203e
00000100: 0fa3 e1bd d9ef 8cbb 8663 283e d11a 96bc
00000110: ddb8 1e3e 43a7 4f3d 42c6 d03d cb9f c3bd
00000120: 9ea0 063c bd71 193e d7f8 fcbd 6765 c03d
00000130: ca8c 693d 5ed8 9a3d 3589 e43d 3e0f 0ebe
00000140: 2bba d13d 0dea adbd 7dfe 263d 8b5a 303e
00000150: e95d a0bd 0cf6 263e da66 a2bc e05f a73d
00000160: 4061 09be 436a 2b3e 8cb5 08be 2c10 ce3d
00000170: e9c3 38bd 78ec 383e 75bc b43d 7f43 d7bc
00000180: 4cf9 313e 9fc6 f6bd f077 813d d3f0 36be
00000190: af65 20bb edf3 23bd 8dee d9bd 2bd0 023e
000001a0: eaee 3ebc c9c1 0c3e 8e40 cfbd 313b 21be
000001b0: 2da0 923d 05b2 163e f128 6fbd cd99 84bd
000001c0: ae72 043d 4b5b c03d 5e24 2f3e f819 02be
000001d0: 297e 1d3e d0cf 923b 7ab1 773d f7c8 b23d
000001e0: 2c02 043e ccc6 2f3e 2ee3 203e 59c1 b3bd
000001f0: 1278 233e ce1b a43c 13a1 ecbd 5e7f b33d
00000200: 03e8 28bd 8ae9 e33d 342d 01be e0b3 e83d
00000210: 518b 1f3e 6b15 1ebe cd36 c13d c9e2 cf3d
00000220: dee0 be3d c151 e7bd 6750 20bd 61ea afbb
00000230: 8b7c e03d ce7e ab3c 3d8b b73c afe0 e8bc
00000240: ce0b 163d 1ca3 8bbd a2b2 fdbd 36c6 093e
00000250: 189f ea3d 4b70 593c 4959 fabd 9196 8fbd
00000260: 8790 febd cdff e73c ab5f 2cbe db3b b1bb
00000270: 34be 2bbd daa6 463c a4b0 5e3d 7058 99bd
00000280: fad7 0a3e 8921 15be 7b0b 1fbe e1f3 0cbd
00000290: 87d5 34bc 0fae 9c3c a82f 193d 3aa5 97bc
000002a0: 21a2 d73d d64b 483d dd69 b5bd 327b fc3d
000002b0: a0e2 b8bd f549 263e 2211 163e 06dc b7bd
000002c0: bf3f 6abd cf15 89bd fdbb 59bb 6ddf c63d
000002d0: 5325 a3bd c457 1abe 6f97 4c3c 6ad9 653d
000002e0: 9939 1abe 301c cfbd 387f ff3b e492 a03b
000002f0: 0a96 b33d 8ed6 553d dba0 15bd 2cca 183e
00000300: 4a0b d7bd cf86 e2bd f255 a13c 5009 023e
00000310: 22de d33d 08f2 7abd ff32 af3a a998 9b3d
00000320: 4ffc 28be a772 e73b 410d 363e e8b1 1a3e
00000330: b4d3 2bbe 7215 51bd 31ad ee3d 664e 19be
00000340: 9f68 1cbe 53a5 cbbd fba8 29be b80b 0dbe
00000350: 497c 50bc c2a5 50bd 981d 103e 3420 df3d
00000360: 0bf3 0e3e f5d5 90bc d1f6 e8bd d2d1 0b3e
00000370: 773f 3a3d 3412 88bd f468 3f3d 4eb5 adbd
00000380: b0bd 55bd 0586 03be 2cb5 fb3d d743 27be
00000390: 278b 8a3d 6c63 e63d 6c83 2fbd 3f69 6f3c
000003a0: a405 b1bd 7c73 2a3e 3cef 173d 484a 9bbd
000003b0: 7238 9c3d 8fa3 853d f5fb 19be 3f9b b1bd
000003c0: 10df 063d d9d7 e8bd 0591 c83d 6bc9 e2bd
000003d0: af39 4e3c e4a4 1b3d 2fc7 113e eb92 293e
000003e0: 41e4 17be e338 7cbc d8f8 1c3d 5ef1 283e
000003f0: 28a6 1cbe e03e 1cbe 4bde dc3c dbe3 e63d
-0.05774401 -0.0775235 -0.035358474 -0.17144251 0.15812658 -0.13701738 0.16032483 0.10621093
-0.06405514 -0.028936705 0.053427484 -0.012434849 -0.030189253 0.07274813 -0.021852752 0.0564521
-0.12883574 0.0015165221 -0.11155603 -0.0038879558 -0.0069993804 0.07167215 -0.091868885 -0.08031929
0.055552643 0.008452909 -0.00101469 -0.1441012 -0.095001295 0.10354362 -0.11891486 -0.13537945
-0.1594148 0.026673933 0.18054062 -0.12071266 0.07271206 -0.17822556 -0.04484558 0.16792771
0.04927418 0.029733576 0.010743178 0.0062506823 -0.078706995 0.004612817 0.15728971 -0.012925483
0.004316872 -0.16307971 0.17720978 0.15561624 -0.10051328 -0.032870114 0.13088188 0.02756266
-0.13788943 0.062981986 -0.0983246 -0.10540901 -0.05776385 0.076160684 -0.13375741 0.15699276
-0.11017429 -0.004301053 0.16444215 -0.018323334 0.15500207 0.050696623 0.10194065 -0.095519625
0.008217005 0.14984794 -0.1235215 0.09394341 0.057019033 0.075608 0.11158983 -0.13873002
0.10240587 -0.08491907 0.040770043 0.1722204 -0.07830412 0.16304797 -0.019824434 0.081725836
-0.13416004 0.16739754 -0.13350505 0.10061678 -0.04510871 0.18058956 0.08825008 -0.026277302
0.17380255 -0.12049603 0.063217044 -0.17865305 -0.002447467 -0.040027548 -0.10641203 0.12774722
-0.011653641 0.13745798 -0.10119735 -0.15745236 0.07159457 0.14716347 -0.058388654 -0.06474648
0.03233593 0.09392413 0.17103717 -0.12705219 0.15380158 0.0044803396 0.06047199 0.08729737
0.12891454 0.17165679 0.15711662 -0.087771125 0.15963772 0.02003279 -0.1155416 0.08764528
-0.04123689 0.111285284 -0.126149 0.113624334 0.15580489 -0.15437858 0.094342805 0.10150678
0.09320234 -0.1129489 -0.039139178 -0.0053685163 0.10961255 0.020934489 0.022405261 -0.02842745
0.03663235 -0.0681822 -0.12387587 0.13454518 0.11456126 0.013271402 -0.12224061 -0.0701114
-0.1242991 0.028320218 -0.1683337 -0.0054087467 -0.04192944 0.012124741 0.054367676 -0.07487571
0.13558951 -0.14563574 -0.15531723 -0.03441227 -0.011037237 0.019125966 0.037398964 -0.018511403
0.105289705 0.048900448 -0.088580824 0.12328185 -0.090276 0.1623915 0.14654973 -0.08977513
-0.0571897 -0.06693613 -0.0033223622 0.09710584 -0.079661034 -0.15072542 0.012487276 0.056115545
-0.15061034 -0.10112798 0.007797148 0.004900323 0.08768852 0.05220657 -0.036530357 0.14920872
-0.105002 -0.11060869 0.019694302 0.12698865 0.10345103 -0.061265975 0.0013366638 0.07597477
-0.16502498 0.007063228 0.17778493 0.15106928 -0.16779977 -0.051045842 0.116541274 -0.14971313
-0.15274285 -0.099436425 -0.16568367 -0.13774002 -0.012724944 -0.05093933 0.14073789 0.10894814
0.13959901 -0.017680148 -0.113752015 0.13654259 0.04547068 -0.06644097 0.04673095 -0.08481847
-0.052182853 -0.12844093 0.12290415 -0.16334473 0.067648225 0.11249432 -0.042849943 0.014612495
-0.08643654 0.16645616 0.037093386 -0.075825274 0.076279536 0.06525337 -0.1503752 -0.08672189
0.032927573 -0.11369295 0.09793285 -0.11073574 0.012586995 0.03799905 0.14236139 0.16559951
-0.14833166 -0.015394422 0.038323253 0.16498324 -0.15297759 -0.1525836 0.026961466 0.11273929

bias f4 [8]
00000000: 02aa 37bd 977b ad3c d374 17be aece 1fbe
00000010: b844 74bd 1607 2e3e 2eb3 123e bd43 663c
-0.044839866 0.021177096 -0.14790659 -0.15606186 -0.059635848 0.1699489 0.14326164 0.014054236

weight f4 [32]
00000000: bc57 803f 2ffa 7e3f 88a6 803f 0374 7e3f
00000010: e849 7f3f 8bde 803f fcad 803f 461f 813f
00000020: 69d6 7d3f d6f0 7d3f 9747 7d3f 0270 803f
00000030: eaf3 7d3f 9b67 803f 99c7 7e3f e28b 803f
00000040: aede 7e3f 0df1 7d3f 8399 803f 6ed6 803f
00000050: 3685 7e3f 7daf 7d3f 0d9d 803f 61ad 7e3f
00000060: 3c51 7f3f a06d 7e3f c2de 803f 6f8a 803f
00000070: 6d0a 813f ac16 813f 2910 7f3f c7be 803f
1.0026774 0.996005 1.0050821 0.9939577 0.99722147 1.0067915 1.0053096 1.0087669
0.9915529 0.9919561 0.9893736 1.0034182 0.9920031 1.0031618 0.9952331 1.0042689
0.9955853 0.9919594 1.0046848 1.0065439 0.99422014 0.990959 1.0047928 0.99483305
0.9973333 0.99386024 1.006798 1.0042247 1.0081307 1.0085044 0.99634033 1.0058221

bias f4 [32]
00000000: 787e 2f3b e4e7 82bb 4a87 a63b 3012 c6bb
00000010: d512 36bb e38b de3b a6e8 ad3b fb18 0f3c
00000020: 116a 0abc 86ca 03bc 8311 89bb b652 513b
00000030: f7bd fdbb a33e 4f3b 2e34 9cbb 1ee6 8b3b
00000040: 337f 8ebb f8b8 03bc 6884 993b 399a c93b
00000050: 3766 bdbb fd1e 14bc fb10 9d3b 7c58 a9bb
00000060: 9fb4 2ebb 6311 c9bb a4d7 dd3b c8cb 893b
00000070: 5835 053c 775b 0b3c 7ff8 6fbb 81ca be3b
0.0026778262 -0.0039949287 0.0050820457 -0.0060446486 -0.002778222 0.006791578 0.005307275 0.008733983
-0.00844814 -0.008043891 -0.0041829958 0.0031940169 -0.007743593 0.0031623028 -0.0047669625 0.0042693755
-0.0043486594 -0.008039705 0.0046849735 0.006152418 -0.005780007 -0.009040591 0.004793284 -0.005168019
-0.0026657952 -0.006136106 0.006770091 0.004205201 0.008130394 0.008505694 -0.003661662 0.00582248

running_mean f4 [32]
00000000: c3a1 1840 f2a3 fd3f 3e5f c2bf 174c 6ec0
00000010: a4a8 07c0 d501 8540 e238 6d40 07d3 6abf
00000020: 1c24 2040 00aa 513f 97b9 96be a000 67bf
00000030: fc86 8cbf 96a9 8440 bce7 3040 6cbb 4540
00000040: b525 883f 06f6 d5bf 9db1 89c0 94db 29c0
00000050: 878a c9c0 b03b 13c0 6b8f 01c0 4042 3840
00000060: 5700 ffbe 9c81 8340 2045 dd3f 8787 393f
00000070: de2a 4e40 06e3 df3e d442 4ec0 d7e1 9fc0
2.3848732 1.9815657 -1.5185316 -3.7233942 -2.119668 4.1564736 3.7065969 -0.9172825
2.502204 0.81900024 -0.2943847 -0.9023533 -1.0978694 4.1457014 2.764144 3.0895643
1.0636507 -1.6715705 -4.3029313 -2.654027 -6.29816 -2.300518 -2.0243785 2.8790436
-0.49804947 4.1095715 1.728672 0.72472423 3.2213664 0.43727893 -3.2228289 -4.9963183

running_var f4 [32]
00000000: 6700 2140 7995 6841 29a0 7341 949c 1041
00000010: 9454 1d40 db85 de40 b038 a740 9aed 883e
00000020: d6d3 f43f aa7b 3f41 5900 063e 71c1 0a40
00000030: 1854 553f 5387 e740 0662 6b41 d679 8741
00000040: 972c 973f 6925 fa3e fc03 7841 7a23 1840
00000050: 9dbd 5941 5647 6040 aecc 9040 4250 8041
00000060: 5efd c83f fd26 6341 580c 7a3f 986b d43e
00000070: dba8 9a40 455d d240 8874 6d41 2b99 3a41
2.5156496 14.536492 15.226602 9.038227 2.4582872 6.95384 5.22567 0.26743776
1.9127147 11.967691 0.1308607 2.1680567 0.8333144 7.235269 14.7114315 16.93449
1.1810483 0.48856667 15.500973 2.3771653 13.608792 3.504354 4.5249853 16.039188
1.5702322 14.197019 0.97675085 0.41488338 4.8331122 6.5738854 14.84095 11.662395

weight f4 [32, 40]
00000000: f545 3fbd cd8d e23d ad03 143d b4e3 dbbc
00000010: f3e1 933d 1ca8 9e3d 8eb5 753d 1431 18be
00000020: dc51 e23d e32a 02be e90b 6f3c 2e59 7abd
00000030: 9090 183e 72c0 163e 6a57 7c3d cec1 0ebe
00000040: 7651 8cbd fc68 bcbd 4513 0e3e 2574 e9bd
00000050: 933b cd3d 38b1 17be 67f0 bc3d da92 7c3d
00000060: c7ed 8c3c 6b4c 9e3d cc77 6f3b 3952 13bd
00000070: fbcc a43d a57f 04be 77bb 0fbe fcf1 063d
00000080: 5b6d dcbd ed18 0ebe b3c2 b43d de5a 143e
00000090: f916 953d 0547 243d 1b22 673d 465f 223e
000000a0: 0108 09be 1aaa 383d d85e 923d 2bf8 ff3c
000000b0: 2208 c73c 3b97 1fbe 310c 0fbd 10bb aa3d
000000c0: f3b0 e8bd a861 26bd 38be 703c ce33 f43b
000000d0: bb26 18b9 cd6c ccbd 6dd1 0a3e 942f 63bd
000000e0: 103d 4a3c cf13 10be 7f36 60ba 0e3e 17be
000000f0: 720f 9d3d cbf3 af3b d2d6 98bd 72a7 573c
00000100: 6237 063b 0142 123e d018 0d3b 7523 1dbd
00000110: a8bd cbbd 4e27 bd3c ac3c d4bd 34c5 1e3e
00000120: d51a 4b3d c657 94bd b1e7 ebbd 55bb 853b
00000130: deae 993d c36e 05be 51d4 063e 83ca 09be
00000140: 868d afbd e467 adbc 5f4c 183e eb87 373d
00000150: 3eba 1cbd 0c5e 62bd 7e8f 053e a900 b4bd
00000160: 5e05 423d b471 973d 5528 ea3c 53f0 503d
00000170: 9634 82bd 214f a0bd b28d 89bd 86f2 d4bd
00000180: 477c 56bc 955f 1dbe 372a fd3d b9b9 27bd
00000190: ab67 d2bd 2509 473c b3c8 85bd 9032 893c
000001a0: 009b 21be c177 d2bd 6d0e fd3c 3d95 2b3d
000001b0: 50b6 b83d ecf0 8e3d 0314 213e 38f1 143e
000001c0: a9f5 a53d 4660 04be da2c 1b3e b139 f4bd
000001d0: 1550 15be c7cb 09be a1bf 253b db0d 353c
000001e0: 38a1 ecbd f33c 53bd eb92 1b3d 0f09 79bc
000001f0: 1dcd f03c 8b10 b9bd eff0 06bd 4d17 ae3d
00000200: 5e51 f63d eecc 2dbc 0dac a03d aa44 0bbe
00000210: aca4 963d f5ba c33d 7c34 283d 5e08 1abe
00000220: fb1e bdbd 7c16 e0bd 2e7a c2bd 411e 00bd
00000230: 28ec 3cbd b033 e83d f728 043e 47b1 143e
00000240: 827e b2bd 02e9 1bbe 73b4 08be d055 143e
00000250: 529e a53d 9a43 133d 906f aa3c 08a0 d33d
00000260: d212 f3bd 6f1a 073e db4c d73c f795 40bd
00000270: d886 d6bd dc5a bf3d cdad ed3d 7e1a 073e
00000280: 2d90 053e fc21 c73c 2ec1 193e 024d 1cbd
00000290: 448a 2a3d a95e dc3b f238 003e 0c24 dcbd
000002a0: ab65 47bd 9ef1 943d 07a1 26be 6156 c7bb
000002b0: 0d10 ee3d 928e 203e 10a8 a23c 6161 07be
000002c0: 3200 af3d 4146 f03d 87ce d7bd 107b 5fbd
000002d0: e95b 06be 40e3 193e ff45 0d3e 63f3 bc3d
000002e0: 187d 803d f35e acbd 913e 66bd 91d1 5bbd
000002f0: 244f 543d 48fc 5b3d caba b93d ec17 cebd
00000300: 5b2a 7fbd a51b 0bbe c114 e6bd c62b 0dbc
00000310: 5d2c e4ba 27e6 f43d 7b9f 3a3d e4e7 f83c
00000320: cfc0 eabd 6443 b6bc 7ccc a0bd 7487 dfbd
00000330: 7f7c b1bd 534f bdbd 2287 e33d 716e e33d
00000340: 030a 5e3d 6049 c93d c2c4 cabc 246e e83d
00000350: 245a f7bd 2629 213e 7e77 51bd 3c2a f53d
00000360: f8ad 70bd 0edd 5f3d efb2 6ebc 75f0 91bb
00000370: 92de a33d d1de b13d 9000 873d 0bef 003e
00000380: cb79 1e3d 8daa 77bc a4b2 59bd 0c49 583d
00000390: 2979 12be b0c6 f73d 5f8e 4bbd c02f efba
000003a0: 71f1 f0bd 46b5 c0bd c911 923d 69d1 a43d
000003b0: b52e 7dbd 1f27 b63d 0089 b43d 17dc d03d
000003c0: 0be6 f1bd 9047 bc3c f66f a33c 7132 093e
000003d0: 6bfb debc 734f 5abc 33c3 c0bd 259b cb3d
000003e0: 2403 253e 9464 b0bd 3ced b03d c4c5 013d
000003f0: 74af 4abc 429a 07be 0ebb 003e f482 10be
-0.046697576 0.110622026 0.036136318 -0.026841976 0.07220831 0.07746908 0.059987597 -0.14862472
0.1105077 -0.12711672 0.014590242 -0.061120205 0.14898896 0.1472185 0.061606802 -0.13941118
-0.06851475 -0.09199712 0.13874538 -0.11399106 0.100211285 -0.14813697 0.092255406 0.061663486
0.017203225 0.07729419 0.003653991 -0.035967086 0.080469094 -0.12939318 -0.14036356 0.032945618
-0.107630454 -0.13876696 0.088261984 0.14487788 0.07279772 0.040106792 0.05642901 0.15856656
-0.1338196 0.045084096 0.07146996 0.031246265 0.02429587 -0.15585034 -0.034923736 0.083364606
-0.113618754 -0.040620476 0.014693789 0.0074524647 -0.00014510278 -0.099816896 0.13556452 -0.055465296
0.01234366 -0.14070056 -0.00085530424 -0.14769766 0.076689616 0.0053696386 -0.07462849 0.013162481
0.0020479788 0.14282991 0.0021529682 -0.038363893 -0.099482834 0.023090031 -0.10363135 0.15504915
0.049586136 -0.07243304 -0.11518801 0.0040811696 0.075040564 -0.13030533 0.1316693 -0.13456158
-0.08571915 -0.021167703 0.14872883 0.044807356 -0.038263552 -0.05526547 0.13043019 -0.087891884
0.0473684 0.07394734 0.028583685 0.05101044 -0.06357686 -0.07827593 -0.06716479 -0.1039782
-0.013091153 -0.15368493 0.123615675 -0.040948603 -0.10273679 0.012148176 -0.06532421 0.016747743
-0.15781784 -0.102767475 0.030890668 0.04189037 0.09019148 0.06979546 0.1573029 0.14545143
0.081034966 -0.1292735 0.15153828 -0.11925066 -0.1458133 -0.13456641 0.0025291222 0.011050667
-0.115541875 -0.051571798 0.03798191 -0.015199914 0.02939468 -0.090363584 -0.032944616 0.08500538
0.12027238 -0.010607941 0.07845316 -0.13600412 0.073556274 0.095571436 0.041065678 -0.15042254
-0.09234425 -0.109417886 -0.0949596 -0.031278852 -0.046123654 0.113379836 0.12906252 0.14520751
-0.08715536 -0.15225604 -0.13350086 0.1448586 0.08086838 0.03595314 0.02080515 0.10333258
-0.11868824 0.13193677 0.026281765 -0.047018018 -0.10474938 0.09343502 0.116054155 0.131937
0.1304328 0.024308197 0.15015098 -0.038159378 0.041635767 0.0067251516 0.12521723 -0.10749063
-0.048680943 0.07272647 -0.16272365 -0.006083295 0.11624155 0.15679386 0.01985553 -0.13220741
0.08544959 0.1173215 -0.10537439 -0.05456072 -0.13120998 0.15028095 0.13796233 0.0922611
0.0627386 -0.084165476 -0.05621201 -0.053666655 0.051833287 0.05370739 0.0906883 -0.100631565
-0.062296253 -0.13584764 -0.11234427 -0.008616393 -0.0017408241 0.119579606 0.04556225 0.030384012
-0.114625566 -0.022248931 -0.07851502 -0.109145075 -0.08666324 -0.092436455 0.11109759 0.111050494
0.054208767 0.09828448 -0.024752025 0.11349133 -0.1207774 0.15738353 -0.051139347 0.11970946
-0.05875966 0.054654174 -0.014569028 -0.0044537135 0.08001436 0.08685077 0.06591904 0.12591188
0.03869037 -0.015116346 -0.05314888 0.052804038 -0.14304031 0.120984435 -0.049696323 -0.0018248484
-0.11764801 -0.09409575 0.071322985 0.08047754 -0.06181212 0.088941805 0.08815193 0.10198229
-0.11811455 0.022983342 0.019950848 0.13398148 -0.027219495 -0.013324606 -0.09412231 0.09941701
0.1611448 -0.08612934 0.08638999 0.031682745 -0.012370933 -0.13242438 0.12571356 -0.14112455

bias f4 [32]
00000000: 7e93 273c 43cd 6dbb fbef 55bc 6265 13be
00000010: 7051 fd3d ea4f 19bd f480 97bd d54e cdbd
00000020: 89b7 b63c 7813 513d fd9a bcbc 2ec2 b4bb
00000030: bfc8 143e ed0a 3c3c 4b98 543d e19a 713d
00000040: 3469 0f3e 4a3f bbbd 2107 b5bd 161c 00bc
00000050: 67d7 b13c 9278 2e3d 647f d9bd a57f 243e
00000060: 90f1 7fbd 46c4 29bd f2c7 22be ac42 f23d
00000070: 02d2 c03d 219a 22be 7758 e2bd 4aac c13d
0.010228036 -0.0036285676 -0.013057704 -0.14394143 0.123690486 -0.037429728 -0.07397643 -0.10024802
0.022304313 0.051043957 -0.023023123 -0.005516312 0.14529704 0.011477214 0.05190305 0.058985595
0.14004976 -0.09142931 -0.0883925 -0.007819196 0.021709157 0.042595454 -0.10620001 0.16064318
-0.06248623 -0.041446947 -0.15896586 0.11829123 0.09415056 -0.15879108 -0.110520296 0.0945669

weight f4 [32, 32]
00000000: 5f01 2f3e 5c83 463d c2c0 e4bb 3ba7 c5bd
00000010: d896 b73d f440 173e a1ea 293c 432a 06be
00000020: 11d3 8ebd 86b1 f33d 1b5d fc3d 7445 303e
00000030: 66ef 9e3d d293 273e 2738 2ebe d3e2 883d
00000040: 83e1 42bd 33a2 6dbd 2163 debd 9f20 bebd
00000050: 55c6 bb3d ac2c f9bc e204 253e c7ce 833a
00000060: 25b3 2e3e d859 043e 58e9 8e3c 964f f33d
00000070: eb3e 3b3d 6bba 203e 376f 80ba 8aff 10be
00000080: 8215 1bbe 0468 12bd f95a 57bb 5a81 d9bd
00000090: ffe6 07be 55f2 ba3d e78f 56bd 8fc1 40bd
000000a0: 0015 9f3c 0a30 44bd cb21 873c 94f1 ebbc
000000b0: b8ee 1d3e 5e70 e5bd 458a 5a3d 6b72 3ebd
000000c0: 93c6 223e 613f 703c 0d70 a53d 4008 0bbe
000000d0: 4e37 34be 2ba3 45bd 0f05 ba3d 23bf 4cbd
000000e0: d847 d4bc ae6e 893d 4700 e03c 3099 373d
000000f0: 7fe9 043e 53bc 14bd e813 f73d 84bd 873d
00000100: 7f77 8a3d cc83 0ebe fb37 4b3d c098 34bd
00000110: c20d a7bd 98fa aebc 86e9 d83d 23ec e23c
00000120: 5f46 523d ccfb ec3d b46a 62bd dd59 40bd
00000130: 986c d5bc a777 df3c d294 1d3e e7cc 24be
00000140: 6aa3 053e 9917 f8bc 513a dabd b264 20be
00000150: 2910 cabd 5662 cd3d 168d d0bd c97a eb3b
00000160: e96c c83d a1d9 debd 8fea a03d 903a 7fbb
00000170: 04eb a3bc e451 58bd 3b23 e2bd 76db d6bd
00000180: 0a90 35be e6be d4bd fadf 7fbd 69ad 9d3d
00000190: 54d9 13bd 3fff df3d 4386 26be 7f21 543a
000001a0: 7659 e9bd ec22 c03c bac7 53bd 71a4 febd
000001b0: c7ed a63c 7695 363e 9792 2abe 61fe 213e
000001c0: a00f bbbc f24a 0fbd 9ade 05be 83a8 07be
000001d0: af98 6b3d 2981 17be dc8e f03c eba3 e4bd
000001e0: 0820 783d 6647 043d a807 dd3d dcf3 08be
000001f0: 7f58 113d 9167 a73d 0969 d73d a4a9 2ebe
00000200: 1365 8f3d 0fee 1c3d 0fbf a5bd 424f 203c
00000210: 0c8c cabd 7fe5 573d 965f c0bd 2422 57bc
00000220: 0040 f53d 3a27 d73b 9b86 29bc b6c2 37be
00000230: 400c 063e 08cf d73b 9ca1 bb3b f30c 443d
00000240: d758 ea3c bdad 1e3d 0c23 a3bd 85a2 533d
00000250: 8954 83bd 53fb 773c 4d65 f03d a81d 733c
00000260: 222f 2cbd b1dc fc3c 3862 5b3d 2f48 043e
00000270: f0be 94bd 23c1 273e cf40 36be 7b1e fdbd
00000280: 0f80 f9bd 5b28 d5bd 2ac1 8ebc 4056 693d
00000290: 4df5 15be 8dc0 7e3d 2a8a 6cbc 2ec7 96bc
000002a0: 60e8 0a3e 330f c53d f6d7 dbbd e779 1fbd
000002b0: c583 ddbd 655c 8ebd 8d73 b13d 7557 043d
000002c0: cc60 33be 27c8 0abe add7 c73d 87d5 0abd
000002d0: eabc 083e 018f 00bb 66b5 25be 757f e63c
000002e0: f7a9 f33d 6500 a7ba a32e 89bd 7142 fa3d
000002f0: c51f 213d fc9e 973c d0f0 bbbc 106e 6e3d
00000300: 0e80 833d e096 993c d2d3 2dbc 370b 973c
00000310: 06fc d5bd 5b8c 313e 897a 82bc d587 4fbd
00000320: 95f0 f93d 5f37 1c3e eb04 f93d bc7f ea3c
00000330: f035 233e 6de7 21be 68cd 9cbc 50ef 31be
00000340: d982 a23b c38a c53d ad6b 37be dbd7 b3bc
00000350: 53ba b9bc c5c2 00be 11da 34be 0b3b 53bd
00000360: 40d2 16be 64bf 60bd 4b45 2a3e d989 993c
00000370: e9af 03be 4c0c 13bd b02c 6d3d 03e5 253d
00000380: 0e8c fa3d 1de7 82bd ea3a c63d c5fe 9fbd
00000390: 5144 28be 74b8 323e 7579 e53d 3ffd f93d
000003a0: 2854 043a e4bb 1a3e 5ce1 16bd 0ad5 84bc
000003b0: 7695 db3d d9d9 053e c2fd dabd fcda c53d
000003c0: 52a3 1d3d fc43 233e 9e41 223e c737 2ebe
000003d0: c97b ab3d 86d4 6f3d 732e aabd 504b b93d
000003e0: 1484 f8bd 799b 05be 2892 d2bd b6f3 503d
000003f0: 4fd1 023e 8f4a dbbd e812 cd3a 31f6 17be
0.17090367 0.048465118 -0.0069809863 -0.09651037 0.08964318 0.14770871 0.010370881 -0.13102059
-0.069738515 0.11899094 0.12322446 0.17213994 0.077605054 0.16364983 -0.17013608 0.06683888
-0.047578346 -0.058016013 -0.10858751 -0.09283566 0.09168688 -0.030416809 0.16115144 0.0010056131
0.17060526 0.12924898 0.017445251 0.11880414 0.0457143 0.15696113 -0.000979877 -0.1415998
-0.15144923 -0.03574373 -0.003286062 -0.10620375 -0.13271712 0.091282524 -0.05238333 -0.04705959
0.019419193 -0.047897376 0.016495606 -0.028801717 0.15423095 -0.11203073 0.05335452 -0.046495836
0.15896063 0.014663548 0.080780126 -0.13577366 -0.17599222 -0.048251312 0.09082996 -0.04998697
-0.025913164 0.067105636 0.027343882 0.044823825 0.12979697 -0.036312412 0.12064344 0.06627944
0.06761073 -0.13917464 0.049613934 -0.044090986 -0.08156921 -0.021359727 0.10591416 0.02770049
0.051336642 0.11571464 -0.05527754 -0.0469607 -0.026052758 0.027278734 0.15388802 -0.16093789
0.13050619 -0.03028469 -0.10655654 -0.15663412 -0.098663636 0.10028522 -0.1018316 0.007186268
0.09786398 -0.10881353 0.078572385 -0.0038944818 -0.020009525 -0.052812472 -0.11041876 -0.104910776
-0.17730728 -0.103879735 -0.06246946 0.07699091 -0.036095932 0.10937356 -0.16262154 0.00080921495
-0.113940164 0.023454152 -0.051704146 -0.124337085 0.020377053 0.17830452 -0.16657482 0.15819694
-0.022834599 -0.034983583 -0.13073197 -0.13247876 0.057518657 -0.14795364 0.029364996 -0.11164077
0.060577422 0.032294653 0.10792476 -0.13374275 0.035484787 0.081740506 0.10518081 -0.170569
0.070017 0.038312968 -0.08093082 0.009784522 -0.09889993 0.0527091 -0.093932316 -0.013130698
0.11975098 0.0065659555 -0.010347034 -0.1794537 0.1309061 0.0065859593 0.0057260524 0.04786391
0.028606815 0.03873991 -0.07965669 0.051668663 -0.06412608 0.015135604 0.117380716 0.014838614
-0.042037137 0.030866953 0.053560466 0.12918161 -0.07262981 0.1638227 -0.1779816 -0.12359329
-0.12182628 -0.10408088 -0.017426092 0.05696702 -0.14644356 0.06219535 -0.014437238 -0.018405523
0.13565207 0.0962204 -0.10734551 -0.038934615 -0.10816149 -0.069512166 0.08664618 0.032309968
-0.17517394 -0.13552915 0.09757934 -0.03389504 0.13353315 -0.0019616487 -0.1618248 0.028136948
0.118976526 -0.0012741206 -0.066983484 0.12219704 0.03933694 0.018508427 -0.022941977 0.058210433
0.06420909 0.0187487 -0.010609584 0.018437965 -0.1044846 0.17338698 -0.01592757 -0.05066665
0.122040905 0.15255497 0.12159141 0.028625362 0.15938544 -0.15810938 -0.019140914 -0.17376447
0.004959446 0.09645607 -0.17912169 -0.021953514 -0.022671854 -0.12574299 -0.1766131 -0.05156998
-0.14728642 -0.054870024 0.16627996 0.018742489 -0.12860073 -0.0359004 0.057903945 0.040501606
0.122337446 -0.063917376 0.09679206 -0.07812265 -0.1643231 0.17453176 0.11204807 0.12206506
0.00050479406 0.15110737 -0.036836013 -0.016214866 0.10721867 0.13071384 -0.10692932 0.096609086
0.038485833 0.15943903 0.15845343 -0.17013465 0.083732195 0.058552288 -0.08309641 0.09047568
-0.12134567 -0.1304759 -0.10281783 0.05101367 0.12775157 -0.1070758 0.0015645893 -0.14840008

bias f4 [32]
00000000: 1381 a53c 79e7 40bd adf1 c0bd 4211 243d
00000010: 513f 103e a1dd f73d 4128 df3d 29b4 ccbd
00000020: ceed 7dbd 73b8 5cbc 8dcd 91bd a018 193d
00000030: b5ab 29bd 4bba 163e b56b 08be c3ca 25bd
00000040: 9130 963c aa14 e4bd b447 2cbe 4f5e d5bd
00000050: 754b f03d 7b13 223e 770b fdbd ef53 973c
00000060: 4a9e 4ebb eb71 923c 820c 11bd b96f b53d
00000070: 6f2f 9d3d 9fb0 0dbe 6fd3 6f3d 821e 053e
0.020203149 -0.04709575 -0.09421096 0.04005552 0.14086653 0.12102819 0.1089635 -0.099953
-0.061994366 -0.0134717105 -0.07119284 0.037377 -0.04142352 0.14719503 -0.13322337 -0.04047657
0.018333705 -0.11136754 -0.16824228 -0.104183786 0.11733142 0.15827744 -0.12355702 0.01847264
-0.0031527453 0.017876586 -0.03541232 0.088592 0.07675063 -0.13836907 0.05855125 0.12999919

weight f4 [32]
00000000: 9878 803f 145f 7e3f 91e9 7d3f f017 7f3f
00000010: 9f5c 7e3f b449 813f b8b6 7e3f 8bf2 803f
00000020: 33af 7f3f c784 7e3f 0e57 7f3f 73bd 803f
00000030: 64f3 7f3f 39b9 803f 2d4d 803f 20fa 803f
00000040: e7e8 803f a64e 7e3f 235d 803f b570 803f
00000050: a448 813f 9dbf 7d3f eac9 7d3f 4ad9 7e3f
00000060: 8f8e 7d3f e550 7f3f 3ce6 803f 439f 7d3f
00000070: 1a85 803f 486d 803f 1fb1 803f 27dc 7f3f
1.0036802 0.9936383 0.9918452 0.996459 0.9936008 1.0100617 0.99497557 1.0074018
0.9987671 0.9942135 0.9974221 1.0057815 0.9998076 1.0056525 1.0023552 1.0076332
1.0071076 0.9933876 1.0028423 1.0034395 1.0100293 0.99120504 0.9913622 0.99550307
0.9904565 0.9973281 1.0070262 0.9907114 1.0040619 1.003335 1.0054053 0.999453

bias f4 [32]
00000000: a41e 6eba 8658 0cbc 86b8 f0bb 595c 8abb
00000010: b95e cabb 8943 0f3c c63d 16bc 2ed3 2fba
00000020: 526e 2bba d557 3bbb 6229 4eba 5ca4 1f3b
00000030: 6fce 1fba 41f5 033c d7d6 86ba 6b36 f13b
00000040: 3e21 5b3c 3002 09bb e579 fe3b 98dd b43a
00000050: 1a0b 4a3c a5c1 c9bb 0b1a ebbb 7090 1cbb
00000060: 2528 3ebc d4e3 62ba ff48 4e3b 13d4 3cbc
00000070: fe2b b83a a950 0b3c caf3 cf3b 5952 3aba
-0.00090835453 -0.0085660275 -0.0073462157 -0.0042224345 -0.0061758426 0.008744129 -0.009170001 -0.00067071884
-0.00065395713 -0.0028586288 -0.0007864443 0.002435944 -0.00060961297 0.008054079 -0.0010287416 0.0073612235
0.013374625 -0.0020905845 0.007765996 0.001379895 0.012331748 -0.0061571174 -0.0071747354 -0.0023889802
-0.011606251 -0.0008655165 0.0031476615 -0.011525172 0.0014051197 0.008503118 0.0063462006 -0.00071076077

running_mean f4 [32]
00000000: 8d83 dd3d f3fb 29be 794a c9bd e958 aebd
00000010: 14a1 463e 2c62 353d 8dbb 2fbe 7d8c a8bd
00000020: 9b4b 00be abb3 98bd 809a d0bd 7aa3 b43c
00000030: fe66 093e ed24 8abc 0b45 3d3e e1a7 a13d
00000040: 55f6 093e 86ad b1bd edac 46be e6a4 9dbe
00000050: 2c80 eebd 3440 13be 3a3b d7bd 4035 303e
00000060: 021f 993b d2f1 463e c6cc fabd c89b 0c3e
00000070: 82ce eb3d ca0b 6dbe 5af1 bbbd c4dd 543d
0.10816107 -0.16600017 -0.09828658 -0.08513052 0.19397384 0.044283077 -0.17161389 -0.08229921
-0.12528841 -0.07456144 -0.101857185 0.022050608 0.13418195 -0.01686331 0.18483369 0.078933485
0.13472874 -0.08675675 -0.19401903 -0.3078987 -0.116455406 -0.1437996 -0.105093434 0.17207813
0.004672886 0.19428185 -0.12246089 0.13731301 0.115139976 -0.23149028 -0.091768935 0.051969305

running_var f4 [32]
00000000: 125a db3e 38f2 183e 5e04 1d3f b35a 003f
00000010: b4eb 693e e5aa 3c3e 7d18 da3e 35b7 ca3d
00000020: fd5c a03d bd5b 303d f617 c73e ac2b 473e
00000030: b2a7 dd3e 650f 173e bb37 1b3e 5385 be3e
00000040: cb57 0e3f 9906 0c3f b48e 6d3e c77b af3e
00000050: ab72 693e 05c8 bc3e 1c2c 2d3e 323d 333d
00000060: 6212 1b3e e316 f53d b90a ba3e 117a e43e
00000070: f4f0 863e 9f09 c33e 7092 de3e c02c 563e
0.42842156 0.14936149 0.6133479 0.50138396 0.2284382 0.18424566 0.42596808 0.09898225
0.07830236 0.04305624 0.38885468 0.19450253 0.43292004 0.14751966 0.15157978 0.37211093
0.5560271 0.5469757 0.23198968 0.34274122 0.22797649 0.36871353 0.16911358 0.043759532
0.15143731 0.11967256 0.36336306 0.4462438 0.26355708 0.38093278 0.43471098 0.20915508

weight f4 [32, 8]
00000000: c9e8 fbbd 0c78 4fbd 1ebf 39be 11a3 e7bc
00000010: fdcb 253d bf92 4a3c 0a45 17be c81b 5fbe
00000020: a0e4 82be 5fae 34bd eecc 743e 3dfa 3dbd
00000030: a498 86be 293e ed3d 1365 b8bd 3099 8c3e
00000040: 49e5 7f3e 2543 5bbd 78e9 a4be 4990 853d
00000050: bfc0 5dbe 58b5 fb3d 6245 853e cc15 8e3d
00000060: 21f1 183d f49b 983e 84f7 19be 23a3 99bd
00000070: d7a2 a03e acb4 9bbe e05f 673e f7d9 3cbe
00000080: 9b4c b4be 04f6 d3bc 14b9 ba3d 1a35 c2bd
00000090: 40d1 e5bb 82c3 8abe 0e85 e93d 5cc4 8cbe
000000a0: 6675 9ebe b037 c6bd a222 c63d 0050 3c3e
000000b0: d130 6cbe ffc0 693e e9ca 48be d024 afbe
000000c0: 26ca 23be 36cc a6be 8533 103e 34a6 9fbe
000000d0: be19 de3d 1a35 d63d ab84 52be 73bb 46bd
000000e0: 37e5 26bd 0efc 95be f8e3 43be c194 83be
000000f0: b985 f4bb 1d3e 72be 6b37 3f3d 7f9c fdbd
00000100: 92b6 32be d58f 27be 0bf4 27bd b8d2 68be
00000110: 9f7d 97be a684 99be 9762 113e aedd 1f3e
00000120: 39a7 913e d62c 4cbe 434a 893e 978f b83c
00000130: f718 1bbe 21e3 483e 5bc5 943e f407 9d39
00000140: f20c 31be 8928 4f3e bec2 a8be f5a4 96be
00000150: d4b8 44be 399b 00be 7034 2d3e f909 9bbe
00000160: 023c 7d3e 39d3 a7be 99c2 923c 9e69 503d
00000170: 9eb9 e9bd fafb 8cbe 0e5f e1bd 0c25 273e
00000180: 61be 3b3e 24c4 e43d 1206 34be c8b4 a33e
00000190: f2a3 133e 9e2c 90be fb38 7ebe 5751 1e3e
000001a0: 7e47 bbbc e692 47bd 8af0 6fbe e28f b03e
000001b0: 208d cabd 4a03 893e a008 d13c 4ce1 9a3e
000001c0: cd8d 0f3e ba8c a13e fd19 9dbe 5b94 9a3d
000001d0: b759 c0bb 68d2 d63d 989e 7abe 6832 303e
000001e0: 870a ad3e 1980 30be e003 4cbe b583 19bd
000001f0: 969a 433e 00f0 19bd bfca 0a3e 5d66 8f3e
00000200: 1c65 213e 61aa 143e 5151 26be c24b 4dbd
00000210: 1633 923e f30e a4be f6ab a6be 9f9b 28be
00000220: 3ccb d4bc 4e63 49be 1b1d 623e bcb9 103e
00000230: 2c04 66be 7be5 9b3e 258c 993c 4a82 ac3e
00000240: a4a1 80be d29d 79be 4e5c ed3d 0f26 f6bd
00000250: 1717 0b3e 8388 a1be a765 803e 7f55 5abe
00000260: 5fb1 873e 9e84 cebd 613a 09be 4be0 9bbe
00000270: d7cc 6bbe 9f97 833e 6162 43be c6ba b3bd
00000280: c177 793e e92d 6fbd db51 033e 36b0 133d
00000290: e943 88be 97da 5a3e 81a3 56be 1108 11bd
000002a0: 2c5f 7b3e 0d92 a33e ab8a e3bc c9fe 5f3e
000002b0: eeef 5e3e f94b 923e ce65 f13d 66d7 44bc
000002c0: 3ad0 353e 422e 883e 142e 66bd 1ce8 3f3b
000002d0: 47d5 63be 55ba f0bd 5413 943a 696a a1be
000002e0: 4082 133e 22c1 873e 9cd4 213d cf7a 34be
000002f0: 1f0a 55be f6a1 6e3d f9fe a33e 893b 9cbe
00000300: 82fb 533e 8f23 b1be 6194 0ebe 5ea8 193e
00000310: 42a7 1c3e 1cb6 9e3e cb4b 57be 893c 73be
00000320: d2a0 3a3e 8e81 4d3e 2df8 4ebd 2905 32be
00000330: 202d 10ba 5878 55be d3e5 13be 75e3 8dbd
00000340: 64fe 2ebe da7b 063e 1f93 9bbe dd34 763e
00000350: 9797 35be 0ef0 553e 7594 b23d 3a94 85be
00000360: e77f 003e 7304 9bbe 9e03 93be c838 153e
00000370: 810a a3be e8c2 b2bd e4d6 ad3e a269 82be
00000380: ac52 123e b8c5 91be 3494 91be 7666 50be
00000390: 97c5 923e 6cb0 8b3e 699f 9cbe e38b d6bd
000003a0: 6c42 953e e4b5 b6be b41c 203e aa17 5e3e
000003b0: fa7c 45be f184 5f3d 374a 343d 721e e13d
000003c0: 986a 583e 332c 5cbd 0375 063e b7c7 0d3e
000003d0: a5f7 18be 2e28 acbe 14c8 53be 6759 5dbe
000003e0: 515a 853e a1fb a73e 4a8f 73be 1da2 40bd
000003f0: 6531 adbe 9d03 14bd 8ce3 5abd 2661 0b3e
-0.123002596 -0.050651595 -0.18139312 -0.028275998 0.04047774 0.012364089 -0.1477243 -0.21787941
-0.25565052 -0.044111606 0.239063 -0.046381224 -0.2628833 0.11584122 -0.090036534 0.27460623
0.24989809 -0.05353083 -0.32209373 0.06521661 -0.21655558 0.12290448 0.26029497 0.06937751
0.037339333 0.29806483 -0.15035826 -0.07501819 0.31374237 -0.3041128 0.22595167 -0.18442522
-0.35214695 -0.025874145 0.09117332 -0.094827846 -0.00701347 -0.27102286 0.11402331 -0.2749356
-0.30948943 -0.0967859 0.096745744 0.18389893 -0.23065497 0.22827528 -0.19608654 -0.34207773
-0.15995082 -0.32577676 0.14082153 -0.3118149 0.10844754 0.10459347 -0.20558421 -0.04851861
-0.04074594 -0.29293865 -0.19129932 -0.25699428 -0.00746223 -0.23656507 0.04668371 -0.12383365
-0.17452458 -0.16363461 -0.041004222 -0.22736633 -0.2958803 -0.29984015 0.14197765 0.15611908
0.28447893 -0.19938979 0.2681447 0.022529406 -0.15146242 0.19617893 0.2905682 0.000299513
-0.17290094 0.20230307 -0.32961076 -0.29422727 -0.19211131 -0.12559213 0.16914535 -0.30281046
0.24729922 -0.32778338 0.017915057 0.050881974 -0.11412357 -0.27535993 -0.11004458 0.16322726
0.18334343 0.11170223 -0.1758044 0.31973863 0.14418009 -0.2815904 -0.24826424 0.15460716
-0.022861239 -0.048724078 -0.23431602 0.34484774 -0.09890199 0.26760322 0.025516808 0.30250013
0.14018936 0.31552678 -0.3068389 0.07547828 -0.00587007 0.104893506 -0.24474561 0.17206728
0.33797094 -0.17236365 -0.19923353 -0.03747912 0.19101939 -0.037582397 0.13553904 0.28007784
0.15761226 0.1451812 -0.16241957 -0.050121076 0.285546 -0.32042655 -0.3255307 -0.16465615
-0.025975816 -0.19666788 0.22081415 0.14133352 -0.22462529 0.30448517 0.018743584 0.33693153
-0.25123322 -0.2437661 0.11589871 -0.12018978 0.13583027 -0.31549463 0.25077555 -0.21321677
0.2650251 -0.100838885 -0.13401176 -0.3044456 -0.23027359 0.25701615 -0.19080497 -0.087758586
0.24362089 -0.058393393 0.12824194 0.03605672 -0.2661431 0.21372448 -0.2096081 -0.035408083
0.24548024 0.31947365 -0.027776083 0.21874537 0.21771213 0.28573588 0.11786996 -0.012014246
0.17755213 0.26597792 -0.056196287 0.0029282635 -0.22249328 -0.1175429 0.0011297264 -0.31526497
0.14405155 0.26514536 0.0395094 -0.17624973 -0.20804642 0.058259927 0.32030466 -0.30514172
0.20701411 -0.34597442 -0.1392379 0.15005633 0.15298179 0.30998313 -0.21025006 -0.23753561
0.1822541 0.20068952 -0.050529648 -0.17384781 -0.0005499888 -0.20846689 -0.1444314 -0.069281496
-0.1708923 0.13133183 -0.30385682 0.24043603 -0.17733608 0.20892355 0.08719722 -0.2608965
0.12548791 -0.30276832 -0.28713697 0.14572442 -0.3184395 -0.08728582 0.3395301 -0.25471216
0.1428935 -0.2847116 -0.28433383 -0.20351586 0.28666374 0.27283037 -0.3059037 -0.104759
0.29152238 -0.35685647 0.1563595 0.21688715 -0.19285956 0.054570142 0.04401609 0.10992135
0.21134412 -0.05375309 0.13130574 0.13845716 -0.14938219 -0.33624405 -0.20681792 -0.21616136
0.26045468 0.32809165 -0.23785129 -0.047029603 -0.33826748 -0.03613626 -0.05343966 0.13611278

bias f4 [32]
00000000: d58f e8bd 18b0 e13b 7fd5 a93e 336e 96be
00000010: f28c 1a3e ecbf 01be f141 1cbe fc15 463e
00000020: d91b 4c3e 57c6 5dbe 1b52 113e a19d 9bbd
00000030: 9e9c a9bd 8720 99be 9aed ab3e ca93 b03e
00000040: 0d65 5d3e a41f 4b3e ee55 5cbe bb63 87bd
00000050: 6080 803e 564d a23e 2a3c 263d a0c7 81be
00000060: da44 67be c2ff ac3d 88dc 0e3d 149d 19be
00000070: d002 b13d 5e77 483e e661 0e3d 9975 06be
-0.11355559 0.006887447 0.33170697 -0.2938095 0.15092829 -0.12670869 -0.1525953 0.19344324
0.19932498 -0.21657692 0.14191477 -0.07598425 -0.082818255 -0.2990763 0.33579713 0.34487754
0.21620579 0.19836289 -0.21517155 -0.06610819 0.25097942 0.31699628 0.04058472 -0.25347614
-0.22584859 0.084472194 0.034878284 -0.15001327 0.086431146 0.19576785 0.034761332 -0.13130797
