code/model_sol_backups/model_sol_70.pt (torch, 635426 bytes, 158 tensors)

weight f4 [32, 2]
000000 40 26 38 be 9c 16 81 be f7 01 bc be 4a 3c 26 3f
       -0.17983341 -0.25212562 -0.3672025 0.64935744
000010 75 31 31 3f 98 79 8c be d0 12 ac 3d f3 c2 e0 3e
       0.6921609 -0.2743652 0.08402026 0.43898734
000020 bb a1 1c 3f f9 eb 1d 3f 4f 49 69 3e 4b dc ce be
       0.6118428 0.6168819 0.22781871 -0.40402445
000030 68 8c 15 bf 4e 6b 3f 3e f2 85 11 3f 38 97 2c bd
       -0.5841737 0.18693277 0.5684501 -0.0421364
000040 c3 6d 2c 3f d3 84 30 bf 84 0a 0c bf 19 2b 84 3e
       0.67354983 -0.68952674 -0.54703546 0.2581413
000050 39 c6 e5 3e f2 39 58 be 73 33 fb be 38 e1 1a be
       0.44877794 -0.21115854 -0.4906269 -0.15124977
000060 ca 67 4f 3e 3d 46 90 3d 8c a4 49 3d 23 c8 28 bf
       0.20254436 0.07044647 0.04922919 -0.65930384
000070 82 77 2f 3f 3c 7a a3 3b a5 50 98 3e 21 09 16 bf
       0.6854173 0.0049889367 0.29749027 -0.5860768
000080 32 77 a9 be fe 98 f2 be 60 16 37 3d f8 bd 0f 3f
       -0.3309875 -0.4738235 0.044699073 0.56149244
000090 39 12 97 3e 5f 58 09 bf b0 db b6 be 19 cd 0c 3e
       0.2950609 -0.5365047 -0.35714483 0.13750114
0000a0 28 e6 35 3f 27 92 5e 3e ab 1f 24 bf 28 57 26 bf
       0.71054316 0.2173544 -0.6411082 -0.6497674
0000b0 3b fe 94 be 48 99 42 3e 1d 43 31 bd c8 fe a6 be
       -0.29100212 0.19003785 -0.043276895 -0.32616258
0000c0 cb c2 e7 3e 2d 58 4e be 46 b5 a6 bd ce c8 86 3e
       0.45265803 -0.20150824 -0.08140044 0.26325077
0000d0 86 79 05 bf 49 13 01 3f 4f f2 fa 3e 56 a8 01 be
       -0.52138555 0.5042005 0.49012992 -0.12661871
0000e0 8a 8e 1d bf 53 76 01 bf 31 b2 88 be 18 8d 2f bf
       -0.6154562 -0.50571173 -0.2669845 -0.68574667
0000f0 2c b4 a6 3e 62 21 b3 be e6 30 25 3f b9 3f 1b be
       0.32559335 -0.34986407 0.6452774 -0.15161027

bias f4 [32]
000000 c8 f3 16 3e bb 10 35 be f0 8a 07 3f 58 b5 a7 bd
       0.14741433 -0.17682163 0.52946377 -0.081888855
000010 39 90 5f 3e 90 af e4 3e 09 98 1e bf 6e 7f 95 3e
       0.2183236 0.44665194 -0.6195074 0.29198784
000020 f1 b8 38 3e 7d fe af be 37 1d a7 be 4b d7 01 be
       0.180393 -0.34373847 -0.32639477 -0.12679784
000030 f9 23 66 3e 70 91 aa 3c 1b 70 64 3e dc 54 e4 bb
       0.2247466 0.020821303 0.2230839 -0.006968124
000040 0c d8 12 be a4 13 d8 3e 8b 36 df bd 94 7a 18 3f
       -0.14340228 0.42202485 -0.10899075 0.5956204
000050 60 9a d1 3e 2b 89 0d 3f 82 65 be be 86 3f 0a bf
       0.4093809 0.55287427 -0.3718682 -0.5400318
000060 38 2c d4 bd f1 e3 32 3f 69 1d f3 3d 98 09 01 3d
       -0.103599966 0.6987906 0.11870844 0.03150329
000070 80 19 2a 3f 07 aa f0 bd e5 31 e8 3e ca 03 91 be
       0.6644516 -0.1175118 0.45350567 -0.28323203

weight f4 [128, 32]
000000 f2 fe 09 3e 72 c2 18 be c9 5e f6 bc b5 1c d2 3b
       0.1347616 -0.14917925 -0.030074494 0.0064121136
000010 c5 59 fc bd c3 6b dc bd 95 d3 fc 3d b5 17 6c 3d
       -0.1232181 -0.107627414 0.123450436 0.057639796
000020 a2 aa d3 3d eb e5 97 bd 08 85 53 be ad 9b 9b bd
       0.1033528 -0.074169 -0.20656216 -0.07598052
000030 af f6 c8 bd e3 8a 21 3d b3 1f 35 be ee 62 0c be
       -0.09812676 0.039439093 -0.17687874 -0.13709614
000040 f2 92 f7 bd db 2f 23 3c be 26 d1 bd b8 aa aa 3d
       -0.120885745 0.00996014 -0.102124676 0.08333343
000050 15 8d 2c 3e 49 95 c2 bd 53 25 03 be 0f 08 51 3d
       0.16850694 -0.0950113 -0.12807207 0.051033076
000060 56 1c 2f be 55 27 2a 3c 04 9b f6 3d 9a 2a ee 3d
       -0.17100653 0.010385354 0.12041286 0.11629219
000070 80 3c 25 be eb 47 53 bd 07 0d 3c bd 3a 0d 61 3d
       -0.1613636 -0.05158226 -0.04591086 0.054944254
000080 ba cb 1e 3e a1 df a6 3d f3 5f 51 bd 4c 58 ff bd
       0.15507403 0.081481226 -0.051116895 -0.12468013
000090 a9 fa d3 3d 9a a3 c1 bd 1e 1a e8 3d 34 50 f3 bc
       0.10350544 -0.09455033 0.113331065 -0.02970133
0000a0 ed a4 97 3d 39 b3 20 bc 01 6a 30 bd fb 90 0f be
       0.07404504 -0.009808355 -0.043069843 -0.1402015
0000b0 fe 7a 42 be 60 fb 2a bc dc ba 1a 3e c4 50 8d 3b
       -0.1899223 -0.010435909 0.15110344 0.0043126065
0000c0 aa b5 1e 3e 3a 82 35 bc f1 8f f2 3b f1 ec c3 bd
       0.15498987 -0.011078412 0.007402413 -0.09566677
0000d0 f8 87 ea 3d 0c 1e 38 3d 84 28 07 3e 31 ea 01 3e
       0.11451715 0.04495053 0.13199049 0.12686993
0000e0 da 20 0d 3e 99 fd ca 3d ad d4 a7 3c 2f fc 0e 3c
       0.13782063 0.09911651 0.020487154 0.008727117
0000f0 e1 89 a9 3c 68 5d ac 38 a4 18 ca bd b7 75 fb 3d
       0.020695629 8.2189974e-05 -0.09867981 0.12278312
000100 97 85 19 be 63 d3 2f bc 24 55 b0 bc 0e 90 3a be
       -0.14992367 -0.010731551 -0.021524973 -0.18219015
000110 b1 50 b5 bd 65 32 f3 3d 07 52 9c 3d ff f6 16 3e
       -0.08853281 0.11874846 0.07632833 0.14742659
000120 54 8b 28 3d 7e c2 db 3d 76 52 3f 3c 33 2a 3c 3e
       0.0411485 0.10730456 0.011677375 0.18375473
000130 3e 3b 16 3e 6c da 30 bb d7 ee 94 bd f2 ff 8b 3d
       0.14671037 -0.0026985658 -0.072721176 0.06835927
000140 1d 4f bb bd 00 35 1b be 8d 1c ac 3d bd 3e da bd
       -0.09145949 -0.15156937 0.08403883 -0.10656498
000150 91 b8 28 3d 2b fe a8 bd bc 70 8a 3d 0d 27 c3 3b
       0.04119164 -0.08251604 0.067597836 0.005955583
000160 82 98 02 be 03 13 0e bd 36 9b bb 3c fe e2 08 3e
       -0.1275349 -0.0346861 0.022901159 0.1336784
000170 67 21 ba bd f2 3b b3 bd d2 0a ee 3d 45 47 ef bc
       -0.09088402 -0.08751668 0.116231576 -0.029208789
000180 06 36 00 be 60 24 00 b6 62 35 42 3e bb 2d 34 be
       -0.12520608 -1.909466e-06 0.18965676 -0.1759557
000190 95 67 0f be 3e 8a 54 bd 11 55 20 bd 28 3d 7c bd
       -0.14004357 -0.05188965 -0.039143626 -0.06158176
0001a0 88 75 d1 3c c1 b6 eb 3d e8 78 e2 bd 84 38 d6 3d
       0.025568739 0.11509467 -0.11058217 0.10459998
0001b0 16 48 c9 38 01 ef 18 3e 47 04 87 3c 69 f3 a0 3b
       9.597854e-05 0.14934923 0.016481532 0.0049118293
0001c0 ec 95 03 3d 64 4f 90 3b 21 ef 27 3e 34 c3 8c 3c
       0.0321254 0.0044039954 0.16399814 0.017182924
0001d0 eb c0 00 be 77 96 01 3b 9b 94 13 be 34 05 42 be
       -0.12573592 0.0019773522 -0.14412157 -0.18947297
0001e0 e7 75 1a 3e 12 1b a7 3d 59 ee 00 3e fb 18 14 3d
       0.15084039 0.0815946 0.12590922 0.036156636
0001f0 ec 04 14 3d 83 f3 44 be 79 f5 11 be f9 f2 cb bd
       0.036137506 -0.19233517 -0.14253797 -0.09958453
000200 e0 20 b4 bd 81 81 0d be c4 dc 94 3d 83 ee bc bc
       -0.08795333 -0.13818933 0.0726867 -0.02306295
000210 91 6a 16 be fc 95 90 bd ef 33 61 3b 3a b5 0b be
       -0.1468909 -0.07059857 0.003436323 -0.13643351
000220 32 53 25 3e 68 2a e3 3d be a0 77 3c 6c 9b 40 be
       0.16145018 0.11092073 0.0151140075 -0.18809289
000230 e9 bb a4 3d c8 a6 dc bd d2 e5 75 bd 70 5e 1f be
       0.080436535 -0.107739985 -0.060033627 -0.15563369
000240 84 b5 23 3e 2a 78 3a bc 2f 63 cb ba c2 16 2e 3e
       0.15987211 -0.011381188 -0.001551723 0.17000869
000250 03 fd 0f 3e ca 1d bf bd de 02 83 bd 45 17 65 3d
       0.1406136 -0.09331854 -0.06397031 0.055930395
000260 3b 25 bd bc 77 c5 9a bc 87 39 33 3e fb 8d 0a 3e
       -0.023089042 -0.018892987 0.17502414 0.13530724
000270 3c 75 10 3e 49 1e 8f 3d c7 5b 01 be 7a c9 87 bd
       0.14107221 0.06988198 -0.12632667 -0.066302255
000280 29 18 21 be 8d b5 9d bd db b0 56 bd 37 bf 10 3e
       -0.15731873 -0.07700644 -0.052414756 0.14135443
000290 48 aa be 3c 0d 8f 1b be f6 86 5a bd af bf f2 3d
       0.023274556 -0.15191288 -0.053351365 0.11852967
0002a0 9d b4 6b bd 57 8e fa 3d b9 6a 2d be 68 20 ac bc
       -0.057545293 0.122341804 -0.16935243 -0.021011546
0002b0 ea a2 47 3d f9 c1 13 bd 54 b5 2d be fe 24 c0 3b
       0.04873935 -0.03607366 -0.16963702 0.005863785
0002c0 13 80 56 3d 30 1d 0b 3d b3 93 d8 bd 35 ba 05 be
       0.052368235 0.033963382 -0.105750464 -0.13059314
0002d0 7b 83 d9 bd 03 57 04 3e 81 26 f9 3b 12 8f 31 3d
       -0.10620781 0.12923817 0.007603467 0.043349333
0002e0 50 11 e5 3d 93 cd 73 bc 81 54 23 3e d1 b3 31 3d
       0.11184943 -0.014880556 0.15950204 0.043384377
0002f0 0f 23 e0 3d 44 7c 1d be 9b 02 0b 3e 5a 0a 27 be
       0.10944187 -0.15379435 0.13575213 -0.16312543
000300 d7 e5 22 be 41 84 8e 3d ec c2 d2 bd 9a 9b 33 be
       -0.1590799 0.06958819 -0.10291085 -0.17539826
000310 24 f1 ba 3d 2e 32 1b 3e 12 89 71 b9 96 d5 bb bd
       0.09128025 0.15155861 -0.00023034614 -0.09171598
000320 a1 b4 07 be 73 bc f3 3d 21 f1 9b 3d 85 20 c7 3d
       -0.13252498 0.11901178 0.07614351 0.097229995
000330 e9 43 7d bb 2d 19 1a 3e 38 a1 5e bb 63 15 11 3e
       -0.0038645214 0.15048666 -0.0033970606 0.14168315
000340 07 5c 2c be 28 2d 01 be 69 82 ba 3d de 18 cb bb
       -0.1683198 -0.12614882 0.09106905 -0.0061980328
000350 14 04 21 3e 5a 77 a4 3d 62 e7 5a bc 8b 2d 61 bc
       0.15724212 0.08030577 -0.01336083 -0.013743768
000360 c6 8d 1f 3e d1 79 9d bd e4 c7 c6 ba 66 3d b5 bd
       0.15581426 -0.0768925 -0.0015165773 -0.088496014
000370 91 a4 c8 3d 38 20 24 3d de 7d 36 be 57 e7 10 be
       0.097970136 0.04006979 -0.17821452 -0.14150749
000380 e5 d9 47 be ff 19 0d be 6f 55 08 3c 0c e1 8f bd
       -0.19516714 -0.13779448 0.00832115 -0.07025346
000390 e6 53 fd bd d4 6c 04 3e 45 e8 12 be e9 1c 34 3c
       -0.12369518 0.1293214 -0.14346416 0.010993221
0003a0 cc 24 e2 3d 10 c1 07 3e 0e 98 c1 bd d2 fc 28 3e
       0.11042175 0.13257241 -0.0945283 0.16502693
0003b0 d6 02 a2 3c 28 b7 b2 bd 66 fe df bd 1f 3d 0e bd
       0.019776743 -0.087263405 -0.109371945 -0.03472626
0003c0 92 ed 81 3d d4 c5 d1 bd 97 fb 04 3c e7 69 8b 3d
       0.06344141 -0.10242811 0.008116624 0.06807309
0003d0 1a 08 f8 bd bb 2a d6 bd 0e ff 49 3d 3c 0b c0 bc
       -0.1211092 -0.10457369 0.049315505 -0.023442857
0003e0 e3 a8 de bd 62 ed 1d be 4b 38 d3 3d 38 ec 08 3e
       -0.10872056 -0.15422586 0.103134714 0.1337136
0003f0 ca 15 b9 bd 37 24 84 bd 62 2a 7f bd c7 7f b9 bd
       -0.09037359 -0.0645222 -0.06229628 -0.09057575

bias f4 [128]
000000 9b 80 92 3d fa 47 ca bc 88 f1 27 3e bf 8f f8 bd
       0.07153436 -0.024692524 0.1640073 -0.121367924
000010 7e 06 cb bd 7a e5 9d 3d c1 87 ca 3d 00 75 57 bd
       -0.09913348 0.07709785 0.09889174 -0.052601814
000020 1b 06 37 bd 09 15 16 bc 71 dc ac bd 1e 54 04 3d
       -0.044683557 -0.009160289 -0.08440483 0.032306783
000030 04 ed 92 bd 5d fa 14 3e 4f 30 47 bd 02 a3 23 3e
       -0.071741134 0.14548631 -0.048630055 0.15980151
000040 3d 19 05 bd 43 b7 32 bd 06 0d 10 3e dd 50 1b 3d
       -0.032494772 -0.043631803 0.14067468 0.037918914
000050 cc 3d 3d be be f2 a3 bd 6c a1 03 3e 74 bd 27 bd
       -0.18480605 -0.08005284 0.12854546 -0.04095216
000060 34 4e 12 be ac 7b 2f be 86 a3 0f 3d dd 09 27 3e
       -0.14287645 -0.17137021 0.035068057 0.16312356
000070 52 b6 c6 bd cf 5b 97 bc c9 c5 47 3d c4 b8 27 bd
       -0.097027436 -0.018476395 0.048772607 -0.04094769
000080 74 eb bc 3c 50 dd 60 bd 92 a0 9f 3d 1a 92 a7 3d
       0.023061492 -0.05489856 0.07794298 0.081821635
000090 91 05 b7 bc 9a 98 20 be 86 9b 00 3e 18 36 00 3e
       -0.022341521 -0.15683213 0.12559327 0.12520635
0000a0 ca 7c 37 3e d2 60 c6 3c ee ee fa 3b 23 75 e7 3d
       0.17918697 0.02421609 0.007657877 0.11301639
0000b0 2c 92 a6 bd 1e 92 0d bd c6 b7 75 3d 47 40 10 3e
       -0.08133349 -0.034563176 0.059989713 0.1408702
0000c0 ba 5d d9 bd 11 ec c5 bd e3 c4 82 3c a7 f1 85 3b
       -0.1061358 -0.09664167 0.015963024 0.004087645
0000d0 da fb ab 3d 2c de 38 be 94 6b be 3d 84 2b 4c 3b
       0.08397646 -0.18053502 0.09297863 0.0031153867
0000e0 f4 c7 0d be ff 81 c4 3d bf a6 52 3d 84 52 9e 3d
       -0.13845807 0.09595107 0.051428553 0.07730582
0000f0 7f 2c 54 bd 9e 36 29 bd e6 4f dd bd 77 32 c0 3c
       -0.051800247 -0.041311853 -0.10806255 0.023461564
000100 a9 47 73 bd 1d d4 0c 3e 9f 31 fc bd d4 c6 3d be
       -0.059394512 0.1375279 -0.12314152 -0.18532878
000110 4f 8f 3a be a6 f7 1b be 07 84 e0 bd ae 2f 3c bc
       -0.1821873 -0.15231189 -0.10962682 -0.011485977
000120 91 e9 1c 3c 2e 58 10 3d 0f 00 ee bd 0d 0c a0 3d
       0.009577171 0.035240345 -0.11621105 0.078147985
000130 93 33 95 3d 46 5a 1f 3d bc 19 36 be dc 57 45 bd
       0.072852276 0.03890445 -0.17783254 -0.048179492
000140 af 43 13 be 92 1d 00 3e 2b c6 eb bd 90 db 2a be
       -0.14381288 0.1251128 -0.11512407 -0.16685319
000150 4f 8f 2c bd 00 ac 1e 3e 39 21 a8 3d 29 99 39 3d
       -0.042128857 0.154953 0.08209462 0.04531208
000160 4e 5c 07 be e8 6e 1f be af e3 5e bd bb 4c c2 3d
       -0.13218805 -0.15569651 -0.054416355 0.094872914
000170 a3 54 cb 3c c1 7c c3 3d 94 3c b1 3d 0c cb 0e 3e
       0.024820631 0.09545279 0.086541325 0.13944644
000180 0f cc ef 3d 47 74 f4 bd 73 0b 88 3d 5e c8 4a bd
       0.11708843 -0.11936241 0.06642809 -0.04950749
000190 dd 2a 89 3d 64 5d bc 3d 37 35 2f be 1e 1f 05 bd
       0.06697629 0.091975 -0.17110144 -0.03250038
0001a0 21 e0 66 3d 96 d9 89 3b 22 43 f4 3d 12 87 1d be
       0.05636609 0.0042068465 0.11926867 -0.15383556
0001b0 74 6c b7 3d 5d a8 bf bd fb 8b 9b bb ad 3d b5 3c
       0.08956233 -0.093582846 -0.0047469116 0.022124136
0001c0 ed df 2b 3d 99 08 1c 3e 42 22 40 3c c5 43 3c 3e
       0.0419616 0.15237655 0.011726918 0.18385227
0001d0 15 fa a6 bc f2 3a 81 3d d9 42 09 be a0 4f 27 3e
       -0.02038292 0.06310071 -0.13404407 0.16338968
0001e0 f5 50 5a bd 48 3d 13 be 2a 79 a3 3d 38 ae 0a be
       -0.053299863 -0.14378846 0.079820946 -0.13543022
0001f0 3a 38 56 bc c1 3d 0e 3d e0 f4 0a 3e 7a 52 2e 3e
       -0.013074929 0.034726862 0.13569975 0.1702365

weight f4 [32]
000000 64 a8 7c 3f 53 fd 7d 3f f1 2e 7b 3f a0 ba 85 3f
       0.98694444 0.9921467 0.981185 1.0447578
000010 df 45 7c 3f dc 5f 78 3f 24 01 70 3f cf d4 77 3f
       0.98544115 0.9702127 0.9375174 0.96809095
000020 35 55 74 3f cf 21 71 3f dc fe 6d 3f 29 cf 79 3f
       0.95442516 0.9419221 0.9296701 0.97581726
000030 bb 4b 7b 3f 13 7b 82 3f c9 1a 72 3f 67 e5 7f 3f
       0.9816243 1.0193809 0.9457212 0.99959415
000040 4c 21 6d 3f d9 79 83 3f f8 f6 81 3f 6e a9 76 3f
       0.9262893 1.027156 1.0153494 0.9635228
000050 32 a6 73 3f 4e f2 6d 3f 0e 0e 76 3f 08 14 86 3f
       0.9517547 0.9294785 0.96115196 1.0474863
000060 ca 69 78 3f f2 bf 79 3f 98 06 7b 3f 15 cd 7b 3f
       0.9703642 0.9755851 0.98056936 0.98359805
000070 9e 9e 79 3f 31 91 7f 3f 96 44 71 3f ab f9 78 3f
       0.97507656 0.9983092 0.9424528 0.97255963

bias f4 [32]
000000 2e 03 93 3d de 70 b6 bc db e0 ba bd e9 4f df 3c
       0.07178341 -0.022270616 -0.09124919 0.027259784
000010 00 c6 a3 bd 99 7f 56 bc 03 b6 56 bc cb 83 eb 3c
       -0.0799675 -0.013091945 -0.013104918 0.028749367
000020 4b be d8 bd 20 f8 df 3c 0b c4 84 bd fa 59 11 bd
       -0.105831705 0.027339995 -0.06482705 -0.0354862
000030 5e 71 56 3d 70 64 a0 bd 55 a4 7c 3d 75 00 d3 bc
       0.05235421 -0.07831657 0.061680157 -0.025757054
000040 d5 dc 4f 3c f6 17 10 3c de bd 5a bd 3a cd 9d 3d
       0.012686928 0.008794775 -0.053403728 0.077051595
000050 3f 14 a6 3b 5d cc 0a bc 5c ca 6e 3c 51 35 84 bd
       0.0050683315 -0.008471576 0.014574613 -0.06455482
000060 a0 e0 9f bd 30 e2 66 bc 8c 7c 1a bd 6f 4e 0e bd
       -0.07806516 -0.014092013 -0.037716433 -0.03474277
000070 54 ce 18 bd ea d8 cd bc 06 26 5a bd 01 e4 00 bd
       -0.037306145 -0.025127847 -0.05325892 -0.03146744

running_mean f4 [32]
000000 7c 0e d1 3c fc d5 39 bb e5 0a 0c 3f e5 fb bb 3d
       0.025519602 -0.0028356304 0.54704124 0.091789044
000010 4b 80 0b 3f 73 e8 ac 3e da 6a 26 bf ea db be 3e
       0.54492635 0.33771095 -0.6500679 0.37277156
000020 03 c3 33 3d f4 27 af be 06 75 a7 be b7 47 87 be
       0.04388715 -0.3421017 -0.3270647 -0.26421902
000030 9c 64 91 3e 92 26 57 be 5f 4c ae 3e 36 c2 2d be
       0.2839707 -0.21010807 0.34042642 -0.16968617
000040 82 f7 bd be 03 0b 22 3f 82 22 82 be 29 e8 15 3f
       -0.37102896 0.6329805 -0.25416952 0.58557373
000050 ec 99 1b 3f 0c 3e 56 3e 3d 04 b4 be b3 80 2a bf
       0.6078174 0.20922107 -0.35159484 -0.6660263
000060 f9 ed cd bd e9 cb 47 3f e6 42 5b 3e 76 2d 8c 3d
       -0.10055155 0.7804552 0.21412238 0.068446085
000070 6e 2c c1 3e 74 7a d2 be d8 62 c3 3e de e5 6a be
       0.3772921 -0.4110905 0.3816135 -0.2293925

running_var f4 [32]
000000 b8 31 82 3c c0 74 24 3e 81 73 1a 3e 31 68 29 3d
       0.015892848 0.16060162 0.15083124 0.04135913
000010 e9 e7 f8 3d 3f 3a 7e 3d 84 e1 cb 3d 8d 62 9c 3d
       0.12153608 0.062067267 0.09955123 0.076359846
000020 6c ec 8c 3e 8c 70 d0 3d 17 2a 8c 3d 96 45 4a 3d
       0.27524126 0.101777166 0.068439655 0.04938277
000030 45 4c 0a 3c b3 16 d9 3d f0 f9 d6 3d 93 80 fc 3d
       0.008441036 0.10600033 0.104968905 0.12329211
000040 7b 8d 63 3d f9 2a 90 3d fe eb dc 3d 94 90 22 3d
       0.05555485 0.070394464 0.107871994 0.03968866
000050 4d e4 d3 3d 95 62 09 3e 0b e4 0e 3d 80 3d be 3c
       0.10346279 0.13416512 0.034885447 0.023222685
000060 5a e3 8a 3d c1 d4 a7 3c 9c 73 1f 3e 59 64 87 3d
       0.06781645 0.020487191 0.15571445 0.06610937
000070 b1 d0 d1 3d 46 08 ce 3d 5d 9c 8a 3d a3 bb e5 3d
       0.10244883 0.10060172 0.06768105 0.112174295

weight f4 [32, 3]
000000 5d 29 1c bf f8 9c 39 3e c8 ca c3 3e 1a 0c 87 3e
       -0.61000615 0.18126285 0.38240647 0.2637642
000010 32 08 3e be 71 03 74 bd 10 0d 93 3f 38 5b 02 bf
       -0.18557814 -0.059573594 1.1488361 -0.5092044
000020 37 01 87 3e 3c 64 c7 3f b0 04 21 b9 b8 c5 13 39
       0.26368114 1.5577464 -0.00015355903 0.00014092668
000030 93 dc 32 bf e1 73 6c 3e 82 b9 e5 3e fe 10 30 3e
       -0.6986782 0.2309108 0.44868094 0.17193982
000040 5b a5 91 3c e3 37 26 be 45 39 9c 3e a2 f5 38 be
       0.017779043 -0.16232257 0.30512443 -0.18062451
000050 51 88 93 bd c6 94 dd 3e 68 38 c5 be bc c3 f5 bd
       -0.07203735 0.43277568 -0.38519597 -0.12000224
000060 94 d7 81 be 9d 88 91 3e 06 b4 bf 3e ee f8 6c be
       -0.25359786 0.2842454 0.37442034 -0.23141834
000070 95 a7 85 3e ba 0d e4 3d 78 3e 69 bf 2c 76 08 3f
       0.26104417 0.11135431 -0.91110945 0.53305316
000080 0f f2 5a 3e 3a bb a2 bd ea 5f bb 3e 82 9a b1 be
       0.213814 -0.07945867 0.36596614 -0.34688193
000090 64 4f 4b 3f bf a7 8f 3e 3f 80 cd be c9 ec a2 be
       0.79418015 0.28057668 -0.40136907 -0.31821278
0000a0 30 7d bb be a5 95 77 be 59 1c 27 3f 01 4a 86 be
       -0.36618948 -0.24178179 0.6527763 -0.26228335
0000b0 d9 44 5f be 5e a6 61 bd 73 3e 01 bf 26 f5 fd 3e
       -0.21803607 -0.0550903 -0.50485915 0.49601096
0000c0 1e 9f 1f 3f 57 94 4f be b6 dd 98 be aa 28 a1 3d
       0.6235217 -0.20271431 -0.29856652 0.07869084
0000d0 07 8c 23 bf e7 ce 36 bb 11 99 4a bf fa a0 97 bd
       -0.6388554 -0.002789432 -0.7913981 -0.07403751
0000e0 0f 3c 66 3e ec 8a 86 3f 7b 7f e5 bc a1 ab 5b be
       0.22483848 1.0511146 -0.028014889 -0.2145219
0000f0 32 f1 d0 3e 44 06 df be eb 49 0b bf 06 77 1a bf
       0.40809017 -0.43559468 -0.54409665 -0.60337865
000100 c0 42 f6 be 6b 31 d7 3d f3 95 46 bf c8 7c 6e 3e
       -0.480978 0.105074726 -0.77572554 0.23289788
000110 70 59 1e 3e 3e be 88 be 63 4b 03 3f 25 b8 ed bd
       0.15463805 -0.26707643 0.51286906 -0.116073884
000120 3f 51 89 bf ca a9 6c be e8 7d 42 3e bd 8e 4f 3f
       -1.0727919 -0.23111644 0.18993342 0.81077176
000130 bd 1e 3e 3e 3c 8a 04 bf a3 d0 11 bf d7 90 95 3e
       0.18566413 -0.5177343 -0.5695898 0.29212067
000140 3e 5b 17 3f 11 7b 00 be da 93 3b bd 7c 53 f6 3e
       0.591236 -0.12546946 -0.0457953 0.4811057
000150 63 57 c5 bd 82 9d 00 3f b8 42 89 be e5 39 04 be
       -0.09635808 0.5024034 -0.26808715 -0.1291271
000160 4c 53 82 3e 4f 96 b1 3d e1 52 2d bf c8 50 e6 3e
       0.25454175 0.08671247 -0.6770459 0.44983506
000170 b7 52 06 3f 9f 32 69 3f 66 e2 ed be 69 11 81 be
       0.5246996 0.91092867 -0.4646179 -0.25208595

bias f4 [32]
000000 7c ca 94 3d bd 77 f7 3e 22 6f 7d 3e 3c 03 aa 3d
       0.07265183 0.4833354 0.24749425 0.08301398
000010 69 3d 90 3e d6 d9 09 3e 14 73 4d be 46 44 eb be
       0.28171852 0.13462004 -0.2006343 -0.45950526
000020 dd c9 20 be e0 6b ac be b4 82 bc be 8c fe a4 3e
       -0.15702005 -0.33676052 -0.3681847 0.32225454
000030 ec a0 c2 be 60 5e a6 3e 6c ad c4 bd 99 92 0e bf
       -0.380134 0.32493877 -0.0960339 -0.5569244
000040 2c da 04 3f 51 1a 58 3e b8 82 e3 3e 41 93 68 3e
       0.51895404 0.21103789 0.44435668 0.22712423
000050 80 a4 91 be c4 24 7a 3d 00 29 bb 3e fb 9b 70 3e
       -0.28445816 0.06107022 0.36554718 0.23497002
000060 5d 2b 85 be 26 fa 00 3f d0 b8 8f be 9c 80 93 3e
       -0.26009646 0.50381696 -0.28070688 0.2880906
000070 0d b6 71 be 31 99 fc 3d c2 eb 20 3e 3d da a5 be
       -0.23604603 0.123339064 0.15714934 -0.32393065

weight f4 [128, 32]
000000 be 9f b5 3d 15 9f 72 3c 1f 9f f8 3d f6 8e b5 3d
       0.08868359 0.014808436 0.12139725 0.08865158
000010 27 9c 0e 3e bf f8 d3 3c 31 38 17 3d 4f 31 00 bb
       0.13926755 0.025875447 0.036918823 -0.001956064
000020 6d 99 31 bd fc 25 fd 3d 6b 8e ea bd f3 29 fa 3d
       -0.04335921 0.123607606 -0.11452945 0.122150324
000030 6f 2e 56 bd a2 81 0b bd 9d 97 ec bd ac ae 33 be
       -0.052290376 -0.034059174 -0.115523554 -0.17547101
000040 97 1f 5b 3d f5 a2 61 3d c6 b0 3e be 24 75 40 3c
       0.053496923 0.05508705 -0.18622121 0.0117466785
000050 fb 0c 13 be 3b ee e8 3c b7 95 09 be 7b 98 35 3d
       -0.1436042 0.02843391 -0.13436018 0.04433487
000060 2e 6b 62 3d 0e 01 30 3e dc ad 08 be 84 5e bb 3d
       0.055277996 0.17187902 -0.13347572 0.09148887
000070 d9 5f 1a be 89 b6 0e 3e ef c2 4f 3d d2 3d c9 bd
       -0.15075625 0.13936819 0.050723013 -0.098262444
000080 2d c9 bb 3d 33 e6 50 3d 5f a8 a7 bd 44 e6 43 3d
       0.091692306 0.051000785 -0.08186411 0.04782702
000090 f7 59 53 3d 67 8a 2d bc a1 ed dd bd 15 7a 86 bd
       0.05159947 -0.01059208 -0.1083634 -0.06566254
0000a0 dd b7 30 3e 0c ab 05 3e 48 1b 05 be 75 6d 4e be
       0.17257638 0.1305353 -0.12998688 -0.20158942
0000b0 9c 76 f8 3d 16 33 27 be b4 18 24 be 9c ea 02 3e
       0.12131998 -0.16328081 -0.16025048 0.12784809
0000c0 f0 e9 11 3e db b8 28 be 3a 24 a4 bd 83 d9 86 3d
       0.14249396 -0.16476767 -0.08014722 0.06584456
0000d0 0b 32 58 3d 06 ac 30 be d3 08 90 bd 79 1e b6 bd
       0.0527821 -0.17253122 -0.07032933 -0.08892531
0000e0 a1 42 ea 3d 2a 24 8d bd e1 77 b8 3d e0 0f c2 bc
       0.1143849 -0.06891663 0.0900724 -0.02368921
0000f0 3f ef 29 be d5 44 40 bd 1e 8f 5a 3d 1c 34 11 bd
       -0.16595171 -0.046940643 0.053359143 -0.035450086
000100 2a 0f 85 bb 1d d0 d3 bd 05 34 6a 3d f2 ff 79 3e
       -0.0040606456 -0.10342429 0.057178516 0.24414042
000110 4d e2 7d 3d ee 82 46 bc da 93 0b be 34 32 a1 3d
       0.061983395 -0.012116177 -0.1363062 0.078709036
000120 65 3a 79 bd 71 f6 4e be 4d d2 95 3d d5 ce 20 3e
       -0.060846705 -0.20211197 0.07315502 0.157039
000130 2c 80 fc bc 9d c6 dc bc 72 c3 f2 3d 9d da ef 3d
       -0.030822836 -0.026950175 0.118536845 0.11711619
000140 32 22 22 3e 99 d5 2d 3e 85 a9 13 3e a7 d0 29 be
       0.15833357 0.16976012 0.14420135 -0.16583501
000150 66 4f 68 bd 8b 78 11 be 42 c8 9f 3a 49 c9 43 3d
       -0.056716345 -0.1420614 0.0012190419 0.047799382
000160 8e 6d 8c bd b7 06 b5 3d 36 39 43 bd d3 d8 14 3e
       -0.068568334 0.088391714 -0.047661982 0.14535837
000170 cc 98 c3 3d de 5b a9 3d b1 68 0c 3e 46 e8 91 3d
       0.09550628 0.082694754 0.13711812 0.07124381
000180 c3 f8 b7 3d a8 ab 36 bd 33 b4 34 3e d0 ec 27 be
       0.089829944 -0.044597298 0.17646866 -0.1639893
000190 82 fa 2b be 01 d5 1c be a4 82 20 be f7 f6 90 bd
       -0.1679478 -0.1531563 -0.15674835 -0.07078355
0001a0 92 f4 a9 bd d9 a7 b9 3d b3 58 8c bd ed fd 0f 3d
       -0.08298601 0.090652175 -0.068528555 0.035154272
0001b0 46 df 34 bd 98 95 b6 3b 16 15 cc bd c1 51 c5 bd
       -0.044158243 0.005572032 -0.09964959 -0.09634734
0001c0 0a a5 02 3e 04 d9 05 3e 17 ee 2e 3e d7 3f 84 3d
       0.1275827 0.13071066 0.17083012 0.06457489
0001d0 51 94 7f 3b ad 8d be 3d db 39 11 3e 52 3d 8e 3d
       0.0038998316 0.09304366 0.14182226 0.0694529
0001e0 8b f1 80 3c aa 9e 16 be 42 f3 18 3e bc 0f 52 3d
       0.015740177 -0.14708963 0.14936545 0.051284537
0001f0 63 53 04 be 08 db 38 be d3 df 8e bd bb f7 1e 3e
       -0.12922435 -0.18052304 -0.06976285 0.15524189
000200 25 83 15 be 9e c1 fd 3d 29 35 12 3e 73 60 ad 3d
       -0.14600809 0.12390445 0.14278091 0.08465662
000210 43 1f 79 bd 83 17 4c bd 37 af 81 bd 81 93 dc 3c
       -0.06082083 -0.04982711 -0.06332248 0.026925804
000220 04 b3 ad 3d 66 a6 3b be bd 95 0e be db 92 1d be
       0.0848141 -0.18325195 -0.13924308 -0.15388052
000230 32 c1 85 3d 06 ab 38 3d e6 38 f1 3d 8f 1e 03 be
       0.0653099 0.045084976 0.11778431 -0.12804626
000240 de 71 3f be d0 03 f2 bd b8 43 27 3e cd d6 c0 bd
       -0.1869578 -0.118171334 0.16334426 -0.0941597
000250 bc d6 bc bd 6f 8b 34 3e 30 9a 3a 3d c4 9a ed 3c
       -0.09220645 0.17631315 0.0455572 0.029004462
000260 31 5b 26 3c e3 bf 08 be ca 29 2f be ad 81 d6 3c
       0.010153578 -0.13354449 -0.17105785 0.026184881
000270 65 82 da bd d4 a3 db 3d 26 a4 15 3e 3d bc 30 3d
       -0.10669402 0.10724607 0.14613399 0.043148268
000280 50 0a b3 bd 27 63 a3 3d 0b 65 34 3e 1d 2d 4c 3e
       -0.08742201 0.07977896 0.1761667 0.19939084
000290 04 c7 38 3d 17 52 60 bb f5 46 a0 bb dc 32 1e bd
       0.04511167 -0.0034228617 -0.0048912712 -0.038622722
0002a0 3d 6d a2 bc 40 4e b8 3a 35 26 f1 bd d3 dc db bd
       -0.01982748 0.0014061406 -0.117748655 -0.10735478
0002b0 ec e0 05 3d 8e cc db 3c 64 ef 09 3e 69 53 de bd
       0.032685205 0.026830938 0.13470227 -0.10855753
0002c0 66 6a 5d bd 41 80 fd 3d 0a 49 22 3e 15 a3 00 3d
       -0.054056548 0.12377978 0.15848175 0.031405527
0002d0 d5 c5 2e be a1 b5 3b 3d c8 ba 74 3b ad a7 ff bd
       -0.17067654 0.04582751 0.0037342776 -0.124831535
0002e0 cc be ad bd 19 2c 00 be 3a 09 25 3e 42 af 02 be
       -0.08483657 -0.12516822 0.16116801 -0.12762168
0002f0 7e e5 e9 bd fe cc ff 3d d2 8e 76 39 f6 f3 af bc
       -0.11420725 0.12490271 0.00023513593 -0.021478634
000300 cd 0e 02 3e 52 b3 b1 bc 0f 9a 28 be 28 be 48 3e
       0.12700959 -0.021691952 -0.16465019 0.19603789
000310 12 ed 9e 3c ed 43 e0 3d 8a 58 9b bd e0 39 36 bd
       0.019400153 0.10950456 -0.07585247 -0.044488788
000320 5f f9 8f bc 50 6e 34 3d f2 14 80 bd aa 53 ef bd
       -0.017574964 0.044050515 -0.06253995 -0.116858795
000330 9c 54 2d ba 6f 7d c3 bd 81 57 2c bd ca 64 96 bd
       -0.0006612034 -0.09545409 -0.042075638 -0.07343443
000340 a4 68 a4 bd 6d a0 af bd b8 a3 14 3d ad 04 af 3d
       -0.08027771 -0.08575521 0.036288947 0.08545814
000350 98 94 d8 3b 85 ee e6 3d 77 45 fc bd 0f c8 15 be
       0.0066095106 0.11275963 -0.12317937 -0.14627098
000360 f5 80 94 3d 1e 7c af bd 70 bd ef bb 1a 86 06 3d
       0.07251159 -0.08568595 -0.007316284 0.032842733
000370 fc e6 09 3d 65 33 f0 bd de a1 02 3e 99 99 d7 3d
       0.03366755 -0.11728553 0.1275706 0.10527343
000380 37 08 e5 bd e3 80 00 be e0 c7 6b bd 04 e4 e0 3d
       -0.111832075 -0.12549166 -0.057563663 0.109809905
000390 26 4f 0a 3d c3 b9 72 bd cf fb 03 be fb e2 0e be
       0.033766888 -0.059259187 -0.12889026 -0.13953774
0003a0 57 f1 9f bd 8c c4 ba bd 09 f8 ec bd d2 9e c7 bc
       -0.07809704 -0.091195196 -0.115707465 -0.024367724
0003b0 fc 7f 82 bd 38 b0 88 bd ee 13 4e 3c c0 48 29 3e
       -0.06372067 -0.06674236 0.012577994 0.16531658
0003c0 aa 01 99 bd 21 54 11 be de 19 c4 bd a4 fb 2d 3d
       -0.074710205 -0.14192249 -0.09575246 0.04247631
0003d0 d0 0b 87 3c 25 0e 54 bd 0f 3a 88 3c ad a1 c6 bb
       0.016485125 -0.0517713 0.016629247 -0.0060617537
0003e0 4a 6b 76 bd 9b 94 0b bd a2 3f 00 bc 9f a8 b2 3b
       -0.060160913 -0.034077268 -0.007827671 0.00545223
0003f0 b6 2c f3 bd 80 ea f2 bb 9d 79 e7 3d b9 2f 2b 3e
       -0.11873762 -0.0074132085 0.11302493 0.16717423

bias f4 [128]
000000 d3 77 88 bc 57 fe ef 3d 85 69 b0 3d 01 ba 8f bd
       -0.0166587 0.11718433 0.08613876 -0.07017899
000010 bd 35 d0 bd f3 0a cd bd 47 05 eb bd 04 4b a3 bd
       -0.101665 -0.10011854 -0.11475616 -0.079732925
000020 b1 8e 7b bd e7 a1 10 be 4f c1 27 be 10 37 3f 3d
       -0.061415378 -0.14124261 -0.16382335 0.04668337
000030 37 ed 8e 3d 48 bc 74 3d f6 a7 a6 3b 17 43 9f bd
       0.06978839 0.05974987 0.0050859405 -0.07776468
000040 96 9f 5b bc a7 f8 0e 3c 00 8e e8 bd 33 0d 18 bd
       -0.0134047475 0.0087262755 -0.11355209 -0.037121963
000050 12 1b 05 3e 4a 6b 12 3d f1 b9 6c bd 07 49 ac bd
       0.12998608 0.03574685 -0.057794515 -0.08412366
000060 ab 65 8e 3d f2 38 39 3e a3 16 a3 bd da e4 de 3d
       0.069529854 0.18088129 -0.07963302 0.10883494
000070 64 e8 24 3a 97 81 85 bc df 7f 60 3b 4e 9c 36 3e
       0.00062907324 -0.016297145 0.0034255905 0.17833063
000080 44 9b 9d bb 2a 6b 09 be f9 fe 77 3d 6b 7f 85 bd
       -0.004809769 -0.13419786 0.060545895 -0.06518444
000090 f2 40 b9 3d 0d f4 19 be 60 26 d9 3d 88 0d 1f 3e
       0.090455905 -0.15034504 0.106030226 0.15532506
0000a0 c4 46 d6 3d 99 e9 e7 bd d0 70 bd 3d ac b3 41 bc
       0.10462716 -0.11323852 0.09250033 -0.011822622
0000b0 b4 e7 2d 3d 87 e2 22 3d 2c 81 73 bd 07 1d de bd
       0.042457297 0.039766815 -0.05944936 -0.1084538
0000c0 3a ea ec bd 7b 4d ca 3b c2 d9 ae 3d af 64 e2 3d
       -0.11568113 0.006173787 0.08537628 0.1105436
0000d0 70 70 df bd 40 d9 2b bc 3d ff ca 3d 9b 17 2b 3e
       -0.109101176 -0.010488808 0.09911964 0.16708224
0000e0 b8 30 14 3e a9 1f f4 3d d5 fe 21 be 72 11 05 3d
       0.1447171 0.11920101 -0.15819867 0.03248734
0000f0 d0 94 90 bc 8d 47 25 be bd 88 95 bd 52 88 19 be
       -0.017649084 -0.16140576 -0.073014714 -0.14993408
000100 30 24 16 3d 40 bf 18 39 16 46 7e 3d c7 a7 2c bd
       0.036655605 0.00014567096 0.062078558 -0.042152192
000110 58 d3 b8 3c a0 dc 10 3e 49 f6 80 3d a4 9b ce bd
       0.022561714 0.14146662 0.06296975 -0.1008828
000120 59 2c 35 3d 0f a3 9b bd cf e9 34 3d 3d 03 3c be
       0.044231746 -0.0759946 0.04416829 -0.1836061
000130 9f 2f 0d 3e 6b ff 42 be 52 43 50 bc 82 3b 03 3e
       0.13787697 -0.19042747 -0.012711363 0.12815669
000140 96 d5 e8 bd db b0 18 be 50 3a 35 3b d9 f8 9a 3d
       -0.11368863 -0.14911215 0.0027653165 0.07566995
000150 57 50 23 be ca f1 e6 3d 6a 80 ba bd 6a 94 05 bd
       -0.15948616 0.11276586 -0.09106524 -0.03261224
000160 d6 51 d2 3d 3f 4d 36 bd d6 de 1e bb 0b 68 4b be
       0.10269515 -0.04450726 -0.0024241707 -0.19863908
000170 9c 6f 2f 3e 7f 7d cf 3d 89 98 42 bd 37 43 a9 bc
       0.1713242 0.10131358 -0.04750875 -0.020661933
000180 1a a8 df 3c b6 77 8d 3d 59 8d 5a 3d 8e 8f 3b bb
       0.027301837 0.06907599 0.053357456 -0.00286195
000190 7b 6a a5 bc 5a 5a 8d bd 6a d1 24 be 31 29 29 be
       -0.020192375 -0.06901999 -0.1609551 -0.1651962
0001a0 7d 1f c5 3c a9 b4 47 be 65 93 0e be 53 ee 5e 3d
       0.024062866 -0.1950251 -0.13923414 0.054426502
0001b0 39 17 07 bd d5 4f d9 3d 39 88 c8 bd 36 f3 89 bd
       -0.03298113 0.1061093 -0.097916074 -0.06735842
0001c0 2b 69 cc 3d a0 a9 f0 3d 07 20 0c 3e 4c a1 06 be
       0.09980997 0.117511034 0.13684092 -0.13147467
0001d0 ea e7 d7 bd 56 8d 1c 3c 66 f8 3e bb 52 8e aa 3d
       -0.10542281 0.0095551815 -0.0029139756 0.08327927
0001e0 e8 10 d6 3d fa 7b ca bd b6 22 18 be 85 2a 91 3d
       0.10452443 -0.09886928 -0.14856991 0.07088188
0001f0 88 d2 fe 3d 91 c5 22 3d 3d 60 78 bc b1 e8 1c 3e
       0.124424994 0.039739195 -0.015159664 0.1532314

weight f4 [32]
000000 47 6e 73 3f 7e fc 6b 3f ec fa 77 3f ce e3 8c 3f
       0.95090145 0.9218215 0.9686725 1.100702
000010 9b 6b 6d 3f 7f b8 76 3f 50 09 68 3f c1 70 7b 3f
       0.9274232 0.9637527 0.9063921 0.98218924
000020 6d ac 72 3f eb a5 66 3f d0 7b 70 3f cf 9c 80 3f
       0.9479435 0.9009692 0.9393892 1.0047854
000030 a0 39 7c 3f 07 8e 75 3f 23 0c 6e 3f 80 31 71 3f
       0.9852543 0.9591984 0.9298727 0.94216156
000040 93 54 6c 3f 25 0b 75 3f 85 0f 7c 3f 22 81 6d 3f
       0.9231655 0.9572013 0.9846118 0.92775166
000050 a6 35 80 3f 43 84 76 3f d5 8c 79 3f b8 44 77 3f
       1.0016372 0.96295565 0.9748052 0.9658923
000060 47 70 78 3f 5b 8e 73 3f 8f 09 7c 3f 3d e0 80 3f
       0.9704632 0.9513909 0.98452085 1.0068432
000070 f5 50 82 3f 5b d8 76 3f 82 4f 72 3f 47 24 80 3f
       1.0180956 0.9642388 0.9465257 1.0011071

bias f4 [32]
000000 4c 90 de 3b 53 fd d6 bd 7e 0a 0e bd 08 fc a7 3e
       0.006792104 -0.104975365 -0.034677975 0.32809472
000010 be 86 78 bd 24 74 b9 3c 9d 49 18 bc 5a 6d fc 3c
       -0.060675375 0.022638388 -0.0092948945 0.030813862
000020 55 b4 25 bd 6d 43 d6 3c 2f 6e 7e 3d 1d 07 1c be
       -0.04045518 0.026155198 0.062116798 -0.15237089
000030 92 83 00 3d 05 b0 6b bc f7 74 92 3b 27 d8 e2 bd
       0.031375475 -0.014385228 0.0044695097 -0.11076384
000040 6b 23 ef 3c b1 3a 85 bd 15 fd 0b 3d a1 4f 12 bd
       0.029191693 -0.06505335 0.034176905 -0.03572047
000050 c0 75 12 3d 28 56 9d bc eb b5 79 3d 84 fd 09 bd
       0.035756826 -0.019206122 0.060964506 -0.033689037
000060 f3 8e 1f bd 34 3e 8a 3c e4 49 18 3d 2b 9a a4 3c
       -0.038954686 0.016875364 0.037179843 0.020093044
000070 b9 a2 eb 3b 92 1e 0d 3e 4b 4c 35 bd d3 02 38 3d
       0.007191029 0.13781193 -0.04426221 0.04492457

running_mean f4 [32]
000000 37 dc 9c 3f f8 4e 98 3f 35 95 93 40 57 4f ad 3d
       1.2254704 1.1899099 4.6119637 0.084623985
000010 23 f3 c3 3f 40 2e 63 bf 4e 81 d1 3e 88 85 83 3f
       1.5308574 -0.88742447 0.40918964 1.0275126
000020 1c 05 be 3e 92 1e 96 bf 0d d3 09 c0 05 58 6d c0
       0.37113273 -1.1728079 -2.1535065 -3.7084973
000030 33 ac 87 c0 6b aa 81 3f 1a eb 11 3e 02 4e a3 40
       -4.2397704 1.0130132 0.1424984 5.1032724
000040 d3 e6 21 bd c5 b0 72 40 a1 d9 08 40 8a 99 55 bf
       -0.03952677 3.7920392 2.138283 -0.83437407
000050 62 2a 6c bf 6a 6c 57 40 b0 12 87 bd c2 f7 53 c0
       -0.9225217 3.365992 -0.06595361 -3.311997
000060 6a b1 07 40 a3 e2 5e c0 20 94 b7 3f fe d8 51 40
       2.1202035 -3.4825828 1.4342079 3.2788692
000070 85 cc 92 c0 f9 08 51 bf ba 35 1b 3f 73 72 5c 3f
       -4.587466 -0.81654316 0.60628855 0.86112136

running_var f4 [32]
000000 d4 94 80 41 6b 9e 3b 40 a5 6f 4d 41 39 ab b0 38
       16.07267 2.931544 12.839757 8.424227e-05
000010 7f 8c b8 41 40 a1 d9 3f 47 0b 43 40 1f cf 47 41
       23.068602 1.7002335 3.0475633 12.488067
000020 40 d8 a4 41 ba 89 d2 40 41 e2 d4 41 c8 98 14 41
       20.60559 6.5793123 26.610476 9.2873
000030 aa 19 1a 41 25 ae 88 41 b7 6c 2a 41 01 f7 92 41
       9.631266 17.085032 10.651542 18.370607
000040 b5 66 41 41 83 56 c4 41 8c f4 3a 40 95 56 66 40
       12.087575 24.542242 2.921176 3.5990345
000050 84 60 35 42 ab 98 3c 41 7e 1d de 40 59 9b 55 41
       45.344254 11.787272 6.9411 13.350427
000060 48 19 50 40 48 04 76 41 14 e0 1c 42 85 ac 70 41
       3.251543 15.376045 39.218826 15.042119
000070 b4 06 49 41 57 a1 b4 40 8f 65 32 42 a1 90 bf 41
       12.5641365 5.644695 44.59918 23.94562

weight f4 [32, 136]
000000 75 c8 78 3d 15 fd ad bd c6 a9 be 3d 6b f4 ad bb
       0.060738046 -0.08495537 0.093097255 -0.005308678
000010 82 b8 c5 bc d8 d2 5b 3d 0f 11 f4 3c dc 64 77 3d
       -0.024135832 0.053667873 0.02979329 0.06039892
000020 f2 fe 8b bd 77 c5 c7 bd 83 59 86 3c f0 b0 3f 3c
       -0.06835736 -0.0975446 0.016400104 0.0116999
000030 a2 f5 db bc 04 73 a2 3c ac c1 28 bc 11 94 b0 3a
       -0.026850525 0.019830234 -0.010300081 0.0013471862
000040 81 05 9f bc 9b b9 bc bd e8 e0 43 bd 0a c8 9d 3c
       -0.019411804 -0.09215089 -0.04782191 0.019260425
000050 e9 99 85 bc bf bc fb 3c e9 4e f7 3c ae b7 88 bb
       -0.016308742 0.03072965 0.030188994 -0.004172287
000060 5b 13 71 bd 66 b9 25 3d be 37 c4 3c 64 a5 fc 3c
       -0.05885635 0.040460013 0.023952361 0.030840583
000070 6c aa 47 3d 0c e2 36 bd 3a d0 fd bc c7 23 06 3d
       0.04874651 -0.04464917 -0.03098308 0.032748964
000080 65 5b 8e bc 03 9f a1 3c 1a ab 0e bd 5d de 24 bd
       -0.017377565 0.019729143 -0.034831144 -0.040251125
000090 3b 15 51 bd b3 5d c0 bb d6 bc d7 3c 16 e9 09 bd
       -0.051045638 -0.005870545 0.026335161 -0.033669554
0000a0 8c 3a 90 3d 9a 8d 30 bd 06 be e2 3d 33 5a 08 3c
       0.07042417 -0.04310379 0.110714 0.008322286
0000b0 61 72 03 3d 81 83 a6 bd c0 22 40 bd 7b 60 a5 bd
       0.032091502 -0.08130551 -0.04690814 -0.08075043
0000c0 1d 1a 1f 3d de ef dd bd f4 b4 a1 3c 95 64 84 3c
       0.038843263 -0.10836767 0.019739605 0.016161242
0000d0 e4 75 c9 bd 72 20 35 bd d4 ed 23 3c e8 0d 94 3d
       -0.09836939 -0.044220395 0.010005433 0.07229215
0000e0 75 75 c6 3d c4 33 f7 bb 7a 0a 12 bc 6f 53 91 3d
       0.09690372 -0.0075440127 -0.008913631 0.07095992
0000f0 fc 83 9d bb 30 ec bc 3b 39 92 42 bd 04 99 5e bd
       -0.0048069935 0.0057654604 -0.04750273 -0.054345146
000100 ca 10 8f 3d 97 0e d6 bc ad a8 32 bc ed 4a 9d 3d
       0.06985624 -0.026130004 -0.010904473 0.076803066
000110 2b c0 9d bb e7 08 90 bd 14 91 b2 39 35 36 94 3d
       -0.004814168 -0.07032948 0.00034058897 0.07236902
000120 9f 5a 22 3d b5 55 4e 3c 02 1c 2d bd 6a 54 77 bd
       0.039637204 0.012593676 -0.04226304 -0.060383238
000130 bb b5 66 3c 57 63 99 3c 1f 55 09 3d 61 d2 d5 3c
       0.014081414 0.018724127 0.033528443 0.026101293
000140 c6 c5 93 3c 8e f6 a0 3d d0 43 26 bd 56 58 02 3d
       0.018038642 0.078595266 -0.040592015 0.031822525
000150 b7 c9 40 bd 3b 9b 37 3d d5 df ce bc a3 a6 bd 3d
       -0.04706737 0.044825774 -0.025253216 0.09260299
000160 d3 25 83 3d 8d 60 9b bd 36 c7 07 3d c6 48 f1 bd
       0.06403699 -0.07586775 0.033148967 -0.117814586
000170 b2 66 0b 3d 6b 97 4e 3d b2 8a ac 3d 08 f6 97 3d
       0.034033485 0.050437372 0.084248915 0.074199736
000180 d7 94 79 bd ef 48 b8 bc 09 b4 13 3d 49 db d2 3c
       -0.06093296 -0.022495715 0.036060367 0.025739329
000190 ab e3 4b 3d 06 e3 de 3d 61 64 a5 3d f7 85 94 3d
       0.049777668 0.10883145 0.080757864 0.07252114
0001a0 8b 33 ab bc 02 bc e5 bd c5 6b 49 bd ed cc 03 bd
       -0.020898601 -0.112175 -0.049175043 -0.032177854
0001b0 a2 0d fb 3d 90 c6 bf bd 97 c8 ca 3d b7 9d bf bc
       0.1225846 -0.09364045 0.09901541 -0.023390634
0001c0 28 e5 44 bc 75 df c5 bc 07 02 a4 3c 37 66 43 bd
       -0.012017526 -0.024154404 0.020020498 -0.0477049
0001d0 43 14 07 bd 81 c4 fd bc ca 11 95 3d 14 b6 60 bc
       -0.032978307 -0.03097749 0.072787836 -0.013715286
0001e0 67 b4 3d 3d c8 04 e9 3b 11 69 2d bd de 1a 10 3c
       0.046314623 0.0071111657 -0.042336527 0.008795468
0001f0 71 df 0a 3d a5 06 8c 3d 71 88 de 3d 64 cd 8c bd
       0.033904497 0.06837205 0.10865868 -0.06875113
000200 54 3e a7 bd e5 4c 8b 3c 92 e1 ca bd 27 33 78 3c
       -0.08166185 0.01700444 -0.099063054 0.015148914
000210 3e 98 4d bd 1c f3 c7 3d 59 7f 13 3d e6 24 32 3c
       -0.050194018 0.09763166 0.03601012 0.010873055
000220 09 fe 11 3b 2e a3 ac bd 54 b5 d3 bc db 21 a9 3d
       0.002227666 -0.084295616 -0.0258433 0.082584105
000230 1d 6f 80 bc 22 31 2d bb 81 43 bb bb a9 f0 89 3d
       -0.015677983 -0.002642699 -0.005714834 0.067353554
000240 2a 01 81 bd 4a 66 90 bd 96 7a 24 bd 1f 2b 0c 3d
       -0.0629905 -0.0705076 -0.04015597 0.03422081
000250 c3 f0 5d 3d 7a 7b df bc e7 5a ae bc ba f4 84 bd
       0.054184686 -0.027280558 -0.02128358 -0.064919904
000260 97 55 37 bd 91 fc 08 3c 26 05 32 bd a1 a9 30 3d
       -0.04475936 0.008360998 -0.04346194 0.04313052
000270 ee 77 04 3d 80 7e 1f 3c 4e d6 9d bc e3 05 9e 3d
       0.032340936 0.00973475 -0.019267228 0.077159666
000280 12 fa ab bd 2b 55 30 bd 5a f1 92 bd 02 fa 0a 3d
       -0.083973065 -0.043049973 -0.071749404 0.033929832
000290 cb 97 2e bd c2 4f db bb 3f dc e9 3d 12 a8 b2 3c
       -0.04262523 -0.0066928575 0.11418962 0.021808658
0002a0 b6 2a 0b bd 26 78 c7 3d f4 49 8f bd c9 c2 99 3c
       -0.03397628 0.09739713 -0.06996527 0.018769639
0002b0 ab b5 5a bd a0 33 ee bc f1 15 42 3d 20 64 af bd
       -0.05339591 -0.029077351 0.047384206 -0.08564019
0002c0 6c 82 aa 3d 74 dd 59 3d ec f0 a0 3c af 7c 75 3d
       0.08325657 0.05318971 0.01964613 0.05993336
0002d0 83 a7 33 3d 62 5f 90 3d a1 f6 99 bd c1 d9 82 bd
       0.043860923 0.07049443 -0.07517744 -0.063891895
0002e0 c2 ed 9a bc b3 66 45 ba 82 99 20 3d 83 1d 80 bd
       -0.0189122 -0.0007530257 0.039208896 -0.06255629
0002f0 ef 55 2e bc 1c f5 23 ba d3 2a 85 bd 1d 12 26 3c
       -0.010640605 -0.00062544807 -0.06502309 0.0101361545
000300 de 7a 00 bd 9c 03 fd 3c 39 4a 85 3d de 87 08 3d
       -0.031367175 0.03088551 0.065082975 0.033332698
000310 63 6f 8e bd df 32 83 bd 2e 53 80 3d 30 11 98 3d
       -0.06954839 -0.06406187 0.06265865 0.07425153
000320 1b 14 63 3d 45 78 12 3c 01 35 80 3c 48 43 81 3c
       0.055439096 0.008939807 0.015650274 0.015779153
000330 0e 26 d4 3d 50 ee 12 bd 2d 59 7f bc 86 7e ca 3c
       0.10358821 -0.035871804 -0.015585226 0.024718534
000340 0f 35 45 bb a4 04 42 bd c2 55 94 3d 79 f7 62 bd
       -0.003009144 -0.047367707 0.072429195 -0.05541179
000350 72 a4 d6 3d 9d ad de 3d 11 26 67 bd 31 bc 8a bd
       0.10480584 0.10872958 -0.056432787 -0.06774176
000360 bb 94 eb bc 8e 3e 6d 3c 2d 28 bd 3c c7 0d b2 3c
       -0.028757444 0.014480246 0.023090446 0.021735085
000370 df dd 88 3d 88 c0 3a bd 1c 52 cb bd 4c 29 cc 3c
       0.066829436 -0.04559377 -0.099277705 0.024922036
000380 cc a2 a1 3c 12 01 8c bd b0 d7 03 be 34 5e 03 bd
       0.019730948 -0.06836142 -0.12875247 -0.03207226
000390 9d 42 19 3c 7a df c9 bd 63 e2 d4 3c da 57 35 bd
       0.009354261 -0.09857078 0.025986856 -0.044273235
0003a0 a1 b6 96 bd cc a6 03 bc 7b 35 c5 3c fb 05 ce bc
       -0.073590524 -0.008035373 0.024073353 -0.025149336
0003b0 01 5e 83 bc 32 b6 80 3d 27 60 84 bd a5 30 85 bd
       -0.016036035 0.06284751 -0.06463652 -0.06503419
0003c0 c6 99 a1 bd 6b 7b 84 3d 29 dc 66 3d 60 11 20 3d
       -0.07890658 0.064688526 0.056362305 0.03907907
0003d0 1b af 85 3d a4 98 c9 3b 03 a3 a2 bc 35 8c 90 3d
       0.06527539 0.0061522294 -0.01985312 0.07057992
0003e0 87 d0 d8 bb 80 00 6a bb 57 01 6e bc 9e d6 73 bd
       -0.0066166553 -0.0035705864 -0.014526687 -0.059530847
0003f0 c9 e8 09 bc ad 80 5e bd d1 9f 1d bd c1 00 da 3c
       -0.008417317 -0.054321934 -0.03848249 0.026611688

bias f4 [32]
000000 97 e1 3c 3d 0d 42 e6 3c e2 48 a8 bc 8b 05 a1 bd
       0.046113577 0.028107667 -0.020542566 -0.07862385
000010 e4 33 89 bd 43 c7 59 bc b6 98 f2 bc f8 75 0a 3c
       -0.066993505 -0.013292137 -0.029613834 0.0084509775
000020 1d f4 be bc c5 81 71 3d ec 76 55 3d e2 04 31 bd
       -0.023309762 0.05896165 0.052115366 -0.043217547
000030 f4 fc 67 3d 6d a9 87 3c 4c fd 7b 3d 93 aa 20 3d
       0.05663772 0.01656028 0.06152086 0.039225172
000040 1a 41 03 bc c6 54 5f 3d 54 af 92 3d e6 18 75 bd
       -0.008011127 0.054524206 0.071623474 -0.059838198
000050 1c a8 80 3d 54 8e fe bc 1a 36 2c bd 9e d5 bb bd
       0.06282064 -0.031073727 -0.042043783 -0.091716036
000060 b5 20 85 bc e7 c7 2a 3d 33 e3 cf 3d 6c 2e a0 bc
       -0.016250947 0.041694548 0.10150757 -0.019553386
000070 7c 2f cd bb 8e 8b 25 3d 8e f2 ea 3d 8a 55 c2 bc
       -0.006261764 0.040416293 0.11472045 -0.023722429

weight f4 [8, 32]
000000 66 d4 ff bd 92 b2 1b 3e 54 d8 43 bd 97 ff ff bd
       -0.12491684 0.15204838 -0.04781373 -0.12499922
000010 52 df 0c bd ba bf 95 3d cb fa 56 3d 78 a5 e3 bd
       -0.034392662 0.073119596 0.05248527 -0.11115545
000020 7a 1d 3d 3e 50 2d ed bd 0f a2 c4 bd 97 72 2a 3e
       0.18468276 -0.11580908 -0.09601223 0.16645275
000030 45 9a 02 bd 09 49 b2 bc ac 44 e5 bc e9 bf 06 be
       -0.031885404 -0.021763342 -0.027986847 -0.13159145
000040 6d 7d 49 be 16 63 e2 3d 11 34 21 3d 12 50 e6 bd
       -0.19676752 0.110540554 0.039356295 -0.11245741
000050 6c 37 3e bc ec 7d 16 bd d6 0b 60 bc b5 a8 2a be
       -0.011609893 -0.036741182 -0.013674697 -0.16665919
000060 5e fc cd 3d 6f d3 0b 3e e1 36 3c bd 4c 4c 25 3e
       0.10057901 0.13654874 -0.045950774 0.16142386
000070 c2 a2 03 3e 66 f0 33 be da 49 90 3d 7c 98 1b bd
       0.12855056 -0.17572173 0.07045336 -0.037987217
000080 6a 85 4f 3e ad e2 b9 3d cf 9e 11 3d bd c1 c4 bd
       0.20265737 0.09076438 0.035551842 -0.09607265
000090 9e 46 87 bb 57 b3 57 bd d3 b8 f4 3c d6 b3 c6 3d
       -0.0041282913 -0.052661266 0.029873287 0.0970227
0000a0 47 ed e8 bd 3c d7 16 3d 61 05 2d bc d8 1c 14 be
       -0.11373382 0.036826357 -0.010560364 -0.14464128
0000b0 1b 55 1b 3e 85 0c f2 3d 4b f1 66 3d e5 41 fe 3d
       0.15169184 0.11818794 0.05638246 0.12414912
0000c0 63 33 d0 3d 0d af e5 bd bc b1 88 3d df 84 59 3e
       0.10166051 -0.11215029 0.06674525 0.21242093
0000d0 8d 1d f4 bc 77 28 e4 bd 0e b8 36 be e5 0b 9e bb
       -0.029799247 -0.111405306 -0.17843649 -0.0048231953
0000e0 c9 5a 8e 3d ed b6 bc 3d 38 5d bf 3c 69 43 72 bb
       0.0695091 0.09214578 0.02335988 -0.003696645
0000f0 7f fa f0 3d bf 2b 81 bc 03 a0 0f be 4b e7 b3 3d
       0.11766528 -0.01576793 -0.14025883 0.0878435
000100 33 d3 dc 3d 95 06 ad 3d 8b df 43 be ab a4 18 3e
       0.107824706 0.08448521 -0.19128244 0.14906566
000110 80 16 88 bc 13 11 fb bd 67 58 50 bd 25 d2 2d 3e
       -0.016612291 -0.12259116 -0.050865557 0.16974695
000120 8a 2f 34 3d 62 5c 05 be 99 2f b7 bd b4 a1 7f 3d
       0.04399065 -0.13023522 -0.089446254 0.06241007
000130 f0 08 c8 bd 02 ef 18 3e 1c 3f 23 3d ba 64 a5 bd
       -0.0976733 0.14934924 0.039855108 -0.08075853
000140 9a 80 03 3e d8 02 ac bc ca 1d 0f bd d3 5b d9 3d
       0.12842026 -0.02099745 -0.03494052 0.10613217
000150 8b 38 e1 3d 91 50 ea 3d 99 0d bc 3d d6 96 89 bd
       0.10997113 0.11441148 0.09182281 -0.06718223
000160 23 dc 90 3c 90 79 98 3d 25 8f 9b bd 92 bc 9d bd
       0.017683094 0.07445061 -0.07595662 -0.077019826
000170 e3 d6 ee bc 02 85 23 be d9 61 75 3b 36 b2 e9 3d
       -0.0291552 -0.15968707 0.0037442355 0.11410944
000180 ab 3d 50 3e da f0 92 3d 14 1d 20 be 7c 3c 03 3e
       0.20336024 0.07174845 -0.15636092 0.12816042
000190 f4 39 3e bd 2e 66 d5 bd 3b c9 13 3d 7d 38 32 3e
       -0.046441987 -0.1041988 0.03608058 0.17404361
0001a0 b7 cd 09 3e c3 8d 97 bb 82 0b 8f 3d d0 91 51 bd
       0.1345738 -0.0046250536 0.06984617 -0.05116445
0001b0 dd 4e a2 bd c9 66 4d bd 68 eb 2d be 67 16 96 3d
       -0.07925198 -0.05014685 -0.16984332 0.07328492
0001c0 a5 31 de bd 30 b4 5c 3e 38 c6 e5 3c 2c 8f 2d be
       -0.10849313 0.21553111 0.02804862 -0.16949147
0001d0 47 2d 65 bd a6 b4 d8 3d 3a 9e 33 3d 53 66 c6 3b
       -0.055951383 0.10581331 0.04385207 0.0060546785
0001e0 3e 5d b6 bd d3 9a 66 bd 41 51 37 3d f2 b5 bd 3c
       -0.08904503 -0.056299996 0.044755224 0.023158047
0001f0 cf 05 f5 3c 55 1a 36 bd 37 a6 a8 bd 33 62 80 3d
       0.029909996 -0.044458706 -0.08234828 0.0626873
000200 fd 32 55 3e c8 01 d0 bd 50 aa d1 3d 3e 10 d1 3d
       0.20820232 -0.1015659 0.10237563 0.10208176
000210 fe 26 32 3e 04 7a 43 3e 92 22 ca 3c 01 17 23 3e
       0.17397687 0.19089514 0.024674688 0.15926744
000220 32 00 e9 bd 27 01 1c be 7a 44 70 bd c2 b9 29 bc
       -0.113769904 -0.15234815 -0.058659054 -0.0103592295
000230 a6 3d 00 3c c5 04 67 bc e4 e0 07 3e 50 cc b9 bd
       0.007827198 -0.014100258 0.13269383 -0.09072173
000240 1f a1 83 3c c7 cd 3b 3e d7 b9 bb bd c3 0f 88 bd
       0.01606804 0.18340217 -0.091663055 -0.06643631
000250 d1 68 ce 3c 4b 07 68 3d ce d6 42 be 95 df 10 be
       0.025196465 0.05664758 -0.19027254 -0.1414779
000260 03 72 17 be 74 98 9c 3d df 61 93 bc a3 94 2e be
       -0.14789586 0.076462656 -0.017991005 -0.17048888
000270 e0 ac 03 3d 24 19 d7 bd 25 a7 4f bd ba 00 04 3e
       0.03214729 -0.10502842 -0.05069651 0.12890902
000280 65 84 38 be fd b5 85 bc a7 a1 01 be 32 a8 9b bc
       -0.18019255 -0.01632213 -0.12659322 -0.0190011
000290 66 15 07 3e f3 b7 2a be e8 ed 85 3d bd a4 13 bc
       0.13191757 -0.16671734 0.06539518 -0.009011445
0002a0 e9 99 04 be bd 84 25 3e 6c 68 27 3e 4a b8 bb bc
       -0.12949337 0.16163917 0.16348428 -0.022915024
0002b0 75 73 42 be 92 91 f0 3d 12 ee c6 bb 70 03 c7 3d
       -0.18989356 0.11746515 -0.0060708607 0.097174525
0002c0 23 2f 2c 3e 2d 3f 07 be 31 29 48 3d e6 89 45 bd
       0.16814856 -0.13207693 0.04886741 -0.048227213
0002d0 a9 3a cf 3d b0 56 82 bd 82 0d bd bd 93 98 20 3e
       0.101186104 -0.063641906 -0.09231092 0.15683202
0002e0 19 a4 54 be fc 92 c7 3d f2 ac 40 be 61 c5 39 be
       -0.20765723 0.09744832 -0.18815973 -0.181417
0002f0 e1 79 d5 3d c4 c9 cc 3d 4d 78 7c bd 0f c9 39 be
       0.10423637 0.09999421 -0.061638165 -0.18143104
000300 02 b0 0a be 43 cb 5f 3e 04 20 2d 3d 58 cd b3 bd
       -0.13543704 0.21854882 0.04226686 -0.087794006
000310 42 1c b1 bd d5 13 16 be 9c c2 a4 3d 5f cc 16 be
       -0.08647968 -0.14656003 0.08044931 -0.14726399
000320 da 0c 1a be 69 c6 a3 bd f2 3f 5b be 25 a4 05 be
       -0.15043965 -0.07996828 -0.21411112 -0.13050897
000330 35 a9 90 3d 67 8a c0 bd 01 05 a9 bd 65 7c 9c bd
       0.07063524 -0.09401398 -0.082529075 -0.07640914
000340 1e de af 3d 5b ff 1b 3d 69 41 b0 3d 5e 02 b9 3d
       0.08587287 0.038085323 0.08606226 0.09033655
000350 de 6b bc 3d d1 7a 1b be 10 16 49 3e 3e 85 26 3e
       0.092002615 -0.1518357 0.19637322 0.16261765
000360 d6 fe 30 3d a1 5f ec bd f8 45 b2 bc 72 1b 20 be
       0.04321178 -0.11541677 -0.02176188 -0.1563547
000370 63 45 4a 3e 60 0e e0 3c 63 fb e7 3d 39 c4 4e 3d
       0.19753031 0.027350605 0.11327245 0.0504801
000380 44 11 c7 bc eb a1 05 be 32 c4 0b be b4 f7 0e 3e
       -0.024300225 -0.13050048 -0.13649061 0.13961679
000390 f6 fe a9 bc 43 10 ea bd cd d4 3e be da 8e 91 3c
       -0.020751458 -0.11428883 -0.18635865 0.017768312
0003a0 1e e6 cc bd 13 7e 0d 3e d1 5d 23 3e ef 00 e0 bd
       -0.10004829 0.13817625 0.15953757 -0.10937678
0003b0 bd 9e a6 bd 4c b0 f3 3c 07 7a cd 3d be da c3 bb
       -0.08135746 0.02974715 0.100330405 -0.005977004
0003c0 43 3d 42 3e 16 6d 1a 3e 7f 5d a9 3d 96 38 e0 bc
       0.18968682 0.15080675 0.08269786 -0.027370732
0003d0 b6 b3 d5 bd 46 e3 bd 3c 0b dd db 3c 92 ba 1b 3d
       -0.10434668 0.023179661 0.0268388 0.038019724
0003e0 0e 27 e2 bd 02 2e 07 be 8b 15 01 3c f7 ef eb 3d
       -0.11042605 -0.13201144 0.007878671 0.11520379
0003f0 e2 fa 9a bd 29 f3 bd bc 1b 14 63 3d f0 cb 12 be
       -0.07567383 -0.023187237 0.055439096 -0.14335608

bias f4 [8]
000000 b5 0f 76 3d bd cc 73 bd ab c4 4e 3e d4 af c7 bc
       0.060073573 -0.059521426 0.2019221 -0.024375834
000010 5a 90 b4 bd 41 28 4f bc 5e 6b ab bd 5c 02 02 3e
       -0.088165954 -0.012643875 -0.08370088 0.12696213

weight f4 [32]
000000 ed 33 87 3f 67 b6 83 3f 52 50 80 3f 4e d7 78 3f
       1.0562721 1.029004 1.0024512 0.9720353
000010 36 a1 7e 3f 40 59 82 3f 0f 4c 82 3f 8e 13 85 3f
       0.9946474 1.0183487 1.0179461 1.0396593
000020 5c 64 7a 3f 37 c8 82 3f bf 6d 86 3f 34 a9 78 3f
       0.97809386 1.0217351 1.0502242 0.97133183
000030 9c 06 80 3f 0e 7a 76 3f b5 3c 7c 3f 20 28 81 3f
       1.0002017 0.9627999 0.9853013 1.009037
000040 c1 69 85 3f b4 cb 83 3f bb 67 7f 3f 2f 0d 84 3f
       1.0422899 1.029654 0.99767655 1.0316523
000050 3e e9 72 3f 25 8d 7b 3f a0 3f 83 3f 66 e7 78 3f
       0.9488715 0.98262244 1.0253792 0.97228086
000060 f1 c0 7e 3f e3 58 7c 3f cf 07 81 3f a4 c8 7a 3f
       0.99513155 0.9857313 1.0080508 0.97962403
000070 88 32 81 3f c5 b2 7b 3f b1 09 81 3f 74 97 79 3f
       1.0093546 0.98319656 1.0081083 0.97496724
