code/model_sol_backups/model_sol_40.pt (torch, 635426 bytes, 158 tensors)

weight f4 [32, 2]
00000000: dccf 3bbe fe46 7bbe 5cd3 b6be 332f 283f
00000010: 043e 2e3f a6c9 92be 69f4 d13d 56ad d53e
00000020: 5c4c 1d3f 7212 1d3f 2243 863e cb3e bdbe
00000030: 3111 15bf a2cb 3e3e eb4e 123f 588d ecbc
00000040: 4851 2c3f 4878 30bf b3d2 0abf d6a4 853e
00000050: 8c69 df3e be04 65be 614d efbe e8f9 31be
00000060: 26e1 493e 90fc 8f3d 7f80 793d f1a7 24bf
00000070: 2885 293f 6b2e ac3c 1062 953e 330b 17bf
00000080: 1808 afbe d682 ecbe a751 d93c bef3 113f
00000090: 9536 903e 02a2 0cbf 4567 afbe 9ffa 183e
000000a0: 1eeb 2e3f 395d 7a3e 0d28 27bf d8fa 22bf
000000b0: f6f5 98be f32a 373e 2fed 3fbd 5a3d a0be
000000c0: 8a32 e03e a1ee 5cbe 89e2 bbbd ac16 813e
000000d0: 58a0 00bf f0cc 053f b1bc ff3e ecd7 e9bd
000000e0: 9b82 20bf 1538 fcbe ca29 9cbe e40e 26bf
000000f0: 0c73 b33e 575b a7be 911a 263f 3cce 14be
-0.18341011 -0.245388 -0.3570813 0.6569702 0.6806338 -0.2866947 0.10251696 0.41733807
0.6144464 0.6135627 0.26223093 -0.3696197 -0.58229357 0.18632367 0.5715167 -0.028875992
0.67311525 -0.68933535 -0.5422775 0.26102322 0.43635213 -0.2236509 -0.46738723 -0.17380488
0.19714794 0.07030594 0.06091356 -0.6431876 0.66218805 0.021018228 0.29176378 -0.59001464
-0.34185863 -0.4619357 0.026528193 0.57012546 0.28166643 -0.54934704 -0.34258476 0.14939354
0.6832751 0.24449624 -0.6529549 -0.6366401 -0.29875153 0.17887478 -0.046857055 -0.31296808
0.43788558 -0.21575405 -0.091740675 0.2521261 -0.50244665 0.52265835 0.49948648 -0.11418137
-0.6269929 -0.49261537 -0.30500633 -0.6486647 0.3504871 -0.32686874 0.6488429 -0.14531797

bias f4 [32]
00000000: 69b7 2d3e 1009 34be 3d23 083f 5ef6 cfbd
00000010: 5d48 633e 3665 e83e 6671 1ebf f412 903e
00000020: 8f36 3c3e bde4 b1be 77ab a7be ee82 03be
00000030: a7df 4f3e be82 da3c 8883 733e 50b2 0abc
00000040: 1f61 1bbe dfd4 d03e 9bfd 05be 83bb 1c3f
00000050: d9f8 c53e ea75 0e3f 755c b7be 3e2e 06bf
00000060: 84fc b2bd 3e9a 303f 49f9 f73d 222e 193d
00000070: 7050 283f 208a 11be c040 f43e 9e02 92be
0.16964497 -0.17581582 0.5317877 -0.10154413 0.22195573 0.45389718 -0.6189178 0.2813946
0.18380187 -0.34744826 -0.32748005 -0.12842914 0.2030016 0.02667367 0.23780644 -0.008465365
-0.15173768 0.40787408 -0.13085024 0.6122362 0.38666418 0.5564867 -0.35812727 -0.5241431
-0.0873957 0.68985355 0.12108094 0.03739751 0.6574774 -0.14212847 0.4770565 -0.28517622

weight f4 [128, 32]
00000000: e1c1 0a3e ff1b 05be 82e8 a4bc ec57 043d
00000010: 4cac e3bd 3f42 cbbd def8 ea3d c601 583d
00000020: 7701 ee3d 79ee 9bbd cdf0 46be 33f6 acbd
00000030: 892f e3bd 1ac8 ac3c e327 3bbe 2667 06be
00000040: 7df8 eebd a62d 1a3d cb3e c0bd 48c1 a23d
00000050: 5c7d 203e 7b29 b0bd 4d9a 03be ee98 f13c
00000060: 42c2 22be 5bbb 083d 86b7 063e f07e f03d
00000070: 6fb0 1ebe aaa4 7abd 486a 0abd f8b3 623d
00000080: 7c47 113e f0af 893d c1c8 69bd bce0 04be
00000090: ee11 e93d f2d7 bbbd ac3d f03d 8f09 0abd
000000a0: dce7 923d f2d6 21bc 020f 48bd 9c16 05be
000000b0: 79cc 3ebe 7238 25bc 2a84 153e 2133 a43b
000000c0: 8320 103e 69fe adbc eed8 063c 0c4f c0bd
000000d0: cfe0 f13d dc02 0a3d 34e4 043e 60f2 f03d
000000e0: c322 073e 8738 ad3d 2425 3a3c 3f68 4c3b
000000f0: 24dd 343c e81c 71bc 349f cebd 1739 f03d
00000100: fd23 18be f342 6ebc 5635 29bb bd1c 2ebe
00000110: 4442 acbd 01b5 043e 3fd0 923d 793c 293e
00000120: 8246 563d fd10 cd3d 7cc6 e63c c3f9 343e
00000130: 8b37 193e 30a1 8c3c 0b36 6bbd f491 a63d
00000140: 278d b7bd 24d2 11be 7eb4 c73d 26e5 e6bd
00000150: a14e 2e3d 0ff5 a7bd a64d 723d 5db3 e43c
00000160: feda e1bd d4af 06bd e1be 343c 518d 1c3e
00000170: 4328 b8bd 53bf 99bd cddf 013e f921 25bc
00000180: 35b5 fcbd 3fc0 ef3b a6f0 413e 0713 36be
00000190: 1b5f 11be 1ad9 5cbd 534f 0ebd c9a4 85bd
000001a0: e2bd d13c 1cca f73d 643a e0bd 128e c83d
000001b0: 89bf bcbb c8ea 183e d446 3d3c 99f9 843b
000001c0: 66c5 0b3d 30e4 8d3b 8f2d 273e 2220 b33c
000001d0: 5898 07be e510 8e3b f1dd 0bbe 027d 3cbe
000001e0: 6cd5 1a3e 1648 ac3d 21ea 063e 8ad7 123d
000001f0: d769 1b3d 51a0 3ebe 8160 12be 6834 ccbd
00000200: df9b abbd 0d75 05be e92f 963d 840b 4abc
00000210: c100 fabd 0278 6dbd eaf8 113c 5af8 0dbe
00000220: 9681 203e 0f37 eb3d be2a 843c 272c 37be
00000230: b47a aa3d ab60 d3bd 176b 7fbd 0969 12be
00000240: be1b 283e 6572 63bb c1d6 4a3c 406e 343e
00000250: a79c 113e 6dba b2bd 8331 7dbd 4029 6e3d
00000260: 10f3 b2bc 6304 80bc 4c3c 2e3e 11e9 083e
00000270: 327e 133e a2ab 923d 4736 07be bf9d 8abd
00000280: 19fa 1cbe 9b34 a4bd ff72 3fbd 8200 123e
00000290: a060 653c 2fc5 25be c6bd 18bd f82b ef3d
000002a0: d033 8ebd cefe 073e 0ba4 2abe 161c 35bc
000002b0: ccf5 e63c 95fb 4cbd b585 32be 058f 62bb
000002c0: e16f 753d f14e 113d c6fb e8bd 061b efbd
000002d0: eecc ffbd 135c 0f3e a10c 3a3c 3a42 f13c
000002e0: 1020 ef3d 13be 64bc 22cf 1b3e 7d13 453d
000002f0: 1de2 f33d 91e4 24be b498 ff3d 4d75 22be
00000300: 81bb 0dbe 5e38 823d 91f6 b5bd fafa 38be
00000310: 62d0 b33d 4f1d 1e3e 1f64 f43b cb81 a4bd
00000320: d499 e7bd 2891 013e 4d03 ba3d ad6e c23d
00000330: 134f 3abb d370 303e a050 ab3b 1bf9 143e
00000340: 9130 17be 1d2f 06be 5ed0 be3d 704a f139
00000350: 4f72 203e dde2 b33d c3c6 54bb 55bc f83b
00000360: d316 2e3e 23d1 a2bd 8d6c 133b 8033 98bd
00000370: 0f2c d73d 3595 7c3d 3c7a 23be 9edc 02be
00000380: b263 33be 7c76 f3bd 593e 123c bcf2 66bd
00000390: ce17 fcbd f556 103e 5ba0 1bbe 4b54 443c
000003a0: 5e61 e33d 2f88 fc3d bbbf c3bd 2e40 243e
000003b0: 94b2 5a3c 5dc9 80bd dac8 dfbd 630e aabc
000003c0: 36fc aa3d 1e0b acbd 6cf8 b33c 5cbf 713d
000003d0: e474 02be d187 abbd 02a5 263d cdb3 0b3c
000003e0: dd6b e0bd 739a 08be b38a d63d 6506 0d3e
000003f0: f3a9 96bd bdfd 15bd ed27 7dbd f5e2 b0bd
0.13550521 -0.12998961 -0.0201304 0.03231041 -0.111168474 -0.09924745 0.11473249 0.052736066
0.11621373 -0.076138444 -0.19427796 -0.08445396 -0.11093051 0.02109151 -0.18276934 -0.13125286
-0.11668489 0.03764119 -0.09386977 0.07947022 0.15672821 -0.08601662 -0.1285183 0.029491868
-0.15894416 0.0333818 0.13155946 0.117429614 -0.15496992 -0.061192192 -0.033792764 0.055347413
0.14187425 0.067230105 -0.05707622 -0.12976354 0.11380373 -0.09172048 0.11730513 -0.033700522
0.0717313 -0.009877907 -0.048842438 -0.12996906 -0.18632688 -0.010084258 0.14601198 0.005010978
0.14074902 -0.021239476 0.008230431 -0.09390077 0.11810457 0.033694133 0.12977678 0.11764979
0.13196854 0.08458047 0.011361394 0.0031190065 0.011039052 -0.014716364 -0.10088959 0.11729639
-0.14857478 -0.014542329 -0.0025819144 -0.1700315 -0.08411077 0.12959673 0.07168626 0.16526975
0.052313335 0.10013006 0.028170817 0.17673402 0.14962594 0.017166704 -0.057424586 0.08133307
-0.089624695 -0.14240319 0.09751223 -0.11274175 0.042555455 -0.08201038 0.059156083 0.027917558
-0.110280976 -0.032882527 0.011031837 0.15288283 -0.08992054 -0.07507195 0.1268303 -0.0100789005
-0.1233925 0.0073166187 0.18939456 -0.17780696 -0.14196436 -0.05391798 -0.03474362 -0.06525571
0.025603238 0.12099096 -0.10948637 0.09792723 -0.0057601375 0.14933312 0.011552531 0.0040580747
0.0341238 0.0043301806 0.16325973 0.021865908 -0.13241708 0.00433551 -0.13658883 -0.18407062
0.15120476 0.08412187 0.1317525 0.035850085 0.037942734 -0.18615843 -0.14294626 -0.09970933
-0.083793394 -0.13032933 0.07333357 -0.012331847 -0.12207175 -0.057975776 0.008909443 -0.1386427
0.15674433 0.11485111 0.016133662 -0.17887937 0.08324185 -0.10321172 -0.06235799 -0.1429788
0.16416833 -0.0034705636 0.012380303 0.17620182 0.14219914 -0.08726964 -0.061814796 0.058144808
-0.021844417 -0.015627092 0.17015189 0.13370158 0.14403608 0.071616426 -0.13204299 -0.06768369
-0.1532978 -0.08017846 -0.04674053 0.14258006 0.014000088 -0.16188501 -0.037290357 0.11678308
-0.06943476 0.13280794 -0.1666414 -0.0110540595 0.028193377 -0.050044615 -0.17433818 -0.003457011
0.05992115 0.035475675 -0.11376147 -0.11675076 -0.12490259 0.13999967 0.01135555 0.029450525
0.11676037 -0.013961333 0.15215734 0.04811429 0.11908362 -0.16102816 0.12480298 -0.15865059
-0.13841058 0.063584074 -0.088849194 -0.1806449 0.0877998 0.15440868 0.0074582244 -0.080325685
-0.11308637 0.12653029 0.09082661 0.09493766 -0.002842848 0.17230539 0.005228117 0.14548151
-0.1476462 -0.1310391 0.09317087 0.00046022562 0.15668605 0.08783505 -0.0032467104 0.0075908103
0.17000894 -0.07950046 0.0022495121 -0.07431698 0.105064504 0.061665732 -0.15964597 -0.12779471
-0.175185 -0.118878335 0.008925998 -0.056383833 -0.12309228 0.14095671 -0.1519789 0.011982988
0.11102556 0.123306625 -0.09558054 0.16040108 0.01334824 -0.06288407 -0.10926981 -0.020758813
0.08348887 -0.08400558 0.021969043 0.059020385 -0.12739903 -0.08375514 0.040684707 0.008526755
-0.10958073 -0.13340168 0.104756735 0.1377197 -0.07356634 -0.036618937 -0.061805654 -0.086370386

bias f4 [128]
00000000: a0de b03d e9cb eabc af02 333e f32d e0bd
00000010: 01c1 c7bd 9386 923d d81d c63d 38e0 2ebd
00000020: 0839 29bd 0584 d9bc 1425 94bd 8ba6 053d
00000030: 1622 acbd 2cc1 193e b47d 2bbd e288 163e
00000040: 93f0 24bd a75e 81bd d8e1 0c3e 4c75 2c3d
00000050: 26b9 2dbe 4a79 afbd 9c3a 0a3e c387 54bd
00000060: f0b4 16be 1e36 20be fb73 293d 1699 293e
00000070: 6f4c e8bd 31e4 d4bb 1813 263d ab69 1cbd
00000080: b871 003c 7a0b 53bd 9b26 a23d a06b 853d
00000090: 1923 2ebc 42cf 1cbe 625f 063e 15a8 fc3d
000000a0: 8c94 403e 33e7 033d 6488 9e3c ac54 ee3d
000000b0: afcc 94bd c630 42bd 6082 5c3d 9cc1 fd3d
000000c0: 0477 d8bd abd8 efbd ae23 bc3c 935a 1a3a
000000d0: 8e7d b43d d7f0 2ebe 9542 c93d e717 28bc
000000e0: ee3f 17be 00d2 c33d 7dc4 613d 259f b43d
000000f0: 49ef 6dbd 606b 3bbd 1ef2 c1bd c496 983c
00000100: 303e 4ebd 5b87 043e 0263 02be ed2a 35be
00000110: 6cba 3abe 6808 20be 7111 d4bd 7778 59bb
00000120: 164c e03b 634f f83c fae3 f9bd b928 8b3d
00000130: 3237 a33d 6fcf 153d 4594 2ebe ad11 11bd
00000140: 722c 01be a3a9 073e 77a8 eebd 29a8 32be
00000150: 120f 25bd 1cda 303e da0b a63d 9b1f 473d
00000160: 1b45 09be f64e 28be ed3b 78bd 537c b63d
00000170: e3b2 c73c 2bcc dd3d 091e b63d 8faf 0c3e
00000180: 8c3f d03d 3aca 09be 1705 9c3d 60fe 59bd
00000190: a59d 883d cb6b d33d cbd4 1ebe f961 03bd
000001a0: e673 3b3d 43fd fc3b 5fdc e03d 6eed 10be
000001b0: 1185 c93d 3e3d e3bd 3c3d 303a 2aac 5e3c
000001c0: b4f6 1e3d ee07 1e3e 0272 da3c 8eb8 3f3e
000001d0: 97ba 91bc b99c 693d 6922 0cbe 85da 223e
000001e0: 713b 55bd 1af4 0cbe fad1 9b3d ae4b 08be
000001f0: df23 eeb7 73c3 343d d3ac f73d c5bc 293e
0.08636212 -0.028661685 0.17481492 -0.10946264 -0.097536094 0.07154574 0.09673661 -0.0426943
-0.041314155 -0.02655221 -0.072336346 0.03262953 -0.08404939 0.15015095 -0.041867927 0.14700654
-0.040268492 -0.063168816 0.13758028 0.04210405 -0.1696516 -0.08568056 0.1349892 -0.051887285
-0.1471746 -0.15645644 0.041370373 0.16562304 -0.113427036 -0.006496929 0.040545553 -0.03818671
0.007839613 -0.051524617 0.0791752 0.065146685 -0.010628485 -0.15313438 0.13122323 0.123367466
0.18806666 0.03220291 0.019352145 0.11637244 -0.07265603 -0.047409795 0.053835273 0.12390444
-0.105695754 -0.11711248 0.022966232 0.00058881304 0.0881301 -0.1708406 0.09827153 -0.010259605
-0.14770481 0.09561539 0.055119026 0.08819417 -0.05808953 -0.045756698 -0.09470008 0.018626578
-0.050352275 0.12942259 -0.12733081 -0.17692156 -0.18235177 -0.15628207 -0.10354889 -0.0033183375
0.0068450077 0.030311292 -0.12201686 0.067948766 0.07969512 0.036574777 -0.17048748 -0.035417248
-0.12614611 0.13248305 -0.11653226 -0.1744696 -0.040297575 0.17270702 0.08107729 0.048614126
-0.13405268 -0.16436371 -0.060604025 0.08910432 0.024377292 0.108299576 0.088924475 0.13738845
0.101683706 -0.1345605 0.07618158 -0.053221107 0.06670693 0.10323294 -0.15510862 -0.032075856
0.045764826 0.007720621 0.109795325 -0.14153072 0.098398335 -0.110956654 0.0006722992 0.013590852
0.038809493 0.15432712 0.026665691 0.18722746 -0.017789168 0.057034228 -0.13685001 0.15903671
-0.05205864 -0.13764992 0.07608409 -0.1331012 -2.8388515e-05 0.044131707 0.120935105 0.16575916

weight f4 [32]
00000000: e9f5 7f3f af7e 7b3f f2b6 7d3f 0927 843f
00000010: c9dd 7f3f 4b4a 7b3f 4810 793f 9107 7d3f
00000020: 7a28 7b3f 8a1d 793f d4c5 783f 9483 7b3f
00000030: 38ba 7d3f 7239 803f 5996 783f 5626 813f
00000040: a4c7 733f d0ef 823f c62d 813f 978d 7c3f
00000050: 3b7c 773f 242a 773f 7205 7e3f f704 833f
00000060: f3ac 7c3f 0cfd 7c3f 7796 7c3f a0d1 7f3f
00000070: 9b98 7d3f ccac 7e3f bacc 793f 251b 7c3f
0.99984604 0.9824018 0.9910728 1.0324413 0.9994779 0.9816024 0.9729047 0.9883967
0.9810864 0.973107 0.9717686 0.9824765 0.9911227 1.0017531 0.9710441 1.0089824
0.952265 1.0229435 1.0092094 0.9865355 0.96673936 0.96548676 0.9922706 1.023589
0.987014 0.9882362 0.9866709 0.9992924 0.9906098 0.9948242 0.9757801 0.9847892

bias f4 [32]
00000000: 186e 153d 4101 c3bc ed5c 97bd f58a bf3c
00000010: 0a18 42bd c3c0 41bc aa33 9abc be39 343b
00000020: 0bc3 72bd f217 d43c dbe6 bfbc 2b41 f4bc
00000030: c507 2fbd 8872 cabc e194 cb3c e571 603c
00000040: dcb6 8f3c 8f2f a33c 006a 15bc d74d 413d
00000050: bc79 01bd 2df7 80bc 526c df3c ba13 80bc
00000060: 6d3b 0ebd e7db 143b 98a3 c2bc 381e a5bc
00000070: 4804 ffbc 3250 0abc ef85 36bd 18a3 33bc
0.036481947 -0.023804309 -0.07390771 0.02338169 -0.047386207 -0.011825743 -0.018823463 0.0027500237
-0.05926804 0.025890324 -0.02342551 -0.02981623 -0.04273202 -0.024712816 0.024851264 0.01369903
0.017543249 0.019920139 -0.009119511 0.047193374 -0.031610236 -0.015742863 0.02727333 -0.015634406
-0.03472464 0.002271408 -0.023759648 -0.020156011 -0.031129971 -0.008441972 -0.044561323 -0.010964178

running_mean f4 [32]
00000000: 4dc5 4b3d 2a68 173b 94ca 0a3f 0763 893d
00000010: 7040 0c3f 394a ba3e 5741 26bf a3f1 bb3e
00000020: 133a 413d 0d11 b0be b788 abbe 4b43 8abe
00000030: 5f1d 863e d2e7 48be 7090 b63e 1879 31be
00000040: 85d2 c0be c884 1e3f 248e 90be bdcc 1b3f
00000050: a71e 173f 94fb 5c3e 44de afbe e440 25bf
00000060: 848b bcbd 740b 443f f691 673e 33e5 a33d
00000070: 4e33 bf3e bc82 dbbe 2ff8 d53e 6863 6abe
0.049748708 0.0023102858 0.5421536 0.06708341 0.54785824 0.36384752 -0.6494345 0.36707792
0.047174525 -0.3438801 -0.33502743 -0.27004465 0.26194283 -0.19619682 0.35657072 -0.1733135
-0.37660614 0.6192136 -0.28233445 0.6085928 0.59031147 0.21580344 -0.34349263 -0.6455214
-0.09206298 0.76579976 0.22614273 0.08002701 0.3734383 -0.4287318 0.41790912 -0.22889483

running_var f4 [32]
00000000: a24d 7d3c 5d8e 243e 2b1d 193e 71cf 173d
00000010: 418a f83d e003 773d c790 ca3d fc30 9b3d
00000020: f9cb 8c3e 62e8 ce3d d070 8a3d 7fb3 383d
00000030: d8f6 023c 5f74 d13d cbe7 c53d 1b8a fc3d
00000040: d52f 5f3d a4f0 963d 4bf9 de3d 9294 1d3d
00000050: 60a7 c43d a503 093e b92d 0e3d a12e ae3c
00000060: 3587 883d 7739 a23c ab76 1f3e 36b3 883d
00000070: e1eb d23d c332 bc3d 102a 8b3d f5cd e53d
0.015460404 0.16069932 0.14952533 0.037063066 0.12135745 0.06030643 0.09890895 0.075777024
0.2749937 0.10102917 0.067597985 0.045093056 0.007993422 0.10227274 0.096633516 0.12331029
0.054488976 0.07370117 0.108873926 0.038471766 0.09602237 0.13380297 0.034711573 0.021262469
0.06666414 0.019802792 0.15572612 0.06674807 0.102988966 0.091893695 0.06795132 0.11220924

weight f4 [32, 3]
00000000: 521c 1ebf 3e14 383e 95fe c33e e0f3 943e
00000010: 922c 38be 7fbf 80bd c0c1 8a3f db44 01bf
00000020: 1a27 893e b42e a93f 370d e9b8 9f8f e338
00000030: 8b74 29bf e59b 693e 9124 e73e bd18 0f3e
00000040: c354 c43c 828b 0ebe 1da5 923e 8a34 2bbe
00000050: b224 a7bd 9c67 c03e a938 c0be e554 05be
00000060: baac b2be 0d8d 973e 7b13 b93e 1814 54be
00000070: fd8b 813e b752 f33d 8efa 5dbf 9ae7 053f
00000080: dd6e 643e cc1b 0abe f0ec ba3e 687b b0be
00000090: d9de 323f c9d9 8b3e 10e7 d0be 1717 42be
000000a0: c8ca bebe 2792 70be f65a 213f 730a 85be
000000b0: fb56 61be 0584 c8bd 718d 00bf 1105 ff3e
000000c0: a31f 1f3f eecc 58be a7a1 93be fb7c 0d3e
000000d0: d1d1 20bf 46ff 24bc 5d8e 3ebf 3fdc 8abd
000000e0: 5d18 6b3e 9fb8 863f 9d12 6dbb 1b22 7ebe
000000f0: 524e c03e 97d2 e7be 19d7 06bf d693 1ebf
00000100: 9759 fbbe ff2c c13d f795 3ebf a514 743e
00000110: a0c8 173e 5142 60be 64a3 073f dd08 cabd
00000120: 0bf1 88bf 7c34 6cbe e577 423e f66c 363f
00000130: a057 373e fdd5 05bf 9cd9 07bf 33ea 923e
00000140: a89a 183f 0a10 a6bd 9f6f 36bd 3a16 f53e
00000150: 725c c3bd 914c 063f c408 7cbe 0d54 ffbd
00000160: 59f7 763e b579 c83d 69b4 41bf c3f8 ea3e
00000170: 7bde 033f 0f61 573f 9820 eebe 75cf 80be
-0.61761963 0.17976472 0.38280168 0.29092312 -0.17985752 -0.06286525 1.0840378 -0.5049569
0.26787645 1.3217378 -0.00011112767 0.00010850955 -0.66193455 0.22813375 0.45145085 0.1397428
0.023966199 -0.13920406 0.28641596 -0.16719261 -0.08161296 0.37579048 -0.37543228 -0.13020666
-0.34897405 0.295998 0.36147675 -0.2071079 0.25302115 0.11881011 -0.8671044 0.5230652
0.22307916 -0.13487166 0.36508894 -0.34469151 0.6987129 0.27314594 -0.40801287 -0.1895412
-0.37264085 -0.23493253 0.6302942 -0.25984535 -0.22005837 -0.09790806 -0.5021582 0.49808553
0.6215765 -0.21171924 -0.28834268 0.13817208 -0.62820154 -0.010070628 -0.7443598 -0.0678029
0.22958513 1.0525092 -0.0036174424 -0.24817698 0.37559754 -0.45277855 -0.5267196 -0.6194433
-0.4909179 0.094324104 -0.7444758 0.23836 0.14822626 -0.21900298 0.5298369 -0.09864972
-1.069856 -0.23066896 0.18991049 0.7126001 0.1790452 -0.52279645 -0.5306642 0.28694305
0.59610987 -0.08108528 -0.044540044 0.4786852 -0.09539117 0.5246058 -0.24612719 -0.12467203
0.24117793 0.09788839 -0.7566591 0.45892915 0.51511353 0.84132475 -0.46509242 -0.25158277

bias f4 [32]
00000000: 9e47 9a3d 751b f53e fffe 823e c8ca bc3d
00000010: ba90 8c3e 8dce 103e 3340 59be b92b efbe
00000020: bf64 1abe fd1a b3be 8347 bbbe 19e7 a73e
00000030: 3e36 c7be ce72 ac3e b3bc bfbd 24d8 09bf
00000040: 65ba 053f 94d1 443e 4f21 de3e 2690 5f3e
00000050: 5aab 8fbe 1a2d 4d3d 4295 b83e 0251 7a3e
00000060: 8c58 87be 47b6 fd3e 13b8 91be 5b08 993e
00000070: ebc9 6abe faa5 db3d 800f 223e 12e3 a8be
0.07533191 0.4787251 0.25585172 0.09218365 0.27454168 0.14141293 -0.21215896 -0.46713045
-0.15077494 -0.34981528 -0.36577997 0.327935 -0.3890857 0.3368134 -0.093621634 -0.5384543
0.5223754 0.19220573 0.43384787 0.21832332 -0.28060418 0.05009184 0.36051375 0.24444965
-0.26434743 0.4955313 -0.2846075 0.29889187 -0.22928588 0.10725017 0.15826225 -0.3298574

weight f4 [128, 32]
00000000: d7cc af3d b5d4 8f3c f89f f43d ac73 ad3d
00000010: 5fc8 0b3e 6738 3e3c 3cea 243d c139 cd39
00000020: 0a48 3cbd bda0 f93d 0d2f edbd 1388 ed3d
00000030: 5b4b 5bbd a26b eabc 8728 dcbd f0f2 33be
00000040: c4da 763d 9e63 683d 30b2 3ebe 7332 243b
00000050: a504 0abe bab1 e33c 5afe 0abe 263a 1d3d
00000060: c0af 5e3d 1ee0 1f3e ec3e 0bbe 5f32 b03d
00000070: e0f5 21be 118b 0d3e 80f1 493d 9d4c c1bd
00000080: 2432 be3d 0e22 623d e62a 9fbd b08e 323d
00000090: 8385 563d 4629 c9bc d60a dbbd d9e4 7ebd
000000a0: 7c26 2d3e 157c 043e 9d20 05be 9130 3ebe
000000b0: 3a73 fc3d f899 2bbe a8db 2cbe a122 063e
000000c0: f708 023e caba 1ebe b0ee 92bd a925 4e3d
000000d0: 4f26 1e3d 5863 28be 5e0b 95bd 662a a6bd
000000e0: 5507 ef3d 641c a5bd 1e53 b93d acae 8bbc
000000f0: 2d03 1abe 4807 3dbd 72df 4e3d 6b05 18bd
00000100: 36dc b53a 36e5 cebd 4fc7 7e3d 4a50 563e
00000110: 652a 893d 4ae1 a3bb d02c 0bbe dc6b a33d
00000120: 7a72 74bd 9af2 4dbe c92f 9b3d 333f 213e
00000130: 259e cfbc 735e d8bc 0afe f53d 9458 fe3d
00000140: 7f2b 293e 0df4 343e 0722 183e b8a6 23be
00000150: 6456 56bd 097b 0bbe 5c68 5b3b 97e3 403d
00000160: d87a 7dbd 1338 bf3d b635 2ebd 98c4 163e
00000170: b5cc af3d 308e b23d d336 0d3e 3f98 913d
00000180: 0929 b73d 3581 43bd 8410 2f3e b58a 26be
00000190: ff90 2bbe b785 12be 8182 21be 10a2 95bd
000001a0: 2046 a6bd 1560 c13d d685 85bd e8c9 0f3d
000001b0: c3e4 3ebd c488 ae3b 6da8 cabd 2506 cdbd
000001c0: 178c 043e 1a86 fd3d ecfa 283e b76f 943d
000001d0: cc73 a33b cd16 b03d 9cae 143e 6e1d 983d
000001e0: b943 4d3c 4694 0bbe ada0 183e 0b10 483d
000001f0: 9c02 01be 2de1 35be 4134 8bbd 17fb 1d3e
00000200: 5bf1 0fbe 3159 013e 7d99 103e c6e3 a53d
00000210: 8fe7 5abd 172b 44bd 2591 7bbd 27a9 e03c
00000220: d457 b03d 827a 3ebe 1170 0fbe b385 1fbe
00000230: e820 7d3d c470 433d ea16 fa3d 3c68 06be
00000240: 34f5 3abe c61a efbd 7824 233e 7b20 bcbd
00000250: 78d1 b2bd f019 343e 2561 403d bad5 953c
00000260: 2aea 093c 5c42 0bbe f5dc 28be e2b7 b23c
00000270: 5185 f2bd f579 dd3d 178d 173e c9bb 333d
00000280: 86da cabd 4a66 a53d 5054 2d3e 1297 3f3e
00000290: 244b 053d 9986 113b 79c9 9fba cfcc 16bd
000002a0: 4509 ffbc 0461 04ba d02b f3bd 9c8a dcbd
000002b0: 9916 233d 909f 023d a66b 103e 5d73 e4bd
000002c0: e567 45bd d5c0 fa3d eaa2 203e 5d40 0e3d
000002d0: 7dab 28be 0ca8 273d 90a3 93b9 8e61 02be
000002e0: 7b16 b6bd b02b f2bd be07 193e f6fe 08be
000002f0: 40e9 fbbd 4234 fe3d 0587 1ebc 1670 92bc
00000300: fb64 fd3d 09d1 b3bc 8ab8 25be 855f 373e
00000310: 4feb 8f3c e81a e83d 8ebd 9ebd e4b9 39bd
00000320: efa5 9abc f2e2 3a3d 1dd6 75bd d59d fcbd
00000330: d2aa a83b 2dc9 c6bd afec 2dbd c1dc 91bd
00000340: 5a11 9fbd cf5e a6bd 261e 0b3d a016 b03d
00000350: 974d 093c 480a ee3d 8c72 fabd 2eea 12be
00000360: 3b3d 983d 6153 a3bd e063 2fbc 38a3 ca3c
00000370: 4fcd ef3c 2b91 e9bd e514 023e 0c5f d33d
00000380: 2121 e5bd b2ad 03be 2def 84bd 9b60 e53d
00000390: 026e 0e3d c4a1 8cbd eef6 09be 0832 14be
000003a0: 385c 9dbd 886a b5bd 3492 e4bd 98af a2bc
000003b0: 082d 8ebd 8273 93bd c7c9 f43b 9c56 1d3e
000003c0: b0a1 a5bd 56c9 13be 7de9 ddbd b81c 0c3d
000003d0: d2fe 363c d996 62bd 7265 a63c 3fee 9abb
000003e0: 81f0 90bd 67d4 57bd 3f59 fabb 14d5 68bb
000003f0: 7f5a f1bd 31cd bfba 4baf eb3d b235 253e
0.08583992 0.017557481 0.11944574 0.08469328 0.13650654 0.011610127 0.040262446 0.00039143677
-0.04596714 0.121888615 -0.1158124 0.1159822 -0.05353866 -0.028615776 -0.107499175 -0.17573142
0.060267225 0.056735627 -0.1862266 0.0025054484 -0.13478334 0.027794708 -0.1357359 0.038385533
0.054366827 0.15612838 -0.13598222 0.086033575 -0.1581645 0.13822581 0.049302578 -0.09438441
0.09286907 0.05520826 -0.07771854 0.04359311 0.05237342 -0.024555814 -0.10695426 -0.062229965
0.16909212 0.12937959 -0.13000722 -0.18573214 0.12326665 -0.16757953 -0.16880667 0.13099147
0.12698732 -0.15500942 -0.07174432 0.050328884 0.038610753 -0.16444147 -0.07277559 -0.081135556
0.1167132 -0.08062056 0.090490565 -0.017051063 -0.15040274 -0.046149522 0.050506063 -0.037114542
0.0013874832 -0.10102312 0.062201794 0.20929065 0.06697539 -0.005001222 -0.13591313 0.07979557
-0.059679486 -0.20112076 0.07577474 0.15746765 -0.025343964 -0.026412224 0.12011345 0.12419239
0.16520499 0.17671223 0.1485673 -0.15981567 -0.052328482 -0.13621153 0.003347895 0.047092047
-0.06188473 0.09336867 -0.04253169 0.14723432 0.08583967 0.08718526 0.13790445 0.07109117
0.08943374 -0.047730643 0.17096144 -0.1626385 -0.1675453 -0.1430882 -0.1577244 -0.073063016
-0.08118844 0.09442154 -0.06519668 0.035104662 -0.046604883 0.0053263623 -0.09895406 -0.100109376
0.12944065 0.123790935 0.16501969 0.072478704 0.0049881693 0.08598099 0.14519733 0.07427488
0.012528353 -0.1363078 0.14905043 0.048843425 -0.12598652 -0.17761679 -0.06797076 0.15427814
-0.14056914 0.1263168 0.14121051 0.08100085 -0.053443488 -0.047892656 -0.061417717 0.027424408
0.08610502 -0.1860142 -0.14007594 -0.15578346 0.06179896 0.047714964 0.12211402 -0.131257
-0.182576 -0.116750285 0.1593188 -0.09185883 -0.08731359 0.1758802 0.046967644 0.01829039
0.0084176455 -0.13599533 -0.16490538 0.021816198 -0.11841834 0.10814277 0.14799915 0.043880258
-0.09904961 0.08076151 0.16926694 0.18709973 0.032542363 0.002220547 -0.0012190781 -0.036816414
-0.03113235 -0.0005049857 -0.11873591 -0.10768625 0.039816473 0.031890452 0.14103565 -0.11154816
-0.048194785 0.12243811 0.15687147 0.03472935 -0.16471668 0.040931746 -0.00028159888 -0.12732527
-0.088910066 -0.11824739 0.1494436 -0.1337851 -0.12300348 0.12412311 -0.009675746 -0.017875712
0.12372776 -0.021950262 -0.16183677 0.17907532 0.017568259 0.11333257 -0.077509984 -0.045343295
-0.018877951 0.04562659 -0.060018647 -0.123347916 0.0051473165 -0.0970634 -0.042462047 -0.071221836
-0.077669814 -0.08123552 0.0339643 0.085980654 0.008380315 0.11623055 -0.12228879 -0.14347145
0.07433554 -0.07974888 -0.010704964 0.024736032 0.029272703 -0.11404642 0.12703283 0.10320863
-0.111879595 -0.12859228 -0.06490932 0.11200067 0.03477288 -0.06866792 -0.13473102 -0.1447221
-0.07683605 -0.0885821 -0.111606985 -0.01985912 -0.06942183 -0.07199766 0.007470343 0.1536507
-0.0808748 -0.14432272 -0.1083555 0.034207076 0.011169152 -0.05531964 0.020312045 -0.004728108
-0.070771225 -0.052692797 -0.0076400335 -0.0035527395 -0.11784839 -0.0014633295 0.11508044 0.16133764

bias f4 [128]
00000000: 012b 5ebd 43b5 ee3d 07c9 363d 5403 9cbc
00000010: 7001 03be 2534 a1bd 5f11 23be 4866 10be
00000020: 3841 55bd ad1c 97bd 5ed9 16be f1ab 013d
00000030: ffcb bc3d 5a50 473d d6c0 a5bb 0f98 3bbd
00000040: 6725 51bc b92b 2f3d 817e c2bd 9a0e d2bd
00000050: 1f25 1f3e 6046 9b3d 9f3b b1bc 60c1 d5bd
00000060: 554d 663d 52e7 293e 5df6 31bd f717 843d
00000070: 85f2 aa3c e772 f43c 4bf5 b63c 014e 213e
00000080: 00e5 0cbd 5638 2abe 1a69 433d 577c 96bd
00000090: 21a9 0c3e 8cac 20be 2414 023e aa2e 433e
000000a0: e6fb f43d a64e 98bd ceec 9f3d de46 13bb
000000b0: 7962 133d b103 df3c 83a4 38bd 6f11 a1bd
000000c0: 0321 2dbe 474d a53c e90f e33d 6469 e83d
000000d0: 43c5 e9bd a2c9 4fbd d5bb 453d bcb2 283e
000000e0: 9057 413e 0fc2 be3d 1708 4ebe 5a88 473d
000000f0: f101 b8bb 092b fdbd 43f3 59bd 3d21 cebd
00000100: aa13 253d 9416 623d a5e6 da3d 203e acbd
00000110: b9f7 843b 2382 183e 7f78 8f3d aa0a d6bd
00000120: 7b1b b13d 391c cfbd 258b 793d f11b 18be
00000130: 187d 013e c9fc 27be 328a 59bd 07ca 263e
00000140: c2d2 edbd fbea 29be fffb 87bd 4ef8 9a3d
00000150: 5c4d 4dbe 7b73 103e 4d59 debd cad6 46bd
00000160: feaa d33d 9e0c b5bd bc45 db3c 2082 1cbe
00000170: b86e 4f3e 1e0e 0b3e f43d 36bd b74c 66bd
00000180: 3922 72bc 789f bc3d b2ba 203d f6ff 413d
00000190: 80be 38bd 9beb 49bd 2e43 00be 9002 3bbe
000001a0: 5b94 893a f94b 15be 2016 c9bd 6e65 7c3d
000001b0: f316 5abd 4cb5 333d 571f 0bbe b580 a3bd
000001c0: d182 943d a955 a23d b156 b53d a183 d8bd
000001d0: 6d41 ebbd 2ffc c2bc a18f 88bc 8c08 de3d
000001e0: 11a8 a33d 3f93 90bd 2048 54be 5784 c93d
000001f0: a398 ae3d 42b2 73bb 3d0c 04bd c6cd 193e
-0.05424023 0.11655667 0.04462531 -0.019044556 -0.12793517 -0.07871274 -0.15924595 -0.14101517
-0.05206415 -0.07378516 -0.14731357 0.031658117 0.09218597 0.048660614 -0.005058388 -0.04579931
-0.012765265 0.042766307 -0.09496785 -0.10256691 0.15541504 0.07581782 -0.021634875 -0.10437274
0.056226093 0.16592148 -0.04344784 0.064498834 0.020867595 0.029839946 0.022333762 0.15752412
-0.03439808 -0.16623053 0.047707655 -0.07347935 0.13736393 -0.15690821 0.12702996 0.1906077
0.11962108 -0.07436876 0.07808839 -0.002247266 0.035982583 0.02722344 -0.045078766 -0.07864653
-0.16907124 0.02017845 0.11087019 0.11348227 -0.11414578 -0.0507294 0.048274834 0.16474432
0.18881059 0.093143575 -0.20120274 0.04871402 -0.005615466 -0.12361724 -0.053210508 -0.100649334
0.040301956 0.055197313 0.10688523 -0.08410287 0.004057851 0.14893393 0.07005405 -0.10451253
0.086478196 -0.10112805 0.060923714 -0.14854409 0.12645376 -0.16405024 -0.05311031 0.16288005
-0.116124645 -0.16593544 -0.06639861 0.075668916 -0.20049042 0.14106552 -0.108568765 -0.048544683
0.103353485 -0.08840297 0.02676665 -0.15284014 0.2025708 0.13579604 -0.044492677 -0.056225505
-0.014778667 0.09210104 0.039240547 0.047363244 -0.04510355 -0.049296957 -0.12525627 -0.18262696
0.0010496484 -0.14579763 -0.09818673 0.06162017 -0.053244542 0.04387407 -0.13586174 -0.07983533
0.07251514 0.07926495 0.08854426 -0.10571981 -0.11487088 -0.023801891 -0.01667005 0.10841474
0.079910405 -0.07059335 -0.20730639 0.09839695 0.08525207 -0.0037185107 -0.032238234 0.15019903

weight f4 [32]
00000000: 4c23 763f 183e 713f 1af5 763f d799 8d3f
00000010: 8dfc 703f bbe9 773f 2f38 6d3f 2f0c 7f3f
00000020: 6cf7 733f c802 6f3f 6e9e 773f 3b80 793f
00000030: 7bb7 7c3f 1adf 763f f968 723f f33b 703f
00000040: 5107 723f 074d 753f f35c 7c3f d995 713f
00000050: 9ec0 813f 3bb8 743f 12d8 7e3f af42 7a3f
00000060: de3e 793f 4c67 733f 5a9f 7d3f f43e 813f
00000070: 3731 813f de72 7a3f 489e 733f 81ec 803f
0.9614761 0.9423537 0.96467745 1.1062573 0.9413536 0.9684102 0.92663854 0.99627966
0.9529941 0.9336362 0.9672612 0.9746129 0.9871747 0.96434176 0.94691426 0.93841475
0.94542414 0.9582066 0.9857933 0.94369274 1.0136907 0.95593613 0.9954845 0.97758
0.9736155 0.95079494 0.99071276 1.0097337 1.0093144 0.97831523 0.95163393 1.0072175

bias f4 [32]
00000000: 2be3 a0bb 0290 8ebd 7f7d 22bd 2867 963e
00000010: ee4d 4fbd d174 553c a497 053b 799c 0c3d
00000020: df9e 59bd 804f 56bb 4c53 2f3d 720c 01be
00000030: dc9d 3bbb b1d8 243b b492 023c ae24 d7bd
00000040: eb20 953b 237c 21bd ef68 e73a f66f 18bc
00000050: 7831 0f3d cc91 d7bb 3d35 2a3d 78c7 babc
00000060: ad56 1cbd db89 f43a d4d9 bd3c 0744 90bb
00000070: fac6 0b3b 7b90 aa3d 5c35 3cbd b243 323d
-0.004909893 -0.06961061 -0.039670464 0.29375577 -0.05061143 0.0130283395 0.0020384574 0.03432891
-0.053130027 -0.0032701194 0.042804047 -0.12602404 -0.0028628027 0.0025153572 0.007969547 -0.10505043
0.0045510433 -0.039425027 0.0017655174 -0.009304037 0.034959286 -0.0065786596 0.04155468 -0.022800192
-0.038168598 0.0018656807 0.023175158 -0.0044026407 0.0021328316 0.08328339 -0.045949325 0.04352159

running_mean f4 [32]
00000000: 3675 9e3f 3246 913f bbd8 9340 8f6c bd3d
00000010: a30f c73f b2dd 48bf a1c1 873e 701a 683f
00000020: cc5b 743e ff9e 8cbf babe 02c0 aadc 6bc0
00000030: 99d4 87c0 40ec 8c3f e2a2 f43d fec7 a340
00000040: 1a7c 9a3d 560a 6b40 58a7 0740 d6e1 95bf
00000050: 352a 39bf 4062 5640 a2eb 0dbe 9622 53c0
00000060: c03d 0740 1dde 5ec0 4a43 be3f ab35 5140
00000070: f097 92c0 d14c 31bf 2855 003f 8d1d 5c3f
1.237952 1.1349547 4.6202064 0.092492215 1.5551647 -0.7846328 0.26514915 0.9066534
0.23863143 -1.0986022 -2.042891 -3.6853433 -4.244702 1.1009598 0.1194513 5.118163
0.07543202 3.6725059 2.1195889 -1.1709545 -0.7233003 3.3497467 -0.13859418 -3.298986
2.113144 -3.4823067 1.4864285 3.2689006 -4.581047 -0.6925784 0.5012994 0.8598259

running_var f4 [32]
00000000: 0a40 8041 3255 3640 d8e7 4a41 914a 7c38
00000010: 800e b941 29e3 993f b3f3 3940 81ee 4541
00000020: e80e a341 ac41 d040 6650 d341 a044 1341
00000030: 8833 1d41 7db2 8841 8530 2a41 43f3 9241
00000040: e0b5 3e41 94fc bf41 2c1b 4540 0b40 8b40
00000050: b32b 3442 e743 4741 2a7c dd40 d40d 6941
00000060: e895 4f40 0cd2 7b41 6264 1d42 a0ab 6e41
00000070: f755 5741 4946 af40 dbac 3142 d393 bf41
16.03127 2.84895 12.6816025 6.0150927e-05 23.13208 1.2022449 2.9054992 12.3707285
20.382278 6.5080166 26.414257 9.204254 9.825081 17.087152 10.636846 18.36878
11.919403 23.99833 3.0797834 4.3515677 45.042675 12.454078 6.9214067 14.565876
3.2435246 15.738781 39.34803 14.916901 13.4584875 5.4773297 44.418804 23.94718

weight f4 [32, 136]
00000000: 2d26 873d 5d48 94bd 6bab b43d eb7b aabb
00000010: b617 8ebc f33b 7b3d a09c 7e3c 39e6 653d
00000020: e629 89bd 10ef ccbd 8bfa b13b 6938 063d
00000030: f2b6 45bd 4265 a23c 5c6c 6abc 3e57 37bb
00000040: b0f9 83bc 5d77 b9bd 75d0 3cbd 43d8 973c
00000050: 8633 bcbb bea0 e43c 93c6 113d c657 69bc
00000060: f578 78bd 3518 293d 0216 e03c ebac 803c
00000070: 40d7 3c3d 9394 1dbd 1c4a 2abd d282 263d
00000080: 3264 74bd b874 f43b f83e babc 7f5b 2ebd
00000090: 898a 49bd b90e 35bc 5d9d 023d 532d 47bd
000000a0: fa89 953d d5c2 15bd abe6 bd3d 9ea2 d23a
000000b0: cdb3 c33c 741f 9cbd 0f71 36bd d527 7cbd
000000c0: b781 2a3d eb49 d7bd 8af7 3f3b d57d 153d
000000d0: c8aa a2bd 4d63 06bd 4d8c 8a3c 3968 893d
000000e0: 2801 a23d 40cf aebb 59ee bdbb 1b4a 8d3d
000000f0: 5cc1 e3bb 99eb 773b 42a6 5dbd 0e5c 56bd
00000100: 4da1 633d 845f d8bc f094 dfbc 6275 a23d
00000110: c2ff 50bc e6eb 8abd 6dd3 e4ba 73df a93d
00000120: 6cae 293d 5e8d e83c 4ec3 38bd c6ca 92bd
00000130: 141b 0b3c e6ae 743c a917 113d 46ae ac3c
00000140: fd03 de3c deaa a83d 9641 38bd 2088 083d
00000150: 030f 7dbd 1e7d 2a3d 106c 84bc 10cd ab3d
00000160: 4914 2e3d 968f a4bd fa3e a33c 905a d7bd
00000170: 1203 463d f723 473d 0294 a23d 4fed 843d
00000180: af49 82bd 2898 c8bc a7d7 423d 138a ab3c
00000190: 0a29 7b3d c91d d93d 4ac1 633d 6cd8 823d
000001a0: 54cf f93b 6f0a d4bd b44d 53bd a4e3 28bd
000001b0: 802a ba3d b2d7 b4bd 3757 b63d a97c 01bd
000001c0: a7d6 6bbc ac02 f7bc 2737 223d 72e7 00bd
000001d0: d1fa 8dbc f71f f1bc 67a2 a13d 39a7 593c
000001e0: a77f 2e3d cac9 983c 3588 40bc c1a0 083d
000001f0: 2382 ca3c 7d7f 923d e405 ce3d f1a3 84bd
00000200: efa3 55bd a985 f73c 38cc c8bd 00c6 b83b
00000210: acf7 5ebd 2b72 4a3d 71ae 533c e6b1 d83c
00000220: 3c35 c6ba 4749 9ebd 5947 2bbd c11c a63d
00000230: 460a daba c552 693c 3c75 b7bb 3ec5 743d
00000240: 1a80 95bd b3ee 81bd 8470 54bd 0471 483d
00000250: e0bf 4c3d 7db4 84bc d29e 00bd f24c 71bd
00000260: ce94 36bd 9b94 313c cd95 a2bc 63fb 573d
00000270: 8a05 a63c 6561 963c a6f6 b9bc de4f 8a3d
00000280: 6d61 abbd c564 46bd 9210 a3bd bb51 ad3c
00000290: 9b57 3ebd 0c9f 5838 3460 d33d fbfd f83b
000002a0: 257b 49bc a8ad a93d 463b 76bd 6aaf 4d3d
000002b0: 70bb 3cbd 2190 9ebc e485 7f3d 0184 87bd
000002c0: f50f 823d e898 6c3d a768 be3c 0ad2 493d
000002d0: b920 373d 286e 9b3d 2a02 8fbd 787f 7ebd
000002e0: 8544 e7bb 9cd5 b1bc f649 6b3c 7458 9cbd
000002f0: 6a10 ec3b 7ef3 8bba 3e5f 5ebd 042a d438
00000300: fbdb 48bd eb62 0c3d 9eda 7d3d 489f 683d
00000310: 2dc1 9abd 47df 7bbd 804a 913d 342a 913d
00000320: 3b8a 4c3d 4f12 c4b9 d5c4 0c3c d2b6 033d
00000330: 7385 ac3d 81ec 80bc 0ca4 b2bb 89f7 113c
00000340: 11f0 0cbc 219a 0dbd 9cb6 a73d d274 22bd
00000350: 452a d03d 7eec ba3d 7679 43bd 290c 91bd
00000360: 21b4 49bd 32b4 9c3c ab12 ea3c 18c1 be3c
00000370: 1647 483d 5bdf 2bbd 1dde b3bd 4764 f13c
00000380: 9ce7 ff3c 3693 9abd 43d7 d2bd 2a53 b7bc
00000390: 516c 923c 7ed6 b1bd f5e4 6e3c 8bdd 3abd
000003a0: c894 6cbd c25b 973b ec95 f43c ac96 1fbd
000003b0: 86a6 b4bc c778 3d3d 660d 6ebd 72f3 62bd
000003c0: 7645 8abd df3a 843d a071 573d 4b2c 233d
000003d0: 79c7 893d 9dc7 c439 9b23 06bd 2eca 6d3d
000003e0: 94cc 25bc b9a3 98bc 7274 ebbb 53ca 5abd
000003f0: 327e 1fbc 91c9 23bd 3e79 3dbd a500 133d
0.06599078 -0.07240365 0.08821758 -0.0052027605 -0.01734529 0.06133647 0.015540272 0.05612776
-0.066974446 -0.10006535 0.0054314784 0.03276864 -0.048270173 0.019823674 -0.014308061 -0.0027975584
-0.016110271 -0.0905597 -0.046097238 0.018535739 -0.0057434468 0.02790868 0.035589766 -0.014242118
-0.06066223 0.04128285 0.027354244 0.015707454 0.046103716 -0.03847177 -0.041574582 0.040652104
-0.059665866 0.007460203 -0.022735104 -0.042567726 -0.049204383 -0.011050873 0.031888355 -0.04862721
0.073017076 -0.03656276 0.09272512 0.0016070192 0.023889447 -0.07623187 -0.044541415 -0.061561424
0.041627612 -0.105121456 0.0029291832 0.036496956 -0.0794273 -0.032809544 0.016912604 0.06709332
0.07910377 -0.0053347647 -0.0057962355 0.068989 -0.0069505405 0.0037829636 -0.054113634 -0.052333884
0.05557375 -0.026412733 -0.027292699 0.07932545 -0.01275629 -0.06783275 -0.0017458029 0.08294573
0.041426107 0.028387722 -0.045108132 -0.07167582 0.008490343 0.014934277 0.035422955 0.021079194
0.027101511 0.08235715 -0.044984423 0.033332944 -0.061781894 0.041623227 -0.01616481 0.08388722
0.042499814 -0.08035199 0.01992749 -0.1051532 0.04834277 0.048618283 0.079383865 0.064905755
-0.0636171 -0.024486616 0.047568943 0.020939862 0.061318435 0.10601384 0.055604257 0.063889354
0.0076235924 -0.103535526 -0.051587775 -0.04123272 0.090901375 -0.08830203 0.08903354 -0.031613026
-0.014394439 -0.030152641 0.03960338 -0.031470723 -0.017331513 -0.029434187 0.07892304 0.013284498
0.042602208 0.018650908 -0.011751224 0.033356432 0.024720257 0.07153223 0.10059717 -0.06476582
-0.052158292 0.030215101 -0.09804577 0.005638838 -0.054435417 0.049425285 0.012920008 0.026452016
-0.0015122066 -0.0772882 -0.04181609 0.08110953 -0.0016635142 0.014240925 -0.005598692 0.059758417
-0.07299824 -0.063443564 -0.051865116 0.048935905 0.049987674 -0.016199345 -0.031401463 -0.05891127
-0.044575505 0.010838653 -0.019846821 0.052729975 0.020266313 0.018356988 -0.022700619 0.06753515
-0.08368192 -0.048435945 -0.07962145 0.021157136 -0.046470266 5.1646537e-05 0.10321084 0.007598636
-0.012297426 0.082850754 -0.06011512 0.050216116 -0.04607719 -0.019355835 0.062383547 -0.066169746
0.063507 0.05776301 0.023243262 0.049272574 0.04470894 0.0758937 -0.06982835 -0.062133282
-0.0070577287 -0.021708302 0.014360895 -0.076340586 0.007204105 -0.0010677425 -0.05429005 0.00010116774
-0.049037915 0.034274023 0.061976068 0.056792527 -0.075563766 -0.06149223 0.07094288 0.07088128
0.049936514 -0.00037397674 0.00859185 0.032156773 0.08423891 -0.015737774 -0.005451685 0.008909115
-0.008602158 -0.034570817 0.08189127 -0.03966219 0.10164312 0.091271386 -0.047723256 -0.070823975
-0.04924405 0.019128893 0.028573355 0.023285434 0.048895918 -0.041961055 -0.08782599 0.029466761
0.03123837 -0.075476095 -0.10294964 -0.022378523 0.017873915 -0.08683489 0.014580955 -0.045621436
-0.057759076 0.0046190927 0.029856645 -0.03896205 -0.02205206 0.04625776 -0.058118246 -0.05540795
-0.0675153 0.06456541 0.052598596 0.039837163 0.067274995 0.00037532757 -0.0327488 0.05805414
-0.010119576 -0.018632757 -0.007185512 -0.053415608 -0.009734677 -0.03998715 -0.046258204 0.035889287

bias f4 [32]
00000000: 65b9 7b3d ebe7 1b3d 8041 a1bc c0f6 a7bd
00000010: 8a6a acbd 3953 b4bc 2f16 24bd f3e7 8a3c
00000020: 37e2 04bd ac2a 363d 1c0a 323d fe1d 5fbd
00000030: 791a 8d3d 5b42 973c 4438 8e3d 5480 c93c
00000040: c7cd 4abc a098 623d d9f5 663d ffd4 6abd
00000050: 4668 a03d 44cf 8fbc 11a5 55bd 7cb9 c0bd
00000060: e1e2 e3bc ce8f 683d a476 c83d dc03 43bc
00000070: b64d f8bb 0857 1d3d 8849 a93d fdcf d7bc
0.061456103 0.03806297 -0.019684553 -0.08201361 -0.08418758 -0.02201234 -0.04006022 0.016956305
-0.032442298 0.04447429 0.043466672 -0.054471962 0.06889815 0.018464258 0.069443256 0.024597324
-0.012378163 0.055321336 0.056386802 -0.057332035 0.078323886 -0.017554887 -0.052159373 -0.09410378
-0.027818145 0.056777768 0.09788254 -0.011902776 -0.0075776232 0.038413078 0.08265978 -0.026344294

weight f4 [8, 32]
00000000: 0097 e2bd cb91 c83d 0ccb c3bc d053 13be
00000010: f43c c3bc 19bf e23d 42fa dd3c ad33 f3bd
00000020: 2a28 353e f39c a3bd 9484 b8bd fa56 233e
00000030: 36cd 89bc 1267 7ebc df0b 47bc c32e fbbd
00000040: da38 31be a829 d43d 2fe5 e63c 00dd c2bd
00000050: ef7b 943a 249b dcbc 79a8 b0bc 65b4 05be
00000060: cc7c d33d 7120 f53d c1bb 05bd d5a5 2f3e
00000070: 4789 dc3d 42ef 24be 28e3 323d d0ac 06bd
00000080: c160 593e 41b9 da3d e616 5e3c e8d0 b3bd
00000090: 66cf e03b d035 3fbd 739a 6d3d 08aa d63d
000000a0: c70d efbd 9252 223d ce1b 7ebc dd5b 2bbe
000000b0: 7533 193e a508 f63d 06df 1a3d 680f ea3d
000000c0: cf08 ce3d 3863 dabd bdb7 353d ab58 2b3e
000000d0: a29d fcbc 75bf e6bd fcd9 39be 8dea 03bd
000000e0: 8d0e 813d 4f4d a43d 6eff d03c d4a9 26bc
000000f0: 2133 e63d 0cd7 5cbc b3de d4bd 2a4c b83d
00000100: b1ce 093e 86ac d33d 690f 26be 089b 2c3e
00000110: e413 1bbd 5bd5 fabd 9485 70bd 3721 213e
00000120: 32d0 263d 80e3 eebd 4fe0 abbd febc 993d
00000130: 68be b6bd a473 223e 52fb 6c3d 7989 5ebd
00000140: 6e3a db3d c74d e1bc 1fbb 07bd 5bf6 c03d
00000150: 9452 be3d 0e8b da3d 428a d23d 0f1b 87bd
00000160: 462b 273c b0d6 863d b3f1 8abd fb83 a8bd
00000170: fab0 06bd 55de 17be 9b4f b7bb 0b28 ed3d
00000180: bac9 3b3e 7c01 c33d 135e 3bbe db3f e23d
00000190: d1e1 91bd d145 e6bd e158 443d 356e 2d3e
000001a0: 2e3d e03d 3ee6 cdbb 180b 593d d213 4abd
000001b0: 1602 d8bd 10f5 55bd 0032 28be 8647 193d
000001c0: 6ab3 d4bd c643 443e 96a0 be3c 6a69 2cbe
000001d0: 6f7b 17bd dbfb c33d a365 563d 8bc9 64bc
000001e0: d799 d2bd b20f a4bd 904f eb3c 6172 e43b
000001f0: 552a d73c e1e8 91bd c205 bcbd 0583 933d
00000200: 40a0 3b3e 177b 0cbe 221b b53d 6506 d73d
00000210: 8ee2 363e 5cf3 363e 14b8 433c b730 0d3e
00000220: 28af 00be 08a6 1cbe 9876 83bd 63f7 dabc
00000230: 7bb4 413b 3865 16bc dccb d43d 9d5f d4bd
00000240: ad47 f63b 6c63 2d3e 7a4f a4bd 865b 8bbd
00000250: 22b6 193d 0490 613d 4998 35be 054c 17be
00000260: f1f5 1dbe 6fca c63d a415 d8bc 2eb5 31be
00000270: 59cb 4f3c a59f 07be b80c 8ebd 02a4 db3d
00000280: 4494 28be d41c b7bc 8516 ebbd 81d9 193b
00000290: 2cd4 003e 4b1e 0fbe d915 4b3d 608d 9c3b
000002a0: 38b2 1dbe c9cb 1e3e 5862 1a3e b084 173b
000002b0: 56c7 3abe 87ad 113e 94cc 82bb cfec c13d
000002c0: 43ab 1e3e 38f2 08be f15a 863d ec65 0fbd
000002d0: d051 b73d 8a60 8dbd 53b1 c5bd 2c9a 3d3e
000002e0: e448 43be 24f3 ad3d 1652 36be 12f8 2fbe
000002f0: 2b2f b93d 801b a93d d71d 9cbd 38bc 27be
00000300: e7b1 06be a30f 3e3e 4d73 4e3d eee9 71bd
00000310: c9eb 30bd 9b0f 0fbe 2ad2 103d df2a 0ebe
00000320: 3449 19be c3dd 35bd 817a 44be 6cef 09be
00000330: 969e a23d 8ded 65bd 641e c8bd d09d 08bd
00000340: a928 863d 3a06 af3b 02fe be3d 8c47 f53d
00000350: 9440 d23d 501e 0abe 5b6f 433e 654a 2e3e
00000360: 0fae 243d ffcd f5bd bcac 68bc 9c0c 17be
00000370: e829 443e 5f07 023b 207f bc3d eaa1 2b3d
00000380: 0ab0 21bd 9f55 ebbd 337a 14be 93a0 063e
00000390: 4673 6dbc 8e3a ccbd f746 2bbe 8aa6 4e3c
000003a0: d7bb cbbd c914 123e 50ff 183e c1ff dbbd
000003b0: ef54 a4bd c1f7 783c 5ddc d63d a85b 4f3c
000003c0: 370d 473e 71a5 203e 6b04 4d3d 22f1 08bd
000003d0: 84ba eabd a425 f73c be74 b93c 8cdc 373d
000003e0: e9f6 eebd cca2 0abe 7eb0 80bb 9365 ce3d
000003f0: 7927 d3bd 7177 50bd 5e68 5a3d 1f87 2abe
-0.11063957 0.09793433 -0.023900531 -0.1438744 -0.023832776 0.11071605 0.027096871 -0.11875091
0.17691103 -0.0798892 -0.09009662 0.15951148 -0.016821485 -0.015527504 -0.012148826 -0.122647785
-0.17306843 0.10359508 0.028185455 -0.09514809 0.0011328439 -0.026929446 -0.021564709 -0.13057096
0.103265375 0.11969078 -0.03264976 0.17153104 0.10768371 -0.16106895 0.043673664 -0.03287965
0.21228315 0.10679866 0.013555264 -0.0878008 0.0068606613 -0.04668218 0.058008622 0.1048165
-0.1167255 0.039629526 -0.015509559 -0.16734262 0.14961036 0.120133676 0.037810348 0.1142872
0.10060274 -0.10663456 0.04436468 0.16733043 -0.030836884 -0.11266986 -0.1814956 -0.032206107
0.063016035 0.08022558 0.025512423 -0.010172326 0.11240221 -0.013479006 -0.10394039 0.08998902
0.13457753 0.103356406 -0.16216816 0.16856015 -0.037860766 -0.122477256 -0.05872114 0.15735327
0.040725894 -0.11664486 -0.08392393 0.075067505 -0.08923036 0.15864426 0.057856865 -0.054330323
0.10704504 -0.027502907 -0.033137437 0.094219886 0.09293094 0.10671054 0.10280277 -0.06596958
0.010203188 0.06583917 -0.06784382 -0.08228298 -0.03288362 -0.14830907 -0.0055942065 0.11579903
0.18338671 0.095217675 -0.18297605 0.11047336 -0.07123149 -0.11243785 0.047936324 0.16936572
0.10949169 -0.0062835505 0.052989095 -0.04933531 -0.10547273 -0.052235663 -0.16425323 0.037421726
-0.10385783 0.19166479 0.023269933 -0.16837087 -0.03698295 0.09569522 0.052343022 -0.013964067
-0.10283249 -0.08010806 0.028724462 0.006971643 0.026265303 -0.07124496 -0.09180786 0.07202724
0.1832285 -0.1371883 0.08843066 0.104992665 0.17859861 0.17866272 0.011945743 0.13788114
-0.12566817 -0.15297711 -0.06419104 -0.026729291 0.0029557038 -0.009179406 0.103904456 -0.10369799
0.0075158686 0.16932458 -0.080229715 -0.06804566 0.03752721 0.055068985 -0.17733873 -0.14775093
-0.1542585 0.0970658 -0.026377507 -0.17354271 0.012682759 -0.13244493 -0.0693602 0.107246414
-0.16462809 -0.022352614 -0.11478905 0.002347559 0.12580937 -0.139764 0.049581382 0.0047775954
-0.15400016 0.15507425 0.15076578 0.002311986 -0.18240103 0.14226352 -0.003991673 0.09468996
0.15495019 -0.13373649 0.065603144 -0.03500931 0.08951151 -0.06903179 -0.096529625 0.18515843
-0.19070774 0.08493641 -0.17804751 -0.17184475 0.090422 0.08257198 -0.07622879 -0.16380394
-0.13153802 0.18560652 0.05040293 -0.059060983 -0.043193612 -0.13970797 0.035356678 -0.13883542
-0.14969331 -0.04440094 -0.19187357 -0.13470238 0.07940404 -0.05613475 -0.097714216 -0.033353627
0.06550724 0.0053413184 0.09325792 0.11976537 0.102662235 -0.13488126 0.19085447 0.17020567
0.040205058 -0.12002181 -0.014201339 -0.14750904 0.19156611 0.001984082 0.09203935 0.04190246
-0.039474525 -0.1149094 -0.1449974 0.13147192 -0.014492815 -0.09972106 -0.1672629 0.012612948
-0.09947937 0.14265741 0.14941144 -0.107421406 -0.08024012 0.015195788 0.1049125 0.01265613
0.19438635 0.15688111 0.05005304 -0.033433087 -0.11461356 0.030169316 0.022638675 0.044888064
-0.11668188 -0.13538665 -0.0039272895 0.100779675 -0.10310263 -0.05089516 0.05332219 -0.16653107

bias f4 [8]
00000000: 9f04 7a3d 28e2 32bd 8499 3a3e 3296 05bd
00000010: 672c d0bd 2884 d83b 3873 c5bd 3135 de3d
0.061039563 -0.04367271 0.18222624 -0.03261394 -0.10164719 0.006607551 -0.09641117 0.10849989

weight f4 [32]
00000000: 5153 853f e854 843f 8a20 803f 284f 7b3f
00000010: 7f0e 813f c868 813f 9eb8 803f d94a 833f
00000020: d183 7e3f d3a0 803f 6dff 833f a846 7f3f
00000030: ab6f 823f eb34 7c3f ea77 7c3f a76e 7e3f
00000040: e6e4 813f baa3 823f 0ebc 7e3f fff3 803f
00000050: 320c 743f f67e 7a3f e0c3 833f e38c 7e3f
00000060: 5bf9 803f b39f 7f3f e2ed 803f 5c22 7b3f
00000070: 5b43 803f 50b9 7d3f 573c 803f e3ab 793f
1.0416051 1.0338411 1.000993 0.9816766 1.0082549 1.0110102 1.0056341 1.0257217
0.99419886 1.004908 1.0312325 0.9971719 1.0190328 0.98518246 0.98620474 0.9938759
1.0147979 1.0206215 0.995057 1.0074462 0.9533111 0.97849977 1.0294151 0.99433726
1.0076097 0.99853057 1.0072596 0.98099303 1.0020555 0.9911089 1.0018414 0.97527903

bias f4 [32]
00000000: c3f3 5dbb af97 ba3c 4b64 aabb e0ec 803a
00000010: 203b cdbb bd32 0bbc a120 36bc 6f2b 75bd
00000020: d094 e5ba 441a a03b 06a3 073d b84a e83b
00000030: c10a 683d 8525 013d 3b2d 81bc 4f44 b5bc
00000040: b134 e53c ef49 35bc d817 a2bc 9b1c e8bb
00000050: 9e95 14bd 57a3 01bd 0b7a 983b da50 38bc
00000060: d633 ed3c 9ff8 383c aa11 3e3d 0691 dfbc
00000070: 164c d23b b36e 9b3c d03a 0d3d 5980 a13c
-0.0033867217 0.022777406 -0.005199944 0.0009836219 -0.0062631518 -0.008495984 -0.011116178 -0.059855875
-0.0017515663 0.0048859436 0.033114456 0.0070889853 0.05665088 0.031529922 -0.015768638 -0.022127299
0.027979227 -0.01106499 -0.01978676 -0.007083488 -0.0362755 -0.031649914 0.0046532205 -0.011249745
0.028955381 0.011289745 0.046403565 -0.027290832 0.0064177616 0.018973684 0.034479916 0.019714521

running_mean f4 [32]
00000000: c6aa 1ebf ce2b 91bd 3ded 31bf 0063 59be
00000010: 3890 fd3c dd8d bdbd 0d69 edbd f031 3ebe
00000020: 7659 403e fcbd ecbe e643 8abe 2c82 103e
00000030: 7884 37bf a4a2 e9be 770d 233e 5c61 92be
00000040: 3408 babe 4f76 943e 77dc 093f 191d e1bd
00000050: b929 40be 17ee b1be 1d3f 843b a40f 1a3e
00000060: 4138 a5be 3427 0c3f 35ef b6be c51e d2be
00000070: 7dab e7be f216 5e3b 49d3 53be 6c09 2abf
-0.6197933 -0.07088433 -0.6950262 -0.21229172 0.030952558 -0.09255574 -0.115923025 -0.18573737
0.18784127 -0.46238697 -0.27004927 0.14112157 -0.71686506 -0.45631897 0.15923105 -0.28589904
-0.36334383 0.28996512 0.5385203 -0.10991878 -0.18765916 -0.3475196 0.004035844 0.15045029
-0.3226948 0.5474732 -0.35729375 -0.410391 -0.45248023 0.0033888188 -0.20686068 -0.66420627

running_var f4 [32]
00000000: ba6f c33d 0c62 073e 049f 4d3e ba4d 533e
00000010: 0bd9 873d 916a 593e 8de6 ff3d 47b1 a63d
00000020: 756d 563e 56e0 453e 4383 b23e fce1 583e
00000030: 4e91 903e 91be 8c3e 6970 a73d 9828 303e
00000040: d86b 4b3e 6d9a 3d3e 4f8c 343e f480 f93d
00000050: d78e b13e f0a8 7c3e 215b 603e 2f74 fb3d
00000060: 4ef6 9c3e 185c 723e a080 5c3e d5c0 bc3e
00000070: 1fc7 a83d 30cd 623e 4482 8f3e d277 233e
0.095427945 0.13220996 0.20080191 0.20635119 0.066331945 0.21232058 0.12495146 0.08139282
0.20940192 0.19323859 0.3486577 0.21179956 0.2823586 0.2748914 0.081757374 0.17202985
0.19865358 0.1851594 0.17631648 0.12182799 0.3467929 0.2467382 0.21909763 0.1227802
0.30656666 0.23667943 0.21533442 0.3686587 0.08241104 0.22148585 0.28029072 0.15963677
