code/model_sol_backups/model_sol_27.pt (torch, 502306 bytes, 158 tensors)

weight f4 [32, 2]
000000 77 78 eb 3e f4 73 b3 be fc 84 1b 3f 8d 0c 16 3f
       0.45990345 -0.35049403 0.60749793 0.586129
000010 e7 27 ed be 97 29 95 be ac 07 85 3d 51 16 96 3e
       -0.46319506 -0.29133293 0.06495604 0.293139
000020 6f 5b 31 bf 7e 88 77 3e ca 7d c3 3e 6e 8a d1 be
       -0.6928014 0.24173161 0.38181907 -0.40925926
000030 cf 3f 02 bf 8e c0 9a be 6b 31 d9 3d f3 de 7c 3d
       -0.50878614 -0.30225033 0.10605129 0.06173606
000040 1c 0b 1a bf 37 5d 31 bf 03 e6 23 bf 2b 08 9a be
       -0.601732 -0.6928286 -0.64022845 -0.30084357
000050 9d 3a 2b 3f e4 c1 c6 be e4 47 07 3f d0 dc ab 3e
       0.6688631 -0.38819802 0.5284407 0.33566904
000060 91 07 96 be 8e 1c 2b 3e ac 96 6f be b7 e0 36 be
       -0.29302648 0.16710111 -0.2339732 -0.1785916
000070 43 88 2d bf ea 9f cf 3e 7b e7 5d 3e 84 5e cd be
       -0.67786044 0.40551692 0.21670334 -0.40111172
000080 ad e1 62 be 9c b3 a7 3e d9 d6 0b bf 6c ae 0e 3f
       -0.22156401 0.3275422 -0.54624707 0.55734897
000090 e3 99 c2 3e 6a ee 7c 3e ce 02 78 bd f4 09 fc 3e
       0.3800803 0.24700323 -0.06054955 0.49226344
0000a0 6d 86 02 bd dd 4a 33 be b1 f9 27 be cc 2f 23 bf
       -0.03186648 -0.17509027 -0.16403843 -0.6374481
0000b0 e3 ef ea be 32 f7 7c 3e f0 d8 60 be 1f 9d 21 bf
       -0.45886144 0.24703673 -0.21957755 -0.6313037
0000c0 c5 5e cd be e5 a1 87 3e bb 36 a5 be 0b 08 06 bf
       -0.40111366 0.26490703 -0.3226832 -0.5235602
0000d0 71 f1 4a 3d 2d 35 cd be 24 55 80 be d2 ea 28 bf
       0.049546663 -0.40079632 -0.25064957 -0.6598331
0000e0 bf 26 ee be ae 37 f6 be 5e 9a 94 be 7f f1 fc be
       -0.46513936 -0.48089355 -0.29024023 -0.49402997
0000f0 8a 5f a7 3e 06 4f 18 be 4b 5d 45 3d 7e b8 f3 3e
       0.32690078 -0.14873895 0.048184674 0.47601694

bias f4 [32]
000000 48 7b 1a bf 4c a5 22 bd dd 45 01 bf aa 91 4e be
       -0.6034436 -0.03970842 -0.5049723 -0.20172754
000010 b7 fd c8 3e 9c cb f7 3e 7a a4 81 bd e6 b2 84 3e
       0.3925607 0.4839753 -0.063301995 0.2591774
000020 ae c1 24 be a7 89 41 be 5f 99 b3 3e 02 01 43 be
       -0.16089508 -0.18900166 0.3507795 -0.19043353
000030 49 22 32 3e cb d4 a5 3e 6c e8 02 bf 50 bc 07 3f
       0.17395891 0.3238891 -0.511359 0.5302172
000040 ee 08 a6 be ba 15 af 3e 83 39 27 3e 4f 0e 61 be
       -0.32428688 0.34196264 0.16330533 -0.21978115
000050 25 2a e6 be d1 ab 32 3a 51 58 59 be 08 ec 2a be
       -0.4495403 0.0006815764 -0.21225096 -0.16691601
000060 3d 68 ea be 68 74 8c 3d 4d 5b 95 3e 18 55 f3 3b
       -0.45782652 0.0685814 0.2917122 0.0074259154
000070 ea 83 c7 bc db 14 9e be d2 8d 06 bf fd 84 66 bd
       -0.024354894 -0.30875286 -0.5256015 -0.05627917

weight f4 [8, 32]
000000 a9 c5 26 bd 48 f9 83 bd 14 99 cd 3c 52 c5 14 bd
       -0.040715847 -0.06444031 0.025097407 -0.03632099
000010 32 9f c1 3d ab ab 0f bd 18 48 ee 3d 55 f6 e0 bc
       0.09454192 -0.035075825 0.116348445 -0.02746121
000020 51 ec 79 bd bf 5d f6 3c 8c bb 17 3d bc 1d 2c be
       -0.061016385 0.030073998 0.037044093 -0.16808218
000030 b5 8b b2 bd c7 ef 8d bd 96 42 14 be c5 84 1d be
       -0.08718053 -0.069304995 -0.14478526 -0.15382679
000040 07 1d a6 3d 88 f9 54 3d 8c 67 02 be 1c bf 02 bd
       0.08111005 0.051995784 -0.12734812 -0.031920537
000050 ba 27 84 3d 34 90 9d bd fa 19 17 be a5 a6 90 3d
       0.0645289 -0.0769352 -0.14756003 0.07063035
000060 0f 55 0f 3e 22 92 64 3d e8 37 4b 3d 01 fa a0 bd
       0.13997291 0.055803426 0.049613863 -0.078601845
000070 39 2c fb 3b 61 e6 d7 bd 0d 86 92 3c f2 25 f2 bc
       0.007665184 -0.10541988 0.017886186 -0.02955911
000080 09 ac a1 bd 6c 3a 79 bd 68 57 eb 3d 4a 4e f5 bd
       -0.07894141 -0.06084673 0.11491281 -0.11977823
000090 bc 97 b4 bd 36 fb ba 3d cf 36 1d 3e 56 fc e8 3d
       -0.088180035 0.09129946 0.15352939 0.11376254
0000a0 15 10 ad bd eb f6 b9 bd bb 34 8d 3d 40 41 14 be
       -0.08450333 -0.09080299 0.06894823 -0.14478016
0000b0 81 ff 0f be 20 9d 80 bd 92 53 37 bd 61 90 82 bd
       -0.14062311 -0.06279969 -0.044757433 -0.06375194
0000c0 9c 76 2a be 57 cb 25 be 0e 98 33 be 35 29 13 3e
       -0.16646808 -0.16190849 -0.17538473 0.14371188
0000d0 18 f0 0b be 62 d3 9b 3c 84 bd eb 3d 9e 01 8c 3d
       -0.13665807 0.019021694 0.115107566 0.06836246
0000e0 8e 4c 29 be b7 6a 8e bd 22 0a db bd 88 a7 c5 bd
       -0.1653311 -0.06953948 -0.10695292 -0.09651095
0000f0 64 0e 32 bc a8 66 22 be 89 7f c4 bd 19 22 90 bc
       -0.010867689 -0.15859473 -0.09594638 -0.017594384
000100 7b 0e 24 bc 51 1d b8 3d 99 c5 34 3c 81 a5 2a 3e
       -0.010013218 0.08989967 0.011033439 0.16664697
000110 05 8a 20 3d ef f9 46 bd e5 27 01 3e e9 8e d1 bc
       0.039194126 -0.0485782 0.12612875 -0.02558084
000120 0a 78 39 be c5 11 b0 bc 42 f8 60 bd ba c7 33 bc
       -0.18112198 -0.021492848 -0.054924257 -0.0109729115
000130 46 e0 19 3e 0a e4 37 be d7 81 28 be 6a 31 6e bd
       0.1502696 -0.17958084 -0.1645578 -0.058152594
000140 5b 81 b7 3d fb f4 0e be 2f 50 08 bd f3 8f e6 bd
       0.089602195 -0.1396064 -0.033279594 -0.11257925
000150 ae 79 b5 3d 04 0c 79 bd 7c 27 63 3c 25 86 13 3d
       0.08861099 -0.060802475 0.013864394 0.036016602
000160 8e 90 2b be 47 15 eb bd 79 bc d5 bb 13 59 9d 3d
       -0.16754362 -0.11478668 -0.006522712 0.07683005
000170 f2 4d 85 3d c0 fc 24 be 8b 32 22 be e1 e4 1f be
       0.065090075 -0.16112041 -0.15839593 -0.15614654
000180 6d f1 14 3e 45 97 14 be 85 2a 4e bc ae 48 f0 3d
       0.14545222 -0.1451083 -0.01258338 0.117326126
000190 15 d6 08 be 1f f7 de bd f3 4d f7 3d dc 25 93 bd
       -0.13362916 -0.10886978 0.120754145 -0.071849555
0001a0 50 55 b1 bc 8a d4 92 bb 92 e0 e7 3c b8 1f 11 3d
       -0.021647125 -0.004480903 0.028305326 0.03543064
0001b0 f0 0b 0b 3d 7c 4c 9b 3d ae 42 82 bc 06 4a d2 3b
       0.03394693 0.075829476 -0.015900936 0.0064175157
0001c0 d5 bc 08 3e 0b 91 b6 3c c8 ff ba 3d a5 e6 31 3d
       0.13353284 0.022285959 0.09130818 0.04343285
0001d0 c1 5f b0 3d 66 f2 1d 3e 68 e9 20 be 77 c6 10 be
       0.086120136 0.15424499 -0.15714037 -0.14138208
0001e0 24 95 1a 3e 93 1c a3 3c 71 2f 08 be 5d a4 09 3e
       0.15095955 0.019911086 -0.13299347 0.13441606
0001f0 14 23 0a be 71 db 03 be 1f 36 14 be ba a3 a1 bd
       -0.13489944 -0.12876679 -0.1447377 -0.078925565
000200 cb 09 19 3e e8 ba c8 3c 73 b2 f7 3d 2a 2f 30 bd
       0.14945142 0.024503186 0.12094583 -0.04301373
000210 5d 0c 0c 3e e6 f6 18 3e 5b 0b a0 3d 13 53 f4 3d
       0.13676591 0.14937934 0.07814666 0.11929908
000220 5f 64 f2 3d 6f 98 70 bd a6 44 ef bc 5d c0 fc 3d
       0.118355505 -0.058739122 -0.029207539 0.12341378
000230 0a f4 1c 3e b4 5c 0c 3e fd 81 f4 3d 52 c7 c3 3d
       0.15327469 0.13707238 0.11938856 0.09559502
000240 4a 03 a9 bc 0e 30 73 3c cb 7d 0d be 90 57 10 bd
       -0.020631451 0.014843 -0.13817517 -0.035239756
000250 7d a2 c1 bd d5 5c 2d 3e e6 4d 0e be 80 46 11 3e
       -0.0945482 0.16929944 -0.13896903 0.1418705
000260 15 68 99 3d c7 03 ca 3d cf d4 1b 3e 75 74 2a 3d
       0.07490555 0.09864002 0.15217899 0.04161497
000270 0a e2 64 3c 71 06 6d 3d 7f b0 b0 bd 03 9e 07 be
       0.013969908 0.05786747 -0.08627414 -0.1324387
000280 27 06 d4 3d eb 1f 64 3d 63 07 32 3e 14 c6 d5 bd
       0.10352736 0.0556945 0.1738563 -0.10438171
000290 5b 54 22 3e a9 1a ea bd 63 10 22 be 83 80 da bd
       0.15852492 -0.11430866 -0.15826564 -0.10669043
0002a0 99 27 b6 bd 93 b2 05 3e e2 3a af bd ed f6 d3 3d
       -0.088942714 0.13056402 -0.08556153 0.10349832
0002b0 64 83 18 be e4 bd be 3c d9 a7 2b be 33 28 22 3d
       -0.14893872 0.023283906 -0.16763248 0.03958912
0002c0 51 62 20 be 3f 42 ab bd c2 01 f1 bd ec 95 47 3d
       -0.15662505 -0.08362245 -0.117679134 0.04872696
0002d0 b9 5d 0b 3e 4a 89 09 3e f9 fb 94 3d d6 01 87 3d
       0.13609971 0.13431278 0.072746225 0.06592147
0002e0 ab a7 b3 bc 0f 03 14 3e de 11 1f 3e ee 77 13 3e
       -0.021930536 0.14454292 0.1553416 0.14401218
0002f0 71 fb b5 3d 6b ae dc 3d f4 78 00 be de 0a 68 bd
       0.08885849 0.10775455 -0.1254614 -0.05665099
000300 b0 98 b9 bd e1 ee 95 bb 3f 21 83 3c 41 e8 78 3d
       -0.09062326 -0.0045755957 0.016007064 0.06076837
000310 69 a5 a5 3d 45 4a 21 3e 20 20 29 3e 4a 61 1c 3d
       0.0808819 0.15750988 0.16516161 0.03817872
000320 c9 4d 00 3e ad 32 29 bd 77 3b da 3d 68 8c 94 3d
       0.12529673 -0.041308094 0.10655873 0.07253343
000330 70 8a c5 bd 1a 57 c2 3d 3d 63 2e be 35 1d 6e 3d
       -0.096455455 0.094892696 -0.17030044 0.058133323
000340 c7 fb e2 3d a7 24 e1 3d 01 b2 37 3c bd a8 0a 3e
       0.11083179 0.10993319 0.011211873 0.13540931
000350 47 a1 fb bb fa 4c 9c bd 83 9c ba 3d 57 b5 26 3d
       -0.007679138 -0.076318696 0.091118835 0.040700283
000360 4d 4e 0e be 1f 05 33 3e 20 08 3a 3d a5 da ab bd
       -0.13897057 0.17482422 0.045417905 -0.083913125
000370 b2 35 bb bd 4a f4 de 3d 56 d5 0b 3e 56 ad 91 bd
       -0.09141101 0.10886438 0.136556 -0.07113139
000380 63 f9 2c be 56 5b 59 bc 65 d4 49 3d 39 8b 07 3d
       -0.16892008 -0.013266405 0.04927482 0.033091757
000390 b0 ca 10 3e c6 02 20 3e 0d e0 c1 3d 64 bd 1e 3d
       0.14139819 0.15626058 0.094665624 0.038754836
0003a0 a0 4d 17 3d 11 e0 c0 bd 82 06 09 be 24 de cb 3c
       0.036939263 -0.09417737 -0.13381389 0.024886198
0003b0 9a cb d1 3a df 4d 02 3e ef 47 33 3d c0 0f dd 3b
       0.0016006113 0.12725018 0.043769773 0.0067462623
0003c0 4c 1d 00 3e 48 19 d3 bd b9 23 aa bd 4a e0 5a 3c
       0.12511176 -0.103075564 -0.08307595 0.013359139
0003d0 14 f1 67 3d ae ef 0e be 8b 43 6d bd 53 f2 21 be
       0.056626394 -0.13958618 -0.057925742 -0.15815096
0003e0 de 67 d5 3c 15 80 aa bd b2 a4 49 bd 02 82 ab 3d
       0.026050504 -0.08325211 -0.04922933 0.083744064
0003f0 8b 11 df 3d dc 6f 91 bd de cf cd 3d d5 dc 63 bd
       0.10892018 -0.071014136 0.10049413 -0.055630524

bias f4 [8]
000000 20 ec 37 3e 1c 76 11 3e 2b 5f 2c be 33 c9 9f bd
       0.17961168 0.14205211 -0.16833179 -0.078020476
000010 3d 02 ee bb 18 b0 da 3d 6f d1 8c bd 28 3f f3 3c
       -0.0072634504 0.106781185 -0.06875884 0.029693201

weight f4 [32]
000000 7f 0c 80 3f c9 25 82 3f 8b df 7e 3f 41 26 80 3f
       1.0003814 1.0167781 0.9955985 1.0011674
000010 b0 4a 80 3f d4 f2 7e 3f d6 3f 80 3f 1e 02 80 3f
       1.0022793 0.99589276 1.0019481 1.0000646
000020 b6 2c 80 3f d3 12 80 3f cc 48 7f 3f f5 2d 80 3f
       1.0013645 1.0005745 0.99720454 1.0014025
000030 06 a7 7f 3f 0e c1 80 3f 7d 95 7f 3f de d4 7d 3f
       0.9986423 1.0058916 0.99837476 0.99152935
000040 b2 77 80 3f 9e a7 80 3f df c7 7f 3f cb e4 80 3f
       1.0036528 1.0051153 0.99914354 1.0069822
000050 56 79 80 3f 9d 5b 80 3f 3b 78 7e 3f 63 f0 7f 3f
       1.0037029 1.0027958 0.9940221 0.99976176
000060 7a fc 80 3f b5 7e 81 3f 58 75 7e 3f 3c dc 7f 3f
       1.007705 1.0116793 0.993978 0.99945426
000070 29 96 7e 3f 08 92 81 3f c8 ea 7e 3f 24 7e 7e 3f
       0.99447876 1.012269 0.99577 0.99411225

bias f4 [32]
000000 af 39 d8 39 47 3b 89 3c 0f 74 90 bb 2f fd ec 39
       0.00041241708 0.016751898 -0.0044083665 0.00045202064
000010 d2 d9 14 3b 62 e5 87 bb 69 25 00 3b 17 b4 02 37
       0.002271284 -0.0041472176 0.0019553548 7.790534e-06
000020 d3 68 9b 3a 0d c5 15 3a ae 20 37 bb 53 52 b2 3a
       0.0011856802 0.0005713262 -0.0027943063 0.0013604857
000030 6f 9d ad ba 63 36 c0 3b 5d e0 d3 ba c7 08 0d bc
       -0.0013245771 0.0058658584 -0.0016164888 -0.00860805
000040 0a dd 6f 3b 44 a8 a7 3b 12 93 68 ba 57 92 ca 3b
       0.0036600255 0.0051164944 -0.0008872013 0.006181996
000050 c7 65 34 3b f2 e2 38 3b 16 10 c4 bb 3d 03 43 b9
       0.0027526484 0.0028211442 -0.005983363 -0.00018597856
000060 ae 7b ff 3b af 9a 3f 3c a3 c5 aa bb 6e 5f 27 ba
       0.007796726 0.011694594 -0.0052115484 -0.00063847646
000070 1d 1f b5 bb 7c 8a 48 3c 84 99 8b bb b8 14 84 bb
       -0.0055273906 0.0122400485 -0.004260244 -0.00403079

running_mean f4 [32]
000000 69 cb 3b bf d0 a8 19 3b d9 5f 01 bf 27 d1 19 be
       -0.73357254 0.0023446567 -0.50536877 -0.15021192
000010 5d ae 07 3f 40 25 b4 3e 88 95 77 bd 98 43 84 3e
       0.5300043 0.3518467 -0.06044534 0.2583282
000020 1a d8 66 be 0d 80 2d be cf 67 3e 3e 5e e4 41 be
       -0.22543374 -0.16943379 0.18594287 -0.18934771
000030 56 25 7b 3e 3f 6d a2 3e 06 40 af be 16 75 d7 3e
       0.24525961 0.31723973 -0.34228534 0.42081517
000040 ce 56 6a be 5e 5d 06 3f 8e 1f 29 3e d0 2a e5 bd
       -0.22884676 0.5248622 0.16515943 -0.111898065
000050 5d 5c f6 be ab 6c de bd 54 78 d3 bd 2f 08 89 be
       -0.48117343 -0.108605705 -0.10325685 -0.26764056
000060 6a 94 b4 be e8 5e 45 3b c8 94 50 3e c4 e7 c2 bd
       -0.3526948 0.0030116383 0.20369256 -0.09516862
000070 e7 83 81 bd 0d 0e bf be 08 f0 18 bf 48 fc 0d 3d
       -0.063239865 -0.37315407 -0.5974126 0.034664422

running_var f4 [32]
000000 5a ae f0 3d 52 37 43 3e 2a 5e d7 3d 3c 8f f8 3b
       0.11752005 0.19064072 0.10516007 0.0075854342
000010 45 0d 79 3e db 9f b5 3d e5 85 01 3e be da b3 3b
       0.24321468 0.08868381 0.12648733 0.0054887226
000020 6f a0 47 3e cb e6 4a 3e 36 3d 73 3e 6e 47 0c 3e
       0.19494794 0.19814603 0.23753819 0.13699123
000030 84 5a 3a 3d 57 c6 df 3c 3d f2 7a 3e a5 7e 1a 3d
       0.04549648 0.027316255 0.24506469 0.037718434
000040 48 9e 0c 3d 77 f1 36 3e 6f 63 91 3d 33 12 a8 3c
       0.034330636 0.17865549 0.070990436 0.02051649
000050 cf c5 24 3b 14 89 1e 3d d7 c3 e2 3d d7 4c 41 3d
       0.0025142317 0.038704947 0.1107251 0.04719242
000060 64 61 b2 3d 4c 5d 83 3d 94 27 5f 3c 77 31 65 3d
       0.08709982 0.06414279 0.013620276 0.055955376
000070 93 32 e8 3d dd f2 59 3d b0 22 62 3d e4 38 89 3c
       0.11337771 0.053210128 0.05520886 0.01675076

weight f4 [32, 3]
000000 2f 23 ac bd c0 63 89 bd 52 a5 7f 3e 1e 9a 4e 3c
       -0.08405148 -0.06708479 0.24965408 0.012609987
000010 e2 46 df 3e 4a c4 c3 3e a7 44 9d 3e 1b d1 e8 be
       0.43608767 0.38235694 0.3071644 -0.45472035
000020 1b b7 c4 be 86 3f 42 3e e6 61 06 3f 3e 4b 28 be
       -0.38420948 0.18969545 0.5249313 -0.16434953
000030 4c 58 d6 bd 36 06 88 3e 3c 43 ea bd 93 79 0d be
       -0.1046606 0.2656724 -0.11438605 -0.13815908
000040 a7 bd b6 be db 44 a4 3e 3d 19 07 be 42 04 c2 be
       -0.35691568 0.32083783 -0.13193221 -0.37893873
000050 b4 3e 3d 3e 2a db a9 3e 22 e9 ab 3d 30 92 ce bc
       0.1848095 0.3317502 0.08394076 -0.025216192
000060 5b a1 62 be 56 2a 0e be df b4 4b 3e 22 2e 0e bf
       -0.22131865 -0.13883337 0.19893216 -0.55539143
000070 cc 38 d5 3e 99 ec a7 3e 54 15 f9 bd 2c 07 82 bd
       0.41644895 0.32797697 -0.12162271 -0.06349024
000080 7f 2a 29 3b 50 9f b4 be 91 fa bc bd 58 ef 4b be
       0.0025812683 -0.35277796 -0.09227479 -0.19915521
000090 ca aa 58 be ff 4e 22 3e 62 95 53 3b b5 0c ef be
       -0.21158901 0.15850447 0.0032285084 -0.46689382
0000a0 2d 5a ce be ff da 92 3e 32 98 da 3e f4 7c be 3e
       -0.40303174 0.28682706 0.4269424 0.37204707
0000b0 49 bb e0 3e 02 0f e5 be f1 45 a4 3e 4d c3 05 3f
       0.43892887 -0.44738013 0.3208461 0.5225113
0000c0 ca 50 b0 bd 69 fb 40 be 3e be 95 bb 58 4f 02 3f
       -0.08609159 -0.18845905 -0.004569798 0.5090232
0000d0 d5 c4 a7 3d 7c 31 c1 bd bd f1 26 3d 84 79 21 be
       0.081918396 -0.094332665 0.040757883 -0.15769011
0000e0 33 fe 11 bf 8a e8 bf 3d a0 07 12 3e 17 51 68 be
       -0.570285 0.09370525 0.14260721 -0.22687183
0000f0 67 ca ca be 24 24 0b 3f 49 7e cf be a3 79 07 bf
       -0.39607546 0.5435202 -0.40526035 -0.5291998
000100 82 5d 9b 3e cf e4 2c be f4 49 93 3e ed b8 d0 bd
       0.30344778 -0.16884159 0.2876736 -0.10191522
000110 6a 6e 9a be 00 0c de 3e 0e 10 c8 3e 6f e0 e9 3e
       -0.30162364 0.4336853 0.3907475 0.45679042
000120 6a e9 b3 3d f6 79 1c be 66 40 ef bd b2 b6 f2 3e
       0.087847546 -0.152809 -0.11682205 0.4740501
000130 27 fb 3c 3e 8a 5c 08 3f 26 35 77 3e b2 13 e7 bd
       0.18455182 0.53266203 0.24141368 -0.112830535
000140 da 9f 0a 3e 03 84 46 3e 73 ba d4 bd bb 30 6e 3d
       0.13537541 0.19386296 -0.10387125 0.05815194
000150 36 9c 02 3e 6f f4 b0 be ba 7e 5b 3e b6 29 eb 3a
       0.12754902 -0.34561488 0.21435061 0.0017941508
000160 f4 41 c2 be 52 83 22 be 1f 02 b1 be d6 84 9e be
       -0.37940943 -0.15870407 -0.3457193 -0.3096072
000170 bc 99 f7 be bb 15 3f be f7 46 1f 3e 07 8e 09 bf
       -0.48359478 -0.18660633 0.15554415 -0.5373234

bias f4 [32]
000000 37 6f 19 be b6 b7 9b 3e 5f 8c d7 3d 7a 59 bd bd
       -0.14983831 0.30413598 0.105248205 -0.09245582
000010 16 dc af 3a 09 ca 5a be ea 0b f9 3e de a9 b2 be
       0.0013417031 -0.21366133 0.48641902 -0.34895223
000020 a9 0f 09 3e 90 09 e6 be 79 b8 13 bf 17 74 05 3f
       0.1338488 -0.4492917 -0.5770336 0.52130264
000030 a1 58 f5 be 6f 64 c5 bd 87 b3 9e 3e e4 3c aa be
       -0.4791918 -0.09638297 0.30996343 -0.3324958
000040 7e 97 ab 3e cb 4e f7 be be b2 5b 3e c2 9b 91 bc
       0.33514017 -0.48302302 0.21454903 -0.017774466
000050 42 64 cc be 67 bf ec 3e 8c 0b 95 3e 45 62 b2 3e
       -0.3992024 0.46239778 0.29110372 0.348406
000060 e7 a4 84 bd 4d 1d 29 3d 41 13 2d 3d 41 23 67 be
       -0.06476765 0.04128771 0.04225469 -0.22572042
000070 4e b6 0b be 16 6e a8 3e 5f 27 e0 bd 7a 76 00 3f
       -0.13643762 0.3289649 -0.109450094 0.5018078

weight f4 [8, 32]
000000 1a 53 6b bd 88 68 9e bd 15 90 11 bd 5e 67 2f be
       -0.0574523 -0.077347815 -0.035537798 -0.17129275
000010 35 13 22 3e b2 c7 0b be 19 04 24 3e 60 d1 d9 3d
       0.1582764 -0.13650396 0.16017188 0.10635638
000020 73 32 82 bd 9d 9c eb bc 3e 5b 5a 3d 17 9d 50 bc
       -0.06357279 -0.028761202 0.05330967 -0.012732766
000030 e7 23 f6 bc 0a ad 94 3d 1f 64 b1 bc 06 0e 68 3d
       -0.030046416 0.07259567 -0.021654187 0.056654
000040 d0 0d 04 be 4f 87 85 3a 02 11 e5 bd 0a 8a 8f bb
       -0.12895894 0.001018742 -0.111848846 -0.004380469
000050 40 78 e0 bb ea 16 93 3d ba be bc bd 66 16 a4 bd
       -0.0068502724 0.07182105 -0.09216066 -0.08012085
000060 57 d2 62 3d 7b 28 0f 3c df 2b 04 ba 39 b7 13 be
       0.055376377 0.008737679 -0.00050419377 -0.14425363
000070 3f e0 c2 bd 04 b3 d3 3d 9b f1 f3 bd 8a ed 0a be
       -0.09515428 0.10336879 -0.11911317 -0.13567176
000080 9a 3e 23 be 7e 99 db 3c 1e bc 38 3e ed fd f6 bd
       -0.1594185 0.02680659 0.18040511 -0.12060151
000090 5a 24 95 3d 12 a8 36 be f9 26 38 bd 6d 12 2c 3e
       0.07282324 -0.17837551 -0.044959042 0.16803904
0000a0 6d 3e 49 3d c8 a9 f4 3c 22 93 2e 3c 83 f3 cc 3b
       0.0491318 0.029866114 0.010655196 0.006254615
0000b0 42 f6 a0 bd 77 71 93 3b 08 36 21 3e 74 63 51 bc
       -0.0785947 0.00449961 0.15743268 -0.012780059
0000c0 ea 67 8a 3b e8 d7 26 be 75 77 35 3e 5f 80 1f 3e
       0.0042238133 -0.16293299 0.1772135 0.15576313
0000d0 d4 9f cd bd ec 2e 06 bd df 06 06 3e b2 f6 e2 3c
       -0.100402504 -0.032759592 0.13088559 0.027705524
0000e0 c8 55 0d be c0 fa 80 3d 35 ad c9 bd 06 1c d8 bd
       -0.13802254 0.06297827 -0.0984749 -0.1055222
0000f0 d2 10 6d bd 88 ba 9b 3d 1c 1d 09 be b0 c3 20 3e
       -0.05787737 0.076039374 -0.1339001 0.15699649
000100 3f ad e3 bd 96 83 9e bb 6c f2 28 3e 1f 53 98 bc
       -0.111170284 -0.0048374636 0.16498727 -0.018594323
000110 ce 71 1e 3e 51 6c 51 3d 56 57 d1 3d c1 2b c4 bd
       0.154731 0.05112869 0.10221736 -0.09578658
000120 f3 74 0d 3c 21 e5 18 3e 2a a1 fc bd dd 0a c3 3d
       0.00863384 0.14931156 -0.12335427 0.095235564
000130 2f 84 68 3d 22 69 9b 3d 73 44 e3 3d b8 b3 0e be
       0.056766685 0.07588412 0.1109704 -0.13935745
000140 81 1d d2 3d 09 c7 ae bd 1b 16 2b 3d 22 de 2f 3e
       0.10259534 -0.08534057 0.04176913 0.1717458
000150 9a eb a0 bd 60 af 26 3e a3 3e 9a bc 44 1b a6 3d
       -0.078574374 0.16277838 -0.018828696 0.08110669
000160 33 d4 08 be e4 69 2a 3e 58 44 08 be d0 a0 ce 3d
       -0.13362198 0.16641957 -0.13307321 0.10089266
000170 9d a1 37 bd b1 79 39 3e c6 00 b6 3d 9b 17 cf bc
       -0.04483186 0.18112828 0.08886866 -0.02527981
000180 0a 77 31 3e 4a 5b f5 bd 91 05 80 3d 0e 9a 36 be
       0.17330566 -0.11980303 0.06251062 -0.17832205
000190 85 b6 0a bb 30 e8 22 bd af 9f da bd d2 21 03 3e
       -0.002116592 -0.039772213 -0.106749885 0.1280587
0001a0 dc c6 3a bc 37 77 0d 3e c5 99 cf bd d3 c9 20 be
       -0.011399951 0.13815008 -0.10136751 -0.1570199
0001b0 50 3b 93 3d ae 59 16 3e b8 69 6c bd 1d 35 83 bd
       0.07189047 0.14682648 -0.05771801 -0.06406615
0001c0 b4 a3 03 3d 00 de bf 3d 23 a7 2f 3e b0 5c 02 be
       0.03213854 0.09368515 0.17153601 -0.1273067
0001d0 96 d4 1d 3e c2 97 9d 3b 4e ba 79 3d 68 28 b4 3d
       0.15413126 0.0048093507 0.06096869 0.087967694
0001e0 f8 4b 03 3e 5e 47 2f 3e 5e 23 21 3e c3 71 b4 bd
       0.12821949 0.17117068 0.15736148 -0.08810761
0001f0 7a 1f 23 3e e4 75 9e 3c 4b 00 ee bd 74 84 b4 3d
       0.15929976 0.019343324 -0.1162115 0.08814326
000200 fa cf 2a bd a8 ca e2 3d de 9a 00 be f2 f2 e6 3d
       -0.04170225 0.1107381 -0.12559077 0.11276807
000210 a9 aa 1e 3e 7e e5 1d be 61 00 c3 3d 60 2e ce 3d
       0.15494789 -0.15419576 0.09521557 0.10067439
000220 d7 3b bf 3d 60 70 e8 bd eb 79 1e bd 21 8d a1 bb
       0.093375854 -0.11349559 -0.03869049 -0.004930154
000230 d8 cd de 3d 20 a0 b2 3c 64 ae b2 3c 84 d1 ed bc
       0.10879105 0.02180487 0.021811672 -0.029030569
000240 b1 35 18 3d 7f 02 8c bd b0 bd fc bd 5d 93 09 3e
       0.03716058 -0.068364136 -0.123408675 0.13435121
000250 4d df e8 3d ea 79 4b 3c 43 65 f9 bd 96 cd 90 bd
       0.11370716 0.012419203 -0.12177517 -0.070704624
000260 b3 70 fd bd ea 46 e4 3c f9 2e 2c be 10 bc 94 bb
       -0.12375011 0.027865846 -0.16814794 -0.0045390204
000270 07 2b 28 bd 6d 0f 4f 3c 51 1e 61 3d e9 63 98 bd
       -0.04105666 0.012637955 0.054960553 -0.07440931
000280 d1 e0 0a 3e f6 6b 15 be 7e bf 1e be 2c 91 13 bd
       0.13562323 -0.14591965 -0.15502736 -0.03602712
000290 ca 55 4f bc 3f 2d a5 3c 8a e6 1f 3d 5b 3b a4 bc
       -0.012654731 0.020163177 0.03903822 -0.020047834
0002a0 7c 79 d9 3d 56 22 47 3d e4 52 b3 bd d2 68 fc 3d
       0.106188744 0.04861673 -0.087560445 0.123246804
0002b0 67 7b bb bd cd f6 27 3e 5f c1 15 3e 45 7e b8 bd
       -0.091543965 0.16402741 0.14624546 -0.09008459
0002c0 c4 74 65 bd d2 04 8b bd 9d f4 5b bb 4d 13 c5 3d
       -0.05601956 -0.06788029 -0.003356255 0.09622822
0002d0 eb 74 a6 bd c9 fe 1b be b7 09 4c 3c 85 9a 64 3d
       -0.08127769 -0.15233912 0.012453488 0.055811424
0002e0 e7 ee 19 be e6 0a cf bd 88 9a 0f 3c 38 30 d6 3b
       -0.1503254 -0.101095006 0.00876487 0.00653651
0002f0 0d f1 b6 3d 43 0d 57 3d 39 62 14 bd 49 c1 18 3e
       0.089326955 0.05250288 -0.036226485 0.14917482
000300 3a 52 d6 bd 7e f5 e3 bd 96 27 a7 3c cd f3 01 3e
       -0.10464902 -0.11130808 0.020404618 0.12690659
000310 10 b3 d3 3d ef 6e 7b bd ec 30 ba 3a 40 6d 9b 3d
       0.10336888 -0.06138509 0.0014205254 0.07589197
000320 b7 14 29 be b9 83 d0 3b 59 20 36 3e ef 4a 1a 3e
       -0.16511808 0.006363359 0.17785777 0.15067647
000330 ce ea 2b be cf bd 50 bd 87 84 ed 3d 53 e4 19 be
       -0.1678879 -0.050962266 0.11597543 -0.15028505
000340 75 54 1c be 26 69 cb bd e1 05 2a be 20 f3 0c be
       -0.15266593 -0.09932165 -0.16603805 -0.1376462
000350 e5 d3 51 bc 6b fb 50 bd 09 c1 0f 3e 90 f7 dd 3d
       -0.012806867 -0.05102102 0.14038481 0.108382344
000360 ed aa 0f 3e 7e ff 8d bc a7 34 e9 bd bc e7 0b 3e
       0.14030047 -0.017333742 -0.11386996 0.13662618
000370 68 97 3a 3d 7a f9 86 bd 11 b9 41 3d c4 6e ae bd
       0.04555455 -0.06590553 0.047295634 -0.085172206
000380 ab 0a 55 bd d0 f4 03 be 59 96 fc 3d 75 70 27 be
       -0.052012127 -0.12886357 0.12333364 -0.16351493
000390 b3 31 8a 3d a5 26 e8 3d 25 cd 2e bd 86 31 6c 3c
       0.067477606 0.11335496 -0.04267611 0.014416104
0003a0 b4 5d af bd b2 04 2a 3e 9c 74 18 3d e0 a4 9b bd
       -0.08562794 0.16603354 0.037220582 -0.07599807
0003b0 dd ca 9b 3d 88 fe 85 3d 28 63 1a be 02 6c b2 bd
       0.076070525 0.065426886 -0.15076888 -0.08712007
0003c0 44 78 07 3d c0 8a ea bd 35 37 c8 3d 17 74 e4 bd
       0.03307368 -0.11452246 0.09776155 -0.11154955
0003d0 2b 71 4b 3c 0c f3 1a 3d 65 9a 11 3e bf 2b 29 3e
       0.012417118 0.037829444 0.14219053 0.16520594
0003e0 0e 75 17 be fd 79 79 bc 9d 71 20 3d d5 1e 29 3e
       -0.14790747 -0.015226838 0.03917085 0.16515668
0003f0 90 78 1c be 69 db 1b be 82 16 e0 3c 2b 8a e6 3d
       -0.15280366 -0.15220417 0.027354483 0.11256822

bias f4 [8]
000000 78 61 37 bd 50 48 ad 3c 23 bd 17 be 9f c5 1f be
       -0.044770688 0.021152645 -0.14818244 -0.1560273
000010 17 08 73 bd ea 34 2e 3e 8d 11 12 3e 04 8d 78 3c
       -0.059333887 0.17012373 0.14264508 0.0151703395

weight f4 [32]
000000 3a 58 80 3f e6 00 7f 3f 01 90 80 3f fe 13 7e 3f
       1.0026925 0.99610746 1.0043947 0.99249256
000010 80 41 7f 3f 86 e0 80 3f 08 b5 80 3f 9c 2b 81 3f
       0.9970932 1.0068519 1.0055246 1.0091434
000020 e6 cd 7d 3f 96 f9 7d 3f b3 18 7d 3f 11 70 80 3f
       0.991423 0.9920896 0.98865813 1.00342
000030 be e8 7d 3f ff 6c 80 3f 5e c4 7e 3f a7 9a 80 3f
       0.9918326 1.0033263 0.9951838 1.0047196
000040 75 e2 7e 3f 17 f0 7d 3f a6 9c 80 3f 89 d8 80 3f
       0.99564296 0.99194473 1.0047805 1.0066081
000050 7b 85 7e 3f b2 b6 7d 3f c1 9a 80 3f d0 a3 7e 3f
       0.99422425 0.99106896 1.0047227 0.9946871
000060 28 47 7f 3f a7 33 7e 3f 0b e4 80 3f a7 9c 80 3f
       0.9971795 0.99297565 1.0069593 1.0047807
000070 8e 0c 81 3f a0 12 81 3f 81 34 7f 3f c3 bf 80 3f
       1.0081956 1.0083809 0.9968949 1.0058521

bias f4 [32]
000000 5f 7e 30 3b f8 1a 7f bb 88 ff 8f 3b 57 13 f6 bb
       0.0026930792 -0.0038925987 0.0043944754 -0.0075096297
000010 09 7e 3e bb 33 86 e0 3b 9c f6 b4 3b 8b 1a 15 3c
       -0.0029066822 0.0068519353 0.005522562 0.009100567
000020 b0 8a 0c bc 71 9a 01 bc a7 6f 9e bb 40 30 51 3b
       -0.008577988 -0.007910357 -0.0048350873 0.0031919628
000030 a1 7a 01 bc 91 fe 59 3b 1f d1 9d bb 5f a8 9a 3b
       -0.007902772 0.0033263306 -0.004816189 0.0047197784
000040 26 72 8c bb ad f6 03 bc c4 a6 9c 3b 6e b9 cb 3b
       -0.0042860685 -0.008054418 0.004780622 0.0062171733
000050 7a 43 bd bb 0e 52 12 bc 29 c9 9a 3b 90 1f ae bb
       -0.005775866 -0.008930696 0.004723687 -0.005313821
000060 b9 c4 38 bb 6c 0c e6 bb a5 23 e3 3b c7 06 9c 3b
       -0.0028193428 -0.007020524 0.0069317394 0.00476155
000070 f2 44 06 3c 76 56 09 3c f6 9f 4b bb b2 c3 bf 3b
       0.008195149 0.00838243 -0.0031070686 0.005852186

running_mean f4 [32]
000000 20 96 18 40 e9 eb fd 3f 7c 01 c2 bf 02 5c 6e c0
       2.384163 1.9837619 -1.5156703 -3.7243657
000010 49 a3 07 c0 7b c3 84 40 52 41 6d 40 5c 81 6b bf
       -2.1193411 4.1488624 3.7071118 -0.9199426
000020 92 1f 20 40 50 8b 51 3f e8 b3 96 be 23 95 67 bf
       2.501927 0.818532 -0.29434133 -0.9046194
000030 08 79 8c bf a0 ae 84 40 73 dc 30 40 8e 8c 45 40
       -1.0974436 4.1463165 2.7634552 3.0867038
000040 7e 23 88 3f db f3 d5 bf ba b7 89 c0 3b db 29 c0
       1.0635831 -1.6715044 -4.3036776 -2.6540058
000050 f2 3a c9 c0 46 8c 13 c0 34 78 01 c0 1f b7 38 40
       -6.2884455 -2.3054366 -2.0229616 2.8861768
000060 30 00 ff be cb 7f 83 40 4d 44 dd 3f ce 97 39 3f
       -0.4980483 4.1093497 1.7286469 0.7249726
000070 f2 d6 4d 40 00 2f e2 3e 06 3c 4e c0 03 ec 9f c0
       3.2162442 0.44176483 -3.2224135 -4.99756

running_var f4 [32]
000000 84 d6 20 40 d8 77 68 41 a6 c2 73 41 dd bb 10 41
       2.513093 14.529259 15.235022 9.045865
000010 11 94 1d 40 26 5e de 40 5a e9 a6 40 a1 c2 6c 3e
       2.4621623 6.9489927 5.2159853 0.2312112
000020 d1 b6 f4 3f a6 88 3f 41 18 03 06 3e 6d dd 0a 40
       1.9118291 11.970861 0.13087118 2.1697648
000030 d7 41 55 3f 11 6b e7 40 88 62 6b 41 8b 70 87 41
       0.8330359 7.2318196 14.7115555 16.929953
000040 f2 2a 97 3f db 25 fa 3e 8d 0b 78 41 a9 22 18 40
       1.1809981 0.48857006 15.50282 2.3771155
000050 2c da 59 41 b5 ef 61 40 32 bb 90 40 73 5a 80 41
       13.615765 3.5302556 4.522851 16.044165
000060 88 00 c9 3f 18 25 63 41 38 0b 7a 3f fe 76 d4 3e
       1.5703287 14.196556 0.9767337 0.41497034
000070 a4 52 9b 40 e6 77 d2 40 5d 73 6d 41 37 b8 3a 41
       4.853838 6.577136 14.840665 11.669974

weight f4 [32, 40]
000000 64 50 48 bd 42 e0 e4 3d 76 b0 1d 3d e8 21 e9 bc
       -0.04890479 0.11175586 0.038498364 -0.02845855
000010 f8 45 91 3d cd 8f 9b 3d 8d 33 71 3d 73 4c 19 be
       0.070934236 0.07595787 0.058887053 -0.1497057
000020 9c 1a e5 3d ef 6f 02 be 84 74 6a 3c af 1e 81 bd
       0.11186716 -0.12738012 0.014310006 -0.063046806
000030 90 23 1a 3e 1d a5 15 3e e1 11 80 3d bc 23 10 be
       0.15052629 0.14613767 0.0625341 -0.14076132
000040 28 93 8b bd 3a 2f ba bd 18 97 0d 3e 58 36 e6 bd
       -0.06815177 -0.09091039 0.13827169 -0.11240834
000050 70 2c d0 3d 97 69 16 be 61 01 bf 3d 80 37 81 3d
       0.10164726 -0.14688717 0.09326435 0.06309414
000060 f5 ee 8f 3c 79 fd 9f 3d 2c d3 7a 3b 52 e7 12 bd
       0.017569998 0.07812018 0.003827284 -0.035865135
000070 d9 00 a2 3d 4f 6f 04 be ac e4 0f be 09 ac 00 3d
       0.07910318 -0.12933086 -0.14052075 0.031414066
000080 1f 68 dc bd 0f a7 0c be fb c3 b4 3d 5d d9 13 3e
       -0.10762047 -0.13735603 0.08826443 0.14438386
000090 b6 e7 94 3d 36 aa 23 3d 4b 28 63 3d ea 7b 21 3e
       0.07270758 0.039957248 0.05545835 0.15769926
0000a0 a3 ad 09 be 4a 95 39 3d 33 dc 93 3d fd f2 fd 3c
       -0.13445143 0.04530839 0.07219734 0.030999655
0000b0 0e 7b c5 3c 97 cf 1f be b3 09 0f bd 08 4a aa 3d
       0.024106529 -0.15606533 -0.03492136 0.083149016
0000c0 94 62 e8 bd 96 02 28 bd 45 5d 62 3c 67 5d b7 3b
       -0.11346927 -0.04101809 0.0138161825 0.005595851
0000d0 dc 92 40 39 71 d3 cc bd 65 09 0b 3e 78 b2 64 bd
       0.00018365256 -0.10001267 0.13577802 -0.055834264
0000e0 2c f6 4d 3c 0e c3 0f be c2 50 50 ba 2c 73 16 be
       0.012570899 -0.14039251 -0.0007946604 -0.14692372
0000f0 bb 6c 9d 3d 88 ad b2 3b ff b1 98 bd 62 d5 67 3c
       0.07686754 0.0054528154 -0.07455825 0.0141499955
000100 c8 4a bd 3b 6b d0 12 3e ac 37 10 3b 55 d3 1e bd
       0.005776737 0.14337318 0.002200584 -0.03877576
000110 21 8b cc bd 60 83 bb 3c 3e 1a d5 bd e3 3c 1e 3e
       -0.09987474 0.022889793 -0.10405396 0.15452914
000120 4d 4c 4b 3d db fb 93 bd c7 ca eb bd 35 a5 65 3b
       0.049633313 -0.07225772 -0.11513286 0.0035041098
000130 ea f0 99 3d ea 77 05 be c5 c5 05 3e 34 c3 09 be
       0.07516654 -0.13034025 0.13063724 -0.1345337
000140 6a 3f b0 bd 9c f1 ac bc c7 64 18 3e 0f c5 36 3d
       -0.08605845 -0.021111302 0.14882194 0.044621523
000150 1b 05 1c bd 54 e6 61 bd e8 4d 05 3e cc 23 b4 bd
       -0.038090806 -0.0551513 0.13018 -0.0879589
000160 80 88 43 3d bf 5e 96 3d 4b e8 e9 3c e4 d6 51 3d
       0.0477376 0.0734229 0.028553149 0.051230326
000170 a7 32 82 bd cc e9 a0 bd 4f 69 8a bd 88 9b d4 bd
       -0.063573174 -0.07857093 -0.06758367 -0.10381228
000180 a9 54 59 bc 5a a1 1d be 8b 38 fc 3d d0 11 28 bd
       -0.013264813 -0.15393582 0.12315472 -0.041032612
000190 5f 17 d2 bd 76 75 44 3c 5d 54 85 bd 58 9a 85 3c
       -0.10258364 0.0119908955 -0.06510232 0.016308948
0001a0 8b 7b 21 be 8d c5 d2 bd 57 49 fc 3c 8b 62 2b 3d
       -0.15769784 -0.10291586 0.03079669 0.041842025
0001b0 cb 7d b8 3d c4 c4 8e 3d 34 a6 21 3e b0 cd 14 3e
       0.09008368 0.06971124 0.15786058 0.14531589
0001c0 90 40 a6 3d 6e 70 04 be 84 3f 1b 3e c0 7f f2 bd
       0.08117783 -0.12933514 0.15160948 -0.11840773
0001d0 28 18 15 be 3d d6 09 be a4 7e 2e 3b 81 0f 30 3c
       -0.14559996 -0.13460632 0.0026625777 0.010745884
0001e0 53 f1 ed bd c7 94 51 bd 40 97 1d 3d 95 ca 80 bc
       -0.116182946 -0.051167276 0.03847432 -0.015721599
0001f0 9e f2 ed 3c 6c f2 b9 bd ea 1c 07 bd 58 7a ad 3d
       0.029046353 -0.090794414 -0.03298656 0.08470601
000200 50 0b f7 3d c6 22 35 bc f7 6b 9f 3d c9 f4 0b be
       0.120627046 -0.011055654 0.077842645 -0.13667597
000210 af f4 97 3d 82 33 c3 3d b4 4d 2a 3d 93 ba 1a be
       0.074197166 0.09531309 0.04157801 -0.15110235
000220 98 63 bc bd 9c 05 df bd 01 1d c2 bd af e1 fa bc
       -0.091986835 -0.10889742 -0.09478188 -0.030625192
000230 58 74 3b bd 30 2a e8 3d 7f 1e 04 3e a5 59 15 3e
       -0.04576525 0.113361716 0.12902258 0.14584978
000240 d5 6c b1 bd 66 24 1b be 5c 09 08 be 51 d4 13 3e
       -0.08663336 -0.15150604 -0.1328482 0.14436461
000250 ff e1 a4 3d 9a 03 11 3d 3e d0 a7 3c ba 91 d2 3d
       0.08050918 0.035403825 0.02048504 0.102817014
000260 3d bc f3 bd d4 8e 07 3e 57 ae d7 3c a6 f9 42 bd
       -0.11901138 0.13238078 0.026328249 -0.047601365
000270 c1 61 d6 bd fd bf bf 3d 01 dc eb 3d 46 72 07 3e
       -0.10467864 0.09362791 0.11516572 0.13227186
000280 8d 73 0b 3e e4 f1 ba 3c 2e 64 16 3e 92 2f 0a bd
       0.13618298 0.02282042 0.14686653 -0.033736773
000290 a2 d6 30 3d 8a 7c 0a 3c e0 6b 00 3e 1e e5 d5 bd
       0.04317344 0.008452544 0.12541151 -0.10444091
0002a0 20 d2 49 bd d6 99 96 3d 5b 6b 24 be 2f a0 9f bb
       -0.049272656 0.073535606 -0.16056578 -0.0048713903
0002b0 e6 ce ea 3d 18 0d 21 3e 7a 73 9c 3c 8b 3a 06 be
       0.11465244 0.15727651 0.019098032 -0.1310827
0002c0 e3 cf ad 3d 2f ed ed 3d c0 16 d8 bd de f3 62 bd
       0.08486917 0.11617505 -0.10551214 -0.05540835
0002d0 a4 76 07 be 79 3f 19 3e c1 35 0b 3e b5 3a b6 3d
       -0.13228852 0.14965619 0.13594724 0.08897916
0002e0 a8 7c 76 3d 67 2e b1 bd 20 f8 65 bd ea 71 5a bd
       0.060177475 -0.08651429 -0.056144834 -0.053331293
0002f0 18 32 5b 3d 61 23 5d 3d 18 d1 b9 3d 3a 44 c9 bd
       0.05351457 0.053988818 0.090730846 -0.09827466
000300 40 11 80 bd d2 f8 0b be 03 61 e6 bd 8e d0 05 bc
       -0.0625329 -0.13669136 -0.11248972 -0.008167399
000310 a5 ce 1a bb 01 a2 f5 3d a4 e0 4d 3d fb 5d fc 3c
       -0.0023621705 0.119937904 0.050263062 0.030806532
000320 8e 65 ea bd bd 08 b7 bc db 36 a1 bd a4 5f df bd
       -0.11445151 -0.022343034 -0.07871791 -0.10906914
000330 8a 5a b1 bd 25 28 bd bd 9f 8f e3 3d a7 8b e3 3d
       -0.08659847 -0.092361726 0.11111378 0.11110621
000340 c0 65 5e 3d 75 35 c9 3d 70 a4 ca bc 8e 1e e8 3d
       0.054296255 0.09824649 -0.024736613 0.11333953
000350 68 48 f7 bd 18 27 21 3e 38 f2 50 bd 6c c3 f4 3d
       -0.12074357 0.1573757 -0.051012248 0.11951336
000360 ed bb 70 bd 52 25 60 3d 59 86 6e bc 65 48 8f bb
       -0.05877297 0.05472309 -0.014558398 -0.004372644
000370 25 fc a3 3d a8 cf b1 3d f1 de 86 3d 1c fb 00 3e
       0.08007077 0.086821854 0.065854914 0.1259579
000380 f5 9a 1e 3d 42 21 76 bc 6d 47 59 bd 41 fc 58 3d
       0.038721997 -0.015022578 -0.053046633 0.052974943
000390 bc d0 12 be 23 d4 f7 3d 17 78 4c bd f0 30 ee ba
       -0.14337438 0.12101009 -0.049919214 -0.0018172543
0003a0 e9 22 f1 bd d6 82 c0 bd 5f f8 91 3d 68 8d a4 3d
       -0.11774237 -0.09399955 0.07127451 0.080347836
0003b0 da cc 7d bd b2 43 b6 3d 58 cd b3 3d 2d 01 d1 3d
       -0.06196294 0.088996306 0.087794006 0.102053024
0003c0 e0 66 ed bd e7 73 b4 3c 42 2d 92 3c 36 96 0a 3e
       -0.115918875 0.022027923 0.017843846 0.13533863
0003d0 4c 6c d6 bc be 58 46 bc ba 91 c0 bd 97 8f cd 3d
       -0.026174687 -0.012106119 -0.09402795 0.10037153
0003e0 e9 ac 24 3e 6b b0 b0 bd e2 4d b0 3d 2e 43 ff 3c
       0.16081585 -0.08627399 0.08608605 0.031159963
0003f0 80 ea 47 bc 60 c3 07 be 27 49 01 3e de 94 10 be
       -0.012201905 -0.13258123 0.12625562 -0.14119288

bias f4 [32]
000000 30 01 20 3c 98 0c 56 bb 4e e2 56 bc 59 ea 13 be
       0.009765908 -0.0032661315 -0.013115479 -0.14444865
000010 b5 8b fa 3d e9 b8 19 bd 3a 45 96 bd c2 81 cc bd
       0.12233678 -0.03752986 -0.07337423 -0.09985687
000020 5d 65 b8 3c 99 cc 52 3d 1e 75 bd bc 6d 4f 84 bb
       0.022509271 0.05146465 -0.023127135 -0.0040377886
000030 1b 26 15 3e 91 51 32 3c a1 3f 53 3d ba f2 71 3d
       0.14565317 0.010883705 0.051574353 0.059069373
000040 dd 1b 0f 3e 22 14 bb bd f8 51 b5 bd e0 80 03 bc
       0.13975473 -0.091346994 -0.08853525 -0.008026332
000050 40 fc b5 3c 20 0a 2b 3d f9 7a d9 bd ee d7 23 3e
       0.022215009 0.041757703 -0.10619158 0.1600034
000060 3f 5a 80 bd 2d 00 22 bd b1 d3 22 be ff 80 f0 3d
       -0.06267213 -0.03955095 -0.15901066 0.11743354
000070 0c 32 c2 3d c1 a5 22 be 38 e7 e1 bd a5 d0 bd 3d
       0.09482202 -0.15883543 -0.110304296 0.092683114

weight f4 [32, 32]
000000 70 5d 2f 3e 09 a1 3e 3d a7 b2 25 bc 63 77 c5 bd
       0.17125487 0.046540294 -0.010113395 -0.09641912
000010 ef 06 b8 3d 68 10 17 3e 73 99 3e 3c bd 5a 07 be
       0.089856975 0.14752352 0.011633265 -0.13218208
000020 3c f7 90 bd 24 35 f5 3d 65 19 f8 3d 9a 54 30 3e
       -0.07078406 0.119730264 0.121142186 0.17219773
000030 39 1f 9f 3d 68 22 29 3e 76 de 2c be 7f 12 8a 3d
       0.07769627 0.16517031 -0.16881737 0.06741809
000040 9d c5 3f bd 42 58 6a bd 88 67 dc bd c2 50 c6 bd
       -0.046819318 -0.057213075 -0.107619345 -0.09683372
000050 1e 73 bb 3d 8c 3a 0b bd 2f b8 25 3e f1 b8 16 3b
       0.09152816 -0.03399138 0.16183542 0.0022998417
000060 1f bb 2e 3e d6 ba 04 3e 4f 13 89 3c cb 26 ec 3d
       0.17063569 0.12961897 0.01673284 0.11530837
000070 51 ba 3b 3d 0e e8 20 3e 63 3a ae 39 e0 61 12 be
       0.045831982 0.15713522 0.00033231368 -0.14295149
000080 c6 a0 1b be d3 c2 0f bd 3a 19 2c bb 63 54 d8 bd
       -0.15198049 -0.03509791 -0.0026260153 -0.105629705
000090 eb 9b 07 be 95 a0 bc 3d ab 73 57 bd a6 b8 3e bd
       -0.13243072 0.09210316 -0.052600544 -0.046562813
0000a0 d2 80 a5 3c fd 6c 47 bd 4f 53 8a 3c 1f cd e6 bc
       0.020203028 -0.048687924 0.016885428 -0.028173981
0000b0 70 53 1e 3e b6 24 e6 bd f6 d2 59 3d a2 11 3e bd
       0.15461516 -0.11237471 0.053179704 -0.046403535
0000c0 d5 1e 22 3e f1 53 6c 3c 63 2b a5 3d 1a 57 0a be
       0.15832074 0.01442431 0.08064916 -0.13509789
0000d0 2a ab 33 be 7a 47 43 bd 86 01 b9 3d 0c 73 4d bd
       -0.17545763 -0.047675587 0.09033494 -0.050158545
0000e0 36 ba cf bc d6 a5 89 3d 83 db e2 3c d4 e0 39 3d
       -0.025357347 0.06721084 0.027692562 0.04538043
0000f0 89 49 05 3e c3 92 11 bd 18 62 f7 3d 31 cf 87 3d
       0.13016333 -0.035540354 0.12079257 0.066313155
000100 37 8d 8a 3d 2b 51 0d be e4 4f 4f 3d 2c a4 33 bd
       0.06765216 -0.13800494 0.0506133 -0.04385774
000110 dd 6f a7 bd 42 47 a9 bc c8 73 d7 3d 61 9d ea 3c
       -0.08175633 -0.020663861 0.105201304 0.028639497
000120 ce 9f 5a 3d 82 ea ec 3d e4 c2 5f bd 3a 38 3f bd
       0.053375058 0.11568166 -0.05462922 -0.04668448
000130 b5 85 d3 bc 28 e9 c8 3c ba 6d 1c 3e 8c 74 24 be
       -0.025820592 0.02452524 0.15276232 -0.16060084
000140 3f 40 04 3e ef 41 fd bc b3 66 dc bd 02 6e 1f be
       0.12915133 -0.030915229 -0.10761776 -0.15569308
000150 44 f9 c8 bd bf 73 cf 3d b3 36 d1 bd 02 df cb 3b
       -0.09813169 0.10129499 -0.10215511 0.006221653
000160 5c cf c9 3d 33 9d df bd 05 ee 9f 3d 15 c7 3c bb
       0.09854004 -0.10918655 0.078090705 -0.0028805186
000170 89 d5 a1 bc 9e 83 56 bd 5b e5 e3 bd 77 6e d5 bd
       -0.019755142 -0.052371614 -0.111277305 -0.1042146
000180 47 d1 34 be 4b 1b d5 bd 9e 89 82 bd d9 c9 9a 3d
       -0.17657958 -0.10405596 -0.06373905 0.07558031
000190 f7 88 16 bd 71 93 de 3d 87 e2 24 be 39 8e 2c 3a
       -0.036751714 0.10867966 -0.16102038 0.0006582472
0001a0 0b 4f ec bd fe 04 c8 3c 3d e3 57 bd d4 4e 00 be
       -0.11538514 0.024416443 -0.052706946 -0.1253007
0001b0 8b bb a0 3c ff a2 37 3e cb de 28 be 52 ec 20 3e
       0.019620677 0.17933272 -0.16491239 0.15715149
0001c0 b1 a3 b6 bc eb fd 0b bd 66 02 05 be d9 29 08 be
       -0.022294851 -0.034177702 -0.12989196 -0.13297214
0001d0 50 10 69 3d 77 2d 18 be 17 dd f6 3c 3e 54 e2 bd
       0.056900322 -0.14861093 0.03013472 -0.11051224
0001e0 09 9d 74 3d d9 eb 03 3d 74 43 dd 3d d5 69 09 be
       0.059720073 0.032207344 0.10803881 -0.13419278
0001f0 ac b2 06 3d 22 e2 a5 3d e5 be d7 3d 4c b9 2e be
       0.03288524 0.08099772 0.10534457 -0.17062873
000200 97 d8 8e 3d b4 f3 1a 3d 98 cf a5 bd 1a 43 27 3c
       0.06974905 0.03783007 -0.08096236 0.010208869
000210 41 8e c9 bd 6f ae 59 3d a8 c7 c0 bd 05 9d 58 bc
       -0.09841586 0.05314487 -0.094130814 -0.01322103
000220 7c 7c f6 3d bd f9 ce 3b 94 72 2a bc 8a 58 37 be
       0.12035462 0.006316392 -0.010403294 -0.17904869
000230 8b 69 06 3e d7 5f d3 3b 4a 97 bb 3b 5c e1 44 3d
       0.13126199 0.006450634 0.005724822 0.048066482
000240 69 db e9 3c 0e d7 1d 3d c2 38 a3 bd 35 dd 52 3d
       0.028547006 0.03853517 -0.0796981 0.05148049
000250 0a 37 82 bd 93 a6 73 3c bd 19 f0 3d 73 7a 72 3c
       -0.06358154 0.014871257 0.11723659 0.014799702
000260 8c 9b 28 bd c8 31 ff 3c ac b6 5a 3d 45 16 04 3e
       -0.041163966 0.031151667 0.053396866 0.1289912
000270 18 1f 93 bd e1 4c 28 3e 77 31 36 be fd 91 fd bd
       -0.07183665 0.16435577 -0.17792307 -0.12381361
000280 a3 67 fa bd db e5 d4 bd 26 3f 92 bc 2d 70 65 3d
       -0.122267984 -0.10395404 -0.017852377 0.056015182
000290 9f 3f 16 be d2 bf 7a 3d c8 59 54 bc 6f e1 94 bc
       -0.14672707 0.06121809 -0.012960859 -0.018173901
0002a0 d4 dc 09 3e 1e d3 c3 3d 8e 58 dc bd b1 ab 24 bd
       0.13463145 0.09561752 -0.10759078 -0.0402028
0002b0 51 48 df bd 2e 0e 88 bd 45 ce b5 3d 3a 49 fc 3c
       -0.10902465 -0.066433296 0.088772334 0.030796636
0002c0 8d a6 32 be 35 8d 09 be cd cf cc 3d 1e 97 0a bd
       -0.17446347 -0.13432772 0.10000572 -0.033835523
0002d0 a1 ef 07 3e fc 96 f9 ba 97 8c 25 be 3b e1 f6 3c
       0.13275005 -0.0019042189 -0.16166912 0.030136695
0002e0 3b 35 f1 3d 81 0d 5f ba 1c 98 85 bd a2 60 fa 3d
       0.11777731 -0.0008508787 -0.06523153 0.122254625
0002f0 f6 7a 1d 3d d8 e1 8d 3c d8 84 b0 bc 22 06 6d 3d
       0.038447343 0.017319605 -0.02154772 0.057867177
000300 34 16 83 3d 5e 7a 9d 3c bd 42 2c bc 40 f5 97 3c
       0.06400719 0.019223388 -0.0105139585 0.018549562
000310 a0 d5 d5 bd 3a 9c 31 3e 0c 1f 82 bc e6 ee 4d bd
       -0.10441136 0.17344752 -0.015883945 -0.05027666
000320 20 0b fa 3d 2f f5 1b 3e f3 12 f9 3d b6 14 eb 3c
       0.12209153 0.15230249 0.121618174 0.0286964
000330 44 49 23 3e 46 79 21 be f1 6a 9b bc 2a 00 32 be
       0.15945917 -0.15768918 -0.018971892 -0.17382875
000340 bd 19 9d 3b 90 94 c5 3d 68 38 37 be 74 8c b2 bc
       0.004794328 0.09647477 -0.17892611 -0.021795489
000350 42 84 b8 bc 3c 91 00 be aa fb 34 be ce 77 52 bd
       -0.022524003 -0.12555403 -0.17674127 -0.051383786
000360 96 ca 16 be cb 19 60 bd 10 b4 2a 3e 15 8d 9a 3c
       -0.14725718 -0.054712098 0.16670251 0.018866101
000370 78 8e 03 be b9 49 12 bd 6b 0a 6e 3d d2 b2 25 3d
       -0.12847316 -0.03571484 0.058115404 0.04045374
000380 43 c4 fc 3d 5b 5c 88 bd 5c 3d c2 3d 63 58 a0 bd
       0.123421215 -0.066582404 0.094843596 -0.078293584
000390 75 2f 28 be dd 71 32 3e f3 79 e8 3d 27 35 f8 3d
       -0.16424353 0.17426248 0.11351385 0.12119513
0003a0 5d f8 0c ba 02 e6 1b 3e c7 c0 1e bd 3c 2a 87 bc
       -0.0005377585 0.1522446 -0.038758066 -0.016499631
0003b0 aa 55 db 3d d5 93 07 3e 96 c4 d7 bd 37 7a c6 3d
       0.107096985 0.13239987 -0.10535543 0.096912794
0003c0 df f4 20 3d e0 b2 24 3e 94 c2 23 3e dd fd 2f be
       0.039296027 0.1608386 0.15992194 -0.17186685
0003d0 32 ae a8 3d 9a ce 65 3d e8 d3 a5 bd 7b 72 bc 3d
       0.0823635 0.056105234 -0.080970585 0.09201523
0003e0 6d c0 f8 bd c7 f1 04 be 17 ae d3 bd f6 12 4b 3d
       -0.12146077 -0.12982856 -0.103359394 0.04957863
0003f0 09 87 02 3e a3 76 db bd 42 24 32 3b dc 29 1a be
       0.12746824 -0.107159875 0.0027182256 -0.1505503

bias f4 [32]
000000 9d ff a3 3c d8 50 40 bd 2c 3e c2 bd 81 f9 20 3d
       0.020019347 -0.0469521 -0.094845146 0.039300445
000010 35 3e 0f 3e 89 d9 fa 3d 80 6e df 3d 8b fb cd bd
       0.13988574 0.12248523 0.10909748 -0.10057744
000020 4a b8 80 bd da 07 5a bc 39 0f 92 bd 96 1e 1a 3d
       -0.0628515 -0.013307536 -0.0713181 0.037626825
000030 31 33 28 bd d8 ba 16 3e d0 32 09 be fa 66 2a bd
       -0.041064445 0.14719713 -0.1339829 -0.041602112
000040 ed d1 86 3c 3a 4c e3 bd 49 92 2b be af 7b d5 bd
       0.016457522 -0.110985234 -0.16755022 -0.104239814
000050 63 91 ef 3d 20 5f 20 3e b2 6f fc bd a3 fd 93 3c
       0.11697652 0.15661287 -0.12325992 0.01806528
000060 9d bc 03 bb b0 60 8f 3c c4 cf 10 bd 4d b8 b5 3d
       -0.0020101436 0.017502159 -0.03535439 0.08873043
000070 79 e0 9d 3d a5 76 0d be 14 83 6f 3d c9 8a 05 3e
       0.077088304 -0.1381479 0.058474615 0.13041224

weight f4 [32]
000000 60 6f 80 3f fc f5 7d 3f 0e eb 7d 3f e4 ee 7e 3f
       1.0033989 0.9920347 0.9918679 0.9958327
000010 3b 4a 7e 3f 75 35 81 3f 21 88 7e 3f 78 4d 81 3f
       0.99332017 1.0094439 0.99426466 1.0101767
000020 e2 f3 7f 3f 2b 82 7e 3f 6b 1b 7f 3f a8 be 80 3f
       0.9998151 0.9941737 0.9965121 1.0058184
000030 b6 04 80 3f 04 e7 80 3f 49 2a 80 3f d4 f5 80 3f
       1.0001438 1.00705 1.0012904 1.0075021
000040 29 fa 80 3f eb 6e 7e 3f 73 57 80 3f 18 58 80 3f
       1.0076343 0.99388 1.0026687 1.0026884
000050 1c 22 81 3f 24 63 7e 3f 73 fb 7d 3f ad f7 7e 3f
       1.0088534 0.99370027 0.99211806 0.99596673
000060 33 95 7d 3f 6c 46 7f 3f 77 dd 80 3f 4f 68 7d 3f
       0.99055785 0.9971683 1.0067586 0.9898729
000070 51 9c 80 3f e3 79 80 3f 34 a7 80 3f ce 45 80 3f
       1.0047704 1.0037197 1.0051026 1.0021303

bias f4 [32]
000000 8b 95 f3 b9 0e 2a 19 bc 70 ff f2 bb f9 87 9d bb
       -0.0004645999 -0.0093484055 -0.0074157044 -0.004807469
000010 f1 17 ec bb 45 ba 06 3c c7 86 1e bc e1 5c f2 b9
       -0.0072050025 0.008223121 -0.009675688 -0.00046227037
000020 c7 f3 47 39 3f 83 18 bb 64 67 c8 ba 9b 3c 95 3a
       0.00019068933 -0.0023271588 -0.0015289602 0.001138586
000030 e0 0e 7f b9 69 ee 06 3c ff 74 0c bb 6d 44 ec 3b
       -0.00024324236 0.008235552 -0.002143204 0.0072103054
000040 bb f4 65 3c f0 db f2 ba 8f f9 fd 3b 98 e3 7a 3a
       0.014035399 -0.0018528681 0.007750697 0.0009570657
000050 e5 af 35 3c 39 2a 94 bb 68 47 da bb 6b 78 f1 ba
       0.0110893 -0.004521635 -0.0066613443 -0.0018422728
000060 f3 a3 3b bc 8c 42 43 bb cb e6 33 3b af da 49 bc
       -0.011452663 -0.0029794304 0.0027450796 -0.012320205
000070 86 aa c0 3a d0 4e 0e 3c da 5c b4 3b 1c 7d b2 3a
       0.0014699257 0.008685783 0.005504233 0.0013617608

running_mean f4 [32]
000000 5c 00 bc 3d 87 81 33 be 0b 4a cd bd ae 14 b7 bd
       0.09179756 -0.1752988 -0.10023888 -0.08939491
000010 54 10 50 3e 7c 36 39 3d d6 91 32 be 5a ed 9f bd
       0.20318729 0.045217976 -0.17438444 -0.07808943
000020 ac 4c 03 be d0 04 aa bd aa 13 c8 bd 9b 05 ce 3c
       -0.12822217 -0.08301699 -0.097693756 0.025149157
000030 b4 1e 01 3e 48 8c 58 bc c0 2b 3b 3e 0c 75 a9 3d
       0.12609369 -0.013217039 0.18278408 0.08274278
000040 2b 85 17 3e ca 1c c3 bd 77 c3 48 be 3b d0 9d be
       0.14796893 -0.095269755 -0.19605814 -0.3082293
000050 a2 16 e8 bd a6 0d 18 be 5d 52 cd bd 84 82 35 3e
       -0.11332442 -0.14848956 -0.10025475 0.17725569
000060 4a 8d 0c 3b 76 02 4d 3e 38 de f5 bd 0c 3b 09 3e
       0.002144652 0.2002047 -0.120052755 0.13401431
000070 9c bb f7 3d 7b 79 65 be be 7c bc bd 4b 5c 16 3d
       0.120963305 -0.22409622 -0.0920348 0.03670911

running_var f4 [32]
000000 1f 9a e9 3e 79 21 1b 3e ec 44 1f 3f 26 d5 00 3f
       0.45625398 0.15149488 0.6221454 0.5032524
000010 a6 bd 6a 3e c0 d0 3e 3e 82 6a e8 3e e9 31 cc 3d
       0.22923908 0.1863432 0.4539376 0.09970457
000020 84 3d b4 3d 39 85 48 3d 80 e0 cd 3e 6b cd 51 3e
       0.08800796 0.048955176 0.40210342 0.20488517
000030 b4 18 e2 3e ca 02 11 3e e9 ef 1b 3e e9 34 b7 3e
       0.44159472 0.1416122 0.15228237 0.35782555
000040 5c e6 10 3f 1b 8c 09 3f 18 1a 65 3e a9 73 ba 3e
       0.566015 0.5372941 0.22373235 0.36416367
000050 d8 a2 74 3e a7 e0 be 3e 2d 77 33 3e c0 d5 36 3d
       0.23890245 0.3728077 0.1752593 0.04463744
000060 28 d8 1f 3e 89 1a f4 3d 0d 83 bb 3e 23 73 e7 3e
       0.15609801 0.11919124 0.3662342 0.4520503
000070 0a da 86 3e 28 2c c9 3e d3 ec d9 3e e1 dd 6c 3e
       0.26338226 0.392915 0.42563495 0.23131515
