code/model_sol_backups/model_sol_10.pt (torch, 635426 bytes, 158 tensors)

weight f4 [32, 2]
00000000: b066 44be ef32 72be 7276 c3be 7ef4 213f
00000010: b0f4 273f 9692 9fbe 7261 d93d e476 d23e
00000020: d8b4 153f 36da 243f bcd3 883e f54c babe
00000030: 2dba 15bf 3329 3b3e 8981 113f 6249 d8bc
00000040: 7bbd 2f3f b805 2dbf 2968 04bf f521 933e
00000050: 96dd d23e de14 7ebe 87af e8be 2794 3ebe
00000060: 3423 433e bcbb 963d a45a 8d3d 9b1e 22bf
00000070: 4c5e 263f 5016 e33c efb9 913e 5fba 18bf
00000080: ad23 bebe 95b4 ddbe 3453 f53c 979c 0f3f
00000090: 2d9e 743e 1146 18bf 256f a2be 3a63 343e
000000a0: e0fe 2b3f 168a 823e 57be 24bf 0b56 25bf
000000b0: c38a 91be ff0d 453e 983c 5abd aff1 9bbe
000000c0: d66b da3e eee9 67be 0706 edbd 90b8 6b3e
000000d0: ae92 febe 5008 073f 4417 fc3e 6636 f6bd
000000e0: 9caa 1dbf c7cf 00bf e8ec a6be 6fc6 20bf
000000f0: 2bfe c83e 0940 93be 170f 243f b54a 1bbe
-0.19179797 -0.23652242 -0.38176304 0.6326369 0.6560774 -0.31166524 0.10614289 0.4110633
0.5847907 0.64395463 0.2672404 -0.3638684 -0.58487207 0.18277435 0.5683828 -0.02640218
0.686485 -0.6758685 -0.51721436 0.28736845 0.41184682 -0.24812648 -0.45446417 -0.18611203
0.19056398 0.07360026 0.06902054 -0.6332795 0.64987636 0.0277206 0.2846217 -0.5965938
-0.37136593 -0.43301836 0.0299469 0.5609831 0.23888464 -0.5948191 -0.31725422 0.17615977
0.67185783 0.25495976 -0.64352936 -0.64584416 -0.2842618 0.1924362 -0.053280443 -0.30457827
0.42660397 -0.22647831 -0.11573415 0.23019624 -0.49721283 0.5274706 0.492365 -0.120220944
-0.61588454 -0.50317043 -0.3260262 -0.62802786 0.39256415 -0.28759792 0.64085525 -0.15165217

bias f4 [32]
00000000: c27c 273e 78dc 2bbe ba4a 083f 3108 d3bd
00000010: 97a6 673e d9bd e63e c776 1cbf b32e 8f3e
00000020: 4a66 4b3e ea86 b4be bb2b a9be ca76 00be
00000030: 1c10 4e3e 460b ed3c 70eb 753e 7741 10bb
00000040: ae9e 0fbe c1b7 d03e d3da 04be 97b3 183f
00000050: b22e c83e 1434 103f 8a42 b7be ae80 08bf
00000060: ec63 c8bd 8523 323f ccde 003e 18c2 2a3d
00000070: ec4a 283f 014c 07be 7cfd ef3e 72e3 96be
0.16356185 -0.16783321 0.53239024 -0.10304297 0.22622143 0.45066717 -0.6111874 0.27965316
0.19863239 -0.3525918 -0.33041176 -0.12545314 0.20123333 0.02893604 0.24015594 -0.0022011676
-0.14025375 0.40765193 -0.129741 0.5964903 0.39098126 0.56329465 -0.35792953 -0.5332135
-0.097846836 0.6958545 0.1258499 0.04168901 0.6573932 -0.13212587 0.4687308 -0.29470402

weight f4 [128, 32]
00000000: 2658 0b3e 3992 e9bd 05da 25bc 1047 2e3d
00000010: a704 e4bd c46d c2bd a0c6 f03d da6e 733d
00000020: 05bb f63d a1b1 90bd 453e 3fbe 33dc a5bd
00000030: 4ead d4bd 94b7 6f3b 55e7 31be 3d80 09be
00000040: f8c2 ecbd 8803 583d 1549 c9bd 6dff ad3d
00000050: 02b9 273e 90a9 aabd 34e0 fcbd 6765 1b3c
00000060: 8fd1 18be 483c 463d 8f74 123e b026 013e
00000070: 8c33 18be 012d 8fbd 6714 edbc 8ca2 823d
00000080: 099a 0a3e 0fc5 6f3d d3a7 88bd 00b2 08be
00000090: 539f 003e 11a2 cbbd d91d f83d f932 00bd
000000a0: 1c1b 7e3d 6912 00bc 4e45 6fbd 2884 01be
000000b0: e629 34be b323 33bc 697d 193e 8042 92ba
000000c0: 066b 093e f969 f1bc b1fe 4b3b f3e5 bbbd
000000d0: 0982 043e d17f ea3c a0b3 063e efc4 eb3d
000000e0: 3b4b fa3d afb3 963d 875e e33b 0d86 4ebb
000000f0: 315e 803b 9894 9cbc f44f dfbd d5ec e33d
00000100: ae71 10be 069e b5bb c9bf 003b 217c 1abe
00000110: 5521 c0bd 787d 003e 5fe1 983d c1c9 253e
00000120: 5239 583d 0bdf d63d 7f99 063d f1f9 343e
00000130: 4741 0d3e bbdd d73c 597d 80bd be49 aa3d
00000140: 8bca a8bd 1797 fbbd 0c84 cd3d d9c2 ddbd
00000150: 53f2 f03c b07b 9fbd 98c2 823d 42f7 453d
00000160: 06a2 d7bd 5bb3 98bc f4f6 553c caf9 1e3e
00000170: 75b4 adbd 9238 73bd 311c 053e 0e35 03bc
00000180: 6c12 d6bd 0859 523b 2d62 3a3e fb4f 43be
00000190: 4a00 26be 1e4f 73bd 3c9d 1abd c22e a4bd
000001a0: 9077 b73c 8922 f53d d648 e9bd dd8e cd3d
000001b0: 40ab c2bc 5d1c 293e 193d 9bbb 5d06 eb3b
000001c0: b504 553d 3656 a8bb 3a08 2d3e 3617 a03c
000001d0: aae8 1abe f3d6 933c 494d 0cbe 887b 20be
000001e0: 2cd7 143e 83a9 a63d 39f2 023e 6bab ca3c
000001f0: 84bf 423d dc00 24be 98fc 14be ac1a e3bd
00000200: 6c30 9abd 94ad fcbd 1048 5e3d 0e31 b8bc
00000210: a60f 02be 6efb 4fbd 8e88 283c a0d6 21be
00000220: b37e 1e3e 75a1 ef3d 0560 3b3b 3e1c 2abe
00000230: a16a 903d c316 c1bd c508 a7bd d3ae 06be
00000240: 6844 303e d256 35bc fd2e c63c 62c6 353e
00000250: e9de 053e 9994 a5bd b5c3 6ebd 8a8c 7b3d
00000260: a5ca 1cbd 7822 21bc 8bbf 343e 22d9 e23d
00000270: 9fa8 183e 04a3 9d3d 9c8d 0ebe 9b71 b9bd
00000280: b307 14be 2251 bbbd a477 23bd 134a 093e
00000290: 500b 51ba 81dd 20be 751b 22bd 4900 fa3d
000002a0: 7fd4 88bd 6c90 fe3d 4fb3 25be e8c5 233a
000002b0: 2f4f bc3c c3b2 33bd 1d42 2dbe 27a4 6e3b
000002c0: 2595 8c3d b174 db3c 0d84 d8bd 1c59 ffbd
000002d0: 6f92 04be 9a65 153e 28dd beba f7fa 043d
000002e0: fe7c fb3d 93e9 bfbc 91d1 0c3e ac4f 653d
000002f0: ddc0 033e f413 1ebe 16a8 013e 6081 1abe
00000300: d1c6 17be 93ff 933d 6a55 b2bd ceba 2cbe
00000310: 100e bd3d 8db6 153e 3254 733c 5320 9fbd
00000320: a532 ecbd 7302 0c3e ae80 bd3d e088 a83d
00000330: 20aa e5bb 7a62 263e baac a63b cb4b 0b3e
00000340: 295b 21be 811f f7bd 19a6 a93d c03d 2a3c
00000350: 5201 1c3e dd0f 973d 182b 123c b830 5d39
00000360: 6c7c 2f3e 2d0c 8ebd c854 453c a102 92bd
00000370: bdb8 b53d 1bcb 603d 1637 23be 8095 ffbd
00000380: 49f7 3dbe 531d f6bd e354 b83b 2f58 58bd
00000390: 538e 06be a2da 073e 64ec 2dbe 53d6 cb3b
000003a0: 402e d63d 8062 e13d dc2f c9bd 0bd5 083e
000003b0: 7b4f 403b 56ab 80bd 226b f0bd 23a7 babc
000003c0: a7f1 943d e62b a2bd 957c b43c 4a89 373d
000003d0: d20d 0dbe 4874 cbbd d79b f13c 0d61 303c
000003e0: d1b6 e5bd 104d 05be bcb6 c53d 0a10 0a3e
000003f0: cef5 bebd 5738 1ebd 3023 87bd 2df4 b6bd
0.13607845 -0.11404843 -0.010122781 0.04254824 -0.111337 -0.094935924 0.11756635 0.05943189
0.1204739 -0.0706513 -0.18676098 -0.0809864 -0.10384618 0.0036577927 -0.17373402 -0.13427825
-0.11560625 0.052737743 -0.098283924 0.08495984 0.16379169 -0.08333123 -0.12347451 0.009484625
-0.1492369 0.048397332 0.14302276 0.12612414 -0.14863414 -0.06991006 -0.028940393 0.063786596
0.13535322 0.05853754 -0.06672635 -0.13349152 0.12560777 -0.09943021 0.12115068 -0.03129861
0.062037572 -0.007816889 -0.058415703 -0.1264807 -0.17594108 -0.010933804 0.14989246 -0.0011158735
0.13419732 -0.029469477 0.003112715 -0.09174719 0.1294023 0.0286254 0.13154459 0.115121715
0.1222138 0.07358491 0.006938759 -0.0031513006 0.0039174785 -0.019113824 -0.10903922 0.111291565
-0.14105865 -0.0055425195 0.0019645563 -0.15086414 -0.093813576 0.12547863 0.07464861 0.16190244
0.05278904 0.10491761 0.03286123 0.1767347 0.13794433 0.026350847 -0.06273908 0.083148465
-0.08241757 -0.122846775 0.100349516 -0.1082818 0.029412424 -0.077872634 0.06384772 0.048331507
-0.105289504 -0.01864021 0.0130593665 0.15524974 -0.08481685 -0.05938012 0.12999035 -0.008008255
-0.104527324 0.0032096524 0.18201514 -0.19073479 -0.16211048 -0.059401624 -0.037747607 -0.08016731
0.022395879 0.11969478 -0.113908455 0.10037015 -0.023763299 0.16514726 -0.004737508 0.0071723894
0.052006442 -0.0051372303 0.1689767 0.019542318 -0.15127817 0.018046832 -0.13701357 -0.15672123
0.14535207 0.081378005 0.12787713 0.024739942 0.047545925 -0.16015953 -0.14549482 -0.11089072
-0.07528767 -0.12337795 0.054267943 -0.022484329 -0.12701282 -0.05077689 0.010286463 -0.15804529
0.1547802 0.11700717 0.0028591168 -0.16612336 0.07051588 -0.094281696 -0.081559695 -0.13152628
0.17213595 -0.011068063 0.024192328 0.17751458 0.13073315 -0.080849834 -0.05829211 0.061413325
-0.038279194 -0.009834878 0.17651193 0.11076571 0.14908074 0.076971084 -0.13921207 -0.09054872
-0.14456062 -0.09146334 -0.03990902 0.13407163 -0.0007974403 -0.15709497 -0.039576966 0.12207086
-0.066811554 0.1242989 -0.16181682 0.0006247447 0.022986976 -0.043871652 -0.16919751 0.003641376
0.068643846 0.026789041 -0.10572062 -0.12468168 -0.12946485 0.14589539 -0.0014561759 0.0324659
0.122797 -0.023426807 0.13751818 0.055984184 0.1286654 -0.15437299 0.12661776 -0.15088415
-0.14821936 0.07226481 -0.08707698 -0.16868135 0.09231198 0.14620419 0.014851617 -0.07769837
-0.11533097 0.1367281 0.09253059 0.08229232 -0.007008806 0.16248503 0.0050865086 0.13603131
-0.15757431 -0.12066556 0.08283634 0.010390699 0.15234879 0.073760726 0.008921407 0.00021094352
0.17137307 -0.06935916 0.012044139 -0.07129408 0.08873127 0.054881196 -0.15938982 -0.12479687
-0.18551363 -0.12017312 0.0056253537 -0.052818473 -0.1314023 0.13266996 -0.16984707 0.006220618
0.1045804 0.110051155 -0.098235816 0.1336252 0.002934425 -0.0628268 -0.11739184 -0.022784775
0.07272654 -0.07918529 0.022032062 0.044808663 -0.13774803 -0.09934288 0.029493256 0.010765326
-0.1121651 -0.13017678 0.096539944 0.13482681 -0.09324227 -0.03862795 -0.06598508 -0.089332916

bias f4 [128]
00000000: e400 9a3d 3214 d5bc 337b 2a3e 6c90 ddbd
00000010: 6adb cabd da3a 823d 2c27 ca3d fa30 39bd
00000020: fe78 f2bc 7926 72bc 0c52 8fbd ae32 e03c
00000030: 8850 9ebd d3f1 143e 658f 34bd 652d 113e
00000040: bec0 5dbd 8063 69bd 1346 103e 065d 403d
00000050: 3e77 29be 7dfb b6bd 1ff0 0b3e 4441 4abd
00000060: 219e 14be 95a9 29be f97e 133d 77bc 373e
00000070: 9598 efbd 5f74 c1bb c656 633d 9af1 37bd
00000080: 2927 833c e861 57bd 9c37 933d 381d 923d
00000090: b179 fbbb cb77 24be 03a1 033e c488 f63d
000000a0: b620 373e adf1 0f3d e443 463c df53 e93d
000000b0: 8ba7 97bd ca37 14bd cf44 513d d034 013e
000000c0: 0832 e5bd e2d3 cfbd dd7b cd3c d6d8 02bb
000000d0: fba8 b53d 5dd9 30be c1b7 bf3d 69f3 77bc
000000e0: f61e 17be f8db c53d 65a0 713d 8801 a53d
000000f0: b8d4 72bd b5a3 67bd 1d3f b1bd e7c6 c73c
00000100: 30e6 50bd 15a1 123e 5937 fabd 5922 35be
00000110: c82c 36be 32f2 16be 5bc4 e3bd 314a 40bc
00000120: d721 703b 5eb9 dc3c 02e2 e7bd db90 9e3d
00000130: 3f9d 923d c22b 1a3d 8be4 2cbe b345 48bd
00000140: 6d71 03be 67da 023e fabc fcbd 3e0f 30be
00000150: 9b8a fcbc fc60 233e 3972 993d 3193 273d
00000160: 904a 08be 6872 1cbe 759e 98bd 0d95 bc3d
00000170: d82e d73c 3ba6 d03d 5662 a83d 8c8e 083e
00000180: 827c e63d b2ae 07be e843 9e3d 890f 6cbd
00000190: 27a6 7f3d b01e bd3d a37d 25be 22c5 22bd
000001a0: af80 383d 3c73 953c bc2c ef3d 7454 0ebe
000001b0: 5175 b83d 12d3 d8bd 1066 01bc 5da0 5f3c
000001c0: 2dfe 2d3d e772 1a3e 73d9 813c c38c 3d3e
000001d0: 85d3 c7bc ea26 6d3d 6eda 17be fa62 1b3e
000001e0: b62c 61bd 5edb 16be 58ea a23d 487b 12be
000001f0: d4b7 f9bb 2d54 1c3d 34cf e73d 0fd3 2a3e
0.07519701 -0.026010606 0.1664856 -0.10818562 -0.09905131 0.06358881 0.09870753 -0.045212723
-0.02959871 -0.01477968 -0.06998071 0.027367916 -0.07730204 0.14545374 -0.044082064 0.14177473
-0.05413889 -0.056979656 0.14089231 0.046963714 -0.16549394 -0.08934686 0.13665818 -0.04937865
-0.14513446 -0.16568597 0.036009762 0.17942987 -0.116990246 -0.005903765 0.055502675 -0.044908144
0.016009884 -0.052583605 0.07188341 0.07134479 -0.007674419 -0.16061322 0.1285439 0.12037805
0.17883572 0.03514259 0.012101147 0.1139295 -0.07405003 -0.036186017 0.05109101 0.12617803
-0.11191183 -0.10147835 0.025083477 -0.001996567 0.08870121 -0.17270418 0.0936122 -0.015133717
-0.14757904 0.09661096 0.058990855 0.08056933 -0.059284896 -0.056552608 -0.08654616 0.024386836
-0.051000774 0.1431926 -0.12217588 -0.17688884 -0.1779052 -0.14740828 -0.11121436 -0.011736439
0.0036641264 0.026943859 -0.113224044 0.07742473 0.071588986 0.037639387 -0.16884057 -0.048894595
-0.12836237 0.12778626 -0.12340732 -0.17193314 -0.030827811 0.15954965 0.07492489 0.040911857
-0.13309693 -0.15278018 -0.07452098 0.09208117 0.026267454 0.10187956 0.08221881 0.13335627
0.11254217 -0.13250235 0.07727796 -0.057632003 0.062414315 0.09234369 -0.16161208 -0.03973878
0.045044597 0.018243425 0.11678454 -0.13899404 0.09006751 -0.105871335 -0.007897869 0.013649073
0.04247873 0.15082894 0.015850758 0.18510728 -0.024392853 0.05789844 -0.14829418 0.15174475
-0.05497428 -0.1473212 0.07954854 -0.1430484 -0.007620791 0.038166214 0.11318818 0.16682075

weight f4 [32]
00000000: 2d74 813f 9c84 7c3f d694 7f3f bd03 823f
00000010: 11f2 7f3f ab21 7e3f d802 803f 7534 7f3f
00000020: 6ba3 7e3f 7025 7e3f 68b1 7b3f 38bc 7d3f
00000030: a114 7c3f 9c9f 803f ca6f 7c3f f336 813f
00000040: 5856 7a3f 86c7 813f 3182 813f 4d05 813f
00000050: 2de8 783f 209a 793f 1814 813f f346 813f
00000060: a863 7e3f d0b8 7e3f 9d75 7e3f b655 803f
00000070: 7038 7f3f 8e2d 7d3f 4b6f 7e3f d96c 7f3f
1.0113579 0.98639846 0.9983648 1.0157391 0.9997874 0.99270123 1.0000868 0.9968942
0.99468106 0.99275875 0.98317575 0.99115324 0.9846898 1.0048709 0.98608077 1.0094894
0.97788 1.0139015 1.0117856 1.0079743 0.9722927 0.975008 1.0084257 1.0099777
0.99370813 0.9950075 0.99398214 1.0026157 0.9969549 0.98897636 0.9938857 0.99775463

bias f4 [32]
00000000: 3534 ddbb 20d3 2cbb 7ff1 a8bc bc99 073c
00000010: efff 01bd 610e 67bc 3c1d 8c3a 7983 5fbc
00000020: 281f b0bc cc47 3d3c 05f6 2abc 669d 07bc
00000030: d151 1abc 9313 c9bb 864d b8ba da3a f23b
00000040: 23e2 513b 31cd 483c b3ca c73c 215e d13c
00000050: 9207 0dbd 2b8c ccbc dace 013c b305 23bb
00000060: a6b5 99bc b8f0 f13b c511 82bb 016e 9cbc
00000070: a1e7 153c 9b02 e4bc f662 35bc 063c 2dba
-0.0067506083 -0.0026370957 -0.020622967 0.008276399 -0.031738218 -0.014102549 0.0010689865 -0.013642185
-0.021499231 0.011552762 -0.010434632 -0.008277273 -0.009418921 -0.0061363666 -0.001406119 0.0073922696
0.0032025657 0.012255953 0.024388647 0.02555758 -0.034431048 -0.024969181 0.007922852 -0.0024875223
-0.018763375 0.0073834322 -0.0039694034 -0.019095423 0.009149463 -0.027833274 -0.011070957 -0.00066083705

running_mean f4 [32]
00000000: 88a2 383d e852 22bb 3592 073f 3f88 823d
00000010: 1cd6 0e3f b6fe b93e 68a9 24bf b5a1 bb3e
00000020: 996c 8d3d f39b abbe 99c1 b3be 07ed 89be
00000030: 9641 853e ef87 41be de24 b83e 5c2d 2fbe
00000040: 620f b8be dfc5 1d3f c181 9cbe 0172 1b3f
00000050: a799 183f 1e0f 623e d0fa abbe 4804 27bf
00000060: 12a3 ddbd 4a5a 423f 370e 6f3e a121 a63d
00000070: f60c be3e fb71 d4be 6588 dc3e 509a 77be
0.045076877 -0.0024768654 0.5295747 0.06373643 0.55795455 0.36327142 -0.64320993 0.3664681
0.06905479 -0.33517417 -0.3510864 -0.2693865 0.260266 -0.18899511 0.35965627 -0.17107147
-0.35949236 0.6163005 -0.30567744 0.6072083 0.59609455 0.22076079 -0.33589792 -0.6524091
-0.10822119 0.7591902 0.23345266 0.08111883 0.37119263 -0.4149321 0.4307281 -0.2417996

running_var f4 [32]
00000000: cd02 783c 6947 223e 916d 163e 9221 133d
00000010: 8f76 fa3d 29c2 753d 27ba ca3d 8156 993d
00000020: e8b1 8c3e 2b7b cb3d 1f9e 873d 6f4d 303d
00000030: 7061 f73b 8c42 cd3d e2e3 bd3d 0fe5 fd3d
00000040: 846b 583d 59ee 913d 393a ea3d b610 193d
00000050: 9c74 bf3d 7a05 093e 94cf 0b3d 15d6 a33c
00000060: 55d5 863d 0e09 9b3c 2f6a 1f3e 86c3 863d
00000070: 7c32 d13d 381b b43d 8c89 8d3d d2da e23d
0.0151373865 0.15847553 0.14690234 0.035920687 0.122296445 0.05999962 0.09898787 0.074872024
0.27479482 0.09935602 0.06621956 0.043042596 0.0075494573 0.100224584 0.09271981 0.12397205
0.05283691 0.07125539 0.11436886 0.037369452 0.09348413 0.13380995 0.03413351 0.019999543
0.065836586 0.018925216 0.1556785 0.06580262 0.10214707 0.08794254 0.069110006 0.11076893

weight f4 [32, 3]
00000000: 1bbf 12bf d52a 4b3e 1f79 ba3e c432 9d3e
00000010: dc64 4cbe 2fd1 21bd eccd 6c3f 7456 00bf
00000020: 740a 8c3e efab 473f 9f54 b2bc a14b b9bc
00000030: 543b edbe 77c3 6d3e 1d5c e53e de2d 913c
00000040: 7b45 37bb e495 13be 1c3e 753e d34c 29be
00000050: b98c a7bd 38ea 853e ef67 bbbe 6a94 0fbe
00000060: d61a b4be 02d3 863e 7d07 ca3e 0c44 05be
00000070: 45aa 5f3e 8d4b 213e 6c3a 45bf 1744 033f
00000080: 3d09 713e 62cd 22be fae1 9e3e a4cf cebe
00000090: 2b75 063f 4ecd 663e d635 eabe 05df a13c
000000a0: e2bc babe b225 77be 8736 083f 8295 86be
000000b0: b952 5fbe efdd 0dbe 58fb 01bf f8bc fb3e
000000c0: 9e26 123f 42b0 59be 6e5c 93be b244 c33e
000000d0: d028 11bf be61 0bbc 4686 11bf 5ae1 a3bd
000000e0: cb34 613e 963e 613f 5a88 40ba 15cf 9ebe
000000f0: 0868 9b3e af62 e9be 3711 06bf f8c4 e5be
00000100: 1401 f8be 6393 cf3d acd9 24bf ecff 6d3e
00000110: 6cd3 203e acdb d4bd 4c3b 0e3f cd84 8fbd
00000120: 12e2 52bf 4d4f 7dbe fdc7 363e c3cb 0e3f
00000130: 4106 153e c4c8 0ebf 5bb5 bcbe 266b 9e3e
00000140: 7aef 123f 8b46 403d 43d0 0ebd e4e3 f73e
00000150: 439f 97be 0391 063f ec2f 79be 0dcd cebd
00000160: d15b 583e 5d1a 023e 44c2 49bf 48d9 ec3e
00000170: 4cec 023f 1b9c 2b3f f1df eebe c6bf 80be
-0.57322854 0.19840558 0.36420533 0.30702794 -0.1996035 -0.039506134 0.9250171 -0.50131917
0.27351725 0.77996725 -0.021768866 -0.02261907 -0.46334326 0.23219095 0.4479684 0.017722066
-0.0027964998 -0.14412647 0.23949474 -0.16533212 -0.081811376 0.26155257 -0.36602733 -0.14021459
-0.35176724 0.2633286 0.39458838 -0.13014239 0.21842296 0.15751477 -0.7704227 0.5127577
0.2353868 -0.1589866 0.3103178 -0.40392792 0.52522534 0.22539255 -0.457442 0.019759664
-0.3647223 -0.24135473 0.532082 -0.2628594 -0.218089 -0.13854192 -0.50774145 0.4916761
0.57090175 -0.21258643 -0.28781456 0.38138348 -0.567029 -0.00850719 -0.5684551 -0.08001967
0.21992795 0.87986124 -0.0007344537 -0.31017366 0.30352807 -0.45583102 -0.5237002 -0.44876838
-0.48438323 0.10135534 -0.6439464 0.23242158 0.15705651 -0.103934616 0.5555923 -0.070077516
-0.82376206 -0.24737282 0.17849727 0.55779666 0.14553167 -0.55775094 -0.36857113 0.30941123
0.5739666 0.046942275 -0.034866583 0.48416054 -0.29613695 0.5256502 -0.24334687 -0.10097704
0.21128775 0.1270537 -0.7881205 0.46259522 0.5114181 0.67035073 -0.4665523 -0.25146312

bias f4 [32]
00000000: 48b3 a43d 1e76 fc3e b498 843e 7690 6e3d
00000010: e725 913e 7694 0a3e 2590 5dbe c480 f1be
00000020: 4145 24be fd3e b5be d5d8 bebe 63c8 ab3e
00000030: a6af cabe 38f3 b83e 895d b7bd 83d9 09bf
00000040: 880e 043f 4b01 653e 5a29 dc3e 98b1 673e
00000050: 5360 91be f099 533d 3d03 ba3e f1e3 7d3e
00000060: ac5c 93be a2c8 f03e abbe 93be d929 9e3e
00000070: af12 66be 733f c83d 6c94 193e 0654 b2be
0.08042008 0.49308866 0.25897753 0.058243237 0.2834923 0.13533196 -0.21637018 -0.47168553
-0.16042043 -0.3539962 -0.37274805 0.3355132 -0.39587134 0.3612306 -0.08953387 -0.5384752
0.5158467 0.22363774 0.430003 0.2262634 -0.28393802 0.051660478 0.36330596 0.24793984
-0.2878164 0.4702807 -0.28856406 0.30891302 -0.22468065 0.09777727 0.14998025 -0.3482973

weight f4 [128, 32]
00000000: 64c5 893d 1db7 9b3c f275 e23d 05a2 3cbc
00000010: 0ec7 ec3d 1ac6 db3c 2153 6c3d 191e 5e3c
00000020: 238b 89bd c510 dc3d 5ed8 01be 01ed d33d
00000030: 3286 66bd cd64 1ebc 7760 b1bd 1da9 39be
00000040: 32fe a53d f5b5 473d fb2c 3ebe d8cc b43c
00000050: 0265 e8bd d2f8 913c 76e1 17be c33d ec3c
00000060: 828a 413d 9e3d 143e c905 21be 41e8 a83d
00000070: e4aa 1cbe de16 003e 0865 003d fdb3 9bbd
00000080: 96d1 c93d 691f 8a3d bd5f a7bd 1da7 8d3c
00000090: 9485 693d 1fcd cfbc 00ae bcbd 7cb8 3bbd
000000a0: 1adc 333e 752e 153e 28a1 f2bd 81b7 10be
000000b0: ef9a 1c3e 61ef 1dbe c3ce 25be 635f 003e
000000c0: 021f 033e 3b58 17be 1adb 8cbd 076d 453d
000000d0: 8f45 223d 24a4 26be c17d 82bd 2fe6 93bd
000000e0: b78f dd3d 628f 92bd a154 c23d ee51 3bbc
000000f0: 7b43 01be ea73 eabc d2cd 673d de1f afbc
00000100: 04bf 6a3c cc12 b3bd 4e6e 933d 8ee8 0c3e
00000110: b444 a23d e15f 863c 77df f2bd ef81 c43d
00000120: 440d 3bbd 8bdf 32be b483 d13d 41f7 273e
00000130: 76ba bbbb 4959 2cbc f0de 083e aab9 103e
00000140: 53c3 363e 6394 3e3e 29de 2e3e 2e10 0fbe
00000150: de14 1dbd 49b5 02be 6dcb c53c 92ff 5d3d
00000160: 497c 47bd e458 dc3d 11c4 fabc 27f5 2d3e
00000170: a573 b43d b642 f13d 8636 1b3e 5461 b33d
00000180: b574 c53d 734b 77bd b8b0 223e e52d abbd
00000190: 39bb 22be a740 26be d658 34be b2c6 bbbd
000001a0: 1fb9 88bd 6cbf ee3d e0e9 33bd 2877 f43c
000001b0: d176 65bd 9093 39bc f63a ecbd 9ad7 ecbd
000001c0: a75d eb3d 5896 ea3d f252 123e accb 5f3d
000001d0: 4d47 2dbc 8576 9a3d b08a 283e 25b3 c93d
000001e0: 0c99 01ba 99d3 0ebe 6fdf 213e b0fb 003d
000001f0: 44be f2bd 3320 1ebe 2a9a 56bd 1481 0a3e
00000200: 122c f4bd 401c 093e 7bdc 123e a107 5d3d
00000210: 3eb1 04bd c34f 4ebd 4c26 5ebd 28dd 0a3d
00000220: edf1 ce3d f0dd 35be 97ef 03be ea55 20be
00000230: 73b5 5a3d 8de5 573d bfc4 003e 0d4a 01be
00000240: eddb 3bbe c0d8 e3bd 29ec 373e 4683 bebd
00000250: 3d22 b0bd 3072 383e 34b0 733d 959d e73c
00000260: 7daf 4d3c 7dc0 18be c9d6 13be 1cad 533d
00000270: 366b d6bd d1ea f23d e570 263e a4b0 483d
00000280: 0ac4 f1bd f2d1 c93d 68c6 263e 624a 0d3e
00000290: 210f 533c e030 883c 2180 e83c 4f66 27bc
000002a0: 4754 3abd 04a9 0e3c 7f70 debd 8911 edbd
000002b0: 5159 0e3d 9464 783d 1e66 293e acd4 f8bd
000002c0: c742 f3bc 6c3d 063e 9f86 183e e338 3f3d
000002d0: 4227 14be d14b 323d b0c5 ff3a 07dd efbd
000002e0: bcfc c9bd 2bdb f5bd 66bb 033e 47ce 13be
000002f0: c328 e9bd 2d1c 0c3e efc3 b2bc c311 443c
00000300: fc57 d43d b853 e5bc 2724 28be be42 d33d
00000310: 1b29 54bb 15a2 a83d e36c b2bd 79d0 4fbd
00000320: 1df3 10bd 818d 1d3d 2a40 86bd fe5d 1dbe
00000330: d659 88bc 23f0 dfbd 5162 78bd ebb3 91bd
00000340: 58cf d9bd 4e02 b3bd 74a3 163d 85fe 5e3d
00000350: aea1 8ebc 8677 e33d c91b 07be 2b21 1abe
00000360: dd0e 933d 0d98 e3bd 34a2 03bd 841d a13c
00000370: a8c2 d73c c25d f2bd 0ff4 e53d 3b40 c23d
00000380: b9b1 efbd 04e3 13be be6b 8dbd 87ff 463d
00000390: 024e ec3c 9e75 84bd 7e10 18be 91f7 21be
000003a0: 1f7b afbd 7a05 c2bd 6e6a edbd 2658 d93b
000003b0: ad70 5dbd ddaa b4bd 53ba 1cbc 3c82 1f3e
000003c0: 5c57 c9bd 890d 23be 18ad b8bd 3342 1e3d
000003d0: 5fb0 d1bb f684 86bd 152e 573c 190a e9b9
000003e0: 6536 96bd 7a06 64bd 7a8e 62bc d4b9 743c
000003f0: fd86 bbbd 38ff b9bb 28a4 d93d 36ac 163e
0.067271024 0.019008214 0.110576525 -0.011513238 0.11561404 0.02682786 0.057696465 0.0135569805
-0.06715991 0.10745386 -0.12680194 0.10347939 -0.056280322 -0.0096675875 -0.08660977 -0.18130918
0.081051245 0.048757512 -0.18571846 0.022070333 -0.11347391 0.017818842 -0.148321 0.028838044
0.047251232 0.1447663 -0.15724863 0.08247424 -0.15299565 0.12508723 0.03134635 -0.076026894
0.098544285 0.06744272 -0.081725575 0.0172916 0.057012156 -0.025366364 -0.09212875 -0.045830235
0.17564431 0.14568503 -0.11847144 -0.14132501 0.15293477 -0.15423347 -0.16192155 0.12536387
0.12804797 -0.14779751 -0.06877728 0.04819968 0.039617117 -0.16273552 -0.06371642 -0.072216384
0.10818427 -0.07156254 0.09488798 -0.011433108 -0.12623398 -0.028619725 0.05659277 -0.0213775
0.014327768 -0.087438196 0.07198773 0.13760588 0.0792326 0.01640314 -0.11859029 0.09595095
-0.045666948 -0.17468087 0.102301985 0.16402914 -0.005729015 -0.010519334 0.13366294 0.14133325
0.17847948 0.18611293 0.17076935 -0.13971016 -0.03834998 -0.12764467 0.024144853 0.05419881
-0.048702512 0.10759142 -0.03061107 0.1698805 0.0881112 0.11780302 0.15157518 0.08758798
0.09641401 -0.06037469 0.15887725 -0.08358363 -0.15891732 -0.162356 -0.17612013 -0.091687575
-0.06675934 0.116576046 -0.043924212 0.029841974 -0.056021515 -0.011326686 -0.115346834 -0.1156456
0.11492472 0.11454457 0.14289454 0.054637596 -0.010576081 0.07542137 0.16459155 0.09848622
-0.0004943765 -0.13947906 0.1580789 0.031490028 -0.118526965 -0.1544197 -0.052393116 0.13525802
-0.11922468 0.13389683 0.14341919 0.053962354 -0.032395594 -0.050369035 -0.05423574 0.033902317
0.101047374 -0.17760444 -0.12884365 -0.15657774 0.0533957 0.05270915 0.12575053 -0.12625904
-0.18345614 -0.11125326 0.17961182 -0.09302382 -0.086002804 0.18012309 0.059494212 0.028273383
0.012554047 -0.14917178 -0.14437403 0.05167876 -0.104696676 0.11861194 0.16254003 0.048996583
-0.118049696 0.09854497 0.16286623 0.13797906 0.012882025 0.016624868 0.02838141 -0.010217263
-0.04549053 0.008707289 -0.10861301 -0.1157561 0.034753148 0.060642794 0.16542861 -0.12149939
-0.029694928 0.13109368 0.14895104 0.04668511 -0.144681 0.043529335 0.0019513872 -0.117120795
-0.098626584 -0.120046936 0.12864456 -0.14434157 -0.11384728 0.13682623 -0.021821944 0.011967125
0.10368344 -0.027994022 -0.16420041 0.103154644 -0.0032373134 0.0823404 -0.08712175 -0.050735924
-0.0353881 0.038465027 -0.06555207 -0.15367886 -0.0166444 -0.10934474 -0.060640637 -0.07114395
-0.10635251 -0.08740674 0.036776975 0.054441947 -0.01741108 0.11106782 -0.13194193 -0.15051715
0.07180569 -0.11112986 -0.03213711 0.019667394 0.026337937 -0.11834289 0.11228191 0.09484907
-0.1170382 -0.14442068 -0.06905316 0.048583534 0.02884579 -0.06467746 -0.14850041 -0.15817095
-0.08568405 -0.09473701 -0.115925655 0.0066328226 -0.054062534 -0.08821652 -0.0095659075 0.15577024
-0.098311156 -0.15923132 -0.0901739 0.03863735 -0.006399199 -0.06568329 0.013133545 -0.00044448746
-0.07334594 -0.05567024 -0.013827914 0.014936883 -0.09156606 -0.0056761764 0.106270134 0.14714131

bias f4 [128]
00000000: ffc0 58bc 4015 133e 6e01 8a3d 1bb6 e7bc
00000010: 9ecf fcbd 8568 c9bd b189 05be be86 1bbe
00000020: 8105 cebc 373f e6bd e6e5 19be dab3 613d
00000030: 8391 d93d 164c 453d 20b2 48bc 3f11 bdbc
00000040: 2b96 6bbd 6d0a 803c 2e92 d3bd ee7d b8bd
00000050: 7fdf 223e c853 4b3d faa4 50bd 9f05 bcbd
00000060: 192e 5d3d 4447 1a3e 48fa 4bbd 6053 893d
00000070: a636 ffba c8e7 2fbd 2ccf febc b88d df3d
00000080: 1f63 c2bc 391c e9bd e137 fc3d 9def b3bd
00000090: 79c5 033e 2462 1fbe ff7f ed3d 766a 2c3e
000000a0: 0d19 033e 3124 f2bd 6065 c23d 772f 72bc
000000b0: b548 7e3d 0fa2 863d 46a7 bcbc 4b6e 6cbd
000000c0: f305 16be 2112 bb3b 223e a83d ea1b 003e
000000d0: 9c5a c5bd 37f5 5fbd d137 983d 34fa fa3d
000000e0: df12 1a3e cea9 263e 1ddd 12be 5109 a13d
000000f0: e9dc 01bb 7cee c1bd 9623 41bd 40e5 babd
00000100: 8328 a43d 4b45 973c cfb2 b83d 7763 74bd
00000110: 43b0 1b3c c171 db3d 968c 5d3d 760f e7bd
00000120: a753 c03d db8d 8ebd 6faf 473d 60be 1fbe
00000130: 5097 f73d bb4c 27be 60ff 46bd 17cb 0f3e
00000140: e2d6 01be 6f5a 16be 877e 0bbd d1f3 0e3d
00000150: 4dae 09be 494e d43d 9c7c d5bd a10f 52bd
00000160: 6876 e43d 2c4c 8dbd 1fa0 203d d7d3 1abe
00000170: da2f 343e 9498 bd3d 0f18 debc fd49 c9bb
00000180: 1f0c d7ba d00a c33d 0ce8 9b3c 4931 b83c
00000190: bc2b a0bd 8d92 30bd 91c3 28be bfb5 3fbe
000001a0: 147a 3e3d f34d e3bd 46a3 08be 6493 b23d
000001b0: fd32 41bd 96e7 b93d a729 13be 5c14 e5bd
000001c0: d8a0 8a3d 2dab ca3d 1b95 cb3d 65f7 a6bd
000001d0: b74e b9bd 5c6c 17bd 1918 2bbb f7b4 a33d
000001e0: f188 053e 84f5 acbd b653 15be eff4 903d
000001f0: 2dcb dd3d e6e9 f639 b035 bbbc 5c2a ed3d
-0.013229608 0.14363575 0.06738554 -0.028285077 -0.12344287 -0.09834389 -0.13040806 -0.15188119
-0.025149109 -0.11242526 -0.15029106 0.05510316 0.10623457 0.048168264 -0.0122495 -0.023079513
-0.05751626 0.015629971 -0.10330616 -0.09008394 0.1590557 0.049640447 -0.050938584 -0.0918076
0.05399904 0.15066248 -0.049799234 0.06705356 -0.0019471243 -0.042945653 -0.031104647 0.109157026
-0.023728905 -0.11382336 0.123153456 -0.08785937 0.12868299 -0.15564781 0.11596679 0.16837487
0.12802525 -0.11823309 0.09491992 -0.014781824 0.062081058 0.06573879 -0.023028981 -0.05772237
-0.14650707 0.0057089482 0.08214976 0.12510648 -0.09636423 -0.054677214 0.07432521 0.12254754
0.15046261 0.16275713 -0.1434216 0.07863105 -0.001981551 -0.094693154 -0.047153078 -0.09125757
0.080155395 0.018465659 0.0901848 -0.05966517 0.009502473 0.10715056 0.05408915 -0.11282246
0.093909554 -0.069606505 0.04875129 -0.15599966 0.120894074 -0.16337864 -0.04858339 0.14042316
-0.12679628 -0.14682935 -0.034056213 0.03490049 -0.13445397 0.10366494 -0.10424158 -0.051284436
0.11155397 -0.06899294 0.039215203 -0.15119873 0.17596379 0.092576176 -0.027111081 -0.0061428533
-0.0016406811 0.09523547 0.019031547 0.022484438 -0.07820842 -0.04310851 -0.16480853 -0.18721674
0.04650314 -0.11098852 -0.13343534 0.08719519 -0.047167767 0.09077375 -0.14371358 -0.11185524
0.0676896 0.098959304 0.09940549 -0.081526555 -0.09048217 -0.036968574 -0.0026106893 0.07993501
0.1304052 -0.08445266 -0.14582714 0.070779674 0.10829768 0.00047095044 -0.022852749 0.11580345

weight f4 [32]
00000000: 856e 833f 2c9b 793f 714b 7c3f 55de 843f
00000010: 7b05 7e3f eaab 7f3f 1e8e 793f 7046 823f
00000020: a5e2 7e3f a426 803f 4dae 803f afd2 753f
00000030: d917 803f 48f5 7f3f 3e96 7a3f 4f0a 7c3f
00000040: 5a77 813f f49f 793f 7347 7e3f 4f45 793f
00000050: f80f 843f e91b 783f 4eee 843f 988c 813f
00000060: 0f6e 7a3f c325 7f3f ec0a 833f dae6 813f
00000070: 0db4 7d3f f5ef 813f 5928 823f 2071 823f
1.0268103 0.975024 0.98552614 1.038035 0.9922711 0.99871695 0.9748248 1.0177746
0.9956458 1.0011792 1.0053192 0.960246 1.0007278 0.99983644 0.978855 0.9845323
1.0114548 0.97509694 0.9932777 0.9737138 1.0317373 0.9691759 1.0385225 1.0121031
0.97824186 0.99666995 1.0237708 1.0148575 0.9910286 1.0151354 1.0168563 1.0190773

bias f4 [32]
00000000: 6aed 173d e848 6abc f862 30bc c694 873d
00000010: c97f 413c 5d60 823c 1228 c33c c25e 4a3d
00000020: b497 66bc 959c 8fbb 11c8 043d b270 f2bb
00000030: c89b 363b b47b 8e3c 4d2e ae3c 80e3 cdbc
00000040: 9157 773d 97f8 24bc 2099 6ab8 2233 ac3c
00000050: cbff 313d b52c fd3a 8149 743d 0423 313c
00000060: efd5 6dbc aef0 d4bb 2be1 143d 9955 c23c
00000070: 3306 1b3a 4956 073d 5853 513a 4cf7 313d
0.03709165 -0.014299609 -0.0107657835 0.06620173 0.0118102515 0.01591509 0.023822818 0.049406774
-0.014074255 -0.0043826797 0.03241736 -0.0073986882 0.002786385 0.01739297 0.021262312 -0.025132895
0.060386244 -0.010069034 -5.5932556e-05 0.021020476 0.043456834 0.0019315692 0.05964041 0.010811571
-0.014516338 -0.006498418 0.03634755 0.023722457 0.00059137045 0.033041272 0.00079851365 0.04344873

running_mean f4 [32]
00000000: d6b5 833f ab3a b23f 0356 9440 879a 423d
00000010: 172a c23f 8d03 2bbf 9d2e 803e 89d6 4a3f
00000020: 0e87 183f 3080 30bf cf2d f6bf 3b32 6dc0
00000030: 146e 88c0 cdac 853f fcda 193e 089f a340
00000040: c1a5 9d3d af95 5740 ab5a 0840 4a3a c5bf
00000050: f524 31bf 92b7 5640 8b4f 5ebd 20ca 51c0
00000060: 18a8 0740 ae23 61c0 fed2 9c3f f05a 5040
00000070: 931f 92c0 7ab0 bdbe e148 e63e a19a 593f
1.0289867 1.3924154 4.6354995 0.04751065 1.5169095 -0.66802293 0.25035563 0.79233605
0.5958108 -0.689456 -1.923273 -3.7061908 -4.2634373 1.044336 0.15024942 5.113163
0.07697631 3.368511 2.130534 -1.5408413 -0.69197017 3.3549542 -0.054275077 -3.2779617
2.1196346 -3.5178027 1.225189 3.2555504 -4.5663543 -0.37048703 0.44977477 0.8500157

running_var f4 [32]
00000000: b2ca 7a41 f618 3c40 4629 4941 2a96 ca3d
00000010: 289c b841 b090 bc3f 4060 3740 507d 4441
00000020: c3da a641 27b7 d040 f836 d341 2bdd 2141
00000030: 9ac7 3d41 c9d3 8741 e6e5 2a41 a052 9241
00000040: cfdf 3e41 1225 9c41 2e58 3140 cdea d840
00000050: 5b00 3442 a469 4041 5365 e040 bb4d 8541
00000060: 1697 5a40 3d89 9341 9dcb 1a42 1109 7841
00000070: 9817 5841 a2e3 a940 d578 3142 bd5a c041
15.674486 2.9390235 12.5725765 0.09891923 23.076248 1.4731655 2.8652496 12.280594
20.856817 6.5223575 26.40184 10.116496 11.861231 16.97841 10.681128 18.290344
11.929641 19.5181 2.771007 6.778662 45.000347 12.025791 7.0123687 16.662954
3.4154716 18.44201 38.69884 15.5022135 13.50576 5.309037 44.368 24.044306

weight f4 [32, 136]
00000000: 649b 9d3d cb13 b4bd 79a1 b13d d668 97bb
00000010: 766f b9bc fc81 8d3d 79e9 b3bc cbea 3f3d
00000020: 3355 66bd 16ce d2bd c334 4bba 902a 403d
00000030: 59ce 33bd cd1c 7c3c 2eee 9fbc ecc9 86bc
00000040: a9a4 90bc fcd1 9dbd f50d 81bd 46de 9c3c
00000050: 5efc 57ba 6f43 0c3d bf20 033d b484 3bbc
00000060: 29f1 7bbd 8cc6 463d a91a e13c 9831 3c3c
00000070: 431c 673d c0ae 38bd cc2e 0cbd 472c 093d
00000080: 3eb5 7fbd 2d2c e43b abef 12bc 418e 5fbd
00000090: fce9 36bd bede 8abc 6d2d 143d 6af0 9ebd
000000a0: 7054 9d3d cf04 e9bc 96c0 a83d a511 f73a
000000b0: f217 403c 9344 a1bd 4f7c 23bd d22e 5bbd
000000c0: 439f 813d c507 a8bd 173a e1bb 9dc7 473d
000000d0: 59ea a8bd 1843 21bd 69d3 a33c 9dbd 863d
000000e0: 54ea 9c3d ccc5 323b 0006 283b 279c 6c3d
000000f0: f3b4 afba 84ad 1a3b 3a95 62bd afad 26bd
00000100: c62f 3b3d a6aa 91bc 86a9 00bd e791 9b3d
00000110: 5d24 3bbc a390 87bd 4868 85bc 7e49 993d
00000120: aa37 4e3d fe1e 0d3d 6c26 ddbc 63fa 92bd
00000130: 714f 3a3c dc5b 483c b174 203d 5851 a13b
00000140: 1e65 043d 14d2 9e3d 4a02 39bd 2f6b ce3c
00000150: b8ef 80bd 643d 453d 0363 98bc 71ff c73d
00000160: fe7f 0d3d b23e 99bd 0ad6 9c3c bbdf bebd
00000170: e1c5 663d 761b 4d3d ffd1 af3d 740f 8e3d
00000180: 58be 84bd fd85 d5bc 3c19 933d 2a25 bf3c
00000190: 0524 6e3d 1dc2 b53d 7764 323d 473a 613d
000001a0: be2b 083d 3962 b6bd 536e 79bd b3ba 2dbd
000001b0: 7006 9e3d 3e0a acbd c5af 9f3d 9c6b 27bd
000001c0: f8a7 80bc 5497 20bd cef9 333d 6f43 a5bc
000001d0: b945 943b 0415 02bd 3f01 ad3d 4c6b de3c
000001e0: 47bd 423d aa81 fa3c ed30 53bb ba02 4b3d
000001f0: c800 bc3c a1c6 923d 6adc b43d 19d2 83bd
00000200: 30aa 2bbd da9c 1c3d 2eed 99bd 470b 4cbc
00000210: 0324 d3bc 46bf 433d ac96 2cbc fdd7 bb3c
00000220: 26a1 feba 6839 9dbd 2ef5 40bd d437 a13d
00000230: da39 113c 2be1 973c 979c 2bbc 5f0b 773d
00000240: f792 a6bd 9a3a 88bd 9041 5bbd 8466 6c3d
00000250: 5ce9 023d 31f3 41bb 9935 1cbd ae41 77bd
00000260: b51b 40bd 22d1 323c 6d0b 95bc 3b37 673d
00000270: fd35 433c 842d a33c 1852 82bc 257b 563d
00000280: bad7 c3bd b85f 45bd 3273 aebd 5ef4 643c
00000290: d81e 5fbd 4eb0 883c e339 b53d fe86 773c
000002a0: 44f1 0a3c cb32 a03d 4173 6fbd 5c8c 613d
000002b0: d29b 43bd 360d 73bc 5a54 923d 2536 85bd
000002c0: 49f4 863d 2cd6 733d d867 843c 2297 213d
000002d0: 09fb 363d 07b0 903d 6a94 9bbd 8b3a 7bbd
000002e0: f4aa 6ebc 088d 0bbd 494f 463b 1448 9cbd
000002f0: 303d c43c 09a5 223c 338f 53bd 2e87 a3bb
00000300: b4b8 70bd b4f6 2e3d 6ec4 6a3d aa32 8d3d
00000310: 8330 b2bd 941c 75bd 6eec 993d 28e3 8b3d
00000320: 96cc 0e3d 9020 9fbc b8c7 e0bb b8b2 203d
00000330: b464 aa3d 3535 35bb 6a1c 42bb b785 d83b
00000340: 5144 2ebc 4ee2 26bd fadd 9f3d 8079 5fbd
00000350: d94f ba3d e64b af3d b0bc 57bd 6cfd 8cbd
00000360: e7ba 64bd ff6f c03c ae85 d93c e85a ef3c
00000370: e9bb 1e3d 4f19 1bbd 0ae0 b8bd fa31 233d
00000380: bdd1 e43c e28b afbd cb42 bcbd 9d2e 86bc
00000390: afb3 7b3c 0e2e a2bd 4434 df3b a664 16bd
000003a0: c85f 55bd 251f 363c 97e5 313d 1898 40bd
000003b0: cee0 3abc a590 483d b5e5 7cbd d13a 1dbd
000003c0: 0185 8cbd 4252 883d ac57 6f3d 9c24 123d
000003d0: 4b18 a03d 0f5f 90bb fda2 15bd e886 703d
000003e0: 6b7c 15bc 2126 3dbc 1c3c ea3a 06b2 2ebd
000003f0: eef1 7d39 f11a 09bd 485d 0bbd 686a 1c3d
0.07695654 -0.08792838 0.086733766 -0.0046206517 -0.022636157 0.06909558 -0.021961914 0.046854775
-0.056233596 -0.10293214 -0.00077516976 0.04691559 -0.04389796 0.015387726 -0.019522753 -0.016453706
-0.017656641 -0.07706067 -0.0630149 0.019148957 -0.0008239205 0.034243997 0.03201365 -0.011445213
-0.061509285 0.048529193 0.027478533 0.011486433 0.056423437 -0.04508853 -0.034224316 0.03348949
-0.062428705 0.006963274 -0.008968274 -0.054579023 -0.04465674 -0.016951915 0.036176134 -0.07760699
0.07682121 -0.028444676 0.08239858 0.0018849863 0.011724459 -0.078744076 -0.03991347 -0.05351145
0.06329205 -0.08204607 -0.00687338 0.04877435 -0.08247823 -0.039370626 0.01999827 0.065791346
0.07661882 0.002727854 0.0025638342 0.057766106 -0.0013405367 0.0023601959 -0.055318095 -0.04069298
0.045699857 -0.017781567 -0.03141167 0.07596188 -0.011422244 -0.06619384 -0.016285077 0.07484721
0.050346054 0.034453385 -0.02699586 -0.07176664 0.011371479 0.012228932 0.039173786 0.004923027
0.032322995 0.07754913 -0.0451682 0.025197593 -0.06295723 0.04815425 -0.0186019 0.097655185
0.03454589 -0.07482661 0.01914503 -0.09320017 0.056341056 0.050075017 0.085849755 0.06936541
-0.06481618 -0.026064867 0.071825475 0.02333315 0.05813982 0.08874915 0.043552842 0.05498722
0.03324484 -0.08905453 -0.06089623 -0.04241438 0.077160716 -0.08400391 0.07797197 -0.04087411
-0.015705094 -0.039206818 0.043939404 -0.020173756 0.004524913 -0.031758323 0.08447503 0.027150773
0.04754379 0.030579407 -0.0032225207 0.049563147 0.022949591 0.07166792 0.08831103 -0.06436557
-0.04191035 0.038235523 -0.075159416 -0.012453861 -0.025774008 0.047789834 -0.01053397 0.02293014
-0.0019426688 -0.07676965 -0.04710882 0.078719765 0.008863891 0.018539986 -0.010474346 0.06031358
-0.081335 -0.06651802 -0.053529322 0.057714954 0.03196083 -0.0029594416 -0.038137052 -0.06036537
-0.046901423 0.010914119 -0.018193925 0.056449156 0.011914727 0.019919164 -0.015908286 0.052363534
-0.09562631 -0.048186988 -0.085180655 0.013974277 -0.054472774 0.016685631 0.08848932 0.015107868
0.008480374 0.07822188 -0.058459524 0.055065498 -0.047756024 -0.014834693 0.07144995 -0.06504468
0.065895624 0.059530422 0.016162798 0.039450772 0.044673 0.070648246 -0.07596667 -0.061335128
-0.014567126 -0.034070045 0.003025966 -0.07630935 0.023954958 0.009927043 -0.051650237 -0.00499048
-0.058769897 0.042715743 0.057316236 0.06894429 -0.08700659 -0.059841707 0.075157985 0.06830436
0.034863077 -0.019424707 -0.006859746 0.03923294 0.08319989 -0.0027650122 -0.0029618987 0.006607737
-0.010636405 -0.040743165 0.078060105 -0.05455923 0.09097261 0.08559398 -0.05267018 -0.06884274
-0.055842306 0.023490904 0.026553001 0.029218152 0.038753424 -0.037865933 -0.09027107 0.039842583
0.027932042 -0.085716024 -0.09192427 -0.016379649 0.015362664 -0.079189405 0.0068116505 -0.03671708
-0.052093297 0.011115824 0.043431845 -0.047020048 -0.011406137 0.04896607 -0.061742503 -0.03838617
-0.06861306 0.066563144 0.05843322 0.035679445 0.078171335 -0.004405863 -0.03653239 0.058722407
-0.009123902 -0.011544735 0.0017870697 -0.042650245 0.00024218086 -0.03347296 -0.034024507 0.038187414

bias f4 [32]
00000000: 1e23 153d c1a3 5f3d c5b2 b2bc 6f14 9bbd
00000010: feee bdbd 3d28 d5bc a5d7 f3bc c2be a43b
00000020: 35e5 01bd 59f6 5f3d c56f 2c3d 68ed 42bd
00000030: 2952 9e3d eb87 953c 9745 923d 90ac 843c
00000040: 8ae4 b6bc 893e 243d e1f7 5a3d e1e3 25bd
00000050: 0671 8f3d f5bd b3bc 5ebf 58bd 7f98 a6bd
00000060: 55a0 8cbc e060 6c3d f0a5 af3d cd10 dcbb
00000070: 01ba 513a cc66 e63c 74f9 9f3d ddfa cfbc
0.036410443 0.054599527 -0.02181376 -0.07572257 -0.092741 -0.026020164 -0.029765913 0.005027623
-0.03171273 0.054678295 0.04209878 -0.04758969 0.077305146 0.018253287 0.071421795 0.016195565
-0.022325773 0.0400987 0.053459052 -0.040500525 0.070039794 -0.021941165 -0.052916877 -0.08134555
-0.017166296 0.057709575 0.08576572 -0.00671587 0.0008000434 0.02812519 0.07811251 -0.025388176

weight f4 [8, 32]
00000000: 733a d4bd 32e2 8c3d f7ec 07bd 2683 15be
00000010: 20f7 ecbc cb37 c43d 5d0a e03c 3902 cabd
00000020: a7ed 323e 2948 bfbd 6bae adbd eb00 273e
00000030: f634 3039 37f8 9ebb cdef 46bc 19a0 ffbd
00000040: 645d 35be 5c65 c43d 5f87 223d 3c95 adbd
00000050: a2e0 293c 32ac 30bc 8646 3fbc f485 f6bd
00000060: 41bf ce3d fcd0 003e 972a e8bc 9c0a 3b3e
00000070: f0a8 dd3d 053f 17be da93 1f3d 2a0f 273a
00000080: a443 523e 2ef4 c43d f36d ae3c 9d57 aabd
00000090: 168d 94bc 28ef 74bd 53a9 903d 82ec cc3d
000000a0: 072a f3bd 9256 f03c 7340 e2bc ea2f 24be
000000b0: 25b9 183e 4078 143e 4f7b 063d 6a06 e43d
000000c0: 0dd5 dd3d c738 b1bd faf5 423d bece 213e
000000d0: 82bc 24bd de49 dfbd 1dd9 34be 0012 53bd
000000e0: 4986 933d 52de a73d 6cbe c73c c84a 11bc
000000f0: 7bbd 0b3e 6d95 babc ea64 f3bd 0695 da3d
00000100: fc84 2a3e 1fc8 b33d f093 40be 4536 333e
00000110: 2bf9 41bd ce81 18be 2af9 6abd 1cc2 0d3e
00000120: c54f 4f3d 92e8 f4bd f339 71bd 5f32 9b3d
00000130: 155a afbd 2632 2b3e 2e7f b33d c3d7 5bbd
00000140: 3c4c 9b3d 726e fdbc 832f 25bd 7eb5 d43d
00000150: 49c3 c13d c139 e13d 43c8 b33d a026 88bd
00000160: a889 d2ba 974b ad3d 300f a6bd 7e52 b7bd
00000170: 6aac 1fbd d025 0dbe 1af0 42bc e53f c73d
00000180: f9eb 243e cd13 be3d b325 34be 51bb e33d
00000190: a7bf cfbd cc16 bdbd 228f 373c 05cc 223e
000001a0: 163c d13d 4337 4e3c 44bf 883d 948f 93bd
000001b0: 01a9 02be 7bba 7ebd fda9 19be 39f0 2b3d
000001c0: 36f9 e6bd 5ff1 2b3e d990 b63b adae 2dbe
000001d0: a89f 24bd 8035 e53d dd71 583d affa 03bd
000001e0: ec05 f7bd c6bf b5bd 5868 e93c 2417 c03c
000001f0: 07f2 393d dfaa 80bd f9f8 bcbd 0aae 9f3d
00000200: 13bf 263e c407 02be de82 c03d 05f7 aa3d
00000210: 9a4a 333e 7df3 313e 414f 523a aa8d 003e
00000220: 0639 06be 5fb7 13be 6d77 89bd 3b48 11bd
00000230: 7b34 9f3c 73d2 503b 225e e33d 5547 e0bd
00000240: 7352 b23c 2f16 273e 24a9 91bd ce52 84bd
00000250: 6fa8 653d 7f3e 683d f3de 2ebe 7b7e 0dbe
00000260: 88be 13be 393a ca3d ae82 693b f9be 24be
00000270: 0b0f 88bc a1ed 14be cbdd 8abd d26c f03d
00000280: 1180 04be 80ce 14bd 2153 e2bd b2c5 7e3c
00000290: 762b be3d 6d06 febd 2213 cd3c bfe2 f7bb
000002a0: 1a9b 1abe f4c6 243e ac60 153e ad9e 053c
000002b0: 9abd 2cbe ebd1 193e 844e 04bc 3dff 943d
000002c0: 23e3 193e 60cb f6bd 6884 663d 0a3e 7cbc
000002d0: 4643 b33d cf8f 7abd 6d95 dfbd 072b 2f3e
000002e0: 8c74 35be 8d23 893d aeb1 2fbe 8638 26be
000002f0: 898e 863d 1b25 bb3d d5c4 92bd 20ee 22be
00000300: a176 01be 900d 393e a7b4 663d 9208 19bd
00000310: b291 fcbc 86a5 00be 88fe e53b ba66 05be
00000320: bb23 10be ddf9 2ebb 04dc 35be 44b5 1ebe
00000330: c2ef bc3d 37ae 8dbd 3757 96bd 32c6 04bd
00000340: e6b6 823d 3681 85bc eca9 a63d 0158 ea3d
00000350: 8cf2 d33d 1646 10be ddd2 393e 7178 233e
00000360: ec15 2b3d 7f69 dbbd 7c89 083c 1147 18be
00000370: b275 3b3e c68e 4cbb d56f dd3d fef1 553d
00000380: 863f 20bd cde5 d8bd cc5b 1dbe f3d8 113e
00000390: 9a47 d5bc 3624 babd bc32 1bbe a5d1 443c
000003a0: b9f7 b1bd 2d03 113e 4ac3 ff3d da5a dbbd
000003b0: 299c 86bd 105f 213b 269f c03d aabd 29bb
000003c0: 90b3 373e 0e94 303e 4658 583d 7de7 07bd
000003d0: 7189 07be 4c88 0d3c d209 9c3c a019 863d
000003e0: 2054 02be 6972 11be 5f87 723c 467f 053e
000003f0: b99d fcbd bac0 a2bd 5358 423d 63b3 21be
-0.10362711 0.06879081 -0.03318497 -0.1460081 -0.028926432 0.09580954 0.027348692 -0.09863705
0.1747347 -0.09339935 -0.08480533 0.16308944 0.00016804397 -0.004851367 -0.012142134 -0.12481708
-0.17711407 0.09589645 0.03967988 -0.0847573 0.010368498 -0.010783242 -0.011674529 -0.12037268
0.100950725 0.12579721 -0.02834062 0.18265766 0.10823238 -0.14770134 0.03895936 0.0006372804
0.20533615 0.09616886 0.021292662 -0.08317492 -0.018133681 -0.05979839 0.07063546 0.10006048
-0.118732505 0.029338155 -0.027618622 -0.16033903 0.14914377 0.14498997 0.03283244 0.11134036
0.10831652 -0.086534075 0.047597863 0.15801522 -0.040218838 -0.10902761 -0.17660947 -0.051530838
0.07203347 0.08196701 0.024382792 -0.008867927 0.136465 -0.02277633 -0.11884482 0.10672955
0.16652292 0.087784044 -0.18806434 0.17501171 -0.047356766 -0.14893267 -0.057366528 0.13843578
0.050613184 -0.11958422 -0.058893155 0.07577967 -0.08562104 0.16718349 0.08764492 -0.053672563
0.075829 -0.030936453 -0.040328514 0.103861794 0.09461076 0.10997344 0.08778431 -0.06647992
-0.0016062753 0.08461683 -0.081083655 -0.08951281 -0.038982786 -0.13783956 -0.011898065 0.09728984
0.16105641 0.092811204 -0.17592506 0.11119712 -0.10143977 -0.09232864 0.011203559 0.1589814
0.102165386 0.012586418 0.06677106 -0.0720512 -0.12759782 -0.06218956 -0.15006252 0.04197714
-0.11278002 0.16791295 0.0055714664 -0.16961165 -0.040191323 0.11191845 0.052842963 -0.032221492
-0.120616764 -0.088744685 0.028492138 0.023448534 0.04539683 -0.06282591 -0.09227175 0.07796867
0.16283827 -0.12698275 0.09399961 0.083478965 0.17508927 0.1737804 0.0008022674 0.1255404
-0.1310769 -0.1442542 -0.06712232 -0.035469275 0.019434204 0.0031863719 0.11101939 -0.109511055
0.02176783 0.16317056 -0.07112339 -0.06461106 0.056068834 0.056700226 -0.17077236 -0.1381778
-0.1442815 0.09874386 0.003563087 -0.16088475 -0.016608736 -0.14543773 -0.06780585 0.11739506
-0.12939478 -0.036329746 -0.11051012 0.015550064 0.09285633 -0.12403569 0.025033537 -0.007564872
-0.15098229 0.1609152 0.14587659 0.008155507 -0.16869202 0.15021484 -0.00807536 0.07275245
0.15028052 -0.120505095 0.056278616 -0.015395651 0.08753066 -0.061172303 -0.109171726 0.17106257
-0.1772024 0.06696234 -0.17157623 -0.162325 0.06570155 0.09137937 -0.07166449 -0.1591115
-0.1264291 0.1807158 0.056324627 -0.03736169 -0.030831192 -0.12563142 0.007018868 -0.13027468
-0.1407613 -0.0026699223 -0.1775971 -0.15498835 0.09225418 -0.069179945 -0.07340854 -0.032415576
0.06382541 -0.016296964 0.08137879 0.11442567 0.103489965 -0.14089236 0.18146844 0.15963914
0.041768953 -0.10713481 0.00833356 -0.1487086 0.18306616 -0.003121303 0.10812346 0.052232735
-0.03912308 -0.10590706 -0.15367049 0.14242916 -0.026035119 -0.09088938 -0.15156072 0.012012874
-0.086898275 0.14161368 0.1248842 -0.10710688 -0.06572754 0.0024623312 0.09405355 -0.0025900402
0.17939591 0.17243978 0.05281856 -0.03317975 -0.13236023 0.008638453 0.019047651 0.06547856
-0.12727404 -0.142038 0.014802783 0.13036832 -0.12334771 -0.07946916 0.047447514 -0.15791087

bias f4 [8]
00000000: 14bf 433d 3ba6 26bd 2984 293e b578 c3bc
00000010: 0213 bdbd eef9 323c c743 bfbd 8fe2 df3d
0.04778965 -0.040685873 0.16554321 -0.023861269 -0.09232141 0.010923846 -0.093390994 0.109318845

weight f4 [32]
00000000: c6bb 813f 7199 813f be0e 833f 80fc 7b3f
00000010: 14a0 803f b257 803f 0fb3 7d3f b685 7d3f
00000020: 3ffe 7d3f f00d 813f fd3b 813f 720f 823f
00000030: 8938 833f ddec 813f ded3 7c3f 1851 7e3f
00000040: cc2e 813f 5fb3 803f 8987 7e3f 4b71 803f
00000050: 6b28 7a3f e63f 7d3f d294 823f cb19 7c3f
00000060: c653 813f b903 813f 66a0 813f 5328 7d3f
00000070: ed27 823f ea3f 7f3f e0ae 823f d249 7a3f
1.0135429 1.0124952 1.0238874 0.9843216 1.0048852 1.0026762 0.99101347 0.9903215
0.99216074 1.0082378 1.0096432 1.0160964 1.0251628 1.015041 0.98760784 0.9934249
1.0092406 1.005474 0.9942556 1.0034574 0.9771792 0.98925626 1.0201666 0.98476857
1.0103691 1.0079261 1.0127075 0.98889655 1.0168434 0.997069 1.0209618 0.9776889

bias f4 [32]
00000000: 8048 7db8 d0e0 d73c 11f1 3a3c 5f70 26bc
00000010: ed19 193c 0309 c93b 50bb 283b e8b7 acbc
00000020: f25a a43b f0ed 15ba c3c5 ca3c a095 d93b
00000030: 3dd4 3b3d 0068 fb3c f4b9 38bc 9c78 71bc
00000040: f03f 8a3c 78bf d83b b324 03bc 0367 303c
00000050: 6214 a5bc bd97 87bc bd3e d1ba 789f b5bc
00000060: be9a 9c3c c096 643c 8133 f03c 256e 45bc
00000070: ba79 323c 655c 5a3c 36b9 263d 5b5c 003c
-6.038742e-05 0.026352316 0.011410014 -0.010158627 0.00934456 0.0061351075 0.0025746413 -0.021083787
0.0050157243 -0.00057193544 0.024752503 0.006640151 0.045856703 0.03068924 -0.011274803 -0.014738228
0.01687619 0.0066146217 -0.008004355 0.010766747 -0.02015132 -0.016551847 -0.0015964132 -0.022170767
0.019116756 0.013951957 0.029321434 -0.012050186 0.01089328 0.013327693 0.040703975 0.007834519

running_mean f4 [32]
00000000: d973 0cbf a817 93bd 90a5 05bf be95 ce3d
00000010: 5ebd 133e 57b9 ddbd 145b 8e3d 9184 a6bd
00000020: 1741 a6bd b236 80be 6e65 50be eedf 373e
00000030: b592 18bf 6f9a b8be a768 473d 6d7b 41be
00000040: 565f 6dbe 0bc4 86bd db41 c43e ba00 3abd
00000050: 6d9c 3bbe 1a35 7bbe 657e 193d e7ae 6c3d
00000060: d71e 21be d8fb 9c3e b740 27be 2eb0 09bf
00000070: 5fba 08bc aed4 93bd a6a9 bcbd 724a e6be
-0.5486427 -0.071822464 -0.52205753 0.10087155 0.14427707 -0.108263664 0.069509655 -0.08130754
-0.08117884 -0.2504173 -0.20351192 0.17956516 -0.5959886 -0.36055323 0.04868379 -0.1889474
-0.23180899 -0.06580361 0.38331494 -0.04541085 -0.1832139 -0.24531975 0.037474055 0.057783987
-0.1573442 0.30660892 -0.1633328 -0.53784454 -0.008345216 -0.072183 -0.09212045 -0.44978672

running_var f4 [32]
00000000: aa36 153d fe1e bb3d 3fee ba3d 1cc7 2a3e
00000010: 1fe8 c73d 50b6 1c3e f5b1 3d3d 8b86 b93d
00000020: aa67 823e b5e7 543d 6d29 993e f3c5 143e
00000030: fbe8 0f3e 3984 2d3e 065d c03d 0776 fa3d
00000040: 813f ef3d 8b84 633e a9f8 0a3e 0af5 733d
00000050: 5768 ff3d 9f35 883e d074 053e 9b66 eb3d
00000060: d046 fd3d 6daf aa3d 3cc1 f73d 1e57 3e3e
00000070: cd63 e13c 9df9 d93d 98de 233e 695e fe3d
0.036429085 0.09136771 0.09127473 0.16677517 0.097610705 0.15303922 0.04631229 0.09058865
0.25469714 0.051978786 0.29914418 0.14528637 0.14053719 0.1694497 0.09392743 0.12229543
0.11682034 0.2221853 0.13571419 0.05955986 0.12471073 0.2660341 0.13032842 0.1149418
0.12367022 0.08334241 0.120974034 0.1858792 0.027513409 0.10643313 0.16002882 0.12420351
