code/model_sol_backups/model_sol_17.pt (torch, 635426 bytes, 158 tensors)

weight f4 [32, 2]
0	0xbe451d17	-0.19249378
1	0xbe71c79a	-0.23611298
2	0xbec05d17	-0.37571022
3	0x3f2389bb	0.63882035
4	0x3f27740b	0.6541144
5	0xbea0ae43	-0.3138295
6	0x3dd4bcf7	0.10387605
7	0x3ed41da1	0.41428855
8	0x3f16f146	0.58961904
9	0x3f23a2bf	0.63920206
10	0x3e8d7d02	0.27634436
11	0xbeb52fbe	-0.35387987
12	0xbf1594ce	-0.5843018
13	0x3e3c4bab	0.1838824
14	0x3f1206a1	0.57041365
15	0xbcd140ea	-0.025543649
16	0x3f315003	0.69262713
17	0xbf2b77fb	-0.6697995
18	0xbf04f7de	-0.51940715
19	0x3e921633	0.28532562
20	0x3ed3a61f	0.41337678
21	0xbe7cdfe2	-0.2469478
22	0xbeec9acf	-0.4621186
23	0xbe365db9	-0.1780919
24	0x3e3c348d	0.18379422
25	0x3da47247	0.08029609
26	0x3d828463	0.06372907
27	0xbf237b0f	-0.6385965
28	0x3f250fba	0.6447712
29	0x3d0a108e	0.033707194
30	0x3e91f5bd	0.28507796
31	0xbf18ab6a	-0.5963656
32	0xbebd1059	-0.36926535
33	0xbedee316	-0.43532628
34	0x3d02dcdd	0.031948913
35	0x3f0fb762	0.56139195
36	0x3e7a4a40	0.24442387
37	0xbf16ef8b	-0.58959264
38	0xbea69e31	-0.32542565
39	0x3e2c3b54	0.16819507
40	0x3f2c773f	0.67369455
41	0x3e81c903	0.25348672
42	0xbf26b188	-0.6511464
43	0xbf236251	-0.63821894
44	0xbe8fd9c6	-0.28095835
45	0x3e48d12d	0.19611044
46	0xbd44ebb1	-0.048076335
47	0xbe9ea4c4	-0.3098508
48	0x3edc2512	0.42997032
49	0xbe64a9b4	-0.22330362
50	0xbdcdc84f	-0.100479715
51	0x3e79c1e7	0.24390374
52	0xbefbdeff	-0.4919357
53	0x3f086569	0.5327974
54	0x3ef9963a	0.48747426
55	0xbe00f3f5	-0.12593062
56	0xbf21d79b	-0.6321961
57	0xbef93d1b	-0.48679432
58	0xbea25265	-0.31703487
59	0xbf230600	-0.6368103
60	0x3ec58d4f	0.38584372
61	0xbe96d3be	-0.2945842
62	0x3f23d592	0.6399776
63	0xbe1ca310	-0.15296578

bias f4 [32]
0	0x3e276642	0.16347602
1	0xbe2e95b0	-0.17049289
2	0x3f0954ff	0.5364532
3	0xbdca078e	-0.09864722
4	0x3e60d4ff	0.21956252
5	0x3ee6db78	0.45089316
6	0xbf1ce033	-0.612796
7	0x3e91d78d	0.28484765
8	0x3e44661f	0.19179581
9	0xbeb32048	-0.34985566
10	0xbea90eaf	-0.33019015
11	0xbe02319b	-0.12714235
12	0x3e4c8db6	0.19975933
13	0x3cecfa37	0.028927905
14	0x3e71e206	0.23621377
15	0xbc2d23a7	-0.010567582
16	0xbe0e0708	-0.1386987
17	0x3ed627e1	0.418273
18	0xbe0773a1	-0.13227703
19	0x3f1bf232	0.60916436
20	0x3ec920e6	0.39282912
21	0x3f0fa004	0.5610354
22	0xbeb86997	-0.3601806
23	0xbf0763bd	-0.52886564
24	0xbdc8674c	-0.09785327
25	0x3f2fba51	0.6864367
26	0x3dfabeb8	0.12243408
27	0x3d2cc4a0	0.042179704
28	0x3f288b20	0.6583729
29	0xbe0fa554	-0.14027911
30	0x3eefe7a2	0.4685641
31	0xbe94381f	-0.28949067

weight f4 [128, 32]
0	0x3e087465	0.13325651
1	0xbdf069dc	-0.11738941
2	0xbc524d45	-0.012835805
3	0x3d2745c1	0.040838007
4	0xbde2f791	-0.11082376
5	0xbdbcff13	-0.09228339
6	0x3ddfc75c	0.10926697
7	0x3d66e506	0.056370758
8	0x3df93dc2	0.121699825
9	0xbda1d222	-0.07901408
10	0xbe40d6a8	-0.18831885
11	0xbdb7c04c	-0.089722246
12	0xbde12cbf	-0.10994863
13	0x3c0db106	0.008648163
14	0xbe3644ae	-0.17799637
15	0xbe037667	-0.12838136
16	0xbdf2cfe3	-0.118560575
17	0x3d4c4653	0.049871754
18	0xbdbca843	-0.09211781
19	0x3d9d195e	0.07670854
20	0x3e21aea4	0.15789276
21	0xbdb123fd	-0.08649442
22	0xbe05f19c	-0.13080448
23	0x3c4c209a	0.012458945
24	0xbe1b814c	-0.15186042
25	0x3d3aa8ed	0.045571256
26	0x3e0cd141	0.13751699
27	0x3dfc9a9c	0.12334177
28	0xbe1d3c63	-0.15355067
29	0xbd8fe254	-0.070255905
30	0xbcf0a34e	-0.029374745
31	0x3d797fb1	0.06091279
32	0x3e0e761b	0.13912241
33	0x3d68938d	0.05678134
34	0xbd8988c9	-0.06715543
35	0xbe0f0fc8	-0.13970864
36	0x3df06f14	0.117399365
37	0xbdcc6b77	-0.09981435
38	0x3dfd3d68	0.12365228
39	0xbd0fcbb1	-0.035106365
40	0x3d802aae	0.062581405
41	0xbba71a74	-0.005099589
42	0xbd6ff7dc	-0.058585986
43	0xbdfcfc58	-0.12352818
44	0xbe3b6f86	-0.18304262
45	0xbc22a2f2	-0.0099265445
46	0x3e14d226	0.1453329
47	0xbae67449	-0.0017582263
48	0x3e0d52b4	0.1380108
49	0xbd0cf579	-0.03441379
50	0x3b1ab94d	0.0023608983
51	0xbdb665ff	-0.08906173
52	0x3dfa2b00	0.12215233
53	0x3d03425e	0.032045715
54	0x3e090fcc	0.13384932
55	0x3deeb69d	0.116559245
56	0x3df9e886	0.122025535
57	0x3d93052b	0.0717872
58	0x3c043053	0.008068162
59	0xbbb24748	-0.0054406263
60	0x3c01f2b2	0.007931398
61	0xbc8a68cf	-0.01689568
62	0xbddeb6f8	-0.10874742
63	0x3ddf8ed5	0.10915915
64	0xbe12d736	-0.14339909
65	0xbbe4cbf8	-0.006982323
66	0x3b1e56a8	0.0024160538
67	0xbe22ed58	-0.15910852
68	0xbdc50ae7	-0.0962122
69	0x3e0608c0	0.13089275
70	0x3d95058a	0.07276447
71	0x3e267155	0.1625417
72	0x3d64564c	0.05574636
73	0x3dd0c8af	0.10194527
74	0x3d0aaaf3	0.033854436
75	0x3e357f17	0.17724262
76	0x3e0f70a5	0.14007814
77	0x3ce89b3f	0.02839434
78	0xbd7cc0cf	-0.061707314
79	0x3db5b94c	0.08873233
80	0xbdad494e	-0.084612474
81	0xbe05f16a	-0.13080373
82	0x3dd8018c	0.1054717
83	0xbde3dccc	-0.11126098
84	0x3d03beb1	0.03216428
85	0xbda2bcb9	-0.07946152
86	0x3d79e09e	0.061005227
87	0x3d3cc5a0	0.046086907
88	0xbdd686fc	-0.10474965
89	0xbcb25115	-0.021767179
90	0x3c3340fc	0.010940786
91	0x3e1fa8da	0.15591756
92	0xbdb10830	-0.0864414
93	0xbd8151d5	-0.06314436
94	0x3e0681f8	0.13135517
95	0xbbf32df4	-0.0074212495
96	0xbdeb02fc	-0.114751786
97	0x3c0d7e79	0.00863611
98	0x3e405f71	0.18786408
99	0xbe3eb2c4	-0.18622881
100	0xbe1fe0d6	-0.15613112
101	0xbd5d3699	-0.054007147
102	0xbd1a9e7a	-0.03774879
103	0xbd95d2f6	-0.07315628
104	0x3ce62472	0.02809355
105	0x3df6a218	0.12042636
106	0xbdde205b	-0.10846015
107	0x3dc33d21	0.09533144
108	0xbc8a5444	-0.016885884
109	0x3e22f706	0.15914544
110	0x3b21e1d7	0.0024701261
111	0x3c23ac5c	0.009989824
112	0x3d2c94ea	0.042134203
113	0xbaa8e5b3	-0.0012885839
114	0x3e2e4465	0.17018278
115	0x3ca773a4	0.020440884
116	0xbe138faf	-0.1441028
117	0x3c1a6c34	0.009425212
118	0xbe0ac00c	-0.13549823
119	0xbe2c4496	-0.16823038
120	0x3e1aac88	0.15104878
121	0x3db0e67a	0.0863771
122	0x3e06dae5	0.13169439
123	0x3d018287	0.03161862
124	0x3d227ade	0.039667957
125	0xbe2ff364	-0.1718269
126	0xbe0f9912	-0.14023235
127	0xbdd53a50	-0.10411513
128	0xbd9e4cb8	-0.07729477
129	0xbe023abc	-0.12717718
130	0x3d84f823	0.06492641
131	0xbc9e95a4	-0.019358464
132	0xbdfb6ec3	-0.122769855
133	0xbd3f43b2	-0.04669542
134	0x3c1497c3	0.009069386
135	0xbe185a44	-0.14878184
136	0x3e25aeec	0.16180009
137	0x3dedacdf	0.11605238
138	0x3c4b9d52	0.012427645
139	0xbe2cfc0f	-0.16893028
140	0x3d9e434a	0.07727678
141	0xbdbb14d7	-0.09134834
142	0xbd94e267	-0.07269745
143	0xbe059613	-0.1304553
144	0x3e2e702f	0.17034982
145	0xbc0aab7d	-0.008463738
146	0x3ccf4d48	0.025305405
147	0x3e34ce11	0.17656733
148	0x3e0c69c6	0.13712224
149	0xbda92136	-0.082582876
150	0xbd736d95	-0.059430677
151	0x3d7dbca1	0.06194747
152	0xbce4e98c	-0.027943395
153	0xbc5a6c6e	-0.013331516
154	0x3e328757	0.1743444
155	0x3df85660	0.1212585
156	0x3e16b265	0.1471649
157	0x3d992377	0.074774675
158	0xbe059574	-0.13045293
159	0xbda3fde2	-0.08007409
160	0xbe19027b	-0.14942352
161	0xbda233d5	-0.079200424
162	0xbd430a23	-0.04761709
163	0x3e14abbe	0.1451864
164	0x3bec12ee	0.007204405
165	0xbe2bde89	-0.16784109
166	0xbd0b916c	-0.034074232
167	0x3df0ec3c	0.11763808
168	0xbd9cf9bc	-0.076648206
169	0x3e070704	0.1318627
170	0xbe2e36ac	-0.17013043
171	0xbb92d896	-0.0044813855
172	0x3caec527	0.021334244
173	0xbd6480e2	-0.055786975
174	0xbe31c47f	-0.17360114
175	0xbbe4c76c	-0.0069817808
176	0x3d82fc55	0.06395785
177	0x3d21107f	0.039322373
178	0xbdef6140	-0.11688471
179	0xbdef91c0	-0.116977215
180	0xbe069891	-0.13144137
181	0x3e117932	0.14206389
182	0x3be8f3fc	0.0071091633
183	0x3cb4497a	0.022007693
184	0x3deae426	0.11469297
185	0xbc29364c	-0.010327887
186	0x3e17665a	0.14785138
187	0x3d4d21d4	0.05008109
188	0x3dfdf086	0.12399392
189	0xbe2544c4	-0.16139513
190	0x3df0c04b	0.11755427
191	0xbe208667	-0.1567627
192	0xbe0fb049	-0.14032091
193	0x3d78946d	0.060688425
194	0xbda607a2	-0.081069246
195	0xbe39459d	-0.18092962
196	0x3dacaba3	0.084311746
197	0x3e1eab59	0.15495051
198	0x3c52a67a	0.012857074
199	0xbd97af51	-0.07406486
200	0xbdddebf0	-0.10836017
201	0x3e063935	0.1310776
202	0x3dca2996	0.09871213
203	0x3db5d1a1	0.08877874
204	0xbbd38f4d	-0.006456292
205	0x3e34fad9	0.17673816
206	0x3c0cc29a	0.0085913185
207	0x3e15126d	0.1455781
208	0xbe195f37	-0.14977728
209	0xbe080663	-0.13283686
210	0x3dbf9410	0.093544126
211	0x3b9f81cd	0.0048677684
212	0x3e1d03af	0.15333436
213	0x3da6763e	0.08128022
214	0x3ac9726a	0.0015369181
215	0x3c436eaa	0.01192824
216	0x3e35d53e	0.17757127
217	0xbda771a0	-0.08175969
218	0x3b0710ca	0.0020609372
219	0xbd878487	-0.066170745
220	0x3dc4bb18	0.09605998
221	0x3d806c8f	0.06270706
222	0xbe1cfb5c	-0.15330261
223	0xbdf561ea	-0.11981566
224	0xbe37d3bf	-0.17951868
225	0xbdf56ff3	-0.11984243
226	0x3c2e3b97	0.0106343245
227	0xbd5e83e1	-0.05432499
228	0xbe0636a1	-0.13106777
229	0x3e0d7467	0.13813935
230	0xbe27fa27	-0.1640402
231	0x3c50f9e0	0.012754887
232	0x3de27d8a	0.11059101
233	0x3de8ec4c	0.11373195
234	0xbdbe2654	-0.09284654
235	0x3e144abc	0.14481634
236	0x3bfb030f	0.0076602767
237	0xbd81fcd1	-0.06347049
238	0xbde21710	-0.11039555
239	0xbcadf9fe	-0.02123737
240	0x3da1afa6	0.078948304
241	0xbda53480	-0.08066654
242	0x3cb6c60c	0.022311233
243	0x3d472bf5	0.048625905
244	0xbe081bed	-0.13291903
245	0xbdbb1fd4	-0.0913693
246	0x3d070c5b	0.032970767
247	0x3c1f7327	0.009732044
248	0xbddb2c07	-0.10701757
249	0xbe066eff	-0.13128279
250	0x3dca9a04	0.098926574
251	0x3e10390b	0.1408426
252	0xbdabb466	-0.08384018
253	0xbd15ac17	-0.03654107
254	0xbd76e153	-0.06027348
255	0xbdaaa7e7	-0.08332806

bias f4 [128]
0	0x3da0c7f1	0.07850636
1	0xbcd685fc	-0.026186936
2	0x3e294687	0.1653081
3	0xbdda79c0	-0.10667753
4	0xbdc02023	-0.093811296
5	0x3d8f5853	0.069992684
6	0x3dca9ba3	0.098929666
7	0xbd2d88fc	-0.042366967
8	0xbd188bea	-0.037242807
9	0xbc88529b	-0.016640952
10	0xbd945539	-0.072428174
11	0x3d0660ab	0.032807034
12	0xbda356e8	-0.079755604
13	0x3e157edf	0.14599179
14	0xbd3511a0	-0.04420626
15	0x3e1390ba	0.14410678
16	0xbd5217f1	-0.051292364
17	0xbd7d9e27	-0.061918404
18	0x3e12e68f	0.14345764
19	0x3d3db734	0.046317294
20	0xbe2cd9d8	-0.16879976
21	0xbdb12699	-0.0864994
22	0x3e08c78b	0.1335737
23	0xbd51a293	-0.051180433
24	0xbe13168d	-0.14364071
25	0xbe2b9437	-0.16755758
26	0x3d1c7236	0.038194858
27	0x3e33e88b	0.17569177
28	0xbdf67732	-0.120344535
29	0xbc225bc9	-0.009909579
30	0x3d49847c	0.049198613
31	0xbd33efe8	-0.043929964
32	0x3c5175da	0.012784446
33	0xbd629188	-0.05531457
34	0x3d9af469	0.07566149
35	0x3d90a289	0.07062251
36	0xbb8af782	-0.004240931
37	0xbe22bed9	-0.15893115
38	0x3e077c33	0.13230972
39	0x3df9364a	0.12168558
40	0x3e3b7f1c	0.18310207
41	0x3d0afb4c	0.03393106
42	0x3c7c24aa	0.015389601
43	0x3df01f41	0.11724711
44	0xbd8f3ced	-0.069940425
45	0xbd25ea66	-0.040506743
46	0x3d6470af	0.055771526
47	0x3dfed6e5	0.12443332
48	0xbde1c5b3	-0.11024036
49	0xbddd32e9	-0.10800726
50	0x3ce66176	0.028122645
51	0xba1e7c8b	-0.000604578
52	0x3db7ec5b	0.08980628
53	0xbe2d5979	-0.16928662
54	0x3dc406d1	0.095716126
55	0xbc85de4f	-0.016341357
56	0xbe17cf24	-0.14825112
57	0x3dc03867	0.09385758
58	0x3d779657	0.06044611
59	0x3dab702b	0.08371004
60	0xbd6876a0	-0.056753755
61	0xbd5ffdf5	-0.05468555
62	0xbdb510dc	-0.08841106
63	0x3cc13e4f	0.023589281
64	0xbd5681e2	-0.05236996
65	0x3e0fdbca	0.14048687
66	0xbdf697e0	-0.120406866
67	0xbe36e3e9	-0.17860378
68	0xbe382553	-0.17982988
69	0xbe1abddf	-0.15111493
70	0xbde0a8b6	-0.10969679
71	0xbc39526c	-0.011311155
72	0x3b9c6c2b	0.004773637
73	0x3cfbbfdf	0.03073114
74	0xbdf1900a	-0.117950514
75	0x3d91faa0	0.07127881
76	0x3d9d8b40	0.076925755
77	0x3d155166	0.03645458
78	0xbe30a645	-0.17250927
79	0xbd458690	-0.048224032
80	0xbe036ddb	-0.12834875
81	0x3e02bcc1	0.12767316
82	0xbdfaac02	-0.12239839
83	0xbe2e93a9	-0.17048515
84	0xbd1367c2	-0.035987623
85	0x3e2b2281	0.16712381
86	0x3da259be	0.07927273
87	0x3d40fe43	0.047117483
88	0xbe060143	-0.13086419
89	0xbe1ec40e	-0.15504476
90	0xbd8aaf2a	-0.06771691
91	0x3db7d12c	0.08975443
92	0x3ccd1e76	0.025038939
93	0x3ddda800	0.10823059
94	0x3db76813	0.089553975
95	0x3e04f470	0.1298387
96	0x3ddb4b90	0.10707772
97	0xbe09028d	-0.1337988
98	0x3d9991c6	0.07498507
99	0xbd5c94cd	-0.053852845
100	0x3d876c3c	0.06612441
101	0x3dc17138	0.09445423
102	0xbe240cf9	-0.16020574
103	0xbd153504	-0.036427513
104	0x3d4232db	0.04741178
105	0x3c43b27a	0.011944408
106	0x3dee93a7	0.11649256
107	0xbe0b8ed0	-0.13628697
108	0x3dc20374	0.09473315
109	0xbddf2a21	-0.10896707
110	0xbb8bc45e	-0.004265352
111	0x3c440871	0.011964903
112	0x3d25b85f	0.040459033
113	0x3e1fa7e6	0.15591392
114	0x3ca6177d	0.020274872
115	0x3e3ce980	0.18448448
116	0xbcc755ed	-0.024332965
117	0x3d6d6236	0.05795499
118	0xbe1428cb	-0.14468686
119	0x3e1dd6c4	0.15413958
120	0xbd611402	-0.05495072
121	0xbe0f1676	-0.13973412
122	0x3da60d88	0.0810805
123	0xbe0cc35b	-0.13746397
124	0xbbb169f6	-0.005414243
125	0x3d18d41b	0.037311655
126	0x3dec3b64	0.11534765
127	0x3e298ff9	0.16558827

weight f4 [32]
0	0x3f80ac21	1.005253
1	0x3f7d812a	0.99025214
2	0x3f7f0027	0.9960961
3	0x3f82f1fd	1.0230099
4	0x3f805f30	1.0029049
5	0x3f7bc9a2	0.9835454
6	0x3f7e2ef3	0.9929039
7	0x3f7da6ed	0.99082834
8	0x3f7f8150	0.9980669
9	0x3f7c5f27	0.9858269
10	0x3f7c1f28	0.9848504
11	0x3f7d28b0	0.9889021
12	0x3f7be1cd	0.9839142
13	0x3f811da4	1.0087171
14	0x3f7ae10b	0.9799964
15	0x3f80f223	1.0073894
16	0x3f76f8cb	0.9647338
17	0x3f82bc88	1.0213785
18	0x3f80eebb	1.0072855
19	0x3f7fee0c	0.99972606
20	0x3f77e0e8	0.96827555
21	0x3f78b25f	0.9714717
22	0x3f81894e	1.0120027
23	0x3f8198ce	1.0124757
24	0x3f7daf39	0.99095494
25	0x3f7f66e7	0.9976639
26	0x3f7dc6fb	0.99131745
27	0x3f80a74d	1.0051056
28	0x3f7ef31a	0.99589694
29	0x3f7c91c7	0.9865994
30	0x3f7bbf65	0.9833892
31	0x3f7e966e	0.9944829

bias f4 [32]
0	0x3be2ad91	0.0069176634
1	0xbb3fbd05	-0.0029256952
2	0xbcdbc01d	-0.026825005
3	0x3c5af3ac	0.01336376
4	0xbd0a2ce6	-0.033734225
5	0xbcc27009	-0.023735063
6	0xbb837702	-0.0040119896
7	0xbcbd68d0	-0.023121268
8	0xbcd748b1	-0.02627978
9	0x3c9275ba	0.017878402
10	0xbc386730	-0.011255071
11	0xbbf0378b	-0.00733084
12	0xbccfe6a6	-0.025378536
13	0xbbb136ec	-0.0054081585
14	0xba23b6f3	-0.0006245218
15	0x3c0a312d	0.008434576
16	0x3c11b775	0.008893837
17	0x3c8ebdf7	0.017424567
18	0x3c9434db	0.01809161
19	0x3d0d2382	0.03445769
20	0xbd41a1ce	-0.04727345
21	0xbcbc4219	-0.022980737
22	0x3c5487e7	0.012971855
23	0xbb0497f1	-0.0020232166
24	0xbced00be	-0.028931018
25	0x3be7ba02	0.0070717344
26	0xbc03548a	-0.008015761
27	0xbc4550be	-0.012043176
28	0xb90711f4	-0.00012881291
29	0xbca28b4d	-0.019841814
30	0xbcaa830c	-0.020814441
31	0xbb2d301f	-0.0026426387

running_mean f4 [32]
0	0x3d3a0658	0.045416206
1	0xbb0065da	-0.0019591958
2	0x3f085d3b	0.5326726
3	0x3d8d558d	0.06901083
4	0x3f0cea86	0.55045354
5	0x3ebce5f0	0.36894178
6	0xbf24f586	-0.6443714
7	0x3ebe3af0	0.3715434
8	0x3d861e29	0.06548721
9	0xbeaae741	-0.33379558
10	0xbeb3420b	-0.35011324
11	0xbe89f7fe	-0.26947016
12	0x3e84f05c	0.2596463
13	0xbe44afe1	-0.19207717
14	0x3eb6b481	0.3568459
15	0xbe37328a	-0.17890373
16	0xbeb7a7ff	-0.35870358
17	0x3f209847	0.62732357
18	0xbe9c35d2	-0.30509812
19	0x3f1d8980	0.61537933
20	0x3f191f28	0.59813166
21	0x3e6142fe	0.21998212
22	0xbeac3202	-0.33631903
23	0xbf2645c7	-0.6495022
24	0xbdda58ba	-0.106614545
25	0x3f420f92	0.7580501
26	0x3e6e8f8c	0.23296946
27	0x3da10a18	0.07863253
28	0x3ec042f8	0.37551093
29	0xbed95292	-0.4244581
30	0x3eda7310	0.4266591
31	0xbe730664	-0.23732907

running_var f4 [32]
0	0x3c78024b	0.015137265
1	0x3e22de59	0.15905131
2	0x3e16436b	0.14674155
3	0x3d1588c2	0.036507376
4	0x3dfa2193	0.12213435
5	0x3d73b625	0.05949988
6	0x3dcae583	0.09907057
7	0x3d9a0b95	0.0752174
8	0x3e8cb17e	0.27479166
9	0x3dcbece1	0.099572904
10	0x3d87e6a3	0.06635787
11	0x3d352cd5	0.04423221
12	0x3be8de61	0.0071065878
13	0x3dcf4d44	0.10122159
14	0x3db9a368	0.090643704
15	0x3dfde069	0.123963185
16	0x3d58e254	0.05295022
17	0x3d9190d7	0.07107704
18	0x3de8faee	0.11375986
19	0x3d1ab0c2	0.037766226
20	0x3dc03680	0.09385395
21	0x3e08f6fe	0.1337547
22	0x3d0bc2df	0.03412139
23	0x3caacefc	0.020850651
24	0x3d875f18	0.066099346
25	0x3c9f118b	0.019417545
26	0x3e1f89d1	0.15579917
27	0x3d85e394	0.06537548
28	0x3dd381da	0.103275016
29	0x3db76dee	0.08956514
30	0x3d8d4933	0.06898727
31	0x3de2b3d7	0.11069458

weight f4 [32, 3]
0	0xbf226946	-0.63441885
1	0x3e452859	0.19253673
2	0x3ebd3a31	0.3695846
3	0x3ea28ae1	0.3174658
4	0xbe3d68ca	-0.18497005
5	0xbd5dc33a	-0.05414126
6	0x3f821ceb	1.0165075
7	0xbf0095fa	-0.50228846
8	0x3e8a7f92	0.27050453
9	0x3f8877d8	1.0661573
10	0xb9b19ce7	-0.00033876972
11	0x38cea2d2	9.853173e-05
12	0xbf1b9ac6	-0.6078304
13	0x3e6ac6c2	0.22927383
14	0x3ee68c68	0.45028996
15	0x3dd0a836	0.10188334
16	0xb98d8c12	-0.00026997976
17	0xbe2d74db	-0.16939108
18	0x3e8fa701	0.280571
19	0xbe1ae6df	-0.15127133
20	0xbdc46b8c	-0.095908254
21	0x3eada7da	0.33917123
22	0xbebd139f	-0.36929032
23	0xbe0ba793	-0.13638143
24	0xbece1490	-0.40250063
25	0x3e98d71d	0.29851618
26	0x3eb71a82	0.3576241
27	0xbe422682	-0.18960002
28	0x3e81a244	0.2531911
29	0x3df15f6d	0.11785779
30	0xbf589050	-0.84595203
31	0x3f041801	0.5159913
32	0x3e6b3aef	0.229717
33	0xbe402505	-0.18764122
34	0x3eace8bc	0.33771312
35	0xbec016fe	-0.37517542
36	0x3f1d490a	0.61439574
37	0x3e7e47d7	0.24832092
38	0xbede44c3	-0.43411836
39	0xbd8551e8	-0.06509763
40	0xbebbecb8	-0.3670404
41	0xbe75c86a	-0.24002233
42	0x3f1cfb78	0.6132121
43	0xbe83d832	-0.2575088
44	0xbe639ad1	-0.22227027
45	0xbdead243	-0.114658855
46	0xbefdf5f2	-0.49601704
47	0x3f0100a7	0.5039162
48	0x3f1f2dda	0.6217934
49	0xbe589f66	-0.21154556
50	0xbe9381c8	-0.28809953
51	0x3e4f9670	0.20272231
52	0xbf1f2f8b	-0.6218192
53	0xbc390c75	-0.011294474
54	0xbf30e243	-0.6909525
55	0xbd82a7e6	-0.0637968
56	0x3e6e99c2	0.23300841
57	0x3f81723a	1.0112984
58	0xbc1ffe65	-0.009765242
59	0xbe803070	-0.25036955
60	0x3eb4f666	0.35344237
61	0xbee3cd85	-0.44492736
62	0xbf08d4ba	-0.53449595
63	0xbf1ca641	-0.61191183
64	0xbefe6fbd	-0.49694625
65	0x3db3e168	0.08783227
66	0xbf3a1c9e	-0.72699916
67	0x3e7289fb	0.23685448
68	0x3e191d67	0.14952622
69	0xbe389218	-0.1802448
70	0x3f0ce962	0.55043614
71	0xbd9d36bf	-0.076764576
72	0xbf82d647	-1.0221642
73	0xbe6de4ca	-0.23231807
74	0x3e40f388	0.188429
75	0x3f205930	0.6263609
76	0x3e379b4e	0.17930338
77	0xbf057797	-0.52135605
78	0xbefa6dae	-0.48911804
79	0x3e988d50	0.29795313
80	0x3f15d174	0.58522725
81	0xbd26d863	-0.040733706
82	0xbd4bf219	-0.04979143
83	0x3ef1a4ef	0.47196147
84	0xbdea2194	-0.11432186
85	0x3f08e411	0.53473
86	0xbe70e520	-0.23524904
87	0xbdff91f8	-0.12479013
88	0x3e8116a2	0.2521258
89	0x3dabe17a	0.083926156
90	0xbf501a66	-0.8129028
91	0x3eef70f1	0.46765855
92	0x3f017a45	0.50577193
93	0x3f478969	0.77944046
94	0xbeef387b	-0.4672278
95	0xbe7f75b0	-0.24947238

bias f4 [32]
0	0x3da3cee3	0.07998445
1	0x3efb7481	0.49112323
2	0x3e8512ef	0.25991008
3	0x3d98be0c	0.074581236
4	0x3e91fe5f	0.28514382
5	0x3e0a6645	0.13515575
6	0xbe5cd595	-0.2156585
7	0xbef05985	-0.46943298
8	0xbe238028	-0.15966856
9	0xbeb54883	-0.35406885
10	0xbebec4f1	-0.3725963
11	0x3eaab39a	0.3334015
12	0xbec97db8	-0.39353728
13	0x3eb99c19	0.36251906
14	0xbdac3880	-0.08409214
15	0xbf0b9ed1	-0.5453921
16	0x3f0516cb	0.51987904
17	0x3e623949	0.22092165
18	0x3edef73d	0.43548003
19	0x3e6808f5	0.22659667
20	0xbe8fc59b	-0.28080449
21	0x3d5e85d1	0.054326836
22	0x3eb7781f	0.35833833
23	0x3e80b15b	0.2513531
24	0xbe8d5a86	-0.27608126
25	0x3ef1b90b	0.4721149
26	0xbe9428a5	-0.2893726
27	0x3e9bfbee	0.30465645
28	0xbe65df44	-0.2244845
29	0x3dd5e36c	0.10443768
30	0x3e19f09e	0.15033194
31	0xbeb19175	-0.34681287

weight f4 [128, 32]
0	0x3dabaa92	0.08382143
1	0x3c6e77ef	0.014554962
2	0x3dfb418e	0.12268363
3	0x3da136bb	0.07871767
4	0x3e07ad77	0.13249765
5	0xbb8b5fef	-0.0042533795
6	0x3d155213	0.036455225
7	0xbae8aaa5	-0.0017751051
8	0xbd581215	-0.05275162
9	0x3df20dfc	0.118190736
10	0xbdf2a830	-0.118484855
11	0x3ddce980	0.10786724
12	0xbd863def	-0.06554782
13	0xbd05e057	-0.03268465
14	0xbde90fbc	-0.11379954
15	0xbe2f555a	-0.17122403
16	0x3d587de8	0.05285445
17	0x3d5fb257	0.054613438
18	0xbe3b8b97	-0.18314968
19	0xbc0041b0	-0.007828161
20	0xbe1279be	-0.14304253
21	0x3cdf0441	0.027223708
22	0xbe0f34b7	-0.13984953
23	0x3d1d46f9	0.038397763
24	0x3d6b5976	0.057458363
25	0x3e025f44	0.12731653
26	0xbe0de0a3	-0.13855223
27	0x3db38928	0.08766395
28	0xbe1a4c83	-0.1506825
29	0x3e0af31c	0.13569301
30	0x3d2f24f4	0.04275985
31	0xbdc79a53	-0.09746232
32	0x3dbe3f4c	0.09289417
33	0x3d807d39	0.06273884
34	0xbda0b93f	-0.07847833
35	0x3d2e6bf4	0.04258342
36	0x3d520d73	0.051282357
37	0xbd15488d	-0.036446143
38	0xbdcf5f5e	-0.10125612
39	0xbd5de170	-0.054170072
40	0x3e2c6b67	0.16837846
41	0x3e10e3ce	0.141494
42	0xbdef3ae1	-0.11681152
43	0xbe1c0335	-0.15235598
44	0x3e0cab73	0.13737278
45	0xbe28c706	-0.16482171
46	0xbe3108d2	-0.17288521
47	0x3e0264d1	0.12733771
48	0x3df0544b	0.117348276
49	0xbe177e0b	-0.14794175
50	0xbd90d8a2	-0.070725694
51	0x3d1c65c5	0.038182992
52	0x3ce90c6b	0.028448304
53	0xbe238340	-0.15968037
54	0xbd852cb4	-0.06502667
55	0xbd572686	-0.052526973
56	0x3de63287	0.11240106
57	0xbdadee91	-0.084927686
58	0x3db7ee6b	0.089810215
59	0xbc88ff12	-0.01672319
60	0xbde00a88	-0.10939509
61	0xbd00aa1d	-0.031412233
62	0x3d4f3cca	0.050595082
63	0xbd010ba3	-0.03150524
64	0x3b923874	0.004462296
65	0xbdc3a6da	-0.09553309
66	0x3d80afdd	0.06283543
67	0x3e4bcbbe	0.1990194
68	0x3d8cc78d	0.06873999
69	0x3b64f337	0.0034935006
70	0xbe03a424	-0.12855583
71	0x3daf09aa	0.08546765
72	0xbd606555	-0.054784138
73	0xbe3b2da6	-0.18279132
74	0x3dc3ae78	0.09554762
75	0x3e1a32a0	0.15058374
76	0xbca5867f	-0.020205734
77	0xbca63683	-0.020289665
78	0x3e0050fc	0.12530893
79	0x3e0035bb	0.12520497
80	0x3e30d3fb	0.17268364
81	0x3e384484	0.17994887
82	0x3e1596f0	0.1460836
83	0xbe1956b2	-0.14974478
84	0xbd3e319f	-0.04643404
85	0xbe0a6a3b	-0.13517086
86	0x3c92e793	0.017932689
87	0x3d5e508b	0.05427603
88	0xbd7cdd0a	-0.061734237
89	0x3dc364a9	0.09540684
90	0xbd22f7cd	-0.039787102
91	0x3e146091	0.14489962
92	0x3dab9769	0.083784886
93	0x3dddb5dc	0.108257025
94	0x3e134f6d	0.14385767
95	0x3d9f2269	0.07770235
96	0x3db4f706	0.088361785
97	0xbd37151b	-0.044697862
98	0x3e29ee90	0.1659491
99	0xbe257b32	-0.16160277
100	0xbe2ae4c8	-0.16688836
101	0xbe16bf8a	-0.14721504
102	0xbe1cb2fd	-0.15302654
103	0xbd9076f8	-0.070539415
104	0xbd9c8f8e	-0.076445684
105	0x3dcff994	0.10155025
106	0xbd70198a	-0.058618106
107	0x3c642e46	0.013927048
108	0xbd8cb678	-0.06870741
109	0x3c334e61	0.01094398
110	0xbdbaf236	-0.09128229
111	0xbdd9f563	-0.10642507
112	0x3e0bcae9	0.13651623
113	0x3dff7870	0.124741435
114	0x3e206f41	0.1566744
115	0x3d8a3634	0.0674862
116	0x3c552e5c	0.013011541
117	0x3daccd73	0.08437624
118	0x3e1b91e0	0.15192366
119	0x3da0dba0	0.0785439
120	0x3c018f24	0.007907663
121	0xbe0f92c3	-0.14020829
122	0x3e180f0d	0.14849491
123	0x3d29aba0	0.04142344
124	0xbe06ddd3	-0.13170557
125	0xbe2ea4fd	-0.17055126
126	0xbd8093c9	-0.06278188
127	0x3e2231a0	0.15839243
128	0xbe00f6e6	-0.12594184
129	0x3e0624bf	0.13099955
130	0x3e0f51ce	0.1399605
131	0x3db563a6	0.08856897
132	0xbd2110b5	-0.039322574
133	0xbd3cface	-0.046137623
134	0xbd5a2208	-0.05325511
135	0x3d06abcd	0.032878686
136	0x3dbf2704	0.093336135
137	0xbe3eec73	-0.18644886
138	0xbe0e79c9	-0.13913645
139	0xbe1f0429	-0.1552893
140	0x3d7685f4	0.06018634
141	0x3d628493	0.055302214
142	0x3e05781e	0.13034102
143	0xbe087da5	-0.1332918
144	0xbe32f90e	-0.1747782
145	0xbdea8276	-0.11450665
146	0x3e238dce	0.15972063
147	0xbdb3f66e	-0.08787237
148	0xbda2fb82	-0.079581276
149	0x3e345085	0.17608841
150	0x3d4ff341	0.050769094
151	0x3c2c4478	0.010514371
152	0x3bdbab4c	0.00670377
153	0xbe11495b	-0.14188139
154	0xbe1a539f	-0.15070961
155	0x3ce1c230	0.027558416
156	0xbdf9f429	-0.12204773
157	0x3ddf7024	0.10910061
158	0x3e1e695a	0.15469876
159	0x3d4f02e2	0.05053986
160	0xbde497bd	-0.11161754
161	0x3db1943c	0.086708516
162	0x3e2821aa	0.16419092
163	0x3e3d1a41	0.18467046
164	0x3c9d820a	0.019227047
165	0x3b73b668	0.003718758
166	0x3c0d6c16	0.008631727
167	0xbce99192	-0.028511796
168	0xbd26cdf2	-0.04072375
169	0x3bf986f4	0.0076149646
170	0xbde13a3e	-0.10997437
171	0xbde1a358	-0.110174835
172	0x3d27cb07	0.040965106
173	0x3d265882	0.04061175
174	0x3e154772	0.14578035
175	0xbdf29b7d	-0.11846063
176	0xbd3dbff0	-0.046325624
177	0x3dfea423	0.1243365
178	0x3e19ccb2	0.15019491
179	0x3d131759	0.035910938
180	0xbe274a06	-0.16336831
181	0x3d208aa9	0.039194737
182	0x3b4f6e09	0.003165128
183	0xbdf5b062	-0.11996533
184	0xbdc50e5a	-0.09621878
185	0xbdf515c9	-0.11967046
186	0x3e0bb511	0.1364329
187	0xbe11abdb	-0.14225714
188	0xbdf12e3a	-0.11776395
189	0x3e08fd9c	0.13377994
190	0xbc923f66	-0.017852496
191	0xbc03d6b5	-0.008046796
192	0x3df8f69d	0.12156413
193	0xbcb6fa5a	-0.022336174
194	0xbe22d0c8	-0.15899956
195	0x3e2f1d4f	0.17101024
196	0x3c7477f4	0.014921177
197	0x3dc12942	0.094316974
198	0xbda4dd0a	-0.08049972
199	0xbd3bec05	-0.045879383
200	0xbca03ac4	-0.019559272
201	0x3d54ea9d	0.051981557
202	0xbd5709c3	-0.052499544
203	0xbe09dea8	-0.13463843
204	0xbb7f533a	-0.003895952
205	0xbdd06e9b	-0.10177346
206	0xbd54bd55	-0.051938374
207	0xbd8bc8ec	-0.06825432
208	0xbdbddafb	-0.09270283
209	0xbda458f8	-0.08024782
210	0x3d1498dc	0.03627859
211	0x3d895aa1	0.06706739
212	0xbbc9cac2	-0.006158204
213	0x3df12a12	0.117756024
214	0xbdf0bc65	-0.117546834
215	0xbe0bc9bd	-0.13651176
216	0x3d9c9ffa	0.076477006
217	0xbdc74dc8	-0.097316325
218	0xbc5ae4e2	-0.013360234
219	0x3cc8a9a4	0.024494953
220	0x3d13addd	0.03605448
221	0xbdd90753	-0.105971
222	0x3e02098a	0.12698951
223	0x3dcdde2e	0.10052143
224	0xbde17179	-0.11007971
225	0xbe05bb8b	-0.13059823
226	0xbd81c1da	-0.063358024
227	0x3df4a512	0.11945547
228	0x3d103df1	0.035215322
229	0xbd99be81	-0.07507039
230	0xbe0f1d88	-0.13976109
231	0xbe167c8a	-0.14695945
232	0xbda22557	-0.07917278
233	0xbdb632bc	-0.088963956
234	0xbde2eb66	-0.11080055
235	0xbc265696	-0.01015248
236	0xbd90661f	-0.07050728
237	0xbda177a7	-0.0788415
238	0xbb081a22	-0.002076753
239	0x3e1d45a3	0.15358596
240	0xbdbc0cbf	-0.091821186
241	0xbe125d67	-0.14293443
242	0xbddbbab1	-0.10728968
243	0x3cee5c41	0.029096724
244	0xb9c138b6	-0.00036854082
245	0xbd58a595	-0.052892286
246	0x3c9fe059	0.019516157
247	0x3ba8c7a3	0.0051507517
248	0xbd917510	-0.07102406
249	0xbd8a7b42	-0.06761791
250	0xbbceca60	-0.006310746
251	0xba521cd3	-0.00080151594
252	0xbdd0b73f	-0.101912014
253	0xb91aadc9	-0.00014751324
254	0x3de6bdf6	0.11266701
255	0x3e200e1e	0.15630385

bias f4 [128]
0	0xbcbe219e	-0.02320939
1	0x3e176a63	0.14786677
2	0x3d743bb7	0.05962726
3	0xbd067d78	-0.0328345
4	0xbe084df7	-0.13310991
5	0xbdac045f	-0.08399271
6	0xbe0824b6	-0.13295254
7	0xbe1001d9	-0.14063205
8	0xbd0ca094	-0.034332827
9	0xbdef750b	-0.11692246
10	0xbe1e3345	-0.15449245
11	0x3d7b4999	0.061349485
12	0x3dea7614	0.11448303
13	0x3d5ff579	0.05467746
14	0xbcd28b1c	-0.025701098
15	0xbd0a901e	-0.033828847
16	0xbcf6bb69	-0.030118661
17	0x3d003719	0.031302545
18	0xbdfb18ca	-0.122605875
19	0xbdbec924	-0.09315708
20	0x3e24c409	0.16090406
21	0x3d8aee91	0.06783784
22	0xbd1de673	-0.03854985
23	0xbdc94b47	-0.09828811
24	0x3d64ca40	0.055856943
25	0x3e155b0c	0.14585513
26	0xbd8f85a3	-0.07007911
27	0x3dbd10f4	0.09231749
28	0xbb821f05	-0.003970983
29	0xbc119644	-0.008885924
30	0xbc9b36b5	-0.018946985
31	0x3e04ee3d	0.12981506
32	0xbcb1646a	-0.021654326
33	0xbe02f67f	-0.12789343
34	0x3db84db0	0.08999193
35	0xbd92efac	-0.0717462
36	0x3dfc78f8	0.123277605
37	0xbe258848	-0.16165268
38	0x3dd9fa50	0.106434464
39	0x3e29a120	0.1656537
40	0x3e01d865	0.12680204
41	0xbdb742bc	-0.089482754
42	0x3db8a7e9	0.09016401
43	0xbbe1bdb5	-0.00688907
44	0x3cdee71b	0.027209809
45	0x3d3cb439	0.04607031
46	0xbd66ae72	-0.056318708
47	0xbda29505	-0.079385795
48	0xbe159d78	-0.14610851
49	0x3cbaf61d	0.022822434
50	0x3db487d9	0.088149734
51	0x3df287e6	0.11842327
52	0xbddedb00	-0.10881615
53	0xbd3f954b	-0.046773236
54	0x3d606df4	0.05479236
55	0x3e132d1c	0.14372677
56	0x3e23482f	0.15945505
57	0x3e08fe1c	0.13378185
58	0xbe36d368	-0.17854083
59	0x3d5d0bd4	0.05396636
60	0x3b33868f	0.0027393436
61	0xbdd59a1c	-0.10429785
62	0xbd364601	-0.044500355
63	0xbde76f5c	-0.11300537
64	0x3d6609da	0.05616174
65	0x3ca00a6b	0.019536218
66	0x3da9b03c	0.08285567
67	0xbd8ffd75	-0.07030765
68	0x3caedbf8	0.021345124
69	0x3e07b86a	0.13253942
70	0x3d4a9d82	0.049466617
71	0xbded4f3a	-0.11587377
72	0x3dac3910	0.08409321
73	0xbdadff54	-0.084959656
74	0x3d4321eb	0.04763977
75	0xbe1d61cb	-0.15369336
76	0x3e017f04	0.12646109
77	0xbe289dee	-0.16466495
78	0xbd1adf47	-0.03781059
79	0x3e122662	0.14272454
80	0xbde5c2ce	-0.11218797
81	0xbe142e9f	-0.1447091
82	0xbd585513	-0.052815508
83	0x3d5aef75	0.05345102
84	0xbe2217aa	-0.1582934
85	0x3de72701	0.11286736
86	0xbdc2516f	-0.094881885
87	0xbd466c1d	-0.04844295
88	0x3dc2198a	0.094775274
89	0xbd95228b	-0.07281979
90	0x3d223a60	0.039606452
91	0xbe20f4a3	-0.15718322
92	0x3e4174ed	0.1889226
93	0x3ddae252	0.106876984
94	0xbcffc2dd	-0.031220848
95	0xbd3f4da0	-0.04670489
96	0xbbbf3326	-0.005834955
97	0x3daa2cc0	0.08309317
98	0x3d1e6856	0.03867372
99	0x3d187dad	0.03722923
100	0xbd4d3d21	-0.050107125
101	0xbd59ce1a	-0.05317507
102	0xbe069172	-0.1314142
103	0xbe4f5cfc	-0.20250314
104	0x3d64e469	0.05588189
105	0xbdf13b34	-0.1177887
106	0xbdfbb558	-0.12290448
107	0x3db4e96f	0.088335864
108	0xbd5ac6eb	-0.05341236
109	0x3d52b11a	0.05143843
110	0xbe0422d7	-0.12903915
111	0xbdb136ba	-0.086530164
112	0x3d87f2b4	0.06638089
113	0x3da5b113	0.08090415
114	0x3dda62fe	0.106634125
115	0xbde1d3dc	-0.11026737
116	0xbde0fdc4	-0.10985902
117	0xbd0790b3	-0.03309698
118	0xbc40d2a0	-0.011768967
119	0x3da8a091	0.082337506
120	0x3dd1435a	0.102179244
121	0xbd9852fa	-0.074377015
122	0xbe2c8494	-0.1684745
123	0x3d9a6413	0.07538619
124	0x3de45b26	0.11150198
125	0xbb059a96	-0.002038633
126	0xbd4907fe	-0.049079888
127	0x3e12ceba	0.14336672

weight f4 [32]
0	0x3f78f106	0.9724277
1	0x3f727446	0.9470867
2	0x3f76f9e3	0.96475047
3	0x3f8e541e	1.111942
4	0x3f74755a	0.95491564
5	0x3f7acffe	0.9797362
6	0x3f70ad4d	0.94014436
7	0x3f80e696	1.0070369
8	0x3f759ac4	0.9593928
9	0x3f74c2c2	0.95609677
10	0x3f7c8e8e	0.9865502
11	0x3f6c0251	0.92191035
12	0x3f7ebe5e	0.9950923
13	0x3f77e9f9	0.9684139
14	0x3f77a408	0.96734667
15	0x3f6d2011	0.92627054
16	0x3f785ec5	0.97019607
17	0x3f764b2f	0.9620847
18	0x3f7adcd6	0.9799322
19	0x3f737afd	0.9510954
20	0x3f823680	1.0172882
21	0x3f74dd3a	0.95650065
22	0x3f81ffe4	1.0156217
23	0x3f7b5cfa	0.98188746
24	0x3f7933a6	0.97344434
25	0x3f72e3e4	0.94878983
26	0x3f7f25f0	0.99667263
27	0x3f80876e	1.004133
28	0x3f7c5577	0.9856791
29	0x3f7d0e90	0.98850346
30	0x3f74f859	0.9569145
31	0x3f8139c9	1.009576

bias f4 [32]
0	0x3bea2c14	0.007146368
1	0xbd2080ad	-0.039185215
2	0xbd18076b	-0.03711645
3	0x3e84f516	0.25968236
4	0xbd52a7c5	-0.05142953
5	0x3c160b38	0.009157948
6	0x3c1988ad	0.009370965
7	0x3d348382	0.044070728
8	0xbd0d0e6a	-0.034437574
9	0xbd0cc7ed	-0.03437035
10	0x3c8f1d40	0.017470002
11	0xbd3b1a05	-0.04567911
12	0x3bde2d74	0.006780321
13	0x3cb85f22	0.0225063
14	0x3ca20836	0.019779306
15	0xbdc8486d	-0.09779439
16	0x3b975d65	0.004619288
17	0xbcb67fa5	-0.022277663
18	0xbcf71aa9	-0.03016408
19	0xbc376626	-0.011193788
20	0x3c63ff68	0.013915874
21	0x3c146298	0.00905671
22	0x3cf06bae	0.02934822
23	0xbc3857a2	-0.011251362
24	0xbcffacac	-0.031210266
25	0xbd20e8a5	-0.039284367
26	0xbae88872	-0.0017740859
27	0xbc89b9c0	-0.016812205
28	0xbc24e3e7	-0.010064102
29	0x3ce0c54a	0.027437825
30	0xbca622ef	-0.02028033
31	0x3d3b2fbf	0.04569983

running_mean f4 [32]
0	0x3f8c42ec	1.0957923
1	0x3f9d26a3	1.2277416
2	0x4093fca6	4.624591
3	0x3d9ad878	0.075608194
4	0x3fc6ebf7	1.5540761
5	0xbf530449	-0.82428414
6	0x3dba792f	0.09105145
7	0x3f554ce5	0.83320457
8	0x3e470521	0.1943555
9	0xbf8dd9a1	-1.108204
10	0xbffc3784	-1.9704442
11	0xc06cbd86	-3.6990676
12	0xc0883ff5	-4.2578073
13	0x3f88d7e7	1.0690888
14	0x3dd0728c	0.10178098
15	0x40a38374	5.1097965
16	0x3d997532	0.07493056
17	0x406a3e92	3.660069
18	0x400797ea	2.118647
19	0xbf91ffef	-1.140623
20	0xbf502597	-0.8130736
21	0x40567812	3.3510785
22	0xbdff83a9	-0.12476284
23	0xc05229c8	-3.2838001
24	0x40068d4f	2.1023748
25	0xc05fefb7	-3.499006
26	0x3fadf179	1.3589317
27	0x40510386	3.26584
28	0xc0924825	-4.5713067
29	0xbf563649	-0.8367658
30	0x3ec82ce3	0.39096746
31	0x3f5d4f14	0.8644879

running_var f4 [32]
0	0x417c107f	15.754027
1	0x403471b7	2.8194406
2	0x41497d03	12.59302
3	0x382787f1	3.9942508e-05
4	0x41b8db03	23.10694
5	0x40003fc2	2.0038915
6	0x4034f56f	2.82748
7	0x4144b352	12.293779
8	0x41a224aa	20.267902
9	0x40cf89e2	6.4855814
10	0x41d2495a	26.285816
11	0x4118958c	9.53651
12	0x412cdd3b	10.804011
13	0x41885197	17.039839
14	0x412a2da7	10.636146
15	0x41935667	18.417189
16	0x413e5de3	11.897922
17	0x41bc95c0	23.57312
18	0x404c4943	3.1919715
19	0x4090a8d3	4.5206084
20	0x4234a450	45.16046
21	0x414e15f7	12.8803625
22	0x40dd2242	6.910432
23	0x4181d028	16.226639
24	0x405021e1	3.2520678
25	0x417a6dfd	15.651853
26	0x421c1a13	39.025463
27	0x4165c981	14.361695
28	0x415eee34	13.933155
29	0x40af97e6	5.4872923
30	0x4230fa6e	44.24456
31	0x41bfba0a	23.96584

weight f4 [32, 136]
0	0x3d923f19	0.07140941
1	0xbda78e74	-0.08181468
2	0x3db0df82	0.08636381
3	0xbb280de7	-0.0025643052
4	0xbcc07678	-0.02349399
5	0x3d87d5f1	0.06632603
6	0xbc67c313	-0.01414563
7	0x3d4f0555	0.050542194
8	0xbd81114b	-0.063021265
9	0xbddc2bbb	-0.107505284
10	0x3acaf6a1	0.0015484878
11	0x3d3e8dbe	0.046521895
12	0xbd390add	-0.045176376
13	0x3c973157	0.018456144
14	0xbc9b2e8e	-0.018943097
15	0xbc4acbdb	-0.0123777045
16	0xbc86bc2a	-0.016447145
17	0xbdaae50e	-0.0834447
18	0xbd7d659d	-0.061864484
19	0x3cc95888	0.024578348
20	0xbba78c26	-0.0051131425
21	0x3ce4b1ce	0.027916815
22	0x3d227046	0.039657854
23	0xbc709127	-0.0146830445
24	0xbd880801	-0.066421516
25	0x3d39fc44	0.045406595
26	0x3ccb0183	0.024780994
27	0x3c527b6c	0.012846809
28	0x3d454390	0.048160136
29	0xbd207596	-0.03917464
30	0xbd267f6e	-0.04064887
31	0x3d25e04b	0.040497106
32	0xbd7bd6e8	-0.061484247
33	0x3c0bed38	0.008540444
34	0xbc78c892	-0.015184538
35	0xbd4ce10b	-0.050019305
36	0xbd3eb8a3	-0.046562802
37	0xbc61d004	-0.013782505
38	0x3d177c4a	0.036983766
39	0xbd8ec05a	-0.06970282
40	0x3da3666c	0.0797852
41	0xbd117209	-0.035509143
42	0x3da4fad9	0.08055658
43	0xbb036ac1	-0.0020052644
44	0x3c8e7887	0.017391456
45	0xbd9dd02e	-0.07705723
46	0xbd307708	-0.043082267
47	0xbd6618ae	-0.05617588
48	0x3d66c630	0.05634135
49	0xbdb6fe2a	-0.08935197
50	0xbc090db3	-0.008365083
51	0x3d4698e8	0.048485667
52	0xbda020ad	-0.078187324
53	0xbd088648	-0.033331186
54	0x3c9a15fd	0.018809313
55	0x3d846a50	0.0646559
56	0x3d9ac6e6	0.07557468
57	0x3af1d541	0.0018450395
58	0x39a1aa03	0.00030834982
59	0x3d84e24b	0.064884745
60	0xbbfd21c1	-0.007724971
61	0x3ba23b81	0.004950941
62	0xbd57d32a	-0.052691616
63	0xbd396a85	-0.0452676
64	0x3d2eeda8	0.042707115
65	0xbcd0ebab	-0.025503
66	0xbd18aa74	-0.03727193
67	0x3d9e38cc	0.07725677
68	0xbc3268ce	-0.010889245
69	0xbd805565	-0.06266288
70	0xbc5cee72	-0.013484584
71	0x3da355d9	0.079753585
72	0x3d3cf358	0.04613051
73	0x3cee95d1	0.029124172
74	0xbd070d68	-0.03297177
75	0xbd978b53	-0.07399621
76	0x3c087e15	0.008330842
77	0x3c637c26	0.01388458
78	0x3d10841e	0.035282247
79	0x3c5f772e	0.0136392545
80	0x3cfff182	0.03124309
81	0x3da15494	0.0787746
82	0xbd48c424	-0.04901518
83	0x3cf7bbdf	0.030240951
84	0xbd814c69	-0.06313402
85	0x3d35d828	0.044395596
86	0xbcc703f4	-0.024293877
87	0x3dba5444	0.09098104
88	0x3cd769cb	0.026295563
89	0xbda21406	-0.079139754
90	0x3c79f34a	0.015255759
91	0xbdc0ab88	-0.09407717
92	0x3d5af5a4	0.053456917
93	0x3d568381	0.052371506
94	0x3da5174a	0.08061083
95	0x3d9641ce	0.0733677
96	0xbd76f7f3	-0.060295057
97	0xbcc667d3	-0.02421943
98	0x3d8d23b4	0.068915755
99	0x3ca7389d	0.020412738
100	0x3d8478b3	0.06468334
101	0x3dc4cf2a	0.09609826
102	0x3d4e626b	0.050386827
103	0x3d812a57	0.06306904
104	0x3cd179d9	0.025570797
105	0xbdbcb55d	-0.0921428
106	0xbd58d216	-0.05293473
107	0xbd42e993	-0.047586035
108	0x3d9bcf40	0.07607889
109	0xbdaf4441	-0.0855794
110	0x3daafd69	0.083491154
111	0xbd1886cd	-0.03723793
112	0xbc5cce13	-0.013476866
113	0xbd2f52d4	-0.0428036
114	0x3d2d8f63	0.042373072
115	0xbc9b20a4	-0.018936463
116	0x3b50b1b9	0.0031844212
117	0xbcf97e96	-0.030455869
118	0x3da26e67	0.07931214
119	0x3cc64050	0.024200588
120	0x3d49487e	0.0491414
121	0x3ce7bdfa	0.02828883
122	0xbc02a489	-0.007973799
123	0x3d325a7b	0.04354332
124	0x3cc720a3	0.024307555
125	0x3d947f83	0.072508834
126	0x3db78137	0.08960193
127	0xbd6b9651	-0.0575164
128	0xbd31fac9	-0.043452058
129	0x3d18fe27	0.037351754
130	0xbdb5454c	-0.08851108
131	0xbbf0f539	-0.0073534516
132	0xbcedcad6	-0.029027384
133	0x3d2b8148	0.04187134
134	0x3c15c0d4	0.009140212
135	0x3ca38715	0.019961873
136	0xbb080f91	-0.0020761231
137	0xbdaab70b	-0.08335694
138	0xbd304f58	-0.043044418
139	0x3da3e9d8	0.080035865
140	0x3b01414a	0.0019722753
141	0x3c5e18a3	0.013555679
142	0xbc0caa54	-0.008585531
143	0x3d782093	0.06057794
144	0xbd9e52a4	-0.07730606
145	0xbd88f478	-0.06687254
146	0xbd5559fb	-0.052087765
147	0x3d618bfa	0.055065133
148	0x3d201b20	0.03908837
149	0xbc01f0e8	-0.007930972
150	0xbd06b357	-0.032885876
151	0xbd82452f	-0.06360852
152	0xbd44f5af	-0.048085865
153	0x3c4bfe27	0.012450731
154	0xbcb7e1bf	-0.022446511
155	0x3d6a12e1	0.05714691
156	0x3c6064d3	0.013695913
157	0x3ca082c7	0.01959361
158	0xbc80a06d	-0.015701497
159	0x3d764c17	0.06013116
160	0xbdc227c1	-0.09480239
161	0xbd34d305	-0.044146556
162	0xbda93eb4	-0.08263913
163	0x3c98c4f3	0.0186486
164	0xbd56a99e	-0.052407853
165	0x3c37f6c3	0.011228266
166	0x3dc16866	0.094437405
167	0x3c80b232	0.01570997
168	0x3bc1bffb	0.0059127784
169	0x3dabb564	0.08384207
170	0xbd73eecf	-0.059553917
171	0x3d4eb635	0.050466735
172	0xbd4d2f25	-0.05009379
173	0xbc923a4a	-0.01785006
174	0x3d896ca2	0.06710173
175	0xbd919f3a	-0.07110448
176	0x3d9062be	0.070500836
177	0x3d6e11c1	0.0581224
178	0x3c8665d9	0.016405987
179	0x3d3a9c56	0.04555925
180	0x3d3346a9	0.04376856
181	0x3d95eff1	0.07321156
182	0xbd9cda59	-0.07658834
183	0xbd806ed6	-0.0627114
184	0xbc59d8fc	-0.013296362
185	0xbccff8ae	-0.025387134
186	0x3bec6ab6	0.0072148694
187	0xbd9a2b7e	-0.07527827
188	0x3c80594b	0.015667578
189	0x3bb5d884	0.0055494923
190	0xbd61389a	-0.05498562
191	0xbb25c414	-0.0025293874
192	0xbd5d9a2c	-0.054102108
193	0x3d27d892	0.040978022
194	0x3d6fb498	0.058521837
195	0x3d856373	0.06513109
196	0xbdabb64a	-0.08384378
197	0xbd7b71d2	-0.061387844
198	0x3d9aab32	0.07552184
199	0x3d910d1b	0.07082578
200	0x3d0c5f55	0.034270603
201	0xbc67774c	-0.014127564
202	0xbb1d0ad5	-0.0023962755
203	0x3d1131e4	0.03544797
204	0x3db49871	0.088181384
205	0xbc02cf42	-0.007983984
206	0xbc15d09f	-0.009143977
207	0x3be9f031	0.0071392288
208	0xbbf6a9d5	-0.00752757
209	0xbd3820fd	-0.044953335
210	0x3da7e0f0	0.081972
211	0xbd647d97	-0.055783834
212	0x3dc51dc5	0.09624819
213	0x3db927e1	0.090408094
214	0xbd53dedb	-0.051726203
215	0xbd8fab97	-0.0701515
216	0xbd579287	-0.052629974
217	0x3c959327	0.018258644
218	0x3cc25a03	0.023724562
219	0x3cd900c5	0.026489625
220	0x3d31eaa7	0.043436673
221	0xbd1a78a1	-0.037712697
222	0xbdc0c27a	-0.094120935
223	0x3d2b4673	0.041815232
224	0x3ccd13ab	0.025033792
225	0xbda4fed0	-0.08056414
226	0xbdc793a7	-0.09744959
227	0xbc93d566	-0.018046092
228	0x3c52aed6	0.012859067
229	0xbda73d0c	-0.08165941
230	0x3c5f05d1	0.013612227
231	0xbd0b41fe	-0.033998482
232	0xbd629972	-0.055322118
233	0x3bd069dd	0.006360276
234	0x3d3faae4	0.046793833
235	0xbd1d2a6b	-0.03837053
236	0xbc6dabe1	-0.014506311
237	0x3d470b18	0.048594564
238	0xbd655104	-0.055985466
239	0xbd26527f	-0.04060602
240	0xbd8dbe9f	-0.06921124
241	0x3d8cd3c0	0.068763256
242	0x3d6af74d	0.05736475
243	0x3d17f2fa	0.037096955
244	0x3da8ea6c	0.082478374
245	0xbaf76d80	-0.0018877238
246	0xbd0dc9bb	-0.034616213
247	0x3d744b1e	0.05964195
248	0xbc2a8a40	-0.010408938
249	0xbc83de5b	-0.016097238
250	0xbb84c88f	-0.0040522288
251	0xbd3b4ede	-0.04572951
252	0xb9ba7498	-0.00035563554
253	0xbd1d86b7	-0.038458552
254	0xbd2afaa4	-0.041742936
255	0x3d0c69b1	0.034280483

bias f4 [32]
0	0x3d366358	0.044528335
1	0x3d4cb43e	0.04997658
2	0xbc96d8d7	-0.018413944
3	0xbda2953c	-0.079386204
4	0xbdae04a8	-0.08496982
5	0xbcd6f4d6	-0.026239794
6	0xbceca633	-0.028887844
7	0x3b2f36db	0.0026735577
8	0xbd1a561c	-0.037679777
9	0x3d2b3cb3	0.041805934
10	0x3d317ab6	0.043329917
11	0xbd3fa256	-0.046785675
12	0x3d9e9ade	0.07744382
13	0x3c866802	0.016407017
14	0x3d8d4b15	0.068990864
15	0x3ca9e92c	0.020741068
16	0xbc3961d0	-0.011314824
17	0x3d30354d	0.04301958
18	0x3d5e3c3b	0.05425666
19	0xbd2fe576	-0.04294344
20	0x3d909533	0.070597075
21	0xbcace6da	-0.021106172
22	0xbd5b38b1	-0.053520862
23	0xbdab709f	-0.0837109
24	0xbccfb0f6	-0.025352936
25	0x3d71b2c3	0.05900837
26	0x3db20a79	0.08693404
27	0xbbb49722	-0.0055111805
28	0xbaa86d64	-0.0012849984
29	0x3d07cd10	0.033154547
30	0x3d9a419e	0.07532047
31	0xbcdcde6c	-0.026961528

weight f4 [8, 32]
0	0xbdcc810a	-0.0998555
1	0x3da7f646	0.0820127
2	0xbc9e9f88	-0.01936318
3	0xbe0d1df6	-0.1378096
4	0xbcb82acb	-0.022481343
5	0x3dd7a556	0.10529582
6	0x3d0787a8	0.033088356
7	0xbdd45fd2	-0.10369839
8	0x3e32a481	0.17445566
9	0xbdafd59e	-0.08585666
10	0xbdb5208f	-0.08844101
11	0x3e29de68	0.16588748
12	0x3c20d5da	0.009816611
13	0xbc6641b4	-0.014053751
14	0xbc1b266a	-0.009469608
15	0xbe005fc8	-0.12536538
16	0xbe3be153	-0.18347673
17	0x3dc7b190	0.09750664
18	0x3d32ddc6	0.04366853
19	0xbdb1d4fa	-0.086832
20	0x3bd76481	0.0065732603
21	0xbc93bb39	-0.01803361
22	0xbbc00c03	-0.005860807
23	0xbdfbb936	-0.122911856
24	0x3de87df7	0.11352151
25	0x3dfeb3c4	0.12436631
26	0xbc87b85d	-0.016567403
27	0x3e39c8a5	0.18142946
28	0x3dd64509	0.10462386
29	0xbe176e09	-0.14788069
30	0x3d517841	0.051140074
31	0xbc16897f	-0.009188055
32	0x3e5fd2dc	0.2185778
33	0x3dcda332	0.10040893
34	0x3cf51774	0.02991841
35	0xbdaf3317	-0.085546665
36	0xbc169ec8	-0.00919313
37	0xbd4805cd	-0.048833657
38	0x3d8090ee	0.06277643
39	0x3dd17d69	0.10228998
40	0xbdf01e81	-0.11724568
41	0x3d16f8ac	0.036858246
42	0xbccce481	-0.025011303
43	0xbe1fa1a3	-0.15589003
44	0x3e17f902	0.14841083
45	0x3e123128	0.14276564
46	0x3d04842e	0.03235262
47	0x3ddd5e5e	0.10809015
48	0x3dd457e0	0.10368323
49	0xbdbc457f	-0.09192943
50	0x3d0b7dcb	0.034055512
51	0x3e1fe1f6	0.15613541
52	0xbd223898	-0.039604753
53	0xbddd4845	-0.108048
54	0xbe3f320e	-0.18671438
55	0xbd54d209	-0.051958118
56	0x3d85f092	0.06540026
57	0x3d9ba7dd	0.07600377
58	0x3cdb5a31	0.026776405
59	0xbc13726e	-0.00899945
60	0x3e057986	0.13034639
61	0xbc70356a	-0.014661172
62	0xbdf73991	-0.12071527
63	0x3dd3fe70	0.103512645
64	0x3e26bcb3	0.1628292
65	0x3dbd2afb	0.092367135
66	0xbe2c4539	-0.16823281
67	0x3e2dd3ac	0.16975278
68	0xbd2bf911	-0.041985575
69	0xbe11f51f	-0.14253663
70	0xbd9af260	-0.075657606
71	0x3e16a9ab	0.1471316
72	0x3d374dfc	0.044752106
73	0xbdd90ee3	-0.105985425
74	0xbd76cbf7	-0.06025311
75	0x3d899fcb	0.06719931
76	0xbdabfcf3	-0.083978556
77	0x3e22fbc7	0.15916358
78	0x3d9f0dc2	0.07766296
79	0xbd42ff21	-0.04760659
80	0x3daa55a9	0.0831712
81	0xbd181f7b	-0.037139397
82	0xbd491f98	-0.049102396
83	0x3db342f9	0.087530084
84	0x3dc2961e	0.09501289
85	0x3dddb538	0.1082558
86	0x3dbf9292	0.09354128
87	0xbda6a2d7	-0.08136528
88	0x3b308326	0.002693364
89	0x3d96de26	0.0736659
90	0xbda25f74	-0.079283625
91	0xbda8e24c	-0.08246288
92	0xbd2231dd	-0.039598335
93	0xbe0b0a7e	-0.13578221
94	0xbc15ab2f	-0.009135052
95	0x3dcd5959	0.10026807
96	0x3e2aa043	0.16662697
97	0x3dcba433	0.09943428
98	0xbe376393	-0.17909078
99	0x3df431cb	0.1192356
100	0xbdb6bd26	-0.08922796
101	0xbdbc7dae	-0.09203659
102	0x3d1da458	0.03848681
103	0x3e1e3899	0.15451278
104	0x3ddcf5de	0.10789083
105	0xbb91eab1	-0.004453026
106	0x3d75c0aa	0.059998192
107	0xbd6385ce	-0.055547528
108	0xbe0326ed	-0.12807818
109	0xbd38cbff	-0.04511642
110	0xbe25901c	-0.16168255
111	0x3d363fdf	0.044494506
112	0xbde95ba2	-0.11394431
113	0x3e2f9f23	0.1715055
114	0x3c26946e	0.010167224
115	0xbe2c9753	-0.168546
116	0xbd0d49b4	-0.034494117
117	0x3ddf4f88	0.10903841
118	0x3d606209	0.054780994
119	0xbcd5f008	-0.026115432
120	0xbde51f19	-0.11187572
121	0xbdba81c5	-0.09106783
122	0x3cfd34a6	0.030908894
123	0x3ca0f6cc	0.019648932
124	0x3d0df5d4	0.034658268
125	0xbd86a1ba	-0.06573816
126	0xbdb58f17	-0.08865183
127	0x3d95f8c3	0.07322838
128	0x3e22ff8a	0.15917793
129	0xbe05b0f1	-0.13055779
130	0x3dacc40d	0.08435831
131	0x3db73a18	0.089466274
132	0x3e2f5fe5	0.17126425
133	0x3e338c0d	0.17533894
134	0x3c29ee64	0.010371778
135	0x3e003ce9	0.12523235
136	0xbe060127	-0.13086377
137	0xbe109aeb	-0.14121597
138	0xbd87e589	-0.06635577
139	0xbcf8d7fe	-0.03037643
140	0x3c4e8625	0.012605225
141	0xbac82c10	-0.0015271921
142	0x3dea6cc3	0.11446526
143	0xbddb594f	-0.10710394
144	0x3c91e28a	0.017808218
145	0x3e305b91	0.1722243
146	0xbd983007	-0.074310355
147	0xbd8997c7	-0.06718402
148	0x3d4410a4	0.047867432
149	0x3d6a0186	0.05713036
150	0xbe3027b3	-0.17202644
151	0xbe0a4db4	-0.13506204
152	0xbe1a7fc9	-0.15087809
153	0x3dd605d0	0.104503274
154	0xbba7720c	-0.005110031
155	0xbe2db5a1	-0.16963817
156	0xbb9cd9b9	-0.0047866968
157	0xbe12a8a7	-0.14322148
158	0xbd89405c	-0.06701729
159	0x3ddd4ae2	0.108052984
160	0xbe0f6477	-0.14003168
161	0xbd2e9ba8	-0.042628914
162	0xbdf3897a	-0.11891456
163	0x3c260891	0.010133878
164	0x3ddd1aae	0.10796104
165	0xbdfddcd7	-0.123956375
166	0x3cd42187	0.025894893
167	0xbb87ba79	-0.0041421023
168	0xbe194ed0	-0.14971471
169	0x3e274db8	0.16338241
170	0x3e28b6f8	0.16476047
171	0x3c608ca5	0.013705407
172	0xbe378da5	-0.17925127
173	0x3e27cee2	0.16387513
174	0xbc14a7af	-0.009073182
175	0x3dc384b1	0.09546793
176	0x3e2a60b5	0.16638453
177	0xbe061aa8	-0.13096106
178	0x3d3d0597	0.04614791
179	0xbcc23566	-0.023707103
180	0x3dd67f2d	0.104734756
181	0xbd32eadb	-0.043681007
182	0xbdf34733	-0.118788145
183	0x3e28af58	0.16473138
184	0xbe434274	-0.19068319
185	0x3d8f346a	0.06992419
186	0xbe3f40a9	-0.1867701
187	0xbe2e0ad9	-0.16996326
188	0x3d9421c3	0.07233002
189	0x3dd95736	0.10612337
190	0xbda9ff72	-0.083006755
191	0xbe2507a6	-0.16116199
192	0xbe1124a0	-0.14174128
193	0x3e3d9571	0.18514039
194	0x3d485cc2	0.048916586
195	0xbd0d6232	-0.034517474
196	0xbcbcbf21	-0.023040356
197	0xbe10e219	-0.1414875
198	0x3c970a47	0.018437518
199	0xbe0cea82	-0.13761333
200	0xbe1aa7c6	-0.15103063
201	0xbc24b95c	-0.010053959
202	0xbe2e6784	-0.17031676
203	0xbe1804d5	-0.14845593
204	0x3da8ab13	0.08235755
205	0xbd924e1a	-0.07143803
206	0xbd90c80d	-0.07069407
207	0xbcd08e15	-0.025458375
208	0x3d95f947	0.073229365
209	0xbc6e71f9	-0.01455354
210	0x3dbda9dc	0.09260914
211	0x3decac1f	0.11556267
212	0x3dda6747	0.1066423
213	0xbe0d5f70	-0.13805938
214	0x3e4ca6c6	0.19985494
215	0x3e30885b	0.17239515
216	0x3d37eb78	0.044902295
217	0xbdde1b45	-0.10845045
218	0x3b2b46a4	0.0026134634
219	0xbe1f22d3	-0.15540628
220	0x3e40f962	0.18845132
221	0xb95d94cf	-0.00021131638
222	0x3df7d3c7	0.1210094
223	0x3d0b06c2	0.03394199
224	0xbd188693	-0.037237715
225	0xbdc160a5	-0.094422616
226	0xbe15e784	-0.14639097
227	0x3e01382a	0.12619081
228	0xbcfdbe29	-0.030974464
229	0xbdc5e686	-0.096631095
230	0xbe1df04b	-0.15423696
231	0x3b65ad0e	0.0035045776
232	0xbdd2347b	-0.10263916
233	0x3e151c69	0.14561619
234	0x3e137a5c	0.14402145
235	0xbde28039	-0.11059613
236	0xbd95447f	-0.07288455
237	0x3a668435	0.0008793504
238	0x3dd53171	0.10409821
239	0x3c525ec8	0.01283998
240	0x3e42b1c3	0.19013123
241	0x3e2010bd	0.15631385
242	0x3d2a9b7b	0.041652184
243	0xbd0e258a	-0.03470377
244	0xbded0e21	-0.115749605
245	0x3cc7cf85	0.024390945
246	0x3ca756b9	0.020427095
247	0x3d70fc18	0.058834165
248	0xbdf5fdfb	-0.120113336
249	0xbe196f0a	-0.14983764
250	0x3c524a3c	0.012835082
251	0x3de9d037	0.11416667
252	0xbdf4aa23	-0.119465135
253	0xbd860555	-0.06543986
254	0x3d57edb1	0.052716915
255	0xbe2ce8b3	-0.16885643

bias f4 [8]
0	0x3d66a628	0.056310803
1	0xbd348b0a	-0.04407791
2	0x3e2bbce1	0.1677127
3	0xbccc0d28	-0.024908617
4	0xbdb94ca7	-0.090478234
5	0x3c43a203	0.011940482
6	0xbdb3cb4a	-0.08779009
7	0x3ddd6db5	0.108119406

weight f4 [32]
0	0x3f83d04e	1.0297945
1	0x3f827a2e	1.0193536
2	0x3f80efdc	1.0073199
3	0x3f7993ac	0.97490954
4	0x3f80052e	1.0001581
5	0x3f80ecc7	1.0072259
6	0x3f7fd2d1	0.99931055
7	0x3f7f8ade	0.9982127
8	0x3f7fa633	0.99862975
9	0x3f8033ea	1.0015843
10	0x3f830ba4	1.0237927
11	0x3f809b32	1.0047362
12	0x3f837dd0	1.027277
13	0x3f81a7f2	1.0129378
14	0x3f7e08a7	0.9923195
15	0x3f7ed343	0.9954111
16	0x3f83a426	1.0284469
17	0x3f815ae0	1.0105858
18	0x3f7df33f	0.9919929
19	0x3f7ef187	0.9958729
20	0x3f78a551	0.9712725
21	0x3f7b3171	0.98122317
22	0x3f851f61	1.0400201
23	0x3f7c9523	0.98665065
24	0x3f8231cb	1.0171446
25	0x3f80ffd7	1.0078076
26	0x3f82bacb	1.0213255
27	0x3f7dab47	0.99089473
28	0x3f819a3d	1.0125195
29	0x3f7ec0b6	0.99512804
30	0x3f842d64	1.0326352
31	0x3f799b7e	0.9750289

bias f4 [32]
0	0xba24752e	-0.00062735646
1	0x3d073800	0.03301239
2	0x3c100aa9	0.008791604
3	0xbc845ba2	-0.016156975
4	0x3ca36ab8	0.019948348
5	0x3b4a958f	0.0030911898
6	0xbb80a3d4	-0.00392578
7	0xbcad634d	-0.021165514
8	0x3c5ebf4c	0.013595413
9	0xbb879e1e	-0.004138722
10	0x3ce13b54	0.02749411
11	0xbb1d8c85	-0.0024040055
12	0x3d7482db	0.059695106
13	0x3d164ebd	0.036696184
14	0xbbd62b07	-0.006535891
15	0xbc77b5e0	-0.015119046
16	0x3cc26065	0.023727605
17	0xbbd5c16a	-0.006523301
18	0xbc8242e8	-0.015901044
19	0xbc5d7485	-0.01351655
20	0xbcf3f83a	-0.02978145
21	0xbcb80dbf	-0.022467492
22	0x3c83ec8b	0.016104003
23	0xbcf1ba4a	-0.029507775
24	0x3d1f6e18	0.038923353
25	0x3cb90839	0.022586929
26	0x3d2698ea	0.040673174
27	0xbbc81bf5	-0.0061068484
28	0x3c0d1775	0.00861155
29	0x3c18fdfb	0.009337897
30	0x3d5831ba	0.052781798
31	0x3c18ef93	0.009334463

running_mean f4 [32]
0	0xbf1fc9ea	-0.6241747
1	0xbdf17146	-0.11789183
2	0xbf16c2ef	-0.58891195
3	0x3dffd8d5	0.12492529
4	0x3e16c774	0.14724523
5	0xbdb69769	-0.08915598
6	0xbd041888	-0.032249957
7	0xbe6126da	-0.21987477
8	0xbdcf8b59	-0.10134
9	0xbec1500f	-0.37756392
10	0xbe9439ef	-0.2895045
11	0x3e167604	0.14693457
12	0xbf164849	-0.5870405
13	0xbef8be75	-0.48582807
14	0x3d9481a9	0.07251293
15	0xbe336d82	-0.17522243
16	0xbe715989	-0.23569311
17	0x3d1d064c	0.038336083
18	0x3edbe0bc	0.42944896
19	0xbc381586	-0.0112356
20	0xbe5ee800	-0.21768188
21	0xbeb4a484	-0.35281765
22	0xbd3af8cd	-0.04564743
23	0x3e30ce1a	0.17266122
24	0xbe96713a	-0.2938326
25	0x3ea854c7	0.3287718
26	0xbe18c19c	-0.14917606
27	0xbf150266	-0.58206785
28	0xbe1c808a	-0.15283409
29	0xbd8c2444	-0.068428546
30	0x3b9a71bd	0.0047132657
31	0xbefa3ac5	-0.48872963

running_var f4 [32]
0	0x3d8c57d1	0.06852687
1	0x3e3f8079	0.18701352
2	0x3e47e60a	0.19521347
3	0x3e69aef1	0.22820641
4	0x3d929231	0.0715679
5	0x3e1df1a5	0.15424211
6	0x3d4fafdf	0.050704833
7	0x3dbbc203	0.09167864
8	0x3e8556b0	0.260427
9	0x3e2fe2b8	0.1717633
10	0x3edd245e	0.43191808
11	0x3e5f6b55	0.21818288
12	0x3e8748b1	0.26422647
13	0x3e67899c	0.22611088
14	0x3dcb15e6	0.09916286
15	0x3e5a168e	0.21297666
16	0x3e8560d8	0.26050448
17	0x3e07d02f	0.1326301
18	0x3e5d028b	0.21583001
19	0x3dab4917	0.0836355
20	0x3e6f4a0e	0.23368093
21	0x3e9931c4	0.2992078
22	0x3e2242c7	0.15845786
23	0x3dd886ac	0.105725616
24	0x3e6e072f	0.23244928
25	0x3e046d76	0.12932381
26	0x3e142f8d	0.14471264
27	0x3e8c9398	0.27456355
28	0x3d45aba1	0.04825938
29	0x3e24ff02	0.16112903
30	0x3e9ad493	0.30240306
31	0x3e377dc8	0.17919075
