code/model_sol_backups/model_sol_97.pt (torch, 635426 bytes, 158 tensors)

weight f4 [32, 2]
0	0xbe32550f	-0.1741526
1	0xbe865cc8	-0.2624266
2	0xbeb64dc9	-0.3560622
3	0x3f29b310	0.6628885
4	0x3f30b99e	0.6903323
5	0xbe8e9215	-0.27845827
6	0x3d9c0120	0.07617402
7	0x3ee78ead	0.4522604
8	0x3f225e14	0.634248
9	0x3f188871	0.59583193
10	0x3e76d276	0.24103722
11	0xbecaa90a	-0.39582092
12	0xbf1565db	-0.58358544
13	0x3e432a5f	0.19059132
14	0x3f166c7e	0.58759296
15	0xbd107511	-0.035267893
16	0x3f2a8a98	0.6661773
17	0xbf329af8	-0.69767714
18	0xbf0dcce2	-0.5539075
19	0x3e81b95c	0.2533673
20	0x3ed2d59e	0.41178602
21	0xbe80014d	-0.25000992
22	0xbf01103e	-0.5041541
23	0xbe11dd3d	-0.14244552
24	0x3e584fc4	0.21124178
25	0x3d94f330	0.07272947
26	0x3d119bae	0.03554886
27	0xbf2e0648	-0.67978334
28	0x3f32520e	0.69656456
29	0x3cbce9c7	0.023060692
30	0x3e95ea68	0.292804
31	0xbf17c94e	-0.5929154
32	0xbeaefcca	-0.34177238
33	0xbeee6843	-0.4656392
34	0x3d85277c	0.06501672
35	0x3f0d2668	0.5513673
36	0x3e9df7e2	0.30853182
37	0xbf063ad1	-0.52433497
38	0xbebde0b5	-0.370855
39	0x3e00db12	0.12583569
40	0x3f39c632	0.7256805
41	0x3e516704	0.20449454
42	0xbf200104	-0.6250155
43	0xbf2aa62e	-0.6665982
44	0xbe8f389f	-0.27972886
45	0x3e51f0f0	0.20502067
46	0xbd22492b	-0.03962056
47	0xbeaeea3f	-0.3416309
48	0x3ee84876	0.45367783
49	0xbe4ffe0f	-0.2031176
50	0xbd65e018	-0.056121916
51	0x3e94818f	0.29005095
52	0xbf07a7a6	-0.52990186
53	0x3efed25b	0.49769863
54	0x3efdf8f7	0.49604008
55	0xbdffac24	-0.12484005
56	0xbf1a5e3b	-0.60300034
57	0xbf04f8df	-0.5194225
58	0xbe89c9d8	-0.26911807
59	0xbf2fbfb9	-0.6865192
60	0x3ea72c8c	0.32651174
61	0xbeb42485	-0.35184112
62	0x3f244a88	0.64176226
63	0xbe21f1f5	-0.15814956

bias f4 [32]
0	0x3e1f0dfc	0.15532678
1	0xbe378ff1	-0.17926003
2	0x3f06de49	0.5268293
3	0xbde3550a	-0.11100204
4	0x3e4d1e27	0.20031033
5	0x3ed46486	0.41482943
6	0xbf1fa724	-0.6236441
7	0x3eaadb55	0.33370462
8	0x3e3c3217	0.18378483
9	0xbeb6f38c	-0.35732687
10	0xbeadccfc	-0.33945453
11	0xbd75d354	-0.06001599
12	0x3e580486	0.21095476
13	0x3b3880be	0.0028152908
14	0x3e631055	0.22174199
15	0x3cf01b52	0.029309902
16	0xbe0e98b6	-0.13925442
17	0x3edf0645	0.4355947
18	0xbdd0baaf	-0.10191857
19	0x3f14ddfc	0.5815122
20	0x3ecfc4f2	0.40579945
21	0x3f0d7a51	0.55264765
22	0xbec2e8ba	-0.3806818
23	0xbefc90ff	-0.49329373
24	0xbdbaf04b	-0.091278635
25	0x3f35f560	0.7107754
26	0x3ddfdd5f	0.10930895
27	0x3d4245d8	0.04742989
28	0x3f2c0f1a	0.67210543
29	0xbdc91ceb	-0.09819969
30	0x3eed185b	0.46307644
31	0xbe9aeb76	-0.30257767

weight f4 [128, 32]
0	0x3dfc0d19	0.12307186
1	0xbe203e12	-0.15648678
2	0xbd154da0	-0.036450982
3	0xb9d711c4	-0.00041021232
4	0xbe02fd37	-0.12791906
5	0xbdf53d16	-0.11974542
6	0x3e05c247	0.13062392
7	0x3d7a92d0	0.061175168
8	0x3db08a78	0.08620161
9	0xbd9164a3	-0.07099273
10	0xbe5e9a86	-0.21738634
11	0xbd9b25dc	-0.075755805
12	0xbdbeaf74	-0.09310809
13	0x3d23398c	0.039849803
14	0xbe2f901b	-0.17144816
15	0xbe16fb70	-0.14744353
16	0xbe08ab2f	-0.13346551
17	0x3b1dcd14	0.0024078535
18	0xbdec5ef0	-0.115415454
19	0x3db99b41	0.090628155
20	0x3e3230a8	0.17401373
21	0xbddf8702	-0.109144226
22	0xbe0248f8	-0.12723148
23	0x3d4deea2	0.050276406
24	0xbe373a51	-0.1789334
25	0x3b4234da	0.0029633553
26	0x3de89f4e	0.1135851
27	0x3df2b3f3	0.11850729
28	0xbe309968	-0.1724602
29	0xbd70f018	-0.05882272
30	0xbd84f216	-0.06491487
31	0x3d6c562a	0.05769936
32	0x3e3870fb	0.18011849
33	0x3daef733	0.08543243
34	0xbd2e0717	-0.04248723
35	0xbdfc7813	-0.1232759
36	0x3dc57c19	0.096428104
37	0xbdc09326	-0.09403066
38	0x3de46533	0.11152115
39	0xbce5b230	-0.028039068
40	0x3daad163	0.083407186
41	0xbc022ab6	-0.007944753
42	0xbd06fbc3	-0.032954942
43	0xbe1dc89d	-0.15408559
44	0xbe49ef43	-0.19720177
45	0x3b019f3d	0.0019778751
46	0x3e187caa	0.14891306
47	0x3b9adc23	0.0047259494
48	0x3e376e4b	0.17913167
49	0xbc0b8d4f	-0.008517577
50	0x3c054e39	0.0081363255
51	0xbdc7018e	-0.097170934
52	0x3dd7a60f	0.1052972
53	0x3d865f85	0.06561188
54	0x3e0cd217	0.13752018
55	0x3e196fc9	0.14984049
56	0x3e1680ff	0.14697646
57	0x3dd1ea85	0.10249809
58	0x3cf494c3	0.029856091
59	0x3c5ca146	0.013466185
60	0x3d10b071	0.035324518
61	0x3d074c75	0.0330319
62	0xbdb47311	-0.0881101
63	0x3e027f84	0.12743956
64	0xbe1d526c	-0.15363473
65	0xbcd33fb5	-0.025787214
66	0xbd0805bd	-0.033208597
67	0xbe553424	-0.20820671
68	0xbdd1947f	-0.102334015
69	0x3dffafed	0.12484727
70	0x3d681ec6	0.056669973
71	0x3e0fe877	0.14053522
72	0x3d14e892	0.03635461
73	0x3db585fb	0.08863445
74	0x3b15efd0	0.0022878535
75	0x3e3ee0fe	0.18640515
76	0x3e1c5f21	0.15270664
77	0x3c1a1b54	0.00940593
78	0xbd98c994	-0.07460323
79	0x3da0907c	0.07840058
80	0xbdc61c1f	-0.096733324
81	0xbe331ef0	-0.1749227
82	0x3db88473	0.09009638
83	0xbe03c90d	-0.12869664
84	0x3d53b4a8	0.05168596
85	0xbdbabf22	-0.09118487
86	0x3d4b10b4	0.049576476
87	0x3c0f671a	0.008752609
88	0xbe0d98d9	-0.13827838
89	0xbd522af0	-0.05131048
90	0x3be20490	0.0068975165
91	0x3df722a3	0.12067153
92	0xbdd18846	-0.1023107
93	0xbdc15c66	-0.09441452
94	0x3debdd4e	0.1151682
95	0xbd2ca226	-0.042146824
96	0xbe054a32	-0.13016585
97	0xbc6f20a9	-0.014595189
98	0x3e3f779d	0.18697973
99	0xbe3f2779	-0.18667401
100	0xbe0fda28	-0.14048064
101	0xbd4c61f1	-0.04989809
102	0xbd37cab8	-0.044871062
103	0xbd73aeab	-0.05949275
104	0x3ccb8ff0	0.024848908
105	0x3ddc572a	0.10758813
106	0xbde8c845	-0.113663234
107	0x3df53545	0.11973051
108	0x3bb89540	0.0056330264
109	0x3e1869db	0.1488413
110	0x3cbaa820	0.022785246
111	0x3bd28d1c	0.006425513
112	0x3ce316b5	0.027720788
113	0xbbd7569a	-0.006571603
114	0x3e29e8e5	0.16592748
115	0x3c37525f	0.011189072
116	0xbdef34a6	-0.11679964
117	0xba12c9bd	-0.00055995194
118	0xbe1f1837	-0.15536581
119	0xbe4b0d72	-0.19829348
120	0x3e17f933	0.14841156
121	0x3d912edc	0.07089016
122	0x3ded61d0	0.11590922
123	0x3d06b2f5	0.03288551
124	0x3d0ef104	0.03489782
125	0xbe5411d0	-0.2070992
126	0xbe104ce7	-0.14091836
127	0xbdd28dac	-0.10280928
128	0xbdb6cd67	-0.08925896
129	0xbe0816da	-0.13289967
130	0x3d9599c2	0.073047176
131	0xbcc0ae62	-0.023520652
132	0xbe1eff03	-0.15526967
133	0xbdb57703	-0.0886059
134	0x3bdd0b85	0.006745758
135	0xbe0f27fc	-0.13980097
136	0x3e2a45cb	0.16628186
137	0x3df60e6e	0.12014471
138	0x3c847ac8	0.016171828
139	0xbe509344	-0.20368677
140	0x3d91e399	0.07123489
141	0xbde7ae01	-0.113124855
142	0xbd866bfc	-0.06563565
143	0xbe3339c3	-0.17502503
144	0x3e21f5b0	0.15816379
145	0xbc13248f	-0.008980884
146	0xbca4665a	-0.020068336
147	0x3e32ce5d	0.17461534
148	0x3e07f6e4	0.13277775
149	0xbdc018c9	-0.093797274
150	0xbd362467	-0.04446831
151	0x3d4c8cd9	0.04993901
152	0xbcb4704b	-0.022026202
153	0xbc16e2ce	-0.009209348
154	0x3e490ccb	0.19633786
155	0x3e09b6cc	0.13448638
156	0x3e0e40b4	0.1389187
157	0x3d84bd3c	0.06481406
158	0xbdfbc585	-0.12293533
159	0xbd892996	-0.06697385
160	0xbe2234ca	-0.1584045
161	0xbd9ada08	-0.075611174
162	0xbd5ad7b0	-0.053428352
163	0x3e107580	0.14107323
164	0x3d043e61	0.03228605
165	0xbe27e27b	-0.16394989
166	0xbd44fe54	-0.04809411
167	0x3dedaf31	0.11605681
168	0xbd6d20ce	-0.057892613
169	0x3e06111b	0.13092463
170	0xbe2c9f3d	-0.1685762
171	0xbd0b7248	-0.034044534
172	0x3d55cc7e	0.052196972
173	0xbd063d57	-0.032773342
174	0xbe306335	-0.17225344
175	0xbbf68611	-0.007523306
176	0x3d4f17c8	0.05055979
177	0x3d096396	0.03354224
178	0xbdf1199c	-0.11772463
179	0xbdfb7e16	-0.12279908
180	0xbdd68a29	-0.10475571
181	0x3e048c5e	0.12944171
182	0x3cb3f53d	0.021967525
183	0x3d5a4855	0.053291637
184	0x3de31eb4	0.110898405
185	0xbc62828a	-0.013825068
186	0x3e2fb810	0.17160058
187	0x3d2a2063	0.041534793
188	0x3de4b5d4	0.111674935
189	0xbe14d7a2	-0.14535382
190	0x3e06cadc	0.13163322
191	0xbe289749	-0.1646396
192	0xbe24946a	-0.1607224
193	0x3d83e200	0.064395905
194	0xbdd2ca8c	-0.10292539
195	0xbe44d47c	-0.19221681
196	0x3dadf2eb	0.084935986
197	0x3e2b4765	0.16726454
198	0xba8cac75	-0.0010732549
199	0xbdb4fa87	-0.08836847
200	0xbe0ec2f9	-0.13941564
201	0x3ded9366	0.1160038
202	0x3d9cfdc6	0.07665591
203	0x3dead4a0	0.11466336
204	0x3bf13067	0.0073605063
205	0x3e2cbc30	0.16868663
206	0x3b16a5a1	0.0022986906
207	0x3e23ca54	0.15995151
208	0xbe2e96d9	-0.17049731
209	0xbe0ff6bb	-0.14058964
210	0x3ddf6f9d	0.109099604
211	0xbc043b21	-0.008070738
212	0x3e2fba1c	0.17160839
213	0x3dab820e	0.08374415
214	0xbcc8be7c	-0.024504893
215	0xbb431a54	-0.0029770331
216	0x3e1f857e	0.15578267
217	0xbdadd892	-0.08488573
218	0xbc3cfe89	-0.011535295
219	0xbdb69b91	-0.08916391
220	0x3dcde9a8	0.10054332
221	0x3d2914e3	0.041279685
222	0xbe373aaf	-0.1789348
223	0xbe1137f5	-0.14181502
224	0xbe597103	-0.21234517
225	0xbe1e2352	-0.15443161
226	0x3c055f3c	0.008140381
227	0xbda166f8	-0.07880968
228	0xbe007c16	-0.12547335
229	0x3df88666	0.121350095
230	0xbe08b026	-0.13348445
231	0x3c21387f	0.00984013
232	0x3dec320d	0.11532984
233	0x3e131b63	0.14365916
234	0xbdb8b5a4	-0.0901902
235	0x3e2e639e	0.17030188
236	0x3cda5768	0.026653007
237	0xbdce559b	-0.10074922
238	0xbddeb53a	-0.1087441
239	0xbd3c3a68	-0.045954138
240	0x3d37f4f4	0.04491134
241	0xbde8e73d	-0.1137223
242	0xb986aaa4	-0.0002568561
243	0x3d9ad0dd	0.07559369
244	0xbde7cb12	-0.113180295
245	0xbe015d1b	-0.12633173
246	0x3d7cc52e	0.061711483
247	0xbd2b7b90	-0.041865885
248	0xbddbfba4	-0.10741356
249	0xbe2d2d33	-0.16911773
250	0x3dde5305	0.108556785
251	0x3e05508d	0.13019009
252	0xbddcf22a	-0.10788377
253	0xbdb58bac	-0.08864531
254	0xbd6f1cab	-0.05837695
255	0xbdc11f84	-0.09429839

bias f4 [128]
0	0x3d8288e3	0.06373765
1	0xbce0a82f	-0.027423946
2	0x3e1e8e92	0.15484074
3	0xbdef4b54	-0.116842896
4	0xbdd712ef	-0.10501658
5	0x3d995b37	0.07488101
6	0x3dcfa2ce	0.101384744
7	0xbd9385ec	-0.07203278
8	0xbd4d5b44	-0.050135866
9	0xbc44c89b	-0.012010719
10	0xbdc12496	-0.09430806
11	0x3d12a5b8	0.035802573
12	0xbd950d68	-0.07277948
13	0x3e137b01	0.14402391
14	0xbd4b95e9	-0.049703512
15	0x3e389366	0.18024978
16	0xbce54c0f	-0.02799037
17	0xbd20929f	-0.03920233
18	0x3e0b878a	0.13625923
19	0x3d464a85	0.04841091
20	0xbe397da5	-0.18114336
21	0xbd96331a	-0.073339656
22	0x3e01537e	0.12629506
23	0xbcd3b56f	-0.02584335
24	0xbe1ce6fd	-0.1532249
25	0xbe2d01bc	-0.16895193
26	0x3d1dd4b0	0.038532913
27	0x3e25c1ac	0.16187161
28	0xbdb3e524	-0.087839395
29	0xbd007718	-0.031363577
30	0x3d239246	0.03993442
31	0xbcc4d143	-0.024025565
32	0x3cde7df7	0.027159674
33	0xbd1e001a	-0.038574316
34	0x3d797bff	0.060909268
35	0x3db9829b	0.09058114
36	0xbd134328	-0.035952717
37	0xbe2c6b98	-0.16837919
38	0x3e042067	0.12902986
39	0x3df6c2ac	0.120488495
40	0x3e505c9c	0.20347828
41	0x3c89e003	0.01683045
42	0x3c956121	0.018234791
43	0x3dd0feee	0.10204874
44	0xbd95b161	-0.07309223
45	0xbcd02c8f	-0.025411872
46	0x3d7ce7ea	0.061744608
47	0x3e0d1057	0.13775764
48	0xbdec0302	-0.11524011
49	0xbde12f2a	-0.10995324
50	0x3c0e64de	0.008691041
51	0xbc3bf995	-0.011473079
52	0x3d95ff12	0.073240414
53	0xbe3aa020	-0.18225145
54	0x3da7a685	0.08186058
55	0x3c31279e	0.010812668
56	0xbe13913b	-0.1441087
57	0x3da19562	0.07889821
58	0x3d6a03d7	0.05713257
59	0x3d943b28	0.07237846
60	0xbd447444	-0.047962442
61	0xbd0808ff	-0.033211704
62	0xbdeef983	-0.11668684
63	0x3c486867	0.012231923
64	0xbd9756be	-0.07389592
65	0x3e1860a3	0.14880614
66	0xbde09539	-0.10965962
67	0xbe44318a	-0.19159523
68	0xbe342a8e	-0.17594358
69	0xbe121259	-0.14264812
70	0xbde6323c	-0.1124005
71	0xbc13e42a	-0.0090265665
72	0xb9c06e3b	-0.00036703222
73	0x3d2fbcf2	0.0429048
74	0xbe0826f2	-0.13296106
75	0x3d98df8b	0.074645124
76	0x3d998fde	0.074981436
77	0x3d3ebc7e	0.04656648
78	0xbe2a3038	-0.16619956
79	0xbd332c56	-0.043743454
80	0xbe176b65	-0.14787062
81	0x3e08ae43	0.13347726
82	0xbdf7d6fd	-0.12101553
83	0xbe277c43	-0.16355996
84	0xbd2c77be	-0.042106383
85	0x3e11b4c8	0.14229119
86	0x3d92c2ed	0.071660854
87	0x3d1f4896	0.038887583
88	0xbe0764e6	-0.13222083
89	0xbe258d4b	-0.1616718
90	0xbd8a6b41	-0.06758738
91	0x3dd21d8d	0.102595426
92	0x3cf47f22	0.029845778
93	0x3dd962d2	0.106145516
94	0x3dcacd1c	0.09902403
95	0x3e021d09	0.12706389
96	0x3dff4274	0.12463847
97	0xbe0005c7	-0.12502204
98	0x3d89e1c3	0.06732514
99	0xbd345449	-0.044025693
100	0x3d832296	0.06403081
101	0x3db1cb57	0.08681362
102	0xbe217d24	-0.15770394
103	0xbcf8fb3c	-0.030393235
104	0x3d975500	0.07389259
105	0xbc5154c4	-0.012776557
106	0x3de17c6b	0.11010059
107	0xbe1eddbf	-0.15514277
108	0x3d9b4c6d	0.075829364
109	0xbdc47342	-0.09592296
110	0x3a18eac7	0.00058333244
111	0x3ce92a7c	0.028462641
112	0x3d36555a	0.04451499
113	0x3e06d51a	0.1316723
114	0x3c3a9d92	0.011390107
115	0x3e35ce1f	0.1775441
116	0xbd267008	-0.040634185
117	0x3d5f270e	0.054480605
118	0xbe1df639	-0.15425958
119	0x3e29205f	0.16516255
120	0xbd3c8f8a	-0.046035327
121	0xbe136eee	-0.14397785
122	0x3d9b7b92	0.075919285
123	0xbe0d9818	-0.1382755
124	0xbc915332	-0.017739866
125	0x3d740391	0.059573714
126	0x3e1b55a5	0.1516939
127	0x3e36474a	0.17800632

weight f4 [32]
0	0x3f7cbc6f	0.98725027
1	0x3f80079b	1.0002321
2	0x3f77be3a	0.9677464
3	0x3f8752c1	1.057213
4	0x3f7976ab	0.974467
5	0x3f7686bb	0.9629933
6	0x3f69241d	0.9107073
7	0x3f766897	0.9625334
8	0x3f729ce0	0.9477062
9	0x3f65cf85	0.89769775
10	0x3f65e9c4	0.89809823
11	0x3f7df4a5	0.9920142
12	0x3f7aa0d6	0.97901666
13	0x3f85aa8a	1.0442669
14	0x3f6bf7be	0.921749
15	0x3f7f09b0	0.99624157
16	0x3f6a4810	0.9151621
17	0x3f848e19	1.0355865
18	0x3f80a31e	1.004978
19	0x3f7162aa	0.94291174
20	0x3f75769c	0.9588411
21	0x3f6d0284	0.92581964
22	0x3f72cb5d	0.9484156
23	0x3f89d200	1.0767212
24	0x3f766339	0.9624515
25	0x3f781722	0.969103
26	0x3f7ad2e9	0.97978073
27	0x3f7a6426	0.97809064
28	0x3f79b3aa	0.9753977
29	0x3f81d78c	1.0143905
30	0x3f6dbb11	0.92863566
31	0x3f76913f	0.9631538

bias f4 [32]
0	0x3d9ff278	0.07809919
1	0xbd3dc986	-0.046334766
2	0xbda9b0f2	-0.08285703
3	0x3c8fc6dd	0.01755088
4	0xbd4a8794	-0.049445704
5	0xbd27073c	-0.040778384
6	0xbbdf5cdc	-0.0068164896
7	0x3d16682c	0.03672044
8	0xbdda52f7	-0.106603555
9	0x3cae3e71	0.021270009
10	0xbd8ea83b	-0.06965681
11	0xbcafd4ce	-0.021463778
12	0x3d3c93f6	0.046039544
13	0xbde58dd6	-0.11208694
14	0x3d9f462e	0.077770576
15	0xbd2dd0eb	-0.042435568
16	0x3baf4531	0.0053488244
17	0x3a07bda2	0.0005178099
18	0xbdb845e9	-0.08997709
19	0x3dc9e133	0.098574065
20	0x3bc64c33	0.006051564
21	0x3bfa6db9	0.0076424745
22	0xbc3310be	-0.010929285
23	0xbdb08838	-0.08619732
24	0xbdb433d8	-0.08798951
25	0xbd1d6305	-0.03842451
26	0xbd5fddf0	-0.054655015
27	0xbce38bdd	-0.027776653
28	0xbd9a2208	-0.07526022
29	0xbc5d1e9e	-0.013496069
30	0xbd2906ec	-0.041266367
31	0xbcdced1e	-0.026968535

running_mean f4 [32]
0	0x3cf9d201	0.030495645
1	0x3ab4ad22	0.0013784508
2	0x3f0aaefc	0.54173255
3	0x3d85c5df	0.065318815
4	0x3f05ecf8	0.5231471
5	0x3e9fdfc4	0.31225407
6	0xbf273c44	-0.65326333
7	0x3ed720e2	0.42017275
8	0x3d300724	0.04297556
9	0xbeb7ae29	-0.3587506
10	0xbeb8e9d8	-0.3611591
11	0xbe49b180	-0.19696617
12	0x3e8b8593	0.27250347
13	0xbe72b94f	-0.23703502
14	0x3eb1b1c8	0.3470595
15	0xbe0bd7de	-0.13656566
16	0xbebb2852	-0.365542
17	0x3f257347	0.64629024
18	0xbe7616e8	-0.24032176
19	0x3f108c0c	0.56463695
20	0x3f1a11bb	0.60183305
21	0x3e5287b0	0.20559573
22	0xbeb52556	-0.35380048
23	0xbf1fd077	-0.6242747
24	0xbdb5a622	-0.08869578
25	0x3f4e7be2	0.8065778
26	0x3e4d8bcb	0.20072858
27	0x3daf93e7	0.08573132
28	0x3ec3daba	0.38252813
29	0xbec90245	-0.39259544
30	0x3ec83a0e	0.39106792
31	0xbe814e70	-0.25255156

running_var f4 [32]
0	0x3c882d60	0.016623199
1	0x3e268024	0.1625982
2	0x3e1aa14d	0.15100594
3	0x3d34f2f4	0.04417701
4	0x3df9793d	0.121813275
5	0x3d7f7505	0.062367458
6	0x3dccf4f7	0.10007661
7	0x3da53254	0.0806624
8	0x3e8d2855	0.27569833
9	0x3dd29f41	0.102842815
10	0x3d883402	0.06650545
11	0x3d55542b	0.052082222
12	0x3c168d7c	0.009189006
13	0x3de36e2b	0.11104997
14	0x3ddacd65	0.10683707
15	0x3dfed578	0.1244306
16	0x3d61c6ef	0.05512136
17	0x3d88b4b9	0.06675095
18	0x3ddb679d	0.10713122
19	0x3d2798c7	0.040917184
20	0x3ddd1bea	0.1079634
21	0x3e09f5b4	0.13472635
22	0x3d0fd49f	0.03511488
23	0x3cd17dbd	0.025572652
24	0x3d8bc640	0.068249226
25	0x3cb84336	0.022492986
26	0x3e20128e	0.15632078
27	0x3d89b909	0.06724746
28	0x3dd10733	0.10206451
29	0x3dce4b13	0.10072913
30	0x3d8bcb68	0.06825906
31	0x3de56324	0.1120055

weight f4 [32, 3]
0	0xbf1ae127	-0.60499805
1	0x3e3968d5	0.18106396
2	0x3ec4f1d0	0.38465738
3	0x3e79dbe5	0.2440029
4	0xbe47b634	-0.19503099
5	0xbd55ef66	-0.05223026
6	0x3f98f12e	1.1948602
7	0xbf0476c4	-0.5174372
8	0x3e82cc37	0.2554643
9	0x3fe0091e	1.7502782
10	0xb90a4872	-0.00013187694
11	0x3940b6d9	0.00018378663
12	0xbf37b570	-0.71761227
13	0x3e676c65	0.22599943
14	0x3ee8636d	0.45388356
15	0x3e5368d3	0.20645456
16	0x3c924318	0.017854258
17	0xbe31b253	-0.17353182
18	0x3ea818fc	0.32831562
19	0xbe3e0342	-0.1855593
20	0xbd9175b3	-0.071025275
21	0x3efd0fc9	0.49426106
22	0xbec6b020	-0.38806248
23	0xbdf0a0e3	-0.11749437
24	0xbe3616a0	-0.17782068
25	0x3e9530b8	0.29138732
26	0x3ebc80ab	0.36816916
27	0xbe80aaf5	-0.2513043
28	0x3e872519	0.2639549
29	0x3de03006	0.1094666
30	0xbf750895	-0.9571622
31	0x3f09a66b	0.5376956
32	0x3e56f82c	0.20993108
33	0xbd59d7cf	-0.053184327
34	0x3ebeeaa0	0.3728838
35	0xbeaef042	-0.34167677
36	0x3f5f4441	0.8721352
37	0x3e8dc01d	0.27685633
38	0xbecfbe2f	-0.40574786
39	0xbece0359	-0.4023693
40	0xbeb54aaa	-0.35408527
41	0xbe81cbb2	-0.2535072
42	0x3f286516	0.65779245
43	0xbe858692	-0.26079232
44	0xbe61311f	-0.21991394
45	0xbcce88c1	-0.025211694
46	0xbefe3141	-0.49646953
47	0x3f014459	0.50494915
48	0x3f202563	0.6255705
49	0xbe54fad1	-0.20798804
50	0xbe96e5ca	-0.2947219
51	0x3d244f6a	0.040114798
52	0xbf26e8da	-0.65199053
53	0x3b7719e7	0.0037704648
54	0xbf4f8304	-0.8105929
55	0xbda3f639	-0.080059476
56	0x3e60ed03	0.21965413
57	0x3f86a9d6	1.052058
58	0xbd09645f	-0.033542987
59	0xbe58dceb	-0.21178024
60	0x3edc2836	0.4299943
61	0xbee0948f	-0.4386334
62	0xbf0a9a10	-0.5414133
63	0xbf18bd23	-0.596636
64	0xbef3d6f6	-0.4762494
65	0x3de2b7eb	0.11070236
66	0xbf505b63	-0.81389445
67	0x3e6f5cb8	0.23375213
68	0x3e1ebfec	0.155029
69	0xbe9b7aba	-0.3036707
70	0x3f01fd7a	0.507774
71	0xbdfa96b0	-0.122357726
72	0xbf89197a	-1.07109
73	0xbe61b4a9	-0.22041573
74	0x3e4dc5c7	0.20094977
75	0x3f623bb8	0.88372374
76	0x3e49371b	0.19649927
77	0xbf01e553	-0.50740546
78	0xbf18baef	-0.5966024
79	0x3e957f00	0.29198456
80	0x3f1785f9	0.591888
81	0xbe10b1dd	-0.1413035
82	0xbd2b040e	-0.041751914
83	0x3ef9c043	0.48779497
84	0xbdc767c7	-0.09736591
85	0x3f0166d5	0.50547534
86	0xbe882ea4	-0.26598084
87	0xbe0d3145	-0.13788326
88	0x3e863a86	0.26216525
89	0x3da80ef8	0.0820598
90	0xbf1cd2c6	-0.61259115
91	0x3ee452f0	0.44594526
92	0x3f076341	0.52885824
93	0x3f785d9b	0.9701783
94	0xbeee45d4	-0.4653765
95	0xbe80c6b9	-0.25151613

bias f4 [32]
0	0x3d9fa905	0.0779591
1	0x3ef34260	0.47511578
2	0x3e844675	0.25835004
3	0x3e07a9bd	0.13248344
4	0x3e917cb2	0.28415447
5	0x3e285b42	0.16441062
6	0xbe46838c	-0.19386119
7	0xbef3a31b	-0.47585377
8	0xbe1105c5	-0.14162357
9	0xbeafa7ac	-0.3430761
10	0xbebe56d4	-0.3717562
11	0x3ea4c1e4	0.32179177
12	0xbec44965	-0.38337246
13	0x3eaa72af	0.33290622
14	0xbdb7d92f	-0.08976971
15	0xbf09b280	-0.53787994
16	0x3f066725	0.52501136
17	0x3e6d8205	0.2319413
18	0x3edba31a	0.42897874
19	0x3e5f3771	0.21798493
20	0xbe92ac9c	-0.28647316
21	0x3d57ef41	0.052718405
22	0x3ec30851	0.38092282
23	0x3e73b91e	0.23801085
24	0xbe823e2f	-0.25438067
25	0x3effcb9b	0.49960026
26	0xbe8df014	-0.27722228
27	0x3e916d90	0.28403902
28	0xbe741e98	-0.23839796
29	0x3e019e1b	0.12657969
30	0x3e202a3e	0.15641114
31	0xbeada35c	-0.33913696

weight f4 [128, 32]
0	0x3db3780b	0.08763131
1	0x3cad5391	0.021158012
2	0x3e01f158	0.12689722
3	0x3db52c11	0.088462956
4	0x3e0e1f3a	0.138791
5	0x3cf9b397	0.030481143
6	0x3d2c2539	0.042027686
7	0x3b4c99f5	0.0031219695
8	0xbd36ac82	-0.04459811
9	0x3df74793	0.120741986
10	0xbdf01d25	-0.11724309
11	0x3df037fa	0.11729427
12	0xbd611fd3	-0.05496199
13	0xbcfb51da	-0.030678678
14	0xbde7cb8a	-0.11318119
15	0xbe3297b0	-0.17440677
16	0x3d60d286	0.05488827
17	0x3d78fd45	0.06078841
18	0xbe41da3e	-0.18930909
19	0x3c4367a8	0.011926569
20	0xbe122a99	-0.14274062
21	0x3d11cc96	0.0355955
22	0xbe0ad077	-0.13556086
23	0x3d399570	0.04530853
24	0x3d6bf634	0.057607844
25	0x3e3882de	0.18018672
26	0xbe0a3a41	-0.13498785
27	0x3db8db57	0.09026211
28	0xbe1ca246	-0.15296277
29	0x3e0c8072	0.13720873
30	0x3d46ffde	0.048583858
31	0xbdc15387	-0.0943976
32	0x3dbf5b0b	0.09343537
33	0x3d40f538	0.04710886
34	0xbdae03c9	-0.08496816
35	0x3d62832f	0.055300888
36	0x3d584a29	0.0528051
37	0xbacb0b82	-0.00154911
38	0xbde2e104	-0.110780746
39	0xbd8d3eba	-0.0689673
40	0x3e332ccb	0.17497556
41	0x3e09ebdf	0.13468884
42	0xbe013127	-0.12616406
43	0xbe5cfdeb	-0.21581237
44	0x3df3f18c	0.11911306
45	0xbe27810b	-0.1635782
46	0xbe2455b2	-0.16048315
47	0x3e008a3d	0.12552734
48	0x3e152f0b	0.14568727
49	0xbe2fe043	-0.17175393
50	0xbdafa68f	-0.085766904
51	0x3d99040f	0.07471477
52	0x3d612c17	0.054973688
53	0xbe35f588	-0.17769444
54	0xbd873836	-0.06602518
55	0xbdb9f157	-0.09079235
56	0x3de6198f	0.11235344
57	0xbd7a7421	-0.061145905
58	0x3dbd8bb1	0.0925516
59	0xbcdfb5df	-0.027308403
60	0xbe3a4808	-0.1819154
61	0xbd33db2a	-0.043910183
62	0x3d6329b1	0.055459682
63	0xbd172093	-0.0368963
64	0xbbf84779	-0.0075768796
65	0xbdcb7fc7	-0.09936481
66	0x3d50ee6e	0.051008634
67	0x3e89449e	0.26810163
68	0x3d7696c9	0.060202394
69	0xbcac32d6	-0.021020334
70	0xbe041078	-0.12896907
71	0x3daddc04	0.0848923
72	0xbd69f6fa	-0.0571203
73	0xbe4294b4	-0.19002038
74	0x3dac5acc	0.08415756
75	0x3e187863	0.14889674
76	0xbd217dba	-0.039426543
77	0xbcb02d43	-0.021505957
78	0x3dfc8c26	0.12331419
79	0x3dded7f5	0.10881034
80	0x3e220495	0.1582206
81	0x3e2c441e	0.1682286
82	0x3e0bbf7e	0.13647267
83	0xbe30cd59	-0.17265834
84	0xbd62d6d1	-0.055380646
85	0xbe152036	-0.14563069
86	0x3c1e9f1e	0.009681491
87	0x3d631f40	0.055449724
88	0xbd9c0665	-0.07618407
89	0x3da73153	0.08163705
90	0xbd4f0691	-0.05054337
91	0x3e0d7f3f	0.13818072
92	0x3dc54f03	0.09634211
93	0x3db9ffe2	0.09082009
94	0x3e10efd8	0.14153993
95	0x3d9fa015	0.07794205
96	0x3dc5bf2a	0.09655602
97	0xbd45bade	-0.048273914
98	0x3e37c4f5	0.17946227
99	0xbe27e2cb	-0.16395108
100	0xbe25265c	-0.16127914
101	0xbe25e7cd	-0.16201706
102	0xbe24cf36	-0.1609467
103	0xbd97e3de	-0.07416509
104	0xbd9c0740	-0.0761857
105	0x3dc10294	0.0942432
106	0xbd856e17	-0.065151386
107	0x3d19af5a	0.037520744
108	0xbd3822e9	-0.044955168
109	0x3ae7e0e0	0.0017690919
110	0xbdd2fcc7	-0.1030212
111	0xbdbba068	-0.091614544
112	0x3dfd7f3f	0.12377786
113	0x3e04b5d7	0.12959991
114	0x3e38364a	0.1798946
115	0x3d6ed067	0.058304217
116	0x3a866a13	0.0010255001
117	0x3dbfbe2a	0.09362443
118	0x3e156049	0.14587511
119	0x3d8cf7c0	0.06883192
120	0x3ca0d8cb	0.019634625
121	0xbe207b2a	-0.15671983
122	0x3e1fa45f	0.15590046
123	0x3d6fc888	0.05854085
124	0xbe0166dc	-0.12636894
125	0xbe35cf9a	-0.17754975
126	0xbd80bea3	-0.06286361
127	0x3e1b860a	0.1518785
128	0xbe1a4bd5	-0.1506799
129	0x3df623b6	0.1201853
130	0x3e0f6e76	0.14006981
131	0x3db58460	0.08863139
132	0xbd86cadd	-0.06581662
133	0xbd54d35a	-0.051959373
134	0xbd860f97	-0.06545942
135	0x3cd0e04e	0.025497582
136	0x3dae54ed	0.08512292
137	0xbe38655f	-0.1800742
138	0xbe0c2c33	-0.13688736
139	0xbe1d97e0	-0.15389967
140	0x3d8ac80c	0.06776437
141	0x3d3653cb	0.044513505
142	0x3def999f	0.11699223
143	0xbe044c5a	-0.12919751
144	0xbe411de0	-0.18859053
145	0xbdfb0a07	-0.12257772
146	0x3e281480	0.1641407
147	0xbdc768ab	-0.09736761
148	0xbdc00492	-0.09375872
149	0x3e31931d	0.17341276
150	0x3d449235	0.047990996
151	0x3d1bf7da	0.038078167
152	0x3c017308	0.007900961
153	0xbe0536ca	-0.13009182
154	0xbe340cd2	-0.17583016
155	0x3cca9423	0.02472884
156	0xbdcd41d0	-0.10022318
157	0x3ddba7c0	0.10725355
158	0x3e15bfa8	0.14623892
159	0x3d2f029f	0.04272711
160	0xbd9f1e25	-0.077694215
161	0x3da5186e	0.080613
162	0x3e3661c1	0.17810728
163	0x3e52c2ea	0.20582166
164	0x3d69f564	0.05711879
165	0xbc20c555	-0.009812673
166	0xbbd3ac37	-0.0064597386
167	0xbd207a89	-0.03917936
168	0xbbdc3012	-0.0067195976
169	0x3c3183d4	0.010834653
170	0xbdde7339	-0.10861821
171	0xbde45204	-0.11148456
172	0x3cd46930	0.025929064
173	0x3cc5584c	0.024089955
174	0x3e074692	0.13210514
175	0xbde3b2ca	-0.11118086
176	0xbd64453b	-0.055730086
177	0x3e006c93	0.12541418
178	0x3e1c1a47	0.15244399
179	0x3cde3317	0.02712397
180	0xbe30e340	-0.17274189
181	0x3d48fdc5	0.04907014
182	0x3c681d8c	0.014167201
183	0xbdef0cea	-0.11672385
184	0xbdb085f6	-0.08619301
185	0xbe079e21	-0.13243915
186	0x3e2efd3c	0.17088789
187	0xbe0483af	-0.12940858
188	0xbddf75c9	-0.109111376
189	0x3e0989a3	0.1343141
190	0x3c4dee7b	0.012569065
191	0xbcc50350	-0.024049431
192	0x3e03135a	0.12800351
193	0xbc6bdd28	-0.0143959895
194	0xbe2aade1	-0.16667892
195	0x3e54c6f8	0.20779026
196	0x3c9fba73	0.019498086
197	0x3dd8ea1c	0.10591528
198	0xbd8bf689	-0.06834132
199	0xbd1ac94c	-0.037789628
200	0xbc8acb38	-0.016942605
201	0x3d4485f1	0.0479793
202	0xbd7147fa	-0.058906533
203	0xbdf15897	-0.11784475
204	0xbbd9a231	-0.006641649
205	0xbdb992ad	-0.09061179
206	0xbd1f5a9c	-0.03890477
207	0xbd9cc657	-0.07655018
208	0xbda54b13	-0.0807096
209	0xbdab4d67	-0.08364373
210	0x3d07d37c	0.03316067
211	0x3dadd46d	0.084877826
212	0x3be45f52	0.006969371
213	0x3de8a223	0.1135905
214	0xbdf78011	-0.120849736
215	0xbe0dc23e	-0.13843629
216	0x3d8f9150	0.07010138
217	0xbdbb3fae	-0.09143005
218	0xbbc279e6	-0.0059349416
219	0x3d0d046a	0.034428038
220	0x3d14ae53	0.03629906
221	0xbde94806	-0.113906905
222	0x3e02f4dd	0.1278872
223	0x3de49e1f	0.11162972
224	0xbdeda428	-0.11603576
225	0xbe013caa	-0.12620798
226	0xbd68cfb9	-0.056838725
227	0x3ddcc5a9	0.10779888
228	0x3ced45d3	0.028963959
229	0xbd56d52f	-0.0524494
230	0xbe026eed	-0.12737627
231	0xbe0e0f56	-0.13873038
232	0xbda57934	-0.08079758
233	0xbdb73227	-0.08945113
234	0xbdea7e46	-0.11449866
235	0xbc93fa07	-0.018063558
236	0xbd6337c9	-0.055473123
237	0xbd80ec31	-0.0629505
238	0x3c81ea2b	0.01585873
239	0x3e2e3d8b	0.17015664
240	0xbd90af54	-0.07064691
241	0xbe148533	-0.14503936
242	0xbdbb62f8	-0.09149736
243	0x3d419181	0.047257904
244	0x3ca102cb	0.019654652
245	0xbd5f6a5c	-0.05454479
246	0x3c91f3ce	0.01781645
247	0xbb598de4	-0.0033196146
248	0xbd653268	-0.055956274
249	0xbc87b870	-0.016567439
250	0xbc3c3a5d	-0.011488524
251	0x3b867a9a	0.0041039707
252	0xbde89dd9	-0.11358232
253	0xbc088471	-0.008332358
254	0x3de22bef	0.11043536
255	0x3e2e07ff	0.16995238

bias f4 [128]
0	0xbd24deff	-0.04025173
1	0x3dffc047	0.12487846
2	0x3ddc620e	0.1076089
3	0xbd226acb	-0.039652627
4	0xbd998f67	-0.07498055
5	0xbd8993a1	-0.06717611
6	0xbdb70d25	-0.08938054
7	0xbd9273d3	-0.07150998
8	0xbd2c22c4	-0.042025343
9	0xbe196225	-0.14978845
10	0xbe30d487	-0.17268573
11	0x3db00b73	0.08595934
12	0x3deca2fe	0.11554526
13	0x3d843970	0.06456268
14	0x3ce9b7e7	0.028530074
15	0xbdcbf1de	-0.09958242
16	0xbc058f1f	-0.0081517985
17	0x3d35d15b	0.04438911
18	0xbdf3aad7	-0.118978195
19	0xbd48e604	-0.049047485
20	0x3e0f1ec0	0.13976574
21	0x3d881e41	0.066463955
22	0xbdb75247	-0.0895124
23	0xbe095e52	-0.13414887
24	0x3dddcd3d	0.10830162
25	0x3e0d8fbf	0.13824366
26	0xbd9a5ac7	-0.07536846
27	0x3da8d012	0.08242811
28	0xbd07280b	-0.032997172
29	0xbc4da885	-0.012552385
30	0xbb5cd210	-0.0033694543
31	0x3e4ac891	0.19803073
32	0x3cd9a67b	0.026568642
33	0xbe26c738	-0.16286933
34	0x3dad5f0d	0.08465395
35	0xbd0a92b8	-0.03383133
36	0x3d7620d7	0.060089912
37	0xbe377c2a	-0.17918459
38	0x3dbf7244	0.09347966
39	0x3e30d58a	0.17268959
40	0x3da38a46	0.07985358
41	0xbdd55a65	-0.10417632
42	0x3d39eec1	0.04539371
43	0xbc0b0b0d	-0.008486521
44	0x3cc8c879	0.024509655
45	0x3d9442ed	0.072393276
46	0xbd497048	-0.049179345
47	0xbdf1b4d0	-0.11802065
48	0xbe05dab6	-0.13071713
49	0x3cfbb348	0.030725136
50	0x3d851135	0.064974226
51	0x3e07ba43	0.13254647
52	0xbe05b572	-0.13057497
53	0xbcb96355	-0.022630373
54	0x3d95f80b	0.07322701
55	0x3e392f6f	0.180845
56	0x3e25d728	0.16195357
57	0x3dfaf4f7	0.122537546
58	0xbe28d672	-0.16488054
59	0x3d0a920a	0.03383068
60	0xbb8c6d4b	-0.0042854897
61	0xbe554e06	-0.20830545
62	0xbd94e5ec	-0.072704166
63	0xbe1dd935	-0.15414889
64	0x3d0605c9	0.03272036
65	0xbce1b7c5	-0.027553448
66	0x3d012811	0.03153235
67	0xbcd4e6f6	-0.025989037
68	0x3d3a686f	0.045509752
69	0x3e1a9c8c	0.1509878
70	0x3dabed30	0.08394849
71	0xbda594b5	-0.08085004
72	0x3c33f56b	0.010983805
73	0xbd2a9323	-0.041644227
74	0x3d4a2716	0.04935368
75	0xbe60370f	-0.21896003
76	0x3e0c1906	0.1368142
77	0xbe39ad11	-0.18132426
78	0xbd14a4f4	-0.036290124
79	0x3e190da6	0.14946613
80	0xbe038976	-0.12845406
81	0xbe2d2606	-0.16909036
82	0xbcb4312f	-0.021996109
83	0x3dbd1b7e	0.09233759
84	0xbe1f6d24	-0.15568978
85	0x3db24a3d	0.08705566
86	0xbdb184bf	-0.086678974
87	0xbcc99e48	-0.024611607
88	0x3de78872	0.11305322
89	0xbd3bd5aa	-0.045858063
90	0xbbc6e1d3	-0.006069401
91	0xbe42a815	-0.1900943
92	0x3e4f4267	0.20240174
93	0x3dc63ac5	0.09679178
94	0xbde27e42	-0.11059238
95	0xbd790099	-0.060791586
96	0xbb520d06	-0.003205122
97	0x3d84c5b7	0.064830236
98	0x3d8036e4	0.062604696
99	0xbbb2188a	-0.005435054
100	0xbd0dddde	-0.034635417
101	0xbda685f0	-0.08131015
102	0xbe3f675c	-0.18691772
103	0xbe436bad	-0.19084044
104	0x3cfa156c	0.030527793
105	0xbe58c40c	-0.21168536
106	0xbe0cd5cd	-0.13753434
107	0x3d99f84c	0.07518062
108	0xbcfffe53	-0.0312492
109	0x3d9e775f	0.07737612
110	0xbdef2616	-0.11677186
111	0xbdba2f2b	-0.09091028
112	0x3dabf800	0.083969116
113	0x3df7be9a	0.12096901
114	0x3e34e0f0	0.17663932
115	0xbe0cf324	-0.13764626
116	0xbe1be280	-0.15223122
117	0xbc4f98c2	-0.012670698
118	0x3c55fbf3	0.013060558
119	0x3deb97c0	0.115035534
120	0x3ddf9cdd	0.10918591
121	0xbda4ff5d	-0.08056519
122	0xbe0da227	-0.13831387
123	0x3d8885b1	0.066661246
124	0x3daea23b	0.08527037
125	0x3d38d9ec	0.0451297
126	0x3ccd1630	0.025034994
127	0x3de876fb	0.11350819

weight f4 [32]
0	0x3f72b469	0.94806534
1	0x3f6888cc	0.90833735
2	0x3f779349	0.96709114
3	0x3f8bd709	1.0924999
4	0x3f6b243e	0.91852176
5	0x3f76fae3	0.9647657
6	0x3f61cfa5	0.88207465
7	0x3f791a5a	0.97305834
8	0x3f700108	0.93751574
9	0x3f5f5746	0.87242544
10	0x3f6c1c78	0.9223094
11	0x3f846a7f	1.0345
12	0x3f7e8cd2	0.99433625
13	0x3f73186e	0.9495915
14	0x3f699238	0.9123874
15	0x3f6fc15b	0.9365441
16	0x3f675925	0.903704
17	0x3f7445f8	0.95419264
18	0x3f7c7094	0.9860928
19	0x3f6b31bc	0.91872764
20	0x3f7ef3a3	0.9959051
21	0x3f761a39	0.9613376
22	0x3f761a77	0.9613413
23	0x3f776b1c	0.9664781
24	0x3f782416	0.9693006
25	0x3f7533fb	0.9578244
26	0x3f7c4553	0.9854328
27	0x3f80d42e	1.0064752
28	0x3f83ad9a	1.0287354
29	0x3f738ec9	0.9513975
30	0x3f70a923	0.9400808
31	0x3f7fa0e0	0.9985485

bias f4 [32]
0	0x3c439c1b	0.011939074
1	0xbe0a5a46	-0.13510999
2	0xbd080be0	-0.03321445
3	0x3eb64253	0.35597476
4	0xbd8ea073	-0.06964197
5	0x3cfa364e	0.030543473
6	0xbc826a4b	-0.015919825
7	0x3cba3af1	0.022733184
8	0xbd173b92	-0.036922045
9	0x3d26b9a5	0.04070439
10	0x3d926da6	0.0714982
11	0xbe16d21f	-0.14728592
12	0x3d7fe896	0.06247767
13	0xbc7195de	-0.014745204
14	0x3a2a4daf	0.0006496561
15	0xbe04c65f	-0.12966298
16	0x3c982cfe	0.018576141
17	0xbdb08828	-0.0861972
18	0x3d34e264	0.044161215
19	0xbd3f2182	-0.046662815
20	0x3d037ee6	0.03210344
21	0xbca603e2	-0.020265523
22	0x3d425a3d	0.04744934
23	0xbcc8760d	-0.024470353
24	0xbd1176a6	-0.035513543
25	0x3cb51dbb	0.022108903
26	0x3d56a6a9	0.052405033
27	0x3cb995a8	0.02265437
28	0xb86c1301	-5.6284483e-05
29	0x3e44c19a	0.19214478
30	0xbce3bd14	-0.02780012
31	0x3d260399	0.040530775

running_mean f4 [32]
0	0x3f9f32e4	1.2437406
1	0x3fa3838a	1.2774518
2	0x4093ec76	4.622615
3	0x3e0ab1a0	0.13544321
4	0x3fcb8576	1.5900104
5	0xbf6bf6fa	-0.9217373
6	0x3ee6fcc6	0.45114726
7	0x3f858a34	1.0432801
8	0x3e9effe3	0.310546
9	0xbf9abeb6	-1.208945
10	0xc00d68fd	-2.209533
11	0xc06dfb92	-3.7184796
12	0xc087e6b6	-4.246913
13	0x3f629b69	0.8851839
14	0x3e046fb4	0.12933236
15	0x40a40440	5.125519
16	0x3c9566cf	0.0182375
17	0x407b2964	3.9244013
18	0x40082ddd	2.1277993
19	0xbf4bf1ce	-0.7966584
20	0xbf64b15c	-0.8933313
21	0x405738e8	3.3628483
22	0xbd61df5b	-0.05514465
23	0xc05438d7	-3.3159692
24	0x40083040	2.127945
25	0xc05f4ba1	-3.488991
26	0x3fb85113	1.4399742
27	0x40528ce2	3.2898488
28	0xc0930aa3	-4.5950484
29	0xbf62d31a	-0.88603365
30	0x3f26c1c6	0.65139425
31	0x3f5a7ea8	0.8534951

running_var f4 [32]
0	0x4181a4a8	16.205399
1	0x40429f9a	3.0409913
2	0x4152871d	13.157987
3	0x38e4784a	0.00010894293
4	0x41b9a07a	23.203358
5	0x3ff9a536	1.9503543
6	0x4049fcc1	3.1560519
7	0x4148bae1	12.545625
8	0x41a49b4a	20.575825
9	0x40d4407a	6.6328707
10	0x41d5e580	26.73706
11	0x411517f4	9.318348
12	0x411c2a0e	9.760267
13	0x41884b2d	17.036707
14	0x412abe9c	10.6715355
15	0x4193d194	18.477333
16	0x4141a23b	12.102107
17	0x41ca73db	25.30657
18	0x40316010	2.7714882
19	0x4066512a	3.5987039
20	0x4235502a	45.328285
21	0x41374f06	11.456793
22	0x40df911b	6.986463
23	0x414fff06	12.999762
24	0x404f61a5	3.2403347
25	0x416a95a2	14.661531
26	0x421d12e4	39.268448
27	0x41795877	15.584098
28	0x414ac36d	12.672711
29	0x40b977b5	5.7958627
30	0x4232beb3	44.68623
31	0x41bfb5b5	23.963724

weight f4 [32, 136]
0	0x3d8c15b3	0.06840076
1	0xbdce54c7	-0.10074764
2	0x3dc9077d	0.098158814
3	0xbc28aded	-0.010295373
4	0xbd299d08	-0.041409522
5	0x3d27846c	0.04089777
6	0x3d6a8d4f	0.05726367
7	0x3d8f2afa	0.06990619
8	0xbd8ef38c	-0.06980047
9	0xbde43088	-0.11142069
10	0x3ca52d54	0.020163216
11	0xbce43b1f	-0.027860222
12	0xbd1629aa	-0.036660828
13	0x3d1c7fbb	0.03820775
14	0xbc004cb3	-0.0078307865
15	0x3c2bc11c	0.010483053
16	0xbc92b228	-0.017907217
17	0xbdb2772b	-0.08714136
18	0xbd4555c0	-0.04817748
19	0xbc527563	-0.01284537
20	0xbd0ea269	-0.034822855
21	0x3d1c9a6e	0.038233213
22	0x3d05b03c	0.032638773
23	0xbc0d4c15	-0.008624096
24	0xbd67fd7e	-0.056638233
25	0x3d4cb507	0.04997733
26	0x3caf3fb6	0.021392684
27	0x3d31896d	0.04334395
28	0x3d43daf5	0.047816236
29	0xbd3a0ac9	-0.04542044
30	0xbd05a2e7	-0.03262606
31	0x3d24f4a1	0.04027236
32	0xbc09df38	-0.008415036
33	0x3d124ffa	0.035720803
34	0xbd460c7d	-0.048351754
35	0xbd4f6c43	-0.050640356
36	0xbd7b4a22	-0.061349995
37	0x3b47f854	0.0030513005
38	0x3ccc23a4	0.024919339
39	0xbc57fff6	-0.013183584
40	0x3da6f590	0.08152306
41	0xbd379f94	-0.04482992
42	0x3e0e8136	0.13916478
43	0x3c8eb5ef	0.017420737
44	0x3d3b5a1e	0.04574024
45	0xbdbba1bd	-0.091617085
46	0xbd6bb729	-0.057547722
47	0xbdd5cf15	-0.104398884
48	0x3ca42f5d	0.020042116
49	0xbde50d0d	-0.1118413
50	0x3d481bec	0.048854753
51	0xbbbe2c92	-0.005803653
52	0xbddc2670	-0.10749519
53	0xbd47ca35	-0.048776824
54	0x3a4eae40	0.00078842416
55	0x3da3c545	0.079966106
56	0x3e0116f4	0.12606412
57	0xbbde333f	-0.0067810114
58	0xbc491454	-0.012272913
59	0x3da4694b	0.080278955
60	0xbba37981	-0.0049888496
61	0x3c77aefb	0.015117402
62	0xbd40102c	-0.046890423
63	0xbd652acc	-0.055949017
64	0x3d950bff	0.07277679
65	0xbd018304	-0.031619087
66	0x3c6c9b1b	0.014441277
67	0x3da92c41	0.08260394
68	0x3c02b1e2	0.007976981
69	0xbdad9a66	-0.08476715
70	0xbc780e0e	-0.01514007
71	0x3d93465e	0.07191156
72	0x3d33a0a7	0.043854382
73	0xbbf77c03	-0.007552625
74	0xbd51a096	-0.051178537
75	0xbd80b8c3	-0.062852405
76	0xbaf8d59a	-0.0018984557
77	0x3ca49e23	0.020094937
78	0x3d34a3fc	0.0441017
79	0x3d25f137	0.040513244
80	0x3c9f0d57	0.01941554
81	0x3d9e7a6b	0.07738193
82	0xbd540418	-0.051761717
83	0x3d3ca8e2	0.046059497
84	0xbd285ac6	-0.041102193
85	0x3d4ecb04	0.05048658
86	0xbd1147ba	-0.035468794
87	0x3ddac97b	0.106829606
88	0x3dc41b64	0.09575537
89	0xbd926508	-0.071481764
90	0x3ce103da	0.027467657
91	0xbe01f46f	-0.126909
92	0x3c59091f	0.013246804
93	0x3d4e2f90	0.050338328
94	0x3db8ff4d	0.0903307
95	0x3db135c5	0.08652834
96	0xbd7a7a11	-0.061151568
97	0xbc97e5d7	-0.018542213
98	0x3cf79495	0.030222217
99	0x3d0aec9f	0.033917066
100	0x3d30a708	0.043128043
101	0x3e02fdfa	0.12792197
102	0x3df33724	0.118757516
103	0x3da886da	0.08228846
104	0xbd3b9fb4	-0.0458066
105	0xbe094e02	-0.13408664
106	0xbd417d00	-0.04723835
107	0xbcae12ec	-0.021249257
108	0x3e25f0de	0.16205165
109	0xbdd84611	-0.10560239
110	0x3ddfdabc	0.10930392
111	0xbb2f383b	-0.0026736397
112	0xbc02844c	-0.007966112
113	0xbb9b519e	-0.004739954
114	0x3c2d2152	0.010567026
115	0xbd850305	-0.064947166
116	0xbd2a8a8e	-0.041636042
117	0xbcecddde	-0.028914388
118	0x3dc2f636	0.09519617
119	0xbd7765de	-0.060399882
120	0x3cf2119c	0.029549412
121	0xbc595a01	-0.0132660875
122	0xbc6cb18d	-0.014446628
123	0xbcb22026	-0.021743845
124	0x3ca71cbb	0.020399442
125	0x3da1c56b	0.078989826
126	0x3de4728d	0.11154661
127	0xbd8a9236	-0.06766169
128	0xbd8ac62e	-0.06776081
129	0x3d32c531	0.043645088
130	0xbdb11d99	-0.086482234
131	0x3c88f380	0.016717672
132	0xbd9ea9c0	-0.07747221
133	0x3dd5aad9	0.10432977
134	0x3c9500ef	0.018188922
135	0xbb6f5916	-0.0036521605
136	0xbb441da3	-0.0029924891
137	0xbdc200f3	-0.09472837
138	0xbc3cff08	-0.011535414
139	0x3d8f5948	0.06999451
140	0xbd3dbe85	-0.04632427
141	0xbc651c6d	-0.013983828
142	0xbccf201b	-0.025283864
143	0x3d80617e	0.06268595
144	0xbd6e7ff2	-0.058227487
145	0xbd9f9b63	-0.077933095
146	0xbd06d613	-0.032919
147	0x3cab2143	0.020889884
148	0x3dada5f2	0.08478917
149	0xbd3c1fbf	-0.045928713
150	0xbc332eca	-0.010936448
151	0xbd869905	-0.06572155
152	0xbd3e853f	-0.046513792
153	0x3c9d94bd	0.019235963
154	0xbd919841	-0.07109118
155	0x3ccf1a9e	0.025281247
156	0x3d4449c4	0.04792191
157	0x3c31395f	0.010816901
158	0xbcb7059d	-0.022341544
159	0x3dd4b392	0.10385813
160	0xbdab3b95	-0.08360974
161	0xbd634b57	-0.05549177
162	0xbd8ca426	-0.06867246
163	0x3d42eb3d	0.047587622
164	0xbd022295	-0.03177126
165	0xbcb7b04d	-0.022422934
166	0x3e07b107	0.13251124
167	0x3cbca801	0.02302933
168	0xbd189572	-0.037251897
169	0x3de8dfa7	0.11370783
170	0xbd9b3331	-0.07578123
171	0x3c50adca	0.012736747
172	0xbd5c9938	-0.05385706
173	0xbd2a8f4b	-0.04164056
174	0x3cecf4cf	0.028925328
175	0xbdd9d1c4	-0.10635713
176	0x3dd471d9	0.10373277
177	0x3d388f72	0.045058675
178	0x3c70c7ea	0.014696101
179	0x3d8fd589	0.070231505
180	0x3d41664d	0.047216702
181	0x3d9a6246	0.075382754
182	0xbd9fcb83	-0.07802489
183	0xbd83adb8	-0.064296186
184	0xbd25f4ca	-0.040516652
185	0x3ce1de32	0.027571771
186	0x3d6734be	0.056446783
187	0xbd11c9bd	-0.035592783
188	0xbd1f04e3	-0.03882302
189	0xbc15081f	-0.0090961745
190	0xbd93b24c	-0.07211742
191	0x3d2678e5	0.040642638
192	0xbc5ec1ca	-0.013596008
193	0x3d11a7d4	0.035560444
194	0x3d912c20	0.07088494
195	0x3bddbf91	0.0067672213
196	0xbd6b6046	-0.05746486
197	0xbd8e4dc3	-0.069484256
198	0x3d294988	0.04132989
199	0x3da87c56	0.0822684
200	0x3d72a201	0.05923653
201	0x3cdacdcb	0.026709458
202	0x3d12a33c	0.035800204
203	0xbc380381	-0.011231304
204	0x3deec548	0.11658722
205	0xbd5d7c5a	-0.05407367
206	0xbd093fbd	-0.03350805
207	0x3d025813	0.031822275
208	0xbbab0c89	-0.00522
209	0xbd4f045b	-0.050541263
210	0x3d9c24c2	0.076241985
211	0xbd310c63	-0.043224704
212	0x3de43aff	0.11144065
213	0x3e039b81	0.12852289
214	0xbd6c6dd0	-0.057721913
215	0xbd9394ae	-0.07206093
216	0xbcb9c158	-0.022675201
217	0x3bc5c42d	0.006035349
218	0x3d1f537f	0.038897987
219	0x3c6d32a5	0.014477407
220	0x3db791b3	0.08963337
221	0xbd47096c	-0.04859297
222	0xbdd6cd79	-0.104884095
223	0x3c991104	0.018684871
224	0x3b5c8b80	0.0033652484
225	0xbd7080b9	-0.05871651
226	0xbe28078c	-0.16409129
227	0xbd163215	-0.036668856
228	0x3c1e43dc	0.009659734
229	0xbde5d89a	-0.11222954
230	0x3d1b3bbb	0.03789876
231	0xbcca6ca8	-0.024710014
232	0xbd97f3d2	-0.07419552
233	0xbc9ee6d7	-0.019397182
234	0x3ba179b7	0.0049278396
235	0xbca97f7d	-0.020690674
236	0xbc955b04	-0.018231876
237	0x3d87f99e	0.066394076
238	0xbd884c35	-0.0665516
239	0xbdae9f39	-0.08526463
240	0xbda22c38	-0.0791859
241	0x3d8a6c6d	0.06758962
242	0x3d5b1404	0.053485885
243	0x3cef80fb	0.029236307
244	0x3d12e5bb	0.03586362
245	0x3c785a48	0.0151582435
246	0xbc1ba5dc	-0.009499993
247	0x3da2f15f	0.07956194
248	0xbbeb7884	-0.0071859974
249	0x3b0c2452	0.0021383953
250	0xbd1e5fed	-0.0386657
251	0xbd8ce955	-0.06880442
252	0xbb589708	-0.0033049006
253	0xbd8e3ac2	-0.06944801
254	0xbd1f9a73	-0.038965654
255	0x3cf0326a	0.029320914

bias f4 [32]
0	0x3d67cea7	0.056593563
1	0x3c85e8f6	0.016346436
2	0xbca3751b	-0.019953301
3	0xbdb272d7	-0.0871331
4	0xbd72aa56	-0.059244476
5	0xbcd484ef	-0.025942294
6	0xbd5b6c81	-0.053570274
7	0x3c42b0b5	0.011882951
8	0xbc696b1d	-0.014246729
9	0x3d2e4ae4	0.04255189
10	0x3d695eb0	0.056975067
11	0xbd27aa3e	-0.04093384
12	0x3d720a00	0.059091568
13	0x3c701e85	0.014655714
14	0x3d71bcab	0.05901782
15	0x3d89e578	0.06733221
16	0x3c83841b	0.016054204
17	0x3d2d0c05	0.04224779
18	0x3da1901c	0.07888815
19	0xbdacce18	-0.08437747
20	0x3d0f892b	0.035042923
21	0xbcd7d70e	-0.026347663
22	0xbd5e8d41	-0.05433393
23	0xbd924e7d	-0.07143877
24	0xbb8f155f	-0.0043665613
25	0x3d2291ba	0.039689757
26	0x3dac3900	0.084093094
27	0xbcae60c0	-0.021286368
28	0xbbb8c1f0	-0.0056383535
29	0x3d0ba8fc	0.034096703
30	0x3dc0c5f8	0.094127595
31	0xbd4aedc8	-0.049543172

weight f4 [8, 32]
0	0xbe06f1c5	-0.13178165
1	0x3e3ff02c	0.18743962
2	0xbd4fd62d	-0.050741363
3	0xbdffa2fe	-0.1248226
4	0xbcda274e	-0.02663007
5	0x3d9dd7d3	0.07707181
6	0x3dab89f9	0.083759256
7	0xbdeabad3	-0.11461415
8	0x3e4f4935	0.2024277
9	0xbe17e93d	-0.14835067
10	0xbd5ee58a	-0.054418124
11	0x3e2d9fba	0.16955462
12	0xbc9b0e82	-0.018927816
13	0xbce1e9ac	-0.027577244
14	0xbcf94149	-0.030426638
15	0xbdf6d86b	-0.12052997
16	0xbe5357a8	-0.20638907
17	0x3e010186	0.12598237
18	0x3d789e10	0.060697615
19	0xbdca5672	-0.098797694
20	0xbce54236	-0.027985673
21	0xbd9b1439	-0.075722165
22	0x3ce3f017	0.027824445
23	0xbe284bbb	-0.16435139
24	0x3dfe1442	0.124062076
25	0x3e2274fd	0.1586494
26	0xbd77cd26	-0.06049838
27	0x3e0597f9	0.13046254
28	0x3e1c1fe8	0.15246546
29	0xbe46ac26	-0.19401607
30	0x3dfc914c	0.12332401
31	0xbd884179	-0.06653113
32	0x3e477aeb	0.19480483
33	0x3dcfa46e	0.10138784
34	0x3d05ddf3	0.03268237
35	0xbe02e527	-0.12782727
36	0x3c0e28fb	0.008676763
37	0xbd38d074	-0.04512067
38	0x3c72efb8	0.014827661
39	0x3de1deba	0.1102881
40	0xbe0ce18b	-0.13757913
41	0x3cad08fc	0.021122448
42	0xbba86c58	-0.0051398687
43	0xbe0d3977	-0.13791452
44	0x3e17c515	0.14821275
45	0x3dcf8b17	0.10133951
46	0x3dbd77f1	0.09251393
47	0x3dd7610c	0.10516557
48	0x3dcb4964	0.099261075
49	0xbe0173f3	-0.12641887
50	0x3daa75e9	0.08323271
51	0x3e5bb384	0.21455199
52	0xbd1c58ba	-0.038170554
53	0xbdd5e64b	-0.104443155
54	0xbe250b63	-0.16117625
55	0xb9c6b830	-0.00037902733
56	0x3d7c1231	0.061540786
57	0x3da31e94	0.07964817
58	0x3c8aa357	0.01692359
59	0xbc6a2189	-0.014290222
60	0x3dd0ff52	0.102049485
61	0xbc94d131	-0.018166156
62	0xbe1e1917	-0.15439259
63	0x3da8d9f9	0.082447
64	0x3e02859a	0.12746277
65	0x3db810af	0.08987557
66	0xbe526359	-0.2054571
67	0x3e19b523	0.15010504
68	0xbc1a3565	-0.009412144
69	0xbe044705	-0.12917717
70	0xbd20beab	-0.039244335
71	0x3e1dbae8	0.1540333
72	0x3d7a035b	0.061038356
73	0xbe1ca17c	-0.15295976
74	0xbdd14a0c	-0.102192014
75	0x3d80e3f1	0.062934764
76	0xbdb03859	-0.086044975
77	0x3e200389	0.15626349
78	0x3d097b7c	0.03356503
79	0xbd96bbc1	-0.0736003
80	0x3e0f1dea	0.13976255
81	0xbcbfea88	-0.023427263
82	0xbcbe164e	-0.023203995
83	0x3e11ff27	0.14257489
84	0x3ddd94d6	0.10819404
85	0x3d850261	0.06494594
86	0x3dfb0e87	0.1225863
87	0xbd032563	-0.032018077
88	0x3ca6960c	0.02033522
89	0x3dc77b3a	0.097403005
90	0xbdb304dd	-0.08741162
91	0xbdd28666	-0.10279541
92	0xbc978021	-0.018493714
93	0xbe2b2704	-0.16714102
94	0x3d1beba6	0.03806653
95	0x3db8213a	0.089907125
96	0x3e3d3723	0.18478064
97	0x3d9a872d	0.07545314
98	0xbe136981	-0.14395715
99	0x3e0551f8	0.1301955
100	0xbd5c5be4	-0.05379857
101	0xbe000092	-0.12500218
102	0x3d14d88c	0.036339328
103	0x3e554463	0.20826869
104	0x3e133316	0.14374956
105	0xbc324821	-0.010881455
106	0x3db69620	0.08915353
107	0xbda565e7	-0.08076077
108	0xbda71fa4	-0.08160332
109	0xbd833be0	-0.064079046
110	0xbe350e3e	-0.17681214
111	0x3d993c43	0.07482197
112	0xbde52a6e	-0.111897334
113	0x3e59a379	0.21253766
114	0x3d5146c2	0.05109287
115	0xbe2151ed	-0.15753908
116	0xbda6b218	-0.081394374
117	0x3e0cd241	0.1375208
118	0x3d1cb2cf	0.038256463
119	0x3ba7a313	0.0051158755
120	0xbdb386c5	-0.087659396
121	0xbd7db2e8	-0.061938196
122	0x3d34fa3e	0.044183962
123	0x3d524a98	0.05134067
124	0x3c897bd7	0.016782684
125	0xbd4fbb23	-0.050715577
126	0xbd82158b	-0.06351765
127	0x3d8e3379	0.069434114
128	0x3e4bb740	0.19894123
129	0xbd96f431	-0.073707946
130	0x3dc55318	0.096349895
131	0x3dbcabfb	0.0921249
132	0x3e49e2c0	0.19715405
133	0x3e6888cd	0.22708435
134	0x3d3967ad	0.04526489
135	0x3e38d8b8	0.18051422
136	0xbddc2b44	-0.1075044
137	0xbe12f4a5	-0.14351137
138	0xbd814581	-0.06312085
139	0xbb1a7742	-0.0023569618
140	0x3af4521e	0.0018640195
141	0xbd0e8d92	-0.03480298
142	0x3e1baa44	0.1520167
143	0xbdca3941	-0.098742016
144	0x3d2a309e	0.04155027
145	0x3e439a34	0.19101793
146	0xbda317f3	-0.07963552
147	0xbd3a3247	-0.045458104
148	0x3ce68ed5	0.02814428
149	0x3d5dac03	0.05411912
150	0xbe4a2632	-0.19741133
151	0xbe22b7f6	-0.15890488
152	0xbe031fd2	-0.12805107
153	0x3d83269e	0.0640385
154	0xbbd4234c	-0.0064739343
155	0xbe2ec0af	-0.1706569
156	0x3d534885	0.051582832
157	0xbdc72aa4	-0.0972493
158	0xbd34c712	-0.04413516
159	0x3e17ce25	0.14824732
160	0xbe48846c	-0.19581765
161	0xbbf77ce2	-0.007552729
162	0xbe0a350f	-0.13496803
163	0xbd0b1441	-0.033954863
164	0x3e111598	0.14168394
165	0xbe3fba45	-0.187234
166	0x3dbf879f	0.093520395
167	0xbb5e41a6	-0.0033913641
168	0xbdf38033	-0.118896864
169	0x3e18408a	0.1486837
170	0x3e47480f	0.19461082
171	0xbd3df529	-0.04637638
172	0xbe49a64a	-0.1969234
173	0x3e0f30fd	0.13983531
174	0x3bfeb089	0.0077725095
175	0x3deeeea0	0.11666608
176	0x3e2b9728	0.1675688
177	0xbe0ab35d	-0.13544984
178	0x3cb6daec	0.022321187
179	0xbd48efbb	-0.04905675
180	0x3dc5ead5	0.09663931
181	0xbd6f62f3	-0.058443975
182	0xbd9129c9	-0.07088048
183	0x3e252fd3	0.16131525
184	0xbe5fa1aa	-0.21839014
185	0x3dc6bf40	0.09704447
186	0xbe6594b8	-0.22420013
187	0xbe4c42d5	-0.1994737
188	0x3de828e6	0.11335926
189	0x3de1c43c	0.11023757
190	0xbd20e101	-0.03927708
191	0xbe45f639	-0.19332208
192	0xbe0fefa4	-0.1405626
193	0x3e6995a9	0.22810997
194	0x3d501e5a	0.050810196
195	0xbde45d36	-0.11150591
196	0xbdb56ad5	-0.08858267
197	0xbe159365	-0.14607008
198	0x3dbf4d18	0.09340876
199	0xbe41ca1e	-0.18924758
200	0xbe19a0b0	-0.15002704
201	0xbdc46e43	-0.09591343
202	0xbe5b5ea7	-0.21422826
203	0xbe0b7807	-0.13620006
204	0x3d8bd730	0.06828153
205	0xbe009a0f	-0.12558769
206	0xbd8c5125	-0.068514146
207	0xbdaeac00	-0.085289
208	0x3dda111e	0.10647796
209	0x3d70ca5d	0.05878674
210	0x3da6d01e	0.08145164
211	0x3daabbc1	0.083365925
212	0x3da33ee7	0.07970982
213	0xbe30ba6b	-0.17258613
214	0x3e4fddab	0.20299403
215	0x3e211216	0.15729555
216	0x3cdaebe5	0.026723811
217	0xbdba1ae5	-0.09087161
218	0xbc1a0fbb	-0.0094031645
219	0xbe29a9e3	-0.16568713
220	0x3e53c9ba	0.20682421
221	0x3c811e63	0.01576156
222	0x3e02c72a	0.12771288
223	0x3d2b0f94	0.041762903
224	0xbd082222	-0.033235677
225	0xbe14b822	-0.14523366
226	0xbe100888	-0.14065754
227	0x3e0dc294	0.13843757
228	0xbcc8745d	-0.024469549
229	0xbdbe9f00	-0.093076706
230	0xbe490008	-0.19628918
231	0x3c2c2933	0.0105078695
232	0xbdc68936	-0.0969414
233	0x3e1bba22	0.15207723
234	0x3e301bec	0.17198151
235	0xbdb3276e	-0.08747755
236	0xbd8caf16	-0.068693325
237	0x3d4c2c7a	0.049847104
238	0x3dbd333c	0.09238288
239	0xbc108371	-0.008820401
240	0x3e4e8dc5	0.20171268
241	0x3e298b6d	0.16557093
242	0x3dc37201	0.09543229
243	0xbcd2935d	-0.025705034
244	0xbdd202e9	-0.10254461
245	0x3cfe6b6f	0.031057088
246	0x3c7bf12e	0.015377326
247	0x3d20e5b0	0.039281547
248	0xbdd810b8	-0.10550064
249	0xbe101229	-0.14069428
250	0x3bc0546d	0.0058694393
251	0x3e03d14a	0.12872806
252	0xbd8022a0	-0.06256604
253	0x3ba4c638	0.0050285123
254	0x3d30120e	0.04298597
255	0xbe07f964	-0.13278729

bias f4 [8]
0	0x3dc813e4	0.09769419
1	0xbd1a74be	-0.03770899
2	0x3e4ae66a	0.19814458
3	0x3d45b98d	0.04827266
4	0xbe085acc	-0.13315886
5	0x3b70faec	0.0036770655
6	0xbdc9c2f2	-0.09851636
7	0x3e25c641	0.16188909

weight f4 [32]
0	0x3f8662dc	1.049892
1	0x3f85acfb	1.0443414
2	0x3f8096d9	1.0046035
3	0x3f7a01ee	0.97659194
4	0x3f7eee20	0.995821
5	0x3f853621	1.0407144
6	0x3f842878	1.032485
7	0x3f89ac5d	1.0755726
8	0x3f7c9ecd	0.9867981
9	0x3f849613	1.0358299
10	0x3f88bc23	1.0682415
11	0x3f769a2d	0.96329004
12	0x3f78bcdf	0.97163194
13	0x3f78d0dc	0.97193694
14	0x3f7c550d	0.9856728
15	0x3f7efd4d	0.99605256
16	0x3f87a499	1.0597106
17	0x3f84fe5b	1.0390123
18	0x3f7c9810	0.9866953
19	0x3f82e033	1.022467
20	0x3f700a48	0.9376569
21	0x3f7a31c2	0.97732174
22	0x3f8310e4	1.023953
23	0x3f721d23	0.9457571
24	0x3f7a9a0c	0.97891307
25	0x3f7d0fb7	0.98852104
26	0x3f83ad40	1.0287247
27	0x3f7d634a	0.9897963
28	0x3f812b60	1.0091362
29	0x3f7bf693	0.9842312
30	0x3f8190f3	1.012236
31	0x3f76609a	0.9624115

bias f4 [32]
0	0x3cacc447	0.021089686
1	0x3d2ca4bc	0.04214929
2	0x3becd1ac	0.0072271433
3	0x37014e34	7.707207e-06
4	0xbe01df7d	-0.1268291
5	0xbd042286	-0.032259487
6	0xbc3b6708	-0.011438139
7	0xbc4e33e2	-0.012585612
8	0xbd11d074	-0.035599187
9	0x3bbe1b7b	0.005801616
10	0x3c1a0917	0.009401581
11	0xbcdc89d0	-0.026921183
12	0x3e0aa052	0.1353772
13	0x3d609d25	0.054837365
14	0xbd60c2bc	-0.054873213
15	0xbc5cc658	-0.013475023
16	0xbd773301	-0.060351375
17	0xbcf6a3b9	-0.030107366
18	0xbd64ebb9	-0.055888865
19	0x3cb2d8d4	0.021831907
20	0xbd36ff05	-0.0446768
21	0xbd5f06db	-0.054449897
22	0xbc99420a	-0.018708248
23	0xbd2ff686	-0.042959712
24	0x3d88a1b2	0.06671466
25	0xbca0c118	-0.019623324
26	0x3c915383	0.017740017
27	0xbcecfb9c	-0.02892857
28	0xbd851fd6	-0.06500213
29	0xbcfea6d3	-0.031085407
30	0x3d877853	0.06614747
31	0xbccde654	-0.025134243

running_mean f4 [32]
0	0xbfb53db7	-1.4159459
1	0xbeb796da	-0.35857278
2	0xbf871b8d	-1.0555283
3	0xbf201779	-0.62535816
4	0x3e3cdc2b	0.18443362
5	0x3f05287f	0.5201492
6	0xbf5f80a2	-0.87305653
7	0x3cf47b26	0.029843878
8	0x3f8c41a4	1.0957532
9	0xbfb2ad3b	-1.3959116
10	0x3f099f20	0.5375843
11	0xbf4f2961	-0.80922514
12	0xbfd95260	-1.6978264
13	0xbe3beabf	-0.18351267
14	0x3ed04476	0.40677232
15	0xbf461c08	-0.7738652
16	0xbecd13f6	-0.4005429
17	0x3e87eb79	0.2654684
18	0x3f9de11b	1.2334322
19	0xbea9d7fc	-0.33172596
20	0xbfc2e94c	-1.5227447
21	0xbf3bd87a	-0.7337719
22	0x3e7e8227	0.24854337
23	0xbd3fba45	-0.0468085
24	0xbf326d5b	-0.69698113
25	0x3f8d24f0	1.1026897
26	0xbf818dea	-1.0121434
27	0xbf7d9676	-0.9905771
28	0xbf422807	-0.75842327
29	0x3e10267a	0.14077178
30	0xbf80feca	-1.0077755
31	0xbf7d5371	-0.98955446

running_var f4 [32]
0	0x3e811e3a	0.25218374
1	0x3ef7c0d3	0.483893
2	0x3eee100b	0.46496615
3	0x3ef8c53c	0.48587978
4	0x3e046116	0.1292766
5	0x3e962d63	0.29331502
6	0x3e80b262	0.25136095
7	0x3e7349e7	0.2375866
8	0x3ea40542	0.3203526
9	0x3f039115	0.5139325
10	0x3f243c9a	0.6415497
11	0x3ef2f5ec	0.47453249
12	0x3f4f2e60	0.8093014
13	0x3ebb9275	0.36635175
14	0x3e17258b	0.14760415
15	0x3f69d88a	0.9134604
16	0x3ec85394	0.39126265
17	0x3ed4c693	0.4155775
18	0x3ef8842f	0.48538348
19	0x3e2f4718	0.17116964
20	0x3eede50c	0.4646381
21	0x3eeb9819	0.4601448
22	0x3eb2c707	0.3491747
23	0x3f2abd11	0.6669474
24	0x3f71b428	0.9441552
25	0x3ec49bca	0.38400108
26	0x3f084499	0.5322967
27	0x3ef4c90e	0.47809643
28	0x3e1e3da6	0.15453205
29	0x3f1094ef	0.56477255
30	0x3f15ef8d	0.5856865
31	0x3e9f1860	0.31073284
