code/model_sol_backups/model_sol_52.pt (torch, 635426 bytes, 158 tensors)

weight f4 [32, 2]
-0.17574722 -0.2529621 -0.37068397 0.64468485 0.6974944 -0.26808304 0.0968883 0.424152
0.61621463 0.6119488 0.25648156 -0.37589613 -0.59111655 0.1781941 0.56433 -0.038296632
0.66983145 -0.69264907 -0.549348 0.25381568 0.43941393 -0.22077136 -0.47697216 -0.16430867
0.2030749 0.06569284 0.052058563 -0.65165675 0.67529094 0.005554157 0.29429686 -0.5880886
-0.34087032 -0.46328488 0.033495728 0.5668434 0.294111 -0.53595096 -0.35056674 0.14157636
0.70124936 0.22592562 -0.6576201 -0.63238466 -0.30424035 0.17415673 -0.0494752 -0.3134343
0.45068333 -0.20246641 -0.07682561 0.26388413 -0.51497066 0.5100623 0.49997294 -0.11443524
-0.6133106 -0.506592 -0.28307113 -0.6690367 0.3429846 -0.33362034 0.6466507 -0.14835373
00000000: 14f7 33be 4084 81be 4aca bdbe 110a 253f
00000010: fe8e 323f 2e42 89be 5f6d c63d 732a d93e
00000020: 3ec0 1d3f ada8 1c3f 8d51 833e 7575 c0be
00000030: 6a53 17bf 8478 363e ee77 103f eedc 1cbd
00000040: 137a 2b3f 7351 31bf 12a2 0cbf 21f4 813e
00000050: ddfa e03e e311 62be b235 f4be 8840 28be
00000060: def2 4f3e f889 863d 5c3b 553d fad2 26bf
00000070: dedf 2c3f a5ff b53b 14ae 963e f98c 16bf
00000080: 8e86 aebe ad33 edbe d132 093d a61c 113f
00000090: b895 963e 1534 09bf 7c7d b3be 65f9 103e
000000a0: 1485 333f 0c59 673e ca59 28bf f6e3 21bf
000000b0: 64c5 9bbe 2456 323e 82a6 4abd 767a a0be
000000c0: f7bf e63e 5b53 4fbe bf56 9dbd d21b 873e
000000d0: 1ed5 03bf 7193 023f 74fc ff3e 065d eabd
000000e0: ec01 1dbf 03b0 01bf b3ee 90be fd45 2bbf
000000f0: ad9b af3e 49d0 aabe e68a 253f 0aea 17be

bias f4 [32]
0.15444154 -0.18164305 0.53737307 -0.098737344 0.22005783 0.44874114 -0.60967135 0.2754859
0.17653713 -0.3439327 -0.3276025 -0.1244593 0.21339226 0.026421944 0.23401952 -0.0044127754
-0.15452869 0.411709 -0.11124922 0.6088776 0.37378144 0.55690867 -0.36706403 -0.52050555
-0.08974034 0.70032084 0.12235422 0.036090977 0.6652807 -0.13143374 0.47323817 -0.29347876
00000000: ec25 1e3e a300 3abe 4891 093f ce36 cabd
00000010: d756 613e 66c1 e53e 6c13 1cbf 7d0c 8d3e
00000020: 26c6 343e f217 b0be 84bb a7be 84e4 febd
00000030: 8083 5a3e d572 d83c d0a2 6f3e 0b99 90bb
00000040: c53c 1ebe 86cb d23e a2d6 e3bd 67df 1b3f
00000050: 4860 bf3e 9191 0e3f d1ef bbbe da3f 05bf
00000060: c9c9 b7bd 3a48 333f d994 fa3d 22d4 133d
00000070: d64f 2a3f 9196 06be 464c f23e d942 96be

weight f4 [128, 32]
0.13531744 -0.1383261 -0.021991475 0.018627726 -0.11851391 -0.09909185 0.118283495 0.054876883
0.11630588 -0.07362419 -0.1949696 -0.08093067 -0.10715488 0.028783526 -0.180348 -0.13124372
-0.117960855 0.023423212 -0.094057046 0.08177321 0.16066189 -0.088226676 -0.12598498 0.03794939
-0.16021445 0.021910723 0.12878251 0.11708222 -0.15646547 -0.059300996 -0.03334246 0.055059534
0.1466856 0.07127882 -0.057431024 -0.12344682 0.11342458 -0.09751822 0.11539114 -0.034719273
0.06753566 -0.01216107 -0.050881825 -0.13272437 -0.18946055 -0.013252457 0.14528382 0.0007130081
0.14623812 -0.013936806 0.0034964378 -0.09580257 0.114394814 0.03842418 0.12734328 0.12015406
0.13048321 0.091002 0.011023606 0.0039616586 0.015731242 -0.007902198 -0.10502032 0.11827122
-0.15084834 -0.01537075 -0.01031493 -0.1762016 -0.0817288 0.12686408 0.06993034 0.16031316
0.048145473 0.0990297 0.020977177 0.17685159 0.15142393 0.011853904 -0.0615464 0.07752051
-0.09214121 -0.14701484 0.093282685 -0.11405317 0.044550378 -0.08419481 0.05879982 0.018138045
-0.11773801 -0.034509998 0.013568885 0.14629614 -0.09185426 -0.08238236 0.12276722 -0.016674422
-0.12399086 0.0057659554 0.19092569 -0.17472024 -0.13886875 -0.048626482 -0.03644069 -0.061931524
0.028216524 0.11865562 -0.10831123 0.10138208 -0.0012189208 0.15360689 0.015292398 0.008087217
0.03366092 0.0063422415 0.16746294 0.019803751 -0.12776548 0.003133182 -0.13926908 -0.1824953
0.15250844 0.08338457 0.13060567 0.03770498 0.038317516 -0.18767408 -0.14070871 -0.09805205
-0.087592736 -0.13080926 0.07562435 -0.009061823 -0.12836458 -0.062313613 0.008308673 -0.1360991
0.15738483 0.114157535 0.017344927 -0.18120065 0.0816617 -0.10587943 -0.06025914 -0.14760298
0.16043887 0.0007605336 0.0077721486 0.17554507 0.13995112 -0.08937706 -0.062579535 0.05458122
-0.020457232 -0.012760891 0.17115954 0.1366781 0.14418533 0.06920652 -0.1309461 -0.06467247
-0.15578797 -0.07868538 -0.047918424 0.14147906 0.016340872 -0.15647547 -0.039754167 0.11683026
-0.06431081 0.13296561 -0.16594154 -0.011899782 0.035584457 -0.042517908 -0.17326024 0.0026899998
0.055666797 0.034043647 -0.108224645 -0.1174062 -0.11761316 0.13636947 0.013006174 0.0364991
0.116569236 -0.014349881 0.15596814 0.045646258 0.11635944 -0.15871151 0.12949008 -0.16093323
-0.14557055 0.062425293 -0.09145488 -0.17856732 0.09269314 0.15716918 0.0028774801 -0.082370736
-0.11422629 0.12105641 0.08808102 0.09640089 -0.0006774833 0.16623136 0.0039404486 0.14758132
-0.15421306 -0.13000277 0.09597838 -0.0047176704 0.15871906 0.08607593 -0.009348854 0.00029514893
0.16764764 -0.08131673 -0.00066344603 -0.07697814 0.10416658 0.053027168 -0.16096613 -0.13049631
-0.18361938 -0.12341606 0.015231946 -0.05999793 -0.11436163 0.14412743 -0.14704713 0.01892093
0.11594196 0.12832288 -0.089419775 0.16400994 0.024410794 -0.06593321 -0.101766236 -0.018934567
0.07542791 -0.089043684 0.024320368 0.06425909 -0.11659321 -0.091113225 0.045002896 -0.0022637576
-0.10311753 -0.13864224 0.10484497 0.14251025 -0.0787702 -0.04950181 -0.05692583 -0.081673004
00000000: a890 0a3e 5ba5 0dbe 7727 b4bc 2c99 983c
00000010: 6cb7 f2bd abf0 cabd 9e3e f23d 95c6 603d
00000020: c731 ee3d 48c8 96bd 1ca6 47be fbbe a5bd
00000030: 0574 dbbd 6ecb eb3c 25ad 38be c164 06be
00000040: 7695 f1bd 09e2 bf3c fba0 c0bd b678 a73d
00000050: 8d84 243e 30b0 b4bd 3502 01be d270 1b3d
00000060: 420f 24be 1e7e b33c 90df 033e cec8 ef3d
00000070: 7c38 20be 9ae5 72bd 1a92 08bd 1b86 613d
00000080: c034 163e a1fa 913d cb3c 6bbd b0d1 fcbd
00000090: 254b e83d a2b7 c7bd 3152 ec3d cc35 0ebd
000000a0: 2350 8a3d 393f 47bc 7669 50bd e6e8 07be
000000b0: f201 42be d520 59bc 48c5 143e 2ae9 3a3a
000000c0: 72bf 153e 3357 64bc 7e24 653b 2334 c4bd
000000d0: d447 ea3d ac62 1d3d 4766 023e 5513 f63d
000000e0: 649d 053e 425f ba3d 5b9c 343c cdd0 813b
000000f0: cede 803c 3878 01bc e514 d7bd 2e38 f23d
00000100: fd77 1abe 99d5 7bbc f4ff 28bc 316e 34be
00000110: 6e61 a7bd a8e8 013e a337 8f3d 2229 243e
00000120: 3034 453d 15d0 ca3d 54d8 ab3c 9518 353e
00000130: e00e 1b3e e136 423c 1418 7cbd 13c3 9e3d
00000140: 88b4 bcbd 0f8b 16be fe0a bf3d b594 e9bd
00000150: 757a 363d 546e acbd 14d8 703d 3d96 943c
00000160: a020 f1bd 5b5a 0dbd 0750 5e3c a8ce 153e
00000170: 161e bcbd 15b8 a8bd 616d fb3d cc98 88bc
00000180: ecee fdbd 57f0 bc3b 0682 433e dde9 32be
00000190: 9c33 0ebe 902c 47bd d542 15bd e9ab 7dbd
000001a0: 5726 e73c b801 f33d 47d2 ddbd 68a1 cf3d
000001b0: 32c4 9fba 204b 1d3e f78c 7a3c 3f80 043c
000001c0: 08e0 093d 94d2 cf3b 687b 2b3e 7a3b a23c
000001d0: f4d4 02be 1256 4d3b 8e9c 0ebe 0ce0 3abe
000001e0: 2c2b 1c3e 88c5 aa3d 7ebd 053e 8970 1a3d
000001f0: d4f2 1c3d a22d 40be f215 10be 83cf c8bd
00000200: d263 b3bd ddf2 05be f0e0 9a3d 0a78 14bc
00000210: 0172 03be 8f3c 7fbd 1a21 083c 905d 0bbe
00000220: 7d29 213e 6dcb e93d f316 8e3c aa8c 39be
00000230: 403e a73d 51d7 d8bd 4ad2 76bd 3c25 17be
00000240: 164a 243e 8c5e 473a 82ad fe3b 16c2 333e
00000250: 594f 0f3e 520b b7bd b329 80bd 8f90 5f3d
00000260: ed95 a7bc 0e13 51bc 7244 2f3e 58f5 0b3e
00000270: 52a5 133e 26bc 8d3d bc16 06be 0073 84bd
00000280: e286 1fbe cd25 a1bd 1c46 44bd e3df 103e
00000290: 4bdd 853c 1b3b 20be 44d5 22bd b444 ef3d
000002a0: 63b5 83bd 2328 083e 94ec 29be 4ef7 42bc
000002b0: 02c1 113d 4227 2ebd 226b 31be b54a 303b
000002c0: de02 643d 5a71 0b3d e2a4 ddbd a972 f0bd
000002d0: 2bdf f0bd 70a4 0b3e d917 553c 1580 153d
000002e0: dabb ee3d c31b 6bbc 1db6 1f3e 92f7 3a3d
000002f0: dc4d ee3d 4585 22be 0c99 043e aecb 24be
00000300: 7210 15be aab1 7f3d b24c bbbd 5ada 36be
00000310: e7d5 bd3d f5f0 203e 1b94 3c3b fdb1 a8bd
00000320: 79ef e9bd 6cec f73d d263 b43d d46d c53d
00000330: 2299 31ba 8e38 2a3e e11e 813b 8f1f 173e
00000340: 07ea 1dbe 721f 05be 5090 c43d b096 9abb
00000350: 4087 223e 9448 b03d f02b 19bc 38be 9a39
00000360: d3ab 2b3e 6389 a6bd 1ceb 2dba b7a6 9dbd
00000370: 4a55 d53d 0433 593d 4ed4 24be d3a0 05be
00000380: b806 3cbe 8fc1 fcbd 698f 793c 64c0 75bd
00000390: 6e36 eabd 2496 133e 8693 16be 1100 9b3c
000003a0: fa72 ed3d 1367 033e b721 b7bd 39f2 273e
000003b0: 25f9 c73c fe07 87bd d16a d0bd aa1c 9bbc
000003c0: f379 9a3d 895c b6bd 823b c73c 459a 833d
000003d0: 6cc8 eebd 9299 babd f554 383d 8d5b 14bb
000003e0: 492f d3bd 3bf8 0dbe f6b8 d63d 35ee 113e
000003f0: 4552 a1bd 69c2 4abd 0f2b 69bd 2d44 a7bd

bias f4 [128]
0.07273856 -0.02194636 0.16594972 -0.11081433 -0.09538331 0.0695358 0.100087285 -0.04737862
-0.042398818 -0.019573871 -0.07673863 0.041108675 -0.07898897 0.14209488 -0.042001564 0.15107062
-0.03810498 -0.057335414 0.14050159 0.04415545 -0.17515017 -0.08504544 0.1287693 -0.04417768
-0.14741255 -0.16140564 0.036306992 0.16171701 -0.106525175 -0.006618678 0.046181735 -0.03735139
0.0153896 -0.056112967 0.08430731 0.07073791 -0.015644481 -0.15502238 0.12512225 0.12204917
0.18023232 0.032335043 0.008867725 0.11482072 -0.078771584 -0.038947187 0.056477875 0.13270813
-0.10357817 -0.108642876 0.016224893 0.00078711926 0.08822582 -0.17312 0.09548635 -0.009063173
-0.15036108 0.0982819 0.054696698 0.07498468 -0.057136863 -0.045460947 -0.09933661 0.022027833
-0.05803913 0.13104042 -0.12784167 -0.18013331 -0.17885166 -0.15462016 -0.09916407 -0.014061279
0.006693941 0.03338227 -0.11623862 0.07725235 0.080822594 0.037800506 -0.17185713 -0.04191469
-0.13172388 0.12798929 -0.1138332 -0.1693931 -0.04014171 0.16093557 0.08959074 0.045463864
-0.13750316 -0.1593352 -0.058306746 0.0954356 0.02277952 0.10330106 0.08546091 0.1330613
0.10888632 -0.1255447 0.073657654 -0.05343535 0.0608515 0.09387127 -0.16673021 -0.037596732
0.04966003 0.016764978 0.114782184 -0.14173779 0.09225119 -0.09988335 -0.0029379015 0.015738547
0.041868817 0.1513103 0.018820882 0.188397 -0.019490665 0.056875758 -0.13813376 0.16191217
-0.053568996 -0.13957 0.07616948 -0.13244258 -0.008198139 0.035507075 0.1216462 0.16735546
00000000: f4f7 943d dac8 b3bc b9ee 293e a0f2 e2bd
00000010: 5358 c3bd c968 8e3d 90fa cc3d 1510 42bd
00000020: 62aa 2dbd 6259 a0bc 2529 9dbd 9261 283d
00000030: f8c4 a1bd 5281 113e d509 2cbd 42b2 1a3e
00000040: f813 1cbd 8ad8 6abd a6df 0f3e 58dc 343d
00000050: 915a 33be 4e2c aebd 19dc 033e a8f3 34bd
00000060: 51f3 16be 8547 25be a4b6 143d 2599 253e
00000070: df29 dabd 7fe1 d8bb 0f29 3d3d c5fd 18bd
00000080: a924 7c3c b6d6 65bd 50a9 ac3d 0adf 903d
00000090: db28 80bc 30be 1ebe 0c20 003e eaf4 f93d
000000a0: d28e 383e c071 043d ef49 113c 2027 eb3d
000000b0: ff52 a1bd 1687 1fbd 5855 673d a4e4 073e
000000c0: cb20 d4bd 2880 debd 11ea 843c ae56 4e3a
000000d0: bdaf b43d 5f46 31be 598e c33d b47d 14bc
000000e0: 41f8 19be 0548 c93d a509 603d 9191 993d
000000f0: 5808 6abd 4235 3abd fe70 cbbd b773 b43c
00000100: 70ba 6dbd 762f 063e ede8 02be de74 38be
00000110: e424 37be bf54 1ebe 8816 cbbd 4761 66bc
00000120: d958 db3b d9bb 083d 830e eebd 7b36 9e3d
00000130: 5186 a53d b4d4 1a3d 51fb 2fbe bdae 2bbd
00000140: a0e2 06be a00f 033e 6121 e9bd 6375 2dbe
00000150: a26b 24bd 4bcc 243e 5a7b b73d 5138 3a3d
00000160: a1cd 0cbe c428 23be 0ed3 6ebd bd73 c33d
00000170: 1e9c ba3c 828f d33d 2106 af3d 3941 083e
00000180: caff de3d ca8e 00be d3d9 963d 07df 5abd
00000190: 6c3f 793d 953f c03d 53bb 2abe 08ff 19bd
000001a0: 5168 4b3d b556 893c ec12 eb3d b623 11be
000001b0: 31ee bc3d a48f ccbd cf89 40bb 20ee 803c
000001c0: a37e 2b3d 16f1 1a3e 402e 9a3c 25eb 403e
000001d0: e3aa 9fbc 8ef6 683d f072 0dbe 4ecc 253e
000001e0: 2a6b 5bbd 70eb 0ebe bffe 9b3d 079f 07be
000001f0: 7d51 06bc de6f 113d a521 f93d 3b5f 2b3e

weight f4 [32]
0.9928677 0.991391 0.98973584 1.0374674 0.98711246 0.9752519 0.96224904 0.97870827
0.9712115 0.966753 0.95057887 0.9769266 0.9860038 1.0024414 0.96449596 1.0060078
0.93989104 1.0261838 1.0160317 0.983763 0.9586545 0.9575354 0.98316795 1.0331354
0.9826109 0.9827393 0.98503107 0.99303955 0.9844806 0.9986552 0.9597126 0.97884816
00000000: 942c 7e3f cdcb 7d3f 545f 7d3f bbcb 843f
00000010: 67b3 7c3f 1caa 793f f455 763f a08c 7a3f
00000020: 51a1 783f 207d 773f 2359 733f dd17 7a3f
00000030: bf6a 7c3f 0050 803f 35e9 763f ddc4 803f
00000040: b39c 703f fe59 833f 540d 823f e4d7 7b3f
00000050: 626a 753f 0a21 753f e5b0 7b3f c83d 843f
00000060: 638c 7b3f ce94 7b3f ff2a 7c3f d737 7e3f
00000070: ec06 7c3f dea7 7f3f baaf 753f cb95 7a3f

bias f4 [32]
0.062730536 -0.011293459 -0.08067018 0.02724422 -0.06009264 -0.016698455 -0.020003583 0.011965584
-0.07795997 0.027257653 -0.038554993 -0.04746086 -0.009631567 -0.043871403 0.034603637 -0.0009648553
0.013916904 0.017500345 -0.032480042 0.05534361 -0.019625818 -0.01092387 0.025751147 -0.03623192
-0.057713192 -0.0032965746 -0.03572903 -0.027308183 -0.02674592 -0.0008489919 -0.06415637 -0.024191879
00000000: de78 803d 3308 39bc 6836 a5bd 452f df3c
00000010: b323 76bd 33cb 88bc 8ede a3bc 4c0b 443c
00000020: 7aa9 9fbd 714b df3c d7eb 1dbd 5266 42bd
00000030: b8cd 1dbc 80b2 33bd 8bbc 0d3d 58ee 7cba
00000040: ba03 643c e25c 8f3c cb09 05bd fbaf 623d
00000050: 53c6 a0bc 08fa 32bc 12f4 d23c ec67 14bd
00000060: ab64 6cbd 580b 58bb 9a58 12bd 69b5 dfbc
00000070: 421a dbbc e28e 5eba 6a64 83bd 0c2e c6bc

running_mean f4 [32]
0.033118956 -0.010586779 0.5573756 0.071446605 0.5460154 0.35564902 -0.6446403 0.35637665
0.038068514 -0.3446735 -0.33350605 -0.26456213 0.27157053 -0.20088238 0.34962705 -0.1685172
-0.37980902 0.62292975 -0.25627023 0.6014868 0.5738713 0.21696752 -0.35511258 -0.64268476
-0.08736213 0.7828936 0.22072192 0.078860074 0.37867984 -0.42166957 0.41076392 -0.23827273
00000000: bea7 073d 2b74 2dbc 2bb0 0e3f 9952 923d
00000010: aac7 0b3f a117 b63e 2607 25bf 0077 b63e
00000020: bbed 1b3d 0c79 b0be 4ec1 aabe b074 87be
00000030: 4b0b 8b3e 1cb4 4dbe 5102 b33e c68f 2cbe
00000040: 5476 c2be 5378 1f3f da35 83be 0afb 193f
00000050: 3be9 123f bc2c 5e3e 51d1 b5be fd86 24bf
00000060: ebea b2bd b76b 483f ed04 623e 6481 a13d
00000070: 53e2 c13e 13e5 d7be a64f d23e c4fd 73be

running_var f4 [32]
0.015828494 0.159763 0.15127058 0.03834331 0.12137991 0.06066376 0.10011377 0.07478555
0.27506134 0.10163413 0.06782628 0.046775397 0.008425553 0.10382571 0.101903856 0.12331474
0.05466671 0.07233081 0.10756916 0.0389743 0.100925244 0.13389437 0.035016913 0.021444393
0.06750701 0.020262152 0.15557136 0.06695387 0.1021689 0.096672826 0.06779279 0.11206279
00000000: c2aa 813c e998 233e ade6 1a3e e00d 1d3d
00000010: 0896 f83d 907a 783d 7308 cd3d 2b29 993d
00000020: d7d4 8c3e 8e25 d03d 81e8 8a3d 8f97 3f3d
00000030: 550b 0a3c 93a2 d43d f8b2 d03d 708c fc3d
00000040: 33ea 5f3d 2d22 943d 384d dc3d 84a3 1f3d
00000050: e5b1 ce3d 9b1b 093e e56d 0f3d 27ac af3c
00000060: 1e41 8a3d d0fc a53c 194e 1f3e 1c1f 893d
00000070: ee3d d13d 67fc c53d f2d6 8a3d 2d81 e53d

weight f4 [32, 3]
-0.61338407 0.18098158 0.38212556 0.27958846 -0.1810411 -0.06274648 1.1145263 -0.5065949
0.2662886 1.420839 -4.714777e-06 0.0002142429 -0.6785776 0.23019762 0.4493791 0.15402192
0.022775257 -0.1460939 0.2899304 -0.17558771 -0.07394318 0.39731008 -0.37916297 -0.12634605
-0.31314525 0.29105666 0.36700037 -0.21586937 0.2594156 0.11207705 -0.8799552 0.5316331
0.2144372 -0.10959133 0.36592776 -0.34506208 0.7377553 0.27588227 -0.40551063 -0.24011256
-0.36865854 -0.23907915 0.6394868 -0.25873283 -0.22131069 -0.081346855 -0.4995224 0.5009382
0.62261146 -0.20698449 -0.29341385 0.11775119 -0.6330119 -0.0069611683 -0.7642084 -0.06883209
0.22899148 1.0540466 -0.012345038 -0.24253973 0.38858348 -0.44761208 -0.5320898 -0.6122133
-0.4879171 0.09774482 -0.75423765 0.23509616 0.1518154 -0.23725401 0.5274639 -0.101794034
-1.0770286 -0.22878265 0.19183092 0.7556092 0.18557705 -0.51658136 -0.54631144 0.28768447
0.59545845 -0.09889736 -0.04494672 0.47946104 -0.09895225 0.51482403 -0.25586858 -0.12423438
0.24811614 0.09162927 -0.72651345 0.45508084 0.51917803 0.869412 -0.46511927 -0.2515597
00000000: bd06 1dbf 3c53 393e f6a5 c33e 3826 8f3e
00000010: d762 39be 3a81 80bd cca8 8e3f 34b0 01bf
00000020: fb56 883e 0dde b53f a033 9eb6 64a6 6039
00000030: 43b7 2dbf edb8 6b3e 0415 e63e ecb7 1d3e
00000040: 2d93 ba3c a499 15be c271 943e 44cd 33be
00000050: 866f 97bd 3a6c cb3e a621 c2be dc60 01be
00000060: 9354 a0be 6105 953e 79e7 bb3e dc0c 5dbe
00000070: 1fd2 843e a788 e53d be44 61bf 1b19 083f
00000080: 6d95 5b3e 6b71 e0bd e25a bb3e faab b0be
00000090: 88dd 3c3f 7140 8d3e 179f cfbe 11e0 75be
000000a0: d0c0 bcbe 2ad1 74be 68b5 233f a178 84be
000000b0: 459f 62be 2e99 a6bd 66c1 ffbe 7c3d 003f
000000c0: 7763 1f3f bef3 53be 573a 96be 8927 f13d
000000d0: 110d 22bf 831a e4bb 29a3 43bf d7f7 8cbd
000000e0: be7c 6a3e 00eb 863f d842 4abc 565c 78be
000000f0: 6af4 c63e 692d e5be 0a37 08bf 03ba 1cbf
00000100: 45d0 f9be 702e c83d b815 41bf 0cbd 703e
00000110: 7f75 1b3e b7f2 72be e007 073f 6479 d0bd
00000120: 13dc 89bf 0046 6abe 536f 443e 9b6f 413f
00000130: e907 3e3e ad3e 04bf 11db 0bbf 614b 933e
00000140: f76f 183f b38a cabd 0d1a 38bd eb7b f53e
00000150: 7aa7 cabd 82cb 033f 3501 83be 986e febd
00000160: 2812 7e3e 20a8 bb3d c9fc 39bf 5b00 e93e
00000170: dae8 043f c991 5e3f 1d24 eebe 6fcc 80be

bias f4 [32]
0.074343406 0.48872268 0.24622165 0.0914882 0.27283344 0.14116232 -0.20269577 -0.46437085
-0.14676571 -0.34797275 -0.36684734 0.32236037 -0.37992534 0.3319464 -0.0963082 -0.55134493
0.51928025 0.2098626 0.4292534 0.22091071 -0.2834126 0.056161962 0.3592038 0.23542395
-0.26188102 0.49862605 -0.27876776 0.29042253 -0.23362495 0.10787028 0.15617341 -0.32911533
00000000: 5b41 983d dc39 fa3e 8721 7c3e 2a5e bb3d
00000010: d3b0 8b3e db8c 103e 7b8f 4fbe 04c2 edbe
00000020: c049 16be 7c29 b2be 6ad3 bbbe 6b0c a53e
00000030: 9385 c2be e1f4 a93e 3c3d c5bd f124 0dbf
00000040: 8def 043f 39e6 563e 1ac7 db3e 6b36 623e
00000050: 751b 91be 160a 663d 8fe9 b73e fa12 713e
00000060: 4515 86be ea4b ff3e a6ba 8ebe 43b2 943e
00000070: 613b 6fbe 18eb dc3d eceb 1f3e ce81 a8be

weight f4 [128, 32]
0.0868365 0.016646847 0.12055461 0.08449358 0.13813663 0.016150873 0.0395378 -0.00016432199
-0.043684416 0.12312054 -0.115030125 0.119562685 -0.051724225 -0.02956475 -0.109010555 -0.17651723
0.059533514 0.056567814 -0.18675554 0.004199666 -0.13568039 0.028690424 -0.13466425 0.041582048
0.054336056 0.16358277 -0.13504742 0.0871796 -0.15371968 0.13863723 0.05137717 -0.0946986
0.09327715 0.05006901 -0.0791894 0.04426775 0.05312461 -0.018767249 -0.11087678 -0.06709495
0.17237331 0.1309464 -0.12912542 -0.19304958 0.12296986 -0.16902043 -0.16777855 0.1304553
0.13138592 -0.16096003 -0.07426029 0.056125917 0.04298503 -0.16869079 -0.070468925 -0.08418436
0.11648948 -0.07468924 0.09121305 -0.018987624 -0.15641214 -0.04568958 0.05378632 -0.039324336
0.001960188 -0.10323346 0.060385827 0.21480985 0.06752972 -0.006463403 -0.13781556 0.0780159
-0.05880459 -0.20236424 0.07359082 0.15754738 -0.027433595 -0.028461311 0.11748464 0.12130625
0.16096495 0.17321347 0.14900288 -0.16118227 -0.05564146 -0.13854323 0.0020670784 0.047081977
-0.06452722 0.09284884 -0.041808303 0.14951213 0.09035301 0.08429777 0.13873042 0.069578804
0.0898922 -0.047203872 0.17293562 -0.1620565 -0.16764429 -0.14961238 -0.15837626 -0.072678454
-0.08221017 0.09271788 -0.06667248 0.037238453 -0.04528088 0.0038178142 -0.10118927 -0.09761938
0.12637088 0.12618618 0.1684532 0.06653585 0.0019567474 0.08827926 0.1435877 0.07235161
0.014464033 -0.14326453 0.14951657 0.05085404 -0.12712249 -0.17884883 -0.0691075 0.1532287
-0.14119895 0.12471292 0.14061815 0.07760759 -0.05384503 -0.047266472 -0.062467795 0.026641387
0.08806996 -0.18570204 -0.14116733 -0.1574667 0.062301643 0.046929926 0.12116281 -0.1318742
-0.18297404 -0.1183503 0.16096729 -0.091736905 -0.0877613 0.1749984 0.046079054 0.019893337
0.007551277 -0.13379112 -0.1657799 0.024299975 -0.11678199 0.10599027 0.14968541 0.043826867
-0.08966674 0.07714933 0.1732575 0.19001524 0.042388715 -0.0014910852 -0.0062540504 -0.04003042
-0.022259023 0.0017169442 -0.11757979 -0.11166241 0.034338087 0.026065007 0.13472335 -0.10870528
-0.053230636 0.121795624 0.16014557 0.031906486 -0.16974114 0.043014232 0.0027075645 -0.12666084
-0.08565396 -0.12219777 0.15900244 -0.12848787 -0.121009246 0.12466938 -0.0013875262 -0.022150362
0.12596087 -0.023773002 -0.16241445 0.18090221 0.019536851 0.11315527 -0.078758694 -0.04692153
-0.017111909 0.045845356 -0.06044703 -0.11959364 0.002587318 -0.09795704 -0.04372662 -0.072326384
-0.07929504 -0.08400665 0.034605462 0.08685827 0.0071437545 0.11484989 -0.12189262 -0.14379685
0.073752955 -0.081004195 -0.008271893 0.028044734 0.03167267 -0.11487907 0.12861243 0.10281107
-0.11097007 -0.12893224 -0.06508148 0.10797422 0.036032584 -0.06203912 -0.13386862 -0.1447493
-0.07496826 -0.08878289 -0.11241508 -0.024761466 -0.06751719 -0.07014216 0.010302333 0.15438417
-0.07573671 -0.14618555 -0.106250905 0.04024207 0.015909405 -0.05695752 0.020240119 -0.008381532
-0.07013133 -0.042747434 -0.0067419843 -0.0016796252 -0.12117256 -0.002834037 0.116852716 0.16292533
00000000: 56d7 b13d f85e 883c 56e5 f63d f80a ad3d
00000010: b073 0d3e d64e 843c 63f2 213d d94d 2cb9
00000020: 6eee 32bd 9f26 fc3d ea94 ebbd 48dd f43d
00000030: c8dc 53bd c631 f2bc ed40 dfbd efc0 34be
00000040: 6ad9 733d a7b3 673d d83c 3fbe 5a9d 893b
00000050: cdef 0abe 2e08 eb3c 6de5 09be f051 2a3d
00000060: 7c8f 5e3d 3e82 273e df49 0abe 388b b23d
00000070: b168 1dbe ebf6 0d3e de70 523d 57f1 c1bd
00000080: 1708 bf3d 2a15 4d3d 0d2e a2bd 1a52 353d
00000090: 3199 593d c6bd 99bc 5d13 e3bd 1469 89bd
000000a0: a182 303e d016 063e 7439 04be caae 45be
000000b0: 9fd7 fb3d b113 2dbe 24ce 2bbe 1396 053e
000000c0: 088a 063e b5d2 24be c715 98bd 4ae4 653d
000000d0: 1211 303d 47bd 2cbe 0352 90bd da68 acbd
000000e0: 0992 ee3d acf6 98bd e8cd ba3d ef8b 9bbc
000000f0: 812a 20be ff24 3bbd 0b4f 5c3d 8e12 21bd
00000100: 7f76 003b 106c d3bd 2157 773d 1df7 5b3e
00000110: 064d 8a3d f4ca d3bb 861f 0dbe cdc6 9f3d
00000120: 15dd 70bd 9238 4fbe c9b6 963d 1a54 213e
00000130: 6bbc e0bc b227 e9bc c99b f03d 696f f83d
00000140: ffd3 243e df5e 313e 3694 183e f70c 25be
00000150: 4de8 63bd 47de 0dbe d277 073b 08d9 403d
00000160: d926 84bd 8827 be3d 2f3f 2bbd b519 193e
00000170: 000b b93d 4fa4 ac3d 590f 0e3e 557f 8e3d
00000180: 6719 b83d d958 41bd 0916 313e 24f2 25be
00000190: f2aa 2bbe fd33 19be 632d 22be 71d8 94bd
000001a0: ce5d a8bd dfe2 bd3d 958b 88bd 5987 183d
000001b0: 7278 39bd 4b34 7a3b 523c cfbd abec c7bd
000001c0: 5e67 013e f336 013e ff7e 2c3e f343 883d
000001d0: c63c 003b c2cb b43d a708 133e 152d 943d
000001e0: 8dfa 6c3c f0b3 12be df1a 193e 534c 503d
000001f0: 662c 02be 2624 37be 3c88 8dbd fce7 1c3e
00000200: 7596 10be 7d69 ff3d 34fe 0f3e baf0 9e3d
00000210: 9b8c 5cbd 7d9a 41bd 3bde 7fbd 0a3f da3c
00000220: 065e b43d ad28 3ebe 2b8e 10be f33e 21be
00000230: 0230 7f3d 9839 403d 3524 f83d 080a 07be
00000240: 8c5d 3bbe a461 f2bd 9cd4 243e 8fe0 bbbd
00000250: 32bc b3bd c832 333e 64bd 3c3d 5af7 a23c
00000260: b470 f73b 8a00 09be 35c2 29be be10 c73c
00000270: 652b efbd 6d11 d93d 2247 193e cd83 333d
00000280: 32a3 b7bd 7800 9e3d 6a6a 313e 5b93 423e
00000290: ca9f 2d3d 8470 c3ba c7ee ccbb f0f6 23bd
000002a0: 8e58 b6bc 160b e13a accd f0bd 43af e4bd
000002b0: 18a6 0c3d 4886 d53c ebf4 093e e0a0 debd
000002c0: 5e08 5abd fc6f f93d 33fd 233e 60b0 023d
000002d0: 9fd0 2dbe b12f 303d 6571 313b 61b3 01be
000002e0: 586b afbd d342 fabd 89d1 223e 5392 03be
000002f0: b2d3 f7bd a952 ff3d a7dd b5ba ad74 b5bc
00000300: e3fb 003e 99bf c2bc f94f 26be 6e3e 393e
00000310: bf0b a03c f3bd e73d 3d4c a1bd ca30 40bd
00000320: 462e 8cbc 57c8 3b3d 4e97 77bd 83ed f4bd
00000330: fe8f 293b b39d c8bd af1a 33bd db1f 94bd
00000340: 7065 a2bd ae0b acbd 75be 0d3d c0e2 b13d
00000350: 2816 ea3b 6b36 eb3d d7a2 f9bd 7b3f 13be
00000360: ca0b 973d 87e5 a5bd d586 07bc 12be e53c
00000370: 34bb 013d b845 ebbd fab2 033e 9c8e d23d
00000380: 4744 e3bd d006 04be 7049 85bd 9621 dd3d
00000390: e796 133d bb1c 7ebd db14 09be 2939 14be
000003a0: f688 99bd ced3 b5bd e139 e6bd 8fd8 cabc
000003b0: 7446 8abd b1a6 8fbd 1ecb 283c e216 1e3e
000003c0: d91b 9bbd aab1 15be 139a d9bd ded4 243d
000003d0: 7154 823c 4a4c 69bd 9bce a53c b152 09bc
000003e0: 04a1 8fbd ef17 2fbd ddeb dcbb df26 dcba
000003f0: 5229 f8bd 40bb 39bb 7a50 ef3d e6d5 263e

bias f4 [128]
-0.040559705 0.12300215 0.057925485 -0.011295667 -0.108081296 -0.09206356 -0.15002707 -0.13106082
-0.04877474 -0.08663667 -0.15175566 0.022165213 0.09063849 0.050449446 -0.003637806 -0.04793757
-0.014835991 0.041176386 -0.09228852 -0.101234764 0.1510912 0.07001613 -0.034433205 -0.100795165
0.0629076 0.17878866 -0.0350473 0.061817024 0.0068307836 0.000566968 0.008533028 0.15404683
-0.027339537 -0.14921495 0.038156305 -0.0910477 0.13543801 -0.16316402 0.11419804 0.19785717
0.09496507 -0.07958094 0.07419654 -0.010658061 0.059797164 0.054891262 -0.055137422 -0.05983102
-0.16586423 0.01162633 0.098133355 0.1198625 -0.11858185 -0.036151174 0.084670275 0.1650105
0.19096564 0.1163092 -0.19451968 0.04778047 -0.011583769 -0.13031921 -0.055755284 -0.112427734
0.04951703 0.048917614 0.08578542 -0.09014036 -0.011101374 0.15969087 0.05924127 -0.09630236
0.071897745 -0.09292196 0.044765495 -0.15804793 0.13575548 -0.16169536 -0.054074083 0.16353543
-0.1299941 -0.17881437 -0.07375611 0.06291493 -0.17636803 0.13329743 -0.11018717 -0.07323886
0.12486092 -0.09787731 0.03318351 -0.16161013 0.19989704 0.120903715 -0.058715533 -0.035003692
-0.017708192 0.063949145 0.033950157 0.022959238 -0.050422262 -0.052581 -0.148556 -0.19484022
-0.020114671 -0.16281597 -0.11998707 0.044798914 -0.044808205 0.052204102 -0.12396028 -0.08235779
0.07774613 0.09555762 0.08817312 -0.099662386 -0.10147065 -0.017963275 -0.013911636 0.111901864
0.078090176 -0.10115167 -0.19545314 0.11503979 0.098464936 0.022148153 -0.012122044 0.14201254
00000000: ef21 26bd 8de8 fb3d 4643 6d3d 7611 39bc
00000010: ba59 ddbd d28b bcbd b2a0 19be cf34 06be
00000020: 06c8 47bd 916e b1bd d665 1bbe d293 b53c
00000030: aca0 b93d 14a4 4e3d 4268 6ebb 2f5a 44bd
00000040: a812 73bc 92a8 283d c301 bdbd 2c54 cfbd
00000050: a7b7 1a3e 9e64 8f3d d509 0dbd b26d cebd
00000060: b3d5 803d 6014 373e c28d 0fbd d933 7d3d
00000070: c4d4 df3b 94a0 143a 1dce 0b3c 74be 1d3e
00000080: 2af7 dfbc cecb 18be c949 1c3d 3777 babd
00000090: 43b0 0a3e 7814 27be a9e0 e93d 129b 4a3e
000000a0: 0c7d c23d 55fb a2bd 5bf4 973d 269f 2ebc
000000b0: dfed 743d a9d5 603d c7d7 61bd 5f11 75bd
000000c0: 50d8 29be 5d7c 3e3c 24fa c83d 787a f53d
000000d0: 0adb f2bd 4113 14bd 9c67 ad3d 83f8 283e
000000e0: 7f8c 433e 8533 ee3d 2b30 47be 74b5 433d
000000f0: d9c9 3dbc 6672 05be a75f 64bd 8340 e6bd
00000100: 5fd2 4a3d d65d 483d 44b0 af3d 829b b8bd
00000110: 8ae2 35bc 0186 233e f9a6 723d 2c3a c5bd
00000120: 203f 933d de4d bebd 065c 373d 51d7 21be
00000130: 7c03 0b3e 7893 25be c97c 5dbd d575 273e
00000140: 2c1d 05be 1d1b 37be 720d 97bd 8bd9 803d
00000150: d299 34be 1f7f 083e d0a9 e1bd 41fe 95bd
00000160: 15b7 ff3d e673 c8bd 6feb 073d 207d 25be
00000170: cfb1 4c3e 5e9c f73d b37f 70bd 0860 0fbd
00000180: c510 91bc c5f7 823d 520f 0b3d 0315 bc3c
00000190: 9387 4ebd 2d5f 57bd 101f 18be 3284 47be
000001a0: 86c7 a4bc 3bb9 26be c8bb f5bd 117f 373d
000001b0: cf88 37bd f8d3 553d e3de fdbd 33ab a8bd
000001c0: 5d39 9f3d b7b3 c33d 1c94 b43d cb1b ccbd
000001d0: d8cf cfbd b827 93bc a1ed 63bc ce2c e53d
000001e0: beed 9f3d 9b28 cfbd de24 48be fb99 eb3d
000001f0: fca7 c93d 0b70 b53c 8a9b 46bc bc6b 113e

weight f4 [32]
0.9581415 0.93921095 0.9672089 1.0999515 0.9351709 0.967709 0.9176038 0.9909756
0.9513295 0.9190285 0.956227 0.9949603 0.98595774 0.9639578 0.9405526 0.9416953
0.9314204 0.95977587 0.98716897 0.9360798 1.0104036 0.960384 0.98614216 0.97161835
0.9728779 0.9516192 0.9876691 1.0102059 1.0123484 0.9730277 0.9509128 1.0055676
00000000: c348 753f 2170 703f 019b 773f 36cb 8c3f
00000010: 5c67 6f3f c7bb 773f 15e8 6a3f 94b0 7d3f
00000020: 558a 733f 7445 6b3f 4bcb 743f b8b5 7e3f
00000030: ba67 7c3f f0c5 763f 0ec8 703f f112 713f
00000040: 9171 6e3f dfb3 753f 1bb7 7c3f eda2 6f3f
00000050: e854 813f badb 753f d073 7c3f fbbb 783f
00000060: 870e 793f 519d 733f e2d7 7c3f 6d4e 813f
00000070: a294 813f 5818 793f 056f 733f 70b6 803f

bias f4 [32]
-0.00072026084 -0.085911594 -0.035490148 0.30671564 -0.052321356 0.02245428 0.0006273748 0.03582371
-0.05152853 0.013718815 0.06280146 -0.14286773 0.017279144 -0.013194177 0.009014984 -0.108822145
0.013576802 -0.045948073 0.021778842 -0.010097027 0.04317637 -0.010537917 0.063717104 -0.03131939
-0.039693996 0.013598043 0.032275736 0.015747197 0.01101767 0.112293 -0.051072784 0.04801408
00000000: e3cf 3cba 6bf2 afbd 1e5e 11bd d509 9d3e
00000010: eb4e 56bd 0af2 b73c 6976 243a e2bb 123d
00000020: 940f 53bd e1c4 603c 0d9e 803d eb4b 12be
00000030: fe8c 8d3c 642c 58bc 95b3 133c 25de debd
00000040: 3c71 5e3c 0c34 3cbd 8b69 b23c 006e 25bc
00000050: b5d9 303d 3aa7 2cbc 1d7e 823d c348 00bd
00000060: 2c96 22bd 53ca 5e3c 9033 043d 4400 813c
00000070: 7583 343c dff9 e53d b231 51bd 69aa 443d

running_mean f4 [32]
1.2267257 1.1519902 4.611102 0.09143548 1.5299149 -0.81715554 0.36653167 0.9512641
0.30222297 -1.1706527 -2.141598 -3.6978528 -4.2367516 1.0504005 0.1010747 5.1066113
0.015358818 3.7346506 2.117675 -1.0867563 -0.79000384 3.3584619 -0.10187103 -3.3124268
2.1159637 -3.4806943 1.4848125 3.2673755 -4.5856757 -0.76685995 0.54523665 0.85914516
00000000: 5905 9d3f 6a74 933f 268e 9340 8642 bb3d
00000010: 40d4 c33f 1b31 51bf 0aaa bb3e 0b86 733f
00000020: f8bc 9a3e f3d7 95bf f10f 09c0 9fa9 6cc0
00000030: 7893 87c0 8673 863f 4100 cf3d 5c69 a340
00000040: 8da3 7b3c 8404 6f40 fd87 0740 d51a 8bbf
00000050: b13d 4abf 0af1 5640 c2a1 d0bd cdfe 53c0
00000060: f36b 0740 b2c3 5ec0 560e be3f ae1c 5140
00000070: dbbd 92c0 ef50 44bf a194 0b3f f0f0 5b3f

running_var f4 [32]
16.041658 2.876189 12.744361 7.373422e-05 23.083633 1.3390064 2.9575114 12.414399
20.479506 6.5402026 26.54124 9.236131 9.7547455 17.081049 10.64581 18.400688
11.990243 24.247707 3.050728 4.2819667 45.149208 12.245483 6.924389 14.366833
3.2381527 15.306325 39.334682 14.93658 13.046907 5.549081 44.495422 23.94654
00000000: 5155 8041 7b13 3840 e7e8 4b41 c2a1 9a38
00000010: 48ab b841 9064 ab3f de47 3d40 61a1 4641
00000020: 07d6 a341 5749 d140 7654 d441 31c7 1341
00000030: 7013 1c41 fda5 8841 3d55 2a41 9c34 9341
00000040: 09d8 3f41 4efb c141 213f 4340 df05 8940
00000050: ca98 3442 80ed 4341 9894 dd40 8cde 6541
00000060: e53d 4f40 b5e6 7441 b756 1d42 3bfc 6e41
00000070: 22c0 5041 1292 b140 50fb 3142 8492 bf41

weight f4 [32, 136]
0.06273283 -0.07583171 0.091290064 -0.009781967 -0.019268183 0.056442365 0.025590295 0.056796953
-0.06675981 -0.09635369 0.010393437 0.020024773 -0.044204425 0.021430684 -0.007913882 -0.0013750355
-0.019056331 -0.09219676 -0.047498092 0.014443255 -0.009655111 0.029875716 0.034235533 -0.011297458
-0.06107183 0.042850573 0.029370151 0.02061138 0.04555122 -0.037025556 -0.039341286 0.04188351
-0.046152 0.012303747 -0.029381573 -0.041740723 -0.05226312 -0.009911264 0.026489655 -0.04120299
0.07578775 -0.040399708 0.0995421 0.0055547766 0.0276924 -0.07851721 -0.048049454 -0.06847605
0.03331578 -0.11012508 0.008855035 0.035521418 -0.084833264 -0.034658007 0.0131079005 0.070475414
0.08527849 -0.0024380689 -0.011317172 0.073407315 -0.00746116 0.0026062208 -0.05336393 -0.05349452
0.058418438 -0.030820366 -0.023272682 0.077208586 -0.00828142 -0.071910955 0.0004970529 0.081116214
0.040221017 0.019078428 -0.04977946 -0.068165064 0.009821372 0.018221598 0.038746294 0.025023203
0.0210659 0.08016266 -0.04299587 0.031058233 -0.059950855 0.04461431 -0.020270739 0.0875125
0.049069256 -0.07878783 0.02702259 -0.113716826 0.03993708 0.047250025 0.081602186 0.073574424
-0.063883536 -0.025563426 0.04502697 0.02430433 0.058433514 0.11125704 0.06619883 0.07102126
-0.0070963213 -0.107133776 -0.049745347 -0.038878776 0.10647729 -0.09042223 0.094888195 -0.028663862
-0.0138753075 -0.02576383 0.03356674 -0.038445465 -0.020146256 -0.031671062 0.080531284 0.0019632673
0.043024145 0.01554523 -0.020131633 0.02257604 0.028983403 0.069406815 0.10346581 -0.06625673
-0.051271103 0.029102309 -0.09777532 0.0070556346 -0.060600072 0.05660476 0.018472463 0.022107167
-0.0017701373 -0.07874799 -0.03714426 0.080822974 -0.006198637 0.008160568 -0.00764046 0.060182154
-0.06812015 -0.062355187 -0.04953751 0.043703604 0.050492585 -0.021112628 -0.028488405 -0.059654742
-0.044582326 0.015097537 -0.024674367 0.047000695 0.026323859 0.018172117 -0.026639922 0.07389883
-0.079537556 -0.047708996 -0.076392874 0.024824563 -0.041954298 -0.0054640947 0.10890467 0.005963886
-0.019115992 0.08630295 -0.061052937 0.043504987 -0.048610788 -0.023075989 0.05670523 -0.068844356
0.06588397 0.058019117 0.022532443 0.05154187 0.043226007 0.078158095 -0.06998162 -0.059074394
-0.009500444 -0.010863554 0.020869205 -0.07607641 0.0016576246 -0.00219385 -0.057281617 0.0045314264
-0.045132898 0.03352162 0.062199302 0.04532153 -0.0698883 -0.06359169 0.06706382 0.073126875
0.05385051 0.011715181 0.01862456 0.025545707 0.088054925 -0.023325607 -0.009121482 0.011573524
-0.006508537 -0.033927597 0.080711015 -0.03679498 0.10311364 0.09563539 -0.048603352 -0.07224361
-0.04567549 0.0180085 0.031837165 0.020582573 0.05376515 -0.04478015 -0.08513759 0.025584219
0.03458075 -0.07182606 -0.11141414 -0.020887371 0.017759806 -0.093049526 0.017739493 -0.05005263
-0.061896242 8.561342e-05 0.021651782 -0.03551828 -0.023678679 0.045498773 -0.068102255 -0.06384289
-0.067080855 0.06552252 0.05145701 0.04256942 0.05886891 0.004485172 -0.03049068 0.06114473
-0.011357678 -0.015969278 -0.011868989 -0.056913964 -0.012243328 -0.04525185 -0.045261774 0.035424314
00000000: 127a 803d a84d 9bbd 49f6 ba3d 8b44 20bc
00000010: 4fd8 9dbc 1c30 673d bda2 d13c eca3 683d
00000020: 5eb9 88bd 1555 c5bd 3c49 2a3c fe0a a43c
00000030: b30f 35bd 678f af3c 3aa9 01bc 893a b4ba
00000040: 061c 9cbc a8d1 bcbd 5c8d 42bd 67a3 6c3c
00000050: 7830 1ebc ebbd f43c 8f3a 0c3d f918 39bc
00000060: 7526 7abd 1584 2f3d ac99 f03c 32d9 a83c
00000070: eb93 3a3d 1ca8 17bd 5424 21bd 0b8e 2b3d
00000080: e109 3dbd a895 493c a0b1 f0bc 52f8 2abd
00000090: da11 56bd db62 22bc d500 d93c 77c4 28bd
000000a0: 9c36 9b3d 2a7a 25bd bbdc cb3d d804 b63b
000000b0: 2cdb e23c a2cd a0bd 81cf 44bd 2c3d 8cbd
000000c0: 2176 083d 4289 e1bd b514 113c e87e 113d
000000d0: 10bd adbd 8ef5 0dbd 85c2 563c 6a55 903d
000000e0: 7da6 ae3d 02c8 1fbb a96b 39bc 9356 963d
000000f0: bf7c f4bb 21cd 2a3b 2394 5abd 121d 5bbd
00000100: 2c48 6f3d fe7a fcbc 5aa6 bebc 891f 9e3d
00000110: cbae 07bc 0d46 93bd a84c 023a 4220 a63d
00000120: cbbe 243d 5d4a 9c3c 8ce5 4bbd 209a 8bbd
00000130: d2e9 203c 7645 953c 6fb4 1e3d 76fd cc3c
00000140: 6592 ac3c 522c a43d 701c 30bd d66d fe3c
00000150: 078f 75bd 7fbd 363d d20e a6bc c139 b33d
00000160: d8fc 483d 845b a1bd 7b5e dd3c 5ee4 e8bd
00000170: 1095 233d 3e89 413d 0c1f a73d 30ae 963d
00000180: 5fd5 82bd 646a d1bc 336e 383d e019 c73c
00000190: fb57 6f3d bbda e33d 4193 873d 9873 913d
000001a0: 4288 e8bb f468 dbbd c7c1 4bbd 5a3f 1fbd
000001b0: c410 da3d 4a2f b9bd be54 c23d 7ad0 eabc
000001c0: 4255 63bc ab0e d3bc 477d 093d fe78 1dbd
000001d0: c309 a5bc 84b9 01bd 96ed a43d 29aa 003b
000001e0: 163a 303d 6cb1 7e3c 18eb a4bc 63f1 b83c
000001f0: 9a6e ed3c 2925 8e3d e2e5 d33d 9cb1 87bd
00000200: a601 52bd f767 ee3c 6d3e c8bd f432 e73b
00000210: c837 78bd 65da 673d 9053 973c 171a b53c
00000220: f403 e8ba a046 a1bd 9424 18bd 8486 a53d
00000230: f01d cbbb e7b3 053c d35c fabb 9081 763d
00000240: 9482 8bbd 2768 7fbd d8e7 4abd 8d02 333d
00000250: 50d1 4e3d 64f4 acbc 8460 e9bc 8858 74bd
00000260: f59b 36bd a95b 773c e621 cabc cd83 403d
00000270: 22a5 d73c b1dd 943c f73b dabc 4558 973d
00000280: 96e4 a2bd 826a 43bd de73 9cbd e25c cb3c
00000290: 45d8 2bbd 260c b3bb 6909 df3d b46c c33b
000002a0: 2499 9cbc 9abf b03d a512 7abd 4932 323d
000002b0: 1b1c 47bd db09 bdbc be43 683d 45fe 8cbd
000002c0: 2dee 863d 74a5 6d3d f595 b83c 911d 533d
000002d0: c10d 313d 5a11 a03d 8652 8fbd fef7 71bd
000002e0: c0a7 1bbc 0cfd 31bc e5f5 aa3c f3cd 9bbd
000002f0: a744 d93a b2c6 0fbb 21a0 6abd 5c7c 943b
00000300: 46dd 38bd f74d 093d b2c4 7e3d 12a3 393d
00000310: 9921 8fbd 5c3c 82bd c258 893d 8bc3 953d
00000320: 5a92 5c3d 08f1 3f3c 8992 983c 3b45 d13c
00000330: 2456 b43d 5815 bfbc 4572 15bc e19e 3d3c
00000340: 9145 d5bb aaf7 0abd d14b a53d 55b6 16bd
00000350: 3e2d d33d 7ddc c33d 4f14 47bd 75f4 93bd
00000360: 3916 3bbd 9086 933c b067 023d c99c a83c
00000370: d938 5c3d 646b 37bd 9e5c aebd ff95 d13c
00000380: 8ba4 0d3d 8b19 93bd 192d e4bd fe1b abbc
00000390: 037d 913c c090 bebd 6a52 913c fd03 4dbd
000003a0: ea86 7dbd 5b8b b338 145f b13c 9e7b 11bd
000003b0: caf9 c1bc ec5c 3a3d 3279 8bbd 10c0 82bd
000003c0: b061 89bd ac30 863d 96c4 523d 465d 2e3d
000003d0: 8720 713d 5af8 923b 97c7 f9bc e572 7a3d
000003e0: 8e15 3abc 01d2 82bc 2676 42bc 9e1e 69bd
000003f0: 3d98 48bc 015a 39bd 6964 39bd 1619 113d

bias f4 [32]
0.048119925 0.04028873 -0.026166638 -0.08217631 -0.07692362 -0.017440202 -0.038598593 0.013639266
-0.03416771 0.05519807 0.047161523 -0.054207213 0.059803702 0.019175285 0.06848529 0.022264864
-0.008690296 0.068196885 0.06093895 -0.061962504 0.077619396 -0.017931666 -0.050106708 -0.08887167
-0.025537804 0.04973547 0.10256719 -0.011262933 -0.0064510712 0.036614012 0.09060892 -0.02388531
00000000: 6619 453d cc05 253d 6b5b d6bc 0e4c a8bd
00000010: 228a 9dbd c1de 8ebc 8f19 1ebd 3a77 5f3c
00000020: 71f3 0bbd 5f17 623d 712c 413d 6208 5ebd
00000030: baf4 743d 7d15 9d3c 0442 8c3d ce64 b63c
00000040: be61 0ebc cfaa 8b3d 1f9b 793d 65cc 7dbd
00000050: ebf6 9e3d 6ee5 92bc b13c 4dbd 5a02 b6bd
00000060: a834 d1bc 6cb7 4b3d bf0e d23d 2a88 38bc
00000070: 8263 d3bb 93f8 153d 2b91 b93d 20ab c3bc

weight f4 [8, 32]
-0.11548224 0.11589334 -0.023195108 -0.13328442 -0.027620545 0.102534816 0.04072161 -0.11267947
0.18576829 -0.08687334 -0.10141375 0.160472 -0.01326868 0.0013526584 -0.003756857 -0.12605329
-0.17570384 0.101876445 0.032711875 -0.11281997 -0.015270537 -0.031566076 -0.021882266 -0.13354816
0.104513034 0.12664361 -0.03574748 0.17589857 0.11784949 -0.17148267 0.040703975 -0.022255156
0.21128593 0.102553174 0.0110743325 -0.08722132 0.010455144 -0.042711124 0.053415474 0.1051362
-0.119148046 0.04087201 -0.01588432 -0.16377616 0.14920844 0.1256143 0.043512177 0.11899525
0.11120203 -0.110271886 0.057882197 0.19370878 -0.026798647 -0.11203349 -0.17541145 -0.019044727
0.06897703 0.08550273 0.024630135 -0.00779367 0.10505926 -0.021264387 -0.11053374 0.0848938
0.12547542 0.092823096 -0.16145408 0.16142543 -0.025051616 -0.119078696 -0.05703748 0.1643034
0.043781485 -0.12009007 -0.08078725 0.07323845 -0.08900288 0.16211234 0.053058922 -0.058594387
0.11096587 -0.026703753 -0.036407493 0.09358565 0.09637874 0.110821046 0.09991036 -0.06450049
0.012308976 0.072449856 -0.06711711 -0.08210276 -0.032570288 -0.14585301 -0.0071119387 0.12632744
0.19087824 0.08109887 -0.16943179 0.120882794 -0.057550445 -0.11628086 0.037721857 0.18562347
0.11494611 -0.0022182274 0.05461293 -0.04751148 -0.09675539 -0.04537005 -0.15801767 0.049697127
-0.10075959 0.19571228 0.021515511 -0.15775374 -0.043607414 0.092424355 0.048842933 -0.012187492
-0.09100809 -0.07129636 0.03180733 0.017010096 0.036076147 -0.06789773 -0.092918575 0.08377714
0.19376849 -0.12764989 0.09707949 0.098945186 0.18441921 0.18931587 0.018208021 0.15492576
-0.123849474 -0.15195645 -0.057662103 -0.030864945 0.010642496 -0.018477004 0.10985511 -0.08816961
0.011568525 0.16971475 -0.08615716 -0.06572586 0.03576051 0.05586845 -0.18201463 -0.146514
-0.14702663 0.08562396 -0.023362407 -0.16802569 0.021440556 -0.1236023 -0.06329763 0.11335913
-0.17846054 -0.02842252 -0.12007094 -0.006736814 0.12839057 -0.14589477 0.053727977 0.002748136
-0.14292178 0.15537468 0.15266794 -0.0016493262 -0.18776722 0.13748823 -0.0013618995 0.096590385
0.16510601 -0.13012502 0.06002141 -0.039762273 0.08960991 -0.06577246 -0.101537175 0.17332165
-0.20760572 0.09135738 -0.18594344 -0.1794693 0.1011104 0.08500031 -0.08203564 -0.16486192
-0.12873153 0.1934221 0.054323733 -0.07338133 -0.04695713 -0.13405472 0.051024858 -0.14122562
-0.14099167 -0.06016318 -0.19570172 -0.13628042 0.083516166 -0.0608362 -0.103732444 -0.044613957
0.06578689 0.017246127 0.08762064 0.1161239 0.10217703 -0.13531828 0.18859705 0.16657506
0.047501322 -0.11896948 -0.0150619345 -0.14241819 0.19283132 0.021790735 0.09202396 0.05281793
-0.03521724 -0.12612225 -0.14848246 0.13709475 -0.019209946 -0.10103277 -0.17578325 0.013912865
-0.09820887 0.14886202 0.15133524 -0.10764614 -0.07933331 0.022269512 0.10307463 0.0124346735
0.20299742 0.15280533 0.06251019 -0.038471796 -0.11274884 0.030057691 0.024942486 0.044996023
-0.113649726 -0.13236101 0.00094421086 0.10662423 -0.08996317 -0.043556903 0.049499817 -0.16507159
00000000: f481 ecbd 7d59 ed3d ab03 bebc b67b 08be
00000010: 7b44 e2bc c6fd d13d b4cb 263d 7ec4 e6bd
00000020: 0b3a 3e3e a6ea b1bd 03b2 cfbd c652 243e
00000030: e164 59bc af4b b13a 9a35 76bb 1d14 01be
00000040: b5eb 33be 99a4 d03d e3fc 053d 280e e7bd
00000050: 4631 7abc 6e4b 01bd 7042 b3bc d9c0 08be
00000060: ee0a d63d ddae 013e f36b 12bd c11e 343e
00000070: 135b f13d 2799 2fbe 36b9 263d 7250 b6bc
00000080: 575b 583e 6607 d23d 1e71 353c 17a1 b2bd
00000090: 0d4c 2b3c dcf1 2ebd 2fca 5a3d a651 d73d
000000a0: e403 f4bd 6969 273d d51f 82bc f0b4 27be
000000b0: 19ca 183e 09a1 003e d339 323d c8b3 f33d
000000c0: e4bd e33d 3ad6 e1bd e215 6d3d 985b 463e
000000d0: d688 dbbc d071 e5bd 0f9f 33be b003 9cbc
000000e0: d443 8d3d 0e1c af3d 23c5 c93c 0b62 ffbb
000000f0: 4f29 d73d a732 aebc 835f e2bd cddc ad3d
00000100: a17c 003e 091a be3d 3854 25be b54c 253e
00000110: 0c39 cdbc 88df f3bd 22a0 69bd 273f 283e
00000120: 3754 333d c8f1 f5bd c973 a5bd 0afe 953d
00000130: 2447 b6bd c700 263e 5054 593d ab00 70bd
00000140: 1342 e33d d4c1 dabc 0620 15bd d5a9 bf3d
00000150: 3862 c53d 25f6 e23d ce9d cc3d d518 84bd
00000160: 96ab 493c 9760 943d b274 89bd 7e25 a8bd
00000170: 6c68 05bd 7e5a 15be 440b e9bb fb5b 013e
00000180: 9675 433e 2a17 a63d 877f 2dbe 6691 f73d
00000190: 04ba 6bbd a924 eebd 3c82 1a3d 1414 3e3e
000001a0: de68 eb3d ae5f 11bb cfb1 5f3d 669b 42bd
000001b0: b127 c6bd f2d5 39bd 62cf 21be 378f 4b3d
000001c0: 0b5b cebd cd68 483e 4c41 b03c 328a 21be
000001d0: b09d 32bd fb48 bd3d 870f 483d 0cae 47bc
000001e0: 7362 babd d303 92bd 6748 023d c258 8b3c
000001f0: 95c4 133d f70d 8bbd 184c bebd 5993 ab3d
00000200: 3f6b 463e a7b6 02be 9dd1 c63d c6a3 ca3d
00000210: 64d8 3c3e 05dc 413e fd28 953c dca4 1e3e
00000220: cba4 fdbd 799a 1bbe 192f 6cbd 7bd8 fcbc
00000230: dd5d 2e3c 165d 97bc b7fb e03d 4592 b4bd
00000240: e989 3d3c b4c9 2d3e 2a73 b0bd 489b 86bd
00000250: 9d79 123d 51d6 643d 0b62 3abe c407 16be
00000260: 268e 16be 9d5b af3d 8562 bfbc ed0e 2cbe
00000270: 1ba4 af3c 3423 fdbd 30a2 81bd d528 e83d
00000280: 5cbe 36be 58d6 e8bc c1e7 f5bd 7ec0 dcbb
00000290: d178 033e 7065 15be de11 5c3d 121a 343b
000002a0: 165a 12be 8a1a 1f3e fc54 1c3e 342e d8ba
000002b0: 0d46 40be b7c9 0c3e c481 b2ba 2ed1 c53d
000002c0: 8d11 293e 7e3f 05be 03d9 753d c4dd 22bd
000002d0: 6785 b73d b6b3 86bd b9f2 cfbd 3b7b 313e
000002e0: 9896 54be 9419 bb3d f567 3ebe cdc6 37be
000002f0: f812 cf3d a414 ae3d 4d02 a8bd 90d1 28be
00000300: 33d2 03be 7110 463e 9082 5e3d f348 96bd
00000310: 1f56 40bd a445 09be 71ff 503d 739d 10be
00000320: 1f60 10be ab6d 76bd 0866 48be 188d 0bbe
00000330: 860a ab3d 612f 79bd ad71 d4bd 20bd 36bd
00000340: 47bb 863d c047 8d3c 7372 b33d 5ed2 ed3d
00000350: 3142 d13d e090 0abe 961f 413e a792 2a3e
00000360: bf90 423d 45a6 f3bd 55c6 76bc 13d6 11be
00000370: 9375 453e 7c82 b23c 0f77 bc3d 9d57 583d
00000380: f43f 10bd 3126 01be c90b 18be 9162 0c3e
00000390: 2d5e 9dbc 45ea cebd 8600 34be c9f2 633c
000003a0: bb21 c9bd 496f 183e a0f7 1a3e 9475 dcbd
000003b0: 8179 a2bd 8d6e b63c cb18 d33d cdba 4b3c
000003c0: 8ede 4f3e 0079 1c3e 5805 803d 9a94 1dbd
000003d0: dde8 e6bd 8c3b f63c 2f54 cc3c c04d 383d
000003e0: 30c1 e8bd a589 07be eb84 773a ce5d da3d
000003f0: 9c3e b8bd b968 32bd 52c0 4a3d 8708 29be

bias f4 [8]
0.0710803 -0.05051221 0.17778195 -0.037211776 -0.09633962 0.014988457 -0.100651614 0.1176739
00000000: 8c92 913d e4e5 4ebd 790c 363e 606b 18bd
00000010: b54d c5bd 2592 753c 6f22 cebd 04ff f03d

weight f4 [32]
1.0509856 1.0295078 0.9953856 0.97756714 1.0054294 1.0133008 1.0108259 1.0470229
0.98754764 1.0109177 1.032227 0.991886 1.0145074 0.9852418 0.9820459 0.99373555
1.0303366 1.0179609 0.998798 1.0201749 0.95050967 0.9756492 1.02597 0.9793408
1.0065087 0.9955842 1.0086125 0.9803111 1.0029424 0.98843944 1.0001107 0.98247975
00000000: b286 863f e9c6 833f 97d1 7e3f d741 7a3f
00000010: e9b1 803f d7b3 813f be62 813f d904 863f
00000020: eccf 7c3f c065 813f 0420 843f 3eec 7d3f
00000030: 61db 813f ce38 7c3f 5c67 7b3f 7465 7e3f
00000040: 12e2 833f 8b4c 823f 3ab1 7f3f 1795 823f
00000050: 9a54 733f 25c4 793f fc52 833f 14b6 7a3f
00000060: 47d5 803f 9bde 7e3f 371a 813f abf5 7a3f
00000070: 6b60 803f 5e0a 7d3f a103 803f cb83 7b3f

bias f4 [32]
0.017866222 0.01215827 -0.0093121845 -0.00839382 -0.033168238 -0.012212477 -0.013947872 -0.039150354
0.0017977651 0.0035072134 0.03876916 0.0036401448 0.06772052 0.033668283 -0.017110415 -0.013661348
-0.002515339 -0.014466076 -0.026997276 0.011790355 -0.039417 -0.038268644 0.0028546983 -0.0167356
0.03333027 0.012446807 0.054628212 -0.029352551 -0.0041223452 0.014456084 0.04337471 0.029338699
00000000: 2f5c 923c 7b33 473c 2292 18bc 3c86 09bc
00000010: 6bdb 07bd d716 48bc 9e85 64bc 1f5c 20bd
00000020: fda2 eb3a 47d9 653b 69cc 1e3d 7f8f 6e3b
00000030: 0eb1 8a3d c1e7 093d 242b 8cbc d9d3 5fbc
00000040: 63d8 24bb 1f03 6dbc 6429 ddbc 552c 413c
00000050: b873 21bd 95bf 1cbd e415 3b3b 1919 89bc
00000060: 5285 083d b1ed 4b3c d5c1 5f3d c374 f0bc
00000070: bd14 87bb 36d9 6c3c aea9 313d b657 f03c

running_mean f4 [32]
-0.7623743 -0.039831787 -0.5866588 -0.2699119 0.006158892 -0.0729702 -0.2709501 -0.11445693
0.04064882 -0.48777148 -0.26718482 -0.03673981 -0.7294304 -0.3824526 0.25017956 -0.35915458
-0.24538302 0.39640334 0.54835653 -0.15858012 -0.1718429 -0.45849723 0.09108427 0.16218382
-0.33176085 0.46731672 -0.46339744 -0.5661285 -0.45440185 0.035463244 -0.394299 -0.743919
00000000: f62a 43bf a826 23bd 452f 16bf e431 8abe
00000010: 88d0 c93b 6671 95bd f9b9 8abe 6568 eabd
00000020: 617f 263d 2fbd f9be 73cc 88be 7c7c 16bd
00000030: f3bb 3abf d4d0 c3be 8917 803e 1ce3 b7be
00000040: b045 7bbe 61f5 ca3e 1861 0c3f d462 22be
00000050: 96f7 2fbe 26c0 eabe 648a ba3d 8413 263e
00000060: 8fdc a9be 2344 ef3e 6e42 edbe cced 10bf
00000070: 5ca7 e8be e841 113d 8fe1 c9be 7a71 3ebf

running_var f4 [32]
0.1318478 0.15795127 0.19127283 0.23098494 0.081344694 0.25131395 0.07970202 0.10784415
0.24587047 0.20718852 0.37581298 0.19269194 0.37085667 0.22256394 0.09087541 0.18341552
0.1904295 0.19557858 0.12817773 0.15730824 0.35305622 0.27752015 0.17697309 0.20724706
0.32445824 0.22300164 0.24226943 0.32478055 0.079066254 0.2402411 0.19893414 0.15046453
00000000: 1c03 073e fabd 213e 06dd 433e 5187 6c3e
00000010: 0c98 a63d 39ac 803e d03a a33d 65dd dc3d
00000020: 78c5 7b3e 3a29 543e 8f6a c03e 0951 453e
00000030: ede0 bd3e cde7 633e e31c ba3d 47d1 3b3e
00000040: f3ff 423e c045 483e 0641 033e 6915 213e
00000050: c9c3 b43e 1f17 8e3e 6f38 353e 9338 543e
00000060: 641f a63e 8b5a 643e 7a15 783e a349 a63e
00000070: 7ded a13d c301 763e 64b5 4b3e 6013 1a3e
