code/model_obj_backups/model_obj_58.pt (torch, 538274 bytes, 158 tensors)

weight f4 [32, 2]
00000000: 980c 183f 9d61 1fbf 2423 e13d 9aab 3f3e
00000010: 42c4 cabe e1f6 3e3e 57eb 023d 3338 0a3f
00000020: 742b a93e d244 94be 8645 2bbf 809c c73c
00000030: 9a59 133f 378f ea3b 182f ed3e 1847 d03e
00000040: 577d cd3c c797 203f aa07 e13d 130d 49be
00000050: 5f99 163f e91d 5f3e b9d7 743d 394d 2fbf
00000060: 8229 7ebd 5814 02bf efec 203f 445b ccbe
00000070: 4ec7 06bf 0a9e c3bd 4fe9 05bf d70b 413e
00000080: 5876 34bf f8be f03e 9a56 273f 7e13 d7be
00000090: ffad 0fbf daf9 fcbd dc1a c53d 79ed cabe
000000a0: c583 c7be 4b6e e2bd 51d8 433e 9521 23bf
000000b0: d020 d93e e095 a73e 6381 e8be 34ed 5fbe
000000c0: 20ed 2dbf 9d5c e13d 8dcc 613e af3b c2be
000000d0: 9346 883e 323b 89bd 4f68 1ebf 9b50 0e3f
000000e0: 603a db3c 1e60 a23e a594 2c3f d7b3 0dbf
000000f0: b642 f43e 279b de3e bba6 c33e d6cd 0ebd
0.59394217 -0.6225832 0.10993031 0.18717805 -0.39602858 0.18648864 0.03196272 0.53992003
0.33040965 -0.28958756 -0.6690296 0.024366617 0.57558596 0.007158186 0.46324992 0.4067924
0.02508418 0.62731594 0.1098779 -0.19633894 0.58827776 0.21788754 0.05977604 -0.6847721
-0.062051304 -0.5081229 0.6286153 -0.3991338 -0.52647865 -0.09551628 -0.52309126 0.18852173
-0.7049308 0.47020698 0.6536652 -0.4200706 -0.5612487 -0.12352343 0.09624264 -0.39634302
-0.3896772 -0.11056193 0.19125487 -0.6372312 0.42407846 0.32731533 -0.45411214 -0.2186783
-0.6793995 0.11003993 0.22050686 -0.3793616 0.26616344 -0.06700744 -0.6187791 0.55591744
0.026761234 0.31713957 0.67414314 -0.5535254 0.47707146 0.43477747 0.38213143 -0.03486427

bias f4 [32]
00000000: 419a 84be 1a16 0e3f 7a4d 20bf e16c 71bd
00000010: fe92 223d 1359 b73e 1605 6a3e 883e 043e
00000020: 053b 1bbf a10d d1bd 9a19 0abf d6f4 18bf
00000030: 29e9 6abd 133e 0a3f 1618 26be 1653 003f
00000040: 654e f13e 0444 15be 964f 023f 73d3 f93d
00000050: bfee e3bd 19e2 80be a73e ef3d 94cd 003f
00000060: 5d5e 84be d0e2 8b3e 2840 1d3f 0271 93bc
00000070: a5cb 1dbf 5e41 83bd 5e1d 9abe bb81 003f
-0.25898936 0.55502474 -0.6261822 -0.058941726 0.039690964 0.35810146 0.22853503 0.12914479
-0.6063693 -0.10207678 -0.53945315 -0.5974859 -0.057351265 0.5400097 -0.16220126 0.5012678
0.47130123 -0.14576727 0.5090269 0.12198534 -0.111295216 -0.251725 0.11681872 0.5031369
-0.25853243 0.27321482 0.6142602 -0.017998222 -0.6163886 -0.06408952 -0.3010053 0.50197953

weight f4 [16, 32]
00000000: 5843 ae3d 64e8 233e 9654 27be a8b8 213e
00000010: 06bd 11be 51c5 5d3d 58b3 e3bb 9955 68bd
00000020: 89be 34bb 04b9 b038 0bfb 243e bc7a be3c
00000030: aeeb 0a3b 8b3b e5bd 1733 19be af5d 1fbe
00000040: 6ee3 a83b ec38 a4bd eeeb 2cbd d274 35bd
00000050: 6b01 99bc 6fc3 00be 1723 d9bd 5891 233d
00000060: a062 ccbd 20e9 9cbd 53c6 22be f0d6 5d38
00000070: f3cd f13c c505 8cbc a21f 10be d3a7 2ebe
00000080: f2d7 023e 8f87 ed3d 47c5 b7bd acbd 30bc
00000090: 34a2 023d 766a 10be 0791 19bd e488 f8bd
000000a0: 66b8 ca3d 75fe 6bbd 25eb 2b3e eed3 bf3d
000000b0: 54de 2a3e 750d 0a3b 7bd3 09be 8f2c b3bc
000000c0: cf64 113c 3203 b03d 130f 223e 7b37 6dbd
000000d0: 51eb 093e d71d 19be 733d adbd 228b 85bb
000000e0: c664 173e 2744 153e 5197 8c3d 829a e53d
000000f0: 92df 13bd c9cd 32be 34ab 3bbe dd9e 083e
00000100: b68d 40bd a7f3 0abd 7f63 da3c a80b 473c
00000110: 1a89 59bd 5a7d 273c 0b66 e1bd 8f3f 0dba
00000120: d681 013e ed99 4ebd 8638 f2bd caa9 c0bd
00000130: ade8 d93d 43c2 10be bbc1 713d 2baf 533d
00000140: da8d 35be ef47 7dbd 0c64 643d 8bd6 5ebd
00000150: 25cd 28bd ab4f 213b 7789 e73c db52 c53d
00000160: 472a 2cbe 0cf1 3c3d 429a 78bd 0833 22be
00000170: 4e7f 8b3d f4d3 6ebd 577e a0bd aa80 ef3d
00000180: b635 79bd c482 3a3e bad1 0bbe 79f8 19bd
00000190: 2efc eb3c 4dae 52bb 8a2d 883d 6530 273e
000001a0: 24be 23be 4e58 613d 2b56 0f3e f1b8 26bd
000001b0: a9d2 dfbc a2f2 f53d d44e 63bc 917c 113e
000001c0: 9d46 0e3e 438e 8a3d d8d2 a9bd 23be eebd
000001d0: 6691 e0bd 38df e7bd 72c3 af3c 233d 24be
000001e0: 1193 0fbe 29bc 333d b6cc b4bd 4642 1d3d
000001f0: 7a15 77bd 65b1 2e3e 3a8c 0b3b 588b 523c
00000200: 15b8 633d 2635 143e ab42 4b3d 9eb8 db3d
00000210: 8410 4cbe 4c03 33bd d0ae fc3c 6162 683c
00000220: 116f d43d 2bd6 963d 75cc a2bd 8544 0bbc
00000230: 0c0a 39be f1d5 a93d 055b b0bd f03a 383c
00000240: 8c26 003d 62dc d9bd ab69 c9bd 77a9 cf3d
00000250: a76a dcbb 606c 8d3c 79a3 0dbe 5065 953d
00000260: 0205 bcbd f941 a63d 6913 e1bd 8b2b f03d
00000270: 417a 3c3e 5c6d 163e 4203 043e 0f48 38be
00000280: f3bd b23d 28d0 1c3e 2a9b 093e 74e4 42be
00000290: 398d 97bc dc89 eabd cf81 d9bc 83f8 113e
000002a0: db67 1abe 5675 09be b95e 9abd a4ba 4bbc
000002b0: dca1 523e 687c be3c fa75 84bd 962e 933c
000002c0: 6901 33be 2a0f 0abe 45e9 923d fcf8 86bd
000002d0: 8c16 2f3e 2cb9 2e3e 0edb 1ebd cdc6 acbd
000002e0: f379 2a3e 21c2 133e 823f 3d3d fe0e 3abe
000002f0: 8694 fabd d39f 163e 9a68 c43d 4269 d4bd
00000300: c997 30be 1eb4 913d 481b f5bd 89a9 10be
00000310: 7a30 483d 004f 4b3d fcee c03d 6195 ef3c
00000320: cffb 0bbe e02b a83b a167 193e 39aa 24bd
00000330: 13b5 313e 874a 5dbd 2713 ee3d 31f6 08be
00000340: 1936 0bbe b195 9f3d 84f1 113e 44e8 fcbc
00000350: e905 013e c39b 943d 6e59 1a3e 0e6d 0cbe
00000360: 84e4 eb3d 9fbe 8dbd d641 033e 5538 f6bc
00000370: 5ea2 223e e03e 06be d40f 04bb 8e1f 283e
00000380: 0917 5f3d b2b2 1e39 d165 133d 29c9 b03d
00000390: 44c7 dbbd 46c9 0e3e abec 463d f639 a33d
000003a0: 4f6c e8ba 2174 253e 7559 0dbe 6158 a33d
000003b0: b271 b5bc ab8a 18be 9d86 433c be05 0cbd
000003c0: 9188 30be c6fd 323c 7334 2bbd 27d3 e7bd
000003d0: 53ef 393c 304f 1e3c 867d ff3d 39b1 01be
000003e0: f4cf d5bd 6fc7 153e 6b38 163e cd6b 79bd
000003f0: e6b3 cbbc 3eb3 12be 1567 33bc aa22 44bd
0.085089386 0.16006619 -0.1634086 0.15793097 -0.14232263 0.054143254 -0.0069488697 -0.056722257
-0.0027579388 8.426796e-05 0.1611139 0.023251884 0.0021197605 -0.111929975 -0.14960895 -0.15563081
0.005154065 -0.080186695 -0.042217188 -0.04430086 -0.018677434 -0.12574552 -0.10602396 0.039933532
-0.09979749 -0.076616526 -0.15895967 5.2890682e-05 0.02951715 -0.017092595 -0.14074567 -0.17056207
0.12777689 0.115981214 -0.089731745 -0.010787409 0.03189297 -0.14103112 -0.037491824 -0.12135485
0.098984525 -0.057615716 0.1678892 0.09366594 0.16686374 0.002106515 -0.1345958 -0.021871833
0.008874132 0.085943595 0.15826063 -0.05791424 0.13468672 -0.14952789 -0.08458986 -0.004075424
0.14784536 0.1457678 0.06864799 0.11211111 -0.036101885 -0.17461313 -0.18327028 0.13341852
-0.047010146 -0.03392377 0.026658772 0.012148775 -0.053109266 0.010222757 -0.11005791 -0.0005388194
0.12647185 -0.050439764 -0.11827187 -0.09407385 0.106400825 -0.14136605 0.059022646 0.051680725
-0.17729893 -0.06183618 0.055759475 -0.054403823 -0.041211266 0.0024614136 0.02826379 0.09634944
-0.16813003 0.046128318 -0.060693987 -0.1583978 0.06811391 -0.058307603 -0.078365974 0.116944626
-0.06084224 0.18213946 -0.13654223 -0.037590478 0.028806772 -0.0032147348 0.06649311 0.16327055
-0.15990502 0.055015855 0.13997714 -0.040703718 -0.02732213 0.12009169 -0.013873775 0.14207675
0.13894124 0.067654155 -0.082921684 -0.116573595 -0.109652326 -0.113218725 0.0214555 -0.16038947
-0.14020945 0.043880615 -0.08828108 0.03839328 -0.060323216 0.17059858 0.0021293298 0.012850605
0.055595476 0.144734 0.049624126 0.10728572 -0.19928175 -0.043704316 0.030845076 0.014183612
0.10372747 0.07365068 -0.07949153 -0.008500223 -0.18070239 0.08292759 -0.086111106 0.011244521
0.03128676 -0.10637738 -0.09834608 0.10139745 -0.006726581 0.017263591 -0.13831891 0.072947145
-0.09180643 0.08118052 -0.1099003 0.11727055 0.18406011 0.14690155 0.12891868 -0.17996238
0.08727636 0.1531378 0.13438097 -0.1903246 -0.018499957 -0.11452076 -0.026551155 0.14254956
-0.1507868 -0.13423666 -0.07537598 -0.012434635 0.20569557 0.02325268 -0.06467815 0.01796655
-0.17481007 -0.13482347 0.07173399 -0.06590459 0.17098445 0.17062825 -0.038783126 -0.08436356
0.16648082 0.14429523 0.046203144 -0.18169782 -0.1223536 0.14709406 0.09590264 -0.10371639
-0.17245401 0.07114433 -0.11968094 -0.14127173 0.048874356 0.049635887 0.09420583 0.029246034
-0.13670276 0.0051321834 0.14980938 -0.0402014 0.1735423 -0.054026153 0.11624747 -0.13375165
-0.13594855 0.07792223 0.14252287 -0.030872472 0.12599911 0.07256272 0.15073177 -0.13713476
0.11518195 -0.06921124 0.12818083 -0.030056158 0.1588225 -0.13109922 -0.0020151036 0.16418287
0.054465327 0.00015134623 0.03598577 0.08632118 -0.10731366 0.13943967 0.048565548 0.079700395
-0.0017732474 0.16157581 -0.13803656 0.07975841 -0.02214894 -0.14896648 0.01193395 -0.034185164
-0.17239596 0.010924762 -0.041798066 -0.11319571 0.011348563 0.009662434 0.124751136 -0.12665261
-0.104400545 0.14626859 0.14669959 -0.060893822 -0.024866056 -0.14326188 -0.01094987 -0.04788462

bias f4 [16]
00000000: 66da 123e e5f7 cebd a2e6 a93d 439b 1cbd
00000010: 296f ddbc 1742 bebd 05e6 3dbd 3178 f83c
00000020: 28bd 33be 4d52 2d3e 354b b1bd 003f 173d
00000030: 6edc 0ebe f1bb d53d cdc0 313e 85e1 b93d
0.14341125 -0.10105876 0.08295943 -0.038234007 -0.027030544 -0.092899494 -0.04636194 0.03033075
-0.17552626 0.16925927 -0.08656923 0.036925316 -0.13951275 0.104362376 0.17358704 0.090762176

weight f4 [32]
00000000: 3dff 7d3f bbab 813f e97e 803f b53a 7e3f
00000010: fb8a 813f 58d8 783f 5283 7f3f b58f 7f3f
00000020: cfd0 7c3f 9fa4 7f3f ec23 813f 8b04 7a3f
00000030: 7fbd 823f aeac 803f 08d4 7c3f 62f9 7b3f
00000040: 0abf 843f 6399 833f 7685 803f a891 7d3f
00000050: 0ee5 7f3f 8534 793f 6b08 7b3f c6ec 7b3f
00000060: 59cb 813f 5e38 813f 0085 7e3f 4c59 823f
00000070: f8b0 7c3f 61da 793f 1b8f 823f 6c82 7f3f
0.9921759 1.0130533 1.003873 0.9930833 1.0120538 0.97205114 0.99809754 0.99828655
0.98756117 0.99860567 1.0089087 0.9766318 1.021408 1.0052698 0.98761034 0.984274
1.03708 1.0281185 1.0040729 0.9905038 0.99958885 0.97345763 0.9805972 0.9840816
1.0140182 1.0095327 0.9942169 1.0183501 0.9870753 0.97598845 1.0199922 0.99808383

bias f4 [32]
00000000: d758 98bd a332 72bd 8aad bf3c 6192 80bb
00000010: 89c8 3dbb bb39 5abd b2e7 4abd 9ba4 843b
00000020: 7f03 14bd fe5b c5bc d0a3 d93c 63f5 29bc
00000030: ac7e 423c 8c88 8ebd 27a4 31bc b499 a13c
00000040: 4c4c 8c3d 4e37 083c d4a4 1abd 14b6 d6bc
00000050: 6aac a43c 2f4c 61bd e32f b7bd c169 31bd
00000060: 54a6 0a3d d981 b3bb 4da2 173d e5e2 573c
00000070: d20c caba 2aa9 e23a 0e95 3c3d fbf3 edbc
-0.0743882 -0.059130322 0.02339818 -0.0039236997 -0.002895864 -0.053277712 -0.049537368 0.004047943
-0.036136147 -0.024091717 0.02656737 -0.010373446 0.011871021 -0.06959638 -0.01084236 0.019726612
0.0685049 0.008313967 -0.03775485 -0.026209868 0.020101745 -0.055004295 -0.089446805 -0.043313745
0.03385003 -0.0054781255 0.037020016 0.013176654 -0.0015415198 0.0017292846 0.046040587 -0.029047003

running_mean f4 [32]
00000000: 2a12 bbbe 1215 253f 2256 23bf 7ad5 123e
00000010: 4a55 923a 5471 6e3e bb84 b13e c55a bd3e
00000020: c153 bfbe fbb8 1abe ae41 afbe 117b 55bf
00000030: 7218 82be 8185 053f 92f2 9abe 0deb ed3e
00000040: 3c24 003f 30bf 2abe 77fb b33e a31b 1fbb
00000050: 561f 6bbe 619b e3be 513a a43e 3c4c aa3e
00000060: b2c8 b5be c256 383e 48ce 243f d110 743d
00000070: d5de fdbe 09bd 04be 1841 42bd 1cf8 103f
-0.36537296 0.64485276 -0.63803303 0.14339247 0.0011164334 0.23285419 0.34671578 0.36983314
-0.37368587 -0.15109627 -0.34229797 -0.8339091 -0.25409275 0.52156836 -0.3026319 0.46468392
0.5005529 -0.16674495 0.3515279 -0.0024277947 -0.22961172 -0.44454482 0.32075742 0.33261287
-0.3550468 0.18001845 0.6437726 0.05958635 -0.4958407 -0.12962736 -0.04742536 0.56628585

running_var f4 [32]
00000000: 503d 613e c33d f13b 53ef 543d 4051 843d
00000010: 0ac3 683d 32b1 c23d a9d2 8a3d b865 593d
00000020: 1702 b53d d678 713c 6a0f 803d 83c0 eb3d
00000030: 9d33 623d da69 213e e73e 533d a034 a43d
00000040: fd64 523e 480d 303e 70f8 6c3d c65e 343d
00000050: c155 e13c e8fd f53d e6aa 243d 3863 1c3d
00000060: 642b e13d a661 663d 21a4 973c b7fe 503e
00000070: 88ab b43c c430 643e 9884 6e3d 2783 053d
0.21996045 0.007362099 0.05198605 0.0646081 0.05682663 0.095064536 0.067784615 0.053075522
0.08838289 0.014738282 0.0625294 0.11511328 0.055225004 0.15763035 0.05157366 0.0801785
0.20546336 0.17192566 0.057854116 0.044035695 0.027506711 0.120113194 0.040202044 0.03818056
0.10994604 0.05624547 0.01851088 0.20409666 0.022054449 0.22284228 0.05823192 0.03259578

weight f4 [32, 3]
00000000: 55c8 a03e 5cc5 31be ebb2 49be 3822 6fbe
00000010: d92c 123d 3235 10bf cc69 fd3d 37fb bebe
00000020: 75a0 8ebe 0570 f13e 5371 f9be cbb9 ea3e
00000030: 61e6 803c c0c5 e5be 4e5b 8abe f84a 253d
00000040: 3d57 023d a2e7 69be 2bc1 04be 5988 14bf
00000050: d4a7 0e3f 54f3 38bf 66eb f1be 55df fdbd
00000060: adc8 d33e dc56 003f 493e 3fbe 4144 ea3e
00000070: f0c9 8bbe 2991 043f ae92 0bbe c7f3 be3e
00000080: c105 72bd 6ed1 1dbf c329 f33d feaf f03e
00000090: 0ee1 cbbd 4795 7ebe db27 043f 85ee c2bd
000000a0: 4bec 543e e74f 32be 9dc9 24bf 9ba3 a7be
000000b0: 3a90 c03e 1d38 59be b61a c23e f793 1fbe
000000c0: 45b3 46be b012 b6be 0d09 c03e 81e7 0e3f
000000d0: dc07 bf3d 106e 4bbe 11a7 813e f771 97be
000000e0: f0e5 0e3f c8aa febd 42be 8b3e bc9c 89be
000000f0: cc0f 093f 714f eebd a557 72be 7862 993e
00000100: 112b 9bbe bde2 adbe 71e4 943e 86c0 07bf
00000110: 6f3e 95bd 55cc 30bf 1a5a bb3e 39fb 873e
00000120: 560f cabd 5793 873e 32c2 c03e 2810 9dbe
00000130: 9717 ddbe 21f1 cdbe 262a 4bbf 7057 683e
00000140: e6ff 08bf 3efb 91be b054 14bf 153c 9c3e
00000150: 5d47 0e3f 488e b23e 5f8a 7bbc c2fa 3b3e
00000160: 9633 f2be 43bd c7bd 0af3 573e ed33 8abe
00000170: d58b 7f3d a530 d5be cfcb 213e d338 1cbe
0.3140284 -0.17360443 -0.19697158 -0.23352897 0.0356873 -0.5633117 0.12373695 -0.37301037
-0.27856794 0.47155777 -0.48719272 0.45844874 0.015734853 -0.44877434 -0.27022785 0.0403547
0.03182148 -0.22842267 -0.12964313 -0.5802055 0.55724835 -0.7224629 -0.47249907 -0.12396113
0.4136404 0.50132537 -0.18676104 0.457552 -0.27302504 0.51783997 -0.13630173 0.37295362
-0.05908752 -0.6164769 0.118732 0.4700927 -0.09955035 -0.24861632 0.51623315 -0.0951815
0.20793264 -0.17413293 -0.6437014 -0.3274201 0.37610036 -0.21212812 0.37911004 -0.15583788
-0.19404323 -0.35561132 0.37506905 0.55821997 0.09327671 -0.19866204 0.25322774 -0.29579136
0.55819607 -0.12434918 0.27293593 -0.2687739 0.5353973 -0.11636246 -0.23666246 0.29957938
-0.30306295 -0.3396205 0.29080537 -0.5302814 -0.07287299 -0.69061786 0.3659218 0.26558855
-0.09866206 0.264796 0.3764816 -0.3067639 -0.4318206 -0.4022303 -0.7936119 0.22689605
-0.5351547 -0.28511995 -0.5794172 0.3051459 0.5557764 0.34874177 -0.015352814 0.18357375
-0.47304982 -0.09752896 0.21088806 -0.2699274 0.062389214 -0.41638675 0.15800403 -0.15256052

bias f4 [32]
00000000: 7583 04bf c493 0fbf c9a8 b43e 1f52 eabe
00000010: 51bf 6a3e 5fcc 953e ee34 d0bd c2ba 5a3e
00000020: a183 50be 98bd 1bbd 6f37 0bbf 4c43 853d
00000030: 3a24 bebe 7717 97be 7496 ee3e a814 053f
00000040: 7fbf 1e3c 7b90 bf3c 613d 83be 5189 7e3e
00000050: b1fb 8dbe 635d 00be 484d 5b3e 192a 4bbe
00000060: f72b f9be 3fb8 b13d cc9e 0dbf cc3b 0a3f
00000070: 83a5 70be 23a5 ccbd f7f0 82be 16c4 01be
-0.5176309 -0.5608485 0.35285023 -0.45765778 0.22924544 0.29257485 -0.101663455 0.21360305
-0.20362712 -0.038022608 -0.5438146 0.065069765 -0.37137014 -0.2951009 0.46599162 0.51984644
0.009689211 0.023384323 -0.25632766 0.2485707 -0.27731088 -0.12535624 0.21416199 -0.19840278
-0.48666355 0.0867772 -0.5532043 0.5399749 -0.23500638 -0.09992435 -0.25574467 -0.12672457

weight f4 [16, 32]
00000000: 9575 d8bd 820a 1bbd a976 ca3d 75a9 063e
00000010: e2f5 8e3d e13e d83d b791 613c de72 c53b
00000020: b212 d2bd 0e38 a73d 537a 2fbe f7c9 88bd
00000030: 92be 25bd 4e9f ea3b bdd7 433d a9cd 84bc
00000040: b8f1 dd3c 149b 01bc c737 9fbd b64a e73d
00000050: 72d4 7cbb 06b8 23be 4ac0 2c3e 0192 81bd
00000060: 74e2 af3d c4ed 203e 85ad 58bd 64c1 cb3c
00000070: 48f9 563b 13ff 15be 2dde 133e fb14 0abe
00000080: 62fd 8c3d f59c 26bd 3131 6dbc c347 93bd
00000090: ca70 373d eae8 083e cafa 11bc 2ff6 fc3d
000000a0: 7060 953d 6452 8ebd a496 203d ea66 4dbe
000000b0: d4f3 b23d 21ad bebc 8720 10bd 66ad 7dbd
000000c0: 701f 31be b0e4 a4bd f2bf c1bd d8c1 043e
000000d0: 4b6c d53c 4aff c83d 0404 323e bb87 403d
000000e0: f5b6 f5bd 00d7 0b3c 5795 1ebd 3140 503d
000000f0: 89b6 0a3e 1756 84bd 6ac7 56bd 9486 063d
00000100: df0a a83d 17c3 3d3e c873 0f3e 221b 32bc
00000110: a4ec ff3c e350 93bd 6379 9bbd 8f48 d23d
00000120: 4f9a 1a3e 5e7c e33d 3669 4dbd 0956 2abe
00000130: b603 efbc 6a00 1d3d e051 0b3e 8bf1 54bc
00000140: 9b24 dabd bb37 b33d 13bb 2a3d b873 ef3d
00000150: 6bfa 90bd 8417 233e 98b3 ab3d f91e 22be
00000160: 6247 78bd db30 153e f2f4 d93d 0d6d 46be
00000170: 1be2 c73a 712f a1bd 05b5 f13c 2235 e0bd
00000180: a7b7 d63b 44b7 68bb e81e c53d 7044 c13d
00000190: afe9 30be ca79 123e 0b28 7ebd 0483 60bd
000001a0: 6702 d3ba 69c0 0a3d 66c4 68bd f442 d33d
000001b0: 2d13 f9bd 4eae bebd d174 e7bd f39e 9f3a
000001c0: d78b fdbd 8e01 16be d7ee 74bd a114 f2bd
000001d0: 770d 663d 97b4 d1bc b5d0 c63d ceef ed3d
000001e0: 7691 0a3e eb77 b33d c35c e13b 3ee0 21be
000001f0: 6c88 563d 5e7e 273d 3b31 983d db72 263e
00000200: e0cc 1cbc b97f a9bd 14af 96bc 039e f9bd
00000210: 644f c03c b840 c43d daa7 093e ffab 2a3e
00000220: 0674 e9bd 787f 38bd 0bfa 20be 9ddc 193d
00000230: afe9 c6bd 1b1b 00be cc65 9abd 4c32 30be
00000240: c223 35ba b9aa 03be d469 dcbc a51c 133e
00000250: 5e10 f53c de35 b9bd 1301 083d c2da e5bc
00000260: 42cc aebd 4b74 3fbe e5d7 853d 8f64 b83c
00000270: af96 96bc 993d 383d 6bc3 bd3c b415 4fbd
00000280: 5d63 8fbb 54d0 e7bd 5c25 0f3e f53b 223e
00000290: ccad ec3a dae8 1b3d c583 9f3d 2362 8fbd
000002a0: 2bda 8fbd 3fc5 8a3d 2dce 8f3d 85d5 bf3d
000002b0: af7b 513b 6820 2bbe 92ff b0bd 36d8 fdbd
000002c0: 00ef dbbb ac48 d8bd ed6e 123e 4650 49bd
000002d0: d8ff 163e 7df5 dcbd 49ff 21bd 6681 d2bc
000002e0: ad4d ef3d b9ed d0bc 233f f83d 4f51 bf3d
000002f0: 1b3e 3bbe 8891 083e eee7 3a3e c7bd e83d
00000300: 27dd 23be c4a0 d73d f23a fe3c 2d7f babd
00000310: e278 bc3d a7d4 1b3e 167a 3ebe f77b 1b3e
00000320: 96a6 26bd 983f 23bb aa22 aab9 e48a 18be
00000330: c708 0bbe 16cc fcbd 99b5 a8bc d543 d53c
00000340: f1c3 a9bd 4379 f1bd 54db 693d 0851 7abd
00000350: a502 fe3c 3f14 fbbd 527c 223d b029 1abe
00000360: adc3 19bd 1ee8 d43d 0c1b 9ebc 0c44 2fbe
00000370: 24ca 983d b26e 03be b0a5 8b3d cfc7 e3bd
00000380: 4207 0a3e 1f46 6fbd 410a 8d3d c707 febd
00000390: e5be 29be e31b 393e 53c4 3d3d 29de cabc
000003a0: ffa9 23be 347d d93d 922b 323e b1e4 003e
000003b0: fddd ecbd 4d4b 323e 4cad 2bbe 0cdc 99bd
000003c0: c1e1 c2bd 9ab3 103e b775 2b3e 2ddf ef3d
000003d0: a8bd 33be 6d47 7f3d 77df 0a3e 435b 16be
000003e0: a3b8 b7bd 4f1e 0ebe 6558 6c3d 52e9 e63d
000003f0: 74c3 e43c 4e25 adbd 5f87 50bc 89f1 27bd
-0.10569302 -0.037851818 0.09885914 0.1315058 0.06980492 0.10558868 0.013767651 0.006025656
-0.10257472 0.081649885 -0.17136507 -0.06679147 -0.040464945 0.007160104 0.047813166 -0.016211348
0.0270928 -0.007910509 -0.077743106 0.11293547 -0.0038578776 -0.15988168 0.16870227 -0.06326676
0.085881144 0.157157 -0.052899856 0.02487249 0.0032802392 -0.14648084 0.14440222 -0.13484566
0.068842664 -0.04067703 -0.01447706 -0.07191422 0.0447853 0.133701 -0.00890989 0.12351643
0.072937846 -0.069493085 0.039206162 -0.2005879 0.08737913 -0.023275914 -0.03518727 -0.061932944
-0.17297149 -0.08051431 -0.09460439 0.1296457 0.026052615 0.098143175 0.17384344 0.047004443
-0.11997787 0.008535147 -0.03871664 0.050842468 0.13546194 -0.06461733 -0.05243627 0.032843187
0.082051985 0.18531452 0.14009011 -0.010870727 0.031240769 -0.07193162 -0.07591512 0.10267746
0.15097927 0.111077055 -0.050149165 -0.16634382 -0.029176574 0.038330473 0.13605452 -0.012997041
-0.10651513 0.08750864 0.041682314 0.116919935 -0.070790134 0.15926939 0.08383864 -0.15832128
-0.06061495 0.14569418 0.10642423 -0.19377537 0.001524988 -0.07870377 0.029505262 -0.10947634
0.006552655 -0.0035509625 0.096250355 0.094368815 -0.17276643 0.14304271 -0.062049907 -0.054812446
-0.0016098738 0.033874903 -0.056827925 0.10315505 -0.121618606 -0.0931059 -0.11301578 0.0012178108
-0.12380188 -0.1464903 -0.059798088 -0.11820341 0.056165185 -0.025598807 0.097077765 0.11618005
0.13532051 0.08763107 0.006877513 -0.15808198 0.052376196 0.040891998 0.07431265 0.16254751
-0.00957033 -0.08276314 -0.01839403 -0.121883415 0.023475356 0.095826566 0.13442937 0.16667174
-0.11399083 -0.04504344 -0.15720384 0.03756391 -0.0971254 -0.1251034 -0.075389475 -0.17206687
-0.00069099304 -0.12858094 -0.026905932 0.14366396 0.029915031 -0.090434775 0.03320415 -0.028058413
-0.08535053 -0.18696706 0.06535319 0.022508888 -0.018382398 0.04498062 0.023164472 -0.050557807
-0.0043758587 -0.11319032 0.13979095 0.15843184 0.0018057167 0.03806386 0.07788805 -0.0700114
-0.07024034 0.06775903 0.07021747 0.093668975 0.003196459 -0.16711581 -0.08642496 -0.123947546
-0.0067118406 -0.10560736 0.14300127 -0.04914882 0.14746034 -0.10789011 -0.0395501 -0.025696468
0.11684737 -0.02550398 0.121214174 0.0934168 -0.1828541 0.13336766 0.18252537 0.11364322
-0.16002332 0.105287105 0.031033967 -0.09106288 0.09202744 0.15217839 -0.1860126 0.15184008
-0.040686212 -0.002490973 -0.00032450753 -0.14896733 -0.13577567 -0.12343614 -0.020594405 0.026033321
-0.08289326 -0.11790707 0.057093933 -0.061112434 0.03100712 -0.12259721 0.039669342 -0.15054965
-0.037540127 0.10395835 -0.019300006 -0.17115802 0.0746043 -0.12835196 0.06818712 -0.11122095
0.13479331 -0.058416482 0.068867214 -0.12403827 -0.16576727 0.18077044 0.046329807 -0.024764137
-0.15982817 0.10619584 0.17399433 0.12587239 -0.115657784 0.17411537 -0.16765326 -0.07512674
-0.095157154 0.14131013 0.16744123 0.11712489 -0.17552817 0.062323976 0.13561808 -0.14683251
-0.089707635 -0.1387875 0.057701487 0.11274971 0.02792523 -0.08454381 -0.0127275875 -0.04100183

bias f4 [16]
00000000: 1e98 2b3e 012e 9e3c 24a2 1c3e 003b 2d3e
00000010: 744c 103e 6d3a 063e 7e24 1cbe 8dfa fcbd
00000020: f8ed 90bd 6859 ad3c 5aae 3ebd f2b9 03be
00000030: 6e33 0e3e 8ca0 63bd e6c6 d13d 4590 7bbd
0.16757247 0.019309046 0.15296227 0.16917038 0.14091665 0.13108225 -0.15248296 -0.12352476
-0.07076639 0.021160796 -0.046552993 -0.12863901 0.13886806 -0.05557303 0.10243015 -0.061416883

weight f4 [32]
00000000: 68b3 7f3f d189 803f 6ab7 773f 2118 813f
00000010: 9dc3 7a3f 904a 793f 5366 803f f9d3 7f3f
00000020: cf4c 7d3f 862a 7f3f 9342 7d3f 8aa0 803f
00000030: 3dc0 7c3f 391f 823f 5781 7a3f f58a 813f
00000040: fff5 813f 853c 803f bb00 833f fcf1 7d3f
00000050: 6738 823f 0317 813f 9467 803f 19ba 7f3f
00000060: 790e 843f 7917 783f c63d 823f d334 823f
00000070: 9531 7e3f d362 783f 823b 783f 7afd 783f
0.9988313 1.0042058 0.9676424 1.0085489 0.9795473 0.973794 1.0031227 0.9993282
0.98945326 0.9967426 0.9892971 1.0048993 0.9873083 1.0165778 0.97853607 1.0120531
1.0153197 1.0018469 1.0234598 0.99197364 1.0173463 1.0085148 1.003161 0.9989334
1.0316917 0.96910816 1.0175102 1.0172371 0.99294406 0.97025794 0.969658 0.97261775

bias f4 [32]
00000000: fc28 b0bd be08 f33b 6d63 653d 62e4 8c3d
00000010: 71c2 253d dac7 45bd fabc 8d3d ff35 8e3c
00000020: 8ea4 813d 9124 92bc 1e99 9cbc efe9 653c
00000030: f5f0 46bd f274 1f3e d6ac 5ebd 94dc 0bbd
00000040: ebc7 453c d52c 0b3c 4e6f cfbb be22 bc3c
00000050: 1bd3 f7bc eec5 a8bc 8615 b6bc 1063 b53d
00000060: 3d73 073c 9ee2 753b 96f8 15bb 0b68 1abd
00000070: 8243 553d 15e0 3a3b ea88 93bd a5f4 aabd
-0.08601567 0.0074168136 0.056003023 0.06879498 0.040468637 -0.048286296 0.0692081 0.017359732
0.063302144 -0.017839702 -0.01911598 0.014032825 -0.04856964 0.15571955 -0.054364048 -0.034145907
0.01207159 0.0084945755 -0.006330407 0.022965785 -0.03025203 -0.020602193 -0.02222706 0.08856785
0.008267221 0.0037519108 -0.0022883764 -0.03769688 0.052066334 0.002851491 -0.07203849 -0.083474435

running_mean f4 [32]
00000000: c926 1abf 0b51 74c0 c911 733f c300 9940
00000010: 6a0d a63f 2320 90bf db5b c640 014b 0d40
00000020: 0794 81c0 c202 8a40 e82c 3ec0 9f17 f93f
00000030: 614e 7540 cf85 1ac0 8f61 8b40 4cea 1dc0
00000040: cbb2 8140 ba62 cabf 3e26 8e40 e513 30c0
00000050: ad22 67bf ab6f 81be 3926 3440 c1ce 53bf
00000060: cc2b 733d b3b0 b13e 2798 97c0 2901 af40
00000070: a277 12c0 f4da 0240 e4b5 cd3f 1564 ecbf
-0.6021543 -3.8174465 0.94949013 4.781343 1.2972844 -1.1259807 6.198713 2.2077029
-4.0493197 4.3128366 -2.9714909 1.9460334 3.8329089 -2.414417 4.355659 -2.4674253
4.0530753 -1.5811379 4.442168 -2.7512143 -0.90287286 -0.25280508 2.814833 -0.82737356
0.05936794 0.34705123 -4.7373233 5.4688916 -2.2885518 2.0446138 1.6071134 -1.8468043

running_var f4 [32]
00000000: 4f9f da40 cb70 a541 e1e4 a941 d892 8741
00000010: 3c00 d241 f40d 4d40 a4e9 c341 515e 9f41
00000020: 72b0 5d41 8b45 6d41 ea50 0641 37a7 9c41
00000030: 9d4a 6a41 d040 3440 9ab7 1741 48c6 fb40
00000040: 51e1 2141 24df 0a40 c0d4 8941 3c98 b140
00000050: 2bf0 ce40 dd43 a441 33d4 af41 7de0 9f41
00000060: e34a a541 372f 0a42 b0be 7b41 10ea 9341
00000070: 9136 0041 cc67 9641 ee7e 8640 4997 e93f
6.831947 20.680075 21.236757 16.946701 26.250114 3.2039766 24.489082 19.921053
13.855577 14.829478 8.394754 19.581648 14.643216 2.8164558 9.482325 7.8679543
10.117509 2.1698694 17.228882 5.5498333 6.4668174 20.533136 21.978613 19.984613
20.661566 34.54611 15.734055 18.489288 8.013322 18.800682 4.2029943 1.8249294

weight f4 [32, 18]
00000000: 46cf 0bbe cd3d 3abe 4363 b7bd 8a01 0dbb
00000010: 5e2a 34bd 19bd 20be e002 423e 1dfc ea3d
00000020: a82a 703e eb5a c3bd 6349 29be 1124 82bd
00000030: 587a 52be c61b 303d 5c2e 44be ab12 c33d
00000040: 10b0 263e bc82 163e 81cf 853e 68ae 7e3e
00000050: e9e9 363e eda7 b13c 39cd c7bd 6628 bbba
00000060: 5533 593d 101c b23c b579 05be f6e0 deb9
00000070: a1f2 3dbe bb64 06be 1da7 3e3e eade 9ebd
00000080: 5880 bd3c 4ca1 d4bd c2cf 813c cb96 143e
00000090: f62f efbd c34e 293e f218 123e 9e73 223b
000000a0: 39f5 28be f76c 393e 90f4 b0bd a873 2c3e
000000b0: 6865 8bbd 0d93 723e 5221 76be 1639 58be
000000c0: a113 5cbe 2c0f b53d ce21 c43d f897 803e
000000d0: adfd c83a 7399 38bd 0ed5 43be afcf 0f3d
000000e0: f071 28be 5df5 4a3e c7cc 61be 4583 4c3d
000000f0: 1083 3b3e 6a9c 6b3e 3e67 173e d2e1 11be
00000100: 55be 203e b9b1 febd d7e7 2ebc 5777 743d
00000110: e53a 343e 42d3 03be 3ef7 703e bbf5 783b
00000120: 41b7 be3d 7167 64be f7af c5bc b7d7 92bd
00000130: 9c74 563e 5000 16be 69d6 5a3e e05b 7b3e
00000140: 7129 d93c d123 5f3c 0246 07be 694b 743e
00000150: c52a 39be dabc 313e 4065 893d bb05 aabd
00000160: c1be 7d38 a6c3 17bd bec1 233e 01c0 943e
00000170: 69aa 01be 625b 01be d3c6 23be e558 81bc
00000180: 8080 643d 54cb 85be 4b9e 2e3c 6097 89bd
00000190: 812a 4f3d 1bd9 0bbe b7b2 2f3e 8b5a 553e
000001a0: 1422 dcbd ea8a 71bd 353d 2fbe 14c4 b7bd
000001b0: c538 0dbe 7ba8 1a3e 7fe9 fcbd 812e dcbd
000001c0: 7ae1 573e 76b1 b23d 75ef c93d de67 e1bb
000001d0: 6400 013e eb5d db3d cb90 023e c280 02be
000001e0: 5635 d33c 4c48 0dbe 15db 333e 4f6d b8bd
000001f0: 738e 46bd 38a1 a23d cdcc 213e bea0 1bbd
00000200: 76fd ef3d 14ac d7bc 9780 ba3d e374 0d3e
00000210: c562 36bb fe39 5a3e b99b 2a3e 7f41 113c
00000220: c923 3dbd 905a 863d 2628 ef3d 9631 363c
00000230: 6b02 6cbe f48f bbbd 3b9f d93b 908e b5bd
00000240: ad4d 463d 8025 243e feda 2d3c 860b 2d3e
00000250: b209 793e ea05 21be cb54 65bd 825d f93a
00000260: be76 0cbd ed74 ecbd bb7f 06be 7462 a7bd
00000270: b6d8 dfbd e79f f0bd ad71 ee3d 4c6a 8bbd
00000280: 73bf 03be 1f7a 21be 8bb2 19be 104d 503e
00000290: b68e 653e 4c79 f7bd 3793 5cbe 1d56 363e
000002a0: cf5f c1bd 8718 163d 32fa 13be 8221 1b3e
000002b0: efd2 1abe 9bba 40be 72e1 0dbe 737d 35bd
000002c0: 2340 1bbe f23c 46be 3ddf be3d 7572 b9bd
000002d0: 613e 423d 0030 d5bd 6838 953d e5f9 cb3c
000002e0: 0e10 80be 54c9 083e 0cce 3cbe 36a8 0ebe
000002f0: 3362 5dbe 7de7 a5bd 6f79 683d ea6a 1ebd
00000300: b9d0 bd3d b0c6 433d e343 163d b5dc 2dbd
00000310: 697b 823c d198 52be bf03 a3bc 460c 543e
00000320: b036 c7bd c007 313e 4ffe 443d 4412 843d
00000330: 2f80 bb3d ab27 153e ed7b 17bd eca3 efbc
00000340: 0bd5 953d 669c c33d 5d49 d23d 97a4 563d
00000350: 8a2e cebd b550 1dbe 961b 50be 746c 9a3e
00000360: a3d5 cfbd 1e5b 5e3e d899 683e 3c7b bd3d
00000370: e603 523e be83 143e 3632 8a3e 2167 6a3e
00000380: d671 92bd 5208 943d fb7a 3f3e 1f45 6a3e
00000390: 5aea de3d fbf4 4abe 8917 e6bd be1a cfbc
000003a0: 4527 1e3e 3a57 693e a244 043e c6d8 823d
000003b0: a3cf 5b3d 7b2e 08be 3f59 9cb9 aaae 7abe
000003c0: 1edb 46be c5e3 e7bd 6527 68bd 48b6 973d
000003d0: 6d62 a33d 6b8c 5a3e ddec bdbd 9d72 b2bd
000003e0: 6505 543e 7d08 06be 9e6b 433e 095f 363e
000003f0: 5c66 1f3e f4ee 8abb abf3 d9bd 81f1 2f3e
-0.13653287 -0.18187638 -0.089544795 -0.002151581 -0.043985717 -0.15697135 0.18946409 0.11473868
0.23453772 -0.095388256 -0.16531901 -0.06354535 -0.20554483 0.042995237 -0.1915831 0.09525045
0.162781 0.14698309 0.26134875 0.24871218 0.17862667 0.021686519 -0.0975594 -0.0014279007
0.05302747 0.021741897 -0.13034709 -0.0004251075 -0.18549587 -0.13124363 0.18618436 -0.07757361
0.023132488 -0.103823274 0.015846137 0.14510648 -0.1167907 0.16533951 0.14267328 0.0024788151
-0.16499795 0.18107973 -0.086403966 0.16840994 -0.06806451 0.23688908 -0.24036148 -0.21115527
-0.21491863 0.088407844 0.0957676 0.25115943 0.001533439 -0.045068216 -0.19124243 0.035110172
-0.16449714 0.19820161 -0.22050773 0.049929876 0.18311715 0.23008886 0.14785478 -0.142463
0.15697606 -0.12436242 -0.010675392 0.059684124 0.17600591 -0.12873557 0.23531815 0.0037988264
0.09312297 -0.22305085 -0.024131758 -0.071700506 0.2094292 -0.14648557 0.21370853 0.24546766
0.026509019 0.013619379 -0.132103 0.23856892 -0.18082722 0.17357197 0.06708765 -0.08301874
6.0497554e-05 -0.03705182 0.15991876 0.29052737 -0.12662663 -0.12632516 -0.15993814 -0.015789459
0.05578661 -0.2613169 0.010657857 -0.067183256 0.050577644 -0.13657038 0.17158018 0.2083532
-0.107486874 -0.05897037 -0.17113192 -0.08972946 -0.13791187 0.15103333 -0.12349223 -0.107510574
0.21082106 0.08725254 0.09860126 -0.006878837 0.12597805 0.10711273 0.12750547 -0.1274443
0.025782268 -0.1379711 0.17564042 -0.09005224 -0.048475694 0.07940906 0.15800782 -0.037995093
0.11718266 -0.02632717 0.09106558 0.1381412 -0.0027829867 0.21311185 0.16660966 0.008865713
-0.046176706 0.06560242 0.116775796 0.011120221 -0.23047797 -0.09158316 0.006641296 -0.08865082
0.04841392 0.1602993 0.010611294 0.16898927 0.24320105 -0.15724912 -0.055989068 0.001902506
-0.03429293 -0.11545739 -0.13134663 -0.08173075 -0.10930006 -0.11749249 0.11642776 -0.06807384
-0.12866001 -0.15769242 -0.15009515 0.20341897 0.22417721 -0.120836824 -0.21540533 0.17806287
-0.09442102 0.036644485 -0.1445091 0.15149501 -0.15119527 -0.18821184 -0.13855532 -0.04430909
-0.15161185 -0.19359186 0.09319923 -0.09055034 0.04742277 -0.10409546 0.07286149 0.024899432
-0.2501225 0.1335805 -0.18437976 -0.13931355 -0.21619491 -0.081007935 0.056756433 -0.03867618
0.09268326 0.047796905 0.036685836 -0.04244681 0.015927987 -0.20566107 -0.019899247 0.20707807
-0.09727228 0.17288113 0.04809409 0.064487964 0.091553085 0.14565913 -0.03698342 -0.029252969
0.07316025 0.09551315 0.10267899 0.05240306 -0.1006747 -0.15362819 -0.20323023 0.30160868
-0.1014817 0.21714446 0.22714937 0.09252021 0.205093 0.1450338 0.26991433 0.22890903
-0.07150619 0.072281495 0.18699257 0.2287793 0.10884543 -0.19820015 -0.11234958 -0.025281306
0.15444668 0.2278718 0.12916806 0.063890025 0.053664815 -0.13298981 -0.00029821132 -0.24480692
-0.19419524 -0.113227405 -0.056678195 0.07407814 0.079777576 0.21342628 -0.09273694 -0.08713267
0.20705183 -0.13089176 0.19084021 0.1780969 0.15566391 -0.004239911 -0.10642179 0.1718197

bias f4 [32]
00000000: b900 e63d 9c65 823d 91bf 97bc 09cd cfbd
00000010: 67f5 f2bd 9c06 cb3d 37d1 423e eee8 60be
00000020: 8215 5abe 4a26 503d 99a4 b93c 98ab f0bd
00000030: d220 663e e12e ff3d f872 2b3e bb84 4bbe
00000040: fc36 593e 462c 80bc c3e0 a83d b7db 1fbe
00000050: 2303 08be c9e3 2ebe 1c8c b0bd 3c10 4cbe
00000060: 5c0d 54be 461d 043d 2cf5 ab3d 64c0 5d3d
00000070: f891 003e 3642 0cbd 9b97 6ebd 9010 a23d
0.112306066 0.06367037 -0.018523963 -0.10146529 -0.11863213 0.0991337 0.19025122 -0.21963856
-0.21297267 0.050817765 0.022661494 -0.11751479 0.22473457 0.12460113 0.16743076 -0.19874851
0.21212381 -0.015646111 0.08245995 -0.15611158 -0.13282447 -0.1707908 -0.08620474 -0.19928068
-0.20708221 0.03225448 0.08396372 0.054138556 0.12555683 -0.03424283 -0.05825005 0.07913315

weight f4 [2, 32]
00000000: b384 77be 27ae 003e 8f77 67be 33e1 74bd
00000010: 545e 583c 9627 20be 799f 22be dba2 013e
00000020: 0ffd 393d 0ea8 e63d 81bf cc3d f3b4 07bd
00000030: 39c8 c23d e82b 373d a23e 263e 2c7f aebc
00000040: c8d1 1f3d e030 303e cc36 493e 1cf9 98bd
00000050: 22e4 3e3e ac9e 36bd b0f1 5c3d 5977 a53b
00000060: a8be 9a3d 69b8 05be 7f0f 23be 5be4 c9bc
00000070: 175a 47be d64a febc abf6 c2bd 5e14 13be
00000080: 172b 12be cb6e 0e3d 7d56 b3bd 24f0 2d3e
00000090: ed05 143d 0fb3 a73d 3d9b b8bc a920 09be
000000a0: c6d8 853d 8484 133e 4dd2 503e 6915 a2bc
000000b0: d4b8 383e c048 10bd afc6 563d 4e4b c1bd
000000c0: beb7 d83d 8dcb 68bd 767b 00be 3fcd 07be
000000d0: a38e 373e 9c46 403e 5882 383e eb00 163e
000000e0: b13e e6bc 1e4e 78b9 3485 e33d fce6 22be
000000f0: 150f 81bd c6e3 ffba fde5 253e 1e3e 7d3d
-0.24171714 0.12566434 -0.22604202 -0.05978508 0.013206083 -0.15640101 -0.15881146 0.1265978
0.04540735 0.11262523 0.09997464 -0.03313155 0.09510846 0.044719607 0.1623483 -0.021300875
0.039018422 0.17206144 0.1964981 -0.07469389 0.18641713 -0.044584915 0.05394143 0.0050496277
0.07555896 -0.13058628 -0.1592388 -0.024645021 -0.1946796 -0.031041544 -0.095197044 -0.14363238
-0.1427425 0.03477363 -0.08756731 0.16986138 0.036138464 0.081884496 -0.02253496 -0.13391365
0.06535487 0.1440602 0.20392723 -0.0197856 0.18039256 -0.03522563 0.052435573 -0.09438191
0.10581921 -0.056834746 -0.12547097 -0.13261889 0.17925505 0.18776935 0.18018472 0.14648788
-0.028106065 -0.00023680224 0.11109391 -0.15908426 -0.06301705 -0.0019522838 0.16201015 0.061826818

bias f4 [2]
00000000: ec1e 4cbd a961 52bd
-0.049834177 -0.051362667

weight f4 [32]
00000000: b174 853f 6369 873f 1257 883f 00b2 803f
00000010: 1044 7f3f 2e3a 813f cfd5 823f 64eb 783f
00000020: 308e 823f 105a 803f 43ec 853f ebb9 7d3f
00000030: 8e8f 793f 5e03 763f 68de 823f 5354 803f
00000040: f568 853f 079c 7b3f b157 823f 87e0 853f
00000050: e001 883f 1402 863f 4595 803f 4395 813f
00000060: 66b7 813f abe2 843f 44c9 7e3f 6296 803f
00000070: 83d9 853f 7e0b 7a3f d7cf 843f fd42 823f
1.0426236 1.0579036 1.0651572 1.0054321 0.9971323 1.009588 1.0221499 0.9723418
1.0199642 1.0027485 1.0462726 0.99111813 0.9748467 0.9609889 1.0224123 1.0025734
1.0422655 0.98284954 1.0183011 1.0459145 1.0625572 1.0469384 1.0045553 1.0123676
1.0134094 1.0381674 0.99525857 1.0045893 1.0457004 0.97673786 1.0375928 1.0176693

bias f4 [32]
00000000: fd99 3f3d 0a89 113e 2a73 ec3c 956e 393d
00000010: 71fb 9ebc d4e3 ffbc f2df e9bc f1fb e13b
00000020: 5c1e 1e3a a5d2 973b 4011 b63d 2a61 f53b
00000030: e22c 9bbd 22fa 1cbd c665 d83c 2121 25bd
00000040: cbd2 8ebd 5b69 9b3d 985c 763d cc75 833d
00000050: d671 213d 1a60 8bbb ad27 43bc 1727 0bbc
00000060: 0071 6d3d d7cd b7bc d55c 533b 4607 42bc
00000070: 21d7 873d 2859 123c 013a d0bc 446f 15bd
0.046777714 0.14212433 0.028863508 0.045271475 -0.019407006 -0.031236567 -0.028549168 0.006896489
0.00060317456 0.004633265 0.08890009 0.0074883895 -0.0757692 -0.038324483 0.026415717 -0.040314797
-0.06973799 0.07588454 0.060146898 0.06418952 0.039415203 -0.0042533996 -0.011911315 -0.008493206
0.057969093 -0.02243702 0.0032251377 -0.011842554 0.066328295 0.008932389 -0.025418283 -0.036483064

running_mean f4 [32]
00000000: 654d aa3e 12fc b1bd e911 203e 1c2d 523c
00000010: 710f d6bd 4c2b c63d 6637 9f3e c5a6 bcbe
00000020: 12dc 08be e19e ac3d db6f 01be a655 20be
00000030: 931a e23d c8a2 3c3c 388d d63d e8bf 05be
00000040: e6eb 963e 6108 76be df8b 69bd 56d8 ce39
00000050: 09af 4bbe f393 11be 76f5 fcbd dda4 15bc
00000060: bea4 ccbe d661 873c 2e07 193e eb20 623c
00000070: e87e 093e ad9d a93d e7b9 853d 487e a6bc
0.33262172 -0.08690657 0.15631832 0.012828138 -0.10452164 0.09676227 0.31096953 -0.36845985
-0.133652 0.08428741 -0.12640326 -0.15657672 0.11040225 0.011513419 0.10476154 -0.13061488
0.2947685 -0.24026634 -0.057018157 0.00039452565 -0.1989099 -0.14216594 -0.123515055 -0.009133545
-0.39969438 0.016526144 0.14944145 0.013801794 0.13427317 0.082820274 0.06529599 -0.020323887

running_var f4 [32]
00000000: 05ab 123d 878d a13c 2a62 db3d 1a72 e23d
00000010: acba cf3c f9e6 763d 8e25 ae3c 35f6 043d
00000020: ecd3 933d 78bd 673d f5fc 803c b041 e43c
00000030: 68c0 b93c 444c 503d 3fbd 1f3d 3577 bf3c
00000040: c76f 883c 2b8c 0b3d 5dd9 103d 7b9a 4e3d
00000050: a8ad 153d 6ca1 bb3c 23ce ff3c a99d 083e
00000060: 52b7 f83c d536 c03d d872 863d 00bf 833d
00000070: a5b4 0f3e e76d 003d b3e0 833d c84c 633d
0.03580763 0.019720806 0.10712083 0.110569194 0.025357567 0.060278866 0.021258142 0.032461364
0.07218155 0.056577176 0.01574562 0.027863353 0.022674754 0.050853983 0.03899884 0.023372272
0.016654862 0.03406922 0.035363544 0.050440293 0.036542565 0.02290412 0.031226223 0.13341393
0.030360851 0.093854584 0.065648735 0.06432915 0.14033754 0.03135481 0.06439342 0.055493146

weight f4 [32, 16]
00000000: fe73 343e b1f8 1a3e 070b fd3d a941 f33d
00000010: 553b 7fbd fe39 32bd 3416 57be d49e 05bd
00000020: e30c 4b3e e814 25be f81c dabd 4a23 2e3d
00000030: 83d6 183e a6f8 0d3e 5af3 23be 0cbd 8b3c
00000040: 7255 263e ebdf 0f3d d768 233d ecc7 723e
00000050: 59d5 16be 8da4 753e 9cdc 4abe 8e47 993d
00000060: f8bf c8bd bed2 c7bd 35b2 08be 033c c7bc
00000070: b837 58be ba4a 4abe 539a 863d e69a 393e
00000080: 4427 2dbe b9a9 793d e74e 76be 583d 5dbd
00000090: fe1f 54be 2829 08be 1165 8d3d cbd5 623e
000000a0: 8f55 aebd add6 b03d c7f9 e93d 54f5 233d
000000b0: 9993 373e d7ab bbbd 4e12 03be 6624 98be
000000c0: 251e 85bd a4b1 3fbe 5998 233e 0475 8c3d
000000d0: aa0d c8bd f674 78be 62d1 24bd 1df9 873e
000000e0: 9ccc 383e c388 41bd f4b4 2e3e 639a adbd
000000f0: 3c35 853d 4f24 31be a097 403d f43b 85bd
00000100: a014 80bd da57 703d 3821 f1bd b75b 4f3d
00000110: 17ee a33d 76d6 2dbd 4e32 ec3d 98bf 80be
00000120: 140d 02be 5a69 413d cdbc 6fbd ebc9 9cbc
00000130: 518e a83c 956b 18bb a905 d93d 27d4 46be
00000140: 6aab 3a3d 7dff 2b3d 94a5 2dbe 7fac 8b3d
00000150: 8338 db3d 991d 0e3d 0b73 71be 5617 28be
00000160: c6ea 943c d199 763e 73c5 bbbd 7f5e 353e
00000170: 382a eb3d 8128 8a3d 236c 383e cf0b d13d
00000180: 43e1 8cbe 8d39 fa3c 400c 1c3d fee7 373e
00000190: b164 543e 65ac 13be 9aae 81bc 2e43 843e
000001a0: ec78 333d ab09 dbbc e6a3 80bd ff05 96bd
000001b0: e905 e23d 94f4 68be 5c55 1bbd a413 d43d
000001c0: eb00 87bd 779f 8a3e 123c 4cbd 2d30 83be
000001d0: 1d24 b53d b71f 383d 0812 4abd de69 83bc
000001e0: ebec 3fbe 3e1a eebd 854e 81bd 5177 573c
000001f0: d1db 3fbe 5c60 743e d725 e83d d998 ca3c
00000200: 5bd7 59be 2a2d 153e c581 4cbe 81f2 32be
00000210: eff8 8bbd b492 57be 223b eabc 28cc 643e
00000220: 9c2b 5bbe 9101 cdbd 81c2 153d c698 2fbe
00000230: 4ead 13bd 54f7 d43d b51c 43bd c2d4 08be
00000240: 56a7 863c 5cba 493e 3ec5 593e d90f 263e
00000250: 181b 0cbe e921 dd3d 9e20 2abe f0b4 97bd
00000260: dd2e 4e3a 6225 59bd 2e8a 783e cedd 14bc
00000270: 498b 4f3d b0f9 813b b803 753e 527e 193c
00000280: 19d2 96bb 6881 e2bb 6690 14be 70b8 f8bd
00000290: 0a0c 5d3e d033 9ebd 35d8 e8bd 31b4 62be
000002a0: 0402 173d d640 233d c141 873d 7998 1fbe
000002b0: 56a6 283e 0c60 2ebd 9c18 d2bd b18e 41be
000002c0: d2ca 07be d59f 6cbe 1471 433e 8a11 7ebd
000002d0: 7e9e 94bc f3af 623d ea0f 0abe 8f6b eebd
000002e0: 82f3 683e 48e5 31be 5a2d 00bc 8fa5 0cbe
000002f0: aca3 683e 1176 1dbe 41ae 88be 26df 033e
00000300: 3ee8 32be 85c5 21bd 054e c93d 96ae 833e
00000310: 9ab0 343e 0dd1 c53d 1b63 74be 688d 683e
00000320: c1c1 43be 443a a83d 3a6e 6c3d 0885 b43c
00000330: f65e 313e 1eb3 f0bd d4b5 583e 8497 223e
00000340: 096d d0bd cd74 87be 313e 1e3d 6a80 9c3e
00000350: 3b25 ed3d d99a eb3d c450 6dbe 6b7c 6fbe
00000360: 99ab 523e e855 cd3c 66c1 4a3d 089d cb3d
00000370: f0c2 1b3e 0059 8cbc 6a76 bf3d fee0 103e
00000380: a7bc 1d3e e714 eb3d 9118 243d 9047 723d
00000390: e788 503d 4e45 84bd bf58 923d 859d 6bbe
000003a0: 7f2f 93bd 4c85 5b3d 1310 253e 2d3f 4a3e
000003b0: 7bff 1fbe f810 3e3c 8c8f 9aba 5e51 acbd
000003c0: e67b f93d b0ae a03d 2adf 0cbe 1f8a aabd
000003d0: 0375 14ba efbb 65be 02e2 1f3e fc65 ab3d
000003e0: 5925 febd 2c90 35be f50a 063d 277e 723e
000003f0: d3b9 30be 66f4 853d 54ff 9d3d bdeb 33be
0.17622373 0.1513393 0.12355619 0.11877758 -0.062312443 -0.043512337 -0.21004564 -0.032622173
0.19829135 -0.16121256 -0.106500566 0.042514123 0.1492558 0.13864383 -0.160108 0.017057918
0.16243532 0.035125654 0.039894905 0.23709077 -0.14729823 0.23988552 -0.19810718 0.07484351
-0.0980224 -0.09756993 -0.1334923 -0.024320608 -0.21115005 -0.19755068 0.06572404 0.18125495
-0.1690951 0.060952876 -0.24053536 -0.05401358 -0.20715329 -0.1329695 0.069040425 0.22151868
-0.08512413 0.08634696 0.11424594 0.040028885 0.17927398 -0.09163635 -0.12799951 -0.2971527
-0.0649989 -0.18720108 0.15976085 0.068582565 -0.09768231 -0.24263367 -0.040238746 0.26557246
0.18046802 -0.047249567 0.17061216 -0.084767126 0.06504294 -0.17299007 0.0470196 -0.06505576
-0.06253934 0.05867753 -0.11773914 0.050624575 0.080043964 -0.042440854 0.11533032 -0.25146174
-0.12700301 0.04721961 -0.058529664 -0.01913925 0.020575674 -0.0023257483 0.10596783 -0.19416867
0.04557363 0.0419917 -0.16957694 0.068200104 0.10704138 0.034696195 -0.23579042 -0.16415152
0.018178355 0.24082114 -0.0916852 0.17711829 0.11482662 0.06746007 0.18010001 0.102073304
-0.2751561 0.03054502 0.03809762 0.17959592 0.20741536 -0.14421232 -0.015830327 0.25832504
0.043816492 -0.026738008 -0.06281261 -0.073253624 0.110362835 -0.22749549 -0.037923202 0.10355309
-0.06591972 0.27074787 -0.049861975 -0.25622693 0.08844779 0.04495212 -0.049333602 -0.016041692
-0.18742721 -0.11626099 -0.063138045 0.013151006 -0.18736197 0.23864883 0.113353424 0.024731087
-0.21273558 0.1456801 -0.19971378 -0.1747532 -0.0683459 -0.21052057 -0.02859265 0.22343504
-0.21403354 -0.100100644 0.036562447 -0.17148122 -0.036053948 0.103987366 -0.0476348 -0.1336241
0.016437214 0.19699997 0.21266648 0.16216983 -0.1368221 0.107974835 -0.16614005 -0.07407558
0.00078652595 -0.053014167 0.24271461 -0.0090860855 0.050669942 0.0039665326 0.239272 0.009368496
-0.0046026823 -0.006912399 -0.14508209 -0.12144554 0.21586624 -0.07724726 -0.11369363 -0.2213905
0.036867157 0.039856754 0.066043384 -0.15585507 0.16469702 -0.042572066 -0.102586 -0.18902089
-0.13260964 -0.23107846 0.19086105 -0.062028445 -0.018141981 0.05534358 -0.13482633 -0.11641609
0.22749141 -0.1737262 -0.007823313 -0.1373503 0.22718686 -0.1537707 -0.26695445 0.12878093
-0.17471406 -0.03949501 0.09829334 0.25719136 0.17645493 0.09659014 -0.2386593 0.22710192
-0.1911688 0.08214238 0.057722308 0.02203609 0.17321381 -0.11752914 0.21163112 0.15878111
-0.10177047 -0.264563 0.03863353 0.30566722 0.11579367 0.11504144 -0.23175341 -0.23387305
0.20573272 0.025065377 0.049500845 0.09942061 0.15211082 -0.017132282 0.093487576 0.14148328
0.15403996 0.11478596 0.04006249 0.05915028 0.05091181 -0.06458531 0.07145833 -0.23009308
-0.071867935 0.05359392 0.16119413 0.19750662 -0.15624802 0.011600725 -0.0011792048 -0.08413957
0.12181835 0.07845819 -0.13757005 -0.08327126 -0.0005663188 -0.22434972 0.15613559 0.08369061
-0.12409467 -0.17730778 0.032725293 0.23680936 -0.17258386 0.06540756 0.077147156 -0.17570396

bias f4 [32]
00000000: ae6b 843e d2a8 563e 3e81 093d 77db 643e
00000010: 3454 673e b21f 52be 0e65 e9bd 3fdb 37bc
00000020: 1de1 583e ff9f af3d cf24 e63d 1313 203e
00000030: 5e98 7b3e 27d9 453e 9779 5abc 8390 d03d
00000040: 991c 733d d0d8 0f3e 659b efbd d661 36be
00000050: 952f 893d af96 5e3e c664 c03d f222 64be
00000060: 5038 d63d 4b4d 29be 2157 bebd 7187 e43d
00000070: 06de 0a3e 79aa a6bd 6657 09be ddfc 8e3d
0.25863403 0.20962837 0.03357052 0.22349344 0.22590715 -0.20519903 -0.11396228 -0.011221706
0.21179624 0.08575439 0.112374894 0.15632276 0.24569842 0.19321118 -0.013334653 0.101838134
0.059353445 0.14047551 -0.11699561 -0.17810759 0.06698529 0.21737169 0.09394221 -0.22278956
0.104599595 -0.16533391 -0.09293962 0.11158646 0.13561258 -0.08137984 -0.13412246 0.069818236

weight f4 [2, 32]
00000000: 36d2 64bd 3233 11bd 55cf 79bd fd37 a43d
00000010: 0db7 07be a8c0 1dbe 4f49 053e 910e fa3d
00000020: b1d9 13be 6806 003e 9ddc 85bc c7a1 5abe
00000030: 3d55 c43d b5b3 963d a5a2 25be c789 0ebe
00000040: 8610 8c3d 8b40 2bbe 702c f93d 26e0 bfbc
00000050: 356c c0bd 2e32 063e c00a 14be e001 9f3c
00000060: 6aba 3239 5d47 a03b 3b01 4a3c 7703 0dbe
00000070: 9714 f6bc 4e1a cabd 3b03 b13d aba3 02be
00000080: e191 963d deed 7d3e 008c a53d 56a6 7bbc
00000090: ad27 683d e5ce dbbd e209 fb3c 88c0 613d
000000a0: cb12 21be 1922 29be 4ae4 8bbc b2ee f0bd
000000b0: e2b6 cfbd 272c 32bd afb2 1bbe cf52 38bd
000000c0: 3828 393d 8fc4 373d c77c 453d 006d 083e
000000d0: f601 21bd a17b 17bc 92d6 193e f68c 12bd
000000e0: b77f 943b 4294 0b3d e953 12bd 5a85 f1bc
000000f0: 8540 793c 6808 143e 780e 353d 12c4 343d
-0.055864535 -0.035449214 -0.060988743 0.080184914 -0.13253422 -0.15405524 0.13016246 0.122098096
-0.14438511 0.12502444 -0.016340548 -0.21350776 0.095865704 0.07358495 -0.16175325 -0.13919745
0.06839089 -0.1672384 0.12166679 -0.023422312 -0.09395639 0.1310508 -0.14457226 0.019410074
0.00017044847 0.0048913197 0.012329395 -0.13770853 -0.030039115 -0.098682985 0.08643194 -0.12757747
0.07352043 0.2479777 0.080833435 -0.015359482 0.056678463 -0.107328214 0.03064436 0.055115253
-0.15729825 -0.16516913 -0.01707663 -0.117642775 -0.10142304 -0.04349914 -0.15204881 -0.045000847
0.04520437 0.044865187 0.0482147 0.1332283 -0.03930851 -0.009245784 0.15023258 -0.035778962
0.0045318264 0.034076937 -0.035724554 -0.029482532 0.015213137 0.14456332 0.04420325 0.0441323

bias f4 [2]
00000000: 1d84 8d3d 2761 b0bc
0.06909964 -0.0215307

weight f4 [32]
00000000: c971 813f e7f2 893f a91b 7c3f 56cc 813f
00000010: b3d1 833f 7adf 803f cbad 7e3f 91cd 803f
00000020: 9a60 7d3f 7883 7e3f 5acc 763f 6967 863f
00000030: 51f4 7b3f 870b 7b3f 9606 803f 5ec0 7c3f
00000040: 2ae3 763f 99bc 813f 9a9f 803f c288 7d3f
00000050: 8fc5 813f f040 803f 4723 7e3f fc8f 7d3f
00000060: 5ccd 713f 3967 793f b084 7d3f c4f9 803f
00000070: d36d 763f 80b1 823f 146d 7c3f 89fb 803f
1.011285 1.0777253 0.98479706 1.0140483 1.029837 1.00682 0.9948394 1.0062734
0.9897553 0.99419355 0.96405566 1.0500308 0.9841967 0.98064464 1.000201 0.9873103
0.96440375 1.013568 1.0048707 0.990368 1.0138415 1.0019817 0.9927258 0.9904783
0.9445398 0.9742313 0.9903059 1.0076222 0.9626133 1.0210419 0.9860394 1.0076762

bias f4 [32]
00000000: ae15 c8bb 7e9c acbd d9cb 99bc 7494 91ba
00000010: 36f4 ab3c 5132 9e3b 0041 ee3c d218 e0bb
00000020: 15a6 9dbc c9fa 2fbd 7b0c ef3b 206a 493d
00000030: 242a d9bb 3c93 f3bc 0bfa b63c 759f 27bb
00000040: 7d64 74bd 49ee 1d3d 7078 5b3c 1855 aebd
00000050: 6eff f23c 87a4 92bb 8d53 29bd 4137 9c3c
00000060: b718 f2bc 367f 18bd 4e42 883c e7b0 fe3c
00000070: 2101 e8bc e943 b63c 0818 24bd 523b 5cbb
-0.0061061 -0.08428286 -0.01877396 -0.0011106865 0.020990472 0.0048277755 0.029083729 -0.0068388963
-0.019244233 -0.042963777 0.007295189 0.049173474 -0.006627338 -0.029733293 0.022336027 -0.0025577222
-0.059666146 0.038557325 0.013395414 -0.08512324 0.029662814 -0.0044751796 -0.041339446 0.019069316
-0.0295528 -0.037230693 0.016633179 0.031090213 -0.02832085 0.022249179 -0.04006198 -0.0033604694

running_mean f4 [32]
00000000: b8e6 f53e 1455 1d3f 6b90 a8be 79cf 583e
00000010: 9915 c83d 4e73 8ebd ad0a 43be 18a3 153d
00000020: 7ced 853b 7527 ce3e 60cc ccbc 9cbd 853e
00000030: 4e37 e93e 5a33 d43e ea37 dcbd 041a 0cbe
00000040: 9407 0a3e 441a 5d3e c0e2 04be 59ec e9bd
00000050: d0cb 063e 8dfb a53e 74ed ec3c b58b d9be
00000060: 8db6 c53e da5d bdbe 7742 27be c0d4 423e
00000070: a254 923d aac4 2dbe f109 c5bd 7a06 aa3d
0.48027587 0.61457944 -0.32922682 0.21172895 0.097697444 -0.069555864 -0.19047041 0.03653249
0.0040871482 0.40264478 -0.024999797 0.26121223 0.45550007 0.41445428 -0.10752852 -0.13681799
0.13479453 0.21592051 -0.12977123 -0.11422033 0.13163686 0.3241848 0.02892182 -0.424894
0.38615838 -0.36985666 -0.16333948 0.1902647 0.07145049 -0.16969553 -0.09621037 0.083020166

running_var f4 [32]
00000000: c7de c83c 1ea2 073d 9a86 d63d 2a16 fc3c
00000010: 6196 a23c f7fc 833d a376 c53c 6f15 173d
00000020: 9353 7a3d 3c5d 403d 65d3 9d3d 3780 b23d
00000030: 9cac 0d3c 3814 893d aaa7 353d 2d34 c93d
00000040: b0da dc3d 957e 473d b667 3c3d 11ed 713c
00000050: f916 5a3d 3a68 fe3c 3f51 3a3d f82f 103c
00000060: 1994 623d abc2 2b3c 7eb1 3c3c 2cc9 523d
00000070: 85d0 443d 3a33 413c da97 7c3c fee7 ac3d
0.024520291 0.03311359 0.10474892 0.030772287 0.019847097 0.064447336 0.024104422 0.036885675
0.06111486 0.046963915 0.07706336 0.08715861 0.00864711 0.066933095 0.04434935 0.09824405
0.10783899 0.048704702 0.045997344 0.014765994 0.053244565 0.031055558 0.04548764 0.008800499
0.05531702 0.010483424 0.011516927 0.051461384 0.048050422 0.0117919985 0.015417064 0.084426865
