code/model_obj_backups/model_obj_80.pt (torch, 538274 bytes, 158 tensors)

weight f4 [32, 2]
0	0x3f178751	0.5919085
1	0xbf2006b3	-0.6251022
2	0x3dee9a53	0.11650529
3	0x3e3ac874	0.1824053
4	0xbec82c98	-0.39096522
5	0x3e453763	0.1925941
6	0x3d17f320	0.037097096
7	0x3f0926f2	0.5357505
8	0x3ea7dd78	0.32786155
9	0xbe968016	-0.29394597
10	0xbf2a0bd5	-0.66424304
11	0x3ceaffa4	0.028686352
12	0x3f1253a4	0.57158875
13	0x3c9a94d9	0.018869804
14	0x3ef2f48d	0.47452202
15	0x3ecb1550	0.39664698
16	0x3cab62f1	0.020921202
17	0x3f22b91d	0.6356371
18	0x3ded3c99	0.11583824
19	0xbe447631	-0.19185711
20	0x3f186c95	0.59540683
21	0x3e575c27	0.21031247
22	0x3d805e1c	0.0626795
23	0xbf2f108a	-0.6838461
24	0xbd8681d1	-0.06567729
25	0xbf01ceb6	-0.5070604
26	0x3f2021a5	0.6255134
27	0xbece45cc	-0.40287626
28	0xbf064528	-0.52449274
29	0xbdcac368	-0.09900552
30	0xbf0588a6	-0.52161634
31	0x3e432749	0.19057955
32	0xbf35c875	-0.71009
33	0x3eee3af2	0.46529347
34	0x3f27a120	0.6548023
35	0xbed6c687	-0.4194834
36	0xbf09b286	-0.5378803
37	0xbe143a11	-0.14475276
38	0x3dd05eb4	0.10174313
39	0xbec8ea04	-0.3924104
40	0xbec40e79	-0.38292292
41	0xbdf246d9	-0.11829919
42	0x3e498ea4	0.1968332
43	0xbf21e95e	-0.63246715
44	0x3ed6066b	0.41801772
45	0x3eaab930	0.33344412
46	0xbee36fc1	-0.444212
47	0xbe6988d5	-0.22806104
48	0xbf2fdc72	-0.6869575
49	0x3dd226e0	0.10261321
50	0x3e69f786	0.22848329
51	0xbebf181a	-0.37323076
52	0x3e87dabb	0.26534066
53	0xbd90fd19	-0.070795245
54	0xbf1d241e	-0.61383235
55	0x3f0fba0b	0.56143254
56	0x3cd0db6e	0.025495257
57	0x3ea5fb19	0.32418135
58	0x3f2d352b	0.6765925
59	0xbf0d2da9	-0.55147797
60	0x3ef96990	0.4871335
61	0x3ed9620f	0.42457625
62	0x3ec57040	0.38562202
63	0xbd12042c	-0.03564851

bias f4 [32]
0	0xbe83c981	-0.25739673
1	0x3f0f3feb	0.55956906
2	0xbf1ffcd6	-0.6249517
3	0xbd72f7fd	-0.05931853
4	0x3d07406f	0.033020433
5	0x3eb80b96	0.3594634
6	0x3e69c511	0.22829081
7	0x3e03681a	0.1283268
8	0xbf1a9ad7	-0.60392517
9	0xbdd23f2c	-0.10265955
10	0xbf0a492a	-0.5401789
11	0xbf189849	-0.5960737
12	0xbd559f34	-0.05215378
13	0x3f0aa66c	0.5416019
14	0xbe23a9b9	-0.15982713
15	0x3f0080d8	0.501966
16	0x3ef331ac	0.47498834
17	0xbe1698a4	-0.14706665
18	0x3f01b9d9	0.50674206
19	0x3dfdb3d6	0.123878166
20	0xbde5ecde	-0.112268195
21	0xbe7e232d	-0.24818106
22	0x3ded36ee	0.11582743
23	0x3effdedd	0.4997472
24	0xbe83947c	-0.25699222
25	0x3e8ac244	0.27101338
26	0x3f1ecc37	0.6203036
27	0xbca78b6a	-0.02045222
28	0xbf1facfd	-0.62373334
29	0xbd837af3	-0.06419935
30	0xbe998ead	-0.29991665
31	0x3f00d71d	0.50328237

weight f4 [16, 32]
0	0x3da54243	0.08069279
1	0x3e2265fb	0.15859215
2	0xbe21fe12	-0.15819576
3	0x3e227209	0.15863813
4	0xbe17cac3	-0.14823441
5	0x3d57b5da	0.05266366
6	0xbb47c8de	-0.0030484716
7	0xbd601d2a	-0.054715313
8	0xbb055990	-0.0020347573
9	0xbbf13420	-0.00736095
10	0x3e28b3d0	0.16474843
11	0x3c845a3c	0.016156308
12	0xbad5fa4b	-0.0016325203
13	0xbde76dab	-0.113002144
14	0xbe1fe552	-0.15614823
15	0xbe1a70e6	-0.1508213
16	0x3c2ec2e5	0.010666584
17	0xbda6ca0a	-0.08144005
18	0xbd4efdf1	-0.050535146
19	0xbd58cef0	-0.052931726
20	0xbcde4565	-0.0271327
21	0xbe0b0e34	-0.13579637
22	0xbdd72f36	-0.10507052
23	0x3cf18ae1	0.029485168
24	0xbdc8c111	-0.098024495
25	0xbdac6852	-0.08418335
26	0xbe1ed60f	-0.15511344
27	0x3b788b81	0.0037924948
28	0x3cf85229	0.030312615
29	0xbcb51897	-0.022106452
30	0xbe0d4718	-0.13796651
31	0xbe29fa6f	-0.16599439
32	0x3e0051fc	0.12531275
33	0x3e02a854	0.12759525
34	0xbdc604e6	-0.09668903
35	0xbb63a6c1	-0.0034736844
36	0x3cf05af1	0.02934024
37	0xbe193bd5	-0.1496423
38	0xbd243b36	-0.04009553
39	0xbdedcb08	-0.11610991
40	0x3dd93dfd	0.106075265
41	0xbd6445f9	-0.055730794
42	0x3e2b7578	0.1674403
43	0x3dc2bd48	0.09508759
44	0x3e2819fb	0.16416161
45	0xbb39845b	-0.002830765
46	0xbe1199c8	-0.14218819
47	0xbcf03d70	-0.02932617
48	0x3b223ffc	0.0024757376
49	0x3da7b4a0	0.08188748
50	0x3e1ae0fa	0.15124884
51	0xbd595a82	-0.05306483
52	0x3e033847	0.12814437
53	0xbe136f7d	-0.14397998
54	0xbda14856	-0.07875125
55	0xbbed4134	-0.007240439
56	0x3e0e83ab	0.13917415
57	0x3e16c07f	0.14721869
58	0x3d87f1f0	0.06637943
59	0x3ddf13a7	0.1089242
60	0xbcec632c	-0.028855883
61	0xbe35fe23	-0.17772727
62	0xbe36c41f	-0.17848252
63	0x3e059778	0.13046062
64	0xbd3ca72d	-0.04605787
65	0xbcf9b4d7	-0.030481739
66	0x3cd4c031	0.02597055
67	0x3c0fc9ff	0.008776187
68	0xbd5dcb75	-0.05414911
69	0x3c153ba7	0.0091084605
70	0xbdee5d67	-0.11638909
71	0x3a6f5b2a	0.0009130711
72	0x3dfba328	0.12286979
73	0xbd49ecfe	-0.04929828
74	0xbe014d6e	-0.12627193
75	0xbdb57e32	-0.088619605
76	0x3deba79e	0.1150658
77	0xbe15c353	-0.14625292
78	0x3d5fbaa9	0.054621372
79	0x3d54b517	0.051930513
80	0xbe375f65	-0.17907484
81	0xbd81d4f5	-0.063394465
82	0x3d4c7348	0.04991463
83	0xbd55f4d8	-0.052235454
84	0xbd3f00cf	-0.04663163
85	0x3b532106	0.0032215728
86	0x3cfdad3c	0.030966394
87	0x3db7c02b	0.089722
88	0xbe2cbe77	-0.16869532
89	0x3d3e5119	0.04646406
90	0xbd829e52	-0.063778535
91	0xbe22bd31	-0.15892483
92	0x3d8444a1	0.064584024
93	0xbd74d7b2	-0.059776016
94	0xbd9dcea9	-0.07705433
95	0x3de59408	0.11209875
96	0xbd8a6792	-0.06758036
97	0x3e322e2d	0.17400427
98	0xbe1123aa	-0.14173761
99	0xbd20bdb0	-0.0392434
100	0x3cb9c19d	0.02267533
101	0xbc3589ff	-0.011080264
102	0x3d94e6a4	0.07270554
103	0x3e26a63a	0.16274348
104	0xbe250ec3	-0.16118912
105	0x3d42a186	0.047517322
106	0x3e1558f6	0.14584717
107	0xbd4a961e	-0.04945957
108	0xbd0fa777	-0.035071816
109	0x3df1a15d	0.11798356
110	0xbcb5d36f	-0.022195546
111	0x3e0bb14e	0.13641855
112	0x3e099666	0.13436279
113	0x3d81ad6f	0.06331908
114	0xbdbc4814	-0.09193435
115	0xbdff3a04	-0.124622375
116	0xbdf27be3	-0.11840036
117	0xbdfa59d8	-0.122241676
118	0x3c9e5d38	0.01933156
119	0xbe2d3391	-0.16914202
120	0xbe15f83c	-0.14645475
121	0x3d166980	0.036721706
122	0xbdb30432	-0.087410346
123	0x3d07cfd9	0.033157203
124	0xbd7cc9cd	-0.06171589
125	0x3e296cdb	0.16545431
126	0x3b2ea1e6	0.0026646792
127	0x3c8dc752	0.017306957
128	0x3d6df84e	0.05809813
129	0x3e181d02	0.14854816
130	0x3d316217	0.043306436
131	0x3def5973	0.11686983
132	0xbe499aa0	-0.19687891
133	0xbd4ed10b	-0.050492328
134	0x3d1613ce	0.03663998
135	0x3cbdc331	0.023164364
136	0x3de7f17f	0.113253586
137	0x3da7af48	0.08187729
138	0xbd94ad5f	-0.072596304
139	0xbb91b777	-0.0044469195
140	0xbe3edbe1	-0.18638565
141	0x3daa865b	0.083264075
142	0xbdb89db5	-0.09014455
143	0x3ba7930d	0.0051139654
144	0x3cc523f9	0.024065005
145	0xbdd73a56	-0.105091736
146	0xbdd12858	-0.10212773
147	0x3de4602b	0.11151155
148	0xbc2801a1	-0.010254295
149	0x3cea3b93	0.02859286
150	0xbe04986c	-0.1294877
151	0x3d8dffff	0.06933593
152	0xbdcaea4c	-0.0990797
153	0x3db6cd60	0.08925891
154	0xbdd95ae3	-0.106130384
155	0x3de84f9b	0.113433085
156	0x3e45edd4	0.19329005
157	0x3e176627	0.14785062
158	0x3e0d058e	0.1377165
159	0xbe33ca35	-0.17557605
160	0x3db79da1	0.08965612
161	0x3e1f512c	0.15558308
162	0x3e043b37	0.12913214
163	0xbe402a0a	-0.18766037
164	0xbc6ebb13	-0.014570969
165	0xbdef9081	-0.11697484
166	0xbceb0a14	-0.028691329
167	0x3e09f737	0.13473211
168	0xbe1790ad	-0.14801283
169	0xbe047b62	-0.12937692
170	0xbda85ad4	-0.08220449
171	0xbbfc8f06	-0.0077074794
172	0x3e564278	0.20923793
173	0x3cb9f177	0.022698147
174	0xbd85ae65	-0.06527404
175	0x3c543fcf	0.012954666
176	0xbe3878a9	-0.18014778
177	0xbe08f33b	-0.13374035
178	0x3d92803c	0.07153365
179	0xbd784d41	-0.06062055
180	0x3e2f0288	0.1709081
181	0x3e33f42e	0.17573616
182	0xbd3b4738	-0.045722216
183	0xbda878dd	-0.08226178
184	0x3e26855b	0.16261809
185	0x3e184b6d	0.14872523
186	0x3d39c24a	0.045351304
187	0xbe3bc5e2	-0.18337205
188	0xbdf5cd7b	-0.12002083
189	0x3e19cf9d	0.15020604
190	0x3db44fde	0.08804296
191	0xbdd82285	-0.10553459
192	0xbe2fcdf9	-0.17168416
193	0x3d946cbd	0.07247303
194	0xbdf944cf	-0.12171327
195	0xbe08c7f7	-0.1335753
196	0x3d506d49	0.050885472
197	0x3d4736a0	0.04863608
198	0x3dbdc576	0.09266178
199	0x3ce26aa3	0.027638739
200	0xbe03ff13	-0.12890272
201	0x3c5b5ca1	0.013388784
202	0x3e16673e	0.14687821
203	0xbd1113bc	-0.03541921
204	0x3e30efa0	0.1727891
205	0xbd6b6836	-0.05747243
206	0x3dee39ce	0.11632119
207	0xbe0a0dc9	-0.13481821
208	0xbe0f2f7d	-0.13982959
209	0x3d9e1004	0.077178985
210	0x3e120478	0.14259517
211	0xbcb4c588	-0.022066846
212	0x3e00eb95	0.12589867
213	0x3dabba8a	0.08385189
214	0x3e198be5	0.14994772
215	0xbe0e35c9	-0.13887705
216	0x3de7712d	0.113008834
217	0xbd7d3956	-0.061822258
218	0x3e02b4f1	0.12764336
219	0xbcea3544	-0.028589852
220	0x3e29f418	0.1659702
221	0xbe05b4d6	-0.13057265
222	0xbb86d630	-0.0041148886
223	0x3e2652a4	0.16242462
224	0x3d5660d3	0.052338433
225	0x3b1fca91	0.0024382214
226	0x3cf90948	0.030399933
227	0x3db4d02d	0.08828769
228	0xbdde9543	-0.10868313
229	0x3e09ad9d	0.13445134
230	0x3d5ed5ec	0.05440323
231	0x3da17863	0.0788429
232	0x395a3dd5	0.00020813134
233	0x3e2855aa	0.16438928
234	0xbe0b31f3	-0.13593273
235	0x3d9feec3	0.07809212
236	0xbcd6b635	-0.02620993
237	0xbe199f36	-0.1500214
238	0x3bd917e8	0.0066251643
239	0xbd1c3a00	-0.03814125
240	0xbe3946f1	-0.18093468
241	0x3c234e13	0.009967345
242	0xbd44b086	-0.04801991
243	0xbde3e93b	-0.111284696
244	0x3ba003f0	0.004883282
245	0x3c5525f9	0.013009542
246	0x3dfd5f8e	0.12371741
247	0xbe09fb0d	-0.13474675
248	0xbddeccf1	-0.10878933
249	0x3e188158	0.1489309
250	0x3e1b7edf	0.15185116
251	0xbd8c76d9	-0.06858606
252	0xbcbb2f12	-0.022849593
253	0xbe1440c3	-0.1447783
254	0xbc422317	-0.011849186
255	0xbd2cd1c1	-0.042192224

bias f4 [16]
0	0x3e11ae94	0.14226753
1	0xbdd0149f	-0.10160183
2	0x3da7efe0	0.082000494
3	0xbd15fa17	-0.036615457
4	0xbce7984f	-0.028270869
5	0xbdbc91aa	-0.09207471
6	0xbd40616e	-0.046967916
7	0x3cf1d2ed	0.029519523
8	0xbe32a523	-0.17445807
9	0x3e2edd9a	0.17076722
10	0xbdaef113	-0.08542075
11	0x3d0a2f58	0.033736557
12	0xbe0f15fd	-0.13973232
13	0x3dd85009	0.105621405
14	0x3e310d63	0.17290263
15	0x3db4a30d	0.08820162

weight f4 [32]
0	0x3f7cac57	0.9870047
1	0x3f81b2d4	1.0132699
2	0x3f80124d	1.0005585
3	0x3f7dba75	0.99112636
4	0x3f816283	1.0108188
5	0x3f78d566	0.9720062
6	0x3f7f769f	0.99790376
7	0x3f7f681e	0.99768245
8	0x3f7cdf0b	0.98777837
9	0x3f7edaca	0.99552596
10	0x3f8181f3	1.0117782
11	0x3f7732ba	0.9656178
12	0x3f8419b6	1.0320346
13	0x3f808116	1.0039394
14	0x3f7cbe2c	0.9872768
15	0x3f7ad537	0.9798159
16	0x3f859264	1.04353
17	0x3f838b7f	1.0276946
18	0x3f812080	1.0088043
19	0x3f7df70e	0.992051
20	0x3f7e7bdf	0.9940776
21	0x3f7bc512	0.9834758
22	0x3f780e1c	0.9689653
23	0x3f7c3c45	0.98529464
24	0x3f81138c	1.008409
25	0x3f810a1e	1.0081213
26	0x3f7d3681	0.9891129
27	0x3f81cecd	1.0141236
28	0x3f7c250c	0.9849403
29	0x3f790e27	0.9728722
30	0x3f825458	1.018199
31	0x3f7d5ddc	0.98971343

bias f4 [32]
0	0xbdb1974a	-0.08671434
1	0xbd838705	-0.06422237
2	0x3d236cf9	0.039898846
3	0xbb264244	-0.0025369087
4	0x3afe2210	0.0019388814
5	0xbd5458b1	-0.051842395
6	0xbd80b887	-0.06285196
7	0xbaa75e01	-0.0012769104
8	0xbd14164d	-0.03615408
9	0xbccbcc47	-0.02487768
10	0x3ceff412	0.029291186
11	0xbc82c7b5	-0.015964368
12	0x3c6cdafc	0.014456507
13	0xbdaef007	-0.08541875
14	0xbc1f1fe5	-0.009712194
15	0x3d225ce9	0.039639387
16	0x3dce984e	0.100876436
17	0xbb9b6e02	-0.0047433386
18	0xbd45b5ec	-0.048269197
19	0xbcfeeb40	-0.031118035
20	0x3c93119b	0.01795273
21	0xbd624420	-0.05524075
22	0xbdfbbae6	-0.122915074
23	0xbd69c229	-0.05706993
24	0x3cc87917	0.024471803
25	0x3be57ff0	0.0070037767
26	0x3d5dcedf	0.054152366
27	0x3b7397b9	0.0037169291
28	0xbb63f4a8	-0.0034783278
29	0xbc01e9f9	-0.007929319
30	0x3d2dd0cb	0.04243545
31	0xbca88e3f	-0.02057564

running_mean f4 [32]
0	0xbebb1048	-0.3653586
1	0x3f262938	0.64906645
2	0xbf223d33	-0.6337463
3	0x3e11ef92	0.14251545
4	0xbc00c1bf	-0.007858693
5	0x3e724442	0.23658851
6	0x3eb31fe8	0.3498528
7	0x3ebc2f6e	0.36754936
8	0xbebcf8a9	-0.36908463
9	0xbe189b71	-0.14903046
10	0xbeb03489	-0.3441508
11	0xbf54e73f	-0.83165354
12	0xbe7f5805	-0.2493592
13	0x3f055927	0.5208916
14	0xbe9a2002	-0.30102545
15	0x3eeebf60	0.46630383
16	0x3f0051f3	0.50125045
17	0xbe2bca97	-0.167765
18	0x3eb13f71	0.34618714
19	0x3ae79484	0.0017668162
20	0xbe6da0c0	-0.23205853
21	0xbee058cf	-0.43817756
22	0x3ea43d9c	0.32078254
23	0x3ea7e28e	0.32790035
24	0xbeb72547	-0.35770628
25	0x3e39b53d	0.18135543
26	0x3f25de56	0.6479238
27	0x3d7635ad	0.060109783
28	0xbf003c5a	-0.5009209
29	0xbe039d9a	-0.12853089
30	0xbd44cfd6	-0.04804977
31	0x3f117bca	0.5682951

running_var f4 [32]
0	0x3e61876c	0.22024316
1	0x3bea5141	0.0071507995
2	0x3d54bdd9	0.051938865
3	0x3d816936	0.063188955
4	0x3d6a3b57	0.057185497
5	0x3dc13b34	0.0943512
6	0x3d8697f3	0.06571951
7	0x3d5ad868	0.053429037
8	0x3dba8004	0.09106448
9	0x3c71362a	0.014722386
10	0x3d82bfa4	0.06384209
11	0x3debec2e	0.11519657
12	0x3d610496	0.054936014
13	0x3e2171ce	0.1576607
14	0x3d5160ed	0.051117826
15	0x3da4398d	0.080187894
16	0x3e52b203	0.20575719
17	0x3e303e24	0.17211205
18	0x3d574ac9	0.052561555
19	0x3d33a34b	0.0438569
20	0x3cd94d01	0.026525976
21	0x3df4e88c	0.11958417
22	0x3d23bebc	0.03997682
23	0x3d178e93	0.037001204
24	0x3de36c18	0.111046016
25	0x3d663738	0.056205004
26	0x3c98d366	0.01865549
27	0x3e514173	0.20435123
28	0x3cbc5539	0.022989856
29	0x3e6459cc	0.2229988
30	0x3d6eda80	0.058313847
31	0x3d0830f6	0.033249818

weight f4 [32, 3]
0	0x3eb36238	0.35035872
1	0xbe291b04	-0.16514212
2	0xbe5148a1	-0.20437862
3	0xbed5e82c	-0.41778696
4	0x3d165186	0.03669884
5	0xbf1116e7	-0.5667557
6	0x3dcd9e58	0.10039967
7	0xbec7f4bc	-0.39053905
8	0xbe83c362	-0.25735003
9	0x3eedd732	0.46453243
10	0xbefc3bbb	-0.4926432
11	0x3ee8322f	0.45350787
12	0xbc238314	-0.009979982
13	0xbeee4191	-0.46534398
14	0xbe7f1637	-0.24910818
15	0x3d551a16	0.05202683
16	0x3cdaf994	0.026730336
17	0xbe720319	-0.23633994
18	0xbdbeafbf	-0.09310865
19	0xbf151475	-0.5823434
20	0x3f0e2fbe	0.555416
21	0xbf57df7d	-0.8432539
22	0xbef4c680	-0.47807693
23	0xbdf32bb4	-0.1187357
24	0x3eef2d78	0.46714377
25	0x3efdf692	0.4960218
26	0xbe457974	-0.19284612
27	0x3f0052e0	0.5012646
28	0xbe884890	-0.2661786
29	0x3f065e2c	0.52487445
30	0xbda6f17e	-0.0815153
31	0x3ec19e4b	0.3781608
32	0xbd68441b	-0.056705575
33	0xbf2717fc	-0.6527097
34	0x3df05230	0.11734426
35	0x3ef236fb	0.47307572
36	0xbda7fef3	-0.082029246
37	0xbe80c04f	-0.2514672
38	0x3f038551	0.513753
39	0xbdb3e559	-0.08783979
40	0x3e4c5c9b	0.19957201
41	0xbe3b1eb0	-0.18273425
42	0xbf373dd9	-0.7157875
43	0xbeabf9ea	-0.33589107
44	0x3ebc0828	0.36724973
45	0xbe166db9	-0.14690293
46	0x3ec27349	0.3797858
47	0xbe2017cc	-0.15634078
48	0xbe74150d	-0.23836155
49	0xbeb72fb5	-0.35778585
50	0x3ebf24e7	0.37332842
51	0x3f07aab4	0.5299485
52	0x3dd02b5d	0.10164521
53	0xbe43399e	-0.19064948
54	0x3e848f5b	0.25890622
55	0xbe98f0e7	-0.29871294
56	0x3f0e533c	0.55595756
57	0xbe1ff7dd	-0.15621896
58	0x3e8c9ee2	0.27464968
59	0xbe891785	-0.26775756
60	0x3f27aa0d	0.6549385
61	0xbdf2bff0	-0.118530154
62	0xbe712124	-0.23547798
63	0x3e5550f6	0.20831665
64	0xbe97090d	-0.29499093
65	0xbeb26573	-0.34843025
66	0x3e88fcb4	0.26755297
67	0xbf08c25c	-0.5342157
68	0xbd8d8915	-0.06910912
69	0xbf4e6913	-0.8062908
70	0x3eb77d50	0.35837793
71	0x3e8b0381	0.2715111
72	0xbe08c8c6	-0.13357839
73	0x3e8656c6	0.26238078
74	0x3ec2c2d1	0.38039258
75	0xbec0baa9	-0.3764241
76	0xbed8a77c	-0.4231528
77	0xbed2789e	-0.4110765
78	0xbf673754	-0.903188
79	0x3e6be627	0.23037015
80	0xbf080c0a	-0.5314337
81	0xbe83d5a6	-0.25748938
82	0xbf123a16	-0.5711988
83	0x3ea12784	0.3147546
84	0x3f3236e0	0.6961498
85	0x3eb4ad8d	0.3528866
86	0xbc20c911	-0.009813563
87	0x3e800329	0.2500241
88	0xbeec421b	-0.46144184
89	0xbdddfb84	-0.108389884
90	0x3e8a242b	0.2698072
91	0xbe89a9af	-0.2688727
92	0x3d86e77d	0.06587122
93	0xbecee211	-0.4040685
94	0x3e216ee7	0.15764962
95	0xbe1d41de	-0.15357158

bias f4 [32]
0	0xbf045e41	-0.5170632
1	0xbf0fc69e	-0.5616244
2	0x3eb48e6a	0.35264903
3	0xbeea885d	-0.45807162
4	0x3e6ad3ee	0.22932407
5	0x3e95e151	0.29273465
6	0xbdcff49a	-0.10154076
7	0x3e5aad6a	0.21355215
8	0xbe50fd15	-0.20409043
9	0xbd199f7e	-0.03750562
10	0xbf0b4ea1	-0.54416853
11	0x3d8547bf	0.06507825
12	0xbebe4ad9	-0.3716648
13	0xbe972868	-0.29523015
14	0x3eeea0fb	0.46607193
15	0x3f051ae5	0.5199416
16	0x3c234605	0.009965424
17	0x3ccb74bf	0.024835942
18	0xbe834fdd	-0.25646868
19	0x3e7f2a24	0.24918419
20	0xbe8e0791	-0.27740148
21	0xbe006ffb	-0.12542717
22	0x3e5b38b7	0.21408354
23	0xbe4b1caf	-0.1983516
24	0xbef98698	-0.487355
25	0x3db21d51	0.08696998
26	0xbf0d9e42	-0.5531961
27	0x3f0a5fcc	0.54052424
28	0xbe715d96	-0.23570856
29	0xbdcd189d	-0.1001446
30	0xbe82f847	-0.25580046
31	0xbe019b88	-0.12656987

weight f4 [16, 32]
0	0xbdd4b823	-0.10386684
1	0xbd156574	-0.036473706
2	0x3dd549e0	0.10414481
3	0x3e0729bd	0.13199516
4	0x3d9afd5e	0.07567857
5	0x3dd7af12	0.10531439
6	0x3c64f8ce	0.013975335
7	0x3c6021a9	0.0136799
8	0xbdcfa9a0	-0.10139775
9	0x3daf5010	0.085601926
10	0xbe302896	-0.17202982
11	0xbd500736	-0.050788127
12	0xbd11e737	-0.035620894
13	0x3c2f1dc6	0.010688251
14	0x3d471f2c	0.048613712
15	0xbc6e4998	-0.014543913
16	0x3ce52c32	0.027975176
17	0xbc61a952	-0.013773279
18	0xbd96cb9e	-0.07363056
19	0x3de64a0c	0.11244592
20	0xbadf23d7	-0.0017024231
21	0xbe20d4d4	-0.15706187
22	0x3e3500b3	0.17676048
23	0xbd766e31	-0.06016368
24	0x3dbce5e6	0.09223537
25	0x3e242b55	0.16032155
26	0xbd72e184	-0.0592971
27	0x3cd32cb4	0.025778152
28	0x3b99c47b	0.0046926118
29	0xbe0d76e4	-0.13814884
30	0x3e1ae59b	0.1512665
31	0xbe0bcb03	-0.13651662
32	0x3d854912	0.06508078
33	0xbd36997e	-0.044579975
34	0xbc916a80	-0.017750978
35	0xbd96bb3a	-0.073599294
36	0x3d2d64a8	0.04233232
37	0x3e05e40c	0.13075274
38	0xbc3acd7b	-0.011401529
39	0x3dfd676b	0.12373241
40	0x3d9a5bbd	0.07537029
41	0xbd9262dd	-0.07147763
42	0x3d1bdb53	0.03805096
43	0xbe59905a	-0.21246472
44	0x3dab9503	0.08378031
45	0xbca72850	-0.020404965
46	0xbd1d02d0	-0.03833276
47	0xbd749a63	-0.059717547
48	0xbe348920	-0.17630434
49	0xbd9553ec	-0.072913975
50	0xbdc4200b	-0.09576424
51	0x3e09b6b1	0.13448597
52	0x3ca0e108	0.019638553
53	0x3dbf9c84	0.09356025
54	0x3e332715	0.17495377
55	0x3d28d5e7	0.04121962
56	0xbe04682b	-0.12930362
57	0x3b91b324	0.004446404
58	0xbd0bf3eb	-0.034168165
59	0x3d592af1	0.053019468
60	0x3e0956fb	0.13412087
61	0xbd842175	-0.06451694
62	0xbd52d64e	-0.051473908
63	0x3d1dc033	0.038513374
64	0x3da73e87	0.08166223
65	0x3e437a51	0.19089629
66	0x3e1274e3	0.14302401
67	0xbc35d186	-0.011097318
68	0x3d0aac01	0.033855442
69	0xbd8a688d	-0.06758223
70	0xbd9c848b	-0.07642468
71	0x3dd51504	0.10404399
72	0x3e1e533e	0.15461442
73	0x3ddd4d61	0.108057745
74	0xbd3f3ef7	-0.046690907
75	0xbe2fc68f	-0.17165588
76	0xbd019437	-0.03163549
77	0x3d35507f	0.04426622
78	0x3e0e31ec	0.13886231
79	0xbc12caaa	-0.008959452
80	0xbdd5ffc1	-0.10449172
81	0x3da9f937	0.08299487
82	0x3d1f5cb6	0.038906775
83	0x3dfad013	0.12246718
84	0xbd89f31e	-0.06735824
85	0x3e23b390	0.15986466
86	0x3daf054b	0.085459314
87	0xbe27ca80	-0.16385841
88	0xbd88de22	-0.066829935
89	0x3e1742ab	0.14771526
90	0x3dd51192	0.10403742
91	0xbe4516c5	-0.19246967
92	0x3b8b8fca	0.0042590844
93	0xbd9df176	-0.07712071
94	0x3d03d20c	0.03218274
95	0xbdd69f76	-0.104796335
96	0x3c8d7848	0.017269269
97	0x3be342a5	0.006935435
98	0x3dcc8cab	0.09987768
99	0x3dc78eb7	0.097440176
100	0xbe2dd8b6	-0.169772
101	0x3e1bd7ab	0.1521899
102	0xbd70d1e0	-0.058793902
103	0xbd565753	-0.052329373
104	0xbb9c0360	-0.0047611445
105	0x3d00693a	0.031350352
106	0xbd6bb1c4	-0.057542577
107	0x3dd7edc3	0.10543396
108	0xbdfd8308	-0.12378508
109	0xbdca40f3	-0.09875669
110	0xbde56319	-0.11200542
111	0xbb314959	-0.0027051775
112	0xbdf97676	-0.12180798
113	0xbe184dba	-0.148734
114	0xbd7d1d9a	-0.06179581
115	0xbdfcaeaf	-0.12338006
116	0x3d912e19	0.070888706
117	0xbc84f0f4	-0.016228177
118	0x3dc9dcb6	0.098565504
119	0x3df08cfd	0.117456414
120	0x3e0ccf98	0.13751066
121	0x3dc21847	0.09477287
122	0x3bd079b4	0.0063621644
123	0xbe2093a1	-0.15681316
124	0x3d51058e	0.051030688
125	0x3d318b1a	0.04334555
126	0x3d9b1a2f	0.075733535
127	0x3e23a005	0.15979011
128	0xbc78f97d	-0.015196201
129	0xbda8de7f	-0.08245563
130	0xbca07ef5	-0.019591788
131	0xbdff1427	-0.12455016
132	0x3cc33f56	0.023833912
133	0x3dc1b48d	0.094582655
134	0x3e067c0b	0.13133256
135	0x3e2c15ad	0.16805144
136	0xbdf0e7c3	-0.11762955
137	0xbd4537ae	-0.048148803
138	0xbe2474d3	-0.1606019
139	0x3d036939	0.03208277
140	0xbdcb1a61	-0.09917141
141	0xbe00112c	-0.1250655
142	0xbd9e5aee	-0.07732187
143	0xbe308bbf	-0.17240809
144	0xbb4a501b	-0.00308705
145	0xbe0ba27f	-0.13636206
146	0xbcef9bcf	-0.0292491
147	0x3e12eedf	0.14348935
148	0x3ce2d50b	0.027689477
149	0xbdc4e66e	-0.096142635
150	0x3d095cb2	0.033535667
151	0xbd1c4c74	-0.03815885
152	0xbdc5c2db	-0.09656306
153	0xbe433d1a	-0.19066277
154	0x3d6c48d1	0.05768663
155	0x3c83b122	0.016075674
156	0xbcb1e04c	-0.021713398
157	0x3d4058c3	0.04695965
158	0x3c815c2d	0.015791023
159	0xbd497707	-0.04918578
160	0x3a851f05	0.0010156339
161	0xbde27db1	-0.1105913
162	0x3e1256da	0.14290944
163	0x3e2bb810	0.16769433
164	0x3ba62552	0.005070367
165	0x3d259b95	0.040431578
166	0x3db3f190	0.08786309
167	0xbd896c36	-0.06710093
168	0xbd90b3a0	-0.07065511
169	0x3d94a3fc	0.0725784
170	0x3d9090a1	0.07058836
171	0x3dc469f0	0.095905185
172	0x3bcc2090	0.0062294677
173	0xbe306d7a	-0.17229262
174	0xbda3db81	-0.080008514
175	0xbe01f2c2	-0.12690261
176	0x3a80a4b9	0.0009814716
177	0xbdcdce35	-0.100490965
178	0x3e174dfd	0.14775844
179	0xbd5b24b2	-0.053501792
180	0x3e19d7f1	0.15023781
181	0xbdd2482c	-0.10267672
182	0xbd184726	-0.037177227
183	0xbcaaf85c	-0.02087038
184	0x3df9caa0	0.12196851
185	0xbcb0f177	-0.021599514
186	0x3e00c369	0.12574543
187	0x3dcbf7f6	0.09959404
188	0xbe3b042f	-0.18263315
189	0x3e0b3976	0.13596138
190	0x3e40f2cf	0.18842624
191	0x3de15705	0.11002926
192	0xbe27adff	-0.16374968
193	0x3dd5b2c1	0.10434485
194	0x3cd81d7b	0.026381245
195	0xbdc169ec	-0.09444031
196	0x3db58aaf	0.088643424
197	0x3e1a3eba	0.15062991
198	0xbe41a6bc	-0.1891126
199	0x3e1a6875	0.1507891
200	0xbd093dc9	-0.03350619
201	0xba4a2343	-0.0007710943
202	0x3c051b01	0.008124114
203	0xbe1bf54d	-0.15230294
204	0xbe087a0e	-0.1332781
205	0xbe000c61	-0.12504722
206	0xbca66f22	-0.020316664
207	0x3d121207	0.035661723
208	0xbdaac39b	-0.0833809
209	0xbdf4990a	-0.119432524
210	0x3d7223f2	0.05911631
211	0xbd80b8b0	-0.06285226
212	0x3ce3fde5	0.027831027
213	0xbe02866a	-0.12746587
214	0x3d214e83	0.039381515
215	0xbe1ba629	-0.15200104
216	0xbd281295	-0.041033346
217	0x3dcb488a	0.09925945
218	0xbca6854f	-0.020327238
219	0xbe304a18	-0.17215765
220	0x3da8219b	0.08209535
221	0xbe035671	-0.12825944
222	0x3d9017ad	0.07035766
223	0xbdeb4490	-0.11487687
224	0x3e099403	0.13435368
225	0xbd6f4eab	-0.058424633
226	0x3d950f39	0.07278294
227	0xbe020933	-0.12698822
228	0xbe254c25	-0.16142328
229	0x3e37f931	0.17966153
230	0x3d2ec14b	0.042664807
231	0xbca46b1f	-0.02007061
232	0xbe27c033	-0.16381912
233	0x3ddbb2df	0.10727476
234	0x3e2eab49	0.17057528
235	0x3df01c8d	0.11724196
236	0xbdea1510	-0.114297986
237	0x3e2f9f36	0.17150578
238	0xbe2bc388	-0.16773808
239	0xbda1fa00	-0.07909012
240	0xbdc6ca07	-0.097065024
241	0x3e1872c7	0.14887534
242	0x3e2c483e	0.16824433
243	0x3dee000f	0.11621105
244	0xbe32c372	-0.17457369
245	0x3d8105bf	0.06299924
246	0x3e0f7a8f	0.14011596
247	0xbe1bdd37	-0.15221106
248	0xbdc554a2	-0.09635283
249	0xbe0c07b8	-0.1367482
250	0x3d85b6f4	0.06529036
251	0x3de72066	0.112854764
252	0x3cd76da3	0.026297396
253	0xbda3efc7	-0.08004718
254	0xbc1b9156	-0.0094951
255	0xbd34dca1	-0.04415572

bias f4 [16]
0	0x3e326122	0.17419866
1	0x3ba3a08d	0.0049935044
2	0x3e23901a	0.15972939
3	0x3e2d947e	0.16951177
4	0x3e1b11ce	0.1514351
5	0x3df09c38	0.11748546
6	0xbe1c6cc7	-0.1527587
7	0xbe068e72	-0.13140276
8	0xbd8bc5e0	-0.06824851
9	0x3c5e8609	0.013581761
10	0xbd26e42f	-0.040744957
11	0xbe037c28	-0.1284033
12	0x3e12d992	0.14340809
13	0xbd411e1a	-0.047147848
14	0x3dca86d2	0.09888996
15	0xbd59289d	-0.053017247

weight f4 [32]
0	0x3f7f1df2	0.9965507
1	0x3f810b41	1.008156
2	0x3f77ec5a	0.9684502
3	0x3f817290	1.0113087
4	0x3f797615	0.97445804
5	0x3f792af5	0.9733117
6	0x3f7e76f8	0.9940028
7	0x3f7fe869	0.99964005
8	0x3f7c4ba6	0.9855293
9	0x3f7ce573	0.9878761
10	0x3f7bbe74	0.98337483
11	0x3f81eb6e	1.0149972
12	0x3f7d306b	0.98902005
13	0x3f822425	1.016728
14	0x3f79b7b7	0.9754595
15	0x3f81d79d	1.0143925
16	0x3f813f7c	1.0097499
17	0x3f8066cf	1.0031375
18	0x3f827a62	1.0193598
19	0x3f7be796	0.9840025
20	0x3f82470c	1.0177932
21	0x3f80753b	1.0035776
22	0x3f8064c6	1.0030754
23	0x3f800f10	1.0004597
24	0x3f86340c	1.0484633
25	0x3f77b8f3	0.96766585
26	0x3f81d86f	1.0144175
27	0x3f826636	1.0187442
28	0x3f7c3da8	0.9853158
29	0x3f769e6f	0.963355
30	0x3f77951c	0.967119
31	0x3f76c7a4	0.9639838

bias f4 [32]
0	0xbdd68936	-0.1047539
1	0x3bb1d68a	0.0054271864
2	0x3d9bafc5	0.07601885
3	0x3da62f0d	0.08114443
4	0x3d531a49	0.05153874
5	0xbd53ac82	-0.05167819
6	0x3dcbb394	0.09946361
7	0x3c8e7dea	0.017394025
8	0x3d903bd6	0.07042663
9	0xbd03d2f3	-0.0321836
10	0xbd1e13f2	-0.03859324
11	0x3c41449c	0.011796143
12	0xbd3d228d	-0.04617553
13	0x3e34ab17	0.1764339
14	0xbd6af0a5	-0.057358403
15	0xbd1f9055	-0.038956005
16	0x3cc70da8	0.024298504
17	0x3ce1154d	0.027475977
18	0xbc024a34	-0.007952262
19	0x3ced2da8	0.028952435
20	0xbd1f766b	-0.03893129
21	0xbc952da5	-0.018210242
22	0xbce1f263	-0.0275814
23	0x3dd16816	0.10224931
24	0x3c22826a	0.009918788
25	0x3b9a6563	0.0047117933
26	0xbc57428a	-0.013138423
27	0xbd861e8d	-0.06548796
28	0x3d8c0fa3	0.0683892
29	0x3b739bb4	0.0037171664
30	0xbdc63fb3	-0.096801184
31	0xbdf15884	-0.11784461

running_mean f4 [32]
0	0xbf309d79	-0.68990284
1	0xc075e837	-3.8422983
2	0x3f94867b	1.160354
3	0x40991e55	4.7849526
4	0x3fc05c2c	1.5028129
5	0xbf91eeab	-1.1400961
6	0x40c66e72	6.200982
7	0x40112ed9	2.2684844
8	0xc081afd9	-4.052716
9	0x408a0286	4.312808
10	0xc03f425a	-2.9884248
11	0x3ffc1def	1.9696635
12	0x407574e0	3.8352585
13	0xc01a7de4	-2.4139338
14	0x408b6052	4.355508
15	0xc01e54dd	-2.4739296
16	0x4081cc35	4.0561776
17	0xbfcaae9b	-1.5834535
18	0x408e482b	4.4463096
19	0xc0304f54	-2.7548418
20	0xbf6260fe	-0.8842925
21	0xbeb21bda	-0.34786874
22	0x4036de14	2.8573046
23	0xbf4062a8	-0.7515054
24	0x3dc3e8d6	0.09565894
25	0x3e7ed4e3	0.24885897
26	0xc097932c	-4.7367153
27	0x40af33c5	5.4750695
28	0xc01215bc	-2.2825766
29	0x3ff5bfdc	1.9199176
30	0x3fcf6c06	1.6204841
31	0xbfecd2d6	-1.8501842

running_var f4 [32]
0	0x40d9f7d2	6.8115015
1	0x41a70c97	20.881147
2	0x41a94fc4	21.163948
3	0x4187ff02	16.999516
4	0x41d1a37a	26.204823
5	0x405f9e38	3.494032
6	0x41c4172a	24.51131
7	0x41a0b38f	20.087675
8	0x41580edd	13.503629
9	0x4172ef50	15.183426
10	0x410ae452	8.680742
11	0x419ddd7e	19.73315
12	0x41684617	14.517112
13	0x4031c2ba	2.7775102
14	0x41166834	9.40044
15	0x40fce4bf	7.902923
16	0x4121f348	10.121895
17	0x4000e255	2.0138142
18	0x4188fe6d	17.124231
19	0x40b21b0a	5.5658007
20	0x40cf8eb8	6.4861717
21	0x41a4e25f	20.610533
22	0x41b0fa77	22.122297
23	0x419eac38	19.834091
24	0x41a64b21	20.786684
25	0x420a3166	34.54824
26	0x41780811	15.501969
27	0x4190a62b	18.081137
28	0x41051457	8.317466
29	0x41939b59	18.450853
30	0x4084c99b	4.14961
31	0x3fea82bd	1.8321148

weight f4 [32, 18]
0	0xbe12965e	-0.14315173
1	0xbe36aa6e	-0.17838451
2	0xbdbec9a5	-0.093158044
3	0xbb154ea6	-0.0022782474
4	0xbd3f82ec	-0.046755716
5	0xbe2231a0	-0.15839243
6	0x3e3e38ef	0.18576406
7	0x3dd2db65	0.102957524
8	0x3e72941d	0.23689313
9	0xbdd38ed6	-0.10329978
10	0xbe245b02	-0.16050342
11	0xbd89029d	-0.066899516
12	0xbe536e92	-0.20647648
13	0x3d536a57	0.051615085
14	0xbe461fdd	-0.19348092
15	0x3dbcd46a	0.09220202
16	0x3e2944ad	0.16530104
17	0x3e1fa003	0.15588383
18	0x3e90c17a	0.2827261
19	0x3e62c128	0.22143996
20	0x3e30acbb	0.17253391
21	0x3ce9e85f	0.028553186
22	0xbd9a2a8f	-0.07527649
23	0xbcaef147	-0.021355284
24	0x3d0fb634	0.03508587
25	0x3c953014	0.018211402
26	0xbe047bcd	-0.12937851
27	0xbb37ca5b	-0.0028044197
28	0xbe4c2332	-0.19935301
29	0xbe120915	-0.14261277
30	0x3e3d6aff	0.18497847
31	0xbdc5e74f	-0.09663259
32	0x3b32a5a7	0.002725938
33	0xbdf7642b	-0.120796524
34	0x3c06edf7	0.008235446
35	0x3e0b75d4	0.13619167
36	0xbde978c2	-0.11399986
37	0x3e32a643	0.17446236
38	0x3e07ced1	0.13262488
39	0x3c97e473	0.01854155
40	0xbe1ee81c	-0.1551823
41	0x3e264cc5	0.16240223
42	0xbdae8bac	-0.08522734
43	0x3e2edf23	0.17077307
44	0xbdb4e228	-0.088321984
45	0x3e646167	0.22302781
46	0xbe83c5ec	-0.2573694
47	0xbe50f786	-0.20406923
48	0xbe63a811	-0.22232081
49	0x3dbadf6d	0.09124646
50	0x3dc286f6	0.09498398
51	0x3e8875ec	0.26652467
52	0xbc59ab0a	-0.013285408
53	0xbcfca6e3	-0.030841297
54	0xbe32c4df	-0.17457913
55	0x3d16549c	0.036701784
56	0xbe163374	-0.14668065
57	0x3e41911c	0.18903011
58	0xbe5dd027	-0.21661435
59	0x3d464a3f	0.04841065
60	0x3e449275	0.19196494
61	0x3e6dcdda	0.23223057
62	0x3e1bcec5	0.15215595
63	0xbe145633	-0.14486007
64	0x3e2d8439	0.1694497
65	0xbdfc06b6	-0.123059675
66	0xbc947fe8	-0.018127397
67	0x3d4c47e0	0.049873233
68	0x3e35503e	0.17706391
69	0xbe0b61ae	-0.1361148
70	0x3e79371a	0.24337426
71	0xbbe290ff	-0.0069142575
72	0x3dba1b41	0.090872295
73	0xbe69711c	-0.22797054
74	0xbc9fa942	-0.019489888
75	0xbd99c522	-0.07508303
76	0x3e4ff2f6	0.20307526
77	0xbe0aa3f5	-0.13539107
78	0x3e62abd8	0.22135866
79	0x3e82287f	0.2542152
80	0x3cfab2ce	0.030602839
81	0x3c42b353	0.011883575
82	0xbdf3d7fa	-0.11906429
83	0x3e7d4b80	0.24735832
84	0xbe3d489b	-0.18484728
85	0x3e2efda1	0.17088939
86	0x3d9579f5	0.07298652
87	0xbdb14857	-0.08656376
88	0xbbee42fd	-0.007271169
89	0xbd957d47	-0.072992854
90	0x3e1f2d8b	0.15544717
91	0x3e9ffe5a	0.31248742
92	0xbdfb0cab	-0.122582756
93	0xbe0b6740	-0.13613605
94	0xbe26fbc5	-0.1630698
95	0xbc1177a1	-0.008878619
96	0x3d5105db	0.051030975
97	0xbe851a97	-0.2599685
98	0x3c75c302	0.015000107
99	0xbd57d7be	-0.052695982
100	0x3d4a00cc	0.049317166
101	0xbe0be0ac	-0.13659924
102	0x3e34978e	0.17635939
103	0x3e5f1ec5	0.21789081
104	0xbdbb9131	-0.091585524
105	0xbd33b2ee	-0.043871813
106	0xbe2edc4a	-0.17076221
107	0xbdb86bfe	-0.09004973
108	0xbe15f4b7	-0.14644133
109	0x3e217c37	0.1577004
110	0xbdfab59e	-0.12241672
111	0xbde8faeb	-0.11375984
112	0x3e548955	0.20755513
113	0x3db69b83	0.0891638
114	0x3dd961c9	0.10614354
115	0xbc0aeea9	-0.008479753
116	0x3e0bac78	0.1364001
117	0x3dc2e4e7	0.09516316
118	0x3e073c31	0.13206555
119	0xbe0149d8	-0.12625825
120	0x3c79910c	0.015232336
121	0xbe066eb3	-0.13128166
122	0x3e3e2696	0.18569407
123	0xbdaeff1a	-0.085447505
124	0xbd51821b	-0.05114947
125	0x3d8448fc	0.06459233
126	0x3e22d86a	0.15902868
127	0xbd3e5bec	-0.046474382
128	0x3dce05da	0.1005971
129	0xbc7e036c	-0.0155037455
130	0x3dceb672	0.100933924
131	0x3e03c606	0.12868509
132	0xbbc74fad	-0.006082496
133	0x3e5ea007	0.21740733
134	0x3e25c2ad	0.16187544
135	0x3c155772	0.009115087
136	0xbd7b6e77	-0.061384644
137	0x3d824547	0.0636087
138	0x3def5d89	0.11687762
139	0x3bafa39c	0.00536008
140	0xbe7644e9	-0.24049725
141	0xbdbd0b98	-0.09230727
142	0x3c0e45a7	0.008683599
143	0xbdb55f1c	-0.08856031
144	0x3cfcb29a	0.030846883
145	0x3e222931	0.15836026
146	0xbca98537	-0.020693405
147	0x3e3fd1e4	0.1873241
148	0x3e71460f	0.23561881
149	0xbe2017d6	-0.15634093
150	0xbd334c66	-0.04377403
151	0x3c917748	0.017757073
152	0xbd22f655	-0.0397857
153	0xbdfaa515	-0.12238518
154	0xbe201ba5	-0.15635546
155	0xbd9b599f	-0.07585453
156	0xbdef9d6d	-0.116999485
157	0xbde49e01	-0.11162949
158	0x3dfe3a7f	0.12413501
159	0xbd6b2aa2	-0.057413705
160	0xbdf1fa20	-0.11815286
161	0xbe30dfcd	-0.17272873
162	0xbe0a0f07	-0.13482295
163	0x3e5a9256	0.21344885
164	0x3e6d8efa	0.23199072
165	0xbdf44eca	-0.1192909
166	0xbe602560	-0.21889257
167	0x3e41767e	0.18892857
168	0xbdbd9d81	-0.09258557
169	0x3d4bdeb1	0.049772922
170	0xbe1cb195	-0.15302117
171	0x3e2c57ea	0.16830412
172	0xbe105172	-0.14093569
173	0xbe374cc8	-0.17900383
174	0xbe01250d	-0.1261179
175	0xbd649981	-0.055810455
176	0xbe172948	-0.14761841
177	0xbe427a4c	-0.18991965
178	0x3dcf9db8	0.10137504
179	0xbdc50ee5	-0.096219815
180	0x3d233048	0.039840966
181	0xbdb01abf	-0.085988514
182	0x3d841e9a	0.06451149
183	0x3cb6b167	0.022301389
184	0xbe822d95	-0.254254
185	0x3e057f3a	0.13036814
186	0xbe33e33d	-0.17567153
187	0xbe111ade	-0.14170405
188	0xbe57f63a	-0.21090022
189	0xbdac79c4	-0.084216624
190	0x3d6cdfbb	0.057830554
191	0xbd2e77ee	-0.042594843
192	0x3db2f906	0.08738904
193	0x3d69d696	0.05708941
194	0x3d1aeb5a	0.037822105
195	0xbd2c0445	-0.04199626
196	0x3c78d233	0.015186834
197	0xbe6543df	-0.22389172
198	0xbc43e136	-0.01195555
199	0x3e48d695	0.19613107
200	0xbdb47f00	-0.08813286
201	0x3e29f3c8	0.16596901
202	0x3d6790e0	0.056534648
203	0x3d652dad	0.055951763
204	0x3d9b172a	0.075727776
205	0x3e0c96c1	0.13729383
206	0xbd08537c	-0.033282742
207	0xbc9f2d59	-0.019430803
208	0x3d90b455	0.070656456
209	0x3db2d65f	0.08732294
210	0x3ded2c12	0.11580671
211	0x3d450890	0.04810387
212	0xbde4e843	-0.11177113
213	0xbe21b5b1	-0.15791966
214	0xbe5a75f1	-0.21334054
215	0x3ea64ef2	0.32482105
216	0xbdc97688	-0.09837061
217	0x3e6256bc	0.22103399
218	0x3e6d1271	0.23151566
219	0x3db59257	0.08865803
220	0x3e4f17d7	0.20223938
221	0x3e1dda60	0.15415335
222	0x3e890090	0.26758242
223	0x3e7c6012	0.24646023
224	0xbd9a8e0c	-0.075466245
225	0x3daa3162	0.083102
226	0x3e3be482	0.18348888
227	0x3e7569b2	0.23966101
228	0x3dec7f8e	0.115477666
229	0xbe4ca360	-0.19984198
230	0xbdbd54af	-0.09244668
231	0xbc3a6233	-0.011375952
232	0x3e1e0a98	0.15433729
233	0x3e618ff5	0.22027571
234	0x3e07dbdd	0.13267465
235	0x3d6ca409	0.057773624
236	0x3d37dced	0.044888426
237	0xbe044344	-0.12916285
238	0x3c0f2765	0.00873742
239	0xbe847e68	-0.2587769
240	0xbe4c9caa	-0.19981638
241	0xbdfd57e4	-0.123702794
242	0xbd694911	-0.056954447
243	0x3d7d388c	0.061821505
244	0x3d96c370	0.073614955
245	0x3e5142d1	0.20435645
246	0xbdcc03bc	-0.0996165
247	0xbdb8c912	-0.09022726
248	0x3e411655	0.18856175
249	0xbe1675e3	-0.14693408
250	0x3e3ec0c6	0.18628225
251	0x3e36da57	0.17856728
252	0x3e236392	0.15955952
253	0xbce74dd4	-0.028235354
254	0xbdde4faa	-0.108550385
255	0x3e35946a	0.17732397

bias f4 [32]
0	0x3de2f823	0.110824846
1	0x3d8ad99f	0.06779789
2	0xbc8d688f	-0.017261771
3	0xbdc8bc3b	-0.09801527
4	0xbdf41927	-0.1191886
5	0x3dcf6e35	0.10128442
6	0x3e3ef92a	0.18649736
7	0xbe61a3d0	-0.22035146
8	0xbe5af73f	-0.2138338
9	0x3d52d7a0	0.051475167
10	0x3cad28ad	0.02113756
11	0xbdf05846	-0.11735587
12	0x3e66bfc6	0.22534093
13	0x3dffedb9	0.12496514
14	0x3e2df652	0.16988495
15	0xbe467f3d	-0.19384475
16	0x3e6141ca	0.21997753
17	0xbc91aa76	-0.017781477
18	0x3db1e071	0.08685387
19	0xbe22ca18	-0.15897405
20	0xbe0a4e46	-0.13506421
21	0xbe2ed2e1	-0.17072631
22	0xbda88f51	-0.082304604
23	0xbe496ba3	-0.19669966
24	0xbe57879c	-0.21047825
25	0x3cfa136a	0.030526835
26	0x3da615e0	0.08109641
27	0x3d55eaf6	0.05222603
28	0x3e006760	0.12539434
29	0xbd0caf9f	-0.034347173
30	0xbd6ac01a	-0.05731211
31	0x3da00b08	0.07814604

weight f4 [2, 32]
0	0xbe827cf8	-0.2548597
1	0x3de6a454	0.11261812
2	0xbe707782	-0.23483089
3	0xbd775cd7	-0.060391273
4	0x3c930a1d	0.017949158
5	0xbe2812bb	-0.16413395
6	0xbe2bcb15	-0.16776688
7	0x3e0b1d45	0.13585384
8	0x3d75755d	0.05992638
9	0x3deeeef8	0.116666734
10	0x3dcb1265	0.09915618
11	0xbd1d346b	-0.038380068
12	0x3dbfb494	0.093606144
13	0x3d28a1ac	0.041169807
14	0x3e2e911b	0.17047541
15	0xbcf6c7c2	-0.030124549
16	0x3d50033f	0.050784346
17	0x3e2ea123	0.17053656
18	0x3e4a9122	0.19781926
19	0xbdc449db	-0.09584399
20	0x3e598907	0.21243678
21	0xbd335e9e	-0.043791406
22	0x3d53b2d6	0.051684223
23	0x3bba1d51	0.0056797643
24	0x3d97017e	0.073733315
25	0xbe19701c	-0.14984173
26	0xbe2b7e02	-0.16747287
27	0xbce29496	-0.027658742
28	0xbe516030	-0.20446849
29	0xbcdef671	-0.027217122
30	0xbdd66cdf	-0.10469984
31	0xbe14e6d2	-0.14541176
32	0xbe17ec3d	-0.14836212
33	0x3cbd70b5	0.023125032
34	0xbdba007f	-0.09082126
35	0x3e335ac9	0.175151
36	0x3d39dc48	0.045376092
37	0x3db609ac	0.088885635
38	0xbc94d54d	-0.018168116
39	0xbe09b3c6	-0.13447484
40	0x3d9103d1	0.07080806
41	0x3e178ca7	0.14799748
42	0x3e4ee587	0.20204745
43	0xbcd52595	-0.026018897
44	0x3e439637	0.19100271
45	0xbd25772a	-0.040396847
46	0x3d6a97ad	0.057273556
47	0xbdcc3f33	-0.09972992
48	0x3df39f03	0.118955635
49	0xbd4d342a	-0.050098576
50	0xbe005781	-0.1253338
51	0xbe0bca01	-0.13651277
52	0x3e3fbe45	0.18724926
53	0x3e43b384	0.19111449
54	0x3e429778	0.19003093
55	0x3e15f795	0.14645226
56	0xbd05356f	-0.03252166
57	0xb9b926d8	-0.0003531489
58	0x3de85c77	0.11345761
59	0xbe20105a	-0.15631238
60	0xbd8688c6	-0.06569056
61	0x3aa5b50a	0.0012642455
62	0x3e29a309	0.16566099
63	0x3da21469	0.07914049

bias f4 [2]
0	0xbd568c1b	-0.05237971
1	0xbd3f5d1e	-0.046719663

weight f4 [32]
0	0x3f870a39	1.0549995
1	0x3f848a4c	1.0354705
2	0x3f898a26	1.0745285
3	0x3f812a63	1.009106
4	0x3f804db4	1.0023713
5	0x3f826da2	1.0189707
6	0x3f83c577	1.0294636
7	0x3f7a03ce	0.97662055
8	0x3f83e774	1.0305009
9	0x3f80ec96	1.00722
10	0x3f857585	1.0426489
11	0x3f7e6d7f	0.9938583
12	0x3f7b68a6	0.98206556
13	0x3f7572b4	0.9587815
14	0x3f841d26	1.0321395
15	0x3f80f58d	1.0074936
16	0x3f8751b7	1.0571812
17	0x3f7a1cc6	0.97700155
18	0x3f822b63	1.016949
19	0x3f879480	1.0592194
20	0x3f8b30c3	1.0874256
21	0x3f8620cc	1.0478759
22	0x3f818a77	1.0120381
23	0x3f8152be	1.0103376
24	0x3f81374a	1.0094998
25	0x3f879656	1.0592754
26	0x3f80456f	1.002119
27	0x3f8024ba	1.0011208
28	0x3f87011c	1.0547214
29	0x3f767a6b	0.96280545
30	0x3f85a35f	1.0440482
31	0x3f835581	1.0260469

bias f4 [32]
0	0x3d7b3f6b	0.061339777
1	0x3e18c687	0.14919482
2	0x3d12752c	0.035756275
3	0x3d576116	0.052582823
4	0xbd119f28	-0.035552174
5	0xbce63828	-0.02810295
6	0xbd106474	-0.03525205
7	0x3c90b80f	0.017665891
8	0x3c69bfc8	0.014266916
9	0x3bb1dfd5	0.005428294
10	0x3dc6a9b2	0.097003356
11	0xb937876c	-0.00017502689
12	0xbd97ed87	-0.074183516
13	0xbd293c99	-0.041317556
14	0x3c7370d0	0.01485844
15	0xbd164193	-0.03668363
16	0xbda344af	-0.07972085
17	0x3dbd0d1b	0.09231015
18	0x3db3f500	0.087869644
19	0x3da6085a	0.08107062
20	0x3d13b424	0.036060467
21	0xbc557984	-0.01302946
22	0x3b9cb138	0.0047818683
23	0xbc09494c	-0.008379292
24	0x3d2ecfc2	0.042678602
25	0xba5dc97e	-0.00084605056
26	0x3ab4fd70	0.001380844
27	0xbbe0e281	-0.006862939
28	0x3dac4a76	0.0841264
29	0x3ce6602a	0.028122026
30	0xbd9bd09c	-0.076081485
31	0xbd34fe4b	-0.044187825

running_mean f4 [32]
0	0x3eb663f2	0.35623127
1	0xbdcf5b6d	-0.1012486
2	0x3e1a6e6f	0.1508119
3	0x3c07a139	0.008278185
4	0xbdd9910d	-0.10623369
5	0x3e04139c	0.12898105
6	0x3eabd27d	0.33559027
7	0xbeb71574	-0.35758555
8	0xbdff7d48	-0.124750674
9	0x3d8d9a8a	0.069142416
10	0xbe03f0c5	-0.12884815
11	0xbe2e2951	-0.17007948
12	0x3daed7d1	0.085372575
13	0x3b002acc	0.001955676
14	0x3daea15a	0.08526869
15	0xbe0a1d97	-0.1348785
16	0x3e91c345	0.2846929
17	0xbe7ba412	-0.24574307
18	0xbd83cf30	-0.06436002
19	0xbcd34a64	-0.025792308
20	0xbe3820ee	-0.17981312
21	0xbe1a18aa	-0.15048471
22	0xbdf2534a	-0.118322924
23	0x3c22f852	0.0099468995
24	0xbed1cc38	-0.4097612
25	0x3c32a97f	0.010904669
26	0x3e12419a	0.14282838
27	0x3c04e88f	0.008112087
28	0x3dbe4ae5	0.09291629
29	0x3de2646a	0.11054309
30	0x3deb91ea	0.1150244
31	0xbcf1a218	-0.029496238

running_var f4 [32]
0	0x3d32351b	0.043507677
1	0x3d20356a	0.03911344
2	0x3df2ac71	0.11849297
3	0x3defa2ee	0.11700998
4	0x3cd42c0c	0.02589991
5	0x3d8a9077	0.06765836
6	0x3c8f4c4d	0.017492438
7	0x3d0772c5	0.033068437
8	0x3db0e10c	0.08636674
9	0x3d4e3e92	0.05035264
10	0x3cacb15d	0.021080667
11	0x3d10f66a	0.03539125
12	0x3d1a98db	0.03774343
13	0x3d88d8a8	0.06681949
14	0x3d51e500	0.051243782
15	0x3cd7454b	0.026278159
16	0x3ca02c9d	0.019552523
17	0x3d1f5d4c	0.038907334
18	0x3d2ac998	0.04169616
19	0x3d7d7073	0.061874818
20	0x3d367c0c	0.044551894
21	0x3d018041	0.031616453
22	0x3d3206ae	0.0434634
23	0x3e14640c	0.1449129
24	0x3d1719bf	0.036889788
25	0x3db0af25	0.08627156
26	0x3d90e15c	0.07074234
27	0x3d9d589a	0.07682915
28	0x3e1f9079	0.15582456
29	0x3d25d71e	0.040488355
30	0x3dae0ebd	0.08498905
31	0x3d7b0a18	0.061288923

weight f4 [32, 16]
0	0x3e39f6c4	0.1816054
1	0x3e11fbcb	0.14256208
2	0x3e068dd7	0.13140045
3	0x3deebe96	0.11657445
4	0xbd67088e	-0.056404643
5	0xbd07784f	-0.03307372
6	0xbe540d5a	-0.20708218
7	0xbcd7fbeb	-0.026365241
8	0x3e5467da	0.20742741
9	0xbe263d49	-0.16234316
10	0xbdbde844	-0.09272817
11	0x3d10a05f	0.03530919
12	0x3e25731c	0.16157192
13	0x3e1e8089	0.1547872
14	0xbe2dcc86	-0.16972551
15	0x3ca327c1	0.019916417
16	0x3e350b77	0.17680155
17	0x3cfb0c16	0.030645411
18	0x3d29cd64	0.04145564
19	0x3e738d76	0.23784432
20	0xbe0b88c5	-0.13626392
21	0x3e85066a	0.25981456
22	0xbe44d97d	-0.1922359
23	0x3d518700	0.051154137
24	0xbdcc9647	-0.09989601
25	0xbdae0f83	-0.084990524
26	0xbdf9904d	-0.12185726
27	0xbc81892f	-0.015812485
28	0xbe4d2c8b	-0.20036523
29	0xbe3e898e	-0.1860716
30	0x3d5ad2ea	0.0534238
31	0x3e496dd4	0.19670802
32	0xbe252e3e	-0.16130921
33	0x3d4b03b3	0.049564075
34	0xbe80f2f3	-0.25185356
35	0xbd574c7a	-0.052563168
36	0xbe52e0e3	-0.205936
37	0xbdf21956	-0.11821239
38	0x3d73ca5f	0.059519168
39	0x3e6052f7	0.21906649
40	0xbd9de332	-0.0770935
41	0x3dba0306	0.09082608
42	0x3de325a5	0.110911645
43	0x3d1736ce	0.0369175
44	0x3e43ddd5	0.19127591
45	0xbda31feb	-0.07965072
46	0xbe057af8	-0.1303519
47	0xbea1d847	-0.3161032
48	0xbd9b4285	-0.07581047
49	0xbe3614b0	-0.17781329
50	0x3e1f8f43	0.15581994
51	0x3d700784	0.058600917
52	0xbdd8116d	-0.10550199
53	0xbe878bdb	-0.2647389
54	0xbd1ddbc9	-0.03853968
55	0x3e7d346d	0.2472703
56	0x3e3355c2	0.17513183
57	0xbd27e93b	-0.04099391
58	0x3e276391	0.16346575
59	0xbd95b3aa	-0.07309659
60	0x3d570959	0.05249915
61	0xbe3c3f0d	-0.18383427
62	0x3d285003	0.04109193
63	0xbd8a76c8	-0.06760937
64	0xbd958c91	-0.073022015
65	0x3d8284e7	0.06373005
66	0xbdfa800d	-0.12231455
67	0x3d592941	0.05301786
68	0x3d99412e	0.07483135
69	0xbd51e4b3	-0.051243495
70	0x3deedbfa	0.11663051
71	0xbe70b904	-0.23508078
72	0xbe00a574	-0.12563115
73	0x3d433a22	0.04766286
74	0xbd7ec5fa	-0.062200524
75	0xbc027e49	-0.007964679
76	0x3c889926	0.01667459
77	0xbb35a631	-0.0027717466
78	0x3dd70f45	0.10500959
79	0xbe63afed	-0.22235079
80	0x3d2ea9f2	0.04264254
81	0x3d1d5dae	0.038419418
82	0xbe396bcf	-0.18107532
83	0x3d8be733	0.06831207
84	0x3dedaae9	0.11604864
85	0x3d008d6f	0.03138488
86	0xbe638296	-0.22217783
87	0xbe2b28db	-0.16714804
88	0x3c3b07b0	0.011415407
89	0x3e850e8b	0.25987658
90	0xbda0a2e7	-0.07843571
91	0x3e3965c8	0.18105233
92	0x3df2e2d2	0.11859669
93	0x3d77c88e	0.060494
94	0x3e2949fc	0.16532129
95	0x3db58d7f	0.08864879
96	0xbe8f41ba	-0.27979833
97	0x3d0593c6	0.03261163
98	0x3d0bd725	0.034140725
99	0x3e32966e	0.17440197
100	0x3e5627b0	0.20913577
101	0xbe229050	-0.15875363
102	0xbc1a38bf	-0.009412943
103	0x3e769d64	0.24083477
104	0x3d10e642	0.03537584
105	0xbca6bddc	-0.020354204
106	0xbd818cb3	-0.06325664
107	0xbd87cc29	-0.06630737
108	0x3ddcb268	0.10776216
109	0xbe70a00c	-0.23498553
110	0xbd4fb212	-0.05070693
111	0x3dc8da72	0.0980729
112	0xbd913374	-0.07089892
113	0x3e8d9184	0.27650082
114	0xbd5777c4	-0.05260445
115	0xbe8637fd	-0.2621459
116	0x3d9fa697	0.07795446
117	0x3d16333b	0.03666995
118	0xbd6368cd	-0.055519868
119	0xbcc424de	-0.02394336
120	0xbe3c2968	-0.1837517
121	0xbdea4af1	-0.11440075
122	0xbd9892b1	-0.07449854
123	0x3c85e075	0.016342381
124	0xbe4828ec	-0.1954686
125	0x3e6bcabe	0.23026559
126	0x3ddbfa29	0.10741074
127	0x3cad6ace	0.021169093
128	0xbe5a264a	-0.21303669
129	0x3e1daacb	0.15397184
130	0xbe43ccc7	-0.19121085
131	0xbe24f540	-0.1610918
132	0xbd66919e	-0.056291215
133	0xbe5e9247	-0.21735488
134	0xbc7aed15	-0.015315314
135	0x3e74b628	0.23897612
136	0xbe66e7d0	-0.22549367
137	0xbdd9317d	-0.10605142
138	0x3d573382	0.052539356
139	0xbe2f29d4	-0.171058
140	0xbd0ed06a	-0.034866728
141	0x3de95889	0.1139384
142	0xbd42709d	-0.047470678
143	0xbe03014e	-0.12793466
144	0x3c94852e	0.018129911
145	0x3e52cab8	0.20585144
146	0x3e5a40a2	0.21313718
147	0x3e2882b9	0.16456117
148	0xbe03d271	-0.12873246
149	0x3dd95e3d	0.10613678
150	0xbe285070	-0.16436934
151	0xbd9d3730	-0.07676542
152	0xbbfaf155	-0.0076581636
153	0xbd8ae9ec	-0.06782898
154	0x3e7de488	0.24794209
155	0xbc41ad69	-0.011821129
156	0x3d44589e	0.047936074
157	0xba9508e1	-0.0011370444
158	0x3e82baee	0.2553324
159	0x3bcbd8d1	0.006220915
160	0x3b02236b	0.0019857537
161	0x3c8a2c23	0.01686675
162	0xbe09be13	-0.13451414
163	0xbdea3608	-0.11436087
164	0x3e7cbc63	0.24681239
165	0xbd9f61e8	-0.07782346
166	0xbdc6d0e9	-0.09707815
167	0xbe882800	-0.26593018
168	0x3c42b0b8	0.011882953
169	0x3d1b8a43	0.037973654
170	0x3dd2753b	0.10276266
171	0xbe0e2375	-0.13880713
172	0x3e36ce04	0.17852026
173	0xbc5df898	-0.013548039
174	0xbdf9451d	-0.121713854
175	0xbe366db7	-0.1781529
176	0xbe0c7f65	-0.13720472
177	0xbe6751d4	-0.22589809
178	0x3e4bd9dd	0.19907327
179	0xbd953242	-0.072849765
180	0xbc34c133	-0.01103239
181	0x3d404666	0.046942137
182	0xbe0474ec	-0.12935227
183	0xbdd3d91e	-0.10344146
184	0x3e67e25d	0.22644944
185	0xbe385f00	-0.1800499
186	0x3b831894	0.0040007327
187	0xbe0ad443	-0.13557534
188	0x3e7004bf	0.2343931
189	0xbe1110b3	-0.14166526
190	0xbe8cb944	-0.27485096
191	0x3e0c24b7	0.1368588
192	0xbe2d2bdc	-0.16911262
193	0xbd19aab4	-0.03751631
194	0x3dd4918d	0.10379324
195	0x3e86c791	0.26324132
196	0x3e3bb893	0.18332128
197	0x3dc61ca9	0.09673435
198	0xbe7126c7	-0.23549949
199	0x3e6cfa40	0.23142338
200	0xbe4874fc	-0.19575876
201	0x3d8bf1c3	0.06833222
202	0x3d89613f	0.06708001
203	0x3c407f5f	0.011749118
204	0x3e327ab5	0.17429622
205	0xbde49245	-0.11160711
206	0x3e5fef4a	0.21868625
207	0x3e231c2a	0.15928712
208	0xbdc58cb5	-0.09645978
209	0xbe8a34af	-0.2699332
210	0x3d230825	0.03980269
211	0x3e9d3721	0.30706123
212	0x3e011a48	0.12607682
213	0x3dec52fa	0.11539264
214	0xbe70ef55	-0.23528798
215	0xbe65ac91	-0.2242911
216	0x3e557487	0.20845233
217	0x3c596431	0.013268516
218	0x3d61ea6c	0.055155203
219	0x3da236eb	0.07920631
220	0x3e2204dd	0.15822168
221	0xbca13b8a	-0.01968171
222	0x3dc802d2	0.09766163
223	0x3e0f0660	0.13967276
224	0x3e2ceeba	0.16887942
225	0x3da63290	0.08115113
226	0x3cd0fb8f	0.025510577
227	0x3d81b930	0.0633415
228	0x3d844a11	0.064594395
229	0xbd1c34d2	-0.03813631
230	0x3d85967f	0.065228455
231	0xbe841755	-0.2579905
232	0xbdb7a28c	-0.0896655
233	0x3d99432e	0.07483517
234	0x3e23aa91	0.15983035
235	0x3e494dca	0.1965858
236	0xbe1166bf	-0.14199351
237	0xbadbbbe6	-0.0016764372
238	0x3b79f18b	0.0038138356
239	0xbd9a9d40	-0.07549524
240	0x3df6de10	0.12054074
241	0x3d9dcb8a	0.077048376
242	0xbe0c7907	-0.13718043
243	0xbd72db9c	-0.059291467
244	0x3b21218f	0.0024586653
245	0xbe584de8	-0.21123469
246	0x3e247249	0.16059221
247	0x3dbaeb11	0.091268666
248	0xbe0a73c4	-0.13520724
249	0xbe3141f9	-0.17310323
250	0x3d21c684	0.03949596
251	0x3e805b8a	0.2506984
252	0xbe331915	-0.17490037
253	0x3d9134ba	0.07090135
254	0x3db9a30b	0.09064301
255	0xbe318f9f	-0.17339943

bias f4 [32]
0	0x3e872ba7	0.26400492
1	0x3e531bc5	0.20616062
2	0x3cf5c05f	0.029998956
3	0x3e663ede	0.2248492
4	0x3e6f32b4	0.23359185
5	0xbe53a5d8	-0.20668733
6	0xbde5be50	-0.1121794
7	0xbc721653	-0.01477583
8	0x3e595443	0.2122355
9	0x3db1d394	0.086829334
10	0x3de5e947	0.11226135
11	0x3e231452	0.1592572
12	0x3e7884ea	0.24269453
13	0x3e486b19	0.19572105
14	0xbc33d97e	-0.010977147
15	0x3dcfb7f5	0.10142509
16	0x3d7141f0	0.058900774
17	0x3e138d80	0.14409447
18	0xbdf06399	-0.11737747
19	0xbe3b24ae	-0.18275711
20	0x3d858148	0.06518799
21	0x3e5bfdb6	0.21483502
22	0x3dbfdf4f	0.093687646
23	0xbe68f2ee	-0.2274892
24	0x3dd67345	0.10471205
25	0xbe290012	-0.16503933
26	0xbdb3b0ef	-0.08773982
27	0x3de95cf9	0.11394686
28	0x3e0c5b33	0.13706665
29	0xbd9e6e3d	-0.0773587
30	0xbe08448f	-0.13307403
31	0x3d8d58c5	0.06901697

weight f4 [2, 32]
0	0xbd86635c	-0.0656192
1	0xbd290571	-0.041264955
2	0xbd86df5e	-0.06585573
3	0x3da18c8f	0.078881375
4	0xbe16b1cf	-0.14716266
5	0xbe28932c	-0.16462392
6	0x3e0436f8	0.12911594
7	0x3dfea1e8	0.12433225
8	0xbe10a381	-0.14124872
9	0x3df4ef9c	0.11959764
10	0xbcd4fd92	-0.025999818
11	0xbe6886e6	-0.2270771
12	0x3dc259b1	0.094897635
13	0x3d91d610	0.07120907
14	0xbe22e730	-0.15908504
15	0xbe0b6a05	-0.13614662
16	0x3d859a18	0.06523532
17	0xbe3295ae	-0.17439911
18	0x3e03c002	0.12866214
19	0xbcffc469	-0.031221585
20	0xbdd369e3	-0.10322931
21	0x3e08b80f	0.13351463
22	0xbe114376	-0.1418589
23	0x3c902d1d	0.017599637
24	0xbbe5c559	-0.007012051
25	0x3b97b697	0.0046299207
26	0x3c26f27b	0.010189648
27	0xbe1140e7	-0.14184915
28	0xbd0442f1	-0.032290403
29	0xbde172c3	-0.11008217
30	0x3db16fd5	0.086639084
31	0xbe0ec34b	-0.13941686
32	0x3db0ff72	0.08642472
33	0x3e8491d9	0.25892523
34	0x3dafaa48	0.085774004
35	0xbc4ff60a	-0.012692938
36	0x3d7dabbe	0.061931364
37	0xbdd7bb98	-0.105338275
38	0x3cea8b9f	0.02863103
39	0x3d634ce3	0.055493247
40	0xbe1d3049	-0.1535045
41	0xbe2b94ab	-0.16755931
42	0xbcadd80a	-0.02122118
43	0xbdd90f4c	-0.10598621
44	0xbdcf611e	-0.101259455
45	0xbd38541d	-0.04500209
46	0xbe200f88	-0.15630925
47	0xbd2f458d	-0.04279094
48	0x3d2e620a	0.042573966
49	0x3d2f71b3	0.04283304
50	0x3d390092	0.04516656
51	0x3e169e02	0.14708713
52	0xbd0747f6	-0.03302761
53	0xbbe2d926	-0.006922859
54	0x3e1f6062	0.15564111
55	0xbd3beb7f	-0.045878883
56	0x3c193bec	0.009352665
57	0x3d31bc1e	0.043392293
58	0xbd62552d	-0.05525701
59	0xbd19cac2	-0.03754688
60	0x3ca449b3	0.020054674
61	0x3e14a3b2	0.1451557
62	0x3d40af37	0.047042098
63	0x3d641728	0.055686146

bias f4 [2]
0	0x3d81ce88	0.06338221
1	0xbcf4dd17	-0.02989058

weight f4 [32]
0	0x3f832337	1.0245122
1	0x3f8b0fb6	1.086417
2	0x3f7d2780	0.988884
3	0x3f812576	1.0089557
4	0x3f85bbef	1.0447978
5	0x3f81ea5b	1.0149645
6	0x3f7dbb7d	0.9911421
7	0x3f80be19	1.0058013
8	0x3f7baae3	0.9830763
9	0x3f7db362	0.9910184
10	0x3f7773c6	0.9666103
11	0x3f8785c5	1.0587698
12	0x3f7b7d2e	0.98237884
13	0x3f7a247f	0.9771194
14	0x3f7fe8e0	0.99964714
15	0x3f7b7261	0.98221403
16	0x3f74f4ea	0.9568621
17	0x3f82595e	1.0183523
18	0x3f81185d	1.008556
19	0x3f8084d6	1.0040538
20	0x3f8277a1	1.0192758
21	0x3f804d1d	1.0023533
22	0x3f7e1fb1	0.9926711
23	0x3f7e131d	0.99247915
24	0x3f6da5a4	0.9283087
25	0x3f795687	0.97397655
26	0x3f807204	1.0034795
27	0x3f8177c7	1.0114678
28	0x3f75d70d	0.96031266
29	0x3f838e3d	1.0277783
30	0x3f7bde78	0.98386335
31	0x3f82b1f8	1.0210562

bias f4 [32]
0	0xbcd77078	-0.026298746
1	0xbddecf9c	-0.10879442
2	0xbcab8e19	-0.02094178
3	0xbb02011c	-0.0019837087
4	0x3d12c65a	0.035833694
5	0x3ce16298	0.027512833
6	0x3d240130	0.040040195
7	0xbc1feea5	-0.009761487
8	0xbc361e0c	-0.011115562
9	0xbd5f7d90	-0.054563105
10	0x3ce8a2e9	0.028397994
11	0x3d978171	0.07397736
12	0xbc8d09da	-0.017216612
13	0xbd4a836a	-0.049441732
14	0x3c9bfb2e	0.01904067
15	0x3a8304cb	0.0009995935
16	0xbda88cb5	-0.08229963
17	0x3d7830d2	0.060593434
18	0x3cc976a5	0.024592707
19	0xbda78665	-0.081799306
20	0x3d5c6156	0.053803764
21	0xbaf82b0a	-0.0018933725
22	0xbd6aa9d1	-0.057290856
23	0x3be206fe	0.006897806
24	0xbd4f9092	-0.050674982
25	0xbd4617c6	-0.048362516
26	0x3d535258	0.0515922
27	0x3d559789	0.05214647
28	0xbd11f181	-0.035630707
29	0x3c867214	0.016411819
30	0xbd1d2c48	-0.038372308
31	0x3b1938f7	0.00233799
