code/model_obj_backups/model_obj_64.pt (torch, 538274 bytes, 158 tensors)

weight f4 [32, 2]
0	0x3f178152	0.591817
1	0xbf1ff711	-0.6248637
2	0x3ddd4a15	0.10805146
3	0x3e416a77	0.1888827
4	0xbecb18a4	-0.39667237
5	0x3e3e7d99	0.18602599
6	0x3d150b1e	0.036387555
7	0x3f08e8f8	0.5348048
8	0x3ea8b8dd	0.3295354
9	0xbe94f64b	-0.29094157
10	0xbf296059	-0.6616264
11	0x3ce59d01	0.028028967
12	0x3f1567f1	0.58361727
13	0x3be69270	0.0070364997
14	0x3eed8c84	0.46396267
15	0x3ed0057a	0.40629178
16	0x3cb8df4d	0.022567416
17	0x3f214daf	0.6300916
18	0x3de8d339	0.113684125
19	0xbe453665	-0.19259031
20	0x3f177837	0.5916781
21	0x3e5b56a9	0.21419777
22	0x3d817c78	0.06322569
23	0xbf2e9bab	-0.6820628
24	0xbd839c85	-0.06426338
25	0xbf019492	-0.50617325
26	0x3f21dc89	0.63227135
27	0xbeca8e10	-0.3956151
28	0xbf0594b0	-0.52180004
29	0xbdcda20e	-0.10040675
30	0xbf0651a5	-0.5246833
31	0x3e3fb476	0.18721184
32	0xbf357e93	-0.7089626
33	0x3eeea16e	0.46607536
34	0x3f27e502	0.65583813
35	0xbed60ca5	-0.41806522
36	0xbf0cd5eb	-0.5501391
37	0xbe0900c7	-0.13379203
38	0x3dc14a40	0.0943799
39	0xbecbf30a	-0.39833862
40	0xbec5289c	-0.38507545
41	0xbdebecfe	-0.11519812
42	0x3e44ad56	0.19206747
43	0xbf22f5f5	-0.6365655
44	0x3ed8a5e9	0.4231408
45	0x3ea81618	0.32829356
46	0xbee6c8d6	-0.450751
47	0xbe6317cd	-0.22177048
48	0xbf2e8fe2	-0.681883
49	0x3ddc4dd5	0.10757033
50	0x3e673197	0.22577511
51	0xbebfd0b7	-0.37463924
52	0x3e8655f0	0.2623744
53	0xbd90f5fa	-0.07078166
54	0xbf1e674f	-0.61876386
55	0x3f0e58f0	0.5560446
56	0x3d000014	0.031250075
57	0x3e9fc468	0.31204534
58	0x3f2d8eb1	0.67795855
59	0xbf0cc59b	-0.5498902
60	0x3ef549b8	0.47907805
61	0x3edd9b85	0.43282714
62	0x3ec3ffa0	0.38280964
63	0xbd11647b	-0.035496216

bias f4 [32]
0	0xbe842604	-0.25810254
1	0x3f0e3df1	0.55563265
2	0xbf2063dd	-0.6265238
3	0xbd728279	-0.05920646
4	0x3d1adcff	0.037808415
5	0x3eb760f8	0.3581617
6	0x3e6a1fc4	0.2286368
7	0x3e0451b6	0.12921795
8	0xbf1b1c94	-0.6059048
9	0xbdd0615f	-0.10174822
10	0xbf09f69f	-0.5389194
11	0xbf192319	-0.5981918
12	0xbd769444	-0.06019999
13	0x3f0a3687	0.5398945
14	0xbe24e1d1	-0.16101767
15	0x3f00568e	0.5013207
16	0x3ef22404	0.47293103
17	0xbe15ccce	-0.14628908
18	0x3f023704	0.508652
19	0x3dfb9e13	0.1228601
20	0xbde1dc95	-0.11028401
21	0xbe803752	-0.25042206
22	0x3dedc6af	0.116101615
23	0x3f014d1f	0.505083
24	0xbe836c6f	-0.25668666
25	0x3e8b0e34	0.27159274
26	0x3f1dca42	0.61636746
27	0xbc9ef870	-0.019405574
28	0xbf1e76dd	-0.6190012
29	0xbd825a63	-0.06364896
30	0xbe995c4a	-0.29953223
31	0x3f010af1	0.5040732

weight f4 [16, 32]
0	0x3da700fd	0.081544854
1	0x3e239a2f	0.15976785
2	0xbe226b8c	-0.15861338
3	0x3e23f3a2	0.16010907
4	0xbe15b95b	-0.14621489
5	0x3d660207	0.056154277
6	0xbbeec12c	-0.0072862115
7	0xbd652bd8	-0.055950016
8	0xba0a7724	-0.00052820356
9	0xbbb0753f	-0.0053850706
10	0x3e256fb4	0.16155893
11	0x3c8230d2	0.01589242
12	0xbb764c56	-0.003758212
13	0xbdeaa15e	-0.114565596
14	0xbe191d88	-0.14952672
15	0xbe1ad1d9	-0.15119113
16	0x3c2dfc30	0.010619208
17	0xbda9e851	-0.08296264
18	0xbd2e4390	-0.0425449
19	0xbd52e8fd	-0.051491726
20	0xbc9da990	-0.019245893
21	0xbe07c04c	-0.13256949
22	0xbdd8443a	-0.10559888
23	0x3d1d526e	0.03840869
24	0xbdc603b4	-0.09668675
25	0xbda7fff0	-0.08203113
26	0xbe2405e6	-0.16017875
27	0x3bb14ac1	0.0054105227
28	0x3d0172b5	0.031603534
29	0xbca9dae4	-0.020734258
30	0xbe0f1d42	-0.13976005
31	0xbe2f1e09	-0.17101301
32	0x3e018fd8	0.12652528
33	0x3df3ca5b	0.119038306
34	0xbdbb7759	-0.09153623
35	0xbbffc36a	-0.0078052776
36	0x3cf865ea	0.030322034
37	0xbe14de04	-0.14537817
38	0xbd29701e	-0.04136669
39	0xbdf82bbb	-0.12117716
40	0x3dd0c37a	0.10193534
41	0xbd66d924	-0.056359425
42	0x3e274962	0.16336587
43	0x3dc12d58	0.09432477
44	0x3e29b654	0.16573459
45	0xba795bfc	-0.0009512303
46	0xbe0f75cc	-0.1400978
47	0xbcc5e7ad	-0.024158323
48	0x3bfbb95c	0.0076820087
49	0x3daa84bb	0.083260976
50	0x3e1c2846	0.15249738
51	0xbd6546b2	-0.055975623
52	0x3e042ec2	0.12908462
53	0xbe16ca44	-0.14725596
54	0xbdadf505	-0.084939994
55	0xbc12aaee	-0.008951886
56	0x3e13f908	0.14450467
57	0x3e1660fc	0.14685434
58	0x3d864197	0.06555479
59	0x3de60f68	0.11233407
60	0xbd080869	-0.033211146
61	0xbe34c0af	-0.17651628
62	0xbe3b8231	-0.18311383
63	0x3e050843	0.12991433
64	0xbd42f350	-0.047595322
65	0xbd0c5706	-0.03426268
66	0x3ccc2ff7	0.024925215
67	0x3c1a635a	0.009423101
68	0xbd5d55cd	-0.054036904
69	0x3c112094	0.008857865
70	0xbde5ed5a	-0.11226912
71	0xb9a0dda8	-0.00030682725
72	0x3dfd6efe	0.12374686
73	0xbd555790	-0.05208546
74	0xbdf66944	-0.120317966
75	0xbdc4e026	-0.096130654
76	0x3dd9d884	0.10637
77	0xbe132ca1	-0.14372493
78	0x3d6cadec	0.057783052
79	0x3d4cea79	0.050028298
80	0xbe372de5	-0.17888601
81	0xbd815582	-0.063151374
82	0x3d5f7b4f	0.054560956
83	0xbd6a3b17	-0.05718526
84	0xbd2c4098	-0.04205379
85	0xb8bdb96e	-9.046761e-05
86	0x3cebb41e	0.02877241
87	0x3dc4db9f	0.09612202
88	0xbe2de4a7	-0.16981755
89	0x3d368e1a	0.044569112
90	0xbd808d0b	-0.06276902
91	0xbe22eb4a	-0.15910068
92	0x3d85d960	0.065356016
93	0xbd734b42	-0.059397943
94	0xbda02b70	-0.07820785
95	0x3deb83c3	0.11499741
96	0xbd898eae	-0.06716667
97	0x3e3c0b46	0.18363675
98	0xbe0b518c	-0.13605326
99	0xbd08bb6f	-0.033381876
100	0x3cb66be1	0.022268238
101	0xbb9c0a12	-0.0047619427
102	0x3d8208d1	0.06349338
103	0x3e2661d2	0.16248253
104	0xbe1f6fe5	-0.15570028
105	0x3d47635b	0.048678737
106	0x3e0cb23d	0.13739868
107	0xbd3dbeb6	-0.046324454
108	0xbd02ea69	-0.031961832
109	0x3deaae4b	0.11459025
110	0xbc842360	-0.01613015
111	0x3e11b434	0.14228898
112	0x3e0f44bf	0.13991068
113	0x3d7cdd1b	0.0617343
114	0xbdaf02c2	-0.08545448
115	0xbdfaeed2	-0.122525826
116	0xbde5d997	-0.112231426
117	0xbdf4f576	-0.119608805
118	0x3ca1939b	0.019723704
119	0xbe27ad2e	-0.16374657
120	0xbe101328	-0.14069808
121	0x3d19dd3a	0.037564494
122	0xbdbd2d73	-0.092371844
123	0x3d2247ca	0.039619245
124	0xbd656255	-0.05600198
125	0x3e286577	0.16444956
126	0x3af3946d	0.0018583663
127	0x3c188bca	0.009310672
128	0x3d6f078b	0.058356803
129	0x3e163a88	0.14670765
130	0x3d3c8ac1	0.046030764
131	0x3ddf58ec	0.109056324
132	0xbe48f4d6	-0.19624647
133	0xbd48b2b4	-0.04899855
134	0x3d09bf85	0.033629913
135	0x3c8d6df1	0.017264338
136	0x3dd7c3c9	0.1053539
137	0x3da031e9	0.078220196
138	0xbd9d5cb6	-0.07683699
139	0xbbb48324	-0.0055087972
140	0xbe3a4edf	-0.1819415
141	0x3dae56bf	0.08512639
142	0xbdbd58ae	-0.0924543
143	0x3bf53541	0.007483155
144	0x3ce1d815	0.027568856
145	0xbdd4797f	-0.10374736
146	0xbdd6c6db	-0.104871474
147	0x3dd91a81	0.10600758
148	0xbc5b3bc4	-0.013380948
149	0x3cb3643d	0.021898383
150	0xbe0ad15e	-0.1355643
151	0x3d864454	0.06556001
152	0xbdc5e4bc	-0.09662768
153	0x3daf6aa3	0.08565261
154	0xbddb1fa6	-0.10699396
155	0x3dea84d9	0.1145112
156	0x3e3e44c0	0.18580914
157	0x3e1909c0	0.14945126
158	0x3e073fa2	0.13207868
159	0xbe356889	-0.17715658
160	0x3db6ba76	0.08922283
161	0x3e1b4f79	0.15167035
162	0x3e063b05	0.13108452
163	0xbe43c3c4	-0.19117647
164	0xbc83ebeb	-0.016103705
165	0xbdee9169	-0.116488285
166	0xbce10ac3	-0.027470952
167	0x3e0e5795	0.13900597
168	0xbe1b2a29	-0.15152802
169	0xbe05df77	-0.13073526
170	0xbda0cadd	-0.07851193
171	0xbc15a1f5	-0.009132852
172	0x3e557288	0.20844471
173	0x3cc231a9	0.02370532
174	0xbd852cce	-0.065026864
175	0x3c6fb41f	0.014630347
176	0xbe366ea8	-0.1781565
177	0xbe08f39f	-0.13374184
178	0x3d92ab62	0.07161595
179	0xbd7ec84d	-0.06220274
180	0x3e2f642b	0.17128055
181	0x3e32c883	0.17459302
182	0xbd2c52c3	-0.042071115
183	0xbda92747	-0.08259445
184	0x3e27d21d	0.16388746
185	0x3e1748d4	0.14773875
186	0x3d3b5f79	0.045745347
187	0xbe3c1cc4	-0.18370348
188	0xbdfcada5	-0.123378076
189	0x3e18ad3b	0.14909832
190	0x3dbcd8a1	0.09221006
191	0xbdd5cc82	-0.104393974
192	0xbe2fb40e	-0.17158529
193	0x3d8eed7e	0.06978892
194	0xbdf9875d	-0.121840216
195	0xbe10d5c8	-0.14144051
196	0x3d4d8bfc	0.050182328
197	0x3d45bfbb	0.04827855
198	0x3dc087a4	0.094008714
199	0x3cdc7f55	0.026916185
200	0xbe0c2c7e	-0.13688847
201	0x3c07a472	0.008278953
202	0x3e17ef29	0.14837326
203	0xbd12ebb1	-0.035869304
204	0x3e34fc92	0.17674473
205	0xbd5eb5be	-0.05437254
206	0x3debb47b	0.11509033
207	0xbe0af1e8	-0.13568842
208	0xbe0e1f13	-0.13879041
209	0x3da0758e	0.07834922
210	0x3e10c891	0.1413901
211	0xbcd5a33f	-0.026078818
212	0x3dffea22	0.12495829
213	0x3d9f0afb	0.07765766
214	0x3e183a48	0.14865983
215	0xbe0dffd5	-0.13867123
216	0x3de8b5d1	0.11362804
217	0xbd87a163	-0.06622579
218	0x3e03231f	0.12806366
219	0xbd027c6d	-0.031856943
220	0x3e225336	0.15852055
221	0xbe05547d	-0.13020511
222	0xbb939efc	-0.0045050364
223	0x3e28231f	0.16419648
224	0x3d59ec12	0.05320365
225	0x3b8570e7	0.004072297
226	0x3d0b01c0	0.033937216
227	0x3db4e3b5	0.08832494
228	0xbdddca9b	-0.108296596
229	0x3e0babb6	0.13639721
230	0x3d462bad	0.048381496
231	0x3da62505	0.0811253
232	0x38e821db	0.00011068928
233	0x3e244f48	0.16045868
234	0xbe0df433	-0.13862686
235	0x3d9e78df	0.07737898
236	0xbcc760db	-0.024338176
237	0xbe19d3b9	-0.15022172
238	0x3c0cb780	0.008588672
239	0xbd14c520	-0.036320806
240	0xbe32ba89	-0.1745397
241	0x3c214f1c	0.009845521
242	0xbd397821	-0.04528058
243	0xbdeb5d70	-0.11492431
244	0x3c027e37	0.007964662
245	0x3c0967d5	0.008386572
246	0x3e007e82	0.12548259
247	0xbe0580f4	-0.13037473
248	0xbddb8e36	-0.10720484
249	0x3e14cf93	0.14532308
250	0x3e15e4df	0.14638089
251	0xbd7f005a	-0.062256195
252	0xbcba183d	-0.022716636
253	0xbe13af31	-0.14422299
254	0xbc19d091	-0.009388105
255	0xbd44eab3	-0.04807539

bias f4 [16]
0	0x3e11e7ab	0.1424853
1	0xbdd1fedd	-0.102536894
2	0x3da6d915	0.08146874
3	0xbd199987	-0.03749993
4	0xbced321e	-0.028954562
5	0xbdb99933	-0.090624236
6	0xbd3e79c0	-0.04650283
7	0x3cf6a3d0	0.030107409
8	0xbe314cac	-0.17314404
9	0x3e2eb913	0.17062788
10	0xbdb3dcd0	-0.08782351
11	0x3d148699	0.036261175
12	0xbe108b31	-0.14115597
13	0x3ddd4666	0.10804443
14	0x3e2fe1f7	0.17176042
15	0x3db4f363	0.08835485

weight f4 [32]
0	0x3f7e1613	0.9925243
1	0x3f819721	1.0124246
2	0x3f8043de	1.0020711
3	0x3f7ec039	0.9951206
4	0x3f8128e6	1.0090606
5	0x3f79216f	0.9731664
6	0x3f7fdff5	0.99951106
7	0x3f7ef7fc	0.99597144
8	0x3f7bbe96	0.98337686
9	0x3f7f0ef0	0.9963217
10	0x3f809b3d	1.0047375
11	0x3f791d02	0.9730989
12	0x3f83299c	1.0247073
13	0x3f80c103	1.0058903
14	0x3f7cec2e	0.9879788
15	0x3f7bc5b2	0.98348534
16	0x3f855121	1.0415384
17	0x3f835f07	1.0263375
18	0x3f8062a8	1.0030107
19	0x3f7dfb35	0.99211437
20	0x3f7f59a2	0.99746144
21	0x3f7a239f	0.97710603
22	0x3f79b5b6	0.97542894
23	0x3f7c3483	0.98517627
24	0x3f8193e1	1.0123254
25	0x3f8171e8	1.0112886
26	0x3f7db823	0.99109095
27	0x3f820303	1.0157169
28	0x3f7cbf5a	0.9872948
29	0x3f79d10e	0.9758462
30	0x3f8281fc	1.0195918
31	0x3f7f468c	0.9971702

bias f4 [32]
0	0xbda071d2	-0.078342095
1	0xbd7fa6d8	-0.062414974
2	0x3cc32967	0.023823453
3	0xba5b8ed5	-0.00083754706
4	0xbb9bae8d	-0.0047510327
5	0xbd62345d	-0.05522572
6	0xbd5cb463	-0.053882968
7	0x39cf3657	0.00039522603
8	0xbd1fe1fe	-0.039033882
9	0xbcd952d2	-0.02652875
10	0x3cdaec45	0.02672399
11	0xbc6d5fd2	-0.014488177
12	0x3c619e14	0.013770599
13	0xbd96bad9	-0.07359857
14	0xbc64a0f9	-0.0139543945
15	0x3cbd0c51	0.023077162
16	0x3da7d881	0.08195592
17	0x3abfb4ea	0.001462606
18	0xbd1b0acd	-0.037852097
19	0xbcd24905	-0.025669584
20	0x3cbd5c88	0.023115411
21	0xbd696c7c	-0.056988224
22	0xbdcb4d0d	-0.09926806
23	0xbd44fb8c	-0.048091456
24	0x3d0d7235	0.034532744
25	0xbb549976	-0.0032440103
26	0x3d317333	0.043322753
27	0x3c383d08	0.01124502
28	0xba2e0d58	-0.00066395616
29	0x38da962c	0.00010423022
30	0x3d2fb3f6	0.042896233
31	0xbcf92372	-0.03041241

running_mean f4 [32]
0	0xbebb5bc6	-0.36593455
1	0x3f256487	0.6460652
2	0xbf237960	-0.6385708
3	0x3e118e8a	0.1421453
4	0xbae5ca83	-0.0017531667
5	0x3e717c46	0.23582563
6	0x3eb2574a	0.3483222
7	0x3ebd5dea	0.36985713
8	0xbebed137	-0.37268993
9	0xbe18746a	-0.14888158
10	0xbeaf534b	-0.34243235
11	0xbf553648	-0.8328595
12	0xbe836aa4	-0.25667298
13	0x3f05ec32	0.5231353
14	0xbe9ac256	-0.30226392
15	0x3eed7a65	0.46382442
16	0x3f00003b	0.5000035
17	0xbe2a6e16	-0.16643557
18	0x3eb2fe57	0.3495967
19	0xbb2b2e33	-0.0026120066
20	0xbe6ae6e3	-0.22939639
21	0xbee2b911	-0.4428182
22	0x3ea3f692	0.32024056
23	0x3eab11f9	0.3341215
24	0xbeb57b63	-0.354457
25	0x3e39843f	0.18116854
26	0x3f24b14f	0.6433305
27	0x3d6f2115	0.05838116
28	0xbeffbd67	-0.4994919
29	0xbe02225b	-0.12708418
30	0xbd3da272	-0.046297498
31	0x3f116535	0.56795055

running_var f4 [32]
0	0x3e616570	0.22011352
1	0x3bf3fee3	0.0074461563
2	0x3d5522ea	0.05203525
3	0x3d814c2d	0.063133575
4	0x3d6939be	0.056939833
5	0x3dbf3f84	0.093382865
6	0x3d8f1fe1	0.06988502
7	0x3d598a78	0.05311057
8	0x3db6c89d	0.08924983
9	0x3c6fc87b	0.014635201
10	0x3d818819	0.06324787
11	0x3dead69e	0.11466716
12	0x3d5fb1d1	0.05461294
13	0x3e2192a5	0.15778597
14	0x3d4e9883	0.050438415
15	0x3da49771	0.08036698
16	0x3e528446	0.20558271
17	0x3e30281f	0.17202805
18	0x3d621f8c	0.055205867
19	0x3d35320b	0.044237178
20	0x3cdbdfaf	0.02684006
21	0x3df5d5a5	0.1200364
22	0x3d248ce7	0.040173437
23	0x3d1a82dc	0.037722453
24	0x3de1d83d	0.11027572
25	0x3d659a0c	0.056055114
26	0x3c95cbaf	0.0182856
27	0x3e5109ca	0.2041389
28	0x3cace029	0.021102982
29	0x3e6447a7	0.22292958
30	0x3d6e9693	0.058249068
31	0x3d05fd77	0.032712426

weight f4 [32, 3]
0	0x3ea6f519	0.3260887
1	0xbe32ef44	-0.17474085
2	0xbe493bca	-0.19651714
3	0xbe8d19fe	-0.27558893
4	0x3d21816e	0.039430074
5	0xbf0f5b65	-0.5599883
6	0x3de515c3	0.11185791
7	0xbec04854	-0.37555182
8	0xbe8d2186	-0.2756464
9	0x3ef0266f	0.46904323
10	0xbefabdaf	-0.48972842
11	0x3ee97884	0.4559976
12	0x3a610744	0.00085841515
13	0xbee81ca6	-0.45334357
14	0xbe87658d	-0.26444665
15	0x3d3cf619	0.046133135
16	0x3cfc92eb	0.030831775
17	0xbe6baaad	-0.23014326
18	0xbded28d7	-0.11580055
19	0xbf158519	-0.58406216
20	0x3f0dae13	0.5534374
21	0xbf43e853	-0.76526374
22	0xbef4ad97	-0.4778869
23	0xbdf2a51a	-0.11847897
24	0x3eda4a5d	0.4263486
25	0x3efe1c6c	0.4963106
26	0xbe448d75	-0.19194587
27	0x3ef1dab3	0.47237167
28	0xbe8cca56	-0.2749812
29	0x3f0423a3	0.5161688
30	0xbde9851e	-0.11402343
31	0x3ebf7c07	0.37399313
32	0xbd6fb28b	-0.05851988
33	0xbf206605	-0.6265567
34	0x3df36ab8	0.11885589
35	0x3ef0eaf1	0.47054246
36	0xbdb9a8c4	-0.090653926
37	0xbe7cf315	-0.24702103
38	0x3f04997c	0.517967
39	0xbdc1ac25	-0.09456662
40	0x3e52fd3d	0.20604415
41	0xbe3453ba	-0.17610064
42	0xbf2714bc	-0.65266013
43	0xbea6c714	-0.3257376
44	0x3ec1bd97	0.37839958
45	0xbe413d89	-0.1887113
46	0x3ec1a492	0.3782087
47	0xbe20c5f0	-0.15700507
48	0xbe506992	-0.20352772
49	0xbeb8b6a4	-0.36076844
50	0x3ebd3fc7	0.3696272
51	0x3f0c6815	0.54846317
52	0x3dc3b66b	0.09556278
53	0xbe48de76	-0.19616112
54	0x3e817b8c	0.2528957
55	0xbe97dca5	-0.29660526
56	0x3f0ec000	0.5576172
57	0xbe17a13d	-0.14807601
58	0x3e8b33fd	0.271881
59	0xbe8a3211	-0.26991323
60	0x3f10ee70	0.56613827
61	0xbdf0d1d8	-0.117587745
62	0xbe715d02	-0.23570636
63	0x3e90e2db	0.28298077
64	0xbe9a5cff	-0.30149075
65	0xbeaecd16	-0.34140843
66	0x3e95b969	0.2924302
67	0xbf0784c5	-0.52936965
68	0xbd9919f0	-0.0747565
69	0xbf38e925	-0.7223075
70	0x3eb8d3b1	0.36099008
71	0x3e89dc3f	0.26925847
72	0xbdcdc422	-0.10047175
73	0x3e8800bd	0.26563063
74	0x3ec0713e	0.37586397
75	0xbe9f0496	-0.31058186
76	0xbeda32df	-0.42616937
77	0xbed0ce96	-0.40782613
78	0xbf5517f0	-0.8323965
79	0x3e6a87aa	0.22903314
80	0xbf0861a3	-0.5327398
81	0xbe8e87b9	-0.27837923
82	0xbf12bfc5	-0.5732387
83	0x3e9fb6a2	0.31194025
84	0x3f18c713	0.59678763
85	0x3eb36dfb	0.35044846
86	0xbc55fb7e	-0.013060449
87	0x3e4a1bd0	0.19737172
88	0xbef0f853	-0.47064456
89	0xbdcc9d6d	-0.09990964
90	0x3e6a6004	0.2288819
91	0xbe8940a7	-0.26807138
92	0x3d83fa0c	0.06444177
93	0xbed13420	-0.4086008
94	0x3e233d49	0.15941347
95	0xbe1acb55	-0.15116628

bias f4 [32]
0	0xbf0470fc	-0.517349
1	0xbf0fa0fc	-0.5610502
2	0x3eb495b8	0.35270476
3	0xbeea6b79	-0.4578512
4	0x3e6ae1e7	0.22937737
5	0x3e95a663	0.29228505
6	0xbdd0290e	-0.101640806
7	0x3e5b158b	0.21394937
8	0xbe508a18	-0.20365179
9	0xbd1a83b9	-0.037723277
10	0xbf0b4b0f	-0.54411405
11	0x3d858940	0.06520319
12	0xbebe32ac	-0.37148035
13	0xbe96bdf1	-0.2944179
14	0x3eeec1d8	0.46632266
15	0x3f051346	0.51982534
16	0x3c1e7391	0.009671108
17	0x3cc191ea	0.023629148
18	0xbe8331f7	-0.25624058
19	0x3e7ecf2b	0.24883716
20	0xbe8e2455	-0.27762094
21	0xbe0079bb	-0.12546436
22	0x3e5b68aa	0.21426645
23	0xbe4b5457	-0.19856392
24	0xbef939c6	-0.4867689
25	0x3db23439	0.08701367
26	0xbf0da27c	-0.55326056
27	0x3f0a5112	0.54029953
28	0xbe70d8af	-0.23520158
29	0xbdccc5df	-0.099986784
30	0xbe82ecb4	-0.25571215
31	0xbe01ad94	-0.12663871

weight f4 [16, 32]
0	0xbdd5d16e	-0.10440336
1	0xbd17df1d	-0.03707801
2	0x3dcde351	0.10053123
3	0x3e09004b	0.13379018
4	0x3d92a176	0.071597025
5	0x3dd84554	0.10560098
6	0x3c820eb3	0.01587615
7	0x3c084769	0.008317807
8	0xbdd0122a	-0.101597145
9	0x3dabd683	0.08390524
10	0xbe2da1ea	-0.16956297
11	0xbd6c222d	-0.05764978
12	0xbd1af43b	-0.037830573
13	0x3c08242c	0.008309405
14	0x3d4c74af	0.049915966
15	0xbc7eb3e3	-0.015545818
16	0x3cf096bc	0.02936875
17	0xbc35b21b	-0.011089827
18	0xbd9a2890	-0.07527268
19	0x3de60b9f	0.11232685
20	0xbb0ce328	-0.00214977
21	0xbe224601	-0.15847017
22	0x3e2f54e4	0.17122227
23	0xbd711b90	-0.058864176
24	0x3dbc5234	0.091953665
25	0x3e22600a	0.15856948
26	0xbd645e55	-0.055754025
27	0x3cd725f4	0.026263215
28	0x3bc77ff6	0.006088252
29	0xbe136892	-0.14395359
30	0x3e163e61	0.14672233
31	0xbe0af44c	-0.13569754
32	0x3d909305	0.07059292
33	0xbd1fa10a	-0.03897194
34	0xbc5b9bd4	-0.013403852
35	0xbd94f2f7	-0.07272904
36	0x3d3c5593	0.045980047
37	0x3e0acfa2	0.13555768
38	0xbc23b8bd	-0.0099927755
39	0x3dfe8aa0	0.12428784
40	0x3d936057	0.0719611
41	0xbd900b9f	-0.070334665
42	0x3d144cdf	0.036206122
43	0xbe4fe5d4	-0.20302516
44	0x3db00215	0.08594147
45	0xbcb65153	-0.022255575
46	0xbd14e17f	-0.036347862
47	0xbd81a2c5	-0.06329874
48	0xbe327f0a	-0.17431274
49	0xbd9e3fe5	-0.07727031
50	0xbdc322ea	-0.09528144
51	0x3e064670	0.13112807
52	0x3ce07cd9	0.027403282
53	0x3dcbd995	0.0995361
54	0x3e32a069	0.17444004
55	0x3d39ccc3	0.04536129
56	0xbdfa8421	-0.12232233
57	0x3c20405c	0.0097809695
58	0xbd14b059	-0.03630099
59	0x3d535838	0.051597804
60	0x3e07fd9d	0.1328034
61	0xbd832180	-0.06402874
62	0xbd58d4aa	-0.052937187
63	0x3d0be6d4	0.03415568
64	0x3da70885	0.08155922
65	0x3e4069d2	0.18790367
66	0x3e0fc7ae	0.14041016
67	0xbc2a39c7	-0.010389752
68	0x3d01134e	0.03151255
69	0xbd8e16fd	-0.069379784
70	0xbd9ad6b3	-0.07560482
71	0x3dd35f69	0.103209324
72	0x3e1b7dbb	0.15184681
73	0x3de171a3	0.110080026
74	0xbd4bf9ae	-0.04979866
75	0xbe2cb9ea	-0.16867796
76	0xbcf70193	-0.030152118
77	0x3d28756e	0.041127615
78	0x3e0d1c82	0.13780406
79	0xbc3eeec7	-0.011653609
80	0xbdd75ebc	-0.10516116
81	0x3db0c086	0.08630471
82	0x3d27d265	0.040972132
83	0x3df59298	0.11990851
84	0xbd9038d6	-0.070420906
85	0x3e22bd6a	0.15892568
86	0x3dad24e7	0.08454304
87	0xbe23fd7b	-0.16014664
88	0xbd8067c9	-0.062697954
89	0x3e1537a0	0.14572
90	0x3dd84c78	0.1056146
91	0xbe457985	-0.19284637
92	0x3ae5773f	0.0017506852
93	0xbd9fca84	-0.07802299
94	0x3cf8dbd7	0.030378265
95	0xbddb657a	-0.107127145
96	0x3c1db36f	0.0096253
97	0xbb0e56d2	-0.002171923
98	0x3dc8c79a	0.09803696
99	0x3dc73b66	0.09728126
100	0xbe2f5feb	-0.17126434
101	0x3e136997	0.14395748
102	0xbd727120	-0.059189916
103	0xbd59cdd2	-0.0531748
104	0xbb7bed67	-0.0038441063
105	0x3d0c97d9	0.0343245
106	0xbd6ce584	-0.05783607
107	0x3dd583a4	0.10425499
108	0xbdf86135	-0.12127916
109	0xbdc5eda9	-0.09664471
110	0xbde33b1f	-0.11095261
111	0xba86f358	-0.0010295911
112	0xbdf867b3	-0.12129154
113	0xbe18fbc2	-0.14939788
114	0xbd727999	-0.059197996
115	0xbdf823c8	-0.121162
116	0x3d77043e	0.06030678
117	0xbcb8f5fb	-0.02257823
118	0x3dc9bb2e	0.09850155
119	0x3deec2f2	0.116582766
120	0x3e0bb675	0.1364382
121	0x3db87023	0.090057634
122	0x3b93973e	0.0045041135
123	0xbe1fb27a	-0.15595427
124	0x3d52422a	0.05133263
125	0x3d2e3896	0.042534433
126	0x3d9b2939	0.07576222
127	0x3e242ec5	0.16033466
128	0xbc3c96c4	-0.011510555
129	0xbdad23b6	-0.08454077
130	0xbc961dea	-0.018324811
131	0xbdf64641	-0.120251186
132	0x3cc68cb3	0.024237012
133	0x3dc05963	0.09392049
134	0x3e0b16b4	0.1358288
135	0x3e2da783	0.16958432
136	0xbdeb429c	-0.11487314
137	0xbd2fe62b	-0.042944115
138	0xbe2157b3	-0.15756111
139	0x3d13e6b7	0.0361087
140	0xbdc2449a	-0.09485741
141	0xbe006151	-0.12537123
142	0xbd955429	-0.07291443
143	0xbe2fe5d7	-0.1717752
144	0x3aa82b8b	0.001283036
145	0xbe06a512	-0.13148907
146	0xbcc8d73d	-0.024516696
147	0x3e12b294	0.14325935
148	0x3ce86adc	0.028371267
149	0xbdbcfade	-0.092275366
150	0x3d14058b	0.0361381
151	0xbcfc5c15	-0.030805627
152	0xbdb41a0d	-0.08794031
153	0xbe4089d1	-0.18802573
154	0x3d7f307b	0.062302094
155	0x3cc03c23	0.023466175
156	0xbc96adae	-0.018393364
157	0x3d455f06	0.048186325
158	0x3cc3bc7a	0.023893584
159	0xbd5043c6	-0.050845884
160	0xbb7b6a55	-0.003836294
161	0xbde8c719	-0.113661
162	0x3e0f1a49	0.1397487
163	0x3e23400e	0.15942404
164	0x3ae3e969	0.0017388287
165	0x3d181f36	0.03713914
166	0x3da23a7a	0.0792131
167	0xbd910063	-0.07080152
168	0xbd90a3ad	-0.07062469
169	0x3d89119d	0.066928126
170	0x3d8efb4b	0.06981524
171	0x3dbf20b3	0.09332409
172	0x3b07703a	0.0020666257
173	0xbe2cdfab	-0.16882198
174	0xbdb25bed	-0.0870894
175	0xbe0068c1	-0.1253996
176	0xbbd63416	-0.006536971
177	0xbdd46794	-0.103713185
178	0x3e113605	0.14180763
179	0xbd4fe0c9	-0.05075148
180	0x3e16f354	0.1474126
181	0xbddbddcb	-0.10735663
182	0xbd264e56	-0.04060205
183	0xbccd5f5d	-0.025069887
184	0x3df00c87	0.117211394
185	0xbccf17db	-0.02527993
186	0x3dfbef64	0.123015195
187	0x3dbfe36d	0.0936955
188	0xbe3bcc44	-0.1833964
189	0x3e079963	0.13242106
190	0x3e3b0dc5	0.18266971
191	0x3de67da1	0.112544306
192	0xbe252c1b	-0.16130106
193	0x3dd644ae	0.10462318
194	0x3cf3a0b9	0.029739724
195	0xbdb9afb6	-0.09066717
196	0x3dbb42ae	0.091435775
197	0x3e1b3c8a	0.15159813
198	0xbe3dfcac	-0.18553418
199	0x3e1deaf4	0.15421659
200	0xbd1021a5	-0.035188336
201	0x3a5c2bfd	0.0008398889
202	0x3bda5222	0.006662623
203	0xbe189109	-0.14899077
204	0xbe074661	-0.13210441
205	0xbdf94d8a	-0.121729925
206	0xbc92a0ec	-0.017899
207	0x3d0417c0	0.032249212
208	0xbda683d4	-0.08130613
209	0xbdef91b7	-0.11697715
210	0x3d77b5d4	0.06047614
211	0xbd75920a	-0.059953727
212	0x3cf58f1a	0.029975463
213	0xbdfe83c3	-0.12427475
214	0x3d2fb811	0.04290015
215	0xbe19ce4e	-0.15020105
216	0xbd1acbab	-0.03779189
217	0x3dd1af1d	0.10238478
218	0xbc978c9c	-0.018499665
219	0xbe2d06d6	-0.16897139
220	0x3da60ea3	0.081082605
221	0xbe006b9f	-0.12541054
222	0x3d94e1b4	0.07269612
223	0xbde35e27	-0.111019425
224	0x3e0abcaa	0.13548532
225	0xbd72a871	-0.05924267
226	0x3d8ff39f	0.07028889
227	0xbdfeb330	-0.12436521
228	0xbe281698	-0.16414869
229	0x3e37f920	0.17966127
230	0x3d3bad93	0.04581983
231	0xbcbcfd06	-0.02306987
232	0xbe2699cf	-0.16269611
233	0x3dd6bfb1	0.10485781
234	0x3e2ff6a2	0.17183927
235	0x3df7f7ad	0.12107787
236	0xbdef53cb	-0.11685904
237	0x3e2ff653	0.17183809
238	0xbe2b5dd5	-0.16735013
239	0xbd9f84fd	-0.077890374
240	0xbdc2be1f	-0.09508919
241	0x3e11ca55	0.1423734
242	0x3e2a4d5e	0.16631076
243	0x3deca4de	0.115548834
244	0xbe335dcf	-0.17516254
245	0x3d813b41	0.0631013
246	0x3e0c81bd	0.13721366
247	0xbe1972d0	-0.14985204
248	0xbdbf7aa0	-0.09349561
249	0xbe0cffe1	-0.13769485
250	0x3d71bd3b	0.059018355
251	0x3de75c19	0.11296863
252	0x3cd5aa10	0.026082069
253	0xbda9c49c	-0.082894534
254	0xbc3ecae0	-0.011645049
255	0xbd311423	-0.043232094

bias f4 [16]
0	0x3e2ff4d6	0.17183241
1	0x3c92b8a8	0.017910317
2	0x3e1cf4a5	0.153277
3	0x3e307339	0.17231454
4	0x3e134968	0.14383471
5	0x3e000329	0.12501206
6	0xbe15d69f	-0.14632653
7	0xbe002f7f	-0.12518118
8	0xbd853b11	-0.06505407
9	0x3c8e9741	0.017406108
10	0xbd35a65a	-0.0443481
11	0xbe026a18	-0.12735784
12	0x3e0f02d7	0.13965927
13	0xbd5352c0	-0.05159259
14	0x3dd129af	0.10213029
15	0xbd6c991f	-0.057763215

weight f4 [32]
0	0x3f800bef	1.0003642
1	0x3f80b6cf	1.0055789
2	0x3f770e06	0.96505773
3	0x3f811664	1.0084958
4	0x3f79da6e	0.9759892
5	0x3f78f99e	0.97255886
6	0x3f802e61	1.0014154
7	0x3f804e19	1.0023834
8	0x3f7cfaae	0.98820007
9	0x3f7f04c8	0.9961667
10	0x3f7cf0c2	0.9880487
11	0x3f80a3df	1.005001
12	0x3f7c53f9	0.9856563
13	0x3f82558d	1.0182358
14	0x3f7a1787	0.9769215
15	0x3f81e31f	1.0147437
16	0x3f8178e9	1.0115024
17	0x3f806340	1.0030289
18	0x3f827331	1.0191404
19	0x3f7d0bf1	0.98846346
20	0x3f82429c	1.0176578
21	0x3f811d68	1.0087099
22	0x3f806777	1.0031575
23	0x3f800209	1.0000621
24	0x3f851cfd	1.0399472
25	0x3f7738cd	0.96571046
26	0x3f822a39	1.0169135
27	0x3f81d8af	1.0144252
28	0x3f7df4f2	0.9920188
29	0x3f782af0	0.9694052
30	0x3f78736c	0.9705112
31	0x3f784dd7	0.96993774

bias f4 [32]
0	0xbdbf6e00	-0.09347153
1	0x3bfcc81a	0.0077142837
2	0x3d84fe6a	0.06493838
3	0x3d98ab3b	0.074545346
4	0x3d32e43d	0.043674696
5	0xbd482e43	-0.048872244
6	0x3da47c21	0.08031488
7	0x3c9ad3ea	0.018899877
8	0x3d8cb89e	0.068711504
9	0xbc88afa7	-0.01668532
10	0xbcaa600b	-0.02079775
11	0x3c46dd77	0.012137762
12	0xbd3f574c	-0.046714112
13	0x3e1e728f	0.15473388
14	0xbd74d760	-0.05977571
15	0xbd14fdef	-0.036374982
16	0x3c85e007	0.016342176
17	0x3c700434	0.01464944
18	0xbb6d5ee7	-0.0036219896
19	0x3cee43d2	0.029085074
20	0xbcf2ba87	-0.029629959
21	0xbcb12a3c	-0.021626584
22	0xbccc1f5c	-0.024917297
23	0x3dbfd920	0.09367585
24	0x3c15b41f	0.0091371825
25	0x3b3439ae	0.00275002
26	0x3a3bc20a	0.0007162398
27	0xbd5836b6	-0.05278655
28	0x3d7280e2	0.059204943
29	0x3b2ac9ce	0.0026060226
30	0xbda148e0	-0.07875228
31	0xbdbe315a	-0.09286757

running_mean f4 [32]
0	0xbf190cb0	-0.59784985
1	0xc074860d	-3.8206818
2	0x3f7af418	0.9802871
3	0x409907b8	4.782192
4	0x3fadc54f	1.3575839
5	0xbf909ef9	-1.1298515
6	0x40c6656e	6.1998816
7	0x4011663a	2.2718644
8	0xc08191cc	-4.0490475
9	0x408a14de	4.3150473
10	0xc03e6188	-2.9747028
11	0x3ff8aee9	1.9428378
12	0x40755304	3.8331919
13	0xc01a788a	-2.4136071
14	0x408b7c34	4.3589115
15	0xc01dff35	-2.4687016
16	0x4081af6c	4.052664
17	0xbfca3f2d	-1.580053
18	0x408e315e	4.4435263
19	0xc0301237	-2.7511117
20	0xbf648576	-0.89266145
21	0xbe8c7e87	-0.27440283
22	0x403337a1	2.8002703
23	0xbf47c142	-0.78029263
24	0x3d41267a	0.047155835
25	0x3e917644	0.28410542
26	0xc0978fb9	-4.7362943
27	0x40af1348	5.4711037
28	0xc01252a0	-2.286293
29	0x40012a34	2.0182009
30	0x3fcdfa10	1.6091938
31	0xbfec6dca	-1.8471005

running_var f4 [32]
0	0x40db38ff	6.8507075
1	0x41a26e3a	20.303822
2	0x41a9d9e9	21.231401
3	0x4187ba1a	16.96587
4	0x41d1dd56	26.233074
5	0x4051310a	3.268618
6	0x41c41510	24.510284
7	0x41a08b81	20.068117
8	0x41586ff8	13.527336
9	0x416c2429	14.758828
10	0x41074f2f	8.456832
11	0x419cde38	19.608505
12	0x416bbbbf	14.733336
13	0x403374f9	2.8040144
14	0x41184a08	9.518074
15	0x40fa72c3	7.826509
16	0x41217e01	10.093263
17	0x4007583a	2.11476
18	0x4189bc59	17.216967
19	0x40b1a0d6	5.5508833
20	0x40cef5e9	6.4675183
21	0x41a46bf1	20.552706
22	0x41afea5f	21.989439
23	0x419f0256	19.87614
24	0x41a54ffb	20.664053
25	0x420a2113	34.5323
26	0x41793c72	15.577257
27	0x41914dd7	18.163008
28	0x41022515	8.134053
29	0x4195dc5f	18.732603
30	0x4084f27a	4.154599
31	0x3fe9d8e9	1.8269321

weight f4 [32, 18]
0	0xbe0d6121	-0.13806583
1	0xbe37e323	-0.1795774
2	0xbdae609d	-0.08514521
3	0xbbc93643	-0.0061405017
4	0xbd4643ff	-0.04840469
5	0xbe1dda93	-0.1541541
6	0x3e431ea7	0.19054662
7	0x3ddd8550	0.10816443
8	0x3e7350c4	0.23761278
9	0xbdc8bfee	-0.09802233
10	0xbe21994b	-0.15781133
11	0xbd878ac4	-0.06618264
12	0xbe551c1c	-0.20811504
13	0x3d3d9702	0.04628659
14	0xbe461a81	-0.19346048
15	0x3db93dfe	0.09045027
16	0x3e2a5751	0.16634871
17	0x3e19f20a	0.15033737
18	0x3e89276e	0.26787895
19	0x3e76ccd3	0.24101572
20	0x3e38aee6	0.18035468
21	0x3c853ce6	0.01626439
22	0xbdbaa8e7	-0.09114247
23	0xbc155274	-0.009113897
24	0x3d212fed	0.039352346
25	0x3c2f476f	0.010698183
26	0xbdfbcd06	-0.122949645
27	0x3b824173	0.0039750873
28	0xbe3c70aa	-0.18402353
29	0xbe11cea6	-0.14238986
30	0x3e440db2	0.1914585
31	0xbda1cbbf	-0.079001896
32	0x3c398149	0.011322328
33	0xbded1bee	-0.11577593
34	0x3c60261f	0.013680964
35	0x3e0ef3db	0.13960211
36	0xbdf0f486	-0.11765389
37	0x3e2b65df	0.1673808
38	0x3e0a6a91	0.13517214
39	0x3c2a7ca0	0.0104056895
40	0xbe1f709a	-0.15570298
41	0x3e2f16e3	0.17098574
42	0xbdb6ac98	-0.089196384
43	0x3e2ecfe4	0.17071491
44	0xbd964864	-0.07338026
45	0x3e6e493d	0.23270126
46	0xbe7fd134	-0.24982148
47	0xbe57dd96	-0.21080622
48	0xbe5d2def	-0.21599554
49	0x3db15285	0.086583175
50	0x3db440b1	0.088014014
51	0x3e8471d7	0.25868103
52	0xbc35a1b4	-0.011085916
53	0xbd15260e	-0.036413245
54	0xbe400744	-0.18752772
55	0x3d233b79	0.03985164
56	0xbe2006bb	-0.15627567
57	0x3e45a0c9	0.19299616
58	0xbe641f2c	-0.22277516
59	0x3d52acc6	0.0514343
60	0x3e414c92	0.18876866
61	0x3e6977dc	0.22799629
62	0x3e19985f	0.14999531
63	0xbe135c0a	-0.14390579
64	0x3e27d11b	0.16388361
65	0xbe0047cb	-0.12527387
66	0xbc7c3d11	-0.015395419
67	0x3d6c7456	0.057728134
68	0x3e34ed20	0.17668581
69	0xbe07fa61	-0.13279106
70	0x3e7079a0	0.23483896
71	0xbad29e81	-0.0016068966
72	0x3dc6e546	0.09711699
73	0xbe683872	-0.22677782
74	0xbc95c98f	-0.018284587
75	0xbd9a42af	-0.0753225
76	0x3e56cb34	0.20975953
77	0xbe161f63	-0.1466041
78	0x3e58d150	0.21173596
79	0x3e7b4f7f	0.24542044
80	0x3ccf1093	0.025276458
81	0x3c92c7cb	0.017917534
82	0xbe049e6c	-0.12951058
83	0x3e741fff	0.2384033
84	0xbe3632fe	-0.1779289
85	0x3e2f1333	0.17097168
86	0x3d87503f	0.066071026
87	0xbdb295ae	-0.087199554
88	0xbb252924	-0.0025201524
89	0xbd5eae89	-0.05436567
90	0x3e21c682	0.15798381
91	0x3e98a725	0.2981502
92	0xbdf8035f	-0.12110018
93	0xbe09847e	-0.13429448
94	0xbe2977fa	-0.16549674
95	0xbc1c6126	-0.009544646
96	0x3d6800bb	0.05664132
97	0xbe8600c0	-0.26172447
98	0x3c4ee6db	0.012628282
99	0xbd6fe717	-0.058569994
100	0x3d5d7d47	0.054074552
101	0xbe0b6e6c	-0.13616341
102	0x3e329ce9	0.17442669
103	0x3e5a82fb	0.21339028
104	0xbdce2cf9	-0.100671716
105	0xbd676f3d	-0.05650257
106	0xbe2ccadd	-0.16874261
107	0xbda9e7ce	-0.08296166
108	0xbe0d9ecd	-0.13830109
109	0x3e1713e6	0.14753684
110	0xbdff6058	-0.12469548
111	0xbdd5c65f	-0.10438227
112	0x3e593205	0.21210487
113	0x3db356ba	0.08756776
114	0x3dd05933	0.101732634
115	0xb91e9225	-0.00015122497
116	0x3dffcb6b	0.12489971
117	0x3dd61681	0.10453511
118	0x3e0129a5	0.12613542
119	0xbdfa4d9c	-0.12221834
120	0x3cc505c3	0.024050599
121	0xbe10d2c2	-0.14142898
122	0x3e36b5ce	0.1784279
123	0xbdb400de	-0.08789228
124	0xbd52a412	-0.051426
125	0x3da98825	0.08277921
126	0x3e22bd29	0.15892471
127	0xbd2ce1c5	-0.042207498
128	0x3dea8b47	0.11452346
129	0xbcb12abc	-0.021626823
130	0x3dbb2ab1	0.09139002
131	0x3e0f073d	0.13967605
132	0xbacf526d	-0.0015817411
133	0x3e5ee210	0.21765924
134	0x3e26d7f1	0.16293313
135	0x3c1901f4	0.009338845
136	0xbd46c17b	-0.04852436
137	0x3d8e1a4f	0.06938612
138	0x3df0db51	0.11760581
139	0x3c170197	0.009216688
140	0xbe69eae2	-0.22843507
141	0xbdb685dd	-0.08912251
142	0x3be14501	0.006874681
143	0xbdb83595	-0.08994595
144	0x3d59484a	0.053047456
145	0x3e20e396	0.15711817
146	0x3c59f9eb	0.013304214
147	0x3e2b5a2c	0.16733617
148	0x3e7b45b4	0.24538308
149	0xbe248bd8	-0.16068971
150	0xbd70329c	-0.058642015
151	0x3ab8108a	0.0014043015
152	0xbd0d2bf7	-0.034465756
153	0xbde4989d	-0.11161921
154	0xbe08c203	-0.1335526
155	0xbdabb0d9	-0.083833404
156	0xbdd993a2	-0.10623862
157	0xbdf1f7d3	-0.11814847
158	0x3de77894	0.11302295
159	0xbd947ea9	-0.07250721
160	0xbdfca596	-0.123362705
161	0xbe299b5b	-0.1656317
162	0xbe117514	-0.14204818
163	0x3e50a546	0.20375547
164	0x3e6d6a08	0.23184979
165	0xbdfecdfb	-0.124416314
166	0xbe5d0af2	-0.21586207
167	0x3e3909ce	0.18070146
168	0xbdbde57a	-0.09272285
169	0x3d202055	0.039093334
170	0xbe173a82	-0.14768413
171	0x3e1cb90c	0.15304965
172	0xbe13b5de	-0.14424846
173	0xbe3dd31a	-0.1853756
174	0xbe0dd26e	-0.13849804
175	0xbd47f644	-0.04881884
176	0xbe192b6f	-0.14957975
177	0xbe47feb1	-0.19530751
178	0x3dbf799f	0.09349369
179	0xbdbe4aa7	-0.092915826
180	0x3d39ddd2	0.04537756
181	0xbdcd22c2	-0.10016395
182	0x3d9373c1	0.07199813
183	0x3cc8f6e3	0.024531787
184	0xbe8215b5	-0.25407186
185	0x3e09bb3e	0.13450333
186	0xbe35db27	-0.17759381
187	0xbe0d6cfe	-0.13811108
188	0xbe5dc0f0	-0.21655631
189	0xbdabdd51	-0.08391822
190	0x3d6b7eff	0.05749416
191	0xbd1599b8	-0.03652355
192	0x3db6bb57	0.08922451
193	0x3d51375d	0.05107819
194	0x3d2dcc67	0.04243126
195	0xbd2730f8	-0.040818185
196	0x3c712dd0	0.014720395
197	0xbe564367	-0.2092415
198	0xbc670c4e	-0.014102055
199	0x3e4d9956	0.20078024
200	0xbdbe4831	-0.09291113
201	0x3e2df576	0.16988167
202	0x3d6460b0	0.05575627
203	0x3d794c0b	0.060863536
204	0x3da994b4	0.08280316
205	0x3e136e6a	0.14397588
206	0xbd0c35d7	-0.034231033
207	0xbcb8802c	-0.022522055
208	0x3d931a0d	0.07182703
209	0x3dbd369e	0.09238933
210	0x3de138e7	0.109971814
211	0x3d41c7e3	0.047309767
212	0xbddbddff	-0.10735702
213	0xbe1f9aad	-0.15586348
214	0xbe58970f	-0.21151374
215	0x3e9c0f5e	0.30480474
216	0xbdc6ea03	-0.09712603
217	0x3e5c3ba1	0.21507122
218	0x3e6bf8d6	0.23044142
219	0x3dbd1b96	0.09233777
220	0x3e526316	0.20545611
221	0x3e173b70	0.14768767
222	0x3e887ffd	0.26660147
223	0x3e7343fb	0.23756401
224	0xbd9f9725	-0.077925004
225	0x3d9eca79	0.07753462
226	0x3e3b60a4	0.18298584
227	0x3e711fa9	0.23547234
228	0x3de955a7	0.1139329
229	0xbe4e269b	-0.20131914
230	0xbdd80bff	-0.10549163
231	0xbc9ddb1c	-0.019269519
232	0x3e1bd453	0.15217714
233	0x3e66677e	0.22500417
234	0x3e0454e8	0.12923014
235	0x3d7bab2a	0.06144253
236	0x3d3f3279	0.046678994
237	0xbe03bfba	-0.12866107
238	0x3b4b74c5	0.0031044942
239	0xbe7fea8c	-0.24991816
240	0xbe467662	-0.19381097
241	0xbdebc52b	-0.11512216
242	0xbd694be6	-0.056957148
243	0x3d85d923	0.06535556
244	0x3d9ebe43	0.07751133
245	0x3e59482d	0.21218939
246	0xbdc71c18	-0.09722155
247	0xbdb4d29e	-0.088292345
248	0x3e4f14c1	0.2022276
249	0xbe0a49b6	-0.13504681
250	0x3e44dd04	0.19224936
251	0x3e34511a	0.17609063
252	0x3e214e56	0.15752539
253	0xbc2c79e5	-0.010527109
254	0xbdd766b8	-0.10517639
255	0x3e2e2b67	0.17008744

bias f4 [32]
0	0x3dee4eed	0.11636148
1	0x3d871a85	0.06596855
2	0xbc9e834f	-0.019349722
3	0xbdc932bd	-0.09824131
4	0xbdf47b37	-0.11937564
5	0x3dcec993	0.10097041
6	0x3e40da4e	0.18833277
7	0xbe60a0ae	-0.21936294
8	0xbe5a766d	-0.21334238
9	0x3d4de90d	0.050271083
10	0x3ca44d84	0.020056494
11	0xbdf08aa3	-0.11745193
12	0x3e635258	0.2219938
13	0x3dff984b	0.124802195
14	0x3e2b3b21	0.16721775
15	0xbe48ed11	-0.19621684
16	0x3e53f3df	0.20698498
17	0xbc776494	-0.015099663
18	0x3dabff1c	0.083982676
19	0xbe20d549	-0.15706362
20	0xbe0b580f	-0.1360781
21	0xbe317323	-0.17329077
22	0xbdadd606	-0.08488087
23	0xbe4bf755	-0.19918568
24	0xbe550da2	-0.20805982
25	0x3cf2fcf8	0.02966164
26	0x3dac0d59	0.08400983
27	0x3d5cae16	0.05387696
28	0x3e01c60b	0.12673204
29	0xbd0eea8b	-0.034891646
30	0xbd719c41	-0.058986906
31	0x3d9f5480	0.07779789

weight f4 [2, 32]
0	0xbe79f185	-0.24408539
1	0x3df4879c	0.11939928
2	0xbe6cce8d	-0.23125668
3	0xbd7bffdc	-0.061523303
4	0x3c4a676a	0.012353757
5	0xbe1fbd34	-0.15599519
6	0xbe25742b	-0.16157596
7	0x3e05a7e5	0.13052328
8	0x3d426b1e	0.047465436
9	0x3de7fba7	0.11327296
10	0x3dd0acbb	0.10189196
11	0xbd2581d2	-0.04040701
12	0x3dc4bc26	0.09606199
13	0x3d3ad334	0.045611575
14	0x3e2600bc	0.16211218
15	0xbcc76da2	-0.02434427
16	0x3d38d930	0.045129
17	0x3e2f2f2c	0.17107838
18	0x3e49b1d0	0.19696736
19	0xbda2c225	-0.079471864
20	0x3e4b480c	0.19851702
21	0xbd3246d4	-0.04352458
22	0x3d5c6e6a	0.053816237
23	0x3bc254a9	0.0059305024
24	0x3d956728	0.07295066
25	0xbe105f47	-0.14098845
26	0xbe28dc1c	-0.16490215
27	0xbcc94253	-0.024567759
28	0xbe4ffb20	-0.2031064
29	0xbcf7cd00	-0.030249119
30	0xbdc71fec	-0.097228855
31	0xbe13a7a6	-0.14419422
32	0xbe14f632	-0.14547041
33	0x3cf44d24	0.02982194
34	0xbdb3225e	-0.087467894
35	0x3e303b22	0.17210057
36	0x3d10e97c	0.035378918
37	0x3da82318	0.082098186
38	0xbcabd3fa	-0.020975102
39	0xbe0ccf4c	-0.13750952
40	0x3d851002	0.06497194
41	0x3e14ec8e	0.14543363
42	0x3e4f9c3d	0.20274444
43	0xbcab785d	-0.020931417
44	0x3e38b3e6	0.18037376
45	0xbd2e3157	-0.042527523
46	0x3d56f7c3	0.052482378
47	0xbdca2020	-0.098694086
48	0x3dde23b7	0.10846656
49	0xbd5c5b08	-0.05379775
50	0xbe00383d	-0.12521453
51	0xbe0d49a2	-0.1379762
52	0x3e35b1fd	0.17743678
53	0x3e40071f	0.18752716
54	0x3e3c76f7	0.18404756
55	0x3e152f8b	0.14568917
56	0xbcda028e	-0.026612546
57	0xba95b88a	-0.0011422795
58	0x3de1d2f5	0.11026565
59	0xbe21a137	-0.15784155
60	0xbd84462d	-0.064586975
61	0xba0b871a	-0.0005322561
62	0x3e263e3f	0.16234683
63	0x3d860ff0	0.065460086

bias f4 [2]
0	0xbd511bb4	-0.05105181
1	0xbd524408	-0.05133441

weight f4 [32]
0	0x3f85d74c	1.0456328
1	0x3f862900	1.0481262
2	0x3f88fcd8	1.0702162
3	0x3f80ff80	1.0077972
4	0x3f7e52ac	0.993449
5	0x3f811d54	1.0087075
6	0x3f831fc6	1.0244071
7	0x3f79f254	0.9763539
8	0x3f827ab6	1.0193698
9	0x3f807d22	1.0038188
10	0x3f85d379	1.0455161
11	0x3f7f287d	0.99671155
12	0x3f796eb4	0.97434545
13	0x3f7702eb	0.9648883
14	0x3f82cdc4	1.0219045
15	0x3f80ec1c	1.0072055
16	0x3f85fa09	1.046693
17	0x3f7b0432	0.98053277
18	0x3f8248f0	1.0178509
19	0x3f86cca4	1.0531201
20	0x3f88ee05	1.0697638
21	0x3f85e086	1.0459144
22	0x3f8102f0	1.0079021
23	0x3f81645a	1.010875
24	0x3f81238e	1.0088975
25	0x3f866a7e	1.0501249
26	0x3f7fbbfe	0.9989623
27	0x3f8064d7	1.0030774
28	0x3f86e634	1.0539002
29	0x3f79636c	0.9741733
30	0x3f84ec71	1.0384656
31	0x3f827691	1.0192434

bias f4 [32]
0	0x3d66f5b0	0.05638665
1	0x3e13d73f	0.14437579
2	0x3ce9b449	0.02852835
3	0x3d4ec2f3	0.050478887
4	0xbcd3e395	-0.025865356
5	0xbcca4fcc	-0.024696253
6	0xbccb7f4f	-0.024840979
7	0x3c7f8529	0.015595713
8	0xbb5e5a00	-0.0033928156
9	0x3bb6ee55	0.0055826106
10	0x3dbf7f9b	0.09350511
11	0x3be7098d	0.007050699
12	0xbdb601ae	-0.08887039
13	0xbd047502	-0.03233815
14	0x3cb4ac6e	0.022054877
15	0xbd01931e	-0.031634443
16	0xbd9eaa86	-0.077473685
17	0x3d9b7156	0.075899765
18	0x3d9117c3	0.0708461
19	0x3d95e90b	0.0731984
20	0x3d1abb42	0.03777624
21	0xbb883c2f	-0.004157565
22	0xbbd00724	-0.0063485075
23	0xbb327550	-0.0027230568
24	0x3d66b0cc	0.05632095
25	0xbca5cee5	-0.020240257
26	0x3bd2e176	0.0064355684
27	0xbc4b288d	-0.012399805
28	0x3da4883e	0.08033799
29	0x3c8e4642	0.017367486
30	0xbd0b8eab	-0.034071606
31	0xbd351149	-0.044205938

running_mean f4 [32]
0	0x3eaef6b0	0.34172583
1	0xbdcf2114	-0.10113731
2	0x3e26e278	0.16297328
3	0x3bd50180	0.006500423
4	0xbdd99edb	-0.106260024
5	0x3dd8fa19	0.10594577
6	0x3e9f2cc0	0.3108883
7	0xbebcab8f	-0.3684964
8	0xbe14715e	-0.14496371
9	0x3da420cc	0.08014068
10	0xbe05ee8a	-0.13079277
11	0xbe29c9b8	-0.16580856
12	0x3db3be9e	0.08776592
13	0x3c3ef68e	0.011655463
14	0x3dd40d8e	0.10354148
15	0xbe150cd4	-0.14555675
16	0x3e89b251	0.26893857
17	0xbe7bd37d	-0.24592395
18	0xbd7bd533	-0.06148262
19	0xbc466814	-0.012109775
20	0xbe420e76	-0.18950829
21	0xbe1ba273	-0.15198688
22	0xbe022aa5	-0.1271158
23	0xbbe808a3	-0.0070811077
24	0xbed0ae0b	-0.40757784
25	0x3cd62da1	0.026144804
26	0x3e21471f	0.15749787
27	0x3ca0dc5b	0.019636324
28	0x3e025822	0.12728932
29	0x3db75c19	0.08953113
30	0x3d8113a5	0.06302575
31	0xbcc2f603	-0.023798948

running_var f4 [32]
0	0x3d18b5f8	0.037282914
1	0x3ce8c3e9	0.02841373
2	0x3dda41c7	0.10657077
3	0x3de5652e	0.11200939
4	0x3ce2a627	0.027667118
5	0x3d8a93fd	0.06766508
6	0x3c627358	0.013821445
7	0x3cfead19	0.031088399
8	0x3da0a191	0.07843316
9	0x3d649ca0	0.05581343
10	0x3c9c6543	0.019091254
11	0x3ce07e58	0.027403995
12	0x3d018a65	0.031626124
13	0x3d66413c	0.056214556
14	0x3d388611	0.04504973
15	0x3ca9479d	0.02066403
16	0x3c8b03f9	0.016969668
17	0x3d1a7930	0.03771323
18	0x3d29a5a1	0.04141772
19	0x3d59fd7d	0.05322026
20	0x3d1527fd	0.03641509
21	0x3cd8211c	0.026382975
22	0x3d13646b	0.035984438
23	0x3e0ea73d	0.13930984
24	0x3d0ad5e4	0.03389539
25	0x3d9e3fc2	0.077270046
26	0x3d87997d	0.066210724
27	0x3da544d1	0.08069766
28	0x3e07e255	0.13269933
29	0x3d0b3198	0.033982843
30	0x3d865f8c	0.06561193
31	0x3d69789c	0.056999788

weight f4 [32, 16]
0	0x3e332aca	0.17496791
1	0x3e1a4a78	0.1506747
2	0x3e029975	0.12753852
3	0x3df99b9c	0.12187883
4	0xbd7b594c	-0.061364457
5	0xbd324fa0	-0.043532968
6	0xbe53f485	-0.20698746
7	0xbccba2fd	-0.024857992
8	0x3e4d1c64	0.20030361
9	0xbe27f50a	-0.16402069
10	0xbdcdf555	-0.10056559
11	0x3d30da77	0.043177094
12	0x3e19d879	0.15023984
13	0x3e161070	0.14654708
14	0xbe2539d9	-0.16135348
15	0x3c78ad00	0.015177965
16	0x3e26e4f6	0.16298279
17	0x3d026833	0.031837653
18	0x3d11e62e	0.035619907
19	0x3e758788	0.23977482
20	0xbe17cccd	-0.14824219
21	0x3e79a583	0.24379544
22	0xbe4cca07	-0.19998942
23	0x3d89cca9	0.06728489
24	0xbdca67fc	-0.09883115
25	0xbdb6f568	-0.08933526
26	0xbe0985ea	-0.1342999
27	0xbca973f2	-0.02068517
28	0xbe56f3d1	-0.20991446
29	0xbe4a9c50	-0.19786191
30	0x3d7ce2e8	0.061739832
31	0x3e38ba69	0.1803986
32	0xbe2b76f7	-0.167446
33	0x3d6b6ddb	0.057477813
34	0xbe77cc92	-0.24199131
35	0xbd4ba274	-0.049715474
36	0xbe556e50	-0.20842862
37	0xbe03b4dd	-0.12861963
38	0x3d872444	0.06598714
39	0x3e647f50	0.22314191
40	0xbdacdcb8	-0.08440536
41	0x3daeaa45	0.0852857
42	0x3ded912f	0.11599957
43	0x3d1f9abd	0.03896593
44	0x3e3a332b	0.18183582
45	0xbda076a0	-0.07835126
46	0xbe0188db	-0.12649862
47	0xbe9bbd0d	-0.30417672
48	0xbd9152c9	-0.07095868
49	0xbe3a045f	-0.1816573
50	0x3e216d9f	0.15764473
51	0x3d841f06	0.0645123
52	0xbdd0f92c	-0.10203776
53	0xbe81fd3f	-0.25388524
54	0xbd215baa	-0.03939406
55	0x3e833c94	0.25632155
56	0x3e35cf2c	0.17754811
57	0xbd341542	-0.043965586
58	0x3e2a47d2	0.1662896
59	0xbd9f68a3	-0.0778363
60	0x3d703135	0.058640677
61	0xbe36fe49	-0.1787044
62	0x3d2f8e6c	0.042860433
63	0xbd879e22	-0.06621958
64	0xbd8c1c0d	-0.06841288
65	0x3d74ad7f	0.05973577
66	0xbdf631c6	-0.12021212
67	0x3d69d305	0.05708601
68	0x3d96c0b3	0.07360973
69	0xbd3a5073	-0.04548688
70	0x3de536fa	0.111921266
71	0xbe7b7fd2	-0.24560478
72	0xbe0408e5	-0.12894018
73	0x3d494fb9	0.049148295
74	0xbd7f4637	-0.06232282
75	0xbc67858d	-0.014130962
76	0x3c80c504	0.015718944
77	0x3915c3e8	0.00014282728
78	0x3de587e8	0.11207563
79	0xbe4d119e	-0.20026252
80	0x3d3caf5a	0.046065666
81	0x3d3546cd	0.044256974
82	0xbe2c583c	-0.16830534
83	0x3d8f76ba	0.07005067
84	0x3de26250	0.11053908
85	0x3d0e7e0e	0.034788184
86	0xbe6a2278	-0.22864711
87	0xbe2babe3	-0.16764788
88	0x3c61e454	0.013787348
89	0x3e79ff9f	0.24413918
90	0xbdae78f1	-0.085191615
91	0x3e381e18	0.1798023
92	0x3dea9b9c	0.114554614
93	0x3d8d73df	0.06906866
94	0x3e383cf2	0.17991999
95	0x3dd3793d	0.10325859
96	0xbe8e5017	-0.2779548
97	0x3d07cd15	0.033154566
98	0x3d16671b	0.036719423
99	0x3e364205	0.17798622
100	0x3e52d6c2	0.20589736
101	0xbe19cad4	-0.15018779
102	0xbc726fa6	-0.014797127
103	0x3e80f254	0.25184882
104	0x3d27f815	0.041008074
105	0xbcc5e554	-0.024157204
106	0xbd84e733	-0.0648941
107	0xbd8dd7c4	-0.0692592
108	0x3ddbb93c	0.1072869
109	0xbe6c02b1	-0.23047902
110	0xbd27f41b	-0.04100428
111	0x3dd33c53	0.1031424
112	0xbd940353	-0.072271965
113	0x3e8b40d6	0.27197903
114	0xbd5be0cd	-0.053681184
115	0xbe83388c	-0.2562908
116	0x3da7506d	0.08169637
117	0x3d177e2f	0.036985572
118	0xbd5681f5	-0.05237003
119	0xbc8a4373	-0.016877865
120	0xbe41d46e	-0.18928692
121	0xbde51f6b	-0.11187633
122	0xbd8e9ecd	-0.069638826
123	0x3c91bdce	0.017790701
124	0xbe462039	-0.1934823
125	0x3e6e0f28	0.23247969
126	0x3ddd87d7	0.10816925
127	0x3ca1813f	0.01971495
128	0xbe5a04de	-0.21290919
129	0x3e14066a	0.14455572
130	0xbe4bca48	-0.19901383
131	0xbe2e5722	-0.17025426
132	0xbd814489	-0.063119
133	0xbe582400	-0.21107483
134	0xbcc63229	-0.02419384
135	0x3e69c4ea	0.22829023
136	0xbe5f6c72	-0.21818712
137	0xbdcc2088	-0.09967142
138	0x3d2c1fdd	0.042022575
139	0xbe2f8201	-0.17139436
140	0xbd0a166c	-0.03371279
141	0x3dd91e13	0.10601439
142	0xbd4726bf	-0.048620936
143	0xbe0ac7c1	-0.13552763
144	0x3cf104e1	0.029421272
145	0x3e44775e	0.1918616
146	0x3e56cdfc	0.20977014
147	0x3e1de28f	0.15418456
148	0xbe024194	-0.12720329
149	0x3df21d8e	0.11822043
150	0xbe2e707c	-0.17035097
151	0xbdaf2776	-0.085524485
152	0x3b51096e	0.003189649
153	0xbd57ff16	-0.052733503
154	0x3e755d87	0.23961459
155	0xbc87a7fb	-0.016559592
156	0x3d74d8c1	0.059777025
157	0xbade5e30	-0.0016965326
158	0x3e752ecc	0.23943633
159	0x3ca0e8b4	0.019642211
160	0x3bc9c978	0.00615805
161	0x3b0b810a	0.002128663
162	0xbe122143	-0.14270501
163	0xbdf657c1	-0.120284565
164	0x3e6933b9	0.22773637
165	0xbd8f5458	-0.06998509
166	0xbde12caf	-0.10994851
167	0xbe82c197	-0.25538322
168	0x3cdd7255	0.027032057
169	0x3d28a7b7	0.04117557
170	0x3d97f9a2	0.074206606
171	0xbe1a39d3	-0.1506112
172	0x3e2fb452	0.1715863
173	0xbd23e02c	-0.04000871
174	0xbdd1b61c	-0.10239813
175	0xbe35cf91	-0.17754962
176	0xbe0b9910	-0.13632607
177	0xbe60b3aa	-0.21943536
178	0x3e4d4694	0.20046455
179	0xbd9bb63c	-0.07603118
180	0xbc86f61b	-0.016474774
181	0x3d1e7b35	0.038691718
182	0xbe015096	-0.12628397
183	0xbdd12b0a	-0.10213287
184	0x3e7317f8	0.23739612
185	0xbe3debfe	-0.18547055
186	0xbb888c91	-0.0041671474
187	0xbe07edf2	-0.13274363
188	0x3e61026c	0.2197358
189	0xbe174186	-0.14771089
190	0xbe8c07f1	-0.2734981
191	0x3e06a711	0.13149668
192	0xbe2d7ecc	-0.169429
193	0xbd25d60a	-0.040487327
194	0x3dcd3ce6	0.10021381
195	0x3e832169	0.25611427
196	0x3e3fed59	0.18742885
197	0x3dcb5f36	0.099302694
198	0xbe6fa86e	-0.23404095
199	0x3e66eb90	0.22550797
200	0xbe481bbb	-0.19541828
201	0x3d9f9acd	0.07793198
202	0x3d855f3b	0.065123044
203	0x3c865575	0.016398171
204	0x3e37ffe5	0.1796871
205	0xbdecf820	-0.115707636
206	0x3e52a0e0	0.20569181
207	0x3e20e8e4	0.1571384
208	0xbdc52007	-0.09625249
209	0xbe88f31d	-0.2674798
210	0x3d287f45	0.041137
211	0x3e9ad8ac	0.30243433
212	0x3e0048d0	0.12527776
213	0x3df4eefe	0.11959647
214	0xbe68fb80	-0.2275219
215	0xbe6bb916	-0.23019823
216	0x3e541caa	0.2071406
217	0x3ca64418	0.020296142
218	0x3d6b472b	0.057440918
219	0x3db8ae42	0.09017612
220	0x3e234c5f	0.15947102
221	0xbc7958f8	-0.015218966
222	0x3db7935d	0.08963654
223	0x3e1058bb	0.14096348
224	0x3e23ff5b	0.16015379
225	0x3dbe60db	0.092958175
226	0x3d0bf3c8	0.034168035
227	0x3d786fca	0.060653485
228	0x3d6971de	0.056993358
229	0xbd59a858	-0.05313906
230	0x3d8ee6e1	0.069776304
231	0xbe7882d6	-0.2426866
232	0xbda43ac8	-0.08019024
233	0x3d82af05	0.063810386
234	0x3e268133	0.16260223
235	0x3e498d62	0.1968284
236	0xbe1886ec	-0.14895219
237	0x3bfbbd21	0.007682458
238	0x39fc5c35	0.00048133885
239	0xbda99140	-0.08279657
240	0x3dfad55f	0.122477286
241	0x3d9ba3f8	0.07599634
242	0xbe0caad7	-0.13737045
243	0xbd96a5b1	-0.07355822
244	0x3af2977d	0.0018508282
245	0xbe5e5d1d	-0.21715207
246	0x3e22b9d9	0.15891208
247	0x3daeac3f	0.08528947
248	0xbe048d66	-0.12944564
249	0xbe339dd6	-0.17540678
250	0x3d16ab37	0.036784377
251	0x3e780eba	0.24224368
252	0xbe3075c1	-0.1723242
253	0x3d8b843c	0.06812331
254	0x3da86d18	0.08223933
255	0xbe343334	-0.17597657

bias f4 [32]
0	0x3e867d95	0.26267686
1	0x3e57392d	0.21017905
2	0x3d072ec4	0.033003584
3	0x3e6361de	0.22205302
4	0x3e66c4c9	0.22536005
5	0xbe521c9e	-0.20518729
6	0xbdea319f	-0.11435246
7	0xbc4c4fbc	-0.012470182
8	0x3e583b9b	0.21116488
9	0x3db3a116	0.08770959
10	0x3de629dd	0.112384535
11	0x3e2137ad	0.15743895
12	0x3e7bd896	0.2459434
13	0x3e4935bd	0.19649406
14	0xbc216c9a	-0.009852553
15	0x3dcebb4c	0.10094318
16	0x3d715de3	0.058927428
17	0x3e0fffde	0.1406245
18	0xbdec62ef	-0.115423076
19	0xbe37ab77	-0.17936502
20	0x3d88e20f	0.06683742
21	0x3e5c8ca4	0.21538025
22	0x3dc1b12f	0.09457623
23	0xbe6a4cbc	-0.22880834
24	0x3dd624e2	0.104562536
25	0xbe29b3df	-0.16572522
26	0xbdbc7387	-0.092017226
27	0x3de49532	0.11161269
28	0x3e0b8cd8	0.13627946
29	0xbda0df48	-0.078550875
30	0xbe09345e	-0.13398883
31	0x3d8fbe00	0.070186615

weight f4 [2, 32]
0	0xbd80fb53	-0.06297936
1	0xbd29f2ca	-0.041491307
2	0xbd773c40	-0.060360193
3	0x3da47e99	0.08031959
4	0xbe0d9af8	-0.13828647
5	0xbe22ffb4	-0.15917856
6	0x3e06c442	0.13160804
7	0x3dfd7b1f	0.12376999
8	0xbe10c6b5	-0.141383
9	0x3df98be2	0.12184884
10	0xbc8762df	-0.016526638
11	0xbe5e132e	-0.21687004
12	0x3dc32cc1	0.095300205
13	0x3d94caa7	0.07265215
14	0xbe27b25d	-0.16376634
15	0xbe0bee53	-0.13665132
16	0x3d8a9dae	0.06768356
17	0xbe2c1c3f	-0.1680765
18	0x3e0081e7	0.12549554
19	0xbcd46289	-0.025925891
20	0xbdc469cd	-0.095904924
21	0x3e089a4a	0.13340107
22	0xbe11a932	-0.14224699
23	0x3ccbdc1a	0.024885226
24	0xbb7fb42a	-0.0039017298
25	0x3be50576	0.0069891764
26	0x3c247b05	0.010039096
27	0xbe0eb34d	-0.13935585
28	0xbd0166c2	-0.031592138
29	0xbdce4330	-0.10071409
30	0x3db38708	0.087659895
31	0xbe052007	-0.13000499
32	0x3da5ed43	0.08101895
33	0x3e811482	0.2521096
34	0x3da157cb	0.07878073
35	0xbc6fd042	-0.014637055
36	0x3d60883e	0.05481743
37	0xbddab473	-0.10678949
38	0x3ce6da4d	0.028180266
39	0x3d5e61ef	0.054292616
40	0xbe21629a	-0.1576027
41	0xbe2a1cf4	-0.16612607
42	0xbc8c759c	-0.017145924
43	0xbdeaaebe	-0.11459111
44	0xbdd0bdc4	-0.10192445
45	0xbd3b36e1	-0.045706633
46	0xbe1e7a3d	-0.15476318
47	0xbd3cb3e6	-0.046070002
48	0x3d32ec7b	0.043682557
49	0x3d377961	0.04479349
50	0x3d392b37	0.04520723
51	0x3e0da4eb	0.13832442
52	0xbd17ac9b	-0.037029844
53	0xbc198c6b	-0.009371857
54	0x3e1a0f32	0.15044859
55	0xbd364eb5	-0.044508655
56	0x3c0bd07c	0.008533593
57	0x3d07fc87	0.033199813
58	0xbd414728	-0.047187
59	0xbd02ab48	-0.031901628
60	0x3c86ff0e	0.016479041
61	0x3e12793b	0.14304058
62	0x3d35643c	0.044285044
63	0x3d42caa6	0.04755654

bias f4 [2]
0	0x3d8d5027	0.069000535
1	0xbcdedbf2	-0.027204487

weight f4 [32]
0	0x3f82ab23	1.0208477
1	0x3f8a9224	1.0825849
2	0x3f7b803e	0.9824256
3	0x3f81ba97	1.0135068
4	0x3f8479b9	1.0349647
5	0x3f817148	1.0112696
6	0x3f7ed0ec	0.9953754
7	0x3f80eb2e	1.0071771
8	0x3f7cbc9f	0.9872531
9	0x3f7e1049	0.992436
10	0x3f758288	0.959023
11	0x3f86966b	1.0514654
12	0x3f7bd7bd	0.98376065
13	0x3f7aed4d	0.9801834
14	0x3f8065eb	1.0031103
15	0x3f7c1a59	0.98477703
16	0x3f765337	0.96220726
17	0x3f81c8f4	1.0139451
18	0x3f80fb07	1.0076607
19	0x3f7eaec3	0.99485415
20	0x3f81d31e	1.0142553
21	0x3f808305	1.0039984
22	0x3f7d8fd0	0.99047565
23	0x3f7fad1a	0.9987351
24	0x3f71266d	0.9419926
25	0x3f78d79b	0.9720399
26	0x3f7fedff	0.9997253
27	0x3f8130ab	1.0092977
28	0x3f767fd7	0.9628882
29	0x3f82b38d	1.0211045
30	0x3f7c9cf6	0.98677003
31	0x3f815872	1.0105116

bias f4 [32]
0	0xbc08a83c	-0.008340891
1	0xbdae0fc2	-0.08499099
2	0xbcb17adc	-0.02166503
3	0x3ab0c7fd	0.0013487336
4	0x3c9ca3e0	0.01912111
5	0x3c477c52	0.012175636
6	0x3d0ced21	0.03440583
7	0xbbe3bcda	-0.006950003
8	0xbc81c51b	-0.015841058
9	0xbd3f6a91	-0.04673249
10	0x3c218833	0.009859133
11	0x3d870acf	0.065938585
12	0xbbe3923f	-0.006944924
13	0xbd0bacbb	-0.034100275
14	0x3cb39d57	0.021925611
15	0xbaaa3ee0	-0.0012988709
16	0xbd87abb9	-0.0662455
17	0x3d31cefb	0.043410283
18	0x3c94e75d	0.018176729
19	0xbdbe7419	-0.092994876
20	0x3d166b98	0.036723703
21	0xbb5464f7	-0.0032408813
22	0xbd59c1b9	-0.053163264
23	0x3cda3551	0.026636751
24	0xbd07934c	-0.033099458
25	0xbd3943f1	-0.04523081
26	0x3cfc9326	0.030831885
27	0x3d165861	0.03670538
28	0xbcfba1ed	-0.03071686
29	0x3c898587	0.016787304
30	0xbd099297	-0.033587065
31	0xbb47f12a	-0.0030508735
