code/model_obj_backups/model_obj_32.pt (torch, 540834 bytes, 158 tensors)

weight f4 [32, 2]
0.038797155 0.38241002 -0.32298368 0.22028057 -0.6383164 0.628857 -0.2550243 0.18408984
0.6028965 -0.2792045 -0.30885652 -0.7080261 0.2408075 -0.20541357 0.42079803 0.66870457
0.31544772 -0.052753624 -0.28955653 0.505105 0.3362941 -0.14142443 -0.0993002 -0.33351496
-0.12567678 0.24250366 0.42171657 0.70765597 0.31302038 0.4017206 -0.38850096 -0.078971274
0.17911191 0.30024308 0.6680018 0.61539775 -0.31923157 -0.6378605 0.16072598 -0.38058755
0.5137802 -0.5685097 -0.022791782 0.08195785 -0.47875932 -0.55631787 -0.53306735 0.29389518
0.5486568 -0.3177048 0.5314897 0.22541727 0.23446296 -0.5997225 0.6771482 -0.61650145
0.23569544 0.3912898 0.6044246 0.37560177 0.65687066 -0.12028428 -0.0071681007 -0.22555724
00000000: c4e9 1e3d 3fcb c33e 1e5e a5be 3b91 613e
00000010: b468 23bf c6fc 203f 8c92 82be 0c82 3c3e
00000020: 6d57 1a3f e4f3 8ebe 7122 9ebe 3341 35bf
00000030: 3e96 763e ef57 52be d772 d73e 3930 2b3f
00000040: 5d82 a13e 2f14 58bd c140 94be 904e 013f
00000050: be2e ac3e 91d1 10be e75d cbbd 79c2 aabe
00000060: 6ab1 00be e152 783e 3ceb d73e f128 353f
00000070: 3544 a03e 53ae cd3e 99e9 c6be b1bb a1bd
00000080: 1d69 373e 76b9 993e 2a02 2b3f b58a 1d3f
00000090: 5272 a3be d34a 23bf 5a95 243e 5fdc c2be
000000a0: 1987 033f da89 11bf d5b5 babc 84d9 a73d
000000b0: f11f f5be d96a 0ebf 1a77 08bf 6e79 963e
000000c0: c674 0c3f 34aa a2be b50f 083f c9d3 663e
000000d0: 0f17 703e 6a87 19bf 9659 2d3f 0ad3 1dbf
000000e0: 255a 713e 2357 c83e 92bb 1a3f e04e c03e
000000f0: ad28 283f 9b57 f6bd 63e2 eabb 7af8 66be

bias f4 [32]
0.16076162 -0.2301069 -0.61672825 -0.42639685 -0.50477993 -0.21487716 -0.30200028 0.30600664
-0.6464964 -0.16053936 -0.09266964 -0.6146114 0.45670348 0.5767136 -0.017315097 -0.051889136
0.3484854 -0.41175503 -0.092368454 0.45347863 0.097420596 -0.34582302 0.46553335 -0.58858
0.3452096 0.6781774 -0.4371588 -0.29343337 0.570975 0.6126289 -0.004812771 -0.5203959
00000000: b29e 243e 25a1 6bbe e7e1 1dbf b050 dabe
00000010: 4239 01bf c208 5cbe c89f 9abe e7ac 9c3e
00000020: ca80 25bf 6e64 24be 95c9 bdbd 2c57 1dbf
00000030: 0ad5 e93e 81a3 133f 64d8 8dbc b489 54bd
00000040: ae6c b23e 8ed1 d2be ac2b bdbd 5a2e e83e
00000050: 7384 c73d b70f b1be 635a ee3e 2ead 16bf
00000060: 50bf b03e 099d 2d3f 47d3 dfbe e63c 96be
00000070: 6b2b 123f 3fd5 1c3f 73b4 9dbb aa38 05bf

weight f4 [16, 32]
-0.093137175 0.10822399 0.0034536025 0.08871077 0.097886026 0.04008307 0.01041232 -0.038190737
0.112951465 0.05502287 -0.146857 0.12166013 0.091129564 -0.16492441 -0.17506476 -0.07546075
-0.020223957 -0.027680285 0.058383 -0.13511446 -0.13965335 -0.007836397 -0.00040246287 0.065432616
-0.07505278 -0.17442237 -0.07326044 0.011941031 0.08160731 0.074713916 0.08539846 -0.08317272
0.067584924 0.1801992 0.033843823 -0.082609974 -0.05814028 0.09349543 -0.061303906 -0.13086459
-0.050070185 -0.09950497 -0.053224023 -0.13433129 0.06871525 -0.054338828 -0.06608354 0.1402023
-0.17573832 0.10309647 -0.14066914 -0.14058685 -0.046280432 -0.014791815 0.06156663 0.09282689
0.03479893 -0.13250616 0.14161 -0.16513117 -0.05990075 -0.13080776 -0.10564851 0.123186074
-0.08136797 -0.01956795 0.15570319 0.020312555 -0.15505311 0.0072851297 -0.06550936 -0.04459501
0.18427409 0.019497514 -0.04297329 -0.07508224 -0.14966574 -0.13907667 -0.013596361 0.12949342
0.08741782 0.008548373 0.024317982 -0.04771318 -0.07133457 0.12284957 0.016432954 -0.012518551
0.008889667 0.032169357 0.16324425 0.171485 0.15781085 0.019898415 0.09747365 0.13320126
-0.051205065 0.12233647 -0.08672276 0.096408986 0.004565017 0.0994814 -0.048643935 -0.11211847
-0.15500697 -0.028453255 0.049611736 -0.07524791 0.11272477 0.046662595 -0.11029896 0.09416703
0.06824813 0.15754756 0.08820298 -0.04044195 0.06884099 -0.024939727 -0.021012478 0.17028117
-0.1381894 0.023399843 -0.019266458 -0.06825958 -0.16960317 -0.036839504 0.069763154 0.059014253
-0.12876019 0.13488846 0.021352276 0.021165675 0.021893742 -0.057106476 0.031072615 -0.071478106
-0.05221396 -0.023328066 0.03972951 0.013357038 -0.06850539 -0.15746537 0.045869756 0.095190495
0.13819726 -0.10615784 0.07712972 0.09107003 -0.06281647 0.08423075 -0.068986654 0.032431226
0.14026918 0.049804423 -0.13609207 0.040915515 -0.14806634 -0.059294283 -0.15165992 0.11804503
0.11098256 0.16163774 -0.10453182 -0.14210895 -0.16804828 -0.064510696 -0.114673056 0.12794279
0.15564598 -0.031172382 -0.096186765 0.1705494 0.09581366 0.06934529 -0.003313872 0.12102512
-0.16701856 0.0019558968 0.05462812 0.063730486 -0.039767385 -0.094595544 0.097214304 -0.070187084
0.15892592 -0.0824741 0.1574663 -0.12220362 -0.08782431 0.13259509 0.09679176 0.015556637
0.16200377 0.10725342 0.10871767 -0.1148106 -0.116733275 -0.052734274 0.15276174 -0.12494782
-0.036280032 -0.035587016 0.16640572 0.1372632 -0.12547222 0.08935687 0.14447893 -0.050210003
0.007902875 -0.12760445 0.17277996 0.09803694 0.06557154 -0.047667246 0.14919889 0.03308467
0.05947279 -0.03208954 0.0027879647 -0.102778964 -0.114519626 -0.0023851243 -0.053731225 -0.1112238
-0.09273346 0.176368 0.10932375 -0.0063241054 0.059854206 0.09090602 0.11260588 0.12668882
-0.077135704 0.0037674627 0.13951878 0.010539183 0.1504571 -0.16666837 0.15782362 0.11802152
-0.0054986756 0.04847624 0.10916699 -0.039989974 -0.05380132 0.15121125 -0.1132462 0.010928075
-0.087308206 -0.016461909 0.089784935 0.16256925 -0.12408363 0.010406782 -0.15203626 0.1718135
00000000: b4be bebd 8aa4 dd3d d655 623b fead b53d
00000010: 7878 c83d 252e 243d 6f98 2a3c e46d 1cbd
00000020: 1953 e73d a95f 613d ae61 16be f228 f93d
00000030: 23a2 ba3d f2e1 28be 2d44 33be 2a8b 9abd
00000040: b6ac a5bc c4c1 e2bc 0323 6f3d 725b 0abe
00000050: 4a01 0fbe 3b64 00bc a701 d3b9 8901 863d
00000060: 46b5 99bd c79b 32be 9209 96bd 50a4 433c
00000070: bc21 a73d 9c03 993d 63e5 ae3d 7656 aabd
00000080: f769 8a3d 2486 383e d29f 0a3d 6b2f a9bd
00000090: 8124 6ebd 887a bf3d ce19 7bbd 5e01 06be
000000a0: 6516 4dbd 43c9 cbbd 6f01 5abd 248e 09be
000000b0: 95ba 8c3d 6492 5ebd cf56 87bd 3191 0f3e
000000c0: bff4 33be 3e24 d33d 920b 10be 00f6 0fbe
000000d0: 8d90 3dbd 5e59 72bc 4a2d 7c3d 061c be3d
000000e0: 5389 0e3d b2af 07be 3602 113e 2518 29be
000000f0: 7d5a 75bd 78f2 05be 3f5e d8bd fb48 fc3d
00000100: 40a4 a6bd f74c a0bc a870 1f3e 8466 a63c
00000110: 3ec6 1ebe 19b8 ee3b c529 86bd 42a9 36bd
00000120: 59b2 3c3e 40b9 9f3c c304 30bd b8c4 99bd
00000130: fa41 19be 1d6a 0ebe 45c3 5ebc ec99 043e
00000140: 1d08 b33d 7a0e 0c3c 8136 c73c e56e 43bd
00000150: dc17 92bd 8e98 fb3d 679e 863c 9c1a 4dbc
00000160: f7a5 113c 04c4 033d 8029 273e c499 2f3e
00000170: 2b99 213e 0002 a33c 44a0 c73d e965 083e
00000180: 67bc 51bd 8b8b fa3d b49b b1bd 1372 c53d
00000190: 2396 953b e7bc cb3d dd3e 47bd 5e9e e5bd
000001a0: 26ba 1ebe cd16 e9bc ad35 4b3d 941b 9abd
000001b0: 3fdc e63d 4721 3f3d 6ce4 e1bd a5da c03d
000001c0: adc5 8b3d 2654 213e c4a3 b43d 75a6 25bd
000001d0: 81fc 8c3d 664e ccbc 5c22 acbc 305e 2e3e
000001e0: 8681 0dbe 07b1 bf3c b1d4 9dbc aecb 8bbd
000001f0: 74ac 2dbe 05e5 16bd fcdf 8e3d eeb8 713d
00000200: b6d9 03be 3320 0a3e f8ea ae3c a363 ad3c
00000210: 815a b33c 7be8 69bd ff8b fe3c 1d63 92bd
00000220: 4ede 55bd 801a bfbc 69bb 223d 7ad7 5a3c
00000230: 8e4c 8cbd 9a3e 21be ede1 3b3d 3cf3 c23d
00000240: 9583 0d3e 4869 d9bd 30f6 9d3d ed82 ba3d
00000250: eca5 80bd 2c81 ac3d e048 8dbd 9bd6 043d
00000260: b9a2 0f3e b9ff 4b3d b85b 0bbe 0797 273d
00000270: b49e 17be 90de 72bd bd4c 1bbe 98c1 f13d
00000280: d34a e33d 5d84 253e c714 d6bd 0285 11be
00000290: d914 2cbe 2f1e 84bd b5d9 eabd 6f03 033e
000002a0: a961 1f3e 395d ffbc 91fd c4bd 80a4 2e3e
000002b0: f439 c43d e704 8e3d 8c2d 59bb 05dc f73d
000002c0: ea06 2bbe 812e 003b bcc1 5f3d 2185 823d
000002d0: 20e3 22bd 4fbb c1bd 4b18 c73d 3fbe 8fbd
000002e0: 7abd 223e 2ee8 a8bd d93e 213e e445 fabd
000002f0: 3bdd b3bd 02c7 073e c23a c63d 44e1 7e3c
00000300: 51e4 253e aea7 db3d 5fa7 de3d d221 ebbd
00000310: db11 efbd e5ff 57bd 936d 1c3e a5e4 ffbd
00000320: 5f9a 14bd b1c3 11bd 4366 2a3e b98e 0c3e
00000330: ca7b 00be bc00 b73d 49f2 133e 01a9 4dbd
00000340: 0f7b 013c beaa 02be 3bed 303e 97c7 c83d
00000350: 5f4a 863d bb3e 43bd 98c7 183e ca83 073d
00000360: be99 733d 5270 03bd 49b6 363b c77d d2bd
00000370: 4489 eabd bf4f 1cbb 4615 5cbd 4ec9 e3bd
00000380: 0aeb bdbd d099 343e 21e5 df3d 713a cfbb
00000390: af29 753d ef2c ba3d e99d e63d b7ba 013e
000003a0: 53f9 9dbd 89e7 763b 03de 0e3e 8aac 2c3c
000003b0: 6d11 1a3e 1dab 2abe 849c 213e 44b5 f13d
000003c0: 3c2e b4bb 068f 463d f192 df3d 87cc 23bd
000003d0: c65e 5cbd 1fd7 1a3e a0ed e7bd ab0b 333c
000003e0: a5ce b2bd 20db 86bc 2ae1 b73d 8e78 263e
000003f0: 8f1f febd 3581 2a3c 65af 1bbe e1ef 2f3e

bias f4 [16]
0.020162897 -0.1363356 -0.06606972 -0.07149144 0.007893024 -0.17991531 0.15089644 -0.15698756
-0.066695146 0.02954547 0.031423878 -0.0027387247 0.11377044 0.0019691489 0.1324143 0.08276924
00000000: a92c a53c 8f9b 0bbe 904f 87bd 1b6a 92bd
00000010: be51 013c b83b 38be 9984 1a3e 59c1 20be
00000020: 7797 88bd 5709 f23c 53b6 003d 2d7c 33bb
00000030: 7a00 e93d d60c 013b 9d97 073e eb82 a93d

weight f4 [32]
0.9920889 1.006542 1.0025203 0.99338365 1.0070839 0.99603784 1.0080202 0.9950798
0.99636203 0.9986477 1.0073423 1.0060886 0.99408805 1.0011127 0.99695647 0.9946101
1.0082058 1.00405 0.99727136 0.9910982 1.0054648 0.9923301 1.0101005 0.99678046
0.9920033 1.0072898 1.0065184 0.99712867 0.99599147 0.9963594 1.0029163 1.002553
00000000: 8af9 7d3f 5ed6 803f 9652 803f 644e 7e3f
00000010: 20e8 803f 56fc 7e3f ce06 813f 8dbd 7e3f
00000020: 9511 7f3f 60a7 7f3f 98f0 803f 83c7 803f
00000030: 8e7c 7e3f 7624 803f 8a38 7f3f c49e 7e3f
00000040: e30c 813f b684 803f 2d4d 7f3f 9db8 7d3f
00000050: 12b3 803f 5809 7e3f f94a 813f 012d 7f3f
00000060: eef3 7d3f dfee 803f 98d5 803f d343 7f3f
00000070: 4cf9 7e3f 6911 7f3f 905f 803f a853 803f

bias f4 [32]
-0.007834273 0.006541631 0.0025178979 -0.0066173505 0.007084328 -0.003980399 0.008026348 -0.0049198545
-0.003426167 -0.005358377 0.0073394915 0.0060869968 -0.0059181894 0.0011104209 -0.003046967 -0.005390598
0.008218735 0.0040499577 -0.0025967045 -0.008915909 0.0054659857 -0.007608697 0.0101022655 -0.0032094244
-0.008002386 0.007290232 0.0065173944 -0.0028692915 -0.0040219883 -0.0036430038 0.0029162318 -0.0072400896
00000000: 535b 00bc 2e5b d63b 5103 253b 5cd6 d8bb
00000010: a723 e83b 026e 82bb f280 033c bb36 a1bb
00000020: 8b89 60bb 5395 afbb 1e80 f03b 6e75 c73b
00000030: 5fed c1bb 8b8b 913a a0af 47bb 9da3 b0bb
00000040: e0a7 063c 82b5 843b 792d 2abb 0814 12bc
00000050: 031c b33b 6052 f9bb f983 253c 3555 52bb
00000060: 711c 03bc e6e2 ee3b de8f d53b b90a 3cbb
00000070: e2ca 83bb 76bf 6ebb 401e 3f3b 463e edbb

running_mean f4 [32]
0.2171638 -0.14750564 -0.42208356 -0.35952473 -0.63756526 -0.28490692 -0.37026802 0.35341138
-0.7008324 -0.03658287 -0.16441476 -0.65430164 0.5142797 0.63029855 0.0024233619 -0.00831895
0.37119278 -0.40887067 -0.14951083 0.36841422 -0.069361635 -0.3292206 0.44476917 -0.4635452
0.21405585 0.6376119 -0.56846863 -0.491709 0.6002438 0.5858409 -0.119651906 -0.55594426
00000000: 3060 5e3e b80b 17be 561b d8be a013 b8be
00000010: 7a37 23bf 52df 91be c593 bdbe 56f2 b43e
00000020: c169 33bf ebd7 15bd 585c 28be 5080 27bf
00000030: d6a7 033f 3f5b 213f 44d1 1e3b 354c 08bc
00000040: fb0c be3e 7f57 d1be 5e19 19be caa0 bc3e
00000050: 790d 8ebd 9a8f a8be c9b8 e33e cc55 edbe
00000060: 7531 5b3e 893a 233f 2987 11bf 48c1 fbbe
00000070: 94a9 193f abf9 153f 0f0c f5bd 5d52 0ebf

running_var f4 [32]
0.023079336 0.06861902 0.31324783 0.04361871 0.21669331 0.10969648 0.041562524 0.13713934
0.053492114 0.09874038 0.066270456 0.019970104 0.020624235 0.14460592 0.06479466 0.076108694
0.026060192 0.2527736 0.099188596 0.042710263 0.21687712 0.0015370665 0.14320447 0.17593035
0.18870114 0.1428176 0.10023083 0.33869925 0.04472585 0.19002624 0.23299591 0.008124595
00000000: e010 bd3c 2188 8c3d 0562 a03e 88a9 323d
00000010: dae4 5d3e 8ca8 e03d 773d 2a3d 416e 0c3e
00000020: 8c1a 5b3d 6538 ca3d ceb8 873d 5898 a33c
00000030: 28f4 a83c 9313 143e 10b3 843d e0de 9b3d
00000040: 2f7c d53c 8b6b 813e 6423 cb3d f5f0 2e3d
00000050: 0915 5e3e 6577 c93a 31a4 123e 1627 343e
00000060: df3a 413e c73e 123e d245 cd3d fd69 ad3e
00000070: 7432 373d 3d96 423e 7b96 6e3e 051d 053c

weight f4 [32, 3]
-0.500565 0.18140873 0.45774785 -0.3728236 0.45877603 -0.23564142 0.27027953 0.48219293
-0.56309336 0.007785416 -0.19828184 -0.298905 -0.22375295 -0.14532642 0.5539671 -0.5214507
0.38686225 -0.44993195 -0.034805212 0.03655965 -0.44761008 -0.18910503 -0.52919257 0.15393299
0.30481872 -0.4655197 -0.03801916 -0.22643259 -0.083156265 -0.21043654 -0.3557884 0.24720517
-0.5836304 -0.024812618 -0.552599 -0.009109725 -0.07202849 0.008739394 -0.20894864 -0.360743
0.38976777 -0.21625513 0.37083337 0.4783831 0.34676674 0.37482142 -0.012528189 -0.14502369
-0.33844027 -0.3206746 -0.15570433 0.05314647 0.27136827 0.31471717 -0.5506814 -0.031308357
0.2303351 0.22339626 0.213126 -0.4654818 0.08872815 -0.2760633 -0.10397688 -0.17305283
0.11992689 -0.085920185 0.19583666 0.2995587 0.09580395 0.11637806 -0.12676987 0.12677577
0.15085518 -0.1993196 -0.08079786 -0.21957843 0.005001167 -0.30688757 0.5788284 -0.2822909
-0.1082992 0.033559527 0.3257193 0.43249255 0.29881364 0.25228298 0.2461813 -0.31426594
0.0010454347 0.46230742 -0.491072 0.5788045 0.52685726 0.1606244 -0.4030805 0.27976027
00000000: 0725 00bf 36c3 393e ed5d ea3e bce2 bebe
00000010: b1e4 ea3e fc4b 71be 1462 8a3e fee1 f63e
00000020: e326 10bf ce1c ff3b 650a 4bbe 130a 99be
00000030: 7e1f 65be 73d0 14be cad0 0d3f cb7d 05bf
00000040: cf12 c63e 7b5d e6be e98f 0ebd 92bf 153d
00000050: 262d e5be c0a4 41be 2a79 07bf 9ca0 1d3e
00000060: 3311 9c3e 9958 eebe fbb9 1bbd f2dd 67be
00000070: d54d aabd ad7c 57be e629 b6be 5a23 7d3e
00000080: cd68 15bf d543 cbbc 2177 0dbf f540 15bc
00000090: ac83 93bd ad2f 0f3c a2f6 55be 4eb3 b8be
000000a0: a48f c73e fc71 5dbe dfdd bd3e a1ee f43e
000000b0: 698b b13e 98e8 bf3e 0943 4dbc 1781 14be
000000c0: 0b48 adbe 762f a4be f570 1fbe 1db0 593d
000000d0: c8f0 8a3e 9c22 a13e 75f9 0cbf 313d 00bd
000000e0: f7dc 6b3e fdc1 643e b43d 5a3e a153 eebe
000000f0: 1bb7 b53d 2b58 8dbe d5f1 d4bd c334 31be
00000100: 3b9c f53d ecf6 afbd 6889 483e c25f 993e
00000110: dd34 c43d 9f57 ee3d f6cf 01be 82d1 013e
00000120: c879 1a3e 701a 4cbe 5979 a5bd 2bd9 60be
00000130: d4e0 a33b 5e20 9dbe 192e 143f 6f88 90be
00000140: f9cb ddbd b775 093d aec4 a63e aa6f dd3e
00000150: 1afe 983e 3c2b 813e f316 7c3e 77e7 a0be
00000160: f806 893a 8fb3 ec3e ca6d fbbe 882c 143f
00000170: 1ee0 063f b97a 243e 9160 cebe bd3c 8f3e

bias f4 [32]
0.53466845 -0.118824005 0.22940665 0.099383555 0.5143597 -0.19831811 -0.3080766 0.2518243
-0.34209722 -0.2303504 -0.30811414 0.14319411 -0.08136857 0.46957913 -0.011337258 0.21935803
-0.5011287 0.13757575 0.04724364 0.22255792 0.16134599 0.3877155 -0.039131485 -0.044604704
-0.08492705 0.2740359 0.4596667 -0.43828708 0.45844516 0.3902186 0.15702012 0.03846843
00000000: 08e0 083f 005a f3bd 94e9 6a3e 9b89 cb3d
00000010: 14ad 033f e713 4bbe 37bc 9dbe 1def 803e
00000020: 5e27 afbe fae0 6bbe 23c1 9dbe 7aa1 123e
00000030: 91a4 a6bd ad6c f03e e8bf 39bc 649f 603e
00000040: f849 00bf a8e0 0c3e 8c82 413d 39e6 633e
00000050: e237 253e a582 c63e 5648 20bd 6cb3 36bd
00000060: 3cee adbd 6f4e 8c3e 6f59 eb3e 2a67 e0be
00000070: 53b9 ea3e bbca c73e e2c9 203e 1391 1d3d

weight f4 [16, 32]
-0.05117469 -0.032169823 0.038039032 0.09752239 0.11309136 0.069785215 -0.17366625 -0.08120796
0.014524378 -0.020351656 -0.15526257 0.04901054 -0.029447058 -0.10591781 0.02917405 -0.11659595
-0.08419523 0.16374996 -0.08423721 0.119645305 -0.10160806 -0.026445404 0.045541532 -0.07187298
-0.16785984 0.16471112 -0.16539598 -0.08302022 0.026742287 -0.07014574 0.14796221 0.026493708
0.12797652 0.14600763 -0.017822485 -0.1284695 -0.16032329 -0.12776388 0.0073375935 -0.00719936
0.16228461 0.10328224 -0.13826944 0.15698408 0.039687835 -0.09879465 0.0015323216 0.024657324
0.17864276 -0.14741918 -0.103143215 -0.1083258 -0.1469056 -0.052627645 0.08791587 -0.12969008
0.022727666 0.028842814 -0.104543984 -0.062889494 0.0019365142 0.06682026 -0.1345838 -0.1100981
-0.10245118 -0.042172838 0.078892335 0.11965904 -0.15579511 -0.11689991 0.011808684 0.003749504
0.10129848 0.10352184 -0.017066758 -0.00016147044 0.13378097 0.088853374 0.089788266 -0.1004051
-0.177426 -0.11978241 0.10798992 -0.0038881262 -0.17707928 0.14736618 -0.006697472 0.111467466
-0.14748609 -0.098105855 0.07683742 0.0011716342 -0.13801429 -0.036208965 0.028547732 0.074301235
0.14903349 -0.11422319 -0.13086908 -0.0097292 -0.059483957 0.035354193 0.09585022 -0.14730011
0.052986827 0.096222304 -0.06933265 -0.02386816 0.018677944 0.17187351 -0.13596928 -0.12522271
-0.16030967 -0.03068731 -0.13156427 0.13563591 0.12886785 0.1457842 -0.13495646 -0.0066016093
-0.08157898 -0.15018664 0.03424779 0.17263013 -0.041119814 -0.06948646 -0.14785796 -0.0529314
-0.055905856 -0.15876287 -0.011573584 0.111855045 -0.10344134 -0.050184585 -0.044372335 0.15862481
-0.15911835 0.10364898 -0.13239457 0.109423764 -0.08232645 -0.13596064 0.08288868 -0.038689643
0.123041525 -0.09022266 -0.15051456 0.046612095 -0.16782184 0.09998692 -0.05640186 0.017976943
0.014120504 -0.12396729 0.16058654 0.12604699 0.033157635 0.1432407 0.14790908 -0.13072112
0.010250087 -0.14081517 -0.09968151 -0.096956104 0.06901445 -0.10147601 0.10741183 0.16805531
-0.10917626 0.034680657 0.1183883 0.036477476 0.0684375 -0.12295591 0.13427065 -0.13641015
-0.061734445 0.08659494 0.1492499 -0.1333319 0.07394237 -0.16949096 0.073248796 -0.028991148
0.11329265 -0.003572435 -0.100453004 -0.047339566 -0.10442001 -0.07284835 -0.0016553962 -0.13822947
0.12800217 -0.0924874 0.10317658 -0.116303556 0.18113402 0.11924851 0.08401439 0.13475443
-0.03954624 -0.06461004 0.13563111 -0.09322202 -0.14112104 -0.1443168 0.0030083177 0.13848911
0.1315162 0.11606252 0.15130813 -0.15226379 0.01584064 -0.051117316 0.1290923 0.14700018
-0.13598642 0.15297633 -0.07380998 -0.039050218 -0.023664555 -0.0136503205 0.1404544 -0.06566687
-0.12914689 0.14769794 -0.17335358 0.12630865 -0.08004357 -0.030006165 -0.09514022 0.0031360805
0.13371615 -0.061367285 -0.05125477 -0.11076704 -0.051834844 0.052077834 -0.10371916 -0.13516715
-0.08213059 -0.06601139 0.046516404 0.03009441 0.120705016 0.001988886 0.11176455 -0.0052365814
-0.17809945 0.15314157 -0.06674258 0.14238372 0.04718117 -0.10449643 -0.10846284 -0.036970325
00000000: 8d9c 51bd 81c4 03bd d1ce 1b3d d2b9 c73d
00000010: 719c e73d 8deb 8e3d 91d5 31be 5c50 a6bd
00000020: a8f7 6d3c 84b8 a6bc 27fd 1ebe 47bf 483d
00000030: f53a f1bc 70eb d8bd 6bfe ee3c dcc9 eebd
00000040: 8c6e acbd 12ae 273e 8f84 acbd 9908 f53d
00000050: e317 d0bd 08a4 d8bc c289 3a3d 2432 93bd
00000060: 73e3 2bbe 08aa 283e 905d 29be 8106 aabd
00000070: a412 db3c 92a8 8fbd 6883 173e 5509 d93c
00000080: 470c 033e 0683 153e 7600 92bc 828d 03be
00000090: ca2b 24be 89d4 02be 3270 f03b 9ce8 ebbb
000000a0: f02d 263e a485 d33d 8196 0dbe 6fc0 203e
000000b0: b68f 223d d954 cabd 2ed8 c83a 28fe c93c
000000c0: 21ee 363e 0ef5 16be c03c d3bd ebd9 ddbd
000000d0: 6c6e 16be 1690 57bd 3c0d b43d 7acd 04be
000000e0: 5f2f ba3c c447 ec3c 281b d6bd 35cc 80bd
000000f0: a2d2 fd3a 0fd9 883d 56d0 09be 1d7b e1bd
00000100: edd1 d1bd 6dbd 2cbd 4e92 a13d cc0f f53d
00000110: c188 1fbe 3869 efbd 3679 413c 3dba 753b
00000120: 9475 cf3d 4203 d43d 96cf 8bbc 6450 29b9
00000130: e1fd 083e c2f8 b53d e9e2 b73d 30a1 cdbd
00000140: 29af 35be 7b50 f5bd d229 dd3d efcf 7ebb
00000150: 4554 35be 29e7 163e 7876 dbbb 0e49 e43d
00000160: 9806 17be b9eb c8bd f05c 9d3d 8591 993a
00000170: 9e53 0dbe da4f 14bd efdc e93c 3f2b 983d
00000180: 3c9c 183e d9ed e9bd 8b02 06be 3967 1fbc
00000190: 73a5 73bd 8fcf 103d 1f4d c43d d7d5 16be
000001a0: b708 593d 3310 c53d 47fe 8dbd 2987 c3bc
000001b0: 7d02 993c 9cff 2f3e 883b 0bbe 623a 00be
000001c0: 3828 24be f463 fbbc c9b8 06be 24e4 0a3e
000001d0: eff5 033e 7448 153e 0732 0abe 5052 d8bb
000001e0: e112 a7bd 87ca 19be 6947 0c3d f4c5 303e
000001f0: 406d 28bd eb4e 8ebd 1468 17be 98ce 58bd
00000200: 8afd 64bd bc92 22be 219f 3dbc 4214 e53d
00000210: 0ed9 d3bd 5a8e 4dbd c4bf 35bd 8b6e 223e
00000220: ecef 22be eb45 d43d 7192 07be 9119 e03d
00000230: c59a a8bd 4439 0bbe 8ac1 a93d 0879 1ebd
00000240: 32fd fb3d a8c6 b8bd 7d20 1abe 53ec 3e3d
00000250: 7dd9 2bbe f1c5 cc3d a305 67bd 6244 933c
00000260: b059 673c 90e2 fdbd cc70 243e 7612 013e
00000270: 4dd0 073d b1ad 123e 7a75 173e c2db 05be
00000280: fbef 273c da31 10be d225 ccbd ec90 c6bd
00000290: 7357 8d3d a8d2 cfbd bcfa db3d b116 2c3e
000002a0: ce97 dfbd 4e0d 0e3d 9175 f23d 6869 153d
000002b0: f628 8c3d 4fd0 fbbd 3f7e 093e 1aaf 0bbe
000002c0: 42dd 7cbd b058 b13d f7d4 183e 2888 08be
000002d0: 196f 973d 0a8f 2dbe 7703 963d d87e edbc
000002e0: fa05 e83d 831f 6abb 4eba cdbd 22e7 41bd
000002f0: 28da d5bd 8431 95bd e1f9 d8ba 078c 0dbe
00000300: 0013 033e 096a bdbd 3e4e d33d 8f30 eebd
00000310: 327b 393e 9038 f43d bd0f ac3d 11fd 093e
00000320: 3dfb 21bd 4552 84bd e2e2 0a3e 30eb bebd
00000330: 0982 10be c9c7 13be 3227 453b 17d0 0d3e
00000340: 2fac 063e 30b2 ed3d 85f0 1a3e 0aeb 1bbe
00000350: 3bc4 813c 6460 51bd c630 043e 3787 163e
00000360: 0640 0bbe d4a5 1c3e b029 97bd 1ff3 1fbd
00000370: 2bdc c1bc 98a5 5fbc 47d3 0f3e 5a7c 86bd
00000380: 153f 04be 213e 173e 9a83 31be 0e57 013e
00000390: e2ed a3bd 7dcf f5bc e0d8 c2bd b386 4d3b
000003a0: e3ec 083e 435c 7bbd 86f0 51bd d4d9 e2bd
000003b0: c650 54bd 914f 553d b66a d4bd 4269 0abe
000003c0: 1534 a8bd fb30 87bd fc87 3e3d 8d88 f63c
000003d0: 3134 f73d f857 023b d0e4 e43d a197 abbb
000003e0: b45f 36be 25d1 1c3e 55b0 88bd 0acd 113e
000003f0: 0b41 413d 3902 d6bd c421 debd 326e 17bd

bias f4 [16]
0.085583374 0.16487032 0.0046517053 0.10238743 -0.16516651 -0.11089254 -0.16008145 -0.1550993
0.14088643 -0.08886939 -0.011531759 0.022902219 -0.008049228 0.040596135 0.006744104 -0.1633553
00000000: 5646 af3d c4d3 283e 556d 983b 80b0 d13d
00000010: 6921 29be a11b e3bd 64ec 23be 5ad2 1ebe
00000020: 8844 103e 2801 b6bd b4ef 3cbc 6f9d bb3c
00000030: e9e0 03bc 2248 263d a5fd dc3b 9d46 27be

weight f4 [32]
1.0062709 1.0050213 0.99474573 0.99341476 1.0014042 1.0005348 0.99349207 1.0076796
0.9927455 0.99366355 1.0001729 0.99407464 0.99748087 1.0057052 0.9937392 1.007201
1.0065312 0.9935594 1.0015161 1.0042351 0.9929229 1.006451 0.9945884 0.99481684
1.0065925 0.9915107 0.9941046 1.0079687 1.0069941 0.99126756 0.99330956 0.9944115
00000000: 7ccd 803f 8aa4 803f a8a7 7e3f 6e50 7e3f
00000010: 032e 803f 8611 803f 7f55 7e3f a5fb 803f
00000020: 9224 7e3f bc60 7e3f aa05 803f ad7b 7e3f
00000030: e85a 7f3f f3ba 803f b165 7e3f f6eb 803f
00000040: 04d6 803f e959 7e3f ae31 803f c78a 803f
00000050: 3230 7e3f 63d3 803f 589d 7e3f 51ac 7e3f
00000060: 06d8 803f a5d3 7d3f a47d 7e3f 1e05 813f
00000070: 2fe5 803f b6c3 7d3f 8949 7e3f c191 7e3f

bias f4 [32]
0.0062716636 0.0050178133 -0.0052545583 -0.00658528 0.0014042024 0.00053393905 -0.0065080235 0.007680278
-0.0072547714 -0.0063366294 0.00017576636 -0.0059253895 -0.0025186006 0.005707367 -0.006261036 0.007197151
0.0065347767 -0.0064406567 0.0015165985 0.004253276 -0.007075439 0.0064594676 -0.0054103862 -0.0051840865
0.0065942225 -0.008492133 -0.0058954577 0.007968409 0.006993618 -0.008730284 -0.0066905217 -0.0055888724
00000000: 8782 cd3b 786c a43b 6e2e acbb 55c9 d7bb
00000010: 370d b83a 0bf8 0b3a 4241 d5bb d7aa fb3b
00000020: 6fb9 edbb 80a3 cfbb ec4d 3839 c529 c2bb
00000030: 1b0f 25bb dd04 bb3b 6029 cdbb 14d6 eb3b
00000040: ae21 d63b 250c d3bb 9ac8 c63a 115f 8b3b
00000050: 16d9 e7bb f1a9 d33b 9c49 b1bb 45df a9bb
00000060: 5914 d83b 9622 0bbc af2e c1bb ee8d 023c
00000070: b82a e53b 7709 0fbc 2a3c dbbb dc22 b7bb

running_mean f4 [32]
2.4313533 -4.673684 -6.674562 -0.6222422 5.1743407 -5.7258053 -3.5496306 4.713891
2.4194164 -1.104337 -5.8279624 3.6626606 -1.5406599 -3.5079875 -0.78299296 -0.6725537
0.53119135 0.49183145 1.7956767 -4.282777 1.2522752 -0.96629715 -1.3368648 1.6279349
0.66438746 -1.8186122 1.5624508 0.3543512 0.47657174 3.486395 -0.0573607 4.52837
00000000: 4b9b 1b40 d28e 95c0 0396 d5c0 444b 1fbf
00000010: 3394 a540 cc39 b7c0 262d 63c0 32d8 9640
00000020: b8d7 1a40 ea5a 8dbf ab7e bac0 0869 6a40
00000030: 5834 c5bf de82 60c0 3a72 48bf 7b2c 2cbf
00000040: 28fc 073f 55d1 fb3e bcd8 e53f 820c 89c0
00000050: 8e4a a03f 405f 77bf 631e abbf 2c60 d03f
00000060: 4c15 2a3f 49c8 e8bf 63fe c73f 856d b53e
00000070: 3601 f43e 1821 5f40 0ef3 6abd 68e8 9040

running_var f4 [32]
14.957538 10.437706 19.189028 8.530168 13.713124 12.279579 9.490831 13.485409
12.281826 3.1574223 15.400817 16.551891 2.114534 7.65688 23.795334 1.1156408
8.390509 11.726273 2.4529152 9.906184 5.5826135 0.7939744 6.2290525 1.1245158
2.992175 4.6336718 5.8731723 19.694714 8.502176 10.64848 41.944607 8.842523
00000000: 1352 6f41 d800 2741 2183 9941 917b 0841
00000010: f568 5b41 2879 4441 72da 1741 3cc4 5741
00000020: 5c82 4441 3513 4a40 bf69 7641 466a 8441
00000030: 8654 0740 2905 f540 d85c be41 51cd 8e3f
00000040: 863f 0641 d09e 3b41 90fc 1c40 bb7f 1e41
00000050: c5a4 b240 e841 4b3f 6654 c740 22f0 8f3f
00000060: cc7f 3f40 0a47 9440 07f1 bb40 c68e 9d41
00000070: ea08 0841 2d60 2a41 47c7 2742 f97a 0d41

weight f4 [32, 20]
-0.21967708 -0.19069326 0.21332087 0.0939049 0.20898248 0.21315865 0.13256732 -0.0069705173
-0.17265117 0.06655609 0.1709877 -0.0083164815 -0.000996203 0.1054352 -0.048875425 0.10154947
0.17583121 0.17281576 0.08734526 -0.021976823 0.17206267 -0.045487482 0.027763365 0.11520374
-0.20217666 0.1230486 0.08973784 -0.21630463 -0.022216303 -0.20390603 -0.101722024 -0.15064551
-0.04331973 0.20940962 -0.029003149 -0.14057405 -0.14177242 -0.13865426 -0.035090517 -0.023429599
-0.07767881 0.1462073 0.16589779 0.22162484 -0.1621842 -0.007944149 0.08687805 -0.13692608
-0.18038781 -0.13615084 0.092223935 -0.21306708 -0.22248496 -0.20693794 0.095569484 0.18652798
-0.10102227 -0.094224304 -0.04343793 -0.05083402 -0.19810466 -0.13361646 -0.12155713 -0.14980096
0.16889179 -0.06110037 0.062397927 -0.10727088 0.13755608 -0.05723554 0.09368934 0.05533673
-0.178951 -0.13502409 0.022496704 -0.04766725 -0.033483613 0.18809815 0.14998272 -0.13245624
-0.18687636 -0.04646417 0.025159778 -0.13089089 0.18720303 0.08549227 -0.10474311 0.11080151
0.087085284 -0.041823138 -0.19725607 -0.1054152 -0.04466516 -0.12413869 -0.010262834 -0.1860611
0.11568133 0.13206354 -0.050792906 -0.0045469897 -0.080925345 0.10001008 -0.02108273 0.10746312
-0.08151584 0.010752402 -0.09557955 -0.16344047 -0.17371324 -0.09105286 -0.02365915 0.08611902
0.025631158 0.01498372 -0.035046495 -0.027810596 -0.2108726 -0.14373347 -0.17752011 0.007189085
0.024038265 0.03663642 -0.11008899 0.12220166 0.016211364 -0.07939305 -0.14708194 0.17896606
0.030996058 -0.098779954 -0.052669976 0.21178365 -0.032641746 0.024055341 0.22547564 0.16707112
-0.17266408 0.07413045 -0.090871446 0.06867929 -0.09386193 0.12702152 -0.036858927 0.20565899
0.1791831 -0.063591875 0.16697894 -0.10220575 -0.14839402 0.030876018 0.0051291566 0.20971593
0.07984407 0.0686292 0.048536006 -0.17070736 -0.18868202 -0.14914295 -0.031219618 0.22281268
0.09288389 0.0098075345 -0.0358232 -0.09996062 0.12790929 0.1607817 -0.07228789 0.067548834
0.16480468 -0.08143766 0.18178174 -0.03212333 -0.14768128 -0.032920662 -0.015808385 0.03088989
-0.13254593 0.17135002 -0.030377377 0.0815048 -0.11290916 -0.178906 0.013954357 0.15430327
-0.15021224 -0.06561001 0.18444411 -0.11692731 -0.07440007 0.186883 -0.095804274 0.066199586
-0.0110333385 0.13248374 0.08452242 0.12987348 -0.059102383 0.08813966 0.11163438 -0.07820978
0.18755573 0.021758506 0.22423068 -0.04049678 -0.19626413 -0.049151313 0.06707247 -0.2031054
-0.07097582 0.025293196 -0.057177156 0.045136407 -0.046516705 0.14892964 -0.043850783 0.21097942
0.0002610077 -0.1413252 -0.008006359 -0.2033187 -0.079347014 -0.2048254 -0.08266318 0.029678402
-0.12559888 -0.01502398 0.108209856 -0.17351069 0.1800384 -0.024449715 -0.015828507 -0.002832606
0.011626194 -0.038970795 0.21853018 0.05952171 -0.17275491 -0.09774894 0.16188735 -0.08032489
0.117548145 0.18469018 -0.10335508 0.05288203 -0.040588927 -0.11777378 -0.19275534 0.09304606
0.1556645 -0.13329734 0.1459682 0.17038465 -0.15432502 -0.1609147 0.08369183 0.14435959
00000000: 07f3 60be 1845 43be c970 5a3e 3651 c03d
00000010: 81ff 553e 4346 5a3e babf 073e f068 e4bb
00000020: 78cb 30be 8f4e 883d 6617 2f3e da41 08bc
00000030: 0793 82ba 69ee d73d 9931 48bd 2bf9 cf3d
00000040: 190d 343e 9df6 303e 12e2 b23d bd08 b4bc
00000050: 3231 303e 1551 3abd ff6f e33c f0ef eb3d
00000060: 6607 4fbe e800 fc3d 79c8 b73d f67e 5dbe
00000070: f7fe b5bc becc 50be a353 d0bd d142 1abe
00000080: 0770 31bd 7a6f 563e 0398 edbc a5f2 0fbe
00000090: ca2c 11be 62fb 0dbe 13bb 0fbd 6eef bfbc
000000a0: 1116 9fbd 5eb7 153e 1ce1 293e 9ff1 623e
000000b0: 9d13 26be 2d28 02bc 1eed b13d 5a36 0cbe
000000c0: 95b7 38be 206b 0bbe e7df bc3d 422e 5abe
000000d0: 19d3 63be 8ae7 53be efb9 c33d 3101 3f3e
000000e0: c4e4 cebd acf8 c0bd f9eb 31bd 5537 50bd
000000f0: f3db 4abe c1d2 08be f2f2 f8bd 6c65 19be
00000100: f8f1 2c3e 6244 7abd f894 7f3d d6b0 dbbd
00000110: 80db 0c3e d06f 6abd 32e0 bf3d c4a8 623d
00000120: ee3e 37be c143 0abe 024b b83c bc3e 43bd
00000130: 1d26 09bd cd9c 403e 1295 193e 9ca2 07be
00000140: 845c 3fbe 3751 3ebd e11b ce3c 4308 06be
00000150: 27b2 3f3e 9216 af3d 8e83 d6bd e7eb e23d
00000160: c559 b23d bd4e 2bbd 7ffd 49be ede3 d7bd
00000170: d1f2 36bd 6d3c febd 7225 28bc cd86 3ebe
00000180: 55ea ec3d aa3b 073e 390c 50bd eafe 94bb
00000190: 30bc a5bd 16d2 cc3d b0b5 acbc a015 dc3d
000001a0: c7f1 a6bd d82a 303c 36bf c3bd f05c 27be
000001b0: e2e1 31be ec79 babd d5d0 c1bc 2b5f b03d
000001c0: 6ff8 d13c 477e 753c ea8c 0fbd 0cd3 e3bc
000001d0: fdee 57be de2e 13be d5c7 35be 6a92 eb3b
000001e0: e5eb c43c 1210 163d 5676 e1bd dd44 fa3d
000001f0: b2cd 843c d398 a2bd a69c 16be e142 373e
00000200: 72eb fd3c 254d cabd 79bc 57bd d0dd 583e
00000210: 5ab3 05bd b50f c53c 16e3 663e b114 2b3e
00000220: dace 30be b5d1 973d cf1a babd baa7 8c3d
00000230: af3a c0bd ee11 023e 63f9 16bd 4598 523e
00000240: c67b 373e 753c 82bd 87fc 2a3e 4051 d1bd
00000250: 9af4 17be b4ef fc3c 7c12 a83b c6bf 563e
00000260: 4a85 a33d 778d 8c3d b1cd 463d e9cd 2ebe
00000270: dc35 41be eeb8 18be 49c0 ffbc 0229 643e
00000280: e939 be3d c8af 203c 59bb 12bd 27b8 ccbd
00000290: a7fa 023e f5a3 243e ac0b 94bd 0b57 8a3d
000002a0: 8fc2 283e cac8 a6bd fe24 3a3e c193 03bd
000002b0: c339 17be d1d7 06bd 9680 81bc cb0c fd3c
000002c0: 1fba 07be 6176 2f3e fad9 f8bc fdeb a63d
000002d0: eb3c e7bd 2233 37be d1a0 643c ad01 1e3e
000002e0: 3dd1 19be 8a5e 86bd ebde 3c3e 9677 efbd
000002f0: 105f 98bd 425e 3f3e 0835 c4bd a693 873d
00000300: 2dc5 34bc d1a9 073e 171a ad3d 8efd 043e
00000310: 5715 72bd 9182 b43d 91a0 e43d 732c a0bd
00000320: 9c0e 403e e53e b23c ba9c 653e f4df 25bd
00000330: 77f9 48be e352 49bd 4b5d 893d ddfa 4fbe
00000340: c55b 91bd ad33 cf3c 9832 6abd f4e0 383d
00000350: 4d88 3ebd 0381 183e e19c 33bd fd0a 583e
00000360: dcd7 8839 8eb7 10be 1b2d 03bc c732 50be
00000370: b080 a2bd c0bd 51be 504b a9bd 1f20 f33c
00000380: fe9c 00be 2427 76bc 219d dd3d c9ac 31be
00000390: fd5b 383e c54a c8bc c9aa 81bc 3ea3 39bb
000003a0: cb7b 3e3c d79f 1fbd 60c6 5f3e 09cd 733d
000003b0: aae6 30be 9930 c8bd ccc5 253e 6081 a4bd
000003c0: 15bd f03d 6c1f 3d3e d4ab d3bd d49a 583d
000003d0: 9340 26bd 6133 f1bd a861 45be ef8e be3d
000003e0: 8466 1f3e 197f 08be b078 153e 5079 2e3e
000003f0: 6107 1ebe d3c6 24be 9f66 ab3d 00d3 133e

bias f4 [32]
-0.22977029 0.1390239 -0.11377678 0.17082937 -0.11977578 0.14567411 0.15667892 -0.13727854
-0.055710617 -0.1555359 0.06731435 0.18803692 -0.07670688 0.0030919518 0.14651835 -0.13944076
-0.1522573 0.035110034 0.045891386 -0.032754175 0.12702604 0.060369037 -0.0023547164 -0.1483957
0.10274591 0.049639408 0.001791339 0.092172965 0.009198476 -0.081682935 -0.20349641 -0.19314463
00000000: e748 6bbe 485c 0e3e cd03 e9bd e5ed 2e3e
00000010: 014d f5bd 982b 153e 7070 203e bf92 0cbe
00000020: d130 64bd ce44 1fbe 1bdc 893d c08c 403e
00000030: 7f18 9dbd 58a2 4a3b e808 163e 8fc9 0ebe
00000040: 56e9 1bbe 8acf 0f3d 9bf8 3b3d 3e29 06bd
00000050: 1d13 023e 8645 773d 9651 1abb 0bf5 17be
00000060: 736c d23d b152 4b3d 5dcb ea3a 2ec5 bc3d
00000070: 34b5 163c 6249 a7bd 5d61 50be b5c7 45be

weight f4 [4, 32]
-0.017129129 -0.1197758 0.03269573 0.08662849 0.0047205454 0.0573815 -0.10125303 -0.14182232
-0.11155556 0.14991523 0.052339904 0.035433903 0.09777722 0.11809908 0.016555266 -0.07473995
0.046764743 0.09743087 -0.16484582 0.16964759 -0.13983501 -0.16355608 0.08682165 0.03359405
0.1537761 -0.07411766 -0.12826866 0.096813545 0.07391416 -0.122798085 0.12528597 0.100048535
0.10282983 -0.13463286 -0.16052218 0.107136555 -0.085157305 -0.13130844 -0.046300594 -0.15569416
0.16913861 -0.05042052 -0.07733751 0.16058026 -0.037361667 0.17997527 0.086589366 0.07886819
-0.17430176 -0.17060888 0.1327494 0.084188856 0.12309607 0.087346755 0.13830088 0.13785057
0.14090987 0.09878312 0.12391349 0.18082874 0.01499173 0.06505287 -0.13929474 0.16677165
-0.0873369 -0.07602139 -0.13464415 0.16039716 -0.06569448 -0.015780652 0.07037094 -0.06099442
-0.035649713 0.12770703 0.04542594 0.11525124 0.10459701 0.059553735 -0.11957677 -0.022491941
0.041712306 0.05969581 0.1661227 0.0051267347 0.025681296 0.17266852 -0.13068159 -0.05978769
-0.13006702 0.02035131 -0.099569075 0.17922501 -0.0031325766 -0.1352647 0.055840317 0.07549216
-0.1816649 0.01642282 0.09112251 -0.123945914 -0.019163162 0.026413769 -0.11021653 -0.07871859
-0.15919358 0.00069692556 0.17142718 0.08678485 -0.115291305 -0.06849303 0.10362488 0.12172828
0.033811998 -0.031904466 -0.07967107 -0.12141665 -0.11696589 0.05301214 -0.1626385 0.1377757
-0.11014543 0.17974254 0.026219055 0.09967476 -0.101410024 -0.17047921 0.011911594 -0.14539622
00000000: 6352 8cbc 044d f5bd f5eb 053d 476a b13d
00000010: ceae 9a3b dd08 6b3d c05d cfbd df39 11be
00000020: 3e77 e4bd 6183 193e 5e62 563d 2423 113d
00000030: 6c3f c83d eedd f13d e99e 873c 4211 99bd
00000040: 638c 3f3d d689 c73d 58cd 28be 19b8 2d3e
00000050: e930 0fbe 3f7b 27be 8dcf b13d ea99 093d
00000060: 7b77 1d3e 00cb 97bd dc58 03be 2e46 c63d
00000070: 4f60 973d 907d fbbd f74a 003e 3fe6 cc3d
00000080: 7298 d23d 32dd 09be ed5f 24be 696a db3d
00000090: f466 aebd b875 06be b1a5 3dbd 4a6e 1fbe
000000a0: ac32 2d3e bf85 4ebd 2163 9ebd 276f 243e
000000b0: 8c08 19bd 704b 383e c455 b13d a585 a13d
000000c0: 297c 32be 18b4 2ebe 75ef 073e 356b ac3d
000000d0: cb19 fc3d dbe2 b23d bf9e 0d3e b328 0d3e
000000e0: ad4a 103e ce4e ca3d 5bc6 fd3d 2b2b 393e
000000f0: e09f 753c 703a 853d 48a3 0ebe 30c6 2a3e
00000100: b0dd b2bd 1ab1 9bbd 28e0 09be 273f 243e
00000110: d48a 86bd 6d46 81bc a41e 903d 49d5 79bd
00000120: 6f05 12bd a2c5 023e 8d10 3a3d d808 ec3d
00000130: f536 d63d 9eee 733d aae4 f4bd 0541 b8bc
00000140: 86da 2a3d 9883 743d 121c 2a3e 2bfe a73b
00000150: 9561 d23c 04d0 303e 65d1 05be f0e3 74bd
00000160: 4a30 05be cab7 a63c dfea cbbd c386 373e
00000170: ea4b 4dbb d482 0abe d1b8 643d a29b 9a3d
00000180: 5d06 3abe 2689 863c 709e ba3d 5bd7 fdbd
00000190: 10fc 9cbc b061 d83c 34b9 e1bd 3637 a1bd
000001a0: a403 23be e2b1 363a 9b8a 2f3e 41bc b13d
000001b0: d91d ecbd 1346 8cbd 4839 d43d ad4c f93d
000001c0: 737e 0a3d 42ae 02bd 962a a3bd 4ba9 f8bd
000001d0: d08b efbd 4223 593d b58a 26be 1315 0d3e
000001e0: ed93 e1bd 6e0e 383e 58c9 d63c 4822 cc3d
000001f0: 0fb0 cfbd 1a92 2ebe d928 433c bfe2 14be

bias f4 [4]
0.0049918536 0.088506214 -0.12420249 0.085418716
00000000: b492 a33b bf42 b53d e05d febd 02f0 ae3d

weight f4 [32]
1.0085249 1.0026125 1.0083586 1.0066949 0.99506426 0.9946588 0.99187964 1.0066779
0.992649 0.9921737 0.9955525 0.9932209 1.0023955 1.009025 0.9960412 1.006707
1.0064802 0.99357885 1.0051227 1.0075145 1.0091571 0.993294 0.99321276 0.9961468
0.9971168 1.0082254 0.99398625 1.0032483 0.9921354 1.0040953 1.0064353 1.0032008
00000000: 5817 813f 9b55 803f e511 813f 61db 803f
00000010: 88bc 7e3f f6a1 7e3f d3eb 7d3f d2da 803f
00000020: 3f1e 7e3f 18ff 7d3f 87dc 7e3f ba43 7e3f
00000030: 7f4e 803f bb27 813f 8efc 7e3f c6db 803f
00000040: 58d4 803f 2f5b 7e3f dca7 803f 3cf6 803f
00000050: 0f2c 813f 8448 7e3f 3143 7e3f 7a03 7f3f
00000060: 0c43 7f3f 880d 813f e275 7e3f 716a 803f
00000070: 96fc 7d3f 3286 803f dfd2 803f e268 803f

bias f4 [32]
0.007003637 -0.0011513853 0.008882138 0.0006663267 -0.0056383 -0.0057995003 -0.010818995 0.0052271844
-0.009808768 -0.007567997 -0.011342728 0.0048977486 0.002717378 0.008068504 -0.0010825213 0.004350018
0.006117973 -0.0068569845 0.0054664435 0.009514372 0.0084098065 -0.006270539 -0.006216702 -0.0044436217
-0.0028554518 0.008564494 -0.0022207536 0.0022819056 -0.010546074 0.0027211856 0.007300911 -0.00054787507
00000000: c47e e53b 14ea 96ba 6386 113c 6eac 2e3a
00000010: 7dc1 b8bb bc09 bebb 2742 31bc cd48 ab3b
00000020: f4b4 20bc f6fc f7bb d9d6 39bc 4b7d a03b
00000030: 0a16 323b c231 043c 63e3 8dba 998a 8e3b
00000040: 4779 c83b 8eb0 e0bb da1f b33b 2be2 1b3c
00000050: 49c9 093c 1879 cdbb 7ab5 cbbb cd9b 91bb
00000060: 8822 3bbb 1752 0c3c 108a 11bb 068c 153b
00000070: 71c9 2cbc eb55 323b 7b3c ef3b 469f 0fba

running_mean f4 [32]
0.0011545261 0.13502188 -0.48591986 0.0493832 -0.16049598 -0.08433222 0.1562164 -0.16917385
-0.3660038 0.16855994 0.22062217 0.4205379 -0.29390383 0.19705367 -0.12461114 0.025199564
-0.43769673 -0.0740897 -0.0696689 0.11252428 0.27296877 0.13421449 0.15847379 0.027547823
0.28789163 -0.09409465 0.15306683 0.30586502 0.026539389 -0.29524186 -0.20935166 -0.19641529
00000000: 7853 973a 2d43 0a3e 7dca f8be 0a46 4a3d
00000010: 0f59 24be 5fb6 acbd 31f7 1f3e e93b 2dbe
00000020: da64 bbbe fa9a 2c3e c7ea 613e be50 d73e
00000030: 907a 96be 70c8 493e 2034 ffbd 516f ce3c
00000040: c919 e0be 57bc 97bd 91ae 8ebd 2173 e63d
00000050: 90c2 8b3e 866f 093e f446 223e f9ab e13c
00000060: 8866 933e b2b4 c0bd 8dbd 1c3e 579a 9c3e
00000070: 2269 d93c f129 97be 4860 56be 1721 49be

running_var f4 [32]
0.047643896 0.02686285 0.122630104 0.032281436 0.017670391 0.06732066 0.07937807 0.08400926
0.18598808 0.13902439 0.08591464 0.124948524 0.12360167 0.05111803 0.029885164 0.10615811
0.025486322 0.107357055 0.009855023 0.03843742 0.17750567 0.039157562 0.022048615 0.1558179
0.09503234 0.014727058 0.009299763 0.054901425 0.05713322 0.043857425 0.0948971 0.17775159
00000000: 3f26 433d 7b0f dc3c 7e25 fb3d 8a39 043d
00000010: 7fc1 903c 6adf 893d f890 a23d 0c0d ac3d
00000020: a973 3e3e 695c 0e3e 04f4 af3d 03e5 ff3d
00000030: df22 fd3d 2461 513d bbd1 f43c 6c69 d93d
00000040: b1c8 d03c 04de db3d f676 213c 8e70 1d3d
00000050: 0cc4 353e ae63 203d 4c9f b43c ba8e 1f3e
00000060: 51a0 c23d c249 713c 085e 183c 51e0 603d
00000070: 8604 6a3d d8a3 333d 6959 c23d 8304 363e

weight f4 [32, 16]
-0.16293941 0.18179719 -0.069175534 -0.21563911 0.0027152728 -0.17040701 0.18332589 0.097417705
-0.10313426 -0.019634122 0.12396394 -0.049943656 -0.1370089 0.2134499 -0.06578404 -0.100670755
-0.08203489 0.08274633 0.22123998 -0.23816489 0.13070677 0.23423041 0.08767285 -0.08831958
-0.19257258 0.22186734 -0.10992478 -0.06542755 -0.2028622 0.20364873 -0.05735573 0.15299852
-0.178107 -0.12570047 -0.23276833 -0.18241045 0.1049578 -0.03129712 -0.03500683 0.1534636
0.14570507 0.20758404 0.11385923 -0.23774189 0.037011903 0.1839114 0.21027806 0.033689782
-0.118439265 -0.18071295 0.14586559 -0.04074814 0.23638956 0.012135447 0.059428528 0.021412618
-0.18861403 0.06618743 0.070779674 0.22069389 -0.19832459 -0.02255816 -0.089185745 -0.12514424
0.12471225 -0.08278595 0.035385292 0.13675705 0.07825599 -0.09373049 0.0006526118 0.14925009
0.022515696 -0.23594381 0.1693842 -0.003976196 -0.10335591 -0.04846968 -0.22529337 -0.08837184
0.19317068 0.17336005 0.12812577 0.18294749 -0.043130875 -0.043021936 0.023451025 0.14336346
0.019648043 0.1595072 -0.08958226 0.04518184 -0.15350467 0.109524995 -0.19524303 -0.010243746
-0.062168818 -0.026891608 0.12970556 -0.24700606 -0.1961881 -0.032188553 0.10805215 0.2065164
-0.24863529 0.05258111 -0.004066201 0.0962773 -0.06350364 0.14574493 0.028764995 0.058072776
0.20707928 -0.14834595 -0.17680225 0.20419014 0.124708556 -0.18693611 -0.0663276 0.06287108
0.04244137 0.17407298 0.061898217 -0.05359564 0.1569659 0.09585192 0.20002957 0.09264231
-0.16889247 -0.095225945 0.03650858 -0.0048238216 -0.19427323 -0.14667463 -0.020749204 -0.16163553
-0.17483872 -0.055889502 -0.04694216 -0.24029833 -0.20233108 0.0382952 -0.04079925 -0.08833671
-0.22996019 0.04650492 0.11427573 0.0038723801 -0.017382544 -0.21115738 0.032248978 0.2536922
-0.025079627 -0.21280612 -0.166606 -0.16568616 -0.056036547 -0.10894444 -0.11560335 0.09371814
-0.06253578 -0.062339578 0.19400848 0.122272104 0.12681846 -0.042212874 -0.23648119 0.004313886
-0.026112398 -0.16386144 -0.22243774 -0.047846097 -0.10853788 0.022848193 0.0022549499 -0.091163106
-0.16056566 0.13093565 -0.029730953 -0.09148177 0.06827921 -0.1941756 0.22704458 0.12736318
0.12908907 -0.11121587 -0.0578839 -0.23203461 0.23947318 0.23396689 -0.092808016 -0.12155704
0.2397593 0.18192035 -0.1324859 0.115644395 -0.16342203 -0.03201005 0.14719507 -0.116592415
0.028041797 0.20199 0.2031874 0.1315167 0.1256108 -0.18243194 -0.22158347 -0.07667227
0.16755424 0.1510189 0.13987607 -0.1571115 -0.08438525 0.23442864 -0.14959793 -0.07334973
-0.11787945 0.027394526 -0.16974063 0.033415474 -0.21710962 -0.08377919 -0.123912334 0.025147723
0.120296 -0.1577124 0.14503154 -0.20934263 -0.08455502 0.1967999 0.19054814 -0.20503558
-0.21441337 -0.23286155 0.009608817 0.2107913 -0.20583805 -0.17609678 -0.15136524 -0.13906504
0.18156953 0.08398696 -0.060544536 -0.17947711 0.16965204 -0.11494931 -0.21654873 -0.22154109
-0.24648303 -0.14284796 -0.18321456 -0.18321273 -0.046002645 -0.13705938 -0.23296215 0.24763545
00000000: 97d9 26be 0b29 3a3e e7ab 8dbd 80d0 5cbe
00000010: b8f2 313b 2d7f 2ebe c8b9 3b3e ef82 c73d
00000020: 0e38 d3bd bdd7 a0bc cee0 fd3d b891 4cbd
00000030: 104c 0cbe 9c92 5a3e c8b9 86bd 782c cebd
00000040: e901 a8bd e876 a93d bc8c 623e 7fe1 73be
00000050: ffd7 053e 19da 6f3e d38d b33d e5e0 b4bd
00000060: bf31 45be 3131 633e 3e20 e1bd e1fe 85bd
00000070: 1cbb 4fbe 4b89 503e d8ed 6abd a5ab 1c3e
00000080: ae61 36be a0b7 00be d25a 6ebe cec9 3abe
00000090: 1df4 d63d 6931 00bd 5263 0fbd 9025 1d3e
000000a0: b633 153e e990 543e 072f e93d 9c72 73be
000000b0: cb99 173d 4553 3c3e 2253 573e 4cfe 093d
000000c0: 4990 f2bd d10c 39be ca5d 153e 86e7 26bd
000000d0: 1b10 723e c1d3 463c 546b 733d 8469 af3c
000000e0: 0924 41be 468d 873d eff4 903d 94fd 613e
000000f0: 9a15 4bbe e4cb b8bc 04a7 b6bd d025 00be
00000100: 2369 ff3d ae8b a9bd 2bf0 103d 0a0a 0c3e
00000110: ad44 a03d c5f5 bfbd 0914 2b3a 04d5 183e
00000120: d672 b83c 419b 71be 0d73 2d3e c04a 82bb
00000130: 43ac d3bd 2588 46bd 4eb3 66be 4cfc b4bd
00000140: 89ce 453e 4c85 313e 6733 033e 9656 3b3e
00000150: 00aa 30bd c537 30bd 5d1c c03c dfcd 123e
00000160: eff4 a03c db55 233e e776 b7bd 9810 393d
00000170: 5430 1dbe a44e e03d caed 47be 63d5 27bc
00000180: bba4 7ebd ca4b dcbc 89d1 043e 28ef 7cbe
00000190: 89e5 48be 25d8 03bd 724a dd3d 0979 533e
000001a0: 409a 7ebe 4a5f 573d c43d 85bb 082d c53d
000001b0: 320e 82bd 293e 153e 91a4 eb3c b8dd 6d3d
000001c0: 970c 543e 00e8 17be a60b 35be 3817 513e
000001d0: 3367 ff3d 2e6c 3fbe c4d6 87bd 8ec2 803d
000001e0: 01d7 2d3d 3040 323e fc88 7d3d 1a87 5bbd
000001f0: abbb 203e 034e c43d 8dd4 4c3e 40bb bd3d
00000200: 26f2 2cbe d205 c3bd 058a 153d 2611 9ebb
00000210: 90ef 46be e031 16be 3cfa a9bc c983 25be
00000220: ec08 33be 64ec 64bd 6c46 40bd c410 76be
00000230: e12f 4fbe 6ddb 1c3d 1d1d 27bd e1e9 b4bd
00000240: af7a 6bbe f17b 3e3d 6509 ea3d c2c7 7d3b
00000250: d665 8ebc a439 58be 8117 043d f2e3 813e
00000260: ca73 cdbc d9e9 59be c39a 2abe a2a9 29be
00000270: 9486 65bd 431e dfbd 73c1 ecbd 4cef bf3d
00000280: c212 80bd c957 7fbd 29aa 463e cc69 fa3d
00000290: b3dc 013e 68e7 2cbd 2028 72be 805b 8d3b
000002a0: abe9 d5bc 4bcb 27be b8c6 63be 45fa 43bd
000002b0: 1c49 debd 222c bb3c c8c7 133b b9b3 babd
000002c0: 536b 24be ff13 063e 548e f3bc cb5a bbbd
000002d0: f8d5 8b3d f8d5 46be 607e 683e 7e6b 023e
000002e0: ed2f 043e 25c5 e3bd ab17 6dbd 7b9a 6dbe
000002f0: 7538 753e 0495 6f3e 2112 bebd e6f2 f8bd
00000300: 7683 753e 5449 3a3e 62aa 07be f8d6 ec3d
00000310: 1b58 27be f81c 03bd 4eba 163e 01c8 eebd
00000320: e9b7 e53c 77d6 4e3e 5c10 503e 50ac 063e
00000330: 1ea0 003e 70cf 3abe c7e6 62be 5a06 9dbd
00000340: 5793 2b3e b3a4 1a3e ac3b 0f3e d6e1 20be
00000350: 2dd2 acbd 100e 703e 3330 19be 6238 96bd
00000360: c86a f1bd 7c6a e03c 7dd0 2dbe aade 083d
00000370: fc51 5ebe 6d94 abbd c0c5 fdbd 9902 ce3c
00000380: c05d f63d 5c7f 21be 2683 143e ea5d 56be
00000390: 2f2b adbd ea85 493e 0d1f 433e d9f4 51be
000003a0: 2e8f 5bbe 4273 6ebe 4d6e 1d3c add9 573e
000003b0: 36c7 52be b752 34be 7dff 1abe 1167 0ebe
000003c0: 5ded 393e 5b01 ac3d 8cfd 77bd d9c8 37be
000003d0: 44b9 2d3e 8b6a ebbd f3be 5dbe abdb 62be
000003e0: 0c66 7cbe bc46 12be 999c 3bbe 1e9c 3bbe
000003f0: 456d 3cbd 4b59 0cbe a18d 6ebe 2694 7d3e

bias f4 [32]
-0.08299433 -0.19223866 -0.22741513 0.026953533 -0.20812477 0.0064851716 0.0044328794 0.066354305
0.08207529 -0.15530476 0.13283892 0.05536182 0.004901118 -0.01960928 -0.13390514 0.13359962
-0.0490376 -0.07795944 0.051996056 0.20134997 -0.03399868 0.04941692 0.037895944 0.21686493
0.13202947 0.22025967 0.1842969 0.14676268 0.20682593 -0.028472528 0.059569858 -0.106838636
00000000: eef8 a9bd 36da 44be 83df 68be a8cd dc3c
00000010: a91e 55be 9081 d43b b041 913b c4e4 873d
00000020: 1717 a83d 3608 1fbe ed06 083e 13c3 623d
00000030: 8f99 a03b a4a3 a0bc 6e1e 09be 57ce 083e
00000040: a7db 48bd 33a9 9fbd d1f9 543d b02e 4e3e
00000050: 3342 0bbd 6569 4a3d c738 1b3d d711 5e3e
00000060: bc32 073e c08b 613e 54b8 3c3e f548 163e
00000070: 2dca 533e 383f e9bc 86ff 733d 37ce dabd

weight f4 [4, 32]
0.115369946 0.014722155 0.17519097 -0.1749628 -0.17093493 -0.067557074 -0.11542343 0.16811743
0.02462553 0.06720263 0.08133782 -0.106107794 -0.13570215 0.008389502 0.1196186 -0.038041532
0.14458396 0.132464 0.07963347 0.103526704 -0.1431467 0.10259972 0.06550671 -0.106539935
0.106281966 0.058109052 -0.029717378 0.15078445 0.11026331 0.001740854 -0.12212504 0.01641254
-0.049221896 0.0881646 -0.09323282 0.14372185 -0.0036013345 -0.12564297 -0.01582704 0.07468617
-0.12207513 -0.035485715 -0.07726981 0.15154524 0.13116677 0.08015519 0.15712656 0.022910235
0.090949066 -0.14051893 -0.024682784 -0.119534865 0.11920855 -0.05338949 0.04615297 -0.049736645
0.15634036 -0.17880069 -0.014757067 -0.1550818 0.15587912 -0.025783805 -0.1342232 -0.16916513
0.16312626 -0.059830178 0.050610058 0.014360319 -0.15706782 0.10620276 -0.016308757 0.12819861
-0.003173972 0.14569825 0.061865438 -0.06207171 -0.1286149 -0.15609767 0.06575173 -0.03936395
0.015175703 0.010403468 -0.047167633 0.0114668785 -0.0128158135 -0.14520302 -0.0022693574 0.15993989
-0.17107008 0.113588914 -0.113420695 0.16676418 0.05781589 0.014188207 -0.030005667 -0.14947252
-0.06760388 0.115444325 0.047995295 -0.10353425 0.15651342 0.022856586 -0.11929424 -0.10811312
0.16940805 -0.07099519 -0.10110914 -0.12373469 0.091267474 0.019544369 0.18142036 0.06299073
-0.16239169 0.11828839 -0.06713779 -0.10996393 0.034010325 -0.001360584 0.1653277 0.088967495
-0.09361848 -0.16141896 0.121741176 -0.032950956 -0.17896034 -0.007914131 0.10642181 -0.032094516
00000000: 1447 ec3d 3235 713c 4365 333e 7329 33be
00000010: 9109 2fbe 5d5b 8abd 1f63 ecbd fa26 2c3e
00000020: 7bbb c93c 88a1 893d 7194 a63d 0b4f d9bd
00000030: 81f5 0abe 1f74 093c 99fa f43d 70d1 1bbd
00000040: d10d 143e a5a4 073e df16 a33d cf05 d43d
00000050: 0c95 12be cd1f d23d 6228 863d 9c31 dabd
00000060: 5caa d93d c203 6e3d dc71 f3bc 3d67 1a3e
00000070: bbd1 e13d 5e2d e43a b11c fabd 9773 863c
00000080: e69c 49bd a48f b43d d9f0 bebd d22b 133e
00000090: 5e04 6cbb 8da8 00be b5a7 81bc 10f5 983d
000000a0: 8702 fabd 7859 11bd a23f 9ebd ad2e 1b3e
000000b0: 9550 063e 6728 a43d c9e5 203e 3fae bb3c
000000c0: 8143 ba3d 32e4 0fbe 8d33 cabc b2ce f4bd
000000d0: 9d23 f43d f0ae 5abd e60a 3d3d a7b8 4bbd
000000e0: b017 203e 8717 37be a0c7 71bc c3cd 1ebe
000000f0: c79e 1f3e 8f38 d3bc ce71 09be a039 2dbe
00000100: 920a 273e 7d10 75bd 7e4c 4f3d 8b47 6b3c
00000110: 63d6 20be d580 d93d f199 85bc 7f46 033e
00000120: 6a02 50bb ec31 153e 9d66 7d3d e83e 7ebd
00000130: a0b3 03be 11d8 1fbe d8a8 863d 183c 21bd
00000140: 83a3 783c 4f73 2a3c d932 41bd 93df 3b3c
00000150: 6bf9 51bc 1ab0 14be 80b9 14bb 48c7 233e
00000160: ff2c 2fbe 4ea1 e83d 1c49 e8bd 3bc4 2a3e
00000170: 5bd0 6c3d a775 683c 72ce f5bc 530f 19be
00000180: e773 8abd 136e ec3d b796 443d c409 d4bd
00000190: 0e45 203e bc3d bb3c 8a50 f4bd 696a ddbd
000001a0: 4e79 2d3e ed65 91bd 4f12 cfbd 9d68 fdbd
000001b0: 71ea ba3d 831b a03c 42c6 393e 4901 813d
000001c0: 024a 26be 2f41 f23d 8a7f 89bd c534 e1bd
000001d0: 694e 0b3d a055 b2ba aa4b 293e 9734 b63d
000001e0: 0cbb bfbd 034b 25be 7053 f93d 95f7 06bd
000001f0: 6141 37be 45aa 01bc aef3 d93d 8a75 03bd

bias f4 [4]
-0.071428396 -0.0417048 0.024509395 -0.16610642
00000000: 0d49 92bd a7d2 2abd edc7 c83c cd17 2abe

weight f4 [32]
0.99403775 1.0049009 1.0087119 1.0067867 1.007169 0.9934129 0.99465406 1.008498
1.0046023 0.9939323 0.9941475 0.99404246 0.99552244 1.0057724 1.0022213 1.0063437
1.0039402 0.99464643 0.9931251 0.9940064 0.9931272 0.9935812 1.0048305 0.99769825
0.99509937 1.0063685 1.006375 1.0067594 1.0001094 0.993785 1.0075868 0.9999877
00000000: 4279 7e3f 98a0 803f 791d 813f 63de 803f
00000010: eaea 803f 4f50 7e3f a6a1 7e3f 7616 813f
00000020: cf96 803f 5972 7e3f 7380 7e3f 9179 7e3f
00000030: 8fda 7e3f 26bd 803f ca48 803f dfcf 803f
00000040: 1d81 803f 26a1 7e3f 723d 7e3f 3477 7e3f
00000050: 963d 7e3f 565b 7e3f 499e 803f 2769 7f3f
00000060: d5be 7e3f afd0 803f e5d0 803f 7edd 803f
00000070: 9603 803f b268 7e3f 9bf8 803f 32ff 7f3f

bias f4 [32]
-0.004796158 0.0050424715 0.00038937695 0.0060126665 0.0071295663 -0.003412159 -0.005246448 0.007509208
0.0039001084 -0.0058450736 -0.0053536743 0.004940953 -0.0058056293 0.005958156 0.0024445308 0.00622842
0.004007365 -0.0058027785 -0.0065909615 -0.006096652 -0.0077993385 -0.006084763 0.0028854534 0.0054374128
-0.006461898 0.0062977 0.0064983787 0.0059918333 0.0042781993 -0.006264146 0.0067258924 0.00034582664
00000000: 1729 9dbb 513b a53b 4a25 cc39 e705 c53b
00000010: 239f e93b 879e 5fbb 65ea abbb cd0f f63b
00000020: f698 7f3b 0888 bfbb e06d afbb b8e7 a13b
00000030: 263d bebb a33c c33b 6c34 203b c617 cc3b
00000040: 3750 833b 3c25 bebb fef8 d7bb 6cc6 c7bb
00000050: 9891 ffbb b162 c7bb e019 3d3b 532c b23b
00000060: 54be d3bb f05c ce3b 5af0 d43b 2457 c43b
00000070: 2330 8c3b 7743 cdbb e064 dc3b 1150 b539
