code/model_obj_backups/model_obj_34.pt (torch, 538274 bytes, 158 tensors)

weight f4 [32, 2]
00000000: 61df 163f ea65 20bf f858 ee3d 13b0 383e
00000010: f58a ccbe dca3 3a3e 5184 093d ead6 083f
00000020: 8181 9b3e c55f a3be 1d8b 31bf 3fc2 d83b
00000030: 6b28 0f3f e6f4 86bb 8436 f53e be99 c83e
00000040: c8f8 f83c 7312 1e3f 6c2b e23d 1ba5 46be
00000050: c222 123f 1552 723e 3daa 7e3d bf63 2ebf
00000060: b03c 58bd fd78 04bf d8c6 213f 1251 cabe
00000070: e3ab 06bf 4791 c1bd 8c0e 06bf 6101 403e
00000080: 4cfd 32bf 829b f33e 4f70 283f 459c d4be
00000090: 561e 10bf 163f f8bd 7345 d63d e527 c6be
000000a0: 74b4 c8be 604b dbbd a46a 4c3e 52f3 20bf
000000b0: d654 e23e a376 9e3e 3cbe f0be 6e5f 50be
000000c0: 67fa 2bbf 43ce ef3d 0294 643e d130 c0be
000000d0: 53b9 8c3e f23c 64bd 1419 1cbf e596 103f
000000e0: 5677 903c 26e2 a43e 4e22 2e3f 6c1b 0cbf
000000f0: 375f f23e ce41 e03e 1b99 be3e 7627 29bd
0.589346 -0.6265551 0.11638063 0.18035917 -0.39949766 0.1822657 0.033573452 0.5345293
0.3037224 -0.31909004 -0.69352895 0.006614953 0.5592105 -0.0041185496 0.47893155 0.39179796
0.030392066 0.617469 0.11043438 -0.1939892 0.57084286 0.23664124 0.06217407 -0.6812095
-0.05279225 -0.51747113 0.63194036 -0.39514977 -0.5260603 -0.094515376 -0.52365947 0.18750526
-0.6991775 0.4757958 0.6579637 -0.41525474 -0.5629629 -0.12121408 0.10462465 -0.38702312
-0.39200175 -0.10707736 0.19962555 -0.6287128 0.4420535 0.30949888 -0.47020137 -0.20348904
-0.6717896 0.11709263 0.22322085 -0.37537244 0.2748514 -0.055722184 -0.60975766 0.56480247
0.017635029 0.32203788 0.68021095 -0.5472934 0.47338268 0.43800205 0.37226185 -0.0412974

bias f4 [32]
00000000: 2f3c 85be 0255 123f 75ee 1ebf 40a2 71bd
00000010: 18bb 403d 9dbc b73e da4b 693e 4d6f 043e
00000020: f48d 1abf c331 d0bd fb8f 0abf 6560 19bf
00000030: 9130 48bd a755 093f 08b1 25be 9b91 003f
00000040: 3e06 f23e f968 10be b8f9 023f 2eb5 f73d
00000050: 0106 e2bd 4d9d 80be ed9f ed3d dff1 003f
00000060: 3934 85be f369 8c3e a4b4 1f3f a03f a7bc
00000070: 3d07 1dbf 05b3 82bd 2d0f 9bbe 6efe fe3e
-0.2602248 0.5716096 -0.62082607 -0.058992624 0.047053427 0.35886088 0.22782841 0.12933083
-0.60372853 -0.10165741 -0.54125947 -0.5991271 -0.04887444 0.5364632 -0.16180813 0.50222176
0.47270387 -0.14102544 0.5116229 0.12095104 -0.110363014 -0.2512001 0.11602769 0.50369066
-0.26016405 0.27424583 0.6238501 -0.020416081 -0.6133917 -0.063818015 -0.30285016 0.4980349

weight f4 [16, 32]
00000000: 0e75 ae3d 736c 303e 9652 27be 3c4d 263e
00000010: d4b6 10be 43c5 6a3d a751 22bc b8f3 3cbd
00000020: a09d 063b 4e51 5aba 0552 273e 8fa5 ed3c
00000030: 1f8e 613a 8706 e8bd cfc8 12be ff40 1fbe
00000040: 3904 a13b acaf a6bd 4567 0dbd f073 0ebd
00000050: ccd9 30bc 9d11 f0bd 3801 c8bd 2de0 473d
00000060: 9ffa cabd b99f 9fbd 0612 28be 141f 733a
00000070: cd02 0b3d 150f 82bc eea1 04be 51cf 33be
00000080: 6130 ff3d b45d ea3d 66ad babd e38d 85bc
00000090: 7805 ef3c 522e 15be 1574 18bd 5642 e0bd
000000a0: 5efb bf3d bb83 88bd 0242 333e b40f b23d
000000b0: bfd9 243e 7bba 023b 3a32 0fbe d9e4 bebc
000000c0: 0c0a fa3b 24d7 ae3d 2ee5 1c3e 2fc1 87bd
000000d0: 9996 043e 474c 22be e4bc 98bd 031f 33bc
000000e0: 1eb1 143e 92d3 0c3e 1020 8b3d 1728 e03d
000000f0: 5bbb 29bd aa15 34be 51ac 2fbe 3769 083e
00000100: 0892 41bd d608 fbbc be51 ff3c b8ae 9d3c
00000110: f563 56bd 1ef5 3b3c 7d0e debd d0c3 c03b
00000120: 8b16 093e 16ef 57bd 5a7d dfbd 0b76 c2bd
00000130: 1a8b d03d abec 0bbe bc76 813d 2727 613d
00000140: 71ce 2fbe 1de5 70bd e598 7b3d f9bd 54bd
00000150: 2259 0ebd d3f7 bd3b fd45 0c3d 0426 d43d
00000160: 47e4 2abe 09ad 333d 345e 78bd 26f4 1cbe
00000170: 668e 9a3d 66a2 5fbd bad4 93bd 1826 ef3d
00000180: 2003 72bd ec3e 473e b458 0bbe 5ad0 19bd
00000190: 68a0 f13c 32ee 91bb 02ee 683d 39ba 2a3e
000001a0: fedc 23be d804 773d 1436 063e d936 15bd
000001b0: 27e9 d9bc 3bf9 ef3d b926 91bc f29c 113e
000001c0: 88f2 0e3e 7955 863d 2995 b1bd 4be2 e2bd
000001d0: 8478 eabd 4449 dcbd a209 b13c dcf9 28be
000001e0: b759 10be 9931 473d 6b5e c3bd f545 223d
000001f0: 4eca 77bd ec74 2d3e d98c d43b aca4 983b
00000200: 1ba6 773d 607a 0a3e fa25 5f3d 1b12 cf3d
00000210: 1faa 46be 18f4 32bd a526 e63c 7a1d 093c
00000220: d042 c93d 7357 953d 27b8 a6bd f09a beba
00000230: e654 35be cf95 b23d 635a b7bd 9d42 753c
00000240: 4992 203d 5905 d1bd b1a6 d0bd 99f4 da3d
00000250: 4cbf 33bc 914f ac3c 3b1b 12be 2e28 8b3d
00000260: 37cb b8bd 9c6b a53d 43c7 e2bd afeb ff3d
00000270: 4949 363e e04d 1c3e fe86 fa3d 959d 39be
00000280: 264b ac3d 5f8d 1c3e d32f 133e 5483 3ebe
00000290: 7f01 bfbc 0ff2 dfbd d7d8 debc bbe8 183e
000002a0: a012 16be 386a 0ebe c2db 90bd 1f9b bcbc
000002b0: 1a3e 473e 65c8 bb3c 6dfb 7bbd 2386 da3c
000002c0: 5adb 28be e1cb 0bbe d64b 983d e1ec 98bd
000002d0: 398e 313e 5f5f 273e 1dd9 00bd cb3a a9bd
000002e0: 6d0f 323e fb59 0f3e ac02 3d3d 4c4b 32be
000002f0: 5c65 f1bd 5a34 133e dc6d d03d 11a2 d5bd
00000300: edd6 2fbe e794 653d 62d3 f5bd 6c90 1fbe
00000310: 4e4c 473d 95a4 313d c059 b83d 89f5 cd3c
00000320: 7553 1abe 5c54 5fba bdec 1a3e 2a65 32bd
00000330: 0455 2d3e 3f11 56bd 3526 e13d 797d 0abe
00000340: 42d5 08be e22c a13d 3a3d 0b3e c181 0dbd
00000350: ba3c f63d d499 893d 9415 193e f21d 12be
00000360: 5047 e43d 9577 97bd f2cc ff3d 9f15 f4bc
00000370: cce3 133e ee0f 05be fd8f fcbb 9305 243e
00000380: 2d16 7a3d c54d 3eb9 d175 163d 505d 9f3d
00000390: 4b9a cebd 41fb 103e 5e34 413d ec28 bd3d
000003a0: 7dfe 24bc 3f73 243e 99bd 04be 62ff ab3d
000003b0: 12d0 a1bc 2938 14be 5e1d 813c 7ca0 0abd
000003c0: 4764 2ebe 276a 843c 0804 17bd 0182 e1bd
000003d0: 71fa 883c 74bd 2f3c 105c 0e3e a8e0 f6bd
000003e0: 4dc3 d3bd f16e 153e c993 143e 5b7f 71bd
000003f0: 8889 09bd 6b44 0cbe f579 7d3a c600 4abd
0.0851842 0.1722887 -0.16340098 0.162404 -0.14132243 0.05731703 -0.009907163 -0.046130866
0.002054073 -0.00083281554 0.16339882 0.029009609 0.00086042465 -0.1132937 -0.14334415 -0.15552138
0.0049138335 -0.081389755 -0.034522314 -0.034778535 -0.010794114 -0.117221095 -0.097658575 0.048797775
-0.099110834 -0.077941366 -0.16413125 0.00092743454 0.033938218 -0.015876332 -0.12952396 -0.17559554
0.124603994 0.11443654 -0.091151044 -0.016303008 0.029177412 -0.14568451 -0.03722008 -0.109501526
0.09374116 -0.066657506 0.17505649 0.086944014 0.16098689 0.0019947577 -0.13984004 -0.023302482
0.007630592 0.085371286 0.153218 -0.06628644 0.12948073 -0.1584941 -0.07457903 -0.010932687
0.1452069 0.13752583 0.06793225 0.109451465 -0.04143844 -0.17586389 -0.17155577 0.13321386
-0.047258407 -0.030643862 0.031166907 0.019248351 -0.05234142 0.011472015 -0.10842607 0.0058827177
0.13387506 -0.052718244 -0.10912581 -0.09495171 0.101827815 -0.136645 0.06321475 0.05496898
-0.17168595 -0.05881225 0.06142511 -0.051938985 -0.034752972 0.005797365 0.034246434 0.103588134
-0.16688643 0.04386619 -0.060636714 -0.1532751 0.075466916 -0.054598235 -0.07218309 0.11677188
-0.05908501 0.19457597 -0.13608056 -0.037552215 0.029495433 -0.004453444 0.056867607 0.16672601
-0.1600227 0.060307354 0.13106567 -0.03642926 -0.026600434 0.11717459 -0.01771866 0.14220026
0.13959706 0.06559271 -0.08671028 -0.11078318 -0.11448768 -0.10756162 0.021611039 -0.16501564
-0.14096723 0.048631284 -0.09539493 0.039617497 -0.060495667 0.16939133 0.006486517 0.0046583023
0.060461145 0.13523245 0.054479577 0.10110875 -0.19400834 -0.043689817 0.028094599 0.008368844
0.098271966 0.0729207 -0.08140593 -0.0014542025 -0.17708167 0.0871998 -0.08952787 0.014969495
0.03920201 -0.10206098 -0.10188044 0.106911846 -0.010970902 0.021034034 -0.142682 0.06794773
-0.09023135 0.080771655 -0.110731624 0.12496125 0.17801394 0.15264082 0.12232779 -0.18126519
0.08412771 0.15288304 0.14373712 -0.18604785 -0.023316143 -0.10934841 -0.027203007 0.1493253
-0.14655542 -0.13907707 -0.070731655 -0.023023186 0.19457284 0.022922704 -0.061519075 0.02667529
-0.16489926 -0.13651992 0.074363396 -0.07467056 0.1733941 0.16344975 -0.031457055 -0.08263167
0.17388697 0.13999169 0.046145126 -0.17411536 -0.11786911 0.1437544 0.10177204 -0.10431302
-0.17171831 0.056050207 -0.12003209 -0.15582436 0.048656754 0.04336985 0.090014935 0.025141494
-0.15070899 -0.00085193454 0.15129371 -0.04355351 0.16926962 -0.05226254 0.109936155 -0.13524427
-0.13362601 0.07869889 0.13597575 -0.03454757 0.120233014 0.067187935 0.14949638 -0.14269236
0.11146414 -0.07395855 0.12490262 -0.029795466 0.14442366 -0.12994358 -0.0077075944 0.16017751
0.061056305 -0.00018148783 0.036733452 0.0778147 -0.10088023 0.14158346 0.047169082 0.09236321
-0.01007044 0.16059588 -0.12962951 0.0839832 -0.019752536 -0.14474548 0.015761074 -0.033844456
-0.1703044 0.016163899 -0.03686908 -0.110111244 0.016720982 0.0107263215 0.13902307 -0.120545685
-0.10339985 0.14593102 0.145095 -0.058959346 -0.033578426 -0.13697974 0.0009669357 -0.049317144

bias f4 [16]
00000000: 8bf9 0b3e c016 c3bd e10e aa3d 450e 28bd
00000010: 1184 abbc b2c9 b7bd 327a 2abd 5394 ef3c
00000020: be34 35be 2261 2f3e 2bd5 a5bd da86 0e3d
00000030: f4b9 09be 136d c53d 6d54 333e 48c3 b63d
0.13669412 -0.095258236 0.08303619 -0.041029233 -0.020936998 -0.08974017 -0.04162044 0.029245531
-0.17695901 0.17126897 -0.08097299 0.034796573 -0.13449842 0.09639945 0.17512675 0.08923966

weight f4 [32]
00000000: 15a0 7d3f f326 823f 8827 823f b54b 7f3f
00000010: dac5 813f c984 7a3f ed70 7f3f 5624 7d3f
00000020: 256d 7d3f c7d4 803f ac5e 813f 1565 7c3f
00000030: f81f 813f f723 813f 29c8 7c3f e4f8 7d3f
00000040: 2d1b 843f 5372 833f 2760 803f 2e9f 7e3f
00000050: 2f5c 803f f6e6 773f dc7d 7e3f 1e21 7c3f
00000060: f627 823f b490 803f dc3b 803f e6d3 813f
00000070: 03e3 7c3f d6ea 793f c538 803f d05f 803f
0.9907239 1.0168136 1.0168314 0.99724895 1.0138505 0.97858864 0.99781686 0.9888357
0.98994666 1.0064934 1.0107017 0.9859174 1.0087881 1.0089101 0.9874292 0.992079
1.0320793 1.0269264 1.0029343 0.9946164 1.0028132 0.96836793 0.99410796 0.9848803
1.0168445 1.004416 1.0018268 1.0142791 0.9878389 0.97623956 1.0017325 1.002924

bias f4 [32]
00000000: 6a8c 5ebd 8d1a 2bbd 0337 ba3c 4973 24bb
00000010: fad9 053c a715 38bd ba37 0dbd a7e1 25bc
00000020: 17a0 01bd 108d 93bc 4b6e a43c 3b59 b0bb
00000030: 3531 193c c61b 5ebd 8db8 dc3b 2403 a23c
00000040: e443 4a3d 719d 123c 4964 c4bc a374 b6bc
00000050: 0beb aa3c 7c4a 27bd 8efa 34bd d807 a9bc
00000060: d3aa 0a3d 07b4 f13a ecb8 823c 0a62 7b3c
00000070: 57e1 90bb 6d65 e1bb 0417 f33c a4d6 b1bc
-0.054333128 -0.041773368 0.02273131 -0.002509313 0.008169645 -0.044942524 -0.034476973 -0.0101246005
-0.031646814 -0.0180116 0.020072123 -0.005381731 0.009350111 -0.054225706 0.0067358674 0.019776888
0.04938115 0.00894867 -0.023973601 -0.022272414 0.02086403 -0.04084252 -0.04418426 -0.020633623
0.033854317 0.0018440493 0.015957318 0.015343199 -0.004421394 -0.006878546 0.02967406 -0.021708794

running_mean f4 [32]
00000000: 8406 bdbe 0a0a 293f fc82 22bf 2d10 113e
00000010: 88ec 01bc bd70 633e ad5d ad3e 1c49 bc3e
00000020: 8f47 bfbe e18c 19be 5d76 aebe 1973 55bf
00000030: cff3 7cbe 591c 053f 877e 9abe 3029 ee3e
00000040: ee53 013f 0e83 23be c28f b53e 03d7 d33a
00000050: 5a3e 69be aeec e0be 7064 a23e 49b6 ab3e
00000060: 6b79 b4be 954b 3b3e 3c9b 283f ce0d 7f3d
00000070: 0663 fcbe 12e8 00be 0106 48bd 6cc7 0e3f
-0.36919034 0.66030943 -0.63481116 0.14166327 -0.007929929 0.22210975 0.3386053 0.36774528
-0.37359282 -0.14995147 -0.3407468 -0.8337875 -0.2470238 0.5199638 -0.30174658 0.465158
0.5051869 -0.15967962 0.3546124 0.0016162101 -0.22777691 -0.43930572 0.31717253 0.3353751
-0.35248885 0.18290551 0.6586187 0.062269025 -0.492943 -0.12588528 -0.04883385 0.55773044

running_var f4 [32]
00000000: 6b30 613e 13cc e53b bc1e 553d bd7e 813d
00000010: f43c 6c3d b22e cd3d be36 853d 3721 5b3d
00000020: 4e18 ae3d a21f 6e3c 9585 723d 4900 ea3d
00000030: 0d01 6d3d 8057 213e 1407 533d a723 a43d
00000040: 2c1f 523e 7d0d 303e 25ad 6e3d 5e6e 303d
00000050: b088 e43c 3281 f33d 1a76 283d 7712 253d
00000060: 0bc7 de3d 43b6 643d 366a 993c 0f0f 513e
00000070: 5918 bd3c e52b 643e 6040 6e3d c0d9 003d
0.21991126 0.007012853 0.052031264 0.063230015 0.057675317 0.10018672 0.06504582 0.053498473
0.085007295 0.014533909 0.059209425 0.11425836 0.05786233 0.15756035 0.051520422 0.08014613
0.20519704 0.17192645 0.058270592 0.043074004 0.027897209 0.118898764 0.041128255 0.040300813
0.10877808 0.05583788 0.018727403 0.204159 0.023082899 0.2228237 0.05816686 0.031457663

weight f4 [32, 3]
00000000: dfe7 8c3e 34cc 47be ae01 39be 0c9c f5bc
00000010: 6594 b13c 2dba 12bf d7e8 293e 85b5 b5be
00000020: b009 99be 53b2 053f f285 f9be 023c ea3e
00000030: 3564 293d 90aa ddbe 6273 94be 01c6 393d
00000040: a962 0b3d 1f7b 63be f45a 4dbe 63d7 13bf
00000050: ad43 0f3f ab3d 17bf a5a6 ecbe 2eb7 08be
00000060: 4889 ab3e b8b2 013f c5e9 38be 28e3 c93e
00000070: 4754 8ebe ac3c 033f b5c5 65be 866b c13e
00000080: 2d9b 58bd 177a 0bbf 453d ea3d e1d1 f13e
00000090: 4cbb febd 5538 6ebe 5e04 083f c0e0 41be
000000a0: 2576 543e f344 31be f630 17bf d216 9cbe
000000b0: 6884 cd3e 1a22 abbe 20ad c33e 406d 1abe
000000c0: 866b c1bd 31f8 abbe 5719 ca3e e95e 123f
000000d0: 74d7 9d3d a926 5bbe 1f92 923e 7915 9bbe
000000e0: 2417 0d3f 6ff2 dabd e66f 8b3e c649 89be
000000f0: df55 da3e 7e0b efbd a422 71be 830d a93e
00000100: 0f4c 9cbe ad50 acbe e868 9c3e 3604 03bf
00000110: 7e36 c5bd 6281 ffbe 3ca5 d03e 1077 6f3e
00000120: 27ed 0a3d b00f 803e 13e4 c73e 0c3f 88be
00000130: 82a8 dbbe 7f19 cfbe 0842 2ebf cc32 613e
00000140: 9ab7 0abf d04a 8bbe a4eb 10bf 3d2c a33e
00000150: b1c5 b43e e82a ae3e 20f8 d8bc 193b ed3d
00000160: ea26 f6be e7be b6bd 4a67 503e c0a4 94be
00000170: efa8 313d becf d1be 3115 203e 4f33 1dbe
0.27520654 -0.19511491 -0.18067047 -0.029981636 0.021677205 -0.5731533 0.16592728 -0.3549005
-0.29890203 0.52225226 -0.48735005 0.45748907 0.04135533 -0.4329419 -0.2899428 0.045354847
0.034029637 -0.22214936 -0.20054227 -0.5775053 0.5596264 -0.5907847 -0.4622089 -0.13351128
0.33503175 0.5066333 -0.18057926 0.3943112 -0.27798674 0.5126445 -0.224387 0.37777346
-0.052882362 -0.5448317 0.114374675 0.47230437 -0.12438068 -0.23263676 0.53131664 -0.18933392
0.20748194 -0.17311458 -0.59059083 -0.3048616 0.4014008 -0.33424455 0.3821802 -0.15080738
-0.094443366 -0.33587793 0.39472458 0.5717607 0.0770711 -0.21401466 0.28627107 -0.3028982
0.55113435 -0.10690772 0.2723381 -0.26814097 0.4264364 -0.11672114 -0.2354837 0.3301812
-0.30526778 -0.336553 0.30548787 -0.511783 -0.09629534 -0.499034 0.40751064 0.23385262
0.033917572 0.2501197 0.39041194 -0.266106 -0.42902 -0.4044914 -0.68069506 0.21992034
-0.54186404 -0.27205515 -0.5660956 0.3186969 0.35307077 0.3401711 -0.026485503 0.115835376
-0.48076564 -0.089231305 0.20351902 -0.29031944 0.043374 -0.40978807 0.15633084 -0.15351604

bias f4 [32]
00000000: 2765 04bf 4eb1 0fbf 479d b43e 7f5b eabe
00000010: 21b2 6a3e 876d 953e ddbf d0bd 9f06 5b3e
00000020: 5ff8 50be 33ed 1abd 12f7 0abf 4d83 843d
00000030: f422 bebe 5b34 97be 0691 ee3e bb56 053f
00000040: d9e1 263c 2955 b93c 7f4b 83be 8308 7e3e
00000050: e9a6 8dbe a467 00be 03c9 5a3e 3beb 4bbe
00000060: b88b f9be 8b6b b13d 8cd1 0dbf 7f3c 0a3f
00000070: d52d 70be ce9f cdbd 8748 83be c60d febd
-0.51716846 -0.5612992 0.35276243 -0.4577293 0.22919513 0.29185125 -0.10192845 0.21389244
-0.20407246 -0.037823867 -0.5428325 0.06470356 -0.37136042 -0.29532132 0.4659502 0.52085465
0.010185682 0.022623615 -0.25643536 0.24807934 -0.27666405 -0.12539536 0.21365742 -0.19913952
-0.4873941 0.0866309 -0.5539787 0.5399856 -0.23454984 -0.10040246 -0.2564127 -0.12404971

weight f4 [16, 32]
00000000: 8a21 d3bd db45 1ebd 18bd c83d 4c33 033e
00000010: 05c4 883d c872 d73d cc56 2e3c 0f82 d83a
00000020: 0260 d3bd c0f1 9d3d 0c04 31be 55d3 9ebd
00000030: 938e 3dbd 0059 b93a bfa1 2b3d 6d54 90bc
00000040: 50ef ae3c 895a b7bb 0e8f a9bd 6219 df3d
00000050: ee78 fa3a 8c30 22be 9b53 283e 8e2c 8ebd
00000060: dd93 a23d 1a9a 213e c39e 50bd 4e41 af3c
00000070: 4899 8bb8 eebb 1abe ff85 0f3e 7296 0cbe
00000080: 959b 853d b0bf 21bd 0431 8bbc d30e 87bd
00000090: 3428 2a3d c3c6 083e 1436 18bb b7ec f23d
000000a0: 4078 863d 26f0 88bd 31e8 1d3d b1e8 42be
000000b0: fb57 c23d 6c73 e2bc 49c8 fbbc d860 8bbd
000000c0: c624 2abe 9615 aebd 3314 bcbd eabd ff3d
000000d0: 5e72 d23c 7a20 c43d 2c15 2c3e 0dcb 503d
000000e0: d1ff e1bd 56ad c93b 00ad 31bd 4cc8 523d
000000f0: cc5f 083e 1eb1 8dbd 205e 57bd 4362 d93c
00000100: aa55 ab3d cb47 393e ce25 0e3e aa3c 69bc
00000110: 9980 ee3c b658 a0bd edc4 a1bd c9f7 d23d
00000120: 1efe 1b3e 51ef e03d 2243 55bd 65f1 23be
00000130: e7b8 f9bc e4bf 003d afdf 023e 64cd 39bc
00000140: baa6 e9bd a125 b33d ff0c 223d 0796 e33d
00000150: f1d4 91bd 634b 243e 0657 ad3d 944e 22be
00000160: d8cd 62bd 13af 143e 3770 d73d b745 41be
00000170: 9c4f bfba cd41 a0bd c5ad 0a3d 6f55 eabd
00000180: e473 d93b 48d8 01bc c265 c73d ef46 b93d
00000190: 51ca 2ebe 8196 0d3e 2e6a 87bd 1a64 60bd
000001a0: 4c53 debb c1cb 2d3d 32f5 7fbd 92f0 de3d
000001b0: 9f7b e8bd f8bd cfbd 3125 e8bd 548d 78bb
000001c0: b434 01be 84f6 1cbe be56 53bd 7a15 00be
000001d0: 124e 503d fa21 d4bc f3c6 c43d 6f17 f33d
000001e0: c291 0c3e c00c b53d 6a31 b43a 3ec6 25be
000001f0: a091 433d f182 213d 5b3b 8e3d 35e1 1e3e
00000200: c797 e1bb 3fc9 b8bd a8a2 a7bc c5ba fbbd
00000210: 6b6c 983c 463c b53d 2d9d 093e 2991 233e
00000220: 5f00 d4bd 4a9e 2cbd c74e 1bbe daa7 2c3d
00000230: 59d5 c4bd 559f 00be 458a 9bbd 83ca 27be
00000240: 923f b3ba 0d3b 03be ed5d cbbc 5fb8 133e
00000250: 5121 f83c 731e b4bd eb98 d73c e754 a6bc
00000260: d875 9bbd ce13 3fbe 4394 883d b791 f73c
00000270: 63c1 81bc b4c3 163d 1d87 da3c a4a5 4fbd
00000280: a6eb ecbb e8f2 ebbd 0fd0 0e3e cb5c 1f3e
00000290: 254f 163b 1e7a 1c3d 6e13 973d 548c 8ebd
000002a0: 0d3b 90bd c4b9 8e3d d542 943d 88b7 bc3d
000002b0: d403 af3b 152f 23be a27f a5bd 6362 fcbd
000002c0: 52df 87bb 5846 e3bd be57 153e 8e45 31bd
000002d0: 5f79 133e c0ac e3bd c9cc 1fbd 2572 b9bc
000002e0: 9679 e73d 13f3 dcbc 0762 f03d e525 a63d
000002f0: bdbb 35be b004 093e 41b6 303e abee f33d
00000300: e331 1ebe b22d d73d c979 183d 26a6 aabd
00000310: c553 c53d 4f28 1d3e 9ed5 36be f0aa 193e
00000320: 0b5c 28bd d78d 9d3a a004 a9bb b4b7 17be
00000330: 9eec 08be fed9 e4bd 81af 55bc b4c4 c23c
00000340: 6dc5 98bd e8e0 e5bd 102b 793d a23e 45bd
00000350: 18a0 053d f88a ecbd e8b5 133d 3500 13be
00000360: d0e9 03bd 080d e33d ce47 63bc a78b 30be
00000370: a3b4 903d 23ea 07be 37a3 693d 79dc c6bd
00000380: 40c4 0a3e 2501 5dbd 9b80 8c3d e58e f1bd
00000390: c9fb 2abe f336 3e3e b01e 583d 8942 d6bc
000003a0: 8ff5 1ebe 1c6d cb3d 556f 373e 8a38 083e
000003b0: 44cd f6bd ad55 323e 0a8d 29be 8ec1 90bd
000003c0: 4acf bbbd a789 0d3e b48c 243e ab8c f03d
000003d0: d282 32be 2955 813d e3c2 093e 0d57 0fbe
000003e0: 1601 a9bd 0a70 0ebe 0555 5a3d f82b ed3d
000003f0: 8317 053d 734b b0bd 2b81 48bc de9d 1ebd
-0.103091314 -0.038640838 0.09801692 0.12812537 0.06678013 0.1051994 0.010640811 0.0016518253
-0.103210464 0.07712126 -0.172867 -0.07755152 -0.046278547 0.0014140904 0.0419023 -0.017618382
0.021354347 -0.0055955094 -0.08279239 0.10893513 0.0019109526 -0.15838832 0.16438143 -0.06942092
0.07938359 0.15781441 -0.050932657 0.021393444 -6.656587e-05 -0.15110752 0.14015959 -0.13729265
0.065238155 -0.039489448 -0.016991146 -0.06594624 0.041542247 0.13357072 -0.0023225592 0.11861556
0.065659046 -0.0668643 0.038551513 -0.19034077 0.09489437 -0.027642928 -0.030735152 -0.06805581
-0.1661559 -0.08500211 -0.0918354 0.12487395 0.0256893 0.09576507 0.16804951 0.050974894
-0.11035121 0.0061546965 -0.043377876 0.05146055 0.13317794 -0.06918548 -0.05258 0.026536113
0.083659485 0.18093793 0.13881609 -0.014235655 0.029114055 -0.0782942 -0.07898889 0.103011675
0.15233657 0.10983146 -0.052065976 -0.16010053 -0.030483676 0.031433 0.12780641 -0.011340473
-0.11408754 0.087474115 0.039563175 0.111126 -0.071206935 0.16044383 0.08463864 -0.15850288
-0.05537209 0.1451991 0.1051945 -0.1887425 -0.0014595869 -0.078250505 0.033857126 -0.114420764
0.0066361297 -0.007925101 0.09736206 0.09046733 -0.17069365 0.13826944 -0.06612049 -0.054782964
-0.006784832 0.042430643 -0.062489696 0.10885729 -0.11351704 -0.101436555 -0.11335219 -0.0037926035
-0.12617761 -0.15328413 -0.051596396 -0.12508193 0.050855704 -0.025895108 0.09608259 0.11869704
0.13727477 0.088403225 0.0013747637 -0.16188905 0.0477463 0.039431516 0.06944915 0.15515597
-0.0068845483 -0.0902276 -0.020463303 -0.12291483 0.018606385 0.08849387 0.13438864 0.15973343
-0.10351633 -0.042143144 -0.1516677 0.042152263 -0.09611005 -0.1256078 -0.07594732 -0.16385846
-0.0013675562 -0.12815495 -0.02482506 0.144258 0.030289324 -0.0879487 0.026318034 -0.020304156
-0.07590836 -0.18659899 0.06668904 0.03022085 -0.015839284 0.03680773 0.026675755 -0.050695077
-0.00723024 -0.1152094 0.13946556 0.15562741 0.0022935357 0.038202398 0.07376753 -0.06960359
-0.07042513 0.06969026 0.0723931 0.09214693 0.0053410325 -0.15935929 -0.08080985 -0.12323453
-0.004146495 -0.110974014 0.14584252 -0.043279223 0.14401768 -0.11116934 -0.039013658 -0.022637436
0.113024876 -0.026971376 0.11737447 0.081126966 -0.17747398 0.13380694 0.17257024 0.11910757
-0.15448718 0.105067626 0.03722552 -0.083324715 0.096351184 0.15347408 -0.17854926 0.15006614
-0.041103404 0.0012020421 -0.005158022 -0.14816171 -0.13371512 -0.11174391 -0.013042332 0.023775436
-0.07459531 -0.11224538 0.060832083 -0.048155434 0.03262338 -0.11549944 0.03606215 -0.14355548
-0.032205403 0.1108647 -0.0138721 -0.17240773 0.07065704 -0.1327291 0.05704042 -0.097100206
0.13551426 -0.05395617 0.06860467 -0.11794833 -0.16697611 0.18575649 0.05276364 -0.026154773
-0.1552336 0.0993292 0.17913564 0.13302818 -0.1205087 0.17415495 -0.16557708 -0.070681676
-0.091703966 0.13822041 0.16069299 0.1174558 -0.17432716 0.06315071 0.1345325 -0.13998051
-0.0825216 -0.13909927 0.053303737 0.11580652 0.032493126 -0.08608141 -0.012237827 -0.038724773

bias f4 [16]
00000000: 5210 2f3e 9ff4 b93c 1551 203e fd09 2a3e
00000010: a32a 153e 89f0 f83d 4631 2dbe 6198 f7bd
00000020: 9d11 98bd c0aa a43c 963c 36bd 3db2 0fbe
00000030: e5f1 013e cf54 6cbd 93aa cf3d ed11 a2bd
0.1709607 0.022699652 0.1565593 0.16605373 0.14567046 0.121552534 -0.16913328 -0.12089611
-0.074252345 0.020100951 -0.044491373 -0.14032836 0.12689932 -0.057698067 0.10139956 -0.07913575

weight f4 [32]
00000000: 736c 7f3f 6d78 803f 3247 7b3f 4cbb 803f
00000010: 29a3 7b3f da53 7a3f 8fb9 803f 503d 7f3f
00000020: 6e95 7c3f 3814 803f d000 803f 232d 803f
00000030: ef82 7c3f 330b 823f a618 7a3f ee4b 813f
00000040: ca51 823f 1b94 803f feaa 823f ba45 803f
00000050: 5525 823f af32 813f e31a 803f 1419 803f
00000060: c214 823f c8be 7a3f 7ba3 813f 9892 813f
00000070: c6c8 7d3f 64d2 7a3f 1432 783f d6c7 793f
0.99774855 1.0036751 0.9815551 1.0057158 0.9829584 0.977842 1.0056628 0.9970293
0.9866551 1.000617 1.0000248 1.0013775 0.9863729 1.0159668 0.9769386 1.0101297
1.018121 1.0045198 1.0208433 1.0021279 1.0167643 1.0093592 1.0008205 1.0007653
1.0162585 0.9794736 1.0128015 1.0122862 0.9913448 0.9797728 0.96951413 0.9757055

bias f4 [32]
00000000: 4815 70bd b767 263c 4e9f 203d 76a5 3b3d
00000010: b080 323d 5279 25bd 6462 6a3d 91b2 873c
00000020: 4357 3c3d 3f5a 313b 9e59 5cba e099 9a3c
00000030: e13a debc e57a 103e 378d 57bd 3198 b8bc
00000040: c87e 6d3c 74a1 6a3b 1a0e 94bb bd7d 513c
00000050: 0194 9ebc 4bb2 22bc 9028 98bc 03be 873d
00000060: d106 053b 08ec d43b d580 1d3b e24c acbc
00000070: e208 ec3c 5c8e 953a 3249 3cbd ee1f 67bd
-0.058614045 0.0101565635 0.039214425 0.045812093 0.043579757 -0.040398903 0.05722274 0.01656464
0.045981657 0.0027061848 -0.0008405688 0.018872201 -0.027127685 0.1410938 -0.052624907 -0.022533508
0.014495559 0.00358018 -0.0045182826 0.012786326 -0.019357683 -0.009930204 -0.01857403 0.06628039
0.0020298252 0.0064978637 0.0024033089 -0.021032754 0.02881283 0.0011410224 -0.045968242 -0.056426935

running_mean f4 [32]
00000000: d30a cabe a3aa 72c0 a1bf 3c3f e0dc 9840
00000010: eb2a 8d3f 8f6f 8dbf 7046 c640 af6d 0640
00000020: 4d7a 81c0 7a03 8a40 38b7 3dc0 bb65 fd3f
00000030: e9c3 7440 3c04 1ac0 9bb1 8b40 6237 1dc0
00000040: eb8d 8140 2368 c9bf 4133 8e40 98a9 2fc0
00000050: d76e 65bf 3d3d 68be 4e56 2540 3838 9ebf
00000060: afa6 593e 3378 a23e 2386 97c0 51f2 ae40
00000070: 283a 13c0 1e6f 0840 b940 cf3f ae80 ebbf
-0.39461383 -3.7916648 0.737299 4.7769623 1.1028723 -1.104967 6.1960983 2.1004446
-4.0461793 4.3129244 -2.9643078 1.9796671 3.8244574 -2.4065084 4.3654304 -2.4565053
4.048574 -1.5734905 4.4437566 -2.7447262 -0.89622253 -0.2267961 2.5833926 -1.2360907
0.21254991 0.3173233 -4.735124 5.4670796 -2.3004246 2.131782 1.6191627 -1.8398645

running_var f4 [32]
00000000: 636c e040 29f7 ae41 c532 aa41 425d 8741
00000010: 0b83 d241 0146 4040 b9ba c341 c709 9d41
00000020: 86cb 6241 2a40 6941 caaf 0b41 7f50 9c41
00000030: 65e3 7741 9ff7 3240 f487 1e41 4f41 0041
00000040: 5c63 2441 9ed1 2240 dd12 8741 83c5 b040
00000050: b2d8 cd40 45c6 a341 39b1 ac41 e4db a741
00000060: 3ff9 a541 4afc 0942 495c 8141 fe77 8e41
00000070: 9027 ed40 c6f7 9741 98a8 a340 8062 e83f
7.013231 21.870684 21.27479 16.920536 26.313986 3.0042727 24.466173 19.629774
14.174688 14.578165 8.730417 19.539305 15.493016 2.7963636 9.908192 8.0159445
10.274258 2.544044 16.88421 5.5241103 6.432702 20.471811 21.586535 20.982368
20.746702 34.496376 16.170061 17.80859 7.4110794 18.995983 5.1143303 1.815506

weight f4 [32, 18]
00000000: d4c2 08be fc20 39be 2f26 b4bd bae9 54bb
00000010: 071d 55bd 9ea6 1fbe 2cd1 433e aa52 fe3d
00000020: ba71 6c3e a19c a9bd aab1 31be d6e2 80bd
00000030: c39b 4ebe dbd7 393d 34d5 3ebe 5b81 d23d
00000040: 9e5a 1a3e 13c3 0c3e fd04 823e 6bd6 763e
00000050: 2106 253e 213f 313d d328 cbbd 7df5 2c3c
00000060: 910c 573d d5da ca3c 874d 0cbe 70dc febb
00000070: 9a1f 39be dcea edbd c11f 4d3e 3539 a4bd
00000080: f7ad ac3c e92a bcbd 5879 ec3c 9e82 093e
00000090: 742e 0bbe ffe1 2b3e 492f 0c3e 4974 e73b
000000a0: a6f4 3abe f1e6 543e a51a 43bd eed7 3d3e
000000b0: 560f 82bd 4b49 633e da73 62be 55c8 48be
000000c0: b5ce 72be 5ea1 ad3d c771 dd3d 5f36 6e3e
000000d0: c195 5f3b 6918 4fbd b5de 43be 1811 a53c
000000e0: 117a 33be af46 533e 47e1 68be c214 443d
000000f0: e6ac 313e a19a 6c3e fb4b 0d3e 438c 0cbe
00000100: 078c 153e 327b f8bd ee16 163b cd7f 8d3d
00000110: 3b46 403e 16e3 fcbd 0ba8 6b3e 6322 123c
00000120: e97e cd3d f5a0 71be 7fd0 2ebc 2a46 aabd
00000130: c57c 543e 6e5b 0dbe 5384 553e 9e10 793e
00000140: f53c fa3c 7b0a 093d bf0d f6bd f2c9 763e
00000150: 1369 29be ad6a 333e 8349 863d bc47 bbbd
00000160: 2c03 203c 67cb 84ba 3217 443e d6d2 7f3e
00000170: 887b d3bd e36b 02be e4ba 1ebe 3598 9ebc
00000180: 4c96 453d baf5 81be 32a4 7bbb 59de 79bd
00000190: b42b 533d 9f29 07be 856e 3a3e 45d9 453e
000001a0: 0e56 f1bd f666 95bd 8e3b 2dbe 0ec7 c8bd
000001b0: 4e01 16be 47cb 293e 6b71 15be 370a b3bd
000001c0: 1204 543e 6fed b43d 61d2 da3d a406 02b9
000001d0: 72cd e33d 4516 ca3d 3fb3 ef3d b31d fabd
000001e0: 1190 b83c c225 0fbe 3c16 363e 3efa a3bd
000001f0: 2a85 6bbd a778 9c3d 91ba 153e 8852 cfbc
00000200: 5ae7 ed3d 550d 0ebd 5e63 ac3d cfd2 123e
00000210: 2b40 6d3b f8dd 513e f972 363e 50a3 003b
00000220: 0a09 0cbd 7308 7e3d 7e73 e33d 6687 8f3c
00000230: 5d4b 6abe 37ff bdbd f24a d93c 646a c1bd
00000240: 1459 503d 7016 173e 4707 a739 3087 343e
00000250: 308b 743e 9ce5 11be 1d6a 7abd 8324 8b3b
00000260: 3505 22bd a681 c9bd 3da9 12be b137 95bd
00000270: 4cf9 b9bd 07f4 f9bd bf32 f53d 80c9 65bd
00000280: 7f07 0abe e996 15be a5d7 2ebe 7543 5c3e
00000290: 4659 5a3e 0e0f febd 6eaf 58be a514 303e
000002a0: 3bab c0bd ce54 c03c 349f 00be 13dd 083e
000002b0: 7d37 1dbe 8478 4bbe f4a7 1cbe 9252 cfbc
000002c0: 0572 20be 319e 49be 0ff8 aa3d 8f50 a1bd
000002d0: 6a62 4f3d 7ecb debd 99b2 9f3d 09b8 ec3c
000002e0: 224e 80be 255a 143e 2f10 3cbe 6f9f 0bbe
000002f0: 935f 66be 0d51 aabd 8ab6 673d 9812 03bd
00000300: 19ea c33d 8640 2b3d 70a2 253d 07fd 1fbd
00000310: c52a 7e3c bd80 39be ec3e 28bc a5a0 4d3e
00000320: c600 c2bd a36c 2e3e 1794 753d 9657 553d
00000330: 1ae6 ac3d ab65 123e 1d6d 0abd d1db 0ebd
00000340: ec62 9b3d 454b b33d ff17 d03d 7cd8 483d
00000350: a17c f1bd 3922 28be 2356 53be 7d33 8b3e
00000360: 4dda cdbd c7e9 4f3e 2e7e 653e 80c4 c53d
00000370: d606 593e ee6e 103e 782e 833e f385 5c3e
00000380: d296 94bd 3605 9d3d d692 403e 9bd0 653e
00000390: 2669 f63d dde8 4cbe 99fa 03be 7add 09bd
000003a0: c59a 1f3e 318d 643e 4412 f73d 7633 8b3d
000003b0: 9028 403d aedf 08be 761c 31bb 068c 76be
000003c0: dc79 41be a751 e5bd c51f 4bbd 346f 893d
000003d0: 2ff4 ae3d 1bea 5b3e d34a c5bd d2b0 aebd
000003e0: 6403 583e 138e 00be 2670 463e 9c82 393e
000003f0: 7a9b 183e 2dd8 aa3b e567 e6bd ea68 2b3e
-0.13355571 -0.18078989 -0.087963454 -0.0032487945 -0.052029636 -0.15590903 0.19122761 0.12418111
0.23090258 -0.08281828 -0.1735293 -0.062932655 -0.20176606 0.04537187 -0.18636018 0.10278579
0.1507363 0.1374629 0.2539443 0.24105231 0.16115619 0.043273095 -0.09919896 0.010556576
0.05250222 0.02476255 -0.1370145 -0.007777743 -0.18078461 -0.116170615 0.20031644 -0.08018724
0.021079047 -0.09187872 0.028866455 0.13428733 -0.13591939 0.1678543 0.13689913 0.007063423
-0.18257388 0.20791222 -0.047632832 0.18539402 -0.06350581 0.22195928 -0.22114506 -0.1960767
-0.23711665 0.08478044 0.10812717 0.23262928 0.003411636 -0.05056039 -0.19127925 0.020149752
-0.17527033 0.20632432 -0.22742186 0.04787136 0.17351112 0.23105861 0.13798515 -0.1372538
0.14604197 -0.12132873 0.002290185 0.06909142 0.18776791 -0.12348001 0.23013322 0.008919331
0.10033972 -0.23596556 -0.0106698265 -0.08314164 0.20750721 -0.13804409 0.20851259 0.24322745
0.030546645 0.03345726 -0.120143406 0.24100474 -0.16543989 0.17521162 0.0655699 -0.091445416
0.009766381 -0.0010131419 0.19149473 0.24982771 -0.10326296 -0.12736468 -0.1550098 -0.019359687
0.048239037 -0.25382787 -0.0038397429 -0.061003063 0.05155535 -0.13199471 0.18206222 0.19321163
-0.11783992 -0.07295029 -0.1691725 -0.09803592 -0.14648935 0.1658145 -0.14594047 -0.08742183
0.20704678 0.08834349 0.10684658 -0.0001240024 0.1112317 0.09867529 0.1170411 -0.12212696
0.022529634 -0.13979247 0.17781919 -0.08006714 -0.057500042 0.076402 0.1462195 -0.025307909
0.116163924 -0.034680683 0.0841739 0.1433823 0.0036201577 0.2049483 0.17817296 0.0019628592
-0.034188308 0.062019777 0.11106013 0.017520618 -0.22880311 -0.09277194 0.026524995 -0.094441205
0.0508662 0.14754653 0.00031858144 0.17629695 0.23881221 -0.14247745 -0.061136354 0.004246296
-0.039555747 -0.098391816 -0.14322372 -0.07286013 -0.09080753 -0.12204748 0.1197257 -0.05610037
-0.13479422 -0.14608349 -0.1707445 0.21510108 0.21323118 -0.12405215 -0.21160671 0.17195375
-0.094076596 0.023477938 -0.12560731 0.13365583 -0.15353198 -0.19870192 -0.15298444 -0.025307927
-0.15668495 -0.19689251 0.08348095 -0.078766935 0.050630964 -0.10878657 0.07797737 0.028896349
-0.2505961 0.14487512 -0.18365549 -0.13635038 -0.22497396 -0.083162405 0.056570567 -0.032000154
0.09566135 0.04180958 0.040438116 -0.039059665 0.015513127 -0.18115516 -0.010268908 0.20080812
-0.09472804 0.17033629 0.059955683 0.05208548 0.08442326 0.14296596 -0.033795465 -0.034877602
0.07587227 0.08754591 0.10160827 0.04903458 -0.11791349 -0.16419305 -0.20638327 0.2718772
-0.10051403 0.20304023 0.22411415 0.0965662 0.21194014 0.14104816 0.2562139 0.21535473
-0.07255329 0.076670095 0.18806013 0.22442858 0.12031774 -0.20010705 -0.12888564 -0.033658482
0.15586384 0.22319485 0.12064031 0.06796925 0.046913683 -0.13366577 -0.002702502 -0.24076852
-0.18894142 -0.111972146 -0.049590845 0.067106634 0.08542668 0.21476023 -0.09633412 -0.085298195
0.21095043 -0.12554197 0.19378719 0.1811623 0.1490306 0.0052137584 -0.11250285 0.1673924

bias f4 [32]
00000000: 05c1 cf3d 9766 8c3d fa09 9bbc 7ca8 d1bd
00000010: 9fde f0bd 9e09 d53d 78ce 4c3e 839e 60be
00000020: 04cb 5abe 62f2 5c3d 3406 863c a0dc f1bd
00000030: 8145 683e 5f45 fd3d 576e 283e b187 4bbe
00000040: 575a 613e a885 47bc 2050 b13d fe17 23be
00000050: 807e 04be e8f9 2dbe 52b2 adbd 083e 49be
00000060: 4d89 55be f6b4 053d b1d5 ae3d c64c 573d
00000070: 6c9d 033e 969d 09bd 974e 57bd 114e ac3d
0.101442374 0.06855505 -0.018925656 -0.10237214 -0.117612116 0.10402225 0.20000637 -0.21935467
-0.21366507 0.05394209 0.01636038 -0.11809659 0.22682764 0.12366747 0.16448341 -0.19875981
0.22007118 -0.012177862 0.08657861 -0.15927121 -0.12938881 -0.16989863 -0.084812775 -0.1965257
-0.20853157 0.03264328 0.08536852 0.05256345 0.1285302 -0.03359755 -0.052565183 0.084133275

weight f4 [2, 32]
00000000: f58e 60be 6b14 023e 3007 55be 820b 53bd
00000010: 0294 a73c e457 1dbe 040f 16be 6bcb fe3d
00000020: 0700 043d d35a d93d 03dc b43d 7242 00bd
00000030: 13da f53d 79f8 283d 784c 2a3e 90c0 0139
00000040: 09c9 cb3c 7877 2d3e 6e59 3c3e 9e9e 79bd
00000050: d2d8 253e 5703 24bd e515 8f3d d357 bb3a
00000060: e925 833d b866 d0bd 3326 24be 2428 ecbc
00000070: af15 3cbe a2ab debc 084a a6bd c342 17be
00000080: 6732 19be 9978 a43c 2c91 9cbd 1267 2c3e
00000090: 8ad6 a93c 6a6c 923d d8c6 11bd 1b5c 0dbe
000000a0: b9c1 493d 9c0c 0f3e 9f03 413e 7380 97bc
000000b0: 1cf9 2c3e 8438 12bd c7fa 443d 1a29 bbbd
000000c0: 663c ae3d 6942 83bd 94e4 00be 18fc ebbd
000000d0: d50d 293e 4662 3d3e ce3c 323e 7f9f 143e
000000e0: 4858 e0bc 83c7 103c 31d3 e63d fad4 1fbe
000000f0: 52fb 6abd ff06 c3bb c547 1d3e e0f1 313d
-0.21929534 0.12703101 -0.20803523 -0.051524647 0.020456318 -0.15365559 -0.14654166 0.12441143
0.03222659 0.106130265 0.088310264 -0.031313367 0.12004485 0.041252587 0.16630733 0.00012374134
0.024876134 0.16940105 0.1839349 -0.060942285 0.16195992 -0.040042248 0.06986598 0.0014293141
0.06403715 -0.10175842 -0.16030197 -0.028827734 -0.18367647 -0.02718145 -0.08119589 -0.14771561
-0.14960633 0.020077037 -0.07644877 0.16836193 0.020732183 0.071495846 -0.035590023 -0.13804667
0.049257014 0.13969654 0.18849038 -0.018493867 0.16891903 -0.03569843 0.048090722 -0.09138699
0.08507614 -0.06409151 -0.12587196 -0.115226924 0.16509183 0.1849452 0.17406008 0.14513968
-0.027385846 0.00883663 0.1127075 -0.15608588 -0.057368584 -0.0059517617 0.15359409 0.04344356

bias f4 [2]
00000000: 607c 6bbd 63c4 51bd
-0.05749166 -0.05121268

weight f4 [32]
00000000: 3be8 833f ff42 883f 447b 853f 2776 803f
00000010: f2b8 7e3f d287 803f 79d3 813f af71 793f
00000020: 3b59 803f 0911 7f3f a9d0 833f c9f7 7e3f
00000030: 92f2 7a3f b34c 763f df54 833f d5fa 7f3f
00000040: 7369 823f 304e 7c3f 0671 813f 3a16 833f
00000050: 6179 843f 02b1 853f 9dbe 803f ca9b 813f
00000060: 60c2 803f 033c 813f 2c99 7f3f 9c61 803f
00000070: ef8a 843f 33d8 7b3f da1e 833f fd27 823f
1.0305246 1.0645446 1.0428243 1.0036057 0.99500954 1.0041449 1.0142661 0.9743909
1.0027231 0.9963537 1.0298053 0.9959684 0.9802638 0.96210784 1.0260276 0.99992114
1.018843 0.98556805 1.0112617 1.0241158 1.0349542 1.0444643 1.005817 1.0125668
1.0059319 1.0096439 0.99843097 1.0029788 1.0354899 0.9837677 1.024379 1.0168453

bias f4 [32]
00000000: e8db 9f3c a8c0 d63d 48fc a93c 77b0 063d
00000010: b4d7 b0bc b00c 8dbb 3584 92bb fb24 ae3a
00000020: 23dc cbbb caa1 1e3c 6e6a 353d 2930 af3c
00000030: 3e9d 45bd 1dd9 fabc 33e9 9e3c a6c5 4cbd
00000040: 9b51 6ebd 6815 4c3d 06e7 e03c c269 333d
00000050: ffed 2e3d b28f e6bb ca89 9ebc e5b6 663c
00000060: 5945 0b3d 298a 7dbc b3b5 763a 15e2 e0bc
00000070: 0ff4 ca3c 06e5 03bb 6744 003d fb83 aebc
0.01951404 0.10485965 0.02075018 0.032883134 -0.02158723 -0.004304491 -0.0044713267 0.0013286168
-0.0062213107 0.009682128 0.044290952 0.02138527 -0.04824566 -0.030621106 0.019398307 -0.04999318
-0.058183294 0.049825102 0.02745391 0.04380203 0.04270744 -0.007036173 -0.019352812 0.014081691
0.034001682 -0.0154748345 0.00094112306 -0.027451554 0.02477458 -0.0020125522 0.031315234 -0.021303168

running_mean f4 [32]
00000000: d1ea 8b3e c0d9 aabd b016 283e d594 ffbc
00000010: 7cc9 cebd 6cc6 ba3c 976c a43e fe5d b2be
00000020: c4cb 15be 326b d93d 2fad 04be 5bdb 2abe
00000030: 6341 143e 1a44 883d a1e9 043e 557e 0bbe
00000040: 87cb 943e 3ba8 58be a0e7 d9bc 7ab4 3d3b
00000050: df43 3fbe d602 1bbe bae4 c5bd c60f 2abd
00000060: 4a3f bebe 8321 b03c f2fb 163e b9d7 243d
00000070: a42a 3e3e 9d08 873d e578 46bc c1ea ccbb
0.27327588 -0.08342314 0.16414905 -0.031198898 -0.10097024 0.022799693 0.32114097 -0.34837335
-0.14628512 0.10616149 -0.1295669 -0.1668524 0.14478068 0.06653614 0.12979747 -0.1362241
0.2906153 -0.21157925 -0.026599705 0.0028946684 -0.18678235 -0.151378 -0.09662767 -0.04151895
-0.3715766 0.021500355 0.14744547 0.04024479 0.18570954 0.0659344 -0.012113784 -0.006253571

running_var f4 [32]
00000000: 56c4 d93c f420 943c da82 cf3d 0f9c eb3d
00000010: 9bc1 823c 95da 593d 4f6f 373c 4f53 0d3d
00000020: 6c2b 8a3d 2cdd 893d f202 483c 82e2 d23c
00000030: 06f2 9f3c 49aa 193d 8bd2 fd3c 0932 c43c
00000040: 461f 563c 0863 d53c 1eff f23c 1157 453d
00000050: c901 d43c 3a88 973c e670 c03c 8acc f43d
00000060: a243 cc3c 396c de3d add9 773d 507e 333d
00000070: 4b0f 033e 5b89 ed3c 6feb 643d 57f0 6f3d
0.026582878 0.01808212 0.1013238 0.11504375 0.015961459 0.05318697 0.011195972 0.034503277
0.06746563 0.06731638 0.0122077335 0.025742773 0.019524585 0.037515912 0.030984184 0.02394964
0.01306898 0.026048198 0.029662665 0.048178736 0.025879757 0.018497575 0.023491334 0.11953075
0.024934594 0.108604856 0.060510326 0.043821633 0.12798803 0.02899616 0.05588859 0.058578815

weight f4 [32, 16]
00000000: 6f8c 373e 465f 1a3e 01b3 fd3d 67c2 0c3e
00000010: 98f1 5ebd 8718 25bd 4db5 4fbe ce79 24bd
00000020: 57d2 3a3e 03dc 25be fc46 c6bd 6364 4d3d
00000030: d1a3 133e 7632 1d3e 1a4d 10be a69f 4d3c
00000040: 30c3 333e 150e da3c 5a63 3d3d bec7 743e
00000050: 8377 05be 11c8 7e3e eb6c 41be 039c a43d
00000060: 0850 e3bd ee61 debd ff23 e6bd ed10 1ebd
00000070: c797 4abe d43e 3abe cc0f 923d c833 373e
00000080: f22c 2bbe d7c5 5b3d ace2 80be d29b 5dbd
00000090: 5d8c 53be 6ac7 03be ae45 783d 91f9 5b3e
000000a0: d676 aabd cffc d33d 9a12 e03d 0ed2 113d
000000b0: 875b 383e f544 d0bd 6193 fcbd cec0 93be
000000c0: 547b 7abd 899b 4abe 296b 253e 7856 b63d
000000d0: 29c1 c4bd d691 63be cb5b 2ebd 9486 833e
000000e0: 51fc 333e 6df5 3cbd ccb1 313e 3127 babd
000000f0: 65af 8c3d bc12 2fbe 592f 803d 1091 77bd
00000100: b107 87bd 3750 753d 7e77 e6bd 5815 1e3d
00000110: c391 a23d 3eaf 56bd 4b2b f63d 4dc6 6ebe
00000120: 3a12 f2bd 2dd8 3f3d e904 7dbd f100 a5bc
00000130: 099d 993c 5a8d 36bb 7fab ca3d 913e 47be
00000140: dab5 3b3d d882 633d a655 1dbe a66d 8c3d
00000150: 54a7 d83d c24e 073d 6414 6fbe d3d6 1bbe
00000160: 2f34 8f3c df6b 603e a019 c5bd 8bff 3a3e
00000170: 77b0 dd3d 1fe6 bc3d d9ec 4e3e 88c1 e13d
00000180: 5130 86be 946d c23c 3c9c 343d 8b99 3b3e
00000190: 8ed5 5b3e 819c e9bd f29d 73bc 7e65 843e
000001a0: b28b 433d be32 06bd c9e9 6abd 12d4 b5bd
000001b0: 7d2c fd3d e47f 65be 7c89 fbbc a043 e73d
000001c0: 654b aabd d9a8 843e cb7e 65bd be3f 67be
000001d0: c094 a63d 7efc f93c 7b9e 23bd aa78 de38
000001e0: 20c0 52be b65c d1bd cc48 76bd 0121 033d
000001f0: db9f 52be 18cd 6d3e 8d4a e63d f2d6 ce3b
00000200: a021 58be c1a3 093e 83a8 50be 9599 47be
00000210: ccae 97bd 10af 49be bd12 22bd 5c98 5e3e
00000220: ece8 4cbe 65d1 c1bd 7310 d73c 4a79 33be
00000230: 692b fbbc cea7 d53d 48c9 4bbd e70d 0abe
00000240: 70a8 c43c 8537 453e 94d1 523e 40f6 2b3e
00000250: fddc f0bd efb5 eb3d 4525 26be ef99 abbd
00000260: 76c7 9c3a 6c35 1cbd d18f 7c3e f1de 1dbc
00000270: f7b6 763d b10f 45ba 7833 533e 3685 723c
00000280: fd2d 18bc c55e 053b b864 08be 155e 0dbe
00000290: 5b65 5d3e a033 bcbd d728 dbbd 80e8 01be
000002a0: 7e27 833d 38eb 783c dc67 633d 9047 28be
000002b0: 5abe 1b3e 2d10 00bd e335 dbbd 244a 4dbe
000002c0: 4aad dcbd 63a8 5dbe 326d 4e3e 9848 85bd
000002d0: aaeb cabb 0168 943d 3b0a 08be 77cc e0bd
000002e0: 4977 6f3e 276e 47be c5b6 c8bb 9b4c 0fbe
000002f0: c81c 643e 1c3f 10be f581 75be 007c 0e3e
00000300: 76e5 31be afad 0dbd a55a cb3d 92b4 7d3e
00000310: 79f2 3b3e d3ff be3d 3d3f 72be f074 673e
00000320: c6be 3dbe 111b a93d e2a1 6b3d c329 b33c
00000330: 6384 343e 7b39 00be 508f 453e 96d1 253e
00000340: 85f9 c4bd d589 84be 0d98 1e3d 3cfd 943e
00000350: d129 eb3d 5814 e13d 512b 76be 0567 78be
00000360: a161 603e 7b98 9d3c f43b 263d 4119 b33d
00000370: 42e7 203e 3227 1bbd 6bcd 993d 24b9 153e
00000380: a9f5 253e 4770 223e 51d9 653d 96bc f33c
00000390: 123c 403d ea3a 8abd fd95 783d 8961 61be
000003a0: bc3f d7bc e11e cb3c 5acb 1e3e 7748 403e
000003b0: 9297 1dbe 4237 d03c 2bab 99ba 12a4 88bd
000003c0: 8908 073e 63c1 ae3d 4352 07be 4117 e1bd
000003d0: 8959 0e3b e894 64be 1603 1e3e e202 af3d
000003e0: 6c51 e2bd db2f 40be 4ef5 013d 7153 643e
000003f0: 04f9 27be a909 903d e675 913d 0551 2dbe
0.17924665 0.15075406 0.12387658 0.13746034 -0.05442962 -0.040306594 -0.20284005 -0.040155225
0.18244301 -0.16197209 -0.09681508 0.050144564 0.1441796 0.1535128 -0.14091912 0.01255027
0.17554927 0.026618043 0.046237327 0.2390432 -0.13033871 0.24881007 -0.18889205 0.080375694
-0.11099249 -0.10858522 -0.112373345 -0.03859036 -0.19784461 -0.1818803 0.07131919 0.17890847
-0.16716364 0.05365547 -0.25172937 -0.05410368 -0.20659013 -0.12869039 0.060613327 0.21481921
-0.083234474 0.10350954 0.10941048 0.035600714 0.18003665 -0.101694025 -0.12332798 -0.28858036
-0.06115277 -0.19785894 0.1615416 0.08903211 -0.09607155 -0.22223601 -0.04256801 0.25688612
0.1757672 -0.046132494 0.1735298 -0.090895064 0.06869391 -0.1709699 0.06259031 -0.060441077
-0.06593264 0.059890952 -0.1125326 0.038594574 0.07937958 -0.052413218 0.12019976 -0.23317833
-0.11819883 0.04683702 -0.06177226 -0.02014205 0.018751638 -0.0027855248 0.098959915 -0.19457461
0.045827724 0.055544704 -0.15364704 0.06856851 0.1057879 0.033034094 -0.23347622 -0.15218668
0.017480938 0.2191615 -0.09624028 0.18261544 0.108246736 0.092235796 0.20207538 0.11023241
-0.26208737 0.023733892 0.04409431 0.1832029 0.21468183 -0.11406804 -0.0148692 0.25858682
0.047740646 -0.032763235 -0.05735186 -0.0887834 0.12362001 -0.22412068 -0.030705206 0.11292195
-0.083151616 0.2591007 -0.056029122 -0.2258291 0.081338406 0.030515905 -0.03994606 0.0001060826
-0.20581102 -0.10222761 -0.06012802 0.032013897 -0.20568793 0.23222768 0.11244688 0.0063122446
-0.21106577 0.13441373 -0.20376782 -0.1949218 -0.07406387 -0.19695687 -0.03956865 0.21737808
-0.20010728 -0.09463767 0.02625296 -0.17526737 -0.030660348 0.10432397 -0.049752504 -0.13481866
0.024006099 0.1925946 0.2058776 0.16793156 -0.117609 0.115093105 -0.16225155 -0.0837897
0.00119613 -0.038136885 0.24664237 -0.009635673 0.060233083 -0.0007517292 0.20625103 0.014802268
-0.009288308 0.0020350676 -0.13319671 -0.1380542 0.21620695 -0.09189534 -0.10701149 -0.12686348
0.06404017 0.015192799 0.05551897 -0.16433549 0.15209332 -0.031265426 -0.107036375 -0.20047814
-0.1077524 -0.21646266 0.20158842 -0.06507987 -0.006192644 0.072464 -0.13285153 -0.109764986
0.23385347 -0.19475614 -0.0061253035 -0.13994066 0.22276604 -0.14086574 -0.23975356 0.1391449
-0.17372689 -0.034589466 0.099293984 0.24775913 0.18354215 0.09326138 -0.23656936 0.22603202
-0.18529806 0.08257116 0.05752743 0.0218705 0.17628627 -0.12521927 0.1929295 0.16193232
-0.096179046 -0.25886407 0.038719226 0.29099452 0.11482585 0.109902084 -0.24039961 -0.24258049
0.21912242 0.019237747 0.04058452 0.08745051 0.15713218 -0.037879176 0.075098835 0.14621407
0.16206993 0.15863143 0.056115452 0.02975301 0.046932288 -0.06749518 0.060689915 -0.22009863
-0.026275508 0.024794998 0.1550726 0.18777643 -0.1538985 0.025416974 -0.0011723986 -0.06671919
0.1318685 0.08532979 -0.13214974 -0.109907635 0.0021720848 -0.22322428 0.15430865 0.08545472
-0.11050686 -0.18768255 0.03172808 0.22297455 -0.16403586 0.070330925 0.071025655 -0.16925438

bias f4 [32]
00000000: 4f55 813e fa04 573e f68d 043d 9554 653e
00000010: a0c3 653e 376a 51be e0bf e4bd 0782 19bc
00000020: e6bf 5a3e a377 963d b930 e63d b4ed 1d3e
00000030: 368f 723e e7b4 443e 2a41 86bc 0d13 cd3d
00000040: 95fa 6f3d 1291 0e3e 3c05 f6bd dac0 2bbe
00000050: f727 843d 8034 613e 86d5 cb3d fddd 6abe
00000060: cd13 d63d 7dca 25be 1854 c6bd 08a9 e23d
00000070: 061d 0b3e 0d7b 98bd 39ad 0bbe 72d8 8c3d
0.25260398 0.20997992 0.032361947 0.22395547 0.22437906 -0.20450674 -0.1116941 -0.00936938
0.21362266 0.07347038 0.11239762 0.15422708 0.23687443 0.19209634 -0.016388495 0.10013399
0.058588583 0.13922527 -0.12012717 -0.16772786 0.06452935 0.21992683 0.09952836 -0.22936244
0.104529954 -0.16190524 -0.09684008 0.110673964 0.1358529 -0.07445345 -0.13640298 0.06877221

weight f4 [2, 32]
00000000: 016c 7bbd 40fd 3ebd 8c06 5dbd c4ec a63d
00000010: d2a6 e6bd cae4 17be a977 0a3e 9946 f23d
00000020: 9bb1 11be c04e e33d 7239 a9bb d1cb 4dbe
00000030: 8ba7 a63d ed7d 983d 9a9f 27be d2da 0cbe
00000040: 1a11 993d ebe7 24be 6bee ec3d b6d1 c5bc
00000050: 6aca a9bd 78e0 083e 19bb 0ebe d331 c13c
00000060: 1378 baba 5e17 6739 ef96 eb3b 5e8e 06be
00000070: 688f efbc 0fe5 c2bd 1c24 bc3d 4b4e f2bd
00000080: fbb6 983d 7cdc 703e c5c9 9b3d b6b6 b7bc
00000090: e88e 7a3d 763d bebd ec64 c53c c67c 573d
000000a0: 5bab 2abe 778e 1ebe b413 d0bb b3dc d5bd
000000b0: f4f1 c0bd 226e bbbc 0859 16be 74c1 27bd
000000c0: 939e 853d 3aae 7a3d e4b1 4b3d 91ce f53d
000000d0: a921 c0bc acf6 88bc a919 103e 81b6 0bbd
000000e0: 9980 023c 18c7 df3c ee8b e0bc 5a98 4fbb
000000f0: 0f33 d33c 794c 143e 93aa 273d 3ec7 653d
-0.061382297 -0.046628237 -0.05396132 0.08150628 -0.11262287 -0.1483337 0.13522209 0.11829872
-0.14227907 0.11099005 -0.0051643187 -0.20097281 0.08137425 0.074458934 -0.16369477 -0.13755348
0.07473965 -0.16104095 0.11568912 -0.02414785 -0.082905605 0.13366878 -0.1393856 0.023583328
-0.0014226459 0.00022038582 0.0071896235 -0.13140246 -0.029243186 -0.09516346 0.09186575 -0.118313394
0.07456776 0.23521608 0.07606844 -0.02242599 0.061171442 -0.092890665 0.024095975 0.052609228
-0.1666693 -0.15484034 -0.006350005 -0.10442486 -0.09421149 -0.022879664 -0.146824 -0.040955976
0.06524386 0.06120131 0.049730197 0.1200229 -0.02345355 -0.016719185 0.14072289 -0.034109596
0.00796523 0.027316615 -0.027410474 -0.0031676502 0.025781183 0.14482297 0.040934157 0.056098215

bias f4 [2]
00000000: 3701 9a3d 0783 febb
0.07519763 -0.0077670845

weight f4 [32]
00000000: 4363 823f 91eb 883f 98dd 7a3f 5a75 823f
00000010: a9b4 813f d4e2 7e3f 5110 803f 6a78 803f
00000020: fa10 7f3f 4177 7a3f 0eb7 763f e11f 843f
00000030: 3b04 793f ae74 7a3f ea0b 803f 378d 7c3f
00000040: 0990 7b3f 7799 813f 8621 803f cd43 7b3f
00000050: 4e06 803f 36ec 803f 581a 7c3f d79b 7f3f
00000060: d1d6 773f 3cf6 7a3f 48dd 7d3f e816 803f
00000070: f117 793f 878f 823f f847 7e3f 4876 803f
1.0186542 1.0696889 0.97994375 1.0192063 1.0133258 0.9956486 1.0004979 1.0036747
0.9963528 0.9783822 0.9637307 1.0322229 0.9727208 0.9783429 1.0003636 0.98652977
0.98266655 1.0124959 1.001023 0.9815033 1.0001924 1.0072086 0.984777 0.9984717
0.9681216 0.98031974 0.99165773 1.000699 0.97302157 1.0200051 0.99328566 1.0036097

bias f4 [32]
00000000: 0897 06bc 2f38 8ebd 3097 cebc 05ae df3a
00000010: f3ed c83c 86d7 ffb9 cea8 ae3c 9d7a 48bb
00000020: ffad 8abc 73ec 51bd 73e8 56bc 5c2d ab3c
00000030: d061 8bbc 283c c2bc c31b 7a3c eb57 10bc
00000040: 0f97 d6bc 63ee e73c c3ab 3a38 b382 77bd
00000050: 15a8 2c3c 5004 f43a 1fd0 eebc c5a6 803c
00000060: 28b3 f9bb cb2c 95bc ffda e43b df74 e73b
00000070: deb2 debc 0d97 d93c d529 e0bc 3252 2dbc
-0.00821472 -0.0694431 -0.025218576 0.0017065412 0.024527526 -0.00048797968 0.021320727 -0.0030590661
-0.01692867 -0.051250886 -0.013116944 0.020895652 -0.017014414 -0.023710325 0.015265408 -0.008810024
-0.026195077 0.028311914 4.450582e-05 -0.06042738 0.010538121 0.0018617008 -0.029151974 0.015704522
-0.007620234 -0.018209836 0.006984114 0.0070634927 -0.0271849 0.026561284 -0.027363697 -0.010578679

running_mean f4 [32]
00000000: 4742 e63e 27ed 163f 5edf 94be 1961 733e
00000010: ae23 c83d 818b 8ebd 5e57 1ebe 9b97 a13c
00000020: 039d 173d bf83 b53e 8be0 b8bc 1ee6 8c3e
00000030: cd59 de3e 069e c93e d056 adbd ed12 ebbd
00000040: beff e43d 3d0c 653e f83f 01be a3d2 fdbd
00000050: 30f8 fb3d c4bb aa3e fe81 f53c d935 c4be
00000060: 5922 ba3e 0d25 b1be 6579 32be 297e 563e
00000070: 8229 a23d 1fc7 0cbe cbd8 e2bd 3282 ab3d
0.4497244 0.58955616 -0.29076666 0.23767509 0.0977243 -0.06960202 -0.15463015 0.019725611
0.037014972 0.35452077 -0.022568008 0.27519315 0.43427888 0.39378375 -0.08463824 -0.11478219
0.111815915 0.2236795 -0.12622058 -0.123936914 0.123031974 0.3334638 0.029969212 -0.38322333
0.3635433 -0.3459858 -0.17429121 0.20946564 0.07918073 -0.13747834 -0.11076506 0.08374442

running_var f4 [32]
00000000: 4bfa 973c fa23 fb3c 8be3 d23d 6762 9a3c
00000010: aa76 933c 61a1 2c3d 4a67 283c c4fb 2f3d
00000020: bdbd 473d 3c60 343d dfc8 943d a72b b83d
00000030: db91 eb3b de31 8e3d 8e66 4c3d afd2 b93d
00000040: caeb ad3d bf9b 303d a9a1 383d fe59 0d3c
00000050: a268 393d ba97 d43c a177 323d 83c6 253c
00000060: 5baf 433d eb26 033c cf50 163c 9953 273d
00000070: 20ba 333d 0f9c 123c 8a3e 393c 1662 903d
0.018551966 0.030656803 0.102973066 0.01884575 0.01800092 0.04214609 0.010278532 0.04296471
0.048764933 0.04403709 0.072648756 0.08992701 0.007189018 0.06943105 0.04990249 0.09073388
0.08492239 0.04311728 0.045076046 0.008627413 0.0452658 0.025951255 0.04357112 0.01011813
0.047774654 0.008004884 0.00917454 0.04085121 0.043878675 0.00894834 0.011306414 0.070499584
