code/model_obj_backups/model_obj_3.pt (torch, 538090 bytes, 158 tensors)

weight f4 [32, 2]
0.5832923 -0.63233006 0.13162597 0.16479342 -0.39265215 0.18867084 0.016478758 0.55016136
0.27436444 -0.34966445 -0.6868516 -0.004226784 0.53937376 0.0054718903 0.4904502 0.38022774
0.029497035 0.61290747 0.104342654 -0.19961502 0.55170506 0.25564858 0.073833354 -0.66910475
-0.034869365 -0.538638 0.618799 -0.40789163 -0.5233174 -0.0963165 -0.54522467 0.16606323
-0.6863919 0.48837054 0.6821402 -0.39108962 -0.5798988 -0.10422672 0.103163935 -0.38724437
-0.38809028 -0.11004296 0.2021531 -0.6257252 0.4421939 0.30886337 -0.4788514 -0.19437495
-0.6673549 0.120607905 0.25043625 -0.3486805 0.27871785 -0.04753617 -0.60100317 0.5733239
0.020128738 0.31325924 0.6895987 -0.5377307 0.4621837 0.44885954 0.37333912 -0.03621656
00000000: a552 153f 62e0 21bf f5c8 063e 9bbf 283e
00000010: b409 c9be ee32 413e 76fe 863c 60d7 0c3f
00000020: 7f79 8c3e 3807 b3be 82d5 2fbf d680 8abb
00000030: 6614 0a3f 8b4d b33b 4a1c fb3e 36ad c23e
00000040: c4a3 f13c 81e7 1c3f 9ab1 d53d e167 4cbe
00000050: 8b3c 0d3f 5fe4 823e f135 973d 734a 2bbf
00000060: 2ed3 0ebd 2ee4 09bf 9c69 1e3f 2cd7 d0be
00000070: 21f8 05bf 9641 c5bd d893 0bbf 7b0c 2a3e
00000080: 61b7 2fbf b40b fa3e bda0 2e3f e63c c8be
00000090: 3f74 14bf d274 d5bd 9d47 d33d e544 c6be
000000a0: c5b3 c6be 345e e1bd 3901 4f3e 872f 20bf
000000b0: 3d67 e23e 5723 9e3e 032c f5be 3a0a 47be
000000c0: c5d7 2abf 4701 f73d 2e39 803e 4086 b2be
000000d0: 1bb4 8e3e 49b5 42bd 58db 19bf 5bc5 123f
000000e0: 06e5 a43c 8463 a03e 8a89 303f b8a8 09bf
000000f0: 58a3 ec3e ebd0 e53e 4e26 bf3e d157 14bd

bias f4 [32]
-0.26241016 0.58060503 -0.62126 -0.060821164 0.0520283 0.36106718 0.22590688 0.13063505
-0.6012205 -0.09273064 -0.54405844 -0.5975339 -0.049491744 0.5352499 -0.15718323 0.5076717
0.47118872 -0.13924173 0.5186705 0.12840617 -0.098420985 -0.25599766 0.11891845 0.4973334
-0.25546104 0.27164498 0.6291832 -0.02285427 -0.61826205 -0.064309396 -0.30371696 0.49981216
00000000: a05a 86be 88a2 143f e50a 1fbf 9d1f 79bd
00000010: a01b 553d ccdd b83e 2254 673e 32c5 053e
00000020: 96e9 19bf 90e9 bdbd 6a47 0bbf fbf7 18bf
00000030: dbb7 4abd 2306 093f a4f4 20be c6f6 013f
00000040: a63f f13e 6295 0ebe 97c7 043f e87c 033e
00000050: f190 c9bd 2012 83be 848b f33d 7ca2 fe3e
00000060: cacb 82be 0d15 8b3e 2612 213f e138 bbbc
00000070: 6c46 1ebf a5b4 83bd ca80 9bbe 61e7 ff3e

weight f4 [16, 32]
0.08687441 0.16034423 -0.14592592 0.18059784 -0.13945788 0.069650725 -0.015996652 -0.05348707
0.019553708 0.007510615 0.15400225 0.036694784 -0.0069687585 -0.1154025 -0.13433327 -0.13847122
0.023235936 -0.084631905 -0.025708906 -0.01523387 -0.0032400452 -0.09646688 -0.10471892 0.053293865
-0.08349818 -0.07515676 -0.1704672 0.020777438 0.051089853 -0.016508743 -0.13873401 -0.18094935
0.11963045 0.11685645 -0.09431521 -0.02647349 0.02266566 -0.14961657 -0.045397468 -0.10611764
0.08391684 -0.07854138 0.17111456 0.0851115 0.16540714 -0.0015344142 -0.14291972 -0.026697764
0.0048192153 0.08147939 0.150504 -0.07346712 0.12729776 -0.16689742 -0.072542205 -0.011175061
0.14164802 0.12752414 0.060095564 0.1054342 -0.05146601 -0.17864025 -0.16772686 0.12566443
-0.031758275 -0.036839336 0.048684124 0.03426467 -0.037498303 0.023218945 -0.096597485 0.011708308
0.14861172 -0.035359234 -0.10190628 -0.083799034 0.099393025 -0.11462414 0.07303175 0.07160449
-0.15500689 -0.039242502 0.07145911 -0.03288149 -0.025840044 0.025920222 0.041525733 0.10993629
-0.15167409 0.05735339 -0.045083847 -0.13867132 0.09024302 -0.034829307 -0.07119674 0.13155544
-0.053831376 0.16963208 -0.13779569 -0.047479294 0.0370938 0.0039780643 0.044322565 0.15237547
-0.17043075 0.07378525 0.117233016 -0.022745578 -0.01961804 0.11380016 -0.003797753 0.14135773
0.13743775 0.062622115 -0.07214491 -0.091942295 -0.09787534 -0.089123316 0.006644851 -0.14770134
-0.13942279 0.058228496 -0.107925065 0.037966665 -0.07117372 0.16898896 -0.011195626 -0.0076459534
0.0735583 0.118590906 0.07478583 0.09222475 -0.18297794 -0.03540082 0.029808521 0.00508957
0.089623936 0.07527181 -0.07734963 0.004421542 -0.17054313 0.10151556 -0.082715586 0.031361178
0.06331255 -0.087954804 -0.094350636 0.11326446 -0.004184052 0.025671858 -0.14273539 0.07593375
-0.078232154 0.08624855 -0.10579031 0.14875658 0.16927843 0.16790113 0.11382736 -0.17780307
0.09049104 0.15156643 0.15086588 -0.1698097 -0.016166508 -0.114364736 -0.034901716 0.15052648
-0.1302012 -0.1310194 -0.07621098 -0.027314004 0.18225196 0.02963015 -0.06937472 0.02991308
-0.1545153 -0.13076478 0.06643971 -0.074313454 0.16493873 0.16566028 -0.032697216 -0.09140885
0.17329566 0.14814937 0.044214964 -0.16305843 -0.10118357 0.1500864 0.102486804 -0.10949265
-0.17172156 0.046556514 -0.11614897 -0.16356175 0.046661258 0.037364937 0.0807645 0.02376921
-0.15805513 -0.008580485 0.15046853 -0.043803457 0.16914907 -0.04730602 0.10425791 -0.13386375
-0.12922361 0.08328257 0.13064927 -0.035275824 0.11526862 0.06420204 0.14918125 -0.14584368
0.10945667 -0.078364454 0.120928235 -0.028018063 0.1374301 -0.12615314 -0.011565532 0.15340692
0.06322679 -0.0023527585 0.044338845 0.08648781 -0.10147016 0.14300755 0.04494298 0.098854125
-0.0017816541 0.1561049 -0.12426888 0.07780119 -0.032543395 -0.1418615 0.01695989 -0.028272312
-0.16037224 0.01937252 -0.03522646 -0.10828349 0.017652294 0.011691944 0.14591119 -0.12006563
-0.09985564 0.14158341 0.14421652 -0.04743583 -0.02545277 -0.1349823 0.0060142586 -0.0507883
00000000: 36eb b13d 4731 243e 9b6d 15be a4ee 383e
00000010: 0cce 0ebe 0aa5 8e3d 690b 83bc 4215 5bbd
00000020: 192f a03c 9b1b f63b c4b2 1d3e 454d 163d
00000030: 2f5a e4bb 2558 ecbd a98e 09be 66cb 0dbe
00000040: 4a59 be3c 7e53 adbd 7c9b d2bc 7b97 79bc
00000050: f056 54bb 6d90 c5bd e076 d6bd ab4a 5a3d
00000060: 1801 abbd caeb 99bd f48e 2ebe 7235 aa3c
00000070: 9843 513d 583d 87bc 4a10 0ebe c94a 39be
00000080: cf00 f53d 6f52 ef3d 5528 c1bd efde d8bc
00000090: 56ad b93c 1635 19be b2f2 39bd 3554 d9bd
000000a0: 98dc ab3d 4eda a0bd a838 2f3e f04e ae3d
000000b0: 7d60 293e 661e c9ba 8c59 12be 45b5 dabc
000000c0: 82ea 9d3b abde a63d b81d 1a3e ee75 96bd
000000d0: 585a 023e 28e7 2abe 0291 94bd 9a17 37bc
000000e0: 2e0c 113e b095 023e c426 763d e3ed d73d
000000f0: 06ce 52bd 78ed 36be 97c0 2bbe 2dae 003e
00000100: f714 02bd d8e4 16bd 0169 473d 1c59 0c3d
00000110: d297 19bd a835 be3c e7d4 c5bd 34d4 3f3c
00000120: ac2d 183e d8d4 10bd 3db4 d0bd d49e abbd
00000130: 928e cb3d 10c0 eabd ac91 953d 60a5 923d
00000140: 20ba 1ebe bfbc 20bd 2759 923d beae 06bd
00000150: 80ae d3bc a556 d43c e316 2a3d 4726 e13d
00000160: 7450 1bbe 63eb 6a3d d7a9 38bd dbff 0dbe
00000170: 55d1 b83d 2da9 0ebd 99cf 91bd 78b6 063e
00000180: 4a7e 5cbd 08b4 2d3e 501a 0dbe a679 42bd
00000190: abef 173d 6c5a 823b 948b 353d 5108 1c3e
000001a0: 6685 2ebe b91c 973d dd17 f03d ef54 babc
000001b0: 03b6 a0bc 0f10 e93d b9e3 78bb 15c0 103e
000001c0: 7bbc 0c3e 0640 803d b6c0 93bd 3e4c bcbd
000001d0: de72 c8bd 4986 b6bd 0dbd d93b 053f 17be
000001e0: d9c4 0ebe 0181 6e3d d107 ddbd ef82 1b3d
000001f0: 87c3 91bd 710b 2d3e dc6d 37bc e88a fabb
00000200: bca5 963d cadf f23d 5029 993d 54e0 bc3d
00000210: 925e 3bbe 7300 11bd 0031 f43c 68c6 a63b
00000220: c18c b73d 1b28 9a3d 7c69 9ebd 95e2 903b
00000230: dca2 2ebe 64e7 cf3d ca66 a9bd 9474 003d
00000240: 03aa 813d a621 b4bd e83a c1bd 32f7 e73d
00000250: 5f1a 89bb ca4d d23c 3a29 12be 2783 9b3d
00000260: 2e38 a0bd 14a3 b03d 97a8 d8bd a553 183e
00000270: 5357 2d3e 46ee 2b3e 521e e93d 0212 36be
00000280: 5e53 b93d 3b34 1b3e 967c 1a3e 98e2 2dbe
00000290: a06f 84bc 0f38 eabd 1af5 0ebd 9d23 1a3e
000002a0: 7753 05be f329 06be 8114 9cbd 9ec1 dfbc
000002b0: 42a0 3a3e eeba f23c 5514 8ebd 470c f53c
000002c0: 4239 1ebe 34e7 05be 8b11 883d a731 98bd
000002d0: b3e5 283e d9a2 293e 84ed 05bd 9034 bbbd
000002e0: 6b74 313e 78b4 173e c01a 353d caf8 26be
000002f0: 5539 cfbd 40b0 193e 9ae4 d13d af3d e0bd
00000300: c7d7 2fbe 0bb2 3e3d 83df edbd bb7c 27be
00000310: e01f 3f3d fa0b 193d dc67 a53d a5b7 c23c
00000320: 34d9 21be 2a95 0cbc 6c14 1a3e 416b 33bd
00000330: 6a35 2d3e f5c3 41bd 2c85 d53d 9413 09be
00000340: 3253 04be 0d90 aa3d ecc8 053e 627d 10bd
00000350: f411 ec3d 5c7c 833d f8c2 183e 0c58 15be
00000360: d22a e03d 8b7d a0bd 39a9 f73d 2386 e5bc
00000370: 7aba 0c3e 4a2e 01be 5b7d 3dbc b416 1d3e
00000380: 0c7d 813d bd30 1abb a69c 353d 8520 b13d
00000390: 96cf cfbd 9270 123e 2116 383d 0874 ca3d
000003a0: 6486 e9ba f7d9 1f3e af80 febd 3b56 9f3d
000003b0: 394c 05bd 2444 11be 78ef 8a3c 569b e7bc
000003c0: 9f38 24be 1eb3 9e3c 9f49 10bd bcc3 ddbd
000003d0: 8b9b 903c 918f 3f3c be69 153e f8e4 f5bd
000003e0: 1d81 ccbd 3efb 103e 7fad 133e 134c 42bd
000003f0: 5482 d0bc cd38 0abe 4213 c53b 6407 50bd

bias f4 [16]
0.13047971 -0.104175 0.07715524 -0.041040886 -0.0235079 -0.08006213 -0.04713 0.025173916
-0.1748369 0.17653905 -0.08028556 0.03746666 -0.13470438 0.093775146 0.1756846 0.08964725
00000000: 799c 053e b459 d5bd 9103 9e3d 7d1a 28bd
00000010: a493 c0bc 9df7 a3bd 630b 41bd 8739 ce3c
00000020: 7208 33be a7c6 343e c16c a4bd a476 193d
00000030: f2ef 09be 2f0d c03d aae6 333e fa98 b73d

weight f4 [32]
0.99301946 0.997939 1.0077913 1.0000639 1.0090734 0.9855221 1.0043467 0.98811156
1.0092535 1.005727 1.0070031 0.9869924 1.0101439 1.0152164 0.99747616 0.99706817
1.0159867 1.0064124 0.9957838 0.9947163 1.0050143 0.9911163 0.9978364 0.9980778
1.0070602 0.9955432 1.0000844 1.0077204 0.9876804 0.9928672 0.99554086 1.0056434
00000000: 8636 7e3f ee78 7f3f 4eff 803f 1802 803f
00000010: 5129 813f 2d4b 7c3f 6f8e 803f e1f4 7c3f
00000020: 382f 813f aabb 803f 7ae5 803f 89ab 7c3f
00000030: 654c 813f 9cf2 813f 995a 7f3f dc3f 7f3f
00000040: da0b 823f 1fd2 803f b0eb 7e3f baa5 7e3f
00000050: 4fa4 803f ccb9 7d3f 3572 7f3f 0782 7f3f
00000060: 59e7 803f ebdb 7e3f c402 803f fbfc 803f
00000070: 9fd8 7c3f 8b2c 7e3f c4db 7e3f ecb8 803f

bias f4 [32]
-0.016244682 -0.015877215 0.0051672943 0.0025516052 0.0067143785 -0.008474886 -0.001883673 -0.011893602
0.007769888 -0.0005295344 0.0041039097 -0.011223875 0.007058393 0.010237703 -0.0017005936 0.011439838
0.0077351504 0.004617568 -0.0035447155 -0.005026932 0.007914304 -0.0115628885 -0.004516475 -0.007315895
-0.0035007743 -0.006103215 0.01976489 -0.0023960443 -0.013034379 -0.006738905 -0.0028857815 0.0031246222
00000000: 9113 85bc ef10 82bc 6852 a93b d538 273b
00000010: 4a04 dc3b 40da 0abc 94e5 f6ba 62dd 42bc
00000020: 8b9a fe3b 74d0 0aba 177a 863b 58e4 37bc
00000030: 184a e73b 0abc 273c 74e6 deba 296e 3b3c
00000040: 2577 fd3b f84e 973b 754e 68bb f6b8 a4bb
00000050: ffaa 013c 4572 3dbc f0fe 93bb 2dba efbb
00000060: 3f6d 65bb 7afd c7bb fbe9 a13c f406 1dbb
00000070: 268e 55bc 08d2 dcbb 611f 3dbb 76c6 4c3b

running_mean f4 [32]
-0.3746979 0.66675496 -0.6317274 0.14219628 -0.019928906 0.22160502 0.33615813 0.36708042
-0.37284303 -0.14429022 -0.3404949 -0.82555926 -0.2520017 0.51137674 -0.2972967 0.4584331
0.51052624 -0.14421882 0.36440977 0.008544075 -0.21629746 -0.44258344 0.31975755 0.33072913
-0.34578097 0.1953969 0.66786784 0.06446506 -0.5003728 -0.12099074 -0.048021704 0.56148845
00000000: 67d8 bfbe 74b0 2a3f e3b8 21bf e79b 113e
00000010: f241 a3bc 6dec 623e eb1c ac3e f7f1 bb3e
00000020: 48e5 bebe d1c0 13be 5955 aebe da57 53bf
00000030: 5e06 81be 96e9 023f 4637 98be beb7 ea3e
00000040: d9b1 023f 19ae 13be eb93 ba3e 73fc 0b3c
00000050: 157d 5dbe 4c9a e2be 43b7 a33e 5455 a93e
00000060: 340a b1be 2016 483e 63f9 2a3f 4206 843d
00000070: 6f18 00bf fec9 f7bd 68b2 44bd b5bd 0f3f

running_var f4 [32]
0.22005478 0.0064513446 0.05165858 0.06835159 0.05871538 0.0971295 0.05975379 0.053940035
0.08386746 0.014689034 0.055985183 0.11196013 0.064163476 0.15693223 0.050897207 0.08198739
0.20473604 0.17314202 0.06263183 0.04298039 0.027281653 0.11837974 0.04108792 0.041617803
0.10803884 0.054608453 0.018660838 0.20422433 0.021651488 0.22286817 0.058198933 0.03122961
00000000: 0a56 613e cd65 d33b f297 533d ebfb 8b3d
00000010: 8a7f 703d d5eb c63d 64c0 743d 3af0 5c3d
00000020: b4c2 ab3d 46aa 703c b850 653d 5a4b e53d
00000030: 2468 833d d8b2 203e 9779 503d 01e9 a73d
00000040: 53a6 513e 244c 313e 1e45 803d 350c 303d
00000050: c67d df3c 1471 f23d cf4b 283d 6e77 2a3d
00000060: 7843 dd3d 1dad 5f3d 9dde 983c 2f20 513e
00000070: 765e b13c 8e37 643e 0162 6e3d 3dd5 ff3c

weight f4 [32, 3]
0.27746055 -0.25391215 -0.1340488 0.24654245 0.015286504 -0.57071525 0.18579802 -0.3358345
-0.31850767 0.5051469 -0.46491542 0.47959846 0.031689066 -0.37319198 -0.35803345 0.122887485
0.048362613 -0.20554024 -0.2232831 -0.574329 0.56242406 -0.40509698 -0.47126803 -0.12447375
0.33345172 0.4983595 -0.18860525 0.4006618 -0.287867 0.50204176 -0.3414017 0.3843208
-0.044616077 -0.51244974 0.12382131 0.4633864 -0.15724352 -0.24646892 0.51782584 -0.34972444
0.22107144 -0.15851398 -0.5644605 -0.276339 0.43093005 -0.51481247 0.3682178 -0.16297543
-0.059179652 -0.3412488 0.38889313 0.5502373 0.06764225 -0.22041747 0.23756303 -0.3134352
0.54077023 -0.08185395 0.28618428 -0.25398177 0.32698548 -0.11210039 -0.23921101 0.36651248
-0.30155432 -0.33926386 0.29334208 -0.48749664 -0.12106366 -0.32759756 0.46792907 0.18259375
0.102144524 0.22820671 0.41210073 -0.25585082 -0.44386604 -0.38928336 -0.5326178 0.19600864
-0.56736857 -0.3170448 -0.5444486 0.34110957 0.17786919 0.32258523 -0.04192107 0.049482174
-0.47929478 -0.089636795 0.16154073 -0.29380158 0.03681714 -0.3436931 0.14466336 -0.16516373
00000000: 4f0f 8e3e c600 82be 1744 09be a075 7c3e
00000010: 3f74 7a3c 651a 12bf d641 3e3e 80f2 abbe
00000020: 7013 a3be 4f51 013f 6509 eebe ee8d f53e
00000030: 65cc 013d 0513 bfbe 2950 b7be 6fac fb3d
00000040: e017 463d 2479 52be 53a4 64be 3a07 13bf
00000050: 06fb 0f3f df68 cfbe 0b4a f1be 18ec febd
00000060: 2fba aa3e fa28 ff3e bc21 41be 8b23 cd3e
00000070: 4e63 93be cf85 003f 34cc aebe b2c5 c43e
00000080: 59bf 36bd e82f 03bf 0796 fd3d fb40 ed3e
00000090: 7204 21be 5962 7cbe 3c90 043f 150f b3be
000000a0: 8d60 623e 7d51 22be 7c80 10bf 4e7c 8dbe
000000b0: dda2 dc3e c0ca 03bf 0b87 bc3e 08e3 26be
000000c0: 5d66 72bd 2ab8 aebe 001d c73e 5adc 0c3f
000000d0: 0588 8a3d 1eb5 61be b943 733e 947a a0be
000000e0: eb6f 0a3f 0ba3 a7bd bf86 923e e609 82be
000000f0: a46a a73e e494 e5bd bbf3 74be 86a7 bb3e
00000100: 5465 9abe feb3 adbe ef30 963e 2999 f9be
00000110: 39f0 f7bd deba a7be 6694 ef3e dbf9 3a3e
00000120: 2631 d13d 05af 693e defe d23e e1fe 82be
00000130: 6942 e3be 2650 c7be a459 08bf 7db6 483e
00000140: 113f 11bf b253 a2be fc60 0bbf eaa5 ae3e
00000150: 5723 363e e429 a53e 6eb5 2bbd d2ad 4a3d
00000160: 2066 f5be 7f93 b7bd ef6a 253e 296d 96be
00000170: 92cd 163d 8bf8 afbe a222 143e ae20 29be

bias f4 [32]
-0.51739246 -0.56071913 0.35224622 -0.45782375 0.2291907 0.2919255 -0.1016908 0.21374309
-0.20365497 -0.038112503 -0.54239756 0.06495401 -0.37162408 -0.29162484 0.46641126 0.517429
0.00963662 0.023067521 -0.2558329 0.24836603 -0.27718952 -0.124936916 0.21401338 -0.2005405
-0.4871903 0.08623113 -0.55381435 0.54064643 -0.23492104 -0.10116166 -0.25592926 -0.12733218
00000000: d573 04bf 4a8b 0fbf 9e59 b43e e067 eabe
00000010: f8b0 6a3e 4277 953e 4443 d0bd 78df 5a3e
00000020: ee8a 50be db1b 1cbd 91da 0abf 9c06 853d
00000030: 8345 bebe da4f 95be 75cd ee3e 3a76 043f
00000040: eae2 1d3c 19f8 bc3c 88fc 82be aa53 7e3e
00000050: c9eb 8dbe edde ffbd 5326 5b3e 7d5a 4dbe
00000060: 0271 f9be f299 b03d c7c6 0dbf ce67 0a3f
00000070: 248f 70be d82d cfbd 2909 83be 5e63 02be

weight f4 [16, 32]
-0.1019318 -0.03759437 0.102671795 0.13307731 0.06925672 0.10680044 0.015258999 -0.0031374076
-0.10477108 0.07669601 -0.1725389 -0.079481974 -0.04781554 0.002585079 0.043135747 -0.017667234
0.024201645 -0.004206126 -0.0838619 0.1127947 0.011716911 -0.15118928 0.15912457 -0.067337744
0.085158505 0.16307996 -0.049660582 0.020768192 0.0005190437 -0.15719494 0.1323496 -0.13066268
0.06609726 -0.023395294 -0.012958709 -0.05514179 0.044430923 0.149554 0.007098428 0.1169223
0.0629732 -0.05273016 0.042468257 -0.17993332 0.10955164 -0.019362275 -0.016947027 -0.068879925
-0.15267721 -0.07159431 -0.07805402 0.13272475 0.03425698 0.10160057 0.16556756 0.05429782
-0.09898272 0.01028428 -0.029691447 0.05795815 0.13598569 -0.070921764 -0.04666863 0.034663584
0.09147993 0.16798952 0.1479756 -0.0101352725 0.03763593 -0.09047931 -0.072086774 0.11036302
0.14252487 0.10601907 -0.0631081 -0.16651657 -0.03519348 0.011870084 0.12266629 -0.021161063
-0.11721672 0.07984175 0.035147827 0.09133363 -0.06519376 0.17075428 0.09426363 -0.16595323
-0.057260625 0.15426095 0.095543265 -0.17144291 -0.012526096 -0.068095185 0.051767044 -0.13702562
0.011715077 -0.015301788 0.09874461 0.07972293 -0.16723473 0.13450728 -0.07808296 -0.051220004
-0.0011255341 0.043407947 -0.06137288 0.10853559 -0.11209741 -0.102223486 -0.11492858 0.0002449024
-0.13497707 -0.15695314 -0.051265985 -0.12694336 0.037607092 -0.030173 0.09900075 0.1230464
0.13393007 0.0896254 -0.0004855995 -0.16967656 0.048565455 0.04026709 0.06614847 0.1524143
-0.00028044116 -0.09521374 -0.013082805 -0.1297064 0.023770316 0.08616549 0.1285444 0.15264523
-0.101711415 -0.040146362 -0.15549529 0.05223227 -0.09433873 -0.13456093 -0.077357344 -0.16450725
-0.008219284 -0.126523 -0.023405131 0.13505839 0.037264213 -0.07772296 0.01966956 -0.014102326
-0.060905404 -0.17836468 0.06882867 0.037894797 -0.02007849 0.028965112 0.03150188 -0.060151078
-0.00881459 -0.11558725 0.13559969 0.15071484 -0.0009497337 0.039470743 0.06490571 -0.06878398
-0.06166179 0.078027174 0.084815174 0.09626757 0.015894918 -0.14749813 -0.071915105 -0.115515895
-0.0002967806 -0.11200592 0.15515979 -0.03218885 0.13506913 -0.118027166 -0.039371792 -0.013031007
0.112529196 -0.030898347 0.118062235 0.06023727 -0.16476014 0.13275722 0.1586762 0.13000214
-0.15148273 0.10106727 0.03859285 -0.066607684 0.09779892 0.14989586 -0.1610472 0.14757219
-0.0315273 0.017547252 -0.0047848 -0.13971308 -0.117287055 -0.10015962 0.0024377329 0.03282032
-0.0564859 -0.11657751 0.07773294 -0.044597637 0.028446496 -0.114436716 0.0320553 -0.13697143
-0.025798159 0.112622395 -0.019948773 -0.15749045 0.07056614 -0.1378591 0.050078705 -0.09669101
0.14050238 -0.05628647 0.07587452 -0.117018774 -0.16129796 0.18183787 0.056660883 -0.024146661
-0.15722215 0.07908759 0.17970385 0.13272807 -0.13965727 0.16431639 -0.18145208 -0.07222341
-0.098516524 0.12988205 0.14087644 0.10693834 -0.16697273 0.07260319 0.13821912 -0.13900712
-0.07917338 -0.13212277 0.042728543 0.12434891 0.03279787 -0.08197356 -0.0015380653 -0.053504717
00000000: 9fc1 d0bd 8efc 19bd 9745 d23d 6b45 083e
00000010: 78d6 8d3d 30ba da3d e100 7a3c f79c 4dbb
00000020: 3892 d6bd cc12 9d3d 0aae 30be 72c7 a2bd
00000030: 3ada 43bd 6e6a 293b 1caf 303d e0ba 90bc
00000040: 8742 c63c 8bd3 89bb cabf abbd e800 e73d
00000050: 49f8 3f3c 5dd1 1abe 8df1 223e 5fe8 89bd
00000060: 9567 ae3d 6ffe 263e e568 4bbd 0e22 aa3c
00000070: 6f10 083a b6f7 20be a786 073e 70cc 05be
00000080: 005e 873d 7da7 bfbc c450 54bc 5cdc 61bd
00000090: 33fd 353d af24 193e ee99 e83b f574 ef3d
000000a0: 18f8 803d 95fb 57bd 32f3 2d3d 7140 38be
000000b0: 9c5c e03d a29d 9ebc 7ed4 8abc eb10 8dbd
000000c0: 6a57 1cbe 0aa0 92bd c9da 9fbd ffe8 073e
000000d0: 0c51 0c3d f613 d03d 8b8a 293e 6467 5e3d
000000e0: 74b7 cabd 667f 283c 7a3b f3bc 8665 6d3d
000000f0: d53f 0b3e 6e3f 91bd 9b27 3fbd 67fb 0d3d
00000100: d459 bb3d 7205 2c3e ea86 173e 6a0e 26bc
00000110: 2228 1a3d 374d b9bd 3ba2 93bd 0206 e23d
00000120: 0af2 113e 8720 d93d d23e 81bd 5283 2abe
00000130: 0a27 10bd be7a 423c 7738 fb3d f759 adbc
00000140: 520f f0bd 1284 a33d 2bf7 0f3d 200d bb3d
00000150: 4e84 85bd 36da 2e3e 4a0d c13d a5ef 29be
00000160: 1e8a 6abd 95f6 1d3e 30ac c33d bb8e 2fbe
00000170: 413a 4dbc 7d75 8bbd ae09 543d 7250 0cbe
00000180: 98f0 3f3c 5ab4 7abc 9d3a ca3d c745 a33d
00000190: 953f 2bbe 47bc 093e f5e9 9fbd 11cc 51bd
000001a0: a886 93ba 88cc 313d 2162 7bbd e847 de3d
000001b0: 5493 e5bd 8c5a d1bd ad5f ebbd 3e66 8039
000001c0: 6e37 0abe 53b8 20be 48fc 51bd 71fd 01be
000001d0: e509 1a3d 5e2d f7bc e8c0 ca3d c0ff fb3d
000001e0: f724 093e 868d b73d 1098 feb9 b1bf 2dbe
000001f0: 92ec 463d 1bef 243d d978 873d 7f12 1c3e
00000200: 2d08 93b9 6cff c2bd 4359 56bc c1d1 04be
00000210: f7b9 c23c 8877 b03d 25a1 033e 084f 1c3e
00000220: 134e d0bd 8370 24bd 283a 1fbe 81f1 553d
00000230: aa34 c1bd 57ca 09be 876d 9ebd 9774 28be
00000240: 2daa 06bc 3f8f 01be 1ebc bfbc bf4c 0a3e
00000250: 5ca2 183d 372d 9fbd 0f22 a13c 710d 67bc
00000260: f277 79bd 3ba5 36be 0cf6 8c3d 9337 1b3d
00000270: a57b a4bc 3e48 ed3c 1e08 013d fa60 76bd
00000280: 126b 10bc 02b9 ecbd a5da 0a3e fe54 1a3e
00000290: 8df7 78ba 13ac 213d 49ed 843d 9ede 8cbd
000002a0: 1391 7cbd b6cc 9f3d 94b3 ad3d ef27 c53d
000002b0: 0f36 823c c009 17be 3a48 93bd 9993 ecbd
000002c0: 3899 9bb9 5c63 e5bd 35e2 1e3e 75d8 03bd
000002d0: 904f 0a3e 3ab8 f1bd 5144 21bd 0180 55bc
000002e0: b575 e63d 881e fdbc 9dca f13d 5bbb 763d
000002f0: e2b6 28be 82f1 073e 047c 223e 481f 053e
00000300: 4a1e 1bbe 5bfc ce3d 8913 1e3d 9c69 88bd
00000310: cd4a c83d 4d7e 193e 8fe9 24be 2a1d 173e
00000320: c522 01bd 41bf 8f3c d0c9 9cbb f210 0fbe
00000330: 3234 f0bd 7d20 cdbd 5fc2 1f3b 9a6e 063d
00000340: c25d 67bd 31c0 eebd 7332 9f3d 03ac 36bd
00000350: a008 e93c cc5d eabd 6b4c 033d 3d42 0cbe
00000360: a956 d3bc 92a6 e63d 9c6b a3bc 2d45 21be
00000370: fb84 903d f02a 0dbe 541f 4d3d f005 c6bd
00000380: dbdf 0f3e a48c 66bd 1a64 9b3d 8aa7 efbd
00000390: 4b2b 25be b533 3a3e 3e15 683d 38cf c5bc
000003a0: d8fe 20be adf8 a13d 4904 383e dee9 073e
000003b0: 5102 0fbe 8e42 283e 93ce 39be dee9 93bd
000003c0: 08c3 c9bd cdff 043e ea41 103e 7d02 db3d
000003d0: e6fa 2abe fbb0 943d 5089 0d3e e257 0ebe
000003e0: a725 a2bd 314b 07be 2004 2f3d a4aa fe3d
000003f0: 0f57 063d c1e1 a7bd e898 c9ba c327 5bbd

bias f4 [16]
0.17113411 0.017138718 0.15329665 0.15269847 0.15443335 0.10592375 -0.16272773 -0.113037534
-0.05892755 0.06014192 -0.04080065 -0.14135364 0.1263798 -0.032040335 0.08722126 -0.06760635
00000000: c83d 2f3e 7f66 8c3c ccf9 1c3e fd5c 1c3e
00000010: c723 1e3e 8dee d83d 19a2 26be 3980 e7bd
00000020: 045e 71bd 6057 763d 951e 27bd 02bf 10be
00000030: b569 013e ba3c 03bd 0fa1 b23d 3375 8abd

weight f4 [32]
1.000847 0.9987703 1.0012453 1.0014135 0.99133456 1.0001681 0.99851876 0.9968878
0.99246484 0.9970916 1.0063734 0.9984429 0.99156415 1.0112863 0.9974667 1.0052305
1.0042068 0.99966615 1.0096169 1.0024244 1.0009784 1.0101376 1.007416 1.0067334
1.0109181 0.98903924 1.001029 0.99831605 0.98688483 0.9887409 0.98486626 0.9964432
00000000: c11b 803f 69af 7f3f ce28 803f 512e 803f
00000010: 1ac8 7d3f 8205 803f ed9e 7f3f 0a34 7f3f
00000020: 2d12 7e3f 6541 7f3f d8d0 803f f499 7f3f
00000030: 26d7 7d3f d471 813f fa59 7f3f 65ab 803f
00000040: d989 803f 1fea 7f3f 203b 813f 714f 803f
00000050: 0f20 803f 304c 813f 02f3 803f a4dc 803f
00000060: c465 813f ad31 7d3f b821 803f a491 7f3f
00000070: 7ca4 7c3f 201e 7d3f 3220 7c3f e716 7f3f

bias f4 [32]
-0.0024815686 0.0029729235 -0.0037597825 -0.004900773 0.007968955 0.0066902833 0.007907997 0.015032846
0.020049252 -0.0074127107 -0.015147909 7.3118965e-05 0.003836335 0.011352308 -0.0056854384 -0.009767513
-0.007198666 0.0019101801 -0.00065325334 0.0052989344 -0.017320026 0.014548512 -0.01600832 0.009328504
0.009018277 -0.010058741 0.0071025128 0.00057813537 -0.009524569 -0.010403346 -0.0069953967 0.00399053
00000000: d0a1 22bb 61d5 423b af66 76bb aa96 a0bb
00000010: 3890 023c 2a3a db3b 8b90 013c 534c 763c
00000020: 543e a43c 53e6 f2bb ef2e 78bc 7257 9938
00000030: 056b 7b3b 08ff 393c ea4c babb eb07 20bc
00000040: cae2 ebbb 025f fa3a 173f 2bba afa2 ad3b
00000050: bae2 8dbc e25c 6e3c e123 83bc 95d6 183c
00000060: 65c1 133c 6bcd 24bc 32bc e83b 028e 173a
00000070: f00c 1cbc cc72 2abc a439 e5bb fec2 823b

running_mean f4 [32]
0.18958567 -3.7419639 0.52310956 4.7699895 0.3974753 -1.0960274 6.1935816 2.2034807
-4.042568 4.310966 -2.9560142 1.8775448 3.829195 -2.4003675 4.3647633 -2.4470491
4.0468073 -1.5544372 4.447761 -2.7460647 -0.94194424 -0.26003113 2.3137589 -1.854949
0.45864457 0.48210287 -4.738064 5.466956 -2.2849863 2.1185658 1.6038662 -1.8404145
00000000: bf22 423e 567c 6fc0 82ea 053f c1a3 9840
00000010: e281 cb3e a04a 8cbf d231 c640 d405 0d40
00000020: b85c 81c0 6ff3 8940 562f 3dc0 6353 f03f
00000030: 8811 7540 9f9f 19c0 24ac 8b40 749c 1cc0
00000040: 727f 8140 ccf7 c6bf 0f54 8e40 86bf 2fc0
00000050: 4223 71bf cd22 85be a014 1440 f86e edbf
00000060: 76d3 ea3e 30d6 f63e 389e 97c0 4ef1 ae40
00000070: 373d 12c0 9596 0740 7d4b cd3f b492 ebbf

running_var f4 [32]
7.7363377 21.846245 21.259674 16.882122 26.5462 2.4470634 24.442467 19.868526
13.665458 14.098337 9.19109 19.325113 14.727505 2.9155912 10.665671 7.4159646
10.199189 2.7362688 16.389338 5.566988 6.439702 20.416342 20.898718 22.523815
21.009056 34.507866 17.91273 16.857458 6.406091 18.903358 5.3324695 1.8367987
00000000: 1490 f740 1cc5 ae41 d013 aa41 960e 8741
00000010: 9e5e d441 b09c 1c40 2c8a c341 bef2 9e41
00000020: b7a5 5a41 ca92 6141 b40e 1341 d599 9a41
00000030: dca3 6b41 0c99 3a40 97a6 2a41 954f ed40
00000040: e12f 2341 071f 2f40 5d1d 8341 c424 b240
00000050: 0a12 ce40 ab54 a341 9330 a741 c630 b441
00000060: 8c12 a841 0e08 0a42 454d 8f41 13dc 8641
00000070: b3fe cc40 143a 9741 97a3 aa40 381c eb3f

weight f4 [32, 18]
-0.11860084 -0.18705305 -0.0822739 6.388568e-05 -0.050611593 -0.15704764 0.20061852 0.14266731
0.22351743 -0.07860336 -0.18487637 -0.054056067 -0.20044518 0.034854464 -0.17484432 0.112382434
0.14365049 0.1143502 0.23604277 0.21861723 0.1435009 0.047509823 -0.08428027 0.017367825
0.024175473 -0.0026728662 -0.104157686 -0.0037222195 -0.159899 -0.12639819 0.21819644 -0.07531262
-0.017026583 -0.09392084 0.08175503 0.11203627 -0.111744344 0.11554251 0.13324936 0.027984448
-0.1861241 0.20272575 -0.04003437 0.20922042 -0.10712097 0.21594004 -0.23754062 -0.16945292
-0.2336154 0.06610729 0.114948496 0.23236243 0.008241173 -0.051200237 -0.2065313 0.011713083
-0.18861693 0.21580906 -0.23225778 0.05193736 0.16786227 0.23485662 0.13151 -0.13606808
0.136992 -0.11872549 0.012659921 0.07230279 0.19678217 -0.115398064 0.21366818 0.04201129
0.07369925 -0.22200346 -0.021173755 -0.08970066 0.19076706 -0.11862417 0.21998557 0.2237101
0.0523904 0.026741885 -0.10167873 0.23759788 -0.18037574 0.19835739 0.06560609 -0.09511112
-0.014553988 0.045669958 0.22293286 0.22284661 -0.088575155 -0.11142405 -0.1578476 -0.011366826
0.05434809 -0.22422718 -0.029648209 -0.055848543 0.049814183 -0.1163365 0.19304487 0.17707704
-0.11193266 -0.07234581 -0.17875956 -0.097435094 -0.12737176 0.16005945 -0.15168518 -0.06980506
0.22148234 0.08437618 0.0948288 0.0028977084 0.09255746 0.101208985 0.10920292 -0.11750457
0.03696862 -0.15961033 0.16238968 -0.078453004 -0.06791185 0.06940345 0.13081664 -0.017888319
0.09674174 -0.036031913 0.08572055 0.13621217 -2.4003804e-05 0.1985852 0.18801449 0.0024535446
-0.038638204 0.054405596 0.109878235 0.021212112 -0.23134165 -0.08748642 0.060135998 -0.1044764
0.09544489 0.10698175 0.0034937512 0.1856829 0.23978348 -0.12989482 -0.06835973 0.013388019
-0.053529453 -0.069956556 -0.15284775 -0.05997706 -0.05769656 -0.13715047 0.1299057 -0.05000903
-0.13282485 -0.14151558 -0.20422833 0.22420508 0.19995773 -0.11522372 -0.22558528 0.1846653
-0.067535035 0.030408766 -0.11680408 0.10038126 -0.13000225 -0.1916933 -0.2073358 0.0084082205
-0.14676341 -0.19872247 0.05265859 -0.06777782 0.045607876 -0.12493737 0.08126762 0.028562894
-0.2324064 0.14211473 -0.2063457 -0.1405474 -0.21503879 -0.08224472 0.053274553 -0.039551448
0.100025974 0.033797402 0.029275328 -0.03902168 -0.009990083 -0.17909198 0.019298276 0.19635263
-0.079106174 0.16250704 0.09606611 0.02165707 0.050669264 0.13001567 -0.032208074 -0.031913232
0.062285 0.06883061 0.116841964 0.03847784 -0.15472807 -0.17479423 -0.22634864 0.24068858
-0.13204446 0.2125151 0.20865624 0.086258315 0.21888384 0.14956857 0.24040686 0.17055027
-0.027753986 0.08220162 0.20398721 0.18999463 0.12029138 -0.17623231 -0.16072771 -0.047696963
0.16824532 0.21971352 0.089524165 0.090917744 0.04265509 -0.17635894 -0.017816275 -0.23806266
-0.18647848 -0.1520964 -0.016109604 0.06995711 0.108767554 0.18519358 -0.11740715 -0.061113063
0.19638991 -0.1488985 0.19597116 0.17436993 0.12690425 0.0042850114 -0.14420442 0.16725026
00000000: ffe4 f2bd d68a 3fbe 387f a8bd 5dfa 8538
00000010: 1a4e 4fbd 19d1 20be f16e 4d3e 6117 123e
00000020: c1e1 643e ccfa a0bd 3b50 3dbe e569 5dbd
00000030: 8041 4dbe 8ec3 0e3d 640a 33be c328 e63d
00000040: 1d19 133e 7030 ea3d 32b5 713e 32dd 5f3e
00000050: e6f1 123e a999 423d 229b acbd f846 8e3c
00000060: a40b c63c 412b 2fbb a050 d5bd 7bf0 73bb
00000070: 90bc 23be 876e 01be e36e 5f3e 813d 9abd
00000080: 557b 8bbc 9259 c0bd 2e6f a73d 4673 e53d
00000090: 38da e4bd 8da1 ec3d 8572 083e a43f e53c
000000a0: 5197 3ebe 5797 4f3e 14fb 23bd e13d 563e
000000b0: 3d62 dbbd 631f 5d3e d93d 73be 1185 2dbe
000000c0: e038 6fbe 4263 873d 1e6a eb3d 6bf0 6d3e
000000d0: fc05 073c 57b7 51bd f17c 53be 3be8 3f3c
000000e0: cc24 41be 0dfd 5c3e fcd4 6dbe 45bc 543d
000000f0: 16e4 2b3e 417e 703e 8faa 063e 6e55 0bbe
00000100: a147 0c3e 5a26 f3bd 8f6b 4f3c 7c13 943d
00000110: 4481 493e d255 ecbd d5cb 5a3e 0814 2c3d
00000120: a2ef 963d e054 63be 9574 adbc fbb4 b7bd
00000130: 7158 433e 3bf1 f2bd e643 613e 4314 653e
00000140: 5197 563d cc11 db3c f03c d0bd dc4c 733e
00000150: 6bb4 38be 331e 4b3e 7c5c 863d 9ec9 c2bd
00000160: da73 6ebc 6c10 3b3d 8348 643e e731 643e
00000170: e466 b5bd 4b32 e4bd cda2 21be ec3b 3abc
00000180: 1a9c 5e3d cf9b 65be cde0 f2bc 71c1 64bd
00000190: f509 4c3d d541 eebd 8ead 453e af53 353e
000001a0: f33c e5bd 0a2a 94bd bf0c 37be 0d8c c7bd
000001b0: be6d 02be a0e6 233e 5c53 1bbe f5f5 8ebd
000001c0: 44cc 623e 6bcd ac3d 9a35 c23d 7be7 3d3b
000001d0: c48e bd3d a846 cf3d c8a5 df3d 3ca6 f0bd
000001e0: 686c 173d e470 23be 7b49 263e f8ab a0bd
000001f0: 5e15 8bbd 6523 8e3d ccf4 053e 868a 92bc
00000200: 8920 c63d 3396 13bd 418e af3d 347b 0b3e
00000210: c75b c9b7 eb59 4b3e df86 403e a6cb 203b
00000220: 1843 1ebd 67d8 5e3d d707 e13d 06c5 ad3c
00000230: d3e4 6cbe 152c b3bd 2a51 763d b9f7 d5bd
00000240: 9c78 c33d 3f19 db3d 6bf7 643b a823 3e3e
00000250: cd89 753e 2603 05be 3000 8cbd 6c59 5b3c
00000260: b341 5bbd 6245 8fbd 1f84 1cbe 81aa 75bd
00000270: 3a53 6cbd 2c71 0cbe 0006 053e 45d6 4cbd
00000280: 3d03 08be 76e9 10be 3b21 51be 0496 653e
00000290: b8c1 4c3e 6afa ebbd d4ff 66be e718 3d3e
000002a0: cf4f 8abd ce1b f93c fa36 efbd b194 cd3d
000002b0: 4f1f 05be 404b 44be d64f 54be a2c2 093c
000002c0: 2649 16be e77d 4bbe 89b0 573d 19cf 8abd
000002d0: 53cf 3a3d 2adf ffbd a36f a63d bbfc e93c
000002e0: f1fb 6dbe 8686 113e 4a4c 53be a8eb 0fbe
000002f0: 2133 5cbe eb6f a8bd 6b36 5a3d b300 22bd
00000300: 6bda cc3d 256f 0a3d d0d2 ef3c 32d5 1fbd
00000310: 72ad 23bc e363 37be 6b17 9e3c aa10 493e
00000320: 6b02 a2bd 3f68 263e 4fbe c43d 2b6a b13c
00000330: 938a 4f3d d422 053e 9dec 03bd 73b7 02bd
00000340: 8e1e 7f3d 10f7 8c3d d74a ef3d f19a 1d3d
00000350: 0971 1ebe 42fd 32be f0c7 67be 1177 763e
00000360: aa36 07be 8f9d 593e fba9 553e 33a8 b03d
00000370: 1623 603e 8128 193e 372d 763e bba4 2e3e
00000380: 545c e3bc 5359 a83d 06e2 503e f48d 423e
00000390: 545b f63d 3e76 34be ce95 24be e45d 43bd
000003a0: 8048 2c3e 95fc 603e 7258 b73d 1533 ba3d
000003b0: 1bb7 2e3d 7097 34be 70f3 91bc b3c6 73be
000003c0: 37f4 3ebe 29bf 1bbe 4af8 83bc ac45 8f3d
000003d0: 86c1 de3d 63a3 3d3e 2973 f0bd b151 7abd
000003e0: 701a 493e d978 18be aaac 483e 088e 323e
000003f0: 30f3 013e 4869 8c3b 53aa 13be a743 2b3e

bias f4 [32]
0.099814184 0.065358914 -0.014997015 -0.1080204 -0.11548056 0.10585263 0.20097075 -0.21908037
-0.21343431 0.05870373 0.031761747 -0.120123215 0.22932483 0.12148978 0.17175463 -0.19915256
0.22525772 -0.013457514 0.09135955 -0.15897095 -0.129761 -0.16656104 -0.08990065 -0.1884217
-0.20810974 0.029286968 0.089239284 0.04901396 0.13342442 -0.03337781 -0.050920654 0.07891571
00000000: 616b cc3d e5da 853d 0ab6 75bc cd39 ddbd
00000010: 1281 ecbd 44c9 d83d 47cb 4d3e 9b56 60be
00000020: 868e 5abe 5373 703d 9b18 023d 2903 f6bd
00000030: 21d4 6a3e a2cf f83d 72e0 2f3e a6ee 4bbe
00000040: f6a9 663e e87c 5cbc b71a bb3d 48c9 22be
00000050: 11e0 04be fa8e 2abe d51d b8bd 9ef1 40be
00000060: b81a 55be 39eb ef3c 16c3 b63d ddc2 483d
00000070: 69a0 083e 2cb7 08bd 2d92 50bd 8f9e a13d

weight f4 [2, 32]
-0.18018068 0.072948776 -0.17753698 -0.034306355 0.013336112 -0.15518725 -0.13556248 0.1282937
-0.019244172 0.1117065 0.07007758 -0.03660287 0.1386564 0.056121297 0.14260186 0.01693119
0.035493214 0.1629308 0.17652623 -0.02723461 0.14996728 -0.03660291 0.086194746 0.00990255
0.048039824 -0.07861536 -0.1567135 -0.013840765 -0.15838693 -0.005598025 -0.06608578 -0.13645323
-0.15894458 0.017909542 -0.07270422 0.17198578 0.011833415 0.076687455 -0.046552565 -0.15554787
0.038549334 0.13059705 0.17351705 -0.0056716297 0.16840541 -0.058908086 0.050245516 -0.081425846
0.05787818 -0.083574295 -0.11715878 -0.10689657 0.1413814 0.15795292 0.16776964 0.13615856
-0.031658716 0.018351564 0.1109305 -0.15509988 -0.053627927 -0.01970337 0.14311172 -0.003922991
00000000: 4981 38be 2b66 953d 41cc 35be d284 0cbd
00000010: b57f 5a3c 68e9 1ebe e4d0 0abe 6c5f 033e
00000020: f4a5 9dbc 61c6 e43d d684 8f3d e4ec 15bd
00000030: f1fb 0d3e 72df 653d 3906 123e 47b3 8a3c
00000040: 5561 113d 55d7 263e 4bc3 343e 1e1b dfbc
00000050: 0691 193e efec 15bd df86 b03d 4e3e 223c
00000060: 68c5 443d 1701 a1bd 8179 20be 60c4 62bc
00000070: 2f30 22be a36f b7bb fb57 87bd 65ba 0bbe
00000080: 5ec2 22be 08b7 923c f3e5 94bd 0a1d 303e
00000090: f1e0 413c 500e 9d3d e7ad 3ebd f147 1fbe
000000a0: e8e5 1d3d 3cbb 053e 74ae 313e 14d9 b9bb
000000b0: 7872 2c3e 9b49 71bd 3ece 4d3d 98c2 a6bd
000000c0: ac11 6d3d 0029 abbd f1f0 efbd 97ec dabd
000000d0: 49c6 103e 69be 213e cecb 2b3e 266d 0b3e
000000e0: 92ac 01bd 0556 963c 882f e33d 81d2 1ebe
000000f0: f5a8 5bbd f668 a1bc e18b 123e 6f8c 80bb

bias f4 [2]
-0.06112419 -0.05113997
00000000: 5c5d 7abd 2578 51bd

weight f4 [32]
1.0065609 1.0062859 1.0108234 1.0051601 0.9915887 1.008651 1.0096982 0.9871344
0.99260175 0.99423665 1.0097013 1.0049683 0.99270153 0.98415905 0.998452 0.99470913
0.99787647 0.9918676 1.0027343 1.007969 1.0089138 1.0171921 1.0084885 1.0047324
1.0013462 0.99334526 0.99629843 1.0018134 1.0100291 0.9867549 1.0109644 0.99918485
00000000: fdd6 803f facd 803f a962 813f 16a9 803f
00000010: c2d8 7d3f 7a1b 813f ca3d 813f d7b4 7c3f
00000020: 261b 7e3f 4b86 7e3f e43d 813f cda2 803f
00000030: b021 7e3f d9f1 7b3f 8d9a 7f3f 42a5 7e3f
00000040: d574 7f3f 09eb 7d3f 9959 803f 2105 813f
00000050: 1624 813f 5a33 823f 2716 813f 129b 803f
00000060: 1d2c 803f e04b 7e3f 6a0d 7f3f 6c3b 803f
00000070: a248 813f f89b 7c3f 4867 813f 94ca 7f3f

bias f4 [32]
0.0050436836 0.015352385 0.00622951 0.0034283362 -0.00466301 0.0066912044 0.0044346885 -0.0033330673
-0.0007660063 -0.0005052353 -0.0025183037 0.0071235495 -0.005542141 -0.0079598185 0.004508059 -0.019780308
-0.011120261 -0.001775592 0.017343443 0.012152628 0.015580241 0.00942098 0.0070324093 0.010633619
-0.0032155856 -0.0058444683 0.0010479039 -0.0027485744 0.008659912 -0.009271904 0.015647475 -0.020167194
00000000: 7c45 a53b 9288 7b3c eb20 cc3b f0ad 603b
00000010: 2acc 98bb e441 db3b dd50 913b 976f 5abb
00000020: d0cd 48ba c471 04ba 200a 25bb aa6c e93b
00000030: d99a b5bb e669 02bc 57b8 933b 500a a2bc
00000040: c131 36bc fbba e8ba d613 8e3c d11b 473c
00000050: 4444 7f3c 745a 1a3c 2070 e63b a138 2e3c
00000060: 93bc 52bb f482 bfbb d259 893a 6d21 34bb
00000070: 4ee2 0d3c 2fe9 17bc 222f 803c ac35 a5bc

running_mean f4 [32]
0.2290953 -0.09382712 0.09077223 -0.115317754 -0.030378392 -0.051075324 0.26872742 -0.27144077
-0.17862453 0.12150433 -0.09819447 -0.1694055 0.2601431 0.12177914 0.14728649 -0.14919215
0.29323727 -0.17065182 0.020281775 0.0068756663 -0.13317478 -0.15699635 -0.016850146 -0.103864476
-0.31137925 -0.062070817 0.086280026 0.03249666 0.13935868 0.034958135 -0.04910547 0.023050254
00000000: f597 6a3e 6f28 c0bd cae6 b93d b72b ecbd
00000010: 1bdc f8bc 5c34 51bd a496 893e 49fa 8abe
00000020: 59e9 36be 43d7 f83d 2f1a c9bd a378 2dbe
00000030: 7a31 853e 5767 f93d 45d2 163e d4c5 18be
00000040: 3223 963e 5abf 2ebe f725 a63c 454d e13b
00000050: f85e 08be a7c3 20be 5109 8abc e6b6 d4bd
00000060: 1a6d 9fbe f83d 7ebd 95b3 b03d 381b 053d
00000070: 0bb4 0e3e 4330 0f3d d122 49bd e3d3 bc3c

running_var f4 [32]
0.023494693 0.025448719 0.09119283 0.0942437 0.00833001 0.037213825 0.0052789263 0.022567416
0.06792969 0.056169897 0.006340558 0.025276022 0.011299724 0.05129443 0.017452618 0.020100253
0.018909305 0.015150693 0.022731882 0.063733675 0.015073916 0.0149836335 0.010110311 0.1150301
0.014975898 0.068767615 0.05354381 0.03246406 0.10513365 0.028020596 0.043024525 0.03811264
00000000: f177 c03c d579 d03c 4ec3 ba3d d702 c13d
00000010: 987a 083c 866d 183d d8fa ac3b 4ddf b83c
00000020: b91e 8b3d 6812 663d 75c4 cf3b a90f cf3c
00000030: 7a22 393c 1c1a 523d cbf8 8e3c 49a9 a43c
00000040: b0e7 9a3c 9d3a 783c 3638 ba3c cd86 823d
00000050: 96f8 763c ea7d 753c b8a5 253c e794 eb3d
00000060: 785d 753c 09d6 8c3d c150 5b3d 09f9 043d
00000070: 5050 d73d 738b e53c 7c3a 303d 001c 1c3d

weight f4 [32, 16]
0.15345111 0.2000783 0.13301092 0.19851305 -0.06753449 -0.07930858 -0.15625358 -0.016233861
0.13489139 -0.19858374 -0.069609255 0.11500657 0.09381017 0.16936208 -0.13175195 -0.0051273964
0.18255794 0.03094236 0.05726608 0.21925731 -0.12462635 0.2458282 -0.18559615 0.09765738
-0.11589741 -0.13298795 -0.10035616 -0.051716346 -0.1879335 -0.18051104 0.056304604 0.18221405
-0.14729507 0.038908154 -0.2555001 -0.10302289 -0.21048127 -0.107048675 0.014883899 0.21575841
-0.012457904 0.08676016 0.07754153 -0.0010550739 0.20487276 -0.14497949 -0.13966389 -0.2739123
-0.050807532 -0.20299713 0.17178966 0.12746604 -0.076189965 -0.20222029 -0.01658694 0.2540673
0.15245576 -0.044196557 0.19192423 -0.07667872 0.073509574 -0.15201853 0.075827315 -0.058957897
-0.03740139 0.046933293 -0.102557875 0.0076762363 0.10171345 -0.029274032 0.1185229 -0.2561989
-0.093059726 0.030534673 -0.052682497 -0.046642043 0.045926176 0.0027079233 0.08530558 -0.19077513
0.026133552 0.053956464 -0.16849798 0.085677005 0.099062964 0.015078949 -0.21416204 -0.1299269
0.0013640362 0.24702106 -0.0822375 0.19847971 0.09543318 0.100660354 0.20790176 0.08622354
-0.24386542 0.010901392 0.05189841 0.18659738 0.22931387 -0.07393691 -0.009411014 0.2531704
0.052646916 -0.034344744 -0.0496177 -0.1025479 0.14146912 -0.21326524 -0.021008626 0.11948223
-0.08199964 0.25290358 -0.056697227 -0.2096484 0.09011706 0.03655617 -0.025647571 -0.014229282
-0.22094834 -0.08921487 -0.059412748 0.040807832 -0.20653786 0.2335376 0.11041646 0.001390979
-0.20316114 0.12383483 -0.20122798 -0.1974752 -0.06953197 -0.18377548 -0.037541706 0.2060143
-0.22067483 -0.09329342 0.038186118 -0.17834772 -0.024389789 0.12159905 -0.046207767 -0.13915297
0.04847459 0.18083593 0.21012424 0.1373737 -0.10862878 0.13358486 -0.17413972 -0.08050209
0.036051627 -0.05682223 0.2341165 -0.035906345 0.088727616 -0.009618387 0.15449312 0.017506566
-0.011988158 -0.017141428 -0.1391201 -0.13670217 0.2092804 -0.079783894 -0.11386926 -0.09715358
0.08434963 0.03233126 0.03799324 -0.16663222 0.14977299 -0.03522583 -0.089162536 -0.20214388
-0.08934751 -0.2004083 0.21667059 -0.072221346 0.01540646 0.05999602 -0.1124711 -0.08371298
0.23301457 -0.21564668 0.011076763 -0.13215163 0.22461553 -0.12441444 -0.24407208 0.14153905
-0.17809847 -0.018607927 0.103708185 0.24817121 0.19155759 0.079785995 -0.22823818 0.2384806
-0.17415039 0.07853731 0.05195504 0.02642071 0.16940221 -0.13121746 0.185757 0.16924712
-0.034493994 -0.22079474 0.07109086 0.24787618 0.16482885 0.15813114 -0.22211987 -0.23295371
0.24072969 -0.029804476 0.05768755 0.05290229 0.18716134 -0.026233025 0.058762908 0.17962144
0.170074 0.16283411 0.059225127 0.024378834 0.04312894 -0.06272836 0.038040373 -0.21465118
-0.032960795 0.0089029465 0.16109675 0.17920765 -0.14908317 0.032921426 0.01062582 -0.053192634
0.13715275 0.08860759 -0.13102499 -0.14038715 0.00026219973 -0.22972363 0.14569469 0.09614916
-0.09750816 -0.20015751 0.032011926 0.19787318 -0.1522812 0.068303496 0.06205145 -0.16726086
00000000: 4a22 1d3e 53e1 4c3e 0434 083e 0147 4b3e
00000010: 864f 8abd 896c a2bd f000 20be e0fc 84bc
00000020: f820 0a3e 8959 4bbe 4c8f 8ebd 9188 eb3d
00000030: 8c1f c03d 416d 2d3e fce9 06be b803 a8bb
00000040: 78f0 3a3e d57a fd3c d68f 6a3d fd84 603e
00000050: 1a3c ffbd 63ba 7b3e eb0c 3ebe 9800 c83d
00000060: 9f5b edbd fe2d 08be 8887 cdbd 85d4 53bd
00000070: a471 40be e3d7 38be a89f 663d 5296 3a3e
00000080: 85d4 16be 285e 1f3d e9d0 82be aafd d2bd
00000090: 6788 57be 563c dbbd 99db 733c c6ef 5c3e
000000a0: 3d1c 4cbc 50af b13d 18ce 9e3d 684a 8aba
000000b0: 2aca 513e 8175 14be 0d04 0fbe 3c3e 8cbe
000000c0: 8f1b 50bd 7bde 4fbe a1e9 2f3e 7586 023e
000000d0: 7c09 9cbd d612 4fbe 56e1 87bc 1c15 823e
000000e0: 5d1d 1c3e 7307 35bd c987 443e bc09 9dbd
000000f0: 308c 963d bfaa 1bbe 5a4b 9b3d d67d 71bd
00000100: 3332 19bd 203d 403d dd09 d2bd f088 fb3b
00000110: 244f d03d 18d0 efbc 22bc f23d 812c 83be
00000120: 1996 bebd da23 fa3c 9ac9 57bd ba0b 3fbd
00000130: 161d 3c3d 6a77 313b b1b4 ae3d 8e5a 43be
00000140: 0816 d63c 7401 5d3d bc8a 2cbe 6d77 af3d
00000150: 86e1 ca3d b20d 773c 4b4d 5bbe 8f0b 05be
00000160: 76c9 b23a 17f3 7c3e 226c a8bd 443e 4b3e
00000170: 7972 c33d 0427 ce3d 33e4 543e f895 b03d
00000180: dbb7 79be c19b 323c 6d93 543d 6213 3f3e
00000190: 41d1 6a3e 3c6c 97bd a730 1abc 8d9f 813e
000001a0: 4ba4 573d 13ad 0cbd ee3b 4bbd a204 d2bd
000001b0: 48dd 103e 3462 5abe 481a acbc 19b3 f43d
000001c0: 6def a7bd 947c 813e 5a3b 68bd 12ae 56be
000001d0: 4b8f b83d ecbb 153d db1a d2bc ef21 69bc
000001e0: 4840 62be 49b6 b6bd c85a 73bd 1d26 273d
000001f0: a97e 53be 7b24 6f3e 0622 e23d 8351 b63a
00000200: 7909 50be 1e9d fd3d b50e 4ebe f036 4abe
00000210: c766 8ebd a42f 3cbe 55c5 19bd 6af5 523e
00000220: 95f8 61be 9f10 bfbd 0c69 1c3d c9a0 36be
00000230: 18cd c7bc ec08 f93d 5b44 3dbd 1e7e 0ebe
00000240: 4b8d 463d 0e2d 393e cf2a 573e b1ab 0c3e
00000250: c478 debd 78ca 083e af51 32be 48de a4bd
00000260: dfaa 133d 6dbe 68bd 3cbc 6f3e 8812 13bd
00000270: d3b6 b53d 7096 1dbc 7233 1e3e ee69 8f3c
00000280: fb69 44bc 2e6c 8cbc 8075 0ebe a7fb 0bbe
00000290: 9a4d 563e bd65 a3bd 4934 e9bd 75f8 c6bd
000002a0: 80bf ac3d c96d 043d cd9e 1b3d a3a1 2abe
000002b0: 175e 193e f648 10bd d99a b6bd cefe 4ebe
000002c0: d4fb b6bd d537 4dbe e5de 5d3e c9e8 93bd
000002d0: 606b 7c3c 63be 753d 4057 e6bd b671 abbd
000002e0: 5f9b 6e3e 7cd2 5cbe 507b 353c c252 07be
000002f0: 9d01 663e ffcc febd 08ee 79be 9def 103e
00000300: 725f 36be a76f 98bc f564 d43d 9820 7e3e
00000310: ac27 443e d766 a33d 45b7 69be 4234 743e
00000320: 7b54 32be 2bd8 a03d cfce 543d 3f70 d83c
00000330: c677 2d3e df5d 06be 1537 3e3e 1e4f 2d3e
00000340: 9349 0dbd 0418 62be 1698 913d 41d3 7d3e
00000350: e5c8 283e 21ed 213e 6473 63be 6b8b 6ebe
00000360: d881 763e 8428 f4bc c849 6c3d 12b0 583d
00000370: 39a7 3f3e a4e6 d6bc 60b1 703d afee 373e
00000380: e127 2e3e fcbd 263e 0c96 723d 1fb6 c73c
00000390: f9a7 303d ba77 80bd 39d0 1b3d 85cd 5bbe
000003a0: e601 07bd aadd 113c 8cf6 243e 3682 373e
000003b0: 42a9 18be 9ed8 063d eb17 2e3c 85e0 59bd
000003c0: c571 0c3e e577 b53d 6a2b 06be a6c1 0fbe
000003d0: da77 8939 ac3c 6bbe fd30 153e dae9 c43d
000003e0: 5cb2 c7bd 17f6 4cbe f01e 033d 449f 4a3e
000003f0: 9aef 1bbe b4e2 8b3d a929 7e3d 6e46 2bbe

bias f4 [32]
0.2451787 0.19091232 0.032998003 0.23123828 0.22655912 -0.21281731 -0.11201481 -0.006762389
0.21326956 0.078552514 0.11224085 0.15117401 0.23762107 0.18932518 -0.020468844 0.09512987
0.05676772 0.14259286 -0.11996801 -0.18275642 0.060541525 0.21079661 0.10428335 -0.23637807
0.104309015 -0.16368926 -0.095793605 0.10836119 0.13512164 -0.06618012 -0.13457595 0.06714695
00000000: 2010 7b3e 857e 433e ea28 073d bac9 6c3e
00000010: 1dff 673e c8ec 59be 0568 e5bd 0897 ddbb
00000020: 5663 5a3e 24e0 a03d 88de e53d 5ccd 1a3e
00000030: f052 733e 76de 413e 47ae a7bc 73d3 c23d
00000040: 4585 683d dd03 123e cab1 f5bd 8024 3bbe
00000050: 64fa 773d 11db 573e 8292 d53d 180d 72be
00000060: f79f d53d 289e 27be 702f c4bd 79ec dd3d
00000070: 545d 0a3e 7189 87bd 47ce 09be 5784 893d

weight f4 [2, 32]
-0.045587603 -0.024791375 -0.062832184 0.06541575 -0.11308813 -0.1471496 0.13034746 0.10399393
-0.15624464 0.11462039 -0.002393156 -0.18084638 0.08815372 0.083800055 -0.16912864 -0.15061824
0.07324945 -0.14787526 0.097493954 -0.03921301 -0.09615914 0.121394336 -0.14937072 0.021345474
0.019246072 -0.015876412 0.010561774 -0.14157394 -0.035993643 -0.08236022 0.079824716 -0.124910265
0.05415585 0.1784102 0.09571249 -0.012431581 0.05922647 -0.103343025 0.040818803 0.043562587
-0.15995555 -0.16929533 0.006950443 -0.09046708 -0.10093457 -0.0010668827 -0.15320727 -0.031940807
0.088729404 0.08537907 0.06613036 0.11249516 -0.00036435985 0.0014816243 0.13585256 -0.032224543
-0.016875649 0.009553648 -0.02135652 0.024204904 0.027466439 0.13743292 0.052199453 0.06435061
00000000: 11ba 3abd 4817 cbbc 29ae 80bd b1f8 853d
00000010: c09a e7bd 62ae 16be ce79 053e c5fa d43d
00000020: 98fe 1fbe 18be ea3d 7fd6 1cbb cb2f 39be
00000030: f089 b43d 5d9f ab3d 0f30 2dbe ab3b 1abe
00000040: cf03 963d 9d6c 17be e9aa c73d d29d 20bd
00000050: 15ef c4bd 989d f83d a3f4 18be b4dc ae3c
00000060: f0a9 9d3c 400f 82bc 4a0b 2d3c c2f8 10be
00000070: 126e 13bd 7aac a8bd 247b a33d f4d0 ffbd
00000080: 86d2 5d3d 2ab1 363e e904 c43d d4ad 4bbc
00000090: 7497 723d 82a5 d3bd 9e31 273d af6e 323d
000000a0: 63cb 23be c15b 2dbe 8bc0 e33b ce46 b9bd
000000b0: c9b6 cebd a5d6 8bba 5ee2 1cbe 5dd4 02bd
000000c0: c3b7 b53d 39db ae3d 5b6f 873d dd63 e63d
000000d0: 8d07 bfb9 1033 c23a ef1c 0b3e e2fd 03bd
000000e0: cd3e 8abc e786 1c3c def3 aebc 5d49 c63c
000000f0: 4c01 e13c 37bb 0c3e 18cf 553d 41ca 833d

bias f4 [2]
0.068673894 0.002162522
00000000: e6a4 8c3d 19b9 0d3b

weight f4 [32]
0.9912957 1.0062273 1.0044198 1.0039933 1.0156559 0.99967325 1.0001663 0.98935694
1.004442 0.9958831 0.9885344 1.0090388 0.98388624 0.9871241 1.0083177 0.99876
0.99642247 1.0084811 0.99180174 0.9833029 1.0143527 0.9962946 0.9919486 1.0021732
0.99423856 0.99482054 1.0051602 1.0142295 0.98883754 1.0062032 0.9890084 1.0146697
00000000: 8ec5 7d3f 0ecc 803f d490 803f da82 803f
00000010: 0301 823f 96ea 7f3f 7305 803f 7f46 7d3f
00000020: 8e91 803f 32f2 7e3f 9710 7d3f 2f28 813f
00000030: f8df 7b3f 2ab4 7c3f 8e10 813f bcae 7f3f
00000040: 8b15 7f3f e915 813f b8e6 7d3f bdb9 7b3f
00000050: 4fd6 813f 2a0d 7f3f 58f0 7d3f 3647 803f
00000060: 6b86 7e3f 8fac 7e3f 17a9 803f 46d2 813f
00000070: 7524 7d3f 44cb 803f a82f 7d3f b2e0 813f

bias f4 [32]
-0.018346766 0.0011050047 0.0045275073 -0.0002150591 0.010187677 0.006996096 -0.0032701937 0.0012701219
0.006129561 -0.00014940626 -0.006286484 0.01151224 -0.0071437643 -0.018826704 0.010190405 -0.001839509
-0.0029259797 0.0069607696 -0.0007603951 -0.021789044 0.014394691 -0.006175178 -0.0024472123 0.0031184724
0.0016071553 -0.0035450174 0.0021953846 0.012815344 -0.012878044 0.022535393 -0.007503412 0.00667335
00000000: f54b 96bc ced5 903a 7c5b 943b 7d81 61b9
00000010: 37ea 263c 823f e53b bf50 56bb 387a a63a
00000020: 7cda c83b f0a9 1cb9 dafe cdbb d69d 3c3c
00000030: 3d16 eabb 763a 9abc a8f5 263c ae1b f1ba
00000040: cbc1 3fbb 2b17 e43b 4055 47ba f07e b2bc
00000050: b6d7 6b3c 2659 cabb 6961 20bb 495f 4c3b
00000060: 2fa7 d23a 8653 68bb 71e0 0f3b 73f7 513c
00000070: 6efe 52bc 259c b83c 2fdf f5bb 1eac da3b

running_mean f4 [32]
0.3960639 0.54622215 -0.22398868 0.19234842 0.12516068 -0.10527489 -0.14720903 0.020969288
0.01891713 0.34068638 -0.0095739225 0.22125782 0.3913253 0.3719623 -0.025896586 -0.098076195
0.13621353 0.18217628 -0.1154672 -0.23027268 0.0592091 0.25099617 0.024813725 -0.26129654
0.31295538 -0.32374087 -0.13536789 0.13997634 0.06654365 -0.06973292 -0.14556538 0.055784985
00000000: e3c8 ca3e 37d5 0b3f 4a5d 65be fcf6 443e
00000010: 1f2a 003e 5d9a d7bd f7bd 16be c9c7 ab3c
00000020: 19f8 9a3c 726e ae3e f1db 1cbc 6991 623e
00000030: ca5b c83e d871 be3e 1425 d4bc 2cdc c8bd
00000040: 8f7b 0b3e 6b8c 3a3e 117a ecbd 9acc 6bbe
00000050: 3e85 723d 9282 803e 2746 cb3c a9c8 85be
00000060: b03b a03e 5dc1 a5be e19d 0abe f555 0f3e
00000070: 0a48 883d 22d0 8ebd 170f 15be cc7e 643d

running_var f4 [32]
0.032558035 0.030689115 0.113707244 0.012043574 0.016096458 0.020822925 0.0075896997 0.030926274
0.03982543 0.039344266 0.08655653 0.07411701 0.006866896 0.04605143 0.040606715 0.057169605
0.05338236 0.03402998 0.028743174 0.012121946 0.029394697 0.032461718 0.029536813 0.011079239
0.043677945 0.009088976 0.0101416 0.040469766 0.04046807 0.015079636 0.0037433347 0.05016738
00000000: 935b 053d bd67 fb3c 58df e83d 6952 453c
00000010: b8dc 833c d794 aa3c 04b3 f83b 1959 fd3c
00000020: fd1f 233d 7427 213d 8d44 b13d a9ca 973d
00000030: b303 e13b 6da0 3c3d 3a53 263d ad2a 6a3d
00000040: 76a7 5a3d 0563 0b3d ce76 eb3c 209b 463c
00000050: 26cd f03c 94f6 043d 30f7 f13c b285 353c
00000060: a5e7 323d eee9 143c f428 263c a0c3 253d
00000070: d9c1 253d 9410 773c bc52 753b 507c 4d3d
