code/model_obj_backups/model_obj_36.pt (torch, 538274 bytes, 158 tensors)

weight f4 [32, 2]
0	0x3f16a4fe	0.5884551
1	0xbf20a894	-0.6275723
2	0x3debcdc8	0.11513859
3	0x3e39dbc7	0.18150245
4	0xbecca079	-0.3996618
5	0x3e3a7e8e	0.1821234
6	0x3cfd00b4	0.030884124
7	0x3f09e666	0.53867185
8	0x3e9e31ac	0.30897272
9	0xbea05835	-0.31317297
10	0xbf30b35d	-0.69023687
11	0x3c24e8ea	0.010065297
12	0x3f0ffbdb	0.56243676
13	0x39d28acc	0.00040157733
14	0x3ef41678	0.47673392
15	0x3ec9ad65	0.39390102
16	0x3ce4c641	0.027926566
17	0x3f1ecbfa	0.62029994
18	0x3de40c1e	0.11135124
19	0xbe45c89b	-0.19314806
20	0x3f128dab	0.5724742
21	0x3e708900	0.23489761
22	0x3d8532d6	0.06503837
23	0xbf2dc05e	-0.67871654
24	0xbd61084f	-0.054939564
25	0xbf03ceb3	-0.5148727
26	0x3f22975c	0.63512206
27	0xbec8a65f	-0.3918943
28	0xbf065bbc	-0.52483726
29	0xbdc42bf9	-0.095786996
30	0xbf0612a6	-0.52372205
31	0x3e3ffb0d	0.18748112
32	0xbf332b88	-0.699883
33	0x3ef33e01	0.47508243
34	0x3f28adee	0.65890396
35	0xbed429dd	-0.4143819
36	0xbf0e3b10	-0.5555887
37	0xbe02ee1d	-0.12786146
38	0x3dd672e9	0.10471136
39	0xbec62b04	-0.38704693
40	0xbec71835	-0.38885656
41	0xbde1f88c	-0.11033735
42	0x3e4d90d3	0.20074777
43	0xbf20abc5	-0.627621
44	0x3ee040ff	0.43799588
45	0x3ea084c2	0.31351286
46	0xbef1320b	-0.47108492
47	0xbe4f87aa	-0.20266595
48	0xbf2d065b	-0.6758782
49	0x3de722b3	0.11285915
50	0x3e617c89	0.22020163
51	0xbec1cbe1	-0.3785086
52	0x3e8fdee0	0.28099728
53	0xbd4d0f17	-0.05006322
54	0xbf1c8ebc	-0.61155295
55	0x3f1020bb	0.5629994
56	0x3cb7fd7f	0.022459744
57	0x3ea268d3	0.317206
58	0x3f2f54d0	0.6848879
59	0xbf0af2c8	-0.54276705
60	0x3ef3b573	0.47599372
61	0x3edee197	0.43531486
62	0x3ec06ff9	0.37585428
63	0xbd1aff96	-0.037841402

bias f4 [32]
0	0xbe8573ed	-0.26065007
1	0x3f10ac5b	0.56512994
2	0xbf1f4670	-0.62216854
3	0xbd6e4f4c	-0.058181092
4	0x3d3681a6	0.044557236
5	0x3eb727eb	0.35772642
6	0x3e69ba8a	0.22825065
7	0x3e03c514	0.12868148
8	0xbf1a914c	-0.60377955
9	0xbdcfafd3	-0.10140958
10	0xbf0aa3d1	-0.54156214
11	0xbf1969be	-0.59926975
12	0xbd514b7b	-0.051097374
13	0x3f092fcf	0.53588575
14	0xbe25acd6	-0.16179213
15	0x3f009088	0.5022054
16	0x3ef20a5f	0.47273538
17	0xbe1075c5	-0.14107426
18	0x3f032cfa	0.51240504
19	0x3df83aba	0.12120576
20	0xbde05141	-0.10952998
21	0xbe80f756	-0.25188702
22	0x3deb343a	0.11484571
23	0x3f013a0d	0.50479203
24	0xbe855709	-0.26042965
25	0x3e8c8e0b	0.2745212
26	0x3f1ed5f9	0.62045246
27	0xbca80cd9	-0.020513939
28	0xbf1cd596	-0.61263406
29	0xbd840700	-0.06446648
30	0xbe9ae24e	-0.30250782
31	0x3eff5d72	0.4987598

weight f4 [16, 32]
0	0x3db5dad2	0.08879627
1	0x3e302d25	0.17204721
2	0xbe270c55	-0.16313298
3	0x3e26e6c9	0.16298975
4	0xbe0ce987	-0.13760959
5	0x3d62554a	0.05525712
6	0xbc1e6778	-0.009668224
7	0xbd46c73b	-0.048529845
8	0x3b2e9832	0.0026641008
9	0x3b32f93e	0.0027309204
10	0x3e2467d1	0.16055228
11	0x3cf56e3f	0.029959796
12	0x3a7e3aa0	0.0009698067
13	0xbde2110f	-0.1103841
14	0xbe165d72	-0.14684084
15	0xbe1f44cd	-0.15553589
16	0x3bb765c2	0.0055968473
17	0xbda04957	-0.078264885
18	0xbd1d58f8	-0.038414925
19	0xbd087fa0	-0.033324838
20	0xbc74cae6	-0.014940953
21	0xbded15f5	-0.115764536
22	0xbdcd767b	-0.10032364
23	0x3d355241	0.044267897
24	0xbdccd6bf	-0.10001897
25	0xbd9817c6	-0.074264094
26	0xbe267395	-0.16255029
27	0x3afa47f3	0.0019094929
28	0x3d0d7852	0.034538575
29	0xbc4f6202	-0.012657644
30	0xbe06ef79	-0.13177289
31	0xbe32bea3	-0.17455535
32	0x3e03da75	0.12876303
33	0x3de1ee4d	0.110317804
34	0xbdc07d4f	-0.09398901
35	0xbca144a6	-0.019686054
36	0x3d097248	0.033556253
37	0xbe15ed5a	-0.14641324
38	0xbd0cb90c	-0.034356162
39	0xbde5d70e	-0.11222659
40	0x3db94462	0.09046246
41	0xbd7a9526	-0.061177395
42	0x3e33c6ce	0.17556307
43	0x3dbe3544	0.09287503
44	0x3e2a32ab	0.16620891
45	0x3bb8dd64	0.005641626
46	0xbe0ec629	-0.1394278
47	0xbcd305a0	-0.025759518
48	0x3b887084	0.0041638035
49	0x3db69016	0.08914201
50	0x3e1d9706	0.15389642
51	0xbd77541a	-0.06038294
52	0x3e059b17	0.13047443
53	0xbe1c6397	-0.15272366
54	0xbd9c9eaa	-0.0764745
55	0xbc152b10	-0.009104505
56	0x3e12ffef	0.14355443
57	0x3e125300	0.14289474
58	0x3d9221b2	0.07135333
59	0x3dd8b8b6	0.10582106
60	0xbd37e3e8	-0.044895083
61	0xbe3039b1	-0.17209508
62	0xbe32d48f	-0.17463897
63	0x3e0bae63	0.13640742
64	0xbd3bc080	-0.04583788
65	0xbd00d013	-0.031448435
66	0x3cfc25c6	0.03077973
67	0x3c94857a	0.018130053
68	0xbd50d3c9	-0.050983224
69	0x3c2a20b0	0.01038377
70	0xbde3f3d4	-0.11130491
71	0x3b612c4b	0.0034358676
72	0x3e08015d	0.1328177
73	0xbd4d214e	-0.05008059
74	0xbde894c3	-0.11356499
75	0xbdbc9037	-0.09207194
76	0x3dd6441b	0.10462209
77	0xbe0c593c	-0.13705915
78	0x3d7b8a24	0.061411038
79	0x3d5f8cce	0.05457764
80	0xbe302daa	-0.1720492
81	0xbd719123	-0.058976304
82	0x3d732088	0.059357196
83	0xbd4ac676	-0.049505673
84	0xbd171532	-0.036885448
85	0x3bff99e6	0.0078003285
86	0x3d003c30	0.0313074
87	0x3dcfc6f1	0.10145367
88	0xbe2b71f6	-0.16742691
89	0x3d3ea08f	0.04653984
90	0xbd806d3e	-0.06270836
91	0xbe1d40fc	-0.15356821
92	0x3d98357b	0.074320756
93	0xbd5e30f4	-0.054245904
94	0xbd980fc1	-0.0742488
95	0x3dea4982	0.11439802
96	0xbd6f4eeb	-0.05842487
97	0x3e4a1555	0.197347
98	0xbe0a9310	-0.13532662
99	0xbd0c14d7	-0.034199562
100	0x3cf93953	0.030422842
101	0xbba49762	-0.005022929
102	0x3d74dd7a	0.05978153
103	0x3e2cd12d	0.16876669
104	0xbe208033	-0.15673904
105	0x3d772d09	0.060345683
106	0x3e08eb8d	0.13371105
107	0xbd1d5c04	-0.03841783
108	0xbceed8b4	-0.029156066
109	0x3df2fa6f	0.11864173
110	0xbc9d52f5	-0.019204596
111	0x3e122e29	0.14275421
112	0x3e10164f	0.1407101
113	0x3d89c392	0.06726755
114	0xbdb50ec6	-0.088407084
115	0xbde537a4	-0.11192253
116	0xbdee5ab4	-0.11638394
117	0xbdde0d8a	-0.10842426
118	0x3cc3f878	0.02392219
119	0xbe2b6480	-0.16737556
120	0xbe1055d9	-0.14095248
121	0x3d47bd1c	0.048764333
122	0xbdbdd24b	-0.09268626
123	0x3d28b9b1	0.041192714
124	0xbd69c1c5	-0.05706956
125	0x3e2ec137	0.17065893
126	0x3c0883f7	0.008332244
127	0x3bf4332c	0.007452389
128	0x3d7a403e	0.061096422
129	0x3e0f9e79	0.14025296
130	0x3d59963f	0.0531218
131	0x3dd50dc9	0.1040302
132	0xbe45fd95	-0.19335015
133	0xbd33fdb9	-0.04394314
134	0x3cef2f0f	0.029197244
135	0x3c3e211c	0.011604574
136	0x3dceedd2	0.101039544
137	0x3d972e49	0.07381875
138	0xbda3a214	-0.07989898
139	0xbae59d78	-0.0017518243
140	0xbe356458	-0.1771406
141	0x3db42337	0.08795779
142	0xbdb69092	-0.08914293
143	0x3c625074	0.013813127
144	0x3d19f668	0.037588507
145	0xbdcfccf0	-0.101465106
146	0xbdcfcc11	-0.101463445
147	0x3dda2b8a	0.10652836
148	0xbc286224	-0.010277305
149	0x3caa21fc	0.020768158
150	0xbe0f43a8	-0.13990653
151	0x3d8d7964	0.06907919
152	0xbdba1555	-0.090861
153	0x3da74af6	0.081685945
154	0xbde10088	-0.109864295
155	0x3dfc8b2d	0.12331233
156	0x3e394670	0.18093276
157	0x3e1ce0b4	0.15320092
158	0x3e0123fb	0.12611382
159	0xbe389a02	-0.180275
160	0x3daf7662	0.085675016
161	0x3e1da36d	0.15394373
162	0x3e10d607	0.14144145
163	0xbe4134d0	-0.18867803
164	0xbcb0a788	-0.02156426
165	0xbde1e8f9	-0.11030764
166	0xbcc3e092	-0.023910794
167	0x3e1b9ece	0.15197298
168	0xbe18bfdb	-0.14916937
169	0xbe0d0705	-0.13772209
170	0xbd88a875	-0.06672756
171	0xbca9022e	-0.020630922
172	0x3e4a0f38	0.19732368
173	0x3ccbc55c	0.024874382
174	0xbd7dae73	-0.061933946
175	0x3cca3be2	0.024686757
176	0xbe2b8d01	-0.16753007
177	0xbe09cd99	-0.13457336
178	0x3d97b4c3	0.074075244
179	0xbd94e1d4	-0.07269636
180	0x3e315f7e	0.17321584
181	0x3e292bb5	0.16520579
182	0xbce84c7d	-0.028356785
183	0xbda924e0	-0.082589865
184	0x3e3080ed	0.17236681
185	0x3e10b20d	0.14130421
186	0x3d48815d	0.048951495
187	0xbe353c8d	-0.1769888
188	0xbdf6e407	-0.120552115
189	0x3e150927	0.14554273
190	0x3dd56bbb	0.104209386
191	0xbdcf6a70	-0.10127723
192	0xbe319d8e	-0.17345259
193	0x3d7bd9e0	0.06148708
194	0xbdfb9b1e	-0.12285446
195	0xbe1df3f6	-0.15425095
196	0x3d406c72	0.04697842
197	0x3d2b770b	0.041861575
198	0x3db64f06	0.08901791
199	0x3ce2ca73	0.027684426
200	0xbe18db10	-0.14927316
201	0xbafc334a	-0.001924136
202	0x3e1ac017	0.15112339
203	0xbd30b459	-0.043140743
204	0x3e2f59a3	0.17124037
205	0xbd5da638	-0.054113597
206	0x3ddf3e65	0.10900573
207	0xbe0d1587	-0.13777743
208	0xbe0bdb1b	-0.13657801
209	0x3d9d3351	0.076758035
210	0x3e0a4eed	0.1350667
211	0xbd10b514	-0.03532894
212	0x3df501e3	0.119632505
213	0x3d87f43c	0.06638381
214	0x3e1af3ce	0.15132067
215	0xbe121ca6	-0.14268741
216	0x3de0456c	0.10950741
217	0xbd99a0ba	-0.07501359
218	0x3dfce142	0.12347652
219	0xbd05d397	-0.03267249
220	0x3e158042	0.14599708
221	0xbe06f38f	-0.13178848
222	0xbb93bce8	-0.0045086034
223	0x3e22c7a9	0.15896477
224	0x3d75d48f	0.060017165
225	0x3b92f2d7	0.004484515
226	0x3d127a2c	0.035761043
227	0x3da602c6	0.08105998
228	0xbdd0a3ea	-0.10187514
229	0x3e0f0a17	0.13968693
230	0x3d3ca9a2	0.046060212
231	0x3dbf756b	0.093485676
232	0xbbe2b277	-0.0069182473
233	0x3e24b42a	0.16084352
234	0xbe05b3dd	-0.13056894
235	0x3da9842d	0.08277164
236	0xbcab4b95	-0.020910064
237	0xbe15faa4	-0.14646393
238	0x3c5d531a	0.0135085825
239	0xbd0f5529	-0.034993324
240	0xbe2eaaf5	-0.17057402
241	0x3c6ba9df	0.014383762
242	0xbd213e3e	-0.039366
243	0xbde2ecda	-0.11080332
244	0x3c6b5f57	0.0143659925
245	0x3c2ea5e0	0.010659665
246	0x3e0eddc8	0.1395179
247	0xbdfb64dd	-0.122750975
248	0xbdd6c4bc	-0.10486743
249	0x3e159339	0.14606942
250	0x3e1300aa	0.14355722
251	0xbd6f75e1	-0.058462027
252	0xbcf7a95b	-0.030232122
253	0xbe0daea5	-0.13836153
254	0x3b3211c8	0.0027171243
255	0xbd4f222c	-0.0505697

bias f4 [16]
0	0x3e0d1625	0.13777979
1	0xbdc5994d	-0.096483804
2	0x3da73787	0.08164888
3	0xbd261aff	-0.04055309
4	0xbcb27469	-0.021784024
5	0xbdb93672	-0.09043588
6	0xbd35fd8f	-0.044431265
7	0x3cec440a	0.028841037
8	0xbe35157e	-0.1768398
9	0x3e2d735a	0.16938534
10	0xbda51d3e	-0.08062218
11	0x3d0ac405	0.033878345
12	0xbe090340	-0.13380146
13	0x3dc6690e	0.09688006
14	0x3e33e047	0.17566024
15	0x3db83733	0.089949034

weight f4 [32]
0	0x3f7db284	0.9910052
1	0x3f829bc8	1.0203791
2	0x3f822cff	1.0169982
3	0x3f7faf30	0.9987669
4	0x3f81dd96	1.0145748
5	0x3f7a17cc	0.9769256
6	0x3f7e5022	0.9934102
7	0x3f7de97c	0.99184394
8	0x3f7d9183	0.9905016
9	0x3f81235c	1.0088916
10	0x3f8125ad	1.0089623
11	0x3f7cf043	0.9880411
12	0x3f81bc20	1.0135536
13	0x3f812bf0	1.0091534
14	0x3f7d17de	0.98864543
15	0x3f7e0abc	0.9923513
16	0x3f845f6d	1.0341622
17	0x3f833cfa	1.0252984
18	0x3f80674e	1.0031526
19	0x3f7f1f23	0.99656886
20	0x3f803c09	1.0018321
21	0x3f77c4cd	0.9678467
22	0x3f7e55cd	0.9934967
23	0x3f7cb17a	0.9870831
24	0x3f8207b8	1.0158606
25	0x3f80c40d	1.005983
26	0x3f804a44	1.0022664
27	0x3f819e1c	1.0126376
28	0x3f7cec0d	0.98797685
29	0x3f78f220	0.97244453
30	0x3f8082b5	1.0039889
31	0x3f7fece6	0.99970853

bias f4 [32]
0	0xbd67f7e1	-0.05663288
1	0xbd2ca5be	-0.04215025
2	0x3cdf0079	0.027221905
3	0xbad2e39a	-0.0016089559
4	0x3c0ced8a	0.008601556
5	0xbd32ac33	-0.043621253
6	0xbd20e03e	-0.039276354
7	0xbc35ba8d	-0.01109184
8	0xbd0cffc5	-0.03442361
9	0xbc8e3798	-0.017360494
10	0x3caa97aa	0.020824272
11	0xbb96608c	-0.004589146
12	0x3c4cf7be	0.012510238
13	0xbd63b65f	-0.055593845
14	0x3bfa5cbe	0.0076404503
15	0x3c967a76	0.01836894
16	0x3d4c6a6c	0.04990618
17	0x3c1f1f56	0.009712061
18	0xbcdd4ed0	-0.02701512
19	0xbc9e7813	-0.019344365
20	0x3cb44264	0.022004314
21	0xbd2ee15f	-0.0426954
22	0xbd4a4417	-0.04938134
23	0xbcb722b9	-0.022355424
24	0x3cf797a8	0.030223683
25	0x3a9fe085	0.0012197649
26	0x3ca9e18c	0.020737432
27	0x3c511b3e	0.012762843
28	0xbb93a44c	-0.0045056697
29	0xbc41652a	-0.011803905
30	0x3d04a771	0.032386247
31	0xbcba7be1	-0.022764148

running_mean f4 [32]
0	0xbebdc843	-0.3706685
1	0x3f277800	0.6541748
2	0xbf22e244	-0.63626504
3	0x3e1302e5	0.14356573
4	0xbbea2552	-0.007145562
5	0x3e64210f	0.22278236
6	0x3eaecbff	0.34140012
7	0x3ebc0fd8	0.36730838
8	0xbebf01c1	-0.37306026
9	0xbe18c7d7	-0.14919983
10	0xbeaec944	-0.34137928
11	0xbf55235a	-0.8325707
12	0xbe7ebdf9	-0.24877156
13	0x3f057095	0.5212491
14	0xbe9a91f6	-0.30189484
15	0x3eee3254	0.46522772
16	0x3f012bb5	0.50457317
17	0xbe231d5f	-0.15929173
18	0x3eb56efa	0.3543623
19	0x3aeedf46	0.00182245
20	0xbe691c89	-0.22764792
21	0xbee0ecb8	-0.43930602
22	0x3ea20fe8	0.3165276
23	0x3eac581c	0.33660972
24	0xbeb5e3a4	-0.3552524
25	0x3e3939e4	0.1808849
26	0x3f28a53d	0.65877134
27	0x3d7a52b8	0.061114043
28	0xbefc6dfe	-0.49302667
29	0xbdfd38f8	-0.123643816
30	0xbd48969b	-0.048971754
31	0x3f0f81ce	0.5605744

running_var f4 [32]
0	0x3e614f24	0.22002846
1	0x3be730e6	0.0070553897
2	0x3d552b8c	0.052043483
3	0x3d8431ea	0.06454833
4	0x3d6b56c8	0.057455808
5	0x3dcc2b7a	0.0996923
6	0x3d85df2e	0.06536709
7	0x3d5ae38b	0.053439658
8	0x3db05804	0.08610538
9	0x3c6e17f0	0.014532074
10	0x3d73b190	0.05949551
11	0x3de93240	0.113865376
12	0x3d6a89c3	0.057260286
13	0x3e217807	0.15768443
14	0x3d51f271	0.0512566
15	0x3da422e8	0.0801447
16	0x3e5227a1	0.2052293
17	0x3e301a21	0.17197467
18	0x3d675d13	0.056485247
19	0x3d30897c	0.043099865
20	0x3ce00e43	0.02735055
21	0x3df32427	0.1187213
22	0x3d276ac0	0.04087329
23	0x3d25b1cc	0.040452763
24	0x3ddff28d	0.10934935
25	0x3d659fb2	0.0560605
26	0x3c9c7d6e	0.019102778
27	0x3e510775	0.20413001
28	0x3cb55850	0.022136837
29	0x3e6448a9	0.22293343
30	0x3d6e3a49	0.058161054
31	0x3d02359b	0.031789403

weight f4 [32, 3]
0	0x3e8f31dd	0.2796773
1	0xbe45c835	-0.19314654
2	0xbe3a896d	-0.18216486
3	0xbd435c8d	-0.047695685
4	0x3cea4852	0.028598938
5	0xbf10f951	-0.56630427
6	0x3e23eab4	0.16007501
7	0xbeb64db4	-0.35606158
8	0xbe9864ec	-0.29764497
9	0x3f04d799	0.51891476
10	0xbefae9f3	-0.49006614
11	0x3ee8cab6	0.45467156
12	0x3d1ab300	0.037768364
13	0xbedf039f	-0.4355745
14	0xbe92bf48	-0.2866156
15	0x3d24bd4e	0.040219598
16	0x3d0fca5f	0.035105105
17	0xbe631985	-0.22177704
18	0xbe3f2cd3	-0.18669443
19	0xbf14c38e	-0.5811089
20	0x3f0e5680	0.5560074
21	0xbf1b6fa9	-0.60717255
22	0xbeed2c89	-0.4632304
23	0xbe07ba9b	-0.13254778
24	0x3eb12469	0.3459809
25	0x3f012cdb	0.5045907
26	0xbe3b2ac2	-0.1827803
27	0x3ecee076	0.40405625
28	0xbe90d03c	-0.2828387
29	0x3f020794	0.50792813
30	0xbe5f3047	-0.2179576
31	0x3ec19400	0.37808228
32	0xbd587c67	-0.052853014
33	0xbf0cf7e6	-0.55065763
34	0x3de83750	0.11338675
35	0x3ef24c6f	0.4732394
36	0xbdfdf321	-0.12399889
37	0xbe6b496f	-0.22977231
38	0x3f08b24c	0.5339706
39	0xbe37da85	-0.17954452
40	0x3e561fd7	0.20910583
41	0xbe2fd141	-0.17169668
42	0xbf170438	-0.5899081
43	0xbe9dbe3e	-0.30809206
44	0x3ecbb0c9	0.39783314
45	0xbea455e3	-0.32096776
46	0x3ec40468	0.38284612
47	0xbe19e113	-0.15027265
48	0xbdd0d73d	-0.101973034
49	0xbead5cf6	-0.33859986
50	0x3ec8bc02	0.3920594
51	0x3f12da7d	0.57364637
52	0x3d9fb98d	0.07799063
53	0xbe5a5175	-0.21320136
54	0x3e8fbb7b	0.28072724
55	0xbe9922bf	-0.29909322
56	0x3f0e03d0	0.5547457
57	0xbddf4870	-0.10902488
58	0x3e89120f	0.2677159
59	0xbe8b9a52	-0.27266175
60	0x3edd5749	0.43230656
61	0xbdef6c84	-0.116906196
62	0xbe710083	-0.23535351
63	0x3eab90f3	0.33509025
64	0xbe9e1128	-0.30872464
65	0xbeaa85ad	-0.33305112
66	0x3e9b32b6	0.30312127
67	0xbf03e9ab	-0.51528424
68	0xbdbc8d66	-0.09206657
69	0xbf046d8f	-0.51729673
70	0x3ecf089c	0.40436256
71	0x3e721483	0.23640637
72	0x3ca2dca9	0.01988061
73	0x3e811e18	0.25218272
74	0x3ec6e530	0.3884673
75	0xbe8836fc	-0.2660445
76	0xbedc16f4	-0.42986262
77	0xbecebb4f	-0.4037728
78	0xbf315eba	-0.69285166
79	0x3e5ee11e	0.21765563
80	0xbf0b602b	-0.54443616
81	0xbe90517b	-0.28187165
82	0xbf116d92	-0.56807816
83	0x3ea21c89	0.31662396
84	0x3ebda673	0.37041053
85	0x3eae23f5	0.34011808
86	0xbcd8eb2d	-0.026479328
87	0x3e00da3c	0.1258325
88	0xbef544f3	-0.47904167
89	0xbdba5e97	-0.09100073
90	0x3e53b11e	0.20673034
91	0xbe946bf3	-0.2898861
92	0x3d35f8e8	0.04442683
93	0xbed16d43	-0.40903673
94	0x3e1f1f11	0.15539195
95	0xbe1e500a	-0.1546022

bias f4 [32]
0	0xbf046436	-0.5171541
1	0xbf0fba07	-0.5614323
2	0x3eb49758	0.35271716
3	0xbeea5a31	-0.45771936
4	0x3e6ac482	0.22926524
5	0x3e952bea	0.29135066
6	0xbdd0d324	-0.10196522
7	0x3e5b2bd0	0.21403432
8	0xbe50ee6c	-0.2040345
9	0xbd1a49a0	-0.03766787
10	0xbf0b1063	-0.5432188
11	0x3d84766d	0.064679004
12	0xbebe2de8	-0.371444
13	0xbe973218	-0.29530406
14	0x3eee8a56	0.46589917
15	0x3f055fd3	0.5209934
16	0x3c2979d4	0.0103439875
17	0x3cbd7b66	0.02313013
18	0xbe833dcf	-0.25633094
19	0x3e7e00dd	0.24805017
20	0xbe8da409	-0.2766421
21	0xbe006394	-0.12537986
22	0x3e5ac6be	0.21364877
23	0xbe4bb545	-0.19893368
24	0xbef99ffe	-0.48754877
25	0x3db1f13f	0.08688592
26	0xbf0dc2c8	-0.5537534
27	0x3f0a2df3	0.5397636
28	0xbe7055ea	-0.23470274
29	0xbdcd9b7e	-0.100394234
30	0xbe83469d	-0.2563981
31	0xbdfe4bf5	-0.124168314

weight f4 [16, 32]
0	0xbdd66ddd	-0.104701735
1	0xbd2570e4	-0.040390864
2	0x3dc5dd3a	0.09661336
3	0x3e03f07d	0.12884708
4	0x3d86c17d	0.06579874
5	0x3dd3e1e9	0.10345823
6	0x3c37f5f2	0.0112280715
7	0x3b02b87c	0.0019946387
8	0xbdcbfc89	-0.09960277
9	0x3d9d2630	0.07673299
10	0xbe2e2c02	-0.17008975
11	0xbd9c2042	-0.0762334
12	0xbd3e0b31	-0.04639739
13	0x3b708b0b	0.003670397
14	0x3d2c7b5f	0.042109843
15	0xbc64dd02	-0.013968708
16	0x3cb1f043	0.021721011
17	0xbbf4f65a	-0.0074756565
18	0xbdaa5c89	-0.08318431
19	0x3de1f093	0.11032214
20	0xb9c84147	-0.00038195608
21	0xbe24010c	-0.16016024
22	0x3e290a12	0.16507748
23	0xbd8aed9b	-0.06783601
24	0x3da45761	0.08024479
25	0x3e1ff1ee	0.15619633
26	0xbd5823f3	-0.05276866
27	0x3cc05c2d	0.023481453
28	0x3b3736dc	0.0027956283
29	0xbe1a0d3e	-0.15044114
30	0x3e111b6d	0.14170618
31	0xbe0b99c8	-0.13632882
32	0x3d82f04a	0.06393488
33	0xbd1b6dcf	-0.03794652
34	0xbc9873cb	-0.018609902
35	0xbd8f5484	-0.06998542
36	0x3d22d8f8	0.0397577
37	0x3e0ab80c	0.13546771
38	0xbbcd4e43	-0.006265433
39	0x3deeb28c	0.11655149
40	0x3d892edb	0.0669839
41	0xbd8b813c	-0.06811759
42	0x3d20cebb	0.039259654
43	0xbe43591a	-0.19076958
44	0x3dc00afc	0.09377095
45	0xbccfab88	-0.025350347
46	0xbd070d1d	-0.03297149
47	0xbd897359	-0.06711454
48	0xbe2d61f5	-0.16931899
49	0xbda89775	-0.08232013
50	0xbdbe858d	-0.093028165
51	0x3e01eed1	0.12688757
52	0x3ccbdbfb	0.024885168
53	0x3dc164cc	0.094430536
54	0x3e29b0f8	0.16571414
55	0x3d531056	0.05152925
56	0xbde35b7e	-0.11101435
57	0x3b9a2733	0.00470438
58	0xbd267b99	-0.040645216
59	0x3d3fc8ab	0.04682223
60	0x3e0966d5	0.13418134
61	0xbd92a0f7	-0.07159608
62	0xbd6827e9	-0.056678686
63	0x3ce9c22a	0.028534967
64	0x3dabd8c6	0.083909556
65	0x3e3819cc	0.1797859
66	0x3e0eb302	0.13935474
67	0xbc3ba2a3	-0.01145235
68	0x3cf61c01	0.03004265
69	0xbda0f8d3	-0.078599595
70	0xbd9c2217	-0.076236896
71	0x3dd53318	0.10410136
72	0x3e1b8f8f	0.15191482
73	0x3de40565	0.111338414
74	0xbd5461a8	-0.051850945
75	0xbe24edd9	-0.16106357
76	0xbcf34433	-0.029695606
77	0x3d040b35	0.03223725
78	0x3e05ae06	0.13054666
79	0xbc3b03b9	-0.011414462
80	0xbde3b838	-0.11119121
81	0x3db21cbd	0.08696888
82	0x3d288d8f	0.041150626
83	0x3de52817	0.11189287
84	0xbd931742	-0.071821705
85	0x3e245f64	0.16052014
86	0x3daf9cb5	0.08574811
87	0xbe22414a	-0.15845218
88	0xbd63da1e	-0.055627935
89	0x3e1507bd	0.14553733
90	0x3dd6edb8	0.1049456
91	0xbe3f49bf	-0.18680476
92	0xbab55af7	-0.0013836314
93	0xbd9dd679	-0.07706923
94	0x3d10f945	0.035393972
95	0xbde84ba0	-0.11342549
96	0x3be9f01b	0.0071392185
97	0xbbe0a40a	-0.0068554925
98	0x3dc89af0	0.09795177
99	0x3dbb8a44	0.091572315
100	0xbe2e80ad	-0.17041273
101	0x3e0f11e0	0.13971663
102	0xbd85355d	-0.06504319
103	0xbd5fdd71	-0.054654542
104	0xbc002d99	-0.007823371
105	0x3d2a98d6	0.041649662
106	0xbd81c07b	-0.06335541
107	0x3ddbb4d7	0.10727852
108	0xbdeaf2f2	-0.114721194
109	0xbdcf773e	-0.101301655
110	0xbde77e5d	-0.11303399
111	0xbb97553e	-0.004618316
112	0xbe006fa8	-0.12542593
113	0xbe1b0a09	-0.15140547
114	0xbd5665d8	-0.05234322
115	0xbdffd28b	-0.1249133
116	0x3d5860a8	0.052826554
117	0xbccbc2e9	-0.024873214
118	0x3dc566d5	0.09638754
119	0x3df01ed8	0.11724633
120	0x3e0bacc6	0.13640127
121	0x3db6640a	0.089058
122	0x3b51fc09	0.0032041094
123	0xbe241b1b	-0.16025965
124	0x3d3f8133	0.046754073
125	0x3d231a60	0.039820075
126	0x3d90592c	0.07048258
127	0x3e1f14ce	0.1553528
128	0xbbbc83fe	-0.0057530394
129	0xbdb215cf	-0.08695566
130	0xbc9b979a	-0.018993188
131	0xbdf9e782	-0.1220236
132	0x3ca581e9	0.020203548
133	0x3dbc0cd5	0.09182135
134	0x3e0a735d	0.1352057
135	0x3e25617c	0.16150469
136	0xbddbbc2d	-0.10729251
137	0xbd2de3de	-0.04245364
138	0xbe1ec627	-0.15505277
139	0x3d207b3a	0.039180018
140	0xbdc69c8c	-0.09697828
141	0xbe017484	-0.12642103
142	0xbd9a6ff7	-0.07540887
143	0xbe2b63e4	-0.16737324
144	0xba294f17	-0.00064586237
145	0xbe0035ca	-0.12520519
146	0xbccd8756	-0.025088947
147	0x3e136a30	0.14395976
148	0x3d056d40	0.032574892
149	0xbdb156f9	-0.08659167
150	0x3ce6889c	0.028141312
151	0xbcc87498	-0.024469659
152	0xbda2b745	-0.07945112
153	0xbe3dc17b	-0.18530838
154	0x3d8e5a8d	0.06950865
155	0x3cfb3ece	0.030669596
156	0xbc9d4256	-0.01919667
157	0x3d1ea4d0	0.038731396
158	0x3ce3f218	0.0278254
159	0xbd4feb2d	-0.05076139
160	0xbba8cba9	-0.0051512313
161	0xbde5c60c	-0.11219415
162	0x3e10dce9	0.1414677
163	0x3e1d0cc9	0.15336908
164	0x3b809ff7	0.0039253193
165	0x3d262758	0.040564865
166	0x3d92a1d2	0.07159771
167	0xbd8cb0c3	-0.06869652
168	0xbd91dc21	-0.071220644
169	0x3d8c0b27	0.06838065
170	0x3d90f93a	0.07078786
171	0x3dbc76e3	0.09202363
172	0x3b9d66c4	0.0048035104
173	0xbe24e4b6	-0.16102871
174	0xbdaab7b4	-0.0833582
175	0xbdfe9252	-0.12430252
176	0xbbde666b	-0.0067871115
177	0xbdde921d	-0.10867713
178	0x3e13dc35	0.14439471
179	0xbd35f0dc	-0.044419155
180	0x3e1685c0	0.14699459
181	0xbddebc26	-0.1087573
182	0xbd1cdfa1	-0.038299207
183	0xbcc47268	-0.023980334
184	0x3de66d57	0.11251324
185	0xbccb4ad0	-0.024815947
186	0x3df472b8	0.11935943
187	0x3da5385a	0.08067389
188	0xbe377517	-0.1791576
189	0x3e09b9ac	0.13449734
190	0x3e311948	0.172948
191	0x3df11330	0.11771238
192	0xbe20b1b9	-0.15692796
193	0x3dd915d7	0.10599869
194	0x3d0bf151	0.034165684
195	0xbdafdbe6	-0.08586864
196	0x3dbe8d83	0.09304335
197	0x3e1e3633	0.15450363
198	0xbe395624	-0.18099266
199	0x3e16afb0	0.14715457
200	0xbd1c2576	-0.038121663
201	0x367078c0	3.5833073e-06
202	0xbaef1d3c	-0.0018242965
203	0xbe162931	-0.14664151
204	0xbe096129	-0.1341597
205	0xbde0e36f	-0.109808795
206	0xbc755c9a	-0.014975691
207	0x3cd8d4a2	0.026468579
208	0xbd9d4d68	-0.0768078
209	0xbde2600a	-0.11053474
210	0x3d742458	0.059604973
211	0xbd3ce67b	-0.04611824
212	0x3d01ba44	0.031671777
213	0xbdf1ca15	-0.11806122
214	0x3d0a0c83	0.03370334
215	0xbe118ff8	-0.14215076
216	0xbcfbcdcf	-0.030737786
217	0x3ddd3202	0.10800554
218	0xbc44b124	-0.012005124
219	0xbe33912e	-0.1753585
220	0x3d980718	0.07423228
221	0xbe0a5d68	-0.13512194
222	0x3d654d71	0.055982057
223	0xbdc3022b	-0.09521898
224	0x3e09d42c	0.13459843
225	0xbd5de994	-0.054177836
226	0x3d8ad2d2	0.06778492
227	0xbdf02fe5	-0.11727885
228	0xbe2ba81c	-0.16763347
229	0x3e3e156f	0.18562864
230	0x3d5af708	0.053458244
231	0xbcd9bf8a	-0.02658059
232	0xbe213d26	-0.15745983
233	0x3dcfcc12	0.10146345
234	0x3e358196	0.17725214
235	0x3e07a6e5	0.13247259
236	0xbdf2a347	-0.11847549
237	0x3e301b6e	0.17197964
238	0xbe284788	-0.16433537
239	0xbd95806e	-0.07299887
240	0xbdb98f06	-0.09060483
241	0x3e0de61a	0.13857308
242	0x3e26b4c7	0.16279899
243	0x3dece0c8	0.11566311
244	0xbe336384	-0.17518431
245	0x3d7ee1fa	0.062227227
246	0x3e0940a8	0.1340357
247	0xbe10b180	-0.14130211
248	0xbdab0302	-0.08350183
249	0xbe0f48e8	-0.13992655
250	0x3d5ba8a1	0.053627614
251	0x3ded7e7a	0.11596389
252	0x3cfb3bda	0.030668188
253	0xbdb12a0a	-0.086505964
254	0xbc496917	-0.012293122
255	0xbd261a72	-0.040552564

bias f4 [16]
0	0x3e33176e	0.17489406
1	0x3c9f60b3	0.01945529
2	0x3e23695a	0.15958157
3	0x3e27abb1	0.16374089
4	0x3e1138c8	0.14181817
5	0x3df2822c	0.118412346
6	0xbe2dfcb4	-0.1699093
7	0xbdf65423	-0.120277666
8	0xbd958cea	-0.07302268
9	0x3ca39db2	0.019972656
10	0xbd39de0c	-0.045377776
11	0xbe0ff43b	-0.1405801
12	0x3dfbdb90	0.122977376
13	0xbd5f9733	-0.054587554
14	0x3dca0b23	0.098654054
15	0xbda0faee	-0.07860361

weight f4 [32]
0	0x3f801379	1.0005943
1	0x3f80551a	1.0025971
2	0x3f7a69b3	0.97817534
3	0x3f80dbda	1.0067093
4	0x3f7b0019	0.98047024
5	0x3f7af5e2	0.9803144
6	0x3f80eadc	1.0071673
7	0x3f7e85c1	0.9942284
8	0x3f7cf8bd	0.98817044
9	0x3f7fdec7	0.99949306
10	0x3f7fd0d6	0.99928033
11	0x3f7fb341	0.99882895
12	0x3f7cc7d9	0.98742443
13	0x3f81f316	1.0152309
14	0x3f7a254c	0.9771316
15	0x3f81d75e	1.014385
16	0x3f82926f	1.0200938
17	0x3f803eeb	1.0019201
18	0x3f82e05e	1.0224721
19	0x3f802dec	1.0014014
20	0x3f823b07	1.0174264
21	0x3f810074	1.0078263
22	0x3f7fc008	0.9990239
23	0x3f802e98	1.0014219
24	0x3f828c8f	1.0199145
25	0x3f79ce6f	0.9758062
26	0x3f820542	1.0157855
27	0x3f815dd8	1.0106764
28	0x3f7e3af9	0.99308735
29	0x3f7aec7a	0.98017085
30	0x3f791efd	0.9731291
31	0x3f793d88	0.97359514

bias f4 [32]
0	0xbd6cb394	-0.057788447
1	0x3bb1528b	0.005411451
2	0x3d1c1352	0.038104363
3	0x3d4d8807	0.050178554
4	0x3d273161	0.040818576
5	0xbd1f9b93	-0.038966727
6	0x3d84387c	0.06456086
7	0x3c6ed985	0.014578228
8	0x3d45bc97	0.048275556
9	0x3ae727e8	0.0017635794
10	0x39f0a43e	0.00045898737
11	0x3c9d1b78	0.019178137
12	0xbce613b8	-0.028085575
13	0x3e155a45	0.14585216
14	0xbd5eb339	-0.05437014
15	0xbcbbeea9	-0.02294095
16	0x3c82d69e	0.015971478
17	0x3a1ab0c2	0.0005900973
18	0xbb1e027a	-0.0024110363
19	0x3c5fd262	0.013660999
20	0xbc913a22	-0.017727915
21	0xbc63b7d7	-0.013898811
22	0xbca79c56	-0.020460289
23	0x3d8fa6b0	0.07014215
24	0x3b648619	0.0034869967
25	0x3b98a469	0.004658271
26	0xb8b5b08b	-8.663636e-05
27	0xbcd1d00c	-0.0256119
28	0x3d07188c	0.032982394
29	0x3bb3ed9e	0.0054909727
30	0xbd3c52ad	-0.045977283
31	0xbd70c95e	-0.05878579

running_mean f4 [32]
0	0xbed40fc6	-0.41418284
1	0xc072cf96	-3.79392
2	0x3f405e93	0.7514431
3	0x4098dd94	4.777048
4	0x3f915f50	1.1357212
5	0xbf8e05c9	-1.1095515
6	0x40c64bf9	6.196774
7	0x40072a74	2.1119661
8	0xc0817d25	-4.0465264
9	0x408a135d	4.3148637
10	0xc03dd0a6	-2.96586
11	0x3ffefae0	1.9920311
12	0x4074a548	3.822588
13	0xc01a1b4c	-2.407916
14	0x408ba863	4.364305
15	0xc01d4305	-2.4572155
16	0x408196fd	4.049681
17	0xbfc97053	-1.5737404
18	0x408e257d	4.442076
19	0xc02f8fe1	-2.7431567
20	0xbf6449e5	-0.89175254
21	0xbe40ebb9	-0.18839921
22	0x4028018d	2.6250947
23	0xbf9a2086	-1.2041175
24	0x3e472ada	0.1944994
25	0x3ea7556d	0.32682362
26	0xc0978d0a	-4.7359667
27	0x40aeeff5	5.4667916
28	0xc0133815	-2.300298
29	0x4007463e	2.1136622
30	0x3fcfb32e	1.6226556
31	0xbfeb95c9	-1.8405086

running_var f4 [32]
0	0x40dfcbff	6.993652
1	0x41a8b8a5	21.090158
2	0x41aa2fcd	21.27334
3	0x41877b03	16.935064
4	0x41d26050	26.297028
5	0x403f0efa	2.985289
6	0x41c3d550	24.479156
7	0x419d452d	19.658777
8	0x4160be6b	14.046489
9	0x4165f02c	14.371136
10	0x410ba138	8.72686
11	0x419c8680	19.565674
12	0x417a707b	15.652461
13	0x4033c668	2.8089848
14	0x411d61f8	9.836418
15	0x4100ada5	8.042394
16	0x4123e95f	10.244475
17	0x40210dab	2.5164592
18	0x41886e50	17.053864
19	0x40b0bf1f	5.52333
20	0x40cdcc32	6.431176
21	0x41a3b044	20.461067
22	0x41ad4e10	21.663116
23	0x41a74385	20.907969
24	0x41a5e834	20.73838
25	0x420a0875	34.50826
26	0x41828506	16.314953
27	0x418f4d72	17.912815
28	0x40ecea68	7.403614
29	0x41979b0a	18.950703
30	0x40a33f64	5.101488
31	0x3fe88d90	1.8168201

weight f4 [32, 18]
0	0xbe02560b	-0.12728135
1	0xbe3f0b65	-0.1865669
2	0xbdaaa674	-0.0833253
3	0xbb8324c5	-0.004002186
4	0xbd4a4d63	-0.049390208
5	0xbe225ecb	-0.15856473
6	0x3e425a68	0.189798
7	0x3dfc2b18	0.12312907
8	0x3e6b5afa	0.22983924
9	0xbdabc2d4	-0.0838677
10	0xbe300629	-0.1718985
11	0xbd803422	-0.062599435
12	0xbe4e5037	-0.20147787
13	0x3d31aac3	0.04337574
14	0xbe3fda28	-0.18735564
15	0x3dcd06b2	0.10011043
16	0x3e20a1d9	0.1568674
17	0x3e0e4d41	0.13896658
18	0x3e7c7e03	0.24657445
19	0x3e7e4a2e	0.24832985
20	0x3e22a4ff	0.15883254
21	0x3d2689ba	0.04065869
22	0xbdcdc3f2	-0.10047139
23	0x3c4854d4	0.012227256
24	0x3d4ebeaf	0.05047482
25	0x3ccf5468	0.025308803
26	0xbe08d6d2	-0.13363197
27	0xba90486e	-0.0011007914
28	0xbe3e7f41	-0.18603231
29	0xbdf38e31	-0.11892355
30	0x3e51c624	0.20485741
31	0xbd9f2d24	-0.07772282
32	0x3caf4062	0.021393005
33	0xbdb35188	-0.08755785
34	0x3cdf3bc1	0.027250173
35	0x3e0cd455	0.13752873
36	0xbe0d5374	-0.13801366
37	0x3e2f17d2	0.1709893
38	0x3e0dff4c	0.1386692
39	0x3ab7987b	0.0014007235
40	0xbe3e966b	-0.18612067
41	0x3e552257	0.20813881
42	0xbd5362cd	-0.051607896
43	0x3e339a03	0.1753922
44	0xbd6746a3	-0.05646385
45	0x3e662dd5	0.22478421
46	0xbe5fabd4	-0.21842891
47	0xbe532448	-0.20619309
48	0xbe709399	-0.23493804
49	0x3dbc1e3e	0.09185456
50	0x3dd0f591	0.10203088
51	0x3e6a154f	0.22859691
52	0x3c0f1a52	0.008734303
53	0xbd58858c	-0.052861735
54	0xbe4523f4	-0.19251996
55	0x3cd7193c	0.02625715
56	0xbe2e6a4b	-0.17032735
57	0x3e4f632c	0.20252675
58	0xbe6cd90e	-0.23129675
59	0x3d56653c	0.05234264
60	0x3e3736b6	0.17891964
61	0x3e69dc83	0.22838025
62	0x3e0ffeb3	0.14062004
63	0xbe0f7ddf	-0.1401286
64	0x3e1c7148	0.15277588
65	0xbdfb49aa	-0.1226991
66	0xbb2d5314	-0.0026447223
67	0x3d90c265	0.07068328
68	0x3e3e3e0e	0.1857836
69	0xbe021b68	-0.12705767
70	0x3e66bbf7	0.2253264
71	0x3c146d2d	0.009059233
72	0x3dcf252c	0.10114512
73	0xbe72d88f	-0.23715423
74	0xbc5847a6	-0.013200676
75	0xbda3c4e9	-0.07996542
76	0x3e5a2dcd	0.21306534
77	0xbe12e740	-0.14346027
78	0x3e51a2ad	0.20472212
79	0x3e7835d2	0.24239281
80	0x3cf54194	0.029938497
81	0x3d042b46	0.03226783
82	0xbdffee1a	-0.12496586
83	0x3e7332a6	0.2374979
84	0xbe29cce9	-0.16582073
85	0x3e2f01e2	0.17090562
86	0x3d74b684	0.059744373
87	0xbdbb430f	-0.0914365
88	0x3baad594	0.005213449
89	0xbbe7665a	-0.007061762
90	0x3e41b0bd	0.18915077
91	0x3e812713	0.25225124
92	0xbdd456ed	-0.10368142
93	0xbe028f4f	-0.1274998
94	0xbe208fa5	-0.15679796
95	0xbc9497c2	-0.01813877
96	0x3d4f8c44	0.050670877
97	0xbe81a9cb	-0.25324854
98	0xbb72fd91	-0.0037077407
99	0xbd8067ff	-0.06269836
100	0x3d56603e	0.052337877
101	0xbe065022	-0.13116506
102	0x3e38b1a0	0.18036509
103	0x3e475b2c	0.19468373
104	0xbdebcf8d	-0.115141965
105	0xbd932c46	-0.07186179
106	0xbe2ca26d	-0.16858836
107	0xbdce324d	-0.10068188
108	0xbe181765	-0.14852674
109	0x3e2a46e4	0.16628605
110	0xbe157e33	-0.14598922
111	0xbdb5d029	-0.08877594
112	0x3e525e67	0.20543824
113	0x3db5f00e	0.088836774
114	0x3dde957e	0.10868357
115	0xba8937f7	-0.0010468949
116	0x3de76395	0.11298291
117	0x3dc63486	0.09677987
118	0x3df1cf1e	0.118070826
119	0xbdfb1df9	-0.12261576
120	0x3ca78045	0.020446906
121	0xbe0cc64f	-0.13747524
122	0x3e37ecff	0.179615
123	0xbda3d6c0	-0.07999945
124	0xbd65b263	-0.056078326
125	0x3d99cf59	0.075102516
126	0x3e166a0a	0.14688888
127	0xbcd3e840	-0.025867581
128	0x3deb29e4	0.114825994
129	0xbd0a8788	-0.03382066
130	0x3daff84d	0.085922815
131	0x3e114089	0.14184774
132	0x3b0ef359	0.0021812527
133	0x3e51b347	0.20478545
134	0x3e360b3b	0.17777722
135	0x3b31ca7a	0.0027128742
136	0xbd12cd2b	-0.035840195
137	0x3d7b0729	0.061286125
138	0x3de4c082	0.111695305
139	0x3c889f01	0.016677381
140	0xbe6c3f3e	-0.23071
141	0xbdbe3afa	-0.09288593
142	0x3ccfe9ad	0.02537998
143	0xbdbfeefb	-0.09371754
144	0x3d41b653	0.04729302
145	0x3e1b628e	0.15174314
146	0x3b78701a	0.0037908615
147	0x3e2ff173	0.1718195
148	0x3e74f021	0.23919727
149	0xbe1158f8	-0.14194095
150	0xbd806d22	-0.062708154
151	0x3a9a908b	0.0011792345
152	0xbd106d77	-0.035260644
153	0xbdc81794	-0.09770122
154	0xbe0c616d	-0.1370904
155	0xbd9ce5b7	-0.07661002
156	0xbdbdb6a5	-0.09263352
157	0xbdf42c38	-0.119224966
158	0x3debc415	0.11512009
159	0xbd724236	-0.059145175
160	0xbe0a0e96	-0.13482127
161	0xbe1c7997	-0.15280758
162	0xbe29122a	-0.16510835
163	0x3e55fec8	0.20897973
164	0x3e5f3111	0.21796061
165	0xbe005820	-0.12533617
166	0xbe58975e	-0.21151492
167	0x3e313c2c	0.1730811
168	0xbdc24e32	-0.09487571
169	0x3ccfff45	0.025390277
170	0xbe03c255	-0.128671
171	0x3e0c5f38	0.13708198
172	0xbe1b281b	-0.15152018
173	0xbe49aa1e	-0.19693801
174	0xbe17baf8	-0.14817417
175	0xbcff66d4	-0.031176962
176	0xbe20fa57	-0.15720497
177	0xbe4ba34c	-0.19886512
178	0x3da84ca8	0.08217746
179	0xbda6bef2	-0.08141889
180	0x3d5d1486	0.05397465
181	0xbde63e4d	-0.11242352
182	0x3da298ca	0.079392985
183	0x3ce5226b	0.027970513
184	0xbe7c55ae	-0.24642059
185	0x3e0efc1f	0.13963364
186	0xbe41e584	-0.1893521
187	0xbe0e54e4	-0.1389957
188	0xbe655b2d	-0.22398062
189	0xbda6a253	-0.0813643
190	0x3d659fe3	0.056060683
191	0xbd11905e	-0.03553807
192	0x3dc6bb6e	0.09703718
193	0x3d2278ad	0.039665867
194	0x3d0d741c	0.03453456
195	0xbd2e7d99	-0.042600248
196	0x3c645134	0.013935376
197	0xbe3c9f00	-0.18420029
198	0xbc2a036f	-0.010376795
199	0x3e4cbea1	0.19994594
200	0xbdc2e910	-0.095171094
201	0x3e302fc4	0.17205721
202	0x3d72e09b	0.05929623
203	0x3d544824	0.05182661
204	0x3db584c2	0.08863212
205	0x3e142954	0.1446889
206	0xbd11c041	-0.03558374
207	0xbd228f5e	-0.039687507
208	0x3d9be02c	0.07611117
209	0x3db8c9f1	0.09022892
210	0x3dc83b99	0.09776992
211	0x3d441ee6	0.04788103
212	0xbde9a422	-0.11408259
213	0xbe27647d	-0.16346927
214	0xbe4e21d6	-0.20130095
215	0x3e8cc08b	0.2749065
216	0xbdc91662	-0.09818722
217	0x3e4f4774	0.20242101
218	0x3e669560	0.2251792
219	0x3dc78925	0.09742955
220	0x3e5d2242	0.215951
221	0x3e0e8434	0.13917619
222	0x3e824a3c	0.2544726
223	0x3e5fef4b	0.21868627
224	0xbd97572d	-0.07389674
225	0x3d9e1e3c	0.077206105
226	0x3e3e2e8d	0.18572445
227	0x3e66f8a9	0.22555794
228	0x3df6dda8	0.12053996
229	0xbe51b784	-0.20480162
230	0xbe04fbe7	-0.12986718
231	0xbd06dfc1	-0.032928232
232	0x3e1bf3df	0.15229748
233	0x3e651289	0.22370352
234	0x3df60c3b	0.120140515
235	0x3d8c6234	0.06854668
236	0x3d36dfe5	0.044647116
237	0xbe08cabc	-0.13358587
238	0xbac4b813	-0.0015008472
239	0xbe77ad14	-0.24187118
240	0xbe43edd9	-0.191337
241	0xbde6afae	-0.11263977
242	0xbd498d2d	-0.0492069
243	0x3d8ef586	0.06980424
244	0x3daa88d0	0.08326876
245	0x3e5a4512	0.2131541
246	0xbdc1be74	-0.09460154
247	0xbdaed160	-0.08536029
248	0x3e561601	0.20906831
249	0xbdfe8fb8	-0.12429756
250	0x3e476747	0.19472991
251	0x3e393edc	0.18090385
252	0x3e16a562	0.14711526
253	0x3be9a122	0.007129804
254	0xbde5d39e	-0.112220034
255	0x3e284859	0.16433848

bias f4 [32]
0	0x3dd0e121	0.1019919
1	0x3d8bf019	0.06832904
2	0xbca5a9b3	-0.02022252
3	0xbdd0b7e6	-0.10191326
4	0xbdf191f8	-0.117954195
5	0x3dd27b25	0.10277394
6	0x3e4b1ffa	0.19836417
7	0xbe6099d3	-0.2193368
8	0xbe5ae1bd	-0.21375175
9	0x3d56ff67	0.052489664
10	0x3ca2ed7a	0.019888628
11	0xbdf16241	-0.117863186
12	0x3e662a4b	0.22477071
13	0x3dfd6e63	0.1237457
14	0x3e2893b7	0.16462599
15	0xbe4a8c0a	-0.19779983
16	0x3e6206d6	0.2207292
17	0xbc460ddd	-0.012088266
18	0x3db393b8	0.087684095
19	0xbe24e042	-0.16101173
20	0xbe079928	-0.13242018
21	0xbe2de2f1	-0.16981103
22	0xbdafe955	-0.085894264
23	0xbe48a902	-0.19595721
24	0xbe559481	-0.20857431
25	0x3d0745f8	0.03302571
26	0x3dade3bf	0.08490705
27	0x3d56a9fb	0.0524082
28	0x3e03b4de	0.12861964
29	0xbd0abcb6	-0.033871375
30	0xbd5727d4	-0.052528217
31	0x3dac0434	0.08399239

weight f4 [2, 32]
0	0xbe6621a1	-0.22473766
1	0x3e014c58	0.12626779
2	0xbe53a25f	-0.20667408
3	0xbd649d32	-0.055813976
4	0x3c6d12e0	0.014469832
5	0xbe1e4ff4	-0.15460187
6	0xbe16fb65	-0.14744337
7	0x3e001467	0.12507783
8	0x3d0aa8aa	0.033852257
9	0x3dd8a335	0.10578004
10	0x3db6f791	0.08933938
11	0xbd01a63c	-0.031652674
12	0x3de4c78a	0.111708716
13	0x3d199584	0.037496105
14	0x3e295503	0.16536336
15	0xbbc313d7	-0.005953293
16	0x3cceafb2	0.025230262
17	0x3e2c43c4	0.16822726
18	0x3e3fb145	0.18719967
19	0xbd77e86a	-0.06052438
20	0x3e255686	0.16146287
21	0xbd37d3c9	-0.04487971
22	0x3d8151a1	0.063143976
23	0x3973dcd9	0.00023256558
24	0x3d87041b	0.0659258
25	0xbdccacf6	-0.09993927
26	0xbe24f42c	-0.16108769
27	0xbcdec9cf	-0.02719584
28	0xbe3bf943	-0.18356805
29	0xbce98af9	-0.02850865
30	0xbda7cef4	-0.0819377
31	0xbe17f2b2	-0.14838675
32	0xbe1d5254	-0.15363437
33	0x3cae4924	0.02127511
34	0xbda26ce0	-0.079309225
35	0x3e2966a6	0.16543064
36	0x3cb346eb	0.021884402
37	0x3d94d0a8	0.072663605
38	0xbd10395f	-0.035210963
39	0xbe09f235	-0.13471301
40	0x3d60a873	0.054848146
41	0x3e111364	0.14167553
42	0x3e480924	0.19534737
43	0xbca0b425	-0.01961715
44	0x3e2a3527	0.16621839
45	0xbd1a9abd	-0.037745226
46	0x3d4cb209	0.049974475
47	0xbdc356ec	-0.095380634
48	0x3daff0c4	0.08590844
49	0xbd7c7fde	-0.06164538
50	0xbe0017c2	-0.12509063
51	0xbdecc78a	-0.115614966
52	0x3e28f334	0.16499025
53	0x3e3b59e8	0.18296015
54	0x3e32253f	0.17397021
55	0x3e1543da	0.14576665
56	0xbcd4c001	-0.02597046
57	0x3bca7a77	0.0061791497
58	0x3de83dde	0.11339925
59	0xbe1f38ef	-0.15549062
60	0xbd745b8c	-0.05965762
61	0xbc144793	-0.009050268
62	0x3e1cf778	0.15328777
63	0x3d3c9c7a	0.046047665

bias f4 [2]
0	0xbd726dad	-0.059186626
1	0xbd5932cf	-0.05302697

weight f4 [32]
0	0x3f84c490	1.0372486
1	0x3f880e4a	1.0629361
2	0x3f858036	1.0429752
3	0x3f803bab	1.0018209
4	0x3f7dcae0	0.9913769
5	0x3f80af1e	1.0053442
6	0x3f81ecc1	1.0150377
7	0x3f78fc49	0.97259957
8	0x3f8123fa	1.0089104
9	0x3f7f63d9	0.9976173
10	0x3f84a088	1.036149
11	0x3f7f365a	0.9969231
12	0x3f791e04	0.97311425
13	0x3f76151a	0.9612595
14	0x3f834d0f	1.0257891
15	0x3f80835b	1.0040087
16	0x3f8275a0	1.0192146
17	0x3f7bc7fd	0.9835203
18	0x3f81a951	1.0129796
19	0x3f83152c	1.0240836
20	0x3f8471a1	1.0347177
21	0x3f858a5b	1.0432848
22	0x3f8062b6	1.0030124
23	0x3f81adf0	1.0131207
24	0x3f80d8aa	1.0066121
25	0x3f80f104	1.0073552
26	0x3f7fd309	0.9993139
27	0x3f8041b5	1.0020052
28	0x3f849f47	1.0361108
29	0x3f7c38de	0.9852427
30	0x3f831f27	1.0243882
31	0x3f825b57	1.0184125

bias f4 [32]
0	0x3cdc9c44	0.026929982
1	0x3de0a4d9	0.10968942
2	0x3c97f67a	0.018550146
3	0x3d016a21	0.031595353
4	0xbcdf85ed	-0.02728554
5	0xbb9501aa	-0.0045473175
6	0xbc145e60	-0.009055704
7	0xba6822c0	-0.0008855276
8	0xbc1f99e0	-0.0097412765
9	0x3c59c4cb	0.013291548
10	0x3d5b3678	0.053518742
11	0x3cc5646f	0.024095742
12	0xbd6f2134	-0.058381274
13	0xbd11ca38	-0.03559324
14	0x3caa0267	0.020753099
15	0xbd27649b	-0.04086743
16	0xbd8387e7	-0.06422406
17	0x3d4b4e5f	0.049635287
18	0x3cd9487f	0.026523827
19	0x3d41bdbc	0.047300085
20	0x3d0ef378	0.03490016
21	0xbc1b17c7	-0.009466118
22	0xbcb8b0b5	-0.022545198
23	0x3c6564f7	0.014001123
24	0x3d0c07bc	0.034187064
25	0xbcac4edf	-0.021033702
26	0xbae5211b	-0.001748118
27	0xbcf21d16	-0.029554885
28	0x3ce4a197	0.027909083
29	0x3adf0fd0	0.0017018262
30	0x3cda000e	0.026611354
31	0xbc91ad6e	-0.017782893

running_mean f4 [32]
0	0x3e8879e9	0.2665551
1	0xbda135e6	-0.078716084
2	0x3e204af4	0.15653592
3	0xbd0c7970	-0.0342955
4	0xbdd4c81d	-0.10389731
5	0x3c9f488e	0.019443776
6	0x3ea5be23	0.32371625
7	0xbeb0bed2	-0.34520584
8	0xbe0efb8b	-0.13963144
9	0x3dc60b0a	0.09670074
10	0xbe056b9b	-0.1302933
11	0xbe290e43	-0.16509347
12	0x3e1fa608	0.1559068
13	0x3d8c156a	0.06840022
14	0x3e06765c	0.13131088
15	0xbe0d716c	-0.13812798
16	0x3e95ebfe	0.2928161
17	0xbe554157	-0.20825706
18	0xbc758de1	-0.01498744
19	0x3a226fe2	0.00061964814
20	0xbe49706a	-0.19671789
21	0xbe1b9cc1	-0.15196516
22	0xbdc1684e	-0.09443723
23	0xbd5761eb	-0.052583616
24	0xbebc5aef	-0.36788127
25	0x3c8eb6ed	0.01742121
26	0x3e106cd2	0.14104012
27	0x3d2ce55a	0.042210914
28	0x3e3e5c0c	0.185898
29	0x3d869111	0.06570638
30	0xbc177f40	-0.009246647
31	0xbb0949d0	-0.0020948537

running_var f4 [32]
0	0x3cc7d0bb	0.024391523
1	0x3c95b6ae	0.018275585
2	0x3dcaa462	0.09894635
3	0x3df2dfe9	0.11859114
4	0x3c949353	0.018136656
5	0x3d5fcaa9	0.05463663
6	0x3c333f09	0.010940322
7	0x3cfd8e7e	0.030951735
8	0x3d85656c	0.06513485
9	0x3d85715e	0.06515764
10	0x3c2cafaf	0.010539933
11	0x3cd43fca	0.025909323
12	0x3cc39360	0.023873985
13	0x3d1b3b4e	0.037898354
14	0x3d022c9c	0.031780824
15	0x3cc3c231	0.023896309
16	0x3c6ae74b	0.014337371
17	0x3ce930b9	0.028465616
18	0x3cd71d10	0.026258975
19	0x3d756cfb	0.059918385
20	0x3d03b5cf	0.032155808
21	0x3cb68f2e	0.02228507
22	0x3cc78083	0.024353271
23	0x3e010313	0.12598829
24	0x3ccdfffe	0.02514648
25	0x3dd568bc	0.10420367
26	0x3d630dc4	0.05543305
27	0x3d4f8cc8	0.05067137
28	0x3e0766b0	0.13222766
29	0x3cfbc771	0.03073475
30	0x3d759193	0.059953284
31	0x3d5d03ce	0.053958707

weight f4 [32, 16]
0	0x3e350185	0.17676361
1	0x3e1bfe69	0.15233769
2	0x3dfd02b0	0.12354028
3	0x3e0aa8a6	0.13540897
4	0xbd61930d	-0.05507188
5	0xbd32135d	-0.043475498
6	0xbe4f88a1	-0.20266964
7	0xbd1c8550	-0.038213074
8	0x3e3c8697	0.18410717
9	0xbe269c3e	-0.16270539
10	0xbdc97834	-0.0983738
11	0x3d4dd04a	0.050247468
12	0x3e137e48	0.14403641
13	0x3e1a2057	0.15051399
14	0xbe1670dc	-0.1469149
15	0x3c34f7a7	0.011045373
16	0x3e2d3d6b	0.1691796
17	0x3ce5aeba	0.028037418
18	0x3d2d58f1	0.04232115
19	0x3e7a64ce	0.24452516
20	0xbe0ab159	-0.13544215
21	0x3e79c565	0.24391706
22	0xbe4416cf	-0.19149326
23	0x3da527a0	0.080641985
24	0xbde38404	-0.11109164
25	0xbdd5f8af	-0.10447823
26	0xbdf1eab7	-0.118123464
27	0xbd09afc5	-0.033614893
28	0xbe508c64	-0.20366055
29	0xbe3ee746	-0.18642911
30	0x3d8f00b3	0.06982555
31	0x3e336043	0.1751719
32	0xbe32723f	-0.17426394
33	0x3d7c1df1	0.06155199
34	0xbe788ecd	-0.24273224
35	0xbd4b0236	-0.049562655
36	0xbe5a31d4	-0.2130807
37	0xbe0b5911	-0.13608195
38	0x3d8158d0	0.06315768
39	0x3e646e45	0.2230769
40	0xbdb28133	-0.08716049
41	0x3dc24724	0.09486225
42	0x3ddaf895	0.106919445
43	0x3d2d91db	0.042375427
44	0x3e2ff6b9	0.17183961
45	0xbdbfec29	-0.09371216
46	0xbdebe3b1	-0.11518038
47	0xbe91a3e8	-0.28445363
48	0xbd672500	-0.05643177
49	0xbe48be03	-0.19603734
50	0x3e2914af	0.16511796
51	0x3daaf5c5	0.08347658
52	0xbdb9388b	-0.09043988
53	0xbe629e2d	-0.22130652
54	0xbd0f18ae	-0.034935646
55	0x3e866e1a	0.26255876
56	0x3e31fdff	0.17382048
57	0xbd4d5c04	-0.05013658
58	0x3e37b2a0	0.17939234
59	0xbdc167d5	-0.094436325
60	0x3d96cae4	0.07362917
61	0xbe2b7130	-0.16742396
62	0x3d719c12	0.05898673
63	0xbd706e26	-0.058698796
64	0xbd94576e	-0.072432384
65	0x3d80e8f4	0.06294432
66	0xbde9c836	-0.1141514
67	0x3d33268a	0.043737926
68	0x3d9658fb	0.073411904
69	0xbd6a37a1	-0.057181958
70	0x3def5779	0.11686606
71	0xbe696390	-0.22791886
72	0xbdf4cccc	-0.119531244
73	0x3d3fcfac	0.04682891
74	0xbd87985a	-0.06620856
75	0xbc822522	-0.015886847
76	0x3c4e921b	0.012608076
77	0xbb9157f3	-0.004435533
78	0x3dd626f4	0.104566485
79	0xbe47a769	-0.19497456
80	0x3d3db8e5	0.046318907
81	0x3d671d58	0.05642447
82	0xbe1e19ca	-0.15439525
83	0x3d8e504f	0.069489114
84	0x3ddc6df3	0.10763159
85	0x3d06e650	0.032934487
86	0xbe6cef53	-0.2313817
87	0xbe1faaa2	-0.15592435
88	0x3c80c7b3	0.015720224
89	0x3e622419	0.22084083
90	0xbdbfb574	-0.09360781
91	0x3e3b4cf0	0.18291068
92	0x3dde3c08	0.10851294
93	0x3db84972	0.089983836
94	0x3e4c6c3c	0.19963163
95	0x3de1f0c3	0.1103225
96	0xbe85ca71	-0.26131013
97	0x3cccda6f	0.025006501
98	0x3d384c22	0.04499448
99	0x3e39e5fc	0.18154138
100	0x3e5dd956	0.21664938
101	0xbdee9776	-0.11649983
102	0xbc3c9d75	-0.01151215
103	0x3e85055b	0.25980648
104	0x3d3baef4	0.045821145
105	0xbd09d3fd	-0.033649433
106	0xbd6155bd	-0.055013407
107	0xbdb5a9e9	-0.088702984
108	0x3dfe7e6f	0.12426459
109	0xbe6433c3	-0.2228537
110	0xbd057ae4	-0.0325879
111	0x3de745a8	0.11292583
112	0xbda67034	-0.0812687
113	0x3e83d85d	0.2575101
114	0xbd65a94e	-0.056069665
115	0xbe67dec9	-0.2264358
116	0x3da66ea9	0.081265755
117	0x3d0848e1	0.033272628
118	0xbd28633d	-0.041110266
119	0xbb57a224	-0.003290304
120	0xbe54233b	-0.20716564
121	0xbdd09779	-0.10185141
122	0xbd77acf7	-0.060467687
123	0x3cfe3b37	0.031034095
124	0xbe520b44	-0.2051211
125	0x3e6eb08f	0.2330954
126	0x3dede4f8	0.11615938
127	0x3c0e4712	0.008683937
128	0xbe569a9a	-0.20957413
129	0x3e0a19fb	0.13486473
130	0xbe504a41	-0.20340826
131	0xbe47aa67	-0.19498597
132	0xbd9086d8	-0.070569694
133	0xbe4c3d4e	-0.19945261
134	0xbd12a57f	-0.03580236
135	0x3e5ff8f9	0.2187232
136	0xbe4dd35b	-0.20100157
137	0xbdc26ece	-0.094937906
138	0x3ced3f35	0.028960804
139	0xbe341f1e	-0.17589995
140	0xbce3758c	-0.027766012
141	0x3dd3625b	0.10321494
142	0xbd5d4e49	-0.054029737
143	0xbe0c424b	-0.13697164
144	0x3cbe7212	0.023247752
145	0x3e429380	0.1900158
146	0x3e510d09	0.20415129
147	0x3e2b2d39	0.1671647
148	0xbdfa195a	-0.12211867
149	0x3ded48de	0.11586164
150	0xbe289f2e	-0.16466972
151	0xbdabf025	-0.08395413
152	0x3b0b3c44	0.0021245638
153	0xbd150f32	-0.036391445
154	0x3e7b08cf	0.24515079
155	0xbc28e79a	-0.010309124
156	0x3d74c6ed	0.059760023
157	0xbabd070f	-0.0014421659
158	0x3e5b23b7	0.21400343
159	0x3c7f3e68	0.015578844
160	0xbc1261cf	-0.008934452
161	0xba813fc7	-0.0009860926
162	0xbe0b291e	-0.13589904
163	0xbe0b7f03	-0.1362267
164	0x3e5bda70	0.21470046
165	0xbdb7795b	-0.089586936
166	0xbde01426	-0.10941343
167	0xbe0bcb64	-0.13651806
168	0x3d7da414	0.061924055
169	0x3c9b2173	0.018936848
170	0x3d5f2452	0.054477997
171	0xbe28f861	-0.16500999
172	0x3e1c24a0	0.15248346
173	0xbd0a53db	-0.033771377
174	0xbdd48440	-0.10376787
175	0xbe4bdf90	-0.19909501
176	0xbdd87c9c	-0.10570642
177	0xbe5db7b1	-0.21652104
178	0x3e4e9d19	0.20177115
179	0xbd82418b	-0.063601576
180	0xbbc7d395	-0.0060982206
181	0x3d9ad095	0.07559315
182	0xbe08e100	-0.1336708
183	0xbde65436	-0.11246531
184	0x3e6d45d0	0.23171163
185	0xbe469428	-0.19392455
186	0xbbc0c779	-0.005883154
187	0xbe0f76d7	-0.14010178
188	0x3e63d1bc	0.22247976
189	0xbe101c10	-0.14073205
190	0xbe735649	-0.23763384
191	0x3e106bce	0.14103624
192	0xbe2e37b7	-0.17013441
193	0xbd15333b	-0.03642581
194	0x3dcdddf2	0.10052098
195	0x3e7a78f7	0.24460207
196	0x3e3eec11	0.1864474
197	0x3dc60503	0.09668925
198	0xbe715bda	-0.23570195
199	0x3e67e5ad	0.22646208
200	0xbe3c9b68	-0.18418658
201	0x3da73d6c	0.08166012
202	0x3d7556d2	0.05989725
203	0x3c9e300e	0.019310024
204	0x3e38a375	0.18031104
205	0xbdfb660a	-0.12275322
206	0x3e451f8d	0.19250317
207	0x3e2612bf	0.16218089
208	0xbdc75b1e	-0.09734176
209	0xbe85aa37	-0.26106426
210	0x3d205024	0.039138928
211	0x3e95144e	0.29117054
212	0x3de76f14	0.11300483
213	0x3de2fd84	0.110835105
214	0xbe764c51	-0.2405255
215	0xbe74ec7a	-0.23918334
216	0x3e606e92	0.21917179
217	0x3c9e147b	0.019296875
218	0x3d25f41e	0.04051601
219	0x3db3afb1	0.08773745
220	0x3e20f8fc	0.1571998
221	0xbd0e2d81	-0.034711365
222	0x3d9ea2be	0.07745884
223	0x3e150024	0.14550835
224	0x3e26e4ee	0.16298267
225	0x3e1be2a3	0.15223174
226	0x3d62ee01	0.05540276
227	0x3cfb0aed	0.030644858
228	0x3d4f2aa1	0.050577763
229	0xbd887217	-0.06662386
230	0x3d8458b9	0.06462235
231	0xbe62c954	-0.22147113
232	0xbcea32c7	-0.028588666
233	0x3cdda767	0.027057363
234	0x3e2203cf	0.15821765
235	0x3e3f7dcb	0.1870033
236	0xbe19d5de	-0.1502299
237	0x3cc9c0fc	0.024628155
238	0xbbc09c8e	-0.005878038
239	0xbd8e3369	-0.069433995
240	0x3e032497	0.12806927
241	0x3da7d384	0.0819464
242	0xbe0998d5	-0.13437207
243	0xbddc5be6	-0.10759716
244	0x39ad4e68	0.0003305555
245	0xbe692442	-0.22767738
246	0x3e1c2243	0.15247445
247	0x3db1b226	0.08676557
248	0xbddf2264	-0.10895231
249	0xbe3d348e	-0.1847708
250	0x3cf59b62	0.029981319
251	0x3e65f267	0.2245575
252	0xbe291dbb	-0.16515248
253	0x3d8b5fed	0.06805406
254	0x3d8d60f8	0.06903261
255	0xbe3092e3	-0.17243533

bias f4 [32]
0	0x3e82af4d	0.2552437
1	0x3e51f75b	0.20504515
2	0x3d065e8c	0.03280501
3	0x3e66bc56	0.22532782
4	0x3e651253	0.22370271
5	0xbe519410	-0.20466638
6	0xbde9a849	-0.11409051
7	0xbc23be8a	-0.0099941585
8	0x3e592d74	0.21208745
9	0x3d97952d	0.074015
10	0x3de6417d	0.1124296
11	0x3e1e68f8	0.1546973
12	0x3e7188cf	0.23587345
13	0x3e4570fc	0.19281381
14	0xbc699a09	-0.014257916
15	0x3dce5fb9	0.100768514
16	0x3d704e07	0.058668163
17	0x3e0e3cbd	0.13890357
18	0xbdf42dcc	-0.119227976
19	0xbe2a6a1f	-0.16642044
20	0x3d84042e	0.0644611
21	0x3e5d167b	0.21590607
22	0x3dca2d95	0.09871975
23	0xbe685081	-0.2268696
24	0x3dd65634	0.10465661
25	0xbe27b5ea	-0.16377988
26	0xbdc4ca8a	-0.09608944
27	0x3de2fea9	0.11083729
28	0x3e0b1de8	0.13585627
29	0xbd987a93	-0.07445254
30	0xbe0bfd49	-0.1367084
31	0x3d8bd57b	0.068278275

weight f4 [2, 32]
0	0xbd7285e9	-0.059209738
1	0xbd33670e	-0.043799452
2	0xbd6c26fa	-0.05765436
3	0x3d9e71e4	0.07736567
4	0xbde98144	-0.114016086
5	0xbe1501cc	-0.14551467
6	0x3e04d6ac	0.12972516
7	0x3defce90	0.117093205
8	0xbe16c1e6	-0.14722404
9	0x3de8fd08	0.11376387
10	0xbaeda366	-0.0018130362
11	0xbe4b3304	-0.1984368
12	0x3daba3f4	0.08380881
13	0x3da0d15f	0.07852434
14	0xbe2722a2	-0.16321805
15	0xbe1008cc	-0.14065856
16	0x3da07d2c	0.07836375
17	0xbe21a273	-0.15784626
18	0x3de8eeaa	0.113736466
19	0xbcc9d350	-0.024636894
20	0xbda35d87	-0.07976823
21	0x3e04134c	0.12897986
22	0xbe120c03	-0.14262395
23	0x3c938ed0	0.018012434
24	0x39a73d1e	0.00031898258
25	0x3a4d27d4	0.0007826064
26	0x3bb6f2f3	0.005583161
27	0xbe02db56	-0.12778983
28	0xbcf76089	-0.030197399
29	0xbdbe105f	-0.09280466
30	0x3db52e39	0.08846707
31	0xbdec6ade	-0.11543821
32	0x3d907672	0.07053842
33	0x3e71559f	0.23567818
34	0x3d9ed193	0.07754817
35	0xbca59ccf	-0.020216374
36	0x3d77543c	0.060383067
37	0xbdc664f7	-0.09687226
38	0x3cd599cc	0.026074313
39	0x3d5d5cb0	0.05404347
40	0xbe2576a4	-0.16158539
41	0xbe2426a0	-0.1603036
42	0xbc3f98b2	-0.01169412
43	0xbddff59a	-0.10935517
44	0xbdcb0c3e	-0.099144444
45	0xbcf3fc5e	-0.029783424
46	0xbe1ab541	-0.15108205
47	0xbd246537	-0.04013559
48	0x3d711791	0.058860365
49	0x3d61f2ce	0.055163197
50	0x3d4a1417	0.049335565
51	0x3dfcf75e	0.12351869
52	0xbcec9d07	-0.02888347
53	0xbc39d9c4	-0.011343423
54	0x3e15de3f	0.14635561
55	0xbcf91560	-0.0304057
56	0x3b5bbba1	0.0033528584
57	0x3cbe443c	0.023225896
58	0xbcfd8188	-0.030945554
59	0xbc22c926	-0.009935653
60	0x3cbe322c	0.023217283
61	0x3e1125c1	0.14174558
62	0x3d3b65d8	0.045751423
63	0x3d547e50	0.051878273

bias f4 [2]
0	0x3d97ae5f	0.074063055
1	0xbc3fe477	-0.011712185

weight f4 [32]
0	0x3f81b9aa	1.0134785
1	0x3f88d56d	1.0690132
2	0x3f7b9f81	0.9829026
3	0x3f81cc9b	1.0140566
4	0x3f81cf82	1.0141451
5	0x3f7eac5e	0.9948176
6	0x3f7ec6ef	0.995223
7	0x3f805c7c	1.0028224
8	0x3f7f22a2	0.9966222
9	0x3f7bf331	0.98417956
10	0x3f76ea29	0.9645105
11	0x3f84064a	1.0314419
12	0x3f7a3560	0.97737694
13	0x3f7baa58	0.983068
14	0x3f8042d7	1.0020398
15	0x3f7d3a2b	0.9891688
16	0x3f7b7a85	0.98233825
17	0x3f810215	1.007876
18	0x3f7fa9a4	0.99868226
19	0x3f7c13d6	0.9846777
20	0x3f7f8447	0.99811214
21	0x3f803700	1.0016785
22	0x3f7d911b	0.9904954
23	0x3f7de738	0.99180937
24	0x3f76c32a	0.96391547
25	0x3f790618	0.97274923
26	0x3f7e2849	0.9928022
27	0x3f7f4c8f	0.99726194
28	0x3f78d7f9	0.9720455
29	0x3f820e0c	1.0160537
30	0x3f7db5d5	0.9910558
31	0x3f7fe19b	0.9995362

bias f4 [32]
0	0xbc12af2a	-0.008952895
1	0xbd9924fd	-0.07477758
2	0xbccec6f7	-0.025241358
3	0xbb006094	-0.0019588815
4	0x3cc9d877	0.024639351
5	0x3ad2290c	0.0016033961
6	0x3c970dc9	0.01843919
7	0xbbb7678b	-0.00559706
8	0xbc716a7d	-0.014734861
9	0xbd4f82b8	-0.050661772
10	0xbc2fe7ef	-0.01073645
11	0x3ca6f31d	0.020379597
12	0xbc2a83ae	-0.010407371
13	0xbcb5c5b2	-0.022188995
14	0x3c88cbf8	0.016698822
15	0xbbb26852	-0.005444565
16	0xbcebf8a3	-0.028805083
17	0x3cc8fd55	0.02453486
18	0xbaf43117	-0.0018630353
19	0xbd73411a	-0.059388258
20	0x3c4c2aa5	0.012461339
21	0xbac1171a	-0.0014731616
22	0xbccf2ca2	-0.025289837
23	0x3c6f1347	0.014591998
24	0xbc394624	-0.011308227
25	0xbcd0802e	-0.025451746
26	0x3c2c539c	0.010517981
27	0x3bda6203	0.006664516
28	0xbccaa4c1	-0.024736764
29	0x3cb43dbe	0.022002097
30	0xbcf0c85a	-0.02939241
31	0xbc4829f0	-0.01221703
