code/model_obj_backups/model_obj_18.pt (torch, 538274 bytes, 158 tensors)

weight f4 [32, 2]
0.57967085 -0.6361263 0.118790984 0.1774671 -0.39765093 0.18383 0.024370812 0.5441581
0.28729224 -0.33673033 -0.6899614 -0.004983681 0.55025965 0.002150101 0.48606893 0.38462523
0.030511748 0.6141037 0.11010457 -0.19368146 0.56072587 0.24679503 0.06983656 -0.67353696
-0.044974446 -0.5260159 0.6257463 -0.40120858 -0.52457714 -0.09543916 -0.5349775 0.1766981
-0.6909522 0.4840048 0.6598701 -0.4129418 -0.56324315 -0.120335534 0.10536341 -0.3856576
-0.38886166 -0.109800324 0.19464993 -0.6333324 0.44937783 0.30178884 -0.4724363 -0.20114957
-0.66865206 0.11983397 0.23728682 -0.36169368 0.27170026 -0.056059588 -0.6029879 0.57150084
0.01957687 0.3176764 0.6837275 -0.54370433 0.46259224 0.44877312 0.37218854 -0.03853174
00000000: 4f65 143f 2cd9 22bf b048 f33d efb9 353e
00000010: e798 cbbe ee3d 3c3e 4ca5 c73c f24d 0b3f
00000020: f817 933e eb67 acbe 4fa1 30bf 254e a3bb
00000030: d1dd 0c3f b5e8 0c3b 07de f83e 99ed c43e
00000040: c6f3 f93c e635 1d3f 817e e13d 6f54 46be
00000050: bb8b 0f3f d6b7 7c3e 7806 8f3d eb6c 2cbf
00000060: 2037 38bd faa8 06bf e930 203f 366b cdbe
00000070: b04a 06bf 9b75 c3bd 49f4 08bf 59f0 343e
00000080: 3ee2 30bf 7acf f73e 3fed 283f 1c6d d3be
00000090: b430 10bf 7a72 f6bd c6c8 d73d ea74 c5be
000000a0: e018 c7be fede e0bd 5052 473e 1222 22bf
000000b0: da14 e63e 1184 9a3e 2ce3 f1be 27fa 4dbe
000000c0: c82c 2bbf 836b f53d 51fb 723e ea2f b9be
000000d0: 4c1c 8b3e bd9e 65bd 6a5d 1abf e14d 123f
000000e0: ac5f a03c 7ba6 a23e c408 2f3f 3530 0bbf
000000f0: e4d8 ec3e 97c5 e53e 7f8f be3e 75d3 1dbd

bias f4 [32]
-0.261801 0.5792229 -0.62313825 -0.05992745 0.0528593 0.35809645 0.22639695 0.13015454
-0.6021992 -0.09617379 -0.54200107 -0.5982797 -0.046318993 0.53620625 -0.16312632 0.5045514
0.47176915 -0.1406594 0.51584774 0.120338894 -0.10655337 -0.25263044 0.12244376 0.4990784
-0.259936 0.2713492 0.63161427 -0.020860832 -0.61851203 -0.06475755 -0.30342028 0.4975814
00000000: c80a 86be f447 143f fd85 1fbf 7c76 75bd
00000010: fe82 583d 6b58 b73e 9ad4 673e 3b47 053e
00000020: ba29 1abf c4f6 c4bd 95c0 0abf dc28 19bf
00000030: fcb8 3dbd d044 093f 960a 27be 482a 013f
00000040: ba8b f13e 0509 10be 990e 043f 3d74 f63d
00000050: a738 dabd c758 81be cbc3 fa3d 3487 ff3e
00000060: 5516 85be 48ee 8a3e 79b1 213f 56e4 aabc
00000070: ce56 1ebf 9b9f 84bd e759 9bbe fdc2 fe3e

weight f4 [16, 32]
0.082747236 0.1752136 -0.15341029 0.17550538 -0.14421554 0.063395336 -0.01194 -0.044816386
0.015002981 -0.00326574 0.16259035 0.02404724 -0.010751387 -0.1157493 -0.13863935 -0.14632939
0.015819827 -0.084272616 -0.029935025 -0.034332607 -0.007062823 -0.116157725 -0.09656244 0.050168503
-0.09126278 -0.081587665 -0.16747472 0.013285243 0.047041856 -0.018191371 -0.12851354 -0.17822911
0.12341019 0.112077706 -0.09368911 -0.022670114 0.027377738 -0.1503178 -0.04304155 -0.11034714
0.087486565 -0.07221226 0.16993862 0.088298276 0.1654069 0.0011233159 -0.14457797 -0.026067382
0.005327147 0.08458684 0.14874637 -0.06826723 0.12515157 -0.1612547 -0.07671003 -0.014279646
0.14163533 0.1327035 0.063790135 0.10667675 -0.04791399 -0.17585076 -0.17236093 0.12856282
-0.04548342 -0.029179614 0.03847951 0.029580059 -0.05141447 0.013971303 -0.10670112 0.009195993
0.14416339 -0.052295126 -0.10509962 -0.0970126 0.09535455 -0.13098481 0.06552953 0.06098099
-0.16414541 -0.054717496 0.063852236 -0.05109468 -0.03278369 0.0073557654 0.037841618 0.10412068
-0.16270205 0.04323251 -0.05817009 -0.14575526 0.0859474 -0.050873782 -0.07015636 0.11877946
-0.05256751 0.18365613 -0.13665405 -0.046247963 0.03675934 -0.0011947396 0.05252147 0.16174106
-0.16885109 0.06860457 0.12597467 -0.032746926 -0.027348569 0.11886751 -0.012531566 0.1416922
0.1389679 0.06761086 -0.08118383 -0.103228405 -0.10889493 -0.099935226 0.016899614 -0.15974562
-0.14030972 0.05633726 -0.099747784 0.039035924 -0.069456175 0.17297146 -0.00025150462 0.00051981944
0.06281865 0.1266831 0.061051667 0.095736444 -0.19264023 -0.043457404 0.022461088 0.0048605935
0.093212664 0.070260145 -0.08239215 0.002413517 -0.17108265 0.08858152 -0.089305624 0.019489229
0.048356712 -0.100603394 -0.10114081 0.10904041 -0.010320177 0.021868259 -0.14506085 0.06954307
-0.088572524 0.07892732 -0.1151269 0.13455422 0.17297532 0.15522085 0.11740781 -0.18620582
0.08744878 0.1539432 0.14589119 -0.1813409 -0.020396763 -0.11333581 -0.027816446 0.15334886
-0.14174996 -0.13548908 -0.06919257 -0.02223454 0.19253892 0.027234439 -0.06843907 0.027496412
-0.16164996 -0.13282594 0.067264505 -0.07303154 0.1656147 0.16551645 -0.028732447 -0.09070462
0.17251863 0.14365648 0.047888 -0.17125373 -0.11288874 0.14725597 0.10503326 -0.10386229
-0.17360106 0.049873676 -0.122845344 -0.1612382 0.045789592 0.035661463 0.07896605 0.023911592
-0.15583332 -0.004753909 0.14842567 -0.03840161 0.17296901 -0.053465705 0.10360778 -0.13941036
-0.13563938 0.07699434 0.12996891 -0.02941935 0.11488357 0.07034875 0.14842573 -0.14638497
0.105054304 -0.07733467 0.11670854 -0.032790143 0.13943641 -0.13119785 -0.0097668925 0.15053494
0.06343307 -0.0013808443 0.03507967 0.076423794 -0.09962354 0.13830893 0.042540938 0.0965039
-0.01152203 0.15781185 -0.127528 0.0815366 -0.02571222 -0.14296554 0.01419661 -0.036461398
-0.17078032 0.018027417 -0.038073126 -0.10889239 0.015640525 0.011032042 0.14280973 -0.12136207
-0.10706596 0.1438969 0.14189906 -0.05849945 -0.03493972 -0.13531493 0.005405817 -0.053369634
00000000: 6277 a93d 326b 333e 9617 1dbe afb7 333e
00000010: 3dad 13be 6ad5 813d fd9f 43bc 6391 37bd
00000020: 10cf 753c 0606 56bb 167e 263e b8fe c43c
00000030: 9626 30bc f80d edbd 79f7 0dbe 5fd7 15be
00000040: 9598 813c 1f97 acbd 4c3a f5bc 59a0 0cbd
00000050: 416f e7bb 1ae4 edbd 87c2 c5bd 7d7d 4d3d
00000060: fbe7 babd 6f17 a7bd 7e7e 2bbe 59aa 593c
00000070: f6ae 403d 1206 95bc 0e99 03be b181 36be
00000080: 7bbe fc3d ff88 e53d 13e0 bfbd adb6 b9bc
00000090: 4747 e03c e9ec 19be 564c 30bd aefd e1bd
000000a0: 282c b33d 05e4 93bd 6404 2e3e bad5 b43d
000000b0: 6d60 293e 3a3c 933a 3f0c 14be 438b d5bc
000000c0: 598f ae3b dd3b ad3d f850 183e b1cf 8bbd
000000d0: bc27 003e f41f 25be 261a 9dbd 2df5 69bc
000000e0: da08 113e 6de3 073e 67a4 823d 5779 da3d
000000f0: 7641 44bd 3912 34be 627f 30be f9a5 033e
00000100: d34c 3abd 160a efbc b19c 1d3d e151 f23c
00000110: fb97 52bd e4e7 643c 1e86 dabd caaa 163c
00000120: 919f 133e 6a33 56bd 783e d7bd 8bae c6bd
00000130: 3f49 c33d e220 06be 5934 863d 34c7 793d
00000140: bc15 28be 741f 60bd f6c4 823d a848 51bd
00000150: 3148 06bd a208 f13b d0ff 1a3d 393d d53d
00000160: 5e9b 26be 9314 313d c343 6ebd de40 15be
00000170: 3105 b03d 0761 50bd 23ae 8fbd a542 f33d
00000180: 0851 57bd 5a10 3c3e 0aef 0bbe 816e 3dbd
00000190: f690 163d cf98 9cba c120 573d 739f 253e
000001a0: 4de7 2cbe 8e80 8c3d 81ff 003e a421 06bd
000001b0: 1b0a e0bc cf70 f33d 3351 4dbc c317 113e
000001c0: 9a4d 0e3e 9077 8a3d b543 a6bd 6a69 d3bd
000001d0: 4e04 dfbd d7aa ccbd 0f71 8a3c 5b94 23be
000001e0: 5aad 0fbe e6c1 663d 9148 ccbd 22e4 1f3d
000001f0: 0a3f 8ebd 6e1f 313e 61dc 83b9 7e44 083a
00000200: 10a7 803d 37b9 013e 5011 7a3d 7811 c43d
00000210: 7b43 45be 6400 32bd 5100 b83c 9d45 9f3b
00000220: 48e6 be3d 8de4 8f3d 37bd a8bd 192c 1e3b
00000230: 4a30 2fbe 3a6a b53d dee5 b6bd e0a7 9f3c
00000240: b011 463d 2709 cebd ea22 cfbd 9450 df3d
00000250: f615 29bc 1025 b33c d58a 14be 996c 8e3d
00000260: 8365 b5bd a6a4 a13d a7c7 ebbd 95c8 093e
00000270: 7120 313e 37f2 1e3e 8273 f03d bdac 3ebe
00000280: 5918 b33d 49a3 1d3e 8064 153e 6eb1 39be
00000290: 1d17 a7bc 9b1c e8bd 51df e3bc 7c07 1d3e
000002a0: e726 11be a6bd 0abe d6b4 8dbd 3625 b6bc
000002b0: ec28 453e c21a df3c c829 8cbd 2840 e13c
000002c0: 9187 25be 8603 08be f9c1 893d 8f91 95bd
000002d0: e696 293e 257d 293e 4f60 ebbc 58c3 b9bd
000002e0: b9a8 303e af1a 133e 3526 443d 235d 2fbe
000002f0: 3632 e7bd 45ca 163e ae1b d73d c1b5 d4bd
00000300: 7ac4 31be 5748 4c3d 5796 fbbd a01b 25be
00000310: de8d 3b3d c111 123d f4b8 a13d 3ee2 c33c
00000320: c592 1fbe aec6 9bbb e6fc 173e 024b 1dbd
00000330: ca1e 313e dbfe 5abd 5130 d43d 97c1 0ebe
00000340: 0de5 0abe 35af 9d3d 9216 053e d900 f1bc
00000350: 1448 eb3d 0113 903d eafc 173e f1e5 15be
00000360: b626 d73d a461 9ebd e304 ef3d f54e 06bd
00000370: 6bc8 0e3e bb58 06be 5105 20bc d525 1a3e
00000380: 33e9 813d 72fd b4ba b3af 0f3d 1484 9c3d
00000390: 6d07 ccbd dba0 0d3e 683f 2e3d d6a3 c53d
000003a0: e6c6 3cbc 6e99 213e b396 02be a9fc a63d
000003b0: 6fa2 d2bc 8f65 12be e698 683c 8c58 15bd
000003c0: 09e1 2ebe 3cae 933c 91f2 1bbd f902 dfbd
000003d0: 8f20 803c bdbf 343c b73c 123e ad8c f8bd
000003e0: 6645 dbbd b559 133e fd4d 113e 1f9d 6fbd
000003f0: f41c 0fbd ff8f 0abe 4823 b13b 1e9a 5abd

bias f4 [16]
0.1296294 -0.095370255 0.07939718 -0.041861087 -0.017336339 -0.08428228 -0.038119495 0.029010959
-0.17411804 0.17593504 -0.0770561 0.03575687 -0.13366337 0.0909793 0.17625421 0.08907824
00000000: 92bd 043e 7b51 c3bd fd9a a23d 8876 2bbd
00000010: f004 8ebc 309c acbd 3023 1cbd 64a8 ed3c
00000020: 004c 32be 5128 343e 97cf 9dbd cc75 123d
00000030: 0ddf 08be 5b53 ba3d fc7b 343e a76e b63d

weight f4 [32]
0.9836797 1.0110703 1.0150558 0.99770844 1.0207134 0.9825328 0.99475896 0.9877248
1.0041212 1.007636 1.0104092 0.98456967 1.0099057 1.0124068 0.991304 0.99570453
1.0289017 1.0244312 0.9971624 0.9983812 0.9987212 0.9762138 0.9984528 0.9929043
1.0120193 0.99840075 1.0076222 1.0092798 0.9868171 0.9777818 0.99611294 1.0035135
00000000: 6fd2 7b3f c06a 813f 59ed 813f d269 7f3f
00000010: bda6 823f 4587 7b3f 86a8 7e3f 88db 7c3f
00000020: 0b87 803f 37fa 803f 1755 813f c20c 7c3f
00000030: 9744 813f 8c96 813f 19c6 7d3f 7ee6 7e3f
00000040: 0db3 833f 9020 833f 0946 7f3f e995 7f3f
00000050: 31ac 7f3f 26e9 793f 9a9a 7f3f fa2e 7e3f
00000060: d989 813f 3197 7f3f c4f9 803f 1530 813f
00000070: 0ca0 7c3f e84f 7a3f 4201 7f3f 2173 803f

bias f4 [32]
-0.035828404 -0.034209404 0.020644838 0.0017148732 0.016518848 -0.026604671 -0.025271138 -0.0075774393
-0.0077297464 -0.006301571 0.017501539 -0.008975496 0.0092643425 -0.03214567 0.007298579 0.01724876
0.028771969 0.01818999 -0.016598396 -0.0087974835 0.009066161 -0.022695415 -0.017513601 -0.0019677226
0.027657183 0.001978968 0.01280562 -0.0014903798 -0.0112275835 -0.016594 0.008284348 -0.018570367
00000000: cec0 12bd 291f 0cbd 5d1f a93c 99c5 e03a
00000010: 8952 873c 0af2 d9bc 6b05 cfbc 2b4c f8bb
00000020: d049 fdbb 697d cebb 635f 8f3c f50d 13bc
00000030: 78c9 173c 2eab 03bd eb28 ef3b 464d 8d3c
00000040: 31b3 eb3c 2d03 953c 5cf9 87bc 5223 10bc
00000050: 3c8a 143c bceb b9bc af78 8fbc e8f4 00bb
00000060: 5191 e23c 93b1 013b aace 513c d958 c3ba
00000070: e6f3 37bc 24f0 87bc 13bb 073c e220 98bc

running_mean f4 [32]
-0.3763339 0.6675441 -0.6362222 0.14248325 -0.011938931 0.21776196 0.33764386 0.36734837
-0.3732098 -0.14430016 -0.3398865 -0.82861906 -0.24627142 0.5162812 -0.30311337 0.46127307
0.50867283 -0.15815978 0.3590619 0.0015165433 -0.22452147 -0.4434331 0.32218853 0.3312303
-0.35078236 0.1877105 0.6655872 0.065418996 -0.49943808 -0.12478162 -0.047631383 0.5582652
00000000: d6ae c0be 2ce4 2a3f 75df 22bf 21e7 113e
00000010: 829b 43bc fefc 5e3e a8df ac3e 1615 bc3e
00000020: 5b15 bfbe 6cc3 13be 9a05 aebe 6120 54bf
00000030: 932e 7cbe 012b 043f ad31 9bbe fc2b ec3e
00000040: 6238 023f a3f4 21be f6d6 b73e c0c6 c63a
00000050: f5e8 65be aa09 e3be e5f5 a43e 0597 a93e
00000060: bf99 b3be 2e37 403e ec63 2a3f 65fa 853d
00000070: 59b6 ffbe 828d ffbd 2019 43bd 78ea 0e3f

running_var f4 [32]
0.22028613 0.0068784137 0.051903997 0.066327035 0.058307983 0.097967304 0.062435884 0.05375628
0.08416945 0.014475221 0.057480875 0.11282037 0.060449746 0.15727533 0.05118457 0.081154175
0.20492998 0.17187542 0.05833525 0.042912323 0.02738315 0.119476125 0.04158232 0.04065642
0.10832089 0.055179205 0.018352538 0.20424397 0.022267947 0.22283377 0.05823784 0.031237515
00000000: b092 613e 5164 e13b 4999 543d 78d6 873d
00000010: 5ad4 6e3d 15a3 c83d c5bc 7f3d 8c2f 5c3d
00000020: 0861 ac3d 7a29 6d3c 1171 6b3d 5e0e e73d
00000030: 279a 773d c90c 213e e9a6 513d 2934 a63d
00000040: 2ad9 513e 1c00 303e f1f0 6e3d d5c4 2f3d
00000050: a152 e03c e6af f43d 3952 2a3d 5987 263d
00000060: 58d7 dd3d 9703 623d 1058 963c 5525 513e
00000070: 456b b63c 892e 643e cd8a 6e3d d1e5 ff3c

weight f4 [32, 3]
0.2718973 -0.2233982 -0.15976492 0.1459219 0.021132043 -0.56765056 0.16261522 -0.34249988
-0.31188986 0.5225332 -0.47852218 0.46621174 0.04412746 -0.4065584 -0.3218152 0.0648702
0.032204606 -0.2202673 -0.25198063 -0.580736 0.55604494 -0.46845466 -0.46640635 -0.1293514
0.30504727 0.4987934 -0.18835297 0.35223514 -0.28196076 0.5082977 -0.28230113 0.37982148
-0.04965691 -0.53004056 0.116064996 0.47045153 -0.11891622 -0.24280474 0.5214895 -0.27292868
0.21645057 -0.16378786 -0.5773077 -0.2825173 0.42491376 -0.44182286 0.37547737 -0.15642563
-0.06122033 -0.33375686 0.39633274 0.572282 0.07892327 -0.20911951 0.29260638 -0.30727974
0.5467835 -0.08919132 0.2780611 -0.26214513 0.3630115 -0.12304504 -0.22843961 0.36026767
-0.30744252 -0.33373258 0.29023096 -0.49808654 -0.11079559 -0.37752497 0.42352518 0.22123924
0.11929824 0.24936709 0.39035535 -0.26082662 -0.44212833 -0.39130348 -0.57993877 0.20741087
-0.55545473 -0.26240414 -0.5608876 0.32396314 0.23592977 0.33243862 -0.03395892 0.08668027
-0.483248 -0.08602374 0.1649061 -0.29236907 0.039623924 -0.39707154 0.15412807 -0.15559535
00000000: 1f36 8b3e 7fc2 64be 6a99 23be 8d6c 153e
00000010: 1b1d ad3c 8c51 11bf 9b84 263e 255c afbe
00000020: 07b0 9fbe bcc4 053f dc00 f5be 4eb3 ee3e
00000030: ffbe 343d 6c28 d0be f6c4 a4be abda 843d
00000040: fae8 033d c08d 61be 9b03 81be 1dab 14bf
00000050: f658 0e3f 4ad9 efbe d0cc eebe b274 04be
00000060: 282f 9c3e d961 ff3e 9adf 40be 2a58 b43e
00000070: 295d 90be cc1f 023f c689 90be f677 c23e
00000080: 0b65 4bbd bdb0 07bf 7cb3 ed3d 06df f03e
00000090: 598a f3bd cea1 78be 5680 053f 4fbd 8bbe
000000a0: 38a5 5d3e 01b8 27be 70ca 13bf 1ca6 90be
000000b0: 4c8e d93e 9b36 e2be 923e c03e 0a2e 20be
000000c0: 2bc2 7abd 2ee2 aabe 20ec ca3e 1381 123f
000000d0: 86a2 a13d 6d23 56be 81d0 953e c553 9dbe
000000e0: 01fa 0b3f f0a9 b6bd 065e 8e3e e337 86be
000000f0: a5dc b93e 0aff fbbd 13ec 69be 0175 b83e
00000100: 1b69 9dbe ffde aabe 2799 943e 3305 ffbe
00000110: cce8 e2bd f44a c1be 4bd8 d83e 8a8c 623e
00000120: a352 f43d 165a 7f3e a8dc c73e 118b 85be
00000130: a55e e2be ee58 c8be de76 14bf 8463 543e
00000140: 4832 0ebf d659 86be 5496 0fbf 7fde a53e
00000150: 9397 713e 6535 aa3e 8218 0bbd 6d85 b13d
00000160: 486c f7be 372d b0bd 25dd 283e 66b1 95be
00000170: b24c 223d f64c cbbe c0d3 1d3e 6354 1fbe

bias f4 [32]
-0.51807946 -0.56118876 0.3524687 -0.4578512 0.22941485 0.29114705 -0.10179943 0.21385615
-0.20370571 -0.03820385 -0.543329 0.06459892 -0.3714176 -0.29398534 0.4660503 0.5206998
0.010011317 0.021999966 -0.25636408 0.24789342 -0.27771077 -0.125134 0.21368453 -0.19977292
-0.4871893 0.086326584 -0.553633 0.5401841 -0.23453544 -0.10073308 -0.255883 -0.12624945
00000000: dba0 04bf 11aa 0fbf c776 b43e 796b eabe
00000010: baeb 6a3e 3a11 953e 387c d0bd 1bfd 5a3e
00000020: 3b98 50be a47b 1cbd 9c17 0bbf 704c 843d
00000030: 732a bebe 3f85 96be 259e ee3e 954c 053f
00000040: 8206 243c 4639 b43c 2742 83be c6d7 7d3e
00000050: 1b30 8ebe 2123 00be 1ed0 5a3e 4691 4cbe
00000060: e070 f9be fecb b03d e4ba 0dbf 8149 0a3f
00000070: 0f2a 70be 254d cebd 1903 83be 8947 01be

weight f4 [16, 32]
-0.09963193 -0.04259565 0.10043484 0.13287124 0.06778299 0.1011666 0.015596872 0.002173503
-0.10202679 0.07602049 -0.17038603 -0.08219211 -0.048452664 -0.0013226133 0.042624492 -0.015614304
0.023697393 -0.010245113 -0.08438695 0.10752836 0.007293 -0.15406124 0.1646758 -0.06856033
0.08110449 0.16117221 -0.055586062 0.023553196 0.0025759537 -0.15092075 0.1397998 -0.13824329
0.0658829 -0.03128295 -0.015261116 -0.0626117 0.042135764 0.14117041 0.00071218587 0.11679889
0.05792223 -0.063571826 0.036573168 -0.18791267 0.09824038 -0.02966125 -0.026758391 -0.074659266
-0.1609864 -0.08054205 -0.08869044 0.1246832 0.031779334 0.09909112 0.16590399 0.049024973
-0.106788374 0.008365983 -0.039162572 0.050713904 0.13015883 -0.07097159 -0.05020549 0.025646713
0.08383198 0.17788285 0.13834807 -0.00816151 0.028768528 -0.079306535 -0.07193919 0.10490008
0.15021719 0.112520315 -0.057759132 -0.1615189 -0.028876139 0.026571544 0.1296051 -0.01241056
-0.111646555 0.0903755 0.041851815 0.10811699 -0.07014041 0.16034798 0.08802431 -0.16296922
-0.05789774 0.14464173 0.10713657 -0.1774099 -0.0070242938 -0.074980766 0.04112811 -0.11676412
0.007888805 -0.010128122 0.09989845 0.084667526 -0.16656639 0.13680951 -0.07243659 -0.053651404
-0.0034519779 0.04451045 -0.063477784 0.11258487 -0.110644676 -0.09990281 -0.11362489 -0.0005396947
-0.1303359 -0.155579 -0.049834985 -0.1253056 0.04674622 -0.026990276 0.09618189 0.1214553
0.13783716 0.089757286 1.504425e-05 -0.16470027 0.046416067 0.03864648 0.066215225 0.15395746
-0.003447621 -0.09265851 -0.018317223 -0.12246507 0.019467387 0.08625579 0.13595742 0.15489417
-0.10292096 -0.041164447 -0.15491186 0.045969184 -0.096640445 -0.12983406 -0.07615708 -0.1641978
-0.0013193735 -0.12786964 -0.024133503 0.14091307 0.03413302 -0.08339099 0.021452196 -0.017710354
-0.0699089 -0.18357958 0.0671351 0.037369598 -0.019400993 0.0314266 0.02814638 -0.054028396
-0.008402982 -0.12010088 0.13878976 0.14607061 0.0017635669 0.03270517 0.062429715 -0.07050864
-0.06580161 0.07073753 0.079959214 0.09648591 0.009192549 -0.15416981 -0.0805846 -0.11980127
-0.0082168 -0.118826345 0.14747289 -0.04200761 0.1391634 -0.11342649 -0.04083021 -0.015717577
0.11682835 -0.02798411 0.110740274 0.06641975 -0.1696884 0.13199992 0.16438723 0.11872044
-0.15080558 0.107592426 0.040445123 -0.07956585 0.09948647 0.15660788 -0.17492792 0.14865239
-0.03392526 0.0077365595 -0.0018220964 -0.13893801 -0.12610066 -0.1052097 -0.008359317 0.02895723
-0.07010788 -0.10960848 0.067582704 -0.0461337 0.03330988 -0.11185773 0.033307 -0.13381718
-0.02296508 0.114274256 -0.01195987 -0.16892317 0.073558055 -0.13619508 0.050870046 -0.0950814
0.13637222 -0.05384332 0.06945734 -0.115086965 -0.16709158 0.18642889 0.05655667 -0.026956778
-0.15811531 0.08785877 0.17792411 0.13189161 -0.13168915 0.16818601 -0.17344053 -0.07346814
-0.094425164 0.13555624 0.14947414 0.112641975 -0.17146237 0.06542715 0.13518333 -0.14061275
-0.08221821 -0.13814926 0.049682874 0.12090562 0.031242741 -0.085669614 -0.008612278 -0.043545466
00000000: d30b ccbd c778 2ebd c8b0 cd3d 660f 083e
00000010: cfd1 8a3d 6f30 cf3d 068a 7f3c 5471 0e3b
00000020: 6cf3 d0bd a1b0 9b3d ad79 2ebe 5654 a8bd
00000030: 4d76 46bd 8a5b adba 0597 2e3d 23d3 7fbc
00000040: 0921 c23c 1edb 27bc 11d3 acbd d437 dc3d
00000050: 1efa ee3b 3bc2 1dbe c6a0 283e 5c69 8cbd
00000060: 1c1a a63d 540a 253e 36ae 63bd a2f2 c03c
00000070: 55d1 283b f88a 1abe ae27 0f3e a68f 0dbe
00000080: 9ded 863d 8d22 00bd c309 7abc 903a 80bd
00000090: 8d96 2c3d fa8e 103e fcb1 3a3a 4234 ef3d
000000a0: dc3f 6d3d f231 82bd bfcd 153d 2e6c 40be
000000b0: 4132 c93d 26fc f2bc 6a34 dbbc f5e6 98bd
000000c0: 9ed9 24be 3bf3 a4bd 55a3 b5bd e859 ff3d
000000d0: 0c2b 023d 49f0 ca3d bce2 293e 69ce 483d
000000e0: ddb3 dabd 7a11 093c ef68 20bd 62b9 4f3d
000000f0: 5b48 053e 8e59 91bd 46a4 4dbd 0e19 d23c
00000100: 1ab0 ab3d ec26 363e 1eab 0d3e dbb7 05bc
00000110: faab eb3c 776b a2bd db54 93bd dad5 d63d
00000120: 89d2 193e 0d71 e63d d794 6cbd 3665 25be
00000130: a78d ecbc 91ac d93c 33b7 043e a955 4bbc
00000140: f3a6 e4bd ca16 b93d cf6c 2b3d 716c dd3d
00000150: c6a5 8fbd 4332 243e 1746 b43d 67e1 26be
00000160: 2e26 6dbd f61c 143e 6b6a db3d f1aa 35be
00000170: 0c2c e6bb 848f 99bd f375 283d 0722 efbd
00000180: 0c40 013c 6cf0 25bc 8f97 cc3d 2b66 ad3d
00000190: 6190 2abe cb17 0c3e a359 94bd 93c1 5bbd
000001a0: 943a 62bb 9750 363d a400 82bd e592 e63d
000001b0: ad99 e2bd d899 ccbd 2bb4 e8bd 4c7a 0dba
000001c0: c676 05be 1a50 1fbe c51f 4cbd 1c50 00be
000001d0: f778 3f3d b61a ddbc 03fb c43d 8ebd f83d
000001e0: 2f25 0d3e abd2 b73d 9066 7c37 30a7 28be
000001f0: c61e 3e3d c54b 1e3d d99b 873d 06a7 1d3e
00000200: 7bf1 61bb bfc3 bdbd 000e 96bc f7ce fabd
00000210: 127a 9f3c e0a6 b03d 6c38 0b3e 949c 1e3e
00000220: 39c8 d2bd 0d9c 28bd 37a1 1ebe 2f4a 3c3d
00000230: 6deb c5bd 38f3 04be 3ef8 9bbd 7823 28be
00000240: d4ee acba 42f0 02be a0b3 c5bc 844b 103e
00000250: 11cf 0b3d e5c8 aabd 84bc af3c 4e15 91bc
00000260: 662c 8fbd 49fc 3bbe 217e 893d dd10 193d
00000270: d5ee 9ebc 2eb9 003d 3d93 e63c e14c 5dbd
00000280: a9ac 09bc 73f7 f5bd e71e 0e3e 8993 153e
00000290: 7c27 e73a dbf5 053d 4db6 7f3d d566 90bd
000002a0: ffc2 86bd d7de 903d a8c1 a33d 689a c53d
000002b0: 589c 163c b1de 1dbe 8a09 a5bd 5e5a f5bd
000002c0: c29f 06bc 3a5b f3bd 2203 173e 2c10 2cbd
000002d0: da80 0e3e 264c e8bd 943d 27bd 26c2 80bc
000002e0: b443 ef3d ef3e e5bc cccb e23d 1407 883d
000002f0: ccc2 2dbe fd2a 073e 2055 283e b423 f33d
00000300: c76c 1abe 6b59 dc3d c9a9 253d 6cf3 a2bd
00000310: 90bf cb3d d15d 203e 4e20 33be 5538 183e
00000320: 37f5 0abd f782 fd3b 69d3 eeba c445 0ebe
00000330: 8820 01be 2f78 d7bd 84f5 08bc b637 ed3c
00000340: b894 8fbd 697a e0bd cd68 8a3d b1f6 3cbd
00000350: f16f 083d aa15 e5bd ec6c 083d 5f07 09be
00000360: 4321 bcbc 9f08 ea3d 55f3 43bc 32fa 2cbe
00000370: 9ba5 963d b976 0bbe 1c5d 503d 09ba c2bd
00000380: 29a5 0b3e d08a 5cbd a63f 8e3d b7b2 ebbd
00000390: 0e1a 2bbe 37e7 3e3e f8a7 673d 76d4 dcbc
000003a0: fbe8 21be 4cef b33d bd31 363e 980e 073e
000003b0: 85d9 06be f438 2c3e 659a 31be 7776 96bd
000003c0: fb61 c1bd 41cf 0a3e c00f 193e d6b0 e63d
000003d0: d593 2fbe abfe 853d 806d 0a3e cafc 0fbe
000003e0: 0562 a8bd 0077 0dbe 4580 4b3d 5e9d f73d
000003f0: c7f0 ff3c 8d73 afbd 831a 0dbc bb5c 32bd

bias f4 [16]
0.17325161 0.018992018 0.15320925 0.14734413 0.15859047 0.109580986 -0.15920764 -0.1141457
-0.059158396 0.049350817 -0.035783075 -0.14007135 0.12563911 -0.038592342 0.09100844 -0.063887835
00000000: df68 313e 2695 9b3c e3e2 1c3e 61e1 163e
00000010: 8a65 223e ff6b e03d 5407 23be 39c5 e9bd
00000020: 1350 72bd 1524 4a3d 4691 12bd dd6e 0fbe
00000030: 8aa7 003e 0113 1ebd a262 ba3d a0d7 82bd

weight f4 [32]
0.9971408 1.0089862 0.98993784 1.0014992 0.9839674 0.98726493 1.007215 0.9944019
0.9904594 1.0037521 1.0026402 0.9994787 0.9883231 1.0173298 0.9856598 1.0106922
1.0108567 1.0051426 1.0157377 1.003003 1.0111741 1.0060078 1.0032419 1.0037961
1.0141395 0.9852315 1.0091575 1.0019562 0.9885451 0.985843 0.97939783 0.98242724
00000000: 9f44 7f3f 7626 813f 916c 7d3f 2031 803f
00000010: 4ae5 7b3f 65bd 7c3f 6cec 803f 1f91 7e3f
00000020: bf8e 7d3f f37a 803f 8456 803f d6dd 7f3f
00000030: be02 7d3f dd37 823f 3354 7c3f 5d5e 813f
00000040: c163 813f 83a8 803f b103 823f 6762 803f
00000050: 276e 813f ddc4 803f 3b6a 803f 647c 803f
00000060: 53cf 813f 2238 7c3f 132c 813f 1a40 803f
00000070: 4b11 7d3f 3560 7c3f d1b9 7a3f 5a80 7b3f

bias f4 [32]
-0.023594549 0.016725997 0.022671718 0.010759431 0.01985734 -0.02320079 0.04746556 0.0070923776
0.02503101 -0.003924679 -0.008386816 0.010927142 -0.006997277 0.07432841 -0.03171376 -0.02094514
0.0017890736 0.003118509 -0.0017003946 0.007688248 -0.017396491 -0.003096827 -0.00917027 0.03353689
0.0002497495 0.004689527 0.0071162125 -0.008198046 0.0076802056 -0.01838712 -0.01824321 -0.016155755
00000000: 5b49 c1bc f504 893c 0aba b93c 5348 303c
00000010: dcab a23c 950f bebc 3f6b 423d 2d67 e83b
00000020: d50d cd3c 989a 80bb db68 09bc c107 333c
00000030: 6a49 e5bb 7e39 983d 4ae6 01bd 2495 abbc
00000040: 597f ea3a e65f 4c3b c6df deba b3ed fb3b
00000050: 1683 8ebc 23f4 4abb e63e 16bc fa5d 093d
00000060: cff0 8239 9baa 993b 1e2f e93b 1951 06bc
00000070: 3caa fb3b 96a0 96bc c972 95bc 1359 84bc

running_mean f4 [32]
-0.11997043 -3.7587388 0.59666646 4.774231 0.78143704 -1.085582 6.195103 2.147081
-4.0436277 4.311406 -2.9589412 1.9603934 3.8285599 -2.405234 4.366726 -2.449265
4.0451875 -1.5583013 4.444986 -2.7449589 -0.82399863 -0.19813636 2.4285169 -1.396679
0.2204412 0.46251962 -4.737751 5.466463 -2.2971778 2.1621668 1.6110224 -1.8409481
00000000: 0fb3 f5bd 2d8f 70c0 22bf 183f 80c6 9840
00000010: 420c 483f 5af4 8abf 493e c640 c669 0940
00000020: 6665 81c0 0af7 8940 4b5f 3dc0 2cee fa3f
00000030: 2007 7540 5bef 19c0 38bc 8b40 c2c0 1cc0
00000040: 2d72 8140 6b76 c7bf 533d 8e40 68ad 2fc0
00000050: 93f1 52bf 42e4 4abe d26c 1b40 61c6 b2bf
00000060: 57bb 613e 5fcf ec3e a89b 97c0 44ed ae40
00000070: f604 13c0 f160 0a40 fb35 ce3f 30a4 ebbf

running_var f4 [32]
7.364843 21.459051 21.27357 16.883013 26.464333 2.9638846 24.465282 19.737667
13.676199 14.3789625 8.88803 19.482533 14.926972 2.8700304 10.48696 7.721447
10.280823 2.427535 16.674522 5.530432 6.3511257 20.424541 21.211693 21.40407
20.703535 34.524395 17.06648 17.550903 6.9487267 19.037899 5.238801 1.814112
00000000: cbac eb40 23ac ab41 4530 aa41 6910 8741
00000010: f4b6 d341 49b0 3d40 e6b8 c341 bee6 9d41
00000020: b6d1 5a41 3b10 6641 5f35 0e41 3adc 9b41
00000030: e1d4 6e41 94ae 3740 97ca 2741 1816 f740
00000040: 407e 2441 bc5c 1b40 6c65 8541 4df9 b040
00000050: 6c3c cb40 7665 a341 8cb1 a941 893b ab41
00000060: d7a0 a541 fb18 0a42 2788 8841 4068 8c41
00000070: f85b de40 9e4d 9841 42a4 a740 d234 e83f

weight f4 [32, 18]
-0.13011837 -0.1850811 -0.081356354 -0.0037210686 -0.055390287 -0.14918981 0.20301291 0.13435076
0.23041958 -0.08368435 -0.17212884 -0.056556527 -0.20911592 0.043709252 -0.17773701 0.10659328
0.14648291 0.12127872 0.24425347 0.21716735 0.13242602 0.06936263 -0.09022003 0.012761862
0.045583308 0.029412106 -0.14154711 -0.015294771 -0.18948944 -0.10660049 0.2083192 -0.09150155
0.016360255 -0.079733156 0.058105092 0.12409566 -0.1319364 0.14339204 0.13932489 0.014006825
-0.20414835 0.23108545 -0.02428285 0.2016329 -0.07865716 0.21260563 -0.2090497 -0.1699101
-0.24693152 0.08627597 0.12663269 0.21949108 0.002248049 -0.03747822 -0.19768253 0.015413573
-0.18629058 0.21298805 -0.23408721 0.05126253 0.1682621 0.23614144 0.13171056 -0.12864229
0.13572314 -0.11717087 0.01570397 0.070420414 0.19988753 -0.113796756 0.2261195 0.018695008
0.09013076 -0.23217362 -0.016329186 -0.08415822 0.19672954 -0.12545757 0.21464019 0.23895943
0.038269084 0.039036706 -0.11125725 0.2463288 -0.16437227 0.18762669 0.074605756 -0.08837242
-0.006457221 0.040723387 0.21733038 0.22972205 -0.07983247 -0.12881866 -0.15324157 -0.016990867
0.04760895 -0.24277169 -0.014130908 -0.055152036 0.05438545 -0.12557991 0.1886016 0.18245119
-0.121606976 -0.07978306 -0.16713625 -0.10152286 -0.14410087 0.16653642 -0.1545507 -0.07391939
0.21246295 0.090726785 0.107656136 0.0035937568 0.10317412 0.092680134 0.11591591 -0.11620512
0.021815456 -0.14937268 0.17181431 -0.07797225 -0.059396368 0.06361336 0.14098127 -0.021360597
0.11195819 -0.0394971 0.08549126 0.13899261 5.984597e-06 0.1974042 0.18484774 0.0025730063
-0.034140144 0.054727696 0.11042047 0.021127636 -0.23446304 -0.09437408 0.0354773 -0.09334378
0.07769742 0.12534094 0.01287296 0.1740964 0.24737486 -0.14221638 -0.07015506 -0.00050089107
-0.03927614 -0.08774185 -0.13175087 -0.070761956 -0.07677894 -0.12654456 0.11185687 -0.06313784
-0.1333172 -0.14462584 -0.19573076 0.23103756 0.19758143 -0.1188747 -0.21723972 0.17343841
-0.08302752 0.01972599 -0.11556565 0.113010235 -0.15049101 -0.20178646 -0.18310755 -0.00474366
-0.1546624 -0.19722588 0.063394144 -0.07464427 0.047619194 -0.11630207 0.07443831 0.032542795
-0.24055167 0.14286478 -0.19274297 -0.13797715 -0.22205995 -0.08606332 0.054117385 -0.03546487
0.09507854 0.035471246 0.03173697 -0.040349636 0.00839629 -0.1847337 -0.005976091 0.2019937
-0.094856955 0.16909407 0.06869367 0.04892288 0.07044785 0.1392016 -0.031839184 -0.02401022
0.069264196 0.0803702 0.11296556 0.048326917 -0.12889378 -0.16235521 -0.23083083 0.24472325
-0.10720745 0.19878417 0.22430198 0.089268826 0.21239085 0.14623033 0.252585 0.19505371
-0.056605503 0.078115135 0.20267612 0.21332432 0.11962206 -0.19121788 -0.14381367 -0.046601336
0.15319973 0.22640316 0.10478798 0.08145151 0.049764175 -0.16061616 -0.010849921 -0.23969056
-0.18797256 -0.13918374 -0.029980361 0.06354204 0.10282464 0.19379556 -0.11137765 -0.06962841
0.19309375 -0.1500103 0.19144687 0.18311113 0.13313845 0.008959884 -0.12508176 0.16637553
00000000: c03d 05be e685 3dbe 299e a6bd 2cdd 73bb
00000010: ede0 62bd 37c5 18be 9ee2 4f3e 3f93 093e
00000020: 1cf3 6b3e b362 abbd 8b42 30be d1a7 67bd
00000030: 7c22 56be 7908 333d b100 36be 944d da3d
00000040: 9eff 153e fa60 f83d 951d 7a3e 1e61 5e3e
00000050: b09a 073e ff0d 8e3d 47c5 b8bd 2117 513c
00000060: 90b5 3a3d a8f1 f03c baf1 10be eb96 7abc
00000070: 8509 42be 5c51 dabd a151 553e 2a65 bbbd
00000080: f105 863c 234b a3bd 9bff 6d3d de25 fe3d
00000090: 561a 07be 5dd5 123e 2fab 0e3e e27c 653c
000000a0: 440c 51be aaa1 6c3e d4ec c6bc db78 4e3e
000000b0: 0117 a1bd 4ab5 593e 2011 56be eafc 2dbe
000000c0: 9edb 7cbe 75b1 b03d 00ac 013e 45c2 603e
000000d0: 0154 133b c382 19bd 4a6d 4abe 3689 7c3c
000000e0: f5c2 3ebe 8a19 5a3e 8fb4 6fbe a9f8 513d
000000f0: e64c 2c3e 10cf 713e 22df 063e ceba 03be
00000100: 02fb 0a3e 48f7 efbd 9da5 803c 9438 903d
00000110: 51af 4c3e 460e e9bd df8b 673e 4626 993c
00000120: 7a96 b83d ecbe 6dbe c9c4 85bc 255b acbd
00000130: 7873 493e f377 00be a3ca 5b3e c8b1 743e
00000140: 0bc0 1c3d f4e4 1f3d d7da e3bd 9e3d 7c3e
00000150: 3451 28be 3621 403e e7ca 983d 99fc b4bd
00000160: 1997 d3bb 91cd 263d db8b 5e3e 423c 6b3e
00000170: 357f a3bd 0ae9 03be 5ceb 1cbe 6e30 8bbc
00000180: 9a01 433d 2499 78be 5385 67bc 1ae7 61bd
00000190: 47c3 5e3d 0598 00be c720 413e 7cd4 3a3e
000001a0: 140d f9bd 4d65 a3bd c425 2bbe 38eb cfbd
000001b0: 2e8f 13be 8688 2a3e 8a42 1ebe 0d63 97bd
000001c0: e38f 593e f7ce b93d d27a dc3d 3c85 6b3b
000001d0: f44c d33d 15cf bd3d 5265 ed3d f3fc edbd
000001e0: 54b6 b23c 27f5 18be 17f0 2f3e eaaf 9fbd
000001f0: 9b49 73bd b947 823d 655d 103e 6bfc aebc
00000200: 564a e53d b6c7 21bd 0b16 af3d 1454 0e3e
00000210: 4ccf c836 5424 4a3e ba48 3d3e e29f 283b
00000220: 89d6 0bbd 262a 603d 2124 e23d dd13 ad3c
00000230: 1417 70be 3347 c1bd a550 113d 062b bfbd
00000240: d31f 9f3d 6059 003e 1ce9 523c 5446 323e
00000250: d64f 7d3e 2ca1 11be 75ad 8fbd 3b4e 03ba
00000260: 05e0 20bd 00b2 b3bd b3e9 06be a5eb 90bd
00000270: 473e 9dbd e694 01be 3715 e53d 694e 81bd
00000280: 4e84 08be cc18 14be a56d 48be 1c95 6c3e
00000290: c952 4a3e 9474 f3bd 1774 5ebe d799 313e
000002a0: 550a aabd 6698 a13c afad ecbd e971 e73d
000002b0: 511a 1abe 1ca1 4ebe 8c80 3bbe b470 9bbb
000002c0: d25f 1ebe 95f5 49be cad4 813d 18df 98bd
000002d0: 580c 433d c82f eebd 1d73 983d 984b 053d
000002e0: 2d53 76be 254b 123e 6a5e 45be e249 0dbe
000002f0: af63 63be f741 b0bd 31aa 5d3d 9d43 11bd
00000300: 8ab8 c23d 4c4a 113d a0fe 013d a945 25bd
00000310: 9890 093c d52a 3dbe 16d3 c3bb 70d7 4e3e
00000320: 5d44 c2bd ff26 2d3e 44af 8c3d 5c63 483d
00000330: f646 903d dd8a 0e3e ce69 02bd 15b1 c4bc
00000340: 63da 8d3d 2299 a43d 7d5a e73d 72f2 453d
00000350: bbfc 03be 7240 26be eb5e 6cbe bb98 7a3e
00000360: 948f dbbd 148e 4b3e 6baf 653e 93d2 b63d
00000370: fd7c 593e 67bd 153e d252 813e 29bc 473e
00000380: 2cdb 67bd d4fa 9f3d 548a 4f3e b171 5a3e
00000390: 69fc f43d 9fce 43be e443 13be 0be1 3ebd
000003a0: 64e0 1c3e 3bd6 673e 159b d63d 0dd0 a63d
000003b0: 85d5 4b3d 9078 24be dec3 31bc 7171 75be
000003c0: e17b 40be 2f86 0ebe 6099 f5bc 5422 823d
000003d0: ba95 d23d 5872 463e f719 e4bd 5799 8ebd
000003e0: 5eba 453e 4d9c 19be a60a 443e 7c81 3b3e
000003f0: 7255 083e 7acc 123c 6f15 00be 595e 2a3e

bias f4 [32]
0.100690566 0.067078 -0.015732413 -0.10263626 -0.1156851 0.101150595 0.2091899 -0.21826167
-0.21355325 0.05905466 0.017419036 -0.11842904 0.23250018 0.12294394 0.16876075 -0.19888322
0.22388169 -0.015863381 0.0904461 -0.15996827 -0.12636457 -0.1709323 -0.08389562 -0.19476359
-0.20416489 0.031588178 0.09131174 0.050714184 0.13097715 -0.03354309 -0.052369848 0.0830625
00000000: db36 ce3d 3160 893d 43e1 80bc f632 d2bd
00000010: 4fec ecbd 0b28 cf3d e135 563e fd7f 5fbe
00000020: b4ad 5abe 4de3 713d 5eb2 8e3c ed8a f2bd
00000030: 8714 6e3e 08ca fb3d 9ecf 2c3e 0ba8 4bbe
00000040: 3e41 653e ecf3 81bc ce3b b93d b9ce 23be
00000050: b765 01be e008 2fbe 78d1 abbd 1b70 47be
00000060: 9a10 51be 9b62 013d a601 bb3d adb9 4f3d
00000070: e01e 063e 7b64 09bd c481 56bd ac1c aa3d

weight f4 [2, 32]
-0.20655015 0.09881369 -0.19528852 -0.046847165 0.021992221 -0.14794575 -0.13203654 0.118000425
0.005515103 0.10821594 0.0840033 -0.027161406 0.126365 0.039677665 0.15791978 0.008511969
0.023510382 0.1598787 0.18073256 -0.04878053 0.14360349 -0.044091072 0.07518432 0.0036482876
0.052736368 -0.08902035 -0.16512197 -0.02272371 -0.17631681 -0.02370237 -0.06693442 -0.15166287
-0.15268469 0.014599733 -0.070661195 0.17196353 0.023993151 0.07392404 -0.037232943 -0.14209744
0.042018883 0.13438895 0.18642214 -0.010191237 0.17597032 -0.042037528 0.05174022 -0.08867398
0.07393247 -0.07505365 -0.123508826 -0.108060464 0.14978102 0.17212726 0.16646971 0.14318065
-0.026225334 0.013938048 0.115133464 -0.15065435 -0.05355575 -0.005027896 0.1503722 0.020942362
00000000: e281 53be d55e ca3d b7f9 47be d0e2 3fbd
00000010: 0829 b43c 177f 17be 9634 07be 35aa f13d
00000020: 0ab8 b43b 52a0 dd3d ec09 ac3d 9981 debc
00000030: d465 013e 0c85 223d b9b5 213e c975 0b3c
00000040: d898 c03c 3eb7 233e f511 393e 18ce 47bd
00000050: cb0c 133e d798 34bd 3dfa 993d 1c18 6f3b
00000060: 1702 583d 4d50 b6bd bc15 29be 1327 babc
00000070: 658c 34be 792b c2bc ea14 89bd 834d 1bbe
00000080: 6059 1cbe b833 6f3c d1b6 90bd 3517 303e
00000090: 498d c43c 7d65 973d 9281 18bd fe81 11be
000000a0: fe1b 2c3d 429d 093e 72e5 3e3e 25f9 26bc
000000b0: 9031 343e 8b2f 2cbd 8eed 533d b49a b5bd
000000c0: e869 973d bab5 99bd 32f2 fcbd ce4e ddbd
000000d0: 3260 193e 2142 303e 0977 2a3e f39d 123e
000000e0: 83d6 d6bc 695c 643c 18cb eb3d 2245 1abe
000000f0: 465d 5bbd 0cc1 a4bb 2cfb 193e 518f ab3c

bias f4 [2]
-0.06539753 -0.049448583
00000000: 24ef 85bd 998a 4abd

weight f4 [32]
1.0228025 1.0327458 1.0271573 1.0067732 1.0035716 1.0016838 0.99938166 0.9742975
0.9904192 0.9938995 1.0272238 0.9908232 0.99180037 0.9658964 1.0181676 0.998645
1.0090163 0.984217 1.0083466 1.0136986 1.0107919 1.0325277 1.0015153 1.0111749
0.99797297 0.99961114 1.0038346 0.9975701 1.0276098 0.9850427 1.017009 1.0159281
00000000: 31eb 823f 0431 843f e479 833f f2dd 803f
00000010: 0975 803f 2d37 803f 7ad7 7f3f 906b 793f
00000020: 1d8c 7d3f 3370 7e3f 127c 833f 97a6 7d3f
00000030: a1e6 7d3f fd44 773f 5153 823f 33a7 7f3f
00000040: 7227 813f a5f5 7b3f 8011 813f e0c0 813f
00000050: a161 813f de29 843f a731 803f 2e6e 813f
00000060: 287b 7f3f 84e6 7f3f a77d 803f c160 7f3f
00000070: b888 833f c22b 7c3f 5a2d 823f ef09 823f

bias f4 [32]
0.0025104329 0.056747876 0.025782445 0.027121862 -0.01938694 0.00037208394 -0.006511903 0.0006255057
-0.0017174789 0.0064236145 0.012332745 0.0049593262 -0.0096701905 -0.016922148 0.015186818 -0.06356166
-0.028912691 0.032155592 0.024242582 0.025222745 0.03337826 -0.005640838 -0.009049793 0.023672404
0.017044144 -0.0044514425 0.0059726518 -0.013110623 0.0073352098 -0.009228706 0.026646229 -0.020793416
00000000: 1386 243b 7670 683d b535 d33c ab2e de3c
00000010: 5cd1 9ebc 4314 c339 cd61 d5bb faf8 233a
00000020: 071d e1ba 2f7d d23b 480f 4a3c d881 a23b
00000030: b86f 1ebc 51a0 8abc 22d2 783c 9e2c 82bd
00000040: 4fda ecbc 95b5 033d 6198 c63c ee9f ce3c
00000050: a4b7 083d c7d6 b8bb 9545 14bc a1ec c13c
00000060: 29a0 8b3c 68dd 91bb 3cb6 c33b f0cd 56bc
00000070: 335c f03b 0034 17bc 3149 da3c f456 aabc

running_mean f4 [32]
0.25376308 -0.088636145 0.1386182 -0.051799275 -0.08150718 -0.024847109 0.316472 -0.33510765
-0.16191268 0.1260592 -0.11226496 -0.18234116 0.1651971 0.10571224 0.15484723 -0.13266218
0.28828725 -0.20092829 -0.0020899037 -0.00072794425 -0.18409432 -0.15619674 -0.06525262 -0.03962003
-0.33646294 -0.0038379226 0.1344912 0.030753588 0.18241018 0.055673186 -0.0409268 0.001713751
00000000: 3ced 813e de86 b5bd eef1 0d3e 7a2b 54bd
00000010: 3ded a6bd 2a8c cbbc 9e08 a23e 3b93 abbe
00000020: 70cc 25be aa15 013e 2ceb e5bd a4b7 3abe
00000030: 6e29 293e a97f d83d 4690 1e3e 98d8 07be
00000040: 639a 933e 25c0 4dbe c4f6 08bb 83d3 3eba
00000050: 3983 3cbe 0af2 1fbe 2aa3 85bd 9d48 22bd
00000060: df44 acbe a885 7bbb 10b8 093e f3ee fb3c
00000070: bcc9 3a3e 9109 643d dca2 27bd f19f e03a

running_var f4 [32]
0.027173255 0.024493406 0.12099101 0.14385793 0.010137685 0.05507832 0.00663475 0.03666057
0.07057212 0.06267331 0.0070005064 0.027456366 0.015675617 0.04791739 0.020490946 0.026648002
0.021879489 0.018226767 0.023350649 0.059902135 0.034070216 0.01958602 0.016436236 0.11831817
0.019087978 0.10643145 0.056019027 0.044566873 0.13980408 0.03150424 0.051814195 0.051424995
00000000: 729a de3c 65a6 c83c 22ca f73d 7e4f 133e
00000010: 8818 263c ce99 613d 5168 d93b 6529 163d
00000020: 1e88 903d dd5a 803d 8164 e53b 2cec e03c
00000030: 276a 803c 0645 443d a1dc a73c e94c da3c
00000040: 9d3c b33c 4d50 953c dc49 bf3c f15b 753d
00000050: 368d 0b3d dc72 a03c 49a5 863c cc50 f23d
00000060: 645e 9c3c bbf8 d93d 3574 653d c18b 363d
00000070: cd28 0f3e 970a 013d 1f3b 543d 04a3 523d

weight f4 [32, 16]
0.18580595 0.14689696 0.12394521 0.14734824 -0.048162468 -0.03321729 -0.19639176 -0.05947225
0.16785958 -0.15692627 -0.08794746 0.053413156 0.14563805 0.16453388 -0.13504212 0.00989738
0.17317992 0.024156665 0.04729585 0.22968802 -0.13754565 0.24482813 -0.19174743 0.08405594
-0.11336393 -0.113676615 -0.11176243 -0.041342538 -0.19830807 -0.18178836 0.07231158 0.17466573
-0.16255137 0.05036083 -0.25911847 -0.0715626 -0.20965703 -0.12477935 0.04446894 0.21162628
-0.062196035 0.10269923 0.089972325 0.025161445 0.1853149 -0.12413013 -0.12990798 -0.28210407
-0.053680178 -0.20567349 0.1649976 0.11261751 -0.086584106 -0.20696609 -0.031204134 0.2606491
0.16320793 -0.046291035 0.1841828 -0.087817825 0.074254096 -0.16294867 0.069780394 -0.06380306
-0.058023326 0.068782985 -0.09963629 0.025879944 0.08932993 -0.0555423 0.13097079 -0.23025438
-0.11611872 0.028343277 -0.055219665 -0.024492886 0.02412104 0.0017411091 0.08871356 -0.1872955
0.044250526 0.052159984 -0.16206348 0.06578293 0.10983771 0.030488007 -0.23280978 -0.14729412
0.020735605 0.22581212 -0.099804975 0.18125783 0.11069738 0.08902648 0.19480847 0.10082416
-0.24286187 0.016268864 0.05189847 0.17830835 0.22883172 -0.08259254 -0.008809215 0.2626943
0.051263526 -0.04009618 -0.047411207 -0.10558634 0.14328828 -0.21512622 -0.029907735 0.11858502
-0.083846174 0.26009122 -0.055886317 -0.21334709 0.08588924 0.029979745 -0.026504302 0.0009089884
-0.2199385 -0.09681165 -0.054758854 0.04172214 -0.20757796 0.23352109 0.107573844 0.001057254
-0.20298962 0.13459262 -0.19986618 -0.20643692 -0.06837565 -0.19458967 -0.040548645 0.2142414
-0.20162326 -0.10014402 0.030420842 -0.18423827 -0.02330341 0.11196793 -0.0496601 -0.13088652
0.025428576 0.1985909 0.22007582 0.16099393 -0.10523854 0.10881701 -0.1553018 -0.060745366
0.007945438 -0.061369043 0.25165683 -0.013413942 0.066228725 0.0045527215 0.17821315 0.009656959
-0.014773219 -0.014787765 -0.14427602 -0.1340635 0.2072418 -0.08482983 -0.11543976 -0.1086221
0.07968822 0.03689661 0.033499245 -0.16370587 0.14139418 -0.044413295 -0.08952381 -0.20306665
-0.09488972 -0.2010348 0.21176665 -0.07925738 0.0037597618 0.062045127 -0.12062918 -0.09883088
0.23590644 -0.21039729 -0.0012940735 -0.13573453 0.2195941 -0.13430572 -0.24458927 0.14238818
-0.17647484 -0.027076764 0.10026807 0.24507582 0.19431241 0.08132366 -0.23098236 0.23709027
-0.18001445 0.08094564 0.05835146 0.021962265 0.17617185 -0.13120332 0.17716837 0.16312881
-0.072204515 -0.24634865 0.051542055 0.27800688 0.13516591 0.13799743 -0.23068798 -0.23935983
0.22582456 0.0014550367 0.055496763 0.07443074 0.167749 -0.032805394 0.07459863 0.15934567
0.17051259 0.16715604 0.062433235 0.021929497 0.04497418 -0.057888586 0.042653907 -0.22951661
-0.019787673 0.012571706 0.15199026 0.17903359 -0.15131009 0.03335149 0.01429636 -0.049740948
0.13330229 0.09111843 -0.13088612 -0.12351715 0.0016312203 -0.22964874 0.14976913 0.08683838
-0.10410537 -0.19389893 0.02969354 0.21298248 -0.16171674 0.06964738 0.07021851 -0.16520368
00000000: ea43 3e3e 286c 163e fcd6 fd3d 75e2 163e
00000010: 0246 45bd da0e 08bd ec1a 49be 2d99 73bd
00000020: 62e3 2b3e 48b1 20be cc1d b4bd c1c7 5a3d
00000030: 2422 153e 927b 283e 7b48 0abe 9f28 223c
00000040: 1456 313e 33e4 c53c 4bb9 413d 5633 6b3e
00000050: c4d8 0cbe 3ab4 7a3e 7059 44be 8525 ac3d
00000060: 592b e8bd 49cf e8bd b3e3 e4bd cb56 29bd
00000070: 4511 4bbe ba26 3abe 1818 943d 93db 323e
00000080: de73 26be 2847 4e3d 2dab 84be 6a8f 92bd
00000090: 55b0 56be 518c ffbd 1025 363d 8fb4 583e
000000a0: 45c1 7ebd f953 d23d 6943 b83d 601f ce3c
000000b0: 30c3 3d3e f037 febd 9906 05be f26f 90be
000000c0: bfdf 5bbd 129c 52be 21f5 283e 02a4 e63d
000000d0: 0253 b1bd ebee 53be d09f ffbc cd73 853e
000000e0: fb1f 273e ab9b 3dbd 6a9a 3c3e d5d9 b3bd
000000f0: 8812 983d 04dc 26be 06e9 8e3d 2eab 82bd
00000100: dea9 6dbd 18de 8c3d 1c0e ccbd 2d02 d43c
00000110: 9cf2 b63d 5380 63bd 351d 063e cec7 6bbe
00000120: a7cf edbd 2930 e83c 042e 62bd 4ea5 c8bc
00000130: 7d99 c53c ed35 e43a 74af b53d 64ca 3fbe
00000140: 0a40 353d b5a5 553d f8f3 25be 33b9 863d
00000150: 98f2 e03d fcc1 f93c b065 6ebe 45d4 16be
00000160: b7dd a93c 4b3b 673e 8d66 ccbd a79b 393e
00000170: 4fb5 e23d 8453 b63d df7b 473e e67c ce3d
00000180: c8b0 78be 4846 853c 7d93 543d 7796 363e
00000190: dd52 6a3e 4726 a9bd 8754 10bc de7f 863e
000001a0: b4f9 513d e43b 24bd 4132 42bd a73d d8bd
000001b0: 2aba 123e 0c4a 5cbe 1101 f5bc b4dc f23d
000001c0: 8bb7 abbd ad2a 853e 0de9 64bd a977 5abe
000001d0: b3e6 af3d 1598 f53c 8d1f d9bc 2e49 6e3a
000001e0: 8f37 61be 3045 c6bd d24a 60bd d6e4 2a3d
000001f0: 518f 54be 2720 6f3e ad4f dc3d 8f93 8a3a
00000200: 83dc 4fbe a6d2 093e b8a9 4cbe 3364 53be
00000210: 8808 8cbd 8442 47be 5616 26bd 1962 5b3e
00000220: 5476 4ebe 4f18 cdbd 2135 f93c f5a8 3cbe
00000230: cbe6 bebc 714f e53d 6468 4bbd 1e07 06be
00000240: 974f d03c 6a5b 4b3e 8e5b 613e 98db 243e
00000250: 4e87 d7bd 74db de3d 6f07 1fbe 22d0 78bd
00000260: 952d 023c 1b5e 7bbd 2ad9 803e 27c6 5bbc
00000270: eda2 873d ff2e 953b 827d 363e 3938 1e3c
00000280: 5f0b 72bc 6248 72bc 18bd 13be f147 09be
00000290: 3237 543e 43bb adbd ae6b ecbd 4375 debd
000002a0: 9433 a33d e620 173d 8136 093d 83a2 27be
000002b0: a3c9 103e b7ea 35bd 4258 b7bd b4f0 4fbe
000002c0: 8b55 c2bd 11dc 4dbe 5bd9 583e b151 a2bd
000002d0: 5666 763b 0823 7e3d 6e0c f7bd d867 cabd
000002e0: 7591 713e 6372 57be e79d a9ba fefd 0abe
000002f0: 47dd 603e 7087 09be 9c75 7abe 35ce 113e
00000300: d2b5 34be 17d0 ddbc 5959 cd3d 28f5 7a3e
00000310: d5f9 463e 058d a63d a486 6cbe cbc7 723e
00000320: b555 38be d4c6 a53d f101 6f3d 35ea b33c
00000330: 6566 343e 2a5a 06be a06b 353e 3d0b 273e
00000340: f6df 93bd d242 7cbe c31d 533d eb56 8e3e
00000350: ef68 0a3e 334f 0d3e 7839 6cbe be1a 75be
00000360: 8e3e 673e eeb6 be3a 9350 633d 256f 983d
00000370: 65c6 2b3e f35e 06bd 2bc7 983d 832b 233e
00000380: da9a 2e3e f42a 2b3e feb9 7f3d 7da5 b33c
00000390: d936 383d 951c 6dbd ddb5 2e3d 6706 6bbe
000003a0: c219 a2bc 8ff9 4d3c 56a3 1b3e 9554 373e
000003b0: 08f1 1abe 929b 083d 483b 6a3c 2abd 4bbd
000003c0: 6580 083e 4d9c ba3d 0307 06be 8ff6 fcbd
000003d0: acce d53a 0a29 6bbe 145d 193e 52d8 b13d
000003e0: 3235 d5bd 718d 46be de3f f33c 1418 5a3e
000003f0: 1399 25be 49a3 8e3d b9ce 8f3d 272b 29be

bias f4 [32]
0.24683398 0.19545574 0.03272154 0.22833553 0.22594336 -0.20730688 -0.111094885 -0.0062865703
0.21424334 0.075625636 0.11231509 0.15401313 0.23780777 0.19279721 -0.015906053 0.09954501
0.057494543 0.14079915 -0.11905866 -0.17359237 0.06326617 0.21564981 0.10267782 -0.23230143
0.10452589 -0.16406229 -0.09717289 0.109478354 0.13589509 -0.06378844 -0.13693964 0.06750202
00000000: 0cc2 7c3e 8d25 483e 0607 063d cad0 693e
00000010: b25d 673e 4148 54be b785 e3bd 93ff cdbb
00000020: 9b62 5b3e 9de1 9a3d 7405 e63d 9eb5 1d3e
00000030: e183 733e a26c 453e 694d 82bc 41de cb3d
00000040: 667f 6b3d a72d 103e 07d5 f3bd 33c2 31be
00000050: b291 813d 4ed3 5c3e c048 d23d 6de0 6dbe
00000060: ab11 d63d f2ff 27be 9502 c7bd 3036 e03d
00000070: 1528 0b3e 83a3 82bd e839 0cbe 803e 8a3d

weight f4 [2, 32]
-0.05848194 -0.044880785 -0.055118967 0.07766138 -0.10916533 -0.14104606 0.13390194 0.103982374
-0.15071538 0.10404157 -0.0062256497 -0.19731243 0.08409196 0.07803314 -0.16883731 -0.14198844
0.07585644 -0.15695606 0.10557745 -0.028819507 -0.082927145 0.1229209 -0.14520639 0.015231606
0.002837142 -0.002606336 -0.0025667762 -0.13337818 -0.029987432 -0.09687475 0.08271648 -0.11852828
0.062150273 0.2159772 0.08912777 -0.021647295 0.07159769 -0.09445271 0.029629385 0.050117884
-0.16250274 -0.15852986 -0.004318111 -0.1077842 -0.099552274 -0.020731471 -0.14573412 -0.034983747
0.072108686 0.061925694 0.055129867 0.12198397 -0.014408782 -0.011239109 0.14708047 -0.032237418
-0.00533891 0.022466268 -0.018055571 0.010622486 0.029664585 0.13256896 0.05100372 0.057452906
00000000: c28a 6fbd ead4 37bd 6dc4 61bd ee0c 9f3d
00000010: 1392 dfbd 616e 10be 971d 093e b6f4 d43d
00000020: 2255 1abe bf13 d53d 8900 ccbb 450c 4abe
00000030: 6838 ac3d d7cf 9f3d b0e3 2cbe 6b65 11be
00000040: 9f5a 9b3d 17b9 20be fd38 d83d e316 ecbc
00000050: b5d5 a9bd f4bd fb3d fcb0 14be fc8d 793c
00000060: 58ef 393b 10cf 2abb 5c37 28bb 4a94 08be
00000070: 34a8 f5bc 4566 c6bd 4267 a93d f4be f2bd
00000080: 4991 7e3d 2129 5d3e 9f88 b63d ab55 b1bc
00000090: cfa1 923d 6c70 c1bd 53b9 f23c 6948 4d3d
000000a0: 1e67 26be a755 22be f17e 8dbb f6bd dcbd
000000b0: 10e2 cbbd 0cd5 a9bc 533b 15be 1e4b 0fbd
000000c0: b8ad 933d cca5 7d3d dbcf 613d bbd2 f93d
000000d0: d012 6cbc 3d24 38bc 439c 163e 620b 04bd
000000e0: 06f2 aebb 2e0b b83c 47e9 93bc ef09 2e3c
000000f0: 2503 f33c 28c0 073e 47e9 503d bd53 6b3d

bias f4 [2]
0.07076485 -0.0015742523
00000000: 29ed 903d 2457 ceba

weight f4 [32]
1.0076857 1.0511241 0.9917973 1.0164409 1.0158443 0.9908 1.0008258 0.99007565
1.0006993 0.9777248 0.9752942 1.0302334 0.97900784 0.98214364 1.0042701 0.9901954
0.9881313 1.0094371 0.9939001 0.98613393 1.0000786 0.99690145 0.994012 0.9956466
0.9742363 0.98021394 0.99134374 1.0037255 0.97878003 1.0125314 0.98974013 1.0050217
00000000: d8fb 803f 3c8b 863f 6ee6 7d3f bc1a 823f
00000010: 3007 823f 12a5 7d3f 0f1b 803f 9975 7d3f
00000020: ea16 803f 2c4c 7a3f e1ac 793f b0de 833f
00000030: 42a0 7a3f c46d 7b3f ec8b 803f 727d 7d3f
00000040: 2cf6 7c3f 3c35 813f 3d70 7e3f 4673 7c3f
00000050: 9302 803f ef34 7f3f 9277 7e3f b2e2 7e3f
00000060: 8d67 793f 4def 7a3f b4c8 7d3f 147a 803f
00000070: 5491 7a3f a19a 813f 9c5f 7d3f 8da4 803f

bias f4 [32]
-0.018012222 -0.031070618 -0.007875717 0.005917982 0.014333958 0.0029663953 0.010276 0.000575875
-0.010900856 -0.022851503 -0.012602626 0.014575465 -0.007923121 -0.023998814 0.008206904 -0.006832771
-0.016075222 0.015677959 -0.0014452817 -0.04387731 0.011166084 -0.001455195 -0.01710486 0.004804507
-0.001988938 -0.022816572 0.0014423975 0.009349069 -0.026584096 0.031500153 -0.015813248 0.0053670825
00000000: 5e8e 93bc cf87 febc 2709 01bc a2eb c13b
00000010: fad8 6a3c db67 423b ab5c 283c 51f6 163a
00000020: 8199 32bc 1333 bbbc 3f7b 4ebc eecd 6e3c
00000030: facf 01bc 2999 c4bc 4076 063c 70e5 dfbb
00000040: 2fb0 83bc 106f 803c 9b6f bdba b2b8 33bd
00000050: f3f1 363c 3ebc beba 7e1f 8cbc 206f 9d3b
00000060: d858 02bb d2e9 babc d40e bd3a d62c 193c
00000070: e4c6 d9bc 4e06 013d c98a 81bc 5ade af3b

running_mean f4 [32]
0.43921158 0.54354167 -0.27434528 0.23786905 0.0948115 -0.095421806 -0.14934742 9.318614e-05
0.025490772 0.3344548 -0.009418236 0.26956677 0.38875285 0.39507362 -0.030430686 -0.10000072
0.108431555 0.20471407 -0.13089585 -0.15202928 0.10264984 0.26585793 0.043636505 -0.34148717
0.33792132 -0.3360426 -0.14244978 0.16972218 0.10152731 -0.11919782 -0.12197275 0.057784773
00000000: 57e0 e03e 8c25 0b3f fc76 8cbe f293 733e
00000010: 882c c23d 826c c3bd 88ee 18be ee6c c338
00000020: 06d2 d03c a93d ab3e f24e 1abc a804 8a3e
00000030: 9d0a c73e 1747 ca3e c649 f9bc 2dcd ccbd
00000040: 5d11 de3d 91a0 513e 9009 06be 90ad 1bbe
00000050: 143a d23d 881e 883e 31bc 323d 68d7 aebe
00000060: 0604 ad3e c70d acbe 5bde 11be a7cb 2d3e
00000070: 8ded cf3d fd1d f4bd d9cc f9bd baaf 6c3d

running_var f4 [32]
0.02421592 0.02762474 0.10470508 0.015467166 0.013615412 0.03887433 0.0076667327 0.041093506
0.03980496 0.048467245 0.08292842 0.08394429 0.0038908704 0.062319748 0.04371125 0.08111016
0.066446036 0.040937196 0.041901696 0.012005383 0.04391764 0.024363264 0.035593934 0.009653383
0.048490703 0.0075102174 0.010621375 0.0390503 0.040372275 0.00677355 0.008816221 0.05843128
00000000: 7760 c63c 474d e23c 9e6f d63d ff69 7d3c
00000010: 2d13 5f3c b13a 1f3d 3739 fb3b aa51 283d
00000020: 870a 233d 9785 463d 60d6 a93d fcea ab3d
00000030: f9fd 7e3b fe42 7f3d 910a 333d 151d a63d
00000040: dc14 883d c3ad 273d 1da1 2b3d 3ab2 443c
00000050: fce2 333d 7895 c73c f2ca 113d 3929 1e3c
00000060: 309e 463d 4518 f63b 4705 2e3c 35f3 1f3d
00000070: 665d 253d a8f4 dd3b e971 103c a355 6f3d
