code/model_obj_backups/model_obj_27.pt (torch, 540834 bytes, 158 tensors)

weight f4 [32, 2]
0	0x3d1eea11	0.038797442
1	0x3ec3cb2d	0.38240948
2	0xbea55e16	-0.32298344
3	0x3e619147	0.22028075
4	0xbf2368b0	-0.63831615
5	0x3f20fcc6	0.628857
6	0xbe8292a3	-0.255025
7	0x3e3c820a	0.18408981
8	0x3f1a5766	0.6028961
9	0xbe8ef3e4	-0.2792045
10	0xbe9e2271	-0.30885652
11	0xbf3540dc	-0.7080209
12	0x3e769630	0.2408073
13	0xbe5257ef	-0.20541357
14	0x3ed772bd	0.42079726
15	0x3f2b3068	0.6687074
16	0x3ea1825d	0.31544772
17	0xbd581433	-0.05275364
18	0xbe9440c1	-0.28955653
19	0x3f014e90	0.505105
20	0x3eac2ebe	0.3362941
21	0xbe10d029	-0.14141907
22	0xbdcb5de7	-0.0993002
23	0xbeaac260	-0.3335142
24	0xbe00b168	-0.12567675
25	0x3e7852e2	0.24250367
26	0x3ed7f330	0.42177725
27	0x3f352297	0.70755905
28	0x3ea04451	0.3130212
29	0x3ecdadfa	0.40171796
30	0xbec6e98c	-0.38850057
31	0xbda1bbe6	-0.07897167
32	0x3e376faf	0.17913698
33	0x3e99b4aa	0.30020648
34	0x3f2b022a	0.6680018
35	0x3f1d8acc	0.6153991
36	0xbea37252	-0.31923157
37	0xbf234ab6	-0.63785875
38	0x3e24959c	0.16072696
39	0xbec2dc5f	-0.38058755
40	0x3f03871a	0.51378024
41	0xbf1189da	-0.5685097
42	0xbcbab61c	-0.022791915
43	0x3da7d98d	0.081957914
44	0xbef51ff2	-0.47875935
45	0xbf0e6b2e	-0.55632293
46	0xbf08771a	-0.53306735
47	0x3e967973	0.29389533
48	0x3f0c74da	0.548658
49	0xbea2aa43	-0.31770524
50	0x3f080fb5	0.5314897
51	0x3e66d3e0	0.22541761
52	0x3e701707	0.23446284
53	0xbf19876a	-0.5997225
54	0x3f2d5980	0.6771469
55	0xbf1dd30a	-0.61650145
56	0x3e7157c4	0.23568636
57	0x3ec8586c	0.3912996
58	0x3f1abb92	0.6044246
59	0x3ec04ee0	0.37560177
60	0x3f2828ac	0.6568706
61	0xbdf65817	-0.120285206
62	0xbbeae240	-0.0071680844
63	0xbe66f87c	-0.22555727

bias f4 [32]
0	0x3e249ea0	0.16076136
1	0xbe6ba27d	-0.23011203
2	0xbf1de1e7	-0.61672825
3	0xbeda50b0	-0.42639685
4	0xbf013942	-0.50477993
5	0xbe5c08bf	-0.21487711
6	0xbe9a9fbf	-0.30200002
7	0x3e9cabb2	0.30599743
8	0xbf2580ca	-0.6464964
9	0xbe246646	-0.16054639
10	0xbdbdc98c	-0.09266958
11	0xbf1d572c	-0.6146114
12	0x3ee9d50a	0.45670348
13	0x3f13a393	0.5767147
14	0xbc8dd8b5	-0.017315248
15	0xbd5489a1	-0.051889066
16	0x3eb26cb2	0.34848553
17	0xbed2d18d	-0.411755
18	0xbdbd2b70	-0.09236801
19	0x3ee82d86	0.45347232
20	0x3dc78479	0.09742064
21	0xbeb10fb7	-0.34582302
22	0x3eee5a66	0.46553344
23	0xbf16ad2e	-0.58858
24	0x3eb0bf77	0.34521076
25	0x3f2d9d04	0.6781771
26	0xbedfd351	-0.4371591
27	0xbe963ce2	-0.29343325
28	0x3f122b5c	0.5709741
29	0x3f1cd53f	0.6126289
30	0xbb9db7c4	-0.0048131663
31	0xbf0538aa	-0.5203959

weight f4 [16, 32]
0	0xbdbebe53	-0.09313645
1	0x3ddda486	0.10822396
2	0x3b62553d	0.003453567
3	0x3db5adf9	0.08871073
4	0x3dc8787c	0.097886056
5	0x3d242d89	0.04008249
6	0x3c2a9893	0.010412353
7	0xbd1c6ddd	-0.03819071
8	0x3de7531e	0.1129515
9	0x3d615fa6	0.055022858
10	0xbe1661aa	-0.14685693
11	0x3df928a4	0.12165955
12	0x3dbaa222	0.09112956
13	0xbe28e1ef	-0.16492437
14	0xbe33442a	-0.17506471
15	0xbd9a8b2b	-0.075460754
16	0xbca5ac73	-0.020223832
17	0xbce2c1ba	-0.027680267
18	0x3d6f2268	0.05838242
19	0xbe0a5b6f	-0.13511442
20	0xbe0f0146	-0.1396533
21	0xbc006451	-0.007836417
22	0xb9d3040b	-0.00040248068
23	0x3d860185	0.065432586
24	0xbd99b541	-0.075052746
25	0xbe329bc5	-0.17442234
26	0xbd960991	-0.073260434
27	0x3c43a474	0.011941064
28	0x3da721c4	0.08160737
29	0x3d99039d	0.07471392
30	0x3daee568	0.085398495
31	0xbdaa56d0	-0.083173394
32	0x3d8a6a13	0.06758513
33	0x3e38861e	0.18019912
34	0x3d0a9fb7	0.033843722
35	0xbda92f78	-0.08261007
36	0xbd6e2466	-0.05814018
37	0x3dbf7a6c	0.09349522
38	0xbd7b19b3	-0.061303806
39	0xbe06015a	-0.13086453
40	0xbd4d1649	-0.05007008
41	0xbdcbc958	-0.09950513
42	0xbd5a0154	-0.053223923
43	0xbe098e30	-0.13433146
44	0x3d8cba95	0.06871525
45	0xbd5e9256	-0.054338776
46	0xbd8756c8	-0.06608349
47	0x3e0f912d	0.14020224
48	0xbe33f4bb	-0.17573826
49	0x3dd32445	0.10309652
50	0xbe100ba0	-0.14066935
51	0xbe0ff600	-0.14058685
52	0xbd3d9072	-0.046280332
53	0xbc725926	-0.014791762
54	0x3d7c2d3e	0.061566584
55	0x3dbe1bf9	0.09282679
56	0x3d0e896f	0.034799036
57	0xbe07afae	-0.1325061
58	0x3e110236	0.14161
59	0xbe29181f	-0.16513108
60	0xbd755a6f	-0.059900697
61	0xbe05f274	-0.1308077
62	0xbdd85e30	-0.1056484
63	0x3dfc48f0	0.12318599
64	0xbda6a45d	-0.081368186
65	0xbca04c4e	-0.019567635
66	0x3e1f70bd	0.1557035
67	0x3ca66729	0.020312862
68	0xbe1ec653	-0.15505342
69	0x3beeba1d	0.00728537
70	0xbd8629f2	-0.06550969
71	0xbd36a9a4	-0.044595376
72	0x3e3cb244	0.18427378
73	0x3c9fb9e4	0.01949782
74	0xbd300519	-0.04297361
75	0xbd99c498	-0.075082004
76	0xbe1941e5	-0.14966543
77	0xbe0e6a35	-0.13907702
78	0xbc5ec4ce	-0.013596727
79	0x3e049a04	0.12949377
80	0x3db307ee	0.08741747
81	0x3c0c0cee	0.008548005
82	0x3cc73704	0.024318226
83	0xbd436f2d	-0.047713447
84	0xbd921809	-0.071334906
85	0x3dfb98a6	0.12284975
86	0x3c869f2e	0.016433325
87	0xbc4d194d	-0.012518239
88	0x3c11a4a9	0.008889356
89	0x3d03c3a1	0.03216899
90	0x3e27296b	0.16324393
91	0x3e2f99b0	0.17148471
92	0x3e219913	0.1578105
93	0x3ca3013c	0.01989805
94	0x3dc7a017	0.097473316
95	0x3e0865f7	0.13320147
96	0xbd51bc67	-0.051205065
97	0x3dfa8b8a	0.12233646
98	0xbdb19bb5	-0.08672277
99	0x3dc57212	0.09640898
100	0x3b959676	0.0045650555
101	0x3dcbbce7	0.0994814
102	0xbd473ed4	-0.048643902
103	0xbde59e5e	-0.11211847
104	0xbe1eba26	-0.15500697
105	0xbce916e0	-0.02845329
106	0x3d4b35b6	0.04961177
107	0xbd9a1b94	-0.07524791
108	0x3de6dc21	0.11272455
109	0x3d3f2147	0.046662595
110	0xbde1e46c	-0.11029896
111	0x3dc0daa5	0.09416703
112	0x3d8bc5ad	0.06824813
113	0x3e215426	0.15754756
114	0x3db4a3c4	0.08820298
115	0xbd25a63a	-0.04044173
116	0x3d8cfc82	0.068840995
117	0xbccc4ef7	-0.024939997
118	0xbcac2264	-0.021012492
119	0x3e2e5e30	0.17028117
120	0xbe0d8186	-0.1381894
121	0x3cbfb10e	0.023399856
122	0xbc9dd43a	-0.019266237
123	0xbd8bcbad	-0.068259574
124	0xbe2dac74	-0.16960317
125	0xbd16e505	-0.036839504
126	0x3d8edffd	0.06976316
127	0x3d71b8f0	0.05901426
128	0xbe03d9b2	-0.12876013
129	0x3e0a2015	0.13488801
130	0x3caeea04	0.021351822
131	0x3cad62b5	0.021165231
132	0x3cb35b78	0.021894202
133	0xbd69e882	-0.057106502
134	0x3cfe8cf8	0.031073079
135	0xbd926304	-0.07147792
136	0xbd55ddd7	-0.052213516
137	0xbcbf1b8b	-0.023328563
138	0x3d22bbe3	0.039729964
139	0x3c5ad780	0.013357043
140	0xbd8c4ca8	-0.068505585
141	0xbe213e8a	-0.15746513
142	0x3d3be223	0.045869958
143	0x3dc2f323	0.09519031
144	0x3e0d83a0	0.13819742
145	0xbdd9692d	-0.10615764
146	0x3d9df62d	0.0771297
147	0x3dba8309	0.09107024
148	0xbd80a5ae	-0.06281601
149	0x3dac8113	0.084230565
150	0xbd8d48fb	-0.068986855
151	0x3d04d623	0.03243078
152	0x3e0fa2d6	0.1402696
153	0x3d4bfff0	0.049804628
154	0xbe0b5ba5	-0.13609178
155	0x3d279780	0.040915966
156	0xbe179ea4	-0.1480661
157	0xbd72de5a	-0.059294082
158	0xbe1b4c9f	-0.15165947
159	0x3df1c1ae	0.118045196
160	0x3de34af9	0.11098284
161	0x3e25843c	0.16163725
162	0xbdd6150c	-0.10453233
163	0xbe118523	-0.14210944
164	0xbe2c14b8	-0.16804779
165	0xbd841e5b	-0.06451102
166	0xbdead970	-0.11467254
167	0x3e03038d	0.12794323
168	0x3e1f61ca	0.15564647
169	0xbcff5e33	-0.031172847
170	0xbdc4fd4c	-0.09618625
171	0x3e2ea468	0.17054904
172	0x3dc439c3	0.0958133
173	0x3d8e0525	0.06934575
174	0xbb5925a7	-0.0033134015
175	0x3df7dbc7	0.12102466
176	0xbe2b06cc	-0.16701812
177	0x3b003670	0.0019563697
178	0x3d5fc160	0.054627776
179	0x3d828550	0.063730836
180	0xbd22e296	-0.03976687
181	0xbdc1bb87	-0.09459596
182	0x3dc7180d	0.09721384
183	0xbd8fbe84	-0.0701876
184	0x3e22bd9b	0.15892641
185	0xbda8e7f0	-0.082473636
186	0x3e213ef2	0.15746668
187	0xbdfa459f	-0.122203104
188	0xbdb3dcfd	-0.087823845
189	0x3e07c720	0.13259554
190	0x3dc63b06	0.096792266
191	0x3c7edfcd	0.015556288
192	0x3e25e461	0.16200401
193	0x3ddba78a	0.10725315
194	0x3ddea73b	0.108717404
195	0xbdeb21f6	-0.11481087
196	0xbdef11b7	-0.11673301
197	0xbd580031	-0.052734558
198	0x3e1c6da9	0.15276207
199	0xbdffe47a	-0.1249475
200	0xbd149a15	-0.036279757
201	0xbd11c405	-0.03558733
202	0x3e2a6659	0.16640605
203	0x3e0c8ea3	0.13726287
204	0xbe007bdf	-0.12547253
205	0x3db700e7	0.08935719
206	0x3e13f261	0.14447929
207	0xbd4da959	-0.05021033
208	0x3c017c5e	0.007903187
209	0xbe02aaa6	-0.1276041
210	0x3e30ed25	0.17277963
211	0x3dc8c7ba	0.0980372
212	0x3d864a83	0.06557181
213	0xbd433f05	-0.047667522
214	0x3e18c780	0.14919853
215	0x3d07837f	0.03308439
216	0x3d739a08	0.059473068
217	0xbd036ffa	-0.03208921
218	0x3b36bada	0.0027882368
219	0xbdd27da3	-0.102778696
220	0xbdea8919	-0.114519306
221	0xbb1c4a63	-0.002384805
222	0xbd5c14fa	-0.053730942
223	0xbde3c971	-0.11122406
224	0xbdbdeb02	-0.0927334
225	0x3e3499d9	0.17636813
226	0x3ddfe538	0.10932392
227	0xbbcf3910	-0.006323941
228	0x3d752982	0.059854038
229	0x3dba2ce8	0.090905964
230	0x3de69dd2	0.112605706
231	0x3e01bab5	0.1266888
232	0xbd9df96a	-0.077135876
233	0x3b76ead4	0.003767659
234	0x3e0eddfa	0.13951865
235	0x3c2cac61	0.010539145
236	0x3e1a1176	0.15045723
237	0xbe2aab20	-0.16666842
238	0x3e219c82	0.15782359
239	0x3df1b550	0.11802161
240	0xbbb42ee4	-0.005498754
241	0x3d468eeb	0.04847614
242	0x3ddf92eb	0.10916694
243	0xbd23ccb0	-0.039990127
244	0xbd5c5ef3	-0.053801488
245	0x3e1ad72a	0.15121141
246	0xbde7ed92	-0.1132461
247	0x3c330c5b	0.010928239
248	0xbdb2cebc	-0.08730838
249	0xbc86db56	-0.01646201
250	0x3db7e114	0.08978477
251	0x3e267885	0.16256912
252	0xbdfe1f99	-0.124083705
253	0x3c2a80cc	0.010406684
254	0xbe1baf6e	-0.1520364
255	0x3e2fefe1	0.1718135

bias f4 [16]
0	0x3ca52cb7	0.020162923
1	0xbe0b9b8b	-0.13633554
2	0xbd874f90	-0.06606972
3	0xbd926a16	-0.071491405
4	0x3c015141	0.007892908
5	0xbe383baf	-0.17991517
6	0x3e1a849f	0.15089653
7	0xbe20c132	-0.15698698
8	0xbd889774	-0.066695124
9	0x3cf20920	0.029545367
10	0x3d00b67d	0.031424034
11	0xbb3378f5	-0.0027385328
12	0x3de9005f	0.11377024
13	0x3b011152	0.0019694162
14	0x3e07979a	0.13241425
15	0x3da982eb	0.08276924

weight f4 [32]
0	0x3f7df98a	0.9920889
1	0x3f80d65e	1.006542
2	0x3f805296	1.0025203
3	0x3f7e4e64	0.99338365
4	0x3f80e820	1.0070839
5	0x3f7efc56	0.99603784
6	0x3f8106ce	1.0080202
7	0x3f7ebd8d	0.9950798
8	0x3f7f117e	0.99636066
9	0x3f7fa760	0.9986477
10	0x3f80f098	1.0073423
11	0x3f80c783	1.0060886
12	0x3f7e7c8e	0.99408805
13	0x3f802476	1.0011127
14	0x3f7f388a	0.99695647
15	0x3f7e9ec4	0.9946101
16	0x3f810ce3	1.0082058
17	0x3f8084b6	1.00405
18	0x3f7f4d2d	0.99727136
19	0x3f7db8a3	0.9910986
20	0x3f80b312	1.0054648
21	0x3f7e0958	0.9923301
22	0x3f814af9	1.0101005
23	0x3f7f2d01	0.99678046
24	0x3f7df3f2	0.99200356
25	0x3f80eedf	1.0072898
26	0x3f80d598	1.0065184
27	0x3f7f43d3	0.99712867
28	0x3f7ef94c	0.99599147
29	0x3f7f1169	0.9963594
30	0x3f805f90	1.0029163
31	0x3f8053a8	1.002553

bias f4 [32]
0	0xbc005b06	-0.007834202
1	0x3bd65a3c	0.0065415185
2	0x3b2506f7	0.0025181153
3	0xbbd8d502	-0.0066171894
4	0x3be820dc	0.0070839953
5	0xbb826f99	-0.0039805886
6	0x3c037f1e	0.008025913
7	0xbba1367d	-0.0049198256
8	0xbb60a23d	-0.003427639
9	0xbbaf933b	-0.0053581274
10	0x3bf07daf	0.0073392014
11	0x3bc77418	0.0060868375
12	0xbbc1ec74	-0.00591808
13	0x3a9198ab	0.0011108121
14	0xbb47ad76	-0.003046838
15	0xbbb0a28d	-0.0053904713
16	0x3c06a6b7	0.008218459
17	0x3b84b4e0	0.0040498823
18	0xbb2a2c4b	-0.0025966342
19	0xbc1211c5	-0.008915369
20	0x3bb31b3f	0.0054658945
21	0xbbf950dc	-0.007608516
22	0x3c258285	0.010101919
23	0xbb52572c	-0.0032095416
24	0xbc031a7a	-0.008001918
25	0x3beee06c	0.0072899368
26	0x3bd58eff	0.0065172906
27	0xbb3c0f30	-0.0028695576
28	0xbb83cc4a	-0.004022156
29	0xbb6ec103	-0.0036430962
30	0x3b3f1f02	0.002916277
31	0xbbed3d54	-0.007239977

running_mean f4 [32]
0	0x3e5e600a	0.21716323
1	0xbe170c26	-0.14750728
2	0xbed81b57	-0.4220836
3	0xbeb81398	-0.3595245
4	0xbf23377a	-0.63756526
5	0xbe91df3e	-0.28490633
6	0xbebd93c0	-0.37026787
7	0x3eb4f174	0.35340464
8	0xbf3369c1	-0.7008324
9	0xbd15e0ee	-0.036591463
10	0xbe285c09	-0.16441359
11	0xbf27804e	-0.6543015
12	0x3f03a7d6	0.5142797
13	0x3f215a16	0.63028085
14	0x3b1ec3a4	0.0024225498
15	0xbc084c32	-0.008318948
16	0x3ebe0c3c	0.3711871
17	0xbed1577b	-0.40887055
18	0xbe191945	-0.14951046
19	0x3ebca04b	0.36841044
20	0xbd8e0d6e	-0.06936155
21	0xbea88f9a	-0.3292206
22	0x3ee3b8ae	0.44476837
23	0xbeed55cb	-0.46354517
24	0x3e5b2fdf	0.2140498
25	0x3f233a7f	0.6376113
26	0xbf118730	-0.56846905
27	0xbefbc139	-0.49170855
28	0x3f19a99d	0.60024434
29	0x3f15f9ab	0.5858409
30	0xbdf50c78	-0.11965269
31	0xbf0e525c	-0.5559442

running_var f4 [32]
0	0x3cbd10be	0.023079272
1	0x3d8c881d	0.06861899
2	0x3ea06203	0.31324777
3	0x3d32a9b4	0.043618873
4	0x3e5de4d0	0.21669316
5	0x3de0a81f	0.109695666
6	0x3d2a3d5e	0.04156243
7	0x3e0c6e4b	0.13713948
8	0x3d5b1a93	0.05349214
9	0x3dca3865	0.09874038
10	0x3d87b88d	0.06626997
11	0x3ca3982a	0.019970018
12	0x3ca8f428	0.020624235
13	0x3e141430	0.14460826
14	0x3d84b309	0.06479461
15	0x3d9bded4	0.076108605
16	0x3cd57cdd	0.026060516
17	0x3e816b91	0.2527738
18	0x3dcb2351	0.099188454
19	0x3d2ef128	0.042710453
20	0x3e5e1508	0.2168771
21	0x3ac977b7	0.0015370761
22	0x3e12a451	0.14320494
23	0x3e342719	0.1759304
24	0x3e413b14	0.18870193
25	0x3e123ebf	0.14281748
26	0x3dcd45cf	0.100230806
27	0x3ead69dd	0.3386983
28	0x3d3731e2	0.044725306
29	0x3e42963d	0.19002624
30	0x3e6e967f	0.23299597
31	0x3c051d06	0.0081245955

weight f4 [32, 3]
0	0xbf002507	-0.500565
1	0x3e39c339	0.18140878
2	0x3eea5ded	0.45774785
3	0xbebee2cf	-0.37282416
4	0x3eeae4b8	0.45877624
5	0xbe714bea	-0.23564115
6	0x3e8a6210	0.2702794
7	0x3ef6e1fa	0.4821928
8	0xbf1026e3	-0.56309336
9	0x3bff2035	0.007785822
10	0xbe4b0a49	-0.19828142
11	0xbe990a20	-0.29890537
12	0xbe651de3	-0.22374682
13	0xbe14cebf	-0.14531992
14	0x3f0dd132	0.5539733
15	0xbf057da2	-0.52144825
16	0x3ec6134c	0.38686597
17	0xbee65cfc	-0.44992816
18	0xbd0e903a	-0.034805514
19	0x3d15bfde	0.036559932
20	0xbee52d2e	-0.44761032
21	0xbe41a511	-0.18910624
22	0xbf077913	-0.5291912
23	0x3e1da0ca	0.15393367
24	0x3e9c1133	0.30481872
25	0xbeee58a1	-0.46551993
26	0xbd1bb9ff	-0.038019177
27	0xbe67de8f	-0.22643493
28	0xbdaa4f33	-0.08315887
29	0xbe577bfc	-0.2104339
30	0xbeb629e6	-0.3557884
31	0x3e7d2359	0.24720515
32	0xbf1568cd	-0.5836304
33	0xbccb43f9	-0.024812685
34	0xbf0d7721	-0.552599
35	0xbc154087	-0.009109623
36	0xbd93839a	-0.072028354
37	0x3c0f2f2d	0.008739275
38	0xbe55f69b	-0.20894854
39	0xbeb8b34e	-0.360743
40	0x3ec78fa4	0.38976777
41	0xbe5d71fc	-0.21625513
42	0x3ebdddde	0.37083334
43	0x3ef4ee9e	0.478383
44	0x3eb18b6b	0.3467668
45	0x3ebfe89b	0.3748215
46	0xbc4d4376	-0.012528291
47	0xbe14810e	-0.14502355
48	0xbead480a	-0.33844024
49	0xbea42f75	-0.32067457
50	0xbe1f70fd	-0.15570445
51	0x3d59b02d	0.05314653
52	0x3e8af0c8	0.27136827
53	0x3ea1229c	0.31471717
54	0xbf0cf975	-0.5506814
55	0xbd003ca4	-0.03130783
56	0x3e6bdd07	0.23033534
57	0x3e64c1ff	0.22339629
58	0x3e5a3db6	0.21312603
59	0xbeee53a1	-0.4654818
60	0x3db5b73b	0.08872839
61	0xbe8d5824	-0.27606308
62	0xbdd4f1f5	-0.10397712
63	0xbe3134f3	-0.17305355
64	0x3df59bce	0.11992608
65	0xbdaff750	-0.08592093
66	0x3e488957	0.19583641
67	0x3e995fbb	0.2995585
68	0x3dc43501	0.09580422
69	0x3dee5791	0.11637796
70	0xbe01cfc5	-0.12676914
71	0x3e01d1bf	0.12677668
72	0x3e1a79d9	0.15085544
73	0xbe4c1a5e	-0.19931933
74	0xbda5797e	-0.080798134
75	0xbe60d934	-0.21957856
76	0x3ba3e217	0.0050013172
77	0xbe9d2062	-0.3068877
78	0x3f142e19	0.5788284
79	0xbe908872	-0.282291
80	0xbdddcbdc	-0.10829899
81	0x3d0975a4	0.033559456
82	0x3ea6c4ae	0.3257193
83	0x3edd6faa	0.43249255
84	0x3e98fe0a	0.29881316
85	0x3e812b2c	0.2522825
86	0x3e7c170d	0.24618168
87	0xbea0e77e	-0.31426615
88	0x3a890fd6	0.001045699
89	0x3eecb388	0.4623072
90	0xbefb6de1	-0.49107268
91	0x3f142c74	0.5788033
92	0x3f06e032	0.52685845
93	0x3e247ab6	0.16062436
94	0xbece6091	-0.4030805
95	0x3e8f3cbd	0.27976027

bias f4 [32]
0	0x3f08e008	0.53466845
1	0xbdf3597a	-0.11882301
2	0x3e6ae996	0.22940668
3	0x3dcb89d3	0.09938397
4	0x3f03acf9	0.5143581
5	0xbe4b13fa	-0.19831839
6	0xbe9dbc38	-0.30807662
7	0x3e80ef1d	0.2518243
8	0xbeaf275c	-0.34209716
9	0xbe6be0e1	-0.23035003
10	0xbe9dc12f	-0.3081145
11	0x3e12a183	0.14319424
12	0xbda6a48a	-0.08136852
13	0x3ef06ca7	0.46957895
14	0xbc39c033	-0.011337328
15	0x3e609f78	0.21935833
16	0xbf0049f9	-0.50112873
17	0x3e0ce0ab	0.13757579
18	0x3d4182d0	0.047243893
19	0x3e63e642	0.22255805
20	0x3e2537f7	0.1613463
21	0x3ec68264	0.38771355
22	0xbd204850	-0.039131463
23	0xbd36b302	-0.04460431
24	0xbdadee3a	-0.08492704
25	0x3e8c4e75	0.27403608
26	0x3eeb596f	0.4596667
27	0xbee06734	-0.43828738
28	0x3eeab953	0.45844516
29	0x3ec7ca8a	0.39021713
30	0x3e20c9e9	0.15702023
31	0x3d1d90c3	0.038468134

weight f4 [16, 32]
0	0xbd519ca0	-0.05117476
1	0xbd03c50d	-0.032170344
2	0x3d1bcf06	0.03803923
3	0x3dc7b9d2	0.09752239
4	0x3de79c90	0.11309159
5	0x3d8eeba8	0.069785416
6	0xbe31d5a0	-0.17366648
7	0xbda65049	-0.08120782
8	0x3c6df829	0.014524498
9	0xbca6b865	-0.020351598
10	0xbe1efd20	-0.15526247
11	0x3d48bf68	0.049010664
12	0xbcf13b69	-0.029447274
13	0xbdd8eca0	-0.10592008
14	0x3ceefe12	0.029173885
15	0xbdeec9d5	-0.1165959
16	0xbdac6e7b	-0.0841951
17	0x3e27ae12	0.16374996
18	0xbdac846f	-0.08423697
19	0x3df508ad	0.119645454
20	0xbdd017d2	-0.10160793
21	0xbcd8a620	-0.026446402
22	0x3d3a89a1	0.04554141
23	0xbd93323f	-0.07187318
24	0xbe2be36e	-0.16785976
25	0x3e28a9f9	0.1647109
26	0xbe295d8a	-0.16539589
27	0xbdaa0681	-0.08302022
28	0x3cdb124b	0.026742121
29	0xbd8fa872	-0.0701455
30	0x3e17835c	0.14796203
31	0x3cd90b61	0.026494684
32	0x3e030c38	0.1279763
33	0x3e158307	0.14600764
34	0xbc92003d	-0.01782238
35	0xbe038d82	-0.1284695
36	0xbe242bdd	-0.16032358
37	0xbe02d483	-0.1277638
38	0x3bf072f5	0.0073379227
39	0xbbebe813	-0.0071992963
40	0x3e262df2	0.16228464
41	0x3dd385bd	0.10328243
42	0xbe0d967e	-0.1382694
43	0x3e20c071	0.1569841
44	0x3d229010	0.03968817
45	0xbdca54c1	-0.09879447
46	0x3ac8d92c	0.0015323511
47	0x3cc9fe92	0.024657521
48	0x3e36ee23	0.1786428
49	0xbe16f50e	-0.14741918
50	0xbdd33cee	-0.10314356
51	0xbdddd9e5	-0.10832576
52	0xbe166e6a	-0.14690557
53	0xbd578fea	-0.05262748
54	0x3db40d34	0.08791581
55	0xbe04cd80	-0.12969017
56	0x3cba2f80	0.022727728
57	0x3cec4873	0.02884314
58	0xbdd61b20	-0.104543924
59	0xbd80cc36	-0.0628895
60	0x3afdd391	0.001936542
61	0x3d88d8e1	0.06681991
62	0xbe09d055	-0.13458379
63	0xbde17b33	-0.110098265
64	0xbdd1d202	-0.10245134
65	0xbd2cbd9b	-0.04217301
66	0x3da19243	0.07889225
67	0x3df50fdb	0.11965915
68	0xbe1f88c1	-0.15579511
69	0xbdef6943	-0.11689999
70	0x3c41797c	0.011808749
71	0x3b75bbc9	0.0037495962
72	0x3dcf75a2	0.101298586
73	0x3dd40357	0.103521995
74	0xbc8bcf70	-0.017066687
75	0xb929387c	-0.00016138138
76	0x3e08fde2	0.13378099
77	0x3db5f8b4	0.08885327
78	0x3db7e2d5	0.08978812
79	0xbdcda11b	-0.10040494
80	0xbe35af29	-0.177426
81	0xbdf5508a	-0.11978252
82	0x3ddd29ca	0.10798986
83	0xbb7eceba	-0.0038880543
84	0xbe355445	-0.17707928
85	0x3e16e722	0.14736608
86	0xbbdb7738	-0.0066975616
87	0x3de44919	0.11146755
88	0xbe170698	-0.14748609
89	0xbdc8ebb1	-0.098105796
90	0x3d9d5cfe	0.076837525
91	0x3a998e49	0.0011715378
92	0xbe0d53a1	-0.13801433
93	0xbd144feb	-0.03620903
94	0x3ce9dcb6	0.028547626
95	0x3d982b52	0.07430138
96	0x3e189c37	0.14903341
97	0xbde9ede2	-0.11422326
98	0xbe06028b	-0.13086908
99	0xbc1f66bb	-0.009729083
100	0xbd73a589	-0.05948404
101	0x3d10cf92	0.035354204
102	0x3dc44d28	0.09585029
103	0xbe16d5d2	-0.14730003
104	0x3d5908cd	0.05298691
105	0x3dc5103f	0.09622239
106	0xbd8dfe32	-0.069332495
107	0xbcc386fd	-0.023868078
108	0x3c9902a6	0.01867802
109	0x3e2fff9c	0.17187351
110	0xbe0b3b8d	-0.13596936
111	0xbe003a5d	-0.12522264
112	0xbe242834	-0.16030961
113	0xbcfb6433	-0.030687427
114	0xbe06b8cd	-0.13156433
115	0x3e0ae42c	0.13563603
116	0x3e03f5f3	0.12886791
117	0x3e154874	0.1457842
118	0xbe0a320b	-0.13495652
119	0xbbd8525e	-0.006601616
120	0xbda712d7	-0.0815789
121	0xbe19ca83	-0.15018658
122	0x3d0c477f	0.03424787
123	0x3e30c5ed	0.17263003
124	0xbd286d58	-0.041119903
125	0xbd8e4ef4	-0.06948653
126	0xbe176819	-0.14785804
127	0xbd58ce90	-0.05293137
128	0xbd64fd60	-0.0559057
129	0xbe2292bb	-0.15876286
130	0xbc3da073	-0.011573899
131	0x3de51425	0.11185483
132	0xbdd3d8f4	-0.10344115
133	0xbd4d8eb1	-0.05018491
134	0xbd35c001	-0.044372562
135	0x3e226e6f	0.1586244
136	0xbe22f003	-0.1591187
137	0x3dd445d6	0.10364883
138	0xbe079282	-0.13239482
139	0x3de01969	0.109423466
140	0xbda89ae2	-0.082326666
141	0xbe0b3951	-0.13596083
142	0x3da9c1a1	0.08288885
143	0xbd1e7932	-0.0386898
144	0x3dfbfd09	0.12304122
145	0xbdb8c68b	-0.09022244
146	0xbe1a206b	-0.15051429
147	0x3d3eec17	0.04661187
148	0xbe2bd994	-0.16782218
149	0x3dccc5d4	0.0999867
150	0xbd670553	-0.056401562
151	0x3c93450c	0.01797726
152	0x3c67586d	0.014120203
153	0xbdfde2ad	-0.123967506
154	0x3e2470b5	0.1605862
155	0x3e01128a	0.12604728
156	0x3d07d07d	0.033157814
157	0x3e12adc3	0.14324097
158	0x3e177588	0.14790928
159	0xbe05dbb4	-0.13072091
160	0x3c27f041	0.010250152
161	0xbe1031da	-0.14081517
162	0xbdcc25c2	-0.09968139
163	0xbdc69100	-0.09695625
164	0x3d8d575f	0.0690143
165	0xbdcfd298	-0.101475894
166	0x3ddbfaa5	0.10741166
167	0x3e2c16ac	0.16805524
168	0xbddf97e6	-0.10917644
169	0x3d0e0d3c	0.03468059
170	0x3df275c2	0.11838867
171	0x3d15693b	0.03647731
172	0x3d8c28df	0.06843733
173	0xbdfbd04a	-0.12295587
174	0x3e097e43	0.13427071
175	0xbe0baf1e	-0.1364102
176	0xbd7cdd70	-0.061734617
177	0x3db158c4	0.08659509
178	0x3e18d502	0.14925006
179	0xbe08880e	-0.1333315
180	0x3d976f01	0.07394219
181	0xbe2d8f08	-0.16949093
182	0x3d96038f	0.073248975
183	0xbced7f0e	-0.028991248
184	0x3de805e2	0.11329247
185	0xbb6a228a	-0.0035726153
186	0xbdcdba66	-0.10045318
187	0xbd41e701	-0.047339443
188	0xbdd5da14	-0.10441986
189	0xbd95316d	-0.07284818
190	0xbad8f61a	-0.0016552836
191	0xbe0d8c09	-0.1382295
192	0x3e0312fb	0.12800209
193	0xbdbd69fa	-0.09248729
194	0x3dd34e54	0.10317674
195	0xbdee3099	-0.11630363
196	0x3e397b0d	0.18113346
197	0x3df438a7	0.11924868
198	0x3dac1005	0.08401493
199	0x3e09fd10	0.13475442
200	0xbd21fb4f	-0.039546307
201	0xbd845235	-0.06460992
202	0x3e0ae313	0.13563184
203	0xbdbeeb38	-0.09322208
204	0xbe1081e5	-0.14112051
205	0xbe13c7bc	-0.14431661
206	0x3b45288e	0.0030083987
207	0x3e0dd01c	0.13848919
208	0x3e06ac2e	0.13151619
209	0x3dedb23a	0.1160626
210	0x3e1af061	0.1513076
211	0xbe1bead9	-0.15226306
212	0x3c81c416	0.015840571
213	0xbd516037	-0.05111715
214	0x3e0430c7	0.12909232
215	0x3e168730	0.14700007
216	0xbe0b4007	-0.13598643
217	0x3e1ca5f8	0.15297687
218	0xbd9729b8	-0.07381004
219	0xbd1ff308	-0.039050132
220	0xbcc1dbff	-0.023664473
221	0xbc5fa7cb	-0.013650845
222	0x3e0fd34a	0.14045444
223	0xbd867c71	-0.06566704
224	0xbe043f15	-0.12914689
225	0x3e173e55	0.14769872
226	0xbe318396	-0.17335352
227	0x3e015716	0.12630877
228	0xbda3edee	-0.08004366
229	0xbcf5cf5f	-0.030006109
230	0xbdc2d8db	-0.09514018
231	0x3b4d86ef	0.0031360944
232	0x3e08ece9	0.13371624
233	0xbd7b5c46	-0.061367296
234	0xbd51f093	-0.05125482
235	0xbde2d9c9	-0.110766955
236	0xbd5450b9	-0.051834796
237	0x3d55500b	0.052078288
238	0xbdd46abc	-0.103719205
239	0xbe0a6942	-0.13516715
240	0xbda8340a	-0.08213051
241	0xbd87310e	-0.06601153
242	0x3d3e87ef	0.046516355
243	0x3cf68878	0.03009437
244	0x3df7343c	0.1207051
245	0x3b0260bf	0.001989409
246	0x3de4e4c5	0.11176447
247	0xbbab9817	-0.0052366364
248	0xbe365fae	-0.17809936
249	0x3e1cd125	0.15314157
250	0xbd88b04a	-0.066742495
251	0x3e11cd02	0.1423836
252	0x3d4140fc	0.047181115
253	0xbdd6023e	-0.104496464
254	0xbdde21ca	-0.108462885
255	0xbd176ebb	-0.036970835

bias f4 [16]
0	0x3daf465c	0.08558342
1	0x3e28d3b9	0.16487016
2	0x3b986dee	0.0046517765
3	0x3dd1b089	0.102387495
4	0xbe292155	-0.16516621
5	0xbde31bac	-0.11089262
6	0xbe23ec78	-0.16008174
7	0xbe1ed25a	-0.1550993
8	0x3e10448d	0.1408865
9	0xbdb60147	-0.088869624
10	0xbc3cef72	-0.011531698
11	0x3cbb9db1	0.022902342
12	0xbc03e225	-0.0080495225
13	0x3d264820	0.040596128
14	0x3bdcfccc	0.006744003
15	0xbe27468c	-0.16335505

weight f4 [32]
0	0x3f80cd7c	1.0062709
1	0x3f80a48a	1.0050213
2	0x3f7ea7a8	0.99474573
3	0x3f7e506e	0.99341476
4	0x3f802e03	1.0014042
5	0x3f801186	1.0005348
6	0x3f7e557f	0.99349207
7	0x3f80fba5	1.0076796
8	0x3f7e2492	0.9927455
9	0x3f7e60bc	0.99366355
10	0x3f8005aa	1.0001729
11	0x3f7e7bad	0.99407464
12	0x3f7f5ae8	0.99748087
13	0x3f80baf3	1.0057052
14	0x3f7e65b1	0.9937392
15	0x3f80ebf6	1.007201
16	0x3f80d604	1.0065312
17	0x3f7e59e9	0.9935594
18	0x3f8031ae	1.0015161
19	0x3f808ac7	1.0042351
20	0x3f7e3032	0.9929229
21	0x3f80d363	1.006451
22	0x3f7e9d58	0.9945884
23	0x3f7eac51	0.99481684
24	0x3f80d806	1.0065925
25	0x3f7dd3a5	0.9915107
26	0x3f7e7da4	0.9941046
27	0x3f81051e	1.0079687
28	0x3f80e52f	1.0069941
29	0x3f7dc3b7	0.9912676
30	0x3f7e4989	0.99330956
31	0x3f7e91c1	0.9944115

bias f4 [32]
0	0x3bcd81cc	0.0062715765
1	0x3ba46c0c	0.005017763
2	0xbbac2de6	-0.005254495
3	0xbbd7c8bd	-0.006585209
4	0x3ab803af	0.0014039184
5	0x3a0bf50e	0.0005338945
6	0xbbd54012	-0.006507882
7	0x3bfba8c7	0.007680032
8	0xbbedb829	-0.0072546196
9	0xbbcfa277	-0.006336506
10	0x39387765	0.00017592085
11	0xbbc228e9	-0.005925287
12	0xbb250e38	-0.0025185477
13	0x3bbb0457	0.0057073045
14	0xbbcd290e	-0.0062609976
15	0x3bebd61c	0.0071971547
16	0x3bd62101	0.006534696
17	0xbbd30af9	-0.006440517
18	0x3ac6c9c3	0.0015166331
19	0x3b8b5ae5	0.004252779
20	0xbbe7d9b6	-0.0070755137
21	0x3bd3a91a	0.0064593675
22	0xbbb14a8a	-0.005410497
23	0xbba9dec6	-0.0051840274
24	0x3bd81372	0.006594115
25	0xbc0b216a	-0.008491853
26	0xbbc12e5a	-0.005895418
27	0x3c028d15	0.007968207
28	0x3be529f0	0.0069935247
29	0xbc0f088e	-0.008730067
30	0xbbdb3b4d	-0.006690419
31	0xbbb72245	-0.005588802

running_mean f4 [32]
0	0x401b9b46	2.4313521
1	0xc0958ed0	-4.673683
2	0xc0d595ff	-6.67456
3	0xbf1f4b78	-0.6222453
4	0x40a59432	5.1743402
5	0xc0b739c7	-5.725803
6	0xc0632d3a	-3.5496354
7	0x4096d829	4.7138867
8	0x401ad7c0	2.4194183
9	0xbf8d59b6	-1.1043003
10	0xc0ba7eac	-5.827963
11	0x406a690c	3.6626616
12	0xbfc5343f	-1.5406569
13	0xc06082e2	-3.5079885
14	0xbf48721c	-0.7829912
15	0xbf2c2c6f	-0.672553
16	0x3f07fc09	0.5311895
17	0x3efbd155	0.49183145
18	0x3fe5d8aa	1.7956746
19	0xc0890c82	-4.282777
20	0x3fa04a72	1.2522719
21	0xbf775f5c	-0.9662988
22	0xbfab1e40	-1.3368607
23	0x3fd0603c	1.6279368
24	0x3f2a1500	0.66438293
25	0xbfe8c85c	-1.8186145
26	0x3fc7fe78	1.5624533
27	0x3eb56d79	0.35435084
28	0x3ef4021d	0.47657862
29	0x405f2100	3.4863892
30	0xbd6ae27e	-0.057344906
31	0x4090e868	4.52837

running_var f4 [32]
0	0x416f5213	14.957538
1	0x412700e1	10.437715
2	0x4199831e	19.189022
3	0x41087b91	8.530168
4	0x415b69fa	13.713373
5	0x41447911	12.279557
6	0x4117da7f	9.490844
7	0x4157c3f6	13.485342
8	0x41448270	12.281845
9	0x404a12da	3.1574006
10	0x417669c1	15.400819
11	0x41846a47	16.551893
12	0x40075476	2.11453
13	0x40f5052a	7.6568804
14	0x41be5cd5	23.795328
15	0x3f8ecd51	1.1156408
16	0x41063f87	8.39051
17	0x413b9ed2	11.7262745
18	0x401cfca7	2.4529207
19	0x411e7fbd	9.906186
20	0x40b2a4c1	5.5826116
21	0x3f4b4184	0.79396844
22	0x40c7545b	6.2290473
23	0x3f8ff028	1.1245165
24	0x403f7fbd	2.9921715
25	0x40944713	4.633676
26	0x40bbf108	5.8731728
27	0x419d8ec6	19.694714
28	0x410808e5	8.5021715
29	0x412a6021	10.648469
30	0x4227c745	41.9446
31	0x410d7af9	8.842523

weight f4 [32, 20]
0	0xbe60f2fd	-0.21967693
1	0xbe43450e	-0.19069311
2	0x3e5a70dd	0.21332116
3	0x3dc0514d	0.09390507
4	0x3e55ff8e	0.20898268
5	0x3e5a4643	0.21315865
6	0x3e07bfb7	0.13256727
7	0xbbe466b4	-0.006970251
8	0xbe30cb70	-0.17265105
9	0x3d884e92	0.06655611
10	0x3e2f176c	0.17098778
11	0xbc08425c	-0.008316603
12	0xba829806	-0.0009963519
13	0x3dd7ee58	0.10543507
14	0xbd48319f	-0.048875447
15	0x3dcff952	0.10154976
16	0x3e340d08	0.17583096
17	0x3e30f6a0	0.1728158
18	0x3db2e1fe	0.08734511
19	0xbcb40872	-0.021976683
20	0x3e3030d3	0.17206125
21	0xbd3a51fd	-0.045488346
22	0x3ce36f74	0.027763106
23	0x3debef84	0.11520293
24	0xbe4f07a0	-0.20217752
25	0x3dfc00b0	0.12304819
26	0x3db7c851	0.08973754
27	0xbe5d7f53	-0.21630602
28	0xbcb5ffca	-0.022216696
29	0xbe50ccdb	-0.20390646
30	0xbdd05406	-0.10172276
31	0xbe1a42a7	-0.15064488
32	0xbd316f8a	-0.043319263
33	0x3e566faf	0.20941041
34	0xbced9720	-0.029002726
35	0xbe0ff239	-0.14057244
36	0xbe112c97	-0.14177166
37	0xbe0dfba1	-0.1386552
38	0xbd0fb9c7	-0.03508928
39	0xbcbff0b5	-0.023430208
40	0xbd9f1608	-0.07767874
41	0x3e15b74f	0.14620708
42	0x3e29e124	0.1658979
43	0x3e62f1a1	0.22162487
44	0xbe26136a	-0.16218343
45	0xbc02274c	-0.007943939
46	0x3db1ed3b	0.08687826
47	0xbe0c3651	-0.13692595
48	0xbe38b795	-0.18038781
49	0xbe0b6b1f	-0.13615082
50	0x3dbcdfcb	0.092223726
51	0xbe5a2e2c	-0.21306676
52	0xbe63d32e	-0.22248527
53	0xbe53e793	-0.20693807
54	0x3dc3b9bc	0.095569104
55	0x3e3f014b	0.18652837
56	0xbdcee498	-0.101021945
57	0xbdc0f956	-0.09422557
58	0xbd31eb53	-0.043437313
59	0xbd503945	-0.050835866
60	0xbe4adbf7	-0.19810472
61	0xbe08d2c7	-0.13361655
62	0xbdf8f2d1	-0.121556886
63	0xbe19656d	-0.14980097
64	0x3e2cf1f6	0.16889176
65	0xbd7a445e	-0.061100356
66	0x3d7f94fb	0.06239794
67	0xbddbb0d7	-0.10727089
68	0x3e0cdb80	0.13755608
69	0xbd6a6ffb	-0.0572357
70	0x3dbfe02d	0.0936893
71	0x3d62a8d1	0.055336777
72	0xbe373eea	-0.17895094
73	0xbe0a43b6	-0.13502392
74	0x3cb84b31	0.022496792
75	0xbd433e71	-0.04766697
76	0xbd09265e	-0.033483855
77	0x3e409ce6	0.18809852
78	0x3e199503	0.1499825
79	0xbe07a28b	-0.13245599
80	0xbe3f5ca5	-0.18687685
81	0xbd3e5401	-0.04646683
82	0x3cce1b5a	0.025159527
83	0xbe06087b	-0.13089173
84	0x3e3fb0cb	0.18719785
85	0x3daf1674	0.085492045
86	0xbdd683a7	-0.104743294
87	0x3de2ebb5	0.11080114
88	0x3db259c7	0.0870853
89	0xbd2b4f5a	-0.041823722
90	0xbe49fd92	-0.19725636
91	0xbdd7e23f	-0.105412
92	0xbd36f18c	-0.04466395
93	0xbdfe3ab1	-0.12413538
94	0xbc28242c	-0.01026253
95	0xbe3e868a	-0.1860601
96	0x3deceab1	0.11568201
97	0x3e073ab5	0.13205989
98	0xbd500a9e	-0.050791375
99	0xbb950252	-0.0045473957
100	0xbda5bc97	-0.08092611
101	0x3dccd198	0.10000914
102	0xbcacb552	-0.021082554
103	0x3ddc153c	0.10746238
104	0xbda6f205	-0.0815163
105	0x3c302d78	0.010753028
106	0xbdc3bef3	-0.09557905
107	0xbe275d10	-0.16344094
108	0xbe31e20f	-0.17371391
109	0xbdba7a6b	-0.091053806
110	0xbcc1d335	-0.023660282
111	0x3db05fa9	0.08611996
112	0x3cd1f9ec	0.025631867
113	0x3c7581b0	0.014984533
114	0xbd0f8ca9	-0.035046253
115	0xbce3caf1	-0.027806731
116	0xbe57eeca	-0.21087185
117	0xbe132f60	-0.14373541
118	0xbe35c7a8	-0.17751944
119	0x3beb8d26	0.007188457
120	0x3cc4ebf6	0.024038296
121	0x3d16101e	0.036636464
122	0xbde1764d	-0.11008892
123	0x3dfa44e3	0.1222017
124	0x3c84cdce	0.016211417
125	0xbda298da	-0.0793931
126	0xbe169ca6	-0.14708194
127	0x3e3742e1	0.17896606
128	0x3cfdeb91	0.030996116
129	0xbdca4d23	-0.09877994
130	0xbd57bc6f	-0.05266994
131	0x3e58ddd0	0.21178365
132	0xbd05b367	-0.032641795
133	0x3cc50f9f	0.0240553
134	0x3e66e314	0.22547561
135	0x3e2b14db	0.16707174
136	0xbe30ced8	-0.17266405
137	0x3d97d1ac	0.074130386
138	0xbdba1ac5	-0.09087137
139	0x3d8ca7b2	0.06867923
140	0xbdc03ab1	-0.093861945
141	0x3e0211eb	0.12702148
142	0xbd16f941	-0.0368588
143	0x3e529846	0.205659
144	0x3e377bc7	0.17918311
145	0xbd823c78	-0.0635919
146	0x3e2afc82	0.16697887
147	0xbdd15137	-0.102205686
148	0xbe17f49a	-0.14839402
149	0x3cfcef97	0.030875964
150	0x3ba81240	0.0051291287
151	0x3e56bfc7	0.20971595
152	0x3da38546	0.07984404
153	0x3d8c8d7c	0.068629235
154	0x3d46cdc4	0.048536077
155	0xbe2ecb75	-0.170698
156	0xbe4135db	-0.188682
157	0xbe18b91c	-0.14914364
158	0xbcffc024	-0.03121955
159	0x3e6428fc	0.2228126
160	0x3dbe392a	0.09288247
161	0x3c20aecd	0.009807301
162	0xbd12bb6b	-0.035823267
163	0xbdccb84a	-0.09996088
164	0x3e02fa93	0.12790899
165	0x3e24a3ec	0.16078156
166	0xbd940bc3	-0.07228806
167	0x3d8a56bf	0.06754827
168	0x3e28c28b	0.16480462
169	0xbda6c8ef	-0.08143794
170	0x3e3a24df	0.18178128
171	0xbd03938d	-0.032123137
172	0xbe1739b3	-0.14768104
173	0xbd06d78d	-0.03292041
174	0xbc818022	-0.015808169
175	0x3cfd0d50	0.030890137
176	0xbe07ba26	-0.13254604
177	0x3e2f7691	0.17135073
178	0xbcf8da62	-0.03037757
179	0x3da6ec35	0.08150522
180	0xbde73cf4	-0.11290923
181	0xbe37330e	-0.1789057
182	0x3c64a0cb	0.013954352
183	0x3e1e01af	0.1543033
184	0xbe19d13f	-0.15021227
185	0xbd865e96	-0.065610096
186	0x3e3cdeeb	0.18444411
187	0xbdef7804	-0.11692813
188	0xbd985f02	-0.07439996
189	0x3e3f5e4e	0.18688318
190	0xbdc43456	-0.09580295
191	0x3d879395	0.06619946
192	0xbc34c5bd	-0.011033473
193	0x3e07a9c0	0.13248348
194	0x3dad1a03	0.08452227
195	0x3e04fd42	0.12987235
196	0xbd721590	-0.059102595
197	0x3db48327	0.08814078
198	0x3de4a09d	0.11163447
199	0xbda02c54	-0.07820955
200	0x3e400ea4	0.18755585
201	0x3cb23f32	0.02175865
202	0x3e659c95	0.22423013
203	0xbd25dfe3	-0.04049672
204	0xbe48f974	-0.19626409
205	0xbd4952d7	-0.049151268
206	0x3d895d53	0.06707253
207	0xbe4ffadd	-0.2031054
208	0xbd915bc3	-0.0709758
209	0x3ccf3607	0.025294317
210	0xbd6a327d	-0.057177056
211	0x3d38e0d0	0.045136273
212	0xbd3e886f	-0.046516832
213	0x3e1880f5	0.14892943
214	0xbd339d39	-0.04385111
215	0x3e580aa4	0.21097809
216	0x3988d44a	0.0002609811
217	0xbe10b7a6	-0.14132556
218	0xbc032bff	-0.008006095
219	0xbe5032c8	-0.20331872
220	0xbda28111	-0.07934774
221	0xbe51bdc0	-0.2048254
222	0xbda94b4a	-0.082663134
223	0x3cf3202c	0.029678427
224	0xbe009cfe	-0.12559888
225	0xbc762715	-0.015023966
226	0x3ddd9d25	0.108209886
227	0xbe31acdd	-0.17351098
228	0x3e385bf9	0.18003835
229	0xbcc84a93	-0.024449622
230	0xbc81a9be	-0.01582801
231	0xbb39a4b2	-0.0028326926
232	0x3c3e7b85	0.011626129
233	0xbd1f9fdf	-0.038970824
234	0x3e5fc660	0.21853018
235	0x3d73cce1	0.05952156
236	0xbe30e6aa	-0.17275491
237	0xbdc8307c	-0.09774873
238	0x3e25c5cc	0.16188735
239	0xbda48159	-0.080324836
240	0x3df0bd15	0.117548145
241	0x3e3d1f6c	0.18469018
242	0xbdd3abe0	-0.10335517
243	0x3d589ac8	0.052881986
244	0xbd2640a3	-0.040588986
245	0xbdf13376	-0.117773935
246	0xbe4561ad	-0.19275542
247	0x3dbe8eed	0.09304605
248	0x3e1f6698	0.1556648
249	0xbe087f1c	-0.13329738
250	0x3e1578b0	0.1459682
251	0x3e2e7952	0.17038468
252	0xbe1e0761	-0.15432502
253	0xbe24c6d3	-0.1609147
254	0x3dab66a3	0.08369186
255	0x3e13d2f5	0.14435942

bias f4 [32]
0	0xbe6b48e0	-0.22977018
1	0x3e0e5c54	0.13902408
2	0xbde903cf	-0.113776796
3	0x3e2eede4	0.17082936
4	0xbdf54cf4	-0.11977568
5	0x3e152b97	0.1456741
6	0x3e20706d	0.15667887
7	0xbe0c92be	-0.13727853
8	0xbd6430eb	-0.055710714
9	0xbe1f44e1	-0.15553619
10	0x3d89dc1d	0.067314364
11	0x3e408c81	0.18803598
12	0xbd9d1882	-0.0767069
13	0x3b4aa098	0.0030918475
14	0x3e1608d1	0.146518
15	0xbe0ec98b	-0.1394407
16	0xbe1be962	-0.15225747
17	0x3d0fcfa3	0.035110127
18	0x3d3bf8b4	0.04589148
19	0xbd062972	-0.03275437
20	0x3e021318	0.12702596
21	0x3d774643	0.06036974
22	0xbb1a5326	-0.0023548095
23	0xbe17f518	-0.1483959
24	0x3dd26c6e	0.102745876
25	0x3d4b5283	0.049639236
26	0x3aeacdd9	0.0017914131
27	0x3dbcc55e	0.09217332
28	0x3c16b5d5	0.009198626
29	0xbda749f3	-0.081684016
30	0xbe506189	-0.20349707
31	0xbe45c795	-0.19314416

weight f4 [4, 32]
0	0xbc8c522c	-0.017129026
1	0xbdf54cf5	-0.11977569
2	0x3d05ebcd	0.03269558
3	0x3db16a6c	0.086628765
4	0x3b9ab015	0.0047206976
5	0x3d6b08f7	0.057381596
6	0xbdcf5dcd	-0.10125313
7	0xbe1139cc	-0.14182204
8	0xbde47742	-0.11155559
9	0x3e198368	0.14991534
10	0x3d566271	0.052339975
11	0x3d11234b	0.03543405
12	0x3dc83f54	0.09777704
13	0x3df1ddf8	0.11809915
14	0x3c879e04	0.01655484
15	0xbd99112b	-0.07473978
16	0x3d3f8c72	0.0467648
17	0x3dc789ea	0.09743102
18	0xbe28cd42	-0.1648455
19	0x3e2db803	0.16964726
20	0xbe0f30e2	-0.13983491
21	0xbe277b3e	-0.16355607
22	0x3db1cfa1	0.0868218
23	0x3d0999c3	0.033593904
24	0x3e1d7790	0.1537764
25	0xbd97cadf	-0.074117415
26	0xbe0358dd	-0.12826867
27	0x3dc6462f	0.09681355
28	0x3d97604e	0.073914155
29	0xbdfb7d88	-0.122798026
30	0x3e004af0	0.12528586
31	0x3dcce629	0.10004837
32	0x3dd2988f	0.102830045
33	0xbe09dd40	-0.13463306
34	0xbe245fed	-0.16052218
35	0x3ddb6a7d	0.107136704
36	0xbdae670c	-0.085157484
37	0xbe0675c3	-0.1313086
38	0xbd3da590	-0.04630047
39	0xbe1f6e37	-0.15569387
40	0x3e2d32bc	0.16913885
41	0xbd4e85ac	-0.05042045
42	0xbd9e630c	-0.077337354
43	0x3e246f2a	0.1605803
44	0xbd1908bd	-0.03736185
45	0x3e384b80	0.17997551
46	0x3db155da	0.08658953
47	0x3da185a4	0.07886818
48	0xbe327c1e	-0.1743016
49	0xbe2eb42f	-0.17060922
50	0x3e07ef5d	0.13274904
51	0x3dac6b3e	0.08418892
52	0x3dfc19d9	0.123096175
53	0x3db2e2fb	0.08734699
54	0x3e0d9ec3	0.13830094
55	0x3e0d28b5	0.1378506
56	0x3e104ab2	0.14090994
57	0x3dca4ee4	0.098783284
58	0x3dfdc679	0.12391371
59	0x3e392b31	0.18082882
60	0x3c75a009	0.014991769
61	0x3d853a79	0.065052934
62	0xbe0ea347	-0.13929473
63	0x3e2ac61d	0.16677137
64	0xbdb2de36	-0.087337896
65	0xbd9bb10b	-0.07602128
66	0xbe09dfc0	-0.1346426
67	0x3e243ed9	0.160396
68	0xbd868ad0	-0.06569445
69	0xbc81459c	-0.015780263
70	0x3d901eec	0.07037148
71	0xbd79d4ed	-0.060994077
72	0xbd1204f4	-0.035649255
73	0x3e02c53a	0.12770548
74	0x3d3a0f57	0.045424785
75	0x3dec07ec	0.115249485
76	0x3dd63739	0.10459752
77	0x3d73ed6c	0.059552595
78	0xbdf4e49d	-0.11957667
79	0xbcb841fb	-0.0224924
80	0x3d2adacf	0.04171258
81	0x3d74840f	0.059696253
82	0x3e2a1c3e	0.16612336
83	0x3ba7f337	0.005125429
84	0x3cd25d89	0.025679367
85	0x3e30d016	0.17266878
86	0xbe05d15b	-0.13068144
87	0xbd74e2cf	-0.059786614
88	0xbe053076	-0.13006768
89	0x3ca6b820	0.02035147
90	0xbdcbeacb	-0.099568926
91	0x3e37865d	0.1792235
92	0xbb4d3fb6	-0.0031318492
93	0xbe0a82ae	-0.13526413
94	0x3d64ba9e	0.055842035
95	0x3d9a9bae	0.07549225
96	0xbe3a065e	-0.18166491
97	0x3c868958	0.016422912
98	0x3dba9e91	0.091122754
99	0xbdfdd793	-0.12394633
100	0xbc9cfc17	-0.019163175
101	0x3cd861a8	0.026413754
102	0xbde1b94f	-0.11021673
103	0xbda1375d	-0.07871888
104	0xbe2303b9	-0.15919389
105	0x3a36a3b1	0.0006967141
106	0x3e2f8a9b	0.17142718
107	0x3db1bc1d	0.08678458
108	0xbdec1dbe	-0.1152911
109	0xbd8c4616	-0.06849305
110	0x3dd43937	0.10362475
111	0x3df94c9b	0.121728145
112	0x3d0a7e10	0.03381163
113	0xbd02ae4e	-0.03190451
114	0xbda32ab3	-0.079671286
115	0xbdf8a932	-0.121416464
116	0xbdef8bef	-0.11696612
117	0x3d5922b3	0.053011607
118	0xbe268ac5	-0.16263874
119	0x3e0d1518	0.13777578
120	0xbde19407	-0.11014562
121	0x3e380e4e	0.17974207
122	0x3cd6c88a	0.026218671
123	0x3dcc2246	0.09967475
124	0xbdcfb012	-0.101410046
125	0xbe2e9231	-0.17047955
126	0x3c4329ac	0.011911791
127	0xbe14e2a6	-0.14539585

bias f4 [4]
0	0x3ba393da	0.0049919905
1	0x3db542c9	0.08850629
2	0xbdfe5de7	-0.12420254
3	0x3daef025	0.08541898

weight f4 [32]
0	0x3f811758	1.0085249
1	0x3f80559b	1.0026125
2	0x3f8111e5	1.0083586
3	0x3f80db5e	1.0066946
4	0x3f7ebc88	0.99506426
5	0x3f7ea1f6	0.9946588
6	0x3f7debd3	0.99187964
7	0x3f80dad2	1.0066779
8	0x3f7e1e3f	0.992649
9	0x3f7dff18	0.9921737
10	0x3f7edc85	0.99555236
11	0x3f7e4393	0.9932186
12	0x3f804e7f	1.0023955
13	0x3f8127bb	1.009025
14	0x3f7efc8d	0.9960411
15	0x3f80dbc6	1.006707
16	0x3f80d458	1.0064802
17	0x3f7e5b2f	0.99357885
18	0x3f80a7dc	1.0051227
19	0x3f80f63c	1.0075145
20	0x3f812c0f	1.0091571
21	0x3f7e4884	0.993294
22	0x3f7e4331	0.99321276
23	0x3f7f037a	0.9961468
24	0x3f7f4311	0.9971171
25	0x3f810d88	1.0082254
26	0x3f7e75e2	0.99398625
27	0x3f806a6f	1.0032481
28	0x3f7dfc96	0.9921354
29	0x3f808632	1.0040953
30	0x3f80d2df	1.0064353
31	0x3f8068e1	1.0032007

bias f4 [32]
0	0x3be581b0	0.0070039853
1	0xba96e06b	-0.0011510974
2	0x3c11856b	0.008881907
3	0x3a2ea066	0.00066614745
4	0xbbb8bf49	-0.0056380373
5	0xbbbe09b5	-0.005799497
6	0xbc313fe6	-0.010818457
7	0x3bab471e	0.0052269837
8	0xbc20b533	-0.009808826
9	0xbbf7fe76	-0.007568176
10	0xbc39d695	-0.011342664
11	0x3ba078a8	0.004897196
12	0x3b321654	0.0027173953
13	0x3c043179	0.008068436
14	0xba8df3d0	-0.0010830108
15	0x3b8e8b0b	0.0043500713
16	0x3bc878df	0.0061179246
17	0xbbe0ae3c	-0.006856708
18	0x3bb32085	0.005466523
19	0x3c1bdf3d	0.009513673
20	0x3c09c8d5	0.0084096985
21	0xbbcd7810	-0.006270416
22	0xbbcbb42b	-0.006216546
23	0xbb919b62	-0.004443572
24	0xbb3b1998	-0.002854919
25	0x3c0c50fa	0.008564228
26	0xbb1193b1	-0.0022213275
27	0x3b157a46	0.0022808476
28	0xbc2cca30	-0.010546252
29	0x3b3256cf	0.0027212386
30	0x3bef3bf1	0.0073008467
31	0xba0fb723	-0.00054823066

running_mean f4 [32]
0	0x3a97f780	0.0011594146
1	0x3e0a444c	0.13502616
2	0xbef8c9f0	-0.48591566
3	0x3d4a4e94	0.049391344
4	0xbe2456f3	-0.16048793
5	0xbdacb172	-0.084322825
6	0x3e1ff774	0.1562174
7	0xbe2d3973	-0.16916446
8	0xbebb655f	-0.36600778
9	0x3e2c9cd8	0.16856706
10	0x3e61ea9e	0.22062156
11	0x3ed751e6	0.4205467
12	0xbe967aae	-0.29390472
13	0x3e49c967	0.19705735
14	0xbdff3687	-0.12461572
15	0x3cce73f7	0.02520178
16	0xbee019f8	-0.43769813
17	0xbd97b86c	-0.074082226
18	0xbd8eb18b	-0.069674574
19	0x3de67459	0.1125266
20	0x3e8bc187	0.27296087
21	0x3e097095	0.13421853
22	0x3e2243fa	0.15846244
23	0x3ce19c63	0.027540391
24	0x3e9367b1	0.28790048
25	0xbdc0b60d	-0.094097234
26	0x3e1cbf8b	0.15307443
27	0x3e9c9930	0.30585623
28	0x3cd95438	0.026529416
29	0xbe972b35	-0.29525152
30	0xbe5661c1	-0.20935728
31	0xbe49225c	-0.19642013

running_var f4 [32]
0	0x3d4323a0	0.047641397
1	0x3cdc10da	0.026863504
2	0x3dfb240c	0.12262735
3	0x3d043351	0.0322755
4	0x3c90c598	0.017672345
5	0x3d89deef	0.06731974
6	0x3da29118	0.07937831
7	0x3dac0bbf	0.08400678
8	0x3e3e73f4	0.1859892
9	0x3e0e5d07	0.13902675
10	0x3daff347	0.08591323
11	0x3dffe68e	0.12495147
12	0x3dfd2406	0.123603866
13	0x3d515fb6	0.051116668
14	0x3cf4d56a	0.02988692
15	0x3dd96958	0.10615796
16	0x3cd0c8b6	0.025486331
17	0x3ddbdec5	0.10735849
18	0x3c217950	0.009855583
19	0x3d1d7093	0.038437437
20	0x3e35c1bd	0.17749687
21	0x3d2063ca	0.039157666
22	0x3cb4a004	0.022048958
23	0x3e1f8ffb	0.15582268
24	0x3dc29d47	0.095026545
25	0x3c714483	0.014725807
26	0x3c18599e	0.00929871
27	0x3d60df72	0.054900594
28	0x3d69feda	0.05712781
29	0x3d33a153	0.043855023
30	0x3dc25b2f	0.09490048
31	0x3e3605e6	0.17775688

weight f4 [32, 16]
0	0xbe26d991	-0.16293932
1	0x3e3a2909	0.18179716
2	0xbd8dabee	-0.069175586
3	0xbe5cd086	-0.2156392
4	0x3b31f350	0.0027153082
5	0xbe2e7f28	-0.17040694
6	0x3e3bb9cc	0.18332595
7	0x3dc7830a	0.097417906
8	0xbdd3381c	-0.103134364
9	0xbca0d7d3	-0.019634163
10	0x3dfde0c3	0.123963855
11	0xbd4c9190	-0.049943507
12	0xbe0c4c15	-0.13700898
13	0x3e5a9294	0.21344978
14	0xbd86b9da	-0.06578417
15	0xbdce2c9a	-0.10067101
16	0xbda801d6	-0.08203475
17	0x3da97620	0.08274484
18	0x3e628ca9	0.2212397
19	0xbe73e181	-0.23816492
20	0x3e05d806	0.13070688
21	0x3e6fda28	0.23423064
22	0x3db38e0a	0.08767326
23	0xbdb4e137	-0.08832019
24	0xbe4531bf	-0.19257258
25	0x3e633135	0.2218674
26	0xbde1203e	-0.10992478
27	0xbd85fec5	-0.06542734
28	0xbe4fbb1c	-0.2028622
29	0x3e5088d9	0.20364703
30	0xbd6aedf1	-0.057355825
31	0x3e1cab3a	0.15299693
32	0xbe3661b5	-0.1781071
33	0xbe00b782	-0.12570003
34	0xbe6e5aad	-0.23276778
35	0xbe3ac9d3	-0.18241052
36	0x3dd6f431	0.104957946
37	0xbd003151	-0.03129703
38	0xbd0f6353	-0.035006832
39	0x3e1d2590	0.1534636
40	0x3e1533b6	0.14570507
41	0x3e5490f1	0.20758416
42	0x3de92f19	0.11385936
43	0xbe73729c	-0.23774189
44	0x3d1799ed	0.03701203
45	0x3e3c533d	0.18391128
46	0x3e575320	0.21027803
47	0x3d09fdf1	0.033689443
48	0xbdf29036	-0.11843912
49	0xbe390cd2	-0.18071297
50	0x3e155ddb	0.14586584
51	0xbd26e775	-0.04074808
52	0x3e721007	0.23638926
53	0x3c46d110	0.012134805
54	0x3d736b55	0.05942853
55	0x3caf6aa0	0.021413147
56	0xbe41240a	-0.18861404
57	0x3d878d41	0.06618739
58	0x3d90f4ef	0.070779674
59	0x3e61fd8e	0.2206938
60	0xbe4b15a7	-0.19832478
61	0xbcb8cbad	-0.022558058
62	0xbdb6a703	-0.08918574
63	0xbe0025e1	-0.1251445
64	0x3dff6920	0.12471223
65	0xbda98bcb	-0.082786165
66	0x3d10f012	0.0353852
67	0x3e0c0a0a	0.13675705
68	0x3da044b4	0.07825604
69	0xbdbff5bd	-0.09373043
70	0x3a2b1b3d	0.0006527191
71	0x3e18d504	0.14925009
72	0x3cb872f2	0.022515748
73	0xbe719b41	-0.23594381
74	0x3e2d730d	0.1693842
75	0xbb824a15	-0.0039761164
76	0xbdd3ac3c	-0.103355855
77	0xbd468839	-0.048469756
78	0xbe66b34e	-0.22529337
79	0xbdb4fc4b	-0.088371836
80	0x3e45ce75	0.19317038
81	0x3e318561	0.17336036
82	0x3e033386	0.12812623
83	0x3e3b56ad	0.18294783
84	0xbd30aa2d	-0.043131042
85	0xbd303815	-0.043022234
86	0x3cc01bb3	0.023450708
87	0x3e12ce00	0.14336395
88	0x3ca0f567	0.019648267
89	0x3e2355bd	0.15950675
90	0xbdb776d3	-0.08958211
91	0x3d391046	0.045181535
92	0xbe1d3042	-0.1535044
93	0x3de04ec9	0.10952527
94	0xbe47edb0	-0.19524264
95	0xbc27d426	-0.010243451
96	0xbd7ea50e	-0.062169127
97	0xbcdc4b25	-0.0268913
98	0x3e04d1a8	0.12970603
99	0xbe7cef17	-0.2470058
100	0xbe48e59d	-0.1961884
101	0xbd03d895	-0.03218897
102	0x3ddd4a4a	0.10805185
103	0x3e537939	0.20651712
104	0xbe7e99dc	-0.2486338
105	0x3d575f4d	0.05258112
106	0xbb853bb8	-0.004065957
107	0x3dc52ce1	0.096277006
108	0xbd820e19	-0.06350345
109	0x3e153e43	0.14574532
110	0x3ceba54c	0.028765343
111	0x3d6dde93	0.05807359
112	0x3e540ca7	0.20707951
113	0xbe17e80a	-0.1483461
114	0xbe350ba1	-0.17680217
115	0x3e511742	0.20419028
116	0x3dff6702	0.12470819
117	0xbe3f6c43	-0.18693642
118	0xbd87d6c0	-0.06632757
119	0x3d80c2b6	0.06287138
120	0x3d2dd6d8	0.04244122
121	0x3e32402b	0.1740729
122	0x3d7d88f8	0.0618982
123	0xbd5b872e	-0.053595714
124	0x3e20bb83	0.1569653
125	0x3dc44e0a	0.09585197
126	0x3e4cd479	0.20002927
127	0x3dbdbb30	0.09264219
128	0xbe2cf223	-0.16889243
129	0xbdc305ec	-0.09522614
130	0x3d158a05	0.03650858
131	0xbb9e0dc2	-0.0048234174
132	0xbe46ef94	-0.1942733
133	0xbe1631d2	-0.14667442
134	0xbca9fa1f	-0.02074915
135	0xbe258367	-0.16163407
136	0xbe3308f6	-0.17483887
137	0xbd64ec94	-0.05588968
138	0xbd404699	-0.046942327
139	0xbe7610c4	-0.24029833
140	0xbe4f2fe0	-0.20233107
141	0x3d1cdb37	0.038294997
142	0xbd271d03	-0.040799152
143	0xbdb4e983	-0.08833601
144	0xbe6b7ab1	-0.22996022
145	0x3d3e7c2d	0.046505142
146	0x3dea0964	0.11427572
147	0x3b7dc672	0.003872302
148	0xbc8e65a3	-0.017382449
149	0xbe5839a4	-0.21115738
150	0x3d041785	0.032248992
151	0x3e81e3f2	0.2536922
152	0xbccd73dc	-0.02507966
153	0xbe59e9c7	-0.21280585
154	0xbe2a9ac3	-0.166606
155	0xbe29a9a1	-0.16568615
156	0xbd65866a	-0.05603639
157	0xbddf1e49	-0.10894448
158	0xbdecc17a	-0.1156034
159	0x3dbfef36	0.09371798
160	0xbd8012ba	-0.06253572
161	0xbd7f57cf	-0.0623396
162	0x3e46aa29	0.19400848
163	0x3dfa69c2	0.12227203
164	0x3e01dcb4	0.12681848
165	0xbd2ce750	-0.042212784
166	0xbe72281e	-0.23648116
167	0x3b8d5c83	0.004314007
168	0xbcd5e9da	-0.026112486
169	0xbe27cb4b	-0.16386144
170	0xbe63c6b9	-0.22243775
171	0xbd43fa2d	-0.047846008
172	0xbdde4924	-0.10853794
173	0x3cbb2beb	0.02284809
174	0x3b13c645	0.0022548598
175	0xbdbab3ca	-0.09116323
176	0xbe246b4d	-0.16056557
177	0x3e0613dc	0.13093513
178	0xbcf38e5f	-0.029730974
179	0xbdbb5aba	-0.09148164
180	0x3d8bd5e4	0.06827906
181	0xbe46d5fd	-0.19417568
182	0x3e687e5b	0.22704451
183	0x3e026b78	0.12736309
184	0x3e042fed	0.12908907
185	0xbde3c539	-0.111216016
186	0xbd6d17a3	-0.05788387
187	0xbe6d9a7d	-0.23203464
188	0x3e753871	0.23947312
189	0x3e6f9516	0.23396716
190	0xbdbe1214	-0.09280792
191	0xbdf8f2ce	-0.12155686
192	0x3e758370	0.2397592
193	0x3e3a4954	0.18192035
194	0xbe07aa64	-0.13248593
195	0x3decd6fa	0.11564441
196	0xbe27581d	-0.16342206
197	0xbd031cfa	-0.032010056
198	0x3e16ba4d	0.14719506
199	0xbdeec8cf	-0.11659395
200	0x3ce5b876	0.02804206
201	0x3e4ed677	0.20199
202	0x3e50106e	0.20318767
203	0x3e06ac47	0.13151656
204	0x3e00a02d	0.12561102
205	0xbe3acf5b	-0.18243162
206	0xbe62e6af	-0.22158311
207	0xbd9d0680	-0.076672554
208	0x3e2b9380	0.16755486
209	0x3e1aa483	0.15101819
210	0x3e0f3b96	0.13987574
211	0xbe20e1d9	-0.15711154
212	0xbdacd218	-0.0843851
213	0x3e700e1b	0.23442881
214	0xbe192ffc	-0.14959711
215	0xbd963911	-0.07335103
216	0xbdf16ac2	-0.117879406
217	0x3ce06ab9	0.02739464
218	0xbe2dd076	-0.16974053
219	0x3d08e11d	0.03341781
220	0xbe5e51fd	-0.21710964
221	0xbdab9486	-0.08377938
222	0xbdfdc609	-0.12391288
223	0x3cce02bd	0.02514779
224	0x3df65e39	0.1202969
225	0xbe217f70	-0.1577127
226	0x3e14832d	0.14503165
227	0xbe565dd8	-0.20934236
228	0xbdad2b4c	-0.08455524
229	0x3e4985ea	0.1967999
230	0x3e431f0e	0.19054815
231	0xbe51f4d8	-0.20503557
232	0xbe5b8f2e	-0.21441337
233	0xbe6e733b	-0.23286144
234	0x3c1d6ef6	0.009608975
235	0x3e57d9a5	0.21079119
236	0xbe52c736	-0.20583805
237	0xbe3452b7	-0.17609678
238	0xbe1aff69	-0.15136494
239	0xbe0e671b	-0.13906519
240	0x3e39ed5d	0.18156953
241	0x3dac0144	0.08398679
242	0xbd77fd90	-0.06054455
243	0xbe37c8dc	-0.17947716
244	0x3e2db955	0.1696523
245	0xbdeb6a78	-0.11494917
246	0xbe5dbeeb	-0.2165486
247	0xbe62dbc6	-0.2215415
248	0xbe7c6606	-0.24648294
249	0xbe1246bc	-0.14284796
250	0xbe3b9c9e	-0.18321463
251	0xbe3b9c1d	-0.18321271
252	0xbd3c6d1e	-0.0460025
253	0xbe0c594d	-0.1370594
254	0xbe6e8d96	-0.23296198
255	0x3e7d9429	0.2476355

bias f4 [32]
0	0xbda9f914	-0.08299461
1	0xbe44da35	-0.19223864
2	0xbe68df90	-0.22741532
3	0x3cdccdcf	0.026953606
4	0xbe551ea7	-0.20812474
5	0x3bd480dc	0.006485088
6	0x3b9141a3	0.0044328733
7	0x3d87e491	0.066353925
8	0x3da81727	0.08207541
9	0xbe1f0836	-0.15530476
10	0x3e0806d6	0.13283858
11	0x3d62c36c	0.05536215
12	0x3ba09762	0.0049008587
13	0xbca0a3ce	-0.019609358
14	0xbe091e6e	-0.13390514
15	0x3e08ce55	0.1335996
16	0xbd48db14	-0.049037054
17	0xbd9fa934	-0.07795945
18	0x3d54f9ec	0.051996157
19	0x3e4e2ead	0.20134993
20	0xbd0b4227	-0.033998635
21	0x3d4a6931	0.049416725
22	0x3d1b38c1	0.03789592
23	0x3e5e11cd	0.21686478
24	0x3e0732ce	0.13202974
25	0x3e618bbd	0.22025962
26	0x3e3cb84e	0.18429682
27	0x3e1648f2	0.14676264
28	0x3e53ca2e	0.20682594
29	0xbce93efa	-0.028472412
30	0x3d73ff7c	0.05956982
31	0xbddace16	-0.10683839
