code/model_obj_backups/model_obj_20.pt (torch, 538274 bytes, 158 tensors)

weight f4 [32, 2]
0.5804812 -0.6353265 0.11887792 0.17742495 -0.39790627 0.18357761 0.030526288 0.53630763
0.2883348 -0.33565414 -0.6904422 -0.004717787 0.5507329 0.0019084351 0.4843873 0.3862538
0.031641744 0.6132747 0.10983183 -0.19401652 0.5626707 0.24479942 0.06749197 -0.6758409
-0.044895574 -0.5261807 0.63104045 -0.3957816 -0.5234468 -0.096670404 -0.53347874 0.1781681
-0.69173265 0.48322955 0.66191405 -0.41099167 -0.5641373 -0.1195706 0.10587696 -0.38518345
-0.38902968 -0.10964486 0.19356611 -0.6343804 0.4498561 0.30130973 -0.4707246 -0.20281611
-0.6694527 0.1190511 0.23756419 -0.3614891 0.2751676 -0.052954696 -0.60186106 0.5726436
0.017532505 0.32018515 0.67932975 -0.54803246 0.46360856 0.44778258 0.37299615 -0.03779301
00000000: 6a9a 143f c2a4 22bf 4476 f33d e3ae 353e
00000010: 5fba cbbe c5fb 3b3e 4412 fa3c 754b 093f
00000020: 9ea0 933e dcda abbe d2c0 30bf aa97 9abb
00000030: d5fc 0c3f 7524 fa3a 9d01 f83e 0fc3 c53e
00000040: c69a 013d 92ff 1c3f 83ef e03d 44ac 46be
00000050: 300b 103f b3ac 7a3e 3b39 8a3d e903 2dbf
00000060: 6ce4 37bd c7b3 06bf de8b 213f e3a3 cabe
00000070: 9c00 06bf 22fb c5bd 1092 08bf b371 363e
00000080: 6415 31bf dd69 f73e 3373 293f 806d d2be
00000090: 4d6b 10bf 6ee1 f4bd 05d6 d83d c436 c5be
000000a0: e62e c7be 7c8d e0bd 3236 463e c166 22bf
000000b0: 8a53 e63e 4545 9a3e d102 f1be 07af 4fbe
000000c0: 4161 2bbf 10d1 f33d 0744 733e 1915 b9be
000000d0: c5e2 8c3e 06e7 58bd 9113 1abf c598 123f
000000e0: 54a0 8f3c 4fef a33e 8ee8 2d3f db4b 0cbf
000000f0: 1a5e ed3e c243 e53e 5af9 be3e d8cc 1abd

bias f4 [32]
-0.2621563 0.5756579 -0.6239195 -0.058802363 0.05084125 0.35744128 0.22756857 0.1297007
-0.60220444 -0.097714 -0.54198223 -0.5986801 -0.046074457 0.5370915 -0.16289346 0.5045307
0.4719578 -0.14062281 0.5150494 0.1203325 -0.10531114 -0.25259638 0.12141159 0.49909878
-0.26111254 0.27212715 0.63196635 -0.020034479 -0.6173525 -0.06488924 -0.30320898 0.4957963
00000000: 5a39 86be 515e 133f 30b9 1fbf bfda 70bd
00000010: ea3e 503d 8b02 b73e bc07 693e 43d0 043e
00000020: 122a 1abf 471e c8bd 59bf 0abf 1943 19bf
00000030: 92b8 3cbd d47e 093f 8bcd 26be ed28 013f
00000040: 74a4 f13e 6dff 0fbe 47da 033f e370 f63d
00000050: 5ead d7bd 5054 81be a4a6 f83d e089 ff3e
00000060: 8bb0 85be 4054 8b3e 8cc8 213f 591f a4bc
00000070: d00a 1ebf a6e4 84bd 353e 9bbe 03d9 fd3e

weight f4 [16, 32]
0.08567744 0.17271526 -0.15666391 0.17099588 -0.14110856 0.061628852 -0.0105552925 -0.046614364
0.010550409 -0.0003227845 0.16250658 0.027920183 -0.005854132 -0.11268428 -0.13952127 -0.14926508
0.012346077 -0.08107669 -0.030632809 -0.031574897 -0.0074318587 -0.113463424 -0.098081455 0.050470274
-0.09384405 -0.07860508 -0.16541068 0.009362562 0.04255319 -0.0148597155 -0.13059168 -0.17651609
0.12383522 0.11356697 -0.09254264 -0.021514306 0.02778494 -0.14923213 -0.040721808 -0.10815966
0.088635005 -0.07192535 0.17271279 0.08666385 0.16302364 0.0020681198 -0.14412138 -0.02479844
0.0062296973 0.085616745 0.1491356 -0.06912006 0.12522058 -0.16192684 -0.07426628 -0.014853051
0.14283192 0.13301384 0.06593898 0.10756951 -0.04674073 -0.17525049 -0.1705256 0.13073356
-0.044789776 -0.030537086 0.03710107 0.026355168 -0.050512597 0.0130376965 -0.106880635 0.007692571
0.1409576 -0.05168208 -0.10608234 -0.0962876 0.097106636 -0.13053061 0.06483294 0.059680495
-0.16538669 -0.05394683 0.06322039 -0.051024854 -0.033271655 0.0074631353 0.036367625 0.104060985
-0.16399087 0.04395868 -0.058295093 -0.14712743 0.082699336 -0.04989364 -0.07157859 0.11858838
-0.053320464 0.18841793 -0.13698348 -0.043971617 0.035621163 -0.0025874362 0.055422265 0.16529302
-0.16654518 0.06680599 0.12927856 -0.034409672 -0.02803211 0.119689316 -0.014516658 0.14144881
0.13853553 0.06836583 -0.08324425 -0.10560797 -0.11108435 -0.102238886 0.020288665 -0.16188848
-0.14091024 0.054808214 -0.09681873 0.03854997 -0.06709869 0.17310971 0.0039424975 0.003416888
0.062297516 0.12752794 0.05932916 0.09549033 -0.19304955 -0.04384127 0.023445237 0.0055745114
0.09296969 0.070376396 -0.08220036 0.0019945635 -0.1718391 0.08845181 -0.08965013 0.018237708
0.04603038 -0.100699164 -0.10155612 0.10882382 -0.010794695 0.021684742 -0.14458564 0.06895942
-0.08938961 0.07882984 -0.114261135 0.13200952 0.17270185 0.15482846 0.11830896 -0.18528658
0.08681414 0.15258172 0.14774495 -0.18185396 -0.021090252 -0.11095718 -0.028328216 0.15277205
-0.14229147 -0.13622673 -0.06946146 -0.022917889 0.1923011 0.026177237 -0.065690026 0.029323628
-0.15984575 -0.13391003 0.07000643 -0.073795974 0.1684711 0.16478384 -0.028982952 -0.08783098
0.1746439 0.14295846 0.046681024 -0.16936918 -0.11349159 0.14635664 0.10430436 -0.10469079
-0.17254296 0.050145403 -0.121764116 -0.16034448 0.047016487 0.037470836 0.081534535 0.025441041
-0.15497054 -0.0032780278 0.15036462 -0.03934562 0.17117943 -0.052528072 0.105419196 -0.13826266
-0.13466746 0.078060105 0.13173032 -0.029492969 0.11654746 0.070537955 0.15011242 -0.1449617
0.10640151 -0.07596998 0.11848244 -0.031569142 0.14025128 -0.13034216 -0.008605498 0.15267776
0.06258362 0.00032918283 0.0346666 0.076551564 -0.100457475 0.13852456 0.044925008 0.09904134
-0.011374673 0.15680018 -0.12526001 0.08057311 -0.025578378 -0.14262919 0.014252402 -0.036479954
-0.17179449 0.0183732 -0.038019013 -0.11095721 0.015619402 0.009090566 0.1453256 -0.1214125
-0.107066244 0.14307192 0.14399607 -0.05993796 -0.034786716 -0.13543466 0.0077897743 -0.051162947
00000000: a777 af3d 45dc 303e 816c 20be 8b19 2f3e
00000010: c37e 10be 896e 7c3d 1bf0 2cbc b4ee 3ebd
00000020: 9fdb 2c3c 673b a9b9 2068 263e deb8 e43c
00000030: 05d4 bfbb 04c7 e6bd aade 0ebe f2d8 18be
00000040: 3347 4a3c 890b a6bd a8f1 fabc ae54 01bd
00000050: f386 f3bb 835f e8bd eede c8bd ebb9 4e3d
00000060: 4f31 c0bd b3fb a0bd 6b61 29be 6e65 193c
00000070: 414c 2e3d 2a76 73bc d3b9 05be a2c0 34be
00000080: 529d fd3d cd95 e83d ff86 bdbd c53e b0bc
00000090: 3e9d e33c 4fd0 18be e9cb 26bd d082 ddbd
000000a0: 4586 b53d 994d 93bd 9fdb 303e d17c b13d
000000b0: abef 263e 4b89 073b 8e94 13be 1926 cbbc
000000c0: 7d22 cc3b d557 af3d 01b7 183e d18e 8dbd
000000d0: d339 003e 26d0 25be eb18 98bd 365a 73bc
000000e0: 8842 123e c834 083e 040b 873d 674d dc3d
000000f0: 3573 3fbd dd74 33be 439e 2ebe 05df 053e
00000100: 7c75 37bd e928 fabc 4bf7 173d cbe6 d73c
00000110: 4ce6 4ebd 109c 553c 3ce4 dabd f611 fc3b
00000120: 3057 103e 97b0 53bd b341 d9bd 6f32 c5bd
00000130: d8df c63d d1a9 05be 22c7 843d 8973 743d
00000140: 215b 29be 5af7 5cbd b179 813d 70ff 50bd
00000150: dc47 08bd 518d f43b 38f6 143d ed1d d53d
00000160: 39ed 27be 040e 343d d6c6 6ebd 93a8 16be
00000170: 455e a93d 465d 4cbd cc97 92bd 77de f23d
00000180: 8f66 5abd a1f0 403e 6645 0cbe 951b 34bd
00000190: 7fe7 113d fa91 29bb 7502 633d 9342 293e
000001a0: d28a 2abe 94d1 883d 9961 043e 28f1 0cbd
000001b0: 98a3 e5bc ac1f f53d 47d7 6dbc f5d7 103e
000001c0: 42dc 0d3e 6203 8c3d f67b aabd fe48 d8bd
000001d0: 3180 e3bd 9f62 d1bd 6a34 a63c 18c6 25be
000001e0: c64a 10be 947e 603d e648 c6bd 93e6 1d3d
000001f0: 0a6b 89bd ac43 313e 1130 813b deed 5f3b
00000200: ae2b 7f3d af96 023e 2203 733d 6f90 c33d
00000210: c8ae 45be e792 33bd 3a10 c03c 64aa b63b
00000220: e566 be3d 8021 903d aa58 a8bd 39b7 023b
00000230: 97f6 2fbe 3926 b53d 7d9a b7bd 3f67 953c
00000240: 5a8a 3c3d 5d3b cebd a8fc cfbd 06df de3d
00000250: 3bdc 30bc 33a4 b13c 420e 14be 993a 8d3d
00000260: e611 b7bd 8a71 a13d be01 eabd 812d 073e
00000270: c1d8 303e 5a8b 1e3e f84b f23d c4bb 3dbe
00000280: 9dcb b13d 623e 1c3e 744a 173e ed37 3abe
00000290: 77c5 acbc 853d e3bd 9310 e8bc 4770 1c3e
000002a0: dbb4 11be 057f 0bbe cf41 8ebd 4cbe bbbc
000002b0: 94ea 443e a571 d63c 7e88 86bd 1b38 f03c
000002c0: 9bae 23be b61f 09be 885f 8f3d 5822 97bd
000002d0: b083 2c3e 18bd 283e a86d edbc bbe0 b3bd
000002e0: dad5 323e b463 123e 9a34 3f3d 1d6f 2dbe
000002f0: 476e e8bd 84de 153e 869d d53d 2068 d6bd
00000300: 1aaf 30be 4465 4d3d 775f f9bd 5831 24be
00000310: 5c94 403d 057b 193d 94fb a63d bb69 d03c
00000320: 99b0 1ebe 2ed4 56bb 2ff9 193e df28 21bd
00000330: a949 2f3e ad27 57bd 05e6 d73d ba94 0dbe
00000340: 44e6 09be fadd 9f3d 50e4 063e 3d9b f1bc
00000350: 6fb0 ee3d 3476 903d 12b7 193e d770 14be
00000360: 09e9 d93d 2696 9bbd eca6 f23d a54e 01bd
00000370: 089e 0f3e 6a78 05be 13fe 0cbc 8f57 1c3e
00000380: d72b 803d 2c96 ac39 91fe 0d3d 11c7 9c3d
00000390: a6bc cdbd 62d9 0d3e 4903 383d 30d6 ca3d
000003a0: d65c 3abc 3a90 203e 2944 00be 8403 a53d
000003b0: bf89 d1bc 630d 12be e882 693c 016c 15bd
000003c0: e5ea 2fbe 6583 963c d3b9 1bbd 893d e3bd
000003d0: 85e8 7f3c 99f0 143c 3cd0 143e 1ea7 f8bd
000003e0: 8c45 dbbd 7281 123e b573 133e 8281 75bd
000003f0: 847c 0ebd 62af 0abe 5d41 ff3b 3d90 51bd

bias f4 [16]
0.12955487 -0.09715754 0.07938013 -0.041548226 -0.01828101 -0.08547642 -0.041136667 0.027410993
-0.17509697 0.17449366 -0.07707602 0.0349139 -0.13332418 0.09144398 0.17602931 0.08895987
00000000: 08aa 043e 88fa c6bd 0d92 a23d 792e 2abd
00000010: 0fc2 95bc 430e afbd ec7e 28bd 058d e03c
00000020: 9f4c 33be 77ae 323e 08da 9dbd e101 0f3d
00000030: 2286 08be fb46 bb3d 0741 343e 9830 b63d

weight f4 [32]
0.98376876 1.011619 1.0162901 0.9971218 1.0190094 0.98086584 0.9947851 0.98922056
1.000484 1.0069963 1.0136806 0.9828417 1.0085306 1.0098152 0.99191284 0.99501467
1.0283242 1.025712 0.9982383 0.9986766 1.0013099 0.9734358 0.99983627 0.99158865
1.0144949 0.9988443 1.0083797 1.009949 0.98589474 0.9774146 0.998 1.0035169
00000000: 45d8 7b3f bb7c 813f cb15 823f 6043 7f3f
00000010: e66e 823f 061a 7b3f 3caa 7e3f 8f3d 7d3f
00000020: dc0f 803f 41e5 803f 49c0 813f 839b 7b3f
00000030: 8817 813f a041 813f 00ee 7d3f 48b9 7e3f
00000040: 21a0 833f 884a 833f 8c8c 7f3f 45a9 7f3f
00000050: ec2a 803f 1733 793f 45f5 7f3f c1d8 7d3f
00000060: f8da 813f 43b4 7f3f 9612 813f 0246 813f
00000070: 9963 7c3f d837 7a3f ee7c 7f3f 3e73 803f

bias f4 [32]
-0.03732464 -0.037634633 0.021336963 1.8442588e-06 0.015159468 -0.032810308 -0.027463509 -0.006918617
-0.012559952 -0.006480667 0.0151020065 -0.009028912 0.008728442 -0.038490213 0.010686544 0.015385275
0.03290584 0.016099727 -0.019881515 -0.011706563 0.013724521 -0.024512652 -0.019074805 -0.003631573
0.030203348 0.0033133198 0.012429594 -0.00060253066 -0.011217409 -0.015301773 0.010554255 -0.020770565
00000000: b9e1 18bd c626 1abd dbca ae3c 4088 f735
00000010: 6b5f 783c 1a64 06bd 27fb e0bc 91b5 e2bb
00000020: 42c8 4dbc c65b d4bb 686e 773c 00ee 13bc
00000030: bd01 0f3c eaa7 1dbd 9d16 2f3c 8512 7c3c
00000040: 46c8 063d 93e3 833c 8fde a2bc e2cc 3fbc
00000050: d0dc 603c c2ce c8bc c442 9cbc afff 6dbb
00000060: 036d f73c 4824 593b 7fa5 4b3c 26f3 1dba
00000070: 39c9 37bc 4ab4 7abc c1eb 2c3c 0827 aabc

running_mean f4 [32]
-0.376052 0.6640746 -0.637064 0.1419654 -0.013114154 0.21708319 0.33880502 0.3671586
-0.37327883 -0.14596373 -0.34019595 -0.8302832 -0.2460773 0.520021 -0.30308333 0.46212417
0.50848246 -0.15682885 0.35846195 0.0017941335 -0.22320893 -0.44392848 0.32109144 0.3310231
-0.35227668 0.18860719 0.66794175 0.06691875 -0.49767196 -0.12744223 -0.04761873 0.5569539
00000000: e389 c0be cb00 2a3f a016 23bf 615f 113e
00000010: c0dc 56bc 0e4b 5e3e da77 ad3e 36fc bb3e
00000020: 671e bfbe 8477 15be 2a2e aebe 718d 54bf
00000030: b0fb 7bbe 1920 053f bd2d 9bbe 8a9b ec3e
00000040: e82b 023f be97 20be 5388 b73e 2129 eb3a
00000050: e290 64be 984a e3be 1966 a43e dc7b a93e
00000060: 9c5d b4be 3e22 413e 3bfe 2a3f b30c 893d
00000070: dcce febe 3780 02be dc0b 43bd 8894 0e3f

running_var f4 [32]
0.2202428 0.0068820314 0.05191344 0.0638838 0.05826448 0.09812765 0.06258759 0.053687572
0.08375992 0.014488136 0.057771612 0.11324173 0.06046788 0.15744172 0.050899938 0.08101323
0.20495045 0.17201678 0.05856597 0.04285684 0.027424404 0.119597085 0.04160796 0.040397942
0.10841739 0.055179164 0.01857815 0.20427161 0.02278133 0.22276258 0.058227565 0.031307794
00000000: 5487 613e aa82 e13b 30a3 543d 82d5 823d
00000010: bca6 6e3d 26f7 c83d ec2d 803d 80e7 5b3d
00000020: 528a ab3d a65f 6d3c eda1 6c3d 48eb e73d
00000030: 2bad 773d 6738 213e 747c 503d 44ea a53d
00000040: 88de 513e 2b25 303e dfe2 6f3d a78a 2f3d
00000050: 25a9 e03c 51ef f43d 1c6d 2a3d 5078 253d
00000060: f009 de3d 8c03 623d 3431 983c 942c 513e
00000070: e99f ba3c e01b 643e 0780 6e3d 9a3c 003d

weight f4 [32, 3]
0.2645504 -0.21732384 -0.16444965 0.12954123 0.022659551 -0.56672966 0.17088492 -0.34512684
-0.30914664 0.5242008 -0.48220593 0.46246767 0.04554385 -0.40836996 -0.3197775 0.06505502
0.03234476 -0.22028847 -0.24959885 -0.5791019 0.5577226 -0.4860092 -0.4643586 -0.13126984
0.29834834 0.49878415 -0.1883856 0.35327414 -0.28219634 0.50811094 -0.27577975 0.38097572
-0.048776064 -0.5296986 0.11735321 0.46934834 -0.11696119 -0.23972064 0.5244718 -0.26383513
0.21638548 -0.16388342 -0.57974607 -0.28421992 0.4231818 -0.42714113 0.37700653 -0.15492536
-0.0662269 -0.33328593 0.39682296 0.565678 0.0752791 -0.21365422 0.29870108 -0.30797142
0.5461347 -0.09667228 0.27642998 -0.26375484 0.3772811 -0.1231948 -0.22833481 0.34959328
-0.30442527 -0.33691746 0.29246223 -0.49956873 -0.10928863 -0.3950176 0.42200524 0.22241567
0.11105958 0.24868622 0.39114168 -0.25132293 -0.43926814 -0.39418027 -0.5972247 0.20886165
-0.55388284 -0.2601719 -0.56249475 0.32225296 0.24825913 0.334802 -0.03160623 0.0895144
-0.48317054 -0.08615629 0.16964631 -0.29315442 0.039109107 -0.40123895 0.15563083 -0.15396476
00000000: 2673 873e 248a 5ebe 7d65 28be 75a6 043e
00000010: 86a0 b93c 3215 11bf 75fc 2e3e 77b4 b0be
00000020: 7848 9ebe 0632 063f b2e3 f6be 90c8 ec3e
00000030: 308c 3a3d de15 d1be e0b9 a3be 913b 853d
00000040: f07b 043d 4d93 61be d796 7fbe 0640 14bf
00000050: e9c6 0e3f 33d6 f8be 69c0 edbe 9a6b 06be
00000060: 1dc1 983e a360 ff3e 28e8 40be 59e0 b43e
00000070: 0a7c 90be 8f13 023f 0133 8dbe 400f c33e
00000080: 69c9 47bd 549a 07bf e156 f03d 6d4e f03e
00000090: 5989 efbd 5479 75be c943 063f 6615 87be
000000a0: 2894 5d3e 0ed1 27be 3d6a 14bf 4685 91be
000000b0: 49ab d83e 3eb2 dabe 0007 c13e c1a4 1ebe
000000c0: f8a1 87bd 74a4 aabe 612c cb3e 46d0 103f
000000d0: ee2b 9a3d 2cc8 5abe 59ef 983e 6eae 9dbe
000000e0: 7ccf 0b3f 1efc c5bd 3b88 8d3e e00a 87be
000000f0: fd2a c13e 8e4d fcbd 9ad0 69be e4fd b23e
00000100: a1dd 9bbe 7280 acbe 9cbd 953e 79c7 ffbe
00000110: b8d2 dfbd bf3f cabe 1211 d83e efc0 633e
00000120: 3573 e33d 9aa7 7e3e b943 c83e 66ad 80be
00000130: c1e7 e0be ffd1 c9be b8e3 18bf d4df 553e
00000140: 44cb 0dbf 4035 85be a8ff 0fbf 57fe a43e
00000150: a437 7e3e 2b6b ab3e 8975 01bd 5353 b73d
00000160: 2162 f7be b572 b0bd c3b7 2d3e 5618 96be
00000170: df30 203d 316f cdbe b05d 1f3e f0a8 1dbe

bias f4 [32]
-0.5178145 -0.56104326 0.3525042 -0.45768037 0.22930881 0.29191598 -0.10170849 0.21363425
-0.203814 -0.038090374 -0.5434087 0.06457594 -0.3713556 -0.2934829 0.46591818 0.52094346
0.010064623 0.021825055 -0.25660366 0.2483 -0.27751443 -0.12523562 0.21360517 -0.19985504
-0.4870228 0.08638038 -0.5536088 0.54017764 -0.23455869 -0.100659095 -0.2559036 -0.12588285
00000000: 7e8f 04bf 88a0 0fbf 6e7b b43e 1555 eabe
00000010: eecf 6a3e 0376 953e 8a4c d0bd f0c2 5a3e
00000020: 9eb4 50be a704 1cbd d51c 0bbf 6440 843d
00000030: 5222 bebe 6443 96be d48c ee3e 8d5c 053f
00000040: 17e6 243c 75ca b23c 8e61 83be 5b42 7e3e
00000050: 5f16 8ebe c43d 00be 50bb 5a3e cda6 4cbe
00000060: 0d5b f9be 32e8 b03d 4eb9 0dbf 1549 0a3f
00000070: 2730 70be 5b26 cebd cc05 83be 6fe7 00be

weight f4 [16, 32]
-0.10118929 -0.042165224 0.09917422 0.13015322 0.066462316 0.10159489 0.01289592 0.00029829887
-0.10068882 0.07467681 -0.16849066 -0.08022042 -0.04943288 -0.0015076548 0.040982682 -0.014597883
0.021520343 -0.010228089 -0.0857323 0.106903136 0.0062554176 -0.1553046 0.16277571 -0.066384815
0.08293898 0.15977913 -0.055632204 0.0210324 0.0046361703 -0.1528422 0.13771833 -0.13894305
0.06492282 -0.03128374 -0.01631034 -0.06601327 0.041020088 0.1414696 -0.0026313968 0.115217805
0.05925362 -0.06425817 0.03728744 -0.18707038 0.098132096 -0.029491043 -0.028212054 -0.07358293
-0.163919 -0.079381 -0.089412 0.12449661 0.031238323 0.0982348 0.16428871 0.049985524
-0.10614981 0.00732661 -0.037980516 0.047796577 0.13100432 -0.0726254 -0.052863702 0.025519043
0.083451204 0.18058212 0.13829201 -0.009939203 0.028650668 -0.07742854 -0.07387354 0.104042515
0.14976816 0.111193635 -0.057947524 -0.16161722 -0.029789435 0.025783649 0.12813532 -0.0126238875
-0.112976894 0.09133996 0.040510062 0.107350454 -0.069384396 0.16045718 0.086858675 -0.16335689
-0.05826395 0.14454792 0.10813392 -0.17935577 -0.007319179 -0.07625833 0.0393304 -0.11740889
0.007189875 -0.009609682 0.09906772 0.08692414 -0.16733932 0.13734233 -0.070085235 -0.05411056
-0.0035199593 0.044583 -0.06381707 0.111781955 -0.11074283 -0.09881854 -0.11314491 -0.00021668104
-0.12858494 -0.15512644 -0.04971335 -0.123829566 0.046626884 -0.027637804 0.09581402 0.12061162
0.13718686 0.08900846 0.0004051491 -0.16283973 0.0459448 0.038448885 0.066878356 0.15539691
-0.0039946116 -0.092595026 -0.019088015 -0.12308457 0.018951021 0.08618609 0.13520373 0.15498962
-0.10109427 -0.042401142 -0.15248986 0.045631032 -0.09759884 -0.12838382 -0.077236116 -0.16213259
-0.0020602478 -0.12815519 -0.025331395 0.14193703 0.0335194 -0.084196 0.021482822 -0.016228281
-0.069891825 -0.18431908 0.06683537 0.036157064 -0.01696668 0.031484805 0.027000623 -0.053140193
-0.007495407 -0.12020782 0.13955626 0.14761284 0.002520809 0.032893803 0.06421094 -0.06960031
-0.065916374 0.06972193 0.07911408 0.094542705 0.007518394 -0.15311258 -0.08098593 -0.1199907
-0.007663117 -0.11827965 0.14644805 -0.040515687 0.13975805 -0.11269648 -0.0397315 -0.017216055
0.11527778 -0.027176207 0.111229636 0.06865337 -0.17056768 0.13319896 0.16643822 0.120267935
-0.15016146 0.10525683 0.040830974 -0.078738056 0.10009589 0.15420786 -0.17406152 0.15033737
-0.037544888 0.0067780246 -0.0052499236 -0.14243463 -0.12769833 -0.10832741 -0.008737299 0.025302107
-0.06996339 -0.11204196 0.06664145 -0.04838376 0.032785602 -0.11177854 0.035106953 -0.13714649
-0.02645998 0.114667214 -0.014340256 -0.167866 0.07015976 -0.13430423 0.053113397 -0.09727346
0.13765468 -0.053262107 0.07070187 -0.11605933 -0.16572952 0.1865619 0.05548015 -0.025791505
-0.15881649 0.08942908 0.17755798 0.1323864 -0.12999393 0.16693799 -0.17262924 -0.07421133
-0.094568074 0.13595465 0.15098166 0.111469045 -0.17032741 0.066596344 0.13612287 -0.14044015
-0.0819338 -0.13688272 0.050160494 0.11953208 0.030909505 -0.08485571 -0.0090091815 -0.044586286
00000000: 553c cfbd 71b5 2cbd da1b cb3d e346 053e
00000010: 651d 883d fb10 d03d 6949 533c ff64 9c39
00000020: f135 cebd 28f0 983d d188 2cbe 9b4a a4bd
00000030: 227a 4abd 809c c5ba 75dd 273d f62b 6fbc
00000040: 6e4b b03c b793 27bc 6b94 afbd 08f0 da3d
00000050: 3ffa cc3b 2b08 1fbe adae 263e c3f4 87bd
00000060: e9db a93d 249d 233e 98de 63bd 244c ac3c
00000070: 04eb 973b aa82 1cbe 0906 0d3e 1647 0ebe
00000080: 41f6 843d 6123 00bd 439d 85bc f731 87bd
00000090: ae04 283d 68dd 103e 8373 2cbb 50f7 eb3d
000000a0: edb3 723d ca99 83bd b7ba 183d 618f 3fbe
000000b0: 7bf9 c83d 3397 f1bc f71c e7bc a6b2 96bd
000000c0: 62da 27be 8192 a2bd a31d b7bd 14f8 fe3d
000000d0: 83e7 ff3c 542f c93d 4d3b 283e 9fbd 4c3d
000000e0: 1265 d9bd 0f14 f03b 7591 1bbd 58c6 433d
000000f0: ff25 063e a0bc 94bd 9c87 58bd 500d d13c
00000100: 77e8 aa3d 85ea 383e 6c9c 0d3e 0ad8 22bc
00000110: ceb4 ea3c db92 9ebd 034b 97bd 3e14 d53d
00000120: d35c 193e 7db9 e33d 625a 6dbd fc7e 25be
00000130: f908 f4bc 3b38 d33c e835 033e 6cd4 4ebc
00000140: 6e60 e7bd 7210 bb3d e1ed 253d 8eda db3d
00000150: 6819 8ebd e34e 243e f6e2 b13d 0747 27be
00000160: 2ea6 6ebd 5f04 143e 5175 dd3d 0aa9 37be
00000170: b9d5 efbb 542d 9cbd ea18 213d 1274 f0bd
00000180: 0b99 eb3b ed71 1dbc 04e4 ca3d 4905 b23d
00000190: 005b 2bbe 78a3 0c3e d988 8fbd 09a3 5dbd
000001a0: 1eaf 66bb aa9c 363d 86b2 82bd f0ed e43d
000001b0: 23cd e2bd 6061 cabd 85b8 e7bd e034 63b9
000001c0: c5ab 03be 77d9 1ebe 3aa0 4bbd 5b9a fdbd
000001d0: d5fb 3e3d ad68 e2bc 243a c43d 3a03 f73d
000001e0: b67a 0c3e 114a b63d 316a d439 75bf 26be
000001f0: 9d30 3c3d 947c 1d3d 85f7 883d 5e20 1f3e
00000200: 3be5 82bb 76a2 bdbd 785e 9cbc c313 fcbd
00000210: 2c3f 9b3c 5582 b03d d972 0a3e 99b5 1e3e
00000220: 830a cfbd d2ac 2dbd 4d26 1cbe 9be7 3a3d
00000230: e7e1 c7bd 0c77 03be f82d 9ebd 1606 26be
00000240: 3905 07bb 1d3b 03be c983 cfbc f157 113e
00000250: a34b 093d f46e acbd befc af3c 2cf1 84bc
00000260: 7223 8fbd 24be 3cbe fce0 883d 6e19 143d
00000270: b5fd 8abc 36f6 003d 6930 dd3c 88a9 59bd
00000280: 089c f5bb 842f f6bd d6e7 0e3e d227 173e
00000290: 2834 253b a7bb 063d 0681 833d 9b8a 8ebd
000002a0: 2aff 86bd 5fca 8e3d 9006 a23d 9b9f c13d
000002b0: dc5c f63b 8bc9 1cbe f4db a5bd afbd f5bd
000002c0: e21a fbbb 9a3c f2bd 7af6 153e c7f3 25bd
000002d0: bc1c 0f3e 69cd e6bd 7fbd 22bd af08 8dbc
000002e0: c216 ec3d a3a0 debc 5dcc e33d 239a 8c3d
000002f0: 4ba9 2ebe 4f65 083e c86e 2a3e 094f f63d
00000300: edc3 19be e590 d73d 613e 273d 6b41 a1bd
00000310: 13ff cc3d aae8 1d3e 2f3d 32be 0af2 193e
00000320: abc8 19bd 311a de3b 8d07 acbb 62da 11be
00000330: 5ac3 02be c3da ddbd e326 0fbc 5d46 cf3c
00000340: f748 8fbd 4176 e5bd 507b 883d 0d2e 46bd
00000350: 324a 063d 26ec e4bd 4fcc 0f3d 2170 0cbe
00000360: 9ac2 d8bc a5d6 ea3d 65f3 6abc 11e5 2bbe
00000370: ecaf 8f3d 0c87 09be 6f8d 593d 4f37 c7bd
00000380: 59f5 0c3e 5e29 5abd 24cc 903d 84b0 edbd
00000390: 00b5 29be 150a 3f3e 273f 633d b548 d3bc
000003a0: caa0 22be 9826 b73d c2d1 353e 4d90 073e
000003b0: 211d 05be cbf1 2a3e b8c5 30be 1cfc 97bd
000003c0: e8ac c1bd b237 0b3e f09a 1a3e e249 e43d
000003d0: 4f6a 2ebe aa63 883d cb63 0b3e 8bcf 0fbe
000003e0: e8cc a7bd fc2a 0cbe 1775 4d3d 3ccd f43d
000003f0: ee35 fd3c d5c8 adbd 3f9b 13bc 1ca0 36bd

bias f4 [16]
0.17781672 0.019798202 0.1510534 0.14874175 0.15899678 0.11410966 -0.15531924 -0.114533454
-0.062363576 0.043427944 -0.038093057 -0.13723074 0.124671996 -0.03724441 0.09155072 -0.06284301
00000000: 9615 363e d72f a23c bead 1a3e c24f 183e
00000010: 0dd0 223e 53b2 e93d 020c 1fbe 8490 eabd
00000020: f370 7fbd 80e1 313d 7707 1cbd 3786 0cbe
00000030: 0854 ff3d 988d 18bd f27e bb3d d6b3 80bd

weight f4 [32]
0.9987351 1.0091318 0.98738045 1.003827 0.98236775 0.9846985 1.0061562 0.9944472
0.9890426 1.0026128 1.0021126 1.0014968 0.98833 1.0164937 0.9835127 1.0094782
1.0135944 1.006379 1.0179303 1.0021633 1.0107394 1.0074805 1.0011843 1.0032305
1.0170249 0.98299146 1.0118886 1.0019428 0.9877251 0.9867514 0.97816527 0.9846837
00000000: 1aad 7f3f 3b2b 813f f7c4 7c3f 677d 803f
00000010: 747c 7b3f 3315 7c3f bac9 803f 1794 7e3f
00000020: e531 7d3f 9e55 803f 3a45 803f 0c31 803f
00000030: 3203 7d3f 771c 823f 7dc7 7b3f 9536 813f
00000040: 76bd 813f 07d1 803f 8a4b 823f e346 803f
00000050: e95f 813f 1ff5 803f cf26 803f db69 803f
00000060: df2d 823f 54a5 7b3f 9185 813f a93f 803f
00000070: 8ddb 7c3f bd9b 7c3f 0a69 7a3f 3b14 7c3f

bias f4 [32]
-0.028993782 0.019901328 0.025037764 0.0125676915 0.024325518 -0.028710075 0.046680793 0.007937625
0.027762186 -0.0015524606 -0.0044003944 0.010677253 -0.011446943 0.0801869 -0.036733095 -0.022224238
0.0044562193 0.004547285 -0.0023463948 0.008456771 -0.017527493 -0.0030371721 -0.012636009 0.041046765
0.0021393644 0.008680569 0.0075485413 -0.015095684 0.009613722 -0.015784746 -0.021125028 -0.018620176
00000000: 5e84 edbc 1c08 a33c ff1b cd3c b8e8 4d3c
00000010: 4f46 c73c 6431 ebbc 5c34 3f3d d00c 023c
00000020: 866d e33c ef7b cbba 2f31 90bb a5ef 2e3c
00000030: f58b 3bbc 0839 a43d 7175 16bd 9b0f b6bc
00000040: 7a05 923b 6401 953b f9c5 19bb 458e 0a3c
00000050: d195 8fbc 4b0b 47bb 4307 4fbc a720 283d
00000060: 9434 0c3b f238 0e3c c159 f73b e353 77bc
00000070: df82 1d3c 034f 81bc 650e adbc 5789 98bc

running_mean f4 [32]
-0.18097186 -3.7623227 0.62532127 4.774951 0.8022213 -1.0854905 6.1950483 2.1252372
-4.0438623 4.3118544 -2.9608195 1.9461448 3.8273866 -2.4048872 4.3668294 -2.4495077
4.0453277 -1.5621743 4.445133 -2.7439234 -0.8198964 -0.23078223 2.4433157 -1.3800507
0.23085901 0.43226433 -4.737359 5.4662647 -2.297827 2.1623244 1.612686 -1.8401638
00000000: b050 39be e5c9 70c0 0e15 203f 66cc 9840
00000010: 605e 4d3f 5af1 8abf d63d c640 e303 0840
00000020: 5267 81c0 b6fa 8940 117e 3dc0 461b f93f
00000030: e7f3 7440 ace9 19c0 11bd 8b40 bcc4 1cc0
00000040: 5373 8140 54f5 c7bf 883e 8e40 719c 2fc0
00000050: bbe4 51bf 2d52 6cbe 495f 1c40 80a5 b0bf
00000060: 4e66 6c3e c051 dd3e 7298 97c0 a4eb ae40
00000070: 990f 13c0 8663 0a40 7f6c ce3f 7d8a ebbf

running_var f4 [32]
7.286705 21.32564 21.272427 16.89266 26.460464 2.9659758 24.459879 19.680943
13.676803 14.369616 8.961612 19.459429 15.092628 2.867801 10.430189 7.7856865
10.285523 2.5369647 16.644611 5.5246353 6.349384 20.44211 21.250254 21.356985
20.721304 34.516575 16.944157 17.627752 7.0934267 19.040928 5.2792997 1.8122745
00000000: b02c e940 e99a aa41 ee2d aa41 2b24 8741
00000010: 08af d341 8cd2 3d40 d5ad c341 9272 9d41
00000020: 2fd4 5a41 f2e9 6541 c362 0f41 e9ac 9b41
00000030: 677b 7141 0d8a 3740 0ee2 2641 5824 f940
00000040: 8191 2441 a15d 2240 2a28 8541 d0c9 b040
00000050: 272e cb40 7189 a341 8500 aa41 1bdb aa41
00000060: 3bc5 a541 f910 0a42 a28d 8741 a305 8d41
00000070: 5afd e240 d253 9841 06f0 a840 9cf8 e73f

weight f4 [32, 18]
-0.12795204 -0.18732326 -0.08131169 -0.0027455173 -0.05270814 -0.15189525 0.20162034 0.13592136
0.22893862 -0.083559275 -0.17498872 -0.055503923 -0.20737691 0.040753715 -0.1764738 0.10750844
0.14365661 0.1289529 0.24415125 0.22004844 0.12857306 0.07107619 -0.086709306 0.009004956
0.043542936 0.02813418 -0.14269046 -0.016939728 -0.19576223 -0.1082874 0.20730475 -0.09417556
0.014415485 -0.07954598 0.055712588 0.12301983 -0.13376154 0.14333634 0.13793987 0.01520455
-0.20217352 0.22932199 -0.023185499 0.20462231 -0.07877088 0.21125357 -0.21069224 -0.16810156
-0.24823777 0.082823016 0.12919554 0.22166455 0.0035894508 -0.035003312 -0.19899163 0.0158141
-0.1864331 0.21186046 -0.23099115 0.04857509 0.16746357 0.23300721 0.13388999 -0.13164072
0.13778472 -0.11951608 0.012224128 0.071500026 0.19511445 -0.116481125 0.22642067 0.018938232
0.09337577 -0.23422472 -0.014685214 -0.08349456 0.19981362 -0.1280947 0.2126686 0.23921153
0.035990585 0.038245924 -0.1126244 0.24627347 -0.16348056 0.1846459 0.07169905 -0.08958293
-0.0052844025 0.030109314 0.21352823 0.2320903 -0.08277512 -0.12999597 -0.15310016 -0.017583013
0.04663114 -0.24545194 -0.011521315 -0.054940782 0.054225482 -0.12718926 0.18820585 0.18450317
-0.121901214 -0.07935255 -0.16781794 -0.09793182 -0.14221996 0.16248594 -0.15256378 -0.074400574
0.21450624 0.088170566 0.10691712 0.005898334 0.102701165 0.09196234 0.114695214 -0.11539384
0.021863805 -0.15112384 0.17265326 -0.07866229 -0.058333095 0.07129584 0.14175327 -0.021698028
0.11301395 -0.038342584 0.084450684 0.14035346 0.0013171915 0.19996724 0.18309747 0.002559097
-0.03433118 0.056638166 0.11064061 0.020373797 -0.2318562 -0.0932603 0.035732035 -0.09506645
0.07075483 0.1294303 0.00938258 0.17390424 0.24527255 -0.14230168 -0.069334485 -0.0013083812
-0.0382304 -0.08872829 -0.13201037 -0.07180808 -0.07880099 -0.12383918 0.11205226 -0.06279339
-0.1360945 -0.14326769 -0.19046547 0.22883709 0.20128037 -0.12097426 -0.21505724 0.1722613
-0.08624893 0.016149176 -0.11502419 0.115774825 -0.14841068 -0.20331877 -0.17875811 -0.0067567546
-0.15844053 -0.2001481 0.06342365 -0.07393637 0.04976057 -0.114978716 0.07537726 0.03207226
-0.24079227 0.14291592 -0.19266333 -0.13830079 -0.22265136 -0.0857204 0.054996468 -0.034440015
0.09598519 0.035274062 0.033037145 -0.040149633 0.0070405947 -0.1839273 -0.0097804675 0.20402129
-0.09481368 0.16709606 0.06572822 0.04998992 0.07258935 0.13743222 -0.028810168 -0.025327243
0.072607264 0.07885084 0.10926891 0.051849905 -0.12925215 -0.16422684 -0.22477497 0.25335032
-0.10512428 0.19655168 0.22327559 0.09306379 0.21395555 0.14426945 0.2531014 0.19953597
-0.06231384 0.07661848 0.19940929 0.21762407 0.11996933 -0.1948327 -0.14180326 -0.044347454
0.15289469 0.22395152 0.10776533 0.07965223 0.05122635 -0.1568844 -0.009695643 -0.23960535
-0.18773861 -0.13516195 -0.033171847 0.06338665 0.10093513 0.19698977 -0.10940623 -0.072274014
0.195147 -0.1474949 0.193089 0.18071276 0.13547496 0.008673037 -0.12493883 0.16931601
00000000: dc05 03be abd1 3fbe be86 a6bd 23ee 33bb
00000010: 7ee4 57bd 6e8a 1bbe 9075 4e3e f82e 0b3e
00000020: e36e 6a3e 2021 abbd 3e30 33be 1558 63bd
00000030: 9d5a 54be 5eed 263d 8cb5 34be 632d dc3d
00000040: b81a 133e 3b0c 043e c902 7a3e 6154 613e
00000050: a8a8 033e 6590 913d a694 b1bd 8689 133c
00000060: 145a 323d a779 e63c 731d 12be 2fc5 8abc
00000070: e575 48be c9c5 ddbd b247 543e 1edf c0bd
00000080: ed2e 6c3c 01e9 a2bd e232 643d d2f1 fb3d
00000090: c9f8 08be c3c6 123e 1c40 0d3e 811c 793c
000000a0: 9306 4fbe 62d3 6a3e 84ef bdbc 8388 513e
000000b0: a152 a1bd db52 583e b5bf 57be d122 2cbe
000000c0: 0b32 7ebe 1d9f a93d d64b 043e 08fc 623e
000000d0: fe3c 6b3b a25f 0fbd 76c4 4bbe 928c 813c
000000e0: 52e8 3ebe f3f1 583e f288 6cbe acf6 463d
000000f0: 927b 2b3e 7199 6e3e 751a 093e d3cc 06be
00000100: 7017 0d3e d9c4 f4bd b547 483c 9b6e 923d
00000110: 15cc 473e a88d eebd d2da 673e 5a24 9b3c
00000120: cc3b bf3d 9bd8 6fbe 409a 70bc 32ff aabd
00000130: f19b 4c3e 422b 03be ccc5 593e def3 743e
00000140: dd6a 133d c2a7 1c3d 9fa7 e6bd 1d2f 7c3e
00000150: 7367 27be d113 3d3e f4d6 923d 4177 b7bd
00000160: c828 adbb cfa7 f63c 25a7 5a3e 14a9 6d3e
00000170: 0186 a9bd aa1d 05be 4ac6 1cbe 400a 90bc
00000180: 4b00 3f3d c157 7bbe e6c3 3cbc 9609 61bd
00000190: 8a1b 5e3d e73d 02be 09b9 403e 66ee 3c3e
000001a0: 58a7 f9bd 9783 a2bd 77d8 2bbe 7a90 c8bd
000001b0: 1ca2 11be b762 263e ae39 1cbe 545f 98bd
000001c0: 86a7 5b3e c592 b43d 5df7 da3d d046 c13b
000001d0: fd54 d23d c056 bc3d 53e5 ea3d 9b53 ecbd
000001e0: b91b b33c 35c0 1abe 04cc 303e b219 a1bd
000001f0: afee 6ebd 8e03 923d c527 113e 10c0 b1bc
00000200: dc73 e73d 1d0d 1dbd 7bf4 ac3d d1b8 0f3e
00000210: 9da5 ac3a 36c4 4c3e e77d 3b3e 86b6 273b
00000220: da9e 0cbd 6cfd 673d 8b97 e23d f3e6 a63c
00000230: b66b 6dbe 42ff bebd c15b 123d 33b2 c2bd
00000240: e9e7 903d 6089 043e 65b9 193c f413 323e
00000250: ba28 7b3e 88b7 11be 3dff 8dbd fd7d abba
00000260: 7b97 1cbd 2db7 b5bd ba2d 07be 1d10 93bd
00000270: 6a62 a1bd 659f fdbd a87b e53d d299 80bd
00000280: 5b5c 0bbe c4b4 12be 6109 43be 4554 6a3e
00000290: 711c 4e3e 5ac1 f7bd f737 5cbe 4465 303e
000002a0: 47a3 b0bd 474b 843c cd91 ebbd 5a1b ed3d
000002b0: f8f8 17be cc32 50be 5e0c 37be c467 ddbb
000002c0: 3c3e 22be a0f3 4cbe 42e4 813d f46b 97bd
000002d0: bdd1 4b3d f679 ebbd 655f 9a3d 345e 033d
000002e0: 4092 76be 8d58 123e 8949 45be b99e 0dbe
000002f0: b8fe 63be 2d8e afbd fa43 613d f910 0dbd
00000300: e293 c43d 897b 103d f551 073d f173 24bd
00000310: cab4 e63b 7057 3cbe 413e 20bc f5ea 503e
00000320: ad2d c2bd 3b1b 2b3e 849c 863d 3bc2 4c3d
00000330: baa9 943d 08bb 0c3e 4d03 ecbc 147b cfbc
00000340: 1eb3 943d 8d7c a13d 61c8 df3d 9160 543d
00000350: ad5a 04be 152b 28be 692b 66be 22b7 813e
00000360: 664b d7bd d844 493e 5ba2 643e 3a98 be3d
00000370: 2a17 5b3e 5fbb 133e 8296 813e 2853 4c3e
00000380: cc3c 7fbd 26ea 9c3d f331 4c3e d8d8 5e3e
00000390: 7bb2 f53d 3982 47be e034 11be ada5 35bd
000003a0: 6d90 1c3e 8c53 653e 12b4 dc3d b520 a33d
000003b0: b9d2 513d 4ea6 20be 79da 1ebc 1b5b 75be
000003c0: 8d3e 40be e567 0abe 34df 07bd dcd0 813d
000003d0: 14b7 ce3d b0b7 493e 6010 e0bd 6604 94bd
000003e0: 9dd4 473e e708 17be 1fb9 453e c40c 393e
000003f0: f3b9 0a3e 5b19 0e3c eedf ffbd 2d61 2d3e

bias f4 [32]
0.10077631 0.06703093 -0.017001227 -0.10295395 -0.11608624 0.1021617 0.20788012 -0.2182223
-0.21394387 0.058732904 0.017592397 -0.11845614 0.23128001 0.12309856 0.16906154 -0.19887455
0.22332488 -0.016591696 0.08853157 -0.16045855 -0.12667562 -0.17275007 -0.081334226 -0.19544022
-0.20448564 0.031257078 0.09153702 0.05047731 0.13067068 -0.03358186 -0.053100415 0.08247772
00000000: cf63 ce3d 8347 893d 2846 8bbc 85d9 d2bd
00000010: 9fbe edbd 273a d13d 87de 543e ab75 5fbe
00000020: 1a14 5bbe ea91 703d ee1d 903c 2299 f2bd
00000030: abd4 6c3e 191b fc3d 781e 2d3e c5a5 4bbe
00000040: 47af 643e 4feb 87bc 0a50 b53d 3f4f 24be
00000050: 41b7 01be 65e5 30be 8f92 a6bd 7b21 48be
00000060: af64 51be 6c07 003d c377 bb3d 4cc1 4e3d
00000070: 89ce 053e 228d 09bd d27f 59bd 14ea a83d

weight f4 [2, 32]
-0.21033362 0.10280952 -0.19736023 -0.048278492 0.023222338 -0.14836323 -0.13642727 0.118833944
0.010736025 0.108103275 0.08742094 -0.028558318 0.12342513 0.0369506 0.16018195 0.006309355
0.022634054 0.15991434 0.18035688 -0.049966466 0.14471132 -0.04281318 0.07328585 0.0035736382
0.05119933 -0.08999877 -0.16638517 -0.02328148 -0.17886671 -0.024898745 -0.07046769 -0.15114827
-0.15167485 0.015166895 -0.07210563 0.17152403 0.022420311 0.0745951 -0.035483733 -0.14118657
0.043855265 0.13534509 0.18449058 -0.008958787 0.17371826 -0.04042741 0.053153068 -0.08826845
0.073429495 -0.073296614 -0.1221237 -0.108779505 0.14943852 0.17099127 0.16639051 0.14398329
-0.025880896 0.012515913 0.11524779 -0.15251264 -0.054083824 -0.0056791953 0.15187393 0.023336397
00000000: b261 57be cc8d d23d cd18 4abe abbf 45bd
00000010: c63c be3c 88ec 17be 97b3 0bbe 365f f33d
00000020: 27e6 2f3c 4065 dd3d c009 b33d 22f3 e9bc
00000030: 51c6 fc3d 8359 173d bd06 243e b5be ce3b
00000040: 0d6b b93c 96c0 233e 79af 383e a3a9 4cbd
00000050: 342f 143e df5c 2fbd e416 963d b333 6a3b
00000060: 63b6 513d 4651 b8bd e060 2abe cdb8 bebc
00000070: d628 37be 74f8 cbbc 5d51 90bd 9dc6 1abe
00000080: a750 1bbe 927e 783c 1eac 93bd ffa3 2f3e
00000090: cdaa b73c 51c5 983d 6457 11bd 3693 10be
000000a0: 94a1 333d e797 0a3e 19eb 3c3e e0c7 12bc
000000b0: 33e3 313e 3697 25bd 08b7 593d 17c6 b4bd
000000c0: 3462 963d 891c 96bd fe1b fabd cac7 debd
000000d0: 6906 193e 5618 2f3e 4662 2a3e 5b70 133e
000000e0: 2c04 d4bc 8b0f 4d3c 0907 ec3d 462c 1cbe
000000f0: 0087 5dbd 8b18 babb d784 1b3e f92b bf3c

bias f4 [2]
-0.063173585 -0.047813457
00000000: 2761 81bd 0bd8 43bd

weight f4 [32]
1.0251682 1.037559 1.0300194 1.006653 1.0027695 1.002227 1.0035006 0.9740585
0.99256015 0.9946093 1.0266432 0.9911982 0.98799866 0.963938 1.0217714 0.99807596
1.007873 0.98320395 1.0072861 1.0146532 1.0110424 1.0309167 1.0006113 1.0120225
0.99640745 1.0001479 1.0047717 0.9994394 1.0304085 0.9856572 1.0193964 1.0157406
00000000: b638 833f bcce 843f add7 833f 01da 803f
00000010: c05a 803f f948 803f b572 803f e65b 793f
00000020: 6c18 7e3f b79e 7e3f 0b69 833f 2abf 7d3f
00000030: 7bed 7c3f a4c4 763f 68c9 823f e881 7f3f
00000040: fc01 813f 41b3 7b3f c0ee 803f 28e0 813f
00000050: d669 813f 14f5 833f 0814 803f f489 813f
00000060: 8f14 7f3f d904 803f 5c9c 803f 43db 7f3f
00000070: 6de4 833f 0854 7c3f 957b 823f ca03 823f

bias f4 [32]
0.0043216534 0.061132163 0.026874673 0.025766803 -0.01921299 0.0014301158 -0.0078981295 0.0017649506
-0.0002626665 0.006120215 0.014453576 0.006825209 -0.013506963 -0.01961305 0.0150052495 -0.061648875
-0.034551404 0.035119377 0.02147376 0.030598663 0.037454136 -0.0069569256 -0.007346286 0.022767952
0.019279398 -0.0062837712 0.006263451 -0.013938059 0.008830078 -0.008549064 0.029931022 -0.022834204
00000000: a89c 8d3b b865 7a3d 4628 dc3c e714 d33c
00000010: 8f64 9dbc b972 bb3a 2867 01bc ea55 e73a
00000020: 80b6 89b9 168c c83b b1ce 6c3c 01a6 df3b
00000030: 4f4c 5dbc 8cab a0bc 94d8 753c 8883 7cbd
00000040: c685 0dbd 56d9 0f3d bde9 af3c 0caa fa3c
00000050: 8269 193d ecf6 e3bb 1db9 f0bb db83 ba3c
00000060: d4ef 9d3c 18e8 cdbb a33d cd3b 755c 64bc
00000070: 08ac 103c 6011 0cbc e731 f53c cc0e bbbc

running_mean f4 [32]
0.25953734 -0.08526971 0.1492218 -0.039721496 -0.08660503 -0.01834867 0.32006055 -0.34233785
-0.15897152 0.12587194 -0.11247253 -0.18091719 0.156019 0.09640293 0.14657487 -0.12634552
0.2941563 -0.20826666 -0.010576824 0.003463824 -0.19051324 -0.14909083 -0.062210172 -0.030865645
-0.3443442 0.001909362 0.14379236 0.031437717 0.18594685 0.056679502 -0.038547244 -0.0026290563
00000000: 14e2 843e e3a1 aebd 99cd 183e 02b3 22bd
00000010: fa5d b1bd f34f 96bc fade a33e e846 afbe
00000020: 6ec9 22be 93e4 003e ff57 e6bd 5b42 39be
00000030: 72c3 1f3e e66e c53d b917 163e b860 01be
00000040: a89b 963e db43 55be 6a4a 2dbc 5301 633b
00000050: e715 43be 44ab 18be 18d0 7ebd f3d9 fcbc
00000060: e24d b0be 8f43 fa3a 4e3e 133e d6c4 003d
00000070: da68 3e3e c428 683d b7e3 1dbd 3f4c 2cbb

running_var f4 [32]
0.027014814 0.023789492 0.11932254 0.13350756 0.010692639 0.0552348 0.0065306616 0.035665426
0.06887276 0.065655224 0.007296551 0.025454933 0.015983742 0.045938835 0.02220977 0.02747694
0.020676434 0.01940209 0.024494372 0.061734267 0.029607372 0.019918948 0.018475283 0.11845979
0.019584978 0.10810394 0.051937368 0.041855097 0.12492885 0.030460933 0.050934266 0.05323435
00000000: 2c4e dd3c 2ee2 c23c 605f f43d 35b6 083e
00000010: 2e30 2f3c e33d 623d 29ff d53b e915 123d
00000020: 290d 8d3d 3f76 863d e817 ef3b dd86 d03c
00000030: 56f0 823c 5c2a 3c3d 43f1 b53c 5217 e13c
00000040: a061 a93c 22f1 9e3c 6ca8 c83c 12dd 7c3d
00000050: 298b f23c 102d a33c 7a59 973c 0c9b f23d
00000060: ad70 a03c 9965 dd3d 47bc 543d 4070 2b3d
00000070: b2da ff3d 3589 f93c 73a0 503d 430c 5a3d

weight f4 [32, 16]
0.18322355 0.14987317 0.128112 0.14633882 -0.0491162 -0.03756502 -0.19377154 -0.0524952
0.16816936 -0.16414289 -0.08518261 0.054154426 0.14468105 0.16456254 -0.13593645 0.009686993
0.17191401 0.024489695 0.045289412 0.23209919 -0.13811134 0.24406049 -0.19256563 0.082425535
-0.11310433 -0.111644685 -0.11332556 -0.040382925 -0.19919072 -0.18402712 0.07014488 0.1740323
-0.1648918 0.051762175 -0.26086748 -0.06467135 -0.21084341 -0.12584993 0.047744565 0.209398
-0.069359094 0.10579429 0.09200518 0.029243974 0.18214117 -0.12424078 -0.12664878 -0.28209323
-0.05494184 -0.20288278 0.16512638 0.10843211 -0.08813799 -0.20956449 -0.032747313 0.26199248
0.16564815 -0.047253877 0.18247116 -0.08832794 0.07283938 -0.16343379 0.0689056 -0.061863493
-0.061329152 0.06646195 -0.10509096 0.030129973 0.08391925 -0.054438137 0.12575844 -0.23360823
-0.11555832 0.035304423 -0.059797868 -0.022440238 0.021011028 -0.002295312 0.09329218 -0.1883153
0.04352362 0.053009458 -0.16100872 0.06577028 0.106100075 0.030359747 -0.23551837 -0.14618294
0.021929007 0.222826 -0.10200721 0.18165618 0.109412864 0.088099144 0.19710311 0.10236611
-0.24560718 0.019719066 0.05161281 0.18002293 0.22632597 -0.087152645 -0.009293239 0.2630603
0.050569884 -0.04042751 -0.048794325 -0.10221097 0.13896732 -0.21575621 -0.028472 0.11977647
-0.0830014 0.26306316 -0.055253994 -0.21695769 0.08772126 0.029092856 -0.02561794 0.0016182554
-0.2189184 -0.09871762 -0.05384031 0.039073266 -0.20516352 0.23375413 0.10409386 0.0019132579
-0.20446216 0.13485299 -0.19981739 -0.20577364 -0.07089955 -0.19368829 -0.042435896 0.21581933
-0.19916753 -0.10046168 0.028982993 -0.18289962 -0.02517851 0.11162113 -0.04756464 -0.1306027
0.02574532 0.19790639 0.21786533 0.16265565 -0.10663097 0.11079092 -0.15593384 -0.06606112
0.006688037 -0.055839974 0.2505841 -0.012461203 0.064871214 0.004481741 0.18222657 0.011397387
-0.012796906 -0.008685354 -0.14002702 -0.13747092 0.20944734 -0.08643711 -0.11395324 -0.10485627
0.08053776 0.029107291 0.03644344 -0.165711 0.1446733 -0.041638803 -0.093967505 -0.20093626
-0.099863224 -0.20191285 0.21148132 -0.07811152 -0.0010432274 0.059810676 -0.1218247 -0.09771519
0.23680969 -0.21049562 -0.0018062516 -0.13549466 0.21760218 -0.13543385 -0.24387413 0.14205374
-0.1734941 -0.029085793 0.09965956 0.24462378 0.19325316 0.08705645 -0.23345143 0.23042932
-0.17964247 0.082767785 0.056855604 0.021009617 0.17711814 -0.12988576 0.17997006 0.16403167
-0.07615343 -0.24954051 0.048502006 0.27973393 0.13470723 0.13222079 -0.23100016 -0.23922643
0.22464126 0.0061190445 0.054208655 0.07569297 0.16766308 -0.0339491 0.07336272 0.15610038
0.1669991 0.1698671 0.061319847 0.024603473 0.04151193 -0.06104308 0.042786784 -0.22609921
-0.018795326 0.013710273 0.15022978 0.18258397 -0.15555136 0.031318538 0.015632818 -0.051691968
0.13223925 0.08945458 -0.13132635 -0.120358035 0.00012260844 -0.22821112 0.14930685 0.08667377
-0.104688436 -0.19252971 0.029166572 0.21598977 -0.16378197 0.06949486 0.07294091 -0.1661245
00000000: f49e 3b3e 5a78 193e cb2f 033e d8d9 153e
00000010: 122e 49bd c7dd 19bd 0c6c 46be 3505 57bd
00000020: 9734 2c3e 1315 28be 3874 aebd 08d1 5d3d
00000030: 4527 143e 1583 283e ed32 0bbe 32b6 1e3c
00000040: 3a0a 303e 9d9e c83c 6481 393d 69ab 6d3e
00000050: 0f6d 0dbe feea 793e ed2f 45be b8ce a83d
00000060: 3ea3 e7bd f8a5 e4bd 3b17 e8bd 9168 25bd
00000070: a7f8 4bbe 9b71 3cbe 1ea8 8f3d 8635 323e
00000080: 65d9 28be 9304 543d 6c90 85be 6a72 84bd
00000090: 56e7 57be cede 00be ce8f 433d 6e6c 563e
000000a0: 240c 8ebd adaa d83d 366d bc3d 0f91 ef3c
000000b0: 3783 3a3e f371 febd 38b0 01be 866e 90be
000000c0: b20a 61bd 81c0 4fbe e416 293e a711 de3d
000000d0: b181 b4bd 1398 56be 0c22 06bd e123 863e
000000e0: ab9f 293e 488d 41bd b8d9 3a3e 47e5 b4bd
000000f0: d02c 953d 305b 27be 611e 8d3d 9364 7dbd
00000100: 4734 7bbd 341d 883d ee39 d7bd 22d3 f63c
00000110: dbdd ab3d 86fa 5ebd d2c6 003e ff36 6fbe
00000120: d7a9 ecbd 5f9b 103d 9cee 74bd 97d4 b7bc
00000130: 521f ac3c f26c 16bb f80f bf3d bad5 40be
00000140: d345 323d 7220 593d 78df 24be 92b2 863d
00000150: ff4a d93d 01b5 f83c ba2b 71be fbb0 15be
00000160: 76a4 b33c 802c 643e 28e9 d0bd 1404 3a3e
00000170: da13 e03d 536d b43d 66d5 493e 53a5 d13d
00000180: 7380 7bbe e189 a13c f467 533d ee57 383e
00000190: ffc1 673e 167d b2bd ab42 18bc d7af 863e
000001a0: 5e22 4f3d 5197 25bd 8fdc 47bd fc53 d1bd
000001b0: 734d 0e3e 32ef 5cbe 1d3e e9bc 5e4d f53d
000001c0: a3fc a9bd 37b0 863e 0352 62bd 282a 5ebe
000001d0: 34a7 b33d 2454 ee3c b7dc d1bc a41b d43a
000001e0: 252c 60be 772c cabd a887 5cbd 4a0b 203d
000001f0: 6316 52be 3e5d 6f3e 292f d53d 48c6 fa3a
00000200: 875e 51be e716 0a3e ee9c 4cbe 53b6 52be
00000210: c933 91bd 3956 46be 43d1 2dbd beff 5c3e
00000220: 93f2 4bbe dabe cdbd be6d ed3c 0a4a 3bbe
00000230: 2a43 cebc 9e99 e43d 24d3 42bd b7bc 05be
00000240: d9e7 d23c f9a7 4a3e 1718 5f3e 348f 263e
00000250: 5761 dabd 5ae6 e23d 1fad 1fbe 0d4b 87bd
00000260: 5227 db3b 75b8 64bd 8f4c 803e 132a 4cbc
00000270: 33db 843d 92db 923b 9a99 3a3e 1bbc 3a3c
00000280: 1daa 51bc 044d 0ebc 3e63 0fbe 2dc5 0cbe
00000290: 5d79 563e f105 b1bd 5160 e9bd e2be d6bd
000002a0: fbf0 a43d 6a72 ee3c b745 153d 25b0 29be
000002b0: 3d25 143e 738d 2abd 0972 c0bd 3cc2 4dbe
000002c0: 1785 ccbd 3ec2 4ebe 8f8e 583e eff8 9fbd
000002d0: e7bc 88ba 0afc 743d 3a7f f9bd e71e c8bd
000002e0: 3d7e 723e 2a8c 57be bfbf ecba 1dbf 0abe
000002f0: 1bd3 5e3e 2caf 0abe 24ba 79be 8976 113e
00000300: 70a8 31be 5445 eebc 501a cc3d a87e 7a3e
00000310: 28e4 453e a74a b23d e40d 6fbe aaf5 6b3e
00000320: 32f4 37be 2882 a93d 6ce1 683d 5c1c ac3c
00000330: 755e 353e c600 05be 124a 383e ebf7 273e
00000340: 54f6 9bbd 8c87 7fbe 0aaa 463d 4939 8f3e
00000350: b1f0 093e e364 073e 4e8b 6cbe c6f7 74be
00000360: 5c08 663e 4482 c83b e509 5e3d ea04 9b3d
00000370: dfaf 2b3e 360e 0bbd 323f 963d c7d8 1f3e
00000380: d001 2b3e a4f1 2d3e 852a 7b3d 398d c93c
00000390: 6a08 2a3d 4f08 7abd 3241 2f3d 8d86 67be
000003a0: a8f8 99bc 0ea1 603c d6d5 193e 4bf7 3a3e
000003b0: db48 1fbe de47 003d 6510 803c f5ba 53bd
000003c0: ba69 073e f633 b73d 6a7a 06be 467e f6bd
000003d0: 7490 0039 2db0 69be e5e3 183e 0482 b13d
000003e0: e466 d6bd 8226 45be bcee ee3c 6c2c 5d3e
000003f0: 76b6 27be 5253 8e3d 0b62 953d 8a1c 2abe

bias f4 [32]
0.24702643 0.19304927 0.033307593 0.22418009 0.22480123 -0.2073559 -0.11794388 -0.0069644307
0.21384877 0.07604778 0.11233773 0.15291917 0.2376773 0.19275926 -0.017012516 0.099943526
0.057824496 0.14093563 -0.118192285 -0.17177649 0.06365936 0.2189795 0.10301785 -0.23137008
0.10446206 -0.16374421 -0.09701737 0.110766925 0.1363514 -0.064032964 -0.13759975 0.06762755
00000000: 7ff4 7c3e b5ae 453e 8b6d 083d 778f 653e
00000010: 4b32 663e 1b55 54be 908c f1bd e135 e4bb
00000020: 2cfb 5a3e f0be 9b3d 5311 e63d d896 1c3e
00000030: ae61 733e af62 453e d55d 8bbc 31af cc3d
00000040: 61d9 6c3d 6e51 103e cc0e f2bd 2de6 2fbe
00000050: d75f 823d 293c 603e 06fb d23d 47ec 6cbe
00000060: 34f0 d53d 90ac 27be 0bb1 c6bd c5d9 e23d
00000070: b49f 0b3e b723 83bd f3e6 0cbe 5080 8a3d

weight f4 [2, 32]
-0.06019012 -0.047769587 -0.053606518 0.07772088 -0.109460674 -0.1412803 0.13362883 0.104399234
-0.14984612 0.102706805 -0.0054242644 -0.19743091 0.0827927 0.07884288 -0.16921008 -0.14185494
0.0764438 -0.15654162 0.106242895 -0.029730244 -0.08232247 0.123008355 -0.14488564 0.016745642
0.00040045442 -0.0029995628 -0.004700132 -0.13104607 -0.03098336 -0.09538702 0.08404176 -0.11781315
0.06383354 0.21794473 0.086763605 -0.020889636 0.07316739 -0.09451716 0.029966662 0.050198946
-0.1636686 -0.15691945 -0.0074182474 -0.11010498 -0.09782549 -0.022667343 -0.14437707 -0.035465028
0.07068619 0.058493093 0.054347046 0.12055326 -0.016826216 -0.013399257 0.14660592 -0.032621343
-0.0023270648 0.025842639 -0.017116502 0.008248638 0.02980426 0.13173757 0.0492586 0.055826146
00000000: ea89 76bd 0baa 43bd 8292 5bbd 202c 9f3d
00000010: eb2c e0bd c8ab 10be ffd5 083e 44cf d53d
00000020: 4371 19be f257 d23d 07be b1bb 542b 4abe
00000030: 388f a93d 6078 a13d 6845 2dbe 6c42 11be
00000040: 918e 9c3d 724c 20be e095 d93d d78c f3bc
00000050: af98 a8bd ceeb fb3d e75c 14be 282e 893c
00000060: 15f4 d139 5094 44bb 9103 9abb f130 06be
00000070: d1d0 fdbc 455a c3bd 161e ac3d 0548 f1bd
00000080: 29bb 823d e72c 5f3e 1eb1 b13d be20 abbc
00000090: c9d8 953d 3692 c1bd a57c f53c 699d 4d3d
000000a0: be98 27be 7eaf 20be c514 f3bb b87e e1bd
000000b0: bb58 c8bd ddb0 b9bc 95d7 13be c743 11bd
000000c0: ecc3 903d 7496 6f3d 029b 5e3d a1e4 f63d
000000d0: 22d7 89bc 8f88 5bbc dd1f 163e f59d 05bd
000000e0: ab81 18bb f1b3 d33c e837 8cbc 4c25 073c
000000f0: 1028 f43c 37e6 063e 63c3 493d f5a9 643d

bias f4 [2]
0.07260487 -0.00079090905
00000000: ddb1 943d 0255 4fba

weight f4 [32]
1.0105968 1.0539199 0.988754 1.0161623 1.0168551 0.99098885 1.0005053 0.9903113
1.0006707 0.9753019 0.9750653 1.0312268 0.97675174 0.98312837 1.0038353 0.9900748
0.98780036 1.0080882 0.9941079 0.9848375 0.99971765 0.9970361 0.99334294 0.9963855
0.9725529 0.983089 0.98980296 1.0012236 0.9792388 1.0107824 0.99016154 1.0037767
00000000: 3c5b 813f d9e6 863f fb1e 7d3f 9b11 823f
00000010: 4f28 823f 72b1 7d3f 8f10 803f 0b85 7d3f
00000020: fa15 803f 63ad 793f e19d 793f 3dff 833f
00000030: 670c 7a3f 4dae 7b3f ad7d 803f 8b75 7d3f
00000040: 7ce0 7c3f 0909 813f db7d 7e3f 4f1e 7c3f
00000050: 7fed 7f3f c23d 7f3f b94b 7e3f 1f13 7f3f
00000060: 3af9 783f b9ab 7b3f ba63 7d3f 1828 803f
00000070: 65af 7a3f 5161 813f 3a7b 7d3f c17b 803f

bias f4 [32]
-0.012776282 -0.034463122 -0.013469054 0.00477743 0.012018044 0.0006982727 0.01300912 0.0011437525
-0.012458944 -0.030182825 -0.012793054 0.014662132 -0.012912865 -0.02168319 0.009284667 -0.0071211536
-0.01531179 0.014251652 -0.0011123576 -0.046192955 0.009249911 -0.0019741291 -0.019123536 0.007352992
-0.0045681936 -0.022355352 0.00014385997 0.00900497 -0.026461134 0.028605226 -0.01587609 0.0021225486
00000000: 9c53 51bc 3429 0dbd 4fad 5cbc fd8b 9c3b
00000010: 54e7 443c 4a0c 373a 3424 553c f7e9 953a
00000020: 9920 4cbc f941 f7bc f599 51bc 7039 703c
00000030: 7b90 53bc f2a0 b1bc b71e 183c 9158 e9bb
00000040: 4dde 7abc c37f 693c 87cc 91ba d334 3dbd
00000050: f08c 173c 6460 01bb f6a8 9cbc 5ef1 f03b
00000060: c9b0 95bb 9222 b7bc 1ed9 1639 9589 133c
00000070: 05c5 d8bc 8255 ea3c 930e 82bc 751a 0b3b

running_mean f4 [32]
0.43823346 0.5444718 -0.27885965 0.23549874 0.09705074 -0.08500315 -0.15573984 -7.425915e-06
0.031155782 0.34062856 -0.008084407 0.2684342 0.40281865 0.39713058 -0.040785413 -0.10470098
0.10581565 0.21805452 -0.13738862 -0.14905313 0.11183454 0.27778652 0.03943354 -0.34989375
0.34762993 -0.33587843 -0.14539574 0.18198386 0.096662186 -0.12846585 -0.12550798 0.059603054
00000000: 2360 e03e 8162 0b3f b1c6 8ebe 9526 713e
00000010: 8ac2 c63d 2216 aebd 447a 1fbe 202c f9b6
00000020: 693a ff3c de66 ae3e 7674 04bc 3570 893e
00000030: 3f3e ce3e b354 cb3e 9b0e 27bd 786d d6bd
00000040: e0b5 d83d af49 5f3e 9aaf 0cbe 62a1 18be
00000050: 8209 e53d 093a 8e3e 1085 213d 4625 b3be
00000060: 8dfc b13e 42f8 abbe 9fe2 14be fa59 3a3e
00000070: d3f6 c53d 8d8c 03be 2a85 00be 5522 743d

running_var f4 [32]
0.022731919 0.02746988 0.10673658 0.015770469 0.015842747 0.04094561 0.008264016 0.040649887
0.039048225 0.049013276 0.078789674 0.08151645 0.0045919702 0.06203733 0.044171654 0.08150296
0.06956933 0.04064012 0.042878374 0.011135187 0.043032613 0.023318473 0.03922869 0.009116935
0.050179843 0.0068544825 0.010394787 0.040665038 0.038344756 0.005158743 0.008668769 0.060690165
00000000: 4a38 ba3c 8408 e13c b598 da3d 1231 813c
00000010: a6c8 813c 95b6 273d cc65 073c 7f80 263d
00000020: 08f1 1f3d 25c2 483d 7b5c a13d 19f2 a63d
00000030: 3d78 963b db1a 7e3d 56ed 343d 06eb a63d
00000040: 5d7a 8e3d 4176 263d 3ca1 2f3d 5c70 363c
00000050: f742 303d 6206 bf3c 43ae 203d 325f 153c
00000060: 6189 4d3d 919b e03b e64e 2a3c 6290 263d
00000070: 640f 1d3d ac0a a93b 7407 0e3c 4096 783d
