code/model_obj_backups/model_obj_40.pt (torch, 540834 bytes, 158 tensors)

weight f4 [32, 2]
00000000: aee8 1e3d a5cb c33e 7f5e a5be 3c91 613e
00000010: ee68 23bf c6fc 203f 0792 82be 0282 3c3e
00000020: bd57 1a3f 04f4 8ebe 7522 9ebe da44 35bf
00000030: a096 763e f257 52be 2474 d73e f02d 2b3f
00000040: 6a82 a13e e913 58bd c140 94be 904e 013f
00000050: e12e ac3e 10d3 10be e75d cbbd 0ac2 aabe
00000060: a2b1 00be e152 783e ef9c d73e 8267 353f
00000070: 1543 a03e abb0 cd3e 26ea c6be 69bb a1bd
00000080: 27f2 363e 000f 9a3e 4702 2b3f b889 1d3f
00000090: 3c72 a3be a34c 23bf 1793 243e 5fdc c2be
000000a0: ea86 033f da89 11bf 9fb6 babc 84d9 a73d
000000b0: 931f f5be 3e67 0ebf 0a77 08bf 6e79 963e
000000c0: 5b74 0c3f 33aa a2be e90f 083f a9d3 663e
000000d0: b517 703e 6a87 19bf 3b5a 2d3f 0ad3 1dbf
000000e0: 0376 713e 2148 c83e 8dbb 1a3f f24e c03e
000000f0: b128 283f 4157 f6bd 4ae4 eabb 4df8 66be
0.03879612 0.38241306 -0.32298657 0.22028059 -0.63831985 0.628857 -0.25502035 0.18408969
0.6029013 -0.27920544 -0.30885664 -0.70808184 0.24080896 -0.20541361 0.42080796 0.6686697
0.3154481 -0.052753363 -0.28955653 0.505105 0.33629516 -0.14143014 -0.0993002 -0.33351165
-0.12567762 0.24250366 0.42111918 0.70861065 0.3130118 0.4017385 -0.38850516 -0.07897074
0.17865811 0.3008957 0.6680035 0.6153827 -0.3192309 -0.63788813 0.16071735 -0.38058755
0.5137774 -0.5685097 -0.022792159 0.08195785 -0.47875652 -0.55626285 -0.5330664 0.29389518
0.54865044 -0.31770477 0.53149277 0.2254168 0.23446544 -0.5997225 0.67715806 -0.61650145
0.23580174 0.3911753 0.6044243 0.3756023 0.6568709 -0.12028361 -0.0071683275 -0.22555657

bias f4 [32]
00000000: f89d 243e 4c25 6bbe e7e1 1dbf 7b51 dabe
00000010: 4239 01bf bb08 5cbe 179f 9abe b2b1 9c3e
00000020: ca80 25bf c05e 24be 81c9 bdbd 2c57 1dbf
00000030: 0ad5 e93e 41a3 133f 97c6 8dbc b489 54bd
00000040: 426d b23e 8ed1 d2be ee33 bdbd 9f2c e83e
00000050: 7384 c73d b10f b1be a159 ee3e 2ead 16bf
00000060: 45bb b03e 039d 2d3f 4cd2 dfbe 3c3c 96be
00000070: 812c 123f 3cd5 1c3f 15b3 9dbb aa38 05bf
0.16075885 -0.22963446 -0.61672825 -0.4264029 -0.50477993 -0.21487705 -0.301995 0.3060432
-0.6464964 -0.1605177 -0.092669494 -0.6146114 0.45670348 0.5767098 -0.01730661 -0.051889136
0.34848982 -0.41175503 -0.092384204 0.45346543 0.097420596 -0.34582284 0.46552756 -0.58858
0.34517875 0.67817706 -0.4371513 -0.2934283 0.5709916 0.6126287 -0.004812608 -0.5203959

weight f4 [16, 32]
00000000: d9c0 bebd e4a2 dd3d bb21 623b 5dac b53d
00000010: 1e7a c83d 2f31 243d 99a5 2a3c a26a 1cbd
00000020: b954 e73d 595c 613d dc60 16be 792a f93d
00000030: eca0 ba3d 31e1 28be 5a43 33be cf8c 9abd
00000040: a4a7 a5bc 29bb e2bc 0826 6f3d d95a 0abe
00000050: 7900 0fbe b36e 00bc d5ad d4b9 e5ff 853d
00000060: a8b3 99bd f19a 32be 5a08 96bd 61b1 433c
00000070: 3b23 a73d 4305 993d 04e7 ae3d 9954 aabd
00000080: 5d69 8a3d ce85 383e 7e9e 0a3d 1530 a9bd
00000090: 2c23 6ebd fa7a bf3d 7c18 7bbd 0401 06be
000000a0: 1715 4dbd 05ca cbbd 1b00 5abd f28d 09be
000000b0: 6eba 8c3d 0691 5ebd 1b56 87bd d790 0f3e
000000c0: 70f4 33be f524 d33d 5a0b 10be f1f5 0fbe
000000d0: 398f 3dbd 2a5b 72bc d82b 7c3d 5c1b be3d
000000e0: 9f8a 0e3d 56af 07be 4502 113e d017 29be
000000f0: 2559 75bd 1df2 05be 955d d8bd 0e49 fc3d
00000100: 67a4 a6bd b24f a0bc 5170 1f3e db63 a63c
00000110: e5c5 1ebe 94b9 ee3b 1529 86bd f7a7 36bd
00000120: afb2 3c3e 78b6 9f3c 6003 30bd 95c4 99bd
00000130: 7042 19be cf69 0ebe 17be 5ebc 9899 043e
00000140: 9f08 b33d ba13 0c3c df36 c73c 016d 43bd
00000150: 2c17 92bd f297 fb3d be9b 863c 0320 4dbc
00000160: 51ab 113c 56c5 033d fd29 273e 1a9a 2f3e
00000170: 7599 213e 9804 a33c f4a0 c73d 2366 083e
00000180: 1bbc 51bd 8b8b fa3d b49b b1bd 1372 c53d
00000190: b395 953b c8bc cb3d ee3e 47bd 5e9e e5bd
000001a0: 26ba 1ebe b316 e9bc 9c35 4b3d ad1b 9abd
000001b0: 55dc e63d 3521 3f3d 6ce4 e1bd a5da c03d
000001c0: adc5 8b3d 2654 213e a5a3 b43d 91a6 25bd
000001d0: 81fc 8c3d 234d ccbc 3b22 acbc 305e 2e3e
000001e0: 8681 0dbe e7b0 bf3c ead4 9dbc aecb 8bbd
000001f0: 74ac 2dbe 17e5 16bd fcdf 8e3d eab8 713d
00000200: b7d9 03be e520 0a3e 92f0 ae3c 0b69 ad3c
00000210: d054 b33c 9de8 69bd 4286 fe3c 5b64 92bd
00000220: 16e1 55bd 4214 bfbc 90b8 223d 95d5 5a3c
00000230: 1f4c 8cbd 2a3f 21be 6bdf 3b3d 78f4 c23d
00000240: 2d83 0d3e 896a d9bd 1ff6 9d3d 7882 ba3d
00000250: 58a7 80bd 6081 ac3d 9f47 8dbd 66d9 043d
00000260: 08a2 0f3e 33fd 4b3d f65b 0bbe 3694 273d
00000270: 3e9f 17be 10e1 72bd 724d 1bbe 00c1 f13d
00000280: 4d4b e33d cf84 253e e613 d6bd 9184 11be
00000290: 4b15 2cbe 451e 84bd 94da eabd 0b03 033e
000002a0: 3961 1f3e d759 ffbc 71fe c4bd 7aa4 2e3e
000002b0: 943a c43d 2004 8e3d 2a46 59bb cedc f73d
000002c0: 4e07 2bbe 9315 003b 96c1 5f3d 9084 823d
000002d0: e7e4 22bd 7cba c1bd 1a19 c73d 5cbd 8fbd
000002e0: 0abd 223e f8e8 a8bd 8a3e 213e c546 fabd
000002f0: 00de b3bd 9ec6 073e e339 c63d 13e2 7e3c
00000300: 51e4 253e f7a7 db3d a8a7 de3d 8921 ebbd
00000310: 2412 efbd 7bff 57bd 706d 1c3e ede4 ffbd
00000320: ee9a 14bd 17c3 11bd 1f66 2a3e d48e 0c3e
00000330: ab7b 00be 7100 b73d 25f2 133e 70a8 4dbd
00000340: 7378 013c e2aa 02be 55ed 303e 5fc7 c83d
00000350: 164a 863d 383e 43bd bdc7 183e 5c84 073d
00000360: 2e99 733d e470 03bd bdae 363b 107e d2bd
00000370: 8d89 eabd c958 1cbb d815 5cbd 01c9 e3bd
00000380: b4eb bdbd a599 343e cfe4 df3d 8a3f cfbb
00000390: 512a 753d 7e2d ba3d 399e e63d daba 013e
000003a0: 03f9 9dbd ebdb 763b 2bde 0e3e 99b0 2c3c
000003b0: 5d11 1a3e fbaa 2abe a79c 213e fbb4 f13d
000003c0: 612a b4bb 9a8f 463d 7f93 df3d 45cc 23bd
000003d0: 255e 5cbd fdd6 1a3e eaed e7bd 2809 333c
000003e0: 55ce b2bd fdd9 86bc 4be1 b73d b678 263e
000003f0: 4c1f febd 7783 2a3c 3daf 1bbe eeef 2f3e
-0.093141265 0.108220845 0.0034504968 0.08870766 0.09788917 0.040085968 0.010415458 -0.03818763
0.112954564 0.05501971 -0.14685386 0.12166304 0.09112725 -0.16492154 -0.17506161 -0.07546388
-0.020221539 -0.027677136 0.05838588 -0.13511218 -0.13965024 -0.007838893 -0.00040565306 0.06542949
-0.0750497 -0.17441918 -0.07325812 0.011944146 0.081610166 0.07471707 0.085401565 -0.08316917
0.06758378 0.18019792 0.033842556 -0.08261124 -0.05813901 0.09349628 -0.061302647 -0.13086325
-0.05006894 -0.099506415 -0.053222757 -0.13433054 0.06871496 -0.054337524 -0.0660822 0.14020096
-0.17573714 0.10309783 -0.1406683 -0.14058663 -0.046279166 -0.014792243 0.06156525 0.09282562
0.034800168 -0.13250479 0.14161022 -0.1651299 -0.059899468 -0.1308064 -0.10564724 0.123186216
-0.08136826 -0.019569252 0.15570189 0.020311287 -0.15505178 0.007285306 -0.065508045 -0.044593778
0.18427537 0.019496188 -0.04297197 -0.07508198 -0.1496675 -0.1390755 -0.013595126 0.12949216
0.08741879 0.008549625 0.024318157 -0.047711376 -0.07133326 0.12284841 0.016431686 -0.012519839
0.008890943 0.032170616 0.16324611 0.17148629 0.15781195 0.019899651 0.09747496 0.13320212
-0.051204782 0.12233647 -0.08672276 0.096408986 0.0045649647 0.099481165 -0.048644 -0.11211847
-0.15500697 -0.028453207 0.049611673 -0.0752481 0.11272494 0.046662528 -0.11029896 0.09416703
0.06824813 0.15754756 0.08820275 -0.040442053 0.06884099 -0.024939125 -0.021012416 0.17028117
-0.1381894 0.023399783 -0.019266564 -0.06825958 -0.16960317 -0.03683957 0.069763154 0.05901424
-0.1287602 0.13489111 0.021354947 0.021168252 0.021891028 -0.057106603 0.031069878 -0.071480475
-0.05221661 -0.02332509 0.039726794 0.013356586 -0.068504564 -0.15746751 0.045867365 0.09519285
0.13819571 -0.10616023 0.077129595 0.09106916 -0.06281918 0.08423114 -0.06898426 0.03243389
0.14026654 0.049802016 -0.13609299 0.04091283 -0.1480684 -0.059296668 -0.15166262 0.1180439
0.11098347 0.16163944 -0.10453014 -0.14210726 -0.16804998 -0.06451086 -0.11467472 0.1279413
0.15564431 -0.031170769 -0.09618843 0.1705493 0.095814854 0.069343805 -0.0033153393 0.12102662
-0.16702005 0.001954411 0.054627977 0.063729405 -0.03976908 -0.09459397 0.097215846 -0.07018539
0.15892425 -0.0824756 0.15746513 -0.122205295 -0.087825775 0.1325936 0.0967901 0.01555683
0.16200377 0.10725396 0.10871822 -0.11481006 -0.11673382 -0.05273388 0.15276122 -0.12494836
-0.036280565 -0.035586443 0.16640519 0.1372636 -0.12547176 0.08935631 0.1444784 -0.050209463
0.0079022525 -0.12760499 0.17278035 0.09803652 0.065570995 -0.04766676 0.14919944 0.033085212
0.059472255 -0.032090083 0.0027875148 -0.10277951 -0.11452017 -0.002385663 -0.05373177 -0.11122323
-0.092734724 0.17636736 0.10932314 -0.006324713 0.05985481 0.09090708 0.11260647 0.12668934
-0.07713511 0.0037667702 0.13951938 0.010540151 0.15045686 -0.16666786 0.15782414 0.118020974
-0.005498216 0.048476793 0.109168045 -0.03998973 -0.05380072 0.15121074 -0.113246754 0.010927476
-0.08730761 -0.016461367 0.08978518 0.16256985 -0.12408313 0.01040732 -0.15203567 0.1718137

bias f4 [16]
00000000: d12a a53c dd9b 0bbe 524f 87bd f569 92bd
00000010: 2956 013c c53b 38be a484 1a3e 1ac3 20be
00000020: 8397 88bd af09 f23c 01b6 003d 2170 33bb
00000030: 0d01 e93d b60d 013b a697 073e 2183 a93d
0.020162018 -0.13633676 -0.06606926 -0.07149116 0.007894077 -0.1799155 0.15089661 -0.15699425
-0.066695236 0.029545633 0.031423572 -0.0027380066 0.113771535 0.001969201 0.13241443 0.08276964

weight f4 [32]
00000000: 96f9 7d3f 5ed6 803f 9552 803f 604e 7e3f
00000010: 28e8 803f 78fc 7e3f d506 813f 8dbd 7e3f
00000020: 6412 7f3f 5ba7 7f3f 9cf0 803f 83c7 803f
00000030: 8c7c 7e3f 6e24 803f 7238 7f3f ba9e 7e3f
00000040: e30c 813f bd84 803f 3e4d 7f3f 78b8 7d3f
00000050: 12b3 803f 5809 7e3f fc4a 813f f02c 7f3f
00000060: d4f3 7d3f dfee 803f a5d5 803f ed43 7f3f
00000070: 5ef9 7e3f 6311 7f3f 945f 803f a553 803f
0.9920896 1.006542 1.0025202 0.9933834 1.0070848 0.99603987 1.008021 0.9950798
0.99637437 0.9986474 1.0073428 1.0060886 0.99408793 1.0011117 0.99695504 0.9946095
1.0082058 1.0040509 0.9972724 0.991096 1.0054648 0.9923301 1.0101008 0.99677944
0.9920018 1.0072898 1.0065199 0.9971302 0.99599254 0.99635905 1.0029168 1.0025526

bias f4 [32]
00000000: 9959 00bc e459 d63b 90f6 243b d8d9 d8bb
00000010: a52f e83b d65c 82bb 8c86 033c 5f36 a1bb
00000020: 92bb 5fbb ee98 afbb 0f88 f03b 3477 c73b
00000030: 06f0 c1bb 4a5b 913a 08ca 47bb 88aa b0bb
00000040: 6ba8 063c bebf 843b 7c18 2abb bb1d 12bc
00000050: 711b b33b 8853 f9bb fb86 253c 7169 52bb
00000060: 3023 03bc 98e7 ee3b 739f d53b 57ee 3bbb
00000070: 09bf 83bb 92c8 6ebb 0a29 3f3b 2f3e edbb
-0.007833862 0.0065414775 0.0025171377 -0.006617766 0.007085758 -0.003978352 0.008027684 -0.0049198116
-0.00341389 -0.005358807 0.007340438 0.006087208 -0.0059185056 0.0011089828 -0.003048541 -0.0053914227
0.008218865 0.0040511778 -0.0025954535 -0.008918221 0.0054659178 -0.0076088347 0.010102983 -0.0032106305
-0.008003995 0.0072907917 0.006519252 -0.0028675997 -0.004020576 -0.0036435467 0.0029168748 -0.007240079

running_mean f4 [32]
00000000: aa5f 5e3e 3394 16be 451b d8be 7714 b8be
00000010: 8837 23bf 83e0 91be 3093 bdbe 45f6 b43e
00000020: c269 33bf c7c2 15bd 975c 28be 4780 27bf
00000030: d8a7 033f 056b 213f 149f 1f3b 3d49 08bc
00000040: 9023 be3e dc57 d1be 831e 19be 9c9f bc3e
00000050: 410d 8ebd 908f a8be 28b9 e33e d355 edbe
00000060: 3e27 5b3e 7d3a 233f b886 11bf d5c0 fbbe
00000070: 67a8 193f abf9 153f ed0b f5bd 5a52 0ebf
0.2171618 -0.14704971 -0.42208305 -0.35953113 -0.6375661 -0.284916 -0.37026358 0.3534414
-0.7008325 -0.036562707 -0.1644157 -0.6543011 0.51427984 0.63053924 0.0024356293 -0.008318243
0.37136507 -0.40887344 -0.14953046 0.36840522 -0.06936122 -0.3292203 0.444772 -0.4635454
0.21401688 0.6376112 -0.5684619 -0.49170557 0.60022587 0.5858409 -0.11965165 -0.5559441

running_var f4 [32]
00000000: 9d11 bd3c ac88 8c3d 5b62 a03e 4ca8 323d
00000010: b6e5 5d3e 5dae e03d db3d 2a3d a06d 0c3e
00000020: aa1a 5b3d 6538 ca3d 3cb9 873d c197 a33c
00000030: 6ff4 a83c 3809 143e bfb2 843d c5df 9b3d
00000040: 3c57 d53c 6b6b 813e d125 cb3d 22ef 2e3d
00000050: 9614 5e3e c877 c93a f3a1 123e f226 343e
00000060: dd39 413e 233f 123e 3546 cd3d fa6a ad3e
00000070: c83c 373d 3596 423e 8496 6e3e cd1c 053c
0.023079688 0.068620056 0.3132504 0.04361753 0.21669659 0.10970757 0.041562896 0.13713694
0.053492226 0.09874038 0.066271275 0.019969823 0.020624368 0.14456642 0.064794056 0.0761104
0.026042573 0.25277266 0.09919322 0.042708524 0.2168754 0.0015370781 0.14319591 0.17592981
0.1886973 0.14281897 0.100231566 0.3387068 0.0447357 0.19002612 0.23299605 0.008124542

weight f4 [32, 3]
00000000: 0725 00bf 47c3 393e ed5d ea3e bce2 bebe
00000010: bde4 ea3e de4b 71be 1462 8a3e fee1 f63e
00000020: e326 10bf bb29 ff3b fe09 4bbe 450a 99be
00000030: 6535 65be c8e7 14be 21cb 0d3f 007e 05bf
00000040: 2712 c63e 225e e6be 1690 0ebd ebbf 153d
00000050: 232d e5be b8a3 41be 7679 07bf e99f 1d3e
00000060: 4011 9c3e 9758 eebe d1b9 1bbd 27dd 67be
00000070: 3b4c aabd 877d 57be ec29 b6be d423 7d3e
00000080: b968 15bf 1843 cbbc 2177 0dbf b941 15bc
00000090: 2d83 93bd d22b 0f3c 5df6 55be 4ab3 b8be
000000a0: a08f c73e 0972 5dbe dfdd bd3e a1ee f43e
000000b0: 698b b13e 71e8 bf3e 253e 4dbc 6481 14be
000000c0: 0b48 adbe 762f a4be f570 1fbe 3db0 593d
000000d0: c8f0 8a3e 9c22 a13e 77f9 0cbf d33f 00bd
000000e0: 05dc 6b3e fdc1 643e b43d 5a3e a153 eebe
000000f0: 1fb7 b53d 2b58 8dbe d9f1 d4bd b434 31be
00000100: 509c f53d d8f6 afbd 6889 483e c25f 993e
00000110: dc34 c43d 1856 ee3d 98d2 01be 8bce 013e
00000120: c879 1a3e 701a 4cbe 5979 a5bd 3bd9 60be
00000130: f2e2 a33b 6620 9dbe 1b2e 143f 6888 90be
00000140: 23cc ddbd b775 093d aec4 a63e aa6f dd3e
00000150: 2afe 983e 4a2b 813e d916 7c3e 77e7 a0be
00000160: bb06 893a 8fb3 ec3e a96d fbbe a82c 143f
00000170: fedf 063f b57a 243e 7860 cebe d03c 8f3e
-0.500565 0.18140899 0.45774785 -0.3728236 0.45877638 -0.23564097 0.27027953 0.48219293
-0.56309336 0.007786957 -0.1982803 -0.29890648 -0.2238365 -0.14541543 0.55388075 -0.52145386
0.38685724 -0.44993693 -0.03480538 0.03655998 -0.44761 -0.1891011 -0.5291971 0.15393032
0.3048191 -0.46551964 -0.038019005 -0.22642957 -0.08315321 -0.21043979 -0.3557886 0.24720699
-0.5836292 -0.024812266 -0.552599 -0.009109908 -0.07202754 0.008738475 -0.20894761 -0.36074287
0.38976765 -0.21625532 0.37083337 0.4783831 0.34676674 0.37482026 -0.012527023 -0.14502484
-0.33844027 -0.3206746 -0.15570433 0.05314659 0.27136827 0.31471717 -0.55068153 -0.031310868
0.2303315 0.22339626 0.213126 -0.4654818 0.08872818 -0.2760633 -0.10397691 -0.17305261
0.11992705 -0.085920036 0.19583666 0.2995587 0.095803946 0.11637515 -0.12677991 0.12676446
0.15085518 -0.1993196 -0.08079786 -0.21957867 0.005001419 -0.3068878 0.5788285 -0.2822907
-0.108299516 0.033559527 0.3257193 0.43249255 0.29881412 0.2522834 0.2461809 -0.31426594
0.0010454276 0.46230742 -0.49107102 0.5788064 0.52685535 0.16062434 -0.40307975 0.27976084

bias f4 [32]
00000000: 08e0 083f 2559 f3bd 91e9 6a3e de88 cb3d
00000010: 3dad 033f 0414 4bbe fbbb 9dbe 1bef 803e
00000020: 5627 afbe f6e0 6bbe 08c2 9dbe 5ba1 123e
00000030: 8ba2 a6bd 846c f03e 86c0 39bc 649f 603e
00000040: aa49 00bf a8e0 0c3e da81 413d b9e6 633e
00000050: e237 253e 5b85 c63e ac48 20bd c495 36bd
00000060: 16ee adbd 754e 8c3e 6f59 eb3e 2a67 e0be
00000070: 53b9 ea3e e6c9 c73e f8c9 203e 3f91 1d3d
0.53466845 -0.11882237 0.22940661 0.09938215 0.51436216 -0.19831854 -0.3080748 0.25182423
-0.34209698 -0.23035035 -0.30812097 0.14319365 -0.08136471 0.4695779 -0.011337405 0.21935803
-0.501124 0.13757575 0.047242977 0.22255982 0.16134599 0.38773617 -0.039131805 -0.04457642
-0.08492677 0.27403608 0.4596667 -0.43828708 0.45844516 0.39021224 0.15702045 0.038468596

weight f4 [16, 32]
00000000: 089c 51bd 68c2 03bd dfc3 1b3d 71b9 c73d
00000010: 909c e73d 18e6 8e3d b3d5 31be 1a51 a6bd
00000020: c0f2 6d3c 90b9 a6bc 49fe 1ebe 0cbe 483d
00000030: f63b f1bc 9de6 d8bd ed00 ef3c 21ca eebd
00000040: 2d6f acbd 42ae 273e 4e84 acbd 4d06 f53d
00000050: 8118 d0bd 1a9d d8bc fd8a 3a3d b12c 93bd
00000060: c2e3 2bbe e6a9 283e dd5d 29be 1e06 aabd
00000070: 2715 db3c 54a8 8fbd b583 173e 8d02 d93c
00000080: a10c 033e 2083 153e d8fe 91bc ad8d 03be
00000090: c42b 24be 53d4 02be 1363 f03b d1ed ebbb
000000a0: c62d 263e f384 d33d 1096 0dbe 45c0 203e
000000b0: 128e 223d c954 cabd 38eb c83a 58fb c93c
000000c0: f5ed 363e e3f4 16be e93b d3bd 07d9 ddbd
000000d0: 966e 16be f08f 57bd 8a0d b43d b0cd 04be
000000e0: 1d2e ba3c 7e44 ec3c 761b d6bd e6cb 80bd
000000f0: 21e6 fd3a ddd9 883d 2dd0 09be 2e7b e1bd
00000100: 89d1 d1bd 10bd 2cbd 2c92 a13d a60f f53d
00000110: c188 1fbe 5b69 efbd 3e76 413c 7eb4 753b
00000120: 6c75 cf3d e002 d43d e8d0 8bbc 199d 29b9
00000130: affd 083e e2f8 b53d 11e3 b73d 94a1 cdbd
00000140: 38af 35be 5550 f5bd 332a dd3d b2da 7ebb
00000150: 5454 35be 39e7 163e 1174 dbbb 3049 e43d
00000160: a706 17be 15ec c8bd c85c 9d3d fa9a 993a
00000170: 8c53 0dbe 1b4f 14bd 8fdd e93c 1b2b 983d
00000180: 349c 183e e9ed e9bd bd02 06be f566 1fbc
00000190: 64a5 73bd cfce 103d 374d c43d cfd5 16be
000001a0: d608 593d 4b10 c53d acfe 8dbd f086 c3bc
000001b0: e202 993c 98ff 2f3e 8b3b 0bbe 5a3a 00be
000001c0: 3528 24be 1264 fbbc d1b8 06be eee3 0a3e
000001d0: f1f5 033e 6f48 153e 0932 0abe 644c d8bb
000001e0: d712 a7bd 7fca 19be 8847 0c3d f3c5 303e
000001f0: 616d 28bd 034f 8ebd 1768 17be 78ce 58bd
00000200: e5fd 64bd cd92 22be e39b 3dbc 8a14 e53d
00000210: 0cd9 d3bd 898d 4dbd 69bf 35bd be6e 223e
00000220: ccef 22be 1a46 d43d 5a92 07be d119 e03d
00000230: 969a a8bd 5139 0bbe 4ac1 a93d ad78 1ebd
00000240: 75fd fb3d f0c6 b8bd 9620 1abe b0ec 3e3d
00000250: 5dd9 2bbe d4c5 cc3d 2406 67bd c042 933c
00000260: bb5b 673c 61e2 fdbd ec70 243e 4d12 013e
00000270: cacf 073d 9aad 123e 5a75 173e b0db 05be
00000280: 16e9 273c df31 10be 0026 ccbd b790 c6bd
00000290: 5c58 8d3d d6d2 cfbd d1fb db3d b916 2c3e
000002a0: 9b97 dfbd 020f 0e3d 8d73 f23d d569 153d
000002b0: 0c2a 8c3d 62d0 fbbd 277e 093e adae 0bbe
000002c0: d4dc 7cbd 7b58 b13d 6dd4 183e 2d89 08be
000002d0: 4c6f 973d 118f 2dbe 4303 963d 1d7e edbc
000002e0: 3106 e83d 31fd 69bb 1aba cdbd 90e7 41bd
000002f0: 5bda d5bd 9932 95bd f006 d9ba 008c 0dbe
00000300: e212 033e 1f6a bdbd 3a4e d33d 8030 eebd
00000310: c67a 393e 8c38 f43d 3f10 ac3d 18fd 093e
00000320: 1efb 21bd 0b52 84bd cae2 0a3e 21eb bebd
00000330: c681 10be dec7 13be 6425 453b 36d0 0d3e
00000340: 35ac 063e 21b2 ed3d 42f0 1a3e 23eb 1bbe
00000350: 7ac4 813c b360 51bd c030 043e 3787 163e
00000360: 0040 0bbe 15a6 1c3e a129 97bd 3cf3 1fbd
00000370: 66dc c1bc bfa9 5fbc 42d3 0f3e 307c 86bd
00000380: 253f 04be ac3d 173e a782 31be 2057 013e
00000390: cfed a3bd cbc7 f5bc bbd8 c2bd d398 4d3b
000003a0: 03ed 083e f55b 7bbd 39ef 51bd 94d9 e2bd
000003b0: 7b50 54bd 4e4e 553d f36a d4bd 3269 0abe
000003c0: d233 a8bd 2531 87bd b087 3e3d 2e8b f63c
000003d0: 7134 f73d 0b41 023b 8fe4 e43d 10b6 abbb
000003e0: 945f 36be 35d1 1c3e 15b0 88bd f8cc 113e
000003f0: 8940 413d 5e02 d6bd 0122 debd ca6c 17bd
-0.051174194 -0.032167822 0.038028594 0.09752167 0.11309159 0.06977481 -0.17366676 -0.08120938
0.014523208 -0.020352155 -0.1552669 0.049009368 -0.029447537 -0.10590861 0.029175246 -0.11659647
-0.084196426 0.16375068 -0.084236726 0.119640924 -0.10160924 -0.0264421 0.045542706 -0.071862586
-0.16786101 0.16471061 -0.16539712 -0.08301948 0.026743485 -0.07014528 0.14796336 0.026490474
0.12797786 0.14600801 -0.017821714 -0.12847014 -0.1603232 -0.12776308 0.0073360293 -0.007199981
0.16228399 0.103280924 -0.13826776 0.15698345 0.03968627 -0.09879453 0.001532889 0.024655983
0.17864211 -0.14741854 -0.10314161 -0.1083241 -0.14690623 -0.052627504 0.08791645 -0.12969089
0.022727067 0.028841253 -0.104544565 -0.062888905 0.0019370952 0.06682179 -0.13458319 -0.11009823
-0.10245044 -0.04217249 0.07889208 0.11965875 -0.15579511 -0.11690017 0.011807976 0.0037491615
0.10129818 0.10352111 -0.017067388 -0.0001617562 0.13378023 0.08885361 0.08978856 -0.10040584
-0.17742622 -0.11978213 0.107990645 -0.0038887677 -0.1770795 0.14736642 -0.006697186 0.11146772
-0.14748631 -0.09810654 0.07683712 0.001171916 -0.13801402 -0.036208253 0.02854803 0.07430097
0.14903337 -0.11422331 -0.13086982 -0.009729137 -0.0594839 0.035353478 0.0958504 -0.14729999
0.052986942 0.09622248 -0.069333404 -0.023868054 0.018678132 0.17187345 -0.13596933 -0.1252226
-0.16030963 -0.030687366 -0.1315644 0.13563511 0.12886788 0.14578412 -0.1349565 -0.0066009033
-0.0815789 -0.15018652 0.034247905 0.17263012 -0.041119937 -0.06948664 -0.14785801 -0.05293128
-0.055906195 -0.15876313 -0.011572811 0.11185558 -0.10344133 -0.050183807 -0.044371996 0.15862557
-0.15911788 0.10364933 -0.13239422 0.10942424 -0.0823261 -0.13596083 0.0828882 -0.038689304
0.123042025 -0.09022319 -0.15051493 0.04661244 -0.16782136 0.0999867 -0.05640234 0.017976165
0.014120991 -0.12396694 0.16058701 0.12604637 0.033157147 0.14324036 0.1479086 -0.13072085
0.010248443 -0.14081524 -0.099681854 -0.09695571 0.06901619 -0.10147636 0.107413895 0.16805543
-0.10917588 0.03468228 0.11838446 0.036477882 0.06843957 -0.12295605 0.1342703 -0.13640852
-0.061734036 0.086594544 0.14924784 -0.13333578 0.07394275 -0.16949107 0.07324841 -0.0289908
0.11329306 -0.0035703892 -0.10045262 -0.047339976 -0.104420386 -0.07285041 -0.0016557854 -0.13822937
0.12800172 -0.092487566 0.10317655 -0.116303444 0.1811324 0.11924848 0.08401536 0.13475454
-0.039546125 -0.06460961 0.13563076 -0.09322191 -0.14112005 -0.14431712 0.00300821 0.13848957
0.1315163 0.11606241 0.15130714 -0.15226416 0.015840758 -0.05111761 0.12909222 0.14700018
-0.13598633 0.1529773 -0.07380987 -0.039050326 -0.023664664 -0.0136513105 0.14045432 -0.06566656
-0.12914713 0.1476962 -0.17334996 0.12630892 -0.08004343 -0.030002495 -0.09513994 0.0031371608
0.13371663 -0.061366994 -0.05125353 -0.11076656 -0.051834565 0.05207663 -0.103719614 -0.13516691
-0.08213009 -0.066011705 0.04651612 0.030095663 0.12070549 0.0019875194 0.111764066 -0.0052402094
-0.17809898 0.15314181 -0.0667421 0.14238346 0.047180686 -0.1044967 -0.108463295 -0.036968984

bias f4 [16]
00000000: 5846 af3d 3bd3 283e 5f6b 983b 60b0 d13d
00000010: ab20 29be d21b e3bd d5ec 23be 44d2 1ebe
00000020: 8344 103e 5801 b6bd cef1 3cbc 3d9e bb3c
00000030: 0ae4 03bc 5c49 263d 1300 dd3b f145 27be
0.08558339 0.16486828 0.0046514715 0.10238719 -0.16516368 -0.11089291 -0.16008313 -0.15509897
0.14088635 -0.08886975 -0.01153226 0.022902602 -0.008049974 0.040597305 0.0067443936 -0.16335274

weight f4 [32]
00000000: 79cd 803f 8aa4 803f a8a7 7e3f 6e50 7e3f
00000010: 032e 803f 8c11 803f 7f55 7e3f a9fb 803f
00000020: 9224 7e3f bc60 7e3f af05 803f a77b 7e3f
00000030: e45a 7f3f f3ba 803f bd65 7e3f f6eb 803f
00000040: 04d6 803f e759 7e3f a931 803f c38a 803f
00000050: 4330 7e3f 63d3 803f 7a9d 7e3f 51ac 7e3f
00000060: 06d8 803f a7d3 7d3f a47d 7e3f 1e05 813f
00000070: 2fe5 803f d6c3 7d3f 8949 7e3f c091 7e3f
1.0062705 1.0050213 0.99474573 0.99341476 1.0014042 1.0005355 0.99349207 1.00768
0.9927455 0.99366355 1.0001734 0.9940743 0.99748063 1.0057052 0.9937399 1.007201
1.0065312 0.9935593 1.0015155 1.0042347 0.9929239 1.006451 0.9945904 0.99481684
1.0065925 0.9915108 0.9941046 1.0079687 1.0069941 0.99126947 0.99330956 0.99441147

bias f4 [32]
00000000: c57d cd3b 316e a43b 882e acbb 0cca d7bb
00000010: 281c b83a bc45 0c3a 4041 d5bb 7fb0 fb3b
00000020: c2b9 edbb 40a3 cfbb 0247 3939 dc2e c2bb
00000030: 3718 25bb 1905 bb3b 3721 cdbb 65d6 eb3b
00000040: ca21 d63b dd0f d3bb caa7 c63a 335b 8b3b
00000050: 35cf e7bb 94a8 d33b cb38 b1bb 00e0 a9bb
00000060: 1b17 d83b eb21 0bbc cb2f c1bb df8c 023c
00000070: ea29 e53b 5d01 0fbc e13c dbbb c624 b7bb
0.0062710964 0.0050180187 -0.0052545704 -0.006585365 0.0014046477 0.00053509674 -0.0065080225 0.007680952
-0.00725481 -0.0063365996 0.00017669427 -0.005925996 -0.0025191435 0.005707395 -0.006260063 0.0071971887
0.0065347897 -0.0064411 0.0015156206 0.004252815 -0.0070742615 0.006459305 -0.0054083816 -0.0051841736
0.0065945513 -0.008491973 -0.00589559 0.007968157 0.006993522 -0.008728352 -0.006690607 -0.0055891005

running_mean f4 [32]
00000000: 459b 1b40 ce8e 95c0 0396 d5c0 7c4c 1fbf
00000010: 3494 a540 cd39 b7c0 282d 63c0 4dd8 9640
00000020: bbd7 1a40 505c 8dbf bf7e bac0 0269 6a40
00000030: ca33 c5bf e782 60c0 3c72 48bf 882d 2cbf
00000040: 74fc 073f 55d1 fb3e 74d8 e53f 7d0c 89c0
00000050: 8e4a a03f e85d 77bf 671e abbf bb60 d03f
00000060: 5515 2a3f 64c8 e8bf 44fe c73f 856d b53e
00000070: 9600 f43e fe20 5f40 240d 6bbd 67e8 9040
2.431352 -4.673682 -6.674562 -0.6222608 5.174341 -5.7258058 -3.549631 4.713904
2.4194171 -1.1043797 -5.827972 3.6626592 -1.540643 -3.5079896 -0.7829931 -0.67256975
0.5311959 0.49183145 1.7956681 -4.2827744 1.2522752 -0.96627665 -1.3368653 1.627952
0.664388 -1.8186154 1.5624471 0.3543512 0.47656697 3.4863887 -0.05738558 4.5283694

running_var f4 [32]
00000000: 1e52 6f41 e000 2741 2183 9941 957b 0841
00000010: 3956 5b41 4579 4441 6dda 1741 47c5 5741
00000020: 5782 4441 b013 4a40 8f69 7641 466a 8441
00000030: 4354 0740 2205 f540 d85c be41 accd 8e3f
00000040: 873f 0641 d09e 3b41 19fb 1c40 bb7f 1e41
00000050: c6a4 b240 f741 4b3f 6354 c740 1df0 8f3f
00000060: cb7f 3f40 1547 9440 06f1 bb40 c68e 9d41
00000070: ea08 0841 2b60 2a41 4dc7 2742 e47a 0d41
14.957548 10.437714 19.189028 8.530171 13.70855 12.279607 9.490827 13.485663
12.281821 3.1574516 15.400771 16.551891 2.114518 7.6568766 23.795334 1.1156516
8.39051 11.726273 2.4528258 9.906184 5.582614 0.7939753 6.229051 1.1245152
2.9921749 4.633677 5.873172 19.694714 8.502176 10.6484785 41.94463 8.842503

weight f4 [32, 20]
00000000: cdf2 60be c344 43be 9270 5a3e 9051 c03d
00000010: 94ff 553e 1d46 5a3e b1bf 073e 346a e4bb
00000020: 28cb 30be 174f 883d 9f17 2f3e 8b44 08bc
00000030: aab2 82ba bfed d73d 3032 48bd 73f6 cf3d
00000040: 600d 343e a4f6 303e 51e2 b23d 5709 b4bc
00000050: 9f31 303e 9f50 3abd 6070 e33c 4ff0 eb3d
00000060: 2d07 4fbe 2301 fc3d b0c8 b73d ac7e 5dbe
00000070: c1fd b5bc 95cc 50be 8b53 d0bd e742 1abe
00000080: 6f70 31bd 4b6f 563e 6e99 edbc 57f2 0fbe
00000090: d92c 11be 74fb 0dbe a1ba 0fbd 50ef bfbc
000000a0: 8d16 9fbd acb8 153e 1ce1 293e 5df1 623e
000000b0: 5114 26be 672a 02bc c3ec b13d c236 0cbe
000000c0: 9db7 38be 166c 0bbe 49e0 bc3d 702e 5abe
000000d0: fed1 63be 34e8 53be dcba c33d 89ff 3e3e
000000e0: f6e5 cebd 77f2 c0bd ddf0 31bd 9925 50bd
000000f0: a5db 4abe 68d2 08be 60f5 f8bd 3465 19be
00000100: 34f2 2c3e 4344 7abd 3b95 7f3d a6b0 dbbd
00000110: a4db 0c3e 7467 6abd a9e0 bf3d 98a7 623d
00000120: 4f3f 37be 4644 0abe e947 b83c 6b44 43bd
00000130: e225 09bd 7a9c 403e b795 193e bea2 07be
00000140: 665c 3fbe b04e 3ebd 181c ce3c 1708 06be
00000150: 33b3 3f3e a116 af3d 7c83 d6bd f8eb e23d
00000160: c959 b23d 3a4e 2bbd 6cfd 49be eee4 d7bd
00000170: eef3 36bd 323e febd df26 28bc 0e87 3ebe
00000180: 1dea ec3d bd3c 073e 9a0c 50bd 81fc 94bb
00000190: 64ba a5bd 5ad5 cc3d e7b8 acbc 4217 dc3d
000001a0: abf0 a6bd 3e23 303c 97bf c3bd d65c 27be
000001b0: 1be1 31be 9877 babd 8ac4 c1bc e45c b03d
000001c0: 3af1 d13c a568 753c 478f 0fbd 6923 e4bc
000001d0: 09f0 57be ef29 13be 6dc8 35be 9bba eb3b
000001e0: 3bec c43c 4410 163d 5d76 e1bd e544 fa3d
000001f0: dfcd 843c d398 a2bd a69c 16be e142 373e
00000200: a6eb fd3c 024d cabd 4abc 57bd cbdd 583e
00000210: 77b3 05bd 4d0f c53c fde2 663e 7b13 2b3e
00000220: e2ce 30be 4ed2 973d d71a babd c1a7 8c3d
00000230: 2b3a c0bd 4b12 023e 03fa 16bd 6998 523e
00000240: dc7b 373e 0a3d 82bd 6dfc 2a3e 5351 d1bd
00000250: 5af4 17be dbf2 fc3c f51d a83b 8bbf 563e
00000260: e984 a33d c28c 8c3d 09cc 463d 44ec 2ebe
00000270: 0436 41be e7b6 18be 20bf ffbc 3329 643e
00000280: d740 be3d 0cb6 203c 89bb 12bd 22b7 ccbd
00000290: f5fa 023e 05a4 243e 6c0b 94bd 9659 8a3d
000002a0: e6c2 283e 86c7 a6bd 9326 3a3e 5495 03bd
000002b0: 123a 17be 74d9 06bd 2383 81bc 160a fd3c
000002c0: d9b9 07be be74 2f3e b3d7 f8bc 62e9 a63d
000002d0: 7a3e e7bd c333 37be 90a4 643c a001 1e3e
000002e0: 0fd1 19be c25d 86bd 01df 3c3e a373 efbd
000002f0: 2660 98bd f75d 3f3e 953c c4bd f793 873d
00000300: e3c1 34bc 4daa 073e 7e1a ad3d e400 053e
00000310: 5716 72bd 3e80 b43d fa9d e43d 542c a0bd
00000320: 2a0e 403e 953a b23c 0d9e 653e 33e1 25bd
00000330: c1f9 48be a752 49bd 335d 893d f1fa 4fbe
00000340: 475c 91bd c31c cf3c 5034 6abd d0e2 383d
00000350: 4586 3ebd be81 183e c099 33bd 630e 583e
00000360: e89f 8839 b8b6 10be 113f 03bc 8f32 50be
00000370: 2f80 a2bd cebd 51be 434b a9bd 4720 f33c
00000380: f69c 00be 1226 76bc 2c9d dd3d 7eac 31be
00000390: f65b 383e 0d4b c8bc edb3 81bc c8a1 39bb
000003a0: 1e7c 3e3c ab9f 1fbd 60c6 5f3e 82ce 733d
000003b0: b1e6 30be c531 c8bd a7c5 253e 6081 a4bd
000003c0: eebc f03d 541f 3d3e c1ab d3bd ae9a 583d
000003d0: 9f40 26bd fb32 f1bd 8461 45be ef8e be3d
000003e0: 4366 1f3e 2a7f 08be 8178 153e 6679 2e3e
000003f0: 5b07 1ebe c3c6 24be 9e66 ab3d 10d4 133e
-0.21967621 -0.190692 0.21332005 0.09390557 0.20898277 0.21315809 0.13256718 -0.006970668
-0.17264998 0.0665571 0.17098854 -0.008317123 -0.0009971459 0.10543393 -0.048875988 0.10154428
0.17583227 0.17281586 0.08734573 -0.02197711 0.17206429 -0.045487043 0.027763546 0.115204446
-0.20217581 0.12304904 0.08973825 -0.21630353 -0.022215726 -0.20390542 -0.101721846 -0.15064584
-0.043320116 0.20940892 -0.029003825 -0.14057289 -0.14177264 -0.13865453 -0.035090093 -0.023429543
-0.07767973 0.14621228 0.16589779 0.22162385 -0.16218688 -0.00794468 0.08687737 -0.13692763
-0.18038793 -0.1361545 0.092224665 -0.21306777 -0.22248074 -0.20694047 0.09557125 0.18652166
-0.10102455 -0.094212465 -0.043442596 -0.050817106 -0.1981035 -0.13361514 -0.121561766 -0.14980012
0.16889268 -0.061100256 0.062398177 -0.107270524 0.13755661 -0.057227567 0.093690224 0.05533561
-0.17895244 -0.13502607 0.022495227 -0.04767267 -0.033483393 0.18809691 0.14998518 -0.13245675
-0.18687591 -0.04646176 0.02515988 -0.13089024 0.18720703 0.08549238 -0.104742974 0.11080164
0.087085314 -0.04182265 -0.19725579 -0.10541712 -0.044666223 -0.124142066 -0.010263174 -0.18606207
0.11568091 0.13206764 -0.050793268 -0.0045467024 -0.08092192 0.10001631 -0.021084262 0.107466236
-0.081513725 0.01075059 -0.09558027 -0.16344008 -0.17371027 -0.09104842 -0.023653287 0.086114675
0.025627721 0.0149785625 -0.03504875 -0.027848916 -0.2108766 -0.14371465 -0.17752238 0.007193876
0.024038425 0.036636606 -0.11008904 0.12220172 0.016211448 -0.07939305 -0.14708194 0.17896606
0.030996155 -0.09877969 -0.0526698 0.21178357 -0.032641854 0.024055148 0.22547527 0.1670665
-0.1726642 0.07413159 -0.090871505 0.06867934 -0.09386095 0.1270229 -0.036859524 0.20565952
0.17918342 -0.063592985 0.16697855 -0.102205895 -0.14839306 0.030877521 0.0051305243 0.20971505
0.07984335 0.06862785 0.048534427 -0.17082316 -0.18868262 -0.14913522 -0.031219065 0.22281341
0.09289711 0.009809028 -0.03582338 -0.09995867 0.12791045 0.16078193 -0.07228741 0.067553684
0.16480598 -0.08143525 0.18178777 -0.032124832 -0.14768246 -0.032922223 -0.015809601 0.030888598
-0.13254489 0.17134377 -0.03037629 0.08149983 -0.11291213 -0.1789084 0.01395525 0.15430307
-0.15021156 -0.06560852 0.18444444 -0.11691978 -0.07440214 0.18688188 -0.095818676 0.06620019
-0.011032554 0.13248558 0.084523186 0.12988621 -0.059103336 0.08813523 0.11162944 -0.07820955
0.18755403 0.02175645 0.22423573 -0.04049797 -0.19626524 -0.04915109 0.067072295 -0.2031057
-0.07097679 0.02528227 -0.057178795 0.04513818 -0.04651477 0.14893243 -0.0438478 0.21099238
0.0002605908 -0.14132202 -0.008010642 -0.20331787 -0.07934605 -0.20482561 -0.08266308 0.029678477
-0.12559876 -0.015023725 0.10820994 -0.17350957 0.1800383 -0.02444985 -0.015832866 -0.002832519
0.0116262715 -0.03897063 0.21853018 0.059523113 -0.17275502 -0.09775118 0.1618868 -0.08032489
0.117547855 0.18468982 -0.10335494 0.05288189 -0.04058897 -0.11777302 -0.1927548 0.09304606
0.15566353 -0.13329759 0.1459675 0.17038497 -0.15432493 -0.16091447 0.08369182 0.14436364

bias f4 [32]
00000000: ba48 6bbe 565c 0e3e 9e03 e9bd d4ed 2e3e
00000010: 074d f5bd 312b 153e 7070 203e a192 0cbe
00000020: d42c 64bd 2a44 1fbe b5dd 893d c88e 403e
00000030: 1618 9dbd cca5 4a3b 0309 163e b3c9 0ebe
00000040: 55e9 1bbe 51cd 0f3d a1f7 3b3d 5b28 06bd
00000050: 4b13 023e 8d4c 773d 4546 1abb 2bf5 17be
00000060: 596b d23d 4352 4b3d 6430 eb3a 6ac9 bc3d
00000070: 31af 163c 934a a7bd 6261 50be 3ec8 45be
-0.22976962 0.13902411 -0.11377643 0.17082912 -0.119775824 0.14567257 0.15667892 -0.1372781
-0.055706814 -0.15553346 0.067317404 0.18804467 -0.0767061 0.0030921577 0.14651875 -0.1394413
-0.15225728 0.035107914 0.045890454 -0.03275333 0.12702672 0.06037574 -0.002354042 -0.14839618
0.10274381 0.049638998 0.0017943499 0.09218104 0.009197042 -0.08168521 -0.20349649 -0.19314668

weight f4 [4, 32]
00000000: a656 8cbc 8e4c f5bd 04ec 053d 9f69 b13d
00000010: 60aa 9a3b b709 6b3d 1f5d cfbd af39 11be
00000020: 8377 e4bd 5883 193e 3062 563d df22 113d
00000030: b13f c83d 17dd f13d 0399 873c 7011 99bd
00000040: 978b 3f3d 078a c73d bacd 28be 69b8 2d3e
00000050: f430 0fbe 767b 27be 55d1 b13d e399 093d
00000060: f776 1d3e dccb 97bd 0c59 03be 6446 c63d
00000070: 1c61 973d 4f7d fbbd f44a 003e 8ce6 cc3d
00000080: f098 d23d 5fdd 09be eb5f 24be 646a db3d
00000090: 7c66 aebd f275 06be c6a6 3dbd 2070 1fbe
000000a0: 4b32 2d3e 8385 4ebd d562 9ebd 316f 243e
000000b0: bc06 19bd 9d4b 383e a754 b13d f685 a13d
000000c0: 8d7c 32be 16b4 2ebe 65ef 073e ec6b ac3d
000000d0: ec19 fc3d bde1 b23d de9d 0d3e 8a28 0d3e
000000e0: 034b 103e 244d ca3d 6ec5 fd3d 182b 393e
000000f0: 2e9d 753c 6939 853d 4aa3 0ebe 11c7 2a3e
00000100: dade b2bd d8af 9bbd e8df 09be f33e 243e
00000110: ce8b 86bd 1644 81bc 8220 903d 69d2 79bd
00000120: b9ff 11bd 5bc5 023e 2211 3a3d 6808 ec3d
00000130: 3f36 d63d dfec 733d 86e3 f4bd ae43 b8bc
00000140: d8de 2a3d 8083 743d bd1b 2a3e 2903 a83b
00000150: 0a5f d23c 7fd1 303e 1dd1 05be 01e1 74bd
00000160: b930 05be bab9 a63c 7de8 cbbd 3887 373e
00000170: 332f 4dbb d781 0abe 24ba 643d b99a 9a3d
00000180: 2d06 3abe a588 863c aa9d ba3d 3fd6 fdbd
00000190: d0fa 9cbc 4f61 d83c fab8 e1bd 2236 a1bd
000001a0: 1203 23be ef01 373a 8f8a 2f3e fabc b13d
000001b0: 071f ecbd b545 8cbd 4b3a d43d 224d f93d
000001c0: f380 0a3d 2fae 02bd a529 a3bd 50aa f8bd
000001d0: 328b efbd 5527 593d 978a 26be 0015 0d3e
000001e0: 6293 e1bd 470f 383e cace d63c 7222 cc3d
000001f0: 28b0 cfbd 9891 2ebe 9322 433c ebe3 14be
-0.017131161 -0.11977492 0.032695785 0.08662724 0.0047200173 0.05738231 -0.10125183 -0.14182161
-0.111556076 0.1499151 0.052339733 0.035433646 0.09777773 0.11809748 0.016552454 -0.07474029
0.046763983 0.097431235 -0.16484728 0.16964878 -0.13983518 -0.1635569 0.08682505 0.033594023
0.15377413 -0.0741193 -0.12826937 0.09681395 0.07391569 -0.1227976 0.12528592 0.10004911
0.10283077 -0.13463353 -0.16052215 0.10713652 -0.08515641 -0.1313093 -0.046301626 -0.15570116
0.16913716 -0.050420295 -0.077336945 0.16058041 -0.037359938 0.17997594 0.08658724 0.07886879
-0.17430325 -0.17060885 0.13274916 0.08419022 0.12309632 0.087344624 0.13829753 0.13784996
0.14091115 0.09877995 0.12391172 0.18082845 0.014991088 0.06505091 -0.13929477 0.166775
-0.08733912 -0.07601899 -0.1346432 0.16039638 -0.065696344 -0.015779536 0.070374504 -0.06099168
-0.035644267 0.12770598 0.045426495 0.11525041 0.10459565 0.05955207 -0.11957459 -0.02249321
0.041716427 0.05969572 0.16612144 0.00512733 0.025680084 0.17267416 -0.13068052 -0.059784893
-0.13006867 0.020352233 -0.09956453 0.17922676 -0.003130865 -0.13526092 0.05584158 0.07549042
-0.18166418 0.016422579 0.09112103 -0.1239438 -0.019162565 0.026413588 -0.110216096 -0.07871653
-0.1591914 0.0006981184 0.171427 0.086786225 -0.115293555 -0.06849233 0.10362681 0.12172915
0.03381438 -0.031904396 -0.079669274 -0.121418595 -0.11696471 0.053016026 -0.16263805 0.13777542
-0.11014439 0.17974578 0.026221652 0.099675074 -0.10141021 -0.17047727 0.011910099 -0.14540069

bias f4 [4]
00000000: 43a2 a33b 5943 b53d 5f5e febd 25ef ae3d
0.0049937083 0.08850736 -0.124203436 0.08541707

weight f4 [32]
00000000: 5917 813f 8c55 803f e111 813f 30db 803f
00000010: 89bc 7e3f fda1 7e3f d6eb 7d3f d2da 803f
00000020: 2f1e 7e3f 11ff 7d3f 7fdc 7e3f d743 7e3f
00000030: 9b4e 803f bb27 813f 2efc 7e3f eadb 803f
00000040: 60d4 803f 325b 7e3f d8a7 803f 48f6 803f
00000050: 0f2c 813f 9c48 7e3f 2943 7e3f 5b03 7f3f
00000060: 0f43 7f3f 920d 813f d675 7e3f 746a 803f
00000070: 9cfc 7d3f 2386 803f dfd2 803f 1069 803f
1.008525 1.0026107 1.0083581 1.0066891 0.9950643 0.99465925 0.9918798 1.0066779
0.99264807 0.99217325 0.995552 0.99322265 1.0023988 1.009025 0.99603546 1.0067112
1.0064812 0.99357903 1.0051222 1.0075159 1.0091571 0.99329543 0.9932123 0.99614495
0.997117 1.0082266 0.99398553 1.0032487 0.99213576 1.0040935 1.0064353 1.0032063

bias f4 [32]
00000000: 5f7c e53b 7826 97ba 9c84 113c 607d 2d3a
00000010: b1c1 b8bb a6fc bdbb 2c40 31bc 474b ab3b
00000020: cfb3 20bc 65fc f7bb f4dd 39bc de7f a03b
00000030: a427 323b f132 043c c852 8eba e68b 8e3b
00000040: 6083 c83b f9ad e0bb e917 b33b 2df6 1b3c
00000050: 4dc8 093c 4a70 cdbb 09c3 cbbb 8ba8 91bb
00000060: 7a24 3bbb 405b 0c3c c3a6 11bb aa97 153b
00000070: 37c2 2cbc 2317 323b b33d ef3b 3776 0eba
0.0070033516 -0.001153185 0.008881714 0.00066181086 -0.005638324 -0.0057979403 -0.010818522 0.0052274796
-0.009808495 -0.0075679296 -0.011344422 0.0048980555 0.0027184272 0.008068786 -0.0010858411 0.0043501733
0.0061191767 -0.0068566767 0.005465497 0.009519142 0.008409572 -0.0062694894 -0.0062183184 -0.0044451407
-0.0028555677 0.008566678 -0.0022224642 0.0022825995 -0.010544351 0.0027174435 0.0073010563 -0.00054344855

running_mean f4 [32]
00000000: a85b 463a 428a 0a3e 51c9 f8be ece2 483d
00000010: 3e2b 24be a0b0 acbd e6da 1f3e af64 2dbe
00000020: 4260 bbbe b951 2c3e b4de 613e 7635 d73e
00000030: db83 96be 7348 493e d4ef febd fa70 ce3c
00000040: 59e7 dfbe 41bc 97bd 5af6 8dbd 252f e63d
00000050: dce3 8b3e b50b 093e 0256 223e 5079 e03c
00000060: 241a 933e 82d6 c0bd 9455 1c3e 637b 9c3e
00000070: 8aa4 dd3c 5600 97be 9966 56be 0eb7 48be
0.00075667584 0.13529304 -0.48591092 0.049044535 -0.1603212 -0.08432126 0.15610847 -0.16932939
-0.36596876 0.1682805 0.22057611 0.42032975 -0.29397473 0.19656543 -0.12448087 0.025200356
-0.43731192 -0.074089535 -0.069317535 0.11239461 0.2732228 0.13383372 0.15853122 0.027401596
0.2873088 -0.09415914 0.1526702 0.30562887 0.027055997 -0.29492444 -0.20937575 -0.1960108

running_var f4 [32]
00000000: 0020 433d da35 dd3c 2124 fb3d 85f3 043d
00000010: 1215 913c 84f0 893d d966 a23d c5f2 ab3d
00000020: 5472 3e3e c736 0e3e 10f1 af3d 15bd ff3d
00000030: fc3a fd3d 2144 513d 5308 f43c 0167 d93d
00000040: 1b9a d03c 7eed db3d 6b1b 213c cf5e 1d3d
00000050: 2ff7 353e 2aa7 203d 6a70 b43c e1ab 1f3e
00000060: 9901 c33d c493 713c 5a0e 193c 5002 603d
00000070: 9574 6a3d 2c43 343d e65c c23d 0d93 353e
0.04763794 0.027003217 0.122627504 0.0324588 0.017710242 0.06735328 0.07929773 0.08395914
0.185983 0.13888083 0.08590901 0.124872364 0.12364766 0.051090363 0.029789126 0.106153496
0.025464108 0.107386574 0.009833197 0.038420495 0.17770074 0.03922192 0.02202626 0.1559291
0.09521789 0.014744703 0.009341801 0.054689705 0.057240088 0.044009373 0.09490375 0.17731877

weight f4 [32, 16]
00000000: 82d9 26be cd28 3a3e 09ac 8dbd 7cd0 5cbe
00000010: a5e7 313b 517f 2ebe d1b9 3b3e 1a83 c73d
00000020: 2e38 d3bd 5dd9 a0bc b7e0 fd3d 3f92 4cbd
00000030: 344c 0cbe 9c92 5a3e 03ba 86bd e02b cebd
00000040: 2c02 a8bd a179 a93d fa8c 623e 87e1 73be
00000050: 0bd8 053e 1eda 6f3e 5c8d b33d 04e0 b4bd
00000060: c231 45be 3e31 633e 3e20 e1bd d2fe 85bd
00000070: 0bbb 4fbe 4189 503e c1ed 6abd feaa 1c3e
00000080: 5161 36be c3b8 00be cf5b 6ebe c6c9 3abe
00000090: e8f3 d63d c731 00bd 6b62 0fbd 6425 1d3e
000000a0: ba33 153e c590 543e ee2e e93d b272 73be
000000b0: fc98 173d 7753 3c3e 2153 573e f4ff 093d
000000c0: 8690 f2bd 890c 39be d25d 153e 91e8 26bd
000000d0: 5e10 723e c5df 463c 2c6b 733d 886b af3c
000000e0: 2824 41be 988d 873d e4f4 903d adfd 613e
000000f0: 6715 4bbe d3cd b8bc 08a7 b6bd a126 00be
00000100: 2369 ff3d 998b a9bd 30f0 103d 0a0a 0c3e
00000110: ad44 a03d c5f5 bfbd ef07 2b3a 04d5 183e
00000120: e372 b83c 419b 71be 0d73 2d3e 104b 82bb
00000130: 43ac d3bd 0088 46bd 4eb3 66be 4cfc b4bd
00000140: b4ce 453e f584 313e 0133 033e 8c56 3b3e
00000150: dcaa 30bd 0538 30bd 281d c03c eccc 123e
00000160: 91f6 a03c 4355 233e 9176 b7bd 3a10 393d
00000170: a130 1dbe d84e e03d d4ed 47be 0ed6 27bc
00000180: 77a4 7ebd 5e4c dcbc 52d1 043e 32ef 7cbe
00000190: 86e5 48be bcd7 03bd 944a dd3d b178 533e
000001a0: 9f9a 7ebe 275f 573d 4e3f 85bb 392d c53d
000001b0: 320e 82bd 093e 153e 78a3 eb3c d7dc 6d3d
000001c0: 970b 543e c2e6 17be 5e0b 35be ec16 513e
000001d0: f869 ff3d ef6b 3fbe 1ed8 87bd a7c2 803d
000001e0: c6d8 2d3d 1741 323e d98a 7d3d 5086 5bbd
000001f0: 00bd 203e 224e c43d ffd4 4c3e aeb9 bd3d
00000200: 7df2 2cbe 9105 c3bd 7689 153d 8f17 9ebb
00000210: beef 46be 6332 16be 7efc a9bc c58a 25be
00000220: 4008 33be c4eb 64bd 0744 40bd f210 76be
00000230: 842f 4fbe 20e4 1c3d f01b 27bd 8ceb b4bd
00000240: 877a 6bbe 587a 3e3d 5c09 ea3d 42c8 7d3b
00000250: 1a66 8ebc a939 58be a417 043d e4e3 813e
00000260: bd73 cdbc 09ea 59be c39a 2abe a2a9 29be
00000270: 8c88 65bd 331e dfbd 73c1 ecbd 68ef bf3d
00000280: bd12 80bd 1458 7fbd 29aa 463e cc69 fa3d
00000290: b3dc 013e 87e7 2cbd 2028 72be f556 8d3b
000002a0: 84e9 d5bc 56cb 27be b8c6 63be 54fa 43bd
000002b0: 2849 debd 642c bb3c 1cc8 133b aeb3 babd
000002c0: ae6b 24be 8a15 063e cb88 f3bc cb5a bbbd
000002d0: 3ad6 8b3d e8d5 46be 247e 683e 0e6c 023e
000002e0: d72f 043e c2c4 e3bd 2d18 6dbd 619a 6dbe
000002f0: a338 753e bf94 6f3e 2712 bebd 36f3 f8bd
00000300: a183 753e 3449 3a3e 1caa 07be 4dd7 ec3d
00000310: d157 27be 1f1c 03bd 6eba 163e 94c0 eebd
00000320: 94b3 e53c 6bd6 4e3e f60f 503e b2ac 063e
00000330: de9f 003e 1dd0 3abe 96e7 62be d203 9dbd
00000340: e990 2b3e 24a6 1a3e 1e3c 0f3e fbe1 20be
00000350: 78d1 acbd 390e 703e 1c31 19be d135 96bd
00000360: db6a f1bd f36d e03c 70d0 2dbe 8feb 083d
00000370: 7151 5ebe 2395 abbd 2ec5 fdbd 58ef cd3c
00000380: da5b f63d 087f 21be 3a83 143e ea5d 56be
00000390: af2a adbd fa85 493e dd1e 433e 57f4 51be
000003a0: 448f 5bbe 1473 6ebe 1b6c 1d3c ced9 573e
000003b0: 16c7 52be f952 34be 9dff 1abe 1d67 0ebe
000003c0: 53ed 393e 8601 ac3d 5efd 77bd d9c8 37be
000003d0: 43b9 2d3e 906a ebbd f6be 5dbe 87db 62be
000003e0: 0e66 7cbe b146 12be 999c 3bbe 1e9c 3bbe
000003f0: c66c 3cbd 4b59 0cbe a18d 6ebe 2394 7d3e
-0.1629391 0.18179627 -0.06917579 -0.21563905 0.0027146128 -0.17040755 0.18332602 0.097418025
-0.1031345 -0.019634897 0.123963766 -0.04994416 -0.13700944 0.2134499 -0.06578448 -0.10066962
-0.08203539 0.08275152 0.22124091 -0.238165 0.13070695 0.23423049 0.087671965 -0.0883179
-0.19257262 0.22186753 -0.10992478 -0.06542744 -0.20286195 0.20364858 -0.057355646 0.15299603
-0.17810561 -0.12570481 -0.2327721 -0.18241033 0.1049574 -0.03129747 -0.035005968 0.15346295
0.14570513 0.2075835 0.11385904 -0.23774222 0.03701113 0.18391214 0.21027805 0.03369136
-0.11843972 -0.18071188 0.14586571 -0.040749136 0.23639056 0.012138312 0.05942838 0.02141358
-0.18861449 0.06618804 0.07077959 0.22069426 -0.19832383 -0.022559082 -0.089185774 -0.12514736
0.12471225 -0.08278579 0.03538531 0.13675705 0.07825599 -0.09373049 0.00065243145 0.14925009
0.02251572 -0.23594381 0.1693842 -0.0039762333 -0.10335591 -0.048469543 -0.22529337 -0.08837184
0.19317132 0.17335875 0.12812425 0.18294734 -0.043131694 -0.043022174 0.023451403 0.14335984
0.019648822 0.15950494 -0.089581616 0.04518149 -0.15350582 0.10952538 -0.19524318 -0.010243906
-0.062168565 -0.026891883 0.12970474 -0.24700621 -0.19618806 -0.032188162 0.1080524 0.20651509
-0.24863671 0.05258098 -0.0040663844 0.09627766 -0.06350364 0.14574446 0.028764471 0.058071937
0.20707546 -0.14834121 -0.17680117 0.204189 0.12471384 -0.18693517 -0.06633018 0.06287127
0.04244306 0.17407642 0.061899994 -0.053594887 0.15697098 0.09585215 0.20003127 0.09263931
-0.16889377 -0.09522546 0.036508046 -0.0048245857 -0.19427392 -0.14667659 -0.02075028 -0.16166218
-0.17483616 -0.055888906 -0.046939876 -0.24029902 -0.2023297 0.038303494 -0.040798128 -0.088339895
-0.22995959 0.046503395 0.114275664 0.00387241 -0.01738267 -0.21115746 0.032249108 0.2536918
-0.025079602 -0.21280684 -0.166606 -0.16568616 -0.056038424 -0.10894432 -0.11560335 0.09371835
-0.06253574 -0.062339857 0.19400848 0.122272104 0.12681846 -0.04221299 -0.23648119 0.0043133446
-0.026112325 -0.1638616 -0.22243774 -0.047846153 -0.10853797 0.022848316 0.0022549694 -0.091163024
-0.16056702 0.13094154 -0.029728314 -0.09148177 0.0682797 -0.19417536 0.22704369 0.12736532
0.12908874 -0.11121513 -0.057884384 -0.23203422 0.23947386 0.23396586 -0.09280806 -0.12155764
0.23975994 0.18191987 -0.13248485 0.11564503 -0.16342093 -0.03200924 0.14719555 -0.11657825
0.028039731 0.20198981 0.20318589 0.13151816 0.12560984 -0.18243451 -0.22158656 -0.07666744
0.16754498 0.1510244 0.13987777 -0.15711205 -0.084383905 0.23442926 -0.1496014 -0.073344834
-0.11787959 0.027396178 -0.16974044 0.03342777 -0.21710755 -0.08378055 -0.12391125 0.025138542
0.12029238 -0.15771115 0.14503184 -0.20934263 -0.08455407 0.19680014 0.19054742 -0.20503365
-0.2144137 -0.23286086 0.009608294 0.2107918 -0.20583758 -0.17609777 -0.15136571 -0.13906522
0.18156938 0.08398728 -0.060544364 -0.17947711 0.16965203 -0.114949346 -0.21654877 -0.22154056
-0.24648306 -0.14284779 -0.18321456 -0.18321273 -0.046002172 -0.13705938 -0.23296215 0.24763541

bias f4 [32]
00000000: a9f9 a9bd 1eda 44be 02df 68be e8cc dc3c
00000010: a91e 55be 3c81 d43b 7f3e 913b 9ee6 873d
00000020: 2a17 a83d 2b08 1fbe 4406 083e 0fc1 623d
00000030: 4c67 a03b 34a1 a0bc 6a1e 09be 57ce 083e
00000040: c9df 48bd 54a9 9fbd b2f9 543d a82e 4e3e
00000050: 9842 0bbd 735f 4a3d ce38 1b3d ab11 5e3e
00000060: ee32 073e cf8b 613e 54b8 3c3e fe48 163e
00000070: 5cc9 533e f249 e9bc 2501 743d fecd dabd
-0.08299572 -0.1922383 -0.2274132 0.026953176 -0.20812477 0.0064851325 0.004432499 0.066357836
0.08207543 -0.1553046 0.1328364 0.055359896 0.0048951264 -0.019608118 -0.13390508 0.13359962
-0.049041543 -0.07795969 0.05199594 0.20134985 -0.033999056 0.049407434 0.03789597 0.21686427
0.13203022 0.22025989 0.1842969 0.14676282 0.20682281 -0.028477643 0.059571404 -0.10683821

weight f4 [4, 32]
00000000: de47 ec3d b035 713c 9b65 333e 6b29 33be
00000010: 9109 2fbe 465b 8abd 0963 ecbd 1927 2c3e
00000020: 23bb c93c c4a1 893d 2196 a63d 664e d9bd
00000030: 90f5 0abe 9874 093c 93fa f43d 63d1 1bbd
00000040: d20d 143e 24a5 073e eb16 a33d d305 d43d
00000050: e994 12be b320 d23d 7728 863d 9e31 dabd
00000060: 59aa d93d e603 6e3d f771 f3bc 7867 1a3e
00000070: a5d1 e13d 837a e43a 861c fabd e473 863c
00000080: 839a 49bd 5a90 b43d 75ee bebd 272c 133e
00000090: d5fc 6bbb 45a8 00be 58a5 81bc 1bf6 983d
000000a0: 4802 fabd c657 11bd b43d 9ebd fa2f 1b3e
000000b0: fc51 063e 0f29 a43d 0ce6 203e 58b0 bb3c
000000c0: be43 ba3d f0e2 0fbe 0831 cabc 68ce f4bd
000000d0: bd25 f43d 93a9 5abd 1a0c 3d3d 6ab4 4bbd
000000e0: cf17 203e 5815 37be fac3 71bc dfca 1ebe
000000f0: b99f 1f3e b924 d3bc 2f71 09be ce38 2dbe
00000100: 500a 273e 0a12 75bd 444b 4f3d 3641 6b3c
00000110: 77d6 20be 7680 d93d a99b 85bc 1646 033e
00000120: 2f04 50bb 9831 153e 5465 7d3d 2940 7ebd
00000130: c8b3 03be 61d8 1fbe 74a8 863d 013d 21bd
00000140: 3ea2 783c 5a6e 2a3c ed33 41bd abdd 3b3c
00000150: 1304 52bc 7ab0 14be 0ccd 14bb bfc6 233e
00000160: 442d 2fbe bda0 e83d 6949 e8bd e8c3 2a3e
00000170: ebcf 6c3d 466b 683c 44d4 f5bc 920f 19be
00000180: ed73 8abd da6d ec3d 7096 443d 020a d4bd
00000190: 0745 203e 543d bb3c a550 f4bd 826a ddbd
000001a0: 4779 2d3e 1566 91bd 8812 cfbd c268 fdbd
000001b0: 4fea ba3d b91a a03c 2ec6 393e 2501 813d
000001c0: 064a 26be 0341 f23d c37f 89bd d234 e1bd
000001d0: 0a4e 0b3d e662 b2ba 9a4b 293e 3a34 b63d
000001e0: 1ebb bfbd 1c4b 25be 4c53 f93d e6f7 06bd
000001f0: 6241 37be 95ac 01bc 5df3 d93d 0f76 03bd
0.11537145 0.014722273 0.17519228 -0.17496268 -0.17093493 -0.0675569 -0.11542327 0.1681179
0.024625367 0.067203075 0.081341036 -0.106106564 -0.13570237 0.0083896145 0.11961856 -0.038041484
0.14458397 0.1324659 0.07963356 0.103526734 -0.14314617 0.10260143 0.06550687 -0.10653995
0.10628194 0.058109187 -0.029717429 0.15078533 0.11026315 0.0017431531 -0.12212472 0.016412683
-0.04921962 0.088165954 -0.09322826 0.14372312 -0.0036008854 -0.1256419 -0.015825912 0.07468816
-0.12207466 -0.035484098 -0.07726613 0.1515502 0.13117212 0.08015644 0.15712756 0.022911236
0.09094952 -0.14051414 -0.024681583 -0.11953431 0.119212605 -0.053384375 0.04615412 -0.049732603
0.15634082 -0.17879236 -0.014756197 -0.15507077 0.15588273 -0.025774347 -0.13422082 -0.169162
0.16312528 -0.059831657 0.05060889 0.014358809 -0.15706812 0.10620205 -0.016309576 0.12819704
-0.0031740775 0.145697 0.061864212 -0.062072907 -0.1286155 -0.15609886 0.06575099 -0.03936482
0.0151754 0.010402286 -0.04716866 0.011466424 -0.012818354 -0.14520445 -0.0022705225 0.15993784
-0.17107111 0.113587834 -0.11342127 0.16676295 0.057815474 0.014185732 -0.030008443 -0.14947346
-0.06760392 0.1154439 0.04799503 -0.10353471 0.15651332 0.022856392 -0.11929444 -0.108113304
0.16940795 -0.07099549 -0.101109564 -0.123734966 0.09126722 0.019543992 0.18142006 0.062990464
-0.16239175 0.11828806 -0.06713822 -0.10996403 0.03400997 -0.0013609796 0.16532746 0.0889668
-0.09361862 -0.16141933 0.12174091 -0.032951258 -0.17896035 -0.007914682 0.10642121 -0.03209501

bias f4 [4]
00000000: d648 92bd 67cb 2abd bfc3 c83c 6b18 2abe
-0.071427986 -0.041697886 0.024507402 -0.16610877

weight f4 [32]
00000000: 3f79 7e3f 98a0 803f 691d 813f 74de 803f
00000010: eaea 803f 3650 7e3f a6a1 7e3f 7616 813f
00000020: cf96 803f 5672 7e3f 7280 7e3f 367a 7e3f
00000030: c2da 7e3f 2ebd 803f ca48 803f dfcf 803f
00000040: 1d81 803f dda0 7e3f 753d 7e3f 3477 7e3f
00000050: a33d 7e3f 665b 7e3f 499e 803f f268 7f3f
00000060: e0be 7e3f 9bd0 803f e5d0 803f 67dd 803f
00000070: 9e03 803f 8f68 7e3f 91f8 803f 1aff 7f3f
0.99403757 1.0049009 1.00871 1.0067887 1.007169 0.9934114 0.99465406 1.008498
1.0046023 0.9939321 0.9941474 0.9940523 0.9955255 1.0057733 1.0022213 1.0063437
1.0039402 0.9946421 0.99312526 0.9940064 0.993128 0.9935821 1.0048305 0.9976951
0.9951 1.0063661 1.006375 1.0067567 1.0001104 0.99378294 1.0075856 0.9999863

bias f4 [32]
00000000: f232 9dbb 803d a53b f4ea c939 5d0c c53b
00000010: b69e e93b 5fb1 5fbb 01e8 abbb b815 f63b
00000020: 7989 7f3b ad8a bfbb b76f afbb d02f a23b
00000030: ea2d bebb c943 c33b 3c35 203b e917 cc3b
00000040: ad55 833b e63b bebb 71f7 d7bb 3cc8 c7bb
00000050: 7e7d ffbb 9e5f c7bb b014 3d3b 64fd b13b
00000060: c9b3 d3bb 8f51 ce3b 2fef d43b 4741 c43b
00000070: 423e 8c3b d954 cdbb 1850 dc3b c00d b439
-0.004797333 0.0050427318 0.0003851276 0.0060134367 0.0071295155 -0.003413282 -0.005246163 0.0075099133
0.0038991852 -0.005845389 -0.0053538936 0.0049495474 -0.005803813 0.0059590084 0.0024445793 0.0062284363
0.004008016 -0.0058054803 -0.0065907766 -0.006096868 -0.0077969423 -0.0060843965 0.0028851442 0.005431818
-0.006460641 0.0062963436 0.0064982395 0.005989227 0.0042798826 -0.006266218 0.006723415 0.0003434252
