code/model_obj_backups/model_obj_26.pt (torch, 538274 bytes, 158 tensors)

weight f4 [32, 2]
0	0x3f15121f	0.58230776
1	0xbf222f3a	-0.6335331
2	0x3deb24bb	0.11481615
3	0x3e39615c	0.18103546
4	0xbecb17ce	-0.396666
5	0x3e3d63b9	0.18495072
6	0x3d028d1e	0.03187286
7	0x3f08e83c	0.5347936
8	0x3e95c1d0	0.2924943
9	0xbea99940	-0.33124733
10	0xbf3163eb	-0.6929309
11	0xba2072ed	-0.0006120641
12	0x3f0dfce5	0.5546401
13	0xb80bdbbc	-3.3344826e-05
14	0x3ef738c1	0.48285487
15	0x3ec68e93	0.3878065
16	0x3d0f545e	0.03499257
17	0x3f1c5a3d	0.6107519
18	0x3ddbe6c7	0.10737377
19	0xbe49904b	-0.1968395
20	0x3f0fe41a	0.5620743
21	0x3e7b774d	0.24557228
22	0x3d8240c0	0.06360006
23	0xbf2df8f7	-0.67958015
24	0xbd4728de	-0.04862296
25	0xbf0585a1	-0.52157027
26	0x3f22c265	0.6357787
27	0xbec82369	-0.39089516
28	0xbf0642e8	-0.5244584
29	0xbdc43221	-0.09579874
30	0xbf080ec4	-0.5314753
31	0x3e3875cb	0.18013684
32	0xbf31b967	-0.69423527
33	0x3ef620c4	0.48071873
34	0x3f27f4fb	0.65608186
35	0xbed55b27	-0.41671106
36	0xbf104a4b	-0.5636336
37	0xbdf5fbcd	-0.12010918
38	0x3ddeea01	0.108844765
39	0xbec3bc4f	-0.38229606
40	0xbec73b9e	-0.38912672
41	0xbde089b6	-0.10963766
42	0x3e49c9af	0.19705842
43	0xbf218e43	-0.631077
44	0x3ee2902f	0.44250628
45	0x3e9e1f8a	0.30883437
46	0xbef29edb	-0.47386822
47	0xbe4c9c82	-0.19981578
48	0xbf2b8eed	-0.6701496
49	0x3df2b330	0.118505836
50	0x3e680c8a	0.22661033
51	0xbebe63f1	-0.37185624
52	0x3e8f5a53	0.279986
53	0xbd46b8f8	-0.048516244
54	0xbf1b28ca	-0.60609114
55	0x3f1183c6	0.56841695
56	0x3c6e5e30	0.014548823
57	0x3ea5806f	0.3232455
58	0x3f2e98d0	0.68201923
59	0xbf0ba251	-0.5454455
60	0x3ef1175e	0.4708814
61	0x3ee18125	0.44043842
62	0x3ebef1c8	0.3729384
63	0xbd1fb25b	-0.038988452

bias f4 [32]
0	0xbe85ecd9	-0.26157263
1	0x3f13c2a2	0.5771886
2	0xbf1f2a4e	-0.62173927
3	0xbd70e5bf	-0.058812853
4	0x3d4c1b98	0.049831003
5	0x3eb739f9	0.35786417
6	0x3e6875b0	0.22701144
7	0x3e066b1a	0.13126794
8	0xbf1a59f2	-0.60293496
9	0xbdca11ab	-0.09866651
10	0xbf0a564c	-0.5403793
11	0xbf19dc10	-0.60101414
12	0xbd4048f2	-0.046944566
13	0x3f091995	0.5355466
14	0xbe26f39a	-0.16303864
15	0x3f010275	0.50394374
16	0x3ef1e2de	0.47243398
17	0xbe1075e7	-0.14107476
18	0x3f03dbe3	0.51507396
19	0x3df68d1b	0.120386325
20	0xbdd7e5a9	-0.10541851
21	0xbe808350	-0.25100183
22	0x3df94064	0.12170485
23	0x3effef18	0.49987102
24	0xbe85a0a6	-0.26099128
25	0x3e8c9051	0.27453855
26	0x3f218095	0.63086826
27	0xbca872da	-0.020562578
28	0xbf1e493a	-0.61830485
29	0xbd8526a7	-0.06501513
30	0xbe9b846e	-0.30374473
31	0x3efd45c6	0.49467295

weight f4 [16, 32]
0	0x3db07ae3	0.08617189
1	0x3e34f91c	0.17673153
2	0xbe249cf2	-0.16075495
3	0x3e2cc3c1	0.16871549
4	0xbe0fbfb2	-0.1403797
5	0x3d6fe53a	0.058568217
6	0xbc3124b8	-0.010811977
7	0xbd3b0317	-0.045657244
8	0x3c07192f	0.00824575
9	0x394df195	0.0001964032
10	0x3e260b66	0.16215286
11	0x3cea1dbf	0.028578637
12	0xbb4f9f94	-0.003168081
13	0xbde56156	-0.11200206
14	0xbe119169	-0.14215626
15	0xbe1cc829	-0.1531073
16	0x3c059751	0.008153752
17	0xbda49bbe	-0.08037518
18	0xbd081512	-0.03322322
19	0xbd054e37	-0.032545295
20	0xbc20b55a	-0.009808863
21	0xbdeabbec	-0.114616245
22	0xbdc82a1a	-0.09773655
23	0x3d4807f6	0.048835717
24	0xbdc78b6c	-0.097433895
25	0xbd9eeb2c	-0.07759699
26	0xbe28fab5	-0.16501887
27	0x3b9dfb6e	0.0048212325
28	0x3d24ab04	0.040202156
29	0xbc68cf50	-0.014209583
30	0xbe03b289	-0.12861075
31	0xbe34aa3e	-0.17643067
32	0x3dfdef1a	0.12399121
33	0x3de34ed8	0.110990226
34	0xbdb96f35	-0.09054414
35	0xbca90cc7	-0.020635976
36	0x3ce8120f	0.028328924
37	0xbe1598eb	-0.14609115
38	0xbd2d9e7b	-0.042387467
39	0xbde89769	-0.11357004
40	0x3db758bb	0.08952471
41	0xbd8eaece	-0.06966935
42	0x3e2be18a	0.16785255
43	0x3db57a6d	0.088612415
44	0x3e290a9c	0.16507953
45	0x3aa97ed4	0.0012931474
46	0xbe0fde29	-0.14049591
47	0xbcb91c47	-0.022596492
48	0x3c01a4c4	0.007912818
49	0x3dad9bdf	0.08476996
50	0x3e1c59d8	0.15268648
51	0xbd897de6	-0.06713466
52	0x3e04135b	0.12898009
53	0xbe23b91c	-0.15988582
54	0xbda32dc7	-0.07967716
55	0xbc354f58	-0.01106628
56	0x3e14fcce	0.14549562
57	0x3e0a15a7	0.13484822
58	0x3d8485d0	0.06470835
59	0x3ddfa032	0.10919227
60	0xbd3bc268	-0.045839697
61	0xbe341489	-0.17585959
62	0xbe3383e1	-0.17530777
63	0x3e045902	0.12924579
64	0xbd348694	-0.044073656
65	0xbcda9836	-0.026683908
66	0x3d115371	0.035479967
67	0x3cd1c172	0.025604937
68	0xbd4aa21a	-0.049471
69	0x3c4989c2	0.01230091
70	0xbdd90218	-0.105961025
71	0x3bfd8e5d	0.0077379183
72	0x3e0f8c40	0.14018345
73	0xbd51a480	-0.05118227
74	0xbddc014d	-0.107424356
75	0xbdc438eb	-0.09581169
76	0x3dc9d886	0.09855752
77	0xbe05967a	-0.13045684
78	0x3d821207	0.06351095
79	0x3d6fd2d3	0.058550667
80	0xbe2b0168	-0.16699755
81	0xbd5b15fc	-0.053487763
82	0x3d7cea6e	0.061747007
83	0xbd50b0ea	-0.05094997
84	0xbd0edf0b	-0.03488068
85	0x3bee1952	0.007266202
86	0x3d12dd67	0.035855677
87	0x3dd1da02	0.1024666
88	0xbe28b8db	-0.16476767
89	0x3d384d31	0.04499549
90	0xbd6a002b	-0.057129066
91	0xbe183c31	-0.14866711
92	0x3da7c9f8	0.08192819
93	0xbd4a7962	-0.049432166
94	0xbd906cd1	-0.07052005
95	0x3df565a3	0.11982276
96	0xbd6a4ecb	-0.05720405
97	0x3e434f83	0.190733
98	0xbe0984bb	-0.13429539
99	0xbd25b0b8	-0.040451735
100	0x3d011066	0.03150978
101	0xba29addf	-0.0006472747
102	0x3d607627	0.05480018
103	0x3e276c33	0.16349868
104	0xbe26e792	-0.16299275
105	0x3d8027a6	0.06257562
106	0x3e031567	0.12801133
107	0xbd11bc65	-0.035580058
108	0xbcdd86cb	-0.027041813
109	0x3df06683	0.117383026
110	0xbc576353	-0.013146239
111	0x3e13d351	0.1443608
112	0x3e104ee7	0.14092599
113	0x3d86d430	0.0658344
114	0xbda7e8c7	-0.08198696
115	0xbddf6ca9	-0.10909397
116	0xbde10eb6	-0.10989134
117	0xbdd8e6a2	-0.10590865
118	0x3c9727b3	0.018451547
119	0xbe248ded	-0.16069765
120	0xbe0d5f76	-0.13805947
121	0x3d4f7aca	0.05065421
122	0xbdc7315a	-0.0972621
123	0x3d2648f2	0.04059691
124	0xbd820a10	-0.063495755
125	0x3e2e3dca	0.17015758
126	0x3b41d16d	0.002957429
127	0x3b3d5bf9	0.0028893931
128	0x3d809199	0.062777705
129	0x3e0481c4	0.12940127
130	0x3d6da065	0.058014292
131	0x3dc610cd	0.09671173
132	0xbe449476	-0.19197258
133	0xbd305c18	-0.043056577
134	0x3cc93aad	0.024564112
135	0x3b8f928f	0.004381485
136	0x3dc0d066	0.09414749
137	0x3d9672ab	0.0734609
138	0xbdac033c	-0.083990544
139	0x3b8579af	0.0040733437
140	0xbe2dbe1d	-0.16967054
141	0x3db55bbd	0.08855388
142	0xbdb5c740	-0.088758945
143	0x3c904260	0.017609775
144	0x3d32c094	0.043640688
145	0xbdce0670	-0.100598216
146	0xbdcea8f6	-0.100908205
147	0x3de1ade0	0.11019492
148	0xbc244b08	-0.0100276545
149	0x3cbf5f8b	0.023360988
150	0xbe15aaff	-0.14616011
151	0x3d8e2887	0.06941324
152	0xbdb65a17	-0.08903902
153	0x3da6a551	0.08137
154	0xbde7acc8	-0.11312252
155	0x3e04ad43	0.12956719
156	0x3e3204a2	0.1738458
157	0x3e1e88a3	0.1548181
158	0x3df137f2	0.11778249
159	0xbe3c85d2	-0.18410423
160	0x3db09552	0.086222306
161	0x3e1da0b5	0.15393336
162	0x3e1485a5	0.14504106
163	0xbe3cbdb5	-0.18431742
164	0xbcb2c4f1	-0.021822425
165	0xbde39917	-0.11113184
166	0xbcd206df	-0.025638042
167	0x3e1da0ae	0.15393326
168	0xbe14412e	-0.14477989
169	0xbe0cdc59	-0.13755931
170	0xbd8a29a5	-0.06746224
171	0xbcbd8b9e	-0.023137864
172	0x3e464cbc	0.1936521
173	0x3cd3dfb1	0.0258635
174	0xbd84a942	-0.06477596
175	0x3cdeeb6d	0.02721187
176	0xbe26fb3a	-0.16306773
177	0xbe092fd1	-0.13397147
178	0x3d917922	0.071031824
179	0xbd98a742	-0.07453777
180	0x3e2deea6	0.16985568
181	0x3e27df64	0.1639381
182	0xbcdfada1	-0.027304472
183	0xbdb08962	-0.08619954
184	0x3e3177a7	0.173308
185	0x3e111db9	0.14171495
186	0x3d461f2c	0.04836957
187	0xbe308b78	-0.17240703
188	0xbdeda49b	-0.116036616
189	0x3e156762	0.14590219
190	0x3dd8b507	0.10581403
191	0xbdd1d0f1	-0.102449305
192	0xbe2f4393	-0.17115621
193	0x3d586ab5	0.05283614
194	0xbdf7f87e	-0.12107943
195	0xbe224f80	-0.1585064
196	0x3d46ec55	0.048565228
197	0x3d1f215b	0.03885017
198	0x3dad45ee	0.08460604
199	0x3cd3560e	0.02579787
200	0xbe1cdf8b	-0.1531965
201	0xba84c3f2	-0.0010129197
202	0x3e199043	0.14996438
203	0xbd226d2b	-0.039654892
204	0x3e308fec	0.17242402
205	0xbd541061	-0.051773433
206	0x3dd91e30	0.10601461
207	0xbe0c9351	-0.13728072
208	0xbe093b6e	-0.13401577
209	0x3da1af9d	0.07894824
210	0x3e074b43	0.13212304
211	0xbcfb9160	-0.030708969
212	0x3def1f7e	0.116759285
213	0x3d8f1edf	0.0698831
214	0x3e19a2a2	0.15003446
215	0xbe149cf9	-0.14513005
216	0x3ddc90c5	0.107698
217	0xbd9764c2	-0.07392265
218	0x3df7e913	0.12105002
219	0xbcf8a72d	-0.030353153
220	0x3e1165e9	0.14199032
221	0xbe048575	-0.12941535
222	0xbbf716aa	-0.0075405436
223	0x3e1f5183	0.15558438
224	0x3d78ea6a	0.06077043
225	0x3b10af3c	0.0022077104
226	0x3d158a94	0.03650911
227	0x3da2cb57	0.0794894
228	0xbdd0cf1b	-0.10195752
229	0x3e0eb39d	0.13935705
230	0x3d32d5df	0.043660995
231	0x3dc5aa1f	0.09651589
232	0xbc0aa397	-0.008461854
233	0x3e2105c2	0.15724853
234	0xbe03ad15	-0.12858994
235	0x3da63fb0	0.08117616
236	0xbcbf00d3	-0.023315823
237	0xbe1461fe	-0.14490506
238	0x3c6783f7	0.014130584
239	0xbd0e13ff	-0.03468704
240	0xbe2dfdaf	-0.16991304
241	0x3c826b03	0.015920168
242	0xbd1d075e	-0.038337104
243	0xbde52611	-0.11188901
244	0x3c792adb	0.015207971
245	0x3c0a6855	0.008447726
246	0x3e11c64b	0.14235799
247	0xbdf989c1	-0.121844776
248	0xbdd82326	-0.10553579
249	0x3e1292b1	0.14313771
250	0x3e1215df	0.14266156
251	0xbd6dbe86	-0.058043025
252	0xbd02613f	-0.031831022
253	0xbe0cc006	-0.13745126
254	0x3bbef213	0.0058271973
255	0xbd56744d	-0.052357007

bias f4 [16]
0	0x3e063d4c	0.1310932
1	0xbdc6e545	-0.097116984
2	0x3da65bd8	0.081229866
3	0xbd2df25e	-0.042467467
4	0xbc91fdb9	-0.01782118
5	0xbdb07b41	-0.08617259
6	0xbd2ce7df	-0.042213317
7	0x3cd73b6c	0.026273452
8	0xbe3399e4	-0.17539173
9	0x3e30fc30	0.17283702
10	0xbda2d793	-0.07951274
11	0x3d09b867	0.033623125
12	0xbe095faa	-0.13415399
13	0x3dbce351	0.09223045
14	0x3e34c78f	0.1765425
15	0x3db340b6	0.08752577

weight f4 [32]
0	0x3f7cb1bb	0.98708695
1	0x3f81d300	1.0142517
2	0x3f819d51	1.0126134
3	0x3f7f6e92	0.9977809
4	0x3f82225a	1.0166733
5	0x3f7aaf70	0.97923946
6	0x3f7eea97	0.99576706
7	0x3f7d6ac2	0.98991024
8	0x3f7f75ef	0.9978933
9	0x3f80dccd	1.0067383
10	0x3f81786f	1.0114878
11	0x3f7cc257	0.9873404
12	0x3f81243a	1.008918
13	0x3f815c49	1.0106288
14	0x3f7d311b	0.98903054
15	0x3f7eec36	0.9957918
16	0x3f83d2cd	1.0298706
17	0x3f82e1ed	1.0225197
18	0x3f8057de	1.0026815
19	0x3f7f7bd9	0.9979835
20	0x3f803d5f	1.0018729
21	0x3f78e2b2	0.9722091
22	0x3f7fcea8	0.9992471
23	0x3f7d4892	0.9893886
24	0x3f81d78b	1.0143903
25	0x3f802d64	1.0013852
26	0x3f8071a7	1.0034684
27	0x3f81f78f	1.0153674
28	0x3f7ccb79	0.98747975
29	0x3f7a30e7	0.9773087
30	0x3f7fd97b	0.99941224
31	0x3f807570	1.0035839

bias f4 [32]
0	0xbd2ce104	-0.04220678
1	0xbd312669	-0.04324952
2	0x3caecad7	0.021336956
3	0xb9be4884	-0.00036293652
4	0x3c45e230	0.012077853
5	0xbd29847c	-0.041386113
6	0xbd0241ac	-0.03180091
7	0xbbc57669	-0.0060260785
8	0xbca051fa	-0.01957034
9	0xbc18819c	-0.009308245
10	0x3c6b5972	0.014364587
11	0xbbaf48fb	-0.005349276
12	0x3c11984d	0.008886409
13	0xbd3372b4	-0.04381056
14	0x3c3bd5d8	0.011464559
15	0x3c953b3f	0.018216727
16	0x3d1f68f2	0.038918443
17	0x3c609464	0.013707254
18	0xbca9cf2a	-0.020728666
19	0xbc85cf00	-0.016334057
20	0x3ca4ee55	0.020133177
21	0xbcf0c5f0	-0.029391259
22	0xbd06137b	-0.03273342
23	0xbc307288	-0.010769494
24	0x3cf4e4e5	0.029894302
25	0x3c05f92f	0.008177086
26	0x3c7b366e	0.015332801
27	0x3b923151	0.0044614454
28	0xbc097edb	-0.008392061
29	0xbc49af35	-0.012309839
30	0x3ce053b4	0.027383663
31	0xbcab07cb	-0.02087774

running_mean f4 [32]
0	0xbebfc5ad	-0.37455502
1	0x3f2a757c	0.66585517
2	0xbf226835	-0.6344026
3	0x3e1117b0	0.14169192
4	0xbc3e7016	-0.011623403
5	0x3e5fb316	0.2184566
6	0x3ead2e97	0.33824608
7	0x3ebce1da	0.3689106
8	0xbebf9f1f	-0.37426087
9	0xbe1818da	-0.1485323
10	0xbead3cb9	-0.3383539
11	0xbf55bb13	-0.8348858
12	0xbe7bd78b	-0.24593942
13	0x3f057384	0.5212939
14	0xbe9b328e	-0.30312008
15	0x3eeccf61	0.46251968
16	0x3f01e020	0.5073261
17	0xbe245308	-0.16047299
18	0x3eb77a3a	0.3583544
19	0x3b6cb556	0.0036118827
20	0xbe64b58f	-0.22334884
21	0xbee189df	-0.440505
22	0x3ea537a7	0.32269022
23	0x3eaa194d	0.33222428
24	0xbeb484a8	-0.3525746
25	0x3e3da1cf	0.18518756
26	0x3f2b56c3	0.6692926
27	0x3d82f7b0	0.06394899
28	0xbefeeaad	-0.49788418
29	0xbe011612	-0.12606075
30	0xbd4a0512	-0.04932124
31	0x3f0e2653	0.5552723

running_var f4 [32]
0	0x3e6177cd	0.22018357
1	0x3be685f0	0.0070350096
2	0x3d548c68	0.051891714
3	0x3d81f029	0.06344635
4	0x3d6df67b	0.05809639
5	0x3dcb3d7b	0.09923836
6	0x3d825c05	0.063652076
7	0x3d5baf1f	0.053633805
8	0x3da99499	0.08280296
9	0x3c6f47f0	0.014604554
10	0x3d6c1dc4	0.057645574
11	0x3de9629a	0.1139576
12	0x3d72432d	0.059146095
13	0x3e2164e2	0.1576114
14	0x3d51bf3e	0.051207773
15	0x3da5a1c4	0.08087495
16	0x3e51f619	0.20504035
17	0x3e2fdb40	0.17173481
18	0x3d6fa75c	0.058509216
19	0x3d2e7b62	0.042598136
20	0x3ce0c91a	0.027439643
21	0x3df418e5	0.11918811
22	0x3d286ba1	0.041118268
23	0x3d275736	0.040854655
24	0x3dde4ae5	0.10854129
25	0x3d63d1ba	0.055619933
26	0x3c9ab59f	0.018885432
27	0x3e511874	0.20419484
28	0x3cbfce05	0.023413667
29	0x3e642cdd	0.22282739
30	0x3d6e3dd5	0.058164436
31	0x3d0081c5	0.031373758

weight f4 [32, 3]
0	0x3e84d16c	0.25941026
1	0xbe547162	-0.20746377
2	0xbe2fc5e4	-0.17165333
3	0x3d6a66f6	0.057227097
4	0x3caaa19b	0.020829013
5	0xbf120a88	-0.5704732
6	0x3e359e0b	0.1773607
7	0xbeb44f05	-0.35216537
8	0xbe9a7662	-0.30168444
9	0x3f05dcde	0.5229014
10	0xbef7bea8	-0.48387647
11	0x3eebf411	0.46084645
12	0x3d472dd6	0.048627697
13	0xbed33edb	-0.41258892
14	0xbea13b7e	-0.314907
15	0x3d7580f9	0.05993745
16	0x3cf63c62	0.03005809
17	0xbe63e4a6	-0.22255191
18	0xbe75b838	-0.23996055
19	0xbf135832	-0.5755645
20	0x3f0fb7ff	0.5614013
21	0xbf0764d4	-0.52888227
22	0xbeec3fe4	-0.46142495
23	0xbe0941ce	-0.13404009
24	0x3e97c3c2	0.2964154
25	0x3f001d89	0.5004507
26	0xbe3f4c34	-0.18681413
27	0x3eb7d9ca	0.35908347
28	0xbe90be51	-0.282702
29	0x3f020069	0.50781876
30	0xbe7ed4d2	-0.24885872
31	0x3ec20bbe	0.37899584
32	0xbd50b088	-0.050949603
33	0xbf07807a	-0.52930415
34	0x3de9eb0c	0.11421785
35	0x3ef1d24f	0.47230765
36	0xbde88681	-0.113537796
37	0xbe7298a2	-0.23691037
38	0x3f06f998	0.527246
39	0xbe621015	-0.22076447
40	0x3e58b601	0.21163179
41	0xbe2cbe2b	-0.16869418
42	0xbf18191b	-0.5941331
43	0xbe96743e	-0.2938556
44	0x3ed3835b	0.41311154
45	0xbec205e0	-0.37895107
46	0x3ec0acd7	0.37631866
47	0xbe1fb460	-0.15596151
48	0xbdb51dc8	-0.08843571
49	0xbea9a2cd	-0.3313202
50	0x3ecc35e4	0.39884865
51	0x3f114869	0.56751114
52	0x3da110ad	0.07864509
53	0xbe57c687	-0.21071826
54	0x3e9d4c8d	0.30722466
55	0xbe9cd293	-0.30629405
56	0x3f0c3ec1	0.54783255
57	0xbdc30e55	-0.09524218
58	0x3e8d8154	0.27637732
59	0xbe872b56	-0.2640025
60	0x3ecfaa8a	0.40559798
61	0xbdf69fa8	-0.12042171
62	0xbe6cf659	-0.23140849
63	0x3ea9e7d0	0.3318467
64	0xbe996e94	-0.29967177
65	0xbeaf02b2	-0.34181744
66	0x3e970592	0.29496437
67	0xbf009d8e	-0.5024041
68	0xbdda767c	-0.1066713
69	0xbee5a65c	-0.44853485
70	0x3ed1efe3	0.41003332
71	0x3e6d5888	0.23178303
72	0x3daee5b7	0.085399084
73	0x3e7db09c	0.24774402
74	0x3ec8ff8b	0.39257464
75	0xbe82b994	-0.2553221
76	0xbedf1657	-0.4357173
77	0xbecbafa1	-0.39782432
78	0xbf219d01	-0.63130194
79	0x3e5d4bd9	0.21610965
80	0xbf0bc0b1	-0.545909
81	0xbe80205f	-0.25024697
82	0xbf11724e	-0.5681504
83	0x3ea1ee73	0.31627235
84	0x3e983f88	0.2973597
85	0x3eadd3b3	0.33950576
86	0xbcd76c60	-0.026296794
87	0x3dd16dc8	0.10226017
88	0xbef7d54d	-0.48404923
89	0xbdaf0c73	-0.085472964
90	0x3e382284	0.17981917
91	0xbe95b57d	-0.29240027
92	0x3d2636bf	0.040579554
93	0xbed57b08	-0.41695428
94	0x3e1caa96	0.15299448
95	0xbe20bb65	-0.15696485

bias f4 [32]
0	0xbf04a386	-0.51812017
1	0xbf0f9e61	-0.5610104
2	0x3eb48d66	0.35264128
3	0xbeea751c	-0.45792472
4	0x3e6a90b9	0.2290677
5	0x3e956efe	0.29186243
6	0xbdd077bb	-0.10179087
7	0x3e5aad1c	0.21355098
8	0xbe50cd74	-0.20390874
9	0xbd1d1dfd	-0.038358677
10	0xbf0b08a5	-0.54310066
11	0x3d841b81	0.064505585
12	0xbebe21ba	-0.37135106
13	0xbe972034	-0.29516757
14	0x3eeeb43e	0.4662189
15	0x3f056e6a	0.52121603
16	0x3c23ac4f	0.009989812
17	0x3cc4426e	0.023957457
18	0xbe8359ae	-0.25654358
19	0x3e7df62b	0.24800937
20	0xbe8dd8d9	-0.27704504
21	0xbe005741	-0.12533285
22	0x3e5accd1	0.21367194
23	0xbe4c9425	-0.19978388
24	0xbef95243	-0.48695573
25	0x3db0f354	0.08640161
26	0xbf0dba79	-0.5536266
27	0x3f0a57c1	0.5404015
28	0xbe702f1f	-0.23455475
29	0xbdcd8a75	-0.10036174
30	0xbe8342cc	-0.256369
31	0xbdfe0089	-0.12402446

weight f4 [16, 32]
0	0xbdcead7f	-0.100916855
1	0xbd29c17d	-0.04144429
2	0x3dcb9735	0.0994095
3	0x3e05d9b3	0.13071327
4	0x3d898e4c	0.06716594
5	0x3dd217ad	0.10258422
6	0x3c5a95e2	0.013341399
7	0x3a4b2f0b	0.00077508454
8	0xbdcb638a	-0.09931095
9	0x3d9b75b2	0.07590808
10	0xbe2bd24b	-0.16779439
11	0xbda24347	-0.079229884
12	0xbd44c573	-0.048039865
13	0x3b52e13c	0.0032177707
14	0x3d2d3b13	0.042292666
15	0xbc5eee26	-0.013606584
16	0x3cb900b8	0.02258335
17	0xbc0b6cb4	-0.008509804
18	0xbdac9e13	-0.08428588
19	0x3de4d67c	0.11173722
20	0x3b913c4c	0.004432237
21	0xbe1f9645	-0.15584667
22	0x3e270a39	0.16312493
23	0xbd85dc17	-0.065361194
24	0x3da9a2ae	0.08282982
25	0x3e23ab25	0.15983255
26	0xbd5ca8a4	-0.053871766
27	0x3ca80bc0	0.020513415
28	0x3bb09a8f	0.0053895186
29	0xbe1c2fb3	-0.15252571
30	0x3e0cbe6e	0.13744518
31	0xbe09ddd4	-0.13463527
32	0x3d8515ad	0.06498275
33	0xbd0a1107	-0.033707645
34	0xbc8a01e5	-0.016846607
35	0xbd8740d2	-0.0660416
36	0x3d26a449	0.04068402
37	0x3e0e8ac4	0.13920122
38	0xbb199f96	-0.0023441068
39	0x3deb881f	0.115005724
40	0x3d809113	0.06277671
41	0xbd85cd44	-0.06533292
42	0x3d1f0da6	0.038831376
43	0xbe3fdcea	-0.18736616
44	0x3dc6fe5c	0.09716484
45	0xbce29f6c	-0.027663909
46	0xbceea52a	-0.02913149
47	0xbd8ff2b0	-0.07028711
48	0xbe293c23	-0.16526847
49	0xbda599bf	-0.08085965
50	0xbdb9147c	-0.0903711
51	0x3dff79df	0.12474417
52	0x3cf373a1	0.029718222
53	0x3dc7bd49	0.097529
54	0x3e280203	0.16407017
55	0x3d5361e4	0.051607028
56	0xbdda2a1f	-0.10652565
57	0x3bddbc9c	0.0067668688
58	0xbd21db51	-0.039515797
59	0x3d485dc4	0.048917547
60	0x3e081239	0.13288201
61	0xbd955361	-0.07291294
62	0xbd5f99d9	-0.05459008
63	0x3ccfbe1e	0.02535921
64	0x3dadd6ac	0.08488211
65	0x3e3b7a61	0.18308403
66	0x3e0f9b6a	0.1402413
67	0xbc40866d	-0.0117508
68	0x3cfd96d0	0.030955702
69	0xbd9beb28	-0.07613212
70	0xbd9be13e	-0.07611321
71	0x3dd8b29d	0.10580943
72	0x3e1adfda	0.15124455
73	0x3de0cee9	0.10976965
74	0xbd609666	-0.05483093
75	0xbe26fcd6	-0.16307387
76	0xbcfe0375	-0.031007508
77	0x3cea710d	0.02861836
78	0x3e01f296	0.12690195
79	0xbc43c4d7	-0.011948786
80	0xbde99771	-0.11405838
81	0x3dbe75ee	0.09299837
82	0x3d20afe6	0.03923025
83	0x3de322aa	0.11090596
84	0xbd8ce059	-0.068787284
85	0x3e259e97	0.16173778
86	0x3db471ae	0.08810745
87	0xbe258a8a	-0.1616613
88	0xbd712e0a	-0.058881797
89	0x3e15dba9	0.14634575
90	0x3de18be2	0.11013009
91	0xbe3bdebd	-0.18346687
92	0xbb8828e0	-0.0041552633
93	0xbd99cf08	-0.07510191
94	0x3d1c2bfd	0.038127888
95	0xbde86267	-0.11346894
96	0x3c0d86e7	0.00863812
97	0xbbeeb03b	-0.007284192
98	0x3dcd969a	0.100384906
99	0x3db39849	0.087692805
100	0xbe29ea34	-0.16593248
101	0x3e0e28a3	0.13882689
102	0xbd8d7e21	-0.06908823
103	0xbd532297	-0.05154666
104	0xbb878d67	-0.0041367295
105	0x3d33f9b3	0.043939304
106	0xbd7e8edb	-0.062147956
107	0x3de46812	0.11152662
108	0xbde3e736	-0.11128084
109	0xbdcd0f3e	-0.10012673
110	0xbde8a07b	-0.11358734
111	0xba7efedd	-0.00097273086
112	0xbe02cf4c	-0.1277439
113	0xbe1d6218	-0.15369451
114	0xbd4da9dd	-0.050210822
115	0xbdfefa98	-0.12450141
116	0x3d4b03fc	0.049564347
117	0xbcd2324c	-0.025658749
118	0x3dc96f8f	0.09835731
119	0x3df89ffb	0.12139889
120	0x3e0d460b	0.1379625
121	0x3db92ed3	0.09042134
122	0x3ac9b87f	0.0015390067
123	0xbe26694d	-0.16251107
124	0x3d436d8a	0.047711886
125	0x3d28f457	0.041248646
126	0x3d8db995	0.069201626
127	0x3e1f0169	0.15527882
128	0xbb73bbcc	-0.0037190793
129	0xbdbc1122	-0.09182955
130	0xbc98a06d	-0.018631184
131	0xbdfafe33	-0.12255516
132	0x3ca5bfd5	0.020233074
133	0x3db177eb	0.08665451
134	0x3e0abe7a	0.13549224
135	0x3e22161f	0.15828751
136	0xbdd206aa	-0.10255177
137	0xbd2469fe	-0.040140145
138	0xbe1a6b0a	-0.15079895
139	0x3d35e517	0.04440793
140	0xbdc2cd82	-0.09511854
141	0xbe048bac	-0.12943906
142	0xbd9a44ea	-0.075326756
143	0xbe281a72	-0.16416338
144	0xba1f8ffa	-0.0006086823
145	0xbe0311d1	-0.12799765
146	0xbcbbf0b6	-0.022941928
147	0x3e11241b	0.1417393
148	0x3d047d43	0.03234602
149	0xbdae32d8	-0.085057914
150	0x3cc83711	0.02444032
151	0xbc727e25	-0.014800583
152	0xbd920f9d	-0.07131884
153	0xbe3ca785	-0.18423279
154	0x3d896de6	0.067104146
155	0x3d01ef43	0.03172232
156	0xbc7287b0	-0.014802858
157	0x3d0d04f2	0.034428544
158	0x3cd48537	0.025942428
159	0xbd58dbe4	-0.05294408
160	0xbbdb7cd9	-0.0066982326
161	0xbdf472c8	-0.11935955
162	0x3e0f5174	0.13995916
163	0x3e199b22	0.15000585
164	0x3b3145ed	0.0027049736
165	0x3d0b138a	0.03395418
166	0x3d89d42e	0.06729923
167	0xbd8e2cf0	-0.06942165
168	0xbd8b2abd	-0.06795261
169	0x3d8d690f	0.06904804
170	0x3d9b27c7	0.07575946
171	0x3dc01ae2	0.093801275
172	0x3bc154f5	0.0059000202
173	0xbe1fc683	-0.1560307
174	0xbda5f3a9	-0.08103115
175	0xbdf79efd	-0.120908715
176	0xbbd0716e	-0.006361178
177	0xbdf10fa1	-0.11770559
178	0x3e151167	0.1455742
179	0xbd314f08	-0.04328826
180	0x3e11048a	0.14161888
181	0xbde47b6f	-0.111563556
182	0xbd21300a	-0.039352454
183	0xbc9fdaea	-0.019513566
184	0x3deb4fda	0.1148984
185	0xbcd9a0f7	-0.026566012
186	0x3de44219	0.111454196
187	0x3d98d5e1	0.07462669
188	0xbe325d66	-0.17418441
189	0x3e08dbd6	0.13365111
190	0x3e2d7570	0.1693933
191	0x3df14972	0.11781587
192	0xbe1d09ec	-0.15335816
193	0x3dd15afb	0.10222431
194	0x3d192306	0.037386917
195	0xbda83d0c	-0.08214769
196	0x3dc60864	0.09669569
197	0x3e1b05e8	0.15138972
198	0xbe35a7d6	-0.17739806
199	0x3e188f84	0.14898497
200	0xbd1ac579	-0.03778598
201	0x3b89f8bf	0.004210561
202	0xbb64eab7	-0.003492994
203	0xbe12fe31	-0.14354779
204	0xbe05911c	-0.13043636
205	0xbde2d1db	-0.11075183
206	0xbc3a19ee	-0.011358721
207	0x3cd41551	0.02588907
208	0xbd956c1c	-0.07296011
209	0xbdeaf419	-0.11472339
210	0x3d82f8ec	0.06395134
211	0xbd4bc5e5	-0.049749274
212	0x3cf44318	0.029817149
213	0xbdec990b	-0.11552628
214	0x3d0bba07	0.034112956
215	0xbe0bc74d	-0.13650246
216	0xbcdba6d1	-0.026812943
217	0x3de3b7cb	0.1111904
218	0xbc875026	-0.01651771
219	0xbe2f6ff3	-0.17132549
220	0x3d93ca58	0.072163284
221	0xbe0a4f53	-0.13506822
222	0x3d59489e	0.05304777
223	0xbdc9d5d7	-0.0985524
224	0x3e0b8bbc	0.13627523
225	0xbd664397	-0.056216802
226	0x3d8d915c	0.06912491
227	0xbdedc103	-0.1160908
228	0xbe2ad6e2	-0.16683534
229	0x3e3b8fac	0.18316525
230	0x3d61326e	0.054979734
231	0xbcd1a402	-0.0255909
232	0xbe210162	-0.15723184
233	0x3dc2172b	0.09477075
234	0x3e371d5f	0.17882298
235	0x3e09b472	0.1344774
236	0xbdffd4f7	-0.12491792
237	0x3e2c3420	0.16816759
238	0xbe2ce10b	-0.16882722
239	0xbd950775	-0.07276813
240	0xbdbe32bd	-0.09287021
241	0x3e08cd99	0.1335968
242	0x3e1fd33a	0.1560792
243	0x3de60aab	0.112325035
244	0xbe318b2c	-0.17338246
245	0x3d839353	0.06424584
246	0x3e0b47ba	0.1360158
247	0xbe0e0fa6	-0.13873157
248	0xbda4bc2d	-0.08043704
249	0xbe0ddf8e	-0.1385481
250	0x3d45bc47	0.04827526
251	0x3df288ed	0.11842523
252	0x3d04b584	0.03239967
253	0xbdadff3b	-0.08495947
254	0xbc2210d3	-0.0098917065
255	0xbd32fcf0	-0.04369825

bias f4 [16]
0	0x3e364656	0.17800269
1	0x3cc1b2d0	0.023644835
2	0x3e182346	0.14857206
3	0x3e2130fe	0.15741345
4	0x3e254ac1	0.16141798
5	0x3def3605	0.11680225
6	0xbe1f37aa	-0.15548578
7	0xbdf41a0e	-0.11919032
8	0xbd7e609f	-0.062103864
9	0x3d18f85b	0.037346225
10	0xbd1b71bb	-0.03795026
11	0xbe0f7f38	-0.14013374
12	0x3e00f404	0.12593085
13	0xbd2e80ab	-0.042603176
14	0x3dc04113	0.09387412
15	0xbd8bd1c5	-0.0682712

weight f4 [32]
0	0x3f7f6214	0.9975903
1	0x3f8113ec	1.0084205
2	0x3f7c9664	0.9866698
3	0x3f80c26e	1.0059335
4	0x3f7b2918	0.9810958
5	0x3f7aad1c	0.97920394
6	0x3f813072	1.0092909
7	0x3f7e94bf	0.9944572
8	0x3f7cc3fe	0.9873656
9	0x3f806247	1.0029992
10	0x3f80321e	1.0015295
11	0x3f80770b	1.0036329
12	0x3f7cccec	0.98750186
13	0x3f825b20	1.0184059
14	0x3f7a0a93	0.97672385
15	0x3f816dbc	1.0111613
16	0x3f827d3f	1.0194472
17	0x3f80cb0e	1.0061967
18	0x3f827a2c	1.0193534
19	0x3f802e38	1.0014105
20	0x3f817201	1.0112916
21	0x3f80ceab	1.006307
22	0x3f8034d4	1.0016122
23	0x3f801d44	1.0008931
24	0x3f822c65	1.0169798
25	0x3f7b3f95	0.98143893
26	0x3f815110	1.0102863
27	0x3f80d740	1.0065689
28	0x3f7dc64e	0.99130714
29	0x3f7bbfc4	0.98339486
30	0x3f79103e	0.9729041
31	0x3f7adb0e	0.979905

bias f4 [32]
0	0xbd2b5d41	-0.04183698
1	0x3c9bd006	0.019020092
2	0x3cecc96e	0.028904643
3	0x3cd093e0	0.025461137
4	0x3d090e85	0.033461113
5	0xbd16d453	-0.036823582
6	0x3d645150	0.05574161
7	0x3be27acb	0.0069116107
8	0x3d0b3eeb	0.03399555
9	0x3bb51e89	0.0055273217
10	0xbb171f00	-0.002305925
11	0x3c3f026e	0.011658294
12	0xbc942022	-0.018081728
13	0x3ddce4b4	0.10785809
14	0xbd3a0f1c	-0.045424566
15	0xbc8bf71d	-0.017085606
16	0x3c715e1a	0.014731908
17	0x3b4a0661	0.0030826556
18	0xbb6de1bf	-0.0036297885
19	0x3bf1b20f	0.0073759626
20	0xbcbb6a03	-0.022877699
21	0xbb1d700a	-0.002402308
22	0xbc76cfd0	-0.015064195
23	0x3d4c4c9b	0.049877744
24	0x3bd51e23	0.0065038367
25	0x3c2043da	0.009781802
26	0x3aa84f68	0.0012841048
27	0xbcbef13d	-0.02330839
28	0x3cbc5c4f	0.022993235
29	0xbbdb63d2	-0.006695249
30	0xbd07f61f	-0.033193704
31	0xbd06155a	-0.032735206

running_mean f4 [32]
0	0xbe8dffec	-0.27734315
1	0xc0716ba2	-3.7721944
2	0x3f33fa69	0.7030397
3	0x4098cfa1	4.7753453
4	0x3f5abf71	0.85448366
5	0xbf8aeee2	-1.0854151
6	0x40c63d22	6.1949625
7	0x4005fcff	2.0935667
8	0xc0816f99	-4.0448728
9	0x408a0296	4.3128157
10	0xc03d8407	-2.9611833
11	0x3ffd6883	1.979752
12	0x4074e5b9	3.8265212
13	0xc019f957	-2.4058435
14	0x408bbe1f	4.366958
15	0xc01cdcc2	-2.450974
16	0x408171ba	4.0451326
17	0xbfc81afb	-1.5633234
18	0x408e3d08	4.44495
19	0xc02fb3be	-2.7453456
20	0xbf5a6b76	-0.8532022
21	0xbe910b96	-0.28329152
22	0x401e1fec	2.4706984
23	0xbfa1773b	-1.2614511
24	0x3e7bc8c3	0.24588303
25	0x3ec72a54	0.3889948
26	0xc097862a	-4.7351274
27	0x40aee9ae	5.4660254
28	0xc012ea9e	-2.29557
29	0x400b0ceb	2.1726635
30	0x3fced84a	1.6159756
31	0xbfeb7c66	-1.8397338

running_var f4 [32]
0	0x40e504d3	7.156839
1	0x41ad10a2	21.633121
2	0x41aa24d9	21.267992
3	0x4187340a	16.90041
4	0x41d38c20	26.44342
5	0x4042e3bb	3.0451496
6	0x41c3a35c	24.454765
7	0x419ccde2	19.600529
8	0x415c8921	13.783479
9	0x4165ccd1	14.362504
10	0x410d5126	8.832312
11	0x419c4033	19.531347
12	0x41741558	15.255211
13	0x4034d980	2.8257751
14	0x4122b9d3	10.170367
15	0x40f86bc0	7.763153
16	0x4125047e	10.313597
17	0x401dcbb9	2.4655592
18	0x4185c754	16.722328
19	0x40b0ec32	5.5288324
20	0x40cc53fa	6.385251
21	0x41a3ba0a	20.46584
22	0x41aab39e	21.337704
23	0x41a851c8	21.039932
24	0x41a62446	20.767712
25	0x420a0c65	34.512104
26	0x4183594e	16.418606
27	0x418f3164	17.899117
28	0x40ec6f40	7.3885803
29	0x4198a0e0	19.078552
30	0x40a7ee7a	5.247861
31	0x3fe8a2d2	1.8174689

weight f4 [32, 18]
0	0xbe04e564	-0.1297813
1	0xbe4035d9	-0.18770541
2	0xbdad7706	-0.084699675
3	0xbb205056	-0.0024461946
4	0xbd551fd4	-0.052032307
5	0xbe1fc34c	-0.15601844
6	0x3e499bcd	0.1968834
7	0x3e065bc0	0.13120937
8	0x3e6b1cc2	0.22960189
9	0xbdad38f0	-0.084581256
10	0xbe32a57c	-0.1744594
11	0xbd6e9c36	-0.058254443
12	0xbe51cb47	-0.204877
13	0x3d303a68	0.04302445
14	0xbe38d39a	-0.1804947
15	0x3dd63f51	0.104612954
16	0x3e152d5e	0.14568087
17	0x3e086747	0.13320647
18	0x3e72667b	0.23671906
19	0x3e6d62e0	0.23182249
20	0x3e04454e	0.12917063
21	0x3d88b8a8	0.066758454
22	0xbdb968a2	-0.0905316
23	0x3c29e259	0.010368907
24	0x3d3bc6fa	0.045844056
25	0x3ce7c089	0.02829005
26	0xbe109fd3	-0.14123468
27	0xbc398d72	-0.011325227
28	0xbe4d2415	-0.20033295
29	0xbde34d06	-0.110986754
30	0x3e544dfb	0.20732872
31	0xbdb85726	-0.09000997
32	0x3c85a585	0.016314277
33	0xbd9e418d	-0.077273466
34	0x3d429bac	0.04751174
35	0x3e056452	0.1302655
36	0xbe07a6a7	-0.13247167
37	0x3e1a5778	0.15072429
38	0x3e0f9892	0.14023045
39	0x3c31dda8	0.01085607
40	0xbe4b7791	-0.1986983
41	0x3e64c980	0.22342491
42	0xbcf42124	-0.029800959
43	0x3e4afe40	0.19823551
44	0xbd973454	-0.07383028
45	0x3e5b659d	0.21425481
46	0xbe591214	-0.21198303
47	0xbe322c2d	-0.17399664
48	0xbe7a269e	-0.24428794
49	0x3da9a7fc	0.082839936
50	0x3e05104e	0.12994501
51	0x3e6735ba	0.22579089
52	0x3c13efa0	0.009029299
53	0xbd38dced	-0.045132566
54	0xbe49a70f	-0.19692634
55	0x3ca28a0b	0.019841215
56	0xbe396953	-0.18106584
57	0x3e55e276	0.20887169
58	0xbe6d67c5	-0.23184116
59	0x3d4f0db9	0.050550196
60	0x3e2f12ae	0.1709697
61	0x3e6cd66e	0.23128673
62	0x3e0afae7	0.13572274
63	0xbe088794	-0.13332969
64	0x3e11dcb7	0.14244352
65	0xbdf6e321	-0.1205504
66	0x3c021802	0.007940294
67	0x3d936013	0.07196059
68	0x3e445f6f	0.1917703
69	0xbdf4ed72	-0.119593516
70	0x3e67e76f	0.22646879
71	0x3c88b7c5	0.01668919
72	0x3dc1c2eb	0.09461006
73	0xbe6eeaf4	-0.23331815
74	0xbc6718d6	-0.014105042
75	0xbda8d9fa	-0.08244701
76	0x3e50c50f	0.20387672
77	0xbe0700a6	-0.13183841
78	0x3e59569a	0.21224442
79	0x3e768b28	0.24076521
80	0x3d0e1640	0.034689188
81	0x3d05043e	0.03247475
82	0xbdebc3b8	-0.1151194
83	0x3e796137	0.24353491
84	0xbe2c2572	-0.16811159
85	0x3e3852a3	0.18000273
86	0x3d8a28fb	0.06746098
87	0xbdba8a96	-0.091084644
88	0xb934dbfe	-0.00017248091
89	0x3c84601c	0.01615911
90	0x3e51ce13	0.20488767
91	0x3e73c543	0.23805718
92	0xbdb8eb81	-0.09029294
93	0xbe0510fd	-0.12994762
94	0xbe1e128c	-0.15436763
95	0xbc8f8e7d	-0.017523998
96	0x3d3dbb2c	0.04632108
97	0xbe7ec745	-0.24880703
98	0xbc03e8d5	-0.008051117
99	0xbd6569b5	-0.056009013
100	0x3d5c13d7	0.05372986
101	0xbe03db4d	-0.12876625
102	0x3e3feeae	0.18743393
103	0x3e413eed	0.1887166
104	0xbdf3c366	-0.11902504
105	0xbd9bb9c5	-0.07603792
106	0xbe2afa99	-0.16697158
107	0xbdcd12a6	-0.100133225
108	0xbe13a3ce	-0.14417955
109	0x3e26f7ef	0.16305517
110	0xbe188431	-0.14894177
111	0xbda96682	-0.08271505
112	0x3e586900	0.21133804
113	0x3db36802	0.08760072
114	0x3dd5ea6d	0.10445104
115	0xb9681a84	-0.00022135122
116	0x3dde229e	0.108464465
117	0x3dc89bb6	0.097953245
118	0x3def0f10	0.11672795
119	0xbdf74524	-0.120737344
120	0x3cc9b1f4	0.024620987
121	0xbe147830	-0.14498973
122	0x3e2fd58f	0.1717131
123	0xbda693de	-0.08133672
124	0xbd617611	-0.055044238
125	0x3d94f8c5	0.072740115
126	0x3e1407e0	0.14456129
127	0xbcbea1c2	-0.023270492
128	0x3ded245a	0.11579199
129	0xbd18e112	-0.03732402
130	0x3dafb374	0.0857915
131	0x3e0ff21b	0.140572
132	0x3acd4f2d	0.0015663855
133	0x3e4df0c6	0.20111379
134	0x3e399438	0.18122947
135	0x3b02aaa4	0.0019938136
136	0xbd0c81e5	-0.034303565
137	0x3d6d35e2	0.057912715
138	0x3de20b41	0.11037303
139	0x3c98001f	0.018554745
140	0xbe6e8e99	-0.23296584
141	0xbdc18e04	-0.094509155
142	0x3d03a0a9	0.03213564
143	0xbdb8e2a1	-0.09027601
144	0x3d3bb7b7	0.0458295
145	0x3e12e221	0.14344074
146	0xbac363c8	-0.0014907056
147	0x3e32ef30	0.17474055
148	0x3e728710	0.23684335
149	0xbe0efd6e	-0.13963863
150	0xbd7e1c32	-0.062038608
151	0xba55774f	-0.00081430835
152	0xbd12be62	-0.035826094
153	0xbdc826e0	-0.0977304
154	0xbe059406	-0.13044748
155	0xbd95cbc3	-0.07314255
156	0xbdb9295c	-0.09041092
157	0xbdf2a08c	-0.11847028
158	0x3dedd41a	0.11612721
159	0xbd76f271	-0.060289804
160	0xbe0bc34b	-0.13648717
161	0xbe181197	-0.1485046
162	0xbe3c00c1	-0.18359663
163	0x3e63f255	0.22260411
164	0x3e510f3e	0.2041597
165	0xbdf44798	-0.11927718
166	0xbe5b88ec	-0.2143895
167	0x3e30af15	0.17254288
168	0xbdb55fd5	-0.08856169
169	0x3ca5a217	0.020218892
170	0xbdf79c24	-0.12090328
171	0x3df97b7c	0.12181756
172	0xbe1bab55	-0.15202077
173	0xbe4d3d37	-0.20042883
174	0xbe2d0666	-0.16896972
175	0xbc7804bb	-0.015137847
176	0xbe211e6c	-0.15734261
177	0xbe4a4c6b	-0.19755714
178	0x3d952db2	0.07284106
179	0xbda232a3	-0.079198144
180	0x3d6bfb70	0.057612836
181	0xbdf4933d	-0.11942146
182	0x3da5ac0e	0.080894575
183	0x3cfe38ca	0.031032939
184	0xbe753c58	-0.239488
185	0x3e0f765a	0.14009991
186	0xbe439fa5	-0.19103868
187	0xbe0c80dd	-0.13721032
188	0xbe6711ef	-0.22565435
189	0xbdb27468	-0.08713609
190	0x3d66cbce	0.056346707
191	0xbd0582a1	-0.03259528
192	0x3dc2b770	0.09507644
193	0x3d07066f	0.03296512
194	0x3d046131	0.03231925
195	0xbd31962c	-0.043356106
196	0x3c28a772	0.010293828
197	0xbe3b4112	-0.18286541
198	0xbc30d64f	-0.010793283
199	0x3e505c28	0.20347655
200	0xbdbb7018	-0.091522396
201	0x3e293a48	0.16526139
202	0x3d77d682	0.060507305
203	0x3d56cd2e	0.05244177
204	0x3da3bfc7	0.07995563
205	0x3e0d6e22	0.13811544
206	0xbce8b892	-0.028408322
207	0xbcf5544a	-0.029947419
208	0x3da33319	0.079687305
209	0x3da5549d	0.08072779
210	0x3dd30b85	0.103049316
211	0x3d5b9741	0.053611044
212	0xbe01206b	-0.12610023
213	0xbe2c7fd7	-0.16845642
214	0xbe57f8fe	-0.21091077
215	0x3e875fce	0.2644028
216	0xbdd24e0f	-0.10268795
217	0x3e4ddaaa	0.20102945
218	0x3e660871	0.22464158
219	0x3dbf0daf	0.09328782
220	0x3e5ed4de	0.2176089
221	0x3e0fffbb	0.14062397
222	0x3e80d546	0.25162715
223	0x3e4f01e1	0.2021556
224	0xbd828bb1	-0.063743
225	0x3d9b7e27	0.07592421
226	0x3e48774a	0.19576755
227	0x3e5bcebf	0.21465586
228	0x3df3140b	0.11869057
229	0xbe4be494	-0.19911414
230	0xbe13527e	-0.14386937
231	0xbd30d536	-0.043172084
232	0x3e1d83bc	0.15382284
233	0x3e655426	0.22395381
234	0x3de82640	0.113354206
235	0x3d9be604	0.076122314
236	0x3d58d98c	0.052941844
237	0xbe1a1ab8	-0.15049255
238	0xbbd72952	-0.006566205
239	0xbe76394d	-0.24045296
240	0xbe41311a	-0.18866387
241	0xbe03d9b6	-0.12876019
242	0xbd1d33a7	-0.038379338
243	0x3d8384fc	0.06421849
244	0x3dc5dba0	0.09661031
245	0x3e4ebe64	0.20189816
246	0xbdd86d9b	-0.105677806
247	0xbd9d4a2d	-0.076801635
248	0x3e4adf54	0.19811755
249	0xbe1256a3	-0.14290862
250	0x3e449802	0.19198611
251	0x3e39cced	0.18144579
252	0x3e0c2182	0.13684657
253	0x3c31d45d	0.010853854
254	0xbdf4d372	-0.119543925
255	0x3e2be096	0.16784891

bias f4 [32]
0	0x3dc3e296	0.09564702
1	0x3d87bbda	0.06627627
2	0xbc938d51	-0.01801172
3	0xbdcfcde3	-0.10146692
4	0xbdee878c	-0.11646947
5	0x3dcfa154	0.10138193
6	0x3e539d11	0.20665385
7	0xbe5f47c4	-0.2180472
8	0xbe5aca0c	-0.21366137
9	0x3d64135d	0.05568253
10	0x3c9e4d36	0.019323926
11	0xbdf048ef	-0.11732661
12	0x3e66a643	0.22524361
13	0x3dfc2f83	0.1231375
14	0x3e2baf4c	0.16766089
15	0xbe4cf36e	-0.20014736
16	0x3e63f0bb	0.222598
17	0xbc8d18c4	-0.017223723
18	0x3dbabc29	0.0911792
19	0xbe231f94	-0.15930015
20	0xbe033503	-0.12813191
21	0xbe3089c9	-0.17240061
22	0xbda84c2d	-0.082176544
23	0xbe4682b9	-0.19385804
24	0xbe511bb9	-0.20420732
25	0x3d011dbc	0.031522498
26	0x3db429fd	0.08797071
27	0x3d47cf76	0.048781835
28	0x3e039620	0.12850237
29	0xbd095e24	-0.033537045
30	0xbd59521e	-0.05305683
31	0x3da97ba8	0.08275539

weight f4 [2, 32]
0	0xbe5a777d	-0.21334644
1	0x3de99cfc	0.114068955
2	0xbe4ad1be	-0.19806573
3	0xbd4037ed	-0.046928335
4	0x3cc45814	0.02396778
5	0xbe1c3d02	-0.15257648
6	0xbe10e218	-0.14148748
7	0x3df3cd8d	0.1190444
8	0x3cc88b0f	0.02448037
9	0x3dd6e221	0.104923494
10	0x3da9673a	0.08271642
11	0xbcdcd03e	-0.026954766
12	0x3dfce6fe	0.12348746
13	0x3d126e8d	0.03574996
14	0x3e2b2571	0.16713502
15	0x3bc0263b	0.0058639324
16	0x3cc923de	0.024553236
17	0x3e2519e0	0.16123152
18	0x3e3a3a2a	0.1818625
19	0xbd512fdf	-0.051071044
20	0x3e19fa85	0.15036972
21	0xbd25846a	-0.040409483
22	0x3d95e213	0.07318511
23	0x394b2393	0.00019372841
24	0x3d6022d2	0.054720707
25	0xbdb9e616	-0.090770885
26	0xbe22c0f2	-0.15893915
27	0xbcd91dd4	-0.026503481
28	0xbe34b893	-0.17648534
29	0xbcd54090	-0.026031762
30	0xbd9bdc65	-0.07610396
31	0xbe1cfcd2	-0.15330818
32	0xbe1ca279	-0.15296353
33	0x3c85c594	0.016329564
34	0xbd9931f5	-0.07480232
35	0x3e2be6a3	0.167872
36	0x3cabba55	0.020962873
37	0x3d94d4b6	0.07267134
38	0xbd159faa	-0.03652922
39	0xbe0cf3fa	-0.13764945
40	0x3d44cfbd	0.048049677
41	0x3e0cce9e	0.13750693
42	0x3e4305a3	0.19045119
43	0xbc76e20b	-0.015068541
44	0x3e30420f	0.172127
45	0xbd1d521a	-0.038408376
46	0x3d4922cf	0.04910546
47	0xbdbc7093	-0.09201159
48	0x3d9d25ff	0.07673263
49	0xbd8dc118	-0.06921595
50	0xbdfe53db	-0.12418338
51	0xbde146b7	-0.10999816
52	0x3e2127f9	0.15737905
53	0x3e337ce2	0.17528108
54	0x3e2bf633	0.16793136
55	0x3e149455	0.14509709
56	0xbcdc391b	-0.026882699
57	0x3c249dc3	0.010047379
58	0x3de5af61	0.112150915
59	0xbe1d6a6a	-0.15372625
60	0xbd63cc6d	-0.055614877
61	0xbbfcf96b	-0.0077201626
62	0x3e1b9252	0.15192536
63	0x3d03824e	0.03210669

bias f4 [2]
0	0xbd796e31	-0.060896102
1	0xbd3f8251	-0.04675514

weight f4 [32]
0	0x3f83a286	1.0283973
1	0x3f867ae5	1.0506254
2	0x3f841a75	1.0320574
3	0x3f8057ac	1.0026755
4	0x3f801cbd	1.000877
5	0x3f808c61	1.004284
6	0x3f8133ce	1.0093935
7	0x3f78ce71	0.97190005
8	0x3f7fde54	0.9994862
9	0x3f7e7e06	0.99411047
10	0x3f83da31	1.0300962
11	0x3f7e05c4	0.9922755
12	0x3f7c7eb9	0.98630863
13	0x3f764f57	0.96214813
14	0x3f838fc6	1.0278251
15	0x3f80349a	1.0016053
16	0x3f816d9d	1.0111576
17	0x3f7b64db	0.9820077
18	0x3f813290	1.0093555
19	0x3f8201ae	1.0156763
20	0x3f82b71c	1.021213
21	0x3f847134	1.0347047
22	0x3f803f12	1.0019248
23	0x3f81a6ed	1.0129067
24	0x3f7fba45	0.998936
25	0x3f80000a	1.0000012
26	0x3f7f605e	0.9975642
27	0x3f801b28	1.0008287
28	0x3f839f01	1.0282899
29	0x3f7c5ecc	0.9858215
30	0x3f82b59d	1.0211674
31	0x3f828b1e	1.0198705

bias f4 [32]
0	0x3bb1c9d4	0.005425671
1	0x3da14199	0.0787384
2	0x3cc41951	0.023937853
3	0x3cd2e290	0.025742799
4	0xbc81a1d9	-0.015824245
5	0x3b9bbb64	0.0047525633
6	0xbbaaf59f	-0.0052172686
7	0xbb2a46c9	-0.0025982133
8	0xba439890	-0.0007461393
9	0x3b783a46	0.003787653
10	0x3cd7174b	0.026256224
11	0x3c8fc3a2	0.01754934
12	0xbccd9d8b	-0.025099536
13	0xbcbffae0	-0.023435056
14	0x3ccd979a	0.025096703
15	0xbd5d2859	-0.053993557
16	0xbd3b7947	-0.045769956
17	0x3d16e961	0.03684366
18	0x3cb21e20	0.02174288
19	0x3d1f2454	0.038853005
20	0x3d201200	0.039079666
21	0xbc07f049	-0.008297035
22	0xbc1d0521	-0.009583742
23	0x3c9d6176	0.019211512
24	0x3cd7e32e	0.026353445
25	0xbc022792	-0.007944005
26	0x3aec6422	0.0018035213
27	0xbca4913c	-0.020088784
28	0x3bd6ce7e	0.0065553775
29	0xbbf3969c	-0.0074337255
30	0x3d080293	0.03320558
31	0xbc88bdc9	-0.01669206

running_mean f4 [32]
0	0x3e815eb2	0.2526756
1	0xbda376be	-0.07981633
2	0x3e1786d5	0.14797528
3	0xbd29ef62	-0.04148806
4	0xbdc8a9dd	-0.09798024
5	0xbc776c48	-0.0151015
6	0x3ea64120	0.3247156
7	0xbeb182b8	-0.34670043
8	0xbe1148da	-0.14187947
9	0x3de42c09	0.111412115
10	0xbdf7fd44	-0.121088535
11	0xbe37a9b7	-0.17935835
12	0x3e23688b	0.15957849
13	0x3db11704	0.08646968
14	0x3e0cdf54	0.13757068
15	0xbe081fe1	-0.13293411
16	0x3e9b7ff2	0.30371052
17	0xbe5a2cda	-0.21306172
18	0x3ab12001	0.0013513566
19	0x3bb7d115	0.0056096413
20	0xbe4d1172	-0.20026186
21	0xbe1fa1dd	-0.1558909
22	0xbd66876a	-0.056281485
23	0xbd232e7b	-0.03983925
24	0xbeb118be	-0.3458919
25	0xba11b9fa	-0.00055590237
26	0x3e0b0dce	0.13579485
27	0x3d0f33ae	0.034961395
28	0x3e427902	0.18991473
29	0x3d80418f	0.06262504
30	0xbcc7d4ac	-0.024393402
31	0x3bb9f3b7	0.005674805

running_var f4 [32]
0	0x3cde18c6	0.027111422
1	0x3cb40382	0.021974329
2	0x3debacd3	0.11507573
3	0x3ded0308	0.11572844
4	0x3c6840c2	0.014175596
5	0x3d67f726	0.056632183
6	0x3c22561e	0.009908227
7	0x3d0d89fa	0.034555413
8	0x3d7f7072	0.062363096
9	0x3d7f421a	0.0623189
10	0x3bf4fd5b	0.0074764914
11	0x3cb36e49	0.021903174
12	0x3c74f61c	0.014951255
13	0x3d3c419d	0.04596101
14	0x3cb3d225	0.02195079
15	0x3cc2c220	0.023774207
16	0x3c81f1a0	0.015862286
17	0x3cbf5ab5	0.023358682
18	0x3cbb7a55	0.02288548
19	0x3d6a8c31	0.057262603
20	0x3cdf5c1a	0.027265597
21	0x3c91c178	0.017792448
22	0x3c9893d5	0.01862518
23	0x3df080a8	0.11743289
24	0x3ca95b6f	0.020673482
25	0x3de6bb61	0.112662084
26	0x3d686554	0.05673726
27	0x3d2fd7c3	0.042930376
28	0x3dfd9bc9	0.12383229
29	0x3cec646a	0.028856475
30	0x3d5b8e83	0.053602707
31	0x3d5693f9	0.05238721

weight f4 [32, 16]
0	0x3e3830b4	0.17987329
1	0x3e1690c6	0.14703664
2	0x3dfce710	0.12348759
3	0x3e0fabaf	0.14030336
4	0xbd5bc54b	-0.05365495
5	0xbd243d49	-0.04009751
6	0xbe4ca0e4	-0.1998325
7	0xbd44f674	-0.0480866
8	0x3e31eccb	0.17375486
9	0xbe284757	-0.16433464
10	0xbdb6880f	-0.0891267
11	0x3d4b0a98	0.04957065
12	0x3e16f113	0.147404
13	0x3e2215eb	0.15828674
14	0xbe12a2b5	-0.1431988
15	0x3b1f56cb	0.0024313207
16	0x3e2dae23	0.16960959
17	0x3cc0e267	0.023545457
18	0x3d28d379	0.0412173
19	0x3e71dbc8	0.23618996
20	0xbe0f7239	-0.14008416
21	0x3e792f7e	0.24334523
22	0xbe47be22	-0.19506124
23	0x3da573ba	0.08078714
24	0xbde6f2e8	-0.112767994
25	0xbdd9f9f1	-0.10643376
26	0xbdef931b	-0.1169798
27	0xbd1a3def	-0.03765672
28	0xbe4da6ba	-0.20083132
29	0xbe3ecaba	-0.18632022
30	0x3d8d9b20	0.06914353
31	0x3e2f3226	0.17108974
32	0xbe2ccd92	-0.16875294
33	0x3d5f6015	0.05453499
34	0xbe824a61	-0.25447372
35	0xbd74cf5b	-0.059768062
36	0xbe5a8201	-0.21338655
37	0xbe042066	-0.12902984
38	0x3d54eb5b	0.051982265
39	0x3e5ba682	0.21450236
40	0xbd974ed3	-0.073880814
41	0x3dd573ab	0.104224525
42	0x3dc2e8b2	0.09517039
43	0x3d0ad98b	0.03389887
44	0x3e36b79b	0.17843477
45	0xbdec3eff	-0.11535453
46	0xbdfbcffa	-0.12295528
47	0xbe8fd1f6	-0.28089875
48	0xbd6ee3c0	-0.058322668
49	0xbe4ff436	-0.20308003
50	0x3e26640c	0.16249102
51	0x3dd8b748	0.10581833
52	0xbdb83cb5	-0.08995954
53	0xbe5c7e7c	-0.21532625
54	0xbd11daf4	-0.0356092
55	0x3e83d7e5	0.25750652
56	0x3e29fc6f	0.16600202
57	0xbd385ed0	-0.045012295
58	0x3e3947c4	0.18093783
59	0xbdb2bfe4	-0.087280065
60	0x3d919e24	0.07110241
61	0xbe2a0e63	-0.1660705
62	0x3d889895	0.06669728
63	0xbd82b59c	-0.063822955
64	0xbd83b06c	-0.06430134
65	0x3d865205	0.06558613
66	0xbdda99eb	-0.10673889
67	0x3d0be0c4	0.0341499
68	0x3da73177	0.081637315
69	0xbd62f552	-0.055409737
70	0x3e0091f5	0.12555678
71	0xbe6c18d3	-0.23056345
72	0xbdeff913	-0.11717429
73	0x3d285914	0.041100577
74	0xbd767503	-0.060170185
75	0xbc9d6879	-0.019214856
76	0x3c9b3333	0.018945312
77	0xbb017e51	-0.0019759128
78	0x3dc16add	0.09444211
79	0xbe426a55	-0.18985875
80	0x3d37e671	0.0448975
81	0x3d595610	0.05306059
82	0xbe1fb56e	-0.15596554
83	0x3d8891b2	0.06668414
84	0x3dd7b04a	0.10531671
85	0x3d04da90	0.032435
86	0xbe70684b	-0.23477285
87	0xbe1a503e	-0.15069672
88	0x3ca10241	0.019654395
89	0x3e627bfa	0.22117606
90	0xbdc9d731	-0.09855498
91	0x3e3a2b8f	0.18180679
92	0x3de01c8c	0.10942945
93	0x3dbbb344	0.091650516
94	0x3e4bffc0	0.1992178
95	0x3ddb6fb3	0.10714664
96	0xbe801e77	-0.25023243
97	0x3ca8d67b	0.020610085
98	0x3d48ba30	0.049005687
99	0x3e3e708b	0.18597619
100	0x3e672ce3	0.22575717
101	0xbdc2ae26	-0.095058724
102	0xbc04e4b1	-0.008111165
103	0x3e8456b8	0.2584741
104	0x3d35fcdb	0.044430595
105	0xbd17558c	-0.03694682
106	0xbd473afa	-0.04864023
107	0xbdc50e57	-0.09621876
108	0x3e0a7f5e	0.13525149
109	0xbe5ee1b8	-0.21765792
110	0xbced19b2	-0.028942917
111	0x3dee55ef	0.11637484
112	0xbda686a4	-0.081311494
113	0x3e851e67	0.25999758
114	0xbd5e459f	-0.054265615
115	0xbe615ff9	-0.22009267
116	0x3db1345f	0.08652567
117	0x3d0592e4	0.03261079
118	0xbcfe0e43	-0.03101266
119	0xb9cb82a8	-0.00038816524
120	0xbe5bb25c	-0.21454757
121	0xbdcf1611	-0.10111631
122	0xbd60ecac	-0.054913208
123	0x3d0ec15e	0.034852378
124	0xbe50ca4a	-0.20389667
125	0x3e70c292	0.23511723
126	0x3de370d5	0.111055054
127	0x3bcb639d	0.006206943
128	0xbe538b3c	-0.20658582
129	0x3e0ad762	0.13558725
130	0xbe4d8e28	-0.2007376
131	0xbe513afa	-0.20432654
132	0xbd965773	-0.07340898
133	0xbe46b688	-0.19405568
134	0xbd2de5b2	-0.042455383
135	0x3e5e933c	0.21735853
136	0xbe493d43	-0.19652276
137	0xbdcb49cc	-0.09926185
138	0x3cd8c564	0.02646131
139	0xbe38cd1c	-0.18046993
140	0xbce56919	-0.028004216
141	0x3dddbf24	0.10827473
142	0xbd43f456	-0.04784044
143	0xbe05e33c	-0.13074964
144	0x3cc4668f	0.023974685
145	0x3e47bc47	0.19505416
146	0x3e599215	0.21247132
147	0x3e2b05fb	0.167015
148	0xbde2e465	-0.11078719
149	0x3de7f4c8	0.11325985
150	0xbe20f34e	-0.15717813
151	0xbd99778a	-0.074935034
152	0x3b4c516b	0.0031176459
153	0xbd32e18b	-0.043672126
154	0x3e7f3065	0.24920805
155	0xbc228db0	-0.009921476
156	0x3d7c2e47	0.06156757
157	0x3b3e9893	0.002908264
158	0x3e48f641	0.19625188
159	0x3c5a1c50	0.013312414
160	0xbc3901c1	-0.011291922
161	0xbb376c2a	-0.0027988055
162	0xbe0a8165	-0.13525923
163	0xbe0dfe6e	-0.13866588
164	0x3e5ae160	0.21375036
165	0xbdb73d99	-0.08947296
166	0xbde08839	-0.109634824
167	0xbddfae79	-0.1092195
168	0x3d982739	0.07429356
169	0x3cb2a665	0.021807859
170	0x3d3d74c9	0.046253953
171	0xbe292328	-0.16517317
172	0x3e18be6f	0.14916395
173	0xbd0a6d93	-0.033795904
174	0xbdcf72c0	-0.10129309
175	0xbe4d5c4a	-0.20054737
176	0xbdce58f9	-0.10075564
177	0xbe563048	-0.20916855
178	0x3e54869e	0.20754477
179	0xbd898b9e	-0.06716083
180	0xbb10d1f2	-0.0022097793
181	0x3d8f9250	0.07010329
182	0xbe00a99a	-0.12564698
183	0xbddf4475	-0.10901729
184	0x3e6a7f0f	0.22900032
185	0xbe4f74ac	-0.2025935
186	0xbb06a5c1	-0.0020545574
187	0xbe0cc9df	-0.13748883
188	0x3e62c1e8	0.22144282
189	0xbe0c3896	-0.13693461
190	0xbe784653	-0.24245577
191	0x3e117b59	0.1420721
192	0xbe3214c2	-0.17390731
193	0xbcf1d80b	-0.029521963
194	0x3dce70ea	0.100801304
195	0x3e7c877f	0.24661063
196	0x3e42297f	0.18961142
197	0x3db5b51c	0.088724345
198	0xbe6f027c	-0.23340791
199	0x3e6c3351	0.2306645
200	0xbe39afb4	-0.18133432
201	0x3da80604	0.082042724
202	0x3d699fc0	0.057037115
203	0x3cb7c3a5	0.022432158
204	0x3e325701	0.17416002
205	0xbe02a1e7	-0.12757073
206	0x3e4196ff	0.18905257
207	0x3e2821d4	0.16419154
208	0xbda4741e	-0.0802996
209	0xbe80cbf7	-0.25155613
210	0x3d3d5eb7	0.046232905
211	0x3e90782e	0.2821669
212	0x3e046d59	0.12932338
213	0x3e038d07	0.12846766
214	0xbe70c444	-0.2351237
215	0xbe740dca	-0.23833385
216	0x3e66a0d4	0.22522289
217	0x3c0bccff	0.008532762
218	0x3d46d9e8	0.048547655
219	0x3da111d6	0.0786473
220	0x3e281a32	0.16416243
221	0xbd0d3121	-0.03447068
222	0x3d9b2d35	0.07576982
223	0x3e1cdf59	0.15319575
224	0x3e2625fa	0.16225424
225	0x3e2b99cf	0.16757892
226	0x3d6b1129	0.057389412
227	0x3cde4d8c	0.027136587
228	0x3d2ba4e8	0.041905314
229	0xbd89d33a	-0.067297414
230	0x3d4e94b9	0.0504348
231	0xbe639695	-0.22225411
232	0xbcacbda1	-0.021086516
233	0x3ca2f958	0.019894287
234	0x3e19e92c	0.15030354
235	0x3e3f214d	0.18665047
236	0xbe20ed94	-0.15715629
237	0x3cd3e64c	0.02586665
238	0x3bbc334d	0.00574342
239	0xbd7a5a00	-0.061120987
240	0x3e03fdc8	0.12889779
241	0x3da98f4e	0.08279286
242	0xbe09ade3	-0.13445239
243	0xbdf54dde	-0.119777426
244	0xbac79cac	-0.0015229187
245	0xbe6dbe30	-0.23217082
246	0x3e17d654	0.14827853
247	0x3db5ca2c	0.08876452
248	0xbdd1aa2c	-0.10237536
249	0xbe402224	-0.18763024
250	0x3ce0be1d	0.027434403
251	0x3e5dc30b	0.21656434
252	0xbe27508c	-0.1633932
253	0x3d88eefe	0.06686209
254	0x3d89c16a	0.06726344
255	0xbe2f930f	-0.17145942

bias f4 [32]
0	0x3e7e8efe	0.24859235
1	0x3e4cd4cb	0.20003049
2	0x3d087672	0.033316083
3	0x3e640bdf	0.22270153
4	0x3e66101a	0.2246708
5	0xbe52dbe5	-0.20591696
6	0xbdf06518	-0.11738032
7	0xbc12fc61	-0.008971305
8	0x3e5b18ae	0.21396133
9	0x3d9fca17	0.078022175
10	0x3de6062a	0.112316445
11	0x3e1c7787	0.15279971
12	0x3e6cb4f2	0.231159
13	0x3e44f592	0.19234303
14	0xbc8dc38b	-0.017305156
15	0x3dcd5c8d	0.10027418
16	0x3d6fedcc	0.05857639
17	0x3e111328	0.14167464
18	0xbdf438bb	-0.11924883
19	0xbe2d5fb3	-0.16931038
20	0x3d80c863	0.06288221
21	0x3e5e6aac	0.2172038
22	0x3dcbfe87	0.099606566
23	0xbe6adf33	-0.22936706
24	0x3dd5df03	0.10442927
25	0xbe266ec6	-0.16253194
26	0xbdc5f8cf	-0.09666597
27	0x3de4810f	0.111574285
28	0x3e0b5823	0.1360784
29	0xbd8762ff	-0.06610679
30	0xbe0aa984	-0.13541228
31	0x3d8c1d71	0.06841553

weight f4 [2, 32]
0	0xbd698d2c	-0.057019398
1	0xbd30a013	-0.04312141
2	0xbd631873	-0.05544324
3	0x3d9e0af8	0.07716936
4	0xbdde1978	-0.108447015
5	0xbe11da91	-0.14243533
6	0x3e078e20	0.1323781
7	0x3de744da	0.11292429
8	0xbe1895c1	-0.14900877
9	0x3de30680	0.11085224
10	0xbb6a1f16	-0.0035724095
11	0xbe497914	-0.19675094
12	0x3db078e2	0.086168066
13	0x3da0c22b	0.078495346
14	0xbe267f7f	-0.16259573
15	0xbe0fb460	-0.14033651
16	0x3d9c06f2	0.07618512
17	0xbe1f76d4	-0.15572673
18	0x3de1ab4f	0.11019003
19	0xbcf03518	-0.029322192
20	0xbdaa46f7	-0.08314317
21	0x3dff6493	0.12470355
22	0xbe13675c	-0.14394897
23	0x3c98abf9	0.01863669
24	0x3b7c2428	0.00384737
25	0xba72109d	-0.0009234043
26	0x3ba8a0b4	0.0051461104
27	0xbe0475fd	-0.12935634
28	0xbce6e5b5	-0.028185705
29	0xbdbabb0e	-0.09117709
30	0x3dab4825	0.0836337
31	0xbdef8907	-0.11696058
32	0x3d8adb3f	0.06780099
33	0x3e66cd11	0.22539164
34	0x3da8ea8a	0.0824786
35	0xbc93ba41	-0.018033149
36	0x3d896c93	0.06710162
37	0xbdc27bef	-0.09496295
38	0x3cf2b15a	0.029625583
39	0x3d560934	0.05225487
40	0xbe27053d	-0.16310592
41	0xbe1feff0	-0.15618873
42	0xbc1366f3	-0.008996713
43	0xbddf2ecf	-0.108976
44	0xbdcb2284	-0.09918693
45	0xbcce3fcb	-0.025176903
46	0xbe161265	-0.14655454
47	0xbd145143	-0.03621031
48	0x3d88d57c	0.06681344
49	0x3d6c47bf	0.05768561
50	0x3d5d1388	0.053973705
51	0x3dfb24b7	0.12262862
52	0xbca6f636	-0.020381074
53	0xbc4ecb56	-0.012621721
54	0x3e148d2d	0.1450698
55	0xbcfd2deb	-0.030905684
56	0x3ab9888e	0.0014155076
57	0x3cee7089	0.029106395
58	0xbcc3581b	-0.023845723
59	0x3ad693de	0.0016370972
60	0x3cf1120a	0.029427547
61	0x3e0b6a0c	0.13614672
62	0x3d411fd2	0.047149487
63	0x3d61322d	0.054979492

bias f4 [2]
0	0x3d990d22	0.07473208
1	0xbb9137c9	-0.004431699

weight f4 [32]
0	0x3f814f7c	1.0102382
1	0x3f87a70d	1.0597855
2	0x3f7c765c	0.986181
3	0x3f81de7d	1.0146023
4	0x3f81a1a6	1.0127456
5	0x3f7df31b	0.99199075
6	0x3f7fbb02	0.99894726
7	0x3f7fadd1	0.998746
8	0x3f7fdf17	0.99949783
9	0x3f7ae968	0.980124
10	0x3f78fa16	0.972566
11	0x3f83d3c8	1.0299006
12	0x3f7ae5b8	0.98006773
13	0x3f7ba8ce	0.9830445
14	0x3f7ff2cc	0.99979854
15	0x3f7d14d0	0.9885988
16	0x3f7c4188	0.9853749
17	0x3f80e2a0	1.006916
18	0x3f7f5c1b	0.99749917
19	0x3f7c77e9	0.9862047
20	0x3f8019a4	1.0007825
21	0x3f7f8e5d	0.99826604
22	0x3f7dc577	0.9912943
23	0x3f7eb645	0.9949687
24	0x3f78a121	0.97120863
25	0x3f7c408f	0.9853601
26	0x3f7e2c08	0.99285936
27	0x3f7fccbe	0.99921787
28	0x3f79cf03	0.975815
29	0x3f81638c	1.0108504
30	0x3f7cfc7b	0.98822755
31	0x3f805242	1.0025103

bias f4 [32]
0	0xbc5e58db	-0.0135709895
1	0xbd502cc3	-0.050823938
2	0xbcaab8bf	-0.020840047
3	0x3b607358	0.0034248438
4	0x3c922e73	0.017844414
5	0xbabc6c8f	-0.0014375615
6	0x3c9473a6	0.018121552
7	0xb98f2542	-0.00027302845
8	0xbc83fba5	-0.016111204
9	0xbd1eb59f	-0.038747426
10	0xbc3439c5	-0.011000101
11	0x3ca907eb	0.020633658
12	0xbc592bce	-0.013255073
13	0xbcb377cc	-0.02190771
14	0x3c4bb7ad	0.012433928
15	0xbc1c074d	-0.009523225
16	0xbc9de16c	-0.019272529
17	0x3c9635dc	0.018336229
18	0xba5efff1	-0.0008506766
19	0xbd54c51d	-0.051945794
20	0x3c228e57	0.009921632
21	0xb92dd8a2	-0.00016579268
22	0xbcb622fc	-0.022233479
23	0x3c2a093d	0.010378179
24	0xbbd6ab37	-0.006551172
25	0xbc915da5	-0.017744849
26	0x3b62a412	0.0034582657
27	0x3bfe0de5	0.007753121
28	0xbcdccf96	-0.026954453
29	0x3cf0e1ae	0.029404487
30	0xbcc52594	-0.02406577
31	0xbbe11834	-0.0068693403
