code/model_obj_backups/model_obj_48.pt (torch, 540834 bytes, 158 tensors)

weight f4 [32, 2]
0	0x3d1ee8cb	0.038796227
1	0x3ec3cba7	0.38241312
2	0xbea55e7f	-0.32298657
3	0x3e61913c	0.22028059
4	0xbf2368ee	-0.63831985
5	0x3f20fcc6	0.628857
6	0xbe829227	-0.2550213
7	0x3e3c8202	0.18408969
8	0x3f1a57bd	0.6029013
9	0xbe8ef424	-0.2792064
10	0xbe9e2275	-0.30885664
11	0xbf354507	-0.7080845
12	0x3e7696d8	0.2408098
13	0xbe5257f2	-0.20541361
14	0x3ed7744a	0.4208091
15	0x3f2b2db0	0.6686659
16	0x3ea1826a	0.3154481
17	0xbd5813a9	-0.052753124
18	0xbe9440c1	-0.28955653
19	0x3f014e90	0.505105
20	0x3eac2ee1	0.33629516
21	0xbe10d45d	-0.1414351
22	0xbdcb5de7	-0.0993002
23	0xbeaac1f7	-0.33351108
24	0xbe00b1a2	-0.12567762
25	0x3e7852e1	0.24250366
26	0x3ed7a165	0.42115322
27	0x3f3563ea	0.7085558
28	0x3ea04316	0.31301183
29	0x3ecdb06c	0.40173662
30	0xbec6ea18	-0.38850474
31	0xbda1bb21	-0.0789702
32	0x3e36e1e8	0.17859614
33	0x3e9a1a92	0.30098397
34	0x3f2b0247	0.6680035
35	0x3f1d89af	0.61538213
36	0xbea3723c	-0.3192309
37	0xbf234cbc	-0.6378896
38	0x3e2492f9	0.1607169
39	0xbec2dc5f	-0.38058755
40	0x3f0386ea	0.5137774
41	0xbf1189da	-0.5685097
42	0xbcbab6d6	-0.022792261
43	0x3da7d984	0.08195785
44	0xbef51f82	-0.478756
45	0xbf0e671a	-0.5562607
46	0xbf08770a	-0.5330664
47	0x3e96796e	0.29389518
48	0x3f0c745b	0.54865044
49	0xbea2aa33	-0.31770477
50	0x3f081009	0.5314947
51	0x3e66d389	0.22541632
52	0x3e7017bd	0.23446555
53	0xbf19876a	-0.5997225
54	0x3f2d5a3b	0.67715806
55	0xbf1dd30a	-0.61650145
56	0x3e71773b	0.23580639
57	0x3ec84775	0.39117017
58	0x3f1abb8d	0.6044243
59	0x3ec04ef2	0.3756023
60	0x3f2828b1	0.6568709
61	0xbdf656d1	-0.12028278
62	0xbbeae55e	-0.007168456
63	0xbe66f84d	-0.22555657

bias f4 [32]
0	0x3e249de4	0.16075855
1	0xbe6b1e9b	-0.22960894
2	0xbf1de1e7	-0.61672825
3	0xbeda5177	-0.42640278
4	0xbf013942	-0.50477993
5	0xbe5c089b	-0.21487658
6	0xbe9a9f17	-0.301995
7	0x3e9cb19c	0.30604255
8	0xbf2580ca	-0.6464964
9	0xbe245d90	-0.16051316
10	0xbdbdc981	-0.092669494
11	0xbf1d572c	-0.6146114
12	0x3ee9d50a	0.45670348
13	0x3f13a328	0.5767083
14	0xbc8dc4bd	-0.017305726
15	0xbd5489b4	-0.051889136
16	0x3eb26d4a	0.34849006
17	0xbed2d18e	-0.41175503
18	0xbdbd3435	-0.09238473
19	0x3ee82c75	0.45346418
20	0x3dc78473	0.097420596
21	0xbeb10fb1	-0.34582284
22	0x3eee5996	0.46552724
23	0xbf16ad2e	-0.58858
24	0x3eb0bab8	0.34517455
25	0x3f2d9cf8	0.6781764
26	0xbedfd237	-0.4371507
27	0xbe963c35	-0.2934281
28	0x3f122ca0	0.5709934
29	0x3f1cd53c	0.6126287
30	0xbb9db2de	-0.0048125824
31	0xbf0538aa	-0.5203959

weight f4 [16, 32]
0	0xbdbec10b	-0.09314164
1	0x3ddda2f5	0.10822097
2	0x3b622319	0.0034505783
3	0x3db5ac6e	0.08870779
4	0x3dc87a0d	0.09788904
5	0x3d24317f	0.040086266
6	0x3c2aa540	0.010415375
7	0xbd1c6ac5	-0.03818776
8	0x3de754a8	0.11295444
9	0x3d615c60	0.055019736
10	0xbe1660da	-0.14685383
11	0x3df92aa4	0.12166336
12	0x3dbaa0e6	0.0911272
13	0xbe28e132	-0.16492155
14	0xbe33435f	-0.17506169
15	0xbd9a8cbd	-0.07546375
16	0xbca5a7ef	-0.020221679
17	0xbce2bb6b	-0.027677258
18	0x3d6f2658	0.058386177
19	0xbe0a5ad7	-0.13511215
20	0xbe0f0077	-0.13965021
21	0xbc006ef7	-0.007838956
22	0xb9d49d49	-0.00040552978
23	0x3d85fff6	0.06542961
24	0xbd99b3b9	-0.075049825
25	0xbe329af6	-0.17441925
26	0xbd960854	-0.07325807
27	0x3c43b10a	0.011944065
28	0x3da72328	0.081610024
29	0x3d990531	0.07471693
30	0x3daee6f3	0.08540144
31	0xbdaa5470	-0.083168864
32	0x3d8a695b	0.06758376
33	0x3e3885c1	0.18019773
34	0x3d0a9e43	0.033842336
35	0xbda93034	-0.08261147
36	0xbd6e22f1	-0.05813879
37	0x3dbf7af8	0.09349626
38	0xbd7b1841	-0.061302427
39	0xbe0600f3	-0.130863
40	0xbd4d14dc	-0.05006872
41	0xbdcbca1a	-0.09950657
42	0xbd59ffe0	-0.053222537
43	0xbe098df2	-0.13433054
44	0x3d8cba6e	0.06871496
45	0xbd5e90bd	-0.054337252
46	0xbd8755f4	-0.06608191
47	0x3e0f90c6	0.1402007
48	0xbe33f45f	-0.17573689
49	0x3dd3251d	0.10309813
50	0xbe100b5a	-0.1406683
51	0xbe0ff5f1	-0.14058663
52	0xbd3d8efe	-0.046278946
53	0xbc725b44	-0.014792267
54	0x3d7c2b8e	0.061564974
55	0x3dbe1b3d	0.09282539
56	0x3d0e8ada	0.034800388
57	0xbe07af45	-0.13250454
58	0x3e110245	0.14161022
59	0xbe2917c3	-0.1651297
60	0xbd7558de	-0.059899203
61	0xbe05f20c	-0.13080615
62	0xbdd85d76	-0.10564701
63	0x3dfc490e	0.123186216
64	0xbda6a467	-0.08136826
65	0xbca04fc2	-0.019569281
66	0x3e1f7051	0.15570189
67	0x3ca663ca	0.020311255
68	0xbe1ec5e5	-0.15505178
69	0x3beeb9f1	0.0072853495
70	0xbd862911	-0.065508015
71	0xbd36a7f0	-0.04459375
72	0x3e3cb2af	0.18427537
73	0x3c9fb670	0.019496173
74	0xbd300358	-0.04297194
75	0xbd99c495	-0.07508198
76	0xbe194271	-0.14966752
77	0xbe0e69cf	-0.1390755
78	0xbc5ebe10	-0.013595119
79	0x3e049998	0.12949216
80	0x3db308a0	0.087418795
81	0x3c0c13c2	0.0085496325
82	0x3cc736f6	0.0243182
83	0xbd436cf6	-0.047711335
84	0xbd921728	-0.07133323
85	0x3dfb97ed	0.12284837
86	0x3c869bbe	0.016431686
87	0xbc4d201e	-0.012519864
88	0x3c11ab6c	0.008890968
89	0x3d03c55d	0.032170642
90	0x3e2729fe	0.16324612
91	0x3e2f9a1a	0.17148629
92	0x3e219975	0.15781195
93	0x3ca30499	0.019899653
94	0x3dc7a0f8	0.09747499
95	0x3e086623	0.13320212
96	0xbd51bc1b	-0.051204782
97	0x3dfa8b8b	0.12233647
98	0xbdb19bb4	-0.08672276
99	0x3dc57213	0.096408986
100	0x3b95954f	0.004564918
101	0x3dcbbcc8	0.099481165
102	0xbd473ef0	-0.048644006
103	0xbde59e5e	-0.11211847
104	0xbe1eba26	-0.15500697
105	0xbce916a5	-0.02845318
106	0x3d4b359a	0.049611665
107	0xbd9a1bad	-0.0752481
108	0x3de6dc55	0.11272494
109	0x3d3f2133	0.04666252
110	0xbde1e46c	-0.11029896
111	0x3dc0daa5	0.09416703
112	0x3d8bc5ad	0.06824813
113	0x3e215426	0.15754756
114	0x3db4a3a5	0.08820275
115	0xbd25a69a	-0.040442087
116	0x3d8cfc81	0.06884099
117	0xbccc4d11	-0.024939092
118	0xbcac221b	-0.021012357
119	0x3e2e5e30	0.17028117
120	0xbe0d8186	-0.1381894
121	0x3cbfb0c7	0.023399724
122	0xbc9dd4fd	-0.0192666
123	0xbd8bcbae	-0.06825958
124	0xbe2dac74	-0.16960317
125	0xbd16e51a	-0.036839582
126	0x3d8edffc	0.069763154
127	0x3d71b8ea	0.05901424
128	0xbe03d9b7	-0.1287602
129	0x3e0a2111	0.13489176
130	0x3caef1fb	0.02135562
131	0x3cad6a6b	0.021168908
132	0x3cb35364	0.02189035
133	0xbd69e88e	-0.057106547
134	0x3cfe84d5	0.031069199
135	0xbd926477	-0.071480684
136	0xbd55e1c7	-0.05221727
137	0xbcbf12ea	-0.023324449
138	0x3d22b7dc	0.039726123
139	0x3c5ad596	0.013356587
140	0xbd8c4c0f	-0.068504445
141	0xbe213f35	-0.15746768
142	0x3d3bdf30	0.045867145
143	0x3dc2f494	0.09519306
144	0x3e0d8325	0.13819559
145	0xbdd96aa5	-0.10616044
146	0x3d9df624	0.07712963
147	0x3dba8268	0.09106904
148	0xbd80a7b2	-0.06281985
149	0x3dac8166	0.08423118
150	0xbd8d4783	-0.068984054
151	0x3d04da19	0.032434557
152	0x3e0fa1dd	0.1402659
153	0x3d4bfcf8	0.049801797
154	0xbe0b5bfa	-0.13609305
155	0x3d279382	0.04091216
156	0xbe179f49	-0.14806856
157	0xbd72e14b	-0.059296887
158	0xbe1b4d9e	-0.15166327
159	0x3df1c0ea	0.118043736
160	0x3de34b54	0.11098352
161	0x3e2584dd	0.16163965
162	0xbdd613c2	-0.10452987
163	0xbe118483	-0.14210705
164	0xbe2c1558	-0.16805017
165	0xbd841e45	-0.06451086
166	0xbdeadab8	-0.114674985
167	0x3e03030a	0.12794128
168	0x3e1f612d	0.15564413
169	0xbcff596b	-0.031170567
170	0xbdc4fe95	-0.0961887
171	0x3e2ea47a	0.1705493
172	0x3dc43aad	0.09581504
173	0x3d8e0418	0.069343746
174	0xbb594785	-0.0033154201
175	0x3df7dcd6	0.12102668
176	0xbe2b0751	-0.1670201
177	0x3b001435	0.0019543294
178	0x3d5fc18f	0.05462795
179	0x3d828479	0.063729234
180	0xbd22e527	-0.039769318
181	0xbdc1ba56	-0.09459369
182	0x3dc71922	0.097215906
183	0xbd8fbd38	-0.070185125
184	0x3e22bcfe	0.15892407
185	0xbda8e900	-0.08247566
186	0x3e213e86	0.15746507
187	0xbdfa46e9	-0.12220556
188	0xbdb3de08	-0.087825835
189	0x3e07c69c	0.13259357
190	0x3dc639bf	0.09678983
191	0x3c7ee2c0	0.015556991
192	0x3e25e451	0.16200377
193	0x3ddba7e8	0.10725385
194	0x3ddea799	0.108718105
195	0xbdeb2197	-0.11481016
196	0xbdef1215	-0.11673371
197	0xbd57ff95	-0.052733976
198	0x3e1c6d70	0.15276122
199	0xbdffe4e8	-0.12494832
200	0xbd149acf	-0.03628045
201	0xbd11c32e	-0.03558653
202	0x3e2a661f	0.16640519
203	0x3e0c8ed4	0.1372636
204	0xbe007bab	-0.12547176
205	0x3db70076	0.08935635
206	0x3e13f225	0.1444784
207	0xbd4da88d	-0.05020957
208	0x3c0178d9	0.0079023475
209	0xbe02aae2	-0.12760499
210	0x3e30ed55	0.17278035
211	0x3dc8c75f	0.09803652
212	0x3d864a25	0.06557111
213	0xbd433e35	-0.047666747
214	0x3e18c7bd	0.14919944
215	0x3d07843d	0.033085097
216	0x3d73994d	0.05947237
217	0xbd0370c6	-0.03208997
218	0x3b36aee4	0.002787524
219	0xbdd27e01	-0.102779396
220	0xbdea8989	-0.11452014
221	0xbb1c5714	-0.0023855614
222	0xbd5c15b9	-0.053731654
223	0xbde3c901	-0.11122323
224	0xbdbdebbf	-0.092734806
225	0x3e3499a5	0.17636736
226	0x3ddfe4ca	0.1093231
227	0xbbcf4002	-0.006324769
228	0x3d752a5e	0.059854858
229	0x3dba2d87	0.09090715
230	0x3de69e3e	0.11260651
231	0x3e01bada	0.12668934
232	0xbd9df8ff	-0.07713508
233	0x3b76db24	0.003766724
234	0x3e0ede2b	0.13951938
235	0x3c2cb100	0.010540247
236	0x3e1a115d	0.15045686
237	0xbe2aaafb	-0.16666786
238	0x3e219ca7	0.15782414
239	0x3df1b4fa	0.11802097
240	0xbbb42a6d	-0.0054982216
241	0x3d468f9f	0.04847681
242	0x3ddf9388	0.10916811
243	0xbd23cc45	-0.03998973
244	0xbd5c5e18	-0.053800672
245	0x3e1ad6fd	0.15121074
246	0xbde7edeb	-0.11324676
247	0x3c3308ed	0.010927421
248	0xbdb2ce51	-0.08730758
249	0xbc86d9fb	-0.016461363
250	0x3db7e14b	0.08978518
251	0x3e2678b6	0.16256985
252	0xbdfe1f4c	-0.12408313
253	0x3c2a8382	0.0104073305
254	0xbe1baf3d	-0.15203567
255	0x3e2fefee	0.1718137

bias f4 [16]
0	0x3ca52aa7	0.02016194
1	0xbe0b9bdf	-0.13633679
2	0xbd874f4f	-0.06606924
3	0xbd9269f5	-0.07149116
4	0x3c01563a	0.007894093
5	0xbe383bc5	-0.1799155
6	0x3e1a84a4	0.15089661
7	0xbe20c341	-0.15699483
8	0xbd889783	-0.066695236
9	0x3cf209af	0.029545633
10	0x3d00b5f2	0.031423517
11	0xbb336f74	-0.0027379664
12	0x3de90113	0.11377158
13	0x3b010e11	0.0019692222
14	0x3e0797a6	0.13241443
15	0x3da98321	0.08276964

weight f4 [32]
0	0x3f7df996	0.9920896
1	0x3f80d65e	1.006542
2	0x3f805295	1.0025202
3	0x3f7e4e60	0.9933834
4	0x3f80e828	1.0070848
5	0x3f7efc78	0.99603987
6	0x3f8106d5	1.008021
7	0x3f7ebd8d	0.9950798
8	0x3f7f126f	0.996375
9	0x3f7fa75b	0.9986474
10	0x3f80f09c	1.0073428
11	0x3f80c783	1.0060886
12	0x3f7e7c8c	0.99408793
13	0x3f80246e	1.0011117
14	0x3f7f3872	0.99695504
15	0x3f7e9eba	0.9946095
16	0x3f810ce3	1.0082058
17	0x3f8084bd	1.0040509
18	0x3f7f4d3e	0.9972724
19	0x3f7db878	0.991096
20	0x3f80b312	1.0054648
21	0x3f7e0958	0.9923301
22	0x3f814afc	1.0101008
23	0x3f7f2cf0	0.99677944
24	0x3f7df3d4	0.9920018
25	0x3f80eedf	1.0072898
26	0x3f80d5a5	1.0065199
27	0x3f7f43ed	0.9971302
28	0x3f7ef95e	0.99599254
29	0x3f7f1163	0.99635905
30	0x3f805f94	1.0029168
31	0x3f8053a5	1.0025526

bias f4 [32]
0	0xbc005863	-0.007833573
1	0x3bd65a68	0.006541539
2	0x3b24f3c0	0.00251697
3	0xbbd8d9aa	-0.0066177445
4	0x3be8301a	0.0070858123
5	0xbb825cca	-0.0039783465
6	0x3c0387d7	0.008027992
7	0xbba13679	-0.0049198237
8	0xbb5fae06	-0.0034130826
9	0xbbaf9858	-0.005358737
10	0x3bf0893f	0.0073405798
11	0x3bc7788c	0.0060873684
12	0xbbc1f029	-0.005918522
13	0x3a915bdc	0.0011089998
14	0xbb47c872	-0.0030484465
15	0xbbb0ab6c	-0.005391529
16	0x3c06a824	0.008218799
17	0x3b84c062	0.004051254
18	0xbb2a1916	-0.0025954894
19	0xbc121e50	-0.00891836
20	0x3bb31ca7	0.005466062
21	0xbbf95394	-0.0076088402
22	0x3c2586ea	0.010102967
23	0xbb526abe	-0.003210708
24	0xbc03235c	-0.008004036
25	0x3beee8f4	0.007290954
26	0x3bd59e27	0.0065190974
27	0xbb3bf063	-0.0028677217
28	0xbb83be43	-0.0040204837
29	0xbb6eca34	-0.003643644
30	0x3b3f27b8	0.0029167961
31	0xbbed3dcc	-0.007240033

running_mean f4 [32]
0	0x3e5e5f8f	0.2171614
1	0xbe1687fa	-0.14700308
2	0xbed81b45	-0.42208305
3	0xbeb81474	-0.35953104
4	0xbf23378a	-0.6375662
5	0xbe91e086	-0.2849161
6	0xbebd931f	-0.37026307
7	0x3eb4f637	0.35344097
8	0xbf3369c2	-0.7008325
9	0xbd15bb98	-0.036555856
10	0xbe285cce	-0.16441652
11	0xbf278044	-0.6543009
12	0x3f03a7d8	0.51427984
13	0x3f216a63	0.6305296
14	0x3b1fb0c0	0.0024366826
15	0xbc08491a	-0.00831821
16	0x3ebe2772	0.3713947
17	0xbed157e2	-0.40887362
18	0xbe191ef3	-0.14953212
19	0x3ebc9f64	0.36840355
20	0xbd8e0d41	-0.06936122
21	0xbea88f90	-0.3292203
22	0x3ee3b929	0.44477203
23	0xbeed55d3	-0.4635454
24	0x3e5b274f	0.21401714
25	0x3f233a69	0.63761
26	0xbf1186a8	-0.56846094
27	0xbefbc0c8	-0.49170518
28	0x3f19a866	0.6002258
29	0x3f15f9ab	0.5858409
30	0xbdf50bd6	-0.11965148
31	0xbf0e525a	-0.5559441

running_var f4 [32]
0	0x3cbd11a9	0.02307971
1	0x3d8c88af	0.06862008
2	0x3ea0625c	0.31325042
3	0x3d32a88d	0.043617774
4	0x3e5de5c4	0.2166968
5	0x3de0aee1	0.109708555
6	0x3d2a3e1d	0.041563142
7	0x3e0c6d85	0.13713653
8	0x3d5b1aa8	0.05349222
9	0x3dca3865	0.09874038
10	0x3d87b972	0.06627168
11	0x3ca39791	0.019969733
12	0x3ca8f46f	0.020624368
13	0x3e14093f	0.14456652
14	0x3d84b2a5	0.06479386
15	0x3d9bdfb2	0.07611026
16	0x3cd54f7f	0.026038883
17	0x3e816b66	0.2527725
18	0x3dcb2610	0.09919369
19	0x3d2eeefc	0.042708382
20	0x3e5e1496	0.2168754
21	0x3ac977e8	0.0015370818
22	0x3e12a1b6	0.143195
23	0x3e3426f2	0.17592981
24	0x3e4139d5	0.18869717
25	0x3e123f72	0.14282015
26	0x3dcd463d	0.100231625
27	0x3ead6afe	0.3387069
28	0x3d373dbc	0.04473661
29	0x3e429635	0.19002612
30	0x3e6e967d	0.23299594
31	0x3c051cc7	0.008124537

weight f4 [32, 3]
0	0xbf002507	-0.500565
1	0x3e39c347	0.18140899
2	0x3eea5ded	0.45774785
3	0xbebee2bc	-0.3728236
4	0x3eeae4d5	0.4587771
5	0xbe714bbe	-0.2356405
6	0x3e8a6214	0.27027953
7	0x3ef6e1ff	0.48219296
8	0xbf1026e3	-0.56309336
9	0x3bff2aea	0.007787098
10	0xbe4b09f6	-0.19828019
11	0xbe990a4a	-0.29890662
12	0xbe653751	-0.22384383
13	0xbe14e9d5	-0.14542325
14	0x3f0dcaa1	0.5538731
15	0xbf057e46	-0.521458
16	0x3ec61148	0.3868506
17	0xbee65f08	-0.44994378
18	0xbd0e8fb0	-0.034805
19	0x3d15bf86	0.036559604
20	0xbee52d12	-0.44760948
21	0xbe41a483	-0.18910412
22	0xbf077944	-0.5291941
23	0x3e1da066	0.15393218
24	0x3e9c1140	0.3048191
25	0xbeee5896	-0.4655196
26	0xbd1bb9d1	-0.038019005
27	0xbe67dc98	-0.22642744
28	0xbdaa4adf	-0.08315062
29	0xbe577e34	-0.21044236
30	0xbeb629ec	-0.3557886
31	0x3e7d23dd	0.24720712
32	0xbf1568b9	-0.5836292
33	0xbccb43e1	-0.02481264
34	0xbf0d7721	-0.552599
35	0xbc1540f3	-0.009109723
36	0xbd9383e3	-0.0720289
37	0x3c0f31a3	0.008739862
38	0xbe55f6bc	-0.20894903
39	0xbeb8b34c	-0.36074293
40	0x3ec78fa4	0.38976777
41	0xbe5d71f8	-0.21625507
42	0x3ebddddf	0.37083337
43	0x3ef4eea1	0.4783831
44	0x3eb18b69	0.34676674
45	0x3ebfe873	0.37482032
46	0xbc4d3f2b	-0.012527267
47	0xbe148153	-0.14502458
48	0xbead480b	-0.33844027
49	0xbea42f76	-0.3206746
50	0xbe1f70f5	-0.15570433
51	0x3d59b05d	0.05314671
52	0x3e8af0c8	0.27136827
53	0x3ea1229c	0.31471717
54	0xbf0cf977	-0.55068153
55	0xbd003fb0	-0.031310737
56	0x3e6bdbfe	0.23033139
57	0x3e64c1fd	0.22339626
58	0x3e5a3db4	0.213126
59	0xbeee53a1	-0.4654818
60	0x3db5b712	0.088728085
61	0xbe8d582b	-0.2760633
62	0xbdd4f1cc	-0.103976816
63	0xbe3134b4	-0.17305261
64	0x3df59c50	0.11992705
65	0xbdaff6d8	-0.085920036
66	0x3e488968	0.19583666
67	0x3e995fc2	0.2995587
68	0x3dc434dc	0.095803946
69	0x3dee55e7	0.11637478
70	0xbe01d2b3	-0.12678032
71	0x3e01ce72	0.12676409
72	0x3e1a79c8	0.15085518
73	0xbe4c1a70	-0.1993196
74	0xbda57959	-0.08079786
75	0xbe60d92d	-0.21957846
76	0x3ba3e105	0.0050011897
77	0xbe9d2064	-0.30688775
78	0x3f142e1b	0.5788285
79	0xbe908872	-0.282291
80	0xbdddcbf8	-0.108299196
81	0x3d0975b7	0.033559527
82	0x3ea6c4ae	0.3257193
83	0x3edd6faa	0.43249255
84	0x3e98fe40	0.29881477
85	0x3e812b68	0.2522843
86	0x3e7c16b6	0.24618039
87	0xbea0e777	-0.31426594
88	0x3a8904cc	0.00104537
89	0x3eecb38f	0.46230742
90	0xbefb6d89	-0.49107006
91	0x3f142cc8	0.5788083
92	0x3f06dfde	0.52685344
93	0x3e247aea	0.16062513
94	0xbece6091	-0.4030805
95	0x3e8f3cb7	0.2797601

bias f4 [32]
0	0x3f08e008	0.53466845
1	0xbdf357e5	-0.11881999
2	0x3e6ae991	0.22940661
3	0x3dcb8883	0.09938147
4	0x3f03ad2a	0.514361
5	0xbe4b13f0	-0.19831824
6	0xbe9dbb46	-0.3080694
7	0x3e80ef1b	0.25182423
8	0xbeaf2756	-0.34209698
9	0xbe6be0d7	-0.23034988
10	0xbe9dc236	-0.30812234
11	0x3e12a15b	0.14319365
12	0xbda6a040	-0.08136034
13	0x3ef06c7e	0.46957773
14	0xbc39c07e	-0.011337398
15	0x3e609f64	0.21935803
16	0xbf0049aa	-0.501124
17	0x3e0ce0a8	0.13757575
18	0x3d4181d2	0.047242947
19	0x3e63e6bc	0.22255987
20	0x3e2537e2	0.16134599
21	0x3ec6858d	0.38773766
22	0xbd2048a3	-0.03913177
23	0xbd369338	-0.044573992
24	0xbdadee10	-0.084926724
25	0x3e8c4e75	0.27403608
26	0x3eeb595e	0.4596662
27	0xbee0672a	-0.43828708
28	0x3eeab953	0.45844516
29	0x3ec7c9ca	0.3902114
30	0x3e20c9d1	0.15701987
31	0x3d1d9182	0.038468845

weight f4 [16, 32]
0	0xbd519c4d	-0.05117445
1	0xbd03c215	-0.032167513
2	0x3d1bc413	0.038028788
3	0x3dc7b9ac	0.09752211
4	0x3de79c70	0.11309135
5	0x3d8ee62e	0.06977497
6	0xbe31d599	-0.17366637
7	0xbda650fc	-0.08120915
8	0x3c6df376	0.014523378
9	0xbca6b90d	-0.020351911
10	0xbe1efe41	-0.15526678
11	0x3d48be3b	0.049009543
12	0xbcf13b58	-0.029447243
13	0xbdd8e5c4	-0.10590699
14	0x3cef008f	0.029175071
15	0xbdeeca01	-0.11659623
16	0xbdac6f12	-0.084196225
17	0x3e27ae22	0.1637502
18	0xbdac8472	-0.084236994
19	0x3df50658	0.119641006
20	0xbdd01867	-0.101609044
21	0xbcd89b5d	-0.02644127
22	0x3d3a8ace	0.04554253
23	0xbd932cc8	-0.07186276
24	0xbe2be3c0	-0.16786098
25	0x3e28aa00	0.164711
26	0xbe295ddb	-0.1653971
27	0xbdaa065a	-0.08301993
28	0x3cdb14c9	0.02674331
29	0xbd8fa876	-0.07014553
30	0x3e1783b4	0.14796335
31	0x3cd900d4	0.026489653
32	0x3e030cbc	0.12797827
33	0x3e158320	0.14600801
34	0xbc91ff11	-0.01782182
35	0xbe038dad	-0.12847014
36	0xbe242ba5	-0.16032274
37	0xbe02d453	-0.12776308
38	0x3bf05efe	0.0073355427
39	0xbbebeecc	-0.0072000977
40	0x3e262dc6	0.16228399
41	0x3dd384c3	0.10328057
42	0xbe0d9628	-0.13826811
43	0x3e20c045	0.15698345
44	0x3d228d8f	0.039685782
45	0xbdca54e0	-0.0987947
46	0x3ac8ee2a	0.0015329767
47	0x3cc9fa92	0.024655614
48	0x3e36edf5	0.17864211
49	0xbe16f4e3	-0.14741854
50	0xbdd33ba5	-0.10314111
51	0xbdddd933	-0.10832443
52	0xbe166e96	-0.14690623
53	0xbd579011	-0.052627627
54	0x3db40d9b	0.087916575
55	0xbe04cdb0	-0.12969089
56	0x3cba2dd7	0.022726936
57	0x3cec437b	0.028840771
58	0xbdd61b87	-0.10454469
59	0xbd80cbd5	-0.06288878
60	0x3afde925	0.0019371851
61	0x3d88da1f	0.06682228
62	0xbe09d02d	-0.13458319
63	0xbde17b18	-0.110098064
64	0xbdd1d184	-0.1024504
65	0xbd2cbcfb	-0.042172413
66	0x3da1922c	0.07889208
67	0x3df50fa6	0.11965875
68	0xbe1f88c1	-0.15579511
69	0xbdef695b	-0.11690017
70	0x3c4175fb	0.011807914
71	0x3b75b3c2	0.0037491177
72	0x3dcf756c	0.10129818
73	0x3dd402db	0.10352107
74	0xbc8bd0f7	-0.017067416
75	0xb929a813	-0.00016179708
76	0x3e08fdaf	0.13378023
77	0x3db5f8e2	0.08885361
78	0x3db7e311	0.08978856
79	0xbdcda199	-0.10040588
80	0xbe35af38	-0.17742622
81	0xbdf55055	-0.11978213
82	0x3ddd2a38	0.10799068
83	0xbb7edb2f	-0.0038887968
84	0xbe355454	-0.1770795
85	0x3e16e739	0.14736642
86	0xbbdb73b8	-0.0066971444
87	0x3de44930	0.11146772
88	0xbe1706a7	-0.14748631
89	0xbdc8ec1a	-0.09810658
90	0x3d9d5cc8	0.07683712
91	0x3a999b57	0.0011719269
92	0xbe0d538c	-0.13801402
93	0xbd144f0c	-0.036208197
94	0x3ce9dd9d	0.028548056
95	0x3d982b1b	0.07430097
96	0x3e189c34	0.14903337
97	0xbde9ede9	-0.11422331
98	0xbe0602bd	-0.13086982
99	0xbc1f6715	-0.0097291665
100	0xbd73a558	-0.059483856
101	0x3d10cead	0.03535335
102	0x3dc44d37	0.0958504
103	0xbe16d5cf	-0.14729999
104	0x3d5908d6	0.052986942
105	0x3dc5104b	0.09622248
106	0xbd8dfeb1	-0.06933344
107	0xbcc386e6	-0.023868036
108	0x3c9902d8	0.018678114
109	0x3e2fff98	0.17187345
110	0xbe0b3b8b	-0.13596933
111	0xbe003a5a	-0.1252226
112	0xbe242835	-0.16030963
113	0xbcfb6401	-0.030687334
114	0xbe06b8d1	-0.1315644
115	0x3e0ae3ee	0.13563511
116	0x3e03f5f1	0.12886788
117	0x3e15486f	0.14578412
118	0xbe0a3209	-0.1349565
119	0xbbd84b64	-0.006600784
120	0xbda712d7	-0.0815789
121	0xbe19ca7f	-0.15018652
122	0x3d0c4788	0.034247905
123	0x3e30c5f3	0.17263012
124	0xbd286d61	-0.041119937
125	0xbd8e4f03	-0.06948664
126	0xbe176817	-0.14785801
127	0xbd58ce60	-0.05293119
128	0xbd64fe02	-0.055906303
129	0xbe2292c6	-0.15876302
130	0xbc3d9a75	-0.01157247
131	0x3de5149f	0.11185574
132	0xbdd3d917	-0.10344141
133	0xbd4d8d2d	-0.050183464
134	0xbd35bf49	-0.044371877
135	0x3e226ecc	0.15862578
136	0xbe22efcc	-0.15911788
137	0x3dd4461b	0.10364934
138	0xbe07925a	-0.13239422
139	0x3de019e2	0.10942437
140	0xbda89a94	-0.082326084
141	0xbe0b393c	-0.13596052
142	0x3da9c147	0.08288818
143	0xbd1e7890	-0.038689196
144	0x3dfbfd89	0.12304217
145	0xbdb8c705	-0.09022335
146	0xbe1a2096	-0.15051493
147	0x3d3eecd0	0.04661256
148	0xbe2bd95d	-0.16782136
149	0x3dccc5f5	0.09998695
150	0xbd670644	-0.05640246
151	0x3c93420a	0.017975826
152	0x3c675c42	0.014121117
153	0xbdfde25f	-0.123966925
154	0x3e2470ec	0.16058701
155	0x3e01124d	0.12604637
156	0x3d07cfb2	0.033157058
157	0x3e12ad9a	0.14324036
158	0x3e17755a	0.1479086
159	0xbe05dbcd	-0.13072129
160	0x3c27e8ff	0.010248422
161	0xbe1031df	-0.14081524
162	0xbdcc2600	-0.099681854
163	0xbdc690b7	-0.09695571
164	0x3d8d585e	0.0690162
165	0xbdcfd2d6	-0.10147636
166	0x3ddbfbd9	0.107413955
167	0x3e2c16b9	0.16805543
168	0xbddf979b	-0.10917588
169	0x3d0e0f08	0.034682304
170	0x3df27383	0.11838438
171	0x3d1569d8	0.036477894
172	0x3d8c2a15	0.06843964
173	0xbdfbd062	-0.12295605
174	0x3e097e27	0.1342703
175	0xbe0baea9	-0.13640846
176	0xbd7cdcd1	-0.061734024
177	0x3db1587b	0.086594544
178	0x3e18d467	0.14924775
179	0xbe088931	-0.13333584
180	0x3d976f4c	0.07394275
181	0xbe2d8f11	-0.16949107
182	0x3d960343	0.07324841
183	0xbced7e1a	-0.028990794
184	0x3de80631	0.11329306
185	0xbb69fc02	-0.0035703187
186	0xbdcdba1a	-0.10045262
187	0xbd41e794	-0.04733999
188	0xbdd5da5b	-0.104420386
189	0xbd9532a1	-0.07285047
190	0xbad906d7	-0.0016557825
191	0xbe0d8c00	-0.13822937
192	0x3e0312f1	0.12800194
193	0xbdbd6a1f	-0.092487566
194	0x3dd34e3a	0.10317655
195	0xbdee3080	-0.116303444
196	0x3e397ae5	0.18113287
197	0x3df4388c	0.11924848
198	0x3dac0fec	0.08401474
199	0x3e09fd18	0.13475454
200	0xbd21fb1e	-0.039546125
201	0xbd845225	-0.0646098
202	0x3e0ae2a6	0.13563022
203	0xbdbeeb21	-0.09322191
204	0xbe1081e9	-0.14112057
205	0xbe13c7de	-0.14431712
206	0x3b452550	0.0030082054
207	0x3e0dd027	0.13848935
208	0x3e06ac35	0.1315163
209	0x3dedb221	0.11606241
210	0x3e1af065	0.15130766
211	0xbe1beb47	-0.1522647
212	0x3c81c47a	0.015840758
213	0xbd5160cb	-0.0511177
214	0x3e0430c0	0.12909222
215	0x3e168737	0.14700018
216	0xbe0b4000	-0.13598633
217	0x3e1ca5f2	0.15297678
218	0xbd9729a1	-0.07380987
219	0xbd1ff33c	-0.039050326
220	0xbcc1dc68	-0.023664668
221	0xbc5fa73d	-0.013650713
222	0x3e0fd342	0.14045432
223	0xbd867c30	-0.06566656
224	0xbe043f25	-0.12914713
225	0x3e173d89	0.14769568
226	0xbe3182a1	-0.17334987
227	0x3e015720	0.12630892
228	0xbda3edcf	-0.08004343
229	0xbcf5c7d1	-0.030002506
230	0xbdc2d8bb	-0.09513994
231	0x3b4d99e5	0.0031372246
232	0x3e08ed03	0.13371663
233	0xbd7b5c06	-0.061367057
234	0xbd51ef32	-0.051253505
235	0xbde2d994	-0.11076656
236	0xbd54508c	-0.051834628
237	0x3d554e08	0.05207637
238	0xbdd46af3	-0.103719614
239	0xbe0a6932	-0.13516691
240	0xbda833d2	-0.08213009
241	0xbd873125	-0.066011705
242	0x3d3e87c1	0.046516184
243	0x3cf68b33	0.030095672
244	0x3df73471	0.12070549
245	0x3b023dd2	0.0019873274
246	0x3de4e48f	0.111764066
247	0xbbabb603	-0.0052402033
248	0xbe365f94	-0.17809898
249	0x3e1cd135	0.15314181
250	0xbd88b015	-0.0667421
251	0x3e11ccf8	0.14238346
252	0x3d414086	0.047180675
253	0xbdd6025e	-0.1044967
254	0xbdde2201	-0.108463295
255	0xbd176c98	-0.036968797

bias f4 [16]
0	0x3daf4658	0.08558339
1	0x3e28d332	0.16486815
2	0x3b986b4a	0.0046514617
3	0x3dd1b060	0.10238719
4	0xbe29209b	-0.16516344
5	0xbde31bd4	-0.11089292
6	0xbe23ecdb	-0.16008322
7	0xbe1ed244	-0.15509897
8	0x3e10447e	0.14088628
9	0xbdb6015c	-0.08886978
10	0xbc3cf1f3	-0.011532295
11	0x3cbb9e59	0.022902654
12	0xbc03e46a	-0.008050064
13	0x3d264976	0.0405974
14	0x3bdd002d	0.0067444057
15	0xbe2745e3	-0.16335253

weight f4 [32]
0	0x3f80cd79	1.0062705
1	0x3f80a48a	1.0050213
2	0x3f7ea7a8	0.99474573
3	0x3f7e506e	0.99341476
4	0x3f802e03	1.0014042
5	0x3f80118c	1.0005355
6	0x3f7e557f	0.99349207
7	0x3f80fba9	1.00768
8	0x3f7e2492	0.9927455
9	0x3f7e60bc	0.99366355
10	0x3f8005af	1.0001734
11	0x3f7e7ba7	0.9940743
12	0x3f7f5ae4	0.99748063
13	0x3f80baf3	1.0057052
14	0x3f7e65bd	0.9937399
15	0x3f80ebf6	1.007201
16	0x3f80d604	1.0065312
17	0x3f7e59e7	0.9935593
18	0x3f8031a9	1.0015155
19	0x3f808ac3	1.0042347
20	0x3f7e3043	0.9929239
21	0x3f80d363	1.006451
22	0x3f7e9d7a	0.9945904
23	0x3f7eac51	0.99481684
24	0x3f80d806	1.0065925
25	0x3f7dd3a7	0.9915108
26	0x3f7e7da4	0.9941046
27	0x3f81051e	1.0079687
28	0x3f80e52f	1.0069941
29	0x3f7dc3d6	0.99126947
30	0x3f7e4989	0.99330956
31	0x3f7e91c0	0.99441147

bias f4 [32]
0	0x3bcd7e55	0.0062711635
1	0x3ba46dde	0.00501798
2	0xbbac2e75	-0.0052545615
3	0xbbd7c9bf	-0.0065853293
4	0x3ab81d8d	0.0014046893
5	0x3a0c42d5	0.0005350535
6	0xbbd541d3	-0.006508091
7	0x3bfbb21d	0.007681145
8	0xbbedba21	-0.0072548543
9	0xbbcfa32b	-0.00633659
10	0x393945fb	0.00017669045
11	0xbbc22eb0	-0.0059259757
12	0xbb2519f6	-0.0025192476
13	0x3bbb0554	0.0057074223
14	0xbbcd20d7	-0.0062600183
15	0x3bebd4aa	0.0071969824
16	0x3bd6219c	0.0065347683
17	0xbbd31100	-0.0064412355
18	0x3ac6acff	0.0015157758
19	0x3b8b5e7d	0.0042532072
20	0xbbe7ce49	-0.0070741517
21	0x3bd3a8a9	0.006459315
22	0xbbb13b17	-0.0054086554
23	0xbba9dfd4	-0.005184153
24	0x3bd8171b	0.0065945513
25	0xbc0b2252	-0.008492069
26	0xbbc12f82	-0.005895556
27	0x3c028d32	0.007968234
28	0x3be52979	0.0069934693
29	0xbc0f0269	-0.008728602
30	0xbbdb3cb2	-0.006690585
31	0xbbb724be	-0.005589097

running_mean f4 [32]
0	0x401b9b45	2.431352
1	0xc0958ecb	-4.673681
2	0xc0d59603	-6.674562
3	0xbf1f4cca	-0.62226546
4	0x40a59432	5.1743402
5	0xc0b739d3	-5.7258086
6	0xc0632cfe	-3.549621
7	0x4096d840	4.7138977
8	0x401ad7bb	2.4194171
9	0xbf8d5d6b	-1.1044134
10	0xc0ba7ec5	-5.827975
11	0x406a6902	3.6626592
12	0xbfc5342f	-1.540655
13	0xc06082e2	-3.5079885
14	0xbf48723a	-0.78299296
15	0xbf2c2d59	-0.67256695
16	0x3f07fc74	0.5311959
17	0x3efbd155	0.49183145
18	0x3fe5d868	1.7956667
19	0xc0890c7d	-4.2827744
20	0x3fa04a91	1.2522756
21	0xbf775dc8	-0.96627474
22	0xbfab1e67	-1.3368653
23	0x3fd060d2	1.6279547
24	0x3f2a1555	0.664388
25	0xbfe8c856	-1.8186138
26	0x3fc7fe5a	1.5624497
27	0x3eb56d85	0.3543512
28	0x3ef3ff5e	0.47655767
29	0x405f20ff	3.486389
30	0xbd6b2838	-0.057411402
31	0x4090e866	4.528369

running_var f4 [32]
0	0x416f521f	14.957549
1	0x412700fd	10.437741
2	0x41998321	19.189028
3	0x41087b98	8.530174
4	0x415b542b	13.708049
5	0x41447970	12.279648
6	0x4117da5d	9.490811
7	0x4157c4ba	13.485529
8	0x41448256	12.28182
9	0x404a1406	3.1574721
10	0x41766993	15.400775
11	0x41846a46	16.551891
12	0x40075488	2.1145344
13	0x40f50524	7.6568775
14	0x41be5cd8	23.795334
15	0x3f8ecd9c	1.1156497
16	0x41063f87	8.39051
17	0x413b9ed0	11.726273
18	0x401cfb0a	2.4528222
19	0x411e7fbb	9.906184
20	0x40b2a4c5	5.5826135
21	0x3f4b41f7	0.7939753
22	0x40c75462	6.2290506
23	0x3f8ff01c	1.124515
24	0x403f7fcb	2.9921749
25	0x40944717	4.633678
26	0x40bbf10a	5.8731737
27	0x419d8ec6	19.694714
28	0x410808fa	8.502192
29	0x412a602c	10.648479
30	0x4227c750	41.94464
31	0x410d7af3	8.842517

weight f4 [32, 20]
0	0xbe60f2cb	-0.21967618
1	0xbe4344bf	-0.19069193
2	0x3e5a708d	0.21331997
3	0x3dc051a3	0.09390571
4	0x3e55ff94	0.20898277
5	0x3e5a461b	0.21315806
6	0x3e07bfb1	0.13256718
7	0xbbe469ca	-0.006970619
8	0xbe30cb24	-0.17264992
9	0x3d884f39	0.066557355
10	0x3e2f17a7	0.17098866
11	0xbc084557	-0.008317313
12	0xba82b863	-0.0009973164
13	0x3dd7edb3	0.105433844
14	0xbd483214	-0.048875883
15	0x3dcff635	0.10154382
16	0x3e340d6a	0.17583242
17	0x3e30f6a4	0.17281586
18	0x3db2e254	0.08734575
19	0xbcb4097c	-0.021977179
20	0x3e3031ef	0.17206548
21	0xbd3a4fd8	-0.0454863
22	0x3ce370d1	0.027763756
23	0x3debf0a2	0.115205064
24	0xbe4f06f7	-0.202175
25	0x3dfc0163	0.12304952
26	0x3db7c8d0	0.08973849
27	0xbe5d7e5a	-0.2163023
28	0xbcb5fd3f	-0.022215484
29	0xbe50cc85	-0.20390518
30	0xbdd05354	-0.101721436
31	0xbe1a4306	-0.1506463
32	0xbd3170be	-0.04332041
33	0x3e566f1d	0.20940824
34	0xbced9a1a	-0.029004145
35	0xbe0ff2ca	-0.1405746
36	0xbe112cf9	-0.14177312
37	0xbe0dfb3d	-0.13865371
38	0xbd0fbc4a	-0.035091676
39	0xbcbfee6b	-0.023429116
40	0xbd9f1690	-0.07767975
41	0x3e15b8b9	0.14621247
42	0x3e29e11c	0.16589779
43	0x3e62f15d	0.22162385
44	0xbe261452	-0.16218689
45	0xbc022a8d	-0.007944715
46	0x3db1ecc0	0.086877346
47	0xbe0c36c3	-0.13692765
48	0xbe38b79d	-0.18038793
49	0xbe0b6c1b	-0.13615458
50	0x3dbce04c	0.09222469
51	0xbe5a2e85	-0.21306808
52	0xbe63d208	-0.2224809
53	0xbe53e838	-0.20694053
54	0x3dc3bae7	0.09557133
55	0x3e3eff7b	0.18652146
56	0xbdcee5d8	-0.10102433
57	0xbdc0f277	-0.094212465
58	0xbd31f097	-0.043442335
59	0xbd5025ef	-0.050817426
60	0xbe4adba5	-0.1981035
61	0xbe08d268	-0.13361514
62	0xbdf8f51e	-0.121561274
63	0xbe196534	-0.14980012
64	0x3e2cf234	0.16889268
65	0xbd7a4423	-0.061100136
66	0x3d7f955b	0.062398296
67	0xbddbb0a6	-0.107270524
68	0x3e0cdba4	0.13755661
69	0xbd6a6814	-0.057228163
70	0x3dbfe09e	0.09369014
71	0x3d62a7b8	0.05533573
72	0xbe373f4f	-0.17895244
73	0xbe0a4447	-0.13502608
74	0x3cb847b7	0.022495134
75	0xbd434452	-0.047672577
76	0xbd092604	-0.03348352
77	0x3e409c81	0.18809702
78	0x3e1995b9	0.14998521
79	0xbe07a2be	-0.13245675
80	0xbe3f5c2d	-0.18687506
81	0xbd3e4b12	-0.04645831
82	0x3cce1c86	0.025160085
83	0xbe0607c7	-0.13088904
84	0x3e3fb4fa	0.18721381
85	0x3daf16c1	0.08549262
86	0xbdd6835e	-0.10474275
87	0x3de2ec4e	0.11080228
88	0x3db259c9	0.087085314
89	0xbd2b4d86	-0.04182198
90	0xbe49fd4c	-0.19725531
91	0xbdd7e72c	-0.105421394
92	0xbd36f571	-0.044667665
93	0xbdfe4059	-0.12414617
94	0xbc2827fe	-0.010263441
95	0xbe3e8759	-0.18606319
96	0x3dece9b6	0.11568014
97	0x3e073de1	0.13207199
98	0xbd500eb7	-0.050795283
99	0xbb94f946	-0.0045463173
100	0xbda5ba4b	-0.08092173
101	0x3dccd585	0.10001663
102	0xbcacb916	-0.02108435
103	0x3ddc1758	0.1074664
104	0xbda6f09e	-0.08151363
105	0x3c3022a6	0.010750448
106	0xbdc3bfa0	-0.09558034
107	0xbe275cd6	-0.16344008
108	0xbe31e113	-0.17371015
109	0xbdba7777	-0.09104817
110	0xbcc1c3da	-0.02365296
111	0x3db05cc3	0.08611443
112	0x3cd1f0d6	0.025627535
113	0x3c756790	0.0149783045
114	0xbd0f8f5f	-0.03504884
115	0xbce42750	-0.027850777
116	0xbe57f015	-0.21087678
117	0xbe1329b2	-0.14371374
118	0xbe35c874	-0.17752248
119	0x3bebbc91	0.0071941097
120	0x3cc4ec35	0.024038414
121	0x3d161044	0.036636606
122	0xbde1765d	-0.11008904
123	0x3dfa44e5	0.12220172
124	0x3c84cdd9	0.016211437
125	0xbda298d3	-0.07939305
126	0xbe169ca6	-0.14708194
127	0x3e3742e1	0.17896606
128	0x3cfdeba6	0.030996155
129	0xbdca4d02	-0.09877969
130	0xbd57bc4a	-0.0526698
131	0x3e58ddcb	0.21178357
132	0xbd05b377	-0.032641854
133	0x3cc50f50	0.024055153
134	0x3e66e2fd	0.22547527
135	0x3e2b1370	0.16706634
136	0xbe30cee2	-0.1726642
137	0x3d97d25c	0.0741317
138	0xbdba1ad7	-0.090871505
139	0x3d8ca7c1	0.06867934
140	0xbdc03a27	-0.09386092
141	0x3e02124c	0.12702292
142	0xbd16fa0a	-0.03685955
143	0x3e529869	0.20565952
144	0x3e377bdc	0.17918342
145	0xbd823d12	-0.063593045
146	0x3e2afc6d	0.16697855
147	0xbdd15153	-0.102205895
148	0xbe17f45a	-0.14839306
149	0x3cfcf310	0.03087762
150	0x3ba81e9d	0.0051306025
151	0x3e56bf8b	0.20971505
152	0x3da384e7	0.079843335
153	0x3d8c8cbb	0.0686278
154	0x3d46cbfc	0.04853438
155	0xbe2eed89	-0.170828
156	0xbe413604	-0.18868262
157	0xbe18b6d1	-0.14913489
158	0xbcffbf18	-0.03121905
159	0x3e642933	0.22281341
160	0x3dbe4138	0.09289783
161	0x3c20b666	0.009809112
162	0xbd12bb89	-0.03582338
163	0xbdccb714	-0.09995857
164	0x3e02faf5	0.12791045
165	0x3e24a405	0.16078193
166	0xbd940b6c	-0.07228741
167	0x3d8a59ba	0.06755395
168	0x3e28c2e7	0.164806
169	0xbda6c772	-0.0814351
170	0x3e3a26b3	0.18178825
171	0xbd039572	-0.032124944
172	0xbe173a12	-0.14768246
173	0xbd06d989	-0.0329223
174	0xbc818331	-0.015809627
175	0x3cfd09e5	0.030888507
176	0xbe07b9d6	-0.13254485
177	0x3e2f74a8	0.17134345
178	0xbcf8d783	-0.030376201
179	0x3da6e938	0.08149952
180	0xbde73dce	-0.11291085
181	0xbe3733c1	-0.17890836
182	0x3c64a4ad	0.013955277
183	0x3e1e01a0	0.15430307
184	0xbe19d10f	-0.15021156
185	0xbd865dbb	-0.065608464
186	0x3e3cdf01	0.18444444
187	0xbdef735e	-0.116919264
188	0xbd986013	-0.074402
189	0x3e3f5df7	0.18688188
190	0xbdc43c65	-0.09581832
191	0x3d8793ee	0.06620012
192	0xbc34c210	-0.011032596
193	0x3e07aa4d	0.13248558
194	0x3dad1a7e	0.084523186
195	0x3e0500e7	0.12988625
196	0xbd721626	-0.059103154
197	0x3db47fb7	0.08813422
198	0x3de49e67	0.11163025
199	0xbda02c73	-0.07820978
200	0x3e400e27	0.18755399
201	0x3cb23a63	0.021756357
202	0x3e659e1b	0.22423594
203	0xbd25e144	-0.040498033
204	0xbe48f9c1	-0.19626524
205	0xbd4952a6	-0.049151085
206	0x3d895d33	0.067072295
207	0xbe4ffaf1	-0.2031057
208	0xbd915c4a	-0.07097681
209	0x3ccf1b67	0.025281621
210	0xbd6a346a	-0.057178892
211	0x3d38e2f2	0.045138307
212	0xbd3e862b	-0.04651467
213	0x3e1881c5	0.14893253
214	0xbd3399b7	-0.043847766
215	0x3e580e89	0.21099295
216	0x39889c03	0.0002605618
217	0xbe10b6a8	-0.14132178
218	0xbc03405a	-0.008010948
219	0xbe50328f	-0.20331787
220	0xbda27fef	-0.07934558
221	0xbe51bdce	-0.20482561
222	0xbda94b43	-0.08266308
223	0x3cf32047	0.029678477
224	0xbe009cf6	-0.12559876
225	0xbc7625c5	-0.015023653
226	0x3ddd9d2c	0.10820994
227	0xbe31ac7e	-0.17350957
228	0x3e385bf6	0.1800383
229	0xbcc84b2a	-0.024449904
230	0xbc81b5cb	-0.015833756
231	0xbb39a0f0	-0.0028324686
232	0x3c3e7c1e	0.0116262715
233	0xbd1f9fb7	-0.038970675
234	0x3e5fc660	0.21853018
235	0x3d73ce70	0.059523046
236	0xbe30e6b1	-0.17275502
237	0xbdc831f3	-0.09775152
238	0x3e25c5a7	0.1618868
239	0xbda48160	-0.08032489
240	0x3df0bcee	0.117547855
241	0x3e3d1f54	0.18468982
242	0xbdd3abc1	-0.10335494
243	0x3d589aae	0.05288189
244	0xbd26408e	-0.040588908
245	0xbdf132c4	-0.11777261
246	0xbe45616c	-0.19275445
247	0x3dbe8eef	0.09304606
248	0x3e1f6630	0.15566325
249	0xbe087f2a	-0.13329759
250	0x3e157881	0.1459675
251	0x3e2e7966	0.17038497
252	0xbe1e075b	-0.15432493
253	0xbe24c6c3	-0.16091447
254	0x3dab669e	0.08369182
255	0x3e13d400	0.1443634

bias f4 [32]
0	0xbe6b48ba	-0.22976962
1	0x3e0e5c5b	0.13902418
2	0xbde90391	-0.11377633
3	0x3e2eedd4	0.17082912
4	0xbdf54d07	-0.119775824
5	0x3e152b2b	0.14567249
6	0x3e207070	0.15667892
7	0xbe0c92a1	-0.1372781
8	0xbd642c88	-0.05570653
9	0xbe1f441e	-0.15553328
10	0x3d89de1c	0.06731817
11	0x3e408e98	0.18804395
12	0xbd9d180f	-0.076706044
13	0x3b4aa5c1	0.003092155
14	0x3e160919	0.14651908
15	0xbe0ec9b3	-0.1394413
16	0xbe1be955	-0.15225728
17	0x3d0fcd0f	0.03510767
18	0x3d3bf79b	0.04589043
19	0xbd06285b	-0.03275333
20	0x3e02134b	0.12702672
21	0x3d774d5e	0.060376517
22	0xbb1a463b	-0.0023540396
23	0xbe17f52c	-0.1483962
24	0x3dd26b4b	0.10274371
25	0x3d4b5238	0.049638957
26	0x3aeb3860	0.0017945878
27	0x3dbcc9bf	0.092181675
28	0x3c16acb5	0.00919645
29	0xbda74ab5	-0.08168546
30	0xbe506163	-0.2034965
31	0xbe45c84a	-0.19314685

weight f4 [4, 32]
0	0xbc8c56c6	-0.01713122
1	0xbdf54ca7	-0.11977511
2	0x3d05ec3a	0.032695986
3	0x3db16999	0.08662719
4	0x3b9aa79e	0.0047196886
5	0x3d6b098c	0.05738215
6	0xbdcf5d3d	-0.10125206
7	0xbe1139d2	-0.14182213
8	0xbde47783	-0.111556076
9	0x3e198358	0.1499151
10	0x3d566230	0.052339733
11	0x3d1122df	0.035433646
12	0x3dc83fd5	0.097778
13	0x3df1dd0f	0.11809742
14	0x3c879c06	0.01655389
15	0xbd991170	-0.07474029
16	0x3d3f8b68	0.046763808
17	0x3dc789e9	0.09743101
18	0xbe28cdd1	-0.16484763
19	0x3e2db87a	0.16964903
20	0xbe0f30f4	-0.13983518
21	0xbe277b76	-0.1635569
22	0x3db1d0a6	0.08682375
23	0x3d099a1a	0.03359423
24	0x3e1d76f3	0.15377407
25	0xbd97cbda	-0.074119285
26	0xbe03590c	-0.12826937
27	0x3dc64647	0.09681373
28	0x3d9760cc	0.073915094
29	0xbdfb7d69	-0.122797795
30	0x3e004af4	0.12528592
31	0x3dcce6aa	0.10004933
32	0x3dd29899	0.10283012
33	0xbe09dd5f	-0.13463353
34	0xbe245fe3	-0.16052203
35	0x3ddb6a14	0.10713592
36	0xbdae6659	-0.08515615
37	0xbe0675d4	-0.13130885
38	0xbd3da685	-0.046301384
39	0xbe1f6fe6	-0.1557003
40	0x3e2d324b	0.16913716
41	0xbd4e8601	-0.050420765
42	0xbd9e6327	-0.077337556
43	0x3e246f11	0.16057993
44	0xbd19069e	-0.037359826
45	0x3e384b70	0.17997527
46	0x3db154b5	0.08658735
47	0x3da185bf	0.07886838
48	0xbe327c8d	-0.17430325
49	0xbe2eb3f6	-0.17060837
50	0x3e07ef82	0.13274959
51	0x3dac6bab	0.084189735
52	0x3dfc19b3	0.12309589
53	0x3db2e1ce	0.08734475
54	0x3e0d9e1d	0.13829847
55	0x3e0d288a	0.13784996
56	0x3e104adb	0.14091055
57	0x3dca4d44	0.098780185
58	0x3dfdc57e	0.12391184
59	0x3e392b13	0.18082838
60	0x3c759e90	0.0149914175
61	0x3d85399c	0.06505129
62	0xbe0ea34a	-0.13929477
63	0x3e2ac701	0.16677476
64	0xbdb2ddd7	-0.08733719
65	0xbd9bafb9	-0.07601876
66	0xbe09e0c7	-0.13464652
67	0x3e243f7e	0.16039845
68	0xbd868bca	-0.065696314
69	0xbc8144d6	-0.015779894
70	0x3d902010	0.070373654
71	0xbd79d2c4	-0.060992017
72	0xbd1200f3	-0.035645436
73	0x3e02c625	0.12770899
74	0x3d3a12d7	0.045428123
75	0x3dec0a3d	0.1152539
76	0x3dd635ab	0.10459455
77	0x3d73ef21	0.059554223
78	0xbdf4e3fb	-0.11957546
79	0xbcb8412e	-0.022492018
80	0x3d2ade57	0.041715946
81	0x3d74833d	0.05969547
82	0x3e2a1bb0	0.16612124
83	0x3ba81045	0.0051288926
84	0x3cd26644	0.02568353
85	0x3e30d14d	0.17267342
86	0xbe05d135	-0.13068087
87	0xbd74e43a	-0.059787966
88	0xbe053068	-0.13006747
89	0x3ca6b8f0	0.020351857
90	0xbdcbe8cc	-0.09956512
91	0x3e3787bf	0.17922877
92	0xbb4d3f02	-0.0031318073
93	0xbe0a821a	-0.13526192
94	0x3d64b64a	0.055837907
95	0x3d9a9a98	0.07549018
96	0xbe3a060d	-0.1816637
97	0x3c86897a	0.016422976
98	0x3dba9d2d	0.0911201
99	0xbdfdd5e2	-0.123943105
100	0xbc9cf9c2	-0.019162063
101	0x3cd861bd	0.026413793
102	0xbde1b8da	-0.11021586
103	0xbda135ee	-0.078716144
104	0xbe230311	-0.15919138
105	0x3a373112	0.0006988208
106	0x3e2f8aaf	0.17142747
107	0x3db1bd61	0.08678699
108	0xbdec1f52	-0.115294114
109	0xbd8c4583	-0.06849196
110	0x3dd439e0	0.10362601
111	0x3df94d54	0.12172952
112	0x3d0a8130	0.03381461
113	0xbd02adfc	-0.031904206
114	0xbda3298c	-0.07966909
115	0xbdf8aa37	-0.12141841
116	0xbdef8ac7	-0.116963916
117	0x3d592776	0.05301615
118	0xbe268a90	-0.16263795
119	0x3e0d14c3	0.13777451
120	0xbde19325	-0.11014394
121	0x3e380f37	0.17974554
122	0x3cd6ced0	0.026221663
123	0x3dcc22c5	0.09967569
124	0xbdcfb028	-0.10141021
125	0xbe2e9182	-0.17047694
126	0x3c431ee6	0.011909222
127	0xbe14e413	-0.14540128

bias f4 [4]
0	0x3ba3a40c	0.004993921
1	0x3db54361	0.08850742
2	0xbdfe5e61	-0.12420345
3	0x3daeef0c	0.08541688

weight f4 [32]
0	0x3f811759	1.008525
1	0x3f80558c	1.0026107
2	0x3f8111e1	1.0083581
3	0x3f80db30	1.0066891
4	0x3f7ebc89	0.9950643
5	0x3f7ea1fd	0.99465925
6	0x3f7debd6	0.9918798
7	0x3f80dad2	1.0066779
8	0x3f7e1e2f	0.99264807
9	0x3f7dff11	0.99217325
10	0x3f7edc92	0.99555314
11	0x3f7e441a	0.99322665
12	0x3f804e9b	1.0023988
13	0x3f8127bb	1.009025
14	0x3f7efc3a	0.9960362
15	0x3f80dbea	1.0067112
16	0x3f80d460	1.0064812
17	0x3f7e5b32	0.99357903
18	0x3f80a7d8	1.0051222
19	0x3f80f648	1.0075159
20	0x3f812c0f	1.0091571
21	0x3f7e489c	0.99329543
22	0x3f7e4329	0.9932123
23	0x3f7f035b	0.99614495
24	0x3f7f4301	0.99711615
25	0x3f810d92	1.0082266
26	0x3f7e75d6	0.99398553
27	0x3f806a74	1.0032487
28	0x3f7dfc9c	0.99213576
29	0x3f808623	1.0040935
30	0x3f80d2df	1.0064353
31	0x3f806910	1.0032063

bias f4 [32]
0	0x3be5767f	0.007002651
1	0xba972b71	-0.0011533332
2	0x3c11853e	0.008881865
3	0x3a2da2d9	0.00066236925
4	0xbbb8c589	-0.0056387824
5	0xbbbdfe1e	-0.0057981154
6	0xbc314194	-0.010818858
7	0x3bab4b7c	0.0052275043
8	0xbc20b21a	-0.009808088
9	0xbbf7f876	-0.0075674606
10	0xbc39dbaf	-0.011343881
11	0x3ba087e1	0.0048990105
12	0x3b3229b3	0.00271855
13	0x3c043197	0.008068464
14	0xba8e3983	-0.001085088
15	0x3b8e8bed	0.0043501765
16	0x3bc881af	0.006118975
17	0xbbe0b022	-0.006856934
18	0x3bb318fa	0.005465624
19	0x3c1bf6e2	0.009519311
20	0x3c09c7db	0.008409466
21	0xbbcd7053	-0.0062694936
22	0xbbcbc34f	-0.006218351
23	0xbb91aa3e	-0.0044453433
24	0xbb3b34f5	-0.00285655
25	0x3c0c5b3a	0.008566672
26	0xbb1195f1	-0.0022214616
27	0x3b15c715	0.0022854258
28	0xbc2cc04a	-0.010543892
29	0x3b321d97	0.0027178281
30	0x3bef3ccd	0.007300949
31	0xba0e7257	-0.0005433908

running_mean f4 [32]
0	0x3a2aca00	0.00065150857
1	0x3e0aa391	0.13538958
2	0xbef8c5f4	-0.48588526
3	0x3d489dba	0.048978545
4	0xbe242005	-0.1602784
5	0xbdaca192	-0.084292546
6	0x3e1fd34d	0.15607949
7	0xbe2d6937	-0.16934668
8	0xbebb61b6	-0.36597985
9	0x3e2c4736	0.1682404
10	0x3e61d952	0.22055557
11	0x3ed73337	0.4203126
12	0xbe968883	-0.29401025
13	0x3e491f78	0.1964091
14	0xbdfee626	-0.12446241
15	0x3cce9aa3	0.02522022
16	0xbedfd632	-0.43718106
17	0xbd97ad96	-0.07406156
18	0xbd8dc4c8	-0.06922299
19	0x3de61d4e	0.11236058
20	0x3e8bebff	0.27328488
21	0x3e08ed82	0.13371852
22	0x3e224f42	0.15850547
23	0x3cdfd564	0.027323432
24	0x3e9305f8	0.2871549
25	0xbdc0d938	-0.09416431
26	0x3e1c3921	0.15256168
27	0x3e9c73c4	0.30557072
28	0x3cde9ff5	0.027175883
29	0xbe96f51d	-0.29483882
30	0xbe567132	-0.20941618
31	0xbe489d8c	-0.1959135

running_var f4 [32]
0	0x3d432028	0.04763809
1	0x3cdda1fa	0.027054776
2	0x3dfb1c3c	0.12261245
3	0x3d0518ab	0.03249423
4	0x3c912a44	0.01772035
5	0x3d89fcc7	0.067376666
6	0x3da25aaf	0.07927453
7	0x3dabf007	0.08395391
8	0x3e3e740b	0.18598954
9	0x3e0e3181	0.13886072
10	0x3dafef36	0.08590548
11	0x3dffb9ee	0.12486635
12	0x3dfd47ed	0.123672344
13	0x3d513b8b	0.051082175
14	0x3cf3ed74	0.029776312
15	0x3dd96b5c	0.1061618
16	0x3cd08de0	0.025458276
17	0x3ddbf9cc	0.10741004
18	0x3c2104e8	0.00982783
19	0x3d1d5a79	0.03841636
20	0x3e3603eb	0.17774932
21	0x3d20bde6	0.0392436
22	0x3cb454d9	0.022013115
23	0x3e1fbc51	0.15599181
24	0x3dc31be8	0.09526807
25	0x3c719d49	0.014746972
26	0x3c194414	0.00935461
27	0x3d5fc7bf	0.054633852
28	0x3d6a92b8	0.05726883
29	0x3d346eea	0.04405109
30	0x3dc268cf	0.09492647
31	0x3e35766a	0.17720953

weight f4 [32, 16]
0	0xbe26d982	-0.1629391
1	0x3e3a28cd	0.18179627
2	0xbd8dac09	-0.06917579
3	0xbe5cd07c	-0.21563905
4	0x3b31e694	0.0027145492
5	0xbe2e7f51	-0.17040755
6	0x3e3bb9d1	0.18332602
7	0x3dc7833a	0.09741826
8	0xbdd3382e	-0.1031345
9	0xbca0d977	-0.019634945
10	0x3dfde0b7	0.123963766
11	0xbd4c9241	-0.049944166
12	0xbe0c4c34	-0.13700944
13	0x3e5a929c	0.2134499
14	0xbd86ba13	-0.065784596
15	0xbdce2bde	-0.10066961
16	0xbda8024c	-0.08203563
17	0x3da97a73	0.082753085
18	0x3e628d0e	0.2212412
19	0xbe73e187	-0.238165
20	0x3e05d80b	0.13070695
21	0x3e6fda1e	0.23423049
22	0x3db38d16	0.087671444
23	0xbdb4dfd8	-0.08831757
24	0xbe4531c2	-0.19257262
25	0x3e63313e	0.22186753
26	0xbde1203e	-0.10992478
27	0xbd85fef2	-0.065427676
28	0xbe4fbb0b	-0.20286195
29	0x3e5089db	0.20365088
30	0xbd6aeda1	-0.057355527
31	0x3e1cabae	0.15299866
32	0xbe366151	-0.17810561
33	0xbe00b8ca	-0.12570491
34	0xbe6e5bfd	-0.23277278
35	0xbe3ac9c6	-0.18241033
36	0x3dd6f3e8	0.1049574
37	0xbd0031c7	-0.03129747
38	0xbd0f625e	-0.03500592
39	0x3e1d2564	0.15346295
40	0x3e1533ba	0.14570513
41	0x3e5490c5	0.2075835
42	0x3de92eee	0.11385904
43	0xbe7372b2	-0.23774222
44	0x3d1798f6	0.03701111
45	0x3e3c5377	0.18391214
46	0x3e575321	0.21027805
47	0x3d0a001c	0.03369151
48	0xbdf29086	-0.11843972
49	0xbe390c89	-0.18071188
50	0x3e155dd5	0.14586575
51	0xbd26e858	-0.040748924
52	0x3e72105d	0.23639055
53	0x3c46df8f	0.012138261
54	0x3d736b29	0.059428368
55	0x3caf6c1d	0.021413857
56	0xbe412428	-0.18861449
57	0x3d878da4	0.06618813
58	0x3d90f4e7	0.070779614
59	0x3e61fdad	0.22069426
60	0xbe4b1567	-0.19832383
61	0xbcb8cdd2	-0.02255908
62	0xbdb6a708	-0.089185774
63	0xbe0026c4	-0.12514788
64	0x3dff6923	0.12471225
65	0xbda98b79	-0.082785554
66	0x3d10f049	0.035385404
67	0x3e0c0a0a	0.13675705
68	0x3da044ad	0.07825599
69	0xbdbff5c5	-0.09373049
70	0x3a2afd12	0.0006522696
71	0x3e18d504	0.14925009
72	0x3cb872e3	0.02251572
73	0xbe719b41	-0.23594381
74	0x3e2d730d	0.1693842
75	0xbb824b32	-0.003976249
76	0xbdd3ac43	-0.10335591
77	0xbd4687e0	-0.048469424
78	0xbe66b34e	-0.22529337
79	0xbdb4fc4c	-0.08837184
80	0x3e45cebd	0.19317146
81	0x3e3184e4	0.1733585
82	0x3e0332e0	0.12812376
83	0x3e3b5687	0.18294726
84	0xbd30aab5	-0.04313155
85	0xbd3037b4	-0.043021873
86	0x3cc01dc0	0.023451686
87	0x3e12ccdc	0.1433596
88	0x3ca0f600	0.019648552
89	0x3e23556c	0.15950555
90	0xbdb776ad	-0.089581825
91	0x3d39108f	0.045181807
92	0xbe1d30a1	-0.15350582
93	0x3de04eb8	0.109525144
94	0xbe47edf4	-0.19524366
95	0xbc27d6f2	-0.010244118
96	0xbd7ea44b	-0.0621684
97	0xbcdc4cb6	-0.026892047
98	0x3e04d139	0.12970437
99	0xbe7cef32	-0.24700621
100	0xbe48e586	-0.19618806
101	0xbd03d776	-0.0321879
102	0x3ddd4ab3	0.10805263
103	0x3e5378a8	0.20651495
104	0xbe7e9ae1	-0.24863769
105	0x3d575f4f	0.052581128
106	0xbb85401a	-0.0040664794
107	0x3dc52d5a	0.09627791
108	0xbd820e32	-0.06350364
109	0x3e153ded	0.14574404
110	0x3ceba27d	0.028764004
111	0x3d6ddbec	0.058071062
112	0x3e540b8c	0.2070753
113	0xbe17e6ae	-0.14834091
114	0xbe350b5e	-0.17680117
115	0x3e5116da	0.20418873
116	0x3dff6a0f	0.12471401
117	0xbe3f6bef	-0.18693517
118	0xbd87d831	-0.06633032
119	0x3d80c2c8	0.062871516
120	0x3d2dd8e8	0.042443186
121	0x3e324121	0.17407657
122	0x3d7d8af1	0.061900083
123	0xbd5b8675	-0.053595025
124	0x3e20bd11	0.15697123
125	0x3dc44e22	0.09585215
126	0x3e4cd506	0.20003137
127	0x3dbdb992	0.0926391
128	0xbe2cf27d	-0.16889377
129	0xbdc3059b	-0.095225535
130	0x3d15896e	0.036508016
131	0xbb9e17c3	-0.00482461
132	0xbe46efbe	-0.19427392
133	0xbe163265	-0.14667661
134	0xbca9fc6e	-0.02075025
135	0xbe258afc	-0.161663
136	0xbe33083c	-0.1748361
137	0xbd64ebcb	-0.055888932
138	0xbd404403	-0.04693986
139	0xbe7610f2	-0.24029902
140	0xbe4f2f84	-0.2023297
141	0x3d1ce44c	0.03830366
142	0xbd271be9	-0.0407981
143	0xbdb4eb99	-0.08833999
144	0xbe6b7a87	-0.22995959
145	0x3d3e7a44	0.04650332
146	0x3dea095c	0.114275664
147	0x3b7dc7d7	0.003872385
148	0xbc8e661a	-0.01738267
149	0xbe5839a9	-0.21115746
150	0x3d0417a4	0.032249108
151	0x3e81e3e4	0.2536918
152	0xbccd73c9	-0.025079625
153	0xbe59ea09	-0.21280684
154	0xbe2a9ac3	-0.166606
155	0xbe29a9a2	-0.16568616
156	0xbd658887	-0.056038406
157	0xbddf1e33	-0.10894432
158	0xbdecc173	-0.11560335
159	0x3dbfef68	0.09371835
160	0xbd8012bd	-0.06253574
161	0xbd7f5816	-0.062339865
162	0x3e46aa29	0.19400848
163	0x3dfa69cc	0.122272104
164	0x3e01dcb3	0.12681846
165	0xbd2ce787	-0.04221299
166	0xbe722820	-0.23648119
167	0x3b8d5898	0.0043135397
168	0xbcd5e984	-0.026112325
169	0xbe27cb56	-0.1638616
170	0xbe63c6b8	-0.22243774
171	0xbd43fa54	-0.047846153
172	0xbdde4928	-0.10853797
173	0x3cbb2c4c	0.02284827
174	0x3b13c7cb	0.0022549506
175	0xbdbab3ae	-0.091163024
176	0xbe246baf	-0.16056703
177	0x3e061598	0.13094175
178	0xbcf38867	-0.029728128
179	0xbdbb5acb	-0.09148177
180	0x3d8bd63a	0.0682797
181	0xbe46d5e8	-0.19417536
182	0x3e687e24	0.22704369
183	0x3e026c11	0.12736537
184	0x3e042fd7	0.12908874
185	0xbde3c4c1	-0.11121512
186	0xbd6d182e	-0.057884388
187	0xbe6d9a61	-0.23203422
188	0x3e7538a3	0.23947386
189	0x3e6f94bf	0.23396586
190	0xbdbe1227	-0.09280806
191	0xbdf8f34c	-0.1215578
192	0x3e7583a1	0.23975994
193	0x3e3a4934	0.18191987
194	0xbe07aa1c	-0.13248485
195	0x3decd74d	0.11564503
196	0xbe2757d1	-0.16342093
197	0xbd031c1b	-0.032009225
198	0x3e16ba6e	0.14719555
199	0xbdeec050	-0.116577744
200	0x3ce5b376	0.028039675
201	0x3e4ed66b	0.20198981
202	0x3e500ff5	0.20318587
203	0x3e06acb3	0.13151817
204	0x3e009fde	0.12560984
205	0xbe3ad021	-0.18243457
206	0xbe62e79d	-0.22158666
207	0xbd9d03b8	-0.07666725
208	0x3e2b90e5	0.16754492
209	0x3e1aa63a	0.15102473
210	0x3e0f3c39	0.13987817
211	0xbe20e1fb	-0.15711205
212	0xbdacd192	-0.0843841
213	0x3e700e35	0.2344292
214	0xbe193149	-0.14960207
215	0xbd963538	-0.073343694
216	0xbdf16adb	-0.11787959
217	0x3ce06d72	0.027395938
218	0xbe2dd070	-0.16974044
219	0x3d08e72e	0.033423595
220	0xbe5e5171	-0.21710755
221	0xbdab94fc	-0.08378026
222	0xbdfdc4ed	-0.12391076
223	0x3ccdf11d	0.025139386
224	0x3df65ba5	0.120291986
225	0xbe217f04	-0.15771109
226	0x3e14833a	0.14503184
227	0xbe565dea	-0.20934263
228	0xbdad2aac	-0.08455405
229	0x3e4985fa	0.19680014
230	0x3e431edd	0.19054742
231	0xbe51f44e	-0.20503351
232	0xbe5b8f44	-0.2144137
233	0xbe6e7314	-0.23286086
234	0x3c1d6bcb	0.009608219
235	0x3e57d9ce	0.2107918
236	0xbe52c716	-0.20583758
237	0xbe3452f9	-0.17609777
238	0xbe1aff9d	-0.15136571
239	0xbe0e671d	-0.13906522
240	0x3e39ed53	0.18156938
241	0x3dac018f	0.08398735
242	0xbd77fd5e	-0.060544364
243	0xbe37c8d9	-0.17947711
244	0x3e2db943	0.16965203
245	0xbdeb6a90	-0.114949346
246	0xbe5dbef6	-0.21654877
247	0xbe62db86	-0.22154054
248	0xbe7c660e	-0.24648306
249	0xbe1246b1	-0.14284779
250	0xbe3b9c99	-0.18321456
251	0xbe3b9c1e	-0.18321273
252	0xbd3c6cbc	-0.046002135
253	0xbe0c594b	-0.13705938
254	0xbe6e8da1	-0.23296215
255	0x3e7d943f	0.24763583

bias f4 [32]
0	0xbda9f9a1	-0.08299566
1	0xbe44da1a	-0.19223824
2	0xbe68defb	-0.2274131
3	0x3cdccd0c	0.026953243
4	0xbe551ea9	-0.20812477
5	0x3bd48168	0.006485153
6	0x3b913dce	0.0044324165
7	0x3d87e6cb	0.06635817
8	0x3da8172a	0.08207543
9	0xbe1f082b	-0.1553046
10	0x3e080636	0.1328362
11	0x3d62c0eb	0.055359762
12	0x3ba06342	0.004894645
13	0xbca0a14e	-0.019608166
14	0xbe091e6a	-0.13390508
15	0x3e08ce57	0.13359962
16	0xbd48e056	-0.04904207
17	0xbd9fa954	-0.07795969
18	0x3d54f9b2	0.05199594
19	0x3e4e2ea8	0.20134985
20	0xbd0b4282	-0.033998974
21	0x3d4a5eb9	0.04940674
22	0x3d1b38ce	0.03789597
23	0x3e5e11b5	0.21686442
24	0x3e0732ee	0.13203022
25	0x3e618bcf	0.22025989
26	0x3e3cb845	0.18429668
27	0x3e1648fe	0.14676282
28	0x3e53c94d	0.20682259
29	0xbce94acc	-0.028478049
30	0x3d740148	0.059571534
31	0xbddace03	-0.10683825
