code/model_feas_backups/model_feas_77.pt (torch, 464474 bytes, 158 tensors)

weight f4 [32, 2]
000000 4f 32 0e bf 60 3e 91 3d ca c9 ee be 52 13 9e 3e
       -0.55545515 0.07091975 -0.46638328 0.30874115
000010 20 78 ef be 10 b3 0b 3d b6 21 e3 3e ad 96 92 be
       -0.46771336 0.034106314 0.44361657 -0.28630581
000020 6d 89 23 3f 57 9c 01 3f e1 5b 0b bf 00 4f a3 3b
       0.6388157 0.5062918 -0.5443707 0.004983783
000030 bf 07 33 3f 20 15 46 3d e6 25 b9 be 44 96 cb be
       0.69933695 0.04835999 -0.36161727 -0.3976308
000040 f2 8a c9 3e da b1 ca 3e 48 df db bd ee 14 c6 3e
       0.3936382 0.39588815 -0.10735947 0.38687843
000050 b0 08 88 3d 30 f5 7d bd 04 2d 02 bf 7b 86 c0 be
       0.06642282 -0.062001407 -0.5084994 -0.376026
000060 10 66 da 3d e8 26 a3 3d 37 b4 aa be bd e5 13 3f
       0.10663998 0.07966405 -0.33340618 0.5777243
000070 5b a7 04 bf f9 ea 0a bf 88 7c 95 bd 7e 26 18 bf
       -0.51817864 -0.5426479 -0.07299143 -0.59433734
000080 86 d6 20 bf d9 f2 b3 be 7c 44 41 3e 30 42 0d be
       -0.62827337 -0.35146216 0.18873781 -0.1379478
000090 d7 a3 22 3f a4 0a 0e bf 81 51 2d 3f 19 d7 a1 be
       0.6353125 -0.55484986 0.6770249 -0.3160942
0000a0 a7 6b 9f be c4 99 2a bf a5 8a fd be ab 8e 20 3f
       -0.3113682 -0.6664088 -0.4951984 0.62717694
0000b0 d1 71 1b 3f 29 ca c7 be 2a 12 33 bf 1a b7 a6 3e
       0.60720545 -0.39021423 -0.6994959 0.3256157
0000c0 03 8c 03 3f 9e 24 f9 3e 54 cb 4d 3e 7c 6c 7b 3e
       0.51385516 0.4866075 0.20097095 0.24553102
0000d0 2e 3e c6 3e 28 04 ae be e9 31 15 3f 64 2f 4f be
       0.38719314 -0.33987546 0.5827928 -0.20232922
0000e0 1a df ba 3e 24 bc 6a 3e 0e 95 e4 3e 44 74 1d be
       0.36498338 0.22923332 0.4464497 -0.15376383
0000f0 cc b6 ee be d0 9a 40 3d 09 6e d0 be 21 24 25 3f
       -0.46623838 0.04702264 -0.4070895 0.64508253

bias f4 [32]
000000 9f f7 d2 be 60 cf 01 3d df 6a b3 be 88 9b e8 bd
       -0.41204545 0.03169191 -0.35042474 -0.1135779
000010 ac d8 22 be 2e be 34 bf 29 f8 06 bf 60 a0 13 bf
       -0.15902966 -0.7060269 -0.5272241 -0.5766659
000020 58 34 94 3d 0e e2 2b bf 97 d2 03 3f 90 9b 19 3d
       0.07236546 -0.6714181 0.5149321 0.03750187
000030 f4 fd 18 be e0 2e cd 3c 0d 37 16 3f c0 34 1c 3c
       -0.14940625 0.025046766 0.5867775 0.009534061
000040 b1 bf 2c 3f 58 b4 ec be af e3 06 3f 70 f1 2a bd
       0.6748 -0.4623134 0.5269117 -0.04173416
000050 e2 0b c3 3e 12 f0 bd 3e 71 21 08 3f 3c c5 04 bf
       0.38095003 0.37097222 0.5317603 -0.51863456
000060 34 c8 67 be 07 98 85 be 20 24 9b 3c 88 b8 c3 3d
       -0.22634965 -0.2609255 0.018938124 0.09556681
000070 f8 be 30 3e a1 13 00 3f 43 0b 00 3f 09 62 1e 3f
       0.17260349 0.5002995 0.50017184 0.6186834

weight f4 [16, 32]
000000 e6 98 20 be 00 ca db 3c c0 10 07 3b 04 2f 80 3d
       -0.15683326 0.02682972 0.002060935 0.062589675
000010 54 04 2d be 10 fa 23 be 00 b5 0c bb 7b 6b 30 3e
       -0.16896182 -0.1601336 -0.002147019 0.172285
000020 bc 8e 32 3d f8 55 b8 bc 0c af 2d 3d e1 54 21 be
       0.043593153 -0.02250193 0.042403266 -0.15755035
000030 07 9f 27 3e 9d 99 0e 3e 51 95 34 3e 12 a1 b6 bd
       0.16369258 0.13925786 0.17635085 -0.089174405
000040 0e b4 bd 3d d6 8b 0c be d4 9a 5d 3d 00 fc 9b 3c
       0.09262858 -0.13725218 0.054102734 0.019041061
000050 25 5e ca bd 1b de e2 bd 87 af f2 bd 14 a8 4c bd
       -0.09881238 -0.110775195 -0.118498854 -0.04996498
000060 10 81 cd bd 3c 2d 7c bd 48 2e 91 3c c6 ea ab 3d
       -0.10034382 -0.061566576 0.017722264 0.08394389
000070 f2 ae ac 3d e0 91 97 bc d0 b8 8c 3d 94 6e 04 be
       0.08431806 -0.018502176 0.06871188 -0.12932807
000080 7a b6 04 be f7 50 bf bd 1a 74 8a 3d 1e 50 af 3d
       -0.12960234 -0.09341615 0.06760426 0.08560203
000090 05 55 10 be 94 1d 40 bd 9c de 42 3d d7 7f 31 3e
       -0.14094932 -0.046903208 0.047575578 0.17333923
0000a0 e4 41 2b be 36 ba fc 3d db 32 db bd 20 81 ac bd
       -0.16724354 0.123402044 -0.10703059 -0.08423066
0000b0 e3 56 1a 3e 03 43 0c 3e a6 99 ed 3d b0 eb c8 3c
       0.15072207 0.13697438 0.11601572 0.024526447
0000c0 09 45 11 3e 6a b0 f4 bd 13 58 32 3e 5c 86 19 3d
       0.14186491 -0.11947711 0.1741641 0.03748165
0000d0 00 91 00 bc 76 76 8d 3d b2 79 11 be 63 fc a7 bd
       -0.007847071 0.0690736 -0.1420658 -0.08202436
0000e0 d0 5e c0 3c 5e 4d b6 3d 38 9a 80 bd bc a9 09 3d
       0.02348271 0.08901475 -0.06279415 0.033609137
0000f0 7c 89 60 3d 88 ee 19 be 85 59 15 3e 31 2e 32 be
       0.054818615 -0.15032399 0.1458493 -0.17400433
000100 1f 04 a0 bd e0 a4 9e 3b 79 ec 09 3e 14 c7 09 be
       -0.07813286 0.004841432 0.13469113 -0.13454849
000110 ec a3 06 3d 4a 54 1b be 8e 1b b6 3d 20 7a 85 3d
       0.03287117 -0.15168872 0.088919744 0.06517434
000120 a7 da 0d 3e d0 e6 61 3d bf af 21 3e eb 51 08 3e
       0.1385294 0.05515176 0.15789698 0.13312499
000130 3d 4a 86 bd 10 80 f6 3c bf 1a 12 3e 06 a8 c2 3d
       -0.065571286 0.030090362 0.14268015 0.09504704
000140 48 df 59 3d 20 86 b8 bd c4 33 1c bd 40 f4 ce bc
       0.053191453 -0.09009957 -0.038135305 -0.025262952
000150 84 d3 f2 bd f9 5c 00 3e 00 c1 b8 3a 86 39 9c 3d
       -0.1185675 0.12535466 0.0014095604 0.07628159
000160 00 16 5d ba 76 a1 f7 3d 15 0b d0 bd 89 a6 1e 3e
       -0.0008433759 0.12091343 -0.10158364 0.15493216
000170 64 d0 92 3d 9e 4b b6 3d b4 7f 56 bd 54 a8 4c bd
       0.071686536 0.089011416 -0.05236788 -0.049965218
000180 a9 98 da bd 78 5b 66 3d f8 7b 76 3d ca c6 23 be
       -0.10673649 0.056239575 0.06017682 -0.15993801
000190 f8 67 40 3d ea ca ea bd d8 ba db bc 1c b6 62 bd
       0.046974152 -0.11464484 -0.026822492 -0.055349454
0001a0 c4 df 04 be 32 01 6b bd 88 f9 86 bc 52 18 82 bd
       -0.12975985 -0.057374187 -0.016476408 -0.06352295
0001b0 a9 12 e3 bd b2 a9 e6 3d 25 a8 2a be 41 18 14 be
       -0.110875435 0.112628356 -0.16665705 -0.14462377
0001c0 0a ca d3 3d b7 a7 0b be 16 92 cb 3d 4c c2 70 bd
       0.1034127 -0.13638197 0.09939973 -0.058779046
0001d0 61 44 2d 3e 0e 63 f9 bd 28 96 cb bc d0 64 19 3c
       0.16920616 -0.12177096 -0.024851874 0.0093624145
0001e0 60 ce a8 3c 70 40 c8 3c 40 a2 be 3c 6a e1 14 be
       0.02060622 0.024444789 0.023270726 -0.14539114
0001f0 89 84 98 bd 2e ac d7 3d 17 c6 32 be 76 76 c1 3d
       -0.07447154 0.105308875 -0.17458378 0.09446423
000200 89 ca a5 bd 91 94 26 3e 95 69 33 3e f2 d3 f9 3d
       -0.08095271 0.16267611 0.17520745 0.121986285
000210 e6 b8 c0 3d cc 41 3b bd 00 92 de bd ba fc bb 3d
       0.094102666 -0.045717046 -0.10867691 0.09179063
000220 2e 02 fc bd e1 4e 22 3e 06 0b c4 3d dc 5f 5e bd
       -0.12305103 0.15850402 0.09572415 -0.054290637
000230 56 2e ea bd c4 14 47 bd 5a 40 fb 3d 4e 29 b9 3d
       -0.11434619 -0.048603788 0.122681335 0.09041081
000240 05 7e 1d be 1e 0f f8 3d 8e a7 fe bd 00 3e 80 bc
       -0.15380104 0.121122584 -0.12434302 -0.015654564
000250 fe da d2 3d bb 07 a7 bd c0 7a bb 3b 05 79 18 3e
       0.10295676 -0.08155771 0.00572142 0.14889915
000260 54 d3 c3 bd 90 3a 81 bc aa c4 d4 3d f0 3a 25 be
       -0.09561792 -0.015774995 0.10389073 -0.16135764
000270 58 c4 eb 3c 1e 4a ba 3d 6c 93 e7 bd 2c 3e 7f 3d
       0.028780147 0.09096168 -0.11307415 0.06231515
000280 70 43 85 3c 7c 43 29 bd 28 cf 4c 3d 48 b1 d6 bc
       0.016267508 -0.041324124 0.050002247 -0.026207581
000290 3e 0e e4 3d b6 38 e2 3d 8a 94 ee 3d 61 40 17 3e
       0.11135529 0.11045973 0.11649425 0.14770652
0002a0 ac 10 43 bd 08 c8 da 3c 4c 27 55 bd c0 e4 81 bb
       -0.04762332 0.02670671 -0.05203943 -0.0039640367
0002b0 68 0e 08 be 5e 53 6c bd e0 d4 d9 3b d7 10 1c 3e
       -0.13286746 -0.057696693 0.006647691 0.15240799
0002c0 28 65 f7 bd 40 5d e9 bc 4e 7f eb bd 5b a0 00 3e
       -0.12079841 -0.028486848 -0.11498891 0.12561171
0002d0 04 0f 65 3d 1f 6f 2b 3e 6c 89 0e be 7a ab 86 bd
       0.055922523 0.16741608 -0.1391961 -0.06575675
0002e0 90 ee 42 bc e6 30 68 bd 92 18 7d bd 22 aa bf 3d
       -0.011897698 -0.05668726 -0.06179101 0.09358622
0002f0 d3 73 0f 3e 4e 2f d3 bd 76 45 66 bd 8c 0e 0d 3d
       0.14009027 -0.10311757 -0.056218587 0.0344377
000300 62 79 b7 3d 3b 78 e7 bd 43 0e 2d be 45 f8 03 be
       0.08958699 -0.11302229 -0.16899972 -0.12887676
000310 57 3c 11 3e 68 9c 89 bc 80 c5 5e bc 20 93 8e 3b
       0.14183174 -0.016798213 -0.013596892 0.0043510348
000320 de c9 c9 3d 02 eb ba 3d 59 65 bb bd e6 a7 1e be
       0.09852956 0.091268554 -0.0915019 -0.15493736
000330 6e 73 a4 3d 30 5d bc bc 72 ef 1b be 48 71 ce bc
       0.08029829 -0.022993654 -0.1522806 -0.025200501
000340 60 7b 87 3c d4 2c 24 be c0 ac 7c bb a5 a1 2c 3e
       0.016538322 -0.16032726 -0.0038555115 0.16858537
000350 f7 f6 33 3e b9 98 29 3e e2 34 a5 bd 5f 68 1f 3e
       0.17574678 0.16562165 -0.08066727 0.15567158
000360 c5 37 31 3e a4 22 22 bd 52 85 dc 3d 64 00 04 be
       0.1730643 -0.039583817 0.10767616 -0.12890774
000370 55 b6 07 be cc 93 fe bd 1a 32 cc 3d 15 e9 1b 3e
       -0.13253148 -0.12430534 0.099704936 0.15225632
000380 35 31 b1 bd a9 21 29 be 28 54 15 bd b8 2f 44 bd
       -0.086519636 -0.16516747 -0.03645721 -0.04789707
000390 44 c4 89 3d 58 d9 30 3d 99 a0 01 3e 73 5e 1e 3e
       0.06726888 0.043176025 0.1265892 0.15465717
0003a0 22 9e 5a bd 64 2e 77 3d 40 3b 11 bb 7e c1 d7 3d
       -0.053373463 0.060346976 -0.002216056 0.105349526
0003b0 81 f5 27 be 54 a1 18 be bf 00 14 be de ac ba 3d
       -0.16402246 -0.14905292 -0.1445341 0.09115003
0003c0 56 7c 85 3d 6c 73 ec bd f6 41 f5 3d 86 9b c4 3d
       0.06517856 -0.115454525 0.11975472 0.09599976
0003d0 14 26 2f be 30 ff 89 3d 62 52 c3 3d 20 f9 6c 3d
       -0.1710437 0.06738126 0.09537198 0.05785477
0003e0 3d 22 a0 bd a7 ff 8d bd 67 f4 c0 bd 67 65 87 bd
       -0.078190304 -0.069335274 -0.09421616 -0.06611138
0003f0 42 12 12 be 66 32 b8 3d d0 44 40 3c bd 8a 22 3e
       -0.14264777 0.08993988 0.011735156 0.15873237

bias f4 [16]
000000 84 09 29 be 78 68 de bc ea f1 c6 3d b0 ea 94 bd
       -0.16507536 -0.027149424 0.0971411 -0.072713256
000010 79 48 c5 bd 1c 4e 13 bd d8 12 67 3d c0 7c 22 be
       -0.09632964 -0.035963163 0.056414455 -0.15867901
000020 b0 87 cc bd a9 94 14 3e 81 04 12 3e d8 68 8e bd
       -0.09986818 0.14509834 0.1425953 -0.06953591
000030 98 f7 22 be 80 b7 ae 3a 0b 18 df bd f0 d8 1a be
       -0.15914762 0.0013329834 -0.10893258 -0.15121818

weight f4 [32]
000000 00 00 80 3f 00 00 80 3f 00 00 80 3f 00 00 80 3f
       1.0 1.0 1.0 1.0
000010 00 00 80 3f 00 00 80 3f 00 00 80 3f 00 00 80 3f
       1.0 1.0 1.0 1.0
000020 00 00 80 3f 00 00 80 3f 00 00 80 3f 00 00 80 3f
       1.0 1.0 1.0 1.0
000030 00 00 80 3f 00 00 80 3f 00 00 80 3f 00 00 80 3f
       1.0 1.0 1.0 1.0
000040 00 00 80 3f 00 00 80 3f 00 00 80 3f 00 00 80 3f
       1.0 1.0 1.0 1.0
000050 00 00 80 3f 00 00 80 3f 00 00 80 3f 00 00 80 3f
       1.0 1.0 1.0 1.0
000060 00 00 80 3f 00 00 80 3f 00 00 80 3f 00 00 80 3f
       1.0 1.0 1.0 1.0
000070 00 00 80 3f 00 00 80 3f 00 00 80 3f 00 00 80 3f
       1.0 1.0 1.0 1.0

bias f4 [32]
000000 00 00 00 00 00 00 00 00 00 00 00 00 00 00 00 00
       0.0 0.0 0.0 0.0
000010 00 00 00 00 00 00 00 00 00 00 00 00 00 00 00 00
       0.0 0.0 0.0 0.0
000020 00 00 00 00 00 00 00 00 00 00 00 00 00 00 00 00
       0.0 0.0 0.0 0.0
000030 00 00 00 00 00 00 00 00 00 00 00 00 00 00 00 00
       0.0 0.0 0.0 0.0
000040 00 00 00 00 00 00 00 00 00 00 00 00 00 00 00 00
       0.0 0.0 0.0 0.0
000050 00 00 00 00 00 00 00 00 00 00 00 00 00 00 00 00
       0.0 0.0 0.0 0.0
000060 00 00 00 00 00 00 00 00 00 00 00 00 00 00 00 00
       0.0 0.0 0.0 0.0
000070 00 00 00 00 00 00 00 00 00 00 00 00 00 00 00 00
       0.0 0.0 0.0 0.0

running_mean f4 [32]
000000 b6 8c b9 be ce 52 16 3e eb e0 a1 be e9 32 62 be
       -0.36240166 0.14680025 -0.3161691 -0.22089733
000010 94 c3 2f bd 8f 27 2d bf 4a 96 0c bf 39 d4 2c bf
       -0.042911127 -0.67638487 -0.5491682 -0.67511326
000020 8e b0 2c 3e 2b 47 0d bf 0d 88 fc 3e fa 6b 40 bd
       0.16864225 -0.5518672 0.49322549 -0.046977974
000030 63 9b 06 be 4d a1 59 3e c4 4b e8 3e c2 b1 25 be
       -0.13145213 0.21252938 0.45370305 -0.1618109
000040 c9 8f 1a 3f 21 42 03 bf 14 3d a9 3e 0e fd 2d be
       0.6037565 -0.5127278 0.3305441 -0.16991064
000050 dd 85 4d 3e 99 d6 14 3f 94 4d c5 3e f2 e1 c5 be
       0.20070596 0.5813995 0.3853575 -0.38648945
000060 0b 63 e0 bd 80 c1 4b be da 59 cf bd 48 ab bd 3b
       -0.10956391 -0.19898033 -0.1012456 0.0057882406
000070 7e 91 62 3e 4b 20 dd 3e a3 c4 09 3f 83 6f 54 3f
       0.22125813 0.431887 0.5381567 0.82982653

running_var f4 [32]
000000 47 62 ab 3d 62 b9 9c 3d 1c af 71 3d dc 0f 8c 3d
       0.08368354 0.076525465 0.059004888 0.068389624
000010 34 7d 2c 3e 18 99 a3 3d 27 10 08 3e 13 54 90 3d
       0.16844636 0.07988185 0.13287412 0.07047286
000020 8c 73 9d 3d 3b a7 0a 3d 5a 9e fd 3a df 28 d1 3d
       0.076880544 0.03385089 0.0019349561 0.10212874
000030 b4 19 94 3b 4e cf c6 3d 6e 7e 0d 3e ad bf 9b 3d
       0.0045196656 0.09707509 0.1381776 0.07604919
000040 cb c9 0a 3e 8b 7a 58 3c 6a 3a 2c 3e 60 d0 10 3e
       0.1355354 0.01321281 0.16819158 0.14141989
000050 53 38 fa 3d 2e 72 13 3e 4d f0 02 3e ff 75 1a 3e
       0.12217774 0.14399025 0.1278698 0.15084074
000060 b1 da fe 3d e4 8b c6 3c 47 6c 80 3d 35 a1 c9 3d
       0.12444056 0.024236627 0.06270652 0.09845201
000070 2d 37 45 3d 96 5a 6c 3d 83 b4 70 3d d5 17 03 3e
       0.048148323 0.057703577 0.0587659 0.1280206

weight f4 [32, 3]
000000 b2 ea e8 be 80 fe 9b 3d 40 02 47 3c 85 d1 b7 be
       -0.45491558 0.076169014 0.012146533 -0.35902038
000010 80 29 89 bb 84 1b 4b be 20 1f d2 3c 20 ab 21 3d
       -0.0041858554 -0.19834715 0.025649607 0.03946984
000020 81 52 00 bf b7 ea d1 be 30 78 60 3d 29 51 05 bf
       -0.5012589 -0.40999386 0.05480212 -0.52076966
000030 18 40 4e 3e 5a 9f a9 3e 98 5a ff 3d 2b 8f 85 be
       0.20141637 0.33129388 0.12468451 -0.2608579
000040 e6 67 b1 3e 5a c7 c6 be 6c ba 81 3e 24 4a bc be
       0.3464958 -0.38823968 0.2533754 -0.36775315
000050 00 bf d2 3e a0 0e 67 bd f5 7a 12 bf a2 0f e2 be
       0.41161346 -0.05641043 -0.5721887 -0.44152552
000060 d8 b0 dc be a4 72 37 be d8 56 3b be f4 21 ac 3e
       -0.4310367 -0.17914826 -0.18294847 0.33619654
000070 40 f8 a6 bc ee 6a f5 be f0 7b a9 3d ba ca e9 be
       -0.020382047 -0.47933143 0.08275592 -0.4566248
000080 76 1d 0c 3f 96 c6 82 3e 9b 79 d9 be a0 89 04 bd
       0.54732454 0.25542134 -0.4247559 -0.032357812
000090 ae 93 06 bf c6 fd fe be 31 1a 08 bf 9e e3 0c bf
       -0.5256909 -0.4980299 -0.53164965 -0.55034816
0000a0 28 93 88 3d 62 6b 13 bf f0 2d f3 3d 7e c7 9a be
       0.06668693 -0.5758573 0.11873996 -0.30230325
0000b0 b4 7e 2a be 04 2e 07 3f 64 80 dc be 66 7e e7 be
       -0.16649896 0.5280459 -0.43066704 -0.45213622
0000c0 e6 95 f3 be 24 91 9e bd a8 53 c4 3e 41 9d fb be
       -0.475753 -0.07742527 0.38345075 -0.49143413
0000d0 c0 a3 ac 3e 6c 5f f7 bd a0 dd 8b 3c 50 a2 0a be
       0.3371868 -0.12078747 0.017073452 -0.1353848
0000e0 20 6d 50 bd f0 6c 3e 3d 46 69 b7 3e a7 57 0c bf
       -0.05088532 0.04649061 0.35822505 -0.54821247
0000f0 70 b4 10 bd 40 63 8e bc b7 37 bf be 62 3e 05 3f
       -0.03532833 -0.01738131 -0.37347195 0.52048314
000100 49 7a a9 be 68 b3 b3 3d 34 88 85 3e 44 25 f6 3e
       -0.3310111 0.087744534 0.26080477 0.48075306
000110 e6 65 08 3f 76 d2 e0 be 7a 94 58 be 92 9e 76 be
       0.53280485 -0.4391057 -0.2115039 -0.24083927
000120 00 63 5b 3d 42 96 c6 3e 80 4d e1 bb 88 00 11 bf
       0.05356121 0.38786513 -0.006875694 -0.56641436
000130 5a bb 97 3e b0 c6 55 3e f6 97 53 be f4 83 85 3e
       0.29635125 0.20876575 -0.20663437 0.26077235
000140 f0 b8 06 3e a4 0a 75 3e 08 ed ab 3d ac ad 4c 3e
       0.13156486 0.2392984 0.083948195 0.19988126
000150 a4 0b 4d be 10 cb f9 3d 68 1b 08 3f 17 03 ec be
       -0.20023972 0.12196934 0.5316682 -0.46096107
000160 18 42 10 3f 00 b1 81 3d 60 1f 2b 3d 14 8e e2 3e
       0.5635085 0.06332588 0.04177797 0.44249022
000170 7c c2 55 3e ae 2b e6 be 36 66 a3 3e 34 bc bb be
       0.20874971 -0.449552 0.31913918 -0.36667025

bias f4 [32]
000000 10 fb 0b 3f 04 20 0c bf 20 30 9d 3c a7 90 0f bf
       0.54679966 -0.5473635 0.019187987 -0.56080097
000010 88 8d 52 3e d0 a1 9d 3d 14 70 80 3e 68 17 92 3d
       0.20561802 0.07696879 0.2508551 0.07133371
000020 f8 de 04 be ec 62 91 be 20 7a e5 3e d0 0a 07 3f
       -0.12975681 -0.28395784 0.44819736 0.52750874
000030 c2 7e 12 3f 82 9d d6 3e a6 fa b6 3e dc b3 f6 be
       0.5722467 0.41917044 0.35738105 -0.48184097
000040 90 92 a8 3d b2 08 d3 be 2a 43 c1 be 84 bc 0e 3e
       0.082310796 -0.41217571 -0.37746555 0.139391
000050 14 d6 52 3e 5a 40 c0 3e 6e 2b 62 be 8e 27 11 3f
       0.20589477 0.37549096 -0.2208688 0.5670098
000060 67 e9 89 be 61 23 bb be 44 b6 05 be 30 39 cc be
       -0.26935884 -0.3655043 -0.1305781 -0.3988738
000070 c2 09 bc 3e 84 68 16 3e 12 4f a8 3e 84 54 ed bd
       0.36726195 0.14688307 0.32872826 -0.11588386

weight f4 [16, 32]
000000 a8 96 d9 bd f8 27 7a 3d a8 33 b0 bd 30 87 12 bc
       -0.106244385 0.061073273 -0.08603603 -0.008943364
000010 f0 a3 a6 3c 74 3f a4 bd e0 d7 9a 3b c9 bb 15 3e
       0.020341843 -0.08019915 0.0047254413 0.14622416
000020 bc 6d 02 bd 08 32 24 3d 00 b5 f1 3a 00 1b 4c 3a
       -0.031842932 0.040086776 0.0018440783 0.0007786006
000030 b2 c7 09 be b8 01 a5 bd a8 63 6b 3d 21 59 20 be
       -0.13455084 -0.080569685 0.057468086 -0.15659
000040 20 0e c7 bd 10 9e e5 bd 40 5b 93 bb f2 93 f9 bd
       -0.09719491 -0.11211789 -0.004496962 -0.121864215
000050 c2 e4 fb bd 97 f6 24 3e b0 e0 c8 3c fc 40 24 3d
       -0.122994915 0.16109692 0.024521202 0.040101036
000060 07 44 10 3e 2e e5 f8 3d f8 19 cb bc c6 93 6a bd
       0.1408845 0.121530876 -0.024792656 -0.057269834
000070 16 16 7e bd 48 b9 80 bc 57 50 9d bd 60 c8 49 bd
       -0.06203278 -0.015713349 -0.07681339 -0.049263358
000080 b8 d6 07 bd 6c 80 47 bd a6 e3 f2 3d 20 b1 ec bc
       -0.033163756 -0.048706457 0.11859827 -0.028893054
000090 4f ca 30 3e 48 bc 21 3d 26 1c 8c 3d 7e e2 94 3d
       0.17264675 0.0394862 0.068413064 0.072697625
0000a0 2b 93 1b 3e a4 12 65 3d 9d 0c 14 3e 64 9d 44 bd
       0.15192859 0.05592598 0.14457937 -0.048001662
0000b0 6c 59 6c bd 72 97 d2 bd 0f 74 24 be 66 6f f1 3d
       -0.057702467 -0.10282792 -0.16059898 0.11788826
0000c0 1e 42 b8 3d c2 23 d6 3d 8e bb c4 3d 8b 9f 1f 3e
       0.08996986 0.10456039 0.09606086 0.15588205
0000d0 ad 79 2b 3e 50 92 19 3d 42 0a d8 bd b6 8b d2 bd
       0.16745634 0.03749305 -0.105488315 -0.10280554
0000e0 08 79 23 bd d0 cc 74 3d e5 0d 1d 3e 80 98 2f be
       -0.039910346 0.059765637 0.15337332 -0.17148018
0000f0 da 38 d0 3d 86 ee ea bd ee cd f7 3d 28 bd 5f 3d
       0.101670936 -0.11471276 0.12099825 0.054623753
000100 f7 e0 0f 3e d3 8b c9 bd 49 51 17 3e 43 66 2f be
       0.14050661 -0.098411225 0.14777102 -0.17128853
000110 54 b7 11 bd 3c e9 6d 3d 80 47 e3 3a f5 75 84 bd
       -0.035575226 0.058083758 0.0017340034 -0.06467811
000120 d6 fc 9a 3d 60 e7 74 3c 7e 53 89 3d 20 7a de bb
       0.07567756 0.014947742 0.06705378 -0.006789461
000130 99 dc 9b bd b2 72 27 be 1a a1 b3 3d 02 1e c4 bd
       -0.07610435 -0.16352347 0.08770962 -0.09576036
000140 c0 b3 70 bb b1 89 0d be 40 27 4c 3c 72 4c 98 3d
       -0.0036728233 -0.13822056 0.01246053 0.07436456
000150 68 90 c4 3c 45 20 ba bd ee 5e f0 bd ac fe c1 bd
       0.02399464 -0.09088186 -0.117368564 -0.09472403
000160 6a 33 22 be e8 f2 a1 bd ce b3 0f be ed 61 1f 3e
       -0.15839925 -0.07907659 -0.14033434 0.155647
000170 9f 51 25 be 8c 19 41 bd c0 07 96 bb 80 2a 15 3d
       -0.16144417 -0.047143504 -0.0045785606 0.036417484
000180 41 08 f4 bd dc 96 da bd c8 36 67 bd 58 65 d3 bc
       -0.11915637 -0.106733054 -0.056448728 -0.02580516
000190 e8 4d ce 3c 7c 96 16 be 6e 62 0d be 90 e8 a8 bc
       0.025183633 -0.14705843 -0.13807079 -0.020618707
0001a0 c5 32 05 3e 64 f6 23 bd 00 b2 16 ba b0 36 7d bc
       0.13007648 -0.0400299 -0.000574857 -0.015454933
0001b0 42 1c aa 3d fb e5 e0 bd bc 53 7e 3d d6 1a d7 3d
       0.08306171 -0.10981365 0.062091574 0.105031654
0001c0 20 49 e4 bd 38 d1 09 be 3d bb 17 3e 06 92 a7 bd
       -0.1114676 -0.13458717 0.1481752 -0.08182149
0001d0 6c 08 56 bd 23 b6 11 3e a0 21 07 3d 10 84 2e bd
       -0.052254125 0.14229636 0.03299105 -0.042606413
0001e0 a0 13 ca bc 32 ed 66 bd 60 55 3c 3d ec c4 1a 3d
       -0.024667561 -0.05637855 0.045979857 0.037785456
0001f0 00 30 a5 bd 30 d1 ef 3c 84 8d 8a bd 91 34 2f 3e
       -0.08065796 0.029274553 -0.06765273 0.17109896
000200 9f eb 04 3e d0 8f 7f bc 8c 7e 36 3d f8 f5 40 3d
       0.12980507 -0.015598252 0.04455428 0.047109574
000210 d0 3f 12 bc 1c 37 36 bd 60 3d cc 3c 88 01 90 3d
       -0.008926347 -0.04448615 0.02493161 0.07031542
000220 4f 75 1b 3e 27 1d 24 be ca ce 93 3d fc 47 31 bd
       0.15181468 -0.16026746 0.07217176 -0.04328154
000230 53 f8 14 3e 96 0d 9e 3d 4c f3 62 bd 10 c0 f8 3c
       0.14547853 0.07717435 -0.055407807 0.03036502
000240 48 d0 c5 bd 1b ac 14 3e 98 78 72 3d 04 e0 24 be
       -0.09658867 0.14518778 0.05919704 -0.1610108
000250 d1 b9 a8 bd ab 9b 24 be da 65 d1 bd 40 1a 9b bc
       -0.08238567 -0.16075008 -0.10224505 -0.018933415
000260 e8 65 ef bd e2 e8 b6 3d e4 2b 28 be db 72 18 3e
       -0.11689359 0.089311376 -0.16422993 0.14887564
000270 60 15 08 bd 6f e1 1b 3e 52 d3 59 bd 1c 3f 3a bd
       -0.03322351 0.15222715 -0.053180046 -0.045470342
000280 bb 11 14 3e 4b c4 31 3e cc 2f 13 bd f2 7d d5 3d
       0.14459889 0.17360036 -0.035934255 0.10424413
000290 9e 1a 8f bd 68 e9 3a 3d 9d 03 b7 bd 26 f3 fb 3d
       -0.06987499 0.04563275 -0.08936236 0.12302236
0002a0 30 c5 0d be 28 e9 45 bd ba 6a 9c bd d3 cc 00 3e
       -0.13844752 -0.04831806 -0.07637544 0.12578134
0002b0 76 05 1e be 60 72 fb bc c3 dc 20 be cb 6a b5 bd
       -0.1543177 -0.030694187 -0.15709214 -0.0885826
0002c0 8e 69 f7 3d 05 b0 b4 bd 9a 2a ca 3d f2 ec e6 3d
       0.1208068 -0.088226356 0.09871407 0.112756625
0002d0 1e ae d4 3d 80 0c f4 3a 6c aa 09 be fc 0f 89 3d
       0.10384773 0.0018619448 -0.13443917 0.06692502
0002e0 f8 6d 86 3c bf 0c 07 3e a3 77 29 be 71 aa 24 be
       0.016409859 0.13188456 -0.16549544 -0.16080643
0002f0 32 2c 00 be 62 f7 cd 3d a5 07 0c 3e 42 b7 c7 3d
       -0.12516859 0.1005695 0.13674791 0.097517505
000300 34 7e 0f be de 58 75 bd cc 58 ff bd 03 d0 20 be
       -0.14012986 -0.059899203 -0.124681085 -0.1570435
000310 0e c7 ee 3d 30 b7 a5 3c 20 66 6e 3d ee 06 ee 3d
       0.116590604 0.020228952 0.058202863 0.116224155
000320 2e 76 ae 3d 28 47 09 bd 9c 6a 26 be 00 8b f8 ba
       0.08518635 -0.033515126 -0.16251606 -0.0018962324
000330 38 99 26 3d 38 c6 4c bd 64 8e 00 bd 14 e2 9b bd
       0.040673465 -0.049993724 -0.031385794 -0.0761148
000340 75 c1 1f 3e 74 af 3e 3d ea 2e bd bd c2 c2 d2 3d
       0.15601142 0.046554044 -0.09237464 0.10291053
000350 d1 c6 24 3e 98 39 72 bd e0 26 24 be 1a 89 f7 3d
       0.16091467 -0.059136957 -0.16030455 0.12086697
000360 c4 03 36 bd 02 a0 e9 bd e5 d9 29 be 60 88 0c 3d
       -0.044437185 -0.11407472 -0.16587026 0.034309745
000370 8a fe a8 3d 40 cd d6 bb 98 b2 d4 3c 03 68 0f 3e
       0.082516745 -0.0065552294 0.025964066 0.14004521
000380 d0 be 63 3c c0 40 f5 bd 3a b0 82 bd 27 00 fd bd
       0.013900474 -0.11975241 -0.06381269 -0.12353545
000390 7f 5a 24 3e 20 27 26 bc 62 be f2 3d 0f 1b 0d be
       0.16050147 -0.010141164 0.11852719 -0.13779853
0003a0 a0 70 82 bb 10 60 00 bd 10 e2 ac bc d3 2d 2a be
       -0.003980711 -0.031341612 -0.021103889 -0.16619043
0003b0 60 ec 40 bd ba 72 83 bd 58 21 aa 3c 09 6a 84 bd
       -0.047100425 -0.06418367 0.020767853 -0.06465537
0003c0 85 b2 98 bd d4 e3 12 bd 07 01 8d bd 28 62 91 3c
       -0.07455925 -0.035861805 -0.068849616 0.017747
0003d0 e8 f0 34 bd a7 db 0e 3e 7c b1 1d 3d 70 d4 9d bc
       -0.04417506 0.13950978 0.03849934 -0.019266337
0003e0 88 61 be bd 52 a3 29 be 50 67 7c 3c 00 6e 2b 3a
       -0.09295946 -0.16566208 0.015405491 0.00065395236
0003f0 d6 2b 99 3d 91 d3 01 3e 70 ca 43 3c f0 38 68 bc
       0.07479064 0.12678362 0.01195012 -0.014173731

bias f4 [16]
000000 c2 e5 ac 3d bd 30 de bd 96 ef f5 3d 18 54 22 3d
       0.0844226 -0.1084914 0.12008588 0.03963098
000010 5a 56 d2 3d 60 a7 51 3d 12 c8 b8 3d b0 21 34 3c
       0.102703765 0.051185012 0.090225354 0.01099436
000020 47 96 8e bd 5a 7f ff 3d 60 73 ec 3b 69 7c 99 bd
       -0.06962257 0.12475462 0.007215902 -0.074944325
000030 4a 0d ee bd 5a d3 e7 3d 94 13 8f bd ef 84 34 be
       -0.116236284 0.11319609 -0.06986156 -0.17628835

weight f4 [32]
000000 00 00 80 3f 00 00 80 3f 00 00 80 3f 00 00 80 3f
       1.0 1.0 1.0 1.0
000010 00 00 80 3f 00 00 80 3f 00 00 80 3f 00 00 80 3f
       1.0 1.0 1.0 1.0
000020 00 00 80 3f 00 00 80 3f 00 00 80 3f 00 00 80 3f
       1.0 1.0 1.0 1.0
000030 00 00 80 3f 00 00 80 3f 00 00 80 3f 00 00 80 3f
       1.0 1.0 1.0 1.0
000040 00 00 80 3f 00 00 80 3f 00 00 80 3f 00 00 80 3f
       1.0 1.0 1.0 1.0
000050 00 00 80 3f 00 00 80 3f 00 00 80 3f 00 00 80 3f
       1.0 1.0 1.0 1.0
000060 00 00 80 3f 00 00 80 3f 00 00 80 3f 00 00 80 3f
       1.0 1.0 1.0 1.0
000070 00 00 80 3f 00 00 80 3f 00 00 80 3f 00 00 80 3f
       1.0 1.0 1.0 1.0

bias f4 [32]
000000 00 00 00 00 00 00 00 00 00 00 00 00 00 00 00 00
       0.0 0.0 0.0 0.0
000010 00 00 00 00 00 00 00 00 00 00 00 00 00 00 00 00
       0.0 0.0 0.0 0.0
000020 00 00 00 00 00 00 00 00 00 00 00 00 00 00 00 00
       0.0 0.0 0.0 0.0
000030 00 00 00 00 00 00 00 00 00 00 00 00 00 00 00 00
       0.0 0.0 0.0 0.0
000040 00 00 00 00 00 00 00 00 00 00 00 00 00 00 00 00
       0.0 0.0 0.0 0.0
000050 00 00 00 00 00 00 00 00 00 00 00 00 00 00 00 00
       0.0 0.0 0.0 0.0
000060 00 00 00 00 00 00 00 00 00 00 00 00 00 00 00 00
       0.0 0.0 0.0 0.0
000070 00 00 00 00 00 00 00 00 00 00 00 00 00 00 00 00
       0.0 0.0 0.0 0.0

running_mean f4 [32]
000000 74 8c 39 3e 4e 1d cb bf b8 04 39 c0 6b 60 6a c0
       0.18119985 -1.5868318 -2.890913 -3.662135
000010 dc eb 7f bf 8f ac 7d c0 09 2f 91 40 5c ce 70 3f
       -0.9996927 -3.9636571 4.5369916 0.9406488
000020 f6 05 c7 bd 9d 3c 2f c0 7e dc be 40 f3 65 30 40
       -0.09717934 -2.7380745 5.9644156 2.7562225
000030 ca 04 0a 3f 6a db 42 c0 d1 57 96 3f e5 90 f0 be
       0.5391356 -3.044642 1.174555 -0.46985546
000040 6b d7 24 40 4b db 3d c0 2f 6b ec 3d 46 67 9a c0
       2.575648 -2.9665096 0.11543881 -4.8251066
000050 71 4e d9 bf 09 f0 2d 40 d5 a9 ab bd bb cc f1 3e
       -1.6977063 2.7177756 -0.08382002 0.4722651
000060 70 fc 1f c0 f8 21 6c bf 2e 6e 66 bf a3 7c 4a 3e
       -2.4997826 -0.9223933 -0.9001187 0.19774108
000070 7f c0 21 40 45 d5 2c c0 3d 04 87 bf b4 b6 78 c0
       2.527374 -2.700517 -1.0548168 -3.8861513

running_var f4 [32]
000000 13 6b fa 3e 24 ff 3c 40 f6 e5 89 41 1b a7 91 41
       0.48909816 2.9530725 17.237286 18.206594
000010 6f 4b 3d 41 4b d0 26 41 7f a8 3b 41 d2 78 5c 42
       11.830916 10.425853 11.728637 55.11799
000020 77 58 e0 40 90 d6 8c 41 64 22 9e 41 cb ba 5e 41
       7.010799 17.604767 19.766792 13.920604
000030 8d ee 62 42 1e 9d b0 41 80 88 40 41 82 bd 26 42
       56.73296 22.076717 12.033325 41.685066
000040 9c 47 13 41 94 dc cc 40 9a bd fc 3f f3 49 8e 41
       9.204983 6.401926 1.9745362 17.786108
000050 ee ad 2b 41 93 e5 cc 40 90 14 5c 42 1d 7e 2f 41
       10.729963 6.403024 55.02008 10.968289
000060 d8 37 29 41 18 cd 5b 41 be e5 07 41 f3 1a 93 40
       10.576134 13.737572 8.493589 4.5970397
000070 2d 8b d2 41 c5 99 cb 41 52 70 bc 41 84 11 12 41
       26.317957 25.450083 23.554844 9.129276

weight f4 [32, 18]
000000 2c 88 0c 3d 60 53 83 3b 77 30 1f be ea 10 22 be
       0.03430955 0.004007742 -0.15545832 -0.15826765
000010 63 e8 3f 3e ca 51 92 bd 67 99 6a 3e fe 31 bb 3d
       0.18740992 -0.07144506 0.22910081 0.09140395
000020 24 ec 25 be 4a 78 81 3d 36 11 d8 3d ab 78 44 3e
       -0.16203362 0.063217714 0.10550158 0.19186656
000030 ce 1b fe bd 94 9b 5a 3d 41 d2 31 be 00 ac f1 3a
       -0.12407647 0.053371027 -0.17365362 0.0018438101
000040 95 08 30 3e 58 63 91 bd 1f 73 25 be 7d ae 42 3e
       0.17190774 -0.070990264 -0.16157196 0.19011874
000050 20 c0 99 bb 2e 07 4f be 05 a9 21 3e c0 81 88 bd
       -0.0046920925 -0.20217583 0.15787132 -0.06665373
000060 f8 24 80 bc e2 7f 98 bd 3f c5 1e 3e 08 86 56 be
       -0.015642628 -0.07446267 0.15504931 -0.20949566
000070 94 1b 27 be 85 1f 28 be b8 e5 09 bd 28 87 b3 bd
       -0.16319114 -0.16418274 -0.033666342 -0.087660134
000080 c0 46 a3 bd 5a 8b a2 bd f0 a7 99 bd 85 9c 09 3e
       -0.07972479 -0.079367355 -0.07502735 0.13438614
000090 48 79 e8 bc cc 2d 15 be 26 b0 e0 bd c0 43 65 3c
       -0.028378144 -0.14568251 -0.10971098 0.013993204
0000a0 eb b0 24 be 5b ac 4e 3e a1 63 13 3e 0a a7 83 3d
       -0.16083114 0.20182936 0.14393474 0.064283445
0000b0 91 9e 2c 3e a5 06 63 be eb b5 66 3e 16 8d 24 be
       0.16857363 -0.22170503 0.22530334 -0.16069445
0000c0 c0 b3 8b bc f7 b9 0a 3e f8 e3 63 bd de e6 d3 3d
       -0.017053485 0.13547502 -0.05563733 0.10346769
0000d0 94 aa 70 3d a0 da 3e bc f7 6d 10 be 95 45 3f be
       0.058756426 -0.011648804 -0.14104448 -0.18678887
0000e0 9d d1 59 3e 12 bd ae 3d 55 02 1b 3e 7c c7 34 be
       0.21271367 0.08532156 0.15137608 -0.17654222
0000f0 e6 ec e2 3d 52 fa c9 3d ef 30 1f 3e 69 5b 6d 3e
       0.11080341 0.09862198 0.1554601 0.23179401
000100 0c 33 85 bd 25 6a 57 3e a8 f3 c4 bc 1c f4 4a bd
       -0.06503877 0.21036585 -0.024041966 -0.049549207
000110 6f f6 1c be c3 52 33 3e 46 9a cb bd 90 1e 02 bd
       -0.15328382 0.1751204 -0.09941535 -0.031767428
000120 42 7c e1 3d 80 49 b7 3b 3c 74 29 3d 10 36 31 be
       0.110100284 0.0055934787 0.041370615 -0.1730578
000130 22 74 3e be e2 0d da bd 94 7d 1d be f0 ce 17 bd
       -0.18598989 -0.10647179 -0.15379936 -0.037062585
000140 da 20 bd 3d 84 1c 2f 3d c0 09 31 be 24 01 77 bd
       0.092347816 0.042751804 -0.17288876 -0.060303822
000150 f8 16 a8 bd 0c c9 7b 3d 62 96 2c be 8d cd 60 3e
       -0.08207506 0.06147103 -0.16854241 0.21953411
000160 7c 2b 68 bd 6c 64 49 3d 45 f3 1f 3e 5c f8 2f 3d
       -0.056682095 0.049168035 0.15620144 0.042961463
000170 7d 59 3f 3e 97 18 56 3e 00 51 66 be 9c 02 60 3d
       0.18686481 0.20907818 -0.22491837 0.05468999
000180 b4 8c 10 3d 66 05 be 3d 79 70 57 be c0 d7 d4 bc
       0.035290435 0.092783734 -0.21038999 -0.025981784
000190 ec e4 b4 bd 07 25 f6 bd 1d 39 2c 3e 88 05 31 bd
       -0.08832726 -0.12018781 0.16818662 -0.043218166
0001a0 0c ad 0f bd 38 b8 df bd 35 c4 46 be a2 32 d0 bd
       -0.03507714 -0.10923809 -0.19410785 -0.101659074
0001b0 5e 5a 37 be d2 6c 4d be af e2 0d 3e b6 2b cc 3d
       -0.17905566 -0.20061043 0.13856004 0.09969275
0001c0 c0 29 57 3c fd 67 32 3e 06 06 f4 3d 1e d4 b4 bd
       0.013132513 0.17422481 0.119152114 -0.08829521
0001d0 e8 a0 a0 bc a6 60 2d be d6 17 da 3d cb e6 19 3e
       -0.019607976 -0.169314 0.106490776 0.15029447
0001e0 a1 9e 05 3e 4e 1d 6b be eb c3 5f 3e a8 e1 28 be
       0.13048793 -0.22960398 0.2185208 -0.16492331
0001f0 08 9d 8c 3c 80 c0 21 bc 29 23 24 3e 5e 9d 86 bd
       0.017164722 -0.009872556 0.16029038 -0.06572984
000200 11 b2 5f 3e f7 19 6a be 23 c1 59 3e f2 6a b2 3d
       0.2184527 -0.22861467 0.21265082 0.087118044
000210 fe 05 a8 3d 67 bf 14 3e f3 75 44 be 00 42 93 b9
       0.08204268 0.14526139 -0.19185619 -0.000280872
000220 b9 21 5b 3e 05 cf 5e 3e 54 df b4 bd 7f c7 0d 3e
       0.21399583 0.21758659 -0.08831659 0.13845633
000230 3d 18 45 3e 7c dd 4d be 25 41 42 3e 56 9d aa 3d
       0.19247527 -0.20104021 0.18970163 0.08330791
000240 99 92 45 3e a8 40 cd 3c d6 46 c5 3d 92 e3 24 be
       0.19294204 0.025055245 0.096326515 -0.16102436
000250 00 d4 61 3c 94 a8 21 bd 28 ee c5 3c 46 14 91 3d
       0.013783455 -0.03946741 0.024161413 0.07083945
000260 bd b2 60 3e 6f e2 60 3e 17 dc 0c 3e ee f9 a4 bd
       0.21943183 0.21961378 0.13755833 -0.08055483
000270 b7 f7 4c 3e 21 5c 0a 3e 6a b6 9d 3d 7e 6b ad 3d
       0.2001637 0.13511707 0.07700808 0.08467768
000280 16 41 e0 3d e2 eb 59 be c0 b3 42 bd 18 be d0 3c
       0.10949914 -0.21281388 -0.047534704 0.025481269
000290 a4 9f 17 3d 8c f2 40 3d f4 87 75 bd e8 8c 0b be
       0.03701748 0.04710631 -0.059944108 -0.1362797
0002a0 c8 ad f1 bc 32 4a c6 bd c2 bd a0 3d 4a 29 b5 bd
       -0.02950181 -0.096821204 0.078486934 -0.08845766
0002b0 a2 6a f7 3d da 5b bd 3d c6 2e d9 bd 2e d7 cc 3d
       0.120808855 0.09246035 -0.106046245 0.1000198
0002c0 37 4e 5a 3e e2 1b ad bd 4f d8 30 3e e4 b5 69 be
       0.21318899 -0.08452584 0.17270015 -0.22823292
0002d0 83 a0 11 be 8c ad bb bd 0b 9e 33 3e 3b 83 59 3e
       -0.14221387 -0.09163961 0.17540757 0.21241467
0002e0 50 c9 3c 3c c4 b4 07 3d 32 72 a5 bd f0 1a 7e 3c
       0.011522606 0.033131376 -0.08078422 0.015509352
0002f0 af 60 49 3e 7d 72 22 3e 12 6a d6 3d 88 21 e0 bd
       0.19665788 0.15863986 0.1046945 -0.109438956
000300 fd b3 4a be 17 81 55 3e 40 e1 96 bb ab 86 01 be
       -0.19795223 0.20850025 -0.0046044886 -0.12649028
000310 95 78 34 be 86 bc 9e 3d c6 c8 40 be 22 3d 4c be
       -0.17624123 0.07750802 -0.18826589 -0.19945195
000320 14 cd 36 be 00 bf e6 bb 80 8a f6 ba 00 31 d0 bb
       -0.17851669 -0.007041812 -0.0018809587 -0.0063534975
000330 c0 4f dd bb dd f0 45 be 68 5d 5f be 19 ce 68 3e
       -0.0067538917 -0.19330163 -0.21812975 0.2273487
000340 e2 82 a3 3d be d1 a5 bd 00 ac 72 3b 47 c4 37 be
       0.07983948 -0.08096646 0.003702879 -0.17945968
000350 c3 bf 31 3e cd 37 3a 3e df f7 3c be 70 6c 38 3c
       0.17358308 0.18185349 -0.1845393 0.011256322
000360 34 89 67 bd 7d 0a 0d 3e a5 17 06 3e 10 ee 23 3c
       -0.05652733 0.13773532 0.13094957 0.010005489
000370 53 9d 66 3e a6 d1 da 3d 4a b1 ba bd a5 4b 4d be
       0.22520952 0.106845185 -0.091158465 -0.20048387
000380 4c 58 37 3d 00 4a 19 3a 56 ce c1 bd 40 b2 57 be
       0.04476194 0.00058475137 -0.094631836 -0.2106409
000390 91 ef 64 be 70 79 16 3c 86 97 94 3d 0a 10 aa 3d
       -0.22357012 0.009184226 0.07255463 0.083038405
0003a0 b2 d1 31 be 84 9b c7 bd 7a e8 e5 3d 86 53 96 3d
       -0.17365149 -0.09746459 0.11225982 0.073401496
0003b0 db 0b 49 3e ee c1 a8 bd 79 2b 0d 3e 02 81 b8 3d
       0.19633429 -0.08240114 0.13786115 0.09008981
0003c0 e0 53 9d bb c0 aa 3b bc e6 e0 4e be 59 08 65 3e
       -0.0048012584 -0.011454284 -0.2020298 0.22366466
0003d0 9d 09 29 3e dd ef 64 3e d3 03 12 3e cd 11 45 be
       0.16507573 0.22357126 0.14259271 -0.19245072
0003e0 80 d9 e1 bd ed 44 0a be 20 71 0f be aa a0 d3 3d
       -0.11027813 -0.13502856 -0.14007998 0.103333786
0003f0 a5 b6 38 3e 21 e0 6e 3e b0 36 28 bc 24 5c 25 3d
       0.18038423 0.23327686 -0.010266945 0.040371075

bias f4 [32]
000000 ba 41 f2 3d 40 76 c7 3b b5 c5 44 3e 80 80 2f 3b
       0.118289426 0.0060870945 0.19216044 0.0026779473
000010 ca 55 cf 3d 06 47 98 3d 3a 40 c6 3d 10 47 53 be
       0.10123785 0.07435422 0.09680219 -0.20632577
000020 86 43 a1 3d 07 08 2c 3e cd 13 e6 bd 88 80 e6 3c
       0.07874207 0.16799937 -0.112342454 0.02813746
000030 ed 33 10 3e 74 f7 19 3d 86 dd 9b bd 00 aa 0f be
       0.14082308 0.037589505 -0.076106116 -0.14029694
000040 60 1a 6b be 22 9d e9 bd 05 d3 20 be 38 78 89 bd
       -0.2295928 -0.11406924 -0.15705498 -0.06712383
000050 2a d9 f0 bd 93 45 2c 3e 13 2c 5c 3e e2 ef d0 bd
       -0.11760171 0.16823415 0.21501188 -0.10202004
000060 62 7c ec 3d b1 29 4c 3e 97 71 6b 3e d2 c0 a8 3d
       0.11547162 0.19937779 0.2299255 0.082399026
000070 a0 cd f8 3b 10 e8 f3 bd ba 2d c9 bd 32 6c a7 3d
       0.007592872 -0.11909497 -0.09823175 0.081749335

weight f4 [2, 32]
000000 b3 35 d6 bd 57 d4 19 be 12 8c a6 3d d0 e0 73 3c
       -0.10459461 -0.15022407 0.08132185 0.014885142
000010 ae 09 8a 3d 58 47 15 bd d4 75 55 bd 18 ba 76 bd
       0.067401275 -0.03644499 -0.052114323 -0.060236067
000020 d3 8c 10 be d8 1e 4c 3d 3e 81 e2 bd 60 45 ba bb
       -0.1411622 0.049834102 -0.11059807 -0.0056845397
000030 fc 83 0e be d6 60 b9 3d d0 3e 1a bc aa 80 75 bd
       -0.13917536 0.09051673 -0.00941439 -0.059937157
000040 6a a8 ab 3d 6b 6e 1d be 5f c1 29 3e a6 c3 9a 3d
       0.08381732 -0.15374152 0.16577671 0.07556848
000050 5c 6e ad bd f9 30 20 3e a0 5e b9 3b f5 c0 2e 3e
       -0.08468315 0.15643682 0.005657032 0.17065795
000060 84 a6 40 3d 70 2d 90 bc 1c ab 95 bd 0f 3f 84 bd
       0.0470338 -0.017599791 -0.07308027 -0.0645734
000070 c0 be db bc 88 45 3b 3d f0 ad 01 3c 87 fa 17 be
       -0.026824355 0.045720607 0.007915005 -0.14841662
000080 48 05 82 3c 2d 8b d3 bd c8 2d 3a 3d db 8b 88 bd
       0.015871659 -0.1032928 0.045453817 -0.066673
000090 08 22 52 bd 4c eb 59 bd 70 a4 71 3d 90 ec 51 bd
       -0.051301986 -0.053202912 0.05899471 -0.051250994
0000a0 90 13 cb bc 98 32 8a 3d 83 7a 30 3e da f8 e5 3d
       -0.024789602 0.06747931 0.17234235 0.11229105
0000b0 3c ad 68 3d 9e 5c 62 bd d9 d5 33 3e 68 ab 34 3d
       0.056805834 -0.055264108 0.17562045 0.04410878
0000c0 bf 5e 0e be c5 f2 05 3e 7e 92 ef 3d 86 e1 ab 3d
       -0.1390333 0.1308089 0.11697863 0.083926246
0000d0 2c a8 36 bd 28 c9 d8 bc 80 7d f7 3a ec 9c 55 bd
       -0.044593975 -0.026463106 0.0018882006 -0.052151605
0000e0 a8 2b c7 bd 98 de 7c 3d f0 c3 2b bc e0 5c 1c 3d
       -0.09725124 0.06173572 -0.010483727 0.03817451
0000f0 e8 da a8 3c 38 39 58 3d 30 b8 3f 3c 2d 16 ce bd
       0.020612195 0.052788943 0.011701629 -0.100628234

bias f4 [2]
000000 0d a7 20 3e 69 05 e6 bd
       0.15688725 -0.11231501

weight f4 [32]
000000 00 00 80 3f 00 00 80 3f 00 00 80 3f 00 00 80 3f
       1.0 1.0 1.0 1.0
000010 00 00 80 3f 00 00 80 3f 00 00 80 3f 00 00 80 3f
       1.0 1.0 1.0 1.0
000020 00 00 80 3f 00 00 80 3f 00 00 80 3f 00 00 80 3f
       1.0 1.0 1.0 1.0
000030 00 00 80 3f 00 00 80 3f 00 00 80 3f 00 00 80 3f
       1.0 1.0 1.0 1.0
000040 00 00 80 3f 00 00 80 3f 00 00 80 3f 00 00 80 3f
       1.0 1.0 1.0 1.0
000050 00 00 80 3f 00 00 80 3f 00 00 80 3f 00 00 80 3f
       1.0 1.0 1.0 1.0
000060 00 00 80 3f 00 00 80 3f 00 00 80 3f 00 00 80 3f
       1.0 1.0 1.0 1.0
000070 00 00 80 3f 00 00 80 3f 00 00 80 3f 00 00 80 3f
       1.0 1.0 1.0 1.0

bias f4 [32]
000000 00 00 00 00 00 00 00 00 00 00 00 00 00 00 00 00
       0.0 0.0 0.0 0.0
000010 00 00 00 00 00 00 00 00 00 00 00 00 00 00 00 00
       0.0 0.0 0.0 0.0
000020 00 00 00 00 00 00 00 00 00 00 00 00 00 00 00 00
       0.0 0.0 0.0 0.0
000030 00 00 00 00 00 00 00 00 00 00 00 00 00 00 00 00
       0.0 0.0 0.0 0.0
000040 00 00 00 00 00 00 00 00 00 00 00 00 00 00 00 00
       0.0 0.0 0.0 0.0
000050 00 00 00 00 00 00 00 00 00 00 00 00 00 00 00 00
       0.0 0.0 0.0 0.0
000060 00 00 00 00 00 00 00 00 00 00 00 00 00 00 00 00
       0.0 0.0 0.0 0.0
000070 00 00 00 00 00 00 00 00 00 00 00 00 00 00 00 00
       0.0 0.0 0.0 0.0

running_mean f4 [32]
000000 e2 58 23 3e 27 9b 37 3e 8a 2c c3 3e f6 86 93 bd
       0.15951875 0.1793028 0.38119918 -0.07203476
000010 b4 05 91 3d 9a fb dd bd 0c 9f 2b 3e 72 82 f2 3d
       0.07081166 -0.10839005 0.1675989 0.11841287
000020 5d 42 2c 3e f2 b6 b1 3e 65 bb e5 3d 4a c2 1a bd
       0.1682219 0.3470989 0.11217383 -0.037782945
000030 f0 da bb 3e 37 26 87 3c 53 bd 36 be c8 97 3a be
       0.36690474 0.016497714 -0.17845659 -0.18221962
000040 60 1e be be 87 74 d4 be 3e 05 a3 3d 7e 60 9d 3c
       -0.3713255 -0.41495153 0.07959984 0.01921105
000050 76 b0 b1 3c 5b 06 f3 3d 86 3a 2c 3e 9c b6 87 bb
       0.021690588 0.118664466 0.168192 -0.004141642
000060 75 0d 9f bc 27 6b f9 3d 3f cd 32 3e 5d 1b 94 bd
       -0.019415597 0.12178641 0.17461108 -0.07231782
000070 68 70 64 3e 10 1e ec bd 0c 15 1d be 1b 1e ff 3d
       0.22308505 -0.115291715 -0.1534006 0.12456914

running_var f4 [32]
000000 e5 d3 be 3c ad 74 17 3d a7 8e 81 3c c9 8c b4 3c
       0.023294399 0.036976505 0.015815092 0.022039788
000010 7b 18 6e 3d 18 00 2d 3d 90 26 35 3d a1 7d 61 3d
       0.058128815 0.042236418 0.04422623 0.05505145
000020 76 cb 06 3d 3f 13 3b 3d 19 97 fa 3c 50 40 2b 3c
       0.03290888 0.04567265 0.030589627 0.010452345
000030 7b e5 9a 3c 7e c8 c7 3c 61 62 5d 3d f7 fc 1f 3d
       0.018908253 0.024387594 0.0540489 0.039059605
000040 e6 f2 9a 3b a6 49 29 3d c6 37 fc 3c fb 74 ec 3c
       0.004728663 0.041330002 0.030788314 0.028864374
000050 2b 7d a1 3d e9 6c f4 3c 89 f9 9f 3c cd db 28 3c
       0.07885202 0.029837089 0.019528167 0.010306311
000060 97 b8 bd 3c f6 cd 3c 3d 02 5d a8 3d 8e fd 85 3c
       0.023159308 0.046094857 0.08220865 0.016356256
000070 4a 23 63 3c 8e 6e 23 3d a1 8b 83 3d 38 0f 5b 3c
       0.013863394 0.039900355 0.064231165 0.013370328

weight f4 [32, 16]
000000 6c d9 50 be 30 4c 46 3e 60 c1 38 be 40 48 3b 3c
       -0.2039544 0.19365 -0.18042517 0.0114308
000010 64 42 2f be 44 85 f9 bd d4 b4 82 3d 88 6a 9e 3d
       -0.1711517 -0.121836215 0.063821465 0.07735163
000020 b8 72 7d 3e 60 3a 50 bc 00 97 3c 3e e0 39 40 bd
       0.24750793 -0.01270923 0.18416977 -0.046930194
000030 c0 27 f9 3d 88 a3 56 be 3a 28 33 be 38 61 6a be
       0.12165785 -0.2096082 -0.17495814 -0.22888649
000040 b0 3c 70 3e 80 e9 47 3d ac d2 f2 3d fc 6f d0 3d
       0.2346065 0.048806667 0.11856589 0.10177609
000050 f0 17 13 bd c2 f5 71 be f0 7b 3f be 54 0a c8 3d
       -0.0359115 -0.23628905 -0.18699622 0.09767595
000060 48 3c 57 3d 72 35 32 be 24 99 6a be 36 80 3f 3e
       0.052547723 -0.174032 -0.22909981 0.18701252
000070 2c 80 07 3e a2 58 67 be 48 0a 77 3d 6c 0d bd 3d
       0.13232487 -0.22592404 0.06031254 0.09231076
000080 0a a4 3c 3e 64 e0 47 3e 94 c3 16 be de 67 46 be
       0.18421951 0.19519192 -0.14723045 -0.1937556
000090 c8 65 7e 3e a8 07 14 3d 30 e6 cd 3d c2 b4 5b be
       0.24843514 0.036140114 0.100536704 -0.21455672
0000a0 2e 72 76 be 60 31 23 3e 64 72 0f be a0 f1 23 3e
       -0.24066994 0.15936804 -0.1400848 0.16010141
0000b0 f2 c5 59 be e4 55 46 3e 18 81 21 be f4 8c b1 3d
       -0.21266916 0.19368702 -0.15771902 0.08669463
0000c0 fc 49 15 be fa 04 0b 3e a0 24 c6 bc 98 e7 09 be
       -0.14579004 0.13576117 -0.024187386 -0.13467252
0000d0 3c bd f1 3d 36 d8 20 be 50 2c 52 3d f0 7c 73 bd
       0.11803672 -0.15707478 0.05131179 -0.05944532
0000e0 d0 e8 e2 3d 30 e0 2a 3e 7e 5d 70 3e 74 c6 3f 3e
       0.11079562 0.16687083 0.23473164 0.18728048
0000f0 f0 f4 63 be b6 08 6b be 90 e6 bb bd b0 bc 3d 3d
       -0.22261405 -0.22952542 -0.09174836 0.046322525
000100 32 b8 57 3e 80 41 74 3d 5c fa da bd c8 15 bb 3d
       0.21066359 0.05963278 -0.106922835 0.09135014
000110 08 16 71 3d 44 ac 66 be 80 59 c7 bb d8 a6 e7 3d
       0.0588589 -0.22526652 -0.0060836673 0.1131112
000120 de dd 40 3e 2e b5 77 3e 72 20 33 be d8 e5 48 3d
       0.18834636 0.24190208 -0.17492846 0.04904732
000130 f0 93 2d 3e 3c e5 8e 3d 40 19 fe 3d 4e 87 5c be
       0.16950965 0.06977317 0.1240716 -0.2153599
000140 da 47 74 be a0 23 6e 3d 24 8d f7 3d 44 a9 5c be
       -0.23855534 0.058139443 0.12087467 -0.21548945
000150 7c 71 a8 bd ac 0b d9 3d 10 b8 47 bd ba 1d 3f 3e
       -0.082247704 0.10597929 -0.04875952 0.18663684
000160 28 c3 2f 3d 80 31 b6 bb 90 3d 51 be 60 93 c8 bd
       0.042910725 -0.0055601 -0.2043364 -0.097937346
000170 80 79 9f 3c 94 c4 a6 3d 30 2f 29 3d 5c d3 78 3e
       0.019467115 0.08142963 0.041304767 0.24299377
000180 e2 c9 7f 3e 7c 31 b8 bd 08 02 d6 bd b8 74 69 3e
       0.24979356 -0.089938134 -0.10449606 0.22798431
000190 18 da 2a bd 3c ed 52 3e 44 af b0 bd 6c c4 aa 3d
       -0.041711897 0.2059831 -0.08627179 0.08338246
0001a0 20 53 00 bd 74 21 21 be b0 5f 0d bd 5a 81 64 be
       -0.031329274 -0.15735418 -0.034515083 -0.22314969
0001b0 b8 b1 20 3e c8 6e 9a 3d a8 e7 5f 3e d8 df 50 3d
       0.15692794 0.07540661 0.21865714 0.050994724
0001c0 9a a6 66 be 00 be 07 3b e4 11 fc 3d ae 65 58 be
       -0.22524491 0.0020712614 0.123081 -0.21132538
0001d0 48 7b 58 3d 9e cf 05 be 8a 53 12 3e f6 cf 2d be
       0.052851945 -0.13067481 0.1428968 -0.16973862
0001e0 44 62 68 3e 8a df 58 be 8c dd 4d be 0c dd b1 bd
       0.22693735 -0.21179023 -0.20104045 -0.086847395
0001f0 38 4b 53 3e bc 29 ec 3d 94 91 09 3e 8c 38 cd bd
       0.20634162 0.11531398 0.1343444 -0.10020551
000200 08 57 84 3d 34 c4 a4 3d 48 e7 59 3d b6 ae 0c 3e
       0.064619124 0.08045235 0.053199083 0.13738522
000210 46 30 09 be 28 ab 33 bd 40 a3 b8 bb 94 86 78 3e
       -0.13397321 -0.0438644 -0.0056346953 0.24270087
000220 26 f5 40 3e 1a 43 3c 3e c0 0e 7d 3c 60 a7 65 bc
       0.18843517 0.18384972 0.015445411 -0.014016956
000230 54 aa c7 3d 9c 8d 99 bd a6 e9 29 3e 00 4f 18 3b
       0.097492844 -0.07497713 0.16593036 0.0023240447
000240 c6 c4 76 3e c0 a6 26 be f8 ca c0 3d 0c 81 07 be
       0.240985 -0.16274548 0.09413713 -0.13232821
000250 52 ee 76 3e 36 a3 13 3e 10 f5 a7 3d 20 39 7f bd
       0.2411435 0.14417729 0.08201039 -0.062310338
000260 68 a3 e0 3d a8 8e ba 3d cc 4c fb bd 78 57 08 be
       0.10968667 0.09109241 -0.12270507 -0.13314617
000270 18 ec 65 3d 88 16 de 3d 80 25 87 3c 8e 4c 79 3e
       0.05613336 0.10844141 0.016497374 0.2434561
000280 80 d9 f8 bb 50 f6 25 3e 80 06 91 3b 9a 7d 3f be
       -0.0075942874 0.16207242 0.0044258237 -0.18700257
000290 b6 de 4a be d4 f1 c3 bd ac 4a bc bd 08 0e 13 be
       -0.1981152 -0.095676094 -0.0919393 -0.14360821
0002a0 92 3b 14 3e 68 e5 2a 3e 34 86 2a 3e e0 2e 23 3e
       0.1447585 0.16689074 0.16652757 0.1593585
0002b0 fc 33 8b bd 38 99 df bd 12 77 64 3e 58 9b 3c bd
       -0.067970246 -0.10917896 0.22311047 -0.046046585
0002c0 b4 49 a8 bd 14 79 c1 3d a2 f9 42 be e4 b2 69 3e
       -0.08217183 0.09446922 -0.1904054 0.22822148
0002d0 6e 68 38 3e c4 6a 03 be 2c 1b 71 be 90 2c 5c be
       0.18008587 -0.12833697 -0.23545521 -0.21501374
0002e0 70 7a f2 bc 34 0d 94 3d 00 b4 75 3d 38 be 57 3e
       -0.029599398 0.07229081 0.059986115 0.21068656
0002f0 38 bb 86 bd 00 e2 1c 3e cc 85 02 be 4e e0 4b be
       -0.06578678 0.15320587 -0.12746352 -0.19909784
000300 84 3a 61 be b4 41 d6 bd 18 84 fe bd 2c 01 e6 bd
       -0.21994978 -0.104617506 -0.12427539 -0.11230692
000310 98 a6 78 3e 60 49 3d bc 26 24 67 be ee 2f 4e be
       0.242823 -0.0115531385 -0.22572383 -0.20135471
000320 c0 2f 8c bd 28 c9 1c 3e 08 33 4d be 20 1d 35 3d
       -0.06845045 0.1531111 -0.20038998 0.04421723
000330 c4 a2 f1 3d 00 be 41 bb 58 75 01 bd 0e 7a 4d be
       0.11798623 -0.0029562712 -0.03160605 -0.20066091
000340 d4 51 40 3e 98 c7 ff 3d 48 3e 21 be b0 f6 76 bd
       0.18781215 0.12489241 -0.15746415 -0.060293853
000350 9c 27 64 3e f4 b5 40 be a0 de ae bd 18 8f 5b bd
       0.22280735 -0.1881941 -0.08538556 -0.05360326
000360 ac e8 a1 3d 30 3c 2a bd 0e 63 1a 3e b8 67 42 be
       0.07905707 -0.041561306 0.15076849 -0.18984878
000370 5e 9a 55 be 34 fe c2 3d 0e fa 0e 3e 84 b6 75 be
       -0.20859668 0.09521142 0.13962576 -0.23995405
000380 d6 e8 0b 3e 4e 97 12 be f8 55 1c 3d 30 b3 cb 3c
       0.13663039 -0.1431553 0.038167924 0.024865717
000390 d0 ef c6 3d 7c 8b e3 bd 1c bc 06 be f6 c3 1b 3e
       0.09713709 -0.11110589 -0.13157696 0.15211472
0003a0 02 0b 70 be c0 b9 3b 3c 10 9e f2 3d 3e 34 20 be
       -0.23441699 0.0114578605 0.11846554 -0.15644929
0003b0 b0 3a 5e 3e 48 92 41 3e 46 70 0b be 78 e8 15 3e
       0.21702075 0.18903458 -0.13617048 0.14639461
0003c0 30 63 27 bd a6 96 02 be 1c 44 e5 bd e4 77 79 3e
       -0.040866077 -0.1275278 -0.111946315 0.24362141
0003d0 d8 c3 c0 bd 94 1a 1d be 70 da ed 3c d0 6f f2 3c
       -0.09412354 -0.1534217 0.029034823 0.029594332
0003e0 a0 d6 ee bd d4 01 63 3e 98 ae ca 3d 4e cf 27 be
       -0.1166203 0.22168666 0.09896582 -0.16387674
0003f0 74 80 6e be 80 b8 10 bb f8 39 40 3d 78 bb f5 3d
       -0.23291188 -0.0022082627 0.046930283 0.119986475

bias f4 [32]
000000 30 5c 5f be 44 00 06 be 5c 4d a5 3d c0 5f 58 3e
       -0.2181251 -0.13086039 0.08071396 0.21130276
000010 16 93 61 be fc a4 89 bd 24 69 c2 bd 40 78 07 3c
       -0.22028765 -0.067209214 -0.0949271 0.008268416
000020 38 4a 74 be 5e 18 73 3e 4c 80 ef bd e0 98 4a bd
       -0.23856437 0.23739764 -0.116943926 -0.0494622
000030 e0 b7 9d 3d 0c 62 8e 3d 5a b9 02 3e 6e 67 7e 3e
       0.07701087 0.06952295 0.12766019 0.24844143
000040 6c a6 fe bd 48 0d 1e be e0 c9 2a 3c c4 db dc 3d
       -0.12434086 -0.15434754 0.010424107 0.107841045
000050 98 a8 35 be 50 4e be bd b8 4e 14 bd 38 76 0b be
       -0.17740095 -0.09292281 -0.036207885 -0.13619316
000060 c4 8d 94 3d 78 ae 06 bd 6e af 48 3e 62 a8 42 be
       0.07253602 -0.03288123 0.19598171 -0.19009545
000070 70 b1 50 3d e4 47 8d 3d 10 07 9e 3c 00 e9 7d 3c
       0.050950468 0.06898478 0.019290477 0.015497446

weight f4 [2, 32]
000000 10 e2 fb bd 40 52 1e bd 36 a5 8c 3d 64 2c f9 bd
       -0.122989774 -0.03865266 0.06867449 -0.1216667
000010 28 a9 bb bc 8a a5 fe 3d 6c 53 5b 3d 2c 45 05 bd
       -0.022907808 0.12433918 0.053546354 -0.03253667
000020 0d 3c 0c 3e fa c5 ef 3d fc 39 36 bd 4c 64 96 bd
       0.13694783 0.11707683 -0.044488892 -0.07343349
000030 4f 42 29 3e a0 28 b8 3c 13 63 99 bd a0 f4 94 bc
       0.16529201 0.022480309 -0.074896 -0.018183053
000040 df be 1f 3e ef bb 2d be 49 9e c9 bd 08 cf 6a 3d
       0.15600155 -0.16966222 -0.098446436 0.057326347
000050 29 da d1 bd 68 ae f1 bd 08 1c b0 3c 80 fb 9f 3c
       -0.10246689 -0.118008435 0.021497741 0.019529104
000060 d5 cf 2b be 90 72 f8 3c 8e 7a 88 3d b8 c5 eb bc
       -0.167785 0.030328065 0.066640005 -0.028780803
000070 29 32 34 be 68 83 85 3d 30 51 7c 3d 52 6a ef 3d
       -0.1759726 0.065192044 0.061600864 0.11690201
000080 30 2c 10 3d a6 fc af 3d 12 8e 72 bd 3c 54 52 bd
       0.03519839 0.08593111 -0.05921752 -0.051349863
000090 49 1a 10 be 8f c1 0f 3e 80 de 08 3b d0 18 36 3c
       -0.14072527 0.1403868 0.0020884573 0.011114314
0000a0 8c 3d 4d 3d d4 b3 1a 3d b1 2d 2b 3e a7 86 07 be
       0.050107524 0.037769154 0.16716649 -0.1323496
0000b0 b8 93 20 be e9 63 c6 bd 8d 9a 84 bd 18 67 a9 3c
       -0.1568135 -0.09687025 -0.06474791 0.020679042
0000c0 8f e9 97 bd 12 10 ce 3d a6 49 d6 3d 36 41 af 3d
       -0.07417595 0.10061659 0.10463266 0.0855736
0000d0 bf 18 24 3e 50 a9 a1 bc 3e 2f 9d 3d c7 5d 22 3e
       0.16025065 -0.019734055 0.07675026 0.15856086
0000e0 a8 7a 57 3d 31 23 32 3e 90 58 2d be 44 70 18 3d
       0.05260721 0.17396237 -0.16928315 0.03721644
0000f0 51 7d 09 3e 9d 83 0d 3e 9e 02 97 3d b2 5f f8 bd
       0.1342671 0.13819738 0.07373546 -0.121276274

bias f4 [2]
000000 c6 3f 06 be a9 53 1d 3e
       -0.13110265 0.15363945

weight f4 [32]
000000 00 00 80 3f 00 00 80 3f 00 00 80 3f 00 00 80 3f
       1.0 1.0 1.0 1.0
000010 00 00 80 3f 00 00 80 3f 00 00 80 3f 00 00 80 3f
       1.0 1.0 1.0 1.0
000020 00 00 80 3f 00 00 80 3f 00 00 80 3f 00 00 80 3f
       1.0 1.0 1.0 1.0
000030 00 00 80 3f 00 00 80 3f 00 00 80 3f 00 00 80 3f
       1.0 1.0 1.0 1.0
000040 00 00 80 3f 00 00 80 3f 00 00 80 3f 00 00 80 3f
       1.0 1.0 1.0 1.0
000050 00 00 80 3f 00 00 80 3f 00 00 80 3f 00 00 80 3f
       1.0 1.0 1.0 1.0
000060 00 00 80 3f 00 00 80 3f 00 00 80 3f 00 00 80 3f
       1.0 1.0 1.0 1.0
000070 00 00 80 3f 00 00 80 3f 00 00 80 3f 00 00 80 3f
       1.0 1.0 1.0 1.0
